results/ADHD_3x5fold_seed0/fold3_rep2_seed2003/ckpt_best_fold_3.pt (torch, 396066 bytes, 42 tensors)

encoder_c.convs.0.weight f4 [116, 64]
-0.1675838 -0.06905619 -0.12327626 -0.060226716 0.090453714 -0.044833187 0.052563913 -0.12772115
0.06380865 -0.009955376 -0.068254285 0.0045063943 -0.049618065 -0.1307783 -0.004470584 0.06198644
0.020815684 0.003670212 -0.09436906 -0.10685689 -0.1423836 -0.023809658 -0.118569225 0.06449894
-0.07565598 0.1488518 0.12832394 0.06786322 0.07890378 0.14384507 0.007622837 0.085194245
-0.00036249773 0.12014761 -0.1154579 -0.08022406 0.14595728 0.0026810432 0.00723241 -0.020247411
0.14357808 0.013514914 -0.006664495 -0.12990479 0.121106155 0.013602434 0.12590794 0.13908398
0.042910527 0.08125912 0.08850743 0.06341076 0.02177957 0.0834024 -0.0634485 0.14101657
-0.042672794 0.023835912 0.04214929 0.025683552 -0.0070173657 0.1736769 0.107209735 0.13232046
0.15940304 -0.03593365 0.017098503 0.010960865 -0.0334253 -0.13363342 -0.029657062 -0.1420016
-0.13911192 -0.08841507 -0.005632701 0.078925796 0.038674567 -0.013302151 -0.13694817 -0.14384288
0.09349039 -0.075942904 0.10414571 -0.085571185 -0.0018329942 -0.13263224 0.09560069 0.09692034
0.050348796 -0.074486926 0.09772323 0.012211158 0.031937584 -0.041015323 -0.09968906 0.1536964
0.120814346 0.116346404 0.06386685 -0.1825164 0.05886653 0.031871114 0.026716325 -0.02992085
0.10965243 -0.027186358 -0.02957475 -0.07326529 0.030526837 -0.020241221 -0.04684353 -0.05380531
-0.01914452 0.0469383 0.051426277 0.12339239 -0.008785994 0.049937084 0.019604573 0.0462207
-0.054196373 0.08941158 0.09646049 -0.0005929907 -0.06851716 0.14061092 0.07039595 -0.10081615
-0.15578969 -0.07006852 -0.09604181 0.08960999 0.12615922 -0.02372234 -0.1208879 -0.043876406
0.08786191 -0.064370535 0.08542991 -0.022241626 -0.0996027 0.029157946 0.09457055 -0.16065882
-0.024153551 -0.12527709 0.009626515 0.09381375 0.04563884 0.12662043 0.01049501 -0.119921535
0.07590331 -0.012544709 -0.11316035 -0.024752237 0.109719865 0.10014852 -0.07169553 -0.11883388
0.056270584 0.039518103 0.16462828 0.081089765 -0.03472002 -0.135689 -0.070320815 0.010386521
-0.1261763 -0.020364111 -0.0336401 0.14426374 -0.10063232 0.10123332 0.14673899 0.05527698
-0.08338184 0.12421111 -0.11833611 -0.05897939 0.14974652 0.012565879 0.028806623 0.09962539
0.043753166 0.019027473 -0.09922745 -0.109385915 0.0018281487 0.11880865 0.037706662 -0.089093216
-0.06584889 0.05417647 -0.0735439 0.104483165 -0.027622787 0.02807814 -0.042310916 -0.001410413
0.06772952 -0.030275809 0.070889615 0.05450635 0.06251134 -0.053526297 0.12603731 -0.04211773
0.051910017 -0.13977894 0.016791712 -0.09846509 -0.074832894 0.118207246 0.00851024 0.09194216
0.068651676 -0.120894 -0.0058582467 -0.025565265 -0.003942745 -0.008000233 0.06981185 0.12785508
-0.031109923 -0.14064334 0.16697259 0.08245021 0.12937225 0.08548769 -0.174909 -0.030832708
0.022877088 0.09497101 0.102380574 -0.060223784 -0.11373126 0.07966402 -0.1333621 -0.15403423
-0.06955655 -0.09886051 -0.07517044 -0.05434886 -0.13227 -0.113232985 0.06496253 0.12240568
0.12939778 -0.14308035 -0.020899165 -0.021717781 -0.098152906 -0.07464975 -0.14403746 -0.13258229
00000000: 169b 2bbe 556d 8dbd 4478 fcbd 4ab0 76bd
00000010: cc3f b93d 01a3 37bd 424d 573d 55c9 02be
00000020: 1cae 823d e01b 23bc e7c8 8bbd 60aa 933b
00000030: 503c 4bbd bfea 05be fa7d 92bb 7ee5 7d3d
00000040: a785 aa3c f187 703b 9144 c1bd c9d7 dabd
00000050: 02cd 11be 790c c3bc 6cd4 f2bd 0518 843d
00000060: 86f1 9abd 9b6c 183e 5a67 033e dffb 8a3d
00000070: 4e98 a13d 1f4c 133e fec8 f93b 527a ae3d
00000080: 9f0d beb9 f30f f63d 3175 ecbd 834c a4bd
00000090: d375 153e 71b4 2f3b dafd ec3b e6dd a5bc
000000a0: 2206 133e a86d 5d3c d661 dabb c305 05be
000000b0: 8106 f83d bedc 5e3c 03ee 003e 086c 0e3e
000000c0: f3c2 2f3d 2e6b a63d 6243 b53d 80dd 813d
000000d0: 126b b23c e1ce aa3d 4af1 81bd a666 103e
000000e0: abc9 2ebd 8843 c33c bca4 2c3d 5066 d23c
000000f0: eef1 e5bb 5bd8 313e c790 db3d 047f 073e
00000100: 8d3a 233e 2a2f 13bd 2912 8c3c 3395 333c
00000110: f8e8 08bd 33d7 08be 5ef3 f2bc de68 11be
00000120: 5b73 0ebe f612 b5bd 8592 b8bb d9a3 a13d
00000130: 3969 1e3d 44f1 59bc 243c 0cbe 8c4b 13be
00000140: e477 bf3d f487 9bbd 594a d53d f23f afbd
00000150: 1441 f0ba bfd0 07be 4bca c33d 2c7e c63d
00000160: 8a3a 4e3d 9a8c 98bd 1e23 c83d 4f11 483c
00000170: fcd0 023d afff 27bd c729 ccbd 9762 1d3e
00000180: 836d f73d 0647 ee3d a0cc 823d 94e5 3abe
00000190: 081e 713d 498b 023d 32dc da3c 921c f5bc
000001a0: 7491 e03d edb5 debc bf46 f2bc 1d0c 96bd
000001b0: 6b13 fa3c ebd0 a5bc 00df 3fbd f562 5cbd
000001c0: f8d4 9cbc 6042 403d 5ca4 523d 26b5 fc3d
000001d0: 21f3 0fbc d48a 4c3d c599 a03c eb51 3d3d
000001e0: 04fd 5dbd 6b1d b73d 148d c53d ef72 1bba
000001f0: ba52 8cbd 4ffc 0f3e c02b 903d b378 cebd
00000200: 5587 1fbe 1680 8fbd 92b1 c4bd 7185 b73d
00000210: e22f 013e 5a55 c2bc 1394 f7bd bfb7 33bd
00000220: f2f0 b33d b3d4 83bd e0f5 ae3d 1234 b6bc
00000230: 80fc cbbd a5dc ee3c 34ae c13d bf83 24be
00000240: abdd c5bc a348 00be 88b8 1d3c 6c21 c03d
00000250: cbef 3a3d c9a8 013e 43f3 2b3c 6c99 f5bd
00000260: 3273 9b3d 5388 4dbc 9dc0 e7bd 34c5 cabc
00000270: cfb4 e03d ab1a cd3d 1bd5 92bd 2d5f f3bd
00000280: fc7b 663d bcdd 213d 5194 283e 6412 a63d
00000290: 9436 0ebd 0ff2 0abe 5c04 90bd 3a2c 2a3c
000002a0: 5c34 01be a3d2 a6bc 34ca 09bd e0b9 133e
000002b0: 5118 cebd 6a53 cf3d bf42 163e 1d6a 623d
000002c0: 19c4 aabd 6562 fe3d 345a f2bd 5f94 71bd
000002d0: 2757 193e 1ee1 4d3c defb eb3c 6508 cc3d
000002e0: 8536 333d 81df 9b3c c337 cbbd b905 e0bd
000002f0: 7e9e ef3a f351 f33d 4d72 1a3d 8176 b6bd
00000300: c8db 86bd 25e8 5d3d 2f9e 96bd 45fb d53d
00000310: 2f49 e2bc 2104 e63c 364e 2dbd 9bdd b8ba
00000320: c6b5 8a3d f904 f8bc 932e 913d 0d42 5f3d
00000330: f205 803d 643e 5bbd ed0f 013e a483 2cbd
00000340: 999f 543d 3622 0fbe c68e 893c 11a8 c9bd
00000350: fd41 99bd a416 f23d 896e 0b3c 2c4c bc3d
00000360: 4099 8c3d 4697 f7bd 89f6 bfbb 3f6e d1bc
00000370: 2432 81bb 6913 03bc 84f9 8e3d 71ec 023e
00000380: 3dda febc cf04 10be ddfa 2a3e a8db a83d
00000390: 297a 043e 2c14 af3d 581b 33be e094 fcbc
000003a0: bb68 bb3c 2980 c23d e8ac d13d 37ad 76bd
000003b0: efeb e8bd e426 a33d 1390 08be 26bb 1dbe
000003c0: aa73 8ebd 6177 cabd f6f2 99bd e99c 5ebd
000003d0: c971 07be b2e6 e7bd 130b 853d d4af fa3d
000003e0: da80 043e a883 12be ba34 abbc 7de9 b1bc
000003f0: 6404 c9bd f8e1 98bd 8e7e 13be a7c3 07be

encoder_c.convs.0.bias f4 [64]
0.01949937 0.009696594 -0.006080033 -0.006243864 -0.007166328 0.00928001 0.01739262 -0.0135298055
0.033408303 -0.015660487 -0.00552005 -0.013960496 -0.0048441566 -0.012398926 -0.0040633394 0.0015539057
0.017995438 0.03833873 0.0009491065 -0.014218628 0.017634884 -0.0020064113 -0.0048735905 0.03807825
0.02703426 0.025482109 0.02912403 0.018087909 -0.027106589 0.01945623 -0.020238362 0.018537328
-0.030375954 0.0324176 -0.010702045 -0.011265698 0.023931313 -0.006889138 0.034406368 -0.009333035
-0.0030980706 -0.011464721 -0.0136578055 0.012257927 -0.014520202 -0.0005885741 0.013648055 0.018100493
0.011619745 0.007266504 -0.027327085 0.022554273 0.017806217 0.018962272 0.011811072 0.016896378
-0.0017472679 0.0067185126 0.008227328 0.0076452005 -0.022578292 0.022327058 -0.0079455525 -0.008982129
00000000: 25bd 9f3c 77de 1e3c 033b c7bb 5499 ccbb
00000010: 84d3 eabb 2f0b 183c f87a 8e3c 1eac 5dbc
00000020: 25d7 083d 6c4a 80bc 89e1 b4bb 90ba 64bc
00000030: bbbb 9ebb dd24 4bbc c325 85bb 6cac cb3a
00000040: 2b6b 933c 1209 1d3d 76cd 783a 40f5 68bc
00000050: 0877 903c ff7d 03bb a4b2 9fbb f0f7 1b3d
00000060: f476 dd3c dbbf d03c 8595 ee3c 182d 943c
00000070: a30e debc ac62 9f3c ecca a5bc 98db 973c
00000080: fed6 f8bc 51c8 043d a157 2fbc c393 38bc
00000090: 9a0b c43c 47be e1bb b1ed 0c3d 96e9 18bc
000000a0: 0009 4bbb 86d6 3bbc fdc4 5fbc 79d5 483c
000000b0: 24e6 6dbc 8a4a 1aba 179c 5f3c 7c47 943c
000000c0: be60 3e3c db1b ee3b 0ddd dfbc bdc3 b83c
000000d0: 58de 913c c456 9b3c 3a83 413c 466a 8a3c
000000e0: 9504 e5ba f826 dc3b eacb 063c 9784 fa3b
000000f0: 1cf6 b8bc 3ce7 b63c 102e 02bc c829 13bc

encoder_c.convs.1.weight f4 [64, 64]
-0.03590178 0.038953383 0.11896248 -0.010096403 -0.1426598 -0.044211913 -0.10465507 -0.0551172
0.16261943 -0.031488463 -0.095808044 -0.12616272 0.16684732 -0.171964 -0.16687366 0.02437711
-0.10509468 0.11142152 -0.028446125 0.10322327 0.0066301282 0.055358842 0.050139762 -0.11440287
-0.12411944 0.20900944 0.0053328853 0.11559636 0.032495856 0.15234008 -0.036761392 0.1827486
0.11318214 -0.03272147 0.17611308 -0.063222215 0.08293336 -0.17656818 0.19584343 0.15606529
0.13946572 -0.12595035 0.013968505 0.016332878 0.064423084 -0.03210426 -0.12995432 -0.06882121
-0.0005654961 -0.039281968 0.09748615 -0.034711663 -0.10285972 -0.17921321 -0.14181986 -0.023657791
0.20423247 0.021394521 0.2098707 0.11283427 -0.11841931 0.102544606 0.025572976 0.09533973
-8.53377e-05 0.08638667 -0.04316388 -0.07166081 -0.083829224 -0.08593697 -0.114329986 0.032561027
0.07008604 0.12908727 -0.12662342 -0.008294579 -0.0496489 0.18649651 -0.0026051868 -0.05020158
-0.19018133 0.027504897 0.025201326 -0.113216594 -0.08343871 -0.03134887 -0.0013760787 0.1390542
0.05462652 0.058509156 -0.005126481 -0.0431896 0.07677924 0.055708874 0.0820411 0.039770935
0.005278013 0.12957329 0.047268946 0.005002646 0.16283657 0.042779595 0.065039426 0.05983613
0.12187792 0.114636764 -0.026547816 -0.059541583 0.18487754 -0.0072781392 -0.06718106 -0.083294824
-0.02341137 -0.13268866 -0.030451788 0.0064306245 0.16242146 -0.13744445 0.08890375 0.07017561
0.029703997 -0.1484244 -0.11402141 0.05112141 -0.06145882 -0.07490469 -0.015591687 0.08706167
-4.6692552e-05 0.0868713 -0.054000027 0.17673168 0.0238597 0.11343632 -0.16338454 0.09294228
0.124127455 0.072138764 0.115797885 -0.0761698 -0.01021678 -0.18641174 -0.08522052 -0.12780109
0.029418627 0.13327622 -0.0573634 -0.016690241 -0.122193664 -0.10455482 0.13043833 0.059080467
0.040325012 0.06096607 -0.0050032996 0.1681733 0.14921023 0.10619814 0.1362813 -0.011582409
0.02722809 -0.06357826 -0.15185659 0.0019887881 -0.07761168 0.0897614 -0.0051861675 0.17687999
0.15427125 0.008017895 -0.11073193 -0.022632688 0.18309376 0.0013012658 -0.09659119 -0.014476615
-0.010053752 0.06492286 -0.110483535 0.11378396 -0.04206768 0.17987491 0.1731151 -0.095619276
-0.18855372 0.12482745 -0.017889498 -0.09067951 0.033846073 -0.055553753 -0.0036474655 -0.060794804
-0.00079208915 -0.011605352 0.032123722 -0.19320364 -0.05720393 0.04582988 -0.027194742 -0.040639356
0.18917589 0.029477924 -0.09051114 -0.09766179 0.19893588 -0.11278942 -0.10010463 0.023434553
0.22278625 0.047855034 0.049175803 0.012889326 0.1250217 -0.05467346 0.07456209 -0.10842621
0.07784883 -0.13423808 -0.043873567 0.10086813 -0.05483815 -0.02608529 -0.16300476 -0.08945241
-0.07226878 -0.019316941 -0.1565814 -0.12210761 -0.12654032 0.07994513 0.04362548 0.12396429
-0.0929138 -0.010734601 -0.04435987 -0.0010985681 0.06916159 0.19523306 -0.00803021 -0.013304443
-0.041523226 0.109199725 0.1707355 0.0014963051 -0.056785986 0.15535115 -0.05634834 0.06207527
0.0061979373 -0.047743145 0.1483171 0.061256256 -0.10960573 0.006759181 -0.03504848 -0.1104622
00000000: bf0d 13bd 958d 1f3d 9aa2 f33d 626b 25bc
00000010: 6915 12be 8d17 35bd 6655 d6bd 93c2 61bd
00000020: b585 263e 0cfa 00bd 0237 c4bd cd30 01be
00000030: 06da 2a3e 5517 30be eee0 2abe 81b2 c73c
00000040: e13b d7bd f730 e43d d907 e9bc b966 d33d
00000050: 8c41 d93b f4bf 623d 5a5f 4d3d 0d4c eabd
00000060: 5532 febd 9206 563e 7cbf ae3b c9bd ec3d
00000070: 601a 053d 0aff 1b3e 1d93 16bd 7322 3b3e
00000080: 0acc e73d f306 06bd fd56 343e a67a 81bd
00000090: f7d8 a93d 4ace 34be 2e8b 483e 94cf 1f3e
000000a0: 1ad0 0e3e 21f9 00be 28dc 643c 87cc 853c
000000b0: 40f0 833d c27f 03bd bf12 05be 22f2 8cbd
000000c0: cd3d 14ba 21e6 20bd d2a6 c73d d12d 0ebd
000000d0: 1ea8 d2bd ab83 37be 3a39 11be fccd c1bc
000000e0: 5122 513e 9043 af3c 58e8 563e a715 e73d
000000f0: d385 f2bd e802 d23d 6b7e d13c 7a41 c33d
00000100: 54f7 b2b8 7feb b03d 9ccc 30bd e7c2 92bd
00000110: a8ae abbd b9ff afbd d725 eabd b65e 053d
00000120: 4589 8f3d 742f 043e 92a9 01be fce5 07bc
00000130: a55c 4bbd f1f8 3e3e c8bb 2abb 2ca0 4dbd
00000140: e5be 42be f351 e13c 0373 ce3c 1ade e7bd
00000150: eae1 aabd ac67 00bd 8a5d b4ba 3964 0e3e
00000160: 0fc0 5f3d 4ca7 6f3d 0afc a7bb 94e7 30bd
00000170: 6f3e 9d3d fd2e 643d 2a05 a83d d9e6 223d
00000180: 2ff3 ac3b dcae 043e 159d 413d 3ced a33b
00000190: a1be 263e a839 2f3d 6433 853d bb16 753d
000001a0: 229b f93d aec6 ea3d ce7a d9bc e0e1 73bd
000001b0: 8a50 3d3e 757d eebb 3996 89bd 7a96 aabd
000001c0: 34c9 bfbc 89df 07be 0776 f9bc fdb7 d23b
000001d0: d051 263e 3dbe 0cbe 2b13 b63d 3bb8 8f3d
000001e0: cc55 f33c 91fc 17be 0f84 e9bd af64 513d
000001f0: 3ebc 7bbd a167 99bd 4674 7fbc 644d b23d
00000200: bfd7 43b8 95e9 b13d 222f 5dbd 26f9 343e
00000210: 6b75 c33c 4d51 e83d 474e 27be 8658 be3d
00000220: 8936 fe3d 7dbd 933d 7127 ed3d e9fe 9bbd
00000230: 4864 27bc b8e2 3ebe 1988 aebd 4ade 02be
00000240: 55ff f03c 9079 083e e2f5 6abd f9b9 88bc
00000250: ac40 fabd d620 d6bd a091 053e 5cfe 713d
00000260: d72b 253d 8fb7 793d b8f2 a3bb 9f35 2c3e
00000270: 91ca 183e 697e d93d 538d 0b3e 25c4 3dbc
00000280: 720d df3c 5235 82bd 4b80 1bbe 5456 023b
00000290: dff2 9ebd d3d4 b73d baf0 a9bb 0720 353e
000002a0: 48f9 1d3e 7d5d 033c 6cc7 e2bd 3068 b9bc
000002b0: ee7c 3b3e 3c8f aa3a 9ad1 c5bd 532f 6dbc
000002c0: 7eb8 24bc 47f6 843d 3145 e2bd 9107 e93d
000002d0: 294f 2cbd 2131 383e 1645 313e 0ad4 c3bd
000002e0: 3a14 41be 89a5 ff3d ff8c 92bc 2eb6 b9bd
000002f0: 2ea2 0a3d 558c 63bd 510a 6fbb f903 79bd
00000300: 34a4 4fba 6024 3ebc 2a94 033d 2dd7 45be
00000310: ab4e 6abd 1db8 3b3d 82c7 debc 7475 26bd
00000320: 53b7 413e b07b f13c e85d b9bd e802 c8bd
00000330: d9b5 4b3e 24fe e6bd a803 cdbd d2f9 bf3c
00000340: 1422 643e a403 443d 916c 493d c02d 533c
00000350: b005 003e 47f1 5fbd 02b4 983d 900e debd
00000360: 356f 9f3d b575 09be c5b4 33bd f393 ce3d
00000370: f89d 60bd d1b0 d5bc b8ea 26be d332 b7bd
00000380: a701 94bd 903e 9ebc e056 20be 8e13 fabd
00000390: c993 01be 46ba a33d a2b0 323d fde0 fd3d
000003a0: 9749 bebd 2ee0 2fbc b2b2 35bd d4fd 8fba
000003b0: 97a4 8d3d 2deb 473e 2491 03bc e1fa 59bc
000003c0: 4214 2abd 1ba4 df3d 49d5 2e3e ab1f c43a
000003d0: 6c98 68bd 5f14 1f3e 84cd 66bd a342 7e3d
000003e0: 1118 cb3b 518e 43bd 70e0 173e d7e7 7a3d
000003f0: f878 e0bd 1f7c dd3b ff8e 0fbd 023a e2bd

encoder_c.convs.1.bias f4 [64]
-0.026242826 -0.0017661726 -0.013065095 -0.011646893 0.0070006093 -0.016804729 0.031722527 -0.005667209
0.017618077 0.0029478455 0.017406413 0.0029328435 0.014682775 -0.0032506029 -0.004216206 -0.0010078958
0.014156203 0.004738654 0.00025118655 -0.016185127 -0.0068783266 -0.0054336316 -0.011246816 0.008405755
-0.0068856273 0.02018993 -0.014750396 -0.008422212 0.021406598 0.0052231266 0.004496515 0.01334578
0.03641712 0.028793385 0.017908962 0.017477438 0.004027318 0.009803369 0.024329606 -0.0025217591
-0.013617628 0.0071270363 0.02442216 -0.0027267581 0.028026085 0.018481057 -0.009705762 0.0018150909
-0.005864461 -0.00078116235 0.016443659 -0.0014291109 -0.0015756857 0.017904453 -0.0059157745 0.028628053
0.013053381 0.029178385 0.020818325 -0.011193217 0.0069400985 0.009511087 0.0062846607 -0.012216091
00000000: 32fb d6bc eb7e e7ba fb0e 56bc 9cd2 3ebc
00000010: 5e65 e53b 12aa 89bc 7bef 013d ffb3 b9bb
00000020: c953 903c a430 413b e597 8e3c f334 403b
00000030: 0690 703c 1108 55bb 1928 8abb 5f1b 84ba
00000040: 6bef 673c b646 9b3b b0b1 8339 ac96 84bc
00000050: 9663 e1bb 9b0c b2bb 9144 38bc 4bb8 093c
00000060: d4a0 e1bb 5a65 a53c a5ab 71bc 51fd 09bc
00000070: e45c af3c c326 ab3b 8057 933b 42a8 5a3c
00000080: 1e2a 153d 1be0 eb3c d1b5 923c d82c 8f3c
00000090: 98f7 833b 4f9e 203c e24e c73c 1944 25bb
000000a0: 791c 5fbc ea89 e93b fb10 c83c 69b3 32bb
000000b0: f696 e53c 9665 973c eb04 1fbc 58e8 ed3a
000000c0: aa2a c0bb ebc6 4cba dab4 863c 0151 bbba
000000d0: 3d87 ceba 5cac 923c 1dd9 c1bb 6185 ea3c
000000e0: d9dd 553c 8207 ef3c 318b aa3c c163 37bc
000000f0: c469 e33b 64d4 1b3c 8eef cd3b 0026 48bc

encoder_c.convs.2.weight f4 [64, 64]
-0.010151526 -0.000116784555 0.03385245 0.0018015094 -0.0002701366 0.052346885 -0.0014445189 0.03021286
0.037561912 0.00020068258 9.586708e-05 -0.000100849706 -1.3323122e-05 0.000114202485 -0.039905474 -0.0009077638
-0.032123066 -0.07315056 2.8165745e-05 -0.0004611545 6.125067e-05 0.00019534877 -0.00053282414 -8.2743594e-05
0.0001830345 0.015959714 0.012352516 -0.0047429963 0.061417643 -0.051450297 1.1167309e-06 -0.019190146
-5.5877204e-05 1.2214e-05 0.05705309 0.015458785 -0.00033172657 4.100645e-05 -0.00016932693 0.00014758392
-0.0057901535 0.056615986 0.06596915 -0.0001829814 -0.0004457932 0.00022565815 -7.468595e-05 -2.8614428e-05
0.009239893 0.054366235 1.0814274e-05 -3.142281e-05 0.0002627016 -5.0406616e-05 0.050684858 -0.00028354072
-6.413339e-05 -0.034751035 -0.00032824485 -0.018309908 -3.7611775e-05 -0.00023287056 0.05235467 0.00021498601
-0.12981687 -0.0778662 0.06656155 -0.13923399 0.10000214 0.058634575 -0.103275426 0.055844087
0.033600356 -0.026516832 0.069856256 0.078241006 -0.014317418 0.027274203 -0.047366917 -0.047786575
-0.122905865 0.026772717 -0.0217946 0.08560517 -0.13753884 0.03140923 0.13042709 0.0637832
0.013133626 0.095165834 -0.055821765 -0.06734398 -0.015626108 0.004500482 -0.00994801 -0.08523474
0.013816875 -0.06471358 0.07330712 0.10325684 0.090230346 -0.038252003 0.10333763 -0.02122194
-0.11415085 0.043402858 -0.027028233 0.031232163 0.052312482 0.011206165 0.088065796 -0.069903664
0.104138665 -0.019658392 -0.1305743 0.04424742 -0.035207782 -0.005666523 0.07337911 -0.030707626
0.11309443 -0.06363667 0.12824681 0.005278331 -0.14331385 0.07084106 -0.008630853 0.033314735
-0.075854674 -0.044589255 -0.06187966 -0.012668831 0.004025225 -0.014383451 0.05545597 0.00078276085
0.00081122597 -0.001674605 0.032844782 -0.0019660946 -0.060792368 -0.029529003 -0.04344872 -0.01012488
0.0069572856 0.0008072337 0.042508002 0.008505375 -0.06902342 0.008206898 0.06763598 0.07705445
0.04919032 0.026557442 -0.057665724 0.0339621 0.00054888276 -0.021161979 -0.0015447884 0.023054967
-0.0029621266 0.061705343 0.020321677 0.041708227 0.0022021923 -0.00046008226 0.009036107 0.018064627
-0.010424953 -0.059453152 -0.012045242 -0.028416542 0.083660394 -0.014990937 0.0075825243 -0.030978568
0.007410905 0.050994944 -0.0062212455 0.0008464945 0.073521435 -0.012603021 0.0003725611 -0.0179232
-0.043210354 -0.07825463 0.079803936 -0.0048321886 -0.004012931 0.023237022 -0.0015618125 0.024744509
0.08714817 -0.1753753 0.06976643 -0.06707792 0.0656893 0.180373 -0.07948949 -0.04873763
-0.1779165 -0.103239015 0.07242264 0.19031718 -0.13935874 0.009151934 -0.1789125 0.113557115
0.20422909 -0.07279696 -0.025524579 -0.024882667 -0.017406687 0.17392935 0.19339924 0.053104784
0.015833542 0.051235724 -0.20005468 -0.036572434 0.095924184 -0.18672834 0.08383708 -0.055586204
0.018968718 0.16030385 0.035704654 -0.020554598 0.14190198 -0.027898183 -0.16386978 -0.051646743
-0.1919997 0.1841912 -0.13457288 -0.14652544 0.04247001 0.11897004 -0.114254475 0.056403376
-0.16462885 0.18518847 -0.1411648 0.09776603 -0.16175808 0.04534663 0.0011387895 -0.09987294
0.20644343 -0.16546486 -0.034596324 -0.008200412 -0.174522 -0.11161758 -0.10484131 -0.15107039
00000000: 9652 26bc 3bea f4b8 dea8 0a3d a020 ec3a
00000010: 1fa1 8db9 b069 563d 0356 bdba f680 f73c
00000020: 85da 193d 526e 5239 3f0c c938 467f d3b8
00000030: 6086 5fb7 fe7f ef38 ec73 23bd fff6 6dba
00000040: 7a93 03bd f6cf 95bd 7a45 ec37 1cc7 f1b9
00000050: b473 8038 89d6 4c39 39ad 0bba a186 adb8
00000060: f3ec 3f39 f2bd 823c 3562 4a3c 236b 9bbb
00000070: 1191 7b3d 8cbd 52bd 95e2 9535 a734 9dbc
00000080: b15d 6ab8 bbea 4c37 80b0 693d d846 7d3c
00000090: 96eb adb9 57fe 2b38 5a8d 31b9 c2c0 1a39
000000a0: 54bb bdbb 2ae6 673d d51a 873d b2de 3fb9
000000b0: 5ab9 e9b9 a69e 6c39 b7a0 9cb8 0409 f0b7
000000c0: ec62 173c 21af 5e3d f46e 3537 fccb 03b8
000000d0: 36bb 8939 b16b 53b8 ed9a 4f3d 31a8 94b9
000000e0: 5a7f 86b8 1a57 0ebd 4718 acb9 a9fe 95bc
000000f0: 56c1 1db8 b72e 74b9 da71 563d de6d 6139
00000100: b7ee 04be 5078 9fbd 6c51 883d 5b93 0ebe
00000110: eccd cc3d cf2a 703d 1182 d3bd c5bc 643d
00000120: 87a0 093d d439 d9bc cc10 8f3d d23c a03d
00000130: 9b93 6abc 266e df3c d003 42bd dbbb 43bd
00000140: 12b6 fbbd 7552 db3c 978a b2bc c351 af3d
00000150: fbd6 0cbe f7a6 003d ae8e 053e c4a0 823d
00000160: 6c2e 573c 4ee6 c23d 5da5 64bd a4eb 89bd
00000170: 5302 80bc c878 933b fafc 22bc 8d8f aebd
00000180: 2d60 623c 8e88 84bd 0b22 963d 5278 d33d
00000190: b0ca b83d 22ae 1cbd aea2 d33d a2d9 adbc
000001a0: ecc7 e9bd 32c7 313d 506a ddbc 98da ff3c
000001b0: 9d45 563d 109a 373c d75b b43d a729 8fbd
000001c0: a746 d53d a30a a1bc 45b5 05be c83c 353d
000001d0: 0936 10bd 3dae b9bb c947 963d 8f8e fbbc
000001e0: 0d9e e73d f153 82bd 2253 033e daf5 ac3b
000001f0: dec0 12be 1e15 913d 6c68 0dbc 0875 083d
00000200: b259 9bbd 39a3 36bd 8775 7dbd ee90 4fbc
00000210: 09e6 833b 91a8 6bbc cd25 633d 3132 4d3a
00000220: 74a8 543a 6b7e dbba 4088 063d 98d9 00bb
00000230: 6b01 79bd cfe6 f1bc 49f7 31bd d3e2 25bc
00000240: f1f9 e33b 899c 533a df1c 2e3d 215a 0b3c
00000250: 275c 8dbd 3a76 063c bc84 8a3d b9ce 9d3d
00000260: ca7b 493d fe8e d93c e532 6cbd d81b 0b3d
00000270: e6e2 0f3a e35b adbc 7f7a caba c5dd bc3c
00000280: 3d20 42bb bebe 7c3d a579 a63c 3fd6 2a3d
00000290: a852 103b 3237 f1b9 2e0c 143c 45fc 933c
000002a0: 6ccd 2abc 2685 73bd 6859 45bc cfc9 e8bc
000002b0: 2456 ab3d 8c9c 75bc d376 f83b c4c6 fdbc
000002c0: 2dd7 f23b 13e0 503d 97db cbbb 49e7 5d3a
000002d0: 6892 963d e77c 4ebc 4e54 c339 add3 92bc
000002e0: 57fd 30bd f743 a0bd 3f70 a33d 5657 9ebb
000002f0: e87e 83bb 915b be3c bbb5 ccba ffb4 ca3c
00000300: bd7a b23d 9595 33be b4e1 8e3d 2660 89bd
00000310: 1d88 863d b3b3 383e 63cb a2bd 1ca1 47bd
00000320: be2f 36be fa6e d3bd 5252 943d 82e2 423e
00000330: 0fb4 0ebe fef1 153c d734 37be a290 e83d
00000340: 6e21 513e 9316 95bd ec18 d1bc bcd6 cbbc
00000350: 7898 8ebc 891a 323e 730a 463e 6784 593d
00000360: 58b5 813c 8ddc 513d 22db 4cbe facc 15bd
00000370: e673 c43d b735 3fbe c6b2 ab3d 5cae 63bd
00000380: 4964 9b3c b126 243e 0b3f 123d 1e62 a8bc
00000390: c14e 113e bb8a e4bc 7bcd 27be 898b 53bd
000003a0: 929b 44be 9e9c 3c3e 79cd 09be c40a 16be
000003b0: 09f5 2d3d 90a6 f33d 40fe e9bd 3a07 673d
000003c0: 7794 28be 0ca2 3d3e 818d 10be 8e39 c83d
000003d0: e9a3 25be 63bd 393d 6f43 953a 2f8a ccbd
000003e0: e865 533e 9f6f 29be e0b4 0dbd 055b 06bc
000003f0: e5b5 32be c297 e4bd 0ab7 d6bd 32b2 1abe

encoder_c.convs.2.bias f4 [64]
0.011601214 -0.012241545 0.011808122 -0.012412725 -0.011518702 -0.011839417 -0.0001488307 0.005460742
-0.012003919 -0.0019112524 -0.011554996 -0.013136643 4.12553e-05 0.0117148245 0.011858638 0.011882912
-0.011831322 -0.013421583 -0.0064431783 -0.011921044 0.0113981115 0.011549812 -0.012250003 -0.0119552445
0.012169544 -0.011704325 0.01225896 -0.012270328 -0.012915074 0.013946202 0.007035387 0.011699237
0.0059438758 0.011704967 0.012204079 -0.011846934 -0.012141828 -0.0099069765 -0.011579047 0.012033285
0.013126314 -0.015941504 -0.009344868 -0.011480427 -0.012540152 0.0116823185 0.011404391 -0.0017974428
0.012569093 0.00095830247 0.011668066 -0.011036865 0.014142907 -0.014851449 0.008987081 -0.012034005
-0.011305753 0.012255845 -0.012076469 0.01457507 0.0120289475 -0.0118681155 0.013974805 0.010878945
00000000: 0513 3e3c c390 48bc da76 413c be5e 4bbc
00000010: f0b8 3cbc 1dfa 41bc 700f 1cb9 06f0 b23b
00000020: 16ac 44bc fd82 faba 2a51 3dbc 133b 57bc
00000030: 8b09 2d38 89ef 3f3c bc4a 423c 8cb0 423c
00000040: 29d8 41bc 33e6 5bbc 4c21 d3bb 7c50 43bc
00000050: 25bf 3a3c 6c3b 3d3c 3db4 48bc eedf 43bc
00000060: c462 473c 7fc3 3fbc ced9 483c 7c09 49bc
00000070: bf99 53bc 9c7e 643c 1b89 e63b 28ae 3f3c
00000080: d8c4 c23b 31c6 3f3c 9ef3 473c a519 42bc
00000090: 85ee 46bc df50 22bc 0bb6 3dbc 4127 453c
000000a0: c00f 573c c297 82bc 381b 19bc 6718 3cbc
000000b0: 3675 4dbc 3267 3f3c 7cd9 3a3c 2c98 ebba
000000c0: 99ee 4d3c 9736 7b3a 6a2b 3f3c f8d3 34bc
000000d0: a7b7 673c 7e53 73bc 8d3e 133c 462a 45bc
000000e0: c43b 39bc bdcc 483c 62dc 45bc 46cc 6e3c
000000f0: 1015 453c 7c72 42bc 95f6 643c 9a3d 323c

encoder_b.convs.0.weight f4 [116, 64]
-0.021555185 0.09943265 0.09154935 -0.09992983 -0.15880698 -0.12019423 -0.079805404 -0.15888968
0.1661858 -0.17265557 0.1411232 0.10068439 0.1751741 -0.14580186 0.031725712 -0.023556521
0.119546905 0.15881327 0.11855488 -0.1635974 -0.10370335 0.13485926 -0.15581995 -0.13894029
0.10167204 0.03839082 0.06645523 -0.1027109 -0.08582208 -0.0885124 -0.11348065 0.10245017
0.17448911 -0.08306482 0.16546203 -0.106608525 -0.020373285 0.13861756 0.17312197 -0.15688576
0.05249596 -0.17148823 0.15636182 0.022854943 0.15848199 -0.17749506 0.11179177 0.13674168
-0.12953119 -0.0023595807 -0.05676209 0.10685052 -0.15889569 0.040969763 -0.114219144 -0.03316931
-0.046088587 0.083799176 0.026241438 -0.024224868 -0.14389278 0.1433768 -0.019525098 -0.14433506
-0.1374739 0.042069897 -0.12340669 -0.14884132 -0.102491066 0.09279757 -0.01044835 0.097513646
-0.17302737 0.021577341 -0.17988443 0.0033252514 -0.08013037 0.0066558355 0.12966628 0.1438024
0.16815867 0.17695431 -0.1570697 -0.04179007 0.16291164 0.026196038 0.16676234 -0.16512403
-0.05062423 -0.08495052 -0.02273095 -0.038923223 0.14992683 0.055153757 -0.14903884 0.016384084
0.12208766 -0.13337387 -0.024694612 0.08295939 -0.12978852 -0.1494671 -0.12627114 -0.093291126
-0.016592087 -0.16664383 -0.109721065 -0.035912946 -0.14330806 0.04516501 0.043541025 0.06789167
-0.16353953 0.11413324 0.1055426 -0.05956356 0.12062245 0.15090798 -0.04815313 0.10653657
0.051374562 -0.05742158 0.03854576 0.13362767 0.14806797 0.015524058 0.10842806 0.17188199
0.03120186 0.09946351 -0.06968507 -0.17406794 -0.1147132 -0.10771646 0.07646906 -0.18209083
0.09635701 0.12277513 0.10628917 -0.087675355 -0.11010865 -0.07578789 -0.16663653 0.026948525
-0.12226819 -0.06032473 0.12827253 0.045914166 -0.08671621 0.17747451 -0.12988347 0.17701034
-0.14723767 -0.07150554 -0.07887687 -0.051016055 0.010826661 -0.015202095 0.0133433165 0.1614991
0.122115865 -0.1620505 0.13956273 -0.06511645 -0.13160446 0.07944533 -0.024047203 0.11849072
0.045771107 0.011788653 0.10070308 -0.14799422 0.17616229 -0.10348361 0.0844702 0.009198129
0.069636144 -0.09041512 -0.08060582 0.09954595 -0.059991773 -0.1763763 0.120440625 -0.1117818
0.09014312 0.14303799 0.12296647 0.037945233 0.008678044 0.057285853 -0.13049218 -0.08316365
-0.029984266 -0.052917626 0.02370561 -0.0068966816 -0.032846104 -0.16741945 -0.13509838 0.028096126
-0.06572784 -0.018106943 -0.1014816 0.09522434 -0.032299228 0.07061058 0.07357428 0.078075014
0.18224384 -0.10666215 0.096050695 0.11620174 0.01930643 0.018582977 0.1786104 0.09007903
0.07381376 -0.047897026 -0.16925003 0.13541052 0.08387483 0.16244046 0.074727476 0.013302617
-0.16426224 -0.069490686 0.0850137 0.008626941 -0.12912935 0.06029959 0.17044097 0.12377935
0.003235734 -0.11036521 0.1643652 0.020917028 0.06686255 0.12796837 0.09807391 0.17305559
0.0041985973 -0.1535723 0.09080161 -0.03237821 -0.017500822 0.073160104 0.16486053 -0.068536356
-0.06000044 0.12271332 0.1584932 0.10551599 -0.16673172 0.053246923 -0.074101485 -0.034700293
00000000: 8094 b0bc 58a3 cb3d 3a7e bb3d 03a8 ccbd
00000010: 4c9e 22be 6428 f6bd 0471 a3bd fab3 22be
00000020: 9c2c 2a3e 9fcc 30be 9a82 103e 9e33 ce3d
00000030: d760 333e 154d 15be d2f2 013d 9bf9 c0bc
00000040: 02d5 f43d f29f 223e e7cc f23d 1486 27be
00000050: 6c62 d4bd 8c18 0a3e 448f 1fbe 5d46 0ebe
00000060: 6e39 d03d b13f 1d3d ae19 883d 185a d2bd
00000070: 7dc3 afbd fd45 b5bd 8b68 e8bd 65d1 d13d
00000080: 46ad 323e e31d aabd e16e 293e 9255 dabd
00000090: e0e5 a6bc c3f1 0d3e e346 313e a9a6 20be
000000a0: 0106 573d 9c9a 2fbe 501d 203e 4a3a bb3c
000000b0: 1a49 223e 44c1 35be 15f3 e43d 0306 0c3e
000000c0: d3a3 04be 32a3 1abb 5e7f 68bd 72d4 da3d
000000d0: 8db5 22be e9cf 273d baeb e9bd 8bdc 07bd
000000e0: 63c7 3cbd e79e ab3d 49f8 d63c 3b73 c6bc
000000f0: a158 13be 5ed1 123e 19f3 9fbc 92cc 13be
00000100: f5c5 0cbe 7c51 2c3d a6bc fcbd dc69 18be
00000110: d6e6 d1bd a70c be3d 8e2f 2bbc 3cb5 c73d
00000120: 162e 31be f7c2 b03c a033 38be 76ec 593b
00000130: 641b a4bd 3219 da3b 3dc7 043e f040 133e
00000140: c931 2c3e 8333 353e e1d6 20be 102c 2bbd
00000150: 4fd2 263e 1399 d63c bfc3 2a3e 4616 29be
00000160: 5a5b 4fbd 8afa adbd 4236 babc f56d 1fbd
00000170: 6b86 193e e8e8 613d a39d 18be ea37 863c
00000180: 1809 fa3d 2993 08be 5b4c cabc 9de6 a93d
00000190: 48e7 04be e70d 19be 394d 01be 6b0f bfbd
000001a0: 21ec 87bc aea4 2abe 70b5 e0bd 7419 13bd
000001b0: 59bf 12be f2fe 383d 1358 323d ca0a 8b3d
000001c0: e876 27be b0be e93d b826 d83d ebf8 73bd
000001d0: e708 f73d 9f87 1a3e 373c 45bd d82f da3d
000001e0: 226e 523d e432 6bbd 29e2 1d3d b1d5 083e
000001f0: 219f 173e 9e58 7e3c 880f de3d d501 303e
00000200: 0b9b ff3c 86b3 cb3d 0cb7 8ebd de3e 32be
00000210: c1ee eabd 739a dcbd cf9b 9c3d 0576 3abe
00000220: d356 c53d 8771 fb3d 23ae d93d 238f b3bd
00000230: a580 e1bd ae36 9bbd c4a2 2abe 27c3 dc3c
00000240: bf67 fabd 1017 77bd e059 033e 7e10 3c3d
00000250: 4598 b1bd e1bb 353e 2c00 05be 3342 353e
00000260: 79c5 16be 7f71 92bd 328a a1bd 36f6 50bd
00000270: 4f62 313c 3512 79bc ed9d 5a3c 0560 253e
00000280: e217 fa3d 91f0 25be 88e9 0e3e c65b 85bd
00000290: 52c3 06be 3cb4 a23d a4fe c4bc 43ab f23d
000002a0: 7c7a 3b3d 3225 413c 6b3d ce3d cc8b 17be
000002b0: e363 343e 37ef d3bd b6fe ac3d c0b3 163c
000002c0: 659d 8e3d 902b b9bd aa14 a5bd bfde cb3d
000002d0: efb9 75bd fd9b 34be 93a9 f63d dbed e4bd
000002e0: f59c b83d 8d78 123e d8d5 fb3d 766c 1b3d
000002f0: 5b2e 0e3c 92a4 6a3d be9f 05be b451 aabd
00000300: 90a1 f5bc 27c0 58bd 4432 c23c 8ffd e1bb
00000310: a389 06bd 0170 2bbe 3b57 0abe d929 e63c
00000320: 519c 86bd 0355 94bc 96d5 cfbd fb04 c33d
00000330: 324c 04bd 489c 903d 1dae 963d cbe5 9f3d
00000340: 219e 3a3e af71 dabd 3ab6 c43d 2efb ed3d
00000350: 8528 9e3c 543b 983c a5e5 363e 5b7b b83d
00000360: ab2b 973d ac2f 44bd e14f 2dbe 0ea9 0a3e
00000370: 91c6 ab3d cb56 263e b80a 993d 38f3 593c
00000380: 5c34 28be 2251 8ebd aa1b ae3d 0358 0d3c
00000390: 7c3a 04be b4fc 763d 1488 2e3e 0780 fd3d
000003a0: 9c0e 543b 2807 e2bd 5a4f 283e 305a ab3c
000003b0: 3cef 883d 240a 033e f9da c83d 7c35 313e
000003c0: 6394 893b 0f42 1dbe 32f6 b93d 049f 04bd
000003d0: e25d 8fbc f7d4 953d 33d1 283e ca5c 8cbd
000003e0: 05c3 75bd 1f51 fb3d 0b4c 223e c418 d83d
000003f0: b8bb 2abe 7219 5a3d 85c2 97bd e521 0ebd

encoder_b.convs.0.bias f4 [64]
0.0 0.0 0.0 0.0 0.0 0.0 0.0 0.0
0.0 0.0 0.0 0.0 0.0 0.0 0.0 0.0
0.0 0.0 0.0 0.0 0.0 0.0 0.0 0.0
0.0 0.0 0.0 0.0 0.0 0.0 0.0 0.0
0.0 0.0 0.0 0.0 0.0 0.0 0.0 0.0
0.0 0.0 0.0 0.0 0.0 0.0 0.0 0.0
0.0 0.0 0.0 0.0 0.0 0.0 0.0 0.0
0.0 0.0 0.0 0.0 0.0 0.0 0.0 0.0
00000000: 0000 0000 0000 0000 0000 0000 0000 0000
00000010: 0000 0000 0000 0000 0000 0000 0000 0000
00000020: 0000 0000 0000 0000 0000 0000 0000 0000
00000030: 0000 0000 0000 0000 0000 0000 0000 0000
00000040: 0000 0000 0000 0000 0000 0000 0000 0000
00000050: 0000 0000 0000 0000 0000 0000 0000 0000
00000060: 0000 0000 0000 0000 0000 0000 0000 0000
00000070: 0000 0000 0000 0000 0000 0000 0000 0000
00000080: 0000 0000 0000 0000 0000 0000 0000 0000
00000090: 0000 0000 0000 0000 0000 0000 0000 0000
000000a0: 0000 0000 0000 0000 0000 0000 0000 0000
000000b0: 0000 0000 0000 0000 0000 0000 0000 0000
000000c0: 0000 0000 0000 0000 0000 0000 0000 0000
000000d0: 0000 0000 0000 0000 0000 0000 0000 0000
000000e0: 0000 0000 0000 0000 0000 0000 0000 0000
000000f0: 0000 0000 0000 0000 0000 0000 0000 0000

encoder_b.convs.1.weight f4 [64, 64]
-0.12821305 -0.17003468 -0.07320889 0.022296963 0.15136075 -0.17069305 0.16991499 -0.049965777
0.06659591 -0.00064350996 0.018187745 -0.064697646 0.1379016 -0.17507383 -0.20617397 -0.14758936
-0.09966592 -0.08971924 0.042837095 -0.21028054 -0.062292784 -0.14366904 0.075248025 -0.105663545
0.19080493 -0.13211064 0.067614 0.17968518 -0.17014359 -0.1850876 0.10236364 -0.1392825
0.07006753 -0.21099722 0.037749797 -0.13987012 0.04057917 -0.17359947 0.1980594 0.06224478
0.15849395 -0.058652293 -0.14388756 -0.0425081 -0.108160414 -0.04128274 0.18016195 0.13855088
-0.12296651 -0.012888911 0.072916314 -0.07485565 -0.015986525 0.12430182 0.118688546 -0.10158847
0.21479416 -0.047169697 0.15176594 -0.16294274 -0.10361429 0.032691147 -0.0388506 -0.12328815
-0.090672985 0.12821254 0.18130468 -0.08879485 -0.16903943 0.12731491 -0.1518213 -0.073220894
-0.16576181 0.06807034 -0.14667776 -0.15441848 -0.088487506 -0.16961206 -0.03933675 0.1920931
-0.0099040605 0.1674977 0.18829912 -0.12675346 -0.12988304 -0.06599599 -0.19492705 -0.14305164
-0.060945578 0.1633448 0.06207942 0.11025424 0.052540407 0.09844174 0.015313203 0.1297081
-0.020501211 0.20584174 0.04797219 0.11850572 -0.15391363 -0.10243724 0.12973428 0.04541222
0.016910583 0.13798083 -0.13956447 -0.13410752 0.16532455 -0.13309188 -0.03487843 0.013165486
0.06622565 0.16086717 -0.16947985 -0.21607555 -0.20702721 -0.079276904 -0.18065673 0.1343884
0.11166822 -0.068457946 -0.019019844 -0.07635564 0.1877359 -0.02416315 -0.14005025 -0.01085455
-0.17100649 0.005447161 -0.011920123 -0.13029736 -0.1344432 0.14709368 0.059094723 0.18671934
0.00049216265 0.042838823 0.18341301 -0.20055774 0.14078185 0.055165086 -0.14882351 -0.18320945
0.12543754 0.033286832 0.13164955 -0.20397636 -0.08634537 -0.20435452 -0.14146276 -0.073194645
-0.2132149 0.021461688 0.0493632 -0.21179879 0.04467587 -0.00564863 -0.039378226 -0.03328833
-0.043619797 -0.118502155 0.16550359 -0.06319767 -0.08532976 0.09283856 -0.101055555 -0.026531719
-0.046520017 -0.15199915 -0.04660346 -0.06913547 0.1826779 0.014705595 0.026663039 -0.10964173
0.11978574 0.08234083 -0.023304414 -0.04529992 0.19744116 0.155112 -0.19754602 -0.17742322
-0.046857063 -0.20268181 0.20982873 -0.16445526 0.20541528 0.1419608 0.11473256 -0.08895572
0.05572882 -0.024885096 0.18133612 0.016945168 -0.044577897 -0.10579311 -0.10527387 0.043217555
-0.05069869 -0.016737582 -0.2035254 0.14011328 0.0005144879 0.12779094 0.06398561 0.17795447
-0.13460469 0.057831008 0.066438735 -0.05336448 -0.016145691 -0.03729013 0.027040504 0.2016747
0.13712505 0.20494539 -0.1919231 -0.07980667 -0.012839512 0.07087271 -0.20282198 0.059437163
0.16274716 -0.17570241 0.14202735 0.17173903 -0.0032910297 0.12585922 -0.021414818 0.18996626
0.0798078 0.028230505 0.16114686 -0.16644014 0.09254733 0.20436008 0.12733978 0.15415229
-0.1814676 -0.18674678 0.06951575 -0.1253698 0.01858947 0.08116724 -0.15574864 0.094849415
-0.105706155 0.088382155 0.1721451 -0.11164414 -0.21646652 0.15344201 0.08272119 -0.17469709
00000000: 484a 03be 921d 2ebe 8bee 95bd 1fa8 b63c
00000010: 50fe 1a3e 29ca 2ebe 32fe 2d3e eaa8 4cbd
00000020: 7063 883d 39b1 28ba 77fe 943c 3380 84bd
00000030: 1436 0d3e 8e46 33be 451f 53be aa21 17be
00000040: a51d ccbd b9be b7bd f375 2f3d c853 57be
00000050: b826 7fbd fa1d 13be a31b 9a3d 2166 d8bd
00000060: 5e62 433e 0348 07be 3579 8a3d 64ff 373e
00000070: 1f3a 2ebe 9b87 3dbe 07a4 d13d 12a0 0ebe
00000080: 917f 8f3d a80f 58be 889f 1a3d 1d3a 0fbe
00000090: 5836 263d 0fc4 31be 15d0 4a3e 62f4 7e3d
000000a0: 3d4c 223e 633d 70bd 4357 13be f91c 2ebd
000000b0: 3583 ddbd 1718 29bd 607c 383e 48e0 0d3e
000000c0: ded5 fbbd 032c 53bc 2655 953d eb4d 99bd
000000d0: 2cf6 82bc f491 fe3d fb12 f33d 9e0d d0bd
000000e0: 00f3 5b3e 0335 41bd 8868 1b3e 76da 26be
000000f0: bb33 d4bd 27e7 053d cf21 1fbd 7f7e fcbd
00000100: c2b2 b9bd 264a 033e efa7 393e 13da b5bd
00000110: ac18 2dbe d75e 023e 0b77 1bbe d6f4 95bd
00000120: 77bd 29be 7668 8b3d b232 16be e11f 1ebe
00000130: f038 b5bd c9ae 2dbe 921f 21bd 0eb4 443e
00000140: a444 22bc 8484 2b3e 7cd1 403e a9cb 01be
00000150: 0f00 05be e828 87bd f59a 47be 217c 12be
00000160: 12a2 79bd dc43 273e fd46 7e3d facc e13d
00000170: 9c34 573d d39b c93d 3be4 7a3c 33d2 043e
00000180: 28f2 a7bc 2dc8 523e 7d7e 443d 20b3 f23d
00000190: 899b 1dbe 9eca d1bd 10d9 043e 2a02 3a3d
000001a0: 1088 8a3c d94a 0d3e fde9 0ebe 7b53 09be
000001b0: d74a 293e 3d49 08be afdc 0ebd 0db4 573c
000001c0: 50a1 873d 5dba 243e 208c 2dbe e942 5dbe
000001d0: f1fe 53be ee5b a2bd 14fe 38be 1d9d 093e
000001e0: 4fb2 e43d ae33 8cbd 81cf 9bbc 5960 9cbd
000001f0: d73d 403e ccf1 c5bc 5569 0fbe 48d7 31bc
00000200: 531c 2fbe 197e b23b 9f4c 43bc ac6c 05be
00000210: 7aab 09be ba9f 163e 4f0d 723d 5b33 3f3e
00000220: 7a04 013a c377 2f3d 9fd0 3b3e 025f 4dbe
00000230: 1e29 103e c9f4 613d 3165 18be 429b 3bbe
00000240: b372 003e c657 083d 24cf 063e 2edf 50be
00000250: d7d5 b0bd 5042 51be 9ddb 10be 13e7 95bd
00000260: 0255 5abe 6cd0 af3c 1131 4a3d c8e1 58be
00000270: 0cfe 363d 2518 b9bb 104b 21bd 5859 08bd
00000280: acaa 32bd 42b1 f2bd c679 293e c86d 81bd
00000290: 5fc1 aebd 2522 be3d 37f6 cebd 0c59 d9bc
000002a0: c68b 3ebd aaa5 1bbe 45e3 3ebd e696 8dbd
000002b0: ea0f 3b3e bcef 703c 726c da3c d88b e0bd
000002c0: 3a52 f53d 4fa2 a83d e6e8 bebc 698c 39bd
000002d0: 042e 4a3e aed5 1e3e 8149 4abe 6fae 35be
000002e0: 31ed 3fbd d28b 4fbe 58dd 563e f666 28be
000002f0: 6258 523e 2c5e 113e e8f8 ea3d 6b2e b6bd
00000300: e743 643d d4db cbbc 2db0 393e 98d0 8a3c
00000310: 5097 36bd 0faa d8bd d499 d7bd e404 313d
00000320: 6ea9 4fbd 411d 89bc f668 50be db79 0f3e
00000330: b3de 063a a1db 023e e30a 833d b239 363e
00000340: d0d5 09be 35e0 6c3d 0811 883d b794 5abd
00000350: f843 84bc 89bd 18bd 0c84 dd3c d083 4e3e
00000360: 826a 0c3e 34dd 513e 7d87 44be ae71 a3bd
00000370: d15c 52bc b625 913d 91b0 4fbe 6274 733d
00000380: 31a7 263e 55eb 33be 9e6f 113e 5bdc 2f3e
00000390: 51ae 57bb 3de1 003e 216e afbc 8486 423e
000003a0: 4672 a33d a943 e73c af03 253e 496f 2abe
000003b0: 7489 bd3d c543 513e 5c65 023e 19da 1d3e
000003c0: a4d2 39be 8c3a 3fbe 465e 8e3d f160 00be
000003d0: f248 983c 033b a63d 927c 1fbe 6940 c23d
000003e0: 787c d8bd b401 b53d ce46 303e afa5 e4bd
000003f0: 66a9 5dbe e71f 1d3e ba69 a93d cbe3 32be

encoder_b.convs.1.bias f4 [64]
0.0 0.0 0.0 0.0 0.0 0.0 0.0 0.0
0.0 0.0 0.0 0.0 0.0 0.0 0.0 0.0
0.0 0.0 0.0 0.0 0.0 0.0 0.0 0.0
0.0 0.0 0.0 0.0 0.0 0.0 0.0 0.0
0.0 0.0 0.0 0.0 0.0 0.0 0.0 0.0
0.0 0.0 0.0 0.0 0.0 0.0 0.0 0.0
0.0 0.0 0.0 0.0 0.0 0.0 0.0 0.0
0.0 0.0 0.0 0.0 0.0 0.0 0.0 0.0
00000000: 0000 0000 0000 0000 0000 0000 0000 0000
00000010: 0000 0000 0000 0000 0000 0000 0000 0000
00000020: 0000 0000 0000 0000 0000 0000 0000 0000
00000030: 0000 0000 0000 0000 0000 0000 0000 0000
00000040: 0000 0000 0000 0000 0000 0000 0000 0000
00000050: 0000 0000 0000 0000 0000 0000 0000 0000
00000060: 0000 0000 0000 0000 0000 0000 0000 0000
00000070: 0000 0000 0000 0000 0000 0000 0000 0000
00000080: 0000 0000 0000 0000 0000 0000 0000 0000
00000090: 0000 0000 0000 0000 0000 0000 0000 0000
000000a0: 0000 0000 0000 0000 0000 0000 0000 0000
000000b0: 0000 0000 0000 0000 0000 0000 0000 0000
000000c0: 0000 0000 0000 0000 0000 0000 0000 0000
000000d0: 0000 0000 0000 0000 0000 0000 0000 0000
000000e0: 0000 0000 0000 0000 0000 0000 0000 0000
000000f0: 0000 0000 0000 0000 0000 0000 0000 0000

encoder_b.convs.2.weight f4 [64, 64]
0.18174888 0.066436745 -0.006312633 0.1928884 0.0070638466 -0.14619923 -0.1690449 0.19928262
-0.07382721 -0.19859064 -0.092764854 0.02188117 0.19338554 0.0856586 0.082931355 0.18715285
-0.20672013 -0.09677966 -0.19739099 -0.075145565 0.08991891 -0.17496563 -0.1494197 -0.04189004
-0.11268483 -0.166516 -0.015012522 -0.17183396 0.1818815 -0.16335294 -0.034758467 0.07500103
0.106878325 0.04765832 -0.09516452 0.12988347 0.19986339 -0.04504709 -0.1329299 -0.16290225
-0.067023784 -0.07476247 -0.10403094 0.14893502 -0.13565354 -0.0029000405 0.13561717 0.06551563
0.15336417 -0.12717004 0.20506321 -0.07938845 0.039418384 0.18722905 0.13769282 -0.018372541
0.19179782 -0.06638125 0.19056806 -0.024742806 -0.05713668 0.13564405 0.07428254 -0.11737337
0.19349304 0.20595996 0.09211773 0.031409677 -0.055946007 -0.12466253 0.006850014 0.068563454
0.17087097 0.18069749 0.15079908 0.024295192 -0.14014617 0.007939023 0.093921065 0.02716075
0.094328575 -0.13417792 -0.04924561 0.08130623 0.1317557 0.051735125 0.17846145 -0.089210175
0.03978834 -0.05142523 0.075857446 -0.08602633 -0.21532066 -0.0005987562 -0.19021499 0.14430672
-0.07683945 -0.06254162 -0.2011632 -0.08063549 -0.15127987 0.19967534 -0.1876368 -0.117923684
-0.12581645 0.13559428 0.1510714 0.15793842 -0.15952098 -0.043430507 -0.17905718 -0.04167654
-0.15008153 0.07311985 -0.048113886 0.12819661 0.15678853 -0.20953813 -0.050510537 0.13669
-0.12695883 0.18165883 0.09623177 -0.12524007 0.14309996 -0.20337242 0.02385599 0.212437
-0.02317405 0.0017578639 -0.14410496 -0.04108349 -0.0349205 0.026125297 -0.19358693 -0.06372919
-0.12335071 -0.054403886 0.20381463 -0.005173889 0.005301053 -0.12720452 -0.16530535 0.1770124
-0.087035306 0.13184622 0.015195951 -0.19667113 0.030460916 -0.13453072 -0.19625786 0.17877086
-0.0012505768 -0.05105138 0.0444026 0.114476144 0.17214958 0.060098197 0.038481135 0.13490938
0.16782938 0.06829289 -0.14365414 0.17863746 0.033788826 0.14524722 -0.16998272 0.06856203
-0.16047822 -0.039303403 -0.08431371 0.14342462 -0.18505795 -0.14920375 0.16100432 0.06543077
0.06302286 0.037067313 0.19682942 -0.16230631 -0.14453484 0.11266705 -0.19746031 0.09622462
-0.10309717 0.10059235 -0.17230439 -0.02155406 -0.09461565 -0.009168101 -0.044488315 -0.004146488
-0.0024500506 0.02963527 0.15845464 0.20168644 -0.13296194 0.14027902 0.14417304 0.11296471
0.10509362 -0.078367576 -0.21169007 -0.046961 0.14744405 -0.10894879 0.014737341 0.15846105
0.18539979 -0.03365707 -0.11781827 0.17335455 -0.1724703 0.06631918 -0.06346748 0.18427858
-0.11596884 -0.1373801 -0.089868784 0.06489341 -0.08953189 -0.0617879 0.19835001 -0.09382289
-0.10506794 0.06973616 -0.00018637089 0.20662102 0.051593017 0.09064751 0.04923552 0.16466318
-0.10499769 -0.07722669 0.07987052 -0.037665837 0.025248932 0.14972082 0.20694351 -0.20544708
-0.13943435 -0.09048073 -0.18375772 -0.05770805 -0.064138375 0.09444797 -0.024619928 -0.04235541
0.07106961 0.040058512 -0.11905755 0.039107095 -0.08759065 0.20174137 0.16772373 -0.04272446
00000000: 611c 3a3e fd0f 883d 34da cebb 8984 453e
00000010: d777 e73b 40b5 15be 1b1a 2dbe be10 4c3e
00000020: b832 97bd 585b 4bbe 80fb bdbd 2440 b33c
00000030: dc06 463e c76d af3d ead7 a93d ffa4 3f3e
00000040: 71ae 53be 6a34 c6bd dd20 4abe ebe5 99bd
00000050: 6827 b83d 312a 33be 7a01 19be e494 2bbd
00000060: 4ec7 e6bd 2c83 2abe 15f7 75bc 3ef5 2fbe
00000070: 253f 3a3e fe45 27be e55e 0ebd 249a 993d
00000080: 06e3 da3d 5f35 433d 9ee5 c2bd 2c00 053e
00000090: fda8 4c3e 4c83 38bd c71e 08be d9cf 26be
000000a0: c443 89bd 111d 99bd 2c0e d5bd 6c82 183e
000000b0: c3e8 0abe 9b0e 3ebb 3adf 0a3e 0f2d 863d
000000c0: 7f0b 1d3e dd38 02be 17fc 513e 6996 a2bd
000000d0: 2c75 213d f9b8 3f3e 59ff 0c3e 0382 96bc
000000e0: a666 443e e5f2 87bd 4624 433e 6db1 cabc
000000f0: 2708 6abd 46e6 0a3e 7221 983d 7361 f0bd
00000100: 0a23 463e 2be7 523e 38a8 bc3d 6fa7 003d
00000110: a427 65bd 124f ffbd 1576 e03b ff6a 8c3d
00000120: cdf8 2e3e c308 393e 136b 1a3e b606 c73c
00000130: 7a82 0fbe ad12 023c b059 c03d 3980 de3c
00000140: 572f c13d f065 09be c4b5 49bd e183 a63d
00000150: f7ea 063e 36e8 533d 99be 363e d3b3 b6bd
00000160: 19f9 223d 43a3 52bd 265b 9b3d 932e b0bd
00000170: 057d 5cbe d9f5 1cba b8c7 42be 24c5 133e
00000180: 005e 9dbd d215 80bd bafd 4dbe 3824 a5bd
00000190: 1ce9 1abe b177 4c3e dc23 40be f981 f1bd
000001a0: 07d6 00be 3ad9 0a3e 76b2 1a3e 9cba 213e
000001b0: 7859 23be 30e4 31bd c45a 37be 05b5 2abd
000001c0: f9ae 19be dcbf 953d 1113 45bd f945 033e
000001d0: 2c8d 203e 2a91 56be 23e4 4ebd 77f8 0b3e
000001e0: 7f01 02be c604 3a3e 2a15 c53d ef3e 00be
000001f0: cc88 123e dc40 50be a36d c33c 1689 593e
00000200: 81d7 bdbc 2068 e63a 4090 13be 2947 28bd
00000210: cc08 0fbd b804 d63c a73b 46be 7384 82bd
00000220: 4c9f fcbd 9cd6 5ebd c8b4 503e ba89 a9bb
00000230: 75b4 ad3b e741 02be ce45 29be bd42 353e
00000240: 913f b2bd b202 073e 70f8 783c 2864 49be
00000250: 2c89 f93c 6cc2 09be d2f7 48be b50f 373e
00000260: 65ea a3ba 401b 51bd 80df 353d 7872 ea3d
00000270: fb47 303e 8729 763d 659e 1d3d af25 0a3e
00000280: 77db 2b3e 25dd 8b3d 121a 13be bdec 363e
00000290: 2766 0a3d b0bb 143e f30f 2ebe 406a 8c3d
000002a0: 6754 24be 9bfc 20bd abac acbd e7dd 123e
000002b0: d57f 3dbe dec8 18be 51de 243e 9100 863d
000002c0: 2112 813d e5d3 173d a78d 493e a033 26be
000002d0: f100 14be fbbd e63d 0933 4abe 6a11 c53d
000002e0: 9c24 d3bd 5d03 ce3d 9070 30be 2492 b0bc
000002f0: dac5 c1bd cd35 16bc 6139 36bd 43df 87bb
00000300: 0791 20bb aac5 f23c ef41 223e e486 4e3e
00000310: 2d27 08be 4ea5 0f3e 19a2 133e 0b5a e73d
00000320: 533b d73d 2e7f a0bd 48c5 58be 2d5a 40bd
00000330: 93fb 163e 8b20 dfbd e374 713c 9d43 223e
00000340: 71d9 3d3e ffdb 09bd b54a f1bd db83 313e
00000350: 0e9c 30be 5ad2 873d 3dfb 81bd 86b3 3c3e
00000360: 1281 edbd 5ead 0cbe 200d b8bd d6e6 843d
00000370: 7f5c b7bd 4f15 7dbd 441c 4b3e 3726 c0bd
00000380: dc2d d7bd d5d1 8e3d 8e6c 43b9 7694 533e
00000390: 3353 533d 67a5 b93d 2fab 493d 779d 283e
000003a0: 0709 d7bd 0729 9ebd 2893 a33d 7e47 1abd
000003b0: d9d6 ce3c 6a50 193e 00e9 533e b860 52be
000003c0: e1c7 0ebe f64d b9bd fc2a 3cbe 475f 6cbd
000003d0: fb5a 83bd f06d c13d bbaf c9bc de7c 2dbd
000003e0: f28c 913d 6514 243d 72d4 f3bd c32e 203d
000003f0: ba62 b3bd 4a95 4e3e c5bf 2b3e d8ff 2ebd

encoder_b.convs.2.bias f4 [64]
0.0 0.0 0.0 0.0 0.0 0.0 0.0 0.0
0.0 0.0 0.0 0.0 0.0 0.0 0.0 0.0
0.0 0.0 0.0 0.0 0.0 0.0 0.0 0.0
0.0 0.0 0.0 0.0 0.0 0.0 0.0 0.0
0.0 0.0 0.0 0.0 0.0 0.0 0.0 0.0
0.0 0.0 0.0 0.0 0.0 0.0 0.0 0.0
0.0 0.0 0.0 0.0 0.0 0.0 0.0 0.0
0.0 0.0 0.0 0.0 0.0 0.0 0.0 0.0
00000000: 0000 0000 0000 0000 0000 0000 0000 0000
00000010: 0000 0000 0000 0000 0000 0000 0000 0000
00000020: 0000 0000 0000 0000 0000 0000 0000 0000
00000030: 0000 0000 0000 0000 0000 0000 0000 0000
00000040: 0000 0000 0000 0000 0000 0000 0000 0000
00000050: 0000 0000 0000 0000 0000 0000 0000 0000
00000060: 0000 0000 0000 0000 0000 0000 0000 0000
00000070: 0000 0000 0000 0000 0000 0000 0000 0000
00000080: 0000 0000 0000 0000 0000 0000 0000 0000
00000090: 0000 0000 0000 0000 0000 0000 0000 0000
000000a0: 0000 0000 0000 0000 0000 0000 0000 0000
000000b0: 0000 0000 0000 0000 0000 0000 0000 0000
000000c0: 0000 0000 0000 0000 0000 0000 0000 0000
000000d0: 0000 0000 0000 0000 0000 0000 0000 0000
000000e0: 0000 0000 0000 0000 0000 0000 0000 0000
000000f0: 0000 0000 0000 0000 0000 0000 0000 0000
