results/ABIDE_3x5fold_seed0/fold0_rep2_seed2000/ckpt_best_fold_0.pt (torch, 660362 bytes, 72 tensors)

encoder_c.convs.0.weight f4 [116, 64]
000000 ea 24 23 be 08 91 3c be 91 79 ac 3c 4f 29 ba bd
       -0.1593205 -0.184147 0.021054061 -0.0908991
000010 19 ad 22 be 90 ec d1 bd e2 02 e1 9d 57 e6 87 3d
       -0.15886344 -0.10250199 -5.9559985e-21 0.06635731
000020 ec a5 af bd 61 4d 16 bc 26 54 b1 bd ac fe 7a 3d
       -0.08576569 -0.009173722 -0.08658628 0.06127803
000030 1c 1f a1 bc d6 27 22 3e 8f 38 f6 3c da a3 02 3e
       -0.019668154 0.15835509 0.030056266 0.12757817
000040 b1 d5 5c 3d 2c 4d 3b bc db e1 0f be 93 b9 56 3d
       0.05391473 -0.011431973 -0.14051001 0.05242307
000050 7d 86 26 3e 94 69 13 bc 09 f1 7a 3c 23 c2 af 3d
       0.1626224 -0.00899734 0.015316256 0.085819505
000060 bf 81 d9 3d 63 7c d7 bb 31 b5 89 3d 18 03 cf 3d
       0.1062045 -0.0065761073 0.06724013 0.10108012
000070 eb 4e eb 3d 59 21 f0 39 20 82 05 bd 29 ed 1d 3e
       0.11489662 0.00045801213 -0.0325948 0.154225
000080 4a 32 80 3d 25 0b dc 3d d1 94 81 bd 99 53 74 3c
       0.06259592 0.10744313 -0.063272126 0.014912509
000090 a0 50 f4 bd be f7 ca bd 03 25 0a be f9 2c 03 bd
       -0.119294405 -0.09910534 -0.13490681 -0.03202531
0000a0 24 12 05 bd 76 8f cb 3d 93 18 e2 3d 6f 22 00 be
       -0.032488003 0.099394724 0.110398434 -0.12513135
0000b0 b2 4d 43 3d ad 56 26 be cd f2 86 3d 18 56 17 be
       0.047681518 -0.16244002 0.06589279 -0.14778936
0000c0 fd 2e 14 3e bc f3 0a be fb 89 66 bd 03 01 78 3d
       0.1447105 -0.1356954 -0.056283932 0.06054784
0000d0 06 9e 39 bd c5 1e 0a bd cb 7e 86 bc b5 1f 20 3e
       -0.04531672 -0.03372075 -0.016417881 0.15637095
0000e0 25 83 01 be 66 ac 64 bd 3a 13 90 3d b4 fa ef 3d
       -0.12647684 -0.055828474 0.07034917 0.1171774
0000f0 f5 76 9c 3d bb 38 21 bd 7a ed 7f 3d 5f ba f3 bc
       0.07639877 -0.039360743 0.062482335 -0.029751955
000100 43 69 3b 3d bc f7 ac bd a9 9d 3f 3d a3 ff a7 3c
       0.045754682 -0.08445689 0.046781216 0.02050764
000110 18 47 20 3e 0f 16 b8 3d d1 49 93 1e 8b fd a9 bd
       0.1565212 0.08988582 1.559476e-20 -0.083003126
000120 42 55 20 3e 38 12 c0 3d 34 11 19 be 48 3f 10 be
       0.15657523 0.09378475 -0.14947969 -0.1408664
000130 cd 72 b2 bd 8a c5 07 be 1b bb 08 be 0b 77 fb 3d
       -0.08713303 -0.13258949 -0.13352625 0.12278565
000140 a1 8a 72 3d e3 3f 09 be dc e2 34 3d 72 a4 73 3d
       0.059214238 -0.13403277 0.044161662 0.059483
000150 7e fe cc 3d c0 fc ae bd 08 8a c9 3c c5 a3 14 be
       0.10009478 -0.08544302 0.024601951 -0.14515598
000160 63 bb e5 bd 0c a9 b9 3d 89 e1 7a 3d 84 c4 bc bd
       -0.11217382 0.09065446 0.061250243 -0.0921717
000170 31 a7 ed bc 74 68 18 bc 3f 8d d7 3c 66 6a e2 bd
       -0.029010387 -0.009302247 0.026312469 -0.1105545
000180 f4 f3 e4 3b f1 8f a0 3c 0e 28 97 bd 17 9d de 3d
       0.0069870893 0.019599887 -0.07380687 0.10869806
000190 58 93 ce bd 7b f3 01 3e 4d 5f 34 3c 8a 4d 8c 3d
       -0.10086697 0.12690537 0.01100905 0.06850727
0001a0 02 1c ad 3b b8 c7 1e 3e 95 e9 ae bd 80 82 02 3d
       0.00528288 0.15505874 -0.08540646 0.031862736
0001b0 86 93 c3 bd bf d3 be bc 6a e3 0a 3e 10 d8 82 bd
       -0.09549622 -0.023294328 0.13563314 -0.06388867
0001c0 25 51 51 bd ac 2a ed 3d c4 ea 87 bd 44 f5 c4 3d
       -0.051102776 0.11580405 -0.06636575 0.09617093
0001d0 6f be 51 3d 85 12 66 bd 68 31 50 3b 78 d1 25 3d
       0.051207002 -0.056170005 0.003176773 0.040482968
0001e0 6a 04 89 3d e5 6c a7 bd 36 67 bf bd 8e 3d 38 3d
       0.06690295 -0.08175067 -0.09345858 0.044980578
0001f0 0e 92 81 bc a3 61 ed bc a6 33 ab bd b6 10 b9 3d
       -0.015816715 -0.02897722 -0.083594605 0.090363905
000200 c1 b7 77 3d 5b 1e 72 3d 23 d6 ad bc 73 6e c4 3c
       0.060477976 0.05911098 -0.021220272 0.023978448
000210 f7 d5 15 3e 33 2f 0a 3e 0e 41 f1 a1 f3 44 1f bd
       0.14632402 0.13494568 -1.6348015e-18 -0.038884114
000220 83 ce 11 be ea 98 12 be 9a 1e 06 3d 7e 07 37 3e
       -0.14238934 -0.14316145 0.032744028 0.17873952
000230 bd 75 a6 bc 7c 3b db 3c ee 81 7c bd cb cb ea 3d
       -0.020319814 0.026761763 -0.061647348 0.11464652
000240 83 2e d7 bc 8f e9 34 3e 7c bb 00 3e 70 44 1f be
       -0.026267296 0.1766722 0.1257152 -0.1555345
000250 bc 4d 11 3e 38 34 8e 3d f5 bb 85 3c 29 38 b3 ba
       0.1418981 0.06943554 0.016324976 -0.0013673353
000260 e6 53 71 bd 94 11 55 bd 79 de 0b be 34 d3 c7 3c
       -0.058917902 -0.052018717 -0.13659085 0.024392702
000270 51 76 07 3e b8 47 ff bb 9e 4b 9b 3d 57 5a c8 bd
       0.13228728 -0.007790532 0.07582782 -0.09782856
000280 9d cf 3a 3d b4 d8 f9 bd 99 94 ff 3d 02 42 39 3e
       0.04560815 -0.12199536 0.12479515 0.18091586
000290 05 aa 3b bc 10 6f 9c bd 14 5c 2a bd de 99 0b 3e
       -0.01145411 -0.07638371 -0.04159172 0.13632914
0002a0 bf 30 a8 bb c9 0b ae 3c dc ac 0a be c7 d0 03 bd
       -0.005132764 0.021245854 -0.13542503 -0.032181527
0002b0 3b 4b e5 bd 3b 81 e3 bd 34 b7 e7 3c 3e 46 ee 3d
       -0.1119599 -0.11108633 0.0282856 0.116344914
0002c0 7a aa 0f 3e fa ec eb 3d 99 29 01 bd 6d d0 cb 3d
       0.14029875 0.11519809 -0.03153381 0.099518634
0002d0 1a 8c ac bd 4f c4 20 3e 90 28 1c 3d a2 05 8b bb
       -0.0842516 0.15699886 0.03812462 -0.004242615
0002e0 d8 3b 84 3d 3d 66 82 3d 84 a6 af bd 21 58 fb bc
       0.06456727 0.06367157 -0.08576682 -0.030681672
0002f0 19 84 e9 bd 35 90 89 bc e0 60 bf bd 37 72 b4 3d
       -0.11402149 -0.016792396 -0.09344649 0.08810847
000300 07 24 5c 3d 64 d5 a0 3d 9b e1 c4 bd 7c 23 a1 bd
       0.053745296 0.07853201 -0.09613343 -0.07868096
000310 0b 87 09 be 0d 87 fb 3d 13 a1 e9 98 1d 4d 08 3e
       -0.13430421 0.12281618 -6.039173e-24 0.13310666
000320 e9 71 28 bd 35 5f 46 3d 8a 3e 04 be 31 d5 96 3d
       -0.04112426 0.04843064 -0.12914482 0.07364882
000330 ac 7d 33 3e e2 0d 17 be 5d aa b6 3d 63 50 17 be
       0.17528409 -0.1475139 0.08919213 -0.14776759
000340 3c 54 f4 bc a8 30 a4 3d 46 93 f4 3c 04 2f 72 bc
       -0.029825322 0.08017093 0.029855382 -0.014781717
000350 c1 cb 26 3e 08 56 90 bd 29 1d f7 3d 2e 3f e0 3d
       0.16288663 -0.07047659 0.12066109 0.109495506
000360 2c 27 d6 bd 56 91 96 3d ab b4 0d bd d5 39 41 bd
       -0.1045669 0.073519394 -0.034596127 -0.047174294
000370 e7 61 b5 bd 64 fd 86 bc 26 a6 3c bb fc 88 8e 3d
       -0.08856564 -0.016478248 -0.0028785556 0.069597214
000380 d7 10 fd 3d b8 70 1c be cf f0 4b 3d c5 f9 4f bc
       0.123567276 -0.15277374 0.0497902 -0.012693827
000390 9c 39 0b 3e f2 32 36 bd f3 d5 87 bd fe ad ab 3d
       0.13596195 -0.04448218 -0.066326044 0.08382796
0003a0 f8 b2 0e bc e8 e3 9b bd b6 04 4f 3d 85 bc 12 3e
       -0.008709662 -0.07611829 0.050541602 0.14329727
0003b0 ad 35 d6 bc 50 e3 e6 3d ed 5b 2a bd 24 61 33 be
       -0.026148641 0.11273825 -0.041591574 -0.17517525
0003c0 52 dd e3 bd 0f 11 8e bd de c6 9b 3d 69 f6 ba 3d
       -0.11126198 -0.069368474 0.0760629 0.0912903
0003d0 fc 90 11 3e a8 18 31 be db 3c 52 3d 62 6c 0e 3e
       0.14215463 -0.17294562 0.051327568 0.13908532
0003e0 e7 c7 83 bc 4d 9e 05 bc 68 3a cd 3c 5c 30 ea 3b
       -0.016086532 -0.008155418 0.025052264 0.007146878
0003f0 a7 e8 18 3e 47 b0 14 bd 2e 40 ae bd a4 cf 8e bc
       0.149325 -0.036300924 -0.08508335 -0.017432995

encoder_c.convs.0.bias f4 [64]
000000 2b ab fe bb e7 49 45 bc d7 1a 5d 3c e9 02 84 3c
       -0.0077718697 -0.0120415455 0.013495169 0.016114669
000010 c7 de 2a bc 0c 38 a0 bc 83 e1 c2 bc 7d d8 a3 bb
       -0.010429091 -0.019557975 -0.023789173 -0.0050001726
000020 bb 16 b2 3c 16 d5 7b 3b b4 20 bd 3c 4d cd f8 39
       0.021739354 0.003842657 0.023086883 0.00047455207
000030 0b 7d 12 3b 09 3e 93 3c 68 b6 91 3b 36 99 81 3c
       0.0022352363 0.017973917 0.0044467933 0.015820127
000040 c6 8a fa 3b 6d 94 c3 bb c2 a1 8b bc d9 4d 07 3d
       0.0076459376 -0.0059686215 -0.017044906 0.033033226
000050 fb c1 0d 3c 02 34 a5 3c a8 5c ee bb f1 db 73 3d
       0.008652206 0.0201664 -0.007274229 0.059535924
000060 b6 d3 37 38 88 05 05 3c fc a9 73 3c 68 d7 f4 3a
       4.382777e-05 0.0081189945 0.01487207 0.0018679919
000070 db 6c 55 bc 74 7c 1a bc 99 15 6f bc b3 cb 0b 3c
       -0.013026441 -0.009429086 -0.014592552 0.008532452
000080 1d ca 7e 3b 0c 01 99 bc 7f 96 2a 3d c2 bd 9f 3b
       0.0038877793 -0.018677257 0.04164743 0.004874916
000090 0c 3c 08 bc 0b f7 57 3c 4e 47 ac bb 36 82 04 bc
       -0.008315098 0.013181458 -0.0052575236 -0.008087685
0000a0 47 23 49 bc f3 7d 1c bc 44 05 0d 3d d2 5c 20 bc
       -0.012276477 -0.009551513 0.03442885 -0.009787755
0000b0 f7 2a a6 bb 06 3f e0 bb a6 81 6a 3c 2c d6 1a 3d
       -0.00507104 -0.0068434505 0.014313137 0.037801906
0000c0 19 44 95 bb 58 f3 6c 3c 07 1b 3f 3c 6a 59 0b 3d
       -0.004555237 0.014462315 0.011664159 0.03402082
0000d0 f3 28 bd 3c 6c 50 c0 3b 7e fe 38 bb 4a df 89 3c
       0.023090815 0.005868962 -0.002822786 0.016830105
0000e0 37 6b 85 3c f8 c1 53 bc 55 76 c6 3c bb 5d 46 3d
       0.016286476 -0.012924664 0.024226347 0.048429232
0000f0 ab 1f db 3b 0d 96 7b bb 11 f8 91 bc cb 93 d0 3c
       0.0066871247 -0.0038388998 -0.017818483 0.025461098

encoder_c.convs.1.weight f4 [64, 64]
000000 64 ca 28 be 28 27 36 be 22 fe 2a be 67 f3 9e 3c
       -0.16483456 -0.17788374 -0.16698506 0.019403173
000010 ee bc bd 3c 80 c9 f3 bd 5d 69 09 be ff ca bf bd
       0.023161378 -0.119036674 -0.13419099 -0.0936489
000020 a1 78 40 be 31 5e b5 3d 18 51 0e 3e 5d f2 16 3e
       -0.18796016 0.08855856 0.13898122 0.14740892
000030 50 e7 5a 3d 74 29 12 3e 28 86 8a bd 00 3d c9 bd
       0.053443253 0.14273626 -0.067638695 -0.09826088
000040 f8 59 4b b0 e8 7b 4a be ec 8b 55 bd 5a a6 a0 bd
       -7.3978823e-10 -0.19773829 -0.052135393 -0.07844229
000050 76 04 4e 3e df 51 56 bd c2 15 30 3e 5a 5e 37 0a
       0.20118889 -0.052324172 0.171958 8.828875e-33
000060 5c 32 5e bd f1 cd e3 3d 9c 30 4d 3d 30 46 d8 3d
       -0.054247245 0.111232646 0.050095186 0.10560262
000070 e0 b6 a1 3d 56 48 9d 3c f2 ca 09 3e a0 8a 7c 3d
       0.07896209 0.019199532 0.13456324 0.06165564
000080 b2 a6 92 bb 91 a5 01 31 2e 12 fc 3d c0 b1 1c be
       -0.004475438 1.8866084e-09 0.12308155 -0.15302181
000090 d2 17 cd bc ba b8 bd 3c 66 de 2c 3e 16 88 79 3d
       -0.025035772 0.023159374 0.16881713 0.060920797
0000a0 a5 59 79 bd 92 33 4b 3e 8c 0e 8f 3c b3 a2 18 3d
       -0.060876507 0.19843891 0.017462991 0.037264537
0000b0 b1 f6 8a 3c 1a f4 27 3e 30 c7 57 b8 a9 8e 0b be
       0.016963335 0.16401711 -5.1445502e-05 -0.1362864
0000c0 f1 90 d2 3d 30 bd 99 bd e2 b2 fd bd 88 6b 1c 3d
       0.10281552 -0.07506788 -0.12387635 0.038188487
0000d0 23 ef a8 3d b8 d0 ab 3c 96 01 f1 3d 95 8e e7 3c
       0.08248737 0.020973548 0.117678806 0.02826623
0000e0 5d 64 05 be 2a cb ab 3d d6 7e 02 3b e7 d6 23 be
       -0.13026567 0.0838836 0.0019912026 -0.15999947
0000f0 c0 17 a6 bd 03 26 00 80 26 a6 63 bc 30 56 91 b4
       -0.08109999 -1.3636e-41 -0.013894593 -2.7071064e-07
000100 7c c0 61 3e 44 0f 28 bd 74 69 0d bd f2 7e 09 be
       0.22046083 -0.041030183 -0.034524396 -0.13427332
000110 ea 65 e2 3d e3 d5 e9 bd 68 0b 27 be c3 c7 18 be
       0.11054595 -0.11417749 -0.16312945 -0.14919953
000120 3c 30 08 3e 98 de f5 bd b6 49 2c 3e c5 ab f9 3d
       0.1329965 -0.12005347 0.16824993 0.121909656
000130 64 c6 ec bb 5a 8d 9a bc 8d 9e d7 3b be b9 a1 bd
       -0.0072257984 -0.01886623 0.00658018 -0.07896756
000140 12 35 87 af be e6 85 bb 1e ae dc bd fe 55 91 3d
       -2.4594066e-10 -0.0040863445 -0.10775398 0.0709648
000150 66 00 ef 3b 6f dc 15 3e 1b 5d 36 be f4 37 af 1e
       0.0072937487 0.1463487 -0.17808954 1.8551987e-20
000160 27 a9 52 3d 13 d2 8c bd 87 b8 f0 bc ee 52 60 3d
       0.051430847 -0.06876006 -0.029384864 0.054766588
000170 e5 96 5f bb 40 38 16 3c 6b 74 16 bd d1 7b bb bd
       -0.003411704 0.0091686845 -0.03673212 -0.091544755
000180 89 6c 08 be 56 3f f3 23 41 25 a0 bd 66 da 99 bd
       -0.13322653 2.6372937e-17 -0.078196056 -0.07512359
000190 ea 84 63 3d 19 8f 03 bd d6 7c dc bd 9c d2 87 3d
       0.05554668 -0.03211889 -0.10765998 0.066319674
0001a0 7a c3 94 bd af e6 5d 3e f1 db 3d 3e 6d d5 f8 bd
       -0.07263847 0.2167003 0.18540932 -0.12150083
0001b0 d6 9a ab bc 3d 54 4c 3e 38 04 1b 3e 6b 5f 98 bd
       -0.020947855 0.1995401 0.15138328 -0.074400745
0001c0 82 d6 2e 3e d6 19 cc 3d 64 f0 4d 3d 26 15 83 3c
       0.17074016 0.09965865 0.050278082 0.016001295
0001d0 78 e1 8f bc 53 23 cf 3d e6 19 94 3c 85 d5 2c 3d
       -0.017563567 0.101141594 0.018078756 0.042195816
0001e0 a7 d7 71 3c b1 a0 71 bd bd 5d c4 3d f1 30 4a 3e
       0.014760888 -0.058991138 0.09588192 0.19745232
0001f0 b9 73 03 3e d1 29 00 80 6e 15 0d 3d 87 46 5c a8
       0.12837113 -1.5001e-41 0.034444265 -1.22277465e-14
000200 81 57 3e bd fa aa 2e bd 54 6c 1e 3e 89 d0 7e bd
       -0.04647017 -0.042643525 0.15471011 -0.062210593
000210 a3 15 47 3e 5f 14 ba 3d 35 a8 35 3e e8 a9 d1 3d
       0.19441848 0.09085917 0.17739947 0.10237485
000220 15 5a 1e be f4 1e e0 bd 3c 14 46 bd b5 76 9e 3d
       -0.15464051 -0.10943404 -0.04835914 0.07737485
000230 19 ba cc 3c 9b f4 c9 bd 7f 62 af 3d 27 75 dd 3d
       0.024991082 -0.09861108 0.085637085 0.10813361
000240 b7 b5 9c aa 22 3e f3 bd 3c 37 c0 bc 8d 65 43 bd
       -2.7837257e-13 -0.11877085 -0.023463838 -0.04770427
000250 41 d4 79 3d 79 ee 2c bd fa 57 44 be 65 ba 7e 80
       0.060993437 -0.042219613 -0.19174185 -1.1638138e-38
000260 93 0c a3 3c 8f f8 32 3e ed b3 93 bd c9 a2 10 bc
       0.019903457 0.1747763 -0.072120525 -0.0088278735
000270 58 7e 54 3d ea c8 3f bd c5 91 f0 bc 11 e9 c9 39
       0.051878303 -0.046822466 -0.029366383 0.00038511356
000280 e4 76 d6 3c 77 0f 1e a2 77 6b b1 3c 3b 26 c1 bd
       0.026179738 -2.142118e-18 0.021657689 -0.0943112
000290 78 c9 07 3d f5 16 05 3d 20 cc d9 bd c4 c9 53 3e
       0.03315112 0.032492597 -0.10634637 0.20682436
0002a0 63 b4 21 bc 73 4e fb bd ba 0e b4 3d 90 6f 81 3c
       -0.009869668 -0.122708224 0.08791871 0.015800267
0002b0 93 f3 54 bd ba 52 2e 3d 56 96 7c 3d d2 a3 55 bd
       -0.051990103 0.042559363 0.06166681 -0.052158184
0002c0 d2 e4 6f 3d ff b5 ad 3d 98 cd 87 bd 18 67 b0 bc
       0.05856783 0.084819786 -0.06631011 -0.021533534
0002d0 7e a0 d9 bd 2c 23 67 3d 26 d1 f8 bb fc e1 8a 3d
       -0.106263146 0.056430027 -0.007593292 0.06781384
0002e0 0d b3 26 3d 49 69 01 bc 69 44 31 be f4 ed 8c 3c
       0.0406981 -0.007898637 -0.17311253 0.017203309
0002f0 43 b2 3d 3c 3b 40 02 00 a2 0d 9e bc 66 71 50 2f
       0.011578145 2.06713e-40 -0.01929361 1.8957777e-10
000300 a4 28 b4 bd c8 ef 9f 3b 76 81 36 3e 18 0e c7 3d
       -0.08796814 0.004880879 0.17822823 0.09719485
000310 4d 16 b8 3d 98 e6 d8 bd be b1 7f 3d 2c d1 ce 3d
       0.089886285 -0.10590857 0.062425368 0.1009849
000320 a7 be a1 bd 93 c0 d4 3d 21 8b 5c 3c a2 e0 8d 3d
       -0.07897692 0.10388293 0.013460905 0.06927611
000330 2c da 0a 3d 84 0f 08 bd ca d5 04 bd 36 05 1f bd
       0.03389947 -0.03321792 -0.032430448 -0.03882333
000340 40 29 11 06 c5 ac eb 3c c8 46 84 bd d2 d1 71 bd
       2.7301775e-35 0.028768906 -0.06458813 -0.05903799
000350 0f bd d9 3d a8 77 98 bd e5 a0 b9 bd 35 d8 19 91
       0.10631763 -0.074446976 -0.09063891 -1.2136196e-28
000360 c7 c0 32 bb 2f 93 0b 3e c2 06 e5 3d 59 b3 fd 3d
       -0.0027275549 0.13630365 0.111829296 0.123877235
000370 3f 2b 67 bd c0 a4 8e bd 61 c0 1f 3e f5 31 3d 3e
       -0.056437727 -0.06965017 0.1560073 0.18476088
000380 22 bb 2f 3d b0 e0 6e 26 42 ab 94 bd 60 d5 d6 3d
       0.042903073 8.2877346e-16 -0.07259227 0.10489917
000390 cb 11 b3 3d f6 9e 3c 3d 1d ef 01 be 36 fd 6c 3d
       0.08743628 0.046050034 -0.1268887 0.05785867
0003a0 ec 9a 8b 3b c2 45 b4 bd 8b ba 18 bd bb a5 1c 3c
       0.0042604115 -0.08802368 -0.037287276 0.009560998
0003b0 1f a7 97 3d 50 71 a3 bd 81 28 89 bd b8 e4 70 bd
       0.07404923 -0.07980597 -0.06697179 -0.058811873
0003c0 55 eb 53 bd 69 1a e6 3d 1a 6c 1b bd d6 fa c5 3d
       -0.051738102 0.11235506 -0.03794489 0.09666984
0003d0 9c 19 95 bd 5a 39 b1 bd c0 a3 93 bd 6b 75 dd 3d
       -0.07280275 -0.08653517 -0.07208967 0.10813411
0003e0 7f 33 ca 3d e9 c2 5c 3d 61 f7 30 3e a0 4e b5 bd
       0.09873103 0.05389682 0.17281868 -0.08852887
0003f0 8c fc 7e bd 69 42 00 00 0e 80 02 bc b8 3b d5 03
       -0.062252566 2.3823e-41 -0.007965101 1.2532726e-36

encoder_c.convs.1.bias f4 [64]
000000 ad 2b 86 ba d4 fc df 3c 30 6c 06 3d 98 5a bf 3c
       -0.0010236405 0.027342238 0.03281802 0.023358628
000010 15 7b d1 3c 06 94 f7 bb 4f f0 7c 3c 5c c4 f0 3c
       0.025571385 -0.0075554876 0.015438153 0.029390506
000020 b3 1f 24 bc 3d f9 dd 3c c5 bd 25 3c 7a 84 0b 3d
       -0.010017323 0.027096385 0.010116045 0.034061886
000030 b9 08 9d 3c e5 44 fd bb 67 b1 fd 3a 3e f3 64 ba
       0.019169198 -0.00772916 0.0019355238 -0.00087337557
000040 77 0b 6e bc 81 05 8a 3c fe 60 c6 bb 21 3d 0e 3c
       -0.014529101 0.016848328 -0.006054043 0.008681566
000050 3a 7b 1b 3d 1a 6c 3e bb 16 15 24 39 76 e8 3f bc
       0.037959315 -0.0029056133 0.00015648114 -0.011713138
000060 18 79 10 bc a6 0a 38 3d 20 15 c7 3c fb 4e d9 3c
       -0.0088179335 0.04493203 0.024302065 0.026526919
000070 f8 cf 6d 3c 54 b1 97 39 5e c9 e9 3c 9f 90 a2 3c
       0.014514916 0.00028933084 0.028538402 0.019844351
000080 00 ab 82 3c af c1 dc bb e4 47 0d bb 9c e0 d0 3c
       0.01595068 -0.006736956 -0.0021557743 0.025497727
000090 aa 85 08 3d 14 f9 88 3c bd df dd bb 0c fd 37 3c
       0.033330597 0.016720332 -0.0067710564 0.011229765
0000a0 b9 44 a5 bc 6b d7 5c 3c 94 76 75 bc cb 05 d7 3c
       -0.020174371 0.013479094 -0.0149818845 0.02624788
0000b0 78 cf a7 3c 57 e5 93 3b 9d ed 57 3c 10 ba 80 bb
       0.020484671 0.0045134234 0.01317921 -0.0039284304
0000c0 f4 ea ec 3a 4d 98 ff 3c 01 37 b4 3a 11 64 aa 3d
       0.0018075393 0.031200552 0.0013749303 0.083198674
0000d0 34 61 44 bc fc 14 14 bb 90 3b c1 bb 56 5f 0f 3d
       -0.011986066 -0.0022595515 -0.005896993 0.03500303
0000e0 07 cc 05 3d c6 b6 a1 3c 04 72 8e 3c d0 5d ca bb
       0.03266528 0.019740473 0.017388351 -0.006175734
0000f0 d9 d6 c9 3a c2 db cd bb d4 e7 e1 bb 43 2f 65 bc
       0.0015399113 -0.0062823007 -0.006894091 -0.013988319

encoder_c.convs.2.weight f4 [64, 64]
000000 71 33 1a 3d 2c ee 38 be c4 04 aa bd 2f fd fa 3c
       0.037646715 -0.18059605 -0.0830169 0.030638305
000010 03 3a e5 3c 1f d2 75 bd 55 29 22 be 9b ab 36 3d
       0.027981764 -0.06001484 -0.1583608 0.04459725
000020 44 f1 0a bd 23 94 18 3d 08 5f b3 3c 5f a0 dc bb
       -0.033921495 0.03725065 0.0218959 -0.006732985
000030 c8 99 04 bd bd f1 d9 bd 72 85 62 bc c6 44 a7 3c
       -0.03237322 -0.10641811 -0.013825761 0.020418536
000040 74 2e 1c be 9e 32 4b be 63 f0 9c 3c c5 8c 3d 3d
       -0.15252095 -0.19843528 0.019157594 0.046276826
000050 66 4a 3b be 3c 64 5e 3e c4 c7 e6 3d 94 4c 23 3d
       -0.182901 0.21717924 0.11268571 0.039867952
000060 3e 5d 00 be 3f 04 fb 3d 25 6f be bc b9 5b 56 be
       -0.12535569 0.12256669 -0.023246357 -0.20933427
000070 44 19 83 3e 9d ec 5a 3e 1c cd de 3d cf c2 ef 3d
       0.25605214 0.21379323 0.10878965 0.11707079
000080 52 e4 9d bd 15 4c 92 3d 3a 72 d7 3d bc 3f 5d 3e
       -0.07709564 0.07143418 0.10519834 0.21606344
000090 ea 2d 1c 3e f9 f7 5a 3d bd 3c 9b 3d 7c 73 bf 3c
       0.1525189 0.05345914 0.07579944 0.023370497
0000a0 93 49 cd 3d 02 dd 3a bd 12 66 a4 3d 31 25 24 3e
       0.10023799 -0.045620926 0.08027281 0.16029812
0000b0 82 5a 07 3e f8 21 a8 bc b3 fe 53 3e c5 5c c6 3d
       0.1321812 -0.02052401 0.20702629 0.09685663
0000c0 3e 19 46 bd 9a 5c 81 3d 07 d3 8a 3d b4 5c 94 3d
       -0.048363917 0.063164905 0.067785315 0.07244244
0000d0 33 84 42 3e 7f e7 86 bb d3 6c cc bd 98 77 74 3d
       0.18995742 -0.004116952 -0.09981694 0.059684366
0000e0 d8 cc 05 3e 64 5a 0b be b1 d8 01 3e 94 59 b8 bb
       0.13066423 -0.136087 0.12680317 -0.005625913
0000f0 9a 2e a5 3d e5 83 e1 3d bc eb 4e be 68 2f 28 3e
       0.08065529 0.11011485 -0.20207113 0.16424334
000100 65 1f 21 3d 79 66 43 3e c4 53 8e bd cf 87 6e 3d
       0.03933658 0.19082059 -0.06949571 0.058234986
000110 08 91 d1 3c e3 55 5c 3e d7 76 d1 3b 4b 6c a0 bd
       0.025581852 0.21517138 0.0063923406 -0.07833155
000120 7a 5c 1a be a1 1c 02 3e fc 26 33 bd 19 56 89 bd
       -0.1507434 0.12706234 -0.04373835 -0.06705875
000130 4c de 33 bd 4d 46 45 3d 35 2f 2e 3d 5a b2 17 3d
       -0.04391317 0.048162747 0.04252549 0.037035324
000140 04 8d 3d bd 28 23 83 3c 2d 39 a8 bb 08 27 96 bc
       -0.04627706 0.016007975 -0.005133769 -0.018329158
000150 34 26 47 3e 54 49 06 be 5e fd 3f bd cd 56 7a bd
       0.19448167 -0.1311391 -0.04687249 -0.061117936
000160 3e fc ea bd 01 9b 7e 3d f9 a2 b5 3c 45 52 a9 38
       -0.11473893 0.062159542 0.022172438 8.073872e-05
000170 5b d6 3d be 7a 33 56 3d 42 45 0d be d8 e9 d4 bc
       -0.18538801 0.052295186 -0.13795951 -0.025990412
000180 27 11 ec 3d 5f 40 80 bd d2 f5 a4 bb 91 4e 6b 3b
       0.11526709 -0.06262278 -0.005034187 0.0035904984
000190 c3 50 21 be 1a e7 35 be 10 3a 0e 3e 50 7f 8d bd
       -0.15753464 -0.1776394 0.13889337 -0.069090486
0001a0 63 45 a9 bd c8 c7 06 3d 6e ac 85 3d e8 e4 c9 3c
       -0.082651876 0.03290537 0.06527029 0.024645284
0001b0 81 03 59 bc 89 e3 8d 3d 29 35 5a bd 3c c9 fc 3d
       -0.013245464 0.069281645 -0.053273354 0.1234307
0001c0 2f d9 88 3c 88 33 04 bd 27 29 35 3c 26 6c 4a 3b
       0.016705124 -0.032275707 0.011057175 0.0030887215
0001d0 45 a5 11 3d ba 93 ba b9 a5 39 b0 3d 10 e0 03 be
       0.035558004 -0.0003558675 0.08604745 -0.12878442
0001e0 5c d7 c6 bc dd 2d b0 3d b7 05 bd 3d 9f 13 75 bd
       -0.024272613 0.08602498 0.09229606 -0.059833165
0001f0 b7 02 0c 3d ba 26 e7 bb d3 7b de 3d 2a c7 b7 bc
       0.034182277 -0.007054177 0.10863461 -0.022433836
000200 bb 42 1d 3d 13 41 3f 3e 83 60 e4 bd 3c 1f 6e 3e
       0.038393717 0.18677168 -0.11151221 0.23254102
000210 91 15 27 3e ee 28 f1 bd d9 fe 04 3e 14 5a d1 bd
       0.1631682 -0.11775385 0.12987842 -0.10222259
000220 58 19 2f be 9e d0 f8 bb 7e 1b 15 be 1d da d8 bd
       -0.17099512 -0.0075932285 -0.14561269 -0.10588477
000230 78 5d c8 bd 53 f7 a9 bd ab 6b 00 3e f5 c6 13 3d
       -0.09783453 -0.082991265 0.12541072 0.036078412
000240 b6 b1 53 be f0 73 41 3e fa 2d 8e bd 66 bc 01 be
       -0.2067326 0.18891883 -0.06942363 -0.12669525
000250 a1 7d 20 3d 17 f0 63 be 83 bf da 3d f4 cf 39 bd
       0.03918231 -0.22259556 0.10681059 -0.045364335
000260 c8 68 59 be a5 8a a5 3d d7 95 b8 3c 19 49 fb bd
       -0.21231377 0.08083085 0.022532387 -0.12269802
000270 9c 83 fc bd d9 8b dc 3b 95 29 cb bd 43 d2 d6 bd
       -0.1232979 0.0067305383 -0.099200405 -0.10489323
000280 22 88 9d bd d8 98 36 be ae cd ae bd 58 1c f9 bd
       -0.07691981 -0.17831743 -0.08535324 -0.12163609
000290 a9 ab 54 3d fb 89 53 bd 48 52 46 3e 69 94 88 bd
       0.05192152 -0.05164526 0.19367325 -0.06668932
0002a0 31 7f e7 bd 7b fd 57 bd fe dc 30 3e f5 17 a1 3d
       -0.11303557 -0.052731972 0.17271802 0.078658976
0002b0 d2 72 ed bd 1c 15 a5 3b ea 2f 85 bd 03 29 bd bd
       -0.11594166 0.005037917 -0.065032795 -0.09236338
0002c0 81 8f 49 3e c6 7d c5 bc 39 76 11 bd 28 44 11 3e
       0.19683649 -0.024107825 -0.035513137 0.14186156
0002d0 8f d8 76 be a7 4b de bc 7e d6 27 3e 67 ba 23 b9
       -0.24106048 -0.027135683 0.16390416 -0.00015614332
0002e0 6a 65 33 3d ec 55 73 3e 2f c1 f0 3d 3f b3 c3 3d
       0.043797888 0.23763245 0.11755597 0.09555673
0002f0 70 ee 80 3d 3f 59 25 3d 1b 0c f8 3d eb 46 8a 3d
       0.06295478 0.040368315 0.12111684 0.06751808
000300 5a 8c 0d 3d 60 ca 83 bd eb a9 e3 bd 73 2e dc 3c
       0.034557678 -0.06435084 -0.11116394 0.026877617
000310 22 e6 8b 3d ce 0b 9b bc 74 fe ea 3d b1 1c 8d bd
       0.06831004 -0.018926527 0.11474314 -0.06890238
000320 ef 75 3c 3d 27 db 20 bd c4 de 0e 3c a5 5b ad 3c
       0.046010908 -0.0392715 0.008720104 0.021161864
000330 00 e8 4b bd b6 20 16 3d 22 e9 9c 3b ab cc 03 bd
       -0.0497818 0.03665229 0.004788534 -0.03217761
000340 1c 59 8f bd d3 ac 0f 3d 55 12 a3 3d 69 8a 0e bc
       -0.06999418 0.035076927 0.07962481 -0.008699992
000350 c0 87 fe 3d 4a 4f 8b bd cd 01 25 bd 97 32 0d bd
       0.12428236 -0.068022326 -0.04028492 -0.034472074
000360 3f 71 6f 3d 50 3a 93 3d 50 6c d4 3d 85 b8 7a bc
       0.05845761 0.071888566 0.103722215 -0.015302782
000370 b2 c2 dc 3c ba ef 53 bc d9 73 0c bd 61 cc 11 be
       0.026948307 -0.012935573 -0.03429017 -0.1423812
000380 7b 0e 14 3d 9c 5d 84 bd 08 f2 c4 3c ea 81 90 3c
       0.036146622 -0.06463167 0.02404119 0.017640073
000390 ea cb 96 bd 3c 8b 0d bd 27 14 66 3d f3 d4 c5 bc
       -0.07363112 -0.034556612 0.056171563 -0.024149394
0003a0 62 14 87 bc 38 3e 40 3c 41 f9 9d 3c c3 59 2a 3d
       -0.016489211 0.011733584 0.019283893 0.04158951
0003b0 d3 ce 08 bc a0 cc 90 3d 44 9c 8a bd 1d 4b 5b 3d
       -0.008350092 0.07070279 -0.067680866 0.05353843
0003c0 39 2e 27 3e ed 1e 67 bc f8 91 8b 3d b4 8c 39 bd
       0.16326226 -0.014106494 0.06814951 -0.0453002
0003d0 ae 17 44 3c 71 21 59 bc 05 bd 37 3b 3c a1 82 3c
       0.011968536 -0.013252602 0.0028036248 0.015946023
0003e0 72 ab e8 bb 17 a0 1a 3e 12 1c 34 3d 82 5d 0f be
       -0.007100516 0.15100132 0.043972082 -0.14000514
0003f0 2d cb 97 bc 62 2e e8 bd 11 33 a8 bc a9 16 d7 3c
       -0.018529499 -0.11336972 -0.020532163 0.026255922

encoder_c.convs.2.bias f4 [64]
000000 2c 62 9a 3c c3 58 86 3c 86 18 18 bc a0 e9 a1 3c
       0.01884564 0.016399747 -0.009283191 0.019764721
000010 91 a9 31 3d 06 fd 1c 3c 85 3f 81 3c 6c 7a 84 bd
       0.0433746 0.00958181 0.015777359 -0.064686626
000020 bb 12 80 bc 4c ec b5 3c 42 bb 0c bd 81 de f3 bb
       -0.015633931 0.022207402 -0.03435827 -0.007442296
000030 e4 d3 9b bc da ee 7e bc 07 33 e6 bb 4f 96 3d 3b
       -0.019021936 -0.015559876 -0.007025126 0.0028928702
000040 f7 df a3 bd a6 3b 76 bb 1c 4c 9b 3c b8 66 f8 bc
       -0.08001702 -0.0037572174 0.01895719 -0.030322418
000050 0c 90 0e 3b 83 bc 80 b9 91 01 9e 3c fe a8 27 bc
       0.002175334 -0.00024554515 0.019287856 -0.010233162
000060 f5 a9 26 bc 7e db f2 3d 9d 5a 2e 3c 99 b2 4e 3c
       -0.010172357 0.11858271 0.010641721 0.012615823
000070 f3 28 06 bc dc 90 3b 3b 92 1a 3b bc 12 59 27 bc
       -0.008188474 0.0028620278 -0.011419909 -0.010214107
000080 9b 3c 44 3c 5e c5 1a bd d3 75 61 bb b6 e4 73 bb
       0.01197734 -0.03778588 -0.0034402504 -0.003721518
000090 19 9e 4f 3b 8c cc b2 bc f4 35 4a 3c 82 02 1e bc
       0.0031679927 -0.021826051 0.012341965 -0.009644153
0000a0 13 76 5a bd e4 28 be b9 70 f6 2c 3d 2b ef 79 3d
       -0.05333526 -0.0003627009 0.04222721 0.061019104
0000b0 e7 0c fa ba cf eb 4b 3d 9e 75 73 bb 9d b1 9a 3c
       -0.0019077332 0.04978543 -0.0037148963 0.01888352
0000c0 a0 44 75 3c ec 8f 3b bc 19 07 06 3c 4c 50 29 3c
       0.014969975 -0.011447888 0.008180403 0.010334086
0000d0 22 c4 35 bc e4 66 22 bd b9 f2 ab 3c 9a ef 9b bb
       -0.011094125 -0.039648905 0.020989763 -0.0047587873
0000e0 91 5e 7e bc 64 53 25 3c a8 17 c9 3c af 9c 92 3a
       -0.015525476 0.010090683 0.024547413 0.0011185611
0000f0 7c 55 9a 3c f9 fd ac bb 5c 84 92 3c a0 0d 49 3c
       0.01883959 -0.0052792993 0.01788538 0.012271315

encoder_b.convs.0.weight f4 [116, 64]
000000 fa 86 ca 3b 33 1d 7e 3d 45 14 04 bd f3 4e 5f bd
       0.0061806412 0.062039565 -0.032245893 -0.05451865
000010 dd 46 48 bc c2 1e 60 bc 5f a7 7f bd bb d1 9e bd
       -0.012223926 -0.013679208 -0.062415477 -0.07754847
000020 9b 85 4d bd 00 46 b0 bb 8b d8 7e 3c 1a b1 84 3c
       -0.050176244 -0.0053794384 0.015554558 0.01619773
000030 5b 0f 62 bd a9 c4 9d bd d4 67 83 bd 71 bc 92 ba
       -0.055190425 -0.077035256 -0.06416288 -0.0011195076
000040 7d 3c 04 39 41 c5 c0 a9 af c1 b6 3d 07 3c fe 3d
       0.00012611035 -8.560731e-14 0.08923661 0.12413793
000050 3f 71 ed 3d e5 68 bd bb 01 a5 03 b9 88 33 29 bd
       0.115938656 -0.0057803267 -0.00012554602 -0.04130891
000060 de bd c9 b1 11 ee 35 bc c4 10 5d bd 7a c0 07 bd
       -5.8714553e-09 -0.011104123 -0.053971067 -0.033142544
000070 0d 43 6e 3d 32 ae 62 39 d6 48 d7 bd e1 de 22 b7
       0.058169413 0.00021617932 -0.10511939 -9.7078455e-06
000080 b2 3a 0d bd 41 16 89 3d b7 ab e7 3c 5a b7 97 3c
       -0.034479804 0.06693698 0.028280122 0.018520046
000090 45 46 35 bb 30 67 01 ae d7 70 8c bd f8 e0 da 3b
       -0.0027660292 -2.9422853e-11 -0.0685746 0.0066796504
0000a0 e4 e9 ad 3c 61 8e f8 3a 97 80 67 3d 2e ec b4 bd
       0.021229692 0.0018963331 0.056519117 -0.0883411
0000b0 1f e0 a9 3d f7 a6 a0 ba cd bf 45 b6 72 55 31 bd
       0.08294701 -0.0012256791 -2.946693e-06 -0.043294378
0000c0 26 a8 56 bd e4 1a be bd 97 24 c6 b5 1e 38 8c bb
       -0.052406453 -0.09282473 -1.4762799e-06 -0.0042791506
0000d0 38 a3 cf bc dc 17 2e 3d f4 24 ce bd 8f 98 9a 3b
       -0.025346383 0.042503223 -0.10065642 0.0047178934
0000e0 62 dd cc b5 97 f0 b6 3c 17 e3 ce bc a9 86 0c 3e
       -1.5263615e-06 0.022331519 -0.02525477 0.13723244
0000f0 4b 7f 79 3c bb d1 8d 3c 29 02 a1 b7 85 23 b1 bc
       0.015228103 0.017311921 -1.9193702e-05 -0.021623382
000100 f7 bd b8 bb 43 39 e2 3d ec 12 88 3b e2 20 15 bd
       -0.00563788 0.11046078 0.0041526463 -0.036408313
000110 ea 48 cb 3a b9 56 a1 3b 66 2a 66 bb 9c fd 05 be
       0.0015509401 0.004923668 -0.0035120486 -0.13085026
000120 3d a8 ed 3d c8 ed 96 3c 28 e8 78 3d 93 8b 3e 3c
       0.116043545 0.01842393 0.060768276 0.011629957
000130 29 a7 8d 3c 14 98 13 3d e0 e8 9f bc c9 09 a4 ba
       0.017291622 0.036033705 -0.019520223 -0.0012515123
000140 40 b6 d4 b8 a1 9c 95 24 c4 72 db 3d 5b 14 1e bd
       -0.000101428945 6.488379e-17 0.10715249 -0.03859363
000150 7b f5 40 bb cd 71 bc 3d b3 86 49 b2 bd 4f a9 3d
       -0.0029443193 0.09201393 -1.1730367e-08 0.08267162
000160 d8 28 c1 35 4f e7 06 3c 81 87 cb bd 7d 62 c8 3b
       1.4391508e-06 0.008233859 -0.09937955 0.0061152563
000170 7e 94 b0 3d e8 82 5a 3b b9 d4 87 3d f1 b6 19 ba
       0.08622073 0.0033342186 0.066323705 -0.0005863747
000180 94 52 7f 3d 79 67 90 3c 9c 7e c3 bc 55 d8 54 3d
       0.062334612 0.017627465 -0.023864083 0.051964123
000190 f7 8d d2 bb 36 85 f5 9a 15 de 81 bd ff 50 93 3b
       -0.006425615 -1.0154484e-22 -0.06341187 0.0044957395
0001a0 c2 ba 5d 3d 98 7a ff a2 70 da 03 bd f2 03 ba 3c
       0.054133184 -6.924769e-18 -0.03219074 0.02270696
0001b0 b5 bc 71 3c 0d 9d b6 ba 09 f3 22 b7 9f 34 8e bd
       0.014754464 -0.0013932303 -9.7125385e-06 -0.069436304
0001c0 5c 89 84 3d c9 e6 9f 3c d5 12 e5 b7 3a 9a 1f bd
       0.06471512 0.019519227 -2.7307697e-05 -0.03896544
0001d0 83 fe a2 bc 4d 9d 49 ba e7 3c af bc 4c db 3a 3b
       -0.019896751 -0.0007690981 -0.021391345 0.0028512059
0001e0 6e 20 0c 38 29 45 de 3d 14 fe 28 3d e2 d6 4f bd
       3.3408804e-05 0.10853035 0.041257933 -0.050742038
0001f0 44 69 f6 3c 8c 09 ff 3c f7 3d 16 3c 9c d9 71 bb
       0.030079491 0.031132482 0.009170047 -0.0036903387
000200 4a 14 64 3b 8f 64 cd bd 08 29 13 3d d7 04 ad 3d
       0.0034802132 -0.10028946 0.035927802 0.08448189
000210 3d e4 96 3b c0 74 a9 bd 39 b4 61 3c 57 95 82 bc
       0.004604845 -0.082742214 0.013775879 -0.015940351
000220 f0 4c 03 3e 1f f2 03 3d dd eb c2 bd af 77 d2 bc
       0.12822318 0.032213327 -0.095176436 -0.025691835
000230 91 7a e2 bd f1 f1 b8 bd 56 d8 a8 3d 1e e6 87 ba
       -0.11058534 -0.09030522 0.08244388 -0.0010368263
000240 1a 44 24 b8 19 da f1 37 64 2a 12 bd f5 a0 df 3c
       -3.916407e-05 2.8830998e-05 -0.035684958 0.02729843
000250 50 bb bc bd 54 56 a2 3c bb 3a b8 b6 e3 81 8d bd
       -0.092154145 0.019816555 -5.4904644e-06 -0.069095396
000260 58 fb d8 b9 69 18 f3 ba f0 bf dc bd 8a fc 81 3b
       -0.00041385996 -0.0018546704 -0.10778797 0.0039668726
000270 4a c2 a2 3d 68 1d ae bb e0 8b a2 bc bd fa 7f b6
       0.07947214 -0.005313564 -0.019842088 -3.814391e-06
000280 b2 5d 37 bc b1 32 51 3d 32 4d 92 39 bc 27 27 3d
       -0.011191772 0.051073734 0.00027904805 0.040809378
000290 c7 cc 20 3d 39 68 df 36 93 f0 07 3e db 58 44 bc
       0.03925779 6.658051e-06 0.13275366 -0.011984075
0002a0 b7 73 ec bc 7f ba c6 b8 cf ab 64 bd df d1 3b bd
       -0.02886377 -9.476113e-05 -0.055827912 -0.045854446
0002b0 c4 30 62 3d c2 f4 f0 ba 96 24 b1 b3 c7 a3 16 bd
       0.055222288 -0.001838349 -8.24886e-08 -0.036777284
0002c0 60 bd ab bc 5e 66 a4 3d d3 b3 76 b7 c7 fd 9d 3c
       -0.020964324 0.080273375 -1.4704611e-05 0.01928605
0002d0 f0 6f 6c bc 2a 66 2f 3c 01 b6 a2 bb ba c9 3b bb
       -0.014430985 0.01070551 -0.004965544 -0.0028654174
0002e0 93 ab 63 39 03 5b 35 bd 1e a3 41 3d 53 5b 74 3d
       0.00021712323 -0.04427625 0.0472747 0.059657406
0002f0 db c0 ee bc 52 f0 35 bc 45 66 dd bb 80 05 16 bc
       -0.029144695 -0.01110466 -0.0067565762 -0.009156585
000300 68 6d bf 3b 51 16 68 bd 0f cd e8 3c 61 fd b7 bd
       0.0058418997 -0.056661908 0.028418092 -0.08983875
000310 3b 2e d3 bb 7d 38 2b 3b e9 f8 83 bc 23 99 4f 3d
       -0.00644472 0.00261262 -0.0161099 0.050683152
000320 7a cf c5 3d 76 c4 0b 3d 92 71 12 3d 69 84 3e bc
       0.09658714 0.034122907 0.03575284 -0.011628249
000330 b6 f5 4b bc 0b 21 f5 3d 82 30 c9 3d 7d 13 ab ba
       -0.012448719 0.11969193 0.09823705 -0.0013052073
000340 9f 00 82 b4 19 0d 49 b8 fa 54 ad bc ed f4 ea 3d
       -2.421484e-07 -4.7934333e-05 -0.021158684 0.11472497
000350 0e 79 bc 3c 3c c1 55 3d 5b 0b ca b6 74 45 8f bd
       0.023006942 0.052186236 -6.021391e-06 -0.06995669
000360 85 e7 fa a5 68 66 77 ba dd 7d a1 3c 73 53 72 3d
       -4.352497e-16 -0.0009437562 0.019713337 0.059161615
000370 aa 6f 77 3d c6 e3 6d bb c8 ad a0 3c 19 e8 a2 b6
       0.060409226 -0.0036299094 0.019614115 -4.854996e-06
000380 64 6b 61 3d ac 54 a1 bd 17 9e 08 3d 0d a0 79 bd
       0.055034056 -0.07877478 0.03335389 -0.060943652
000390 c7 5e 93 3c 99 52 5a a9 23 7a 12 3e 87 93 09 38
       0.01798953 -4.8477366e-14 0.14304404 3.280074e-05
0003a0 d1 2e f4 bc af c5 eb ae 9d 68 b0 3d 4a 05 5d 3d
       -0.02980748 -1.07216784e-10 0.086137034 0.053960122
0003b0 22 50 91 bb a1 50 08 bb 59 fa f8 b4 3e db c0 bc
       -0.0044346014 -0.0020800012 -4.6375752e-07 -0.023542043
0003c0 42 7c dc 3d 53 8d 7b bb 46 2e 74 b7 86 1e 47 3c
       0.10765888 -0.0038383796 -1.4554307e-05 0.012153273
0003d0 5c fc bd bd 8d b0 57 3c b1 76 ac bd 97 04 b9 bb
       -0.09276649 0.013164652 -0.08421076 -0.005646299
0003e0 25 04 b0 38 6a e4 38 3c 1b 41 b7 3c f9 08 d2 3d
       8.393106e-05 0.011284927 0.022369912 0.10255618
0003f0 ac 9b 9c 3c 95 65 85 3c 79 bf 5b ba 99 c9 d1 3c
       0.019117199 0.01628379 -0.00083827187 0.025608825

encoder_b.convs.0.bias f4 [64]
000000 0b c3 45 bc b5 c5 8b 3c 18 5e 23 3d 42 54 9e 3c
       -0.012070428 0.017062047 0.039884657 0.019327287
000010 9a f9 42 3d 94 2a 51 3c c8 81 47 3c c4 18 da 3c
       0.04760132 0.012766499 0.012176938 0.026623137
000020 7b 68 89 3c 6e 5b b3 bc e7 f7 81 bc fa 73 82 bb
       0.016773453 -0.021894183 -0.01586528 -0.0039811106
000030 12 80 9e bc 9a ad 1d 3d 6c 37 9c 3b 13 b1 71 3c
       -0.019348178 0.038495637 0.004767349 0.01475169
000040 29 5a 49 bc ed 89 a4 bc 6c 28 d5 3c 4c 5f 13 3d
       -0.012289562 -0.0200853 0.026020251 0.035979554
000050 c3 41 83 3c a0 94 bf 3c 87 5a 6f bc dd 79 f2 bb
       0.016022569 0.0233863 -0.014608986 -0.007399781
000060 ba c3 a9 bc 6c 9e a4 bc 5b e7 26 3d 48 40 1e bc
       -0.020723213 -0.020095073 0.04074798 -0.0096588805
000070 c8 6b 01 3c e8 8d 5f 3d a3 15 b9 3c 9b 71 01 bd
       0.007899232 0.05457869 0.022593325 -0.031602483
000080 3d d7 a6 bc 2c 90 9a bc 10 ac 9e 3b 97 54 e3 bc
       -0.020366305 -0.018867575 0.004842289 -0.027750297
000090 a0 f3 8b 3c 72 3a a9 bc 97 19 18 3c 12 a7 c1 3c
       0.017083943 -0.020657752 0.009283445 0.023639236
0000a0 82 fd 83 bb b0 ce 01 bd eb 69 2b 3b b1 76 97 3c
       -0.004028023 -0.031691253 0.0026155661 0.018489214
0000b0 b2 5c 9b 3c ab 9a 3e 3d 1e f4 40 bc 0e 9c 15 3c
       0.018965099 0.04653422 -0.011776952 0.009131445
0000c0 b2 95 21 3d 31 f2 1c 3d 05 1f c8 ba 66 05 0f 3d
       0.0394494 0.03831691 -0.0015268034 0.034917258
0000d0 3c 7f 11 3d d0 17 4d bc d4 01 fb 3c 99 d0 7b 3d
       0.03552173 -0.012517884 0.03064052 0.06147823
0000e0 ae c8 f0 bb b9 f3 93 3c 65 92 92 bc 05 ba 36 3d
       -0.0073481416 0.018060552 -0.017892072 0.044610996
0000f0 d2 b3 01 3d bf 1e e2 bc e7 67 92 bc 4f 48 17 bc
       0.03166563 -0.027602552 -0.01787181 -0.009233548

encoder_b.convs.1.weight f4 [64, 64]
000000 a7 d4 b6 3b 44 08 ae b6 41 a2 23 bc ca 61 dc ba
       0.0055795494 -5.1865663e-06 -0.009987415 -0.0016813811
000010 85 3b 50 3b a6 8a 05 3b bf 41 47 ba fe 1f 09 bc
       0.0031773758 0.002037683 -0.00076010445 -0.008369444
000020 5e cc 91 b9 4c 60 7d 33 76 a7 5f bc e7 73 ee 3b
       -0.0002780882 5.8993734e-08 -0.013650766 0.007277
000030 5b ae 2b 3c 96 fc 8b bb ca 5a 3c bc 6d e3 07 bb
       0.010478581 -0.004272054 -0.011496255 -0.0020734922
000040 31 59 c2 38 44 20 6c 38 2d 51 f7 b9 cc 98 9d bb
       9.267254e-05 5.6296834e-05 -0.00047171992 -0.0048094746
000050 2a 55 43 3a 68 f8 53 ba bd 3b 75 bb 9b 63 aa ba
       0.000745135 -0.00080860266 -0.003741964 -0.0012999655
000060 76 4f 5d 33 3b fc be bb 30 22 64 ba 49 9f 58 3b
       5.152784e-08 -0.005828408 -0.0008702604 0.0033053926
000070 f4 47 be 39 68 29 fe bb 68 f5 a8 b9 34 5c 67 ba
       0.00036293233 -0.007756401 -0.000322263 -0.000882569
000080 23 36 2f 3b f2 d6 db 3a a2 d4 72 3a 34 e3 c3 a4
       0.002673515 0.0016772433 0.0009263252 -8.4952667e-17
000090 69 83 aa bb a6 8d 1a b8 bf 48 c0 ba 6e 8e 85 bb
       -0.0052036536 -3.684838e-05 -0.0014670118 -0.004075817
0000a0 1c 4a b4 bb b6 15 8a b9 d2 39 df 35 6c 89 86 ba
       -0.0055019986 -0.00026337587 1.6631623e-06 -0.0010264344
0000b0 e3 fd 16 3c 5b ca 78 bb d4 11 9f 3b a3 f8 04 8e
       0.009215805 -0.003796241 0.00485442 -1.638997e-30
0000c0 d4 ea 76 3a 68 b8 02 b6 d1 2a 4e bb 43 50 17 bb
       0.00094191474 -1.9478848e-06 -0.0031458626 -0.0023088611
0000d0 0f 83 55 8c e3 d5 f2 3b 71 83 aa b9 fd 07 92 3b
       -1.6448362e-31 0.007410751 -0.00032522858 0.0044565187
0000e0 d8 db 65 b6 56 6c f5 bb f3 e9 8b bc 52 d0 9c 39
       -3.4251625e-06 -0.0074897213 -0.01707933 0.0002990985
0000f0 05 7b b2 3a d1 4b 1a 38 ef 00 5d bc a0 58 d1 ba
       0.0013616985 3.678707e-05 -0.013488992 -0.0015971847
000100 a6 5b 03 ba 97 60 59 3c 89 3d e0 bd 22 fd 75 bd
       -0.000501091 0.013267658 -0.10949237 -0.06005586
000110 b2 a8 35 3e 99 55 e9 3d 31 c2 e9 39 be 40 75 3b
       0.17740133 0.113932796 0.00044585907 0.0037422623
000120 6f db ed 3c 1e 63 4a a0 2f 27 bf 3d 08 70 d7 b4
       0.029035298 -1.7142861e-19 0.093336456 -4.0128384e-07
000130 30 ad 20 3e 33 86 21 be 0f 42 a1 3d a7 67 c0 bc
       0.15691066 -0.15773849 0.07873928 -0.023486925
000140 2e f2 31 ba b7 2f 95 bc ed 4d 0f bb 46 83 9d bd
       -0.0006788102 -0.018211229 -0.0021866516 -0.07691054
000150 f9 d8 20 bd a4 9d 97 bc af 1e 5e 3d 24 50 9b ba
       -0.03926942 -0.018507786 0.05422848 -0.0011849445
000160 20 17 72 36 bc e8 cc 3c 96 45 42 3d e0 0e c6 bd
       3.607427e-06 0.02501332 0.047429644 -0.09670806
000170 73 39 e6 bd 1d 3a fc bd ca 63 b5 bb e0 df b4 bc
       -0.11241426 -0.12315772 -0.0055355774 -0.022079408
000180 9c fd 51 bd 2f 8b 84 3d 9d ef bf 3d 11 4c 1d 35
       -0.05126725 0.0647186 0.093718745 5.859775e-07
000190 e6 bc 01 be b9 d7 57 b9 e6 bc e6 3b 7f cf 23 3d
       -0.12669715 -0.00020584361 0.0070415614 0.039992806
0001a0 29 59 f4 3d 95 39 e8 bb 83 83 f8 14 aa 40 3c bd
       0.119310685 -0.0070869424 2.5093473e-26 -0.045960106
0001b0 09 cf 0d be 5b 9c b6 bd 4b 19 15 bd fd 9f 99 b9
       -0.13848509 -0.08916541 -0.036401074 -0.00029301635
0001c0 c2 04 37 3b 6e 97 09 b9 33 20 0f bd b8 4a ee 3d
       0.002792642 -0.0001312175 -0.034942817 0.11635345
0001d0 b5 14 e3 34 48 1f f4 3d 0b bd bd b9 60 ed d1 3d
       4.229711e-07 0.11920029 -0.00036189737 0.10250354
0001e0 40 b0 ac ba 40 0e 49 3b 80 4e 30 be 10 df 5e 3c
       -0.0013175085 0.003067866 -0.17217445 0.013602987
0001f0 af 51 1e bd 41 4e 8a bd e9 d9 67 bd e6 b0 0e bd
       -0.03865212 -0.06753207 -0.0566043 -0.034836672
000200 58 0e af 3a 23 50 5b 36 7d 5e a5 bb a1 cf 97 3c
       0.0013355715 3.2680189e-06 -0.0050466643 0.018531622
000210 c6 c0 cb 3c 6c f9 f5 3c f5 19 04 bc c4 a0 fe 3c
       0.024872195 0.03002616 -0.008062829 0.031082518
000220 22 4a af 3b a6 0b cb 38 3d 47 89 3d 83 e0 01 bb
       0.0053494135 9.681964e-05 0.06703041 -0.0019817657
000230 d5 6e f4 bc 4b 9b 62 3b 55 82 d7 39 75 c3 68 3c
       -0.029838005 0.0034577425 0.000411051 0.014206757
000240 f7 09 e5 39 7f eb c5 bb 62 29 6a bb cc cc 37 bd
       0.00043685708 -0.006040036 -0.0035730232 -0.044873044
000250 c6 31 81 bc 90 5e 95 bc b2 3d 83 bd 79 bd cd 39
       -0.015770804 -0.018233567 -0.06408252 0.00039241815
000260 6b d9 ba ba 2a c7 66 bc aa 0b 9b 3b 9c e1 54 bd
       -0.001425547 -0.01408557 0.004731615 -0.05197297
000270 50 95 57 bd 34 c0 f9 3c 0b 86 84 ba a7 83 1c bc
       -0.05263263 0.030487157 -0.0010110749 -0.009552873
000280 09 30 bb bc da d8 87 3c 4d 3f 22 bd ad 19 1b ba
       -0.022850053 0.016582895 -0.03961115 -0.0005916607
000290 2b eb aa bc 03 c2 ad b9 96 2e 68 38 44 fc ab bb
       -0.02086409 -0.0003314168 5.5356497e-05 -0.0052485783
0002a0 62 74 1e 3d 30 47 cc bb 37 6f c0 34 bc 7a 9a bc
       0.03868521 -0.006234072 3.5843706e-07 -0.018857352
0002b0 89 0a 38 3c 0d fb 08 3d 3f ea 08 bb 19 b1 ff ba
       0.0112329805 0.033442546 -0.0020891575 -0.0019507735
0002c0 97 9b 03 ba d0 ee a8 b7 74 d6 db bc 4b 1e dd 3c
       -0.0005020438 -2.0138366e-05 -0.026835658 0.026991984
0002d0 e9 42 83 38 4a b4 02 3d b4 b9 ad b9 63 c7 9e bb
       6.25903e-05 0.03191022 -0.0003313549 -0.004845546
0002e0 f6 24 ec 3a b6 ae cb ad ef f6 df bd 8c 8c 33 3c
       0.0018016386 -2.3156015e-11 -0.10935771 0.010958802
0002f0 95 18 ab 3d 7c b7 5c bc d8 01 f0 bd c5 eb 57 bd
       0.08354298 -0.01347148 -0.11719102 -0.05271508
000300 dc 9e 5e 3b fb c3 cc 38 a8 df b9 bd 11 05 99 3d
       0.00339692 9.763982e-05 -0.09075862 0.074716695
000310 b2 8f ad 3d fd 85 3c 3d 0c a8 08 bb 01 c2 a1 3d
       0.08474673 0.04602622 -0.0020852117 0.078983314
000320 f8 ed a8 3b 82 27 2e 8a e3 d3 9b bd 01 c1 79 3b
       0.005155321 -8.385226e-33 -0.076087736 0.0038109424
000330 7e 51 b1 bd f8 01 2c bb cf 5f 7e bc 8f d1 bf 3b
       -0.086581215 -0.002624629 -0.015525772 0.0058538388
000340 7e a0 99 2d 8a cb bb bb 3c dd 9e bb 8a 3b 92 3c
       1.7465359e-11 -0.005731051 -0.0048481505 0.017850656
000350 24 fe fa bc cf 90 cc bc 2d 32 9a bd ea 82 95 bc
       -0.030638762 -0.024971394 -0.075291015 -0.018250901
000360 3d 0c d2 36 76 6e 84 3d bf df d3 bc 14 4b 4d bd
       6.2599124e-06 0.06466381 -0.025863526 -0.05012043
000370 ae c4 3a 3c 2b d7 6f bd ee fe 09 bb db 09 5d bc
       0.011399431 -0.05855481 -0.002105649 -0.013491119
000380 e8 61 c6 bc ec 2f 12 3d 84 08 e7 3d cd 3b 09 36
       -0.024216607 0.035690233 0.11280921 2.04494e-06
000390 96 e9 10 3c 6b 1d 3d ba 79 40 fd b7 90 fc e9 bd
       0.008844754 -0.00072141615 -3.0189973e-05 -0.114251256
0003a0 96 12 d9 3d 7e 2d bb 3c c9 6b 07 00 3a c1 cf bc
       0.10599248 0.02284884 6.81515e-40 -0.025360692
0003b0 00 30 0f bc f1 dd be 3d 90 86 64 bb cb 1c 19 0f
       -0.008739471 0.09319676 -0.0034870245 7.549028e-30
0003c0 52 5a 15 bc e1 84 0a b8 ec ff 4c bc 07 4e be 3c
       -0.009115772 -3.3025517e-05 -0.012512188 0.023230566
0003d0 a9 ae c6 b9 f4 c7 8d 3d 3f ca 60 91 64 3c a3 3c
       -0.00037895635 0.06922904 -1.7732806e-28 0.019926257
0003e0 0b bc 87 3a 0a 96 af b5 42 92 14 bd cf 1b 76 3c
       0.0010355724 -1.3082183e-06 -0.036272295 0.0150212785
0003f0 09 a8 a7 3d a6 cd 7a bd 0c 91 23 be c9 d5 23 3c
       0.08186347 -0.061231278 -0.159733 0.009999701

encoder_b.convs.1.bias f4 [64]
000000 5e 61 c1 bc bc 24 39 bc bd 48 db 3c 27 5a 1d 3c
       -0.023605999 -0.011300262 0.026768083 0.0096040135
000010 c7 51 c0 3c 71 dd 7c bb cf ed 94 3d 93 18 b2 3c
       0.023476494 -0.0038584138 0.07271921 0.021740234
000020 30 97 0d 3d 6a 52 83 bc 1d 3b 38 3d 69 93 f3 bb
       0.03456801 -0.016030509 0.04497825 -0.007433344
000030 6d ad ae 3c 94 f4 89 3c 47 74 46 3d 6a 41 9b 3d
       0.02132293 0.016840257 0.048450734 0.07580836
000040 67 f0 1b bb a6 28 9c bc 88 b8 fa 3c 1a 64 c9 3b
       -0.0023794414 -0.019062351 0.03060557 0.0061459662
000050 34 1a 8c bc ce cb 44 3d 6e 05 b2 3c b2 bf 52 3c
       -0.017102338 0.048045926 0.021731105 0.012863087
000060 c4 32 26 3b cd 79 00 3d 35 a8 01 3d a8 27 be bc
       0.0025359849 0.03136616 0.031654555 -0.023212269
000070 31 6a b9 bc 94 b1 2f 3d 8f c1 6a 3c 9c ff e2 3c
       -0.022633644 0.04289396 0.0143283745 0.027709775
000080 19 1e 85 3b 98 3a 2e 3b a6 6e e7 3c a0 72 90 bc
       0.004062426 0.0026585218 0.028251003 -0.017632782
000090 c9 bb e9 3c 35 ab 94 bc 52 59 67 3c 05 11 1a 3d
       0.028531926 -0.018148044 0.014120417 0.037613887
0000a0 a0 c2 14 3d 2f 49 fc b9 e7 04 2f bc 63 ba 58 3c
       0.03631842 -0.00048119712 -0.010682321 0.013228032
0000b0 0c 53 f7 3c 4e f1 10 3d 78 98 84 bb 78 4b bf bc
       0.030190967 0.035386376 -0.004046496 -0.023351416
0000c0 17 57 6c 3d d9 af 29 bd e1 d7 d7 3c 0b b9 0f 3d
       0.057700243 -0.041427467 0.026348056 0.03508858
0000d0 f1 f0 97 bb 78 8f 0b 3c f1 47 64 bc 65 29 05 bd
       -0.0046368768 0.008518092 -0.013933168 -0.03251018
0000e0 3d 5a 3a 3b 59 5b ba bc bf c3 32 3c b2 93 1c bc
       0.0028435134 -0.022748636 0.010910927 -0.009556698
0000f0 6b 0c 0e 3d 7b 85 78 bc 4f 62 8d 3c 2a 5e 87 3b
       0.03467981 -0.015168543 0.017258791 0.0041310983
