results/ABIDE_3x5fold_seed0/fold2_rep0_seed2/ckpt_best_fold_2.pt (torch, 660362 bytes, 72 tensors)

encoder_c.convs.0.weight f4 [116, 64]
0	0x3c686d86	0.014186269
1	0xbd889720	-0.0666945
2	0x3c75ec0b	0.01500989
3	0xbbddc217	-0.006767522
4	0x3cc4d50c	0.02402737
5	0x3d32d92c	0.043664142
6	0xbd00ed41	-0.031476263
7	0xbe094e16	-0.13408694
8	0x3c31fc34	0.010863353
9	0x99b7fbbe	-1.9023434e-23
10	0x3ccc2a3e	0.024922486
11	0x3cca54b6	0.024698596
12	0xbd24bbd8	-0.040218204
13	0x3e0cd46c	0.13752908
14	0x3c2e63cc	0.010643911
15	0x3d939d82	0.072077766
16	0x3d8388d7	0.064225845
17	0xbd43c315	-0.047793467
18	0xbc0d001c	-0.008605983
19	0x3e22134d	0.15827675
20	0xbdeb95b2	-0.115031615
21	0xbad93a0d	-0.0016573087
22	0xbbba3e56	-0.0056837006
23	0x3d8df030	0.06930578
24	0xbc0cddef	-0.008597835
25	0x3c87799e	0.016537484
26	0xbc1371f5	-0.008999337
27	0xbdaf821a	-0.08569737
28	0xbdbd0770	-0.09229934
29	0xbd34bf17	-0.04412755
30	0xbe36dcfc	-0.17857736
31	0xbdcb5ef3	-0.099302195
32	0x3cb16793	0.021655833
33	0x3ddd1601	0.107952125
34	0x3b216526	0.002462694
35	0xbd61f0b4	-0.055161193
36	0x3dc92d0f	0.09823047
37	0xbabb7c99	-0.0014304101
38	0xbd8292a5	-0.063756265
39	0xbdd02a98	-0.10164374
40	0xbcf28283	-0.029603248
41	0xbe0a3f90	-0.1350081
42	0x3d2df62d	0.0424711
43	0x3d97159b	0.07377168
44	0xbc5c6972	-0.0134528745
45	0x3d75e50d	0.060032893
46	0x3da74f96	0.08169477
47	0x3b4ad907	0.0030952112
48	0x3cb7aab2	0.022420261
49	0x3c89a1ce	0.016800787
50	0xbbfafe7b	-0.007659731
51	0x3db8e643	0.09028294
52	0x3e073203	0.13202672
53	0x3d9a5c49	0.07537133
54	0xbd950316	-0.07275979
55	0x3c29644c	0.010338854
56	0xbb32aaa7	-0.0027262361
57	0x3de39a23	0.111133836
58	0x3c13687f	0.008997082
59	0x3e2f1736	0.17098698
60	0x3dab6f71	0.08370865
61	0xbdde419b	-0.10852357
62	0x3d8d375f	0.06895327
63	0x3e2c1150	0.16803479
64	0x3d18cea4	0.037306443
65	0xbd225adf	-0.039637443
66	0x3c78c997	0.0151847815
67	0xbd77fb0c	-0.06054215
68	0x3c69b944	0.014265362
69	0x3dab566c	0.08366093
70	0xbe356cf8	-0.1771735
71	0x3e05db65	0.13071974
72	0xbc05a8db	-0.008157934
73	0x8d88962c	-8.4178e-31
74	0x3b92af6a	0.0044764774
75	0x3d172373	0.03689904
76	0x3c0d0cc4	0.008609001
77	0xbe2ad20a	-0.16681686
78	0x3b892311	0.0041850884
79	0xbdb33178	-0.0874967
80	0x3e0c8deb	0.13726012
81	0xbc8f8349	-0.017518656
82	0xbd3e1a60	-0.046411872
83	0x3d01184d	0.031517316
84	0x3d3529ef	0.044229444
85	0xbd95bfcd	-0.07311974
86	0x3c3d5332	0.01155548
87	0x3d4f26ab	0.050573986
88	0xbdcee379	-0.10101981
89	0xbd3e7203	-0.04649545
90	0xbc8acbd8	-0.016942903
91	0xbdd7f8bb	-0.105454884
92	0x3db6ed5e	0.08931993
93	0xbc029a2a	-0.007971326
94	0x3d921f07	0.07134824
95	0x3dc16cb7	0.09444564
96	0xbe0844dd	-0.1330752
97	0xbded4da1	-0.11587072
98	0xbe023a94	-0.12717658
99	0xbcd4b866	-0.025966834
100	0xbd4cd54e	-0.05000811
101	0xbaf458b9	-0.0018642164
102	0xbe4d98ca	-0.20077816
103	0x3d6040fb	0.05474947
104	0x3db4852c	0.08814463
105	0x3d903fe3	0.070434354
106	0x3d8bed18	0.068323314
107	0x3e0a3c3e	0.13499543
108	0xbe20fe9d	-0.15722127
109	0x3d06a5cc	0.03287296
110	0x3e2bf567	0.16792832
111	0xbe0d0f0e	-0.13775274
112	0xbd4214ea	-0.047383226
113	0xbca4b710	-0.020106822
114	0xbcc7d1db	-0.02439206
115	0xbca9e963	-0.02074117
116	0xbc4f810b	-0.012665044
117	0x3dfef468	0.124489605
118	0xbd38deed	-0.045134474
119	0x3de71005	0.11282352
120	0x3dec82eb	0.11548408
121	0x3db4a6e4	0.08820894
122	0xbdb899c7	-0.09013706
123	0x3e12d1b7	0.14337812
124	0x3deb0939	0.114763685
125	0xbdb9bc4e	-0.090691194
126	0xbd370069	-0.044678126
127	0x3deb9f50	0.11504996
128	0xbc2791ec	-0.010227662
129	0xbe095a49	-0.13413347
130	0xbd57f094	-0.052719668
131	0x3bc67bad	0.006057224
132	0xbda131e2	-0.078708425
133	0xbe23941a	-0.15974465
134	0x3db37bf0	0.087638736
135	0x3da1a937	0.07893603
136	0x3c4e21b7	0.01258128
137	0x18146efb	1.9184582e-24
138	0x3e202d7a	0.15642348
139	0x3abe7771	0.0014531446
140	0xbe2a198f	-0.16611312
141	0xbc82bfc9	-0.01596059
142	0x3c53a3b1	0.012917445
143	0x3db139d2	0.086536065
144	0x3bdc12aa	0.006716092
145	0x3d29846b	0.04138605
146	0xbdebd7d8	-0.11515778
147	0x3e0cf05b	0.13763563
148	0x3df767b3	0.12080326
149	0xbde28e29	-0.11062271
150	0xbca552f8	-0.020181164
151	0xbcad89dc	-0.0211839
152	0xbde4e0cd	-0.1117569
153	0xbd260456	-0.04053148
154	0xbd3d79c6	-0.04625871
155	0xbe0ab651	-0.1354611
156	0xbdac3435	-0.08408395
157	0xbc2f09cb	-0.010683487
158	0x3e34c97b	0.17654984
159	0x3d8db348	0.06918961
160	0xbdc00034	-0.09375039
161	0x3e0b7232	0.13617781
162	0x3cd1bb2f	0.025601951
163	0xbe2ec3f8	-0.17066944
164	0xbc224798	-0.009904765
165	0xbae86e8e	-0.0017733143
166	0xbdc2b97d	-0.09508035
167	0xbcb1f69b	-0.021724036
168	0xbd9c4bc0	-0.07631636
169	0xbdf3b8c8	-0.119004786
170	0xbc71f854	-0.014768679
171	0x3bc04de3	0.00586866
172	0x3dd3aa36	0.103351995
173	0xbcc414de	-0.023935732
174	0xbe112c72	-0.14177111
175	0x3c0cd9e5	0.008596872
176	0xbdcbb646	-0.09946875
177	0x3d08e8aa	0.03342501
178	0x3cb57417	0.022150083
179	0x3d74c620	0.05975926
180	0xbd9a0126	-0.0751975
181	0xbd2d24ce	-0.042271428
182	0x3dc208ec	0.09474358
183	0x3d53b65d	0.051687587
184	0xbdb66bd7	-0.089072876
185	0xbdec270d	-0.11530886
186	0xbcde7367	-0.027154638
187	0x3d5d322f	0.054002937
188	0x3df5b8fe	0.11998175
189	0x3d8a5177	0.067538194
190	0x3d80cb51	0.062887795
191	0xbe0c7dfa	-0.13719931
192	0x3c6cdd34	0.014457036
193	0x3db9726c	0.09055027
194	0xbd7d0873	-0.061775636
195	0xbb840bdf	-0.0040297355
196	0xbc94c54b	-0.018160483
197	0xbde71d43	-0.11284878
198	0x3dc0fb4c	0.09422931
199	0x3de392ba	0.1111197
200	0xbbacf77c	-0.005278526
201	0x8d09449b	-4.2298965e-31
202	0xbd8082be	-0.06274937
203	0xbdca6909	-0.09883315
204	0xbce81a01	-0.028332712
205	0x3dfd016e	0.12353788
206	0xbc01c2c0	-0.007919967
207	0xbcc93e6b	-0.024565896
208	0xbc51ec5f	-0.012812703
209	0xbc7f49c4	-0.015581552
210	0xbdd44c8e	-0.10366164
211	0xbd084a5f	-0.03327405
212	0x3c95a8ee	0.018269029
213	0xbdc0dc69	-0.0941704
214	0xbe305537	-0.17220007
215	0x3d10d432	0.035358615
216	0x3d305bed	0.043056417
217	0xbd6b8a8d	-0.05750518
218	0x3d7e610d	0.062104274
219	0x3e125d4b	0.14293401
220	0x3d300709	0.04297546
221	0xbd46e061	-0.04855383
222	0x3e37287f	0.17886542
223	0x3e02525e	0.12726733
224	0xbb5ff416	-0.0034172586
225	0xbd6fe28b	-0.058565658
226	0xbd69f542	-0.05711866
227	0x3df7eed0	0.12106097
228	0x3d8ab1f0	0.0677222
229	0xbb79f165	-0.0038138267
230	0x3c7164dd	0.01473352
231	0x3cd82f63	0.026389783
232	0x3cb4b319	0.022058057
233	0xbc032045	-0.008003299
234	0x3b285c2a	0.00256897
235	0xbc646bab	-0.013941686
236	0x3bcb664e	0.006207264
237	0xbd4d188a	-0.05007223
238	0xbda3a751	-0.079908974
239	0xbd9e3f7f	-0.07726955
240	0xbd09f4aa	-0.033680595
241	0x3db45f93	0.08807292
242	0xbbf657d4	-0.007517794
243	0xbe0b9099	-0.13629378
244	0x3e21be52	0.15795258
245	0x3d89bd9f	0.067256205
246	0x3e0552d0	0.13019872
247	0x3d9fcae8	0.07802373
248	0xbb7b4fa7	-0.0038347037
249	0xbe018ccd	-0.12651367
250	0xbd6f3a11	-0.058404986
251	0xbcbbe4c4	-0.022936232
252	0x3d335173	0.043778848
253	0xbe1ba8af	-0.15201066
254	0xbe120666	-0.14260253
255	0x3de9a023	0.11407497

encoder_c.convs.0.bias f4 [64]
0	0x3ae8d421	0.0017763415
1	0x3c5570e7	0.013027406
2	0x3c80b295	0.015710155
3	0x3be1e8de	0.006894215
4	0x3c1f733d	0.009732065
5	0xbb2719ba	-0.0025497512
6	0x3adb82b7	0.001674733
7	0x3bc0ef9b	0.005887938
8	0x3b333319	0.002734369
9	0xbb826d0d	-0.003980285
10	0x3c09c7ab	0.008409421
11	0x3ca17af4	0.019711949
12	0x3cea2729	0.028583126
13	0xbbb821f0	-0.00561928
14	0x3d1282fd	0.03576945
15	0x3c64c127	0.013962067
16	0xbbfaec55	-0.0076575675
17	0x3c574480	0.01313889
18	0x3c11835e	0.008881418
19	0xbbcc0916	-0.006226669
20	0x3b284dc8	0.0025681127
21	0xbc08aed7	-0.008342466
22	0x3cd5a467	0.02607937
23	0x36397586	2.7635556e-06
24	0xb9c5355f	-0.00037614533
25	0x3b464ae0	0.0030257031
26	0x3a730446	0.0009270351
27	0x3b0721ed	0.0020619587
28	0x3bf55b73	0.0074877082
29	0xbb10afbd	-0.0022077404
30	0x39e4aaf8	0.0004361493
31	0x3c1a2ef3	0.009410608
32	0x36fbbc9e	7.502341e-06
33	0x3c85ccc2	0.016332988
34	0x3bab325e	0.00522451
35	0x3be0b457	0.0068574357
36	0x3b2d9a71	0.002648976
37	0xbbeb2a06	-0.0071766404
38	0x3c10b7f0	0.008832917
39	0x3c1715bc	0.0092214905
40	0x3d103380	0.035205364
41	0x3c9617b8	0.018321857
42	0x3c08a97c	0.0083411895
43	0xbbab8890	-0.0052347854
44	0x3c3acd30	0.01140146
45	0xb993ef61	-0.00028216376
46	0x3a8a5ae7	0.0010555655
47	0x39bb2df4	0.00035701657
48	0x3cde3739	0.027125942
49	0x3c386d96	0.011256596
50	0x3c375ed7	0.011192045
51	0x3c4b80f3	0.012420881
52	0x3b947de3	0.0045316084
53	0xbb91602e	-0.0044365143
54	0x3c7f57e1	0.015584917
55	0x3c27e9da	0.010248626
56	0x3c468093	0.012115615
57	0x3b99e238	0.004696157
58	0x3b3af63b	0.0028528112
59	0x3c6087a3	0.013704213
60	0xbc660a12	-0.014040487
61	0x3cc343f1	0.023836108
62	0x3b936d66	0.0044991253
63	0x3b287b73	0.0025708347

encoder_c.convs.1.weight f4 [64, 64]
0	0xbc072a41	-0.00824982
1	0x3d111f2c	0.03543012
2	0x37bed293	2.2747821e-05
3	0xb907c87e	-0.00012949292
4	0xbc9be9b3	-0.019032335
5	0x39ea1216	0.00044645433
6	0x3c5595c7	0.013036198
7	0xbad3a5de	-0.0016147455
8	0xbc12f8e8	-0.008970477
9	0x3c45bd25	0.012069021
10	0x3d201f0b	0.039092105
11	0x3c56bda2	0.013106735
12	0xbb63ec34	-0.003477824
13	0xbc8d7fb0	-0.0172728
14	0x3ca94a0f	0.020665197
15	0x3c92d134	0.017922021
16	0xba4a410f	-0.0007715383
17	0xbb95e278	-0.0045741163
18	0x3c18d2a5	0.009327565
19	0x39e88afa	0.00044354034
20	0x3ce00315	0.02734522
21	0x3be2e670	0.006924443
22	0xbbdb3a9d	-0.006690337
23	0xbc014383	-0.007889631
24	0xbd0a0daf	-0.033704456
25	0x3b4a29a1	0.0030847567
26	0x068780f6	5.0970847e-35
27	0xbc1c53cd	-0.009541464
28	0xbcb67b07	-0.02227546
29	0xbbf33b7b	-0.007422862
30	0x3cb3d5a9	0.021952467
31	0xbb9b064a	-0.0047309743
32	0x3ac47136	0.0014987353
33	0xbcd6e7da	-0.026233602
34	0xb8f5ee74	-0.00011726926
35	0xbd51572f	-0.051108535
36	0x3bc9e3e7	0.0061612013
37	0xbc041c08	-0.008063324
38	0x3c8e7bd6	0.017393034
39	0x3cf96937	0.030445678
40	0x3a26fc85	0.0006370026
41	0x3c985d09	0.01859905
42	0xbc1fdc87	-0.009757168
43	0x3d43cefd	0.04780482
44	0x3c9b3740	0.018947244
45	0xbca57233	-0.020196056
46	0x3c7551ec	0.014973145
47	0x3c0cad8f	0.0085863015
48	0xbd0f8580	-0.035039425
49	0x3cc088fe	0.023502823
50	0xbb63a41c	-0.0034735268
51	0x3c7de4c5	0.015496437
52	0x3c811abe	0.015759822
53	0x3c34eedb	0.011043276
54	0xbbaedc8b	-0.0053363494
55	0xb82cea30	-4.12261e-05
56	0xbc08a63f	-0.008340417
57	0x3c0e1e38	0.008674197
58	0x1140a501	1.5196975e-28
59	0x3c8921b5	0.016739706
60	0xbd36fa7b	-0.04467247
61	0xbc3d2aac	-0.011545818
62	0xbba6b6b7	-0.0050876993
63	0x3c89e5c3	0.016833192
64	0x3c6b3124	0.014354978
65	0x3e6593e8	0.22419703
66	0x3b726013	0.0036983534
67	0x389b30fc	7.4001e-05
68	0xbe420c79	-0.1895007
69	0xbc35d8ee	-0.011099083
70	0x3deb3b45	0.11485914
71	0x3d031117	0.03199872
72	0xbd6dc477	-0.05804869
73	0x3d231d92	0.039823122
74	0x3e39f2f9	0.18159093
75	0xbd86732f	-0.06564938
76	0x3c2769bc	0.01021808
77	0xbd979b2a	-0.07402642
78	0xbbb635d6	-0.005560617
79	0x3cf37a0d	0.029721284
80	0xbe1e9c17	-0.15489231
81	0xbd2fc162	-0.042909034
82	0x3c9648e0	0.018345296
83	0x3b09a000	0.0020999908
84	0x3d943151	0.07235969
85	0x3dc27709	0.094953604
86	0x3c4e43a2	0.012589367
87	0xbd034101	-0.032044414
88	0x3e3f1738	0.18661201
89	0x3c29aba8	0.010355867
90	0x89035eb7	-1.5813086e-33
91	0x3cbdd936	0.023174863
92	0xbe520681	-0.20510294
93	0xbd97405a	-0.07385321
94	0x3e266daf	0.16252778
95	0xbe70f8b6	-0.23532376
96	0x3dcb8562	0.0993755
97	0xbe1905cd	-0.14943619
98	0x3dd38fb8	0.103301466
99	0xbdcea780	-0.10090542
100	0x3da35f7a	0.07977195
101	0xbd54b6b6	-0.05193206
102	0xbc4ac995	-0.012377162
103	0xbd63475e	-0.055487983
104	0xbd9d93e0	-0.076942205
105	0x3e0610e8	0.13092387
106	0x3d46a446	0.048496507
107	0x3e3fdc66	0.18736419
108	0xbcf839e8	-0.03030105
109	0xbcdc048b	-0.026857635
110	0x3df8942b	0.12137636
111	0x3d1e7b28	0.03869167
112	0x3d6e90b4	0.05824347
113	0x3e839762	0.25701433
114	0x3c8fdbf8	0.017560944
115	0x3e2c0dd7	0.16802154
116	0x3e6f4b1c	0.23368496
117	0x3de3798b	0.11107167
118	0xbe33d228	-0.17560637
119	0xb93de046	-0.00018107993
120	0xbd3d5ad8	-0.046229213
121	0x3e2b1689	0.16707815
122	0x35dc38c6	1.64078e-06
123	0xbc24e851	-0.010065154
124	0x3e5e174c	0.21688575
125	0xbe51da78	-0.20493495
126	0xbe0374c4	-0.12837511
127	0x3d0da83f	0.03458428
128	0x3ca6f441	0.020380141
129	0xbcc4093c	-0.023930185
130	0xb9ada0da	-0.00033116975
131	0xb6d2a016	-6.277124e-06
132	0x3c1b2bf6	0.00947093
133	0x3cb1ae2c	0.021689497
134	0xbc3c5ef0	-0.011497244
135	0x3d830754	0.06397882
136	0x3cf98663	0.030459588
137	0xbd6cce7f	-0.057814118
138	0xbcd1ac15	-0.02559475
139	0xbd41be29	-0.04730049
140	0x3cd9baf5	0.026578406
141	0x3d749b5c	0.059718475
142	0xbd612d28	-0.054974705
143	0xbdb3d4ff	-0.0878086
144	0x3d476041	0.04867578
145	0x3d2ff20f	0.042955454
146	0x3cd5e4a9	0.02611001
147	0xba07f7c5	-0.0005186762
148	0xbd48d85d	-0.049034465
149	0xbdb9bb25	-0.09068898
150	0x3d78ee54	0.060774162
151	0xbc64e911	-0.013971583
152	0xbcd1f676	-0.025630217
153	0x3c2eed30	0.010676667
154	0x0bebe429	9.0862005e-32
155	0x3d502af2	0.050822206
156	0x3d643303	0.05571271
157	0x3dceede1	0.101039656
158	0xbd3db988	-0.046319515
159	0x3d8f3730	0.06992948
160	0xbd2433ea	-0.04008857
161	0x3d9f9e45	0.077938594
162	0xbcbebaf1	-0.0232825
163	0x3e0bf9d8	0.13669527
164	0xbd69d0a9	-0.05708376
165	0x3d79b25a	0.060961105
166	0xbd6f70a2	-0.058457024
167	0xbd65bd61	-0.05608881
168	0x3d828506	0.063730285
169	0xbd2f2b12	-0.042765684
170	0x3d195a1f	0.03743946
171	0xbd4ba1db	-0.049714904
172	0xbd3fe90d	-0.046853114
173	0x3d591f6d	0.053008486
174	0xbd422c20	-0.047405362
175	0x3cc40485	0.023927936
176	0x3d75f477	0.060047593
177	0xbd53d39a	-0.05171547
178	0x3d56207e	0.05227708
179	0xbd782773	-0.060584497
180	0xbd4a13f1	-0.049335424
181	0xbcad0755	-0.02112166
182	0x3d748247	0.059694555
183	0x39099ff7	0.0001312493
184	0x3d0fc7df	0.03510272
185	0xbd126cba	-0.03574822
186	0xb0d49f8d	-1.5470377e-09
187	0x3c899cb1	0.01679835
188	0xbd7d5906	-0.061852477
189	0x3de19e01	0.11016465
190	0x3db62ed1	0.08895648
191	0xbd641a48	-0.055689126
192	0x3aba10b5	0.0014195653
193	0x3d970da0	0.07375646
194	0xbae38f7f	-0.0017361491
195	0xba08adcb	-0.00052138855
196	0xbdb4ff05	-0.088377036
197	0x3c05afe4	0.008159611
198	0xbd089c3c	-0.03335212
199	0xbd269968	-0.040673643
200	0xbd89ab81	-0.06722165
201	0x3b30d28f	0.0026980971
202	0xbd40dd5f	-0.047086116
203	0x3d5175f8	0.051137894
204	0xbb4f2c15	-0.0031611968
205	0xbd08fb0c	-0.033442542
206	0x3c121d66	0.008918142
207	0x3cb3c037	0.021942241
208	0x3d9b70a8	0.07589847
209	0xbd196f88	-0.03745988
210	0x3b904a04	0.0044033546
211	0xbb546356	-0.0032407842
212	0x3c2f5952	0.010702448
213	0x3cd15653	0.025553858
214	0xbbac344a	-0.005255257
215	0x3c6a88da	0.0143148545
216	0x3c4ef12f	0.012630745
217	0xbc6976e7	-0.01424954
218	0x88605777	-6.7510362e-34
219	0xbc08517a	-0.008320207
220	0x3d69c090	0.057068408
221	0xbd275509	-0.04085258
222	0x3b770f36	0.0037698275
223	0x3ccdb944	0.025112756
224	0xbda63446	-0.08115439
225	0xbd0632ee	-0.032763414
226	0xbd456ad0	-0.048197567
227	0xbc61cd2f	-0.01378183
228	0x3b283527	0.0025666447
229	0xbd15bb47	-0.036555555
230	0x3bebf2db	0.0072005815
231	0x3d7c4ee6	0.06159868
232	0xba886984	-0.0010407423
233	0x3c82c163	0.015961355
234	0xbcf2beba	-0.029631961
235	0xbc7a8d01	-0.015292407
236	0x3c389cf3	0.011267888
237	0x3d046aee	0.03232854
238	0x3c9bbabb	0.019009938
239	0x3d6eab39	0.05826876
240	0x3d52e2d7	0.051485863
241	0x3c7985b6	0.015229633
242	0xbac9452c	-0.0015355698
243	0xbd90630d	-0.070501424
244	0x3c2746d6	0.01020976
245	0xbd052eea	-0.032515444
246	0x3ab268b9	0.0013611532
247	0xba6ae0c7	-0.0008959886
248	0xbd8242ab	-0.06360372
249	0x3da2b255	0.079441704
250	0xb301b944	-3.020365e-08
251	0x3c8c1c46	0.017103326
252	0x3d9b6e06	0.07589345
253	0xbb22035e	-0.0024721245
254	0x3b8a2b19	0.0042165634
255	0x3ca08606	0.019595157

encoder_c.convs.1.bias f4 [64]
0	0xbc92c499	-0.01791601
1	0x3bd55445	0.00651029
2	0xbbf4be6b	-0.0074689887
3	0x3b0f4d7f	0.002186626
4	0xbb2dfd7d	-0.0026548796
5	0xb8c8a879	-9.568124e-05
6	0xbc095586	-0.008382207
7	0x3c47f403	0.012204173
8	0x3c31ac79	0.010844343
9	0xbc2fe37a	-0.010735387
10	0x3ae6ad54	0.0017599263
11	0xbba73130	-0.005102299
12	0x3c81002f	0.015747158
13	0x3cd96de5	0.02654166
14	0x3c6145bb	0.013749535
15	0x3a0f9b7b	0.00054781855
16	0x3afe3d8d	0.0019397006
17	0x3c71b576	0.014752736
18	0x3cbaced5	0.022803703
19	0xbca8d548	-0.020609513
20	0x3bf1047f	0.0073552723
21	0x3c30a114	0.0107805915
22	0x3c61d63e	0.0137839895
23	0xbd08beda	-0.033385135
24	0xbb303327	-0.0026885958
25	0xbbbd6179	-0.005779442
26	0xbc944e02	-0.018103603
27	0x3c9b7d05	0.018980512
28	0x3c492e3a	0.012279088
29	0x3cd55fea	0.026046712
30	0x3cb82daf	0.022482721
31	0x3c5d682f	0.013513609
32	0xba29ee8d	-0.0006482385
33	0x3c58486c	0.0132008605
34	0xbc4694fc	-0.012120482
35	0x3cad7510	0.021173984
36	0x3acb9b2d	0.0015533917
37	0x3cdaefa1	0.026725592
38	0x3a39a3a4	0.00070815743
39	0xbbc8d72e	-0.006129167
40	0x3c47c6cb	0.012193392
41	0x3c0e7706	0.00869537
42	0x3aba92be	0.0014234406
43	0x3c1bd617	0.009511492
44	0xbb89debe	-0.004207461
45	0x3c9315da	0.017954756
46	0xbbb007ca	-0.0053720223
47	0x3c7783dd	0.015107122
48	0x3a1f1ccb	0.0006069659
49	0x3bea518f	0.007150836
50	0x3bfbc48c	0.0076833423
51	0x3b21bc70	0.0024678968
52	0x3be243f5	0.0069050738
53	0x3c52ab78	0.012858264
54	0x3bf41510	0.0074488
55	0xb986b17d	-0.0002569071
56	0x3c389406	0.01126576
57	0x3ca83f04	0.02053786
58	0xbc415f52	-0.011802511
59	0xbb9d6c2f	-0.0048041563
60	0x3c0c8fe5	0.008579229
61	0x3c413d3a	0.011794383
62	0x3ca61d9f	0.020277796
63	0xbae9c892	-0.0017836264

encoder_c.convs.2.weight f4 [64, 64]
0	0xbd4f261f	-0.050573464
1	0x3d22f4eb	0.039784353
2	0xbd4bb9fc	-0.049737915
3	0x3ba5c7a8	0.0050592013
4	0x3d0a5a1c	0.03377734
5	0x3dafbf7b	0.08581444
6	0x3e166938	0.14688575
7	0x3cd13089	0.025535839
8	0xbdb0765d	-0.08616326
9	0x3db02bd7	0.08602112
10	0x3c5786d9	0.013154709
11	0x3e0a037f	0.13477896
12	0x3d489222	0.048967488
13	0x3cd2ff99	0.025756644
14	0xbd5bccc6	-0.053662084
15	0xbdc4380a	-0.09581001
16	0x3e06e5b5	0.13173564
17	0x3d4fe870	0.05075878
18	0xbe57fd68	-0.2109276
19	0xbd932dc3	-0.07186463
20	0x3d25d4aa	0.040486015
21	0x3d38ca91	0.045115057
22	0x3e03c7f4	0.12869245
23	0x3de0bb08	0.109731734
24	0x3d9d4e38	0.07680935
25	0x3d04faa6	0.0324656
26	0x3d8b45f3	0.06800451
27	0xbc9cd42e	-0.019144144
28	0x3cc9dbd2	0.024640951
29	0x3e3d6e69	0.1849915
30	0xbdc19b1d	-0.09453414
31	0xbd9e68b0	-0.07734811
32	0xbbc03978	-0.005866226
33	0xbe095be0	-0.13413954
34	0xbd33cdc7	-0.043897416
35	0x3d4ca763	0.04996432
36	0xbdc19561	-0.0945232
37	0x3b95fb43	0.004577072
38	0xbd3cbba4	-0.046077386
39	0x3d3c6df3	0.046003293
40	0x3dbd7686	0.09251122
41	0xbd38ab4f	-0.045085248
42	0x3ca0c942	0.019627217
43	0xbd3a88bf	-0.045540567
44	0xbc0f28c1	-0.008737744
45	0x3e0a330e	0.13496038
46	0x3e467832	0.19381788
47	0x3ddd8573	0.10816469
48	0x3e044b63	0.12919383
49	0xbcecc933	-0.028904533
50	0xbc8d782d	-0.017269218
51	0xbceb2ba5	-0.028707335
52	0xbda3b620	-0.07993722
53	0xbd92583a	-0.07145734
54	0xbdac4b10	-0.084127545
55	0x3dcaf173	0.09909334
56	0xbd9c7852	-0.07640137
57	0xbd9d7c60	-0.07689738
58	0x3e180152	0.14844254
59	0x3d3123ba	0.043246962
60	0xbb0d169b	-0.0021528366
61	0xbdb9be36	-0.09069483
62	0xbd1f138e	-0.03883701
63	0xbd9d7122	-0.07687594
64	0x3dc3f7bd	0.09568737
65	0x3dcc63ec	0.09979996
66	0x3d6aef14	0.05735691
67	0x3da9536c	0.082678646
68	0x3e07c01e	0.1325688
69	0xbb6266a4	-0.0034546042
70	0x3ca0169f	0.019542037
71	0x3e2d8ee5	0.16949041
72	0xbdf11648	-0.11771828
73	0xbe0d782a	-0.1381537
74	0xbd5605de	-0.05225169
75	0x3dc5625e	0.09637903
76	0x3dcf486e	0.10121237
77	0xbdefae4a	-0.11703165
78	0xbda46d45	-0.08028654
79	0x3e30d806	0.17269906
80	0xbe1d05f6	-0.15334305
81	0xbd166533	-0.036717605
82	0xbd17b074	-0.037033513
83	0x3e3758c6	0.17904958
84	0xbdc70c20	-0.097191095
85	0xbe188104	-0.14892966
86	0xbe2fbd9e	-0.17162177
87	0xbd9c6f34	-0.07638398
88	0xbe00141b	-0.1250767
89	0x3e018eaa	0.12652078
90	0xbc476216	-0.012169382
91	0x3e1c2a95	0.15250619
92	0xbe48f584	-0.19624907
93	0xbe009dac	-0.12560147
94	0x3d967e71	0.073483355
95	0xbdb2fe6d	-0.08739934
96	0xbe5ff60f	-0.21871208
97	0x3ddf7344	0.10910657
98	0xbe07471a	-0.13210717
99	0x3cd04f8f	0.025428561
100	0x3e1d4fe9	0.15362515
101	0xbdc22c38	-0.0948109
102	0xbe70f835	-0.23532183
103	0xbdc7e040	-0.09759569
104	0xbdeddf67	-0.11614876
105	0x3ddb7fd4	0.10717741
106	0x3dd3e602	0.10346605
107	0x3e501868	0.2032181
108	0xbe20ae6c	-0.15691537
109	0x3df5cb09	0.120016165
110	0x3d18888c	0.037239596
111	0xbda4902a	-0.080353096
112	0xbc904dd4	-0.017615236
113	0x3e16b3eb	0.14717071
114	0x3d9f7534	0.077860266
115	0xbd091eac	-0.033476517
116	0xbe198cb5	-0.14995082
117	0xbe174cb2	-0.1477535
118	0xbc30b99d	-0.010786441
119	0xbde3e06d	-0.1112679
120	0x3d7ba385	0.06143524
121	0xbc73f37f	-0.014889597
122	0x3ca4a032	0.020095918
123	0xbe48bdad	-0.19603606
124	0xbb8c594f	-0.0042831074
125	0x3e3db491	0.18525912
126	0xbe00768b	-0.1254522
127	0x3d7bf2f9	0.061511014
128	0xb9e7ea42	-0.0004423429
129	0xba7031a7	-0.0009162672
130	0xba36477b	-0.00069534004
131	0x3a7ff467	0.0009763897
132	0xbad72bc3	-0.001641624
133	0x3ab3f24e	0.0013728829
134	0x3aaa4be7	0.0012992591
135	0xba6cbc26	-0.0009030722
136	0xba93ff11	-0.0011291226
137	0x3a25495b	0.00063051813
138	0x3a9f5f13	0.0012159072
139	0x3aa99b9b	0.0012940051
140	0x39babaed	0.00035615955
141	0x3a9783a1	0.0011559614
142	0xba5e683c	-0.000848416
143	0xba48cd22	-0.00076599617
144	0x3a722ede	0.0009238551
145	0x3a071167	0.00051524345
146	0xbaabbc25	-0.0013102336
147	0xba651f28	-0.00087402994
148	0x39df8f9b	0.0004264087
149	0x3a0f5df2	0.0005469016
150	0x3a80cdc0	0.0009826943
151	0x3bb084df	0.005386933
152	0x3a707c36	0.00091737823
153	0x3a88d32f	0.0010438914
154	0x3a0910fc	0.0005228666
155	0xba80eb3f	-0.0009835734
156	0x3a3fa986	0.0007311333
157	0x3a229203	0.0006201567
158	0xba6c6453	-0.0009017635
159	0xb9eb0c71	-0.00044831962
160	0x3a80abee	0.0009816864
161	0x3b846fab	0.004041632
162	0xba452502	-0.0007520468
163	0x3a5b89b0	0.0008374704
164	0xba99dfc8	-0.0011739666
165	0x3a8be5ec	0.001067338
166	0x3b07fd64	0.0020750398
167	0x39e4c702	0.0004363582
168	0x3a5f6b75	0.0008522787
169	0xba813caf	-0.0009860004
170	0x38281901	4.0077608e-05
171	0xb9ea5dde	-0.00044701895
172	0xb5823198	-9.700188e-07
173	0x3aa33fbf	0.0012454911
174	0x3a32b239	0.00068167184
175	0x3a548d59	0.00081082206
176	0x3a83da30	0.0010059532
177	0xb711d28b	-8.691694e-06
178	0x3a6755b9	0.00088247244
179	0x3a8fbb51	0.0010965859
180	0x3a654f19	0.0008747443
181	0xba26e0c4	-0.000636589
182	0xba10a655	-0.00055179495
183	0x39e108d4	0.00042921922
184	0xba0689b1	-0.0005132212
185	0xba38005d	-0.0007019097
186	0x3a907dba	0.0011023798
187	0x3a4a2b85	0.00077121734
188	0x3a969a9e	0.0011490171
189	0xba5d1d4f	-0.0008434848
190	0x3a82efec	0.0009989715
191	0xba388ade	-0.0007039736
192	0xb9ba982a	-0.00035590056
193	0xbb13541e	-0.0022480558
194	0xba535358	-0.00080614304
195	0x3a5e1769	0.00084721163
196	0xbad1bb9b	-0.0016001345
197	0x3a75da72	0.0009378559
198	0x3b363940	0.002780512
199	0xb92fb17f	-0.00016755423
200	0xba023bfc	-0.0004968045
201	0x37259594	9.869593e-06
202	0x3ae512fc	0.0017476971
203	0x3abcc1c5	0.001440101
204	0xb5552d7d	-7.941488e-07
205	0x3acba82c	0.001553779
206	0xbae2b37e	-0.0017295924
207	0xba92e8cb	-0.0011208294
208	0x3b08597f	0.0020805297
209	0x3ad34692	0.0016119054
210	0xbb45c12b	-0.0030174952
211	0xbb045636	-0.0020192987
212	0x395c7760	0.00021025306
213	0x393fd9d7	0.00018296331
214	0x3b3641af	0.0027810147
215	0x3b3e9c97	0.0029085034
216	0x3a11ce0c	0.00055620144
217	0x3b2e3577	0.002658216
218	0x3ab32fde	0.0013670882
219	0xbb3f7564	-0.0029214257
220	0x394e9650	0.00019701687
221	0x3b49880b	0.0030751254
222	0xbb079b61	-0.0020691978
223	0xb9ec9a4d	-0.0004512839
224	0x39fab1f8	0.00047816313
225	0xbb493016	-0.0030698827
226	0xba63850d	-0.0008679189
227	0x3b40b99e	0.0029407511
228	0xbb2c7dd3	-0.0026320114
229	0x3b25b350	0.002528388
230	0x3b004a2f	0.0019575467
231	0x39f0fb91	0.000459638
232	0x3a802ad8	0.0009778393
233	0xba0020d9	-0.0004887707
234	0x389346c8	7.02269e-05
235	0x37ad6b3f	2.0673147e-05
236	0xb70c4e2c	-8.362851e-06
237	0x3b24a8bc	0.0025124988
238	0x3b3c55f4	0.0028737755
239	0x3abf3b50	0.001458982
240	0x3b453fc2	0.0030097817
241	0xb588fd0a	-1.0206434e-06
242	0x3a549e17	0.00081107154
243	0x39e17e87	0.00043009614
244	0x3b47ea00	0.0030504465
245	0xba1b47af	-0.00059234624
246	0xbb369fea	-0.0027866312
247	0x3b0928c0	0.002092883
248	0xbb0ed860	-0.002179645
249	0xb9c07b0d	-0.00036712774
250	0x3a51433c	0.0007982736
251	0x3b45eaf8	0.0030199867
252	0x3a93663e	0.001124568
253	0xbb479e7a	-0.003045945
254	0x3b298f89	0.0025872907
255	0xbb2b768a	-0.0026163184

encoder_c.convs.2.bias f4 [64]
0	0xbc340cd9	-0.010989391
1	0xbb34b848	-0.002757566
2	0xbbd8472d	-0.0066002817
3	0x3ca1f799	0.019771384
4	0xbc02a0e7	-0.007972932
5	0xbbb26047	-0.005443606
6	0x3bbeff1c	0.0058287513
7	0x3c9dc99d	0.019261176
8	0xbc10a990	-0.008829489
9	0xbc67ead4	-0.0141551085
10	0xbbb8d43c	-0.0056405347
11	0xbbaa80d5	-0.0052033463
12	0xbb89ae28	-0.0042016692
13	0xbbac212f	-0.005252979
14	0xbb78a838	-0.0037942063
15	0xba9b8b6d	-0.0011867114
16	0x3c19000d	0.009338391
17	0xb9e39365	-0.0004340663
18	0xbc1bc614	-0.009507675
19	0xbb10a190	-0.0022068955
20	0x3c4c3679	0.012464159
21	0x3b983d70	0.004645996
22	0x3bc4547b	0.005991516
23	0x3b78231f	0.003786273
24	0x3bdaa66f	0.0066726725
25	0x3b892abe	0.0041860035
26	0x3bed59fc	0.007243393
27	0xba811ae1	-0.000984993
28	0x3c71681b	0.014734293
29	0x3bce5474	0.0062966887
30	0xbb033073	-0.0020017892
31	0xbcdfd02d	-0.027320946
32	0xbc0c3029	-0.008556404
33	0xbbb2ba46	-0.0054543344
34	0xbca3167d	-0.019908184
35	0x3b412178	0.0029469412
36	0xbb3468f0	-0.0027528368
37	0x3b065631	0.0020498151
38	0xbba9d514	-0.0051828716
39	0x3c5a05bb	0.01330703
40	0x3c27e5d6	0.010247668
41	0x3c88b196	0.016686242
42	0x3d0da1e8	0.034578234
43	0x3ce1cd18	0.027563617
44	0xbd57b560	-0.052663207
45	0x3bff41ba	0.0077898176
46	0x3b3403b1	0.002746802
47	0x3ab33b72	0.0013674332
48	0x3b6ac80a	0.00358248
49	0xbb853b84	-0.0040659327
50	0x3c865bf9	0.016401278
51	0xbc7134c3	-0.014722052
52	0x3b851ed2	0.004062512
53	0xbcbe70a9	-0.02324708
54	0xbbbfdf9d	-0.005855514
55	0x3b7f534b	0.0038959559
56	0xbc501b71	-0.012701855
57	0xbcfce404	-0.030870445
58	0x3bf77c4e	0.00755266
59	0x3ba40aef	0.005006186
60	0x39de730f	0.00042428865
61	0xbbf403f6	-0.0074467612
62	0x3b7bb0ae	0.003840487
63	0xbc2d5cc3	-0.010581198

encoder_b.convs.0.weight f4 [116, 64]
0	0x3d53256d	0.051549364
1	0xbd3927f4	-0.045204118
2	0xbcd89b9d	-0.02644139
3	0xbd0c2ebd	-0.03422426
4	0xbe21347a	-0.15742674
5	0xbd7b9d96	-0.061429583
6	0xbc190892	-0.009340422
7	0xbdaaf876	-0.083481714
8	0xbddab2ad	-0.10678611
9	0x3cbb8a60	0.02289313
10	0xbad71a17	-0.0016410974
11	0xbdb324f3	-0.08747282
12	0xbded36a1	-0.11582685
13	0xbb72f667	-0.0037073137
14	0x3d787335	0.060656745
15	0x3df49be1	0.11943794
16	0x3cfab397	0.030603213
17	0x3d2037b6	0.03911563
18	0xbda37490	-0.07981217
19	0x3b3e36a9	0.002902428
20	0x3d94598d	0.07243643
21	0x3da16cc1	0.07882071
22	0x3dc06da8	0.09395915
23	0x3dd61422	0.10453059
24	0xbe03a421	-0.12855579
25	0xbd9a07d6	-0.07521026
26	0xbce8aa46	-0.028401505
27	0xbdef224c	-0.116764635
28	0x3daca9f9	0.08430857
29	0xb992dca0	-0.00028011668
30	0x3dc3a093	0.095521115
31	0x3c71e3dc	0.014763799
32	0xbddc9021	-0.10769678
33	0x3d00f37f	0.031482216
34	0xbb92b6b9	-0.0044773486
35	0xbc33988c	-0.010961663
36	0x3a050741	0.0005074628
37	0xbd5c8694	-0.05383928
38	0xbcc43d94	-0.023955144
39	0x3c006732	0.007837104
40	0xba063697	-0.0005119829
41	0xb9cf8eb6	-0.00039588445
42	0x3bf7c45a	0.0075612487
43	0xb996c702	-0.00028758502
44	0x3d4a6ccc	0.049420163
45	0xbd2bde15	-0.04195984
46	0x3d84971d	0.06474135
47	0x3d53fbcd	0.051753808
48	0xbcadfb04	-0.021237858
49	0x3df3b3a8	0.11899501
50	0xbd8067bf	-0.06269788
51	0xbb9dfa53	-0.0048211007
52	0x3d1ed187	0.03877404
53	0x3e037f40	0.12841511
54	0x3c75c20d	0.014999879
55	0x3defcffc	0.11709592
56	0x3dea2143	0.114321254
57	0x3c4d3ddb	0.0125269545
58	0x3d3f7351	0.046740834
59	0xbd881002	-0.06643678
60	0x3d80b8fa	0.062852815
61	0x3dce8a6a	0.10084994
62	0xbda6f3d1	-0.08151973
63	0x3d85b3b8	0.06528419
64	0x3d248f4e	0.04017573
65	0x3d1a7a45	0.03771426
66	0x3c9c072a	0.019046385
67	0xbb2baf2f	-0.0026196947
68	0x3dca294b	0.09871157
69	0x3dffa8e5	0.12483386
70	0x3cc43bde	0.023954328
71	0x3cf15e7f	0.029464005
72	0x3c950160	0.018189132
73	0xbb92d222	-0.004480616
74	0x3c29a9b2	0.0103554
75	0x3cf0639f	0.029344378
76	0x3cd53faa	0.026031334
77	0x3baaff58	0.0052184276
78	0xbc9f1575	-0.019419411
79	0x3d7c9115	0.0616618
80	0x3dd54f50	0.10415518
81	0xbd8dae47	-0.069180064
82	0x3ddb6b5a	0.10713835
83	0x3cef075c	0.029178314
84	0x3d23799f	0.03991091
85	0x3dcc900f	0.099884145
86	0x3d9d81a5	0.07690743
87	0x3db64c08	0.089012206
88	0x3d242ce7	0.040081885
89	0xbd753440	-0.059864283
90	0xbdeaf7cf	-0.11473047
91	0x3d8b14c3	0.06791069
92	0xbcc269ac	-0.023732029
93	0xb9815265	-0.00024666186
94	0x3d737e15	0.059446413
95	0xbcc5b03a	-0.024131883
96	0xbc031dc6	-0.008002704
97	0xbcc9e1a0	-0.02464372
98	0x3d21c8c3	0.039498102
99	0xbd4b3e71	-0.049620096
100	0x3d07d996	0.03316649
101	0xbd34b143	-0.044114362
102	0x3d991f9a	0.07476731
103	0x3be26fed	0.0069103152
104	0xba721adf	-0.00092355715
105	0xbb0872da	-0.002082041
106	0x3d79f7d8	0.061027378
107	0xbcb1e767	-0.021716787
108	0xbe0135c8	-0.12618172
109	0x3d743485	0.0596204
110	0x3c464283	0.012100819
111	0x3c4d8eca	0.012546251
112	0x3ccd986f	0.0250971
113	0x3dc1f462	0.094704404
114	0x3c46ea64	0.012140844
115	0x3d9d1ed0	0.07671893
116	0xbc70bc15	-0.01469328
117	0xbd4d2c94	-0.05009134
118	0x3af3a733	0.0018589258
119	0x3d26550f	0.040608462
120	0x3de6ae47	0.112637095
121	0xbc0fdae4	-0.008780215
122	0xbd421490	-0.04738289
123	0xbb093b41	-0.002093986
124	0x3da8834e	0.082281694
125	0x3cc64823	0.02420432
126	0x3e0dcab0	0.1384685
127	0x3c27df49	0.010246106
128	0xbe02b965	-0.12766035
129	0x3d632d94	0.05546339
130	0xbbea2f46	-0.0071467487
131	0x3d6f9c95	0.058498938
132	0xbd53c019	-0.05169687
133	0x3c9432ca	0.018090624
134	0xbca3799a	-0.019955445
135	0xbc86fefd	-0.01647901
136	0x3e056913	0.13028364
137	0x3c2a976c	0.010412078
138	0x3d2307c3	0.039802324
139	0x3d5bd12d	0.053666282
140	0xbc689ca1	-0.0141974995
141	0x3885d972	6.3824365e-05
142	0x3d6a8592	0.05725629
143	0xbd24fd0e	-0.040280394
144	0xbc99ca5d	-0.018773252
145	0x3d4d5b99	0.050136182
146	0x3d49dbeb	0.049281996
147	0xb9b75acb	-0.00034972126
148	0x3d09108e	0.033463053
149	0x3de62797	0.1123802
150	0x3d60602d	0.05477922
151	0x3d248e86	0.040174983
152	0x3d011d17	0.031521883
153	0x3c4383c8	0.011933275
154	0x3cd8a573	0.02644608
155	0xbd68a717	-0.056799974
156	0xbc274649	-0.010209628
157	0x37caf458	2.4194058e-05
158	0xbd8eaed1	-0.06966937
159	0x3d709b52	0.058741875
160	0x3d4fe827	0.050758507
161	0x3b30da35	0.002698553
162	0x3ba80d6e	0.005128554
163	0x3d93e4a6	0.072213456
164	0xb9556ab8	-0.00020353019
165	0xbdd299d2	-0.10283245
166	0xbd873d04	-0.06603435
167	0x3b13b904	0.0022540698
168	0x3954b33e	0.00020284668
169	0x3c98a184	0.018631704
170	0xbc6fd7f1	-0.014638887
171	0xba08120b	-0.0005190677
172	0x3deea883	0.11653235
173	0x3d997924	0.07493809
174	0x3dc7a1ff	0.09747695
175	0x3c1b8a75	0.00949346
176	0xbc1542de	-0.009110181
177	0xbdf8c068	-0.121460736
178	0x3d39aec3	0.04533268
179	0x3d9d9c1e	0.076957926
180	0xbc798cd1	-0.015231327
181	0xbdbf5894	-0.09343067
182	0x3bd89c88	0.006610457
183	0x3dc1b0f1	0.09457577
184	0xbd124c03	-0.03571702
185	0x389cb6c2	7.472701e-05
186	0xbd3df558	-0.046376556
187	0x3ce8646b	0.028368196
188	0xbcdf8e66	-0.02728958
189	0x3dbfebc2	0.09371139
190	0xbd9e1d02	-0.077203766
191	0xbd5dbc0a	-0.054134406
192	0x3de2147a	0.11039062
193	0x3e24ef73	0.16106968
194	0x3cada40e	0.021196391
195	0x3d3a7eec	0.0455312
196	0x3e11684c	0.14199942
197	0x3d9dcc68	0.07705003
198	0x3cde749f	0.027155219
199	0x3b1f1082	0.0024271314
200	0x3ced2b1b	0.028951218
201	0x3d1bca93	0.038034987
202	0xbaca781e	-0.0015447175
203	0x3d4e61a7	0.050386097
204	0xbdd6a607	-0.10480886
205	0xbb192172	-0.0023365882
206	0xbd1b8d10	-0.037976325
207	0x3d878e21	0.06618906
208	0xbdccdab0	-0.10002649
209	0x3c8984d3	0.016786968
210	0x3d23470a	0.03986267
211	0x3cb00d38	0.021490678
212	0x3ce0f404	0.027460106
213	0x3d91cc28	0.07119018
214	0x3e0470ff	0.1293373
215	0x3d8c6c54	0.068565995
216	0x3dd8e9ef	0.10591494
217	0xbd05e61e	-0.03269016
218	0x3d4ab1a9	0.049485836
219	0x3d8c9d83	0.068659805
220	0xbd609351	-0.054827992
221	0x385a895a	5.210317e-05
222	0x3d4dcb5a	0.05024276
223	0x3d17f7ee	0.03710168
224	0x3c14c0bf	0.009079157
225	0xbba1df57	-0.0049399543
226	0x3c2566c4	0.010095302
227	0x3d5ae965	0.05344524
228	0xb996d4c0	-0.0002876874
229	0xbd5d419c	-0.054017648
230	0x3d8465bb	0.06464716
231	0x3b1e5f6e	0.0024165767
232	0xbb2ce955	-0.0026384194
233	0xbc557719	-0.013028883
234	0xbbe593ef	-0.0070061604
235	0xbc5fe8f0	-0.0136663765
236	0xbbdb5ef7	-0.0066946703
237	0x3de2f577	0.11081975
238	0x3e0cad0c	0.13737887
239	0xbd2c86e1	-0.042120818
240	0xbccece77	-0.025244934
241	0xbb966edc	-0.004590852
242	0xbdc07867	-0.09397965
243	0x3d0a898f	0.033822592
244	0xbc9d939e	-0.019235428
245	0x3b86c0b3	0.004112327
246	0x39cc8048	0.0003900549
247	0xbde1a18e	-0.11017142
248	0xbe1b9a01	-0.15195467
249	0xbb81ee8e	-0.0039652055
250	0x3acd108d	0.0015645191
251	0xbd9c1049	-0.07620294
252	0x3d050cb5	0.03248282
253	0xbd4e749a	-0.05040417
254	0x3dc580c4	0.09643701
255	0x3d8deae1	0.06929565

encoder_b.convs.0.bias f4 [64]
0	0x3c6f87d1	0.0146197835
1	0x3cbf76b5	0.023372034
2	0xbc8c0b04	-0.017095096
3	0xbc95f923	-0.018307274
4	0xbb97b5df	-0.004629835
5	0x3ca23770	0.019801825
6	0x3b1aee9d	0.002364076
7	0xbc577e3c	-0.013152655
8	0x3caaa7c3	0.020831948
9	0xbc86a643	-0.016436702
10	0xbb88094d	-0.0041514994
11	0x3b0ceffb	0.0021505344
12	0x3c56dee5	0.013114666
13	0x3ba58c6c	0.00505214
14	0xbb151629	-0.0022748804
15	0x3c720160	0.014770836
16	0x3c9b63e6	0.018968534
17	0xbc8becf3	-0.01708076
18	0x3cb57acf	0.022153286
19	0x3c452969	0.012033799
20	0x3a4733f6	0.00075989903
21	0xbba41c3e	-0.0050082495
22	0xbc64b453	-0.013959008
23	0xbca1644a	-0.019701142
24	0x3caa3683	0.020777946
25	0x3c8fdd9f	0.017561732
26	0x3adfdab5	0.001707873
27	0x3cdd1a2b	0.026990017
28	0x3bfbd8c4	0.0076857526
29	0x3ca3cc83	0.01999498
30	0x3c2612ce	0.010136319
31	0xbc0a7282	-0.008450152
32	0x3c8db94f	0.017300276
33	0x3c981905	0.018566618
34	0x3c99e426	0.018785547
35	0xbc1cd810	-0.009572998
36	0xbc93ee85	-0.01805807
37	0xbba98113	-0.0051728575
38	0xbbf691f6	-0.007524724
39	0x3cc8afd1	0.024497898
40	0xbc922730	-0.017840952
41	0x3c41bf80	0.011825442
42	0xbc1fe0f0	-0.009758219
43	0xbba33e12	-0.0049817646
44	0xbaa7edcc	-0.0012811958
45	0x3bbfc667	0.005852509
46	0x3c196846	0.00936324
47	0xbc61ec83	-0.013789299
48	0x3c422933	0.011850643
49	0x3cdb40ee	0.02676436
50	0x3ce882c0	0.028382659
51	0x3cef5681	0.029216053
52	0xbcb69a4c	-0.022290371
53	0x3b8f01b7	0.004364218
54	0x3b7ec99d	0.0038877495
55	0x3cc0e014	0.023544349
56	0x3c045135	0.008076002
57	0xb985ccf4	-0.0002552044
58	0x3bf8a482	0.0075879702
59	0x3cb1834a	0.021669049
60	0x3c821bca	0.015882391
61	0xbb2aa417	-0.0026037747
62	0x3c73c60b	0.01487876
63	0x3cbd64fe	0.023119446

encoder_b.convs.1.weight f4 [64, 64]
0	0xbe0a4bbb	-0.13505451
1	0xbb14540e	-0.0022633108
2	0x3956c0a2	0.00020480392
3	0x3e027bd0	0.12742543
4	0xbd080458	-0.033207268
5	0x37e55881	2.734014e-05
6	0x3d9f82c2	0.07788612
7	0x3e023fe4	0.12719685
8	0x3d0026c2	0.031286962
9	0xbc04653e	-0.008080779
10	0xba80f7f3	-0.000983952
11	0xbd005119	-0.03132734
12	0xbdd8cab7	-0.1058554
13	0x3cb8cb6a	0.022557933
14	0xbd510c8b	-0.051037353
15	0x3dfdec3f	0.12398576
16	0xbd7ee7c5	-0.06223275
17	0xbe1fe26d	-0.15613718
18	0x3d841da5	0.06450967
19	0x3cb80583	0.022463566
20	0x3d819a1e	0.06328224
21	0x3e05f997	0.13083492
22	0x3ddcd49a	0.10782738
23	0xbd650efc	-0.055922493
24	0xbb88a460	-0.0041699857
25	0xbc490249	-0.012268611
26	0xbd59b18f	-0.05314785
27	0xbe3248e9	-0.17410626
28	0xbdf73ed1	-0.12072528
29	0xbe254822	-0.16140798
30	0xb9e00d53	-0.00042734537
31	0x3d5453b8	0.051837653
32	0x3cf418be	0.029796954
33	0x3d8a6492	0.067574635
34	0x3e149571	0.14510132
35	0xbdb879bd	-0.09007595
36	0x3cc0bb0f	0.023526696
37	0xbaa92fb0	-0.0012907889
38	0x3cddc99a	0.02707367
39	0x3e4dd5a1	0.20101024
40	0xbd560f69	-0.05226079
41	0xbb7afec6	-0.003829883
42	0xbc8e47d8	-0.017368242
43	0xbd3ebba0	-0.046565652
44	0x3b9160b0	0.004436575
45	0x3e022279	0.12708463
46	0x3da8e074	0.08245936
47	0xbab53825	-0.0013825936
48	0x3da3e1d1	0.080020554
49	0xbdb16530	-0.08661878
50	0xbd8da80f	-0.0691682
51	0xbd962c65	-0.07332686
52	0x3a893739	0.0010468728
53	0xbcb20a3d	-0.021733398
54	0xbc7c092d	-0.015383047
55	0x3d02fbe8	0.031978518
56	0xbc9cc43f	-0.019136546
57	0xbc3fb8a0	-0.011701733
58	0xbd64c788	-0.05585435
59	0xbcd4e807	-0.025989546
60	0x3913d236	0.00014097322
61	0xbd33565f	-0.04378354
62	0xbcbb1846	-0.022838723
63	0xb98e1344	-0.00027098705
64	0x3cc55c66	0.02409191
65	0xb9291866	-0.00016126185
66	0xb75ff1fd	-1.3348178e-05
67	0xbe1a85f5	-0.15090163
68	0xbd8ae6b3	-0.06782284
69	0xb982e020	-0.00024962518
70	0xbc03b484	-0.008038644
71	0x3df04d62	0.117335096
72	0x3e196eb9	0.14983644
73	0xb9b31f97	-0.00034165077
74	0xbb57c37e	-0.003292292
75	0xbd7e66ca	-0.062109746
76	0xbd8d52b0	-0.06900537
77	0xbada3359	-0.0016647383
78	0x3d7b70c0	0.061386824
79	0x3d8e6ba2	0.06954123
80	0x3c9ff792	0.01952723
81	0xbd01ad17	-0.031659212
82	0x3dcefc46	0.10106711
83	0x3d0b40db	0.033997398
84	0xbc39c80d	-0.0113392
85	0x3e43ac5d	0.1910872
86	0xbde242fe	-0.11047934
87	0xbc739f1d	-0.0148694785
88	0xbb332af1	-0.0027338827
89	0x3dfd7154	0.12375131
90	0x3db0de2e	0.086361274
91	0x3db64d77	0.08901494
92	0x3cc8080f	0.024417905
93	0xbe45ad44	-0.19304377
94	0xb986cdbe	-0.00025711762
95	0x3d24868b	0.040167373
96	0x3e269d5a	0.16270962
97	0x3d3b6d55	0.045758564
98	0x3e10cf83	0.1414166
99	0x3e4e1424	0.2012487
100	0x3e1ad0a8	0.15118659
101	0xbcc6654b	-0.024218222
102	0x3da358f6	0.07975952
103	0x3e2c57fb	0.16830437
104	0xbd480bbd	-0.04883932
105	0xba50a621	-0.00079593254
106	0x3cb020d9	0.021500038
107	0x3d74e93d	0.059792746
108	0xbc94fc08	-0.018186584
109	0xbe22e590	-0.15907884
110	0x3d3503f6	0.04419323
111	0xb96e4eb4	-0.00022726768
112	0xbdaf7142	-0.08566524
113	0xbce7599b	-0.02824097
114	0x3cae2d13	0.021261727
115	0xbd1cd5af	-0.038289722
116	0x3c71df1e	0.014762668
117	0x3e0db964	0.13840252
118	0xbd4cdfc9	-0.050018106
119	0x3da6d636	0.08146326
120	0x3a137a03	0.0005625786
121	0xbba6d13b	-0.00509086
122	0xbc555509	-0.013020762
123	0x3d585752	0.05281765
124	0xbd44675f	-0.047950145
125	0x3ca3ba70	0.019986361
126	0xaa87ad49	-2.4101058e-13
127	0x3d722bf6	0.059123956
128	0xba48e49a	-0.0007663459
129	0xb9764849	-0.00023487317
130	0xbd3ea955	-0.046548206
131	0x3ce0c7ff	0.027439116
132	0x3a2e32f3	0.0006645165
133	0x3cee161b	0.029063275
134	0x3b56d716	0.003278201
135	0x3c95bcac	0.018278442
136	0xbbabf34e	-0.00524751
137	0xb8a092bd	-7.656727e-05
138	0xbcf7088b	-0.03015544
139	0xba078d24	-0.0005170873
140	0x3d459dfd	0.048246372
141	0xbd68c504	-0.056828514
142	0x3bc36e2a	0.0059640603
143	0xbd447775	-0.047965486
144	0x3d522fff	0.051315304
145	0x3bdbfc84	0.006713452
146	0xbcead412	-0.028665576
147	0x3c879b35	0.0165535
148	0xbba75c70	-0.005107455
149	0x3cf0a2ab	0.029374441
150	0xbc652a46	-0.01398713
151	0x3c166980	0.009180427
152	0xbbd9acfe	-0.0066429367
153	0x3bb13515	0.005407939
154	0xbcd7ca2c	-0.02634152
155	0xb8112692	-3.4606615e-05
156	0xbd71de51	-0.059049908
157	0xbd571e2f	-0.05251902
158	0x3b640a7f	0.0034796295
159	0xb9070bc3	-0.00012878985
160	0x3d8eb582	0.069682136
161	0xbbfa0911	-0.0076304753
162	0xbcbaef81	-0.022819282
163	0xbd13fa54	-0.036127403
164	0xbd7fcfa9	-0.0624539
165	0x3cd700b8	0.02624546
166	0xbd22e79e	-0.03977167
167	0xbd48a31e	-0.048983686
168	0xbd23e0b0	-0.0400092
169	0xbc5ef9ae	-0.013609333
170	0x3d21f38d	0.03953891
171	0xbd587183	-0.05284263
172	0x34ac3df9	3.2082588e-07
173	0x39d42bf2	0.00040468533
174	0x3d80c8d8	0.06288308
175	0xbc2440b6	-0.010025194
176	0xb9d66cfb	-0.00040898458
177	0xbbac5f8b	-0.005260413
178	0x3a94bdfa	0.0011348121
179	0xb9afca02	-0.0003352911
180	0x3a402791	0.00073301146
181	0xbaa3a92b	-0.0012486329
182	0x3d0569c4	0.03257157
183	0xbcc90d6f	-0.024542538
184	0x38464720	4.727312e-05
185	0x3d11f3bd	0.035632838
186	0x3ac6e48a	0.0015174311
187	0x3d1c3d14	0.038144186
188	0xb98a8a8b	-0.00026424634
189	0xba2f6ac9	-0.00066916324
190	0x29d29a9b	9.352693e-14
191	0x3af423d6	0.0018626403
192	0x3b228ca2	0.0024803062
193	0xb8143389	-3.5333946e-05
194	0x37a6f5f8	1.990328e-05
195	0x3c6403e8	0.013916947
196	0x3c121787	0.008916742
197	0xba273eb0	-0.00063798856
198	0xbcc75004	-0.024330147
199	0xba9e5e9f	-0.0012082643
200	0xbccc7e04	-0.024962433
201	0xb7b5c37c	-2.1667911e-05
202	0x3baeef72	0.0053386027
203	0x3ce4bb7f	0.027921436
204	0x3cf78c38	0.030218229
205	0xbd3f0d39	-0.04664347
206	0x3b9536a0	0.004553631
207	0x3c37107e	0.011173366
208	0x3d3d1602	0.046163566
209	0x3c0ae5c9	0.008477637
210	0x3cce243c	0.025163762
211	0x3a807c7d	0.0009802725
212	0xb9975fef	-0.0002887244
213	0x3d2b8c3f	0.041881796
214	0xbbe39fbe	-0.006946533
215	0xab93c79e	-1.0500383e-12
216	0xb764db10	-1.36408635e-05
217	0xbccbd8f5	-0.024883727
218	0x3ac47501	0.0014988483
219	0x3bf56b2d	0.007489583
220	0x3b1f21a6	0.002428153
221	0x3c3de5eb	0.011590461
222	0xbce267b1	-0.027637335
223	0xba756ea4	-0.0009362495
224	0x3c5d6009	0.013511666
225	0xbd97ba07	-0.07408529
226	0xbd421626	-0.047384404
227	0x3a7de3f1	0.000968515
228	0x3bcdef19	0.006284606
229	0xb51a02d0	-5.7373563e-07
230	0x3c6d8a86	0.014498359
231	0xbcc17a3f	-0.023617862
232	0x3d41708b	0.04722647
233	0xbcb54de1	-0.022131862
234	0x3c66e6b8	0.014093094
235	0x3c8b81ad	0.017029608
236	0xbbe75b19	-0.0070604202
237	0xbd3e2607	-0.046422984
238	0xbcdafe4d	-0.026732588
239	0x3d406040	0.04696679
240	0xb9b356a0	-0.0003420608
241	0x3a5f893e	0.00085272256
242	0xbaef0491	-0.0018235614
243	0x3c79c5a9	0.01524488
244	0xba72c4e7	-0.0009260908
245	0xb80a0607	-3.2907377e-05
246	0x3c873ed9	0.01650946
247	0xba236c78	-0.00062341196
248	0x366b32a6	3.504721e-06
249	0xbd2dd115	-0.042435724
250	0x3ba6ad8d	0.005086607
251	0xbd1e01b4	-0.038575843
252	0x3be70e07	0.0070512327
253	0xbb401c57	-0.0029313767
254	0x39a581cc	0.0003156796
255	0xba17d9aa	-0.00057926273

encoder_b.convs.1.bias f4 [64]
0	0xbc707d59	-0.014678323
1	0xbaafba8a	-0.0013407033
2	0x3ca9fd40	0.020750642
3	0x3ca8785a	0.0205652
4	0xbc345a4d	-0.0110078575
5	0x3bd6bf06	0.0065535335
6	0xbca4e52c	-0.020128809
7	0x3cd7eee3	0.026359027
8	0x3c3fb80b	0.011701594
9	0xbc235cbc	-0.00997084
10	0xbb49c889	-0.0030789694
11	0xbc40e71d	-0.011773852
12	0x3c705185	0.014667873
13	0x3b3fb713	0.0029253408
14	0x3ca98a69	0.020695882
15	0x3c91c3ec	0.017793618
16	0xbc496739	-0.012292677
17	0x3ca8f665	0.020625303
18	0xbc6c339e	-0.014416603
19	0x3d437bbb	0.04772542
20	0x3bec2895	0.007206986
21	0x3cc95175	0.024574975
22	0x3c1185a3	0.008881959
23	0xbb1f15f4	-0.002427456
24	0xbcad486b	-0.021152696
25	0x3ca1109f	0.019661246
26	0xbc3bbbd8	-0.01145836
27	0xbc34deca	-0.011039445
28	0x3b6fb6b7	0.0036577412
29	0xbc1ac185	-0.009445553
30	0xbc05fbff	-0.008177756
31	0xbc85c106	-0.016327392
32	0xbced01ae	-0.028931465
33	0xbc592810	-0.013254181
34	0x3ca7d415	0.02048687
35	0x3c45b906	0.012068039
36	0x3ca190e5	0.019722411
37	0x3b36fe11	0.0027922431
38	0x3cdf5bad	0.027265394
39	0x3c85e6a5	0.016345331
40	0xbca8b726	-0.020595144
41	0x3b7c3116	0.0038481406
42	0x3c8c6749	0.017139094
43	0x3c75d711	0.015004889
44	0xbacd7b61	-0.0015677029
45	0xbb4719a8	-0.0030380283
46	0xbc6e5360	-0.014546245
47	0x3bbbe6a0	0.0057342798
48	0xbb12a5e3	-0.0022376708
49	0xbc286c72	-0.010279762
50	0x3c8984b3	0.016786909
51	0xbc0fc159	-0.008774125
52	0x3cea5138	0.028603181
53	0x3c1d7531	0.00961046
54	0xba3c8bb0	-0.0007192446
55	0xbbe42012	-0.006961831
56	0x3d43c73b	0.047797423
57	0xbba15175	-0.0049230405
58	0xbc013767	-0.007886744
59	0x3ca05539	0.019571887
60	0xbc0d2faa	-0.008617321
61	0xbc1f5269	-0.009724238
62	0xbc9009f4	-0.017582871
63	0xbba82eb2	-0.0051325196

encoder_b.convs.2.weight f4 [64, 64]
0	0x3dbcc2f6	0.09216873
1	0xbdce9492	-0.10086931
2	0x3df7a8de	0.12092756
3	0xbdba455c	-0.090952605
4	0xbcd648cf	-0.026157765
5	0x3d9db9e2	0.0770147
6	0xbc13244b	-0.008980821
7	0xbd1ed757	-0.038779583
8	0xbc34fc34	-0.011046458
9	0x3d72e549	0.059300695
10	0xbc61b504	-0.013776068
11	0x3ba1849b	0.004929138
12	0x3c00ecf7	0.007868997
13	0xbd8b1c2c	-0.06792483
14	0xbd036879	-0.032082055
15	0x3dc6f36a	0.09714396
16	0xbd0eaf6e	-0.03483527
17	0xba9d235c	-0.0011988687
18	0xbd504da3	-0.05085529
19	0x3d41542e	0.04719942
20	0xbd82d010	-0.06387341
21	0x3d0bf497	0.034168806
22	0xbbedae92	-0.0072534764
23	0x3cb474ed	0.02202841
24	0x3d6530e7	0.05595484
25	0x3dc6f97b	0.097155534
26	0xbd059731	-0.03261489
27	0xbc112066	-0.008857822
28	0xbd740edb	-0.05958448
29	0x3df5aa1e	0.11995338
30	0x3da8fcb0	0.08251321
31	0x3da17c83	0.07885077
32	0x3d9e7ac9	0.07738263
33	0xba03e7e8	-0.000503181
34	0xbcea3af3	-0.028592562
35	0xbd2a7fd6	-0.04162582
36	0x3d2a1347	0.04152229
37	0xbd4bcef0	-0.049757898
38	0x3d7e62be	0.062105887
39	0x3d546b9d	0.05186044
40	0xbdf0803e	-0.1174321
41	0x3c9e45b6	0.01932035
42	0xbb24ac49	-0.0025127104
43	0xbe0228e0	-0.12710905
44	0x3d5cfff8	0.05395505
45	0xbbe4dcde	-0.0069843372
46	0x3d59e475	0.05319639
47	0xbd12c032	-0.035827823
48	0x3d6b5aa7	0.0574595
49	0x3d53ef33	0.05174179
50	0x3d0f1c86	0.03493931
51	0x3d353b4c	0.044246003
52	0x3d2aa278	0.04165885
53	0x3ce43338	0.027856454
54	0x3b9e4004	0.0048294086
55	0x3ce52a67	0.02797432
56	0xbcf7a1f0	-0.030228585
57	0x3dbddea2	0.092709795
58	0x3c06e7e5	0.008233999
59	0xbd5ea24e	-0.054354005
60	0xbde6803a	-0.11254926
61	0x3bf52e48	0.007482324
62	0x3d1d4f22	0.038405545
63	0xbdd61d9b	-0.104548655
64	0x3c07c0c0	0.008285701
65	0xbd3cc606	-0.046087287
66	0x3b080746	0.0020756288
67	0xb80fecae	-3.4314282e-05
68	0xbd247f16	-0.04016026
69	0xbd11c382	-0.03558684
70	0xb78fac26	-1.7127091e-05
71	0xb82683a4	-3.9700084e-05
72	0xb83b4ad4	-4.4653963e-05
73	0xbcf7c36a	-0.030244548
74	0xbbad8f2e	-0.0052966094
75	0xbaf3b768	-0.0018594088
76	0x3b912ac0	0.004430145
77	0x3d3f418f	0.04669338
78	0x3bdd7aa4	0.0067590047
79	0xbad964ad	-0.001658579
80	0x38cd30b0	9.7842305e-05
81	0xbd336a94	-0.043802813
82	0x3828d69a	4.0254185e-05
83	0x3c450712	0.0120256115
84	0x39332681	0.00017085114
85	0xbc3cc931	-0.011522577
86	0xbacf6cee	-0.001582531
87	0x3c4c6649	0.012475559
88	0xba69daa8	-0.0008920827
89	0x377aa776	1.4940151e-05
90	0xb6fd7774	-7.5538937e-06
91	0xb7a54814	-1.9703097e-05
92	0x3d3dcdf4	0.04633899
93	0x3c9747aa	0.01846679
94	0xbd5dac7f	-0.054119583
95	0x3b1fad38	0.002436472
96	0xb896c91d	-7.190018e-05
97	0xb7fc035b	-3.0042303e-05
98	0xb85d6bf4	-5.2791045e-05
99	0x3c77b2d4	0.01511832
100	0x3b5b4b3d	0.0033461594
101	0x3c209c72	0.0098029245
102	0x3b0fb613	0.0021928593
103	0xbb8e38d7	-0.004340272
104	0x3d44f0fb	0.04808138
105	0xbc9261d4	-0.017868914
106	0x3c9d59d0	0.019207865
107	0x36f9d4be	7.4455447e-06
108	0xbca8dfd7	-0.020614548
109	0xba7c8c74	-0.0009633966
110	0x3c867af8	0.016416058
111	0x3bf01763	0.0073270067
112	0x37012281	7.697033e-06
113	0xb4a9dcff	-3.16395e-07
114	0xb6f8bd68	-7.4130257e-06
115	0x3c0583b6	0.008149078
116	0xb8c04018	-9.167212e-05
117	0x3cd9c58f	0.026583461
118	0xbcdb2a54	-0.026753582
119	0x381f94b8	3.804706e-05
120	0x3c32530a	0.010884056
121	0x39b6aefc	0.0003484412
122	0x3caaeadc	0.020863943
123	0x36d55d3e	6.3587495e-06
124	0xb9ff8184	-0.00048733887
125	0xbd2b1a64	-0.041773215
126	0x3d1cac85	0.038250465
127	0x3c9028d4	0.017597593
128	0x39dd1be1	0.00042173176
129	0xb862affb	-5.4046493e-05
130	0xb94ee746	-0.00019731847
131	0x39585dc0	0.0002063429
132	0x3b0062e2	0.0019590189
133	0x39d1ccf7	0.00040016297
134	0xb71036f4	-8.595864e-06
135	0xbce4a45d	-0.027910406
136	0x38c9c39d	9.620863e-05
137	0xb9877727	-0.00025837982
138	0xb8d26f9c	-0.00010034369
139	0x3c97efe9	0.018547015
140	0x3d272b40	0.04081273
141	0x3a89ab3b	0.0010503301
142	0x394123f6	0.00018419311
143	0x3be35c32	0.006938481
144	0x385a69a7	5.2073647e-05
145	0x39898f7b	0.00026237578
146	0xbc87ced1	-0.01657811
147	0xbd0a88d2	-0.03382189
148	0xbaa4c754	-0.0012571611
149	0xbcb7956a	-0.022410113
150	0x3cc5af98	0.024131581
151	0xbb9f6952	-0.00486485
152	0xb7b2d08f	-2.1316371e-05
153	0x3885c54d	6.378684e-05
154	0xbd2ea4fa	-0.042637803
155	0xbc1d6d82	-0.009608628
156	0xb95c1a84	-0.00020990713
157	0x3a90c7e7	0.0011045904
158	0x36741e80	3.6376587e-06
159	0xbcc38333	-0.023866272
160	0xb9eccaa5	-0.0004516441
161	0xbd43b380	-0.047778606
162	0xbc37b0e8	-0.011211611
163	0xbccdcee5	-0.025123069
164	0x3914df2d	0.0001419752
165	0xbd60e9fb	-0.05491064
166	0x38f7a524	0.00011808638
167	0x386ec31d	5.6925335e-05
168	0x3a93c3b3	0.0011273533
169	0x38aef924	8.3433726e-05
170	0x3cf07aec	0.029355489
171	0x3c1b8df2	0.009494292
172	0x3d554e44	0.052076593
173	0xbbcca284	-0.0062449593
174	0xbb85f1f3	-0.0040876805
175	0x3d16ebb9	0.036845896
176	0x3b91db36	0.004451181
177	0x3d0d235c	0.03445755
178	0x3801c794	3.094187e-05
179	0xbab67b81	-0.0013922305
180	0xbd3cb71c	-0.046073064
181	0xbd5309b9	-0.051522944
182	0x3d479673	0.048727464
183	0x3cb07fd9	0.021545338
184	0x3d612bfb	0.054973584
185	0xbc572e77	-0.013133637
186	0x3caec6d4	0.021335043
187	0xbc608b3d	-0.013705072
188	0x3b655088	0.0034990627
189	0xb89a4ba6	-7.357383e-05
190	0x38b3fc92	8.58243e-05
191	0xbd738df9	-0.059461568
192	0xbe1cebdc	-0.15324348
193	0xbe2250d0	-0.1585114
194	0xbd4325e8	-0.047643572
195	0x3dd8f297	0.10593145
196	0x3de7abe0	0.113120794
197	0xbe05230e	-0.13001654
198	0xbd01f612	-0.03172881
199	0x3be789e0	0.0070659965
200	0xbca4824e	-0.020081665
201	0x3d0ce197	0.034394827
202	0xbdf08204	-0.117435485
203	0x3e451f50	0.19250226
204	0x3d42a7b7	0.047523227
205	0x3d64502f	0.05574053
206	0xbd6170a4	-0.055039063
207	0x3ddd1988	0.10795885
208	0x3a3e50d2	0.0007259968
209	0x3df690ec	0.120393604
210	0xbd3aba56	-0.04558786
211	0x3d94a4e3	0.07258012
212	0x3ca07772	0.019588206
213	0xbd2f1b79	-0.04275081
214	0xbd7c1ee3	-0.061552893
215	0xbc2b58d2	-0.010458188
216	0x3e0f72d8	0.14008653
217	0xbd93ba2c	-0.07213244
218	0xbe2b60f5	-0.16736205
219	0xbe0aa012	-0.13537624
220	0xbe2b82a9	-0.16749062
221	0xbcf29003	-0.029609686
222	0x3d8a49b0	0.06752336
223	0x3b019fc0	0.0019779056
224	0xbe1fc33f	-0.15601824
225	0x3d1b1bf7	0.037868466
226	0x3dd1e1af	0.10248124
227	0x3da9abf5	0.08284751
228	0x3e1169a7	0.1420046
229	0xbc410545	-0.0117810415
230	0xbdb5500e	-0.0885316
231	0x3e302043	0.17199807
232	0xbd731e30	-0.05935496
233	0xbdad91dd	-0.08475087
234	0x3d7ae09e	0.061249368
235	0x3e36d8be	0.17856118
236	0xbc49f92a	-0.012327472
237	0x3d35c9f7	0.04438206
238	0xbdb3263e	-0.087475285
239	0xbd8fa54a	-0.07013948
240	0x39de0311	0.00042345424
241	0xbd9b717c	-0.07590005
242	0xbd5fc69d	-0.05463277
243	0xbd2cfe20	-0.04223454
244	0x3cb57519	0.022150563
245	0x3e0f3af1	0.13987328
246	0xbe1b7f5e	-0.15185305
247	0xbde381a7	-0.111087136
248	0xbe04d3bc	-0.12971395
249	0xbc683833	-0.014173555
250	0x3c819570	0.015818328
251	0xbe1d5371	-0.15363862
252	0xbe3735c9	-0.17891611
253	0x3dc37e02	0.095455185
254	0xbc1437c3	-0.009046498
255	0xbbf73722	-0.007544414
