results/ABIDE_3x5fold_seed0/fold2_rep1_seed1002/ckpt_best_fold_2.pt (torch, 396076 bytes, 42 tensors)

encoder_c.convs.0.weight f4 [116, 64]
0	0xbdf57f58	-0.119871795
1	0x3e29fb31	0.16599728
2	0xbd8a2754	-0.067457825
3	0x3cce29c5	0.025166402
4	0x3c3ab1cf	0.011394932
5	0xbd604d04	-0.054760948
6	0xbd85336a	-0.06503947
7	0xbe27fdfb	-0.1640548
8	0x3e026597	0.12734066
9	0xbca43fc7	-0.020049943
10	0x3e1ff3a4	0.15620285
11	0xbe0d8f43	-0.13824181
12	0xbd1f2fe0	-0.038864017
13	0x3d291cd7	0.04128727
14	0xbe16c63f	-0.14724062
15	0xbdab6ca7	-0.08370333
16	0x3b9a80e9	0.0047150743
17	0xbe2756ba	-0.16341677
18	0xbd21169a	-0.039328195
19	0x3cd5143a	0.026010621
20	0x3d93094e	0.07179509
21	0x3e05c2a6	0.13062534
22	0xbcfb7858	-0.030697033
23	0xbd1e2f02	-0.03861905
24	0xaf1efe3e	-1.4460341e-10
25	0x3d3fb333	0.046801757
26	0xbdab43f7	-0.08362573
27	0xbe0d4d4b	-0.13799016
28	0x3ba3daa3	0.0050004288
29	0x3dd5e3c8	0.104438365
30	0xbdb71c5c	-0.08940956
31	0x3cd58826	0.026065897
32	0x3dad563f	0.08463716
33	0x3c8e86e1	0.0173983
34	0x3c1f4798	0.009721659
35	0x396a0b65	0.00022320224
36	0x3d07e18f	0.033174094
37	0x3dd7eac8	0.10542828
38	0x3de3e9ef	0.11128604
39	0x3da8b48e	0.08237563
40	0x3dfaf253	0.12253251
41	0x3c864950	0.01639238
42	0x3da18360	0.07886386
43	0xbdb457d2	-0.08805813
44	0xbd46986f	-0.048485216
45	0xbdb8fef1	-0.09033001
46	0x3c8ec96c	0.01743003
47	0xbe1acb06	-0.1511651
48	0xbd02641a	-0.031833746
49	0xbd4dc589	-0.050237212
50	0xbe0e01c6	-0.13867864
51	0x3e0c1d5c	0.13683075
52	0x3d5bf2f3	0.05369849
53	0x3e07d222	0.13263753
54	0x3ddd3fcf	0.10803186
55	0x3cf3c497	0.029756827
56	0xbde16a9c	-0.11006662
57	0x3daae1bf	0.08343839
58	0x3e1a78b5	0.15085109
59	0xbd92126a	-0.071324185
60	0xbe2d0db1	-0.16899754
61	0x3dfd3071	0.12362755
62	0x3dd8e242	0.1059003
63	0x3e0cf2e9	0.13764538
64	0x3de8e900	0.11372566
65	0x3ddf53e2	0.10904671
66	0xbdae6942	-0.0851617
67	0xbdda88e9	-0.10670645
68	0x3d684e76	0.05671545
69	0xbe3449cb	-0.17606275
70	0xbe0652a0	-0.13117456
71	0xbccef5dc	-0.02526372
72	0xbde15492	-0.11002459
73	0xbc965c9f	-0.018354712
74	0x3de28537	0.11060565
75	0xbe141a67	-0.14463197
76	0x3d1e97bf	0.038718935
77	0x3d158f87	0.03651383
78	0x3d73dd4c	0.059537217
79	0xbe1b2ccf	-0.15153812
80	0x3dd6780d	0.104721166
81	0x3d6ba97d	0.057534683
82	0xbcf408d5	-0.029789368
83	0x3d8fb18a	0.07016285
84	0xbdf058a2	-0.11735655
85	0x3e1e3bfb	0.15452568
86	0xbd9086d7	-0.07056969
87	0x3c50e564	0.0127500035
88	0xaee24137	-1.02888746e-10
89	0xbc432973	-0.011911738
90	0x3dcf6a02	0.10127641
91	0xbcfe43b1	-0.031038137
92	0xbdd14bfe	-0.102195725
93	0xbdd05d11	-0.10174001
94	0xbdcf02fa	-0.101079896
95	0x3d77d6b9	0.06050751
96	0x3e3e69b1	0.18595006
97	0x3d94591e	0.0724356
98	0x3de0e674	0.109814554
99	0x3e1a4070	0.15063643
100	0x3d077353	0.033068966
101	0xbd761d6b	-0.06008665
102	0xbce7efc1	-0.028312566
103	0xbd8b76d2	-0.068097726
104	0xbda45a6d	-0.0802506
105	0x3db5c24c	0.0887495
106	0x3e0b8c6c	0.13627785
107	0x3d8db9bb	0.06920191
108	0x3cf1fe7c	0.029540293
109	0x3d318d00	0.04334736
110	0xbd4725df	-0.0486201
111	0x3d297d39	0.041379187
112	0x3da05c47	0.078301005
113	0x3d3326dd	0.043738235
114	0xbbc8907b	-0.006120739
115	0xbb3f497a	-0.0029188083
116	0x3bf0db36	0.0073503507
117	0xbc7bd18e	-0.015369786
118	0xbd4a8c9e	-0.04945051
119	0x3c36c359	0.011154973
120	0xbc93c437	-0.018037898
121	0x3cc3442a	0.023836214
122	0xbe218cf3	-0.15776424
123	0xbc3667a1	-0.0111331055
124	0xbdac457f	-0.08411693
125	0x3de2f891	0.110825665
126	0x3e14284b	0.14468496
127	0x3dd27a31	0.102772124
128	0x3d552a0f	0.052042063
129	0x3db83101	0.08993722
130	0xbd067835	-0.032829482
131	0x3c1c98a2	0.009557875
132	0xbac398de	-0.0014922877
133	0xbdfd6ab3	-0.12373867
134	0xbb3666ce	-0.0027832272
135	0x3d5d616c	0.054047987
136	0xbd891592	-0.06693567
137	0xbdc46ce9	-0.095910855
138	0x3de5207a	0.11187835
139	0xbc3c940e	-0.011509908
140	0xbdae23dc	-0.085029334
141	0xbdab0ea0	-0.08352399
142	0x3dbb7433	0.091530226
143	0xbdee6d8d	-0.11641989
144	0x3d2987be	0.04138922
145	0xbe00f5aa	-0.12593713
146	0xbb0549bb	-0.0020338136
147	0x3d994e26	0.07485609
148	0x3da3d5ae	0.079997405
149	0xbd9e1caa	-0.07720311
150	0x3db0ad02	0.086267486
151	0x3dbdc494	0.0926601
152	0x318084dc	3.7403947e-09
153	0xbd9914cd	-0.074746706
154	0xbe30ef45	-0.17278774
155	0x3c44d2c5	0.012013142
156	0x3cfffa17	0.031247182
157	0xbddbb4cb	-0.10727843
158	0x3dcb984c	0.09941158
159	0x3d33d876	0.043907605
160	0xbde21599	-0.11039276
161	0x3e251cb4	0.1612423
162	0x3daa18aa	0.083054855
163	0x3d778e1d	0.060438264
164	0xbbc9f8d1	-0.0061636944
165	0x3d4cacfb	0.049969655
166	0xbc50709e	-0.0127221625
167	0xbe278975	-0.1636103
168	0x3e0babbc	0.1363973
169	0xbd8f8617	-0.070079975
170	0x3cfe9d71	0.031080933
171	0xbdf3ffcc	-0.11914024
172	0x3c9b088a	0.01892497
173	0x3d3756c3	0.044760477
174	0x3df96879	0.1217813
175	0x3da8a129	0.08233864
176	0x3d0c475c	0.03424774
177	0x39ab8eb1	0.00032721975
178	0xbded23de	-0.11579107
179	0xbe2f52cd	-0.1712143
180	0x3ceeb33a	0.029138196
181	0xbd3e3c0f	-0.046443995
182	0x3e0b6d4e	0.13615915
183	0xbcf8ed24	-0.030386515
184	0xbe0ce4b4	-0.13759118
185	0xbccb1085	-0.02478815
186	0xbd572565	-0.052525897
187	0xbd794823	-0.06085981
188	0xbe048c9b	-0.12944262
189	0xbe24832c	-0.16065663
190	0xbcb0e4fe	-0.021593567
191	0x3e029a1a	0.12754098
192	0x3d757d1b	0.059933763
193	0x3e16bb09	0.14719786
194	0xbd4cf932	-0.05004234
195	0x3d8fd890	0.07023728
196	0xbdee9a7a	-0.11650558
197	0x3e274537	0.16334997
198	0xbe00fe05	-0.12596901
199	0xbd8948c0	-0.06703329
200	0xbdb38ad1	-0.087667115
201	0xbdc1ebcd	-0.094688036
202	0x3da445fe	0.080211625
203	0xbd41c257	-0.047304478
204	0x3a16a2a4	0.0005746281
205	0xbe1dc7c4	-0.15408236
206	0xbc75a328	-0.014992513
207	0x3ce6a0c9	0.02815284
208	0x3d3816eb	0.04494373
209	0xbda7e4a4	-0.081979066
210	0xbe1abd6d	-0.15111323
211	0xbc4573d7	-0.012051544
212	0x3e024e72	0.12725237
213	0xbdfbdcd0	-0.12297976
214	0x3db2a16b	0.08722194
215	0x3e1b2570	0.15151
216	0x30a1fe5f	1.1786588e-09
217	0xbbe7a46e	-0.007069162
218	0x3e229f7a	0.15881148
219	0xbde41e8b	-0.11138638
220	0x3cf1471d	0.029452855
221	0x3e00ebe9	0.12589993
222	0x3d4d3a88	0.050104648
223	0x3c508051	0.0127259055
224	0xbdfcba99	-0.12340278
225	0x3d33884b	0.04383115
226	0x3e13779f	0.144011
227	0x3d24d01e	0.04023754
228	0x3de74e55	0.112942375
229	0x3bd58d2e	0.006517074
230	0x3dc2ce18	0.095119655
231	0x3e2737a6	0.16329822
232	0x3e0ea3e0	0.13929701
233	0x3d3bc847	0.045845296
234	0x3c9f38ac	0.019436203
235	0xbd27d740	-0.040976763
236	0x3d314630	0.043279827
237	0x3d5f289b	0.054482084
238	0xbce2c417	-0.027681394
239	0x3d89dc95	0.06731526
240	0xbdd71b61	-0.10503269
241	0xbe04d8f1	-0.12973382
242	0x3d8d544d	0.06900845
243	0x3dbbb70b	0.09165772
244	0x3e014dbf	0.12627314
245	0xbdbd0535	-0.09229509
246	0xbda76a47	-0.08174568
247	0x3d84538a	0.06461246
248	0xbe17a78b	-0.14810006
249	0xbd121b38	-0.03567049
250	0xbe199bb6	-0.15000805
251	0xbe2eac08	-0.17057812
252	0x3df26b76	0.11836903
253	0xbdf911f0	-0.121616244
254	0x3da520d9	0.08062906
255	0x3d1da4d1	0.03848726

encoder_c.convs.0.bias f4 [64]
0	0x3bde6767	0.006787229
1	0x3c3e4cf5	0.011615028
2	0x3ae32f36	0.0017332796
3	0x3bc8b081	0.0061245565
4	0x3ba681cd	0.0050813914
5	0xbaa254f5	-0.0012384938
6	0x3bc65bbc	0.006053416
7	0x3c7b45e4	0.015336487
8	0x3b13488c	0.0022473661
9	0x3bb77ecf	0.0055998336
10	0xbc096804	-0.008386616
11	0x3c637d4f	0.013884856
12	0xbcae875a	-0.021304775
13	0xbbb9aeb5	-0.0056665787
14	0x3c0143f1	0.007889734
15	0xbaf12ad3	-0.0018399603
16	0x3c8dd12d	0.017311657
17	0xbbeedd17	-0.0072895396
18	0xba743962	-0.0009316412
19	0x3cc0819a	0.023499299
20	0x3c140307	0.009033925
21	0x3ad3dae9	0.0016163263
22	0xbb813029	-0.0039425087
23	0xbbf09fdb	-0.007343275
24	0xbcb55041	-0.022132995
25	0x3c2a69b8	0.010401182
26	0xbbeda936	-0.0072528375
27	0xbba529b0	-0.00504037
28	0x3c9a0f08	0.018805996
29	0x3b50ac4a	0.0031840974
30	0x3c626646	0.013818329
31	0xbb6d0d8b	-0.0036171402
32	0x3bdf6c4f	0.0068183313
33	0x3bc11d6a	0.005893399
34	0xbb43c778	-0.0029873531
35	0xbc41f8cc	-0.011839103
36	0x3a4d60f2	0.00078345754
37	0x3bd2db56	0.0064348383
38	0x3bc1b352	0.005911269
39	0xbb848118	-0.0040437095
40	0x3a94a8e2	0.0011341835
41	0x3c1585e7	0.009126163
42	0xbb1b8797	-0.002373194
43	0x3bd5c679	0.006523904
44	0x3c85cbbf	0.016332505
45	0x3b9ddf1f	0.004817858
46	0xbb9540f6	-0.004554863
47	0x3c11f79a	0.0089091305
48	0x3bb5e6e3	0.0055512055
49	0x3a56c4df	0.0008192788
50	0x3c624a27	0.013811625
51	0x3b07c8d6	0.0020719073
52	0x3c0d4647	0.008622712
53	0xbb0ef276	-0.0021811998
54	0x3b7791c8	0.0037776101
55	0xbbc1567f	-0.0059002037
56	0xbae7ad64	-0.0017675576
57	0xbbdf1979	-0.0068084565
58	0x3c860b6a	0.016362865
59	0xbc5b34d2	-0.013379293
60	0x392c1bf0	0.00016413606
61	0x3ab4c854	0.0013792613
62	0x3a4d7016	0.00078368315
63	0xbb65e26a	-0.003507758

encoder_c.convs.1.weight f4 [64, 64]
0	0x3d57d013	0.05268867
1	0x3d93bc2d	0.07213626
2	0x3d49949c	0.04921399
3	0x3bb5bb22	0.0055459896
4	0xbc73dc19	-0.014884018
5	0x3d976852	0.073929444
6	0x3e1e0c00	0.15434265
7	0x3e21b056	0.15789923
8	0xbd416d45	-0.04722335
9	0xbe0edcb1	-0.13951375
10	0x3e0f8ada	0.14017811
11	0xbe252408	-0.16127026
12	0xbca52a49	-0.020161765
13	0x3c42071c	0.011842515
14	0xbc132e65	-0.008983229
15	0xbd8d3843	-0.06895497
16	0x3d131821	0.035911683
17	0x3d090952	0.033456154
18	0x3d9f28e4	0.07771471
19	0xbc7c2c6f	-0.015391453
20	0xbc4a63e8	-0.012352921
21	0xba9c9561	-0.0011946374
22	0x3da28762	0.079359785
23	0xbcc24936	-0.02371655
24	0xbd2fb92a	-0.042901196
25	0x3c95d259	0.018288778
26	0xb33c4d19	-4.384228e-08
27	0x3dea5584	0.11442092
28	0xbd92ff63	-0.071776174
29	0xbde38593	-0.11109462
30	0x3d370488	0.044682056
31	0xbd28ddba	-0.04122708
32	0x3e0c38b5	0.13693507
33	0x3ccc88b2	0.024967525
34	0xbdb73c06	-0.089469954
35	0xbdea7346	-0.11447768
36	0xbd1b029d	-0.03784429
37	0x3d8c8672	0.06861581
38	0xba90dbca	-0.001105183
39	0xbd244c8a	-0.040112056
40	0xbd1a0aa8	-0.03760782
41	0xbc5db108	-0.013530977
42	0x3da91bd7	0.08257263
43	0x3c529a90	0.012854233
44	0xbbcf2d40	-0.006322533
45	0xbd28bfa8	-0.041198403
46	0x3cdd6fb0	0.027030796
47	0xbd26bc24	-0.04070677
48	0x3c27a50d	0.010232222
49	0x3c0c21c4	0.008552972
50	0x3b858831	0.004075073
51	0xbd1942f6	-0.037417375
52	0xbc8ea288	-0.017411485
53	0xbd0db34b	-0.034594815
54	0x3daf84af	0.08570229
55	0x3c333911	0.010938899
56	0x3da9691d	0.08272002
57	0x3c9647ef	0.018344847
58	0xbdd4fce7	-0.103998
59	0x3daf27e9	0.08552534
60	0x3e23630f	0.15955757
61	0x3b99c186	0.0046922592
62	0xbd9375d4	-0.07200208
63	0xbe1f7e9f	-0.15575646
64	0x399c9e60	0.00029872637
65	0xbe0cb430	-0.13740611
66	0x3d27cbde	0.040965907
67	0x3d9f7d9f	0.07787632
68	0xbd60a624	-0.054845944
69	0x3e02f231	0.12787701
70	0x3caa56b9	0.020793306
71	0x3e3771b7	0.17914473
72	0x3df158f0	0.117845416
73	0x3e30ba2e	0.17258522
74	0xbccb650b	-0.024828454
75	0x3e46e94a	0.1942493
76	0x3dd9d1ae	0.10635696
77	0xbe4e3d8f	-0.2014067
78	0x3d48045e	0.04883229
79	0xbda70a80	-0.081562996
80	0x3c50313f	0.012707054
81	0x3e309fd9	0.17248477
82	0xbd547901	-0.05187321
83	0x3cbd0990	0.023075849
84	0xbda49938	-0.08037037
85	0xbcd6e8bb	-0.026234021
86	0xbe0401ff	-0.12891386
87	0xbd01ed7b	-0.03172062
88	0x3d9dd67b	0.077069245
89	0x3d7a2a9e	0.0610758
90	0xb7904c27	-1.7201599e-05
91	0xbdc797d6	-0.09745757
92	0xbdb5866c	-0.088635296
93	0x3dbe9e5f	0.09307551
94	0x3dbbec57	0.091759376
95	0xbc8c33bd	-0.017114514
96	0x3e589341	0.21149923
97	0xbcb361fd	-0.02189731
98	0xbe0445a5	-0.12917192
99	0x3d8a0c06	0.067405745
100	0x3d4f9427	0.0506784
101	0xbdf1ba76	-0.11803143
102	0x3e03296f	0.12808774
103	0x3e1d2321	0.15345432
104	0x3c3e49e1	0.011614294
105	0x3a03a164	0.00050213025
106	0xbd44170c	-0.04787354
107	0x3e0ed169	0.13947071
108	0x3e2fcf0b	0.17168824
109	0x3df22152	0.118227616
110	0xbd36952b	-0.04457585
111	0x3dbe7637	0.092998914
112	0x3db99198	0.09060973
113	0xbbfc45f1	-0.0076987674
114	0x3db817f0	0.08988941
115	0xbe1106e7	-0.1416279
116	0x3dfefedb	0.124509536
117	0x3caa226f	0.020768372
118	0xbe170d6e	-0.14751217
119	0xbd476de1	-0.048688773
120	0x3e2ba87b	0.16763489
121	0x3bb36b83	0.005475463
122	0x3ddaf557	0.10691326
123	0x3dc42743	0.09577801
124	0x3cc3d298	0.02390413
125	0xbd2a8b73	-0.041636895
126	0x3cc987cf	0.024600891
127	0xbe56f65e	-0.20992419
128	0xbc568db6	-0.01309531
129	0x3c2ce931	0.010553644
130	0xbc7ecaac	-0.01555125
131	0x3c48b51c	0.012250211
132	0xb7029763	-7.783851e-06
133	0xbdebe5e4	-0.115184575
134	0xbccb9ac6	-0.024854075
135	0xbccf759e	-0.025324639
136	0x3c30b525	0.010785376
137	0x3d9df541	0.07712794
138	0xbc915968	-0.017742828
139	0xbce54d4f	-0.027990965
140	0x3b08827f	0.0020829735
141	0x3c650699	0.013978624
142	0xbaad8b2e	-0.0013240331
143	0x3d0eec55	0.034893353
144	0xbbbe9d15	-0.0058170655
145	0xbd449251	-0.0479911
146	0x385e196b	5.2952597e-05
147	0x3cb0d8c7	0.021587742
148	0xbbaec4b2	-0.0053335065
149	0xbc334773	-0.010942328
150	0xbcba865f	-0.022769151
151	0xbd5f6e03	-0.054548275
152	0xbd7567c2	-0.059913404
153	0x3cc878c3	0.024471646
154	0xbbeba29d	-0.007191016
155	0xbd7e4502	-0.06207753
156	0xbcc8c424	-0.02450759
157	0x3b8386a1	0.0040138518
158	0x3caa0242	0.02075303
159	0x3cb44a4e	0.022008087
160	0x3cc9e772	0.024646495
161	0xbbb42d94	-0.0054985974
162	0x3baa09ff	0.00518918
163	0x3ca9e204	0.020737655
164	0x3c185355	0.009297212
165	0xbc49fa2d	-0.012327713
166	0xbb8f7b90	-0.0043787435
167	0x3c1aceb9	0.009448701
168	0x3c6df9b9	0.014524871
169	0x3d8bcefb	0.06826588
170	0xbc52ab94	-0.01285829
171	0xbce20737	-0.02759133
172	0xbc88d3e6	-0.016702604
173	0x3b076c19	0.0020663796
174	0x3d33d4e9	0.04390422
175	0xbb02b7ed	-0.0019946054
176	0x3d2d7f4d	0.04235773
177	0x3b79eb00	0.0038134456
178	0x3c9cd41b	0.019144109
179	0xbc084af3	-0.008318651
180	0x3b83f82d	0.0040273876
181	0xbc9feae0	-0.019521177
182	0x3c5a0b6d	0.013308388
183	0xbc65714e	-0.014004065
184	0xbc408eaf	-0.011752768
185	0x39a4a2d5	0.00031401837
186	0x3d87c76d	0.06629834
187	0xbd4fb3ce	-0.050708584
188	0xbcb37fb9	-0.021911489
189	0xb9076850	-0.00012913463
190	0xbd36c9fd	-0.044626225
191	0xbc060047	-0.008178777
192	0xbb70a79a	-0.0036720992
193	0x3e0cee79	0.13762845
194	0x3dd5717c	0.10422036
195	0x3e336098	0.17517316
196	0xbd503e54	-0.05084069
197	0xbe3e2f47	-0.18572722
198	0xbdb5b02a	-0.08871491
199	0x3e216d14	0.15764266
200	0x3d240a19	0.040048692
201	0x3dc07492	0.09397234
202	0xbe06e87b	-0.13174622
203	0x3e1ee054	0.15515262
204	0xbcc79ace	-0.024365809
205	0x3e00ea8e	0.12589476
206	0x3d9f476c	0.077772945
207	0x3e13f544	0.1444903
208	0xbd7121c4	-0.058870092
209	0x3dd84056	0.10559146
210	0xbe2cd9ef	-0.1688001
211	0xbddce936	-0.10786669
212	0x3d8af2ae	0.06784569
213	0xbe2e43cb	-0.17018048
214	0x3d265cc6	0.04061582
215	0x3e3c79da	0.18405858
216	0x3e27d256	0.1638883
217	0xbd8d68ac	-0.0690473
218	0x3625402a	2.4624264e-06
219	0xbd978885	-0.07399086
220	0xbe42952b	-0.19002216
221	0x3cf52c47	0.02992834
222	0x3e229c57	0.15879951
223	0xbddc5a17	-0.10759371
224	0xbe24b24f	-0.16083644
225	0xbae31f84	-0.0017328118
226	0xbc5531ba	-0.013012344
227	0x3e2a185e	0.16610858
228	0xbdd1adec	-0.10238251
229	0xbe066254	-0.13123447
230	0x3cdb7bfc	0.026792519
231	0x3db2bd56	0.08727519
232	0xbde7154a	-0.112833574
233	0xbd284d48	-0.041089326
234	0xbd672a19	-0.05643663
235	0xbd11833c	-0.035525545
236	0x3e2fb50c	0.17158908
237	0xbcd0f105	-0.025505552
238	0xbc410d16	-0.011782905
239	0x3b2e2d05	0.0026577127
240	0x3e385ff8	0.18005359
241	0x3da19cc7	0.07891231
242	0xbdd181cc	-0.10229835
243	0x3da3fa50	0.08006728
244	0xbdf667ea	-0.12031539
245	0x3dab01c7	0.083499484
246	0xbe1d1889	-0.1534139
247	0x3b985556	0.0046488447
248	0xbe107ca6	-0.1411005
249	0xbc1d8e4b	-0.009616445
250	0xbc7747ab	-0.015092771
251	0xbde6d56e	-0.11271177
252	0x3e02cb37	0.12772833
253	0x3ac8a135	0.0015306833
254	0x3e454657	0.19265114
255	0x3ba86e99	0.0051401374

encoder_c.convs.1.bias f4 [64]
0	0x3ca507ca	0.020145316
1	0xbb992464	-0.0046735276
2	0x3c211819	0.0098324055
3	0x3c025440	0.007954657
4	0xbafda547	-0.0019351625
5	0x3bce3e57	0.0062940526
6	0x3c82079c	0.015872769
7	0x3c2244ea	0.009904126
8	0xbb0b9a99	-0.0021301864
9	0x3bbef5c6	0.0058276383
10	0x3beac4eb	0.0071645877
11	0xba86a017	-0.0010271099
12	0x3b85d86b	0.004084637
13	0xbbaf8ff5	-0.005357737
14	0xbc88e098	-0.016708657
15	0x3c20687c	0.009790536
16	0xbbb4cfc5	-0.005517932
17	0x3c84973c	0.016185395
18	0xbbf21803	-0.0073881163
19	0x3c369dbb	0.011146004
20	0xbc01b235	-0.007916023
21	0xbba33b30	-0.004981421
22	0x3d04ac57	0.03239092
23	0x3b0880b3	0.0020828664
24	0x3c1bb94d	0.009504628
25	0x3c7b1bbf	0.015326439
26	0xbca8122e	-0.020516481
27	0x3c11e47b	0.008904572
28	0x3c2f7805	0.010709767
29	0x3c9b32c5	0.018945107
30	0x3b5a10df	0.0033274216
31	0xb89ff8dc	-7.6280645e-05
32	0x3bd00f73	0.006349498
33	0x3bc1fd4b	0.0059200875
34	0xbb482e98	-0.003054535
35	0xbb927dbf	-0.0044705565
36	0x3bb92fed	0.005651465
37	0x3c1c5977	0.009542814
38	0x3bce10ef	0.0062886397
39	0x3b1902b9	0.002334757
40	0x3b3241d9	0.0027199893
41	0xbb790b14	-0.0038000988
42	0x3bcec33a	0.006309894
43	0x3c861cb6	0.016371112
44	0xbbfe679c	-0.007763816
45	0xbbddccdf	-0.0067688073
46	0x3a1e371f	0.00060354354
47	0x3bde3292	0.006780931
48	0xbbb093d2	-0.0053887153
49	0xbb5b34d8	-0.0033448245
50	0x3c16b965	0.009199475
51	0x3baf5865	0.0053511136
52	0x3b6af544	0.0035851756
53	0x3b6c5988	0.0036064107
54	0x3bca88e8	0.0061808713
55	0x3c5f0683	0.013612392
56	0x3b51861a	0.00319708
57	0x3bffd0e7	0.0078068855
58	0x3bb3771b	0.005476845
59	0x3c501761	0.012700886
60	0x3c6a0b62	0.01428494
61	0xbc3a0449	-0.011353561
62	0x3adb5476	0.0016733545
63	0xbc1a2154	-0.00940736

encoder_c.convs.2.weight f4 [64, 64]
0	0xbcb130b0	-0.021629661
1	0x3c8213af	0.015878526
2	0x3c8cd755	0.017192522
3	0x3d2c2b64	0.042033568
4	0xbcc3d590	-0.023905545
5	0x3cb59957	0.022167845
6	0xbca08069	-0.01959248
7	0x3c9d3e1a	0.019194651
8	0xbcc203a4	-0.023683377
9	0x3cdbcfa1	0.026832404
10	0x3d871b64	0.06597021
11	0x3c193992	0.009352105
12	0xbbea08ed	-0.0071421773
13	0x3ce38dad	0.027777517
14	0xbccdf8ce	-0.025143053
15	0x3cbf89b3	0.02338109
16	0xbca60de4	-0.020270295
17	0xbcbb2957	-0.02284686
18	0x3c9a604d	0.018844748
19	0xbd18d95a	-0.037316658
20	0xbd324cd7	-0.04353031
21	0xbcc7b3be	-0.0243777
22	0xbd5a527e	-0.053301327
23	0x3c594499	0.013260984
24	0x3cb2cbec	0.021825753
25	0x3cbdaf94	0.023155011
26	0x3d60556c	0.054768965
27	0xbc82ba83	-0.015958076
28	0x3c977a13	0.018490827
29	0x3ca9e6ce	0.020739939
30	0x3c8c40aa	0.017120678
31	0xbca9a91e	-0.020710524
32	0xbcd7227f	-0.026261566
33	0xbcbeb500	-0.023279667
34	0xbc9c6c0c	-0.01909449
35	0xbcc5ba31	-0.024136635
36	0x3cb759bb	0.022381654
37	0x3c8535fa	0.01626109
38	0xbcb2d9b7	-0.02183233
39	0x3a522f6d	0.0008017931
40	0xbc8d48f7	-0.017246706
41	0x3d350c67	0.04420128
42	0x3ca5358d	0.020167137
43	0x3c5f480c	0.013628017
44	0xbc7f09b3	-0.015566277
45	0x3c29c7c4	0.010362569
46	0x3cb7be2b	0.022429546
47	0xbd09d173	-0.033647012
48	0x3cba3d3d	0.022734279
49	0xbbe7c5fa	-0.007073161
50	0x3ca90299	0.020631121
51	0x3cc1341d	0.02358442
52	0xbca13654	-0.019679226
53	0x3cb3454f	0.021883635
54	0xbd30143a	-0.04298804
55	0x3cda01e8	0.026612237
56	0x3c846a22	0.01616389
57	0x3c158fb2	0.009128498
58	0x3d7c2dec	0.061567232
59	0xbcae46cd	-0.021273995
60	0xbc546931	-0.012964533
61	0x3cb7309f	0.022362052
62	0xbc9f086e	-0.0194132
63	0xbcd23d75	-0.02566407
64	0x3dfada98	0.12248725
65	0xbcb2c3b4	-0.021821834
66	0x3dcffce1	0.10155655
67	0x3e3b6dac	0.18303555
68	0xbe01260e	-0.12612173
69	0x3de587fb	0.11207577
70	0x3d9ad19e	0.075595126
71	0x3e2b7846	0.167451
72	0xbc9bfe1b	-0.019042065
73	0xbdb71666	-0.08939819
74	0xbd8bfbf0	-0.06835163
75	0x3cd07e57	0.025450869
76	0x3c89decc	0.01682987
77	0xbd41e6b9	-0.047339175
78	0xbda28640	-0.079357624
79	0xbd215af2	-0.039393373
80	0xbddb9788	-0.10722262
81	0x3de8ac3f	0.11360978
82	0xbd4bca67	-0.049753573
83	0xbe130356	-0.14356741
84	0xbc650057	-0.013977132
85	0x3e1d0e5a	0.15337506
86	0x3c6081f5	0.013702859
87	0x3db58c53	0.08864655
88	0xbd244234	-0.0401022
89	0xbe10d9b1	-0.14145543
90	0xbd251557	-0.040303554
91	0xbd476f86	-0.04869034
92	0x3d24972c	0.04018323
93	0x3d245472	0.040119596
94	0x3e35c96e	0.1775262
95	0xbe0c934a	-0.13728061
96	0x3d49d640	0.04927659
97	0xbd43bc8a	-0.047787227
98	0xbdf9dcfb	-0.12200352
99	0x3d6ab565	0.057301898
100	0x3e3dd840	0.18539524
101	0xbdbdc858	-0.09266728
102	0xbd57636b	-0.052585047
103	0xbdc06fe7	-0.09396344
104	0xbe3cfa0d	-0.18454762
105	0x3bbdd6da	0.0057934346
106	0x3d1cf346	0.03831794
107	0xbde7de7b	-0.11321732
108	0x3e1f6cbd	0.15568824
109	0xbd202de5	-0.03910627
110	0x3d3eff63	0.046630275
111	0x3e01ddc8	0.12682259
112	0x3e1a6d2e	0.15080711
113	0x3bb1fd84	0.0054318327
114	0xbd8977a5	-0.067122735
115	0xbcbd714e	-0.023125317
116	0x3d005e93	0.031340193
117	0x3d52a128	0.05142322
118	0x3d067029	0.032821808
119	0x3e2a24b7	0.16615568
120	0xbe13cd70	-0.14433837
121	0xbcd24510	-0.025667697
122	0xbe40d51b	-0.18831293
123	0xbdda4a4f	-0.106587045
124	0x3c6ec235	0.01457267
125	0x3e08ec6b	0.13371436
126	0x3dbdbea6	0.09264879
127	0x3da127ca	0.07868917
128	0x3dd2c185	0.10290817
129	0x3e5f2c00	0.21794128
130	0xbdc87523	-0.09787967
131	0x3dac5045	0.08413748
132	0xbcd69843	-0.02619565
133	0xbe57c053	-0.2106946
134	0x3c679176	0.014133802
135	0xbd53fb0f	-0.0517531
136	0x3d8acb10	0.06777012
137	0x3d7da80f	0.06192785
138	0xbda0a4ef	-0.078439586
139	0x3c8f7d16	0.0175157
140	0x3c16a9f3	0.0091957925
141	0xbd86b428	-0.06577331
142	0x3d6cd501	0.057820324
143	0x3dc67d58	0.09691876
144	0x3e1c93f3	0.15290813
145	0xbe1d24f7	-0.15346132
146	0xbda19724	-0.07890156
147	0x3e50056a	0.20314565
148	0xbd1acc93	-0.037792753
149	0x3d9e2ba6	0.07723169
150	0x3e041e97	0.12902294
151	0xbe269f11	-0.16271617
152	0xbe0e6917	-0.13907276
153	0xbd3a3162	-0.04545725
154	0xbcc3fe8f	-0.023925094
155	0x3bfe681a	0.0077638747
156	0xbd7fac4a	-0.062420167
157	0xbdd5c619	-0.10438175
158	0xbe2fbcd9	-0.17161883
159	0x3d6aff91	0.057372633
160	0xbdb18972	-0.08668794
161	0x3e01b449	0.1266643
162	0x3e08baa8	0.13352454
163	0x3c1a12d8	0.009403907
164	0xbdd8b750	-0.10581839
165	0xbe10a248	-0.14124405
166	0x3e5f90fa	0.21832648
167	0xbd6ea20e	-0.058260016
168	0x3e0f4294	0.13990241
169	0x3d764ba2	0.060130723
170	0x3cfbebf5	0.030752162
171	0xbe13294d	-0.14371224
172	0xbe15437f	-0.14576529
173	0xbd054f4f	-0.032546338
174	0xbd308b37	-0.043101516
175	0x3e3d03ee	0.1845853
176	0xbe34f8f8	-0.17673099
177	0xbd70fbe8	-0.058833987
178	0xbe14b5ae	-0.1452243
179	0xbdb56739	-0.08857579
180	0x3c060608	0.008180149
181	0x3cc75784	0.024333723
182	0xbe16e0e2	-0.14734223
183	0xbe20e5c8	-0.15712655
184	0xbdad6ba3	-0.08467796
185	0xbcb388d6	-0.021915834
186	0x3c8905aa	0.016726334
187	0x3d9ed8f7	0.077562265
188	0xbdacc272	-0.08435525
189	0xb98459d1	-0.0002524392
190	0x3d8d496a	0.06898768
191	0x3b5ba6cc	0.0033516167
192	0x3e3d6923	0.18497138
193	0x3e237630	0.15963054
194	0xbd037664	-0.032095328
195	0xbe57acc4	-0.21061999
196	0x3d310e2c	0.043226406
197	0xbc0d9165	-0.008640622
198	0xbd2be28d	-0.041964103
199	0xbe463efd	-0.19359966
200	0x3e094f4a	0.13409153
201	0x3b9516ab	0.0045498214
202	0xbe48991f	-0.19589661
203	0xbc05db66	-0.008169984
204	0xbe083167	-0.13300095
205	0x3ccd8150	0.025086075
206	0xbdedb9ec	-0.116077274
207	0xbe14a299	-0.14515151
208	0x3e30010b	0.17187898
209	0x3daec2f7	0.0853328
210	0x3e290ae2	0.16508058
211	0x3c7ec121	0.015548975
212	0xbd83381e	-0.06407188
213	0xbe259e36	-0.16173634
214	0x3cc54f1f	0.02408558
215	0xbe217789	-0.15768255
216	0x3d48e086	0.049042247
217	0xbd1deff4	-0.038558915
218	0x3ba71a01	0.0050995355
219	0xbbd1ba54	-0.006400386
220	0xbdc21ced	-0.094781734
221	0x3c4c48d3	0.0124685345
222	0x3dc6b533	0.0970253
223	0x3d32cd07	0.04365256
224	0xbdec8d7d	-0.11550424
225	0xbe2904e9	-0.1650578
226	0x3e0c27dd	0.13687082
227	0xbd6b981a	-0.057518102
228	0x3cbed53e	0.023295041
229	0xbdfa9986	-0.122363135
230	0xbe40e1ba	-0.18836108
231	0x3dfde147	0.12396484
232	0x3b951cb2	0.00455054
233	0xbdce8b60	-0.100851774
234	0x3e0088ad	0.12552138
235	0x3e387320	0.18012667
236	0xbe056e36	-0.13030323
237	0x3d990712	0.07472052
238	0xbd7fcc53	-0.062450718
239	0xbe078d68	-0.13237536
240	0xbd824a3c	-0.06361815
241	0xbd71c905	-0.059029598
242	0x3d90d7b0	0.07072389
243	0x3d28f66f	0.041250642
244	0xbe27eb60	-0.16398382
245	0xbe4712a8	-0.1944071
246	0x3d051048	0.03248623
247	0x3e01f50a	0.12691131
248	0x3d5e5dce	0.054288678
249	0xbc2e824d	-0.010651183
250	0xbe401704	-0.1875878
251	0x3e4fe42d	0.20301886
252	0x3cc8cca8	0.02451165
253	0xbc404807	-0.011735923
254	0xbdc036ab	-0.09385427
255	0xbd697788	-0.05699876

encoder_c.convs.2.bias f4 [64]
0	0xbb4a66c5	-0.003088401
1	0xbb6624fb	-0.0035117257
2	0x3ac3ca8a	0.0014937681
3	0x3b71048c	0.0036776392
4	0x3b10abbb	0.0022075016
5	0x3b4a7e2c	0.0030897958
6	0xbb39b785	-0.0028338146
7	0x3b903b05	0.004401567
8	0x3a8f5cde	0.0010937711
9	0x3b410fa1	0.0029458778
10	0x3b6910c2	0.0035562967
11	0xbaabd16c	-0.0013108677
12	0xb9e77e70	-0.00044153957
13	0x3b772989	0.0037713966
14	0xbb3e8654	-0.0029071765
15	0x3b578f20	0.0032891706
16	0xbb6101e6	-0.0034333407
17	0xbb5d1a87	-0.0033737735
18	0x3b53d781	0.0032324495
19	0xbb52611c	-0.0032101339
20	0xbb55abab	-0.0032603543
21	0xbb5bee9a	-0.0033558966
22	0xbb84669d	-0.004040553
23	0x3b5e6016	0.0033931783
24	0x3b53ae69	0.0032300001
25	0x3b58612a	0.0033016899
26	0x3bc0265f	0.005863949
27	0x3c273661	0.010205836
28	0xbc1a35aa	-0.009412209
29	0x3b663bb7	0.0035130808
30	0x3b6c1c5f	0.0036027653
31	0xbb467d1e	-0.0030286978
32	0xbb5acc12	-0.0033385796
33	0xbb806b5c	-0.0039190482
34	0x3bcf5320	0.006327048
35	0xbb80e4c8	-0.003933523
36	0x3b4e89bf	0.0031515209
37	0x3b93182c	0.0044889655
38	0xbb490435	-0.0030672674
39	0xbb50b446	-0.0031845733
40	0xbb51950d	-0.003197971
41	0x3b51dd71	0.0032022859
42	0x3b87ee3d	0.0041482733
43	0xbb7de25b	-0.0038739655
44	0xbb45ec7f	-0.0030200777
45	0xbc2f67c2	-0.01070589
46	0x3bf65f8a	0.0075187134
47	0xbb450588	-0.0030063111
48	0x3b7bf779	0.0038447066
49	0x3b9ddb0d	0.0048173727
50	0x3b81ba18	0.0039589517
51	0x3b675949	0.003530102
52	0xbb762e33	-0.0037564158
53	0x3b8144d6	0.0039449735
54	0xbb5467d5	-0.0032410522
55	0x3b6c8cf8	0.0036094766
56	0xbb738c5f	-0.0037162525
57	0x3ab19537	0.0013548498
58	0x3b5afa2d	0.0033413277
59	0xbb524a88	-0.003208788
60	0xbb84e2ca	-0.0040553557
61	0x3b7a0262	0.0038148393
62	0xbb1f15e8	-0.0024274532
63	0x3b45fb8e	0.0030209753

encoder_b.convs.0.weight f4 [116, 64]
0	0xbd5577fe	-0.052116387
1	0x3db766ea	0.08955176
2	0x3e2f77a8	0.17135489
3	0xbd960325	-0.073248185
4	0x3db8b8c2	0.09019615
5	0x3e0d6922	0.13809636
6	0xbe108f43	-0.1411715
7	0x3d89de05	0.067318
8	0x3d02cfa4	0.031936303
9	0x3dd0fcec	0.10204491
10	0x3da72e8a	0.081631735
11	0xbbe85bc4	-0.0070910174
12	0xbd8a44e9	-0.06751425
13	0xbda12428	-0.078682244
14	0x3d8ab56f	0.06772887
15	0xbddbe825	-0.107376374
16	0xbe255fd5	-0.16149838
17	0x3c576fd4	0.0131492205
18	0x3d9c40c0	0.076295376
19	0x3e1b427c	0.1516208
20	0x3d7ad7ed	0.06124108
21	0x3dc3fb7d	0.09569452
22	0xbdc60332	-0.09668578
23	0xbe2fb6d7	-0.17159592
24	0x3ddd0247	0.1079145
25	0x3d925e8b	0.07146939
26	0xbc93a74b	-0.018024107
27	0xbdfefa09	-0.12450034
28	0x3d93357e	0.07187937
29	0x3e1c4822	0.15261891
30	0x3e0f68fa	0.14004889
31	0xbe0199f3	-0.12656383
32	0x3dc7a614	0.09748474
33	0x3d9aa99f	0.07551884
34	0xbd283f82	-0.04107619
35	0xbcc8ac96	-0.024496358
36	0x3d84e07e	0.06488131
37	0xbe220330	-0.15821528
38	0x3e2e99d0	0.17050862
39	0xbd87f0c9	-0.06637723
40	0xbdf2ff56	-0.11865108
41	0xbd35a4c7	-0.044346597
42	0x3d99d197	0.07510679
43	0xbdbbdbd5	-0.09172789
44	0x3e27e9ff	0.16397856
45	0x3dbe88a2	0.093034044
46	0x3e264f4d	0.16241188
47	0x3c6b70ab	0.014370124
48	0xbdc19595	-0.09452359
49	0x3de8dee0	0.11370635
50	0xbdd29de3	-0.10284021
51	0x3e39b2d2	0.18134621
52	0xbdfec79f	-0.124404185
53	0x3dbbc14d	0.091677286
54	0x3d55734a	0.0521119
55	0xb9d287e6	-0.00040155574
56	0xbdaf94ee	-0.08573328
57	0xbcea5a78	-0.028607592
58	0x3e1fba95	0.15598519
59	0xbe1701ae	-0.14746734
60	0x3d6efe75	0.058348138
61	0xbdb505f0	-0.08839023
62	0xbe26e2a3	-0.16297393
63	0xbddd191a	-0.10795803
64	0x3de53f69	0.11193735
65	0xbd8be361	-0.068304785
66	0xbd49c326	-0.049258374
67	0x3b6f6a85	0.0036531996
68	0xbd497d5c	-0.049191818
69	0xbd4b8cc5	-0.049694795
70	0xbe22a809	-0.15884413
71	0x3e1ec39f	0.15504311
72	0xbe0ce5a8	-0.13759482
73	0xbe3210cc	-0.1738922
74	0xbdec4cf7	-0.115381174
75	0x3cc0dab5	0.023541788
76	0xbde34e8c	-0.11098966
77	0x3d4545de	0.048162334
78	0x3dd5ae37	0.104336195
79	0xbdb3db74	-0.08782092
80	0xbd51c60d	-0.051214267
81	0x3e37fd69	0.17967762
82	0xbdf41d8c	-0.11919698
83	0x3e0c4e3c	0.13701719
84	0xbde18f63	-0.11013677
85	0xbdcda4bb	-0.100411855
86	0x3e1d004b	0.15332143
87	0xbca6661e	-0.020312365
88	0xbe38321e	-0.17987868
89	0x3d90de1f	0.07073616
90	0xbe13aee7	-0.14422189
91	0x3e1880f5	0.14892943
92	0xbe30f37b	-0.1728038
93	0xbe1e2a62	-0.15445855
94	0x3df5891c	0.11989042
95	0x3e176d43	0.14787774
96	0xbd5b06ca	-0.05347327
97	0xbdfcd344	-0.12344983
98	0xbe37db68	-0.1795479
99	0xbe20f1ab	-0.15717189
100	0x3e279000	0.16363525
101	0xbdef6ec0	-0.11691046
102	0xbe143599	-0.14473571
103	0x3df62f0b	0.120206915
104	0x3e31be1f	0.17357682
105	0xbdbaa9cd	-0.09114418
106	0xbe0ceebe	-0.13762948
107	0xbd93b48d	-0.07212172
108	0x3dfafc1f	0.122551195
109	0xbcac1a2a	-0.02100857
110	0x3e21b805	0.15792854
111	0x3e181eba	0.14855471
112	0x3dbda941	0.09260798
113	0xbe35b0b7	-0.17743193
114	0xbe0642c2	-0.13111404
115	0xbdcec177	-0.10095494
116	0x3cc5e9ef	0.0241594
117	0x3e22818b	0.15869729
118	0xbe06cb26	-0.13163432
119	0xbde7aeb8	-0.11312622
120	0x3bca6832	0.006176972
121	0xbde39d08	-0.11113936
122	0xbe0e7e0e	-0.13915274
123	0xbdd286fc	-0.102796525
124	0x3db6ebad	0.0893167
125	0xbe317176	-0.17328438
126	0x3de050c3	0.10952904
127	0x3e2f1e12	0.17101315
128	0xbd3a9dc7	-0.045560624
129	0x3e100417	0.1406406
130	0xbe2176c9	-0.15767969
131	0x3d4a6a98	0.049418062
132	0xbe320867	-0.17386018
133	0xbd8e3144	-0.069429904
134	0x3d3cf268	0.046129614
135	0xbda746d5	-0.08167807
136	0xbe03a3c2	-0.12855437
137	0xbde365c7	-0.11103397
138	0xbd2ebc00	-0.04265976
139	0xbd8e41f2	-0.06946172
140	0xbe233a17	-0.15940128
141	0x3becee6e	0.0072305715
142	0x3e13f1f7	0.14447771
143	0xbe297e43	-0.16552071
144	0xbe28d5ea	-0.16487852
145	0x3b5ff164	0.003417098
146	0xbdf97659	-0.12180776
147	0xbe0cd873	-0.13754444
148	0x3e11c927	0.1423689
149	0xbc86f71d	-0.016475255
150	0x3e1ed519	0.15510978
151	0x3e0f0149	0.13965334
152	0x3e37908c	0.17926234
153	0x3e2ba2e3	0.16761355
154	0x3ce42b53	0.02785269
155	0xbd97d6b5	-0.07413999
156	0xbde7306c	-0.112885326
157	0x3de2754e	0.1105753
158	0xbafa5676	-0.0019099254
159	0xbd7f2583	-0.062291633
160	0x3e1ab167	0.15106736
161	0x3e1f023b	0.15528195
162	0xbd63d35e	-0.055621497
163	0x3de73661	0.11289669
164	0xbd0df255	-0.034654934
165	0x3d8b7aa6	0.06810503
166	0x3dde1614	0.10844055
167	0xbcef0222	-0.029175822
168	0x3d421762	0.04738558
169	0x3d8c6357	0.06854885
170	0x3c929c5e	0.017896827
171	0x3bffe257	0.0078089642
172	0x3daa5a4f	0.08318006
173	0xbd4712de	-0.048601978
174	0xbdb19666	-0.08671264
175	0x3c9c80c3	0.019104367
176	0x3cd5c605	0.0260954
177	0xbdb25e34	-0.08709374
178	0x3d090427	0.033451226
179	0x3dacf717	0.08445566
180	0xbd85a0c1	-0.06524802
181	0x3d109e30	0.03530711
182	0x3bc5295d	0.006016894
183	0xbdf4ce18	-0.11953372
184	0x3e134ada	0.14384022
185	0x3d156154	0.036469772
186	0xbe1ffdb0	-0.15624118
187	0xbcae1fda	-0.021255422
188	0xbdb5884f	-0.088638894
189	0x3d9ed2eb	0.07755073
190	0xbe0205ab	-0.12697475
191	0x3d2f9f94	0.042876795
192	0xbe042a1f	-0.12906693
193	0x3d059d46	0.03262069
194	0x3e2a13aa	0.16609064
195	0xbd824bdf	-0.063621275
196	0xbdd5fc55	-0.10448519
197	0xbe233942	-0.15939811
198	0xbe30ba84	-0.1725865
199	0x3dc014bd	0.093789555
200	0xbd0fd122	-0.035111554
201	0xbddeec92	-0.10884966
202	0x3e151221	0.14557697
203	0x3e266585	0.16249664
204	0xbd984446	-0.07434897
205	0x3c492539	0.012276941
206	0xbe33183f	-0.17489718
207	0xbe0a7465	-0.13520963
208	0xbd21cdee	-0.03950303
209	0x3dcb1bc5	0.09917406
210	0x3d886755	0.06660334
211	0xbd9341a8	-0.07190257
212	0x3da99c2b	0.0828174
213	0x3d8da260	0.06915736
214	0x3df76c4d	0.120812036
215	0x3cfe18a0	0.031017601
216	0x3c08a363	0.008339736
217	0x3da2590d	0.07927141
218	0xbdb86067	-0.09002762
219	0xbc9bb6bf	-0.019008039
220	0x3e377d5d	0.17918916
221	0x3db7786e	0.08958517
222	0x3e2ff541	0.171834
223	0xbda43089	-0.0801707
224	0x3dceaaa5	0.100911416
225	0x3e29284d	0.1651928
226	0xbe0c3071	-0.13690354
227	0xbd2dce15	-0.042432863
228	0xbdf85417	-0.12125414
229	0x3e28c91a	0.16482964
230	0xbe1c1a47	-0.15244399
231	0xbcea1e2d	-0.028578842
232	0x3c7b95df	0.015355556
233	0xbdadb36a	-0.08481486
234	0x3d861167	0.06546288
235	0x3ac70afe	0.0015185771
236	0xbdc47da7	-0.09594279
237	0x3cf5907e	0.029976126
238	0x3d45f59e	0.048329942
239	0x3d716243	0.0589316
240	0xbde031eb	-0.10947021
241	0xbd92af01	-0.071622856
242	0xbb655a08	-0.003499629
243	0x3de38cd9	0.11110849
244	0xbdc04d59	-0.09389753
245	0x3e2e8b00	0.17045212
246	0x3e02f053	0.12786989
247	0xbdc3292f	-0.095293395
248	0xbda5bd8e	-0.08092795
249	0x3e3653e2	0.17805436
250	0x3d414234	0.047182277
251	0x3de715bb	0.11283442
252	0x3de18587	0.110117964
253	0x3c23de58	0.010001741
254	0x3df71f6a	0.12066539
255	0x3e1af8a7	0.15133916

encoder_b.convs.0.bias f4 [64]
0	0x00000000	0.0
1	0x00000000	0.0
2	0x00000000	0.0
3	0x00000000	0.0
4	0x00000000	0.0
5	0x00000000	0.0
6	0x00000000	0.0
7	0x00000000	0.0
8	0x00000000	0.0
9	0x00000000	0.0
10	0x00000000	0.0
11	0x00000000	0.0
12	0x00000000	0.0
13	0x00000000	0.0
14	0x00000000	0.0
15	0x00000000	0.0
16	0x00000000	0.0
17	0x00000000	0.0
18	0x00000000	0.0
19	0x00000000	0.0
20	0x00000000	0.0
21	0x00000000	0.0
22	0x00000000	0.0
23	0x00000000	0.0
24	0x00000000	0.0
25	0x00000000	0.0
26	0x00000000	0.0
27	0x00000000	0.0
28	0x00000000	0.0
29	0x00000000	0.0
30	0x00000000	0.0
31	0x00000000	0.0
32	0x00000000	0.0
33	0x00000000	0.0
34	0x00000000	0.0
35	0x00000000	0.0
36	0x00000000	0.0
37	0x00000000	0.0
38	0x00000000	0.0
39	0x00000000	0.0
40	0x00000000	0.0
41	0x00000000	0.0
42	0x00000000	0.0
43	0x00000000	0.0
44	0x00000000	0.0
45	0x00000000	0.0
46	0x00000000	0.0
47	0x00000000	0.0
48	0x00000000	0.0
49	0x00000000	0.0
50	0x00000000	0.0
51	0x00000000	0.0
52	0x00000000	0.0
53	0x00000000	0.0
54	0x00000000	0.0
55	0x00000000	0.0
56	0x00000000	0.0
57	0x00000000	0.0
58	0x00000000	0.0
59	0x00000000	0.0
60	0x00000000	0.0
61	0x00000000	0.0
62	0x00000000	0.0
63	0x00000000	0.0

encoder_b.convs.1.weight f4 [64, 64]
0	0xbd4e6558	-0.050389618
1	0x3dcc7ff7	0.09985345
2	0xbe283a2f	-0.16428445
3	0x3e1ba5db	0.15199988
4	0xbc910049	-0.017700331
5	0x3d4868ff	0.048928257
6	0xbc2ab9b4	-0.010420252
7	0x3dd0ac35	0.10189096
8	0x3e2c63c6	0.16834936
9	0xbdc51e04	-0.09624866
10	0x3d2e334d	0.042529393
11	0xbd1fc6c2	-0.03900791
12	0xbd4e3bc7	-0.050349977
13	0xbe15edcc	-0.14641494
14	0x3e521b6e	0.20518276
15	0x3d073a87	0.0330148
16	0xbd8badb3	-0.0682024
17	0xbe0452d2	-0.12922218
18	0x3e005db3	0.12535743
19	0x3d31caf0	0.043406427
20	0xbbb7926f	-0.005602173
21	0x3d33a91f	0.04386246
22	0xbdafb60c	-0.085796446
23	0x3e1ff398	0.15620267
24	0xbd13a62a	-0.03604714
25	0x3d1440ce	0.036194615
26	0x3df8644b	0.12128504
27	0x3db09402	0.0862198
28	0xbc45c5af	-0.012071057
29	0xbcfba438	-0.030717954
30	0x3e1ccb19	0.1531185
31	0xbced11ec	-0.02893921
32	0x3e31b338	0.17353523
33	0xbc26a485	-0.01017106
34	0xbe1a1a1e	-0.15049025
35	0xbdbf4dca	-0.09341009
36	0x3d9bafec	0.07601914
37	0x3d8ce4af	0.068795554
38	0xbdee9ce9	-0.11651022
39	0xbd4d1a63	-0.050073992
40	0xbe581c96	-0.21104655
41	0xbc52a157	-0.012855849
42	0xbde7f3a7	-0.1132577
43	0xbe24c0d5	-0.16089185
44	0x3e539cda	0.20665303
45	0xbdf9a73d	-0.12190101
46	0xbe5cb2db	-0.21552603
47	0xbdcf20ec	-0.10113701
48	0x3e298c74	0.16557485
49	0xbdad79f9	-0.0847053
50	0x3e15a38d	0.14613171
51	0x3e0e8455	0.13917668
52	0xbdae02b9	-0.08496613
53	0x3e299346	0.16560087
54	0x3e299fed	0.16564913
55	0xbdea795b	-0.11448928
56	0x3df73092	0.12069811
57	0xbe28e8a2	-0.16494992
58	0xbe4e5738	-0.20150459
59	0xbdcdccca	-0.10048826
60	0xbe30fc95	-0.17283852
61	0xbda18944	-0.078875095
62	0xbe3aa1b7	-0.18225752
63	0x3dc01bd6	0.09380309
64	0x3bfd63af	0.0077328305
65	0x3e27cca0	0.16386652
66	0x3e373f8a	0.17895332
67	0x3e3cb37c	0.18427843
68	0xbe047d24	-0.12938362
69	0x3e17e40a	0.14833084
70	0xbe21f54c	-0.1581623
71	0xbcdc003b	-0.026855579
72	0x3d3a415b	0.045472484
73	0xbdf64d40	-0.12026453
74	0xbd534419	-0.051578615
75	0xbe463f75	-0.19360144
76	0xbdc78202	-0.09741594
77	0x3da97fda	0.08276339
78	0x3e556b33	0.20841675
79	0x3cb8ce5f	0.022559343
80	0x3df5125f	0.11966395
81	0x3db9b100	0.09066963
82	0x3e1bca8e	0.15213987
83	0x3e1ad9c0	0.15122128
84	0x3e308f54	0.17242175
85	0x3e173de9	0.1476971
86	0xbd3913a7	-0.045184758
87	0xbd73e134	-0.059540942
88	0x3c5b5fcc	0.013389539
89	0xbe0a9d4d	-0.13536568
90	0xbd83d5f5	-0.064372934
91	0x3e0bafb2	0.13641241
92	0x3e0f5d43	0.1400042
93	0xbc0bf132	-0.008541392
94	0x3e538390	0.20655656
95	0x3d3a50ff	0.0454874
96	0x3c0cf423	0.008603129
97	0x3e0fb9dc	0.14035743
98	0xbd4b2557	-0.049596157
99	0xbe26a053	-0.16272096
100	0xbe19d7d5	-0.1502374
101	0x3d72339a	0.059131242
102	0x3e1ed0e9	0.1550938
103	0x3b3780ae	0.0028000283
104	0x3d1016ba	0.035177924
105	0x3bd3f0ec	0.006467929
106	0xbe53527b	-0.20636933
107	0x3db6866d	0.089123584
108	0xbda3b7e5	-0.079940595
109	0xbc98fe00	-0.018675804
110	0xbe2dfd79	-0.16991223
111	0xbde9521c	-0.11392614
112	0x3e0664f3	0.13124447
113	0x3d168696	0.036749445
114	0xbd601d4a	-0.054715432
115	0x3e49ed52	0.19719437
116	0x3dae922c	0.08523974
117	0xbdac21c4	-0.08404878
118	0xba998519	-0.001171264
119	0x3ce3f650	0.027827412
120	0xbe06efa6	-0.13177356
121	0x3e3bbbfc	0.18333429
122	0x3d1fa448	0.03897503
123	0xbd4d6b7f	-0.050151344
124	0x3e4d1e9b	0.20031206
125	0xbe3d357c	-0.18477434
126	0x3d9fe9ed	0.0780829
127	0x3e5a9dc5	0.21349247
128	0xbe0c2dec	-0.13689393
129	0x3c6c758d	0.014432323
130	0xbdc2c6ac	-0.0951055
131	0x3dad5cc2	0.08464958
132	0xbe075c1b	-0.13218729
133	0xbe127113	-0.14300947
134	0xbdffd93b	-0.12492605
135	0xbdcd2d9e	-0.100184664
136	0x3b0eb085	0.0021772694
137	0xbd1d0391	-0.03833348
138	0xbe344180	-0.17603111
139	0xbd180b1b	-0.037119966
140	0x3bf4fd8f	0.0074765156
141	0x3e040168	0.12891161
142	0x3e227f1e	0.15868804
143	0xbe203451	-0.15644957
144	0xbd895aa9	-0.06706745
145	0x3d7da8b9	0.061928485
146	0x3e4aae03	0.19792943
147	0x3df61746	0.12016158
148	0x3d13a1cf	0.036042985
149	0x3dee30a8	0.11630374
150	0xbe56a65c	-0.20961899
151	0x3d920e98	0.0713169
152	0xbc51030e	-0.012757076
153	0x3b4b1c99	0.0030992387
154	0xbdf68391	-0.12036813
155	0x3d657ee4	0.056029215
156	0xbcbbed3a	-0.022940267
157	0x3dca73fb	0.09885403
158	0xbe10bb21	-0.14133884
159	0x3e3fdce5	0.18736608
160	0xbe17556e	-0.14778683
161	0xba2e0614	-0.0006638479
162	0xbe4bcf21	-0.19903232
163	0x3d80dc92	0.062920704
164	0xbe3807d9	-0.17971744
165	0xbe00edc7	-0.12590705
166	0x3d804878	0.06263822
167	0xbe4ae6ae	-0.1981456
168	0x3d7aeb91	0.06125981
169	0xbbbfca03	-0.005852939
170	0xbdb90c94	-0.09035602
171	0xbd94d585	-0.07267288
172	0x3d893708	0.066999495
173	0xbe2d3c57	-0.16917549
174	0xbdafb8dd	-0.08580182
175	0xbe328176	-0.17432198
176	0xbe4e20dd	-0.20129724
177	0xbc485065	-0.012226199
178	0xbde0ec48	-0.10982567
179	0xbd261be7	-0.040553953
180	0x3e1e0b42	0.15433982
181	0xbd9c1e62	-0.076229826
182	0xbd1a515f	-0.037675258
183	0xbdba6cb9	-0.091027685
184	0x3dd122b4	0.10211697
185	0xbd961f34	-0.0733017
186	0xbdb79de5	-0.08965663
187	0xbe002db5	-0.12517436
188	0x3dbf8303	0.093511604
189	0x3dde92a7	0.108678155
190	0x3e372fc0	0.17889309
191	0x3e3f3746	0.18673429
192	0x3e3f4c33	0.18681411
193	0x3e016fee	0.12640354
194	0x3e1e75a5	0.15474565
195	0x3e18ca14	0.14920837
196	0xbd85ae1e	-0.06527351
197	0xbdb68c76	-0.089135095
198	0x3d32e2e9	0.04367343
199	0x3e3b1ab9	0.18271913
200	0xbd547eae	-0.051878624
201	0xbe21bf21	-0.15795566
202	0x3dfdc4a0	0.12391019
203	0x3e0de35a	0.13856259
204	0x3cd1eeb9	0.025626527
205	0xbe3c64f1	-0.18397881
206	0x3b567c9c	0.0032728082
207	0xbd4efd4e	-0.05053454
208	0xbd67ea13	-0.056619715
209	0x3da4be3b	0.08044096
210	0xbe557d5c	-0.20848602
211	0xbda75286	-0.08170037
212	0x3e32b471	0.17451645
213	0xbe469538	-0.1939286
214	0x3e3ee372	0.18641451
215	0xbe281a7c	-0.16416353
216	0xbe47d4f5	-0.1951483
217	0xbe032daa	-0.12810388
218	0xbda034f9	-0.07822604
219	0xbe1b2bf6	-0.15153489
220	0x3e59843c	0.2124185
221	0xbd500441	-0.050785307
222	0xbd7e34b1	-0.06206197
223	0xbe203940	-0.15646839
224	0x3d4a78f9	0.049431775
225	0x3e3de449	0.18544115
226	0xbe06e8b5	-0.13174708
227	0xbc9c1d65	-0.019056985
228	0x3cac22c8	0.021012679
229	0x3ca2eb91	0.019887717
230	0xbda2bf58	-0.07946652
231	0x3e3a531e	0.18195769
232	0xbdc9f7c6	-0.09861712
233	0xbbb2f642	-0.005461485
234	0x3e59becd	0.21264191
235	0xbd68c6b8	-0.056830138
236	0xbe0dc159	-0.13843288
237	0xbe37f579	-0.17964734
238	0x3d266870	0.040626943
239	0xbdce7136	-0.10080187
240	0xbcca129f	-0.024667082
241	0xbc80056f	-0.015627591
242	0xbdd7a7bd	-0.105300404
243	0xbe502dab	-0.20329921
244	0xbe4fff0f	-0.20312141
245	0xbe44179a	-0.19149628
246	0x3e03fbdf	0.1288905
247	0x3c729145	0.014805143
248	0x3e4aa894	0.1979087
249	0x3e36ce31	0.17852093
250	0x3e2f5867	0.17123567
251	0x3e1c0817	0.15237461
252	0xbd117502	-0.035511978
253	0x3d9e2a1c	0.077228755
254	0xbd58eaaf	-0.052958187
255	0x3e3e5d2a	0.18590227

encoder_b.convs.1.bias f4 [64]
0	0x00000000	0.0
1	0x00000000	0.0
2	0x00000000	0.0
3	0x00000000	0.0
4	0x00000000	0.0
5	0x00000000	0.0
6	0x00000000	0.0
7	0x00000000	0.0
8	0x00000000	0.0
9	0x00000000	0.0
10	0x00000000	0.0
11	0x00000000	0.0
12	0x00000000	0.0
13	0x00000000	0.0
14	0x00000000	0.0
15	0x00000000	0.0
16	0x00000000	0.0
17	0x00000000	0.0
18	0x00000000	0.0
19	0x00000000	0.0
20	0x00000000	0.0
21	0x00000000	0.0
22	0x00000000	0.0
23	0x00000000	0.0
24	0x00000000	0.0
25	0x00000000	0.0
26	0x00000000	0.0
27	0x00000000	0.0
28	0x00000000	0.0
29	0x00000000	0.0
30	0x00000000	0.0
31	0x00000000	0.0
32	0x00000000	0.0
33	0x00000000	0.0
34	0x00000000	0.0
35	0x00000000	0.0
36	0x00000000	0.0
37	0x00000000	0.0
38	0x00000000	0.0
39	0x00000000	0.0
40	0x00000000	0.0
41	0x00000000	0.0
42	0x00000000	0.0
43	0x00000000	0.0
44	0x00000000	0.0
45	0x00000000	0.0
46	0x00000000	0.0
47	0x00000000	0.0
48	0x00000000	0.0
49	0x00000000	0.0
50	0x00000000	0.0
51	0x00000000	0.0
52	0x00000000	0.0
53	0x00000000	0.0
54	0x00000000	0.0
55	0x00000000	0.0
56	0x00000000	0.0
57	0x00000000	0.0
58	0x00000000	0.0
59	0x00000000	0.0
60	0x00000000	0.0
61	0x00000000	0.0
62	0x00000000	0.0
63	0x00000000	0.0

encoder_b.convs.2.weight f4 [64, 64]
0	0x3de16290	0.110051274
1	0xbb5beee9	-0.003355915
2	0x3db78c66	0.08962326
3	0xbd531fdc	-0.051544055
4	0xbe48d8c9	-0.19613947
5	0x3c4a36e2	0.012342187
6	0xbd6fedcc	-0.05857639
7	0x3e15bef4	0.14623624
8	0x3e2af69c	0.16695637
9	0x3cbfadcf	0.023398308
10	0x3e5a0aae	0.21293136
11	0xbd2ddc13	-0.042446207
12	0x3e249efb	0.16076271
13	0x3bafbd5f	0.005363151
14	0xbe3ad8e9	-0.18246807
15	0xbdce7206	-0.10080342
16	0xbe3be593	-0.18349294
17	0x3e3cc2b9	0.18433656
18	0xbe2ac8d0	-0.16678166
19	0xbcf3b425	-0.029748986
20	0x3dde3c1e	0.1085131
21	0xbe1bfa86	-0.15232286
22	0x3ddf10e3	0.10891893
23	0x3d11c4d8	0.035588115
24	0xbe09aa2a	-0.13443819
25	0x3c757279	0.014980906
26	0xbc4066a7	-0.011743224
27	0xbde2162f	-0.110393874
28	0xbe4e5591	-0.20149828
29	0xbe5c8ac6	-0.21537313
30	0x3e219c21	0.15782215
31	0xbe075ef4	-0.13219815
32	0x3e2f9a83	0.17148785
33	0xbdf1acfd	-0.11800573
34	0x3e2d1718	0.16903341
35	0xbd722a97	-0.059122648
36	0xbcc384b2	-0.023866985
37	0x3cff3eb3	0.031157827
38	0x3bfa8df4	0.0076463167
39	0xbdaacdb7	-0.08340018
40	0xbd44667c	-0.0479493
41	0x3e0ff263	0.14057307
42	0xbe57fd73	-0.21092777
43	0x3d544acd	0.051829148
44	0x3e41902c	0.18902653
45	0xbe1328f5	-0.14371093
46	0xbe2ff102	-0.17181781
47	0x3d8e0af5	0.06935684
48	0x3cb46eb6	0.022025447
49	0x3dffda1f	0.12492775
50	0x3de24b41	0.1104951
51	0x3cfdb377	0.030969365
52	0xbdcc15cc	-0.09965095
53	0x3d8db86e	0.06919943
54	0x3e328a4c	0.17435569
55	0x3df74426	0.12073545
56	0xbe038f57	-0.12847649
57	0x3c9b8716	0.018985312
58	0x3dc23cee	0.09484278
59	0xbe4624d3	-0.19349985
60	0x3de2894f	0.11061346
61	0xbe1c888b	-0.15286462
62	0xbe5b9c98	-0.21446455
63	0xbdd5d21c	-0.10440466
64	0x3e1dc781	0.15408136
65	0x3e1c3727	0.15255414
66	0x3c9e3229	0.019311028
67	0xbdd78bd9	-0.10524721
68	0x3dbfeddf	0.09371542
69	0x3cd61a50	0.026135594
70	0x3beffafa	0.00732362
71	0x3e23ca07	0.15995036
72	0xbe572269	-0.2100922
73	0x3e56768a	0.20943657
74	0xbe32988c	-0.17441005
75	0x3e166964	0.14688641
76	0xbb9d2aac	-0.0047963466
77	0xbe11b9e1	-0.14231063
78	0x3c81af68	0.01583071
79	0x3d82de70	0.06390083
80	0xbd9fc24b	-0.0780073
81	0x3c13c852	0.009019928
82	0x3a83044c	0.0009995787
83	0xbe1bc129	-0.15210404
84	0x3a836706	0.001002521
85	0x3d8f744b	0.07004603
86	0x3e2b329c	0.16718525
87	0x3e1aec40	0.15129185
88	0x3a0ce7b1	0.0005375101
89	0x3dd69ef3	0.10479536
90	0xbd49c507	-0.049260166
91	0x3baa7fae	0.005203209
92	0x3e124c56	0.14286932
93	0xbe506764	-0.2035194
94	0x3e5a8b55	0.21342213
95	0xbc6a9766	-0.014318323
96	0xbdd48534	-0.10376969
97	0x3dd3beb2	0.103391066
98	0xbdf2f96f	-0.11863982
99	0xbe3d5797	-0.18490444
100	0x3e039b70	0.12852263
101	0x3d234ff2	0.039871164
102	0xbe01587f	-0.12631415
103	0x3e547223	0.20746665
104	0x3e1f1f30	0.15539241
105	0xbd86f668	-0.06589967
106	0xbe2677f6	-0.16256699
107	0x3e1a4e28	0.15068877
108	0xbe4c634e	-0.19959757
109	0xbe073f66	-0.13207778
110	0xbb7eaa64	-0.0038858885
111	0x3deefa71	0.11668862
112	0xbe07456a	-0.13210073
113	0x3e550a43	0.20804696
114	0x3e2d2994	0.16910392
115	0xbdd4631b	-0.10370465
116	0x3e28319b	0.16425173
117	0x3e37085f	0.17874287
118	0x3e08f202	0.13373569
119	0x3b6401ae	0.003479104
120	0xbe18d5ee	-0.14925358
121	0xbc94abb4	-0.01814828
122	0xbd79cf4b	-0.060988706
123	0x3d9727e9	0.07380659
124	0x3df8fc6e	0.12157522
125	0x3ca8d6ad	0.020610178
126	0x3e184c09	0.14872755
127	0x3de04a83	0.10951712
128	0xbcc79887	-0.024364723
129	0x3e46a40b	0.19398515
130	0xbd5d8e5b	-0.05409084
131	0xbd9e3a37	-0.07725947
132	0xbe5a7963	-0.21335368
133	0x3dd28481	0.10279179
134	0x3d39edc2	0.04539276
135	0x3df055f6	0.11735146
136	0xbe0839b5	-0.13303263
137	0x3e47d117	0.19513355
138	0xbd80a101	-0.06280709
139	0xbe50526b	-0.2034394
140	0x3dfd2717	0.123609714
141	0x3e2b33a8	0.16718924
142	0x3e196724	0.14980751
143	0x3e157e8e	0.14599058
144	0xbd1a64b2	-0.037693687
145	0xbda007a1	-0.07813955
146	0x3cc2e2db	0.023789814
147	0xbce987d8	-0.028507158
148	0x3e2bba4e	0.16770288
149	0xbdcd472e	-0.10023342
150	0xbe588684	-0.21145064
151	0x3e0964d1	0.13417365
152	0x3de420e2	0.111390844
153	0x3d79d338	0.06099245
154	0x3c796b30	0.015223309
155	0xbe0c11fa	-0.13678733
156	0x3c97261f	0.018450795
157	0xbe572c27	-0.21012937
158	0x3d28a874	0.041176274
159	0x3cdca997	0.026936335
160	0x3c9cb090	0.01912716
161	0x3da44d30	0.08022535
162	0x3e447d12	0.19188336
163	0xbdfb91f7	-0.122837
164	0xbc7f7e22	-0.015594037
165	0x3e2534e1	0.16133453
166	0x3c0674f0	0.008206591
167	0xbe3aced8	-0.18242967
168	0xbc8c0a26	-0.017094683
169	0x3e39e671	0.18154313
170	0x3d33d256	0.043901764
171	0x3d1ffd13	0.03905971
172	0xbb98cb8d	-0.004662937
173	0x3dc7c8cb	0.09755095
174	0x3c860770	0.016360968
175	0xbd89c0f6	-0.067262575
176	0x3c6b4bf6	0.014361372
177	0xbd49658d	-0.049169112
178	0xbe261a3b	-0.16220944
179	0xbdd37c29	-0.10326416
180	0xbd9af269	-0.07565767
181	0xbdfc2f64	-0.123137265
182	0xbcbb5a38	-0.022870168
183	0x3e40d96f	0.18832944
184	0xbe2e4230	-0.17017436
185	0xbdf77c63	-0.12084272
186	0xbe2b1f5e	-0.16711184
187	0xbdf22e6f	-0.11825263
188	0xbe375566	-0.1790367
189	0xbc8cb0a5	-0.017174074
190	0xbdadffcd	-0.08496056
191	0x3e24a8b6	0.16079983
192	0x3e2804a5	0.16408022
193	0x3df2b2a3	0.118504785
194	0xbe040c15	-0.12895234
195	0xbdb05f54	-0.086119324
196	0xbdfea802	-0.12434389
197	0xbe130887	-0.14358722
198	0xbd3ddead	-0.04635494
199	0xbe480a7f	-0.19535254
200	0xb96c2e6e	-0.0002252401
201	0xbe337739	-0.17525949
202	0xbcc3d58f	-0.023905544
203	0x3df5d199	0.12002868
204	0xbd5a8003	-0.053344738
205	0xbdeeeaef	-0.11665904
206	0xbc4b8818	-0.012422584
207	0xbdde2d96	-0.108485386
208	0xbd2b9645	-0.041891355
209	0x3df35d23	0.11882999
210	0x3dd4e5a8	0.10395366
211	0xbe515f2c	-0.20446461
212	0xbdab2101	-0.08355904
213	0x3e2574c4	0.16157824
214	0x3e43c512	0.19118145
215	0x3e422a7d	0.1896152
216	0xbd0a223a	-0.033724047
217	0xbe4d8fca	-0.20074382
218	0xbd04a86e	-0.03238719
219	0x3d967d4a	0.07348116
220	0x3d63455f	0.05548608
221	0xbe1bfb10	-0.15232491
222	0xbe14c729	-0.14529099
223	0x3c91192f	0.017712204
224	0xbde11e8a	-0.10992153
225	0x3de9dd5a	0.114191726
226	0xbd106683	-0.035254013
227	0x3e066874	0.13125783
228	0x3e121750	0.14266706
229	0x3d81631e	0.06317733
230	0xbda4b88c	-0.08043012
231	0xbd91a8e7	-0.07112294
232	0x3d5c4a4d	0.053781796
233	0x3ca4f73e	0.020137426
234	0xbe5056db	-0.20345633
235	0xbe1110a8	-0.1416651
236	0x3e4da532	0.20082548
237	0xbe036170	-0.12830138
238	0x3e0c73c5	0.13716038
239	0x3e1be004	0.15222174
240	0x3e1c6de5	0.15276296
241	0xbe155c6e	-0.1458604
242	0xbd762a6c	-0.06009905
243	0xbde878c7	-0.113511615
244	0xbe126cb6	-0.14299282
245	0xbd985c6e	-0.074395046
246	0x3e4a3fec	0.19750947
247	0xbd9c7679	-0.07639784
248	0xbdfa3008	-0.122161925
249	0x3dd9d9e6	0.10637264
250	0x3e2be91a	0.1678814
251	0x3e4678f0	0.19382071
252	0xbdb26aab	-0.087117516
253	0xbd316a3e	-0.04331421
254	0xbe57d415	-0.21076997
255	0xbd89840a	-0.067146376

encoder_b.convs.2.bias f4 [64]
0	0x00000000	0.0
1	0x00000000	0.0
2	0x00000000	0.0
3	0x00000000	0.0
4	0x00000000	0.0
5	0x00000000	0.0
6	0x00000000	0.0
7	0x00000000	0.0
8	0x00000000	0.0
9	0x00000000	0.0
10	0x00000000	0.0
11	0x00000000	0.0
12	0x00000000	0.0
13	0x00000000	0.0
14	0x00000000	0.0
15	0x00000000	0.0
16	0x00000000	0.0
17	0x00000000	0.0
18	0x00000000	0.0
19	0x00000000	0.0
20	0x00000000	0.0
21	0x00000000	0.0
22	0x00000000	0.0
23	0x00000000	0.0
24	0x00000000	0.0
25	0x00000000	0.0
26	0x00000000	0.0
27	0x00000000	0.0
28	0x00000000	0.0
29	0x00000000	0.0
30	0x00000000	0.0
31	0x00000000	0.0
32	0x00000000	0.0
33	0x00000000	0.0
34	0x00000000	0.0
35	0x00000000	0.0
36	0x00000000	0.0
37	0x00000000	0.0
38	0x00000000	0.0
39	0x00000000	0.0
40	0x00000000	0.0
41	0x00000000	0.0
42	0x00000000	0.0
43	0x00000000	0.0
44	0x00000000	0.0
45	0x00000000	0.0
46	0x00000000	0.0
47	0x00000000	0.0
48	0x00000000	0.0
49	0x00000000	0.0
50	0x00000000	0.0
51	0x00000000	0.0
52	0x00000000	0.0
53	0x00000000	0.0
54	0x00000000	0.0
55	0x00000000	0.0
56	0x00000000	0.0
57	0x00000000	0.0
58	0x00000000	0.0
59	0x00000000	0.0
60	0x00000000	0.0
61	0x00000000	0.0
62	0x00000000	0.0
63	0x00000000	0.0
