results/ABIDE_3x5fold_seed0/fold3_rep2_seed2003/ckpt_best_fold_3.pt (torch, 660362 bytes, 72 tensors)

encoder_c.convs.0.weight f4 [116, 64]
00000000: 4b4c 15be 4c88 eebd aa9e 02be 5e5d 68bd
00000010: f7b6 8d3d dffa aabc 44fc 8b3d e4ae 26be
00000020: 919f 013e d90d bc94 a6da dfbd 7a48 70bd
00000030: 20bc bebd 1040 edbd 1b91 94bc 7753 263b
00000040: 69b1 aa3a d814 bab7 0820 fdbd 9477 03be
00000050: 255f 17be b66f e917 da9c 2dbe 24d0 443d
00000060: 06bd 4cbd dd2a 2b3e f56c 113e d4d9 413d
00000070: 97ae b33d 871d e33d 0a65 ad3c 187e a23d
00000080: 6a62 8b3c c7df 203e e230 babd 53bb 94bd
00000090: cf6e 183e d02e bf3c 1747 e43c f7da f7bb
000000a0: 1c76 8b3d 4bcf 97bc 3362 b1bc 7976 03be
000000b0: d425 d63d a953 153c 9317 e43d 523c 273e
000000c0: 6adf a33d 59aa d53d f3c9 a53d 7f14 b83d
000000d0: 3ffa 2d3c a112 7a3d 894b 08bc 0605 223e
000000e0: 14c0 a3bd dae4 f73c 80f8 1e3d bdea 603d
000000f0: b440 cebb ce7b 003e b514 ad3d ca4e f73d
00000100: 58d1 233e c7c3 64bd 2b8c 2a3d 1ef0 ae3c
00000110: 1594 fbbc 24a5 38bd de82 76bd 1494 20be
00000120: db6a 21be 079e 2016 d5a1 04bb ca3e a13d
00000130: e8b4 b13c 5fb1 6d3a 1a13 21be bd37 79bd
00000140: 2b8e a53d 538f a8bd e6db 023e 9fec b2bd
00000150: 0b8e 04bd e6c9 09a8 0ce3 033e a8d4 963d
00000160: 112d 953c 356f c3bd 5896 b63d 249c c7bc
00000170: 659f 293d 8e88 edbd 8026 e8bd cf34 1a3e
00000180: 556a 133e 509a 183e ea58 e33d d559 02be
00000190: 7aae 5b3d 9520 5f3c 982a 473d 7ff1 94bc
000001a0: 6c23 8d3d 23a6 38bd 91b3 1cbd 7d9d 9ebd
000001b0: 292f 473d 9bf9 56bc 7ef5 8dbd 92b1 8abd
000001c0: cd78 4cbc c4ef 4c3d 75d4 403d 090d 053e
000001d0: e9f8 0bbd cf0e 093d 8c81 833c 4769 e33c
000001e0: 23d0 b7bd 2bb2 ae3d 3bcd fa3d 1153 823b
000001f0: 1331 bbbd 6c9f cf3d 539f aa3d e2b2 20be
00000200: 2e49 1dbe ca2f 91bd 932b 0abe ece8 123e
00000210: c300 203e 9f6d eabb cbac 0ebe 34d9 d7bc
00000220: 35d5 953d f1b8 2616 0d57 133e 150d c9bb
00000230: b83b bcbd 8456 133c 566a 113e 279e 6cbd
00000240: 56c5 0c3c a299 e3bd 962e 593d 495a e63d
00000250: 5bc7 9b3d 6a90 4131 e56c 793d 5caf e4bd
00000260: ba35 d73c 0fb1 7bbc 5e4f 9fbd c2f4 773b
00000270: 61b1 2c3e 9f8b fd3d 547d 42bd 7a99 d7bd
00000280: 6fa2 b43d bfc6 183d 73c6 143e 8b85 f73d
00000290: 8867 0bbd 4e11 e5bd 5d02 36bd f7c4 cf3c
000002a0: 02f3 80bd 5366 1e3c 8cd8 6ebb d76c 1d3e
000002b0: 0590 15bd 7696 8b3d bed0 1f3e a17b 933c
000002c0: d54f a3bd 3681 eb3d da36 cdbd 639d a9bd
000002d0: 9029 f83d a59e cabc 5f8c ce3b e0a2 c33d
000002e0: dbce a33d 304c 953c eb8b a7bd 1e59 0bbe
000002f0: 2fb9 293d a554 d43d 41d0 043d eabc 82bd
00000300: 2429 7ebd 3394 d63d f3c0 cbbd 212e 313e
00000310: 42d3 d9bb 351a 69bb aa2c 2abd 7fc6 063c
00000320: 9f7e 983d 10a7 4990 24a4 023e a19b b03d
00000330: 5d9d 883d 8fc2 8bbd df68 1d3e b6a0 ca3b
00000340: 83e2 f53d af86 fdbd f189 2c3d 95f1 26be
00000350: 9107 55bd b797 0d2b 7f94 323d 8267 163e
00000360: b2c1 ce3c 23b4 dcbd 1947 d7ba 1c69 b43c
00000370: df1b b0bc a04c 4f3d 5964 0e3e 1c61 1d3e
00000380: c9e8 1dbd 43ae 10be b393 0d3e 6c6c be3d
00000390: 6848 1d3e ddc9 b53d bddf f3bd 868c 98bb
000003a0: 0ee0 bc3d 4850 0c3e 71c9 2a3e e566 98bc
000003b0: c358 a5bd 911a 063d 53af f0bd 7e2a 20be
000003c0: 73bd 25bd f432 dcbd d684 93bd 5e15 7cbd
000003d0: 0b68 9fbd 39bd f5bd d330 e93c 53cc 003e
000003e0: 2fa0 2e3e ff23 cfbd 325e 133c d3c4 e7bc
000003f0: 27f0 fabd f575 89bc 6962 12be 9cd5 eabd
-0.14579885 -0.1164709 -0.12755838 -0.056729667 0.069196634 -0.020871578 0.06835225 -0.16277653
0.12658526 -1.898861e-26 -0.10930376 -0.05866287 -0.09313226 -0.115844846 -0.018135598 0.0025379339
0.0013022843 -2.2182634e-05 -0.12359625 -0.12838584 -0.14782389 1.5085472e-24 -0.16954365 0.04805006
-0.049984954 0.1671557 0.1420172 0.047326878 0.08773535 0.11089616 0.021166343 0.07934207
0.0170147 0.15710364 -0.09091355 -0.07262292 0.1488602 0.023337752 0.02786593 -0.0075639444
0.06809637 -0.018531462 -0.02165327 -0.12838162 0.10456434 0.009114184 0.11137309 0.16331604
0.08001597 0.10432882 0.080951594 0.08988284 0.010618745 0.061052922 -0.00831879 0.15822229
-0.0799562 0.030260492 0.038811207 0.054911364 -0.0062943343 0.12547228 0.08451215 0.12075575
0.15997827 -0.05585077 0.04163758 0.021354731 -0.03071026 -0.045079365 -0.0601834 -0.15681487
-0.15763418 1.2974562e-25 -0.002023806 0.07873304 0.021692708 0.0009067263 -0.15729943 -0.06084417
0.08083757 -0.08230462 0.12779197 -0.08736538 -0.032362025 -7.6488075e-15 0.1287958 0.0736478
0.018209966 -0.095426954 0.089153945 -0.024366446 0.041411776 -0.11598311 -0.11335468 0.15059207
0.14396031 0.14902616 0.111009434 -0.1272958 0.05363319 0.013618608 0.048624605 -0.01818156
0.06891522 -0.045080315 -0.038257185 -0.07744882 0.04862896 -0.013121034 -0.069315895 -0.0677215
-0.012479973 0.050033346 0.047077615 0.12993254 -0.034172926 0.03346139 0.016052984 0.027760161
-0.08975246 0.085300766 0.12246176 0.0039771874 -0.091402195 0.10137829 0.0833117 -0.15693238
-0.15359947 -0.07089193 -0.13493185 0.14346665 0.1562529 -0.007154181 -0.13933103 -0.026348688
0.07316057 1.346773e-25 0.14388676 -0.0061355927 -0.09191078 0.008992795 0.1420072 -0.057768013
0.00859197 -0.111132875 0.053022943 0.11247689 0.076063834 2.8167286e-09 0.060894866 -0.1116626
0.026270736 -0.015362038 -0.0777881 0.0037835096 0.1686454 0.12380146 -0.047482803 -0.1052732
0.08820044 0.037298914 0.14528827 0.12086018 -0.034034282 -0.11184941 -0.044435848 0.025362475
-0.0629635 0.009667951 -0.003644499 0.1537355 -0.0365143 0.068158075 0.15606973 0.018003287
-0.07974211 0.114992544 -0.10020228 -0.08281972 0.121173024 -0.02473385 0.0063033546 0.0955255
0.07998439 0.018224806 -0.08180984 -0.13608214 0.04143637 0.10367707 0.03242517 -0.06383689
-0.062050954 0.104774855 -0.099489115 0.17302753 -0.0066474983 -0.00355686 -0.0415465 0.008226036
0.07446026 -3.976896e-29 0.12757927 0.08623434 0.0667064 -0.068242185 0.15372036 0.006183709
0.12006094 -0.123792045 0.04212374 -0.16303094 -0.05200917 5.030381e-13 0.04359865 0.14687923
0.025238845 -0.10776546 -0.0016424387 0.022022776 -0.021497665 0.050610185 0.13905467 0.15369076
-0.03855208 -0.14128976 0.13825874 0.092980236 0.15359652 0.08876393 -0.11907909 -0.0046554236
0.092224225 0.137025 0.16678406 -0.018603751 -0.080735706 0.03274018 -0.117521904 -0.1564121
-0.040463876 -0.10751906 -0.07203071 -0.061543815 -0.077835165 -0.11998982 0.028465664 0.12577944
0.17053293 -0.101142876 0.008994626 -0.028292095 -0.12252837 -0.01677988 -0.14295353 -0.11466524

encoder_c.convs.0.bias f4 [64]
00000000: b889 b13c 6933 2cbb e745 c83c 8172 643c
00000010: 16a1 993a 4e9e a7bc 2666 583c e678 673b
00000020: 6fb5 393c 84b4 7fbc f916 4cbb b952 c73a
00000030: af13 12bc a983 9ebb 8bd6 8c3c a656 ba3b
00000040: fbc1 953b 3d50 503c cc23 073c c80b 133b
00000050: d28f 663c 0844 b0bc eb02 2aba de6a 1c3c
00000060: 2e18 b53c e8db 393c 35c5 773c 8937 b53c
00000070: 6ea4 a1ba 89a3 f9ba 38ca 173c 76fd cb3a
00000080: 4662 833c 1e9f be3b cced 433c eb1d a93b
00000090: eccb bdbb 296b 863a aa86 fd3c 0081 c03c
000000a0: 1e39 a53c e042 cf3b ed8b dfbb 728a ca3c
000000b0: e4c9 4b3c 57c5 9d3b dde8 5bbb 188d 583c
000000c0: a90e 0cbb 5611 a6ba 5d82 4e3c 7b8f 803c
000000d0: c901 9fbc 5707 a53c b295 f33b aa02 533c
000000e0: 11e9 9ab9 9b8b 033c 0a49 46b8 62db 723c
000000f0: 56b3 51ba ef44 853c f4c1 0bbc 4859 ce3c
0.021672115 -0.002627576 0.024447395 0.0139433155 0.0011720981 -0.020461228 0.013207948 0.0035319864
0.011334761 -0.015607003 -0.0031141622 0.0015207148 -0.008915826 -0.0048374725 0.017192146 0.005686599
0.0045702434 0.012714443 0.008248281 0.0022437442 0.014072375 -0.021516815 -0.000648542 0.0095469635
0.022106256 0.011343934 0.015122701 0.022121208 -0.0012332329 -0.001904593 0.009264521 0.0015563208
0.016038071 0.005817308 0.011958551 0.005161037 -0.0057921316 0.0010255325 0.030948002 0.023499012
0.020168837 0.006325111 -0.0068221004 0.024724219 0.012438271 0.0048147845 -0.0033555545 0.013217233
-0.0021371043 -0.0012669961 0.012604323 0.015693417 -0.01941003 0.020145101 0.0074336166 0.012879053
-0.00029546817 0.00802889 -4.72749e-05 0.014822813 -0.00079994404 0.016268222 -0.008530129 0.025189057

encoder_c.convs.1.weight f4 [64, 64]
00000000: 570e febb ca5e 31bb c6c4 2c3e f292 303d
00000010: 6ae1 e2b8 2f5a 22bd f08d 75bd 04ef a3bc
00000020: 832a 083e b39d 35bb 7479 c7bc be34 b6bd
00000030: 2d75 b83d 9267 17be d42f 34be ae4f 533d
00000040: 3c4b cabd ca80 953d 77ad 41bd 9176 c63d
00000050: 5d77 323d b772 b43d 1359 b53d 65c4 c6bd
00000060: 43ed e9bd 2182 433e 0c45 273d 367f 1a3e
00000070: cd3c d139 f00b 133e 1db9 adbc 0431 153e
00000080: bb7f 7f27 2cc3 a5b7 cbf0 d43b 1325 12bd
00000090: c7db cf3d 6ae4 13be 84a0 3b3e f22d 423e
000000a0: c2dd 413e 475a babd fea2 e2bb db3f 8797
000000b0: d27c 063d c05f 87bd 5dad 66bd dfe7 ffbd
000000c0: 2e06 34bb d21f 2bbd 617b 733d bdd7 f1bc
000000d0: 5829 bebd 83de 58be 686c f0bd 62eb cd99
000000e0: 29fb 323e b9a0 fd23 165d 3e3e c001 1b3e
000000f0: d34b 96bd f8e8 8b3b 9bb8 0b3d d27d df3d
00000100: e49d 8139 8a0c a33d 9208 b6bd d332 0bbd
00000110: 4ab4 06af a01a b0bd c67c 9cbd 2604 183d
00000120: 30cf 523d d67c 283e a72e a2bd 5cd3 753c
00000130: b9f8 cabc dd63 623e eddf 9dbb cac1 1fbd
00000140: 43e3 3ebe 4d8e 7c3b bae4 ec3c 8163 05be
00000150: 0c16 5fbd ce01 62bc d546 f03c d276 1a3e
00000160: b0b1 423d bef1 ea3c b608 3dbd 2f5a 3abc
00000170: 47ce 9e3b d979 c33c 9453 cf3d 59b4 ccbb
00000180: 8299 44b1 3a92 abb8 2153 8936 ee81 3c3c
00000190: 0114 3a3e e0a5 dd3c c09b 183d 9848 b33d
000001a0: 5f1d 283e 42c9 d23d c266 9bbc d012 bcb0
000001b0: f667 123e d422 32bd 58e2 76bd f952 0fbe
000001c0: 49ba 92bc df46 38be e363 94bd f05f 88bc
000001d0: 011b 543e f6cd 31be 9012 ad3d 6407 481a
000001e0: 5a08 883b 7022 4fb6 a5a3 f2bd ec0f b23d
000001f0: e6d5 83bc 40bd 4f38 24bb 12bc fdb3 9a3d
00000200: a6a4 51bc 01c1 8d3a f479 b4bd 25a1 d53d
00000210: bfa5 221a 2509 d83d 407f 51bc 75de acbb
00000220: 8dce 0e3e 7ae4 9d3b ac0d c7bb 9f5e 0abe
00000230: 7e6d 933d f704 6dbe 4c79 0bbe 0d2d 15be
00000240: ffb5 873d d93b 0a3e aa47 e23c 1327 d73c
00000250: b201 30be 6448 bcbd cba7 6e3d 5145 f23d
00000260: 024c eb3d cf59 b33d 1912 5c3d c121 e33d
00000270: ff15 cf38 5065 173e c2d8 513d 4397 4e3d
00000280: 7195 ca9b d8f1 25b1 ee6c 42b9 46e1 6a3d
00000290: f21f e8bd 527b 9c3d b7f0 203d d8b5 ce3d
000002a0: e981 aa3d 433f 9d3d 4119 313c 9208 8717
000002b0: efc9 353e bf9c 4f3d 7c08 38bc e88e 153d
000002c0: f00a 18bd 2184 f93d 9885 47bd c43b a93c
000002d0: 9cd4 dcbd ec3f 663e c74a de3d 765c 9821
000002e0: fa6c d1bd a240 3721 1411 343d afb4 d6bd
000002f0: ed26 07bd 094a b139 da0c 55bd c5c7 803c
00000300: 94b8 163b 9ce1 883b 1add b93d 5597 30be
00000310: 0659 969f c8d2 913d 9884 17bd 0a14 c3bc
00000320: 398a 2f3e 914f 3c3d 7fd3 38bd 1017 cdbd
00000330: f6df 0c3e 4a7f dfbd 7417 b2bd 49a2 2e3d
00000340: d42a 613e 5c68 833d 7cb6 013e e291 243d
00000350: 01d8 1c3e 48e8 fdbc 716a d53d bdb8 c2bd
00000360: e4c8 173e c657 24be 4feb 11be 521c f63d
00000370: 2016 e2b9 85a5 6dbc ad2e 2fbe 22bb f4bd
00000380: a6e3 95b5 76e3 b3ba 6516 3bbc 16c6 02be
00000390: 1e27 01be 4bd8 963d c6af c73c ae8a 193e
000003a0: a5f9 a7bd 45e5 e13c f55d 1abd 2deb 6996
000003b0: ea27 463d f464 3c3e 57ce e63a 0c7c 55bc
000003c0: 456d efbd b480 473e 56ad 1e3e ea90 973c
000003d0: a3fa 95bd 733d 103e 58c0 48bd 9aa2 7b9b
000003e0: 4077 19bc d00a 73b9 daf4 eb3d 3e09 ad3d
000003f0: 21b4 1abe d39d 54ba e6cd 7cbd 31e3 1bbe
-0.0077531743 -0.0027064555 0.16871938 0.043108888 -0.000108185064 -0.039636787 -0.059949815 -0.020011432
0.13297467 -0.0027712404 -0.024349906 -0.088967785 0.090067245 -0.14785603 -0.1759637 0.05158966
-0.09877631 0.07299955 -0.04728457 0.096905835 0.043570865 0.088109426 0.0885488 -0.09705428
-0.11422207 0.19092609 0.040837333 0.1508759 0.00039908887 0.14360023 -0.021206433 0.14569479
3.5457602e-15 -1.9760417e-05 0.0064984313 -0.035679888 0.10149341 -0.14442602 0.1832295 0.18962839
0.1893225 -0.0909925 -0.006916403 -8.74029e-25 0.03283388 -0.0661006 -0.056317676 -0.12495398
-0.0027469504 -0.041778393 0.059443835 -0.029521817 -0.092852294 -0.21178631 -0.11739427 -2.1291574e-23
0.17478622 2.7498384e-17 0.18590197 0.15137386 -0.07338681 0.0042697154 0.0341116 0.1091267
0.00024722435 0.07961376 -0.088883534 -0.033984017 -1.225128e-10 -0.08598828 -0.07640986 0.03711333
0.05146712 0.16453871 -0.079190545 0.015004005 -0.024776803 0.22108407 -0.004817954 -0.03900317
-0.18641381 0.0038536966 0.02891766 -0.13026239 -0.054464385 -0.013794376 0.02933065 0.15084389
0.047532737 0.028679725 -0.046150886 -0.0113740405 0.0048463675 0.023861812 0.10123363 -0.006247085
-2.8609013e-09 -8.181152e-05 4.0925956e-06 0.011505587 0.18171693 0.027056634 0.03725791 0.087540805
0.16417454 0.10292293 -0.018969897 -1.3684147e-09 0.1429747 -0.043490246 -0.060274452 -0.13996495
-0.017911093 -0.17995785 -0.072456144 -0.016647309 0.20713426 -0.17363724 0.08450806 4.1365e-23
0.004151386 -3.086545e-06 -0.11847619 0.08694443 -0.016093206 4.95289e-05 -0.008955751 0.07553861
-0.012795603 0.0010814966 -0.08812323 0.104311265 3.3634703e-23 0.10548619 -0.012786686 -0.0052755424
0.1394598 0.0048184963 -0.006074628 -0.13512658 0.07198618 -0.23146425 -0.1362049 -0.14567967
0.0662651 0.13499393 0.027622063 0.02626375 -0.17188147 -0.09193495 0.05826549 0.11829627
0.11489107 0.08757364 0.053728197 0.110904224 9.874626e-05 0.14784741 0.051232107 0.050437223
-3.351467e-22 -2.4148132e-09 -0.00018541861 0.057343744 -0.11334218 0.07640709 0.039292064 0.10093278
0.0832556 0.07678082 0.010809244 8.726334e-25 0.17752813 0.050686594 -0.011232492 0.03651324
-0.037119806 0.12183405 -0.04871139 0.020658381 -0.107827395 0.22485322 0.108541064 1.0324395e-18
-0.10225864 6.208835e-19 0.0439616 -0.104836814 -0.032996107 0.0003381523 -0.05201421 0.015720258
0.00229982 0.0041772854 0.09075375 -0.17245229 -6.367475e-20 0.071202815 -0.036991686 -0.023813266
0.17142572 0.045974318 -0.045123573 -0.100141644 0.1375731 -0.1091295 -0.086958796 0.042635236
0.21988994 0.06416389 0.12667269 0.040178187 0.15316774 -0.03099455 0.10420693 -0.09507892
0.14822727 -0.16049108 -0.1424992 0.120171204 -0.00043122564 -0.014504795 -0.17107649 -0.11949755
-1.116762e-06 -0.0013724405 -0.0114189135 -0.12770876 -0.12612578 0.07365473 0.024375807 0.14994308
-0.08201913 0.027575145 -0.03768726 -1.8895799e-25 0.04837791 0.18397886 0.0017609101 -0.013030063
-0.116907634 0.1948269 0.1549581 0.018501718 -0.07323196 0.14085941 -0.04901156 -2.0814773e-22
-0.00936681 -0.00023178314 0.11521311 0.084490284 -0.15107776 -0.0008110676 -0.061719798 -0.15223385

encoder_c.convs.1.bias f4 [64]
00000000: 03d8 f53b 7c0e 053c 134e 10bc cb82 893c
00000010: b77d 69bc d386 f43b c533 bd3c c404 b13b
00000020: eca5 853c 874a 3bbb 6ee7 233c d925 82bb
00000030: 7085 5c3c b3ad 39bb 8002 5abc d10b 563a
00000040: 8e34 ed3c d9c6 113c 4906 753c fcb7 233c
00000050: 3092 edba 5626 053c 7d08 833b 0305 dc39
00000060: 89e6 383c d79c 4c3c d770 373c dc0a 53bb
00000070: 9eb4 abbb 2391 513c 5c1e 543b bd7a 3eb9
00000080: 23dd 9abb 87da 62bc f370 89bc d760 8b3c
00000090: 0878 8e3c 88fd 273c f7ed bf3c 07d3 4b3b
000000a0: 8390 45bb a6ee 06ba 1937 f93c 6e3d 8abb
000000b0: 6650 f43c 2b4e 5f3c 0f00 9cbc 54fc 8a3c
000000c0: c2a3 d73a 9318 da3c 2f2a db39 6df8 99bb
000000d0: 75d2 e73b d2d3 893c 045f 5239 922b a8bb
000000e0: 4d03 6c3c bb63 4ebc cd2c 043c 7d50 55bb
000000f0: 821d 0abc c1a8 a8bc 4c3d b8bb 8f8e 8d3c
0.0075025572 0.008121129 -0.008807677 0.016786 -0.014251164 0.0074623614 0.023095975 0.0054021794
0.01631447 -0.0028578357 0.010003908 -0.003971797 0.013459548 -0.0028332293 -0.01330626 0.0008165213
0.028955724 0.008897507 0.014955112 0.009992596 -0.0018125232 0.008126816 0.0039988146 0.00041965404
0.011285433 0.012488565 0.011196337 -0.0032202518 -0.005240037 0.012790951 0.0032366728 -0.00018165536
-0.0047260686 -0.013846046 -0.016777491 0.01701395 0.01739122 0.010253318 0.0234289 0.0031101124
-0.003014595 -0.0005147256 0.03042178 -0.004218749 0.029823493 0.013629477 -0.019042997 0.016966023
0.0016452002 0.026623046 0.00041802364 -0.004698804 0.007074649 0.016824637 0.00020062557 -0.005132147
0.014405084 -0.01259702 0.008067322 -0.0032549195 -0.008429887 -0.02058828 -0.0056225415 0.017279891

encoder_c.convs.2.weight f4 [64, 64]
00000000: 66a1 0fbc b54f fc3b 789c 853b 68da 4f3c
00000010: 103c 163c 2e8c 923c 3851 713a 93cd 54bb
00000020: fd22 293c b5ce d6bb 024f 59bb c316 e3bb
00000030: 28f0 0d3c e4a6 5eba dd75 7bbc a1f4 3abc
00000040: c98f 063c 08fe c9bb 7725 05bc 98de 713c
00000050: 758f 55bc 7f70 1cbc f958 443c a821 fb3b
00000060: af93 c3bb de92 543c 9d9c 6fbc 9e4f cc3b
00000070: d798 213c 85ae efbb 497f 633b be42 8fbb
00000080: 4936 15bc 3947 c7b9 f961 6ebb 14a5 4c3c
00000090: 0385 523c ea5f 513c 10bb 62ba d7e8 42bc
000000a0: 3641 40bc cbf4 94bb 320b 953c 862a 6f3c
000000b0: f7f1 583c de58 00bc 6cf8 3cbc 12ad 1fbc
000000c0: 2382 16bc c750 72ba 81d7 26bc bbae fe3b
000000d0: fa69 be3b 08f2 023c 7a79 30bb cbc5 643c
000000e0: 2707 423c d9cc a0bc 3c3d 0d3c 0a96 fcbb
000000f0: cac1 38bc 197c 5a3c 05d2 ccbb ea87 1fbc
00000100: c4bd 03be dbcb a8bc 4c62 693c 478e b6bd
00000110: 86a6 e03d a04e 993d 704f 15bd de1e 823c
00000120: b04d 463d 1347 1cbd fd38 3e3d 0977 88bb
00000130: 941f 183d 7f5a 39ba f8e4 8dbd bc2f 78bd
00000140: 0db0 86bd defb 1c3d d694 22bd 9c54 d33d
00000150: c592 15be 59ce d53a fb71 0b3e eeda 5f3d
00000160: 54e8 59bc 1696 ca3d 2a6f 9bbd 75a8 9cbc
00000170: b55e fb3c 5de1 eabc 4610 b43c d19f c7bc
00000180: 8997 dfbc cb60 3abd 99a2 dc3c 844b dc3d
00000190: 6a2a d03d c0a0 0c3c a295 b43d 14c9 39bd
000001a0: 6c92 e4bd 72cb fabc 2fa4 1e3a 5207 6d3d
000001b0: edbb 903d 74a5 87bc 6e91 203d 4b34 e0bd
000001c0: 2a12 523d f238 35bd a0d7 09be 51f7 763d
000001d0: 1732 93bb 5696 d23c 8551 8e3c aade 3c3c
000001e0: 2b6c 023e f06b abbd 628e 023e d7b7 e0bc
000001f0: 50b0 06be c380 b93d 2945 fbbc 9049 163b
00000200: 8076 1dbe c36b 3cbd 2e5f 583b 5b29 79bc
00000210: e385 233d 2bd7 aebc d790 743d 204d 96bc
00000220: acbe ef3c 2414 e8bc b944 5d3d 185c d7bc
00000230: 7a6d 59bd 1bff 99bd 8f2a ecbd d7f8 91bd
00000240: 5832 8d3d 7878 9b3c 0b26 7b3c 7f13 653d
00000250: 3721 27be bdda 773b 26b9 1f3e f8d0 cb3d
00000260: 552c a23d fb0e cb3d cc47 11be 5a38 b13d
00000270: eac2 f73c 8f35 edbc 32b0 7e3c 90ee 423b
00000280: 0af9 c9bc be19 4d3d db6b ae3c bef3 f53d
00000290: 9f7a 1e3d e928 383d ea6d 743d e224 ef3c
000002a0: b893 95bd 5065 70bd 87bb 32bd 5983 6bbd
000002b0: ab13 2b3e 0c65 86bd ef31 033d 23fb 9bbd
000002c0: 58e3 5d3c 01b7 f83c 510e 99bd 2638 5c3d
000002d0: 2083 1b3d d891 54bb ec48 9ebc 20da ffbc
000002e0: 7434 a9bd a24c 31be 1115 213e e8ef 2dbd
000002f0: f68d 70bd ae5d c33d 2e3a fabc 2a2e 8b3d
00000300: cdc7 d33d 4dd0 42be 69cd c63d d596 9fbd
00000310: 9b55 593d ef54 323e 4e8a 83bd a1b5 90bd
00000320: fa49 38be 2bdc b3bd 3d40 373d 370d 183e
00000330: 3cdd 12be 45f2 053d 5e79 4cbe 6b69 ff3d
00000340: a6b0 533e 4365 c4bd 7196 bdbc 0c50 08bd
00000350: d21d 0cbc 86a6 443e 6643 3e3e 095e 2d3d
00000360: a88e 023d 7d3c 353d e65c 4bbe 192a 5abd
00000370: b525 383e a8d3 3bbe d9a9 f33d 117e 22bd
00000380: 437a a93c ad45 463e 4806 223d ce9e 5fbc
00000390: b5cd 083e 891d d7bb cc83 46be 7f60 3dbd
000003a0: 4221 3cbe ee3b 063e 29d3 19be cba0 1ebe
000003b0: 1124 093d 45d6 073e 7619 e1bd fc6c ba3d
000003c0: a160 1fbe 87fd 323e 191c 17be ab5d e23d
000003d0: c585 e9bd 5607 f93c b2d8 41bd 4060 debd
000003e0: cfd7 513e 5a75 20be d1d8 49bd 3c98 ec3b
000003f0: 05db 3dbe 3f50 f5bd b65a d3bd badb 17be
-0.008766508 0.0076999315 0.0040774904 0.012686349 0.009169593 0.017889109 0.0009205523 -0.0032471165
0.010323283 -0.006555403 -0.0033158665 -0.0069302036 0.008663215 -0.00084934966 -0.015347925 -0.011410863
0.008212992 -0.006164316 -0.008126608 0.014762543 -0.013034691 -0.0095483055 0.011984103 0.0076639242
-0.005968533 0.012974469 -0.014624742 0.006235077 0.0098631 -0.0073145055 0.003471332 -0.00437197
-0.009107181 -0.00038009303 -0.0036374314 0.01249053 0.012849095 0.012779215 -0.00086490903 -0.011896334
-0.0117342975 -0.004545783 0.018193815 0.014597541 0.013241283 -0.007833688 -0.011533838 -0.009745853
-0.0091863 -0.0009243604 -0.010183216 0.0077722943 0.0058109732 0.007992275 -0.0026927874 0.013963173
0.011842526 -0.019628929 0.008620556 -0.0077083157 -0.011276672 0.013335251 -0.006250622 -0.009736994
-0.12865359 -0.020605018 0.014244627 -0.08913856 0.10969262 0.074857 -0.03645271 0.01588386
0.048413932 -0.03815372 0.046441067 -0.0041645807 0.03713949 -0.0007070675 -0.06928438 -0.060592398
-0.06576548 0.038326137 -0.039692722 0.10318872 -0.1460677 0.0016312107 0.13617699 0.054652147
-0.01330002 0.09891908 -0.07589562 -0.019123295 0.030684808 -0.028671915 0.021980416 -0.024368199
-0.027293937 -0.045502465 0.026933001 0.10756591 0.1016434 0.008583248 0.08817603 -0.04535778
-0.1116074 -0.030614588 0.0006051687 0.05786831 0.07067094 -0.016558386 0.039201193 -0.10947474
0.051286854 -0.04424376 -0.1346116 0.060294453 -0.004492055 0.025706451 0.017372856 0.011527697
0.12736575 -0.08370197 0.12749627 -0.027431412 -0.13153195 0.090577625 -0.030672627 0.002293203
-0.15377235 -0.046001207 0.0033015716 -0.015207614 0.039922606 -0.021342834 0.059708443 -0.018347323
0.029265724 -0.028329916 0.054020617 -0.02628903 -0.05308292 -0.07519361 -0.11531555 -0.071275406
0.06894368 0.018978342 0.015328894 0.055926796 -0.16321264 0.0037819587 0.15597972 0.09951967
0.07918612 0.09914967 -0.14187545 0.08653326 0.03024431 -0.028956203 0.015544938 0.0029744245
-0.024654884 0.050073378 0.021291664 0.12009381 0.03869116 0.04496089 0.059675135 0.029192392
-0.07303566 -0.05869037 -0.04363587 -0.05749831 0.16706721 -0.06562242 0.032030042 -0.0761626
0.0135429725 0.0303607 -0.07473434 0.053764485 0.037966847 -0.0032435562 -0.019321881 -0.03123194
-0.08261958 -0.1731439 0.15730692 -0.04246512 -0.058729135 0.09539352 -0.03054532 0.067959145
0.10340843 -0.19024773 0.09707148 -0.07792441 0.053060155 0.17415212 -0.06422864 -0.07065893
-0.1799697 -0.08782228 0.044738997 0.14848791 -0.14342207 0.03270175 -0.19968173 0.12471279
0.20672855 -0.09589627 -0.023143025 -0.033279464 -0.008552032 0.19204149 0.18580398 0.042326007
0.03187433 0.04424714 -0.19859657 -0.053262804 0.17983134 -0.18342459 0.1189763 -0.039671008
0.020688182 0.19362517 0.03955677 -0.013648702 0.13359721 -0.0065648 -0.19386214 -0.046234604
-0.18372062 0.13108799 -0.15021957 -0.15491025 0.03348166 0.13265331 -0.109911844 0.09102818
-0.15564205 0.17479526 -0.14756812 0.11053022 -0.11402468 0.030399006 -0.047325797 -0.10858202
0.2049248 -0.15669766 -0.049279038 0.007220296 -0.1854058 -0.11978196 -0.10320036 -0.14829913

encoder_c.convs.2.bias f4 [64]
00000000: 8600 553c 8544 25bc 1fca 3f3d b526 ddbb
00000010: f334 2cbc de63 e7bb 8c85 55bc 89c5 643c
00000020: 450b 4a3a a8d6 173c c275 c1bc ebc1 8639
00000030: 24c7 15bc bdfd 9f3c 6a81 6fbc 1f73 013c
00000040: 915b 983a 55a3 35bc 9e5e 113c f6df e4bb
00000050: 56cd eb3b c47b 663c a50b 72bb ce0a e5bb
00000060: d8ae 4a3c 77a5 d9bb 1521 90ba 3321 34bc
00000070: a780 d23c c547 76bd c403 6cbb f69d 1a3c
00000080: 6fa3 6e3b 1a20 c13c 203d 923a f269 f03b
00000090: 653a eebb 8208 2d3c a58a aebc d153 2c3b
000000a0: 1f2f cf3b d0de 423b 59cf e6bb 8b7f c1bb
000000b0: ab9d c8bb 20cb 3f3c 3301 f43b 6a6d 1b3c
000000c0: f4ad 853b 4118 053c 5cb8 abbb 693f d13b
000000d0: 3c63 d53c 0b17 23bc f1c9 57bb e2a5 e7bb
000000e0: 38e7 85bb fab0 f23b b377 2ebc 2e0f 143c
000000f0: 5a2c 1bbc 4171 8dbb c0f9 0bbc 0581 1c3c
0.013000613 -0.010087137 0.046823617 -0.006748999 -0.010510671 -0.0070614656 -0.013032328 0.013963112
0.0007707368 0.009267487 -0.023615722 0.00025702952 -0.009141717 0.019530172 -0.014618257 0.007900982
0.0011623969 -0.011086305 0.008872656 -0.006984706 0.007196109 0.014067594 -0.003693321 -0.0069898134
0.012370788 -0.0066420394 -0.0010996187 -0.010994243 0.025696112 -0.06012704 -0.0036012987 0.009437075
0.0036413332 0.023574878 0.0011157133 0.0073368484 -0.0072701448 0.01056111 -0.021306345 0.0026295076
0.006322756 0.0029734857 -0.0070437607 -0.005905097 -0.006122311 0.011706144 0.007446432 0.009486536
0.0040795747 0.008123458 -0.005240483 0.006385733 0.026048295 -0.009954224 -0.0032926763 -0.0070693353
-0.0040864013 0.007406351 -0.010648656 0.009036822 -0.009471023 -0.0043164794 -0.008543432 0.009552245

encoder_b.convs.0.weight f4 [116, 64]
00000000: 03ad 7cbc 2e71 a73d d869 3f3d 34f4 30bd
00000010: caa1 a6bd f4b5 6abd 7b4f 7abd 2fcf 0ebe
00000020: c30b 163e 9e83 0fbe 31dc 973d e378 c33d
00000030: c540 af3d b529 96bd cc8a 103d 16be 5cbc
00000040: 8efd b13d 181c 063e fc4a e13d 5f60 93bd
00000050: d8ab bcbc 2494 9e3d a848 fcbd 9923 dbbd
00000060: 7805 d13d 2d57 773a 6fae 893d c371 73bd
00000070: 706b 72bd f9da 78bd 2d81 b3bd f1d1 b73c
00000080: 3332 153e 7073 85bd 3f2d 133e 9903 d2bc
00000090: c423 b7bc d517 c83d 79f4 1c3e ea3b 01be
000000a0: 8fcd 503d f60c 14be e153 d33d f278 953c
000000b0: 204c f63d f224 1abe 8b2c 993d d8d7 b83d
000000c0: e351 dbbd 7b19 24ba 3320 35bd f458 533d
000000d0: ad3d 8bbd 2810 e13b d2b1 c8bd 1f38 d8bc
000000e0: 27a4 04bd 180f 9b3d 89d2 1d3c 7f6c c7bc
000000f0: cbdd 66bd 898c 883d f691 92bc ce33 a3bd
00000100: c01d eebd 0248 fb3c 4d8a 82bd d7fc 94bd
00000110: 4187 19bd 0052 373d ab0f 12bc e4fa c63d
00000120: 1038 1bbe 520a de3c 13da cdbd 0d20 323c
00000130: 569f b0bc 489a 3dbb e387 013e 17bf 0e3e
00000140: ae66 003e e57d 153e cbf3 06be 39fa deba
00000150: 4ebe 8e3d 8a26 733c 7003 0f3e 7f71 00be
00000160: 8816 13bd 4924 43bc 8a47 33bc 54ca aebc
00000170: a9b9 fa3d c246 e03c 7d06 e9bd db2b 703a
00000180: 7539 d23d e71a d9bd 9704 8bbc a40c 433c
00000190: 932e b8bd 2d7f d0bd bdbd d2bd 42a8 90bd
000001a0: 9260 cebb 59d6 0cbe ab96 8fbd e769 68bb
000001b0: e9b8 f9bd 18dc 243d 288d d63c 24d7 313d
000001c0: 59e8 09be 0dd2 fc3c 3f37 cf3d c45b 1dbd
000001d0: 8b05 193d 3fc2 843d 8649 14bd c11a c53d
000001e0: 6301 6e3d 5955 31bd 1b5d 5c3c 77e3 e83d
000001f0: 8e13 813d 04a0 023c 516d 753d ecbc e03d
00000200: 6d8c fe3c fd5a a23d c333 05bd af06 bdbd
00000210: 10f5 38bd 4b15 4abd 92d0 3c3d 031a 22be
00000220: c000 af3d fd32 e63d 75a6 463d 4fdb 8fbd
00000230: 0245 07bd f03a ddbc 58ad 13be 9601 0a3d
00000240: 9e8a a5bd 61ba 42bd 2ca1 f63d 5bbf d73b
00000250: a4f6 50bc 1415 dc3d 79b6 c8bd cf88 143e
00000260: 9599 02be 00ec 37bc dcdc 82bd c146 07bd
00000270: e0a0 5c3c 29cf 76bc e8d1 843c 8e7b 8c3d
00000280: 7449 cf3d c854 06be 9675 f83d c420 03bc
00000290: f7bc a4bd 6562 763d ba5c 6bbc 5cb6 d23d
000002a0: bdea 433d b75c 4d3c 0e1b 753d 78a4 a5bd
000002b0: 6532 083e 0755 afbd 681a 463d b97c 0e3c
000002c0: 05ac 893d 5676 86bc 5bae 80bd a010 323d
000002d0: 5f72 9abb 0c32 acbd 27ec e73d fe61 bcbd
000002e0: 0659 be3d 5f73 013e bc17 6c3d 431a f93c
000002f0: 4931 01bb f18e 6e3c b24c a3bd 2a81 12bd
00000300: 0596 babc be9c 61bd a8ca 1b3c 64bb 7f39
00000310: 7101 763b 29d1 c4bd 03c2 bbbd 68ef 033d
00000320: 6011 70bd 7089 09bc 37fa 5ebd 1f4b c23d
00000330: a1f9 98bb 1ea1 c03c 859b 943d 1e69 a03d
00000340: 4e9b 013e 151c afbd 935b b93d 746d 1a3d
00000350: 2ad0 1739 206c 353c 67e1 163e 2499 9b3d
00000360: ebf8 9b3d 7024 82bb 1b2a 17be caf1 b13d
00000370: f847 8c3d 5522 da3d ce1d 843d c14e 963a
00000380: d6d0 10be d7b3 47bd 4d78 963d 9c66 033a
00000390: 5a50 a2bd e674 473d ebb0 1d3e 1b03 da3d
000003a0: e58a 283c 3b00 b5bd 4dba e03d 8212 a43c
000003b0: c284 373d f737 e63d 68d3 753d 20a6 e73d
000003c0: e727 2a3c 8c37 7fbd 8489 af3d 03b2 c5bc
000003d0: 7266 273b c4ab 503c 0cb8 1b3e 8f0c 63bd
000003e0: d4dc 33bd fb6c de3d b79d ac3d 4953 ba3d
000003f0: 9b74 a0bd 57e9 4f3c 73a2 3cbd 043d 0ebc
-0.015422109 0.08175884 0.0467318 -0.04320164 -0.081363276 -0.05730243 -0.061110955 -0.13946222
0.14652924 -0.14015052 0.07415045 0.09544542 0.08557276 -0.07332174 0.035288617 -0.013473054
0.0869094 0.13096654 0.1100063 -0.07196116 -0.02303116 0.07743099 -0.123185456 -0.10700149
0.10206121 0.00094352924 0.06722724 -0.059434664 -0.05918449 -0.060755704 -0.08764873 0.022438975
0.1456993 -0.065161586 0.14372729 -0.025636481 -0.022355922 0.097701706 0.15327634 -0.12620512
0.050977286 -0.14458069 0.10318733 0.018246148 0.120262384 -0.15053156 0.07479199 0.09025544
-0.10708978 -0.00062599004 -0.04422016 0.051598504 -0.06798873 0.006868381 -0.097995415 -0.026393948
-0.03238311 0.07571238 0.009632715 -0.024343727 -0.056363862 0.0666743 -0.017891865 -0.07968865
-0.11626768 0.030673984 -0.06374035 -0.07274788 -0.037482504 0.044755936 -0.008914868 0.09715822
-0.15158105 0.02710453 -0.1005136 0.010871899 -0.021560352 -0.002893107 0.12649493 0.13940082
0.12539169 0.14598806 -0.13178937 -0.0017011828 0.069698915 0.014840731 0.13966155 -0.12543295
-0.03591016 -0.0119105065 -0.010942349 -0.021336712 0.12242443 0.02737749 -0.11378191 0.00091618084
0.10264865 -0.10600834 -0.016969962 0.011904869 -0.08993258 -0.10180507 -0.10290096 -0.07063343
-0.006298133 -0.13753642 -0.070111595 -0.0035463513 -0.12193472 0.04024896 0.026190355 0.043418065
-0.1346754 0.030861879 0.10117959 -0.038417593 0.0373588 0.06482362 -0.03620293 0.096242435
0.05810679 -0.043294284 0.013449932 0.113715105 0.06302558 0.007972721 0.059918705 0.10973534
0.03107282 0.07927511 -0.032520067 -0.092297904 -0.045155585 -0.049336713 0.046097346 -0.15830235
0.08545065 0.11240194 0.04849859 -0.07024252 -0.033024795 -0.027005643 -0.14421594 0.03369292
-0.0808308 -0.047541026 0.1204246 0.0065840906 -0.012754116 0.10746208 -0.09800429 0.14505313
-0.127539 -0.0112257 -0.06389782 -0.03302646 0.01346609 -0.015064039 0.016213372 0.06859504
0.10121432 -0.13118279 0.12131803 -0.008003417 -0.08043855 0.06015243 -0.014365369 0.102886885
0.047831286 0.012534312 0.059840254 -0.080880105 0.13300474 -0.085611396 0.048365027 0.008696728
0.06722263 -0.016413849 -0.06283256 0.043472886 -0.004713341 -0.08407983 0.11324339 -0.09198378
0.092943236 0.12641667 0.057639822 0.03040803 -0.0019713214 0.014560447 -0.07973613 -0.03576771
-0.022776613 -0.05508112 0.009508766 0.00024388504 0.003753748 -0.09610207 -0.09167864 0.032210737
-0.05861032 -0.008394584 -0.054437842 0.094869845 -0.00466843 0.023514327 0.072562255 0.078325495
0.126569 -0.08550278 0.090506695 0.03770204 0.0001447803 0.011073142 0.14734422 0.07597569
0.07615837 -0.003971629 -0.14762156 0.08688696 0.068496644 0.106510796 0.06450997 0.0011467562
-0.14142165 -0.048755493 0.07347164 0.00050125434 -0.07925482 0.048695467 0.1539952 0.106451236
0.010287021 -0.088379346 0.10973034 0.020028356 0.044804342 0.11241143 0.060016066 0.11310983
0.01038549 -0.062308833 0.08571151 -0.024132734 0.002554324 0.012736265 0.15206927 -0.0554319
-0.04391177 0.1086063 0.08428519 0.09097917 -0.07834741 0.01268991 -0.04605336 -0.008681539

encoder_b.convs.0.bias f4 [64]
00000000: 7301 803c b654 f73a 8f36 2fbc 120b 473c
00000010: 82f1 c93c 5a77 1b3d 7fae 1437 20e0 403c
00000020: 0f2e 463c ea5d e43b 1a02 96bc 6f16 a73b
00000030: a0b9 dfbb 06a2 59bc 6535 4c3c 4f34 5e3c
00000040: b7e2 9b3b 1d08 183c f3b6 7b3c e40e 0a3c
00000050: c228 1ebc 7b21 f53b 4fb7 3f3c 2393 573c
00000060: 80ad 853c 56ec 1fbc e705 6a3c 951a bdbb
00000070: ba46 403b a102 b6ba 65f8 573c de2b 593c
00000080: 3490 1f3c f1a7 893c b2ff 373c 0b8b 9bbc
00000090: 4e3f 87bc e3fe 49ba 19fb 6d3c 9576 713c
000000a0: c808 5a3c 1cc8 493b 0e75 353a af26 bf3c
000000b0: 1345 3fbc adb9 593c 4e45 4fbc bd81 a43b
000000c0: 60d6 8a3c e05b 3d3c 3df6 783c 7851 96bc
000000d0: 8e26 cf3c 45af 073b 8689 1b3c ca01 513c
000000e0: e325 5a3c 1d0d 543c d4de 7aba 47fc 6fbc
000000f0: 8085 86bc 278e 5b3c d3db bdb9 7021 74b8
0.015625691 0.001886985 -0.01069416 0.012148635 0.024651293 0.03795562 8.8621155e-06 0.011772186
0.012095942 0.0069692032 -0.018311549 0.00509911 -0.006827548 -0.013283258 0.012463902 0.013562276
0.004757251 0.009279278 0.015363443 0.008426402 -0.009653272 0.007480798 0.011701419 0.013157639
0.016318083 -0.009760937 0.014283634 -0.005770991 0.0029339031 -0.0013886282 0.01318178 0.013255088
0.009738971 0.016803714 0.011230396 -0.0189872 -0.016509678 -0.00077055226 0.014525198 0.014737745
0.013307758 0.003078944 0.00069220446 0.023333875 -0.011674183 0.013288897 -0.012650801 0.005020349
0.016947925 0.011557549 0.0151954265 -0.018349394 0.025286939 0.0020703834 0.009493237 0.012756774
0.013314697 0.01294258 -0.0009569947 -0.01464755 -0.01642108 0.013400591 -0.0003621267 -5.8205274e-05

encoder_b.convs.1.weight f4 [64, 64]
00000000: d56c 2ebd 730f 02be cf56 32bd 9f07 f13c
00000010: 4369 213e e2cc 1bbe b82b 343e ab40 9cbc
00000020: ede4 963d 81b9 fb3b bbf5 c93c 6f3b 27bd
00000030: fb16 ea3d 7d99 c4bd fb20 debd 674f 0bbe
00000040: 3643 a7bc 5688 a3bd 6624 d43c dcc0 2cbe
00000050: 9209 33bd 3912 5abd 07ca 2a3d baf6 52bd
00000060: a7f7 423e 74dd 01be 7968 913d 9772 3e3e
00000070: 2572 1ebe 3923 2dbe 1d13 d13d ee56 c0bd
00000080: e218 873d c034 e7bd 348a d43c 5f9a 02be
00000090: f00d 1e39 fcdf a1bd e800 cf3d ca2d 823d
000000a0: 1251 263e 348c 42bd b503 65bd 83ca 23b9
000000b0: cd39 dabd 5670 f0bc b51c 2b3e 386d 143e
000000c0: 8942 1fbd 2bbf b4bb b53f 2f3d b88b 8cbc
000000d0: e3bd 7dba 419b 253d b6dc c13d 0fe6 d5bd
000000e0: 1040 503e 932c 743a e6d8 153e e1a9 19be
000000f0: 2ec2 9abd 1d81 a8b8 18f8 11bd 6f33 45bd
00000100: b5bd 8abc 1b6f a53d 768c 033e 0b15 9abd
00000110: f82d 1abe 3264 dc3d fecc 0abe da52 e0bc
00000120: 3c50 0dbe d540 923d b5ef 04be 9625 9ebd
00000130: ace2 8bbd b8f1 bcbd 2ed6 5bb8 a836 483e
00000140: d0c2 c9b7 71f9 223e 85ce 103e 707d babd
00000150: 27fe d3bd 7f1e 88bb 5d61 06be 915a 85bd
00000160: f99a 58bd 5c79 193e 7601 823d c359 f03d
00000170: fd16 803d 1f11 d03d fd53 783c 2a7b b83d
00000180: 2ea4 a5bc 55a6 dd3d 5e23 0d3d d50f ff3d
00000190: 9dd4 7dbd 91ef b5bc 9b86 2c3d ea4c 473d
000001a0: 1c5d d43c 4f98 d03d 9dca 52bd e88d 3abd
000001b0: b2f0 183e d649 f0bd 4e6c 04bd 6696 ba3c
000001c0: daed 113c afd1 a93d 93f5 bfbd a338 f2bd
000001d0: a9ec debd a496 26bc 8cd8 1bbe 949d ea3d
000001e0: 5e17 d03d 4ca7 cfbb c28b 9cbc 978c 82bd
000001f0: 95a2 0d3e f84d 0438 7970 03be 2a7a 2dbb
00000200: 1d1c 9dbd 7544 5cb9 584a 363a fb55 54bd
00000210: 2c62 61bd e58e 693d 5410 893b 44cb b93d
00000220: f7a3 0db9 c495 eeba 705d b93d c36d d3bd
00000230: 4000 563d e6fd c83a 4a0a 6cbd e603 c9bd
00000240: aa9b 1e3d 2c11 af3b 2ced 343d 9ed9 d9bd
00000250: 68e7 82bc 1fb2 dabd 2da8 51bd d3bf b1bb
00000260: 1ded f3bd 8e12 72ba 800c 9e3b 057e febd
00000270: 900b bbba b793 693b e593 fabb 0072 cb39
00000280: d7e8 b9ba 7902 09bd 4d38 933d a039 42bc
00000290: 637a 44bc 2e75 843c 9f48 aebc 7722 3cba
000002a0: 5731 f6bb 8a23 76bd 580e bdb9 85f6 9fbb
000002b0: 386b b63d 74e9 d1bb 5467 0b3b 0b7d 28bd
000002c0: f972 0d3d c80d 323c f85f dc38 ad7b 3f37
000002d0: 2128 ce3d c907 813d 9512 cebd 3fe5 a6bd
000002e0: b698 a2bb be8b d7bd 2545 e83d 3396 9fbd
000002f0: 515b dd3d a7ba 543d 1fa0 293d 8070 64bc
00000300: d67f ec3a b1d2 23ba 638c b03d d99f 633c
00000310: 8153 d2bb 1826 e0bc 8b5b 61bd c80b 273b
00000320: 2d1c 45bc 8821 753c 2bbb f8bd 10d0 593d
00000330: 7947 fcba 1b16 283d 6b8d 573b 7fb0 d93d
00000340: a832 3cbd c08e 953c e312 ac3b 7b9a 18bb
00000350: 2d16 573c 3ec6 0c3a 9040 b739 1657 de3d
00000360: dee3 9b3d c85a e93d 0525 d4bd 70d0 b9bc
00000370: 9776 e73b c38e 993c 08cd eabd 0b9d 0f3b
00000380: 2374 973d 42a8 a5bd 234f 5b3d fae6 bc3d
00000390: f04c 4938 7cee 1f3d dd85 6236 4df9 c73d
000003a0: fae4 463d c7bb 02ba 8a44 8e3d 76f4 94bd
000003b0: ab1a d83c 2155 f73d 7a14 4f3d b80e c43d
000003c0: ee18 b0bd eba6 b9bd aa79 c53b fba5 1ebd
000003d0: 4fee 4db9 0ac4 223c fc46 84bd afbd da3c
000003e0: 5154 10bd b75e 673c 89d9 ba3d 5da3 38bd
000003f0: 818e f3bd 40b0 7c3d 9ded fe3c 8701 a4bd
-0.04258426 -0.12701206 -0.04353982 0.02942258 0.1576281 -0.15214875 0.17594802 -0.019073805
0.07367883 0.007682026 0.024653306 -0.040828165 0.114301644 -0.09599588 -0.10846134 -0.13604508
-0.02041779 -0.079849884 0.025896262 -0.16870445 -0.0437103 -0.053240035 0.041696575 -0.051504828
0.19039784 -0.12682134 0.07100005 0.185984 -0.1547323 -0.16907968 0.10208724 -0.093915805
0.06596543 -0.11289358 0.025944807 -0.127542 0.00015073246 -0.0790405 0.10107595 0.0635639
0.16241863 -0.04749699 -0.05591174 -0.00015620333 -0.10655556 -0.029350441 0.1671017 0.14494789
-0.038881812 -0.005515953 0.042785365 -0.017156467 -0.00096794794 0.040431265 0.094659254 -0.10444271
0.20336938 0.00093145034 0.14633521 -0.1500621 -0.07556568 -8.0349135e-05 -0.03563699 -0.048144754
-0.016936162 0.08077832 0.1284655 -0.07523545 -0.15056598 0.10761298 -0.13554761 -0.027383257
-0.13800138 0.07141272 -0.12982066 -0.07722013 -0.068303436 -0.09225792 -5.241314e-05 0.195521
-2.4051784e-05 0.15915467 0.14141281 -0.091059566 -0.1035121 -0.004154026 -0.13123079 -0.06511415
-0.05288217 0.14987701 0.06347935 0.11735871 0.06254385 0.101595156 0.015156743 0.09007867
-0.020219889 0.10822741 0.034457557 0.124541916 -0.061970342 -0.02220896 0.042120557 0.048657335
0.025923304 0.101853006 -0.05146276 -0.04554549 0.14935568 -0.11732833 -0.03232985 0.022776794
0.008906806 0.08291947 -0.093730114 -0.11827209 -0.10884983 -0.010167751 -0.15219325 0.11455837
0.10160707 -0.006337082 -0.01910961 -0.06374472 0.13831551 3.1543866e-05 -0.12835874 -0.002647052
-0.07671378 -0.00021006337 0.0006953827 -0.05183981 -0.055025265 0.05702104 0.0041828547 0.09071973
-0.0001350789 -0.0018202593 0.09051025 -0.1032367 0.052246332 0.0015334457 -0.057627 -0.09815197
0.03872267 0.005342623 0.044171497 -0.1063721 -0.015979484 -0.10678505 -0.051185776 -0.0054244786
-0.1191046 -0.0009234332 0.0048232675 -0.1242638 -0.0014270414 0.0035641023 -0.007647025 0.00038804114
-0.0014183772 -0.033449624 0.07188473 -0.011854559 -0.01199207 0.016169157 -0.021274863 -0.00071767665
-0.007513206 -0.060092486 -0.00036059576 -0.0048816823 0.08907169 -0.0064060036 0.0021271305 -0.041134875
0.034533475 0.0108675435 0.00010508293 1.1413283e-05 0.10066248 0.06300313 -0.10062138 -0.08149194
-0.004962052 -0.105247006 0.11341313 -0.0779232 0.10808433 0.051935818 0.04141247 -0.013942838
0.0018043469 -0.0006249352 0.08620527 0.013893091 -0.006418646 -0.027361915 -0.055018943 0.00254892
-0.012030643 0.014961608 -0.121450745 0.05317694 -0.0019247375 0.041036706 0.0032890688 0.10629367
-0.045946747 0.018256545 0.005251275 -0.0023285437 0.013127846 0.00053701166 0.00034952583 0.10856454
0.076118216 0.11394268 -0.103586234 -0.022682399 0.0070636976 0.018744832 -0.11464888 0.0021913673
0.07395198 -0.08088733 0.053542268 0.09223743 4.7993788e-05 0.039045796 3.3754543e-06 0.09764347
0.048558213 -0.00049870874 0.069466665 -0.0727319 0.026379904 0.12076784 0.050556637 0.0957312
-0.08598505 -0.0906504 0.0060264664 -0.03873251 -0.000196391 0.009934435 -0.06458852 0.026701776
-0.03523666 0.014121703 0.09123523 -0.04507767 -0.11892415 0.061691523 0.031119162 -0.08008104

encoder_b.convs.1.bias f4 [64]
00000000: 746b 5bbc 736a d6bb 56f0 823c a4bf 4c3c
00000010: 6e98 3a3c ac30 ebbb bd65 c83b d1c6 2f3c
00000020: 90f6 733c f303 413c 8149 903b f3e2 96bc
00000030: 9626 0d3b ac67 fd3b d17c 913c 4405 743c
00000040: 337c 92bc 3283 4e3c 0af0 f0bb 38bf 97bb
00000050: 433c a43c 3134 c83c d79b 75bc 3e7e 983c
00000060: 3095 2a3c e26a bdbb dd30 5e3c 3253 873c
00000070: ca17 273c 753c c93b d7b4 3d3c 103b 7a3b
00000080: 27d1 96bb 8294 983c 8f4d 6cba 9dc0 493c
00000090: 920a 683c 5ead 13bc 4c1a 4abb bb97 ff3b
000000a0: fdfd 8c3c 2850 e1bb 40fe 5bbc 92c9 2cbc
000000b0: 3f40 39ba b842 0b3c 8193 c2b9 da70 813c
000000c0: 5603 24bc 177e f3bb c414 70bb 1bf8 543c
000000d0: d1be 73bc 199a 0fbb f8f4 04bc 9015 0bbc
000000e0: c1fd ad3b c649 ed3c 50d7 163c d48f 303c
000000f0: 5bce dcbb ea82 29bc ed8c 093c 6a8e dbbb
-0.013392318 -0.0065434515 0.015983742 0.012496863 0.011388881 -0.007177433 0.006115644 0.010728554
0.014890328 0.011780727 0.0044032936 -0.018418765 0.0021537892 0.007733306 0.017759712 0.014893834
-0.017881488 0.012604522 -0.0073528336 -0.0046309493 0.020048266 0.02443895 -0.014990768 0.018614884
0.010411546 -0.0057805637 0.013561455 0.016519163 0.010198543 0.0061412402 0.01157876 0.0038182177
-0.0046025696 0.018625502 -0.00090142427 0.012313989 0.014162676 -0.009013502 -0.0030838428 0.00780007
0.017210955 -0.0068760104 -0.013427317 -0.010546105 -0.00070667634 0.008499794 -0.00037112462 0.015800882
-0.010010561 -0.0074308026 -0.003663347 0.012998606 -0.014877037 -0.0021911918 -0.008115046 -0.008489028
0.005309791 0.028965842 0.009206608 0.010776479 -0.0067384667 -0.010346154 0.008395416 -0.0067003267

encoder_b.convs.2.weight f4 [64, 64]
00000000: b298 b03d b3b8 843b fe35 173a a53a c53d
00000010: a08b 90b9 fffe 62bd 3da0 99bd bf1b d13d
00000020: cff2 d8bb 93cd cfbd 3858 84bc 4778 6bb7
00000030: 3321 c63d 89bc 473c 5dfa 2f3c e0af ba3d
00000040: 0e28 dfbd 8f49 98bc e7b0 cdbd f7bd eabb
00000050: 86fb 6d3c 3c56 a4bd b322 6ebd 8bbf 73b8
00000060: 466f efbc c60a 95bd b44d 8939 c7b0 9ebd
00000070: a1e4 b03d 8c6d 8fbd 49c5 37b9 a97a e83b
00000080: 0bd3 cd3c bbe7 8b39 af23 90bc 39e2 2c3d
00000090: da46 d23d 6a56 79b9 67a1 36bd fe9b 8ebd
000000a0: a4a2 87bb 7052 e6bb 04d2 bebc 7778 6c3d
000000b0: 85d4 3fbd aded b838 7862 3f3d 4e68 6f3b
000000c0: 54ae 7b3d 87e8 23bd 1c2b dc3d 6ae5 14bc
000000d0: 6ff8 ec38 c7be ba3d 6a6c 463d 55ea 93b8
000000e0: 3d50 c33d d6f1 80bb 38fb c03d 4537 4fb9
000000f0: 0370 dfba 9395 3f3d c02d df3b 15b9 05bd
00000100: 83de c63d 2745 dd3d 36e1 943c 779a 5237
00000110: 1eb8 d5ba 4e1c 2dbd d956 fab9 438e eb3b
00000120: ec8c a73d 0837 b53d e3ef 7b3d 9bc4 393a
00000130: 3262 58bd bacf a23a 521f c13c df9e 703a
00000140: 7e2a bc3c f466 49bd cd73 58bb d2ee 563c
00000150: 2eef 323d ad94 4d3a 64a9 ac3d 8731 85bc
00000160: 5532 2c38 7801 12bb bda8 083c 7c55 80bc
00000170: bf64 efbd f6a9 77b9 813c c0bd d460 6a3d
00000180: a180 32bc 0ded b5bb aa59 dabd 4ac2 5ebc
00000190: 2350 74bd 3a57 d23d 3a1b bbbd ac3e 11bd
000001a0: a4dc 2dbd 4ea1 503d 6f0a 783d beb5 883d
000001b0: 6957 90bd 68ac 57ba 191d adbd 8739 96ba
000001c0: 0e4b 74bd 2af9 413c 744f 2cbb 296e 2c3d
000001d0: 8b77 8a3d 4520 e5bd 628a 12ba 394f 563d
000001e0: 0fb9 28bd 5bcf af3d 0d48 a93c c7f4 22bd
000001f0: b04f 5e3d daf5 dabd c355 8fb9 7696 ea3d
00000200: f1dd acbb 2331 0a3c ed65 91bd 3413 c8bb
00000210: 3bc1 913a ee83 363c 4a88 c8bd 0c3a b3bc
00000220: 93b8 72bd 6652 8dbc d3eb ee3d e3e3 d33a
00000230: 6cb3 4c3b f8ba 79bd b539 a6bd f80d c53d
00000240: 3088 edbc a038 563d 9e11 12bc 6cf6 cfbd
00000250: 34d1 b4b9 a98a 50bd 9bd7 ddbd c155 c13d
00000260: 527f 73bb aa8a 77bc be52 2fbb 22f2 313d
00000270: 8d6d ae3d d701 eb3b 3e2e 2f3c 286a 613d
00000280: dcb8 9d3d 0465 fb3c 7c2f 8bbd a4a7 bc3d
00000290: fbb3 ad3b 2437 613d 0a32 a4bd a6ed 9f3c
000002a0: 6ebd 9ebd 12ef 3abc 2ad9 19bd 891e 6f3d
000002b0: 5de7 dabd 4696 84bd 3575 8d3d 714f aa3c
000002c0: 1f71 693c 5106 553c df5b f03d 22a5 97bd
000002d0: 1121 84bd 6037 173d e04b cfbd 27e7 073d
000002e0: 7d88 f6bc 6930 f43c 0db6 a3bd 313a fb3b
000002f0: 4d5e 00bd 0029 f83b 1039 d3ba 1ef0 04bb
00000300: 5eca ff3b 6e6b 073d 9baa 1e3e 1b23 4c3e
00000310: 4206 05be e1c0 103e 1544 f33d 95d3 f83d
00000320: 21f9 ba3d dd3a aebd db93 4ebe b692 53bd
00000330: 4495 153e 9384 efbd 53d7 3c3c d459 0e3e
00000340: 0d7c 2f3e 1506 a5bc 966d e4bd 1f38 1e3e
00000350: 53bf 22be a0eb 8c3d 25c7 70bd f0f8 283e
00000360: 34b0 eabd d2f9 0cbe d983 a5bd a823 543d
00000370: d611 babd 339c 79bd 9a29 3c3e 2ef5 c4bd
00000380: 3a8f b0bd c147 703d 1690 a03b 33b2 4a3e
00000390: a982 373d 3a80 a83d 756d 293d cc13 223e
000003a0: f27b babd 095c aabd da62 b13d 90b4 1bbd
000003b0: d138 0e3d 64c7 093e 7ebe 4b3e 3675 52be
000003c0: b1e8 febd 4ef4 c3bd 380c 3dbe 564b 5abd
000003d0: 0b10 90bd 74d4 ba3d 661f e5bc 36e1 4abd
000003e0: 6184 713d 15b6 383d 7ec4 f2bd fe12 233d
000003f0: c3a6 a0bd 24f7 493e 42ed 103e 364d 24bd
0.08622874 0.004050338 0.00057682383 0.09630326 -0.0002756985 -0.055418964 -0.07501266 0.1021037
-0.006620742 -0.10146632 -0.016155347 -1.4035096e-05 0.09674301 0.012190946 0.010740844 0.09115577
-0.10896312 -0.018589763 -0.10043507 -0.007163759 0.0145253 -0.080242604 -0.05813856 -5.8114103e-05
-0.029227864 -0.072774455 0.0002618857 -0.07748561 0.086373575 -0.07003316 -0.00017525734 0.0070947004
0.025125047 0.000266848 -0.01759514 0.04220793 0.1026742 -0.00023778682 -0.04458752 -0.06963347
-0.0041392613 -0.0070288703 -0.023293503 0.05773207 -0.046833534 8.818074e-05 0.046724766 0.0036530676
0.06144555 -0.040016677 0.1075041 -0.0090879 0.00011299631 0.09118419 0.048443235 -7.053154e-05
0.095367886 -0.003935079 0.09422916 -0.00019761648 -0.0017046932 0.046773504 0.0068108737 -0.03264721
0.097104095 0.108042054 0.018173795 1.255294e-05 -0.0016305482 -0.04226332 -0.00047748422 0.00718859
0.081811756 0.08848387 0.06150807 0.00070864864 -0.05282802 0.0012421526 0.023574505 0.0009178947
0.02296948 -0.04917045 -0.0033028007 0.013118463 0.04368513 0.0007842284 0.08430746 -0.016258968
4.105487e-05 -0.0022278707 0.008341012 -0.015665762 -0.11689138 -0.00023619071 -0.0938654 0.05722125
-0.010894925 -0.0055519403 -0.10661633 -0.013596127 -0.059646737 0.102705434 -0.091360524 -0.03546016
-0.042446747 0.050935082 0.060556825 0.066752896 -0.07047922 -0.00082272897 -0.084528156 -0.0011461236
-0.05964189 0.0118391905 -0.0026292475 0.042097244 0.06761082 -0.111877955 -0.00055900787 0.052321646
-0.04119211 0.08584472 0.02066424 -0.03978422 0.054275215 -0.10691424 -0.00027338983 0.114544794
-0.005275481 0.008434567 -0.07099519 -0.006105805 0.0011120209 0.011139853 -0.0979162 -0.021878265
-0.059258055 -0.017251205 0.11666074 0.0016165938 0.0031234873 -0.060969323 -0.081164755 0.09621805
-0.028995603 0.052300096 -0.008915333 -0.10154423 -0.00034488144 -0.050913487 -0.10832139 0.094401844
-0.0037154746 -0.015108744 -0.00267522 0.043443806 0.08516989 0.00717185 0.010692177 0.05503288
0.07701275 0.030687816 -0.06796166 0.092116624 0.0053009964 0.054984227 -0.08017357 0.0195225
-0.077509746 -0.011409538 -0.03756062 0.05837873 -0.1068866 -0.06473975 0.06907121 0.020789834
0.014248162 0.013001994 0.11736273 -0.074045435 -0.064516194 0.036918044 -0.10121894 0.03317943
-0.03009438 0.02980824 -0.07993708 0.007666849 -0.031339932 0.007573247 -0.0016115028 -0.0020284723
0.0078061065 0.033061437 0.15494768 0.19935267 -0.12990668 0.14136077 0.1187822 0.12149731
0.09129549 -0.08507321 -0.2017359 -0.051653586 0.14607722 -0.116952084 0.011525947 0.13901454
0.17137165 -0.020144502 -0.11153714 0.15451096 -0.15893297 0.068808794 -0.05878367 0.16501212
-0.11459389 -0.13767174 -0.080817886 0.051791817 -0.09085433 -0.06093998 0.18375245 -0.09617077
-0.08621068 0.05866218 0.004899989 0.1979454 0.04480234 0.08227582 0.041364152 0.15827864
-0.09105672 -0.083183356 0.086614326 -0.038013995 0.034722153 0.13454968 0.19896886 -0.20552525
-0.12446726 -0.09568082 -0.18461692 -0.053294502 -0.0703431 0.091225535 -0.027969074 -0.049531184
0.058964137 0.045095522 -0.11853884 0.039813034 -0.07844307 0.19723183 0.14153007 -0.040112697

encoder_b.convs.2.bias f4 [64]
00000000: dbcf 213c 564e 5f3c de42 9b38 ed15 5a3c
00000010: af44 4cbb 45ff 4b3c 8418 27bc 5a3c 4e3c
00000020: 1bad 4abc 4c65 31bc 8102 003c a5e6 d9bb
00000030: d630 c63b be84 7dbc 5ca8 d9bb 1a4c 74bc
00000040: cfae 67bc 84b3 823c fe7f dcbb b31c 2ebc
00000050: 9db3 d13b 30bb 863c 33cc 17bb 8235 24bc
00000060: a543 2fbc 605a 3cbc 8e23 cfba bdd4 45bc
00000070: 930b 46bc 2db3 56b8 aedf 83bb 32d4 78bc
00000080: b914 533c 69e8 2fbc e5af 313c 0b9d ef3b
00000090: b88f 15bc 1dda 9bbb 0786 1dbc 6e14 173c
000000a0: 6b94 6a3c c977 62bc 1622 ea3b 286a 14bc
000000b0: a1a6 293c 8528 6ebc d014 053b f2d4 5fbc
000000c0: 6583 963b c337 1cbc 4c27 10bc 8f2a d7bb
000000d0: 3bf8 63bc 7413 ffbb 6837 aebb f015 82bc
000000e0: e55b 9dbb 6003 073c 5e7b b9bb f4db 0e3c
000000f0: b301 3fbb cb22 713c 0cd8 213b 0d19 24bc
0.009876217 0.013629517 7.403431e-05 0.013310892 -0.0031168868 0.012450998 -0.010198716 0.012587631
-0.012370373 -0.010827374 0.007813097 -0.0066498094 0.006048302 -0.015473543 -0.0066423845 -0.014910722
-0.014140799 0.01595474 -0.006729125 -0.01062696 0.0063995854 0.01644668 -0.0023162484 -0.010022523
-0.01069728 -0.011496156 -0.0015803443 -0.012074647 -0.01208772 -5.1188446e-05 -0.0040244674 -0.01518731
0.012883359 -0.010736563 0.010845159 0.007312422 -0.0091285035 -0.0047562257 -0.009614474 0.009221179
0.014317612 -0.013822504 0.0071451766 -0.009058513 0.010354669 -0.014536028 0.0020306595 -0.01366161
0.0045933 -0.009534779 -0.008798432 -0.0065663527 -0.013914163 -0.0077843014 -0.0053166635 -0.015879601
-0.0048022144 0.008240551 -0.0056604585 0.008719433 -0.00291453 0.014717768 0.0024695424 -0.010015738
