results/ADHD_3x5fold_seed0/fold4_rep2_seed2004/ckpt_best_fold_4.pt (torch, 660350 bytes, 72 tensors)

encoder_c.convs.0.weight f4 [116, 64]
-0.0047102417 -0.12849443 0.13548733 0.042142045 -0.042972248 -0.00666377 -0.028318949 0.05620664
-0.0653176 -0.070636936 0.048545737 0.13975132 -0.12884524 0.027708665 0.076770864 -0.026220981
-0.08334905 -0.092352144 -0.08578009 0.054540098 -0.101367384 0.08081271 -0.019162992 -0.07657479
-0.11639648 0.127063 0.0887035 -0.013595283 -0.046987303 0.09197006 -0.13415894 -0.013875039
0.05583037 0.10697569 -0.07471648 -0.13752228 -0.011238313 -0.02654122 -0.105573736 -0.03594288
0.021338617 -0.12734868 -0.07819566 -0.072886094 -0.0757757 -0.035609256 0.0003701993 -0.1564748
0.09199615 -0.076359265 -0.0810991 -0.093952544 0.023002772 0.09729027 0.004925304 -0.02359252
0.110780604 0.07194395 0.00026678134 0.010274207 -0.086100645 0.11969965 -0.02254453 0.04556503
-0.039988212 0.17534623 -0.07174551 -0.08489074 -0.12075389 -0.02751 -0.024556408 0.036798302
-0.025544511 0.07570469 -0.10727298 0.06818712 -0.026728313 -0.093621664 -0.042611822 -0.08170202
-0.02913626 -0.07290745 0.04491692 0.074148275 0.04385869 -0.030912496 -0.013567382 -0.10655833
0.076180294 -0.10051617 -0.13343649 0.053421367 -0.096769355 0.11170124 -0.1026076 -0.11505313
-0.043627646 0.058661263 0.02184246 -0.12519196 -0.07708239 0.044762995 -0.060530458 0.12522186
0.058947083 0.01581321 -0.037447724 0.11402279 -0.080154404 -0.019447174 0.0159335 -0.06913287
0.034449577 0.0935103 0.055742823 -0.010963145 0.07621288 0.09794693 -0.09439806 -0.08726146
-0.01044289 0.06589545 0.027663233 -0.07946542 -0.048127655 -0.03168825 -0.01083926 -0.07920925
-0.03342852 -0.027685596 0.04012693 -0.07363031 -0.15192115 0.08170507 -0.015650373 0.10928274
-0.10809286 -0.14177318 0.06464743 -0.1313476 -0.120227315 0.13585831 -0.09197663 0.05487567
-0.04523172 0.10068778 -0.124653555 -0.017255574 -0.031603646 0.1430589 -0.11368626 -0.043296356
0.099870734 -0.025679028 -0.02934327 -0.1508025 0.04669922 -0.011644748 0.17002524 -0.08788032
0.055676963 0.073618464 0.046529993 0.05108828 0.020339526 0.0947532 -0.05738123 -0.003775041
-0.105550185 0.039572213 -0.01965192 0.13946894 0.014024525 -0.043110747 0.013794808 0.0151182925
-0.01861805 0.1048597 0.12885904 0.14437005 -0.048572656 -0.030069642 -0.054888807 -0.1207325
-0.10676671 -0.021217532 -0.1081416 -0.02868118 0.066610835 -0.12718417 -0.023130344 0.0084591
-0.15966313 -0.1567801 0.053507097 -0.10848346 -0.016109658 -0.022916174 -0.041329436 0.083173245
0.047259793 0.09827046 0.030339766 0.08546772 0.08381527 0.13292924 -0.108651854 0.09562395
0.10827811 -0.14342797 -0.00042678913 -0.0078000347 0.045328245 0.06748482 -0.17310733 -0.038940962
0.024233166 -0.1189432 -0.024881093 0.06325228 0.07158382 -0.089265145 0.015613615 -0.07455336
0.09678855 0.14711024 0.026787722 -0.1251679 -0.036360748 -0.08724182 0.020134931 0.03290703
-0.045960188 -0.1340635 0.040677663 -0.073045604 -0.004062784 0.11988776 -0.07952761 -0.10064647
-0.115848415 0.006923073 -0.010784003 -0.073190644 -0.05914034 0.053569265 -0.04606728 -0.12886007
0.041550998 -0.032934 -0.07876406 0.061110374 0.02583038 0.031259447 -0.015924105 0.034780845
00000000: 5f58 9abb 0b94 03be 31bd 0a3e 239d 2c3d
00000010: ab03 30bd c15b dabb 24fd e7bc ef38 663d
00000020: 3cc5 85bd 19aa 90bd e5d7 463d f81a 0f3e
00000030: 02f0 03be 48fd e23c 0b3a 9d3d 62cd d6bc
00000040: e8b2 aabd 1f23 bdbd 79ad afbd 7065 5f3d
00000050: b499 cfbd 2281 a53d b5fb 9cbc 3ed3 9cbd
00000060: 4761 eebd ce1c 023e 2eaa b53d c0be 5ebc
00000070: c275 40bd cc5a bc3d f660 09be 2254 63bc
00000080: 63ae 643d 1216 db3d f404 99bd a4d2 0cbe
00000090: e720 38bc f96c d9bc 0b37 d8bd d738 13bd
000000a0: 53ce ae3c b167 02be 0c25 a0bd 4e45 95bd
000000b0: 4a30 9bbd 03db 11bd 4f17 c239 ee3a 20be
000000c0: 7a68 bc3d 3f62 9cbd 4917 a6bd 316a c0bd
000000d0: 4f70 bc3c 1f40 c73d 7264 a13b 1a45 c1bc
000000e0: f1e0 e23d 5a57 933d c9de 8b39 2655 283c
000000f0: 8955 b0bd 1725 f53d 4eaf b8bc 66a2 3a3d
00000100: aeca 23bd f68d 333e 4fef 92bd 32db adbd
00000110: d14d f7bd a75c e1bc 852a c9bc d1b9 163d
00000120: b942 d1bc 0f0b 9b3d f0b1 dbbd b0a5 8b3d
00000130: 56f5 dabc b7bc bfbd bc89 2ebd 6353 a7bd
00000140: 2aaf eebc 8050 95bd cefa 373d 0ddb 973d
00000150: 2ba5 333d 343c fdbc b949 5ebc 413b dabd
00000160: 6a04 9c3d 6cdb cdbd 93a3 08be 5dd0 5a3d
00000170: 032f c6bd 9fc3 e43d ef23 d2bd faa0 ebbd
00000180: e7b2 32bd cb46 703d f5ee b23c 5232 00be
00000190: 5fdd 9dbd 6759 373d c9ee 77bd 293a 003e
000001a0: 7f72 713d b48a 813c c962 19bd c884 e93d
000001b0: fe27 a4bd ae4f 9fbc f986 823c 8995 8dbd
000001c0: 001b 0d3d 5482 bf3d 9652 643d c39e 33bc
000001d0: 8015 9c3d 6698 c83d c553 c1bd 23b6 b2bd
000001e0: a818 2bbc 32f4 863d 019e e23c c4be a2bd
000001f0: 8121 45bd 8acb 01bd 2797 31bc 7638 a2bd
00000200: 58ec 08bd e7cc e2bc 235c 243d 7dcb 96bd
00000210: 3891 1bbe fd54 a73d 3635 80bc a1cf df3d
00000220: ca5f ddbd fd2c 11be df65 843d fc7f 06be
00000230: bd39 f6bd 711e 0b3e 3e5e bcbd 4fc5 603d
00000240: e544 39bd 6535 ce3d 5d4a ffbd 905b 8dbc
00000250: d372 01bd 087e 123e 58d4 e8bd 8557 31bd
00000260: 0789 cc3d d35c d2bc 4c61 f0bc f86b 1abe
00000270: ae47 3f3d 9dc9 3ebc 191b 2e3e 99fa b3bd
00000280: 870d 643d 47c5 963d 3c96 3e3d f241 513d
00000290: 149f a63c f70d c23d 9508 6bbd ae66 77bb
000002a0: b22a d8bd 7916 223d 10fd a0bc f2d0 0e3e
000002b0: 1fc7 653c e594 30bd 9e03 623c b7b2 773c
000002c0: e184 98bc afc0 d63d a0f3 033e bed5 133e
000002d0: 1ff4 46bd 9c54 f6bc 16d3 60bd 9a42 f7bd
000002e0: 81a8 dabd 64d0 adbc 5879 ddbd cbf4 eabc
000002f0: 436b 883d 913c 02be d97b bdbc 0998 0a3c
00000300: bb7e 23be f68a 20be 422a 5b3d 942c debd
00000310: 67f8 83bc b3ba bbbc 0e49 29bd bc56 aa3d
00000320: 7c93 413d 0642 c93d 1a8b f83c b309 af3d
00000330: 57a7 ab3d 9a1e 083e dd84 debd 7dd6 c33d
00000340: eac0 dd3d c8de 12be abc2 dfb9 6f97 ffbb
00000350: 1caa 393d 7b35 8a3d 0c43 31be 8f80 1fbd
00000360: a284 c63c 7e98 f3bd 6fd3 cbbc 698a 813d
00000370: 8a9a 923d a5d0 b6bd 3fd0 7f3c 6faf 98bd
00000380: 1339 c63d 11a4 163e ed71 db3c 042c 00be
00000390: 02ef 14bd d7ab b2bd 03f2 a43c 86c9 063d
000003a0: c040 3cbd f147 09be 9f9d 263d ef98 95bd
000003b0: 1a21 85bb b787 f53d 5fdf a2bd bd1f cebd
000003c0: ef41 edbd f2da e23b 63af 30bc fae4 95bd
000003d0: 243d 72bd 726b 5b3d 0bb1 3cbd e5f3 03be
000003e0: 6131 2a3d cde5 06bd 0d4f a1bd df4e 7a3d
000003f0: 3c9a d33c e809 003d 4573 82bc 5c76 0e3d

encoder_c.convs.0.bias f4 [64]
0.01134203 0.011613972 0.0152155245 0.018386295 -0.005036545 -0.0052427663 0.022165189 0.023836808
0.01970952 0.0013939317 -0.02540495 0.014345552 0.028647128 -0.016183648 0.015145123 0.01681506
0.017326066 0.007711963 -0.0022197317 0.020539815 0.059575148 0.018842302 0.019593433 0.0033732106
0.0038387356 -0.0048212027 -0.0033941467 0.0176684 0.043451685 0.023723766 0.037302177 0.014494523
0.009848265 0.0076823006 0.047487993 0.0056744916 0.0038537302 0.0017638811 0.0023840468 -0.013109517
0.036989592 -0.00133692 0.0010506787 0.022262454 0.040277716 0.03899401 0.001092674 -0.0030811483
0.017516855 0.0002813097 0.02686855 -0.016691826 0.001797563 -0.01553393 0.016247254 -0.00073095557
-0.009003571 -0.03949903 0.010913743 0.0161576 0.007493635 0.015876474 0.014241987 0.0064769266
00000000: ecd3 393c 8748 3e3c 894a 793c db9e 963c
00000010: 9a09 a5bb 83cb abbb c593 b53c 6945 c33c
00000020: dc75 a13c 96b4 b63a 0b1e d0bc 9b09 6b3c
00000030: 62ad ea3c 9293 84bc 4023 783c bdbf 893c
00000040: 65ef 8d3c a2b4 fc3b eb78 11bb 1d43 a83c
00000050: 1205 743d 2c5b 9a3c 6882 a03c 1511 5d3b
00000060: 4c93 7b3b 2efb 9dbb 5570 5ebb 52bd 903c
00000070: 65fa 313d 5858 c23c 2bca 183d 707a 6d3c
00000080: 9e5a 213c cfbb fb3b c582 423d 16f1 b93b
00000090: dd8e 7c3b 0732 e73a ab3d 1c3b 4dc9 56bc
000000a0: 6682 173d 973b afba edb6 893a c05f b63c
000000b0: 3ffa 243d 2fb8 1f3d 0e38 8f3a 17ed 49bb
000000c0: 827f 8f3c c07c 9339 6f1b dc3c 4cbd 88bc
000000d0: 359c eb3a 0682 7ebc f618 853c 999d 3fba
000000e0: b783 13bc bcc9 21bd 8ecf 323c f15c 843c
000000f0: 2b8d f53b 610f 823c 3957 693c 663c d43b

encoder_c.convs.1.weight f4 [64, 64]
0.028226508 -0.1276322 -0.11079426 -0.013873596 0.009872342 0.03414819 1.4726661e-06 0.0024141623
0.17299438 0.024182383 0.040742267 0.03807254 -0.094297074 0.02610316 3.0930388e-18 0.09816936
0.15907764 0.054774236 0.1383889 0.066130295 0.08625781 -0.0026838742 0.18680245 0.061384805
-0.041507397 0.10816262 -0.109005764 -0.02032374 0.06107124 0.046305746 -0.019856727 0.15886793
0.031285588 0.07093249 0.023067798 -0.08997611 0.011173333 -0.02157504 0.07358456 -0.022589074
0.01642931 -0.07756417 0.062529296 0.07490519 0.018322732 0.18397084 -0.0014625487 -0.033793174
0.19778658 -0.040382367 0.05759556 0.052606374 -0.048825886 -0.17617382 0.13825865 0.0032051094
-0.06531278 0.08584391 0.0448639 0.027511766 -0.04443822 0.0950526 -0.15349239 -0.032403335
-0.0810518 -0.09487133 -0.15918773 -0.066448495 -0.06251034 -0.004503983 -3.2178738e-07 -0.12231529
0.22780928 0.01091202 0.004996404 -0.025210308 -0.07526109 -0.007064451 4.164369e-19 -0.08778122
0.08494993 0.0027215923 0.15115803 -0.027379926 -0.09633407 -0.18981278 -0.111538954 0.075021975
0.21818407 0.022297136 -0.07420291 0.21796627 0.16908416 0.112216376 0.15274541 0.0148831755
0.16772401 0.13582623 -0.0321075 -0.02972493 0.023196848 -0.06271014 -0.04524819 -0.117628254
0.028893597 -0.062266506 0.23487897 0.025083441 -0.09213727 0.10021069 -0.020798588 -0.11406603
0.025456928 -0.0846772 0.22347178 -0.015682252 -0.022289516 -0.058091246 0.1804138 0.13575296
-0.116442084 0.19144477 0.19607216 0.18193421 -0.07618433 0.039127145 -0.1459583 -0.1267795
-0.011798396 0.054618444 -0.13860373 0.08082378 0.15198292 -0.1029035 -2.735875e-07 -0.017099565
-0.09370611 0.0104594175 0.039789476 0.0005789888 -0.0625508 0.08809687 -5.259947e-17 0.024838097
0.122678936 0.12638889 0.08652449 -0.0147474855 0.12205234 -0.09620772 0.07830212 0.08156333
-0.13950619 -0.031074062 0.17910874 -0.042974867 -0.06305082 0.15335613 -0.06427098 -0.09248796
-0.07235879 0.11179838 0.05634957 0.06092012 0.19948928 0.1268462 -0.00022420347 0.11827679
0.034026902 -0.12768929 -0.17107603 -0.008173223 -0.09999012 0.087060064 0.034214426 0.07285525
-0.16562735 -0.0911105 0.09211848 -0.008083175 -0.06493742 0.103199854 -0.0066408645 -0.051771536
0.16426852 -0.0652118 0.10523782 0.19298474 0.02975953 0.046705905 0.16075645 0.10386745
0.08816694 0.15703407 -0.036169793 -0.074910924 0.17780113 0.049052924 0.0055428795 -0.07136075
-0.027032813 -0.0018401948 -0.06192214 0.15370251 0.002325148 0.08701042 -1.15317505e-07 -0.17663482
-0.059727766 0.104821056 0.18979199 -0.07900718 0.20836194 0.100473925 0.11960345 0.017553126
-0.069293715 0.2131033 -0.1253805 -0.00494271 0.08889645 0.073683195 0.10996371 0.09225139
0.013243515 0.0030500416 -0.06477273 -0.12139099 0.17313036 0.005884924 -0.023827981 -0.10394922
0.09183206 0.18643497 0.15878996 0.018158194 -0.09530435 -0.060412016 0.06457242 0.10354393
-0.11548856 -0.09765345 0.08860094 -0.08822928 -0.10634222 0.11097026 -0.13828617 -0.16064142
-0.14390503 -0.078522265 0.121850275 0.077574104 -0.115581125 -0.11327603 0.13304894 0.16738561
00000000: 473b e73c 04b2 02be 1ae8 e2bd 144e 63bc
00000010: 9bbf 213c f9de 0b3d 6ca8 c535 ec36 1e3b
00000020: 7025 313e 221a c63c 5de1 263d f4f1 1b3d
00000030: d31e c1bd 4bd6 d53c da39 6422 040d c93d
00000040: 40e5 223e f35a 603d d2b5 0d3e 526f 873d
00000050: efa7 b03d f0e3 2fbb 2449 3f3e a26e 7b3d
00000060: a903 2abd 5d84 dd3d 6a3e dfbd f97d a6bc
00000070: d625 7a3d 18ab 3d3d 93aa a2bc 46ae 223e
00000080: 5125 003d 0e45 913d aef8 bc3c 6545 b8bd
00000090: 5b10 373c 23be b0bc 80b3 963d b90c b9bc
000000a0: c396 863c f7d9 9ebd 5c0f 803d e467 993d
000000b0: 8e19 963c da62 3c3e feb2 bfba b66a 0abd
000000c0: 9188 4a3e fb67 25bd 52e9 6b3d c879 573d
000000d0: a7fd 47bd e966 34be ad93 0d3e d00c 523b
000000e0: b5c2 85bd efce af3d 35c3 373d 5b60 e13c
000000f0: da04 36bd f0aa c23d 1c2d 1dbe 5cb9 04bd
00000100: 7cfe a5bd e64b c2bd 1c02 23be 2616 88bd
00000110: 6c05 80bd 2696 93bb 1fc2 acb4 7080 fabd
00000120: d646 693e 54c8 323c e0b8 a33b d985 cebc
00000130: 7d22 9abd e97c e7bb 2ad2 f520 a4c6 b3bd
00000140: 3bfa ad3d be5c 323b 2cc9 1a3e de4b e0bc
00000150: cc4a c5bd 485e 42be 896e e4bd 1fa5 993d
00000160: a56b 5f3e 7ca8 b63c b2f7 97bd 8d32 5f3e
00000170: 6624 2d3e b3d1 e53d 4b69 1c3e 90d8 733c
00000180: d8bf 2b3e 0816 0b3e 2783 03bd b281 f3bc
00000190: 5107 be3c 2d6e 80bd 2b56 39bd 15e7 f0bd
000001a0: 44b2 ec3c 2a0b 7fbd 1d84 703e ca7b cd3c
000001b0: 77b2 bcbd 433b cd3d cd61 aabc 739b e9bd
000001c0: 0c8b d03c 3d6b adbd c9d5 643e 1178 80bc
000001d0: 8198 b6bc 16f1 6dbd 65be 383e d302 0b3e
000001e0: 3079 eebd 190a 443e 24c7 483e f64c 3a3e
000001f0: 8806 9cbd c943 203d 1876 15be 7cd2 01be
00000200: 0f4e 41bc 97b7 5f3d 23ee 0dbe f086 a53d
00000210: 69a1 1b3e 12bf d2bd 94e1 92b4 6314 8cbc
00000220: fde8 bfbd fa5d 2b3c 4afa 223d 48c7 173a
00000230: a21a 80bd 226c b43d 7e92 72a4 4479 cb3c
00000240: 183f fb3d 176c 013e c033 b13d 709f 71bc
00000250: 94f6 f93d 8e08 c5bd dd5c a03d ad0a a73d
00000260: b6da 0ebe 088f febc 4868 373e 6a06 30bd
00000270: ca20 81bd 6409 1d3e 81a0 83bd 546a bdbd
00000280: d830 94bd 8df6 e43d cfce 663d 6087 793d
00000290: eb46 4c3e f8e3 013e 2918 6bb9 1a3b f23d
000002a0: cb5f 0b3d fbc0 02be 8e2e 2fbe fbe8 05bc
000002b0: 9fc7 ccbd 8c4c b23d 6d24 0c3d 2235 953d
000002c0: 379a 29be 2498 babd 9da8 bc3d 4b6f 04bc
000002d0: e9fd 84bd 725a d33d 9c9b d9bb 640e 54bd
000002e0: 0236 283e c48d 85bd ed86 d73d cb9d 453e
000002f0: 42ca f33c b14e 3f3d 579d 243e 75b8 d43d
00000300: de90 b43d 8acd 203e c726 14bd e66a 99bd
00000310: 8011 363e b8eb 483d 0ba1 b53b 9625 92bd
00000320: eb73 ddbc b132 f1ba 12a2 7dbd 3164 1d3e
00000330: 8361 183b 8532 b23d 78a4 f7b3 c2df 34be
00000340: 1aa5 74bd 6cac d63d d558 423e 84ce a1bd
00000350: d55c 553e 46c5 cd3d a7f2 f43d 93cb 8f3c
00000360: dde9 8dbd c037 5a3e bf63 00be 75f6 a1bb
00000370: 580f b63d 37e7 963d a734 e13d 4cee bc3d
00000380: 54fb 583c 35e3 473b 91a7 84bd d79b f8bd
00000390: 1649 313e 52d6 c03b e632 c3bc 54e3 d4bd
000003a0: 7212 bc3d cfe8 3e3e d699 223e 7ec0 943c
000003b0: ed2e c3bd 9772 77bd 8c3e 843d d70e d43d
000003c0: 4485 ecbd 88fe c7bd 6974 b53d 8eb1 b4bd
000003d0: f3c9 d9bd 6044 e33d e49a 0dbe 2f7f 24be
000003e0: d75b 13be 48d0 a0bd a38c f93d 2cdf 9e3d
000003f0: ccb5 ecbd 43fd e7bd fb3d 083e 2267 2b3e

encoder_c.convs.1.bias f4 [64]
0.0063424376 0.023903994 0.005843096 0.03203547 0.02586941 0.013665406 -0.023087544 0.017196434
0.017038811 0.007177149 0.022971565 -0.007205957 0.015847674 0.022435067 -0.021197764 0.03027144
0.02742524 0.032131974 0.029503468 0.005335612 0.0169859 0.0042208806 0.031284474 0.010309554
0.016701236 0.012082407 0.003181446 0.013312304 0.009263487 0.013285153 0.015851378 0.018902889
0.016917417 0.03656588 0.0133269 0.023784118 0.036575712 0.015575197 0.017494865 0.026844107
-0.006952725 0.011000801 0.01448982 0.02316407 0.029949661 0.015702698 0.039804313 0.013356675
0.023713157 -0.00197303 0.0052769445 0.02168662 -0.011498794 0.009321527 0.022830533 0.015233109
0.006268059 0.04112725 0.013195827 0.03124005 0.012628359 0.0062052784 0.008012765 0.006375135
00000000: 39d4 cf3b 4fd2 c33c 7177 bf3b a037 033d
00000010: 16ec d33c dee4 5f3c 1722 bdbc 89df 8c3c
00000020: fa94 8b3c 4a2e eb3b dd2e bc3c f31f ecbb
00000030: fbd2 813c bfc9 b73c efa6 adbc d0fb f73c
00000040: e6aa e03c d19c 033d 42b1 f13c 5cd6 ae3b
00000050: 0426 8b3c 504f 8a3b 2624 003d 67e9 283c
00000060: 08d1 883c 4af5 453c cf7f 503b da1b 5a3c
00000070: e1c5 173c f8a9 593c c0da 813c 3bda 9a3c
00000080: 6596 8a3c 1bc6 153d 1259 5a3c e9d6 c23c
00000090: 6ad0 153d 1c2f 7f3c 6451 8f3c 2ce8 db3c
000000a0: afd3 e3bb b43c 343c b666 6d3c 93c2 bd3c
000000b0: fe58 f53c f2a2 803c d909 233d f5d5 5a3c
000000c0: 1842 c23c f34d 01bb 38ea ac3b 23a8 b13c
000000d0: 7065 3cbc 51b9 183c 1907 bb3c 4a94 793c
000000e0: 4a64 cd3b 0c75 283d 4f33 583c 22eb ff3c
000000f0: 2de7 4e3c a655 cb3b f947 033c 82e6 d03b

encoder_c.convs.2.weight f4 [64, 64]
0.03354899 -0.07009754 0.09855378 -0.16151144 0.04553949 -0.06853854 -0.09649429 0.09300306
-0.16731167 -0.0806177 -0.13339868 0.163327 0.17785592 -0.042285003 0.10411797 -0.14591096
-0.025692705 0.06505054 0.18299659 0.1794302 0.16152833 -0.013809063 -0.1092263 0.0044123568
0.049264647 -0.07043313 -0.14130579 0.12179477 0.07658282 -0.17029627 0.13106722 0.008429982
-0.018639348 -0.17449753 -0.13576 -0.14751592 -0.010769527 0.12520136 -0.019126644 -0.10747527
0.18153876 0.09726434 0.05819581 -0.09949532 -0.07525004 -0.032010034 -0.048254702 -0.026955664
0.16527401 -0.08225387 -0.08550939 -0.19793148 0.0107491985 -0.04302866 0.06537672 0.08022302
0.18721645 0.014033911 0.045880917 0.14499599 -0.17882603 -0.08427041 0.009512732 0.045594703
-0.018271895 0.12164998 0.0009406792 0.15961033 -0.041213825 -0.10200324 0.0008794037 0.099393316
-0.011033186 0.0028269389 0.14694545 -0.06662775 -0.22145532 -0.10698227 -0.071309574 -0.09793995
0.118779786 -0.092279434 0.1430795 -0.09952807 -0.064483 -0.13926856 0.045958567 0.027380522
-0.03974434 0.20444421 -0.029209 -0.040736854 0.0633637 0.04920355 0.099281184 0.14272426
0.029498208 0.11181136 0.11847409 -0.13398139 -0.08908787 0.12696625 -0.14791434 -0.07512152
0.2369549 0.0019626147 -0.107989736 0.024467053 0.115935676 -0.014576274 0.010680397 -0.17721519
-0.10706176 -0.14347628 0.15922342 -0.054031555 0.12081709 0.22974862 0.14485426 0.13157582
0.19404973 -0.10890628 -0.17802052 0.16315089 -0.060873084 -0.013656585 -0.018798295 0.07065194
-0.06586179 -0.09185185 0.12893337 0.20657001 -0.06560449 -0.05879643 0.042807397 0.14439532
-0.05045687 -0.060396217 -0.012290897 -0.20494002 -0.13521516 -0.029702922 -0.1058762 -0.17193621
-0.07797183 -0.19180495 -0.19349197 0.06743772 -0.11313839 0.054536883 -0.008788665 -0.11648689
-0.099875465 0.09530477 -0.19590873 -0.015068833 0.18674795 0.20247753 0.010136134 0.12628461
0.07053956 -0.13586558 -0.21506497 -0.10508095 -0.20426618 0.05913063 -0.1426831 0.039213385
0.1546264 -0.08363162 0.052970883 0.024342285 -0.02427816 0.06373745 -0.009652676 0.07586707
-0.004761563 0.10855395 0.19911395 -0.03343917 0.11612948 -0.09581142 0.12554863 -0.097559705
-0.06518818 -0.06804651 -0.1305835 0.027658321 -0.18544248 0.091767184 0.017665867 -0.19923086
-0.13281609 -0.1910988 -0.06111801 -0.10102294 -0.10095717 -0.0888841 -0.1197203 0.13138148
0.15423022 -0.13378811 0.12060786 -0.012579308 -0.025866995 -0.206337 -0.0003957961 0.09627729
0.06248937 0.18106109 0.10184774 -0.04808979 -0.023104599 0.13956937 -0.10208963 -0.095705085
-0.007823954 0.10986539 -0.10656597 0.10233255 0.08867308 0.078656465 -0.119538635 -0.049334098
0.056756668 -0.09531124 0.014687157 -0.0014686816 0.12972763 0.044804882 0.14129803 0.16924906
0.11366259 -0.14326657 0.06732462 -0.015535625 -0.07961912 -0.11066244 -0.15492567 -0.16078906
-0.012396239 -0.044508513 -0.015024798 0.1206805 -0.07152385 -0.10845579 0.039096538 -0.12793091
-0.018517373 0.021020135 -0.098501526 0.024833411 -0.10946745 0.043205943 -0.0014179721 -0.14641373
00000000: aa6a 093d 4d8f 8fbd 90d6 c93d 4163 25be
00000010: 9e87 3a3d ef5d 8cbd cc9e c5bd 6378 be3d
00000020: c053 2bbe e51a a5bd aa99 08be 313f 273e
00000030: dd1f 363e 0a33 2dbd cd3b d53d af69 15be
00000040: 8279 d2bc 3839 853d 7563 3b3e 8dbc 373e
00000050: af67 253e 683f 62bc 0ab2 dfbd 8895 903b
00000060: bac9 493d 3f3f 90bd 77b2 10be 896f f93d
00000070: 74d7 9c3d 2562 2ebe 7c36 063e e81d 0a3c
00000080: 8cb1 98bc 7baf 32be ab04 0bbe 6a0e 17be
00000090: ac72 30bc c934 003e 7baf 9cbc ff1b dcbd
000000a0: 4ce5 393e 8732 c73d bb5e 6e3d 34c4 cbbd
000000b0: b11c 9abd f41c 03bd b9a6 45bd 20d2 dcbc
000000c0: 973d 293e b874 a8bd 8c1f afbd 8dae 4abe
000000d0: 681d 303c d23e 30bd 3be4 853d f74b a43d
000000e0: abb5 3f3e 7dee 653c a1ed 3b3d d479 143e
000000f0: 2c1e 37be f795 acbd 4adb 1b3c 83c1 3a3d
00000100: f1ae 95bc a023 f93d ea97 763a e470 233e
00000110: d4cf 28bd 13e7 d0bd c987 663a b98e cb3d
00000120: 89c4 34bc 2a44 393b de78 163e 2174 88bd
00000130: 2fc5 62be 8519 dbbd c10a 92bd be94 c8bd
00000140: d142 f33d 00fd bcbd 6f83 123e 5fd5 cbbd
00000150: aa0f 84bd 6b9c 0ebe 0d3f 3c3d 1e4d e03c
00000160: f6ca 22bd d359 513e b647 efbc b0db 26bd
00000170: d4c4 813d a989 493d ef53 cb3d 4f26 123e
00000180: 3aa6 f13c 5bfd e43d 8ba2 f23d 6b32 09be
00000190: b473 b6bd 7103 023e db76 17be 50d9 99bd
000001a0: 4ea4 723e 369f 003b b929 ddbd 216f c83c
000001b0: af6f ed3d 53d1 6ebc d5fc 2e3c e677 35be
000001c0: 3243 dbbd 72eb 12be 770b 233e 3150 5dbd
000001d0: f36e f73d 3943 6b3e ad54 143e d0bb 063e
000001e0: f9b4 463e 410a dfbd 034b 36be 0711 273e
000001f0: 0e56 79bd debf 5fbc e2fe 99bc f7b1 903d
00000200: 8ce2 86bd d31c bcbd 1c07 043e 1787 533e
00000210: a65b 86bd 86d4 70bd cf56 2f3d 5edc 133e
00000220: ddab 4ebd 0662 77bd c25f 49bc ccdb 51be
00000230: d875 0abe 8b53 f3bc 9fd5 d8bd 0c10 30be
00000240: b2af 9fbd 8468 44be c222 46be ca1c 8a3d
00000250: 1ab5 e7bd 1162 5f3d 55fe 0fbc ae90 eebd
00000260: 828b ccbd 262f c33d 4c9c 48be 44e3 76bc
00000270: db3a 3f3e 4556 4f3e 0712 263c c150 013e
00000280: 0b77 903d 5920 0bbe fe39 5cbe ae34 d7bd
00000290: 272b 51be f632 723d 851b 12be 379e 203d
000002a0: 6256 1e3e 0e47 abbd fff7 583d 7969 c73c
000002b0: fee2 c6bc c888 823d 4226 1ebc 3260 9b3d
000002c0: e306 9cbb 8951 de3d 87e4 4b3e 83f7 08bd
000002d0: 4bd5 ed3d c738 c4bd d28f 003e 62cd c7bd
000002e0: 6181 85bd f85b 8bbd aeb7 05be b493 e23c
000002f0: a2e4 3dbe 6ff0 bb3d 02b8 903c 2d03 4cbe
00000300: f100 08be 67af 43be e156 7abd 1de5 cebd
00000310: a2c2 cebd de08 b6bd eb2f f5bd de88 063e
00000320: 87ee 1d3e c0ff 08be 4101 f73d 7119 4ebc
00000330: 05e7 d3bc 024a 53be da82 cfb9 072d c53d
00000340: dbf4 7f3d 1468 393e 8c95 d03d cdf9 44bd
00000350: db45 bdbc 46eb 0e3e 5e14 d1bd 0701 c4bd
00000360: 0b30 00bc 1b01 e13d 423f dabd ba93 d13d
00000370: 3b9a b53d a416 a13d acd0 f4bd 8d12 4abd
00000380: ae79 683d 8a32 c3bd 67a2 703c c780 c0ba
00000390: 52d7 043e 5385 373d 6eb0 103e a04f 2d3e
000003a0: efc7 e83d 79b4 12be 7ee1 893d 2289 7ebc
000003b0: 590f a3bd fda2 e2bd d6a4 1ebe e3a5 24be
000003c0: 9819 4bbc 8f4e 36bd 922a 76bc 5727 f73d
000003d0: 197b 92bd 121e debd b123 203d 5200 03be
000003e0: bfb1 97bc 6b32 ac3c 2bbb c9bd 706f cb3c
000003f0: 7830 e0bd b7f8 303d 40db b9ba 7bed 15be

encoder_c.convs.2.bias f4 [64]
-0.019105172 0.00043078093 -0.016422078 -0.015498501 -0.01255921 -0.028134668 0.0038122598 0.025980888
0.015960451 -0.007495044 -0.00011841801 0.0042405017 0.010854498 -0.004624616 -0.011847024 0.021195946
-0.0022609106 0.0064462237 0.023271825 -0.0043121786 -0.018001888 0.027768979 -0.021192618 -0.030126765
0.020676203 -0.012553946 0.022933282 -0.0102928495 -0.00014865016 0.000579603 -0.005529842 0.0331817
0.024646422 0.006658998 0.008594766 -0.02898069 -0.0036460909 -0.0045026033 -0.02003416 0.022521114
0.008116874 -0.026237592 0.012871498 0.02899091 0.00018165812 -0.02661632 -0.018047528 -0.0069716056
0.028699007 -0.02303039 -0.0009511705 0.007751567 -0.016380947 8.136459e-05 -0.009582791 0.020527033
-0.0037670287 0.014474721 0.00069683936 0.026377255 -0.013927042 -0.016721845 0.012738497 0.0034119987
00000000: 7382 9cbc 70da e139 9887 86bc 6ded 7dbc
00000010: 25c5 4dbc ad7a e6bc 1bd7 793b dfd5 d43c
00000020: 7ebf 823c fc98 f5bb 2f57 f8b8 e8f3 8a3b
00000030: 10d7 313c 178a 97bb 051a 42bc 1fa3 ad3c
00000040: c92b 14bb d83a d33b 8ea4 be3c 2d4d 8dbb
00000050: b278 93bc c57b e33c 249c adbc 68cc f6bc
00000060: 2461 a93c 11af 4dbc 94de bb3c 57a3 28bc
00000070: f9de 1bb9 80f0 173a ad33 b5bb 89e9 073d
00000080: 4be7 c93c b933 da3b 10d1 0c3c e968 edbc
00000090: 41f3 6ebb 938a 93bb ae1e a4bc 337e b83c
000000a0: a3fc 043c 38f0 d6bc fae2 523c 587e ed3c
000000b0: 7b7b 3e39 780a dabc 69d8 93bc 1172 e4bb
000000c0: 2e1a eb3c 3aaa bcbc f957 79ba db00 fe3b
000000d0: 5631 86bc 48a2 aa38 2301 1dbc 4f28 a83c
000000e0: 41e0 76bb 6127 6d3c 19ac 363a 1d15 d83c
000000f0: 3f2e 64bc 40fc 88bc 21b5 503c d79b 5f3b

encoder_b.convs.0.weight f4 [116, 64]
-0.061615646 -0.034197554 -0.09433638 -0.12463804 -0.027956665 0.05200363 0.10781884 0.039978284
0.121550776 0.027384883 0.012653372 0.121478125 -0.095134474 -0.0032106237 0.10883782 -0.022874655
-0.012932166 0.032422256 0.07478805 -0.043002985 0.015893672 -0.041410506 0.021582957 0.08520047
0.060318433 0.11734693 0.014041941 0.0024367631 0.026419068 -0.028661491 -0.02202988 -0.0064650676
0.06462877 -0.03206765 -0.078730084 0.02510038 0.12524876 -0.04032555 -0.06266247 -0.12292424
-0.10814933 -0.1196116 -0.093185954 -0.071831435 -0.035842825 0.08193141 -0.01384378 0.13425756
-0.063649304 0.0475016 -0.094610795 -0.064286456 0.029040985 -0.08814167 -0.10992444 -0.00060526986
0.085875325 0.014917856 0.0140440175 -0.06864138 0.029528206 0.048403062 0.074633226 0.011797683
0.0701842 0.05570264 -0.026687723 -0.1232994 -0.007842861 0.07457093 -0.012005273 -0.119962156
0.07486337 0.049316935 -0.0037592442 -0.10860086 0.013999494 0.08214325 0.11378579 -0.007878664
-0.076546505 0.1039047 0.13113616 -0.0017761986 -0.04973486 0.033089623 -0.06686219 0.10537005
-0.02287117 -0.016430676 -0.0100835655 -0.05747097 0.029673805 0.0068819406 0.099989496 -0.099015705
-0.03945432 0.030176442 -0.1258716 -0.043306157 0.06699402 0.11038285 -0.014669445 -0.044748675
-0.061569273 0.05924659 0.012064291 -0.056865808 -0.030578407 -0.108392194 -0.02783107 0.014455768
0.09709211 -0.023678746 0.0735715 0.11477817 0.093766734 0.05373702 -0.06672286 -0.061570674
-0.06607035 0.0030184411 -0.037923004 -0.10394577 0.07752865 0.03411376 0.04598651 0.047794294
0.08183674 0.03151438 0.062900566 0.073827475 -0.019445326 -0.044855263 -0.08492814 -0.119157396
-0.0670409 0.06241572 -0.049604096 0.06266923 -0.0028356635 0.015089488 -0.036366843 -0.050596245
-0.10711191 -0.0388703 -0.035465483 -0.08394558 -0.06686051 0.0880891 -0.12205017 -0.117526904
0.08581361 -0.09793088 -0.039635908 0.02481285 0.014335222 0.10020528 0.015279945 0.023066023
0.078835145 -0.065786764 -0.11075734 0.041864492 -0.06027962 -0.12112231 0.003889113 0.108024396
0.027434416 -0.11453023 -0.055520855 -0.004504055 -0.08244056 -0.05038564 0.05604189 0.11833627
-0.016692005 0.0329219 -0.08131035 0.05165573 0.121368915 0.006830641 -0.082528695 0.039515242
-0.105766594 0.05375661 0.01672576 -0.020275908 0.0007169126 0.004347897 -0.09580352 0.023408888
0.08723888 -0.049537916 0.041171305 -0.01033833 -0.018123675 0.07887409 -0.0022851445 0.04835004
0.10444226 -0.06828631 -0.03533855 -0.037430044 0.07379702 -0.099737756 -0.03700256 0.07908446
0.02381362 -0.09462239 0.035098404 0.047513153 -0.06822673 -0.0044967392 0.089536 -0.0034910971
-0.075335234 0.004240267 0.058856416 0.02553999 -0.024862526 1.4515587e-05 0.067343436 -0.042750306
-0.031613376 0.10037067 0.1243712 0.016140284 0.041403886 -0.03127205 0.102665074 0.008715719
0.07427173 -0.0060832663 -0.09115011 0.06706493 -0.06842732 0.113826565 -0.039534736 0.050431024
0.04506473 -0.09413554 0.05191884 -0.103101626 0.017213456 -0.0055044037 -0.0973224 0.06671131
-0.064132445 -0.0879489 0.11368952 0.062822424 -0.08689729 -0.12620933 -0.06511063 -0.071382165
00000000: b060 7cbd bc12 0cbd 6f33 c1bd 3b42 ffbd
00000010: 6005 e5bc c201 553d 20d0 dc3d 45c0 233d
00000020: 9def f83d 4356 e03c 1750 4f3c 86c9 f83d
00000030: ddd5 c2bd 5469 52bb 5de6 de3d a163 bbbc
00000040: 70e1 53bc 33cd 043d 7a2a 993d e623 30bd
00000050: 7233 823c 109e 29bd bece b03c 967d ae3d
00000060: 7610 773d 9653 f03d 2b10 663c 1ab2 1f3b
00000070: cd6c d83c 81cb eabc 0278 b4bc ebd8 d3bb
00000080: 175c 843d 5e59 03bd 3d3d a1bd 509f cd3c
00000090: 3641 003e 672c 25bd 2e55 80bd b4bf fbbd
000000a0: 657d ddbd edf6 f4bd 47d8 bebd 5c1c 93bd
000000b0: edcf 12bd a8cb a73d 06d1 62bc d07a 093e
000000c0: 915a 82bd 0a91 423d 4ec3 c1bd 9ea8 83bd
000000d0: 5ce7 ed3c 9f83 b4bd 1120 e1bd f9aa 1eba
000000e0: 67df af3d 066a 743c e118 663c da93 8cbd
000000f0: 23e5 f13c 4a42 463d 4ed9 983d 124b 413c
00000100: bcbc 8f3d 7428 643d 36a0 dabc 6584 fcbd
00000110: 587f 00bc a5b8 983d c4b1 44bc b8ae f5bd
00000120: f751 993d 8e00 4a3d a75d 76bb 216a debd
00000130: 225e 653c b83a a83d 8608 e93d 8315 01bc
00000140: 6ac4 9cbd fdcb d43d 8f48 063e 56cf e8ba
00000150: c8b6 4bbd fc88 073d 0bef 88bd 41cc d73d
00000160: 525c bbbc a099 86bc 8a35 25bc ae66 6bbd
00000170: 7b16 f33c e781 e13b 4bc7 cc3d bfc8 cabd
00000180: da9a 21bd 9634 f73c 7ce4 00be cc61 31bd
00000190: 2934 893d 6710 e23d 1d58 70bc 634a 37bd
000001a0: 1030 7cbd 8dac 723d 4ea9 453c 1fec 68bd
000001b0: 917f fabc bafc ddbd fcfd e3bc e3d7 6c3c
000001c0: 3ad8 c63d eef9 c1bc a8ac 963d d110 eb3d
000001d0: c608 c03d 591b 5c3d ffa5 88bd 8831 7cbd
000001e0: e44f 87bd 0ad1 453b 2755 1bbd 85e1 d4bd
000001f0: 57c7 9e3d dfba 0b3d 5a5c 3c3d f3c3 433d
00000200: 059a a73d 3915 013d 03d2 803d dc32 973d
00000210: ce4b 9fbc 27ba 37bd ceee adbd cb08 f4bd
00000220: bd4c 89bd a0a7 7f3d aa2d 4bbd ba58 803d
00000230: 8ad6 39bb e639 773c 66f5 14bd 023e 4fbd
00000240: 7d5d dbbd 7736 1fbd 4144 11bd a9eb abbd
00000250: 2aee 88bd 0f68 b43d 71f5 f9bd f2b1 f0bd
00000260: 0cbf af3d fc8f c8bd 4359 22bd 5144 cb3c
00000270: 47de 6a3c 6d38 cd3d bc58 7a3c f5f4 bc3c
00000280: 5274 a13d 36bb 86bd bfd4 e2bd 1a7a 2b3d
00000290: c3e7 76bd f90e f8bd 7de0 7e3b e53b dd3d
000002a0: 24be e03c d38e eabd d669 63bd c096 93bb
000002b0: 99d6 a8bd 2c61 4ebd 2e8c 653d 495a f23d
000002c0: acbd 88bc 1dd9 063d 0a86 a6bd f594 533d
000002d0: 4490 f83d 92d3 df3b ce04 a9bd bcda 213d
000002e0: 289c d8bd e42f 5c3d 7604 893c a919 a6bc
000002f0: 31ef 3b3a ce78 8e3b a334 c4bd ffc3 bf3c
00000300: 4caa b23d 45e8 4abd 3ea3 283d 1962 29bc
00000310: 1a78 94bc bd88 a13d 5dc2 15bb b10a 463d
00000320: d3e5 d53d b1d9 8bbd 28bf 10bd 3f50 19bd
00000330: e422 973d 4f43 ccbd ff8f 17bd 09f7 a13d
00000340: c814 c33c 62c9 c1bd 58c3 0f3d 279d 423d
00000350: 75ba 8bbd 6259 93bb a65e b73d e4ca 64bb
00000360: 5c49 9abd f0f1 8a3b 6d13 713d 3e39 d13c
00000370: 7fac cbbc f987 7337 5beb 893d f21a 2fbd
00000380: 077d 01bd 238f cd3d 54b6 fe3d a138 843c
00000390: 1f97 293d 1f17 00bd 1142 d23d 60cc 0e3c
000003a0: c71b 983d 2356 c7bb e9ac babd 5759 893d
000003b0: 9f23 8cbd e71d e93d 2def 21bd c390 4e3d
000003c0: cb95 383d 22ca c0bd d9a8 543d f226 d3bd
000003d0: 3c03 8d3c 495e b4bb f750 c7bd f09f 883d
000003e0: df57 83bd 8e1e b4bd 0dd6 e83d 0ba9 803d
000003f0: 35f7 b1bd 053d 01be b958 85bd d030 92bd

encoder_b.convs.0.bias f4 [64]
-0.010407764 -0.0040724156 0.013601726 0.004612966 -0.0034487655 0.0057804054 0.0067798775 -0.0038324133
-0.0044148997 0.0022584375 0.003560231 0.005475153 -0.013063374 -0.00664732 0.0016852146 0.0074339467
0.009276448 0.013387629 -0.00109066 0.013482781 -0.0033244386 0.0071755536 0.01045219 0.015647504
-0.006563978 0.015904102 -0.009225116 0.00013134806 -0.010907643 0.0054916595 0.011162333 0.0091125835
-0.0035784487 0.0013728857 -0.007844642 0.009714115 -0.00053966773 0.011981855 0.0042314315 0.012972244
-0.0005838444 0.0052145934 -0.0035672484 -0.008973223 0.014850156 0.004796153 0.009870063 0.013875768
0.0013361839 0.0073553356 0.0012016569 0.0011455478 0.0037908473 -0.009072035 0.011377075 -0.0047542416
0.0070469435 -0.0150054125 0.010067604 -0.0058179344 -0.004088312 0.00604874 -4.875473e-06 0.013434853
00000000: 5485 2abc e671 85bb c6d9 5e3c 5d28 973b
00000010: af04 62bb 8e69 bd3b bc29 de3b 3a29 7bbb
00000020: ddaa 90bb 4b02 143b c452 693b ea68 b33b
00000030: c307 56bc c3d1 d9bb 6be2 dc3a 7798 f33b
00000040: 3efc 173c c957 5b3c 7af4 8eba e2e6 5c3c
00000050: d3de 59bb e820 eb3b aa3f 2b3c 322f 803c
00000060: a316 d7bb 5249 823c f124 17bc 7aba 0939
00000070: f8b5 32bc 61f3 b33b 38e2 363c f24c 153c
00000080: 6884 6abb 66f2 b33a d086 00bc f427 1f3c
00000090: 7d78 0dba 8b4f 443c d2a7 8a3b 8989 543c
000000a0: 220d 19ba 2edf aa3b 7fc8 69bb 6d04 13bc
000000b0: 124e 733c 0c29 9d3b 0bb6 213c 3057 633c
000000c0: e422 af3a 0705 f13b ea80 9d3a 3526 963a
000000d0: dd6f 783b dfa2 14bc e966 3a3c 78c9 9bbb
000000e0: 0cea e63b 43d9 75bc 97f2 243c 5fa4 bebb
000000f0: 3ff7 85bb 8234 c63b ff97 a3b6 dc1d 5c3c

encoder_b.convs.1.weight f4 [64, 64]
-0.022300411 -0.1199691 0.011874054 0.099450186 0.05369429 -0.00022724541 -0.12227846 0.14103937
-0.14070144 -0.06539759 0.059447847 -0.10447809 0.059943836 0.04711377 -0.0040742867 -0.08933521
0.0011203215 0.12523478 0.0022826625 -0.0019027491 0.14955758 -0.037102066 -0.08883022 0.013027761
0.11046166 -0.0049093314 0.073169164 0.005114916 -0.047566272 0.109850965 -0.08781493 -0.06047761
0.14043273 -0.02389902 -0.009760028 -0.124811396 0.0010974861 0.08108522 0.089827985 0.03232005
0.0016680057 -0.030801456 -0.07868961 0.15045005 -0.027135516 0.120612815 0.06790815 -0.13064547
0.07628276 0.089855015 0.06821974 -0.102425314 0.014208689 -0.024172148 0.1483794 -0.119114324
0.13099721 -0.04115682 -0.06441804 0.09582204 0.034474332 0.030117152 -0.09956408 -0.04664385
-0.03361853 0.017442372 -0.05036009 -0.019654322 -0.03017149 9.130373e-05 -0.020382574 -0.022536643
0.14170659 0.0061776615 0.06355494 -0.1352578 0.14492767 -0.077585466 0.0011495523 0.11728813
0.13846257 -0.012155016 -0.14600821 0.076642424 0.029367952 0.015260866 0.15102242 -0.033516843
0.067809604 0.10466941 0.09849687 0.0010526591 0.0054723294 0.102228306 -0.059473015 -0.042549983
-0.13339618 -0.037549417 0.056521807 0.06407322 -0.10403231 -0.06509839 0.08554607 0.15272309
0.00028000106 0.00611814 -0.09833686 0.09752512 -0.09597994 0.051556643 -0.14193362 0.01855547
-0.13067785 -0.074786276 0.14529775 -0.0040037776 0.0010160587 -0.0484915 0.074175924 -0.067196645
-0.067980595 -0.07319137 -0.05992256 0.108226985 -0.06229353 0.07588354 -0.08184245 0.12706012
-0.07951236 0.0838959 -0.0131931305 0.017560424 -0.09709238 -0.09831001 8.909259e-05 0.0008804718
-0.064621575 -0.081259415 -0.065941215 0.09970941 0.13737284 -0.055637248 -0.028708167 -0.06365425
-0.12065078 -0.009523336 0.025698053 0.10838169 -0.14415537 -0.009129425 -0.06460611 -0.13318358
0.13025269 -0.0007890287 0.12537183 -0.035745673 -0.038298927 0.08777902 -0.05482524 0.13718016
0.043782704 0.033039037 -0.003637227 0.018583138 0.11844916 0.057835 0.12201802 0.1523715
5.980726e-05 -0.10422222 -0.018591085 0.11917731 -0.07633868 0.020183576 -0.13414794 -0.047934927
-0.03743333 -0.039022997 0.007357904 -0.107726194 0.05260845 -4.42564e-05 -0.01561056 0.14093731
-0.006501216 0.018402025 0.09276672 1.6918179e-05 -0.0012490028 0.040732745 0.1489797 0.067774355
0.09245448 -0.058295418 -0.0048127915 0.14070652 0.03780393 -0.0003565897 -0.04156308 -0.0017529348
-0.06706815 -0.006951839 0.072834164 0.04473389 0.058157817 0.021176156 -0.0125201475 -0.018829118
-0.021104392 0.05099542 0.04203666 0.053260002 0.1400533 0.020671947 0.06773629 -0.024143863
-0.11168694 0.053641982 -0.05716818 -0.06326685 0.00086338836 0.03735563 -0.06939169 0.076027416
0.07902687 0.024848897 -0.016710654 -0.032516103 0.0264672 0.024829775 -0.08122849 0.003962126
-0.045540612 -0.048638858 0.07280214 0.0019361142 -0.0030776497 0.13396415 -0.08055531 -0.07881238
-0.12817465 -0.13054779 0.02668947 0.10830669 -0.006160782 0.0068457667 0.121479966 -0.050716314
0.007019065 0.059488557 0.1400114 0.12977919 -0.053642668 -0.010262369 -0.068404324 -0.13930829
00000000: 5aaf b6bc 5cb2 f5bd 648b 423c 8aac cb3d
00000010: 8bee 5b3d ba48 6eb9 216d fabd a06c 103e
00000020: 0a14 10be 2cef 85bd 967f 733d 9cf8 d5bd
00000030: ab87 753d 5efa 403d 9881 85bb 61f5 b6bd
00000040: c0d7 923a 8c3d 003e b998 153b aa65 f9ba
00000050: 9f25 193e 56f8 17bd 9eec b5bd 6472 553c
00000060: b939 e23d 75de a0bb b7d9 953d 069b a73b
00000070: dad4 42bd 8bf9 e03d 50d8 b3bd 5fb7 77bd
00000080: 99cd 0f3e e1c7 c3bc 86e8 1fbc 1e9d ffbd
00000090: 86d9 8f3a 0210 a63d bcf7 b73d 0762 043d
000000a0: fca0 da3a 5653 fcbc 0528 a1bd 940f 1a3e
000000b0: 4d4b debc da03 f73d 6e13 8b3d edc7 05be
000000c0: 233a 9c3d e805 b83d cbb6 8b3d 5dc4 d1bd
000000d0: 90cb 683c ab04 c6bc c5f0 173e 36f2 f3bd
000000e0: 2224 063e 0e94 28bd 9bed 83bd 593e c43d
000000f0: f534 0d3d 3fb8 f63c 41e8 cbbd 9f0d 3fbd
00000100: 95b3 09bd 4ee3 8e3c 6246 4ebd 1a02 a1bc
00000110: 332a f7bc 517a bf38 5bf9 a6bc c49e b8bc
00000120: 881b 113e fb6d ca3b 1829 823d 0581 0abe
00000130: eb67 143e 21e5 9ebd 93ac 963a c234 f03d
00000140: 22c9 0d3e d525 47bc 2d83 15be b4f6 9c3d
00000150: 0f95 f03c b608 7a3c 9fa5 1a3e f548 09bd
00000160: c3df 8a3d ea5c d63d bab8 c93d 61f9 893a
00000170: 3a51 b33b 135d d13d fa99 73bd e448 2ebd
00000180: 0299 08be 6bcd 19bd 6983 673d d238 833d
00000190: e40e d5bd 4e52 85bd c732 af3d 7163 1c3e
000001a0: 1bcd 9239 ae7a c83b d664 c9bd 40bb c73d
000001b0: 2191 c4bd 0f2d 533d 0c57 11be a401 983c
000001c0: 6ad0 05be 8c29 99bd efc8 143e 1f32 83bb
000001d0: 462d 853a 069f 46bd 8ce9 973d 659e 89bd
000001e0: 6939 8bbd 5be5 95bd 5c71 75bd 1ca6 dd3d
000001f0: 8027 7fbd d468 9b3d 049d a7bd 0c1c 023e
00000200: 60d7 a2bd 9dd1 ab3d 0028 58bc e1da 8f3c
00000210: 5fd8 c6bd c256 c9bd 38d7 ba38 76cf 663a
00000220: 5158 84bd 566b a6bd 300c 87bd 7234 cc3d
00000230: 77ab 0c3e e2e3 63bd 642d ebbc 295d 82bd
00000240: c217 f7bd c407 1cbc b984 d23c 38f7 dd3d
00000250: 779d 13be 9593 15bc 3550 84bd 4761 08be
00000260: f660 053e d2d6 4eba 7961 003e 0e6a 12bd
00000270: 56df 1cbd 7dc5 b33d 6e90 60bd f578 0c3e
00000280: 7e55 333d f153 073d 8b5e 6ebb aa3b 983c
00000290: 7995 f23d 65e4 6c3d 95e4 f93d 4607 1c3e
000002a0: 8ed9 7a38 7672 d5bd 554c 98bc 3c13 f43d
000002b0: 7457 9cbd 0758 a53c 145e 09be 6a57 44bd
000002c0: b153 19bd 94d6 1fbd 931a f13b 8d9f dcbd
000002d0: f57b 573d f39f 39b8 6fc3 7fbc df51 103e
000002e0: 2708 d5bb d8bf 963c 7afc bd3d 83eb 8d37
000002f0: 94b5 a3ba 61d7 263d 228e 183e 48cd 8a3d
00000300: c658 bd3d 2dc7 6ebd 9fb4 9dbb 5f15 103e
00000310: 4bd8 1a3d a9f4 bab9 0c3e 2abd bbc2 e5ba
00000320: 075b 89bd 41cc e3bb 142a 953d e23a 373d
00000330: e436 6e3d 9e79 ad3c 4e21 4dbc 863f 9abc
00000340: 1ee3 acbc 93e0 503d a22e 2c3d 2927 5a3d
00000350: 226a 0f3e 3758 a93c 53b9 8a3d 5ac9 c5bc
00000360: 1fbc e4bd b2b7 5b3d 2e29 6abd 0d92 81bd
00000370: 0355 623a 3802 193d 3b1d 8ebd 43b4 9b3d
00000380: d7d8 a13d ea8f cb3c c8e4 88bc 9b2f 05bd
00000390: bed1 d83c d067 cb3c 1f5b a6bd b9d4 813b
000003a0: cb88 3abd 8a39 47bd 4a19 953d 36c5 fd3a
000003b0: 65b2 49bb e62d 093e 2ffa a4bd 6368 a1bd
000003c0: 3740 03be 52ae 05be e0a3 da3c e6cf dd3d
000003d0: 63e0 c9bb 7452 e03b 7dca f83d e9bb 4fbd
000003e0: 2f00 e63b 46aa 733d 265f 0f3e d6e4 043e
000003f0: 6ab8 5bbd 7f23 28bc 9117 8cbd d5a6 0ebe

encoder_b.convs.1.bias f4 [64]
-0.0032967231 0.012542084 -0.001447842 -0.00185048 0.011554395 -0.0048532584 0.00730196 -0.0016659385
-0.00515332 -0.008044947 0.00031820723 0.012604495 0.01640353 -0.004976433 0.0022270987 -0.0068279803
0.008439427 -0.00034732153 0.015558218 0.0013990847 -0.008019695 -0.0041349297 0.01738642 0.0028231556
0.0022945206 -0.0025457707 0.0015882915 0.0015398844 0.002714583 -0.0052904235 0.0078665465 0.015131938
0.008145651 0.00982154 -0.0050139856 -0.0052810656 -0.003973432 -0.003906922 0.0035914779 -0.011668912
-0.0024021445 -0.008426344 -0.0041014636 -0.0005609358 0.013387205 0.014731861 -0.0010055896 -0.006598853
-0.0024309985 0.00010390462 -0.0018851239 -0.00068906875 -0.00068826095 -0.005822934 0.0030087242 -0.003748428
0.0049952525 -0.0044290186 -0.0012541945 -0.0024098065 0.008175118 0.0062498427 0.013797793 0.0025283105
00000000: d60d 58bb 507d 4d3c 84c5 bdba ce8b f2ba
00000010: a54e 3d3c 1508 9fbb 4845 ef3b 9f5b daba
00000020: 2edd a8bb f4ce 03bc 0dd5 a639 1583 4e3c
00000030: b260 863c 5811 a3bb 84f4 113b 40bd dfbb
00000040: 8645 0a3c b518 b6b9 e5e7 7e3c 7e61 b73a
00000050: 0a65 03bc 4e7e 87bb f76d 8e3c b104 393b
00000060: ab5f 163b f2d6 26bb 382e d03a f2d5 c93a
00000070: 25e7 313b 4a5b adbb b0e2 003c f3eb 773c
00000080: 5675 053c 86ea 203c 5c4c a4bb ca0c adbb
00000090: 9033 82bb a305 80bb 005f 6b3b f72e 3fbc
000000a0: 4c6d 1dbb a60e 0abc 9265 86bb c40b 13ba
000000b0: 0256 5b3c e75d 713c fdcd 83ba 313b d8bb
000000c0: 6351 1fbb 5ee7 d938 4316 f7ba 9fa2 34ba
000000d0: 696c 34ba 50ce bebb 042e 453b 30a8 75bb
000000e0: 37af a33b 4d21 91bb c963 a4ba d8ed 1dbb
000000f0: eef0 053c 7bcb cc3b 2310 623c 03b2 253b

encoder_b.convs.2.weight f4 [64, 64]
-0.041100536 0.019571997 -0.0057362076 0.065467335 0.044823032 -0.019084321 0.014964377 0.023120087
0.021867275 -0.11006618 0.07011208 0.023544148 0.13179685 0.039382637 -0.0010314786 0.09928052
-0.10328775 -0.0125004025 0.022382613 -0.022072371 0.00971653 0.1433193 0.12669751 -0.013420457
-0.12360956 0.01649303 -0.13411479 0.072963566 -0.015828332 0.11167061 0.05061859 0.14394726
-0.13814874 0.0034204284 0.04395155 -0.07348298 0.14037386 0.099083796 -0.033988893 -0.060670566
-0.012800421 0.079027064 -0.13080661 -0.13296984 0.042407725 -0.09622554 0.049164124 0.0037780197
-0.087496504 -0.05359092 0.07683003 -0.13130416 0.11362762 -0.02197088 -0.10316406 0.061405446
0.07848526 -0.03918949 -0.100995645 -0.12369578 -0.09849615 -0.021221943 -0.04841192 0.05858637
0.101413526 -0.05841377 0.1051819 -0.09595119 -0.06511543 0.038240008 0.07727914 0.00537887
-0.11887883 -0.010050765 -0.02980136 -0.025589734 -0.03635274 -0.018217033 0.0079439245 -0.04403386
0.008141874 0.12132809 -0.15332882 -0.04600293 0.0013653871 0.11649394 0.030170582 -0.11714063
0.018602967 0.029959856 -0.13722362 -0.06385538 -0.14686161 0.08629289 0.15922333 -0.037033916
0.11611877 -0.07139365 0.048441455 -0.124176025 0.14700519 0.096637376 -0.07470088 -0.099578254
-0.051810067 -0.12511346 0.054105185 0.14261793 -0.0483507 0.119432196 -0.054696973 -0.060170174
-0.040927272 0.019927995 -0.11074077 0.007163245 0.10724773 0.059334595 -0.004466737 -0.058816794
-0.009154914 -0.10967544 0.04438599 -0.05108909 0.13025668 -0.096253514 -0.14616062 0.1208816
-0.08475377 -0.002962491 0.00012730366 -0.072303824 0.03140313 0.007405374 0.11812709 0.0061714826
0.037086636 -0.10508887 -0.08186814 0.009592453 0.006436287 0.13654135 0.0500072 0.11692128
-0.022319091 -0.050375767 -0.08243196 -0.0033402983 -0.06742442 0.046802327 0.02421994 0.11214038
-0.009378416 0.025749581 -0.078086115 0.1395113 -0.001382516 0.054995164 -0.14751902 -0.018557716
0.13542835 0.04986094 0.10215212 -0.11450597 -0.06274048 -0.09428176 0.07689932 0.09857409
-0.011909669 -0.1039751 0.13597141 0.020722197 -0.097714625 -0.1429866 -0.056580134 0.088635765
0.012475639 0.004806216 0.07543498 0.0664217 0.12552282 -0.014628391 0.014984157 -0.03524244
-0.07851097 0.12586057 0.041265197 0.114652395 -0.1450561 -0.015982505 -0.0065336344 0.116401784
0.04697383 0.09014772 0.05976774 0.010353557 0.12589715 -0.015892774 -0.01047788 -0.018226948
-0.09028503 0.11529202 0.015329987 -0.1128684 0.15117778 0.006703986 0.07170128 -0.10992017
-0.05835385 -0.1226364 0.10201346 -0.047598064 -0.14376122 0.05751667 -0.12507789 0.07277918
-0.1315984 0.14772807 -0.13505842 0.05027516 0.092576705 -0.025545992 -0.07845279 0.051306248
-0.041636817 -0.019678446 -0.05953857 -0.107052915 0.10749392 0.13433869 0.013661967 0.033944838
-0.095732786 0.017095072 0.14747418 -0.089246705 -0.078096524 -0.08492554 -0.13881263 0.08567759
-0.10694123 0.038856376 0.01852518 0.022369301 -0.061540876 -0.11856564 -0.10698627 -0.10687995
-0.075958095 0.024364173 0.044257063 0.10135127 0.04331121 0.12182625 0.081694104 0.020066528
00000000: 0959 28bd 7455 a03c ccf6 bbbb bd13 863d
00000010: 5b98 373d b956 9cbc 252d 753c 5666 bd3c
00000020: 0023 b33c 616a e1bd ec96 8f3d a8df c03c
00000030: c1f5 063e b04f 213d ae32 87ba 9653 cb3d
00000040: 8788 d3bd 7dce 4cbc be5b b73c 1ed1 b4bc
00000050: 1532 1f3c 4bc2 123e febc 013e 7ae1 5bbc
00000060: 0227 fdbd 641c 873c 6355 09be ec6d 953d
00000070: 6baa 81bc 90b3 e43d 7055 4f3d e966 133e
00000080: dd76 0dbe 4429 603b 8a06 343d 3f7e 96bd
00000090: 2abe 0f3e 72ec ca3d f037 0bbd b381 78bd
000000a0: dbb8 51bc f1d8 a13d 2bf2 05be 3f29 08be
000000b0: b9b3 2d3d e511 c5bd 5260 493d a798 773b
000000c0: 5e31 b3bd 2782 5bbd 1059 9d3d 9974 06be
000000d0: 99b5 e83d 46fc b3bc ae47 d3bd 4784 7b3d
000000e0: e1bc a03d 2985 20bd ced6 cebd 3754 fdbd
000000f0: 59b8 c9bd a4d9 adbc 944b 46bd 43f8 6f3d
00000100: e5b1 cf3d 4743 6fbd 9c69 d73d 0f82 c4bd
00000110: 3d5b 85bd 8ea1 1c3d 8744 9e3d 3b41 b03b
00000120: be76 f3bd f7ab 24bc fb21 f4bc 90a1 d1bc
00000130: 9ce6 14bd e33b 95bc 3c27 023c d95c 34bd
00000140: 7f65 053c dd7a f83d 3b02 1dbe 916d 3cbd
00000150: caf6 b23a 6094 ee3d 4c28 f73c 6de7 efbd
00000160: 4065 983c 5f6e f53c 5984 0cbe 9cc6 82bd
00000170: e462 16be 54ba b03d 710b 233e e0b0 17bd
00000180: adcf ed3d d536 92bd 8c6a 463d 0050 febd
00000190: 8788 163e d1e9 c53d c6fc 98bd afef cbbd
000001a0: cb36 54bd be1d 00be 669d 5d3d 6f0a 123e
000001b0: 620b 46bd de98 f43d ef09 60bd 0075 76bd
000001c0: 5ba3 27bd 0940 a33c 0fcc e2bd a8b9 ea3b
000001d0: b3a4 db3d d508 733d b55d 92bb e1e9 70bd
000001e0: 7efe 15bc 849d e0bd 15ce 353d cb42 51bd
000001f0: 0262 053e 9020 c5bd 21ab 15be c690 f73d
00000200: 6293 adbd 5a26 42bb d17c 0539 0714 94bd
00000210: 92a0 003d c8a8 f23b 9eec f13d 263a ca3b
00000220: 28e8 173d d538 d7bd 7caa a7bd aa29 1d3c
00000230: 7de7 d23b 7fd1 0b3e 5ad4 4c3d 6d74 ef3d
00000240: 87d6 b6bc d256 4ebd 16d2 a8bd e8e8 5abb
00000250: d015 8abd ccb3 3f3d e568 c63c dba9 e53d
00000260: eea7 19bc c9f0 d23c 9deb 9fbd 0ddc 0e3e
00000270: 8a35 b5ba 9c42 613d 3a0f 17be 5a06 98bc
00000280: bbad 0a3e fc3a 4c3d 2135 d13d 1b82 eabd
00000290: 157e 80bd cc16 c1bd 647d 9d3d 36e1 c93d
000002a0: c620 43bc e6f0 d4bd 173c 0b3e 99c1 a93c
000002b0: 9b1e c8bd 146b 12be 92c0 67bd ab86 b53d
000002c0: 9f66 4c3c 767d 9d3b a87d 9a3d 1a08 883d
000002d0: 0e89 003e ebab 6fbc 1c80 753c 605a 10bd
000002e0: 5cca a0bd 98e1 003e b205 293d e0ce ea3d
000002f0: 9689 14be beed 82bc 1918 d6bb 0f64 ee3d
00000300: a167 403d 5e9f b83d 05cf 743d f7a1 293c
00000310: 2feb 003e 9031 82bc 6aab 2bbc ae50 95bc
00000320: 5ce7 b8bd 391e ec3d a02a 7b3c 8c27 e7bd
00000330: 59ce 1a3e 1cad db3b 1fd8 923d d31d e1bd
00000340: 7204 6fbd cb28 fbbd 6fec d03d 30f6 42bd
00000350: 2436 13be 9a96 6b3d 6b14 00be 400d 953d
00000360: bbc1 06be 0746 173e c14c 0abe 54ed 4d3d
00000370: db98 bd3d d445 d1bc dbab a0bd 8026 523d
00000380: 5e8b 2abd b134 a1bc b7de 73bd 8f3e dbbd
00000390: c625 dc3d 1590 093e 71d6 5f3c be09 0b3d
000003a0: 8d0f c4bd f70a 8c3c 7903 173e fac6 b6bd
000003b0: 12f1 9fbd 71ed adbd e624 0ebe bb77 af3d
000003c0: 0104 dbbd dd27 1f3d 1ec2 973c d33f b73c
000003d0: 4912 7cbd 8bd2 f2bd 9e1b dbbd e0e3 dabd
000003e0: eb8f 9bbd 6097 c73c e546 353d 4191 cf3d
000003f0: 1867 313d 0a80 f93d 3d4f a73d 8f62 a43c

encoder_b.convs.2.bias f4 [64]
-0.0024755988 0.004034248 0.0064475313 -0.015564695 -0.012928564 0.008354761 0.007801237 0.019049188
0.014402907 -0.00667339 0.016167568 -0.0030734367 -0.0025610102 0.008978905 0.014274259 0.019147716
-0.00990555 -0.0013050177 0.0025184443 -0.017096674 -0.00053139695 0.0023146796 -0.0063246046 -0.017171059
-0.012133296 0.011234143 -0.0046529216 -0.0078438185 -0.014251345 -0.016195484 0.0033250244 0.0029721817
-0.0057773367 -0.013430835 -0.0054213367 -0.021082051 0.0074427845 0.013406041 0.0028429583 0.017646912
0.015540862 -0.015324511 0.0036746906 0.015799945 -0.0048418073 0.012494247 -0.00070367474 -0.008623764
-0.011536227 0.011371623 -0.0148542365 -0.0077522593 0.006682049 -0.010608095 0.014990882 -0.016152697
0.008720071 -0.0047486657 0.012644654 0.0013131844 0.013989651 -0.017216075 -0.004696655 0.00818515
00000000: a83d 22bb ba31 843b d045 d33b 1003 7fbc
00000010: 54d2 53bc 68e2 083c 85a1 ff3b 0b0d 9c3c
00000020: 2cfa 6b3c 74ac dabb d971 843c b66b 49bb
00000030: 9fd6 27bb 421c 133c 95de 693c acdb 9c3c
00000040: e34a 22bc 210d abba 7c0c 253b 530e 8cbc
00000050: 724d 0bba e1b1 173b a13e cfbb 52aa 8cbc
00000060: bbca 46bc 690f 383c 8977 98bb 5c83 00bc
00000070: 797e 69bc 64ac 84bc a7e8 593b efc8 423b
00000080: d04f bdbb 010d 5cbc 78a5 b1bb 44b4 acbc
00000090: 9ae2 f33b 03a5 5b3c ed50 3a3b 4290 903c
000000a0: 1a9f 7e3c a813 7bbc 14d3 703b e36e 813c
000000b0: 06a8 9ebb acb4 4c3c d076 38ba b04a 0dbc
000000c0: 7102 3dbc 0b50 3a3c 2f5f 73bc aa06 febb
000000d0: 17f5 da3b 93cd 2dbc 519c 753c a952 84bc
000000e0: a1de 0e3c b29a 9bbb 862b 4f3c 281f ac3a
000000f0: d934 653c ba08 8dbc 66e6 99bb 021b 063c
