results/ADHD_3x5fold_seed0/fold3_rep1_seed1003/ckpt_best_fold_3.pt (torch, 396066 bytes, 42 tensors)

encoder_c.convs.0.weight f4 [116, 64]
-0.13942353 -0.04861112 0.032037195 0.12960401 -0.035695948 -0.070491344 0.09924765 0.10343566
-0.07473006 -0.045531325 0.12987445 -0.090646096 -0.002454408 0.0033469398 0.1362203 -0.04236516
-0.10002004 0.001981236 -0.16291878 -0.14377171 0.1313816 0.022500237 0.01572953 -0.07995986
0.03856454 -0.0376973 -0.1032714 -0.08675106 -0.025353013 0.041776545 -0.09730244 0.013291149
0.02696636 -0.10531015 -0.036706056 -0.08722669 0.012797202 0.001264362 0.0992375 -0.04035411
-0.0023629304 -0.13988787 -0.006386081 0.11118877 0.16246408 0.11566118 -0.060425486 0.15145223
-0.090109274 0.009531578 -0.08582508 -0.06055171 -0.046697643 0.16072193 -0.1374502 0.07316136
-0.08368476 0.0037894866 -0.025096787 0.02070208 0.018744994 -0.038084418 0.013140649 0.06591485
0.10985629 -0.047393516 -0.16469039 0.035748195 -0.14944792 0.102729425 -0.028621556 0.010675746
-0.023304157 0.042494044 0.038637355 0.11182135 0.14628127 -0.086979024 0.010236376 0.0834974
0.041298423 0.023696257 0.12758498 -0.028148083 0.01611259 -0.028233768 -0.100761086 0.019550262
-0.12050285 -0.08615735 0.113954954 -0.09650004 0.06125517 -0.079033226 0.06034028 -0.05194794
0.110934585 -0.08029348 0.16977744 0.09025471 0.20731609 0.04193992 0.049072575 -0.13782382
0.049958874 0.10586251 0.12850296 -0.14770462 0.08447941 0.09370558 0.039366215 -0.058000162
-0.09640293 -0.06915518 -0.10157273 -0.06342636 0.023244305 0.09845604 0.12417087 -0.08652258
-0.06252106 -0.01726373 0.002491487 0.049830426 0.06846095 -0.036951624 -0.0087485425 0.123852596
-0.10240034 0.03369607 -0.07380938 -0.13971421 0.046619695 -0.12201408 0.08733338 0.0478104
-0.13517396 0.06336306 0.06800968 -0.050828625 0.058428254 0.107966445 0.102180265 0.022085968
-0.12727219 0.088160366 -0.1169751 0.11388757 -0.06252118 0.049524553 0.008067842 0.03938351
-0.14374192 0.11999511 -0.10552582 0.03335894 -0.021296725 0.02702445 -0.01314136 -0.12114788
-0.032154582 -0.063970484 -0.12839818 0.0018887754 -0.14975476 -0.03197838 0.08499639 -0.101830006
0.045284294 0.09376228 0.15062964 0.05989081 0.18384925 -0.07894536 -0.030401705 -0.02182574
0.12395819 0.08147334 -0.04027464 -0.0068754302 0.20377855 0.006357995 -0.09570007 -0.03993619
-0.12878124 -0.14456514 0.051228143 0.0105129415 0.13003698 -0.090959415 0.05089551 -0.09511162
0.03402134 -0.08173075 0.019694561 0.068377204 0.093555614 0.13760309 -0.12932168 0.1271454
-0.06893302 -0.08238835 0.13477616 0.122169904 -0.068208165 0.052340936 -0.018320857 -0.07787503
-0.090096466 -0.09367846 0.106437854 0.09007367 0.009422342 -0.06952947 0.14046897 0.040223233
-0.043157805 -0.016343722 -0.032997213 0.031598058 -0.11996216 0.0044123055 -0.1349968 0.054704413
-0.12114739 -0.10703166 0.054763205 -0.081247054 -0.09472419 0.121133864 0.04934788 -0.06689617
-0.102498025 -0.1582579 0.0037994285 -0.030681534 -0.11626632 0.102034554 -0.1406238 0.16581336
-0.053866226 0.052965906 -0.07960458 0.054447986 0.13021591 -0.14777544 0.034875557 -0.108344376
0.12140157 -0.16628861 -0.0061152643 0.08537293 0.050428472 -0.15507123 0.07159869 0.0991173
00000000: 0bc5 0ebe 741c 47bd 6f39 033d eab6 043e
00000010: ea35 12bd c45d 90bd 5a42 cb3d 13d6 d33d
00000020: 130c 99bd 0e7f 3abd cffd 043e a9a4 b9bd
00000030: 22da 20bb 5558 5b3b 567d 0b3e 1787 2dbd
00000040: 4fd7 ccbd a0d7 013b 2ed4 26be e438 13be
00000050: e688 063e 6b52 b83c 37db 803c ffc1 a3bd
00000060: daf5 1d3d 7c68 1abd f57f d3bd 8aaa b1bd
00000070: 1fb1 cfbc e21d 2b3d 8046 c7bd 1fc3 593c
00000080: 8ee8 dc3c d9ac d7bd 1759 16bd e8a3 b2bd
00000090: 5bab 513c f3b8 a53a 083d cb3d 5a4a 25bd
000000a0: 65db 1abb c43e 0fbe 5542 d1bb f0b6 e33d
000000b0: fc5c 263e c5df ec3d b780 77bd 4b16 1b3e
000000c0: 368b b8bd 562a 1c3c 0fc5 afbd 1205 78bd
000000d0: 0746 3fbd 4a94 243e bfbf 0cbe a0d5 953d
000000e0: ea62 abbd 0959 783b c797 cdbc 6997 a93c
000000f0: 1a8f 993c 68fe 1bbd e04b 573c 5dfe 863d
00000100: 56fc e03d b41f 42bd 99a4 28be b36c 123d
00000110: e008 19be ce63 d23d c177 eabc 53e9 2e3c
00000120: 5ce8 bebc 3c0e 2e3d 3442 1e3d 9802 e53d
00000130: c2ca 153e 0f22 b2bd 79b6 273c af00 ab3d
00000140: 8928 293d a71e c23c a3a5 023e cf96 e6bc
00000150: 8dfe 833c 814a e7bc d45b cebd df27 a03c
00000160: 33ca f6bd 4473 b0bd 3761 e93d d0a1 c5bd
00000170: b3e6 7a3d 2cdc a1bd 5f27 773d 5dc7 54bd
00000180: ac31 e33d e870 a4bd 23da 2d3e 76d7 b83d
00000190: ab4a 543e 32c9 2b3d 5300 493d b021 0dbe
000001a0: ada1 4c3d 72ce d83d 4896 033e e13f 17be
000001b0: 8a03 ad3d b6e8 bf3d 783e 213d 9491 6dbd
000001c0: e66e c5bd 3ba1 8dbd 5d05 d0bd aee5 81bd
000001d0: d76a be3c 52a3 c93d 4c4d fe3d c032 b1bd
000001e0: 0b0b 80bd aa6c 8dbc 3748 233b fd1a 4c3d
000001f0: 4135 8c3d 965a 17bd 0c56 0fbc 6ea6 fd3d
00000200: 45b7 d1bd e404 0a3d 5f29 97bd 3e11 0fbe
00000210: 4bf4 3e3d 85e2 f9bd d8db b23d d7d4 433d
00000220: 0b6b 0abe 7ec4 813d a948 8b3d ad31 50bd
00000230: 7752 6f3d 831d dd3d e343 d13d a2ed b43c
00000240: a453 02be 6c8d b43d a490 efbd e33d e93d
00000250: 1b0b 80bd 42da 4a3d fb2e 043c 9a50 213d
00000260: 1531 13be ffbf f53d ec1d d8bd 62a3 083d
00000270: 7876 aebc 6162 dd3c dc4e 57bc 611c f8bd
00000280: 86b4 03bd f502 83bd d07a 03be c990 f73a
00000290: 5059 19be c3fb 02bd 9612 ae3d 408c d0bd
000002a0: 067c 393d 7006 c03d a83e 1a3e 1150 753d
000002b0: fa42 3c3e 1bae a1bd ff0c f9bc e5cb b2bc
000002c0: cbdd fd3d 7fdb a63d 05f7 24bd 4a4b e1bb
000002d0: 53ab 503e ba56 d03b 66fe c3bd 2194 23bd
000002e0: 3bdf 03be e208 14be 9ad4 513d 793e 2c3c
000002f0: 6a28 053e ee48 babd cf77 503d e2c9 c2bd
00000300: f659 0b3d 7462 a7bd 7d56 a13c 5909 8c3d
00000310: 169a bf3d d3e7 0c3e e76c 04be 6732 023e
00000320: c12c 8dbd 39bb a8bd c302 0a3e 3734 fa3d
00000330: b9b0 8bbd 7363 563d 9f15 96bc f27c 9fbd
00000340: 7f84 b8bd 7eda bfbd 17fc d93d 8b78 b83d
00000350: 2b60 1a3c 7765 8ebd 19d7 0f3e 1ec1 243d
00000360: 3dc6 30bd 45e3 85bc 1628 07bd f76c 013d
00000370: b9ae f5bd 1a95 903b 9a3c 0abe bc11 603d
00000380: 1f1c f8bd 6a33 dbbd 624f 603d db64 a6bd
00000390: c2fe c1bd 0815 f83d 0121 4a3d dc00 89bd
000003a0: 7cea d1bd 5c0e 22be d5ff 783b d757 fbbc
000003b0: 091d eebd 7ef7 d03d afff 0fbe faca 293e
000003c0: d5a2 5cbd c7f2 583d ba07 a3bd da04 5f3d
000003d0: 5257 053e 7252 17be acd9 0e3d a8e3 ddbd
000003e0: 63a1 f83d 9047 2abe 8e62 c8bb 01d8 ae3d
000003f0: 168e 4e3d feca 1ebe 55a2 923d 03fe ca3d

encoder_c.convs.0.bias f4 [64]
-0.007308856 -0.01256784 -0.0026748818 -0.010165365 -0.011803414 0.007827195 -0.008441583 0.008569185
-0.0004237149 0.023473542 0.007340962 -0.006677513 0.018559918 0.021155551 0.011882499 0.012833898
-0.0032796045 0.011909937 0.02406923 0.015557942 0.012896724 0.014853406 0.01236658 0.016170688
0.020431189 0.0063067903 -0.013249884 -0.019979382 0.015543367 0.005543145 -0.0128317885 0.013274798
0.0012021319 0.018552136 0.0072534564 0.013519179 0.015531283 0.014472674 0.01912029 0.018653419
0.015671583 0.01790745 0.022341946 -0.015880601 0.01953044 0.01732318 0.011725248 -0.0021058833
0.014770624 -0.032350857 0.001248461 -0.007820076 0.017364671 -0.013432205 0.014162831 -0.004186292
0.0017150632 0.016280409 0.019002635 0.0045269188 0.015399989 -0.0022850316 0.0035875675 0.0021273377
00000000: 217f efbb 57e9 4dbc 124d 2fbb a28c 26bc
00000010: 1b63 41bc a33d 003c 914e 0abc c465 0c3c
00000020: 0d26 deb9 964b c03c 748c f03b 0acf dabb
00000030: f80a 983c 684e ad3c d0ae 423c 4545 523c
00000040: a2ee 56bb e521 433c d52c c53c bde6 7e3c
00000050: c84c 533c b35b 733c 329d 4a3c 6478 843c
00000060: 4f5f a73c 31a9 ce3b 0b16 59bc cdab a3bc
00000070: 9ba9 7e3c 45a3 b53b 6c3c 52bc 8a7e 593c
00000080: da90 9d3a a6fa 973c 67ae ed3b 8c7f 5d3c
00000090: ec76 7e3c cb1e 6d3c 28a2 9c3c 0ecf 983c
000000a0: b161 803c a5b2 923c 7506 b73c 0918 82bc
000000b0: 4dfe 9f3c 57e9 8d3c 411b 403c dc02 0abb
000000c0: 7d00 723c 5582 04bd 66a3 a33a c71f 00bc
000000d0: 5b40 8e3c c012 5cbc 380b 683c 2a2d 89bb
000000e0: f9cb e03a 7e5e 853c 6aab 9b3c 8c56 943b
000000f0: 3c50 7c3c 78c0 15bb 651d 6b3b ce6a 0b3b

encoder_c.convs.1.weight f4 [64, 64]
0.12367296 -0.036618836 0.026571989 0.16698839 0.17193225 0.09775461 0.07638765 0.0059876097
0.072109394 -0.17635398 0.10031851 0.06818171 0.13787629 0.014056257 -0.10003703 0.14101562
-0.20287736 0.05091157 -0.04625412 0.15142025 0.06437186 -0.057345174 0.1275673 -0.2091028
0.0074344142 0.044202127 0.0129229 -0.14407076 0.066980556 0.13113141 -0.14283454 0.038177922
0.03444358 0.041445434 0.045774356 0.05908114 0.11081222 -0.096022375 0.108584605 -0.008582236
-0.10072465 0.0058281203 -0.06097057 -0.11750617 0.14018275 0.08619956 0.1140915 0.022343533
-0.09795847 -0.041167356 0.019634744 0.18263541 -0.07943946 -0.02528736 -0.17051579 0.1162437
-0.028486948 0.10685659 0.0064816745 -0.062657535 0.016857037 0.0012193033 0.1401062 0.049248524
-0.08062878 0.07924056 0.13651942 -0.15885131 -0.11987081 0.050547313 -0.040400658 0.08303662
0.037637334 0.020846404 -0.045342814 -0.019436227 -0.036471244 0.0462687 0.0021397506 0.03227209
0.083054475 -0.089011036 -0.13670309 -0.010594861 0.031562846 -0.08442043 0.15776694 -0.040685575
0.08820201 -0.11647322 -0.103817195 -0.10529112 0.030588739 0.0039210925 -0.14127986 0.18992798
-0.11675911 -0.08307861 0.065491095 0.00034943366 0.073684305 0.124845386 -0.14299498 0.083045974
0.15191944 -0.007902901 -0.026349813 -0.07492651 0.0670974 -0.09145339 -0.07818173 -0.02940841
-0.08558923 0.120056346 0.13836966 -0.03810304 -0.028236572 0.06265706 -0.115833 0.06296962
0.10949333 0.1049118 -0.0361251 -0.010123245 -0.024713002 0.045345433 0.050977863 -0.07860575
0.05219278 -0.11884403 0.11646425 -0.14484476 -0.101982266 0.13408417 0.16273975 -0.019257694
0.067844294 -0.10724766 -0.081573464 -0.13966398 0.033742618 -0.09462883 0.02463103 0.17256033
-0.054287907 0.18767111 -0.017335111 0.10970358 -0.052990355 0.12055297 -0.009517726 0.17193443
-0.09087194 -0.14575608 -0.0031118896 0.071688764 -0.035831973 -0.1335766 0.14220157 0.042085063
0.1371075 0.0006181163 -0.053945925 0.055646136 -0.047483798 0.17662388 0.17822428 -0.101487726
0.057196047 0.028234871 -0.042878453 -0.094509415 -0.11689038 -0.023480862 0.16854206 -0.006912413
0.19512539 -0.037836313 0.11767862 -0.17020535 -0.007893724 -0.07004062 -0.1941136 -0.06305041
-0.002298107 0.08988372 -0.051652275 0.038544424 -0.11807745 0.080369025 0.14062054 -0.059034634
-0.20525312 -0.12143014 0.08174798 0.073233984 0.05666401 -0.16505896 0.04884421 0.16021757
0.047737356 -0.12638332 -0.02817259 0.15519899 0.14035138 -0.0004937092 0.07315882 0.053989023
-0.041992698 0.17151958 0.08175475 0.17230605 -0.20475915 0.058471933 -0.060298502 -0.049758855
-0.059194442 -0.11574912 0.0062160594 0.0875242 0.03095886 0.10910775 -0.020603005 0.024530435
0.07044605 -0.0015342854 0.13231072 0.12761395 -0.10016921 0.07161997 -0.12713774 -0.021504596
0.02275223 -0.013515223 -0.1405552 0.07313627 -0.10973482 -0.017799305 0.0075841895 -0.03453289
0.18148333 0.1158916 -0.0423824 0.018753093 -0.012415106 -0.08903799 -0.18688358 0.05196035
0.16893366 0.13956924 0.14223814 -0.16713654 0.014561051 0.16875751 0.0131997205 -0.005981992
00000000: 4048 fd3d a2fd 15bd 80ad d93c 01ff 2a3e
00000010: 020f 303e 9233 c83d 2171 9c3d b633 c43b
00000020: 17ae 933d 2396 34be ca73 cd3d daa2 8b3d
00000030: 712f 0d3e 374c 663c 37e0 ccbd 6666 103e
00000040: 15bf 4fbe a788 503d f674 3dbd e90d 1b3e
00000050: 65d5 833d c6e2 6abd 01a1 023e 0b1f 56be
00000060: 639c f33b 4a0d 353d 92ba 533c 4987 13be
00000070: 1a2d 893d 5047 063e 3843 12be 7460 1c3d
00000080: b614 0d3d b0c2 293d e47d 3b3d 11ff 713d
00000090: 84f1 e23d 61a7 c4bd 9b61 de3d 829c 0cbc
000000a0: ba48 cebd d1f9 be3b 47bc 79bd 13a7 f0bd
000000b0: 118c 0f3e 6589 b03d cea8 e93d c909 b73c
000000c0: 739e c8bd 1a9f 28bd 0bd9 a03c c704 3b3e
000000d0: 28b1 a2bd 7027 cfbc b19b 2ebe 2d11 ee3d
000000e0: 765d e9bc a1d7 da3d 3a64 d43b 9852 80bd
000000f0: c517 8a3c 08d1 9f3a 0078 0f3e d2b8 493d
00000100: b420 a5bd e048 a23d bfcb 0b3e eba9 22be
00000110: d47e f5bd b30a 4f3d 297b 25bd 1a0f aa3d
00000120: 9b29 1a3d 14c6 aa3c 63b9 39bd b938 9fbc
00000130: df62 15bd 4084 3d3d 0f3b 0c3b bd2f 043d
00000140: 7718 aa3d 6b4b b6bd e5fb 0bbe 1196 2dbc
00000150: 0b48 013d 9ee4 acbd a88d 213e eba5 26bd
00000160: 41a3 b43d 8389 eebd 1c9e d4bd dfa2 d7bd
00000170: 3c95 fa3c 827c 803b abab 10be 7b7c 423e
00000180: 661f efbd 1e25 aabd 3220 863d 3134 b739
00000190: cce7 963d f0ae ff3d 476d 12be 0214 aa3d
000001a0: c590 1b3e 2b7b 01bc 90db d7bc 1273 99bd
000001b0: 5d6a 893d ea4b bbbd be1d a0bd e8e9 f0bc
000001c0: 6849 afbd 1ae0 f53d c7b0 0d3e ef11 1cbd
000001d0: 6250 e7bc 5852 803d da39 edbd 37f6 803d
000001e0: 0a3e e03d ffdb d63d eaf7 13bd f8db 25bc
000001f0: ec72 cabc 22bc 393d 2ace 503d 0dfc a0bd
00000200: 19c8 553d 8064 f3bd cf84 ee3d 2f52 14be
00000210: 14dc d0bd 5c4d 093e 40a5 263e 50c2 9dbc
00000220: f3f1 8a3d a9a4 dbbd fd0f a7bd 1304 0fbe
00000230: b335 0a3d c3cc c1bd 04c7 c93c a8b3 303e
00000240: ff5c 5ebd db2c 403e 5d02 8ebc 45ac e03d
00000250: 6a0c 59bd 7ae4 f63d 3cf0 1bbc 940f 303e
00000260: 111b babd 1541 15be d8f0 4bbb 8fd1 923d
00000270: 8cc4 12bd 4ec8 08be 4a9d 113e 6361 2c3d
00000280: e965 0c3e 1509 223a 67f6 5cbd 34ed 633d
00000290: 5f7e 42bd e4dc 343e 6d80 363e ccd8 cfbd
000002a0: 6746 6a3d d14c e73c 51a1 2fbd 278e c1bd
000002b0: 3964 efbd f05a c0bc 4a96 2c3e 8681 e2bb
000002c0: f3ce 473e 40fa 1abd 7d01 f13d 504a 2ebe
000002d0: ae54 01bc 7571 8fbd b7c5 46be 9320 81bd
000002e0: d69b 16bb f514 b83d 5691 53bd c2e0 1d3d
000002f0: 97d2 f1bd 8498 a43d d5fe 0f3e 4dce 71bd
00000300: e02d 52be 5eb0 f8bd 7c6b a73d b3fb 953d
00000310: 8518 683d 3705 29be de10 483d 1310 243e
00000320: 3f88 433d a16a 01be 34ca e6bc 7cec 1e3e
00000330: 46b8 0f3e 436c 01ba 4bd4 953d 9823 5d3d
00000340: 8900 2cbd d4a2 2f3e 096f a73d ff70 303e
00000350: 62ac 51be 4480 6f3d 90fb 76bd f1cf 4bbd
00000360: df75 72bd e00d edbd 16b0 cb3b e33f b33d
00000370: 6f9d fd3c e273 df3d a2c7 a8bc 0df4 c83c
00000380: 0546 903d 131a c9ba 767c 073e 3bad 023e
00000390: 8425 cdbd 7ead 923d 6530 02be 682a b0bc
000003a0: e262 ba3c f46e 5dbc b4ed 0fbe 78c8 953d
000003b0: a6bc e0bd d9cf 91bc cb84 f83b 5c72 0dbd
000003c0: c4d6 393e 9358 ed3d 2b99 2dbd 16a0 993c
000003d0: bb68 4bbc 8d59 b6bd 695e 3fbe 60d4 543d
000003e0: f2fc 2c3e 3deb 0e3e e0a6 113e d725 2bbe
000003f0: 7991 6e3c c5ce 2c3e a443 583c 9604 c4bb

encoder_c.convs.1.bias f4 [64]
0.012211222 0.017661061 0.014428955 -0.0054937494 -0.016511546 -0.001201094 0.014129344 0.015247784
-0.009599484 0.01502793 0.0154402 -0.007777823 0.019225655 -0.009412999 0.014179863 0.0117427055
0.018791009 0.016054675 0.017003164 -0.00402951 0.012808209 -0.004185091 -0.0016169478 0.0149376765
0.022818144 -0.021412674 0.013080553 0.019211406 0.024124473 0.008974942 0.016367894 -0.0027839355
6.910987e-05 -0.00015096893 0.0053959517 0.007450552 0.01433678 -0.0032587864 0.0015017911 0.0022468988
-0.0038119412 -0.010014897 0.015404222 0.016976465 0.023270896 0.010110442 -0.0008732141 0.01404812
0.013304225 0.011633838 0.01020468 0.018607628 0.015015238 0.00781039 0.014841117 -0.010936563
0.012731414 0.0057938267 0.004769129 0.021147942 0.0031408058 0.018937217 0.0048598903 0.021603847
00000000: 9411 483c eead 903c 6c67 6c3c e904 b4bb
00000010: 3943 87bc 076e 9dba c47e 673c d7d1 793c
00000020: 2747 1dbc b537 763c e5f8 7c3c 1cdd febb
00000030: 1f7f 9d3c fb38 1abc a852 683c 7a64 403c
00000040: 9aef 993c 1885 833c 384a 8b3c fb09 84bb
00000050: 86d9 513c 1623 89bb c4ef d3ba 28bd 743c
00000060: 1eed ba3c a269 afbc d14f 563c 3d61 9d3c
00000070: b0a0 c53c a30b 133c f615 863c b072 36bb
00000080: 14ef 9038 6a4d 1eb9 86d0 b03b c323 f43b
00000090: d0e4 6a3c 5d91 55bb bfd7 c43a b540 133b
000000a0: c3d1 79bb 8615 24bc fd61 7c3c 3a12 8b3c
000000b0: 9ba2 be3c 44a6 253c 68e8 64ba 162a 663c
000000c0: f7f9 593c da9b 3e3c 8831 273c 066f 983c
000000d0: 7902 763c 4dee ff3b 2828 733c 452f 33bc
000000e0: 6c97 503c 24da bd3b 5b46 9c3b 733e ad3c
000000f0: fad5 4d3b 3922 9b3c b73f 9f3b 8dfa b03c

encoder_c.convs.2.weight f4 [64, 64]
-0.03179281 -0.1596354 0.014615537 -0.04325707 -0.13465941 -0.014394227 0.014317463 -0.0013601261
0.16078499 -0.11547638 -0.10825704 0.06700289 -0.036000885 -0.120206594 -0.087975875 0.09603573
-0.040234193 -0.07116514 -0.06307195 -0.16882269 -0.045250982 0.007297874 -0.0059381346 0.08730391
-0.08073221 0.10773053 0.16009976 -0.16991019 0.060854703 0.10050631 -0.1879919 -0.075470395
-0.01635126 0.03213228 -0.14620054 -0.113369785 -0.06452784 -0.033701327 -0.13352019 0.09615843
0.10303171 -0.03209059 -0.11755309 0.1723996 0.12150437 -0.14020276 -0.116276294 -0.07955206
0.16988942 0.10089548 -0.19479814 0.07802118 0.12347498 -0.20993567 -0.077186786 -0.16788095
0.17575508 0.018003687 0.020696085 0.108528286 0.06135844 -0.18544072 -0.02379992 0.068467215
0.00066591334 0.12309365 0.014062711 0.042210527 0.058550447 -0.114881605 -0.104394056 0.07018381
-0.20364125 -0.00972585 -0.13923296 -0.008450022 -0.15325063 0.014984194 0.13205488 -0.03314033
0.002440851 -0.029518904 0.18228982 0.034117218 -0.10848138 0.111084744 0.14007275 0.041497894
-0.0035005435 0.12707004 0.14363872 -0.030418105 -0.029721146 -0.1814674 -0.15730469 0.15450913
0.04117932 0.15847498 -0.049959846 0.02936005 -0.11657096 -0.16766196 -0.17371422 -0.0850972
-0.13763754 0.07933852 0.008805339 -0.11876822 -0.20240568 0.0042095594 0.20994243 -0.019621806
-0.064616024 -0.15414749 0.06888144 3.9377202e-05 0.14025305 -0.016641576 -0.11720742 -0.177281
0.020667164 -0.097239226 -0.06106289 0.04104749 -0.11468084 -0.060844492 0.015779324 -0.0005491291
-0.08974854 -0.12829676 -0.15932436 0.085923746 -0.08333054 0.043168146 0.21473941 -0.12193232
0.020342972 -0.09399554 0.14020224 0.11080832 -0.043960515 -0.04269406 0.0752108 -0.07589487
-0.03500712 0.1229719 -0.040406056 0.1444993 0.005975674 0.05174631 0.03822195 0.10485577
0.027258746 0.007945617 0.06733289 0.059677817 -0.10596788 0.13519403 0.17831182 0.22053254
0.061468825 0.06295111 -0.030421408 -0.13276526 0.031835817 0.18212588 -0.13432738 -0.12593198
-0.19678803 0.06793579 0.045914337 0.025889983 -0.19150454 0.07670657 -0.08732976 0.029754417
0.13378002 0.18592325 -0.04597756 0.027094439 -0.025814557 0.09641773 -0.14260167 -0.21690314
0.12843655 0.14533952 -0.028691387 0.016377643 -0.099432446 0.07995731 -0.041592952 0.016343959
0.12436254 -0.10101785 -0.052001245 -0.1321623 0.030017195 0.022136172 -0.15308616 0.18202081
0.1669533 0.061861586 0.2071663 -0.09485559 -0.074548624 0.033481125 0.17518644 0.07236118
0.046525892 0.071728416 0.083328 0.14643031 0.067394964 -0.018197022 0.06407633 -0.13311213
0.06832575 -0.18033095 -0.06519253 0.0280961 -0.037357796 0.046026647 -0.061696295 -0.010958837
0.007832953 -0.12326081 0.06499792 0.07876376 0.08444813 0.039952453 -0.05557299 0.10935486
0.114165075 -0.11431836 0.011954592 0.06445897 0.1766288 0.058910295 -0.15679272 -0.04186532
-0.12715872 0.11960593 0.21474865 -0.020910965 0.16017722 0.20769922 -0.0632165 0.1030271
-0.120607935 0.062167168 -0.22078426 -0.07948022 0.0047655753 0.03988912 -0.010744804 0.06561465
00000000: 2d39 02bd 7677 23be 0176 6f3c 532e 31bd
00000010: 28e4 09be c4d5 6bbc cb93 6a3c 4246 b2ba
00000020: d2a4 243e e17e ecbd deb5 ddbd d038 893d
00000030: aa75 13bd e02e f6bd b22c b4bd 61ae c43d
00000040: 9ccc 24bd 07bf 91bd de2b 81bd dbdf 2cbe
00000050: 1859 39bd 0123 ef3b af94 c2bb 64cc b23d
00000060: ee56 a5bd d3a1 dc3d 31f1 233e f0fc 2dbe
00000070: c842 793d 41d6 cd3d f380 40be 3990 9abd
00000080: 14f3 85bc 239d 033d 98b5 15be 6b2e e8bd
00000090: 2c27 84bd 670a 0abd 84b9 08be b6ee c43d
000000a0: 4a02 d33d 6c71 03bd adbf f0bd 8589 303e
000000b0: 48d7 f83d 5091 0fbe 4422 eebd 31ec a2bd
000000c0: 7ef7 2d3e 4aa2 ce3d 2a79 47be 92c9 9f3d
000000d0: 73e0 fc3d 60f9 56be 1b14 9ebd fce8 2bbe
000000e0: 24f9 333e 787c 933c d68a a93c 1444 de3d
000000f0: fd52 7b3d 2ce4 3dbe 0df8 c2bc 8a38 8c3d
00000100: b090 2e3a 8618 fc3d 4967 663c f2e4 2c3d
00000110: 98d2 6f3d 0c47 ebbd 8dcc d5bd 88bc 8f3d
00000120: 5587 50be 2c59 1fbc 1693 0ebe f671 0abc
00000130: bced 1cbe 4480 753c 6539 073e 28be 07bd
00000140: aff6 1f3b a1d1 f1bc 2faa 3a3e 7fbe 0b3d
00000150: 7c2b debd 6680 e33d 3b6f 0f3e b2f9 293d
00000160: 6069 65bb a61e 023e 0716 133e 642f f9bc
00000170: c379 f3bc 97d2 39be 7b14 21be a437 1e3e
00000180: a6ab 283d 4447 223e b2a2 4cbd 7d84 f03c
00000190: c1bc eebd 94af 2bbe 24e2 31be 7147 aebd
000001a0: dbf0 0cbe 3c7c a23d 4544 103c c13c f3bd
000001b0: 6f43 4fbe 58f0 893b 26fb 563e e9bd a0bc
000001c0: 6855 84bd d7d8 1dbe b611 8d3d f328 2538
000001d0: 7f9e 0f3e ea53 88bc 720a f0bd 2789 35be
000001e0: 2f4e a93c 5c25 c7bd 151d 7abd 6a21 283d
000001f0: cadd eabd 1338 79bd a443 813c 6ef3 0fba
00000200: 15ce b7bd 3a60 03be ed25 23be caf8 af3d
00000210: 34a9 aabd 15d1 303d a6e4 5b3e a7b7 f9bd
00000220: 4ea6 a63c bc80 c0bd 2d91 0f3e 79ef e23d
00000230: f10f 34bd f7df 2ebd 1f08 9a3d c56e 9bbd
00000240: a063 0fbd b1d8 fb3d d280 25bd a0f7 133e
00000250: 96cf c33b f0f3 533d 9f8e 1c3d 9fbe d63d
00000260: bc4d df3c 552e 023c d4e5 893d ba70 743d
00000270: b005 d9bd 4e70 0a3e 6097 363e 48d3 613e
00000280: bcc6 7b3d 83ec 803d 5136 f9bc 9ef3 07be
00000290: 4666 023d 357f 3a3e 1e8d 09be 50f4 00be
000002a0: cd82 49be eb21 8b3d ac10 3c3d 3b17 d43c
000002b0: c419 44be 5618 9d3d f2d9 b2bd 89bf f33c
000002c0: a1fd 083e aa62 3e3e f752 3cbd 28f5 dd3c
000002d0: 0d79 d3bc a976 c53d 2c06 12be db1b 5ebe
000002e0: df84 033e e2d3 143e 330a ebbc 682a 863c
000002f0: 3da3 cbbd a8c0 a33d 5f5d 2abd c4e3 853c
00000300: cab1 fe3d 72e2 cebd 42ff 54bd 8e55 07be
00000310: 9fe6 f53c eb56 b53c 9ec2 1cbe aa63 3a3e
00000320: cef5 2a3e 9362 7d3d 6723 543e a643 c2bd
00000330: f3ac 98bd 8123 093d 1364 333e 1932 943d
00000340: ef91 3e3d 59e6 923d dfa7 aa3d d4f1 153e
00000350: 5f06 8a3d ec11 95bc 733a 833d 8c4e 08be
00000360: 5fee 8b3d ada8 38be a983 85bd cb29 e63c
00000370: 7d04 19bd 7086 3c3d 41b5 7cbd b28c 33bc
00000380: c955 003c 2a70 fcbd a11d 853d e54e a13d
00000390: 24f3 ac3d 2fa5 233d 81a0 63bd 71f5 df3d
000003a0: 61cf e93d bf1f eabd 31dd 433c 1103 843d
000003b0: 2ede 343e ec4b 713d 458e 20be f87a 2bbd
000003c0: e535 02be f4f3 f43d 12e7 5b3e 794d abbc
000003d0: 7f05 243e 1baf 543e a777 81bd dfff d23d
000003e0: 4b01 f7bd 00a3 7e3d 4515 62be 87c6 a2bd
000003f0: 8b28 9c3b c662 233d f90a 30bc f960 863d

encoder_c.convs.2.bias f4 [64]
-0.009947834 0.00855588 0.009209093 0.010437001 0.009843168 0.010029718 0.009969094 -0.010092322
-0.010011802 0.009972743 -0.009918674 0.010125513 0.0101354355 -0.009962964 -0.009969222 -0.009988531
-0.009894066 -0.006136515 0.010304311 -0.00992246 -0.0015739084 -0.009955164 0.009868105 0.010317484
-0.008894154 0.009696687 0.010153908 -0.009854094 -0.00023325563 0.010011707 -0.0097613325 0.010198454
0.00660266 -0.009739608 -0.010153645 -0.009954757 -0.011263692 -0.009931178 -0.010033295 0.010087134
-0.009993613 0.010370258 -0.009936778 -0.009877833 -0.010195385 0.006866167 0.009910789 -0.0098881675
0.009937738 0.00997389 -0.009958203 0.010062456 -0.010051167 -0.009855893 -0.009780575 -0.010143439
-0.00588975 -0.010112272 0.009960116 0.0091361785 -0.00971873 -0.010310392 -0.009635057 0.009376972
00000000: 3dfc 22bc f62d 0c3c bce1 163c f4ff 2a3c
00000010: 3d45 213c b053 243c 6955 233c 445a 25bc
00000020: 8b08 24bc b764 233c ef81 22bc 7be5 253c
00000030: 190f 263c b33b 23bc f355 23bc efa6 23bc
00000040: b81a 22bc d214 c9bb 6ad3 283c d091 22bc
00000050: 9a4b ceba fc1a 23bc d5ad 213c aa0a 293c
00000060: c9b8 11bc dade 1e3c 945c 263c 1173 21bc
00000070: 1596 74b9 2508 243c ffed 1fbc 6b17 273c
00000080: 205b d83b e092 1fbc 795b 26bc 4719 23bc
00000090: 598b 38bc 61b6 22bc b062 24bc 8244 253c
000000a0: 40bc 23bc 04e8 293c decd 22bc a2d6 21bc
000000b0: 8b0a 27bc 95fd e03b dd60 223c fb01 22bc
000000c0: e5d1 223c 8769 233c bb27 23bc 00dd 243c
000000d0: a6ad 24bc 9d7a 21bc b43e 20bc ab30 26bc
000000e0: cefe c0bb f1ad 25bc c12f 233c e9af 153c
000000f0: 4f3b 1fbc ebec 28bc 5cdc 1dbc dfa1 193c

encoder_b.convs.0.weight f4 [116, 64]
-0.07203544 0.06648244 -0.16024294 0.072867215 -0.13103472 0.05902991 0.027459448 0.10967852
0.022632856 -0.064138286 0.08573441 -0.059370264 0.0404502 -0.13343287 -0.018211761 -0.15480752
-0.15054834 0.10416042 0.11086033 0.060789835 -0.04090388 0.12652591 0.18096691 -0.099687986
0.117799655 -0.1580549 0.09146765 -0.004289573 -0.09298962 0.0049774195 -0.13757578 0.16256003
0.04217678 0.12949555 0.12710698 0.106033586 0.15710582 -0.077128276 0.14470889 0.05086745
0.015559273 -0.0035832482 -0.012798898 -0.059335094 0.1706288 -0.14858341 -0.15884265 -0.16214818
-0.16520715 -0.10652651 0.04148728 0.15280639 0.10951165 0.15315786 -0.11675441 0.111472696
0.105313726 0.07092134 0.12420422 -0.014790093 0.07015246 0.12867887 0.047220908 0.09431865
-0.064636216 -0.025958762 -0.0456067 -0.10442765 0.16568704 0.12943526 0.00137726 -0.018849287
0.008691886 -0.1165135 0.15316987 0.027188132 -0.12852694 -0.097327426 -0.068030074 -0.09319573
0.17031068 -0.021189999 0.073947 0.056032654 0.052705247 -0.14890812 -0.0789533 -0.096062206
-0.046503615 -0.0765096 0.12801741 -0.05752013 -0.03286735 -0.04572784 -0.11648407 0.10153136
-0.05754298 0.064728126 0.11896146 -0.057912607 0.05407073 0.14268361 -0.17441179 -0.018100044
0.06590137 0.10102442 0.085244976 -0.017375633 -0.119386 -0.17478974 0.1815211 0.15067185
-0.037397593 0.098437876 0.14355788 0.18019848 0.11449205 -0.033988416 0.05867395 0.0936588
-0.083297044 0.03253124 -0.027125994 -0.1326611 -0.16707759 0.112376 -0.0020626036 -0.0494854
0.082102895 -0.11568766 -0.06054416 -0.15950699 0.09906243 -0.02547994 0.024818234 -0.01062893
-0.12365496 -0.09725519 -0.10648009 0.15272634 0.0016727789 0.029359406 0.09348348 -0.12052063
0.124740124 0.15261103 -0.049604364 -0.034948975 0.08937142 -0.14113818 -0.033968415 -0.120747656
-0.016573021 0.1483593 -0.047510684 0.12767261 -0.16983727 0.088298865 -0.05822345 0.112215176
-0.027552579 -0.17311773 -0.1451131 -0.06821028 -0.18100291 0.13225354 0.05812011 0.06371551
-0.07109178 -0.11832507 0.112369336 0.06861288 0.14611928 -0.13283072 -0.14406624 -0.038818795
-0.08436655 -0.018801145 0.01952229 -0.085571766 0.17571197 0.01066963 -0.018724512 -0.114870556
0.15800425 0.1718167 0.17244054 0.17374308 0.15215991 -0.041141704 0.05761402 0.004327574
-0.1798996 0.02106459 0.15409341 -0.06946133 0.0043227854 -0.06271865 0.12283579 0.016401343
-0.08005646 -0.096856855 0.02964883 0.0270042 0.02796297 -0.12345978 0.14432971 0.13851307
-0.044286113 0.1713533 0.005023734 0.17536551 0.16676448 -0.075658366 0.15531354 -0.049978107
-0.08027891 -0.024147669 0.13868068 -0.01298714 0.14510246 -0.0061774505 -0.16078103 0.08251672
-0.086307734 -0.05970618 0.078657284 -0.13969737 -0.00017318044 -0.11485826 0.055363435 0.018994804
0.14108686 0.023137271 -0.106056266 0.12966116 0.14346117 0.08451806 -0.1729309 -0.08405167
0.07373489 0.06690339 -0.124000326 -0.031333774 -0.050972592 -0.12541361 -0.08117126 0.013605514
-0.16451253 0.10731615 -0.052790366 -0.09535545 -0.08192457 -0.07405702 -0.16011706 -0.06855721
00000000: 5187 93bd f227 883d ba16 24be 683b 953d
00000010: f72d 06be 59c9 713d a3f2 e03c 229f e03d
00000020: 8a68 b93c ef5a 83bd 8695 af3d 3c2e 73bd
00000030: 1caf 253d a0a2 08be d530 95bc dd85 1ebe
00000040: 5829 1abe 0f52 d53d be0a e33d c3fe 783d
00000050: d48a 27bd 0290 013e 644f 393e 3729 ccbd
00000060: f240 f13d 25d9 21be 6453 bb3d 8c8f 8cbb
00000070: 5871 bebd 9f19 a33b aae0 0cbe 2376 263e
00000080: 8fc1 2c3d 7b9a 043e 5528 023e 2328 d93d
00000090: 59e0 203e 6ef5 9dbd 912e 143e 635a 503d
000000a0: 52ec 7e3c eed4 6abb 78b2 51bc 5b09 73bd
000000b0: 51b9 2e3e 4026 18be a6a7 22be 2c0a 26be
000000c0: 102c 29be 922a dabd 91ee 293d 4779 1c3e
000000d0: a547 e03d 6ad5 1c3e f01c efbd cc4b e43d
000000e0: b9ae d73d 353f 913d c85e fe3d 2552 72bc
000000f0: 18ac 8f3d 65c4 033e b66a 413d 232a c13d
00000100: fe5f 84bd 78a7 d4bc 17ce 3abd 2ade d5bd
00000110: dda9 293e ad8a 043e 2d85 b43a d269 9abc
00000120: 6a68 0e3c a19e eebd 90d8 1c3e a5b9 de3c
00000130: 919c 03be 9a53 c7bd 5a53 8bbd 67dd bebd
00000140: ec65 2e3e a696 adbc 8671 973d 7f82 653d
00000150: 75e1 573d 5f7b 18be 45b2 a1bd 43bc c4bd
00000160: 937a 3ebd 11b1 9cbd ff16 033e 3a9a 6bbd
00000170: ea9f 06bd 1e4d 3bbd 338f eebd acef cf3d
00000180: 30b2 6bbd 2e90 843d 11a2 f33d c535 6dbd
00000190: 4579 5d3d a71b 123e 0199 32be 8b46 94bc
000001a0: 4cf7 863d e4e5 ce3d eb94 ae3d 5857 8ebc
000001b0: a680 f4bd 15fc 32be abe0 393e b949 1a3e
000001c0: 382e 19bd cc99 c93d d600 133e f385 383e
000001d0: cf7a ea3d 7037 0bbd 1954 703d 2fd0 bf3d
000001e0: a497 aabd 7a3f 053d 5537 debc 50d8 07be
000001f0: 6316 2bbe 6325 e63d bf2c 07bb 34b1 4abd
00000200: 9025 a83d a7ed ecbd 27fd 77bd cd55 23be
00000210: 3ee1 ca3d 4fbb d0bc 9c4f cb3c f724 2ebc
00000220: d03e fdbd bb2d c7bd 3c12 dabd 4b64 1c3e
00000230: 2541 db3a 2383 f03c 4474 bf3d 85d3 f6bd
00000240: c077 ff3d 1146 1c3e f22d 4bbd a826 0fbd
00000250: 5d08 b73d 8786 10be 7722 0bbd 8c4a f7bd
00000260: 25c4 87bc 80eb 173e 909a 42bd 9cbc 023e
00000270: d2e9 2dbe 09d6 b43d b67b 6ebd 12d1 e53d
00000280: f2b5 e1bc c645 31be 8798 14be d5b1 8bbd
00000290: d458 39be 796d 073e 5a0f 6e3d 477d 823d
000002a0: 9198 91bd 6a54 f2bd e521 e63d e984 8c3d
000002b0: 4ba0 153e c704 08be 1a86 13be 7500 1fbd
000002c0: 5fc8 acbd dc04 9abc 36ed 9f3c 4040 afbd
000002d0: d7ed 333e accf 2e3c 2664 99bc 4141 ebbd
000002e0: decb 213e b8f0 2f3e 4194 303e b5e9 313e
000002f0: cfcf 1b3e 3484 28bd aefc 6b3d 52ce 8d3b
00000300: 9a37 38be a68f ac3c aaca 1d3e be41 8ebd
00000310: 27a6 8d3b a372 80bd 5591 fb3d 1c5c 863c
00000320: a4f4 a3bd e35c c6bd 1ae2 f23c e937 dd3c
00000330: 9912 e53c 7bd8 fcbd 2bcb 133e 5fd6 0d3e
00000340: 5b65 35bd 3d77 2f3e 239e a43b 0493 333e
00000350: 4fc4 2a3e c6f2 9abd 830a 1f3e d8b5 4cbd
00000360: 4569 a4bd 55d1 c5bc 4f02 0e3e 03c8 54bc
00000370: bd95 143e 366c cabb c8a3 24be 87fe a83d
00000380: 1cc2 b0bd 788e 74bd 1217 a13d d40c 0fbe
00000390: c597 35b9 cf3a ebbd c5c4 623d fe9a 9b3c
000003a0: 1379 103e 608a bd3c 0734 d9bd e5c5 043e
000003b0: 7ce7 123e ce17 ad3d cc14 31be 4823 acbd
000003c0: 5102 973d a504 893d e2f3 fdbd d857 00bd
000003d0: a3c8 50bd 6d6c 00be 1e3d a6bd a9e9 5e3c
000003e0: f975 28be 92c8 db3d b63a 58bd b849 c3bd
000003f0: 12c8 a7bd 35ab 97bd baf5 23be b967 8cbd

encoder_b.convs.0.bias f4 [64]
0.0 0.0 0.0 0.0 0.0 0.0 0.0 0.0
0.0 0.0 0.0 0.0 0.0 0.0 0.0 0.0
0.0 0.0 0.0 0.0 0.0 0.0 0.0 0.0
0.0 0.0 0.0 0.0 0.0 0.0 0.0 0.0
0.0 0.0 0.0 0.0 0.0 0.0 0.0 0.0
0.0 0.0 0.0 0.0 0.0 0.0 0.0 0.0
0.0 0.0 0.0 0.0 0.0 0.0 0.0 0.0
0.0 0.0 0.0 0.0 0.0 0.0 0.0 0.0
00000000: 0000 0000 0000 0000 0000 0000 0000 0000
00000010: 0000 0000 0000 0000 0000 0000 0000 0000
00000020: 0000 0000 0000 0000 0000 0000 0000 0000
00000030: 0000 0000 0000 0000 0000 0000 0000 0000
00000040: 0000 0000 0000 0000 0000 0000 0000 0000
00000050: 0000 0000 0000 0000 0000 0000 0000 0000
00000060: 0000 0000 0000 0000 0000 0000 0000 0000
00000070: 0000 0000 0000 0000 0000 0000 0000 0000
00000080: 0000 0000 0000 0000 0000 0000 0000 0000
00000090: 0000 0000 0000 0000 0000 0000 0000 0000
000000a0: 0000 0000 0000 0000 0000 0000 0000 0000
000000b0: 0000 0000 0000 0000 0000 0000 0000 0000
000000c0: 0000 0000 0000 0000 0000 0000 0000 0000
000000d0: 0000 0000 0000 0000 0000 0000 0000 0000
000000e0: 0000 0000 0000 0000 0000 0000 0000 0000
000000f0: 0000 0000 0000 0000 0000 0000 0000 0000

encoder_b.convs.1.weight f4 [64, 64]
-0.16699973 0.022940654 -0.15758374 0.15683182 0.15220584 -0.080954365 0.030001635 -0.21180701
0.17600799 -0.096634015 0.21269 0.15090396 -0.10264943 -0.01567699 -0.05941445 -0.099409886
-0.07092402 -0.052940276 0.06667799 -0.09742854 0.19878477 -0.1110859 -0.037896987 0.20872644
0.03290557 0.095973216 0.0028145334 0.059605494 -0.030839466 -0.08192646 -0.019150725 -0.20174088
-0.15157877 -0.011726603 -0.11470288 -0.01674708 -0.17747676 -0.12757337 0.022390498 -0.08944716
0.08003991 0.117169246 -0.20726089 -0.021935757 -0.11382161 0.13989127 -0.0667038 -0.10152325
-0.043503936 -0.15530665 -0.14947985 0.17321862 0.17545524 -0.089659005 -0.18874836 -0.029741526
0.020772392 0.00895685 -0.054236174 -0.078882374 -0.13700539 -0.09207553 -0.032223117 -0.15004466
-0.15273018 0.08979347 -0.15499255 -0.20256293 0.10408051 -0.048236895 -0.016315416 -0.15607335
-0.06518369 -0.20232618 -0.10160445 -0.18323106 0.1237425 0.14618018 0.15446068 -0.073321216
-0.096977696 -0.11458816 -0.16068177 -0.0803966 -0.11480738 0.096499726 0.011682184 -0.0745058
0.19020656 -0.07344301 -0.14829661 -0.054017 -0.12682119 -0.19966236 -0.20753212 -0.011457203
0.19996472 0.212082 -0.059057478 -0.16079247 0.11885719 0.011415546 0.16159435 0.20727117
-0.069408976 -0.17100184 0.115492806 -0.20298427 -0.21514045 0.11477043 0.060757995 -0.080475345
0.076582275 0.02162656 -0.06661504 0.16673326 0.07718886 0.10729966 0.05548959 -0.07388053
-0.11607378 -0.090634555 0.0510816 -0.0654598 -0.18181886 -0.031738024 0.13492994 0.09803736
-0.13806668 -0.18929426 0.019641908 0.090015076 -0.12405947 -0.10100915 -0.19212304 0.2141306
-0.1023665 0.0925664 -0.20087902 0.055205658 -0.0141491145 0.1509663 -0.17688158 -0.07170778
0.1660252 0.13477974 0.06669409 0.21389687 -0.09840076 -0.09496664 0.11749948 0.12895072
-0.104830384 0.14227046 0.04547504 0.11081281 0.115847714 0.15609471 0.09461609 0.11799951
0.06308591 -0.14999607 -0.058315635 0.15284607 0.053842913 -0.11588483 -0.15927045 0.2065638
0.023459064 0.11712498 -0.07498 -0.19586238 0.008561188 0.08371338 0.10411931 -0.014078577
-0.20991366 0.021307735 -0.2059874 -0.0729175 -0.01417668 -0.20000692 -0.1592257 0.21263437
0.07746259 0.09352177 0.05144771 0.13816409 0.079766095 -0.07019536 0.029999545 0.05016177
0.017089522 0.037879076 0.20051938 0.17794724 -0.19253914 0.07238673 -0.053370625 0.030680323
-0.049901817 -0.10877538 -0.15288429 -0.13397259 -0.19708914 0.088234186 0.06378726 0.08557485
0.014486394 -0.14359808 0.12859815 -0.1362884 0.045264382 0.11107001 0.007983957 0.015464112
-0.205451 -0.15674706 -0.17780723 -0.011020814 0.06835953 0.07889621 0.19184324 0.07461079
-0.072543055 0.10534936 0.21175171 -0.06017302 -0.03326652 -0.05709608 0.0994413 0.17131266
0.052443624 0.2138674 0.037241295 0.09129234 0.2126734 0.09744382 -0.14408909 -0.035415605
-0.01985388 0.187656 0.12732407 -0.07209108 -0.027179178 0.21443863 -0.07151214 0.051401637
0.09153049 -0.06695516 -0.18530738 0.12853429 0.19639419 -0.07615247 0.12285718 0.04165241
00000000: fa01 2bbe 0aee bb3c a25d 21be 8598 203e
00000010: d9db 1b3e 67cb a5bd fdc5 f53c f0e3 58be
00000020: 703b 343e 0ee8 c5bd 68cb 593e 9186 1a3e
00000030: dd39 d2bd 086d 80bc 915c 73bd 6997 cbbd
00000040: 9d40 91bd e7d7 58bd 788e 883d 9d88 c7bd
00000050: 3c8e 4b3e 0181 e3bd df39 1bbd 62bc 553e
00000060: fec7 063d 9b8d c43d 0974 383b e424 743d
00000070: 0ca3 fcbc 0fc9 a7bd fbe1 9cbc 2995 4ebe
00000080: 7737 1bbe f020 40bc 58e9 eabd 2c31 89bc
00000090: 78bc 35be 98a2 02be 476c b73c 1330 b7bd
000000a0: f7eb a33d 6ef6 ef3d 333c 54be 9eb2 b3bc
000000b0: 4e1b e9bd a83f 0f3e 009c 88bd 6ceb cfbd
000000c0: 2f31 32bd b508 1fbe 3f11 19be 3960 313e
000000d0: 8aaa 333e 249f b7bd 4047 41be 80a4 f3bc
000000e0: dd2a aa3c c0bf 123c c026 5ebd 158d a1bd
000000f0: 244b 0cbe 1892 bcbd 63fc 03bd 4fa5 19be
00000100: 4d65 1cbe a4e5 b73d 5eb6 1ebe a86c 4fbe
00000110: 2a28 d53d 0d94 45bd e8a7 85bc b1d1 1fbe
00000120: 077f 85bd 982e 4fbe fe15 d0bd eca0 3bbe
00000130: b56c fd3d 42b0 153e f12a 1e3e 6f29 96bd
00000140: 3e9c c6bd 32ad eabd c389 24be f9a6 a4bd
00000150: 2220 ebbd a6a1 c53d a266 3f3c 7f96 98bd
00000160: 82c5 423e 4a69 96bd 11db 17be ee40 5dbd
00000170: 6add 01be 4a74 4cbe 4d83 54be feb6 3bbc
00000180: 8dc3 4c3e 062c 593e 41e6 71bd c8a6 24be
00000190: 666b f33d 4508 3b3c fd78 253e e53e 543e
000001a0: 4b26 8ebd 1b1b 2fbe 7e87 ec3d 1cdb 4fbe
000001b0: c74d 5cbe c20c eb3d 60dd 783d 42d0 a4bd
000001c0: 2bd7 9c3d 2f2a b13c 776d 88bd 20bc 2a3e
000001d0: 3115 9e3d edbf db3d 0d49 633d ad4e 97bd
000001e0: 17b8 edbd 9c9e b9bd f13a 513d ca0f 86bd
000001f0: b92e 3abe bbff 01bd 132b 0a3e d0c7 c83d
00000200: 5a61 0dbe 5bd6 41be 11e8 a03c d359 b83d
00000210: e412 febd e3dd cebd e7bb 44be 0d45 5b3e
00000220: 87a5 d1bd 7493 bd3d 3bb3 4dbe 541f 623d
00000230: b0d1 67bc e996 1a3e 7220 35be 87db 92bd
00000240: 8302 2a3e b303 0a3e e996 883d c807 5b3e
00000250: 5686 c9bd df7d c2bd 91a3 f03d a80b 043e
00000260: 50b1 d6bd 59af 113e 0944 3a3d d4f1 e23d
00000270: 9141 ed3d 4bd7 1f3e 15c6 c13d baa9 f13d
00000280: 3033 813d 9298 19be 60dc 6ebd ae83 1c3e
00000290: 638a 5c3d 0755 edbd cb17 23be 7685 533e
000002a0: 392d c03c 39df ef3d 1d8f 99bd 2690 48be
000002b0: 3a44 0c3c ec71 ab3d 813c d53d d5a9 66bc
000002c0: 9bf3 56be 8f8d ae3c 5cee 52be c555 95bd
000002d0: 4e45 68bc 9dce 4cbe 100c 23be d3bc 593e
000002e0: b5a4 9e3d 5788 bf3d d5ba 523d e37a 0d3e
000002f0: 685c a33d 96c2 8fbd 9bc1 f53c 6e76 4d3d
00000300: 53ff 8b3c 1727 1b3d f454 4d3e cd37 363e
00000310: fb28 45be 7e3f 943d 289b 5abd 4d55 fb3c
00000320: d965 4cbd a0c5 debd b38d 1cbe 1c30 09be
00000330: bcd1 49be 20b4 b43d e5a2 823d de41 af3d
00000340: 5758 6d3c 600b 13be 3caf 033e 308f 0bbe
00000350: 2567 393d ac78 e33d 25cf 023c 305d 7d3c
00000360: bf61 52be 4d82 20be 1913 36be a590 34bc
00000370: 1500 8c3d 5694 a13d 8e72 443e 8bcd 983d
00000380: 7491 94bd 68c1 d73d 71d5 583e fc77 76bd
00000390: 7942 08bd 94dd 69bd e1a7 cb3d 966c 2f3e
000003a0: 20cf 563d 0e00 5b3e 548a 183d 7af7 ba3d
000003b0: 0ec7 593e a090 c73d 178c 13be f40f 11bd
000003c0: 9ba4 a2bc e528 403e 3e61 023e 7da4 93bd
000003d0: dea6 debc cd95 5b3e f574 92bd 868a 523d
000003e0: 5674 bb3d c91f 89bd 38c1 3dbe 7e9e 033e
000003f0: 8f1b 493e d4f5 9bbd 8c9c fb3d b89b 2a3d

encoder_b.convs.1.bias f4 [64]
0.0 0.0 0.0 0.0 0.0 0.0 0.0 0.0
0.0 0.0 0.0 0.0 0.0 0.0 0.0 0.0
0.0 0.0 0.0 0.0 0.0 0.0 0.0 0.0
0.0 0.0 0.0 0.0 0.0 0.0 0.0 0.0
0.0 0.0 0.0 0.0 0.0 0.0 0.0 0.0
0.0 0.0 0.0 0.0 0.0 0.0 0.0 0.0
0.0 0.0 0.0 0.0 0.0 0.0 0.0 0.0
0.0 0.0 0.0 0.0 0.0 0.0 0.0 0.0
00000000: 0000 0000 0000 0000 0000 0000 0000 0000
00000010: 0000 0000 0000 0000 0000 0000 0000 0000
00000020: 0000 0000 0000 0000 0000 0000 0000 0000
00000030: 0000 0000 0000 0000 0000 0000 0000 0000
00000040: 0000 0000 0000 0000 0000 0000 0000 0000
00000050: 0000 0000 0000 0000 0000 0000 0000 0000
00000060: 0000 0000 0000 0000 0000 0000 0000 0000
00000070: 0000 0000 0000 0000 0000 0000 0000 0000
00000080: 0000 0000 0000 0000 0000 0000 0000 0000
00000090: 0000 0000 0000 0000 0000 0000 0000 0000
000000a0: 0000 0000 0000 0000 0000 0000 0000 0000
000000b0: 0000 0000 0000 0000 0000 0000 0000 0000
000000c0: 0000 0000 0000 0000 0000 0000 0000 0000
000000d0: 0000 0000 0000 0000 0000 0000 0000 0000
000000e0: 0000 0000 0000 0000 0000 0000 0000 0000
000000f0: 0000 0000 0000 0000 0000 0000 0000 0000

encoder_b.convs.2.weight f4 [64, 64]
0.19050331 -0.17885302 -0.09966579 0.056610912 -0.08678544 -0.12046066 0.12734005 -0.043069847
-0.0858944 -0.20527823 -0.03529799 0.13446826 0.07958295 -0.07523515 0.17175044 -0.015879389
-0.041706663 0.20764269 -0.12552816 -0.09450475 0.20310979 -0.14382231 0.05403166 -0.13317691
0.12568215 0.18936116 -0.03877041 -0.08989782 0.054430056 -0.18579675 -0.09813224 -0.19878843
0.007819215 -0.042067584 0.17311162 -0.10276322 -0.21446705 0.13480972 0.063510634 -0.15220806
0.15806706 -0.17846957 -0.11343955 -0.12525466 0.19909537 0.14853406 0.052980926 0.17564325
0.12810035 0.064200245 -0.0128116375 -0.045530606 0.122233234 0.1527708 -0.037722077 0.03261049
0.1844825 -0.114212215 -0.042684328 0.19777057 0.056910638 0.09808477 -0.19575629 -0.05073934
0.19298714 -0.018494 -0.024600338 0.08192626 0.18736345 -0.12652355 0.047844976 0.10060577
-0.03873118 0.17530543 -0.09442753 0.1044898 -0.061131123 0.02929497 -0.12304366 0.069118746
-0.117721565 0.17783046 -0.01590956 -0.155062 -0.14267348 -0.20424512 -0.09271421 0.17535077
-0.15049739 -0.19404124 -0.15727499 0.048460227 -0.061741855 -0.044684775 0.21442938 0.13132742
-0.12003395 -0.15303808 0.146596 0.16303192 -0.12082091 0.2054755 -0.20339645 0.18547486
0.0012430146 -0.058663495 0.19912584 0.14732476 0.16674565 0.028871976 -0.032906346 0.09672608
-0.20983747 0.14903511 0.010883637 0.16320771 0.10987342 -0.15986268 -0.048922915 -0.042083688
-0.08379471 -0.16824743 0.20113295 -0.20759082 -0.08407351 0.13218722 0.020465 0.111886874
0.01485991 -0.048580628 0.104042165 0.16050002 0.112314284 0.05013999 0.13358219 0.024771042
-0.13133119 0.004453673 -0.18252996 -0.20741436 0.16221292 0.030929541 -0.13023151 -0.20104446
-0.17805561 -0.15360475 -0.03060132 0.020751745 0.0019521324 0.008706006 0.06288091 4.0133877e-05
-0.08646887 0.11309652 -0.19396251 -0.10147251 -0.12510528 -0.094213545 0.14924148 -0.11437298
-0.21456575 0.06987174 -0.086014256 -0.061599128 0.056487337 -0.20231622 -0.20232683 -0.04087268
-0.16395737 0.19313437 0.13356578 0.17056671 0.11773775 0.02930021 0.0024832934 -0.08016893
-0.0019133406 -0.123192914 -0.1676219 -0.036955714 -0.14206511 -0.1530055 -0.1259122 0.03312467
0.12461384 -0.02053706 0.21048382 -0.20131843 -0.06526496 0.038671996 0.1650632 0.10850776
-0.109756246 -0.07948926 -0.0145385815 -0.014383724 0.19751148 -0.09441096 0.048899867 -0.06129904
-0.13215157 -0.023728646 -0.09402297 0.19005187 0.075394005 0.1591548 -0.021153832 -0.12431439
0.1778319 -0.024524871 0.11940043 -0.024033766 0.10423178 0.037751835 -0.10451845 0.1269402
0.06735425 0.12302869 0.074407876 -0.029717214 0.0525281 -0.0022121896 0.13986367 0.13959655
0.05091975 0.01738708 -0.13646603 0.0032383264 -0.16305372 -0.008876349 -0.12405885 -0.13615644
-0.12976705 -0.025012879 0.15633745 -0.05296216 -0.034900058 -0.19541518 0.07424631 0.08379533
-0.073988594 0.20068513 -0.07537909 -0.17326605 -0.15974686 -0.10339664 -0.07455344 0.12382138
-0.09248216 0.0063615167 -0.14697367 -0.020566665 -0.0005224115 -0.20564382 -0.12533389 0.029344214
00000000: 4d13 433e 3f25 37be 941d ccbd d8e0 673d
00000010: 91bc b1bd 14b4 f6bd 6e65 023e 026a 30bd
00000020: 67e9 afbd 7534 52be a094 10bd 0cb2 093e
00000030: 63fc a23d e314 9abd 59df 2f3e 7e15 82bc
00000040: 9bd4 2abd 49a0 543e 748a 00be b58b c1bd
00000050: 03fc 4f3e 2846 13be 4d50 5d3d 875f 08be
00000060: d2b2 003e e4e7 413e b9cd 1ebd 591c b8bd
00000070: 0df2 5e3d 8141 3ebe 8ef9 c8bd 328f 4bbe
00000080: 2a1c 003c 0f4f 2cbd 2c44 313e 8675 d2bd
00000090: 409d 5bbe 8f0b 0a3e dd11 823d 6edc 1bbe
000000a0: 55dc 213e bac0 36be ff52 e8bd c242 00be
000000b0: a8df 4b3e 5019 183e 8702 593d d3db 333e
000000c0: bd2c 033e 6b7b 833d e7e7 51bc 4d7e 3abd
000000d0: 6b55 fa3d f36f 1c3e 7782 1abd 9492 053d
000000e0: fbe8 3c3e 18e8 e9bd c3d5 2ebd 5e84 4a3e
000000f0: 211b 693d abe0 c83d 5674 48be 0ed4 4fbd
00000100: 6c9e 453e bb80 97bc a686 c9bc f4c8 a73d
00000110: 34dc 3f3e 648f 01be 18f9 433d 660a ce3d
00000120: 96a4 1ebd 4483 333e 3963 c1bd c0fe d53d
00000130: a164 7abd 01fc ef3c 50fe fbbd 218e 8d3d
00000140: 0118 f1bd 3019 363e c454 82bc 93c8 1ebe
00000150: ff18 12be a225 51be f3e0 bdbd 278f 333e
00000160: fd1b 1abe bfb2 46be b20c 21be 3b7e 463d
00000170: 07e5 7cbd 6207 37bd 6093 5b3e b27a 063e
00000180: 5cd4 f5bd 04b6 1cbe 431d 163e d7f1 263e
00000190: f470 f7bd 2b68 523e 2947 50be 1fed 3d3e
000001a0: a6ec a23a 2249 70bd a5e7 4b3e 4ddc 163e
000001b0: 5fbf 2a3e ec84 ec3c cec8 06bd 5318 c63d
000001c0: a2df 56be a99c 183e 4851 323c ec1f 273e
000001d0: 5105 e13d 0bb3 23be 6563 48bd f25f 2cbd
000001e0: 909c abbd 0e49 2cbe ccf5 4d3e b092 54be
000001f0: bb2e acbd 165c 073e 37a6 a73c f224 e53d
00000200: fb76 733c 7bfc 46bd 0f14 d53d 1e5a 243e
00000210: 0805 e63d 975f 4d3d c5c9 083e a4ec ca3c
00000220: af7b 06be 1ef0 913b 22e9 3abe 6e64 54be
00000230: 251b 263e f35f fd3c 695b 05be 99de 4dbe
00000240: 3654 36be 904a 1dbe 9faf fabc 90ff a93c
00000250: b2de ff3a a3a3 0e3c b5c7 803d 6c55 2838
00000260: 9716 b1bd 269f e73d 1c9e 46be d2d0 cfbd
00000270: 991b 00be 08f3 c0bd c2d2 183e 623c eabd
00000280: 20b7 5bbe ea18 8f3d 3e28 b0bd 5e4f 7cbd
00000290: 445f 673d fc2b 4fbe c42e 4fbe 1c6a 27bd
000002a0: 71e4 27be 04c5 453e 78c5 083e 0aa9 2e3e
000002b0: 7d20 f13d fe06 f03c c0be 223b 9c2f a4bd
000002c0: 0fc9 faba 914c fcbd 13a5 2bbe e05e 17bd
000002d0: 8479 11be 79ad 1cbe 21ef 00be bcad 073d
000002e0: 8a35 ff3d 563d a8bc 1289 573e 6b26 4ebe
000002f0: a3a9 85bd 8766 1e3d 5406 293e 5139 de3d
00000300: e2c7 e0bd 44cb a2bd 3b33 6ebc b6a9 6bbc
00000310: 7340 4a3e 895a c1bd 3a4b 483d b414 7bbd
00000320: be52 07be 9462 c2bc 1d8f c0bd f59c 423e
00000330: 2c68 9a3d 7af9 223e cd4a adbc 8b98 febd
00000340: 9119 363e 62e8 c8bc 3688 f43d 76e2 c4bc
00000350: 7977 d53d aba1 1a3d c50d d6bd 9dfc 013e
00000360: 06f1 893d 77f6 fb3d 2863 983d 8471 f3bc
00000370: b427 573d 62fa 10bb 6c38 0f3e 66f2 0e3e
00000380: 3a91 503d 596f 8e3c c0bd 0bbe 1a3a 543b
00000390: 8ef7 26be 1b6e 11bc 9112 febd 986c 0bbe
000003a0: a7e1 04be cfe7 ccbc ed16 203e daee 58bd
000003b0: 5df3 0ebd eb1a 48be 730e 983d e39c ab3d
000003c0: 5587 97bd 6780 4d3e 5a60 9abd a86c 31be
000003d0: ae94 23be 9ec1 d3bd 79af 98bd 1096 fd3d
000003e0: 4967 bdbd 4574 d03b 4480 16be 6c7b a8bc
000003f0: 71f2 08ba 4b94 52be 8757 00be 4763 f03c

encoder_b.convs.2.bias f4 [64]
0.0 0.0 0.0 0.0 0.0 0.0 0.0 0.0
0.0 0.0 0.0 0.0 0.0 0.0 0.0 0.0
0.0 0.0 0.0 0.0 0.0 0.0 0.0 0.0
0.0 0.0 0.0 0.0 0.0 0.0 0.0 0.0
0.0 0.0 0.0 0.0 0.0 0.0 0.0 0.0
0.0 0.0 0.0 0.0 0.0 0.0 0.0 0.0
0.0 0.0 0.0 0.0 0.0 0.0 0.0 0.0
0.0 0.0 0.0 0.0 0.0 0.0 0.0 0.0
00000000: 0000 0000 0000 0000 0000 0000 0000 0000
00000010: 0000 0000 0000 0000 0000 0000 0000 0000
00000020: 0000 0000 0000 0000 0000 0000 0000 0000
00000030: 0000 0000 0000 0000 0000 0000 0000 0000
00000040: 0000 0000 0000 0000 0000 0000 0000 0000
00000050: 0000 0000 0000 0000 0000 0000 0000 0000
00000060: 0000 0000 0000 0000 0000 0000 0000 0000
00000070: 0000 0000 0000 0000 0000 0000 0000 0000
00000080: 0000 0000 0000 0000 0000 0000 0000 0000
00000090: 0000 0000 0000 0000 0000 0000 0000 0000
000000a0: 0000 0000 0000 0000 0000 0000 0000 0000
000000b0: 0000 0000 0000 0000 0000 0000 0000 0000
000000c0: 0000 0000 0000 0000 0000 0000 0000 0000
000000d0: 0000 0000 0000 0000 0000 0000 0000 0000
000000e0: 0000 0000 0000 0000 0000 0000 0000 0000
000000f0: 0000 0000 0000 0000 0000 0000 0000 0000
