results/ABIDE_3x5fold_seed0/fold1_rep0_seed1/ckpt_best_fold_1.pt (torch, 660361 bytes, 72 tensors)

encoder_c.convs.0.weight f4 [116, 64]
0.08733682 -0.07329622 -0.0640551 -0.0015695214 -0.15735966 0.10389833 -0.029886281 0.07810993
0.03480201 -0.016253471 0.038081013 0.024539987 0.03202848 -0.0013341369 0.008623572 -0.01143956
0.005853174 -0.0037952499 0.12709019 0.045077797 -0.034629077 -0.121296376 -0.062492136 -0.09662814
-0.04654285 0.031329226 0.103137255 0.08039331 -0.11859115 0.028165972 0.06376542 0.17385234
0.05690609 -0.17676137 -0.13634767 -0.07081721 0.12596148 -0.017547915 0.05033647 -0.08507173
0.043074302 -0.042833738 0.117934965 0.020014707 -0.07561728 0.085564286 -0.06924902 0.05508214
-0.0681405 -0.015407498 -0.06123821 -0.04099878 0.07732962 -0.040137187 0.16756923 0.1518083
0.014611025 -0.10009918 0.08416812 0.054619085 -0.10304357 0.10415893 0.10462383 0.17964064
-0.08284762 -0.035604604 -0.07341657 -0.007629045 -0.12603128 -0.09226862 0.09848291 -0.033364095
0.09362611 0.02447333 0.048714835 0.04346275 0.026288994 -0.00111363 -0.14155301 0.0954629
-0.13621998 -0.12976165 0.004707708 -0.046229243 0.13171305 -0.119095616 -0.17941824 0.10690009
-0.00019058063 0.11576264 0.06875252 -0.1164957 0.056458995 0.013073042 -0.035524875 -0.05989369
0.032432243 0.01361051 -0.057041585 -0.040396757 0.13449316 -0.027031846 0.065173574 0.07734801
0.008235512 -0.09114084 0.15835093 0.020988122 0.13037172 0.029896207 0.075115964 0.121562965
0.15322876 -0.108843446 -0.009715584 0.021541571 0.110801846 0.114018254 -0.13430431 -0.11822045
-0.07035884 -0.011743524 0.14981762 -0.05156082 0.10843394 -0.10256892 -0.1659513 -0.014089267
0.08606724 0.1354548 -0.09097253 0.0050963494 0.15408538 0.11018178 0.11848149 0.085078545
0.12543453 0.04559757 -0.107745595 -0.13099517 -0.052316885 -0.00092235726 -0.09380713 0.054709017
0.102902696 -0.037738517 0.07176359 0.06840737 0.10168449 0.12842993 -0.029769922 0.1739108
-0.03969847 -0.0009242499 -0.14719856 -0.10342287 -0.09816731 -0.028991412 0.079782225 -0.050441347
-0.05799506 0.0850796 0.060049705 0.09481419 -0.09178692 0.03126117 -0.02578312 -0.04095347
-0.027665675 -0.03714321 -0.05733185 0.067477465 0.029951997 0.05910474 0.16485995 0.13741066
0.13063101 0.035729706 -0.007137238 0.06576493 -0.031828884 -0.0019167478 -0.1287105 -0.043789368
-0.09485375 0.13824122 -0.1394269 -0.070892625 -0.01488353 -0.07362688 0.06727651 -0.059635133
-0.07359215 -0.03217782 0.101587504 -0.010715725 0.07420109 0.10925982 0.18736531 -0.12101478
0.043847587 -0.09617477 0.16345835 -0.073640436 0.11984071 -0.0009139295 -0.021690214 -0.02524362
0.060247105 0.089632735 0.024765415 0.070764 -0.17350145 0.14756587 0.17408141 0.15015407
0.084482774 -0.1367458 -0.055075463 0.1747604 -0.14626527 0.062010024 -0.079559125 -0.09292398
0.016965432 -0.09565541 -0.038120106 0.096566975 0.109659664 0.1476122 -0.0075118714 -0.14403397
0.045947347 -0.028116226 -0.08066755 0.01889902 -0.10715828 0.13282745 0.09825401 -0.10153892
-0.13200316 0.026908541 0.03599114 0.019812012 -0.06828848 0.0209311 -0.15283194 -0.14161782
-0.09303694 0.1383292 0.115426384 -0.03733427 -0.009176691 0.096765086 0.038297545 -0.095540695
00000000: a6dd b23d 541c 96bd 522f 83bd 66b8 cdba
00000010: e422 21be a6c8 d43d 13d4 f4bc 19f8 9f3d
00000020: 8d8c 0e3d 0026 85bc d6fa 1b3d 1508 c93c
00000030: 4c30 033d 35de aeba e249 0d3c fe6c 3bbc
00000040: fbcb bf3b bab9 78bb ee23 023e 7fa3 383d
00000050: 38d7 0dbd 3c6a f8bd c1f7 7fbd f9e4 c5bd
00000060: b7a3 3ebd 1353 003d a039 d33d 3fa5 a43d
00000070: ebdf f2bd 53bc e63c 7297 823d 5906 323e
00000080: 5c16 693d ef00 35be b99e 0bbe 9d08 91bd
00000090: 0cfc 003e a5c0 8fbc 9d2d 4e3d 163a aebd
000000a0: ae6e 303d 6e72 2fbd e387 f13d e2f5 a33c
000000b0: 3cdd 9abd 543c af3d 6ed2 8dbd cf9d 613d
000000c0: 3f8d 8bbd bb6f 7cbc ebd4 7abd 56ee 27bd
000000d0: fe5e 9e3d e466 24bd 4597 2b3e a373 1b3e
000000e0: 1563 6f3c cd00 cdbd 5660 ac3d 43b8 5f3d
000000f0: 8208 d3bd 4751 d53d 0545 d63d b7f3 373e
00000100: 03ac a9bd 22d6 11bd 6d5b 96bd 11fd f9bb
00000110: 580e 01be 55f7 bcbd 68b1 c93d caa8 08bd
00000120: 0cbf bf3d 4b7c c83c 3589 473d ff05 323d
00000130: 045c d73c 39f7 91ba 46f3 10be 0e82 c33d
00000140: 407d 0bbe 3de0 04be 1e43 9a3b e05a 3dbd
00000150: c9df 063e 67e8 f3bd 6ab9 37be 6fee da3d
00000160: 99d6 47b9 f714 ed3d 1fce 8c3d 4c95 eebd
00000170: 8c41 673d 5030 563c 8882 11bd 1653 75bd
00000180: acd7 043d 9efe 5e3c 70a4 69bd 1277 25bd
00000190: 93b8 093e e471 ddbc b979 853d a268 9e3d
000001a0: 3eee 063c 0ca8 babd bf26 223e 48ef ab3c
000001b0: 2a80 053e e4e8 f43c 66d6 993d 01f6 f83d
000001c0: 00e8 1c3e 50e9 debd 1d2e 1fbc f377 b03c
000001d0: 14ec e23d 6782 e93d 1287 09be 901d f2bd
000001e0: 4c18 90bd e967 40bc ca69 193e 7031 53bd
000001f0: 9d12 de3d a70f d2bd 23ef 29be abd6 66bc
00000200: 0544 b03d aab4 0a3e ce4f babd 47ff a63b
00000210: 8fc8 1d3e fca6 e13d 6ca6 f23d a93d ae3d
00000220: e971 003e 84c4 3a3d b9a9 dcbd 9923 06be
00000230: 3b4a 56bd 59ca 71ba f41d c0bd 9016 603d
00000240: a6be d23d b493 1abd caf8 923d 2a19 8c3d
00000250: f53f d03d 2383 033e 0de0 f3bc ac15 323e
00000260: dd9a 22bd 5c49 72ba 38bb 16be 5fcf d3bd
00000270: f10b c9bd 667f edbc dd64 a33d 969b 4ebd
00000280: 3a8c 6dbd 373e ae3d aef6 753d f12d c23d
00000290: c8fa bbbd b60b 003d 1f37 d3bc d3be 27bd
000002a0: 20a3 e2bc 7b23 18bd cdd4 6abd a031 8a3d
000002b0: e45d f53c d017 723d 0cd1 283e 61b5 0c3e
000002c0: 23c4 053e 5059 123d 7edf e9bb c3af 863d
000002d0: 015f 02bd 623b fbba afcc 03be 7b5c 33bd
000002e0: af42 c2bd 1b8f 0d3e edc5 0ebe 2730 91bd
000002f0: 0dda 73bc b1c9 96bd 44c8 893d f843 74bd
00000300: 7bb7 96bd e4cc 03bd 1c0d d03d 0291 2fbc
00000310: bef6 973d 9dc3 df3d b1dc 3f3e 99d6 f7bd
00000320: 8799 333d 47f7 c4bd a061 273e ccd0 96bd
00000330: 0c6f f53d c594 6fba adaf b1bc b5cb cebc
00000340: abc5 763d 5e91 b73d d7e0 ca3c b7ec 903d
00000350: 5daa 31be 821b 173e 6642 323e fdc1 193e
00000360: 4e05 ad3d 1707 0cbe cf96 61bd 64f4 323e
00000370: 90c6 15be 39fe 7d3d e5ef a2bd ed4e bebd
00000380: 17fb 8a3c fce6 c3bd d423 1cbd e8c4 c53d
00000390: 3f95 e03d a727 173e 2526 f6bb a47d 13be
000003a0: 4933 3c3d 0054 e6bc 0735 a5bd 1ed2 9a3c
000003b0: cd75 dbbd eb03 083e 6639 c93d a3f3 cfbd
000003c0: d62b 07be 4d6f dc3c 726b 133d cd4c a23c
000003d0: d5da 8bbd b377 ab3c fa7f 1cbe 4304 11be
000003e0: 278a bebd 2ba6 0d3e ab64 ec3d d2eb 18bd
000003f0: d559 16bc c62c c63d e3dd 1c3d d7aa c3bd

encoder_c.convs.0.bias f4 [64]
0.005881108 0.016119862 0.007765896 -0.01626961 0.014711629 -0.007237315 -0.007872968 -0.022321967
0.01585342 -0.0154835405 -0.007935838 0.019417243 0.01103428 -0.00664867 0.023065578 0.014975509
0.0065674526 -0.017590798 0.031728026 -0.008639634 0.014937669 -0.0051106606 -0.00030779137 -0.0055455095
0.020260546 0.02097254 0.0062766597 0.014567154 0.024608912 0.022814387 0.038695026 -0.013433429
0.0014072998 0.005939194 0.024514403 0.006311783 0.0117404545 0.01526918 -0.0069362703 0.0024198303
0.010102633 0.017413806 -0.012549313 0.011687611 -0.000452689 -0.0042696493 0.020130381 0.022616241
-0.009099371 0.011587783 0.063109316 0.027984897 -0.0029832448 -0.012136581 0.03738158 0.011387677
-0.0023603959 0.002292729 0.020859232 -0.004275009 0.0082666455 0.041948006 -0.007872618 0.023746185
00000000: 4fb6 c03b cd0d 843c 0f79 fe3b d847 85bc
00000010: 0b09 713c 0027 edbb 9ffd 00bc 8fdc b6bc
00000020: 08df 813c adae 7dbc 5105 02bc e910 9f3c
00000030: 20c9 343c 16dd d9bb 06f4 bc3c d65b 753c
00000040: c933 d73b 941a 90bc 3ff5 013d 408d 0dbc
00000050: 20bd 743c 5477 a7bb 0f5f a1b9 1bb7 b5bb
00000060: 72f9 a53c 9bce ab3c 70ac cd3b 13ab 6e3c
00000070: a198 c93c 3de5 ba3c ad7e 1e3d e317 5cbc
00000080: 2575 b83a 929d c23b 6ed2 c83c 13d3 ce3b
00000090: 095b 403c 952b 7a3c a749 e3bb 0496 1e3b
000000a0: 8485 253c 66a7 8e3c a29b 4dbc 657d 3f3c
000000b0: e456 edb9 6ae8 8bbb 78e8 a43c b245 b93c
000000c0: 8715 15bc afda 3d3c 753f 813d 9540 e53c
000000d0: 8b82 43bb 83d8 46bc 6d1d 193d 6193 3a3c
000000e0: dfb0 1abb 9c41 163b fbe0 aa3c 6015 8cbb
000000f0: d370 073c acd1 2b3d 27fc 00bc 5c87 c23c

encoder_c.convs.1.weight f4 [64, 64]
0.0019034402 0.1254805 0.118663654 -0.020412702 0.123212695 -1.8223278e-10 6.810615e-37 -0.037311126
0.025593936 -0.09876345 -0.14123954 0.110078424 0.02108639 -0.13192989 9.736064e-29 -7.828055e-24
0.07266502 3.14653e-40 -0.16088913 -0.12688127 1.7334258e-24 -0.030514125 0.00246229 -0.14160673
0.009779269 -0.050946683 2.9159238e-13 0.1364887 1.8427161e-35 -0.024037847 0.08229997 0.04605138
-0.15044273 -0.0035396349 0.0022150197 -0.021447336 0.007102503 0.03885624 -0.052953746 -0.012502103
0.029580107 0.1534837 0.00808143 0.033302225 -0.10256871 -0.06944683 -0.07580329 0.13210833
-0.13276424 0.08534834 0.1282636 0.016799927 -0.02722429 -0.011847867 -0.030181352 0.10348568
-0.02492268 -0.065327525 0.040223338 -0.04174375 0.19722953 -0.066637784 0.06922227 -0.0019260575
0.0043999394 0.068866335 0.04443804 -0.023534209 0.045182507 -1.4935349e-35 8.9068234e-38 -0.047630906
-0.03765706 0.014134401 0.097325094 0.04591719 -0.18744181 0.09224279 1.16343e-40 5.476134e-23
0.20491588 4.306748e-39 0.092377044 -0.006151573 -4.6856633e-11 0.14427784 0.032400124 -0.10019231
0.02637893 -0.073398605 -3.9611477e-28 0.092340425 1.9862325e-32 0.002675029 -0.030577164 0.044775806
-0.10578478 -0.028895317 -0.0004131226 -0.108781144 0.078896284 -0.20750345 0.15393983 -0.020427704
0.013394527 0.062265377 -0.080800906 0.03381557 0.1290708 0.20335723 -0.04020125 -0.19803655
0.02436493 0.011729528 0.08866059 0.03465536 -0.15633686 0.011703161 -0.07205637 -0.16996267
-0.029765923 0.21567023 -0.11610248 0.013149131 -0.10563841 0.10594921 0.012952788 -0.178052
-0.026447965 -0.056175057 0.03511431 0.037352256 -0.06558298 3.3626617e-38 1.7676645e-36 -0.008172648
0.08892411 -0.1237521 0.116596684 -0.15270025 0.06525013 -0.12533012 -1.13071714e-07 4.9797114e-28
-0.13007152 -2.0914467e-35 0.17262363 0.013282036 8.5568814e-36 -0.0624962 -0.03760549 0.026617153
-0.02990951 0.03258343 -2.133291e-34 0.18008079 -5.49482e-11 0.07385339 0.01877456 -0.042145092
0.085884534 -0.00059615413 0.0010986298 0.015227565 0.0033248372 -0.03148593 -0.08739276 0.096786164
0.010196168 0.18022804 0.08960506 -0.0075469175 0.05978771 -0.1158647 0.010194429 -0.055598505
0.10439589 -0.044951808 -0.15316686 0.18269753 -0.03964796 0.06363978 0.061822817 0.008079619
0.09007954 -0.11472957 0.092106335 -0.062347114 -0.039258108 0.09148158 -0.1305321 0.029125137
0.0001579697 0.0032348041 -0.0011510337 0.0003817775 0.0023831103 -3.465505e-39 1.385918e-39 0.0010638348
-0.0027348215 0.0038794077 -0.0038973812 0.0032269235 -0.0008236785 0.01009816 -1.7023746e-08 -3.3353517e-31
0.0027396071 -7.3103807e-38 -0.0028006185 0.0015155856 -5.0722783e-13 0.0042503932 0.0026705833 0.0018788055
-0.0008735531 -9.729088e-05 5.3295533e-37 -0.0051954766 -1.3529227e-09 -0.0042843544 -0.0011774162 0.0025508094
-0.0036494196 -1.1615489e-05 -4.0908918e-07 0.0025543638 -0.0022235194 0.0018442925 0.00082929316 -0.0026781538
-0.000113592774 -0.0030085163 -0.00028308135 -0.0009403624 -0.00014326883 0.0038278403 0.0012429229 -0.005359648
-0.0014814573 -0.0013323372 0.0069080447 -0.016816854 0.0041128667 -0.00018583117 0.0016002704 -0.0006337145
-0.004168762 0.006803214 -0.0028687296 0.0016627182 -0.000842288 0.00017209625 0.0023944322 -0.0070824423
00000000: db7c f93a f67d 003e ee05 f33d 8a38 a7bc
00000010: f056 fc3d f85d 48af d3c0 6703 8dd3 18bd
00000020: 60aa d13c 7e44 cabd 19a1 10be cc70 e13d
00000030: 5dbd ac3c a118 07be abd6 f610 a76a 1799
00000040: 66d1 943d 206d 0300 1fc0 24be 2aed 01be
00000050: 091e 0618 c2f8 f9bc 5f5e 213b 5b01 11be
00000060: 3a39 203c 78ad 50bd e426 a42a b2c3 0b3e
00000070: 81f3 c305 05eb c4bc e38c a83d 5fa0 3c3d
00000080: a90d 1abe 38f9 67bb dd29 113b 53b2 afbc
00000090: 1dbc e83b b927 1f3d 07e6 58bd 9fd5 4cbc
000000a0: fb51 f23c d52a 1d3e f967 043c ea67 083d
000000b0: 8b0f d2bd 243a 8ebd c13e 9bbd 6847 073e
000000c0: 59f3 07be 1ccb ae3d 8857 033e 00a0 893c
000000d0: 7905 dfbc 8e1d 42bc e23e f7bc 4df0 d33d
000000e0: a62a ccbc 70ca 85bd 3ac1 243d 7ffb 2abd
000000f0: 8af6 493e 6479 88bd 68c4 8d3d c473 fcba
00000100: 5e2d 903b cb09 8d3d aa04 363d d0ca c0bc
00000110: 4b11 393d e3d1 9e85 8077 f201 a018 43bd
00000120: 4a3e 1abd fa93 673c 6152 c73d aa13 3c3d
00000130: bff0 3fbe cae9 bc3d 5144 0100 a167 841a
00000140: 78d5 513e 76e5 2e00 2d30 bd3d 2293 c9bb
00000150: e113 4eae 92bd 133e feb5 043d a031 cdbd
00000160: a018 d83c 0252 96bd 4c11 fb91 fa1c bd3d
00000170: 1e43 ce0a 8a4f 2f3b f67c fabc d666 373d
00000180: b1a5 d8bd dfb5 ecbc 6098 d8b9 a6c8 debd
00000190: 6094 a13d c97b 54be 67a2 1d3e 0058 a7bc
000001a0: b874 5b3c fb09 7f3d f27a a5bd 3282 0a3d
000001b0: 232b 043e e13c 503e 11aa 24bd 18ca 4abe
000001c0: f698 c73c 352d 403c af93 b53d c7f2 0d3d
000001d0: c516 20be 9dbe 3f3c 4a92 93bd b20a 2ebe
000001e0: aad7 f3bc a8d8 5c3e 23c7 edbd 746f 573c
000001f0: f358 d8bd e6fb d83d ee37 543c 4353 36be
00000200: 67a9 d8bc d117 66bd 06d4 0f3d aefe 183d
00000210: 5f50 86bd aa14 3701 5360 1604 92e6 05bc
00000220: d81d b63d be71 fdbd 3eca ee3d 745d 1cbe
00000230: dca1 853d 8a56 00be d5d1 f2b3 38d0 1d12
00000240: 7831 05be 9866 de85 40c4 303e e69c 593c
00000250: 18fc 3505 04fc 7fbd 3708 1abd 370c da3c
00000260: ca04 f5bc 3476 053d 11c8 8d87 1967 383e
00000270: 2caa 71ae 7240 973d 1bcd 993c 55a0 2cbd
00000280: 3be4 af3d 3a47 1cba e6ff 8f3a 097d 793c
00000290: 83e5 593b 64f7 00bd fafa b2bd d337 c63d
000002a0: d40d 273c b38d 383e dc82 b73d 224c f7bb
000002b0: f5e3 743d 794a edbd 8906 273c 42bb 63bd
000002c0: 83cd d53d 631f 38bd c6d7 1cbe 1015 3b3e
000002d0: e665 22bd 9355 823d ec39 7d3d 6160 043c
000002e0: 9f7b b83d 56f7 eabd 3fa2 bc3d b05f 7fbd
000002f0: 1ccd 20bd b25a bb3d 35aa 05be d797 ee3c
00000300: aba4 2539 02ff 533b 48de 96ba 4f29 c839
00000310: f52d 1c3b 6bbc 2580 6017 0f00 5f70 8b3a
00000320: b13a 33bb a93d 7e3b 356b 7fbb cb7a 533b
00000330: 21ec 57ba c172 253c 9d3b 92b2 097a d88c
00000340: fb8a 333b eb01 c781 958a 37bb 9da6 c63a
00000350: 9ec5 0eab e246 8b3b f404 2f3b 4042 f63a
00000360: 28ff 64ba a508 ccb8 f55a 3503 d13e aabb
00000370: bcf1 b9b0 c563 8cbb 8853 9aba 7b2b 273b
00000380: 1a2b 6fbb 25e0 42b7 caa0 dbb4 1d67 273b
00000390: 77b8 11bb 30bc f13a ec64 593a f783 2fbb
000003a0: a838 eeb8 872a 45bb 896a 94b9 a782 76ba
000003b0: 6f3a 16b9 81dc 7a3b 92e9 a23a fc9f afbb
000003c0: 752d c2ba d1a1 aeba e15c e23b 80c3 89bc
000003d0: 3ac5 863b addb 42b9 2ac0 d13a dc1f 26ba
000003e0: 1c9a 88bb 7fed de3b 4c01 3cbb 91ef d93a
000003f0: fecc 5cba bc74 3439 e8eb 1c3b d513 e8bb

encoder_c.convs.1.bias f4 [64]
0.02293931 0.023223545 0.04714585 -0.0008346916 0.022336755 -0.0037313397 -0.012615857 0.013303947
0.022607246 0.021997385 0.003240627 0.020289661 -0.0024617806 0.028643044 -0.0060948264 -0.018730983
0.026385752 -0.010026389 -0.00865775 -0.022140907 -0.027902583 0.029132016 0.03360267 -0.01600861
0.0021258781 -0.016849943 -0.0056054466 -0.0060125687 -0.018455341 -0.00289252 0.029877024 0.025437636
-0.0014381477 -0.01674658 -0.0056754667 0.02436226 -0.009330903 -0.0042739334 0.018819997 0.001083633
0.02898968 -0.0034076555 0.012716604 0.038604036 0.009483251 0.01618885 -0.00028545933 0.010905996
0.005513926 0.024225464 0.023550607 -0.0032248509 0.015491627 -0.00010289237 -0.01061427 -0.0064104344
0.0065968707 0.045090467 -0.008357972 0.008518424 0.0060316524 0.020785667 0.02069163 -0.010752146
00000000: 38eb bb3c 4e3f be3c 021c 413d 34cf 5aba
00000010: 92fb b63c 7e89 74bb bdb2 4ebc ccf8 593c
00000020: d532 b93c dc33 b43c b360 543b 8136 a63c
00000030: d355 21bb d1a4 ea3c 1cb7 c7bb b871 99bc
00000040: ef26 d83c b945 24bc 3cd9 0dbc d960 b5bc
00000050: f593 e4bc 44a6 ee3c f4a2 093d 7d24 83bc
00000060: 5152 0b3b e408 8abc e5ad b7bb 1505 c5bb
00000070: a82f 97bc 6f90 3dbb a9c0 f43c 9762 d03c
00000080: 3b80 bcba 2030 89bc 44f9 b9bb 5d93 c73c
00000090: a5e0 18bc 5a0c 8cbb 652c 9a3c b108 8e3a
000000a0: c47b ed3c f952 5fbb 4e59 503c 441f 1e3d
000000b0: a35f 1b3c 7b9e 843c b4a9 95b9 10af 323c
000000c0: 2aae b43b 7b74 c63c 34ed c03c 0558 53bb
000000d0: 98d0 7d3c ecc7 d7b8 7ae7 2dbc 9f0e d2bb
000000e0: 902a d83b c8b0 383d e0ef 08bc dc90 0b3c
000000f0: 2ba5 c53b b446 aa3c 7e81 a93c c529 30bc

encoder_c.convs.2.weight f4 [64, 64]
-0.027953673 0.017290413 -0.024279522 0.023687389 -0.011827801 -0.01736328 -0.017596053 -0.01854983
-0.03849806 0.018855466 0.01649458 -0.024513688 0.02719046 -0.0215246 -0.008457593 0.01549494
-0.033634283 0.010658877 -0.006924617 -0.0012021492 0.019352442 0.03207944 0.015989073 0.016277673
-0.021229474 -0.017801434 0.03300919 0.00810131 -0.025860542 -0.009375651 -0.0109374365 -0.012358162
0.0208391 -0.016678367 -0.014513836 -0.014590561 -0.009636701 -0.014479216 -0.022483535 -0.0007627346
-0.013702186 0.019496636 0.012389397 -0.022766959 -0.0077938954 -0.025515264 0.004100376 0.019098643
-0.0033002405 -0.014184734 0.017709406 0.045602884 -0.018077735 -0.04205849 -0.019067248 -0.019308854
0.0238574 -0.028870406 -5.6055535e-05 -0.0034518992 0.02146482 -0.023400545 -0.0136163235 -0.019507496
-0.056782946 0.030802287 -0.09400425 0.056189187 -0.06659153 -0.033512875 -0.11511727 -0.052271187
-0.03044093 0.048750456 0.020935625 0.0002892925 0.068579055 -0.07382798 -0.056517757 0.043966018
-0.12744923 0.03162952 -0.01296572 -0.007173881 0.057090312 0.056307126 0.05219378 0.08154928
-0.08412462 -0.07711695 0.040439397 -0.010130541 -0.074569136 -0.033619564 -0.033324167 0.014755736
0.096592955 -0.030997135 -0.028249241 -0.056958612 -0.063295424 -0.035590757 -0.07530462 0.0135497805
-0.06003433 0.053517826 0.047467034 -0.038406007 -0.01210376 -0.050844546 0.13203496 0.019177496
0.00795887 -0.023433613 0.0407774 0.10456808 -0.08163402 -0.11723535 -0.0010491336 -0.05072549
0.003987629 -0.007011936 -0.012200693 -0.023095189 0.053084448 -0.04460495 -0.14856419 -0.108066924
-0.17923109 -0.03314403 -0.013082619 0.21715346 -0.16086835 -0.02694039 0.026074793 0.18056598
0.14054947 -0.15394278 -0.11102955 -0.0020294534 0.17396319 0.0571306 0.1473482 0.0028274483
-0.13005385 0.044349782 0.1359587 0.08307662 -0.085032545 0.18000406 0.08086433 -0.09615038
-0.057968557 0.104363315 0.10045615 0.18678576 0.030899987 -0.086250745 0.054173563 -0.006224449
0.22329645 0.006700837 0.022450412 0.05691233 -0.17856507 -0.044105563 -0.18524034 -0.1907206
0.065897815 -0.051909108 -0.09961611 -0.20285584 0.19535579 -0.12396769 -0.1484878 -0.15529795
-0.10939298 0.019248884 -0.032412015 -0.14467408 0.13322598 -0.14085187 -0.13249923 0.0129310675
-0.059875164 -0.16693975 -0.07104067 0.07877098 0.03484741 -0.19437915 -0.07447066 -0.1637287
0.042500164 -0.07346508 0.114288434 0.012133034 0.049683698 -0.007963534 0.03745932 0.020054843
0.065616116 -0.05766742 -0.042661604 0.05920132 -0.07513123 0.063141696 0.035506226 -0.024914166
0.14205344 -0.027956752 0.01204418 0.028003437 -0.0929462 -0.007492585 -0.055118255 -0.115770064
0.04265087 0.060671322 -0.05003571 0.05399419 0.06989139 0.05438425 0.057128873 0.07339614
-0.047138605 0.065832056 0.0010174924 0.054948434 0.08166863 0.053404395 0.06301506 -0.03782994
0.031468324 -0.047515996 -0.055004977 0.017232168 0.061081644 0.064800866 -0.057681885 -0.10156642
-0.07573476 0.06388645 -0.065965354 -0.06884715 0.07915942 0.0675798 0.09518311 0.0934647
-0.07195434 0.06588461 0.04376828 0.036652546 -0.0720524 0.06277481 0.09058458 0.103432424
00000000: 1aff e4bc a0a4 8d3c d9e5 c6bc 0e0c c23c
00000010: 65c9 41bc 703d 8ebc 9925 90bc d0f5 97bc
00000020: 24b0 1dbd c776 9a3c a41f 873c eed0 c8bc
00000030: 87be de3c 5c54 b0bc b791 0abc 7dde 7d3c
00000040: 1ac4 09bd 92a2 2e3c e6e7 e2bb 6f91 9dba
00000050: 0389 9e3c bb65 033d 84fb 823c c158 853c
00000060: 6fe9 adbc 50d4 91bc a534 073d 5bbb 043c
00000070: 7dd9 d3bc 559c 19bc ef32 33bc e379 4abc
00000080: c3b6 aa3c 12a1 88bc 71cb 6dbc 400d 6fbc
00000090: 41e3 1dbc 3c3a 6dbc 642f b8bc 41f2 47ba
000000a0: 227f 60bc 69b7 9f3c e6fc 4a3c c681 babc
000000b0: ef63 ffbb 6305 d1bc 725c 863b c274 9c3c
000000c0: d948 58bb 1667 68bc 5113 913c 17ca 3a3d
000000d0: c217 94bc 8645 2cbd eb32 9cbc 9a2d 9ebc
000000e0: 9870 c33c a181 ecbc 2c1d 6bb8 4239 62bb
000000f0: fdd6 af3c 80b2 bfbc 0017 5fbc 2fce 9fbc
00000100: 3c95 68bd 1455 fc3c 4d85 c0bd a226 663d
00000110: 2461 88bd cc44 09bd 9ac2 ebbd 501a 56bd
00000120: 425f f9bc 8fae 473d 3081 ab3c 2fac 9739
00000130: 2d73 8c3d 2033 97bd 2a7f 67bd b615 343d
00000140: 0d82 02be f58d 013d 2c6e 54bc e012 ebbb
00000150: 88d7 693d 4da2 663d 25c9 553d 4f03 a73d
00000160: 8749 acbd 7eef 9dbd c8a3 253d 92fa 25bc
00000170: b4b7 98bd abb4 09bd ec7e 08bd 0bc2 713c
00000180: 87d2 c53d b4ed fdbc f46a e7bc 6f4d 69bd
00000190: 08a1 81bd 9dc7 11bd 4f39 9abd e6ff 5d3c
000001a0: 8fe6 75bd 8235 5b3d cb6c 423d 9e4f 1dbd
000001b0: d94e 46bc 5f42 50bd 2c34 073e 201a 9d3c
000001c0: ec65 023c d9f7 bfbc 3406 273d ca27 d63d
000001d0: bd2f a7bd 1619 f0bd 1583 89ba 88c5 4fbd
000001e0: a8aa 823b 62c4 e5bb 6ae5 47bc 1f32 bdbc
000001f0: 146f 593d aeb3 36bd 3621 18be 3152 ddbd
00000200: 5b88 37be 09c2 07bd 7b58 56bc 7a5d 5e3e
00000210: acba 24be 18b2 dcbc ce9a d53c 4ae6 383e
00000220: 33ec 0f3e 2da3 1dbe 7663 e3bd 9400 05bb
00000230: 6823 323e c701 6a3d 72e2 163e b64c 393b
00000240: d62c 05be 1ea8 353d c238 0b3e 1324 aa3d
00000250: 8b25 aebd fc52 383e 339c a53d 7eea c4bd
00000260: 7070 6dbd 6fbc d53d f4bb cd3d c444 3f3e
00000270: f821 fd3c 3ba4 b0bd 19e5 5d3d 76f6 cbbb
00000280: d3a7 643e b292 db3b ede9 b73c e71c 693d
00000290: c3d9 36be 09a8 34bd a5af 3dbe 434c 43be
000002a0: 6ff5 863d a59e 54bd 8803 ccbd 71b9 4fbe
000002b0: 590b 483e c6e2 fdbd 300d 18be 6d06 1fbe
000002c0: 6d09 e0bd d6af 9d3c 76c2 04bd 7125 14be
000002d0: 646c 083e 793b 10be e1ad 07be d4dc 533c
000002e0: a93f 75bd 41f2 2abe c57d 91bd ae52 a13d
000002f0: 28bc 0e3d 540b 47be 1384 98bd 7fa8 27be
00000300: a714 2e3d dc74 96bd 0e10 ea3d a2c9 463c
00000310: 2281 4b3d 7c79 02bc f26e 193d 0e4a a43c
00000320: be61 863d ac34 6cbd efbd 2ebd 157d 723d
00000330: 67de 99bd 6f50 813d fa6e 113d cb18 ccbc
00000340: 7576 113e 8f05 e5bc f454 453c 7767 e53c
00000350: 945a bebd 5c84 f5bb aec3 61bd db18 edbd
00000360: aeb2 2e3d 7e82 783d 3ff2 4cbd 0329 5d3d
00000370: 3823 8f3d 05c2 5e3d f7ff 693d b750 963d
00000380: 6914 41bd f5d2 863d 615d 853a 9c11 613d
00000390: e241 a73d 91be 5a3d 0a0e 813d 91f3 1abd
000003a0: eee4 003d 22a0 42bd e64c 61bd 7a2a 8d3c
000003b0: bf30 7a3d 51b6 843d d743 6cbd 0e02 d0bd
000003c0: d31a 9bbd e6d6 823d d818 87bd bcff 8cbd
000003d0: 561e a23d 4767 8a3d 5def c23d 6c6a bf3d
000003e0: cc5c 93bd 83ee 863d 5e46 333d fb20 163d
000003f0: 3590 93bd 1490 803d 6984 b93d 61d4 d33d

encoder_c.convs.2.bias f4 [64]
-0.0181319 -0.013131486 -0.011645134 0.04327225 -0.010039241 -0.04950828 -0.008483428 -0.014410791
-0.0125162015 0.013669795 0.014419469 -0.018351551 0.008277981 -0.012129855 -0.013335659 0.03420875
-0.009916526 0.003958967 -0.003943073 0.0102934195 0.008411092 0.026957098 0.022341674 0.0022213082
-0.02090879 -0.011046485 0.010397669 0.025827838 -0.0151856765 -0.0004929694 0.004964082 0.0040712883
0.026745778 -0.0052710418 -0.00910543 -0.011232869 -0.009205123 -0.009519161 -0.01636012 -0.020306975
-0.013666731 0.027553322 0.01613562 -0.050432786 -0.0073971096 -0.015823592 0.018032212 -0.00029335803
-0.02660162 -0.011444614 0.011650274 0.0099206995 -0.009266695 -0.010599195 -0.011075299 -0.010818766
0.012141407 -0.035073884 0.026122091 0.0060325465 0.010846439 -0.009830927 -0.003219182 -0.012042796
00000000: 5a89 94bc 7225 57bc 3bcb 3ebc 3e3e 313d
00000010: a17b 24bc 32c9 4abd 13fe 0abc 3d1b 6cbc
00000020: c110 4dbc 47f7 5f3c a33f 6c3c fe55 96bc
00000030: 5ea0 073c 4dbc 46bc cf7d 5abc 791e 0c3d
00000040: ed78 22bc 39ba 813b e534 81bb bba5 283c
00000050: adce 093c 22d5 dc3c e305 b73c 5e93 113b
00000060: e948 abbc 51fc 34bc fc5a 2a3c e794 d33c
00000070: 58cd 78bc 9e3a 01ba bda9 a23b 7168 853b
00000080: f619 db3c b4b8 acbb f12e 15bc 110a 38bc
00000090: 16d1 16bc 41f6 1bbc a905 86bc d05a a6bc
000000a0: 6dea 5fbc 81b7 e13c d92e 843c 9c92 4ebd
000000b0: 7463 f2bb 7aa0 81bc 4ab8 933c d9cd 99b9
000000c0: a4eb d9bc 3182 3bbc cae0 3e3c 6e8a 223c
000000d0: 56d3 17bc 3fa8 2dbc 2c75 35bc 3241 31bc
000000e0: c0ec 463c a2a9 0fbd fffd d53c abac c53b
000000f0: 43b5 313c e511 21bc e9f8 52bb 264f 45bc

encoder_b.convs.0.weight f4 [116, 64]
-0.07605279 -0.054080352 0.03983069 -0.060292162 0.110136 -0.02788561 -0.017863167 0.13067548
0.04771337 -0.042609118 0.0068991156 0.0948156 0.11316357 -0.0040983222 -0.1506412 0.032673415
0.00024614067 -0.00090937474 0.11083637 -0.05011613 -0.022274394 0.03467694 0.012589395 -0.065206505
-0.13257964 0.025130535 0.0105225425 0.0057678004 0.117644176 0.015149165 0.15709981 -0.0036676123
0.14083986 0.07679587 -0.022287939 -0.00050418393 0.03889479 0.012203691 -0.024171777 0.024557225
0.09331748 0.018273668 0.1147349 0.043891568 0.005031053 -0.12349773 -0.0512902 -0.011081995
0.02826062 -0.000622564 -0.025549425 -0.0012356389 0.07618069 -0.0030401577 -0.11987191 -0.11372002
-0.042588674 0.07213477 0.042460702 0.08344735 -0.023807019 0.017042294 0.009032732 -0.03032611
-0.024484405 -0.046331476 0.08036441 -0.08797483 -0.050097253 -0.0007185328 0.055243842 0.13143235
-0.09361768 -0.13540499 0.116220124 0.11310512 0.04861399 0.0009060346 -0.013364103 0.016160948
-0.0047391807 -0.0017127936 -0.038796518 0.028086275 0.0015553185 -0.08137987 -0.0048980783 0.111117706
0.046560295 0.11124571 0.015912594 -0.000107122236 0.061787486 -0.118104436 -0.13031805 0.023431895
0.0449622 0.043278508 0.046959154 0.11077218 0.11687386 0.071668155 -0.0023917616 -0.007625181
0.06553629 -0.04514988 0.14540038 -0.044160202 0.022756476 0.12964214 -0.0331376 -0.010750292
-0.07104582 -0.006039819 0.046086982 0.009632342 -0.09003005 0.03939196 -0.11323043 -0.11270544
0.06496653 -0.022504168 0.08685439 0.12542114 -0.10801575 9.635133e-06 0.0027477616 -7.234093e-05
-0.019547325 0.029514378 -0.008087281 -0.030672183 0.037966624 0.033301413 -0.017320544 0.12774512
-0.13604787 -0.06556201 -0.08570241 0.070689715 0.15277427 0.0031393925 -0.012043419 -0.0007100975
-0.0060025468 -0.020442666 -0.011667337 -0.06359336 0.09288223 0.043685745 0.0025542045 0.10384233
0.14083722 -0.054280307 -0.007875249 -0.00043947675 -0.06647857 -0.008465608 -0.012248255 -0.024915528
-0.0513354 -0.07053903 0.10632374 -0.04661883 -0.14056258 -0.039725207 -0.0023669703 -0.014670355
0.052849103 -0.039890308 0.1250279 0.06085675 0.08184754 -0.075900346 0.044203218 -0.012884361
0.1315726 -0.0021060472 -0.018894777 -0.002403807 -0.114220805 0.119653955 0.033471115 0.069377124
0.080526516 0.041387893 -0.07697 0.013994972 0.039222322 -0.0003182903 -0.016390275 -0.0011719945
0.01399392 0.022085397 -0.073553644 0.085609935 -0.04383727 0.02870992 0.024431208 0.107633926
0.13400216 -0.0837266 -0.023815433 0.1418826 0.11689936 0.0002054907 0.008848066 0.013651442
-0.03052357 0.0017232785 -0.1258061 0.04936979 -0.07698061 0.08160799 -0.001630754 0.08359072
-0.03327946 0.04173102 -0.0094376635 0.0013340568 0.0049447976 0.051766694 0.028000828 0.03784567
0.0049483418 0.12713625 0.06853067 0.090797685 0.09825601 0.035514556 0.026364032 0.0004970175
0.011418777 -0.019195572 0.01617152 0.017077593 0.12728602 0.073833875 0.028993871 -0.001416575
0.048396777 0.016276618 -0.060701165 -0.0020545174 -0.041755807 -0.06752135 0.054176234 0.06284019
0.027114013 -0.083068125 0.08400608 -0.10029884 0.008875955 -9.7159864e-05 -0.03503238 -0.00032388867
00000000: 91c1 9bbd 5c83 5dbd 8125 233d eaf4 76bd
00000010: fc8e e13d 5d70 e4bc c755 92bc cbcf 053e
00000020: 186f 433d e686 2ebd fa11 e23b ae2e c23d
00000030: 4dc2 e73d 384b 86bb b041 1abe 8fd4 053d
00000040: 710c 8139 1b63 6eba 2efe e23d 9246 4dbd
00000050: ca78 b6bc 6809 0e3d c043 4e3c fd8a 85bd
00000060: f5c2 07be 8dde cd3c be66 2c3c d1ff bc3b
00000070: 6eef f03d 3434 783c c6de 203e 535c 70bb
00000080: 5338 103e 2747 9d3d 3295 b6bc 362b 04ba
00000090: 2550 1f3d fdf1 473c e403 c6bc 3c2c c93c
000000a0: 3c1d bf3d a9b2 953c 22fa ea3d a5c7 333d
000000b0: 88db a43b 61ec fcbd ac15 52bd 4291 35bc
000000c0: d182 e73c 9033 23ba 074d d1bc 29f5 a1ba
000000d0: 9f04 9c3d 623d 47bb 677f f5bd 0be6 e8bd
000000e0: 7671 2ebd 65bb 933d 46eb 2d3d 72e6 aa3d
000000f0: f006 c3bc 489c 8b3c 06fe 133c 766e f8bc
00000100: 8593 c8bc 13c6 3dbd 1996 a43d 262c b4bd
00000110: c732 4dbd ec5b 3cba 5e47 623d 3496 063e
00000120: a0ba bfbd 9ba7 0abe d104 ee3d a8a3 e73d
00000130: 771f 473d f482 6d3a 1cf5 5abc f763 843c
00000140: 214b 9bbb d17f e0ba 19e9 1ebd 3015 e63c
00000150: d4db cb3a 7daa a6bd 0f80 a0bb ae91 e33d
00000160: 02b6 3e3d cad4 e33d 215b 823c d0a6 e0b8
00000170: e014 7d3d bde0 f1bd 1872 05be 3ff4 bf3c
00000180: 492a 383d ce44 313d 3e58 403d 86dc e23d
00000190: 905b ef3d c1c6 923d 1abf 1cbb a8dc f9bb
000001a0: e437 863d 15ef 38bd d6e3 143e 54e1 34bd
000001b0: ca6b ba3c e9c0 043e 4bbb 07bd fe21 30bc
000001c0: 7980 91bd ade9 c5bb b4c5 3c3d f8d0 1d3c
000001d0: ad61 b8bd 7759 213d 5be5 e7bd 1cd2 e6bd
000001e0: 2c0d 853d a95a b8bc b7e0 b13d 666e 003e
000001f0: 5d37 ddbd 95a6 2137 ca13 343b beb5 97b8
00000200: b621 a0bc 23c8 f13c 8480 04bc 3b44 fbbc
00000210: e482 1b3d 1067 083d d0e3 8dbc 9ecf 023e
00000220: 2250 0bbe 6045 86bd bf84 afbd c5c5 903d
00000230: dc70 1c3e 44be 4d3b c351 45bc d625 3aba
00000240: 03b1 c4bb 6177 a7bc 5c28 3fbc 3c3d 82bd
00000250: 0a39 be3d d3ef 323d 7164 273b 4aab d43d
00000260: a237 103e 0755 5ebd 3007 01bc 9269 e6b9
00000270: eb25 88bd 55b3 0abc e8ac 48bc a61b ccbc
00000280: 1245 52bd c476 90bd 43c0 d93d 63f3 3ebd
00000290: a3ef 0fbe e6b6 22bd 2c1f 1bbb ee5b 70bc
000002a0: 4d78 583d 0564 23bd 5007 003e ed44 793d
000002b0: af9f a73d a471 9bbd 6f0e 353d ed18 53bc
000002c0: f8ba 063e 9c05 0abb 38c9 9abc 3089 1dbb
000002d0: 99ec e9bd 220d f53d 0219 093d 9815 8e3d
000002e0: 16eb a43d 5a86 293d 73a2 9dbd 2b4b 653c
000002f0: 96a7 203d 33e0 a6b9 e644 86bc 9c9d 99ba
00000300: c146 653c 6fec b43c 4ba3 96bd 4354 af3d
00000310: b68e 33bd 1131 eb3c f523 c83c 2d6f dc3d
00000320: dd37 093e da78 abbd 9518 c3bc ac49 113e
00000330: ef68 ef3d fd78 5739 7bf7 103c 4caa 5f3c
00000340: 910c fabc a2df e13a 50d3 00be fa37 4a3d
00000350: 03a8 9dbd 1722 a73d 06bf d5ba 9d31 ab3d
00000360: 0b50 08bd 25ee 2a3d 6ea0 1abc 85db ae3a
00000370: f807 a23b 5009 543d fe61 e53c 1004 1b3d
00000380: b325 a23b 0130 023e cf59 8c3d 23f4 b93d
00000390: 723a c93d b677 113d 62f9 d73c 484a 023a
000003a0: d215 3b3c 0840 9dbc 237a 843c 4fe6 8b3c
000003b0: 4457 023e 3736 973d 8e84 ed3c 5fac b9ba
000003c0: b33b 463d 8b56 853c c9a1 78bd 15a5 06bb
000003d0: 2308 2bbd a248 8abd e6e7 5d3d 5cb2 803d
000003e0: 351e de3c 9f1f aabd 610b ac3d 7a69 cdbd
000003f0: 746c 113c 4ec2 cbb8 1d7e 0fbd 9acf a9b9

encoder_b.convs.0.bias f4 [64]
-0.017572071 0.0024677822 0.0057720495 0.008309099 0.022640338 -0.010132354 -0.0030309581 0.018949293
0.010532526 0.01992591 0.015341087 0.015493665 0.01580625 0.041280337 0.01822809 -0.03150524
-0.02476276 -0.019390509 0.014818888 -0.022489153 -0.005617913 -0.0020798545 -0.022448886 0.00032137858
-0.0070116366 0.020179836 -0.034617446 -0.007719411 0.02409553 -0.011096138 0.020667806 -0.0023542356
0.0021894726 0.015943037 0.0029636747 0.003899313 0.017976018 -0.0051944614 -0.018981265 -0.0011754511
0.0019061987 0.0058480427 0.0101585 -0.0019938103 0.021051733 -0.007498533 0.0033600258 0.001994801
0.012433786 -0.026760396 0.027264684 -0.017812807 0.016316867 -0.0034903032 0.0154554425 0.011551675
0.006989049 0.020201497 0.0029754862 -0.0102518955 -0.004095581 -0.01713585 -0.0067953058 -0.02735509
00000000: 4ef3 8fbc 84ba 213b 7623 bd3b e322 083c
00000010: 3b78 b93c 2c02 26bc 0aa3 46bb 8c3b 9b3c
00000020: 9e90 2c3c a93b a33c 2f59 7b3c 24d9 7d3c
00000030: 1c7c 813c 9215 293d 1353 953c a30b 01bd
00000040: 46db cabc d8d8 9ebc ecca 723c 2c3b b8bc
00000050: 7816 b8bb 2b4e 08bb bae6 b7bc b47e a839
00000060: dfc1 e5bb 2f50 a53c 06cb 0dbd 1df3 fcbb
00000070: fd63 c53c 93cc 35bc 884f a93c 8549 1abb
00000080: 417d 0f3b f99a 823c 363a 423b 9e8b 7f3b
00000090: 7142 933c 4d36 aabb 997e 9bbc 9811 9aba
000000a0: 6ad9 f93a f0a0 bf3b d66f 263c 96aa 02bb
000000b0: af74 ac3c 41b6 f5bb e133 5c3b 35bb 023b
000000c0: 14b7 4b3c 9e38 dbbc 305a df3c 2aec 91bc
000000d0: f3aa 853c 92bd 64bb d338 7d3c 3d43 3d3c
000000e0: 6404 e53b 9c7d a53c 6000 433b 91f7 27bc
000000f0: 3934 86bb 7b60 8cbc 28ab debb c817 e0bc

encoder_b.convs.1.weight f4 [64, 64]
-0.003080383 -0.005203068 0.024902957 0.05238237 3.4102446e-05 -0.037692018 -0.00049889984 -0.0747849
-0.019882169 -0.0013509733 0.040385652 0.05308642 0.020991728 -0.05708751 -0.09735983 0.001508068
0.07635973 0.008063757 0.023964582 -0.04248912 -0.052826103 0.010465866 -0.00025036465 -0.0037495443
0.0008753507 -0.00038200142 -0.013801795 -0.060004182 0.0421882 0.043412164 -0.013285253 -0.037982557
-0.00025193297 0.017974924 -0.019779317 -0.0066326787 0.0031116856 -0.05422371 -0.018966155 -4.9318656e-05
0.045993038 -0.009175074 0.057867642 0.0026287998 0.002248452 -0.00035481123 0.045284424 -0.0013613292
-0.01368429 0.017875265 -0.034143552 -0.043335393 -0.0014034371 0.013379542 -0.045231886 0.009959286
-1.6610156e-05 0.006188334 0.015528758 0.0008934795 -0.048848428 0.017036073 0.010508212 0.012115065
-0.047993585 0.004101205 0.029789593 -0.0077059004 0.018903023 -0.005321515 -1.950324e-08 -0.050451852
-0.0012856972 -0.0044353493 -0.076234914 0.0039441315 -0.09001975 0.09784357 -0.06687629 0.011105281
-0.021458615 0.06955519 0.08600761 -0.00011063101 -0.07057108 -0.024207087 -0.055507824 -0.022914404
-0.00048070293 0.0060558813 -0.0048550377 0.022261618 0.063910276 0.10467502 0.032836374 -0.054641046
0.026666904 -0.037475217 0.0003735733 0.012219575 -0.023926016 -0.08821624 -0.012058276 -0.02274534
-0.031827547 -1.6825937e-06 0.0015238019 -0.04161487 0.0007340769 -0.040587097 0.11232466 0.018037835
-0.014977545 -0.044415627 -0.051471196 -0.008477656 -0.020415965 0.010876345 0.018256547 -0.058237083
-0.0059755454 -0.057837978 -0.018067585 -0.07277801 -0.034101773 0.005067611 0.02195434 -0.0020006027
0.029271945 0.00312988 0.025929017 -0.02418657 -0.055082124 -0.0054912656 1.6811946e-08 -0.058606688
-0.05805899 -0.030134 -0.07034678 -0.055534117 -0.050520584 -0.01804993 0.029353706 -0.04917097
0.006429573 0.008857333 0.000108329405 0.020062767 -0.05156194 0.011155095 -0.00034315363 0.001764467
0.019609747 -0.012540915 0.00591544 0.073822066 0.06569511 -0.057657484 0.059597343 -0.0051030284
-0.04495035 -0.025074966 0.018073175 0.03940786 -0.002342654 0.05516927 -0.06538857 0.008703776
-0.0010877486 1.0186128e-08 0.0037023616 0.013870034 0.00021138293 0.02347288 -0.013390916 -0.058559436
-0.08758639 -0.0018822924 -0.007994453 0.011853794 -0.0022562933 0.042515084 0.00070328003 0.007824595
-0.018778719 0.008721056 0.044297643 -0.037919477 0.07720193 0.0498148 0.007831696 -0.00053915655
0.120298244 0.014307585 -0.14183858 0.0428096 0.01033703 -0.04702398 -0.005985698 -0.19011258
-0.024473289 -0.0037213312 -0.0049900752 -0.007288883 -0.00395561 -0.037431475 0.1774284 -0.016580738
-0.005503907 0.11754559 0.043822926 -0.003380669 0.0056673484 0.15848145 -0.0004305377 0.04756401
0.020488704 -0.005918957 0.01785156 0.17533626 0.1478908 0.145881 -0.0819139 -0.07458236
0.0025397374 0.0872486 -0.0017717691 0.06390633 -0.057626285 0.10396411 -0.07990327 0.06467569
0.04916991 -0.051063567 0.07229718 0.075964816 0.12524995 0.004240062 -0.10694084 -0.026716001
0.006806965 -0.010303677 0.02491112 0.02037905 -0.03748183 -0.07968081 -0.0002980378 -0.11805649
-0.0041149794 -0.017268274 0.1176058 0.0506716 0.1122294 -0.012216605 0.067990005 0.0809616
00000000: 40e0 49bb 7f7e aabb 4901 cc3c e58e 563d
00000010: 3909 0f38 f262 1abd 9ac8 02ba d328 99bd
00000020: eedf a2bc 2413 b1ba 6d6b 253d 2571 593d
00000030: d8f6 ab3c 98d4 69bd 9764 c7bd 5daa c53a
00000040: 7d62 9c3d d91d 043c 5f51 c43c 1209 2ebd
00000050: 2f60 58bd 0679 2b3c 6043 83b9 eaba 75bb
00000060: cb77 653a 5d47 c8b9 ed20 62bc f2c6 75bd
00000070: 89cd 2c3d f4d0 313d 64aa 59bc 9993 1bbd
00000080: df15 84b9 2640 933c 3c08 a2bc f156 d9bb
00000090: 6ced 4b3b ae19 5ebd e95e 9bbc 81db 4eb8
000000a0: 3263 3c3d 0d53 16bc 9f06 6d3d f147 2c3b
000000b0: c45a 133b f505 bab9 297c 393d a16e b2ba
000000c0: 1334 60bc 266f 923c 1cda 0bbd 7480 31bd
000000d0: 89f3 b7ba de35 5b3c 1245 39bd 462c 233c
000000e0: 0a56 8bb7 82c7 ca3b 556c 7e3c 6538 6a3a
000000f0: 4a15 48bd 3c8f 8b3c a32a 2c3c 447e 463c
00000100: ec94 44bd 6763 863b 4e09 f43c c781 fcbb
00000110: 83da 9a3c 1a60 aebb 1488 a7b2 9aa6 4ebd
00000120: d784 a8ba 6856 91bb 0d21 9cbd c63d 813b
00000130: 465c b8bd 3662 c83d 70f6 88bd edf2 353c
00000140: fac9 afbc f472 8e3d c224 b03d 9202 e8b8
00000150: 9287 90bd f14d c6bc 2c5c 63bd fdb6 bbbc
00000160: db06 fcb9 6a70 c63b 0217 9fbb ff5d b63c
00000170: 64e3 823d db5f d63d 6f7f 063d 4acf 5fbd
00000180: 8d74 da3c 9d7f 19bd 29dc c339 9d34 483c
00000190: 7e00 c4bc b7aa b4bd 1390 45bc 6f54 babc
000001a0: 9a5d 02bd 7bd5 e1b5 4fba c73a 5b74 2abd
000001b0: 116f 403a a83e 26bd 790a e63d 15c4 933c
000001c0: 6064 75bc 29ed 35bd 76d3 52bd dee5 0abc
000001d0: 623f a7bc b332 323c c18e 953c 028a 6ebd
000001e0: 82ce c3bb 84e7 6cbd 7902 94bc a30c 95bd
000001f0: 4dae 0bbd 340e a63b 97d9 b33c 8b1c 03bb
00000200: b8cb ef3c ac1e 4d3b 1769 d43c ea22 c6bc
00000210: cb9d 61bd 13f0 b3bb dc69 9032 910d 70bd
00000220: 43cf 6dbd 94db f6bc f911 90bd be77 63bd
00000230: acee 4ebd 72dd 93bc 2f77 f03c 8067 49bd
00000240: 2baf d23b 591e 113c e82e e338 ac5a a43c
00000250: 9d32 53bd dcc3 363c 4de9 b3b9 b045 e73a
00000260: 9fa4 a03c 6978 4dbc 4fd6 c13b 0630 973d
00000270: 288b 863d 412a 6cbd 581c 743d 4e37 a7bb
00000280: dc1d 38bd 046a cdbc 320e 943c 236a 213d
00000290: 3687 19bb 2cf9 613d 71ea 85bd 489a 0e3c
000002a0: c992 8eba 11ff 2e32 52a3 723b 243f 633c
000002b0: aca6 5d39 324a c03c 9365 5bbc 05dc 6fbd
000002c0: 7e60 b3bd 41b7 f6ba 2bfb 02bc 6a36 423c
000002d0: 52de 13bb 4c24 2e3d 535c 383a bb32 003c
000002e0: d4d5 99bc c3e2 0e3c 7271 353d 7451 1bbd
000002f0: 0c1c 9e3d 9b0a 4c3d 8450 003c 2f56 0dba
00000300: ed5e f63d 5c6a 6a3c 223e 11be 1e59 2f3d
00000310: a55c 293c 389c 40bd ad23 c4bb dfac 42be
00000320: 357c c8bc 94e1 73bb c983 a3bb 95d7 eebb
00000330: 109e 81bb bf51 19bd caaf 353e 54d4 87bc
00000340: 1e5a b4bb bebb f03d ab7f 333d 378e 5dbb
00000350: 2ab5 b93b f648 223e cbb9 e1b9 7bd2 423d
00000360: edd7 a73c cff3 c1bb 6f3d 923c 598b 333e
00000370: b070 173e d461 153e 7ac2 a7bd a3be 98bd
00000380: b971 263b 65af b23d b53a e8ba 52e1 823d
00000390: 8a09 6cbd 23eb d43d 53a4 a3bd b074 843d
000003a0: 6366 493d 0828 51bd 8b10 943d 7193 9b3d
000003b0: 8641 003e 38f0 8a3b cd03 dbbd 84db dabc
000003c0: f60c df3b c1d0 28bc 6812 cc3c f7f1 a63c
000003d0: 8c86 19bd b12f a3bd f541 9cb9 9ac7 f1bd
000003e0: f3d6 86bb 3276 8dbc 4fdb f03d 068d 4f3d
000003f0: 87d8 e53d 2828 48bc 583e 8b3d 32cf a53d

encoder_b.convs.1.bias f4 [64]
0.019929841 0.04719816 0.013894473 0.020589365 -0.0037864712 -0.013012012 -0.0057219192 -0.010666391
0.018464206 0.050823633 0.004848865 0.00627803 -0.024212012 -0.015489879 0.019206507 0.0059451926
0.00046374742 -0.0016304591 -0.005600701 -0.0063820262 0.014651781 -0.00037710654 0.0072734365 0.017106723
0.0049848533 0.029306203 0.032236528 0.01796064 0.008820934 -0.018300505 0.0034861283 0.008490192
0.007037111 0.0144348135 0.020951265 0.009281474 0.0016372795 0.030385643 0.02083276 -0.0097253565
-0.0077547696 -0.0075029884 0.0007739469 0.010115364 0.022089183 0.033471767 0.013272454 0.07276974
0.015540975 -0.0017070633 0.026441777 0.022145595 0.06364567 -0.006841562 -0.016958162 0.017544132
-0.005788193 -0.026728721 -0.0072558844 0.011518378 0.018722272 -0.013032978 0.01067209 -0.001838061
00000000: e843 a33c dc52 413d a5a5 633c 07ab a83c
00000010: 7226 78bb 5530 55bc f07e bbbb 16c2 2ebc
00000020: 3f42 973c 712c 503d 3ae3 9e3b efb7 cd3b
00000030: 4558 c6bc 43c9 7dbc f756 9d3c e4cf c23b
00000040: 2023 f339 21b5 d5ba 1686 b7bb 5120 d1bb
00000050: 060e 703c 62b6 c5b9 0256 ee3b 6623 8c3c
00000060: fb57 a33b 9013 f03c 730a 043d 3122 933c
00000070: ae85 103c f1ea 95bc 8777 643b 721a 0b3c
00000080: 9197 e63b ff7f 6c3c fda1 ab3c 5311 183c
00000090: fc99 d63a 50eb f83c 77a9 aa3c 1a57 1fbc
000000a0: b91b febb a1db f5bb b2e2 4a3a e9ba 253c
000000b0: 60f4 b43c b119 093d b574 593c 4d08 953d
000000c0: 939f 7e3c 8abf dfba 6d9c d83c ae6a b53c
000000d0: a958 823d 2f2f e0bb d8eb 8abc b6b8 8f3c
000000e0: e2aa bdbb 31f6 dabc c5c2 edbb 94b7 3c3c
000000f0: 735f 993c 4688 55bc fdd9 2e3c 18eb f0ba

encoder_b.convs.2.weight f4 [64, 64]
0.07851802 0.01820567 0.11478531 0.013039425 0.027365478 -0.05280938 -0.067798235 0.087555975
-0.015057734 -0.017690143 -0.056141447 -0.012873315 0.1039153 0.012502906 -0.11246693 -0.10202974
0.03065422 -0.07462618 -0.07970558 0.091406874 -0.13179274 -0.0996219 0.11824038 0.108839355
-0.11091168 0.025182031 -0.042008992 0.10961765 -0.040110476 -0.15033022 -0.021968028 0.05756564
-0.057033975 0.016584298 0.022583399 -0.025313701 -0.050339986 -0.13150844 0.042660963 0.016951744
-0.07560213 -0.051232837 -0.12700722 -0.002121106 -0.053608827 -0.05792967 -0.00355315 -0.02038217
0.031084396 0.055347655 -0.013828761 0.048041817 0.13410915 -0.09828127 -0.031283773 -0.030681299
-0.12530485 0.06978199 0.017367853 -0.017426956 -0.081945024 0.011859093 0.09239764 0.07029299
-0.00528659 -0.017584078 0.00944043 -0.010158961 -0.023768522 0.0042574527 0.0046375343 0.039338425
-0.038404264 -0.043629322 0.052614085 -0.00071008893 0.018122803 -0.007188706 0.0025159481 0.033805136
0.008848868 -0.00033317314 0.007027182 0.00027087194 0.012781184 -0.0034994865 -0.0008636654 0.01610921
0.0018553807 -0.015564549 -0.071784794 0.031701222 0.0058421195 -0.0030799524 0.009626508 0.001843314
-0.06735471 0.006638591 -0.036253724 0.00060877274 -0.004854807 0.044531964 -0.013919115 0.009970001
-0.010475502 -0.029368466 -0.029273113 -0.0079756295 0.051379327 0.0031654183 0.010068455 -0.0018194636
-0.0039899824 0.019016327 -0.015146419 0.011359445 -0.03586178 -0.0061810273 0.03179665 0.0022126539
0.0024342544 -0.0047688223 -0.060725495 -0.027567573 -0.0011290243 0.05182049 0.052215494 0.0031068951
-0.016024234 -0.019483112 -0.08888154 -0.0032512401 0.036539935 -0.053582504 0.074536666 0.015835298
-0.06024764 -0.11920118 0.0007805401 -0.121371865 0.054947715 -0.051420286 -0.07818312 0.1134806
0.060016964 -0.032247584 0.092613734 -0.019188728 -0.015363878 -0.08302859 0.035935204 -0.07154545
0.050694942 -0.0020607293 0.015123383 -0.023118189 0.06196743 -0.034724317 0.046577446 0.027802117
-0.103632264 -0.096317254 -0.094866045 -0.07418447 0.031609617 0.043854203 -0.012883271 0.079000525
0.04523042 -0.016575787 0.12462213 0.07980294 0.114915036 0.092839 -0.060931157 -0.05066391
0.0030068643 0.058599662 -0.06296928 0.06850513 0.0609862 0.022405503 -0.054613326 0.046959836
0.01949431 0.14647149 0.08955362 0.054720834 0.11182855 0.004234518 0.026217168 -0.07335621
0.06651278 -0.13174686 -0.01501853 -0.0052274144 0.01842872 -0.0914517 0.075046435 0.061281938
0.017914424 -0.06892998 -0.07309189 -0.0890001 -0.10354397 -0.08157562 -0.011320497 0.016652541
0.11034496 0.040179394 -0.06241545 -0.07221985 0.118030325 -0.031147894 -0.0067680636 -0.032795925
-0.106603295 -0.018648015 -0.0010302705 -0.005051075 -0.09819519 -0.09806439 0.0011950096 -0.014863855
-0.1079039 -0.024919173 0.00168652 0.057633415 -0.11019989 0.0948312 -0.09745787 0.03583033
0.05240874 0.012836856 -0.130245 -0.033716697 -0.05048613 0.00017438087 0.08018686 0.01600246
0.0521736 0.111354895 0.069075115 0.13272779 0.033306446 -0.04383741 -0.00913166 -0.11223771
-0.091416076 -0.099964194 0.06990015 -0.041697007 0.09672928 -0.03084809 -0.09013574 -0.025184369
00000000: 0ece a03d 0f24 953c 9014 eb3d 50a3 553c
00000010: 912d e03c a64e 58bd cdd9 8abd 8c50 b33d
00000020: b7b4 76bc ebea 90bc 93f4 65bd 99ea 52bc
00000030: 8bd1 d43d fdd8 4c3c 1055 e6bd f8f4 d0bd
00000040: 8f1e fb3c 9cd5 98bd ae3c a3bd 8733 bb3d
00000050: adf4 06be 9106 ccbd 0328 f23d 2be7 de3d
00000060: aa25 e3bd 8c4a ce3c 9f11 2cbd 387f e03d
00000070: e24a 24bd 2af0 19be 4bf6 b3bc f3c9 6b3d
00000080: 759c 69bd cbdb 873c d200 b93c ae5e cfbc
00000090: 4d31 4ebd 26aa 06be 43bd 2e3d 62de 8a3c
000000a0: 4ad5 9abd 86d9 51bd 2e0e 02be 4102 0bbb
000000b0: ee94 5bbd a947 6dbd f7db 68bb 82f8 a6bc
000000c0: b4a4 fe3c 39b4 623d 0792 62bc 7fc7 443d
000000d0: e953 093e b147 c9bd 6a23 00bd 5957 fbbc
000000e0: ea4f 00be dce9 8e3d 0747 8e3c fac2 8ebc
000000f0: cbd2 a7bd a44c 423c f93a bd3d c5f5 8f3d
00000100: 223b adbb 7c0c 90bc 09ac 1a3c c571 26bc
00000110: 34b6 c2bc 1a82 8b3b 75f6 973b 5421 213d
00000120: ca4d 1dbd a9b4 32bd de81 573d 4325 3aba
00000130: 4676 943c 3d8f ebbb 9be2 243b 4177 0a3d
00000140: d8fa 103c bead aeb9 4644 e63b d103 8e39
00000150: 2c68 513c a457 65bb 9b67 62ba 76f7 833c
00000160: 3f30 f33a 7302 7fbc e803 93bd 24d9 013d
00000170: 406f bf3b 07d9 49bb 80b8 1d3c 5b9b f13a
00000180: 44f1 89bd 8a88 d93b c97e 14bd 0c96 1f3a
00000190: 1315 9fbb 2667 363d 000d 64bc 3759 233c
000001a0: 71a1 2bbc 2396 f0bc 2bce efbc 37ac 02bc
000001b0: 2173 523d e872 4f3b 29f6 243c 117b eeba
000001c0: 66be 82bb 21c8 9b3c b028 78bc f71c 3a3c
000001d0: cde3 12bd 378a cabb 343d 023d 2c02 113b
000001e0: 0388 1f3b c843 9cbb 4cbb 78bd 64d5 e1bc
000001f0: c5fb 93ba b941 543d eadf 553d 0d9d 4b3b
00000200: 4145 83bc 0c9b 9fbc 8607 b6bd c212 55bb
00000210: e6aa 153d 5479 5bbd aea6 983d 07b9 813c
00000220: 3bc6 76bd c01f f4bd 299d 4c3a d091 f8bd
00000230: db10 613d 149e 52bd 791e a0bd 8468 e83d
00000240: 59d4 753d 0b16 04bd 45ac bd3d ae31 9dbc
00000250: c6b8 7bbc e50a aabd cb30 133d 6c86 92bd
00000260: 80a5 4f3d 4d0d 07bb 11c8 773c 5b62 bdbc
00000270: 8fd1 7d3d 163b 0ebd fec7 3e3d 44c1 e33c
00000280: 273d d4bd fb41 c5bd 2149 c2bd 07ee 97bd
00000290: 1679 013d 77a0 333d 5b14 53bc 07cb a13d
000002a0: 8843 393d f2c9 87bc e339 ff3d b96f a33d
000002b0: 9358 eb3d 6022 be3d f392 79bd f684 4fbd
000002c0: d00e 453b 3306 703d 0af6 80bd 6b4c 8c3d
000002d0: aacc 793d bf8b b73c 39b2 5fbd f558 403d
000002e0: 88b2 9f3c 9ffc 153e e367 b73d f422 603d
000002f0: 5e06 e53d b6c1 8a3b 63c5 d63c c83b 96bd
00000300: da37 883d a6e8 06be 4810 76bc bb4a abbb
00000310: d4f7 963c 074b bbbd f2b1 993d c502 7b3d
00000320: 45c1 923c 292b 8dbd 33b1 95bd af45 b6bd
00000330: dc0e d4bd 1e11 a7bd 9b79 39bc e96a 883c
00000340: 8afc e13d 2693 243d 58a7 7fbd 00e8 93bd
00000350: e2b9 f13d de29 ffbc a2c6 ddbb 0555 06bd
00000360: d452 dabd b9c3 98bc 240a 87ba 7d83 a5bb
00000370: 8f1a c9bd fcd5 c8bd dea1 9c3a 8787 73bc
00000380: b8fc dcbd 4b23 ccbc 380e dd3a 0411 6c3d
00000390: 7bb0 e1bd dc36 c23d fe97 c7bd d3c2 123d
000003a0: 8caa 563d ad51 523c f25e 05be 851a 0abd
000003b0: 8bca 4ebd 02da 3639 0239 a43d 9717 833c
000003c0: fcb3 553d 090e e43d 4177 8d3d cbe9 073e
000003d0: 576c 083d db8e 33bd f59c 15bc e2dc e5bd
000003e0: 5a38 bbbd 07ba ccbd cf27 8f3d 7bca 2abd
000003f0: 001a c63d 22b5 fcbc 1699 b8bd 734f cebc

encoder_b.convs.2.bias f4 [64]
-0.0040907757 -0.02045099 0.021446263 0.0113636 -0.013988689 -0.008678267 -0.0011329291 0.015250656
-0.017503353 -0.0068779946 -0.001619135 0.023558842 0.008568327 -0.02331651 -0.011937824 -0.002527401
0.017387183 -0.008065397 0.01606619 -0.017950939 -0.016117541 -0.013987053 -0.015928911 0.005220014
-0.013829826 -0.014728133 -0.013778154 0.0049887737 -0.0028851717 -0.0062171393 -0.0012844048 -0.009774944
-0.0034029956 -0.0033301301 -0.021333525 -0.0120620895 -0.01669749 0.023805067 -0.023747416 0.0052200104
-0.018895956 0.011353274 -0.011857125 -0.016499227 -0.016320422 -0.011867696 0.0068136724 -0.014177473
0.0021866416 0.0041350396 -0.017006407 -0.010384929 0.005876809 -0.014082372 -0.023217604 0.015927693
-0.019255115 -0.01661856 -0.020298338 -0.013401527 -0.013636014 0.003944762 0.020499174 0.012073262
00000000: ea0b 86bb d688 a7bc 13b0 af3c 652e 3a3c
00000010: d030 65bc 4a2f 0ebc cb7e 94ba e3dd 793c
00000020: 3163 8fbc cd60 e1bb 2839 d4ba 79fe c03c
00000030: 2b62 0c3c 4402 bfbc dd96 43bc c1a2 25bb
00000040: 916f 8e3c ba24 04bc 3e9d 833c d90d 93bc
00000050: ef08 84bc f429 65bc 597d 82bc a70c ab3b
00000060: 7f96 62bc 444e 71bc c4bd 61bc de78 a33b
00000070: 2615 3dbb 25b9 cbbb 7959 a8ba 1627 20bc
00000080: cb04 5fbb 503e 5abb a5c3 aebc 12a0 45bc
00000090: 2dc9 88bc d802 c33c f189 c2bc 9f0c ab3b
000000a0: b1cb 9abc 1503 3a3c 6344 42bc 6329 87bc
000000b0: 68b2 85bc ba70 42bc 3a45 df3b a248 68bc
000000c0: c24d 0f3b 3a7f 873b 0551 8bbc 8d25 2abc
000000d0: 3f92 c03b c0b9 66bc d832 bebc cb7a 823c
000000e0: e7bc 9dbc a523 88bc b348 a6bc 1492 5bbc
000000f0: 9769 5fbc 1043 813b e2ed a73c eece 453c
