results/ADHD_3x5fold_seed0/fold2_rep2_seed2002/ckpt_best_fold_2.pt (torch, 660347 bytes, 72 tensors)

encoder_c.convs.0.weight f4 [116, 64]
0	0xbc8b934f	-0.017038016
1	0xbe2184d5	-0.15773328
2	0xbe0363eb	-0.12831084
3	0xbd497965	-0.049188036
4	0xbe08c2c0	-0.13355541
5	0xbcd2ce64	-0.02573318
6	0x3d92ee2d	0.07174335
7	0x3d5dd6a2	0.054159768
8	0x3d48342d	0.048877884
9	0x3e38fad5	0.18064435
10	0xbdbf4256	-0.093388245
11	0xbdedde87	-0.11614709
12	0x3d3e77c6	0.046500944
13	0xbc097475	-0.008389582
14	0x3d1ea4f5	0.038731534
15	0xbd90bfe5	-0.07067851
16	0xbddbdc40	-0.10735369
17	0xbd074151	-0.033021275
18	0xbd447beb	-0.04796974
19	0xbd1ca622	-0.038244374
20	0xbc8ecefd	-0.017432684
21	0x3da26fd4	0.07931486
22	0xbdb0c3fc	-0.08631131
23	0x3ce65b5f	0.028119741
24	0xbdb997a1	-0.09062124
25	0xbe046b19	-0.1293148
26	0x3df034c5	0.11728815
27	0x3ceceabb	0.028920522
28	0xbd1f23b7	-0.03885242
29	0x3c6960de	0.014244286
30	0x3db60fca	0.0888973
31	0x3c209577	0.00980126
32	0x3ddd9767	0.10819893
33	0xbd299ebe	-0.041411154
34	0xbd95e0f3	-0.07318296
35	0x3d1b27a4	0.0378796
36	0xbdc97212	-0.0983621
37	0xbe04e788	-0.12978947
38	0xbd22202e	-0.03958147
39	0xbde55f19	-0.11199779
40	0x3d068182	0.032838352
41	0x3dcab50a	0.09897812
42	0x3da37f2b	0.0798324
43	0x3d911379	0.07083792
44	0x3daf96a2	0.08573653
45	0x3d8150a4	0.06314209
46	0x3d743972	0.059625097
47	0x3deeb0f3	0.11654844
48	0xbd8a7328	-0.067602456
49	0x3da7f4e5	0.08201007
50	0xbe07d242	-0.132638
51	0x3d91acc9	0.07113034
52	0xbd5c7b12	-0.053828306
53	0xbd5d927c	-0.054094777
54	0x3c5ae477	0.013360134
55	0x3d22d4e0	0.039753795
56	0xbdb6731d	-0.08908675
57	0x3df2f3da	0.11862917
58	0x3d86db84	0.06584838
59	0x3c9cce85	0.019141445
60	0x3dd6c848	0.10487419
61	0x3d702cb7	0.058636393
62	0x3bd350d6	0.0064488454
63	0xba9141a7	-0.0011082188
64	0x3d002871	0.031288568
65	0xbc4dc490	-0.012559071
66	0xbc8ce557	-0.017199202
67	0xbd8bb2fa	-0.068212464
68	0x3ce02491	0.027361186
69	0x3d885f08	0.06658751
70	0x3b86238c	0.004093593
71	0xbd7dd11a	-0.061966993
72	0xbc1e1da8	-0.009650625
73	0x3dac61a0	0.08417058
74	0xbdb0cdbe	-0.08632992
75	0x3d590a67	0.052988436
76	0xbdb9792c	-0.09056315
77	0x3e087359	0.13325252
78	0xbdbd8db4	-0.09255543
79	0x3de29f22	0.110655084
80	0x3c8ffcd8	0.01757662
81	0xbe085c32	-0.1331642
82	0xbdaaf5cb	-0.083476625
83	0x3d511190	0.05104214
84	0xbd52cdd4	-0.051465824
85	0x3dbb8ada	0.09157343
86	0x3d9aa088	0.0755015
87	0xbd8f89a8	-0.07008678
88	0x3e23e889	0.16006674
89	0xbca5cda3	-0.020239657
90	0xbe522003	-0.20520024
91	0xbe2fb054	-0.17157108
92	0x3d37cfd2	0.044875927
93	0x3de84753	0.11341729
94	0x3d4181ba	0.047242858
95	0x3b1690aa	0.002297441
96	0xbdb01e1a	-0.085994914
97	0x3d9d421c	0.07678625
98	0x3d8aa531	0.06769789
99	0x3ba356d1	0.0049847146
100	0xbe078846	-0.13235578
101	0x3bc1ec26	0.0059180437
102	0x3cca5809	0.024700182
103	0xbd183240	-0.037157297
104	0xbd8ad0a4	-0.06778076
105	0x3d54d4f0	0.051960886
106	0x3dfc8869	0.12330706
107	0x3d74b4f5	0.059742887
108	0xbc0e4891	-0.008684293
109	0xbcba8be7	-0.022771789
110	0xbc0f83da	-0.008759463
111	0x3d5a4af5	0.05329414
112	0x3bbace1a	0.0057008388
113	0xbdca1ebf	-0.098691456
114	0xbd09c95e	-0.033639304
115	0x3a40a5aa	0.00073489046
116	0x3cb356f5	0.02189205
117	0x3ca9c7d2	0.020725165
118	0x3d9261a2	0.07147528
119	0xbd97e219	-0.074161716
120	0xbdc7eba9	-0.097617455
121	0xbe17e42f	-0.14833139
122	0x3de4ae94	0.11166111
123	0xbd8b2dd2	-0.06795849
124	0x3ba27768	0.004958082
125	0x3b8bab1e	0.004262342
126	0x3def1dad	0.11675582
127	0x3d987657	0.074444465
128	0x3df0e5f0	0.11762607
129	0x3d97fce1	0.0742128
130	0xbd56b9ba	-0.052423216
131	0x3c3fdc29	0.011710205
132	0x3e1096d2	0.14120033
133	0x3dd8f309	0.1059323
134	0x3de09ad9	0.10967035
135	0xbd400ed9	-0.04688916
136	0xbd2da59d	-0.04239427
137	0xbce57f64	-0.028014846
138	0x3ccb8fd6	0.02484886
139	0x3dc30841	0.09523059
140	0x3df85b20	0.12126756
141	0x3c62b4b9	0.013837033
142	0xbcad14df	-0.021128116
143	0x3cca7a77	0.024716599
144	0xbc50bf6c	-0.012740951
145	0xbd725f81	-0.05917311
146	0x3cf9da54	0.030499615
147	0x3d1dcd31	0.038525764
148	0xbdcb6b14	-0.09932533
149	0x3d8da261	0.06915737
150	0x3def4489	0.11682994
151	0xbdbcc8d2	-0.09217991
152	0x3c1ed53a	0.009694392
153	0x3e1f14b2	0.15535238
154	0xbd03c5a0	-0.03217089
155	0xbe303e39	-0.17211236
156	0x3d8da4df	0.06916212
157	0xbd845064	-0.06460646
158	0x3dac23d6	0.08405273
159	0xbdb329ce	-0.08748208
160	0x3da0ba68	0.07848054
161	0xbc63bf97	-0.013900659
162	0xbd7e15f2	-0.062032647
163	0xbe1958d6	-0.14975294
164	0xbe0076d3	-0.12545328
165	0xbe28f852	-0.16500977
166	0x3cac560b	0.021037122
167	0x3daac23f	0.08337831
168	0x3d81e516	0.06342523
169	0xbd21e527	-0.039525177
170	0x3c8ff3fe	0.0175724
171	0xbca6d5ce	-0.020365622
172	0x3d913295	0.07089726
173	0x3e0ca89d	0.13736196
174	0x3d34d6ee	0.044150285
175	0x3db2fe6a	0.08739932
176	0x3dcfeae2	0.10152222
177	0x3dce5bd3	0.10076108
178	0xbd8e433b	-0.06946417
179	0xbe16b6bf	-0.1471815
180	0x3dd2df9c	0.10296556
181	0xbd867ef3	-0.065671824
182	0x3d6885ee	0.05676835
183	0xbbbf833e	-0.0058445027
184	0x3d5ed24c	0.054399773
185	0x3934326a	0.00017184918
186	0xbdf04404	-0.11731723
187	0xbbc7052d	-0.006073615
188	0x3dbc13e4	0.09183481
189	0xbdcf880a	-0.10133369
190	0xbdd0b3bc	-0.101905316
191	0xbd078bf6	-0.03309246
192	0x3d9ec551	0.07752479
193	0x3cb738b9	0.022365915
194	0x3d2b1f29	0.041777764
195	0x3d52ac9f	0.051434156
196	0x3e1ade8f	0.15123962
197	0xbd0a2b04	-0.03373243
198	0x3d202777	0.039100137
199	0x3b3a0cac	0.00283889
200	0x3ac21954	0.0014808574
201	0x3d47d5bf	0.04878783
202	0x3d47128c	0.048601672
203	0x3d4f1dd1	0.050565545
204	0x3e28616e	0.16443416
205	0x3c817fec	0.015808068
206	0xbdd93776	-0.106062815
207	0xbd043f7c	-0.032287106
208	0x3d2346d6	0.039862476
209	0xbe1d4127	-0.15356885
210	0xbc21d605	-0.009877686
211	0x3dd46d3b	0.103723966
212	0x3e3df221	0.18549396
213	0x3dbb5e36	0.09148829
214	0xbd3312bb	-0.043719035
215	0x3d02090c	0.03174691
216	0xbd9dd7ae	-0.07707153
217	0x3e0b2b86	0.13590822
218	0xbe2e0838	-0.16995323
219	0xbd8eaf85	-0.069670714
220	0x3e12efd2	0.14349297
221	0xbd2fd5d4	-0.04292853
222	0xbd8ad4b0	-0.06778848
223	0x3d03290b	0.032021564
224	0x3da36af1	0.07979382
225	0xbe293b38	-0.16526496
226	0x3ddff5e9	0.109355755
227	0x3d5d6743	0.054053556
228	0x3cb1af29	0.021689968
229	0xbddf409d	-0.10900996
230	0x3db7e320	0.089788675
231	0x3dc15988	0.09440905
232	0xbcba3375	-0.022729615
233	0x3d7c25cf	0.061559495
234	0xbd974010	-0.07385266
235	0xbe0a767d	-0.13521762
236	0xbd51475e	-0.05109345
237	0xbe03925c	-0.128488
238	0xbd021314	-0.031756476
239	0xbd135028	-0.035965115
240	0xbd7dbc48	-0.061947137
241	0xbd1474a0	-0.036244035
242	0xbcd80c0f	-0.026372937
243	0xbcee2b1f	-0.029073296
244	0xbd848ebd	-0.06472538
245	0xbdb8a2ca	-0.090154245
246	0xbd9d395f	-0.07676958
247	0xbd488abd	-0.048960436
248	0x3ce63c29	0.028104858
249	0xbe296c84	-0.16545302
250	0x3dba4d11	0.090967305
251	0x3dd5226e	0.104069576
252	0x3d65930d	0.05604844
253	0xbda53a32	-0.080677405
254	0x3da0ef1c	0.078581065
255	0x3d5e34fa	0.05424974

encoder_c.convs.0.bias f4 [64]
0	0x3d220b02	0.03956128
1	0xbc29bfa6	-0.010360634
2	0xbc6c1ec6	-0.014411634
3	0xbc1e0d3e	-0.009646712
4	0x3a57ca1e	0.0008231717
5	0x3bda8912	0.006669172
6	0x3ad8b07a	0.0016532086
7	0x3ab90947	0.0014117145
8	0x3cae8aad	0.02130636
9	0x3bc157a6	0.005900341
10	0x3c6d5509	0.014485606
11	0x3cd9fcaa	0.026609737
12	0x3c4f5a00	0.012655735
13	0x3cdd0e26	0.026984286
14	0x3d019c36	0.031643115
15	0x3b85eb37	0.0040868777
16	0x3bfceb83	0.007718505
17	0x3cd29a12	0.025708232
18	0x3ba30493	0.0049749105
19	0xbc86d180	-0.01645732
20	0x3c92c9d1	0.0179185
21	0xbb7b9bfb	-0.0038392532
22	0xbbfe46c9	-0.007759903
23	0xbcb5423c	-0.02212631
24	0x3c967386	0.018365633
25	0xbb46a2df	-0.003030948
26	0xbbfd6cd2	-0.0077339197
27	0xbc16b195	-0.009197612
28	0x3c20c31a	0.009812141
29	0x3b3f5a03	0.0029197938
30	0x3c09c43b	0.008408601
31	0x3abd03f8	0.0014420738
32	0x3d061642	0.03273607
33	0x3cab5e63	0.02091903
34	0xbaac261f	-0.001313392
35	0x3c729dd8	0.014808141
36	0x3c159542	0.009129824
37	0x3a132eab	0.0005614559
38	0xbb8c1196	-0.0042745573
39	0x3ceb43ab	0.02871879
40	0x3cb6b7ec	0.022304498
41	0x3c356333	0.011071014
42	0x3c846a63	0.01616401
43	0x3cc9204a	0.02455153
44	0x3c83b5ca	0.016077895
45	0x3cd08caf	0.025457708
46	0xbc525c30	-0.012839362
47	0x3c2b0dc8	0.010440297
48	0x3c379752	0.011205511
49	0x3ca747f7	0.020420058
50	0x3bc9806f	0.0061493437
51	0xba5e4485	-0.0008478838
52	0x3ce6c899	0.028171824
53	0x3bbaefc1	0.0057048504
54	0x3c8002d4	0.015626349
55	0xbc80a24d	-0.015702391
56	0x3d23cea9	0.03999201
57	0x3c07ba68	0.008284189
58	0x3cdfa034	0.02729807
59	0x3d6326c5	0.055456895
60	0x3bbd9a99	0.0057862517
61	0x3d0f8de2	0.03504742
62	0x3caa021c	0.020752959
63	0xbc83c23d	-0.016083831

encoder_c.convs.1.weight f4 [64, 64]
0	0x3d6b3a0a	0.057428397
1	0xbb472fca	-0.0030393475
2	0xbdce3889	-0.10069377
3	0xbe12d8ad	-0.14340468
4	0x3d415e9a	0.04720936
5	0x3d533f4c	0.051574036
6	0xba7a2961	-0.0009542909
7	0x3dd362dd	0.10321591
8	0xbd3084d8	-0.04309544
9	0xbd960ac1	-0.0732627
10	0x3d60255d	0.054723132
11	0x3e538c35	0.20658953
12	0xbd7cb16f	-0.06169265
13	0x3da8d368	0.082434475
14	0x3de4a6f5	0.11164657
15	0x3e3b3185	0.18280609
16	0xbdc67526	-0.09690313
17	0x3cd21aea	0.0256476
18	0xba5b8435	-0.00083738874
19	0x3bc63c79	0.0060496894
20	0x3e199a71	0.15000321
21	0x3cafabbe	0.021444198
22	0xbc85ce99	-0.016333865
23	0xbe253fd9	-0.16137637
24	0x3dd9eb99	0.1064064
25	0xbc5f70e8	-0.013637759
26	0x3daeddb3	0.085383795
27	0x3de9dc22	0.1141894
28	0xbddbb3aa	-0.107276276
29	0xbd004c8b	-0.031322997
30	0xbc8933ee	-0.016748395
31	0xbc22670f	-0.009912266
32	0x3dcaf448	0.09909874
33	0xbd93d3d9	-0.07218141
34	0xbd832882	-0.064042106
35	0x3d62e1e5	0.05539121
36	0xb8a47104	-7.84118e-05
37	0x39403a12	0.0001833218
38	0x3d5b734b	0.05357675
39	0xbd18b895	-0.037285406
40	0xbe3f1524	-0.18660408
41	0x3e00575d	0.12533326
42	0x3d881d7f	0.06646251
43	0x3cc68dde	0.02423757
44	0x3dea7bf9	0.11449427
45	0xbda58a41	-0.080830105
46	0x3e09859c	0.13429874
47	0x3d931649	0.07181985
48	0x3da87bb2	0.08226718
49	0xbd878c87	-0.066186
50	0xbb2a15b5	-0.002595288
51	0x3e0aefb7	0.13568006
52	0x3e69502c	0.2278449
53	0x3d3d9735	0.04628678
54	0xbcab4945	-0.020908961
55	0xbda9196b	-0.08256801
56	0x3e27cc06	0.16386423
57	0x3e27c561	0.16383888
58	0x3dd62462	0.10456158
59	0x3de1d5ff	0.11027145
60	0xbd898136	-0.06714098
61	0x3e13b96c	0.14426202
62	0xbd9eabab	-0.07747587
63	0x3bda871d	0.006668939
64	0x3ceb8c3f	0.028753398
65	0x3c828183	0.015930897
66	0xbd1a4726	-0.03766551
67	0x3d8db5b0	0.0691942
68	0x3d28ae9f	0.041182157
69	0xbd9a8b05	-0.07546047
70	0x3caeca9b	0.021336844
71	0xbd951a8d	-0.07280455
72	0x3cc45384	0.023965605
73	0xbd2467a2	-0.040137894
74	0x3dc85a36	0.09782831
75	0xbe123ec0	-0.1428175
76	0xbc95f586	-0.018305551
77	0x3dcc4eac	0.09975943
78	0x3d99f484	0.07517341
79	0x3d7c7f61	0.061644915
80	0x3da9b897	0.08287161
81	0x3e06b9cb	0.13156812
82	0x3c82b439	0.015955077
83	0x3d316389	0.043307815
84	0x3acf38de	0.0015809794
85	0xbde52583	-0.111887954
86	0xbdc54f58	-0.09634274
87	0xbe1807e4	-0.1484676
88	0xbd313828	-0.043266445
89	0x3b2b68b3	0.0026154935
90	0x3d136384	0.035983577
91	0xbd16760e	-0.03673368
92	0x3cee224c	0.029069088
93	0x3e529320	0.20563936
94	0x3d40fe55	0.04711755
95	0x3d8354df	0.06412672
96	0xbda183c3	-0.0788646
97	0xbcd8cebb	-0.026465764
98	0xbccf6074	-0.025314547
99	0x3dfd0e31	0.123562224
100	0x2398c48a	1.656311e-17
101	0x1f1fdd94	3.3852845e-20
102	0xbe294d79	-0.1653346
103	0x3d9ca404	0.07648471
104	0x3e11fdcb	0.1425697
105	0x3d29e981	0.041482452
106	0xbd94be97	-0.07262915
107	0xbb11bc7c	-0.002223759
108	0x3e461c4d	0.19346733
109	0x3e14f1ce	0.14545366
110	0x3d1b74a9	0.037953053
111	0x3db92a9a	0.09041329
112	0xbce78eb2	-0.028266285
113	0x3dc3813f	0.09546136
114	0x3dd4e564	0.10395315
115	0x3b701872	0.0036635664
116	0x3e34c273	0.17652301
117	0x3dcccabc	0.09999606
118	0xbe27a010	-0.16369653
119	0xbd965a40	-0.073414326
120	0xbe1e350b	-0.15449922
121	0x3ccc0671	0.024905415
122	0xbda72c2d	-0.08162723
123	0xbd60e5bb	-0.054906588
124	0x3e30e46a	0.17274633
125	0xbd71d192	-0.059037752
126	0x3dfc445e	0.123177275
127	0xbd403aa4	-0.046930924
128	0x3decf9a2	0.11571051
129	0x3dfa58f9	0.122240014
130	0xbcc347ed	-0.023838008
131	0x3e511b10	0.2042048
132	0x3bf1817c	0.007370172
133	0xbdc0092d	-0.0937675
134	0xbe1a8533	-0.15089874
135	0xbd8b6c31	-0.06807745
136	0xbcfb2a09	-0.030659692
137	0xbd2627ea	-0.04056541
138	0x3c5de158	0.013542496
139	0x3ce16cec	0.027517758
140	0x3cd9a4a7	0.02656777
141	0x3e2c9071	0.16851975
142	0xbe210069	-0.15722813
143	0x3d91544d	0.07096157
144	0xbdcc3296	-0.09970586
145	0xbd29d55d	-0.041463245
146	0xbcd0d4ae	-0.025492039
147	0x3c95b820	0.018276274
148	0x3e4a42ba	0.19752017
149	0x3d3cdc2a	0.046108402
150	0x3d571569	0.052510653
151	0x3afe6f31	0.00194118
152	0x3d8dd1ef	0.06924807
153	0x3c0b5352	0.008503752
154	0xbd928690	-0.07154572
155	0x3cb1dbdb	0.02171128
156	0xbd739570	-0.059468687
157	0x3e2edc80	0.17076302
158	0xbe26ce2d	-0.16289587
159	0xbd827534	-0.06370011
160	0xbd8f93e6	-0.07010631
161	0xbd8ea110	-0.06964314
162	0x3d611082	0.054947384
163	0x3dcc38b8	0.09971756
164	0x3729fcbb	1.0132028e-05
165	0x9e566d42	-1.135166e-20
166	0xbd29a20f	-0.041414317
167	0x3d1465fa	0.036230065
168	0xbd0dc19d	-0.034608472
169	0xbdce84bd	-0.100839116
170	0x3dc46c0f	0.09590923
171	0xbe03f9de	-0.12888286
172	0xbd715c92	-0.058926173
173	0x3d07002f	0.03295916
174	0x3d9f8b96	0.07790296
175	0x3e06cf52	0.13165024
176	0xbd40adb0	-0.04704064
177	0x3e108c29	0.14115967
178	0xbd214bef	-0.039379057
179	0x3ca2113f	0.019783614
180	0xbe16c594	-0.14723808
181	0xbcb5c02d	-0.022186363
182	0xbe1ebc26	-0.1550146
183	0x3db3d218	0.087803066
184	0x3d8206ec	0.063489765
185	0x3de49f3d	0.11163185
186	0xbe59362b	-0.2121207
187	0x3db5bc4f	0.08873808
188	0x3d997148	0.0749231
189	0xbc777ce3	-0.015105459
190	0x3e484ee9	0.19561352
191	0xbdc06876	-0.09394924
192	0xbcbe02ad	-0.023194635
193	0xbbcb529c	-0.006204916
194	0x3dc86ffd	0.09786985
195	0x3dbd49c2	0.09242584
196	0x3d13ef1b	0.0361167
197	0xbc434627	-0.011918581
198	0x3da7532d	0.081701614
199	0xbcd77bfb	-0.026304236
200	0x3c1b6ef8	0.009486906
201	0x3d95f0e8	0.0732134
202	0xbc004ae7	-0.007830358
203	0x3e2da295	0.16956551
204	0xb95d95f0	-0.00021132058
205	0xbdac5fac	-0.084166855
206	0x3dd41c8c	0.103570074
207	0xbd65af11	-0.05607516
208	0x3c959425	0.018259117
209	0x3cb3566b	0.021891793
210	0xbd9a703d	-0.07540939
211	0x3d7deb49	0.061991964
212	0xbbbdb541	-0.0057894294
213	0x3d4a272c	0.049353763
214	0xbc3f930b	-0.011692773
215	0xbda2af16	-0.07943551
216	0xbd18d623	-0.03731359
217	0xbc18da5b	-0.009329404
218	0x3d842df6	0.06454079
219	0xbcc12385	-0.023576507
220	0xbcbff69f	-0.023433028
221	0xbdf0b2b1	-0.11752833
222	0x3e2c2397	0.16810451
223	0xbd140aa1	-0.03614295
224	0x3d25ff8f	0.040526923
225	0xbdc36a9a	-0.09541817
226	0x3cbe12b4	0.023202278
227	0xbd935333	-0.07193603
228	0x1f079cf2	2.8717184e-20
229	0x1f72f017	5.144409e-20
230	0x3af65386	0.0018793202
231	0x3a377042	0.0006997624
232	0xbe2f9814	-0.17147857
233	0xbe284167	-0.16431199
234	0xbdc1f9d0	-0.09471476
235	0x3e19d2ba	0.15021792
236	0xbe316262	-0.17322686
237	0xbc4f1f75	-0.012641777
238	0xbd612321	-0.054965142
239	0xbc09cf49	-0.008411237
240	0xbd647831	-0.055778686
241	0xbd9e3051	-0.077240594
242	0x3c3d957a	0.0115712825
243	0x3db208b2	0.08693065
244	0x3def21e9	0.1167639
245	0x3db547cf	0.08851587
246	0xbdd900f9	-0.10595889
247	0xbbfafcd7	-0.0076595354
248	0x3dbc3368	0.091894925
249	0x3dad4151	0.08459724
250	0x3d213e7d	0.039366234
251	0x3dea81a5	0.11450509
252	0x3d8f7098	0.070038974
253	0xbd66997b	-0.056298714
254	0xbd4dac26	-0.050213
255	0x3cafea84	0.02147413

encoder_c.convs.1.bias f4 [64]
0	0x3c89a196	0.016800683
1	0x3cdd6aa0	0.027028382
2	0x3d0d7aae	0.034540825
3	0x3c1c508e	0.00954069
4	0x3c9e9adc	0.019360952
5	0x3cfc99bc	0.030835025
6	0x3d0457fb	0.032310467
7	0xb7232532	-9.724217e-06
8	0x3a81d1e5	0.0009904472
9	0x3cc4b69e	0.02401286
10	0x3cd666a2	0.026171986
11	0x3ce4d7f0	0.027934998
12	0x3ce5b545	0.028040538
13	0x3bc21a85	0.0059235715
14	0x3d14ba4b	0.036310475
15	0x3c499fb1	0.01230614
16	0xbc4fe557	-0.012688956
17	0x3c950cfe	0.018194672
18	0x3bc0b26e	0.0058806455
19	0x3cab6efb	0.020926943
20	0x3c18d4fe	0.009328125
21	0x3c5ba680	0.013406396
22	0x3b99efb3	0.004697764
23	0x3b721dd5	0.003694405
24	0x3d01558f	0.031575736
25	0xbc3c4de3	-0.011493179
26	0x3c435753	0.011922675
27	0x3c479edc	0.012183871
28	0x3cca4e85	0.024695644
29	0x3ccbc28a	0.024873037
30	0x3cbb3cd4	0.022856154
31	0x3cb6b23a	0.022301782
32	0x3ce055d5	0.027384678
33	0x3ca8a419	0.02058606
34	0xbcac7494	-0.021051683
35	0x3a8d834b	0.0010796575
36	0xbc4c4852	-0.012468414
37	0xbc8fd35a	-0.017556835
38	0x3c9dc09c	0.019256882
39	0xbcacde47	-0.021102084
40	0x3c2dc74b	0.010606597
41	0x3bea6213	0.0071528046
42	0x3c87a70b	0.016559144
43	0x3d487a80	0.04894495
44	0x3b3a747e	0.0028450782
45	0xbbaf3099	-0.0053463695
46	0x3c2c0476	0.01049911
47	0x3d23941c	0.03993617
48	0x3cf42b49	0.029805796
49	0x3bd86c81	0.0066047315
50	0xbbd715f8	-0.006563898
51	0x3c8fa474	0.017534472
52	0x3d00c6fe	0.031439774
53	0x3c9338e1	0.017971458
54	0x3c7c2c28	0.015391387
55	0x3cd1621d	0.02555948
56	0x3cd87789	0.026424186
57	0x3c748a9d	0.014925626
58	0x3cb0f9b4	0.021603443
59	0x3cc07c5e	0.023496803
60	0xbbfdf951	-0.007750668
61	0x3ca11ceb	0.01966711
62	0x3ba98769	0.005173613
63	0x3c86d8c4	0.016460784

encoder_c.convs.2.weight f4 [64, 64]
0	0x3e1f525c	0.15558761
1	0xbb725279	-0.0036975427
2	0xbbd326f5	-0.006443853
3	0x3d6a20d6	0.05716022
4	0x3db6ca99	0.08925361
5	0xbe275888	-0.16342366
6	0x3ca079d0	0.019589335
7	0xbe14e8d7	-0.14541946
8	0xbc96a3c0	-0.018388629
9	0x3d9f6a5a	0.07783957
10	0x3e342c66	0.17595062
11	0xbd3869b9	-0.0450227
12	0xbe08db30	-0.13364863
13	0xbbe29a4e	-0.006915367
14	0x3c54822f	0.012970491
15	0x3d4960a4	0.04916443
16	0xbc7c5542	-0.015401186
17	0xbaae9287	-0.0013318815
18	0xbba8f4c1	-0.00515613
19	0xbd504d60	-0.05085504
20	0xbdc72d57	-0.09725445
21	0xbe0be4d2	-0.13661507
22	0xbe07f009	-0.1327516
23	0xbd781431	-0.06056613
24	0x3d8c9ef1	0.06866253
25	0x3d58470d	0.052802134
26	0x3de13c36	0.109978124
27	0xbe2c5216	-0.16828188
28	0x3cd408b8	0.025883064
29	0x3d8666d3	0.06562581
30	0xbd60a130	-0.05484122
31	0x3e48ba2c	0.19602269
32	0xbd77383f	-0.060356375
33	0xbd643362	-0.055713065
34	0xbccd5d89	-0.025069015
35	0xbe1a8fb6	-0.15093884
36	0xbbd8c09a	-0.006614757
37	0x3bc404bc	0.0059820097
38	0x3da90d36	0.08254473
39	0xbd0f92ff	-0.035052296
40	0xbdca3da7	-0.098750405
41	0x3e18457e	0.14870259
42	0xbdf13290	-0.11777222
43	0x3db93dce	0.090449914
44	0xbe13e279	-0.14441861
45	0xbd5d7497	-0.054066267
46	0xbd72063b	-0.059087973
47	0xbdc5e5e7	-0.09662991
48	0x3e19ed85	0.15032013
49	0x3d082041	0.033233885
50	0xbd188e1b	-0.037244897
51	0xbd9fccd2	-0.07802738
52	0x3e51f207	0.20502482
53	0x3db8c3c6	0.09021716
54	0xbe2822cb	-0.16419522
55	0xbdd7dc2c	-0.10540041
56	0xbdaf3543	-0.08555081
57	0xbb678f52	-0.0035333228
58	0xbc4657b9	-0.012105876
59	0x3e1061f2	0.14099863
60	0x3c60c0f6	0.0137178805
61	0x3e168e9d	0.1470284
62	0xbcd3febc	-0.025878303
63	0xbdbbacd8	-0.09163827
64	0xbe01c7b1	-0.12673832
65	0x3d69aeaa	0.05705134
66	0xbde72512	-0.112863675
67	0x3d3c1535	0.045918662
68	0xbbabc900	-0.005242467
69	0xbd9dda6b	-0.077076755
70	0xbd16f66f	-0.03685611
71	0xbe02ea68	-0.12784731
72	0xbdba9a96	-0.09111516
73	0x3d1151bb	0.035478335
74	0x3d63dbf3	0.05562968
75	0xbcf92cfc	-0.030416958
76	0xbc6f24d9	-0.0145961875
77	0xbd32648e	-0.043552928
78	0xbdb4efbc	-0.08834788
79	0xbd6a5a7c	-0.0572152
80	0xbd3a59ed	-0.045495916
81	0xbc7a5a1f	-0.015280276
82	0xbd2a2cda	-0.04154668
83	0x3d2863da	0.04111085
84	0x3b9e8180	0.004837215
85	0x3b35f7f0	0.002776619
86	0xbd5c6ee2	-0.053816684
87	0x3df09092	0.117463246
88	0xbce6ab73	-0.028157925
89	0x3dcb8560	0.09937549
90	0x3e14d83e	0.14535615
91	0x3de6519c	0.112460345
92	0xbdfc1e8a	-0.12310512
93	0xbd51748f	-0.05113655
94	0x3d8682ff	0.06567954
95	0xbb8f4d59	-0.004373234
96	0xbcafa5dc	-0.021441393
97	0xbdb99248	-0.09061104
98	0xbd07af88	-0.033126384
99	0xbdfa9feb	-0.12237533
100	0x3d9e1295	0.07718388
101	0xbd40e196	-0.047090136
102	0xbd96ad86	-0.07357316
103	0x3d902971	0.07039154
104	0xbd2ba67c	-0.04190682
105	0x3d311c66	0.043239973
106	0x3d86998a	0.06572254
107	0x3d2ab330	0.041674793
108	0x3d608d36	0.05482217
109	0xbdbb1f73	-0.09136858
110	0xbd9ac595	-0.07557217
111	0x3d7598c6	0.05996015
112	0x3c5e7710	0.013578191
113	0xbceddc39	-0.029035674
114	0xbd55f8ec	-0.052239344
115	0xbd68a1b8	-0.056794852
116	0x3e0965e1	0.1341777
117	0xbd98ea90	-0.07466614
118	0xbcea913f	-0.028633712
119	0xba2d19ae	-0.0006603253
120	0x3d7950e7	0.06086817
121	0xbd237309	-0.039904628
122	0xbe00820d	-0.1254961
123	0xbd36a1a5	-0.04458775
124	0x3d7d2405	0.06180193
125	0x3e3b9568	0.18318713
126	0xbe0db64c	-0.13839072
127	0xbdaa66e2	-0.083204046
128	0x3d5e3afa	0.054255463
129	0xbcc1b9bc	-0.023648135
130	0xbe0b1b7c	-0.13584703
131	0xbe3ef212	-0.1864703
132	0x3d245fbb	0.04013036
133	0xbe4a0910	-0.1973002
134	0x3d88c95b	0.066790305
135	0x3c1cf978	0.009580962
136	0xbe130e97	-0.14361034
137	0x3d27605f	0.04086339
138	0x3d970e91	0.07375825
139	0xbd5fde7a	-0.05465553
140	0xbe1d3449	-0.15351976
141	0x3d3c606f	0.045990404
142	0xbd55af98	-0.052169412
143	0x3decffff	0.11572265
144	0x3d84b5ce	0.06479989
145	0xbcb33fd1	-0.021881016
146	0x3d97258c	0.073802084
147	0xbcb5d96d	-0.022198403
148	0x3e1a5f6d	0.15075465
149	0x3d80a1d8	0.06280869
150	0xbd8aadcf	-0.067714326
151	0xbd4638ab	-0.048393887
152	0x3e0b86e8	0.13625681
153	0xbd87c241	-0.06628848
154	0xbdb5c312	-0.08875097
155	0xbe7d7177	-0.24750315
156	0x3e0aeb05	0.13566215
157	0xbdce0b47	-0.10060745
158	0xbdf3ec2e	-0.11910282
159	0x3df1c893	0.118058346
160	0x3e3e685f	0.18594502
161	0x3e1f05bc	0.15529531
162	0xbd919fdb	-0.07110568
163	0xbd820b6e	-0.06349836
164	0x3caaa3d0	0.020830065
165	0x3d490259	0.049074505
166	0x3daa1d2f	0.083063476
167	0x3d6c58bc	0.05770181
168	0xbe4b4fbf	-0.1985464
169	0xbe50e8c3	-0.20401292
170	0xbe0b6520	-0.13612795
171	0xbc04376d	-0.008069855
172	0xbcda9ccd	-0.026686097
173	0x3d53fafc	0.05175303
174	0x3c92f95d	0.017941171
175	0x3e23d871	0.16000535
176	0xbdc18804	-0.09449771
177	0xbe1bdf89	-0.1522199
178	0x3c0110c0	0.007877529
179	0x3cfaf447	0.030634059
180	0x3d0a46a2	0.033758767
181	0xbdf01d34	-0.1172432
182	0x3d4a65c3	0.049413454
183	0x3e10fb24	0.14158303
184	0xbd16faac	-0.036860153
185	0xbd8cde8e	-0.068783864
186	0x3e2a33fd	0.16621394
187	0xbe3c9a2b	-0.18418185
188	0xbdd012b9	-0.10159821
189	0xbbc78ae6	-0.006089556
190	0x3dbc63c4	0.09198716
191	0x3b555bae	0.0032555866
192	0x3db8a9c3	0.090167545
193	0x3def6fc6	0.11691241
194	0xbdd82816	-0.10554521
195	0x3d9f92b1	0.07791651
196	0xbd751056	-0.059830032
197	0xbdd03bcd	-0.10167656
198	0xbd21ea57	-0.039530125
199	0x3dcac5dd	0.09901021
200	0x3bec40a1	0.007209853
201	0x3dbd79e4	0.092517644
202	0xbd8390cb	-0.064241014
203	0xbdf9b879	-0.121933885
204	0x3ddc2208	0.107486784
205	0xbe04a650	-0.12954068
206	0x3d52cfb6	0.05146762
207	0x3bf2c7b0	0.0074090585
208	0xbd1ca529	-0.038243446
209	0xbe3110e1	-0.17291595
210	0xbe17681e	-0.14785811
211	0xbe666142	-0.22498038
212	0xbded0396	-0.115729496
213	0xbd87b02c	-0.06625399
214	0x3e14bcce	0.14525148
215	0x3d8803a6	0.06641321
216	0xbd15e8a9	-0.036598835
217	0x3e0cd04e	0.13751337
218	0xbcb0ecfb	-0.021597376
219	0x3e3fcc6e	0.18730327
220	0xbe36b9a3	-0.17844252
221	0x3d5a7601	0.053335194
222	0x3c9b86a9	0.01898511
223	0x3cf53317	0.029931588
224	0xbe5a38e8	-0.2131077
225	0xbe2c866a	-0.1684815
226	0xbcb66f47	-0.022269858
227	0xbe4e7254	-0.201608
228	0xbca96d69	-0.020682054
229	0xbc05e56b	-0.008172373
230	0xbe08a2d5	-0.13343365
231	0xbd4bc32c	-0.049746677
232	0x3b97e5d9	0.0046355543
233	0xbdb48a1a	-0.08815403
234	0x3ca55c8c	0.020185731
235	0xb9f7eeda	-0.0004728947
236	0x3e1e26b1	0.15444447
237	0xbdb0b8c8	-0.08628994
238	0x3da1440c	0.07874307
239	0xbdb5869b	-0.088635646
240	0x3e545a8f	0.2073767
241	0xbcb3bd03	-0.021940714
242	0xbda569dc	-0.08076832
243	0xbe0542d1	-0.1301377
244	0xbe3d0589	-0.18459143
245	0xbd82c512	-0.063852444
246	0xbdb04cb8	-0.08608383
247	0xbe6ce5d4	-0.23134547
248	0xbbaa36a6	-0.005194503
249	0xbdec2f65	-0.11532477
250	0xbe38bae7	-0.18040048
251	0xbde0bf04	-0.10973933
252	0x3e3c3b62	0.18382028
253	0x3db2af03	0.08724787
254	0x3d3d782d	0.046257187
255	0xbe26d0e5	-0.16290624

encoder_c.convs.2.bias f4 [64]
0	0x3bfb3039	0.0076656607
1	0xbc9f9e2f	-0.019484608
2	0xbcab0a6c	-0.020878993
3	0xbc8754d1	-0.016519936
4	0x3ca91a5c	0.020642452
5	0xbcb000bf	-0.02148473
6	0x3ca5d0fb	0.020241251
7	0xbb17470a	-0.0023083114
8	0xbcd5b0da	-0.026085306
9	0x3b8e0682	0.004334272
10	0x3c943486	0.018091451
11	0xbbc29f8e	-0.0059394306
12	0xbc04eaa8	-0.008112587
13	0x3c42168e	0.011846198
14	0x3cb74b0b	0.02237465
15	0x3cbcefd8	0.023063585
16	0xbcda4201	-0.026642801
17	0xbc8c92a2	-0.017159764
18	0x3b892f88	0.0041865744
19	0xbb2e5385	-0.0026600074
20	0x3a212376	0.00061469467
21	0xbcca904d	-0.024727011
22	0xbc93a2a0	-0.018021882
23	0x3bf356ee	0.0074261343
24	0x3c8aeb24	0.016957827
25	0x3b93c260	0.0045092553
26	0xbc4d70a6	-0.0125390645
27	0xbc887572	-0.016657565
28	0xbb780919	-0.003784722
29	0xbcdd80c7	-0.027038945
30	0xbbb5090f	-0.0055247615
31	0x3b02d4fa	0.001996337
32	0x3c7fe3ab	0.015618245
33	0x3b8c908a	0.0042896913
34	0xbbf198e4	-0.0073729623
35	0xbba26b3c	-0.004956631
36	0xbc984134	-0.018585779
37	0x3c15f137	0.009151748
38	0x3c59771b	0.013273026
39	0x3c9a489f	0.018833457
40	0xbc1351a5	-0.008991634
41	0xbcbed169	-0.023293214
42	0xbcc94b6b	-0.024572095
43	0xbb52f771	-0.0032190944
44	0xbc930411	-0.017946275
45	0xbd0bc496	-0.034123026
46	0xbcf645dd	-0.03006261
47	0x3bee347e	0.007269441
48	0x3b042313	0.0020162507
49	0xbca5b774	-0.020229079
50	0xbc4ced68	-0.012507774
51	0x3cbafa55	0.022824446
52	0x3cc66523	0.024218148
53	0xbcbb6824	-0.022876807
54	0xbcccfd42	-0.025023106
55	0xbb7e279e	-0.0038780938
56	0xbb9998c5	-0.004687401
57	0xbce97585	-0.02849842
58	0x3ca01f54	0.019546188
59	0xbc825877	-0.015911324
60	0xbc5d4ae9	-0.0135066295
61	0xbb3d7f47	-0.0028914975
62	0x3ca3bd09	0.0199876
63	0x3aa06af6	0.0012238908

encoder_b.convs.0.weight f4 [116, 64]
0	0x3da43386	0.0801764
1	0x3d203b02	0.039118774
2	0x3d9b0860	0.07569957
3	0x3cef8874	0.02923987
4	0xbc05fb7e	-0.008177636
5	0x3dc5d58d	0.09659872
6	0xbd1b3097	-0.037888136
7	0x3c5ed9da	0.013601745
8	0xbdb03f50	-0.08605826
9	0x3d50c0d4	0.050965145
10	0x3d98f8a8	0.074693024
11	0xbdb448c5	-0.08802942
12	0x3dc763cf	0.09735834
13	0x3b318d0a	0.0027092122
14	0x3da417c1	0.08012343
15	0x3d811378	0.063025415
16	0xbd6942f0	-0.056948602
17	0xbc6181c9	-0.013763853
18	0x3c130c9b	0.008975173
19	0x3d06c6d1	0.03290445
20	0xbd654a81	-0.055979256
21	0xbcb79d2a	-0.022413809
22	0x3dcc0546	0.09961943
23	0xbd4ab7cd	-0.049491692
24	0xbc90a618	-0.017657325
25	0xbd360c38	-0.044445246
26	0xbaa39477	-0.0012480159
27	0x3d4d0b97	0.05005988
28	0xbda7ea13	-0.08198943
29	0xbc18f713	-0.009336251
30	0x3d34fce5	0.04418649
31	0x3c0c0fd1	0.008548693
32	0xbdd43656	-0.10361926
33	0x3c5081a6	0.012726223
34	0xbc4587dc	-0.012056317
35	0x3cc85c96	0.02445821
36	0x3c0de464	0.00866041
37	0xbd33c40c	-0.043888137
38	0xbdc34018	-0.09533709
39	0xbd121e7d	-0.035673607
40	0x3dd80b1c	0.10548994
41	0x3bb682bb	0.0055697835
42	0xbd0bc9f1	-0.034128133
43	0x3d580a98	0.052744478
44	0x3d54827c	0.051882252
45	0x3c725c04	0.014792446
46	0xbca1db55	-0.019757906
47	0xbd3f8a90	-0.046763003
48	0x3c5310e9	0.01288245
49	0x3bff57b3	0.007792437
50	0xbcd03a08	-0.025418296
51	0xbc37521b	-0.011189009
52	0xbd42b841	-0.047539
53	0x3c011c7a	0.0078803245
54	0xbd7658e4	-0.060143366
55	0xbd3a7eda	-0.04553113
56	0xb7e01f07	-2.671733e-05
57	0x3d4895fb	0.048971158
58	0xbd2abcd8	-0.041684
59	0xbc2b4d4e	-0.010455443
60	0x3d82b482	0.063820854
61	0x3c3b8454	0.011445124
62	0x3d9d7dad	0.076899864
63	0x3dce987a	0.10087676
64	0xbd66651e	-0.056248777
65	0x3cc9f9a1	0.024655165
66	0x3dd73d46	0.10509734
67	0x3c113824	0.008863483
68	0x3d9bd250	0.07608473
69	0xbd353bd2	-0.044246502
70	0xbccc5dc2	-0.024947051
71	0xbd472833	-0.04862232
72	0x3d89c065	0.067261495
73	0xbbdaf736	-0.006682302
74	0x3d1f2cfa	0.038861252
75	0xbd78f5e9	-0.060781393
76	0x3c1a7176	0.009426465
77	0x3c6830a8	0.014171757
78	0xbddaa573	-0.10676088
79	0x3d9b9ce7	0.07598286
80	0xbaf1d150	-0.0018449221
81	0xbdc6848f	-0.09693252
82	0xbc41d0d5	-0.011829575
83	0x3db9cd65	0.09072379
84	0x3cfd8546	0.030947339
85	0x3d283f9e	0.041076295
86	0xbd99b15e	-0.07504533
87	0x3da6d48b	0.08146008
88	0xbc79ae77	-0.01523935
89	0x3d9e624a	0.07733591
90	0xbc03db18	-0.0080478415
91	0xbbbd6017	-0.005779277
92	0x3db75ff7	0.08953851
93	0x3cf387d5	0.029727856
94	0xbdb4955b	-0.0881755
95	0x3ba400f8	0.0050049983
96	0x3de23a0d	0.110462286
97	0x3da0e7bf	0.07856702
98	0x3da0b6b4	0.07847348
99	0x3d890600	0.066905975
100	0xbcfdc0e3	-0.030975765
101	0xbd7736ec	-0.060355112
102	0xbc655eed	-0.013999683
103	0x3da59695	0.08085362
104	0x3d9d9260	0.076939344
105	0x3cdcfa46	0.026974808
106	0x3bda6278	0.0066645704
107	0xbd3c2183	-0.045930397
108	0x3d9c027e	0.07617663
109	0xbc83f78b	-0.016109249
110	0xbd97b75d	-0.07408021
111	0xbdcf3763	-0.10117986
112	0xba54a630	-0.0008111922
113	0x3d5b15b2	0.053487487
114	0x3dca5487	0.098794036
115	0xbd7231c6	-0.0591295
116	0x3b0b2302	0.0021230583
117	0x3dd95d60	0.10613513
118	0xbab26f5b	-0.0013613509
119	0x3cdb0358	0.026734993
120	0x3d90227f	0.070378296
121	0xbd791e5c	-0.06081997
122	0xbd03f6f2	-0.032217927
123	0x3db2f30b	0.08737763
124	0x3d0ca7fa	0.034339882
125	0xbd16f82e	-0.036857776
126	0x3d34f112	0.044175215
127	0xbd0daa8b	-0.03458647
128	0x3cb11604	0.021616943
129	0x3d89bf8f	0.0672599
130	0x3d8e65c7	0.06953006
131	0xbdd3d912	-0.10344137
132	0xbcb76763	-0.022388166
133	0x3d25368e	0.04033523
134	0x3c5e7bb3	0.013579297
135	0xb982c763	-0.00024944087
136	0xbc0a574a	-0.008443663
137	0x3d272d85	0.040814895
138	0x3d9c409d	0.076295115
139	0xbc45981a	-0.01206019
140	0x3b70d009	0.0036745092
141	0xbd1d540b	-0.038410228
142	0x3d72a48c	0.059238955
143	0xbd48dda8	-0.049039513
144	0x3aa941f8	0.0012913337
145	0x3c652d00	0.01398778
146	0x3d9a2c4e	0.07527982
147	0xbc064283	-0.008194569
148	0x3d9f7206	0.0778542
149	0x3dc89cb7	0.09795516
150	0xbdcaa345	-0.098944224
151	0xbd508686	-0.05090954
152	0x3dc30974	0.095232874
153	0x3d046444	0.032322183
154	0x3b63a342	0.003473476
155	0x3d437768	0.047721297
156	0x3b585a4f	0.0033012812
157	0xbd43166d	-0.04762881
158	0x3da00c16	0.07814805
159	0xbdbf13bb	-0.09329935
160	0x3d0d8dec	0.034559175
161	0x3da451f8	0.08023447
162	0xbaaed745	-0.0013339302
163	0x3b0279ea	0.0019909092
164	0xbcada46f	-0.021196572
165	0x3d14076d	0.036139894
166	0x3baff279	0.005369481
167	0x3da7ee3f	0.08199739
168	0xbdd2d307	-0.102941565
169	0xbcb53758	-0.022121117
170	0xbceea552	-0.029131565
171	0x3c05ec9e	0.00817409
172	0x3bfe6b75	0.0077642747
173	0x3d4d50a0	0.050125718
174	0x3d7e23be	0.062045805
175	0x3d8f01d3	0.0698277
176	0x3a2b41ea	0.0006532954
177	0x3c49a0a2	0.012306364
178	0xbcde5b6c	-0.027143203
179	0x3d88886b	0.06666645
180	0x3c839229	0.016060906
181	0xbd1d3651	-0.03838188
182	0x3bfab369	0.007650782
183	0xbc141fe3	-0.0090408055
184	0x3c2c184d	0.010503841
185	0x3c43de24	0.011954818
186	0x3d162791	0.036658827
187	0xbcfd25a1	-0.030901732
188	0xbba3acad	-0.00499495
189	0xbc4e7b79	-0.01260268
190	0xbac79f3d	-0.0015229952
191	0xbc081388	-0.008305438
192	0x3d140fae	0.036147766
193	0xbd9e4d94	-0.077296406
194	0xbc419e3a	-0.011817509
195	0xbb853f81	-0.004066408
196	0x3d1c6e85	0.038191337
197	0xbd039a59	-0.03212962
198	0xbd223057	-0.03959688
199	0xbc580e98	-0.013187073
200	0x3d5e47c6	0.054267667
201	0xbd6a72d4	-0.057238415
202	0xbd8e18b9	-0.06938309
203	0xbd40ba26	-0.047052525
204	0xbd31303d	-0.043258894
205	0xbcca73ce	-0.024713423
206	0xbc6887cc	-0.014192533
207	0x3d432b9f	0.047649022
208	0x3d817171	0.06320465
209	0x3d4e436c	0.050357267
210	0xbc7252f7	-0.014790288
211	0xbc8cf187	-0.017205013
212	0xbd9b3119	-0.07577724
213	0xbc38a225	-0.011269127
214	0xbd9200a5	-0.07129029
215	0xbd0b8720	-0.034064412
216	0xbc928447	-0.01788534
217	0xbd9b03be	-0.07569073
218	0xbd9e3f50	-0.0772692
219	0xbd82c3c7	-0.06384998
220	0xbba85e6d	-0.0051382096
221	0x3d326753	0.04355557
222	0xbd03af76	-0.032149754
223	0x3cddbfab	0.027068933
224	0x3ca8bfe1	0.020599307
225	0x3c917423	0.017755574
226	0xbb90aa51	-0.0044148345
227	0x3c7e6c4a	0.015528748
228	0xbcb6c590	-0.022311002
229	0xbcff8e89	-0.031195896
230	0xbd851232	-0.06497611
231	0x3d19192b	0.037377518
232	0xbd5d8f53	-0.054091763
233	0x3d50d021	0.050979737
234	0x3d103450	0.03520614
235	0x3be5184e	0.0069914227
236	0x3d1da6cc	0.038489148
237	0xbd3d57bb	-0.046226244
238	0xbbf434f5	-0.007452602
239	0x3c4969fc	0.012293335
240	0xbd06a69e	-0.032873742
241	0x3c4aba9e	0.012373595
242	0x3c9518f0	0.018200368
243	0xbd0942e4	-0.033511057
244	0x3da2fc34	0.0795826
245	0x3dce17f2	0.10063161
246	0x3ace9a82	0.00157626
247	0x3da4dd7e	0.08050059
248	0xbd00f9f2	-0.031488366
249	0x3dab2832	0.08357276
250	0x3da54669	0.0807007
251	0x3daccb6d	0.08437238
252	0x3d8f7fb0	0.07006776
253	0xbcd53542	-0.026026372
254	0xbd6e78ed	-0.058220793
255	0x3cf37c34	0.02972231

encoder_b.convs.0.bias f4 [64]
0	0x3b97edb9	0.004636493
1	0xbb9fbb87	-0.00487465
2	0x3c1d137e	0.009587167
3	0xba50034e	-0.0007935063
4	0x3b814a45	0.003945621
5	0x3c3cd1b4	0.0115246065
6	0x3bc1ec10	0.0059180334
7	0x39f19ea4	0.00046085299
8	0x3bc391a2	0.0059682885
9	0x3b3af69f	0.0028528345
10	0xbbd80de3	-0.0065934523
11	0x3a63f7ef	0.0008696308
12	0x3b845035	0.0040378817
13	0x3bbaebba	0.0057043703
14	0xb9e0c58c	-0.00042871793
15	0xbc15940a	-0.009129534
16	0xbab68456	-0.0013924937
17	0x3be0a068	0.0068550594
18	0x3bcf5ec1	0.006328434
19	0x3a1389ef	0.00056281587
20	0x398675d1	0.00025646252
21	0x3bf30de2	0.0074174264
22	0x3b4507dd	0.0030064501
23	0x3ba6012a	0.0050660567
24	0xbb8107ee	-0.003937713
25	0xba90db8a	-0.0011051756
26	0x3c0f4bd0	0.008746102
27	0x3bfece2d	0.007776043
28	0xbbb2d452	-0.0054574395
29	0x3ab2718c	0.0013614162
30	0xbaf013b0	-0.0018316414
31	0x3c280390	0.010254756
32	0x3c33e3a5	0.010979568
33	0xbbd0dde2	-0.0063741067
34	0xbc61d1d6	-0.013782939
35	0xb98dc276	-0.000270385
36	0x3b9d414a	0.004799043
37	0x3c25abc7	0.010111756
38	0x3b754f87	0.0037431435
39	0x3c03437e	0.008011697
40	0xbadabe7e	-0.0016688851
41	0x3c4c73ff	0.0124788275
42	0x3c83a1d0	0.01606837
43	0x3be706d5	0.007050375
44	0x3c801174	0.015633322
45	0x3c170318	0.009217046
46	0x3ade73db	0.0016971783
47	0x3c10d90b	0.00884081
48	0xbb9dc544	-0.0048147757
49	0xbc405f42	-0.011741461
50	0x3be7ec66	0.0070777414
51	0x3c319e9b	0.010841037
52	0x3c4b8e17	0.012424014
53	0x3b9e3889	0.004828517
54	0xbb83ac97	-0.004018377
55	0x3a468ce1	0.0007574093
56	0x3b9bf1fa	0.0047590705
57	0xbb12a772	-0.0022377637
58	0x3b140248	0.0022584368
59	0x38f86891	0.000118450385
60	0x3ac0e43f	0.001471646
61	0x3aef7cb3	0.0018271416
62	0x3c1c1bb2	0.009528087
63	0x3bf777d5	0.007552127

encoder_b.convs.1.weight f4 [64, 64]
0	0x3b9fcfd4	0.00487707
1	0xbcbc90fd	-0.023018355
2	0x3b55c681	0.0032619538
3	0xbbf1cfd7	-0.007379513
4	0xbd3f87fc	-0.046760544
5	0xbe221225	-0.15827234
6	0x3dea479f	0.11439442
7	0xbbcf85b0	-0.0063330755
8	0xbdaad750	-0.08341849
9	0x3cc3fc74	0.02392409
10	0xbdfa25fa	-0.12214275
11	0x3db0ed5c	0.08639023
12	0x3de4a8a5	0.11164979
13	0x3d9dc9a8	0.077044785
14	0xbde98c5c	-0.114037246
15	0x3d6151fa	0.05500982
16	0x38a8a54d	8.041654e-05
17	0xbd0871fe	-0.033311836
18	0xba549cb0	-0.00081105065
19	0xbe0bd55d	-0.1365561
20	0xbbcaed70	-0.0061928555
21	0xbd9dcd22	-0.077051416
22	0x3c96da33	0.018414592
23	0x3de57a89	0.11205012
24	0x3db330c8	0.08749539
25	0xbdd326ca	-0.10310133
26	0x3b9a686d	0.0047121556
27	0xbd54df7b	-0.05197094
28	0x3da0369b	0.07822915
29	0xbcab5b31	-0.020917507
30	0x3d5560a8	0.05209413
31	0xbc37d5db	-0.011220421
32	0xbdee2f9b	-0.11630174
33	0xb802185d	-3.1017105e-05
34	0xbdea7b19	-0.1144926
35	0x3de5412b	0.111940704
36	0xbde74a2e	-0.112934455
37	0xbd22bc3b	-0.03973029
38	0xbd8f0a53	-0.06984391
39	0x3d6e8ad3	0.05823786
40	0xbd8d0740	-0.068861485
41	0x3c36183f	0.011114179
42	0x3d2d5798	0.042319864
43	0x3cdbe403	0.026842123
44	0x3ca57fdd	0.020202572
45	0x3d46f1bf	0.04857039
46	0xbde5c298	-0.112187564
47	0x3d9f09e9	0.07765562
48	0xbc20cc72	-0.009814369
49	0xbc7c981d	-0.015417126
50	0x3d91bdcd	0.0711628
51	0xbdc9cbdf	-0.098533385
52	0xbcf12839	-0.029438125
53	0xbdd06eee	-0.10177408
54	0x3d34d594	0.044148996
55	0xbd7c0b34	-0.06153412
56	0xbdc01223	-0.09378459
57	0x3cf1c844	0.02951444
58	0x3d99b865	0.075058736
59	0xbccc210a	-0.024918098
60	0x3dce31cd	0.100680925
61	0x3c24df6c	0.010063034
62	0xbd9ccf8d	-0.07656775
63	0xbde8bb80	-0.11363888
64	0x3bbca44a	0.0057568895
65	0x3db71c64	0.08940962
66	0x3da4bb83	0.080435775
67	0x3c84d436	0.016214471
68	0x3da48ab9	0.08034272
69	0xbdd4dee7	-0.10394078
70	0xbc1050a0	-0.008808285
71	0xb8929c49	-6.990933e-05
72	0xbc6278af	-0.0138227185
73	0xbab76bd4	-0.0013993927
74	0x3bfa77eb	0.00764369
75	0xbcef7595	-0.029230872
76	0xbe085fd9	-0.13317813
77	0xbc1430bd	-0.009044823
78	0x3dec8378	0.11548513
79	0xbd2ce9d0	-0.04221517
80	0x398859df	0.000260069
81	0x3d80b7ec	0.0628508
82	0x3e040045	0.12890728
83	0x3da9d8c1	0.08293296
84	0x3ddee02d	0.10882602
85	0xbcce1e41	-0.02516091
86	0x3dd2b35a	0.10288115
87	0xbcc9271d	-0.024554783
88	0xbda4b8d0	-0.08043063
89	0xbd94b76a	-0.07261546
90	0x3e07ebc4	0.13273531
91	0x3c527c9f	0.012847095
92	0xbba59a78	-0.0050538145
93	0xbc6c19d6	-0.014410457
94	0x3dea6cae	0.1144651
95	0x3d851d9d	0.06499789
96	0x3d403411	0.046924654
97	0x3a80531a	0.0009790391
98	0xbdadbf3f	-0.08483743
99	0x3d936f05	0.0719891
100	0xbd642656	-0.055700622
101	0xbc13fd33	-0.009032535
102	0x3b17deb7	0.002317352
103	0x3df643f1	0.120246775
104	0xbdcaaa56	-0.0989577
105	0x3dcca414	0.09992233
106	0xbdddf5f0	-0.108379245
107	0x3dd1073e	0.102064595
108	0xbc331508	-0.010930307
109	0x3e0860e3	0.1331821
110	0xbd5798ba	-0.052635886
111	0x3bfb5789	0.007670347
112	0x3c696b71	0.014246807
113	0x3a8d6136	0.0010786417
114	0x38025e8f	3.108248e-05
115	0x3cc2ccec	0.023779355
116	0x3d821a6e	0.06352697
117	0x3dbef176	0.09323399
118	0xbcce76cc	-0.025203131
119	0xbde90e61	-0.11379696
120	0xbdaf2ad4	-0.08553091
121	0x3c5a50e3	0.013324949
122	0xbcef6194	-0.029221334
123	0x3db0aab9	0.08626313
124	0x3b79ec46	0.0038135215
125	0xbbd6b9ef	-0.0065529267
126	0x3cc3cc78	0.02390121
127	0xbcbebafb	-0.023282519
128	0xbdc6c6f9	-0.0970592
129	0xbcd5e6a7	-0.02611096
130	0x3ad17806	0.0015981204
131	0x3c0123d5	0.007882078
132	0xbd85ad2d	-0.06527171
133	0x3b7c5b3f	0.0038506535
134	0x3e18db34	0.1492737
135	0xbd97d2fe	-0.074132904
136	0xbd3111c2	-0.043229826
137	0xbd274b63	-0.04084338
138	0x3b4a4153	0.003086169
139	0xbdfaf93a	-0.122545674
140	0x3e292131	0.16516568
141	0xbc8ae3cc	-0.016954325
142	0x3e14244e	0.14466974
143	0xbd065c81	-0.032803062
144	0x3d97e226	0.07416181
145	0xbe093dc4	-0.13402468
146	0x3df0dc27	0.11760741
147	0x3dc30d39	0.095240064
148	0x3d1313ba	0.035907485
149	0x3d6e6ef4	0.058211282
150	0xbdb50ba5	-0.08840112
151	0xbca8ee08	-0.020621315
152	0xbcae1b09	-0.021253126
153	0xbdf288fd	-0.11842535
154	0xbd63ec4f	-0.055645283
155	0x3c0f7a7c	0.00875723
156	0xbdbbbd8d	-0.09167013
157	0xbc1b22ab	-0.009468715
158	0xbd9651b6	-0.07339804
159	0xbd9ed4d1	-0.07755435
160	0x3bcc9c4c	0.006244218
161	0x3d974180	0.0738554
162	0xbd365967	-0.044518854
163	0xbdbfd857	-0.093674354
164	0xbdc87c55	-0.097893395
165	0x3dd1d6bb	0.10246035
166	0xbdd48d1a	-0.103784755
167	0x3c480fc7	0.012210793
168	0x3c9bd8b5	0.019024232
169	0x3d95ae13	0.07308593
170	0xbd404051	-0.046936337
171	0x3d56c463	0.052433383
172	0xbcedf2d6	-0.029046457
173	0x3d77ce6b	0.06049959
174	0xbcd290ae	-0.025703754
175	0x3c2dc085	0.010604982
176	0x3ce065f7	0.02739237
177	0xbd028c4b	-0.031872075
178	0xbcaad61c	-0.020854048
179	0xbe050730	-0.12991023
180	0xbd914f0b	-0.070951544
181	0x3d27eb08	0.040995628
182	0x3df8a568	0.12140924
183	0x3db1879c	0.086684436
184	0x3e0eae2f	0.13933633
185	0xbd446a23	-0.047952782
186	0x3ba543d2	0.005043485
187	0x3a84b908	0.0010125944
188	0xbde5091b	-0.11183377
189	0xbded5bea	-0.11589797
190	0xbdcf30e9	-0.10116751
191	0xbdbf39e1	-0.093372114
192	0x3c4507fa	0.012025828
193	0x3dad56d1	0.084638245
194	0xbdc39bb0	-0.095511794
195	0xbc9944db	-0.01870959
196	0xbb8d6655	-0.0043151774
197	0x3cb5d209	0.02219488
198	0xbcba6b0e	-0.022756126
199	0xbd8c23f2	-0.068427935
200	0xbdd9dfe2	-0.106384054
201	0xbd329646	-0.043600343
202	0xbde2d256	-0.11075275
203	0xbdc7039f	-0.097174875
204	0xbe13596d	-0.14389582
205	0xbd4a003e	-0.049316637
206	0x3dedaaad	0.116048194
207	0xbd56697a	-0.052346684
208	0xbd96bc96	-0.07360189
209	0x3db25248	0.087071
210	0xbe04a0d0	-0.1295197
211	0xbd83239d	-0.06403277
212	0xbd5b69e5	-0.053567786
213	0x3d1b9c20	0.03799069
214	0x3cb71b10	0.022351772
215	0xbded2e46	-0.115810916
216	0x3dc79023	0.09744289
217	0x3c13f7ce	0.009031249
218	0xbcd0eb20	-0.025502741
219	0xbca49d06	-0.020094406
220	0x3d69b0de	0.05705344
221	0x3a99775e	0.0011708548
222	0x3ded8f11	0.115995534
223	0x3d4ce507	0.050023105
224	0xbe132966	-0.14371261
225	0xbcb31564	-0.021860786
226	0x3caa970c	0.020823978
227	0x3cc25c55	0.023725668
228	0xbc61bf86	-0.013778573
229	0xbdee27d5	-0.11628691
230	0xbbb97357	-0.0056595015
231	0xbdcce022	-0.100036874
232	0x3ddd7d07	0.10814863
233	0x3c8fcc88	0.017553583
234	0xbd6442f4	-0.055727914
235	0x3c530186	0.012878781
236	0x3da5fd35	0.08104936
237	0x3d2de64d	0.04245596
238	0xbbbb7d56	-0.0057217283
239	0xbd91c5fe	-0.07117842
240	0x2b977ccd	1.0763834e-12
241	0x3d2a62ca	0.04159812
242	0x3d97862d	0.07398639
243	0xbd9d5e17	-0.07683962
244	0x3da40980	0.080096245
245	0x3dc9217e	0.09820841
246	0xbdd35584	-0.10319045
247	0xbd15371c	-0.03642951
248	0x3d5bf8e5	0.05370416
249	0xbd4de0a4	-0.050263062
250	0x3c14330b	0.009045373
251	0x3d17ba4a	0.037042893
252	0x3b0b411f	0.0021248532
253	0xbd70b14a	-0.058762826
254	0xbd19a169	-0.03750745
255	0xbde174a1	-0.11008573

encoder_b.convs.1.bias f4 [64]
0	0x3a7a3964	0.0009545295
1	0xbaa8d8ee	-0.0012882033
2	0xba251b4f	-0.000629832
3	0x3b15a56a	0.002283419
4	0xbadbbd2f	-0.0016764755
5	0x3c37725d	0.0111967
6	0x3c0f3eea	0.008743027
7	0x3c0a54c6	0.008443063
8	0xbb84210d	-0.0040322603
9	0xb9b99162	-0.00035394268
10	0x3a85e53b	0.0010215411
11	0x3a8276ff	0.0009953676
12	0x3c7cfa18	0.015440486
13	0xbb4fe601	-0.0031722786
14	0x3c24faec	0.01006959
15	0xbb79a4fe	-0.0038092728
16	0xbb9ebcc8	-0.004844282
17	0xb881c715	-6.188281e-05
18	0xba964608	-0.0011464963
19	0xbbdf8c9d	-0.0068221823
20	0xbb266eee	-0.002539571
21	0xbb41fa80	-0.0029598773
22	0x3b75aa8f	0.0037485694
23	0xbb10c485	-0.002208979
24	0x3c0aa8c1	0.008463086
25	0x3bf704de	0.007538422
26	0x39e093d9	0.00042834764
27	0xbad8f080	-0.0016551167
28	0xbb8f3b0b	-0.004371052
29	0xbc040cdf	-0.008059709
30	0x3c034068	0.008010961
31	0xb8fd9b68	-0.00012092927
32	0x3ab30a5b	0.0013659702
33	0xbaaa40d1	-0.0012989287
34	0xbbba44d2	-0.0056844736
35	0xbb87fd66	-0.0041500805
36	0xba920509	-0.0011140417
37	0xbb914c5b	-0.004434151
38	0x3ab02be4	0.0013440815
39	0xbb84a8ff	-0.004048466
40	0xbaae927a	-0.00133188
41	0x3af55fb3	0.0018720537
42	0xbbc3476b	-0.0059594414
43	0x3c3e129e	0.011601118
44	0xbbde8369	-0.0067905677
45	0x3c568874	0.013094056
46	0xbbfe435f	-0.007759496
47	0xbb4613f1	-0.0030224288
48	0x38e7f1c4	0.00011059971
49	0xbb961755	-0.004580418
50	0xbabb5970	-0.0014293622
51	0xbc1c5550	-0.009541824
52	0x3c1a710c	0.009426367
53	0xbb15c795	-0.0022854556
54	0x3bb9b788	0.0056676306
55	0x3c038b74	0.008028854
56	0xbba9f2c5	-0.005186411
57	0x3be402f7	0.0069583612
58	0x3c309853	0.010778504
59	0xbb61c31b	-0.0034448567
60	0xbc1d238e	-0.009590996
61	0x3b9e6f8d	0.0048350752
62	0xb9e2e274	-0.000432748
63	0xbb8eadfa	-0.0043542357

encoder_b.convs.2.weight f4 [64, 64]
0	0x3dd98784	0.10621551
1	0xbdd8e2db	-0.10590144
2	0xb8a2f887	-7.771054e-05
3	0x3b8feb06	0.0043920306
4	0xbdae34af	-0.08506142
5	0xbafda46f	-0.0019351373
6	0xbdd11aad	-0.10210166
7	0x3da94b3f	0.08266305
8	0xb727d1ae	-1.00027955e-05
9	0x3b11b4e0	0.0022233054
10	0x3ce522a8	0.027970627
11	0xbd2e63cf	-0.042575654
12	0x3a1a5085	0.0005886632
13	0xb9306e5b	-0.00016825779
14	0x3b57d1f9	0.003293155
15	0xb8a54544	-7.880715e-05
16	0x3ac1cd82	0.0014785978
17	0xbd1a2851	-0.037636105
18	0x3d784706	0.06061461
19	0xb95b93a3	-0.00020940466
20	0xbde943ed	-0.11389909
21	0xbdf85835	-0.12126199
22	0xbaed57db	-0.0018107848
23	0xbd17bd4c	-0.037045762
24	0x3da62b14	0.08113685
25	0x3cbf1065	0.023323247
26	0xb9381bad	-0.00017557917
27	0x3c4245b5	0.01185744
28	0x3d895feb	0.06707748
29	0x3d9e3149	0.07724244
30	0xbbbe435b	-0.0058063692
31	0xbc882b6f	-0.016622273
32	0x3d6444fb	0.055729847
33	0x3da3311e	0.07968353
34	0xba246fe4	-0.00062727765
35	0xbd9c9069	-0.076447316
36	0xbc968a6f	-0.018376557
37	0x3db22651	0.086987145
38	0x3a89b2d3	0.0010505564
39	0x37ac052d	2.0506408e-05
40	0x3db141be	0.086551175
41	0x3bad3db1	0.005286895
42	0xbd095b71	-0.03353447
43	0xb8401109	-4.5792232e-05
44	0xbc3212bd	-0.010868725
45	0x3c290cac	0.010317963
46	0xb86d58f1	-5.6588036e-05
47	0xbaeb8442	-0.0017968493
48	0xbdddc126	-0.10827856
49	0x3ad21c7a	0.0016030215
50	0x3d7c5d0e	0.06161218
51	0x3da4a7f6	0.080398485
52	0xba995db4	-0.0011700899
53	0x3b55a45e	0.0032599191
54	0xb920cf2e	-0.0001533597
55	0xb992d2a8	-0.0002800424
56	0xbce0f0c7	-0.027458562
57	0x3de01f22	0.10943438
58	0x3cfd632f	0.030931083
59	0x3b720cbc	0.003693386
60	0x3babdd24	0.005244868
61	0xbce02c31	-0.027364822
62	0x3cdd0968	0.026982024
63	0xba87600d	-0.0010328308
64	0xbca31cb6	-0.019911151
65	0xbdf1431b	-0.117803775
66	0xb834ae28	-4.307754e-05
67	0x3ccb8c8f	0.024847297
68	0x3ce2a6d1	0.027667435
69	0xbd891eda	-0.066953376
70	0xbdc30e64	-0.09524229
71	0x3d584b28	0.05280605
72	0x3b59881d	0.0033192702
73	0x3a8a9f05	0.0010575956
74	0xbd4eff9a	-0.05053673
75	0x3a98ed02	0.0011667314
76	0xbb3783f5	-0.0028002237
77	0x3bdafd4a	0.0066830264
78	0x3c029826	0.007970845
79	0xbdc21384	-0.094763786
80	0xbdb7aae7	-0.08968144
81	0xbca401ed	-0.02002045
82	0x3d9fa083	0.07794287
83	0xbd549d66	-0.05190792
84	0xbca43347	-0.020043982
85	0x3de97ab5	0.11400358
86	0xbb67a747	-0.0035347508
87	0x3c659293	0.014011997
88	0x3c905e33	0.017623043
89	0xba98cd52	-0.001165787
90	0x3cc0e57e	0.02354693
91	0xb871549a	-5.753767e-05
92	0x3c9fba41	0.019497992
93	0x3ac356e1	0.0014903211
94	0xbdb71a8c	-0.0894061
95	0xbda0d6ce	-0.07853471
96	0xbd98edff	-0.07467269
97	0x3bd79033	0.006578469
98	0x3c61d465	0.013783549
99	0xbdac5cb9	-0.08416123
100	0xbd658849	-0.056038175
101	0x3dced6b5	0.10099546
102	0xbd4c1989	-0.04982904
103	0xba721618	-0.00092348596
104	0xbde7bafd	-0.11314962
105	0x3dc6f7cb	0.097152315
106	0xbb3bd8dd	-0.0028663196
107	0xbc136c08	-0.008997925
108	0x3bfddd97	0.007747363
109	0x3d11a83b	0.035560828
110	0xbc184996	-0.009294888
111	0x3afd4bc8	0.0019324953
112	0xbc20d907	-0.009817368
113	0xbdc6cfb5	-0.09707586
114	0xbd3f38d7	-0.046685066
115	0xbb00286c	-0.0019555343
116	0xbc5a9662	-0.013341518
117	0x3a260fc1	0.0006334745
118	0xbd430708	-0.047614127
119	0xbd5f8895	-0.054573614
120	0x3da8ef85	0.0824881
121	0xbdf11e82	-0.11773397
122	0x3d4a913a	0.049454905
123	0x3d102fc3	0.0352018
124	0x3db6a256	0.08917682
125	0xbd1f1904	-0.038842216
126	0x3d6206ab	0.05518214
127	0xbbab8e4c	-0.005235469
128	0x3bc5d71f	0.0060376073
129	0xbdb7bc69	-0.08971483
130	0xbdc0277e	-0.093825325
131	0xbda81289	-0.0820666
132	0xbbe2a68a	-0.0069168257
133	0xbd9141c5	-0.07092623
134	0x3d17d44c	0.037067696
135	0xbc3f5d90	-0.011680022
136	0x3cdd81d6	0.02703945
137	0xbdf2e85e	-0.11860727
138	0xbbcc4266	-0.0062335012
139	0xbc57f993	-0.013182062
140	0xbd56f11a	-0.052476026
141	0x3b6f4bae	0.0036513614
142	0xbb938192	-0.00450153
143	0x3de96584	0.11396316
144	0xbbea8dad	-0.0071580024
145	0x3d1adc72	0.03780789
146	0x3dc52283	0.09625723
147	0x3dd515a2	0.10404517
148	0x3df6357f	0.12021922
149	0x3de62a7c	0.11238572
150	0xbdd6f498	-0.10495871
151	0x3d94df91	0.072692044
152	0xba0a3c13	-0.0005273234
153	0x3d15304d	0.036423016
154	0x3bf91840	0.007601768
155	0xbd6ce52a	-0.057835735
156	0xba987989	-0.00116329
157	0x3c8d8332	0.017274473
158	0xbda231fc	-0.0791969
159	0xbd113a3b	-0.035455924
160	0x3c9ea3c8	0.019365206
161	0xbb8e4b5e	-0.0043424806
162	0x3ddd1e38	0.107967794
163	0x3cf5d782	0.030009989
164	0xbdd8d1af	-0.10586869
165	0x3d9a2fa1	0.07528616
166	0x3d624099	0.055237386
167	0x3dc20a42	0.09474613
168	0x3a2989bf	0.0006467364
169	0xbd90aca1	-0.07064176
170	0x3d012a65	0.03153457
171	0x3d80efb5	0.062957205
172	0xbd6c2a08	-0.05765727
173	0xbd4ac860	-0.0495075
174	0xba224213	-0.00061896554
175	0x3d99b82f	0.07505833
176	0x3da3602b	0.07977327
177	0xbd63deac	-0.05563228
178	0x3dec769f	0.11546063
179	0x3dbcffe5	0.092284955
180	0xbdd617e7	-0.10453778
181	0xbc81848d	-0.015810275
182	0xbd9f0961	-0.07765461
183	0x3d5cf641	0.053945784
184	0xba65152c	-0.00087388116
185	0xbd3292bc	-0.043596968
186	0xbdd17fff	-0.102294914
187	0x3dece59e	0.115672335
188	0xbbc4e92d	-0.006009242
189	0xbde59255	-0.11209551
190	0x3ccd19c2	0.025036696
191	0xbd676824	-0.0564958
192	0x3da6b8b0	0.08140695
193	0xbd8e5a38	-0.069508016
194	0xbdae080c	-0.084976286
195	0xbd160697	-0.03662738
196	0xb7225d0d	-9.6776175e-06
197	0xb72198bd	-9.63191e-06
198	0x3d2a74dd	0.041615356
199	0x394d4875	0.00019577316
200	0xbb96aa09	-0.0045979065
201	0xbc94999e	-0.018139657
202	0xbcf25663	-0.029582208
203	0xbb35c184	-0.0027733753
204	0x3daf9691	0.0857364
205	0xb8151cbc	-3.555113e-05
206	0x3c375f92	0.011192219
207	0xbacf7c49	-0.0015829887
208	0x3db10e42	0.086452976
209	0x3a4a9225	0.00077274657
210	0xbb92383b	-0.0044622696
211	0xbd76ccaf	-0.060253795
212	0x3bbe8ce1	0.005815134
213	0x3248b696	1.1683047e-08
214	0xbc543359	-0.012951695
215	0xbd93f089	-0.07223613
216	0xbdea6e52	-0.11446823
217	0x3c6ce3b4	0.0144585855
218	0xbbc9abe4	-0.006154524
219	0x349d39c7	2.9285567e-07
220	0xbbb1ea8d	-0.005429572
221	0xbd6ec7d7	-0.05829605
222	0x3178954c	3.6173615e-09
223	0xbcf47e8f	-0.029845504
224	0x3cf9a67f	0.0304749
225	0xbd2dde57	-0.042448368
226	0xbd885cd1	-0.06658328
227	0x3cd1d740	0.025615335
228	0x3440dbd5	1.7961368e-07
229	0xbdca78bd	-0.0988631
230	0x3c187620	0.009305507
231	0x3d8b3948	0.06798035
232	0x3177de6d	3.6069665e-09
233	0x3bbbea0c	0.0057346877
234	0xba0353fc	-0.0005009768
235	0x3aa7e672	0.0012809767
236	0x3dd6e215	0.104923405
237	0x3d17b4a1	0.037037496
238	0xbd7f5956	-0.062341057
239	0x39b3d156	0.00034297508
240	0x3b10b7fa	0.0022082315
241	0x3be7ec35	0.0070777186
242	0xb010756a	-5.255375e-10
243	0xbcb32fa9	-0.021873312
244	0x31e8f54a	6.779975e-09
245	0x3aca0f49	0.0015415932
246	0xbc9945bf	-0.018710015
247	0x384a273a	4.8197086e-05
248	0x3d4c5536	0.04988595
249	0xbaa8e06d	-0.0012884267
250	0xb5caa319	-1.509764e-06
251	0x3a476f90	0.00076078717
252	0xbd4e1aed	-0.050318647
253	0x3ded2502	0.11579324
254	0x3c13b8e9	0.009016254
255	0xbdc87d4f	-0.09789526
