results/ABIDE_3x5fold_seed0/fold0_rep0_seed0/ckpt_best_fold_0.pt (torch, 660359 bytes, 72 tensors)

encoder_c.convs.0.weight f4 [116, 64]
0	0x3cd4aaa3	0.025960272
1	0x3cabbcf8	0.02096413
2	0xbe0826b4	-0.13296014
3	0xbdea589f	-0.114426844
4	0xbc69a48f	-0.014260425
5	0x3cc3e201	0.023911478
6	0xbc64cc3a	-0.013964707
7	0x3e0d2531	0.13783719
8	0xbd75b377	-0.059985604
9	0x3d0ad2fe	0.033892624
10	0xbd7b616b	-0.061372202
11	0xbd1a5344	-0.037677065
12	0xbe2bf12a	-0.16791216
13	0xbdeca552	-0.1155497
14	0xbd6a26f7	-0.057166066
15	0xbb5e0c5b	-0.0033881876
16	0x3cbd7a89	0.023129718
17	0x3de1cfe2	0.110259786
18	0xbd8940b2	-0.06701793
19	0xbdb0381e	-0.086044535
20	0x3d960fd6	0.07327239
21	0x3e01c013	0.12670927
22	0xbcd16c9b	-0.025564482
23	0x3def0a7b	0.11671921
24	0xbd8dc96f	-0.06923186
25	0x3c93d8ba	0.01804768
26	0x3e07076c	0.13186425
27	0x8000203f	-1.1568e-41
28	0xbd72b5db	-0.059255462
29	0xbd6744f7	-0.056462254
30	0xbda5f722	-0.081037775
31	0x3e0fadbc	0.14031118
32	0xbdddf02a	-0.10836823
33	0xbd29cea2	-0.041456826
34	0xbdbed172	-0.09317292
35	0xbe04dc6b	-0.12974708
36	0xbdb45b03	-0.088064216
37	0x3e0b5c8d	0.13609524
38	0x3da4ea10	0.080524564
39	0x3dce72e8	0.100805104
40	0x3c9bfb89	0.01904084
41	0xbd56486a	-0.052315153
42	0x3cbef108	0.023308292
43	0xbcb7767d	-0.022395367
44	0xbe102ebc	-0.14080328
45	0xbdf3d7a1	-0.11906362
46	0x3dc36a50	0.09541762
47	0x3d803c9f	0.062615626
48	0xbc1f3204	-0.0097165145
49	0x3c3dbe73	0.011581051
50	0x3bbf90b0	0.0058461055
51	0x3dd28bab	0.10280546
52	0x3d863fe5	0.06555156
53	0x3c99d3da	0.018777777
54	0x3dd07833	0.10179176
55	0xbcf88c5e	-0.03034037
56	0x3c127fd0	0.008941606
57	0xbd9e070c	-0.07716188
58	0xbdd6ad36	-0.10482256
59	0xbdcee62e	-0.10102497
60	0x3da3c57e	0.07996653
61	0x3d95e4b4	0.07319012
62	0xbdec645c	-0.115425795
63	0x3d7ce51e	0.06174194
64	0x3dd3eb58	0.10347623
65	0xbd2a3f46	-0.04156425
66	0x3b526b2f	0.0032107343
67	0x3d281b0e	0.041041426
68	0x3d432b3e	0.04764866
69	0x3e2096f9	0.15682591
70	0xbe0eb4b8	-0.13936126
71	0xbd8e0db9	-0.06936211
72	0x3c882b2f	0.016622154
73	0x3d986939	0.07441945
74	0x3e083a2f	0.13303445
75	0x3e19cbc9	0.15019144
76	0x3cb9bfc1	0.022674443
77	0xbe27b555	-0.16377766
78	0x3b9ba677	0.0047500688
79	0xbddc733b	-0.10764166
80	0xbd8f7bad	-0.07006011
81	0x3e1d942e	0.15388557
82	0x3e19002c	0.14941472
83	0xbe398a75	-0.18119223
84	0x3d1d8dee	0.038465433
85	0xbd6a5c2e	-0.057216816
86	0xbcfbf080	-0.030754328
87	0xbd98875b	-0.07447692
88	0x3ce6619e	0.02812272
89	0xbdd6e149	-0.104921885
90	0x3d345796	0.04402884
91	0x80002ae6	-1.5389e-41
92	0x3db5414d	0.08850346
93	0x3d63293a	0.05545924
94	0xbe1e9552	-0.15486649
95	0xbdff61d8	-0.12469834
96	0x3d549934	0.05190392
97	0x3d0c74d8	0.03429112
98	0xbdf6d45a	-0.120522216
99	0xbde4321b	-0.11142369
100	0x3e13cb0b	0.14432923
101	0x3db4cb05	0.088277854
102	0xbd8ace71	-0.06777657
103	0xbcf79eaf	-0.030227033
104	0xbe304072	-0.17212084
105	0xbd0f764c	-0.035024926
106	0xbe034e90	-0.12822938
107	0xbc07ed7c	-0.008296367
108	0xbc85d23d	-0.016335601
109	0x3c67ee4b	0.014155935
110	0xbd885cf6	-0.06658356
111	0x3d7fa676	0.06241461
112	0xbccce7f0	-0.02501294
113	0x3e15b3f3	0.14619426
114	0x3d12cb55	0.035838444
115	0xbd4352c5	-0.047686357
116	0xbd279cf5	-0.04092117
117	0x3c74672d	0.014917177
118	0x3cdc76c4	0.0269121
119	0xbc9b9b60	-0.018994987
120	0x3d70b78a	0.058768786
121	0xbce53688	-0.027980104
122	0xbdaf0704	-0.0854626
123	0x3d8606d9	0.06544275
124	0xbe295ff0	-0.16540504
125	0xbdd3d10b	-0.10342606
126	0xbd386946	-0.04502227
127	0xbd97144c	-0.07376918
128	0xbc45f324	-0.012081895
129	0xbe13d62d	-0.1443717
130	0xbcf95603	-0.030436521
131	0x3d6e916d	0.058244158
132	0xbd90593a	-0.070482686
133	0xbce391b9	-0.027779447
134	0x3e08e134	0.13367158
135	0xbc22b7b9	-0.009931498
136	0xbc0b0f46	-0.008487528
137	0x3cd616cb	0.026133915
138	0xbc843bdd	-0.016141826
139	0x3dfc0400	0.123054504
140	0x3e3df728	0.18551314
141	0x3e059cd2	0.13048103
142	0x3de3d93c	0.111254185
143	0xbca7b45e	-0.020471748
144	0xbd862b6e	-0.06551252
145	0xbd88625e	-0.06659387
146	0x3e239349	0.15974154
147	0x3c3537e5	0.01106069
148	0xbdbdc926	-0.09266882
149	0xbd6a344a	-0.057178773
150	0xbe1ac290	-0.15113282
151	0xbdf2dc18	-0.11858386
152	0xbd62811f	-0.05529892
153	0x3dade0d0	0.08490145
154	0x3db199c7	0.08671909
155	0x80000751	-2.625e-42
156	0x3dbdc849	0.09266717
157	0xbe1cf3d8	-0.15327394
158	0xbd75c6ef	-0.06000417
159	0xbd2c1b73	-0.042018365
160	0xbc575598	-0.013142966
161	0x3b89ed63	0.004209207
162	0xbdc3476a	-0.095351055
163	0xbd9d7d4e	-0.076899156
164	0xbcb36359	-0.021897959
165	0xbbc21a88	-0.005923573
166	0xbda827fc	-0.082107514
167	0x3dcfdf65	0.10150031
168	0xbe0f0fdb	-0.13970892
169	0xbc13a282	-0.009010913
170	0x3e197454	0.14985782
171	0x3bd3bb3c	0.006461529
172	0x3e23c213	0.15992002
173	0x3d2e83f6	0.042606317
174	0xbe205e7c	-0.15661043
175	0x3dee0487	0.11621957
176	0x3b5a12ca	0.003327536
177	0xbd2db635	-0.042410094
178	0x3d2fb8f3	0.04290099
179	0xbe02948b	-0.12751977
180	0x3b8c7819	0.0042867777
181	0xbd54f100	-0.051987648
182	0x3df8d652	0.12150253
183	0xbd7a081c	-0.06104289
184	0x3d90251e	0.070383295
185	0xbc9c7650	-0.019099385
186	0xbd3070f6	-0.043076478
187	0xbd0a5887	-0.033775833
188	0xbe06f1dd	-0.13178201
189	0x3dec004f	0.11523496
190	0x3db82dcc	0.0899311
191	0x3e03442b	0.12818973
192	0xbd68be07	-0.05682185
193	0x3aef5e2f	0.0018262322
194	0xbde6f1d2	-0.11276592
195	0xbd6c4225	-0.057680268
196	0xbd39c986	-0.045358203
197	0x3ce4ddf7	0.027937872
198	0xbdf8c505	-0.121469535
199	0x3c257a0e	0.010099901
200	0xbcbb178f	-0.022838382
201	0x3ddb60a7	0.10711794
202	0xbe01a301	-0.12659837
203	0xbde2d7be	-0.11076306
204	0xbd9d0e8d	-0.07668791
205	0x3e066d28	0.13127577
206	0xbca68361	-0.020326318
207	0x3e0800ce	0.13281557
208	0x3d3a5f38	0.045500964
209	0x3d0f8c1b	0.035045724
210	0x3bc93c26	0.0061412035
211	0xbd3f229d	-0.04666387
212	0x3bd6fe82	0.0065611014
213	0xbd538471	-0.051639978
214	0xbc5f8198	-0.013641737
215	0xbc1b9b65	-0.009497498
216	0xbe2bdbd0	-0.1678307
217	0xbdd98354	-0.10620752
218	0x3dca9154	0.098910004
219	0x80000c0f	-4.326e-42
220	0xbb920abf	-0.0044568474
221	0x3e192638	0.14955986
222	0x3d8066a5	0.06269578
223	0x3c43c4f0	0.011948809
224	0xbe025826	-0.12728938
225	0x3dc30253	0.09521928
226	0xbda85249	-0.0821882
227	0xbd5ec2cb	-0.054384988
228	0xbd6fa0a8	-0.058502823
229	0xbd1795e8	-0.037008196
230	0x3c5f3eab	0.013625781
231	0x3e03e0b3	0.12878685
232	0x3d131f3a	0.03591845
233	0x3d9b4344	0.07581189
234	0x3dc53ff4	0.09631339
235	0x3c6d4bb6	0.014483383
236	0x3d9d506f	0.07681357
237	0xbe07d8b4	-0.1326626
238	0xbd87ec29	-0.06636841
239	0x3d126cc2	0.03574825
240	0x3c4a3dc6	0.0123438295
241	0x3defab36	0.11702578
242	0x3cb8cf91	0.022559913
243	0xbc61ec70	-0.013789281
244	0x3dce51ca	0.10074194
245	0xbe3afae1	-0.18259765
246	0x3e13385e	0.14376971
247	0xbd90f527	-0.07078009
248	0xbc894ecc	-0.016761206
249	0x3c78da7a	0.015188808
250	0xbda5655e	-0.08075975
251	0x3ca05e9b	0.019576361
252	0x3e0520d6	0.13000807
253	0xbce6007a	-0.0280764
254	0xbe14c031	-0.1452644
255	0xbd400488	-0.04687932

encoder_c.convs.0.bias f4 [64]
0	0xbc108f59	-0.008823239
1	0x3cf607de	0.030033048
2	0xbbdb7b4b	-0.0066980473
3	0x3a247793	0.00062739215
4	0xbbb4ef58	-0.005521696
5	0x3bc36494	0.0059629176
6	0x3d849057	0.06472843
7	0xbc2d1f61	-0.010566563
8	0xbb602f97	-0.0034208053
9	0x3c8800b5	0.0166019
10	0x3c5f6bbf	0.0136365285
11	0xbc0f38b6	-0.008741548
12	0xbc1c6143	-0.009544673
13	0xba79d01f	-0.00095296087
14	0xbcb1ed07	-0.021719469
15	0x3b7ef5fb	0.003890394
16	0x3c3f0826	0.011659658
17	0xbbfd742f	-0.0077347974
18	0x3cc3ae87	0.023886932
19	0x3cb1c07b	0.021698227
20	0x3c4d77b8	0.01254075
21	0x3c362398	0.011116885
22	0x3d00a7fb	0.0314102
23	0x3cc00ce3	0.023443645
24	0xbc522ab6	-0.012827566
25	0x3c207d9e	0.0097955745
26	0x3c1509ce	0.009096576
27	0xbcbffdd3	-0.023436463
28	0xbc9777a8	-0.018489674
29	0x3c7c0043	0.015380922
30	0x3c62fd79	0.013854378
31	0x3c7c349b	0.0153934015
32	0x3c4e897d	0.012606022
33	0x3b469117	0.0030298883
34	0x3cdb6086	0.026779424
35	0x3c0552b9	0.008137398
36	0x3cd42d2c	0.025900446
37	0x3b096798	0.0020966288
38	0xbc6e8a13	-0.014559287
39	0x3d01ea98	0.031717867
40	0xbbfda2f1	-0.0077403714
41	0x3a9c8091	0.0011940171
42	0x3c679be6	0.01413629
43	0x3ccc0f6f	0.024909703
44	0xbc338842	-0.010957779
45	0x3cc608de	0.02417415
46	0x3cb8a61c	0.022540145
47	0x3d121988	0.03566888
48	0xbc1020fc	-0.008796927
49	0x3c8a728f	0.016900329
50	0x3c1564af	0.009118243
51	0xbb77fd1e	-0.0037840079
52	0x3bdaf191	0.006681629
53	0x3b5dc979	0.003384201
54	0x3bac60bb	0.0052605546
55	0x3bac7fa0	0.0052642375
56	0xbae684ab	-0.0017587146
57	0x3c8e4366	0.017366122
58	0x3a9ffb98	0.0012205718
59	0x3cbae7cd	0.02281561
60	0x3c485eee	0.012229664
61	0x3b341d31	0.002748322
62	0xba10212a	-0.0005498106
63	0x3c1773ba	0.0092439

encoder_c.convs.1.weight f4 [64, 64]
0	0x3d8395bc	0.06425044
1	0xbd932bb7	-0.07186072
2	0xbd11a1b5	-0.035554606
3	0x3c520c4b	0.012820314
4	0x3aa320a2	0.0012445638
5	0x3e1212d0	0.14264989
6	0xbd634209	-0.055482898
7	0x3dc4f116	0.09616296
8	0xbd6bde26	-0.057584904
9	0xbd0cf57c	-0.0344138
10	0xbe0e147f	-0.13875006
11	0x3e359063	0.1773086
12	0x3d1a481d	0.03766643
13	0xba462767	-0.0007558972
14	0x3e6d86d5	0.23195966
15	0xbe1d3c37	-0.15355001
16	0x3ba7ea09	0.0051243347
17	0x3e090450	0.13380551
18	0x3d9ff1b9	0.07809777
19	0x3def5695	0.11686436
20	0x80000e80	-5.202e-42
21	0xbc28e53f	-0.010308563
22	0xbdcba126	-0.09942846
23	0x80004d06	-2.7631e-41
24	0x3ddcca0d	0.10780726
25	0xbd2423af	-0.040073093
26	0xbb560998	-0.0032659527
27	0x3ce40afa	0.027837265
28	0xbdfe51c1	-0.12417937
29	0xbe49fda1	-0.19725658
30	0x8000308d	-1.7417e-41
31	0xbd1dc717	-0.038519945
32	0xbdbfd92f	-0.09367596
33	0x3d82b0e2	0.06381394
34	0x3e22823d	0.15869994
35	0xbd082a0a	-0.033243217
36	0x3e49db20	0.19712496
37	0xbcde9734	-0.027171709
38	0x3e3d17da	0.1846613
39	0x3cedad68	0.02901335
40	0x38a6a484	7.94614e-05
41	0x3d0fa9d7	0.03507408
42	0xbd8011ba	-0.06253381
43	0x3e06cd99	0.13164367
44	0x3dd1680a	0.10224922
45	0xbb326cb7	-0.0027225444
46	0x32656ce9	1.3354318e-08
47	0x3dd6f511	0.104959615
48	0x3d8d90c2	0.06912376
49	0x3e0a6dff	0.13518523
50	0xbd9ebec6	-0.07751231
51	0xbe227425	-0.15864618
52	0x3d839027	0.06423979
53	0x3d9bd398	0.07608718
54	0xbe17e0c8	-0.14831841
55	0x291d2b3a	3.4898496e-14
56	0x3d8310d1	0.06399692
57	0x3da93b89	0.082633086
58	0x3dc670cb	0.09689482
59	0x3dcc371e	0.0997145
60	0xbe51598a	-0.20444313
61	0xbd08fdd4	-0.033445194
62	0x3df5819e	0.11987613
63	0x3d943f82	0.07238676
64	0xbe085050	-0.13311887
65	0x3e1c9518	0.1529125
66	0x3e21fbb1	0.15818669
67	0xbe186954	-0.1488393
68	0x3dc63459	0.09677953
69	0xbd46a172	-0.04849381
70	0x3df8bc3d	0.121452786
71	0xbdfbb530	-0.12290418
72	0x3dfc05f4	0.12305823
73	0xbdb47fd5	-0.088134445
74	0x3e072666	0.13198242
75	0xbda7ee51	-0.08199752
76	0xbdebc686	-0.11512475
77	0x38cbd691	9.7197604e-05
78	0xbe132c9b	-0.14372484
79	0x3e0d4f58	0.13799798
80	0x3d85cc4b	0.065331064
81	0x3e1a4532	0.15065458
82	0xbe0d4641	-0.13796331
83	0xbdccd70d	-0.10001955
84	0x00000f2c	5.443e-42
85	0xbda9bfc6	-0.08288531
86	0x3deabbd3	0.11461606
87	0x000085f0	4.8048e-41
88	0xbd912f2e	-0.07089077
89	0xbe273fc9	-0.16332926
90	0xbde96ae3	-0.1139734
91	0x3e1e2978	0.15445507
92	0x3e4d35f8	0.20040119
93	0x3dd2d0ca	0.102937296
94	0x0000215a	1.1964e-41
95	0x3e0ccc92	0.13749912
96	0x3e0c2588	0.13686192
97	0xbdd58ac7	-0.1042686
98	0xbde68880	-0.11256504
99	0x3dcbeac1	0.09956885
100	0xbd9e8a89	-0.07741267
101	0x3e09be72	0.13451555
102	0xbdae5bc2	-0.08513595
103	0xbdaac7f0	-0.08338916
104	0x2b938eda	1.0484627e-12
105	0xbd198386	-0.037478946
106	0x3e10e6dc	0.14150566
107	0xbdafac85	-0.08577827
108	0xbd00f839	-0.031486724
109	0xbdcbf669	-0.099591084
110	0x19622f67	1.1693499e-23
111	0xbde60b87	-0.112326674
112	0xbdc23705	-0.094831504
113	0xbe036232	-0.12830427
114	0x3df38c35	0.11891977
115	0x3e5cbb5a	0.21555844
116	0x3e54e396	0.20789942
117	0x3c7c4207	0.0153966015
118	0x3e314c56	0.17314276
119	0x000009fb	3.58e-42
120	0xbdb45605	-0.088054694
121	0xbd26edb4	-0.040754035
122	0xbdb119c8	-0.086474955
123	0xbdf8bbfd	-0.12145231
124	0x3e23a918	0.15982473
125	0x3d84da26	0.06486921
126	0xbd94fb19	-0.072744556
127	0xbe2f3b44	-0.17112452
128	0x3d436a66	0.04770889
129	0x3deeb47d	0.11655519
130	0x3d3ab1d1	0.045579735
131	0xbc62ca86	-0.013842231
132	0x3df3de3b	0.119076215
133	0x3e322ae0	0.17399168
134	0xbdd0d530	-0.10196912
135	0x3e0904f6	0.13380799
136	0xbd38ce5d	-0.04511868
137	0x3d90a9a8	0.07063609
138	0x3b50ba92	0.0031849486
139	0x3dd41fa8	0.103576005
140	0xbd6b96ab	-0.057516735
141	0xbb70886c	-0.0036702408
142	0xbdcf1b9d	-0.10112689
143	0xbe1444a5	-0.14479311
144	0xbdd66b2b	-0.104696594
145	0x3d871540	0.0659585
146	0x3dad795f	0.08470415
147	0x3d77b559	0.06047568
148	0x0000045e	1.567e-42
149	0x3e005b94	0.12534934
150	0x3e1a3914	0.15060836
151	0x80002bea	-1.5753e-41
152	0x3c961ded	0.018324817
153	0x3da00955	0.0781428
154	0xbd6dadb4	-0.058026984
155	0xbb418a6d	-0.002953197
156	0x3b60e83c	0.003431811
157	0xbe305494	-0.17219764
158	0x80001f6e	-1.1275e-41
159	0xbc49469b	-0.0122849
160	0x3e16a9ec	0.14713258
161	0x3db254c9	0.08707578
162	0xbdc42794	-0.095778614
163	0x3d17e973	0.03708787
164	0xbd6a44c8	-0.0571945
165	0xbc84d444	-0.016214497
166	0x3db30acb	0.08742293
167	0x3d3ba1b8	0.045808524
168	0x3914db78	0.00014196138
169	0xbd734437	-0.059391227
170	0x3dd59efb	0.10430714
171	0x3bc9923c	0.0061514657
172	0xbdeb81d6	-0.114993736
173	0xbe05a950	-0.13052869
174	0xb35a599b	-5.0838576e-08
175	0x3e2259ea	0.15854612
176	0x3d86c0fb	0.06579777
177	0xbe059086	-0.13043413
178	0x3d075a86	0.033045314
179	0x3cf3c31d	0.029756123
180	0x3c7ed7d4	0.015554387
181	0x3dad131f	0.08450913
182	0xbe385ba6	-0.18003711
183	0xa600c40c	-4.4674614e-16
184	0xbd3be119	-0.045868967
185	0x3d3b3f03	0.04571439
186	0x3d2c288b	0.042030852
187	0xbb97ea93	-0.0046361177
188	0xbe5923df	-0.2120509
189	0x3ded03cb	0.11572989
190	0xbe0d5105	-0.13800438
191	0x3d9bf23b	0.07614561
192	0xbdad6286	-0.084660575
193	0x3daf9b79	0.08574576
194	0x3d975247	0.0738874
195	0xbc9a619f	-0.018845377
196	0x3de1775a	0.11009093
197	0x3b925241	0.004465372
198	0xbe39e328	-0.1815306
199	0xbbd32f1a	-0.006444824
200	0xbe14710f	-0.14496253
201	0x3da523b6	0.08063452
202	0xbcb35bf4	-0.021894433
203	0xbc3b7d13	-0.011443394
204	0xbc0f8d17	-0.008761666
205	0x3a8cf238	0.0010753339
206	0xbd7ad16c	-0.061234877
207	0x3d286828	0.041114956
208	0xbddcdfc8	-0.107848704
209	0x3ddc2494	0.10749164
210	0xbbb1123d	-0.0054037855
211	0xbd77b7a6	-0.060477875
212	0x00000f14	5.409e-42
213	0x3d999a1d	0.07500098
214	0xbe1f9aea	-0.15586439
215	0x8000005b	-1.28e-43
216	0x3bdf3bb8	0.006812539
217	0x3e40888b	0.18802087
218	0x3d45aaf7	0.048258748
219	0xbcdc59d0	-0.026898295
220	0xbe0c0795	-0.13674767
221	0xbe23d8b7	-0.16000639
222	0x00000f87	5.57e-42
223	0xbd09a2e3	-0.033602607
224	0xbe059c61	-0.13047935
225	0x3dbcfbf2	0.09227742
226	0xbd23ee48	-0.040022165
227	0xbc92b0d5	-0.017906586
228	0xbc3e467a	-0.011613483
229	0xbc80cb60	-0.015721977
230	0x3d00fce1	0.031491164
231	0x3d99ab41	0.07503367
232	0x38e78d09	0.00011041208
233	0xbc32dfd9	-0.010917627
234	0x3d9fc6b0	0.078015685
235	0x39c75a23	0.00038023395
236	0x3e47908a	0.19488731
237	0x3b6e949d	0.0036404498
238	0xb15e50da	-3.235121e-09
239	0x3e6556a0	0.22396326
240	0x3d32f837	0.043693747
241	0xbdedbe51	-0.116085656
242	0xbe0ba0a8	-0.13635504
243	0xbe666b4f	-0.22501872
244	0xbe2b654b	-0.16737859
245	0x3dfb8df8	0.12282938
246	0x3cef2d7a	0.02919649
247	0x28806813	1.425599e-14
248	0xbd8c529a	-0.068516925
249	0x3e24f329	0.16108383
250	0x3ddba7d3	0.10725369
251	0x3deff492	0.1171657
252	0xbdbfe9a8	-0.09370738
253	0xbe54ddfc	-0.20787805
254	0x3e11818e	0.14209577
255	0x3d8e36f2	0.06944074

encoder_c.convs.1.bias f4 [64]
0	0xbc8aacf9	-0.016928183
1	0x3c6b4494	0.014359612
2	0x3d36cfdf	0.044631835
3	0x3c2df3e1	0.010617227
4	0x3cc9c946	0.024632107
5	0x3c988745	0.018619189
6	0x3c06ac55	0.008219798
7	0x3c917387	0.017755283
8	0x3d17942e	0.03700655
9	0x3a5ee13f	0.0008502192
10	0x3c225e33	0.009910154
11	0xbb505a93	-0.0031792268
12	0x3be836f8	0.007086631
13	0xbaf95268	-0.0019021751
14	0xbb895a70	-0.004191689
15	0x3c7dd91e	0.015493659
16	0x3c5497f6	0.012975683
17	0x3d7813ba	0.060565688
18	0x3c4d07de	0.012514083
19	0x3c829892	0.015941892
20	0xbc42105f	-0.0118447235
21	0x3c173e41	0.009231151
22	0x3c9daccf	0.01924744
23	0xba70d531	-0.00091870414
24	0x3c9f2fce	0.019431975
25	0x3bb64878	0.005562838
26	0x3c113f71	0.008865223
27	0x3c290b0a	0.010317573
28	0x3c26b0f0	0.010174021
29	0x3cbf9273	0.023385262
30	0xbc9b15c7	-0.018931283
31	0x3d0158fa	0.031578995
32	0x3ca7b324	0.020471163
33	0xbbf9efe1	-0.0076274727
34	0xbc5507af	-0.01300232
35	0x3cd605c2	0.026125792
36	0xba33bb12	-0.0006856184
37	0x3d0485cc	0.03235416
38	0x3aad50d1	0.0013222938
39	0x3c39b8e0	0.011335582
40	0xbce3a008	-0.02778627
41	0x3c517593	0.01278438
42	0x3d0b39ec	0.033990785
43	0xbca39560	-0.019968688
44	0x3c75d36b	0.015004019
45	0x3c0acce9	0.008471706
46	0xbcb9a3a8	-0.022661045
47	0x3c3ed149	0.011646577
48	0xbac39d60	-0.0014924221
49	0x3b4fadad	0.0031689212
50	0x3d41d22e	0.047319584
51	0x3c8e0b00	0.01733923
52	0x3ccfc20f	0.025361089
53	0x3d8655cb	0.065593325
54	0x3cbbcb21	0.022924008
55	0xbcc53bac	-0.024076305
56	0x3bef55f9	0.00730395
57	0x3c68ccbd	0.01420897
58	0x3c9af6a9	0.018916445
59	0x3c441eba	0.011970216
60	0x3ce02588	0.027361646
61	0x3c2f92eb	0.01071618
62	0xbca9c702	-0.020724777
63	0x3bc82e26	0.006109017

encoder_c.convs.2.weight f4 [64, 64]
0	0x3deb93fc	0.11502835
1	0x3de12bf5	0.10994712
2	0xbe03bdf1	-0.12865426
3	0x3dacd404	0.08438876
4	0xbd9f0262	-0.07764126
5	0xbe4a6f5f	-0.19769047
6	0x3e13e5ee	0.1444318
7	0x3e002b80	0.12516594
8	0xbe112bea	-0.14176908
9	0x3d2590ef	0.040421423
10	0x3e793c6e	0.24339458
11	0x3e22352f	0.158406
12	0x3dbedcbb	0.09319445
13	0x3df2fb20	0.118643045
14	0xbd3745e4	-0.044744387
15	0x3dc348dc	0.09535381
16	0x3e0ca37e	0.13734242
17	0xbdda93ae	-0.10672699
18	0x3dd1c974	0.10243502
19	0x3e30db8c	0.1727125
20	0xbdd1f06a	-0.102509335
21	0xbe1c9041	-0.15289403
22	0x3de8c057	0.11364811
23	0xbd5d16a2	-0.053976662
24	0x3e03e3e6	0.12879905
25	0xbe1dc58d	-0.15407391
26	0x3dd6c2d7	0.104863815
27	0xbda88945	-0.08229307
28	0x3db9abfc	0.090660065
29	0xbda3af54	-0.079924256
30	0x3e36662d	0.17812414
31	0x3e417caa	0.18895212
32	0xbdd4e5d5	-0.103953995
33	0x3e151c65	0.14561613
34	0x3df88963	0.121355794
35	0xbdde84c1	-0.108651645
36	0xbe43e5e6	-0.19130668
37	0x3e3b31e2	0.18280748
38	0xbdf3cf02	-0.11904718
39	0x3e3ca630	0.1842277
40	0xbe232c55	-0.1593488
41	0x3db2fe82	0.0873995
42	0x3e0fcc6f	0.14042829
43	0xbe047a69	-0.12937321
44	0xbdd7ef50	-0.10543692
45	0x3e45fef5	0.1933554
46	0x3e0621ee	0.1309888
47	0x3d77561c	0.060384855
48	0x3e14cab4	0.1453045
49	0xbe1e544a	-0.15461841
50	0x3e0afa5e	0.1357207
51	0xbe030811	-0.12796046
52	0xbdb3834e	-0.08765279
53	0x3e3826e8	0.17983592
54	0xbe1396cd	-0.14412995
55	0x3e0332d1	0.12812354
56	0xbde09adf	-0.10967039
57	0x3db13158	0.0865199
58	0x3dd795db	0.105266295
59	0xbde63421	-0.112404115
60	0xbe182fde	-0.1486201
61	0xbdb7a6d4	-0.08967367
62	0x3e2b6f31	0.16741635
63	0xbd94ff23	-0.07275226
64	0xbe64b8ff	-0.22336195
65	0xbe16f642	-0.14742377
66	0x3df6b6db	0.12046596
67	0xbd889770	-0.066695094
68	0x3e0236e6	0.12716255
69	0x3e5e3e9b	0.2170357
70	0xbe3a1862	-0.18173364
71	0xbe048325	-0.12940653
72	0x3e7282c5	0.23682697
73	0xbe21609b	-0.15759508
74	0x3bd917a1	0.0066251312
75	0xbdbf87fb	-0.09352108
76	0xbe14a646	-0.14516553
77	0xbcc28835	-0.02374659
78	0x3e8ce6a1	0.27519706
79	0xbe237092	-0.15960911
80	0xbd864359	-0.06555814
81	0xbbed9fe7	-0.007251728
82	0xbe700570	-0.23439574
83	0xbc84459d	-0.016146475
84	0x3ce456f8	0.027873501
85	0xbbcabbf2	-0.0061869556
86	0xbdbd68ef	-0.0924853
87	0xbd0201f7	-0.031740155
88	0xbe3e9cc0	-0.18614483
89	0x3e2569b8	0.1615361
90	0xbcf2bb9a	-0.029630471
91	0x3e0835fe	0.13301846
92	0xbe507f3a	-0.20361033
93	0xbdac28d4	-0.08406225
94	0xbe8d9282	-0.2765084
95	0xbd979f27	-0.07403403
96	0x3dee9c93	0.11650958
97	0xbe270ecb	-0.16314237
98	0x3db2a26d	0.087223865
99	0xbb4c099f	-0.0031133664
100	0x3dba9c66	0.09111862
101	0xbe907bd9	-0.28219488
102	0x3e6b1822	0.22958425
103	0xbd32af36	-0.043624125
104	0x3e14cabd	0.14530464
105	0xbe54f1cd	-0.20795365
106	0xbe7e73f7	-0.24848925
107	0x3e63207b	0.22180359
108	0x3e688349	0.22706331
109	0xbe37cc97	-0.17949139
110	0xbdf9305f	-0.12167429
111	0xbe199c23	-0.15000968
112	0xbdfcbb50	-0.123404145
113	0x3e86f2d0	0.26357126
114	0xbdd676de	-0.10471891
115	0x3e160b04	0.1465264
116	0x3e793ded	0.24340029
117	0xbe6c8699	-0.2309822
118	0x3dfb7a36	0.12279169
119	0xbdcc0eb5	-0.09963743
120	0x3c8619e7	0.016369773
121	0x3c4ec96b	0.012621264
122	0xbe237f5d	-0.15966554
123	0x3e984848	0.29742646
124	0x3dfc0596	0.12305753
125	0x3dc4cffe	0.09609984
126	0xbe7f498e	-0.24930403
127	0x3e0bd6bc	0.13656133
128	0xbe249c11	-0.1607516
129	0xbd8fb793	-0.07017436
130	0x3dcb2f72	0.09921159
131	0xbe56e163	-0.20984416
132	0x3db43110	0.087984204
133	0x3d8b5d2d	0.06804881
134	0xbd2cdbc4	-0.042201772
135	0xbe0008f9	-0.12503423
136	0x3e091620	0.13387346
137	0xbde1e636	-0.110302374
138	0xbd9a3d68	-0.075312436
139	0xbda0e3db	-0.0785596
140	0x3c167d6f	0.009185179
141	0x3d589a00	0.05288124
142	0x3d971c93	0.07378497
143	0xbdfabec8	-0.1224342
144	0xbd89aa7b	-0.0672197
145	0x3c309a93	0.010779041
146	0xbd8c8acf	-0.06862413
147	0xbe0a2b72	-0.13493136
148	0xbd26b628	-0.04070106
149	0x3dc5ffec	0.09667954
150	0xbd9008a9	-0.07032902
151	0x3d5ad55b	0.053426128
152	0xbd896bc1	-0.067100056
153	0x3e0cb44e	0.13740656
154	0x3d2ee602	0.04269982
155	0x3deb5ec4	0.114926845
156	0xbe3dfb8b	-0.18552987
157	0xbdb2284f	-0.086990945
158	0xbd6fc1f9	-0.058534596
159	0xbb762e48	-0.0037564207
160	0x3cbef120	0.023308337
161	0xbda42eb3	-0.0801672
162	0xbc4c99af	-0.012487813
163	0x3cdebb39	0.027188884
164	0x3e6ea9d4	0.23306972
165	0xbe186d1c	-0.14885372
166	0x3d34a241	0.04410005
167	0x3d51aafc	0.051188454
168	0x3e434c7a	0.19072142
169	0xbdfa33fc	-0.122169465
170	0xbdcd914e	-0.1003748
171	0x3d6bdfcb	0.057586472
172	0x3e2d8312	0.1694453
173	0xbe03521e	-0.12824294
174	0xbdbb37b1	-0.09141482
175	0xbdd42fdb	-0.1036069
176	0xbd0aa80a	-0.03385166
177	0x3dc9bade	0.09850095
178	0xbe2e4f77	-0.17022501
179	0x3e2698ce	0.16269228
180	0x3c338540	0.010957062
181	0x3d918fb9	0.07107491
182	0x3c2685b3	0.010163712
183	0x3d22a8f9	0.039711926
184	0x3da181f6	0.07886116
185	0x3dc56220	0.096378565
186	0xbd987ac7	-0.07445293
187	0x3d0a9bcd	0.03383999
188	0x3d4dc288	0.050234348
189	0x3d97b571	0.07407654
190	0xbd87081f	-0.06593346
191	0x3de926a2	0.11384322
192	0x3d0a974b	0.03383569
193	0x3d6c5738	0.057700366
194	0x3da35513	0.07975211
195	0xbd400c68	-0.04688683
196	0xbd07c10e	-0.033143096
197	0x3d6a205a	0.05715976
198	0xbc7d90c1	-0.015476407
199	0x3d644f51	0.055739705
200	0x3d7827d1	0.060584847
201	0xbc513127	-0.0127680665
202	0xbcecf4cc	-0.028925322
203	0x3e35cd95	0.17754205
204	0x3da606a4	0.08106735
205	0xbd57e653	-0.05270989
206	0xbe54ce07	-0.20781718
207	0xbc62b8db	-0.013838018
208	0xbd3c6359	-0.045993183
209	0x3e00f185	0.12592132
210	0x3e29778e	0.16549513
211	0x3e0cbc02	0.13743594
212	0x3cc59504	0.024118908
213	0x3da41d64	0.08013418
214	0x3e101b7f	0.14072989
215	0xbcae43f2	-0.021272633
216	0x3e0ca6e7	0.13735543
217	0x3d03b0ef	0.03215116
218	0x3d678069	0.056518946
219	0xbdca23a2	-0.09870078
220	0x3dd983fd	0.10620878
221	0xbd518bee	-0.051158838
222	0x3be7ab37	0.007069971
223	0xbda021a6	-0.07818918
224	0xbc8bd497	-0.017069144
225	0x3d25ced2	0.040480442
226	0x3c92a0b6	0.017898899
227	0x3e2d0b17	0.16898762
228	0xbe56f2a0	-0.20990992
229	0xbe286986	-0.16446504
230	0xbbf0ce7e	-0.0073488345
231	0xbdb85d4e	-0.090021715
232	0xbe0cc5c6	-0.1374732
233	0xbdadb8a5	-0.08482484
234	0x3e06ef66	0.13177261
235	0xbdb45884	-0.088059455
236	0xbe4012a2	-0.18757108
237	0x3e2bff7f	0.16796683
238	0xbd87fd16	-0.06640069
239	0xbc6de297	-0.014519355
240	0xbcd18258	-0.025574848
241	0x3ca2352f	0.01980075
242	0x3e31caca	0.17362514
243	0xbe09fca5	-0.13475282
244	0xbe1b2818	-0.15152013
245	0x3de45799	0.111495204
246	0xbdb33f3d	-0.08752296
247	0x3db0403c	0.08606002
248	0x3dc563f9	0.09638209
249	0x3e0c605c	0.13708633
250	0x3b8ccbca	0.0042967545
251	0x3e1263f6	0.14295945
252	0xbd8b22df	-0.067937605
253	0x3d180419	0.037113283
254	0xbcdfefd9	-0.027336048
255	0xbcbf37e9	-0.02334209

encoder_c.convs.2.bias f4 [64]
0	0xbbec0e5c	-0.00720386
1	0xba15ad9c	-0.0005709769
2	0x3bb031a1	0.00537701
3	0xbb12d8ea	-0.0022407123
4	0x3d3e1c4c	0.046413705
5	0x392fcb09	0.00016764937
6	0x3c14dd1a	0.009085918
7	0xbbd664cf	-0.006542779
8	0x3cd5f129	0.02611597
9	0xbcb69aab	-0.022290548
10	0xbb9f81df	-0.0048677768
11	0xbb7afa50	-0.003829617
12	0x3d0c7b81	0.03429747
13	0x3d73a342	0.059481867
14	0xb9047f9d	-0.0001263604
15	0xbcf7bc24	-0.03024108
16	0xbc6855ac	-0.014180582
17	0x3ccb5403	0.024820333
18	0xbc2f3f4b	-0.010696243
19	0xbc577205	-0.013149743
20	0xbd6ad22d	-0.057329345
21	0xbc657844	-0.014005724
22	0xbc27260a	-0.01020194
23	0x3ae23405	0.0017257935
24	0x3b9d7443	0.0048051192
25	0xbc922fd5	-0.017845074
26	0x3d48a54d	0.048985768
27	0x3c527a88	0.012846597
28	0xbc1d7a4b	-0.009611676
29	0xbdc3005c	-0.09521553
30	0xbcf4edd3	-0.02989856
31	0xbbd69716	-0.0065487726
32	0xbc66179c	-0.014043715
33	0xbc403c44	-0.011733118
34	0x3d369a11	0.044580523
35	0x3b4f1c04	0.0031602392
36	0x3b087925	0.002082416
37	0x3ba8523b	0.0051367558
38	0x3ab424f8	0.0013743928
39	0x3ca8b46c	0.020593844
40	0x3c89198b	0.016735813
41	0xbd0a70bc	-0.033798918
42	0xbbc8a2fb	-0.0061229444
43	0x3c732a22	0.014841588
44	0x3b8d9766	0.0043210266
45	0xbb6f7b9b	-0.003654218
46	0x3b0eb6f1	0.0021776522
47	0xbd8e6f41	-0.06954814
48	0x3c5a41a2	0.013321312
49	0xba52014b	-0.0008011057
50	0xbbd1adb5	-0.0063988813
51	0x3c314a40	0.010820925
52	0x3c586aee	0.013209088
53	0x3c1244cb	0.008927534
54	0xbcb19bc5	-0.021680722
55	0x3cff8d91	0.031195434
56	0x3ca0ac46	0.019613396
57	0x3d9e7040	0.07736254
58	0xbd1dbff3	-0.038513135
59	0x3b5a7fda	0.0033340366
60	0xbc28ee32	-0.010310696
61	0x3d00d9e7	0.031457808
62	0xbc293774	-0.010328162
63	0x3d6375d9	0.05553231

encoder_b.convs.0.weight f4 [116, 64]
0	0xbd2dc498	-0.042423815
1	0x268dc831	9.838102e-16
2	0x3cd61089	0.026130931
3	0x00001765	8.392e-42
4	0xbd5ace02	-0.05341912
5	0x3d77d223	0.060503136
6	0xbdb2bfb7	-0.08727973
7	0xbc74d3ba	-0.014943058
8	0xbd431574	-0.04762788
9	0xbda56dff	-0.08077621
10	0xbddb27d7	-0.10700958
11	0x3d7f4888	0.06232503
12	0x3d946ec4	0.07247689
13	0xbc6a2195	-0.014290233
14	0x28635622	1.2619708e-14
15	0xbdb32e52	-0.08749069
16	0x3d0c7152	0.03428776
17	0xbd3f0b00	-0.04664135
18	0xba957490	-0.0011402536
19	0xbd04ac40	-0.032390833
20	0x3c611dde	0.013740031
21	0x3cebf1bd	0.028801793
22	0xbc944a4d	-0.018101836
23	0xbd5aa303	-0.053378116
24	0x3b942484	0.0045209546
25	0x3d12e1ac	0.03585975
26	0xbd034fa7	-0.032058384
27	0xb1d2e4c2	-6.137811e-09
28	0xbce4220b	-0.027848264
29	0x3d3f77be	0.046745054
30	0x3d3a57fa	0.045494057
31	0x3dd14125	0.102175035
32	0xbd031a53	-0.032007527
33	0xbcef5cc2	-0.029219035
34	0xbc142dd2	-0.009044128
35	0xbc818579	-0.015810715
36	0xbc67a753	-0.014139014
37	0x3c035abb	0.008017237
38	0x3d16f89e	0.036858194
39	0xbcf1c960	-0.029514968
40	0x21e41d40	1.5457623e-18
41	0x34014a86	1.2041173e-07
42	0x3c90d097	0.017677588
43	0x3c468b20	0.012118131
44	0xbd305bf2	-0.043056436
45	0x3cff9602	0.031199459
46	0xbd18594b	-0.03719453
47	0x3cf8c97e	0.030369516
48	0x3ccb4c7b	0.024816742
49	0x27614181	3.1260532e-15
50	0xbb02614c	-0.001989442
51	0xab6f12f7	-8.4936176e-13
52	0x3d561dfe	0.052274697
53	0x80000ab5	-3.841e-42
54	0x3d2c283c	0.042030558
55	0xbdd29c6c	-0.10283741
56	0x3c4b9308	0.012425192
57	0x34395d61	1.7263439e-07
58	0x3d46589f	0.04842436
59	0xbdd3c228	-0.10339767
60	0xbc23907a	-0.009983176
61	0xbc8f6d26	-0.0175081
62	0xbd56906a	-0.052383818
63	0x8e41d6dd	-2.389254e-30
64	0xbb5153b4	-0.003194076
65	0x80000383	-1.26e-42
66	0x3d3b7c0d	0.0457726
67	0x801175d8	-1.603478e-39
68	0xbdbf4e09	-0.09341056
69	0x3d600885	0.054695625
70	0x3d2d6fed	0.04234307
71	0x3d212d6d	0.039349962
72	0x3ce38673	0.027774071
73	0xbd817f4d	-0.06323109
74	0xbce84727	-0.02835424
75	0x3d81d772	0.06339921
76	0xbcf3abfe	-0.029745098
77	0x3d4f6df4	0.05064197
78	0xa031a29f	-1.504629e-19
79	0x3d5f0745	0.054450292
80	0x3d5b17ee	0.053489618
81	0x3c0d0980	0.008608222
82	0xba29b044	-0.0006473104
83	0x3c4ea8dc	0.012613501
84	0x3b02ca4e	0.0019957009
85	0x3b3cc896	0.0028806082
86	0x3c8dbcd1	0.017301949
87	0xbc3043cf	-0.010758354
88	0xbda2f518	-0.07956904
89	0xbd9ec450	-0.077522874
90	0xbbf1f338	-0.0073837303
91	0xb394f465	-6.936242e-08
92	0x3dfe07e9	0.124038525
93	0xbd4fa73c	-0.050696597
94	0x3ba7ed53	0.005124727
95	0x3dba465f	0.090954535
96	0xbd55470f	-0.05206972
97	0xbd73f273	-0.05955739
98	0xbb3477c1	-0.00275372
99	0xbd0bd4e4	-0.034138575
100	0x3cc9665f	0.024584947
101	0x3be027bf	0.0068406756
102	0x3c9a17ed	0.018810237
103	0x3d99566a	0.07487185
104	0x2747e1fc	2.7739304e-15
105	0xb40ceb3a	-1.3124091e-07
106	0xba882353	-0.0010386504
107	0x3dae3fda	0.085082725
108	0xb9993ed6	-0.0002922925
109	0x3c960965	0.018315027
110	0x3ddd5f9f	0.10809254
111	0xbc5de966	-0.013544416
112	0x3caa883f	0.02081692
113	0x24e7d711	1.0054462e-16
114	0x3aaf42c3	0.0013371337
115	0xa5aab345	-2.9611777e-16
116	0x3c8435a3	0.016138857
117	0xa5362dcb	-1.5801499e-16
118	0xbca90149	-0.020630496
119	0xbda5dd0a	-0.080988005
120	0x3c80ba5b	0.015713861
121	0xb2aed5b8	-2.0353454e-08
122	0x3c503714	0.012708444
123	0x3a3e38cc	0.0007256388
124	0xb9c227de	-0.00037032267
125	0xbbd0b034	-0.0063686613
126	0xbcdf4bd4	-0.027257837
127	0x2ef26e93	1.1024528e-10
128	0xbbc74a98	-0.0060818903
129	0xaa37101a	-1.6259251e-13
130	0xbd4084ec	-0.047001764
131	0x8000244b	-1.302e-41
132	0xbb5ed9e2	-0.003400438
133	0x3d8c5824	0.06852749
134	0x3d9a4026	0.075317666
135	0x3c76a35d	0.015053597
136	0x3b426ded	0.0029667572
137	0x3d2393bf	0.039935824
138	0xbb73eb18	-0.0037218984
139	0xbd8056f5	-0.06266586
140	0x3ca22f0e	0.019797828
141	0xbd3ab525	-0.04558291
142	0x8000fab1	-8.9931e-41
143	0xbbb717e9	-0.005587567
144	0x3ce04610	0.027377158
145	0xbd6803d4	-0.056644276
146	0xbb77f400	-0.0037834644
147	0x3d4357b2	0.047691055
148	0xbdeac7b1	-0.11463869
149	0x3d31e9ae	0.043435745
150	0xbcbbf310	-0.02294305
151	0xbc0aad95	-0.008464237
152	0x3c4e5db5	0.012595584
153	0xbc896519	-0.01677184
154	0x3b67a63b	0.0035346884
155	0x32a96d90	1.9724013e-08
156	0x3d29b48f	0.04143196
157	0xbd0f1b83	-0.034938347
158	0xbc8abf76	-0.016936999
159	0xbcb39654	-0.021922268
160	0x3d64ab1c	0.055827245
161	0xbdb96fd9	-0.09054536
162	0xbaacb42a	-0.0013176252
163	0xbd5cb898	-0.05388698
164	0xbdb557ee	-0.08854662
165	0x3c59fe77	0.013305298
166	0xbb80454e	-0.0039145118
167	0x3d51c367	0.05121174
168	0xa15d4df6	-7.4980893e-19
169	0x351259d5	5.451996e-07
170	0xbd6cfc5d	-0.05785786
171	0xbcf9e28e	-0.030503538
172	0x3d2ee5f3	0.042699765
173	0xbaf50a3e	-0.0018695069
174	0xbd605041	-0.054764036
175	0x3d925610	0.07145321
176	0xbc73d8af	-0.014883204
177	0x9dc59fbe	-5.2310635e-21
178	0xbb453d1c	-0.0030096238
179	0x800017f4	-8.593e-42
180	0x3c5d3509	0.013501414
181	0x00000134	4.32e-43
182	0x3d6cc2f1	0.057803098
183	0x3ce7d4bc	0.028299682
184	0xbc9da03e	-0.019241448
185	0x342b4036	1.5948976e-07
186	0xbd138884	-0.036018863
187	0x3dd2684c	0.10273799
188	0x39d8c59f	0.0004134597
189	0x3b8e2aab	0.0043385825
190	0xbcafe9c0	-0.021473765
191	0x80001c78	-1.0213e-41
192	0x3c690fcf	0.0142249605
193	0x80001582	-7.716e-42
194	0xbce0735a	-0.027398754
195	0x17df6d0a	1.4438563e-24
196	0x3d6a93c4	0.057269827
197	0x3d70c13b	0.05877803
198	0xbdbf2fd7	-0.093352966
199	0xbcd1d98a	-0.025616426
200	0xbd3b3552	-0.045705147
201	0xbd9a76db	-0.07542201
202	0x3e0bc489	0.13649191
203	0x3d933c8f	0.07189285
204	0xbda12ce6	-0.07869892
205	0xbcf7a06f	-0.030227868
206	0x9f0ecde3	-3.0239975e-20
207	0x3dcd77c2	0.100326076
208	0x3c1ad1e8	0.00944946
209	0x3c06c340	0.008225262
210	0xbb5f8a43	-0.003410951
211	0xbb99919b	-0.004686547
212	0xbdd5f6bf	-0.10447454
213	0x3ddd552a	0.108072594
214	0x3cb3bf89	0.021941917
215	0x3bcc6978	0.006238159
216	0x3d82a46d	0.06379018
217	0x3d442592	0.047887392
218	0x3cafccf1	0.021460028
219	0xadf94cea	-2.834218e-11
220	0xbcda9ab0	-0.026685089
221	0x3d45440b	0.048160594
222	0xbc9b757b	-0.018976917
223	0xbd81d76a	-0.06339915
224	0x3db29f93	0.087218426
225	0xbb5c9c95	-0.0033662666
226	0x3b0aa6a2	0.002115645
227	0x3cb67881	0.022274258
228	0x3dbfc099	0.09362907
229	0xb8741446	-5.8193014e-05
230	0xbcb68375	-0.02227948
231	0x3d8a2ec1	0.06747199
232	0xa26a196d	-3.1726374e-18
233	0x3789856c	1.6393802e-05
234	0x3d3ac3b5	0.045596797
235	0x3d96babd	0.07359836
236	0x3ca6835e	0.020326313
237	0xbc2a8d15	-0.010409613
238	0x3d0d2c9c	0.03446637
239	0x3cad4fce	0.021156218
240	0xbc0231b0	-0.007946417
241	0x2d1262f4	8.321111e-12
242	0xbb7fe049	-0.0039043596
243	0x00000c48	4.406e-42
244	0x3d6a58b9	0.05721352
245	0x0000213e	1.1925e-41
246	0x3d583b64	0.052791014
247	0x3d8f08ff	0.06984138
248	0xbcb26cc7	-0.021780385
249	0xb2e28cff	-2.637398e-08
250	0xbce021f7	-0.027359946
251	0x3dad628c	0.08466062
252	0x3aa41c6a	0.0012520675
253	0x3c881055	0.01660935
254	0xbc437320	-0.011929303
255	0x96556d8c	-1.724057e-25

encoder_b.convs.0.bias f4 [64]
0	0x3da60519	0.08106441
1	0xbcbc7be1	-0.023008289
2	0x3d2ead6c	0.042645857
3	0xbba42a78	-0.0050099455
4	0x3d95bfa2	0.07311942
5	0x3c5a593e	0.013326941
6	0xbced0179	-0.028931366
7	0x3d10d657	0.03536066
8	0x3cbc328b	0.02297332
9	0x3d804a18	0.06264132
10	0x3cc044f5	0.023470381
11	0x3c0661c9	0.008202025
12	0x3cafe860	0.02147311
13	0x3d61d98d	0.055139113
14	0xb932593c	-0.00017008645
15	0xbcada767	-0.021197988
16	0xbc82a7a3	-0.015949076
17	0x3c959b0e	0.018262412
18	0x3daa3c4d	0.08312283
19	0x3dc3d4d8	0.09562081
20	0x3d8a0233	0.06738701
21	0x3d24257c	0.04007481
22	0x3dafa25c	0.085758895
23	0xbce91058	-0.028450176
24	0x3cb3d361	0.02195138
25	0xb8e01690	-0.00010685355
26	0x3da0feda	0.07861109
27	0xbcfb6b65	-0.030690858
28	0x3d8f9202	0.07010271
29	0x3da21676	0.0791444
30	0x3cc3fcea	0.02392431
31	0x3be81430	0.0070824847
32	0xbd21a054	-0.03945954
33	0x3d4241d9	0.04742608
34	0x3da2d863	0.07951429
35	0x3d887735	0.06663362
36	0x3d2e52d1	0.04255945
37	0x3d4cdd5c	0.050015792
38	0x3c22335e	0.009899942
39	0x3d9f2d92	0.07772364
40	0xbb3be1c6	-0.0028668507
41	0xbcc47063	-0.023979371
42	0x3c8776ec	0.016536199
43	0x3d1663f9	0.036716435
44	0x3d4d8b28	0.050181538
45	0xbc6ace45	-0.014331405
46	0x3d5d5abd	0.054041613
47	0x3bb85fa6	0.0056266366
48	0x3ce76b6e	0.028249469
49	0xbae9a96f	-0.0017826984
50	0x3cdb34aa	0.02675851
51	0xbc5f14b0	-0.013615772
52	0xbc8ce954	-0.017201103
53	0xbca1059e	-0.019655999
54	0x3d166eae	0.036726646
55	0x3d469b96	0.048488222
56	0x3cf9c0dc	0.03048747
57	0xbccd2c7e	-0.02504563
58	0x3d715632	0.058920093
59	0xbc499464	-0.0123034455
60	0x3dd4112b	0.10354837
61	0x3ccf8d4b	0.025335928
62	0x3ca3f22c	0.020012937
63	0xbd05fd1f	-0.0327121

encoder_b.convs.1.weight f4 [64, 64]
0	0x800005b5	-2.047e-42
1	0x80000543	-1.888e-42
2	0x34932e56	2.7414598e-07
3	0x3c945cb8	0.018110618
4	0x3c83bb5f	0.016080556
5	0x3dc8cdaf	0.09804856
6	0x3b8565af	0.0040709595
7	0x3db0ea7d	0.08638475
8	0x3cb772b2	0.022393558
9	0x3bbac681	0.005699933
10	0x1e03121a	6.9388256e-21
11	0x3d132b39	0.035929892
12	0xb8a1ecbd	-7.721174e-05
13	0x3c1a989e	0.009435801
14	0xbc1749bf	-0.009233891
15	0xb296b1ad	-1.7543096e-08
16	0x3bbcdd9f	0.005763724
17	0x3b5fabe2	0.003412955
18	0xad4cc9b7	-1.1640847e-11
19	0xaa6a07fa	-2.0786142e-13
20	0x3d5f0c72	0.05445523
21	0xbc49f110	-0.01232554
22	0x3d6430a9	0.05571047
23	0x3cbfc34a	0.02340855
24	0x3da79d41	0.08184291
25	0xa7eb55c7	-6.5318603e-15
26	0x3c74a081	0.014930845
27	0x3d371dee	0.044706278
28	0x3ce14cff	0.027502535
29	0x3d32c44a	0.043644227
30	0x3c7ea04e	0.015541149
31	0xa3d09328	-2.2613728e-17
32	0x3cd59bdb	0.026075294
33	0x3c7d7287	0.0154692
34	0x3b9d1d14	0.004794726
35	0x3bba05c6	0.005676958
36	0x3beb527e	0.0071814647
37	0xbc2ae15b	-0.0104297055
38	0x3d1c734e	0.0381959
39	0x3b12a7f4	0.002237794
40	0x3c078854	0.008272249
41	0x3547a6a7	7.437579e-07
42	0x3c3e6264	0.011620138
43	0x3b1c80ed	0.0023880557
44	0x3c8dba8e	0.01730087
45	0x3cad1eea	0.021132905
46	0x3cbf70e4	0.02336926
47	0x3ce318b2	0.027721737
48	0x3c9b5a34	0.01896391
49	0x3c7521d3	0.014961678
50	0x3de1aac5	0.110189
51	0x3cb5bd01	0.02218485
52	0x3dd2f3cf	0.10300409
53	0x800022ce	-1.2486e-41
54	0x3cd923a3	0.02650625
55	0x3c5616f4	0.013066996
56	0x3b8804cb	0.004150962
57	0xaeb41e91	-8.190882e-11
58	0x3c46ad24	0.012126241
59	0x3d679a0a	0.056543387
60	0x874d1717	-1.5429271e-34
61	0x3bd1ea62	0.0064061144
62	0x87744ec7	-1.837967e-34
63	0x3ba2e078	0.0049706064
64	0x2cf01869	6.8239203e-12
65	0x2e02380b	2.9608354e-11
66	0x3058bdd4	7.8850104e-10
67	0x80001af4	-9.669e-42
68	0x2cd640e0	6.0894484e-12
69	0xb1eccef4	-6.892032e-09
70	0x00000f44	5.476e-42
71	0xa3607efe	-1.2169956e-17
72	0x240b2a34	3.0176568e-17
73	0x00001dc3	1.0676e-41
74	0xad8f385c	-1.6282246e-11
75	0x800002f8	-1.065e-42
76	0x9d8080a6	-3.4014337e-21
77	0x2df8fc81	2.830647e-11
78	0x00000b33	4.018e-42
79	0xab8535a9	-9.465112e-13
80	0x0006700a	5.91205e-40
81	0x2f8eccfa	2.5975294e-10
82	0x80001e0d	-1.078e-41
83	0x80001b7a	-9.857e-42
84	0x28b6ed06	2.0308852e-14
85	0x00002023	1.1528e-41
86	0x23b3b5b8	1.948418e-17
87	0x0b9ed09b	6.117326e-32
88	0x00000932	3.299e-42
89	0x2d9af069	1.7614537e-11
90	0x00001aa8	9.562e-42
91	0x9e05c6a3	-7.0820385e-21
92	0xb186601b	-3.910839e-09
93	0xa8ca447d	-2.2456207e-14
94	0x9ff03031	-1.0172368e-19
95	0x000020f8	1.1827e-41
96	0x00000a62	3.725e-42
97	0x00002435	1.2989e-41
98	0x00000519	1.829e-42
99	0x2e91c864	6.629433e-11
100	0x800016c7	-8.171e-42
101	0x1a81c969	5.3678545e-23
102	0x80000f94	-5.588e-42
103	0x3029ebd7	6.181699e-10
104	0x2fc92c42	3.6593134e-10
105	0xa4f411bf	-1.05848195e-16
106	0x90d685e9	-8.461444e-29
107	0x96d647d4	-3.4618895e-25
108	0x80000f61	-5.517e-42
109	0xa88e7b8f	-1.5818752e-14
110	0xacd1caba	-5.9626444e-12
111	0x21573bd4	7.2924015e-19
112	0x88eaafc3	-1.4124684e-33
113	0x2792d6ea	4.075615e-15
114	0x00000431	1.504e-42
115	0x8a199776	-7.395169e-33
116	0xb20941ad	-7.9893825e-09
117	0x00000333	1.148e-42
118	0x80002091	-1.1683e-41
119	0x00001c1b	1.0082e-41
120	0x800023c9	-1.2837e-41
121	0x800013e8	-7.141e-42
122	0x00000dd9	4.968e-42
123	0x80001473	-7.336e-42
124	0x80000aa8	-3.823e-42
125	0x000023e9	1.2882e-41
126	0x9d437dfc	-2.5873168e-21
127	0x306ba9ca	8.5733787e-10
128	0x2711ec53	2.0250904e-15
129	0x294f9e93	4.6100774e-14
130	0x333f5f31	4.455723e-08
131	0x3de0995f	0.10966753
132	0xbbef6be5	-0.007306563
133	0x3e0dd01c	0.13848919
134	0xbc831b21	-0.016004147
135	0x3d8c0165	0.068362035
136	0x3c713bba	0.014723713
137	0x3c02deb9	0.0079876715
138	0x23d84d01	2.345138e-17
139	0x3cc40615	0.023928681
140	0xb90d3f82	-0.00013470466
141	0x3c8ec98f	0.017430095
142	0xbcc1d2d7	-0.023660107
143	0xb4ba7503	-3.4730337e-07
144	0xbc43ed26	-0.011958396
145	0xbbb4c943	-0.0055171563
146	0x24270a97	3.6221323e-17
147	0xab7c93a8	-8.97333e-13
148	0xbc9876f3	-0.018611407
149	0xbd3dc382	-0.04632903
150	0x3e17f031	0.1483772
151	0xbda11f95	-0.07867352
152	0x3de431eb	0.111423336
153	0xa8d7369b	-2.3893476e-14
154	0x3c8ea533	0.017412758
155	0x3bbfeb6a	0.005856921
156	0xbd4a6c5f	-0.049419757
157	0x3d44c26b	0.048036974
158	0xbbdf9bd4	-0.006823996
159	0xae8a1089	-6.278451e-11
160	0x3b8f53dc	0.0043740105
161	0x3cc92e49	0.024558203
162	0xbbed0622	-0.007233397
163	0xbcb03d47	-0.021513594
164	0xbc57395b	-0.013136233
165	0xbc82dd0d	-0.015974546
166	0x3d8c4572	0.06849183
167	0xbb517721	-0.0031961876
168	0x3c55949a	0.013035918
169	0x3795d6a8	1.7862141e-05
170	0x3e144352	0.14478806
171	0xbd4e71a1	-0.050401334
172	0x3d412a0a	0.047159232
173	0x3d0a7466	0.033802412
174	0x3d4358c7	0.047692087
175	0x3d9cba8e	0.0765277
176	0xbc011d30	-0.007880494
177	0x3c0a2825	0.008432423
178	0x3dc32c7c	0.09529969
179	0x3d6fba8f	0.058527526
180	0x3dcc7ac0	0.0998435
181	0x32ae92e3	2.0323062e-08
182	0x3c8b3858	0.01699464
183	0x3d0db5f2	0.034597345
184	0xbd04006c	-0.032226965
185	0xae93881b	-6.708963e-11
186	0x3cc465d3	0.023974335
187	0xbca45460	-0.020059764
188	0x80001baa	-9.924e-42
189	0xbc5bd775	-0.013418068
190	0x80001b72	-9.846e-42
191	0xbbda0b2f	-0.006654165
192	0x0000056f	1.949e-42
193	0x80f557be	-2.2531173e-38
194	0x9a58dac4	-4.484447e-23
195	0x80001808	-8.621e-42
196	0xa2c6a78e	-5.3845413e-18
197	0x80001726	-8.304e-42
198	0x800022e2	-1.2514e-41
199	0x800014f3	-7.515e-42
200	0x80001d51	-1.0517e-41
201	0x80002179	-1.2008e-41
202	0x3164953b	3.3263194e-09
203	0x803ad67f	-5.403405e-39
204	0xb0988a96	-1.1098844e-09
205	0x800014fa	-7.525e-42
206	0x80000c56	-4.425e-42
207	0x21e0ad04	1.5224627e-18
208	0x24139d9e	3.200905e-17
209	0x80001041	-5.831e-42
210	0x00000c39	4.385e-42
211	0x2d0bc133	7.944134e-12
212	0x9e2b20be	-9.0594355e-21
213	0x800016a1	-8.118e-42
214	0x900eacda	-2.8137722e-29
215	0x80002084	-1.1664e-41
216	0x80001a9c	-9.546e-42
217	0x00000817	2.902e-42
218	0x21d3718b	1.4327971e-18
219	0x0019b956	2.362373e-39
220	0x800003b0	-1.323e-42
221	0x80001a57	-9.449e-42
222	0x800000ec	-3.31e-43
223	0x2921a800	3.5894898e-14
224	0x3103fbf4	1.9206228e-09
225	0x00000fcb	5.665e-42
226	0x80001199	-6.313e-42
227	0x89e6c5f7	-5.555665e-33
228	0x9cd9743e	-1.4389903e-21
229	0xa2e0e6c3	-6.095965e-18
230	0x1f42e1f1	4.1267992e-20
231	0x000013ee	7.15e-42
232	0xb13e9cfe	-2.7737879e-09
233	0xa104e125	-4.5021316e-19
234	0x945636f2	-1.0815075e-26
235	0x30de10f5	1.6157445e-09
236	0x00000e27	5.077e-42
237	0x8000086e	-3.024e-42
238	0x800010d7	-6.041e-42
239	0x01867ae6	4.9400177e-38
240	0x8000233a	-1.2637e-41
241	0x0000176b	8.401e-42
242	0x8000181a	-8.646e-42
243	0x2f3932d4	1.684371e-10
244	0x2e489186	4.5603986e-11
245	0xa102e9e7	-4.435528e-19
246	0x00001482	7.357e-42
247	0x2a66c8c1	2.0497754e-13
248	0xac68ab32	-3.3064215e-12
249	0x00000da3	4.892e-42
250	0xa8313906	-9.837839e-15
251	0x246297e6	4.91346e-17
252	0x311925af	2.228585e-09
253	0x80001f9f	-1.1344e-41
254	0xa7c25c56	-5.3945928e-15
255	0x1a421928	4.013858e-23

encoder_b.convs.1.bias f4 [64]
0	0xbc7f30b8	-0.01557558
1	0xbc86c7c2	-0.016452674
2	0x387bc21d	6.0023845e-05
3	0xbc6a893d	-0.014314947
4	0x3d96f6a8	0.07371265
5	0x3d519da9	0.051175747
6	0x3ca1d012	0.019752536
7	0x3d9a418b	0.075320326
8	0x3d09d994	0.033654764
9	0x3ca8e229	0.020615654
10	0xbc915856	-0.017742317
11	0x3daaf058	0.08346623
12	0x3be7ee2a	0.007077952
13	0xbbca7656	-0.0061786575
14	0xbd3d0b5b	-0.046153408
15	0xb63a6148	-2.7772785e-06
16	0x3c7a25b5	0.015267779
17	0xbccd6d77	-0.025076611
18	0xbc1fb6c1	-0.009748162
19	0xbc6a9d13	-0.014319676
20	0x3c0f6569	0.008752205
21	0x3bb9342c	0.0056519713
22	0x3d4584fa	0.04822252
23	0x3cc7f564	0.024409004
24	0x3d85f6a3	0.06541183
25	0xbbcce495	-0.006252835
26	0x3c1bba08	0.0095048025
27	0x3d49d28e	0.049273066
28	0x3d721754	0.05910428
29	0x3d0a4601	0.033758167
30	0x3d40c16a	0.047059454
31	0xbca30729	-0.019900875
32	0x3d895216	0.0670511
33	0x3d91b8bf	0.07115316
34	0x3c465fa3	0.0121077625
35	0x3c6d0436	0.014466336
36	0x3c120a06	0.008913523
37	0x3d4e29bc	0.05033277
38	0x3db0e485	0.08637337
39	0x3cd3bc79	0.025846707
40	0xbc151c22	-0.009100946
41	0xbca79dc2	-0.020460967
42	0x3be701fe	0.007049798
43	0x3d4e2560	0.050328612
44	0xbc728059	-0.014801108
45	0x3bc305c3	0.0059516146
46	0x3ced92d3	0.029000675
47	0x3d0e9c19	0.034816835
48	0xbb14cf22	-0.0022706469
49	0x3db6885f	0.089127295
50	0x3daae7da	0.083450034
51	0x3caad601	0.020853998
52	0x3db16245	0.086613216
53	0xbc97eeec	-0.018546544
54	0x3ce960b8	0.028488502
55	0x3bd462b0	0.006481491
56	0x3d8d02fb	0.06885334
57	0x30838b52	9.571102e-10
58	0x3d2d0c0e	0.042247824
59	0x3d7746ac	0.060370132
60	0xbb0b0e5c	-0.0021218276
61	0x3d614a6d	0.05500262
62	0xbc4026ec	-0.01172803
63	0x3c9e07c6	0.019290816

encoder_b.convs.2.weight f4 [64, 64]
0	0x1a15be78	3.0966337e-23
1	0x000020ab	1.1719e-41
2	0x2a3ddad3	1.6862492e-13
3	0x000024c3	1.3188e-41
4	0x279bca5d	4.3240545e-15
5	0x9d51cbfc	-2.7766377e-21
6	0x05bc2d6f	1.7696125e-35
7	0x05852fd4	1.2524829e-35
8	0xab811106	-9.170726e-13
9	0xa7765f93	-3.4191169e-15
10	0x2f7d069d	2.3012565e-10
11	0x80000376	-1.242e-42
12	0xa80d5d64	-7.847323e-15
13	0x1d14ce95	1.9694437e-21
14	0xa53e19a8	-1.6488566e-16
15	0x800006a4	-2.382e-42
16	0xb0422b97	-7.0638734e-10
17	0x84bb0e2e	-4.397651e-36
18	0x00001a1c	9.366e-42
19	0x800003d6	-1.376e-42
20	0x800005d8	-2.096e-42
21	0x8000253c	-1.3357e-41
22	0x8000222e	-1.2261e-41
23	0x80000c0d	-4.323e-42
24	0x80000190	-5.6e-43
25	0xb0a72646	-1.2161727e-09
26	0x152fc292	3.5494457e-26
27	0xa24c171a	-2.7659385e-18
28	0x80001e17	-1.0794e-41
29	0x80001bbe	-9.952e-42
30	0xa346df08	-1.078083e-17
31	0xab5c5262	-7.827403e-13
32	0x2e5e5eac	5.056104e-11
33	0x80001fd7	-1.1422e-41
34	0x00000505	1.8e-42
35	0x80000954	-3.346e-42
36	0xac948025	-4.22064e-12
37	0x9b7396d5	-2.0149225e-22
38	0x10161149	2.95956e-29
39	0x80001ae6	-9.65e-42
40	0x9dcdbb95	-5.4457003e-21
41	0x8731fe65	-1.339076e-34
42	0x8027a264	-3.639839e-39
43	0x0000131a	6.852e-42
44	0x8000094a	-3.332e-42
45	0x800015a3	-7.762e-42
46	0x80001f1e	-1.1163e-41
47	0xa9c0cf5a	-8.5624826e-14
48	0xa841a111	-1.0748578e-14
49	0x2a0807b8	1.2081904e-13
50	0x00000651	2.266e-42
51	0x2d1b3187	8.821727e-12
52	0x000024fe	1.327e-41
53	0x80001a2d	-9.39e-42
54	0x80000900	-3.229e-42
55	0xab174eeb	-5.3755497e-13
56	0x2e458c8d	4.4917448e-11
57	0x0000149f	7.397e-42
58	0x2e57fecf	4.9111656e-11
59	0x000016ec	8.223e-42
60	0x15876e2f	5.4699905e-26
61	0x2f37b970	1.6709634e-10
62	0x2f92bcce	2.66914e-10
63	0x2fb9b81d	3.3782124e-10
64	0x1581d2f4	5.243551e-26
65	0x00000d6b	4.813e-42
66	0x80000d2e	-4.728e-42
67	0xa32d35b7	-9.389723e-18
68	0x19513a77	1.0816854e-23
69	0x800020cc	-1.1765e-41
70	0x28c4a5fa	2.1832352e-14
71	0xa9a757e4	-7.4315364e-14
72	0xad980f1b	-1.7287108e-11
73	0x00000411	1.459e-42
74	0xa62b62cd	-5.9461443e-16
75	0x2fde6a50	4.0457104e-10
76	0x2876a05d	1.36905164e-14
77	0x000005a3	2.022e-42
78	0x800008e5	-3.191e-42
79	0x2afa20ab	4.443159e-13
80	0xae40b8cc	-4.381988e-11
81	0x28cfe598	2.3081187e-14
82	0x05a2b251	1.529991e-35
83	0x22ec587b	6.406161e-18
84	0x8000156a	-7.682e-42
85	0xaf1b27a7	-1.4111255e-10
86	0xa9a4c1a9	-7.316658e-14
87	0x2f3c63d2	1.7133964e-10
88	0x000008c1	3.14e-42
89	0x10055d8e	2.6301697e-29
90	0x12a6c4d5	1.0524596e-27
91	0x002dc050	4.201586e-39
92	0xa6ded797	-1.546278e-15
93	0x8e0d13d0	-1.7389131e-30
94	0xa9c98992	-8.950058e-14
95	0x00001851	8.723e-42
96	0x00000e3e	5.109e-42
97	0xb1135ff6	-2.1445863e-09
98	0x8a57e9b5	-1.0395829e-32
99	0x9f5a6e00	-4.6254285e-20
100	0x016e9a41	4.3824368e-38
101	0x1c971edf	1.0000322e-21
102	0x1c238f09	5.4117045e-22
103	0x318c9bc7	4.092246e-09
104	0x2613afbb	5.123903e-16
105	0xa47827d5	-5.3810167e-17
106	0x8000159e	-7.755e-42
107	0xa6591aa6	-7.5323114e-16
108	0xa3b973e7	-2.0106827e-17
109	0x185bc719	2.8405605e-24
110	0x800017ce	-8.54e-42
111	0x80001006	-5.748e-42
112	0xa8f8289b	-2.755114e-14
113	0x92949e61	-9.379157e-28
114	0x000024a9	1.3151e-41
115	0x80001d54	-1.0521e-41
116	0x00001ac2	9.599e-42
117	0xb0352783	-6.5903566e-10
118	0x26dba989	1.524213e-15
119	0x80000c7c	-4.479e-42
120	0x2dada24a	1.9739894e-11
121	0x2bb5e787	1.2925085e-12
122	0xab0415bc	-4.6925983e-13
123	0xaa023196	-1.1563523e-13
124	0xac91f7a2	-4.1486406e-12
125	0xa8c6afba	-2.2058625e-14
126	0x1ee3de9e	2.4126632e-20
127	0x246a3a4c	5.079004e-17
128	0xb6d6e485	-6.4043e-06
129	0x36203f8c	2.3878847e-06
130	0xb5fceb0f	-1.8843874e-06
131	0xb589195c	-1.0214676e-06
132	0xb67e8549	-3.7926532e-06
133	0xb62e39c9	-2.5961656e-06
134	0x36002ab4	1.9098343e-06
135	0x367d7d42	3.7772847e-06
136	0x36dc4676	6.5647137e-06
137	0x35b6bb5a	1.3614583e-06
138	0xb5ce9230	-1.5390742e-06
139	0x36dc4c75	6.5654117e-06
140	0x360f9b29	2.1398976e-06
141	0xb59af5cc	-1.154543e-06
142	0x37113d5c	8.65696e-06
143	0x3551a0eb	7.8092734e-07
144	0xb5af6eb7	-1.3070738e-06
145	0x36cdeaf5	6.1368287e-06
146	0xb42877ef	-1.5689851e-07
147	0xb6be2592	-5.666815e-06
148	0xb5ff8715	-1.9038295e-06
149	0x36245c72	2.4491715e-06
150	0x3714afcc	8.862418e-06
151	0x36271dd3	2.49023e-06
152	0xb785d6a1	-1.595478e-05
153	0x35171c68	5.629322e-07
154	0x35dbb0c0	1.6368213e-06
155	0xb43271ae	-1.6618898e-07
156	0x34c269bd	3.621225e-07
157	0x353962e3	6.906177e-07
158	0x365bb2c8	3.2737607e-06
159	0xb674787a	-3.642896e-06
160	0xb55004dc	-7.749311e-07
161	0xb6559d4a	-3.1831028e-06
162	0x358cdab4	1.0494464e-06
163	0x359dbecb	1.175294e-06
164	0x3434040d	1.676528e-07
165	0xb5a006c7	-1.1922901e-06
166	0x35125a43	5.4520586e-07
167	0xb541367f	-7.1977405e-07
168	0xb67d6c9c	-3.7763157e-06
169	0x35a27e2c	1.2106661e-06
170	0x34f81e26	4.6215536e-07
171	0xb491eb8a	-2.7179732e-07
172	0x35909078	1.0770882e-06
173	0x3616dd15	2.2480428e-06
174	0xb59b3772	-1.1564537e-06
175	0xb5bbc423	-1.3989669e-06
176	0x37280fc1	1.0017248e-05
177	0xb76092d4	-1.33856265e-05
178	0x35cce3d1	1.5265488e-06
179	0xb5f7760d	-1.8437291e-06
180	0xb6f79036	-7.377962e-06
181	0xb505d75b	-4.9859744e-07
182	0x367eb8bc	3.795648e-06
183	0xb6040aaa	-1.967574e-06
184	0xb5dde044	-1.6531053e-06
185	0xb4a46193	-3.0618375e-07
186	0xb58768ff	-1.0088842e-06
187	0xb4ed8a36	-4.4245252e-07
188	0xb67d3df1	-3.7735992e-06
189	0x350fe046	5.359801e-07
190	0x3631d33a	2.6498005e-06
191	0xb561a915	-8.406508e-07
192	0x3c19dfca	0.009391734
193	0x3c8294a8	0.015940025
194	0xbdb66cdb	-0.08907481
195	0x3d5d6fa2	0.05406154
196	0xbddc0726	-0.10743551
197	0xbcc35dde	-0.02384847
198	0x3dff7fd0	0.1247555
199	0x3e25844e	0.16163751
200	0xbd9e7455	-0.07737032
201	0xbc066445	-0.008202617
202	0x3bae270b	0.005314713
203	0x3e09be45	0.13451488
204	0xbc3374c3	-0.010953131
205	0xbd8a2b7f	-0.067465775
206	0x3d8c9537	0.06864398
207	0x3da7ce80	0.081936836
208	0x3cc25966	0.02372427
209	0x3dc8bab3	0.09801235
210	0x3d81dec2	0.06341316
211	0xbe041d3d	-0.12901779
212	0xbcf62e6e	-0.030051436
213	0x3dd03387	0.10166078
214	0x3e05011d	0.12988706
215	0x3b0054d0	0.0019581802
216	0xbd6d0e4a	-0.057874955
217	0x3d43ecc0	0.047833204
218	0x3d319c09	0.043361697
219	0xbd1b7b01	-0.037959103
220	0xbca87cc9	-0.020567315
221	0xbd69ca6e	-0.057077818
222	0x3a1d3e7e	0.0005998387
223	0xbdd2efea	-0.10299666
224	0xbd9c0fe8	-0.076202214
225	0xbc44dca8	-0.012015499
226	0xbd6aed17	-0.057355013
227	0x3d4f7787	0.0506511
228	0x3c867ea7	0.016417814
229	0x3da2b3f1	0.07944477
230	0xbd9e6778	-0.07734579
231	0xbbe484d7	-0.0069738436
232	0xbd4343ba	-0.04767201
233	0xbb8ce466	-0.004299688
234	0xbd726e4e	-0.059187226
235	0xbb858b97	-0.0040754783
236	0x3da5069a	0.080579
237	0x3d978ea0	0.074002504
238	0xbda4be25	-0.0804408
239	0xbde6f405	-0.11277012
240	0x3de1352f	0.10996472
241	0xbdc7ece8	-0.09761983
242	0xbd77d32b	-0.06050412
243	0xbdec4a45	-0.11537603
244	0x3b2d26c8	0.002642082
245	0x3abdfc25	0.0014494701
246	0x3e291c94	0.16514808
247	0xbd44a59b	-0.048009496
248	0xbe0c356f	-0.13692258
249	0xbbaabc30	-0.005210422
250	0xbcef4b35	-0.029210666
251	0x3cdda191	0.02705458
252	0xbdff2b3a	-0.12459417
253	0x3d0a7bbb	0.033809405
254	0x3dc10c30	0.09426153
255	0x3d75ba5b	0.059992176
