results/ADHD_3x5fold_seed0/fold0_rep2_seed2000/ckpt_best_fold_0.pt (torch, 396067 bytes, 42 tensors)

encoder_c.convs.0.weight f4 [116, 64]
00000000: f003 12be 3df1 2abe 938c df3b b215 0bbe
00000010: 5a9c f1bd ad04 c9bd 6300 b3bd 9f26 903d
00000020: 7c71 83bd dcdd 85bc 8e5d d3bd c77d 2d3d
00000030: 6d37 eabc bf60 f03d 1c5f 423d 4333 0b3e
00000040: f4cb 113e 8335 3abc 1e19 d0bd b17a 803d
00000050: 00dc 0d3e 4e56 ac3a 50fb 743c 68bd d93d
00000060: 5fbb dc3d 6b1b 29bd 170a 993c d363 cd3d
00000070: 1647 103e ba71 6f3d 6fa4 b8bd 99ce de3d
00000080: e3fd 583d 8f3a b93d a09e afbd 0c9f 46bc
00000090: 8f9c edbd 872a b2bd 321f 0dbe 5cc3 30bc
000000a0: 10f2 13be 270b a43d 5116 f83d c95d aebd
000000b0: f624 f73c 3993 08be ab01 273d 89c5 11be
000000c0: eebe db3d 1c57 00be ef34 90bd a3af 3b3d
000000d0: 960e a3bc d42a d5bc 170f 17be a312 da3d
000000e0: 4cfa 16be d9d5 9fbc c09d 513d aa55 0c3e
000000f0: 8fbd 843d 862c 8fbd 4ac6 993d 5c03 19bd
00000100: 1870 093d 5c4d 6fbd dd6d c73c 418a b43c
00000110: 62cc 273e c392 bf3d 4850 31bd 4a10 14bd
00000120: 6705 353e 8c86 8c3d 3586 f8bd 49c2 e9bd
00000130: e4e1 9cbd c6a6 0abe 731b edbd d593 013e
00000140: eb4f ff3d 438b e0bd 33e8 a23d a342 8a3d
00000150: 8014 e43d 507b 9ebd 8c35 863c 82b4 e2bd
00000160: 1ae9 1cbe e425 973d 59e2 b73c 0fda 9dbd
00000170: 2e82 44bc 5065 c93c ab32 5fbd cd86 debd
00000180: 1bac 323d 9f16 bd3c dc48 b2bd c627 0d3e
00000190: 2bf8 c0bd 75fa e33d 1526 cd3c f9b6 a13d
000001a0: 9d31 c6bc e69b f33d 4438 babd 29ee 193d
000001b0: d8ad 75bd 03c9 bcbc 651e 143e f116 92bd
000001c0: 119d a5bd 5315 f93d 512c 66bd 0ccf e23d
000001d0: a229 603d 47dd d0bc 731b 5ebd 0132 d63c
000001e0: 68bb 5c3d 3b0e dabc e577 bbbd 8bc7 533d
000001f0: b2ba daba a693 20bd 2cfa 6ebd 0dcf a13d
00000200: a08a 853b 310e 6f3d d113 91bd 03ef 133d
00000210: 2bb2 063e b704 1e3e e2b0 0bbe 71a1 5cbd
00000220: 1f61 f5bd e60a 50be 8f8e 813d 5607 0b3e
00000230: 0548 48bd 2706 873d ae03 f2bd d6bb e93d
00000240: ab3b 953a 902c 0e3e e961 c93d e09b f5bd
00000250: 1a09 153e ec32 e73d a0fb 1c3c 4716 d8bc
00000260: 5054 9fbd ab8e 50bc a6ba c1bd d2ac 073d
00000270: 1c29 0c3e 7c31 e83c e4c4 eb3d 224d b8bd
00000280: 2725 d53c ece2 b0bd adea 153e bfae 033e
00000290: 24b9 153b 9ea5 2bbd 03c4 17bd 6da5 8b3d
000002a0: e207 d2bd 08ce 063c 42c8 11be 87f9 6fbd
000002b0: 38c2 b2bd 6db7 0cbe 53ba f23c 923e 073e
000002c0: a280 6e3d 236e 0d3e f260 b0ba b89f f03d
000002d0: 5394 c3bd 316e 1f3e e6e0 78bd 8f2c 16bc
000002e0: 5d59 8f3d 94f3 ec3c 35cd 50bd 3cd0 7dbd
000002f0: 50d9 25bd 19d2 1ebc 94bf 1abe f65f c43d
00000300: 4f91 60ba 9efc 863d b1e4 0cbe cbc8 4abe
00000310: 8eed dcbd 7a00 e63d 790d 9bbd 0ae2 5d3d
00000320: 7ec8 06bd feda 2dbc c0f4 b9bd bdd0 8f3d
00000330: 1980 ef3d e957 bcbd 1634 dc3c 165b 09be
00000340: 091f 89bd b8b0 ac3d 6831 d03b 7a64 a2bc
00000350: 2dd7 2b3e ab78 8abc 9642 e43d 786f b03d
00000360: 1a93 eabd 5cc7 a63d 2586 97bc 65e2 88bd
00000370: fec8 8dbd b4db 26bd 3281 f73b 1f98 a43d
00000380: 9b74 603d e4c7 0ebe 3755 693d d037 94bd
00000390: da5f 043e c6c6 38bd 7d7d 8dbd baa4 ff3c
000003a0: 91e4 f7bd a926 54bd 057d d83c bfb7 a63d
000003b0: 0332 12bd c61a 033d 2eaf f6bc 8776 22be
000003c0: 1d40 1fbe 39c4 80bd ac6f 963d fae6 ee3d
000003d0: af39 c53d 97b0 05be 7172 f73d be11 e23d
000003e0: ad45 bcbc dd1d a6bc c59b e83c cd0d 2d3d
000003f0: 4e8c 323e 0a1e 5ebd 1c33 19be 2ed4 8cbc
-0.14259315 -0.16693588 0.0068221777 -0.13582495 -0.117974 -0.09815345 -0.08740308 0.070386164
-0.0641813 -0.016341142 -0.103205785 0.04235628 -0.028590882 0.11737203 0.047453985 0.13593774
0.14237958 -0.011365297 -0.10161041 0.062734015 0.13853455 0.0013148279 0.014952496 0.106318295
0.10777926 -0.041285913 0.018681569 0.100288056 0.14089617 0.058458067 -0.09015738 0.10879249
0.0529765 0.09044372 -0.08575177 -0.012122881 -0.11602127 -0.08699518 -0.13781431 -0.010788765
-0.14447808 0.0800994 0.121136315 -0.08513982 0.030168992 -0.13337411 0.040773075 -0.1423551
0.10729776 -0.1253323 -0.07041346 0.045821797 -0.019904416 -0.026021399 -0.1475185 0.10648086
-0.14743918 -0.01951115 0.051175833 0.13704553 0.06481468 -0.06990914 0.07508524 -0.03735672
0.033554167 -0.058423385 0.02434438 0.02203858 0.1638656 0.093541645 -0.043289453 -0.036148347
0.17677842 0.068616 -0.12134973 -0.1141401 -0.07660273 -0.13540182 -0.11577501 0.1265405
0.12466415 -0.10964062 0.07954445 0.06750991 0.111367226 -0.07738364 0.016382955 -0.110695854
-0.15323296 0.07380274 0.022446798 -0.07707607 -0.011993928 0.024584442 -0.05449168 -0.10865555
0.043621164 0.023082076 -0.08705303 0.13784704 -0.09422334 0.11131755 0.025042573 0.078962274
-0.02419358 0.1189497 -0.09092763 0.037580643 -0.059980243 -0.023045069 0.1446472 -0.07133282
-0.08086599 0.121622704 -0.056194607 0.11074647 0.054727204 -0.025496138 -0.054225396 0.02614689
0.053889662 -0.026618114 -0.091537274 0.05170397 -0.001668772 -0.03920331 -0.05834405 0.0790082
0.0040753633 0.058363143 -0.07083858 0.03611661 0.13153903 0.15431486 -0.13641694 -0.0538649
-0.11981415 -0.20316657 0.06326019 0.13577017 -0.04889681 0.0659297 -0.11817108 0.1141278
0.001138558 0.13884187 0.09833128 -0.119926214 0.14554253 0.112890095 0.009581476 -0.02637781
-0.07779753 -0.012729327 -0.094594285 0.0331238 0.13687557 0.028343908 0.11512163 -0.08999087
0.026018692 -0.08637032 0.14640303 0.12859629 0.0022845948 -0.04190599 -0.037052166 0.06818662
-0.1025541 0.008227833 -0.14236549 -0.058587577 -0.087284505 -0.13741846 0.029629862 0.13207462
0.058228143 0.13811545 -0.0013456626 0.11749214 -0.09549775 0.15569378 -0.060761355 -0.009165897
0.069994666 0.02892474 -0.05097695 -0.061966166 -0.04049045 -0.009693646 -0.15112144 0.095886156
-0.00085665745 0.06591152 -0.13759114 -0.19803159 -0.107874975 0.1123056 -0.07570929 0.054170646
-0.032906048 -0.010611294 -0.090798855 0.070222355 0.116943546 -0.09196455 0.026880305 -0.13413653
-0.066953726 0.08432144 0.006353546 -0.019823302 0.16781302 -0.016903242 0.11145513 0.08615011
-0.11453839 0.081434935 -0.018496582 -0.06683806 -0.06923102 -0.04073687 0.007553243 0.08036827
0.054798704 -0.1394344 0.056966033 -0.07237208 0.1292719 -0.04511144 -0.069087006 0.031206477
-0.121041425 -0.05179468 0.026426801 0.081405155 -0.035692226 0.032007955 -0.030112829 -0.15865527
-0.15551801 -0.062874265 0.073455185 0.11665149 0.09630143 -0.13055645 0.12082375 0.1103854
-0.022982443 -0.020277912 0.02839459 0.04224949 0.17436334 -0.054227866 -0.14960903 -0.017191019

encoder_c.convs.0.bias f4 [64]
00000000: c257 fb3b b1ae 283c 749e ef3b cce9 063c
00000010: b42d 593c 92de b73c 69cb eebb 293e 8dbc
00000020: ceca f03b 9dfb 243c 1a63 1a3c e1be 01ba
00000030: b74b 3bbb 5750 353c 450b 3c3c 6d38 aa3c
00000040: 6456 a63c 63c1 12bc bc15 793c d864 f43b
00000050: 65a6 083c 3929 083c 49eb af3b 99b7 753c
00000060: 86bf 4dbc 7836 843c 208c 8a3b 7947 a83c
00000070: 0b71 0c3c 36cc f93b 6a4c 60bc 38f3 563c
00000080: 43dc 913c 69cb 8f3b 41c7 7d3c 8041 883c
00000090: a62b 8f3c f243 243c 193f 983c 951a dfbb
000000a0: 3f02 ee3c e8b2 563c 5dd1 443c a450 50bc
000000b0: 95a8 df3c ecaa e03b 5237 723c 745a 033d
000000c0: b3e4 613c 9ef7 733c 679d 85bb c2b1 653c
000000d0: e01d 0f3c 4528 2c3c ccfd 923a 4bcf 583d
000000e0: 59db 5d3c 14d9 2a3a 79e5 6abc 1834 e83b
000000f0: 2ea6 183c 21e0 1b3c 88d5 9a3b a172 853c
0.0076703737 0.010295556 0.0073125903 0.008234452 0.013255525 0.022444997 -0.007287432 -0.017241554
0.007348395 0.010069755 0.009423042 -0.00049494026 -0.0028579065 0.011066518 0.011477296 0.020778859
0.020304866 -0.00895724 0.015202936 0.0074583106 0.008340453 0.0083106095 0.0053686243 0.014997386
-0.01255787 0.016139254 0.00422813 0.020541893 0.008571873 0.007623221 -0.0136900935 0.013119511
0.017805224 0.004388262 0.0154894 0.016632795 0.017476868 0.010025965 0.018584775 -0.0068085887
0.029053805 0.013104178 0.012012807 -0.012714539 0.027302066 0.006856313 0.014783697 0.032068685
0.013787436 0.0148905795 -0.0040776017 0.014019432 0.00873515 0.010507648 0.0011214553 0.052932065
0.013541066 0.00065173325 -0.014336937 0.007086288 0.009316964 0.009513886 0.004725162 0.01629001

encoder_c.convs.1.weight f4 [64, 64]
00000000: 6b90 22be bd28 29be ea96 42be 2451 33bc
00000010: 2030 c638 17f4 edbd 3eee 0dbe 6c34 57bd
00000020: 7971 53be e1f5 513d 34a7 2e3e b2f9 db3d
00000030: 64b8 0d3e c0a6 083e edca eebd 29ae 2cbd
00000040: fc21 82ba 7e1e 65be 93fc 80bc 70dd d0bb
00000050: dd11 183e 358f b5bd 564c 1a3e 7ae4 04bd
00000060: 9946 fabd 9129 aa3d 31fe 6e3c c235 aa3d
00000070: 35e7 f13c b3cd bf3a b7e5 c53d 0a14 2c3d
00000080: 7301 d0bc b39b b83d decb 263e 7430 3cbe
00000090: 07e9 7cbd 0ee6 b33d ad01 123e 9376 243d
000000a0: 6ce9 f337 e0c3 043e add3 5c3d f9a3 883b
000000b0: 370b 67bc f401 393e 4565 a5bc ebe0 d5bd
000000c0: 66ad f13c e5ad c6bd c67e a0bc 7aa2 83bc
000000d0: 9131 5b3d 9864 6b3d b1b1 033e a178 663d
000000e0: 760a 1cbe 57f8 963d ccfe 90bc 4974 02be
000000f0: 38e7 2bbd 95cb c83d ba28 c2bc 9e2c 26be
00000100: e95b 2c3e a2be ddbc 46dd 49bc 2495 1cbe
00000110: f4a6 fb3d 95a8 f6bd 7283 07be 1c39 6fbd
00000120: 7a58 ec3d 7443 e2bd 4402 093e 4be0 0b3e
00000130: d16a e23d 3ee3 15bd cd05 afbc 114f abbd
00000140: 34c7 03bd 069f ed3c dad1 13be 57a8 e0ba
00000150: c2e2 553b ac1d 103e eb3e b8bd 51f2 ee3c
00000160: 6a51 153e 88c9 a2bd afb6 97ba e51e bf3d
00000170: 8fb6 53bd ebf9 013c 51e2 edbc f704 8dbd
00000180: 0619 c7bd d368 1d3d bd5e dfbd 3047 54bd
00000190: 4e25 d33d c8ba fc3a 056c ecbd f435 cc3d
000001a0: ffe6 77bd 0daf 293e 7df5 3b3e 6308 97bd
000001b0: b4c9 c33b 0c5f 2a3e 30f3 043e 69d5 7abd
000001c0: 9073 1a3e d027 ec3d 7360 adb8 6bc5 4fbd
000001d0: 024e 32bd 04e4 883d 53bf 7d3d aa5c c23d
000001e0: ad2c 653d ef46 3dbd 9261 043e 5131 1e3e
000001f0: 1d0d d53d 2813 17bb 858b 1f3e 5974 0f3d
00000200: f2fb 93bd 4f24 cdbd b675 a43d 68d3 20be
00000210: 1671 083e bb25 853d d59c ee3d a036 c93d
00000220: b422 45be e8c8 1cbe 74d7 053d 6f66 07bb
00000230: 25ac e6bd e226 46bd af09 ec3d 7915 3b3e
00000240: b06a 2fb9 8319 46be 1f4c 253d b54e a1bb
00000250: fc80 ce3c af32 babd c778 c2bd 7933 1a3b
00000260: 9e8b 523d e932 e43d e497 2abe 8a67 a5bd
00000270: 2863 183c 2658 28be 016f dcbd 9ed6 80bd
00000280: 037e 17bd 4784 633c 6eda d03d ce5a 3cbe
00000290: 59ce 28bd 5095 463d d6b3 63bd cb84 203e
000002a0: 4d10 7c3d 3910 2cbe 5485 373e 7538 05bd
000002b0: e524 06be f718 e83d bd8d 3d3d 754d 443d
000002c0: 3778 413c dcc2 5b3c 5bf5 4bbd 1665 d3bd
000002d0: 867e 2abe ffb8 fa3d 644d e2bd 2745 313e
000002e0: fc1e d3bc 78e9 3ebc 5007 6cbe 07b6 8d3d
000002f0: 2c04 ce3d 7437 3e3e 0bcc 91bd 6d73 3f3e
00000300: 75eb 17bd 74b0 2cbe bc64 d33d 8b9d 66bd
00000310: c0b3 61bd 413b b3bd b831 86bd 3fc2 0a3c
00000320: 5b67 553d 9887 453d 8bd1 793e c983 03be
00000330: b572 27be e2d2 0a3e a398 083e 1b53 4a3e
00000340: 5722 dc38 38e4 49be 36db 453e 6f79 5bbd
00000350: 319d 493d f918 a2bd ed42 003d 6767 943d
00000360: 7231 793d f2af 063e 3156 eb3c 41e3 d23d
00000370: f327 12be f92f 4ebe 2a86 9c3d 5876 e63d
00000380: 861b 13be 73fc 413e fc01 cb3d 794c 48bd
00000390: b723 bcbd d5e4 abbd f640 38bd 5635 27be
000003a0: da13 b63c be03 9ebd fb85 513e c6c4 01be
000003b0: 621e b7bd 571f 463d a88b 6b3d 04ee cf3c
000003c0: ba2b b2bd c10b bfbc fe5c 3a3c 6a61 d53b
000003d0: 44a8 0f3d 9564 d53c 63e3 afbd 5a0b 6b3d
000003e0: 73dd 1fbc 2a2c 16bd 7884 1c3e d156 593d
000003f0: 7afa 783d 7a3d d5bc 367e 55be d852 293c
-0.15875404 -0.16519447 -0.19002882 -0.010944638 9.45034e-05 -0.11618822 -0.13860413 -0.052540228
-0.20648755 0.05125988 0.1705597 0.10740985 0.1383987 0.1334486 -0.11659799 -0.04215828
-0.0009928341 -0.22374913 -0.015745437 -0.0063740537 0.14850564 -0.08865205 0.15068182 -0.032444455
-0.12220497 0.083087094 0.014586971 0.08311035 0.029529193 0.0014633447 0.09662955 0.0420113
-0.025391316 0.09014072 0.16288707 -0.18377858 -0.06174567 0.08784114 0.14258452 0.040152144
2.9076553e-05 0.12965345 0.053912807 0.0041699377 -0.014101795 0.18067151 -0.02018989 -0.1044329
0.029501628 -0.097011365 -0.0195917 -0.016068686 0.053514067 0.05746898 0.12860753 0.056267384
-0.15238366 0.07371586 -0.017699622 -0.12739672 -0.041968554 0.09804455 -0.02370106 -0.16227958
0.16831936 -0.02706844 -0.012320822 -0.15291268 0.12287703 -0.12043873 -0.13233736 -0.058404073
0.11540313 -0.11048022 0.1337977 0.1365978 0.1105553 -0.03659367 -0.02136507 -0.0836469
-0.032172397 0.029006492 -0.14435521 -0.0017140013 0.003263638 0.14073819 -0.08996376 0.02916828
0.14581838 -0.07948595 -0.001157483 0.093320645 -0.051687773 0.00793312 -0.02903858 -0.068857126
-0.0972157 0.038430046 -0.10906742 -0.051825702 0.1030985 0.0019281739 -0.115440406 0.09971228
-0.06052303 0.16570683 0.18355365 -0.073746465 0.0059749726 0.1663782 0.12983394 -0.06123868
0.15083146 0.11531031 -8.267248e-05 -0.05072538 -0.043531425 0.066841155 0.06195004 0.094903305
0.05595081 -0.046210226 0.12927845 0.154485 0.10402892 -0.002305219 0.15580566 0.035023067
-0.07225789 -0.10016691 0.08030264 -0.15705645 0.13324389 0.06501337 0.11651007 0.09824872
-0.1925152 -0.15311015 0.032676175 -0.002066042 -0.11263303 -0.048376925 0.115252845 0.1826991
-0.00016729045 -0.1934567 0.040355798 -0.0049227127 0.025207989 -0.090916984 -0.09495693 0.0023529215
0.05140268 0.11142523 -0.16659504 -0.08076389 0.009300984 -0.16439876 -0.1076336 -0.06290935
-0.03698541 0.013886518 0.10197912 -0.18394014 -0.041212413 0.04848224 -0.055591427 0.15675656
0.061538983 -0.16803063 0.17921954 -0.032524545 -0.13100012 0.11332887 0.04627775 0.04792543
0.011808447 0.013413157 -0.049794536 -0.10322015 -0.16649827 0.122423165 -0.11049917 0.17311536
-0.02577161 -0.011652343 -0.23049664 0.069194846 0.100593895 0.18575841 -0.07118996 0.18696375
-0.037089784 -0.16864187 0.10321948 -0.05630259 -0.055103064 -0.08751536 -0.06552452 0.008469163
0.05210052 0.048225015 0.2439634 -0.12843241 -0.16352351 0.13557008 0.13339476 0.19758265
0.00010496814 -0.19715965 0.19321904 -0.053582605 0.049222175 -0.079149194 0.031313825 0.07246285
0.06083817 0.13153055 0.028727623 0.102972515 -0.14273052 -0.20135488 0.07642777 0.11253041
-0.14365968 0.18943958 0.09912488 -0.048901055 -0.091864996 -0.083932556 -0.044983827 -0.1632894
0.022226263 -0.077155575 0.20461266 -0.1267272 -0.08941342 0.04836973 0.057506233 0.02538205
-0.086997464 -0.023321034 0.01137471 0.006511857 0.03507258 0.026048938 -0.085882924 0.057383873
-0.009757387 -0.036663212 0.15284908 0.05306131 0.060785748 -0.02603029 -0.20848927 0.010334693

encoder_c.convs.1.bias f4 [64]
00000000: 61c3 8e3b ab7c a63c 428d 813c b7c7 493c
00000010: e2ae 1d3c e901 20bc fa88 f53b 2e2b 763c
00000020: 2fe2 1d3c 05c7 d73c 3e59 b73c b366 143c
00000030: 8864 813c b424 cbbb 0a49 1e3c 55d6 5a3c
00000040: 0eea 0bbc 0a29 463c 3f67 e03b 4b3a 61ba
00000050: f829 083c 13ae 2f3c bcc6 773c cb34 a73b
00000060: b6d9 223c bf62 023c 823f a03c 9d04 103c
00000070: 2dfc 0d3c e25e 6e3c 7fad f93b 66b9 4e3c
00000080: b877 2b3c 4317 2f3c eae1 1a3c 9093 473c
00000090: 7a66 783c 6bc7 303c f34e 94bb 001f fa3b
000000a0: 8c13 e53b 30b6 443c 1366 f63a b4c5 6b3c
000000b0: 9775 183c baac b03b b998 41bc 26b8 c63b
000000c0: 051f 383b 5e28 523c 1614 dfbb e7d5 0bbb
000000d0: 7ff1 1f3c a82f 943c 0c24 85ba c810 f83b
000000e0: c916 b13c ffbb 463b 3009 4d3c 6728 33bb
000000f0: 281e e03b 8451 0c3c f83f 7c3c 8724 ed3a
0.004356787 0.020323118 0.015814427 0.012315682 0.009624215 -0.00976608 0.0074931355 0.015024943
0.009636446 0.026340017 0.022381421 0.0090576885 0.015795007 -0.0061994437 0.009660969 0.013356765
-0.00853969 0.012094745 0.0068482454 -0.0008591755 0.008310787 0.010722655 0.015123066 0.005102729
0.009939602 0.007958113 0.019561533 0.008790162 0.00866608 0.014548989 0.0076195593 0.012617445
0.010465555 0.010686698 0.009453276 0.012181178 0.015161151 0.010789732 -0.004526013 0.00763309
0.0069908556 0.0120063275 0.0018798731 0.014390398 0.009305379 0.0053916844 -0.011816197 0.0060644327
0.002809466 0.012827007 -0.0068078144 -0.0021337213 0.009762167 0.01808913 -0.0010157838 0.00757036
0.02161731 0.0030324457 0.0125143975 -0.0027337314 0.0068395324 0.008564357 0.015396111 0.0018092551

encoder_c.convs.2.weight f4 [64, 64]
00000000: 0564 0e3e 9b1f bdbd 6517 39be 0554 d23d
00000010: a22c bf3d e230 193d d7df 91bd aba0 c73c
00000020: 96fe f0bd eeb8 e53d 168c 24bd cbac ddbd
00000030: c860 e7bd 2581 43be 8ef6 0dbd 19da 683c
00000040: 8d7e 2fbe 143f d6bd 95ee c43d 04c9 97bc
00000050: 4849 adbd c153 ef3d 853d 413e 3d64 1ebd
00000060: 455e 0abe cfc0 bf3d a300 8e3d a445 e2bd
00000070: bf39 1e3e d5de de3d 2505 853c 9485 8d3d
00000080: 07c5 5f3c 63c8 713c 9c2d 1239 0042 f33d
00000090: 5787 5b3d 97dc d5bc 741d 233e 5e2d a9bc
000000a0: a89c 813d ad6b 91bd 2df4 0b3e bf23 3d3d
000000b0: 3907 cc3d 7cea f83c 0a90 d93d 6731 3c3e
000000c0: 67fe 163d cc52 debc f3d5 1c3e 9f6f 273e
000000d0: c200 9d3d 6883 853c 1814 b4bc f6d1 1bbd
000000e0: 7da4 3e3d 3660 08bd 0447 473e ce77 c1bd
000000f0: 7a43 333e 333c 523c a001 f6bd 3aff ab3d
00000100: c4a6 93bd 5cc6 4e3e b63f d9bc 44ff b53c
00000110: 26d5 dcbd 7276 5f3e e637 5abd c8e7 29be
00000120: 7e04 5cbe 2ed3 273e 671d cd3c 5584 1cbd
00000130: 4098 403d cbc8 083e 3861 c4bb 1a8a bebd
00000140: f427 123e 3dcd 2bbd 80ef ccbd 7ee2 023e
00000150: 78ff 603e 1b8b 14be 4ff1 1ebe 01fb f2bc
00000160: 3cee 35bd 1f2d 3f3d f04f 11bd 9194 f6bd
00000170: 6f37 3cbe e433 fd3d f5c4 1bbe 84dd b13d
00000180: c133 043e c319 06bd 08c0 953d 4320 393d
00000190: bca5 42be 2eaa 6abe de64 363e b987 8bbd
000001a0: 6e30 b0bd 4aee a6bd 0e58 0c3e 8b7c 753c
000001b0: 1a51 f53d a505 443e b0bf e3bc bfa3 413e
000001c0: 8a05 20bd e876 ac3c 90c1 67bd 634d 65bd
000001d0: 22ff ff3d 60c8 c7bd 058f 123e 93b7 05be
000001e0: 8ed9 993d 6f7e 7d3d 49b0 2b3e f653 60bd
000001f0: 394b 78bc c4bf 233d 56f1 1d3e 7059 cb3c
00000200: f596 f93c ccbb 203e e415 babd 1d34 4f3e
00000210: 198c 173e baa9 06be 3262 e23d e0d8 68bd
00000220: 5ebd 16be 9165 eabc a19f e8bd 5d84 babd
00000230: 786d 9ebd 8e2b 84bd 1915 cd3d 8f22 ecbc
00000240: 9c72 13be c15e 313e cce4 b1bd 69d6 c3bd
00000250: 5e5d f33c 8cb0 48be e5f4 aa3d 0904 f3bc
00000260: dba8 e6bd 19fd 54ba 567d c03b 432f 00be
00000270: 5bf2 d3bd 8072 413c cd27 a3bd 3461 843b
00000280: 764c b5bd 6936 1cbe b543 36bd 51f2 e2bd
00000290: 0f57 543d caf2 edbc 8b44 2c3e 509b 9bbc
000002a0: de5c 94bd 2d1b 24be 2c91 123e 42ac 093d
000002b0: 28d5 99bc 9ba0 0bbd 3cd1 4abd 3d8d e8bd
000002c0: e77a 2c3e df59 46bc de74 41bd 2647 fd3d
000002d0: 2aa7 9ebd 84fe 62bd f2fd 153e 9627 4a3c
000002e0: 7697 313d 687a 523e dda5 c73d 6356 bc3d
000002f0: 5a2d 2b3d a293 3a3d b564 c63d 5757 983d
00000300: 34c7 bb3d ce8a f8bd 1692 f2bd 8f17 92ba
00000310: 80e3 de3d b7b9 6ebd 43fa 003e e3f5 ffbd
00000320: a73f 0e3e a473 f9bd 328a 9d3d 7d95 923d
00000330: 5bb8 c4bd 8f36 b13d f38a d0bd 2d1e 18be
00000340: 6fd3 20bc 28b4 9d3d 980e bc3d 9c3b b23d
00000350: b6ce 093e 8e6b 8cbd 6559 d3bd a5b6 32bd
00000360: 8be3 023e 251b 043e ac10 df3d 9ba7 b7bd
00000370: acfa 863d 3a52 9eba add6 26bc f21f e0bd
00000380: e459 9d3c 7e87 f9bd 498d 8b3d 8bc4 343d
00000390: 3791 adbd 3eff b9bb 4b20 6e3d a738 cc3b
000003a0: 8dec ba3d 189b 13bd 950c 74bd dea8 073d
000003b0: 8e5a 123d 1324 333e 9d5b 8bbd c0f7 773d
000003c0: a5de 3c3e 1ff4 893c ca1c 853d 7acd babd
000003d0: 5252 093d bd34 44bd 81e3 a9bd f26c 553d
000003e0: cb65 433d fe9e 353e d873 883d b91a 3abe
000003f0: 4ea4 e5bd 533e 0ebe 6de8 ccbd b780 903d
0.13905342 -0.09234544 -0.1807533 0.10269932 0.09334685 0.037400134 -0.07122772 0.024368605
-0.117673084 0.11216913 -0.04017266 -0.10823973 -0.112977564 -0.19092233 -0.03465896 0.014212155
-0.17138119 -0.1046125 0.096158184 -0.018528469 -0.08461243 0.11685897 0.18871124 -0.038669813
-0.13512523 0.09362947 0.06933715 -0.11048439 0.15451716 0.108823456 0.016237805 0.06910244
0.013657815 0.014757249 0.00013940636 0.11877823 0.053595867 -0.026106162 0.15929204 -0.020651516
0.06328708 -0.07100616 0.13667364 0.04617667 0.09962315 0.030385248 0.106231764 0.1837822
0.03686371 -0.02713909 0.1531599 0.16351174 0.0766616 0.016298011 -0.021982238 -0.03804203
0.046543587 -0.03329488 0.19460684 -0.09446679 0.17506209 0.012831735 -0.12012029 0.0839829
-0.072095424 0.20192856 -0.026519638 0.022216447 -0.10782842 0.21822527 -0.053275965 -0.16592324
-0.21486089 0.16389152 0.025038434 -0.03821214 0.047020197 0.13357846 -0.0059930347 -0.093036845
0.14273053 -0.041943777 -0.100066185 0.12781712 0.21972454 -0.1450619 -0.1552174 -0.029660704
-0.04441665 0.04667389 -0.035476625 -0.120400555 -0.18380521 0.12363413 -0.15211852 0.08684829
0.12910368 -0.032739412 0.07312018 0.045196783 -0.19008535 -0.22916481 0.17811915 -0.068129964
-0.08602987 -0.08150919 0.13705465 0.014983307 0.119783595 0.19142778 -0.027801365 0.1891012
-0.039067782 0.021052793 -0.05658108 -0.055982005 0.124998346 -0.097550154 0.1431237 -0.1305831
0.075121984 0.061888155 0.16766466 -0.05476757 -0.015154653 0.039977804 0.15424094 0.02482292
0.03046749 0.15696639 -0.090862066 0.20234723 0.14799537 -0.13150683 0.110538855 -0.056847453
-0.14720675 -0.028612884 -0.11358572 -0.091072775 -0.07735723 -0.0645362 0.1001379 -0.028825073
-0.14399189 0.17321302 -0.08686218 -0.0956238 0.029707607 -0.19598597 0.08347491 -0.02966501
-0.112626754 -0.00081248727 0.005874316 -0.12518029 -0.1034896 0.011807084 -0.07966576 0.004039908
-0.088524744 -0.15255131 -0.044498164 -0.110813744 0.051840838 -0.029046435 0.16823022 -0.018994957
-0.072442755 -0.16025992 0.14313191 0.033611543 -0.018778399 -0.034088712 -0.049515948 -0.11355064
0.16843759 -0.012106388 -0.047230594 0.12367086 -0.07746728 -0.055418506 0.14647654 0.01233854
0.043357335 0.20554507 0.09748433 0.091961645 0.041791297 0.04555095 0.09687177 0.07438534
0.09168854 -0.1213585 -0.1184427 -0.0011145937 0.10883236 -0.05828258 0.12595467 -0.12498071
0.13891469 -0.1218026 0.07692374 0.07157419 -0.096054755 0.08652984 -0.101827525 -0.14855261
-0.009816035 0.07700378 0.09182471 0.08702776 0.1345776 -0.06856452 -0.10319785 -0.043631215
0.12782113 0.1290098 0.10891852 -0.08967515 0.065907806 -0.0012078949 -0.010183019 -0.10943593
0.019207902 -0.12184046 0.068140574 0.04413275 -0.08474963 -0.005676179 0.058136266 0.0062323394
0.0912715 -0.03603658 -0.05958231 0.03312003 0.03573089 0.1749423 -0.06804583 0.060539007
0.18444307 0.016840039 0.06499632 -0.09121223 0.033525772 -0.047901858 -0.08295346 0.05210585
0.0477045 0.17736432 0.066627204 -0.18174256 -0.11212979 -0.13890962 -0.10005269 0.070558004

encoder_c.convs.2.bias f4 [64]
00000000: 391d 173c 96f9 063c 36eb 0cbc 9e3f 0a3c
00000010: 97bd 0c3c b7dc 0a3c 5636 0e3c db10 0dbc
00000020: 2c04 10bc e862 093c fb37 0bbc 03d1 1abc
00000030: 63f3 15bc 989f 0cbc 30df 11bc 2bc3 08bc
00000040: 2c7e 0fbc 7685 013c 027d 083c d5d3 0cbc
00000050: b30d 073c 06cb 08bc 18c3 083c e3ae ecbb
00000060: 893a 0dbc f408 153c db5d 0b3c c1cd 033c
00000070: 9fad 0bbc 071c 09bc d683 0bbc 1f10 bfbb
00000080: ca6b 0b3c ef43 18bc c8ac febb 4e1f 0bbc
00000090: 095d 0bbc cc1e 0bbc eb5f 0f3c 234d 29bb
000000a0: f0ab 0bbc 243b 20bc 4760 053c 059d 50bc
000000b0: 9406 82bb a2b9 123c cf4c 06bc c3c9 103c
000000c0: 59af 0a3c 3483 0fbc f6ca 083c d635 093c
000000d0: 6f5a 32bc b983 16bc 6496 153c 7a33 0cbc
000000e0: 3733 d0bb d384 0e3c 1536 233c 860a 02bc
000000f0: 3d9d 0b3c 036d 0dbc b1d4 0f3c eb8b 34bc
0.009223276 0.008238217 -0.0086010005 0.008438019 0.008590124 0.008475474 0.008679947 -0.008609976
-0.008790057 0.0083853975 -0.0084972335 -0.009449246 -0.009152266 -0.008582972 -0.00890331 -0.008347313
-0.008758109 0.007905355 0.008330585 -0.008595427 0.008243012 -0.008349186 0.008347295 -0.0072229966
-0.008619913 0.009096373 0.008506264 0.008044661 -0.008525281 -0.008368499 -0.008515319 -0.005830779
0.008509586 -0.00929354 -0.007772062 -0.00849135 -0.008506068 -0.008491229 0.008750896 -0.002583333
-0.00852488 -0.009779725 0.00814063 -0.012732749 -0.0039680693 0.008955391 -0.0081970235 0.008837166
0.008464658 -0.008759309 0.008349171 0.008374652 -0.010885819 -0.009186679 0.009130094 -0.008557195
-0.0063537615 0.00869866 0.009961625 -0.007937079 0.008521375 -0.008631947 0.008778737 -0.011019687

encoder_b.convs.0.weight f4 [116, 64]
00000000: 9d4f 9e3d 3be8 ba3d 16c6 fcbd 5d2d 02be
00000010: 9adb 27be 71a4 b7bc 897b bfbd c35b c4bd
00000020: 281e 7dbd d479 67bd 58e5 a43c 157c bb3d
00000030: 4f20 f1bd 3c9d edbd 89f0 cabd 1a12 d13d
00000040: b7eb d43d 078b 0cbd 3a8e 0f3e f62d 1b3e
00000050: 9981 2b3e f093 cbbc 6f0d 09be d0df 89bd
00000060: 15f6 52bd ba31 22be 079b b7bd a02c 05be
00000070: 2382 c03d 7329 b9bd 5569 33be 4753 b4bd
00000080: 0407 85bd 72d1 0d3e a3da 783d 5944 793d
00000090: 7d68 8d3c 0e68 77bd 91b0 b9bd db41 843d
000000a0: 8d15 e73c a728 313e c3f6 053e 1ce4 02be
000000b0: 3583 273e dbaf 743d 848d 9abc 80d6 97bd
000000c0: 80cd b1bd 6397 0bbe f40b a8bd b69a a3bd
000000d0: 7fce 75bd debd 073e 5942 0fbe 7546 9dbd
000000e0: 020e f93b 2d3b cc3c 3a23 74bd a575 373e
000000f0: ac07 193d 8fd2 753d 57f3 d83c 133d f1bd
00000100: 4604 19be 4dc2 363e eefc 1abd ed2b cabd
00000110: 02a7 acbd f200 9eba 15a2 03bc 9738 2cbe
00000120: 594b 2c3e 0fda 883d 61c3 d73d 4781 553d
00000130: 5c6b 4e3c 054d 0c3d 8177 10bd a3a6 473c
00000140: ef9a e8bd 5e3b a43b f81c 2f3e 7e23 4ebd
00000150: 9d64 713b ba15 193e 7858 45bd 22f6 103e
00000160: f229 b73d dd86 093e b53c 1fbe 2408 a03c
00000170: cba2 0d3e abcb 19bc c948 013e 2589 17be
00000180: ed2f 013e 3b1f c23c eadd 8fbd cf72 133e
00000190: 6032 f2bb 07fa 633b 664a adbd 8176 febd
000001a0: f4cc b13d 2052 a6bb 4f75 84bd 6e2d f43c
000001b0: 2861 aa3c 446b 11be dbbf 7fbd dd69 04be
000001c0: 7b00 b13d 2d02 ef3c 1ae3 49bc 20a3 37be
000001d0: 4b3c 5abd 515a 6fbd 4cd6 11bd dbe3 e3bd
000001e0: 8a78 ea3d 6f1f 233e 76f0 013e fb48 c8bd
000001f0: 264c 8e3d 7456 003e 8d81 363e 0a7e a0bc
00000200: d83f 8d3d 5fe5 2abe 72b0 e53d 9984 173e
00000210: 8b42 63bd 427e ddbd 6a35 c5ba aa02 12bd
00000220: 0aee 233e b259 173e 0eb8 1cbe 2f0b 22be
00000230: 9666 3abe 1fd7 ffbd 198d c93d 7dde febc
00000240: fa5f d3bd bc3e eb3d 46a2 69bd 4d1c 9c3c
00000250: 3e00 07be 60f4 223d 62d8 85bc 8007 dcbd
00000260: 2868 1abe 63ec 8dbd 9206 0bbe d408 b6bc
00000270: 91ad c83d 6d2d bebd 40fd 52bd 67a9 33bd
00000280: 20b5 5ebd ad94 ff3d 404b 243a 0b74 f83d
00000290: 5ffc 113e b695 d33d 62cc 233e dc37 28be
000002a0: 8353 67bd 79b8 09be bcac e8bd 85fa 9dbd
000002b0: 9bc7 c73d f862 ae3d 0aea 3bbd c900 85bd
000002c0: 8a27 02bd a034 de3d 9e18 b53d 3188 aa3d
000002d0: c0a9 0ebd bc6e d13c 6c8e a3bc 79a5 20bd
000002e0: 3112 073e c7ee 96bd 7bab 173e 951b bf3d
000002f0: 96e3 72bd 760a 7dbd 9cc1 1bbe e459 0cbd
00000300: bd59 c63d 4b77 b9bd 64ea 9f3d aac4 19be
00000310: 19e8 21be b23d 023b 572d 12bd c8cd 5d3d
00000320: 699a f63d e172 1d3e be81 c53d b97d d6bd
00000330: 67ad 38bc 99e0 203e 8066 063e 9724 0bbb
00000340: 726b 3b3d 7b3a febd 3b05 c3bc a12c 043e
00000350: 0b37 c13c 1729 da3d 00c4 24bd 1275 e3bd
00000360: 94a5 19bd 5ac9 4fbc 823a ff3c 8f3b 323e
00000370: fcf3 9e3d ec03 0c3d 27ac 883c dde3 ac3c
00000380: eb2d a93d bbed 38be b531 bf3d daf3 05be
00000390: 26f6 233d e26e db3c f87d 383e 878a bebb
000003a0: 4d5d 59bd c2e1 92bd 387d 343e 9ad7 923d
000003b0: 75b2 07bd 3151 aa3d 06f0 59bc 4185 41bd
000003c0: 73ae 273e 4f9c c3bc 14fa 6b3d ee60 f239
000003d0: c2d1 2cbe a6f8 083d 670d f5bd ccfe 11be
000003e0: 0e02 f73d 52d6 b03c f992 b43d 713a 1f3e
000003f0: 33c2 723d 3ff8 c33d 9b1b 18bc 28db 003e
0.07730029 0.09126326 -0.123424694 -0.12712617 -0.16392365 -0.022417279 -0.09349734 -0.09587815
-0.061796337 -0.05651267 0.02012889 0.09154526 -0.117737405 -0.11602256 -0.0990916 0.10208531
0.103965215 -0.034312274 0.14019099 0.15154251 0.16748656 -0.024850816 -0.13384031 -0.06732142
-0.051504213 -0.15839282 -0.08965116 -0.13005304 0.093998216 -0.09041109 -0.1752065 -0.088049464
-0.06495479 0.13849428 0.060755383 0.060856197 0.017261738 -0.06040197 -0.090668805 0.064578734
0.028208518 0.17300664 0.13082413 -0.1278233 0.16358645 0.05973802 -0.018866308 -0.074139595
-0.08681774 -0.13631968 -0.08205405 -0.07988493 -0.060011383 0.13256022 -0.13990153 -0.07679454
0.007600547 0.024930561 -0.059603907 0.17915972 0.037360832 0.060015257 0.026483221 -0.11779227
-0.14943036 0.17847557 -0.03783887 -0.098716594 -0.08430292 -0.0012054725 -0.008034249 -0.16818462
0.16825618 0.066822164 0.105353124 0.05212524 0.012598839 0.03425314 -0.035270218 0.012185725
-0.11357676 0.00501196 0.17100894 -0.050326817 0.0036833652 0.14949694 -0.048180073 0.14156392
0.08943547 0.13430353 -0.15550502 0.019535132 0.13831632 -0.009386937 0.12625422 -0.1479841
0.12615938 0.023696532 -0.070247486 0.14399265 -0.007391259 0.003478648 -0.08461456 -0.124249466
0.0868167 -0.005075708 -0.06467687 0.029806819 0.02079828 -0.14201075 -0.062438827 -0.12931009
0.0864267 0.029175842 -0.012322212 -0.17933321 -0.053280156 -0.05843574 -0.03560476 -0.11127444
0.11448772 0.1592996 0.12689385 -0.09779545 0.06948118 0.12532979 0.17822857 -0.01959135
0.06896943 -0.1668906 0.11215295 0.14796676 -0.055483382 -0.108150974 -0.0015045826 -0.035647072
0.16008773 0.1478031 -0.15304586 -0.15824579 -0.18203196 -0.12492203 0.09841365 -0.03111195
-0.103210405 0.11486575 -0.05703952 0.019056464 -0.13183686 0.039783835 -0.01633853 -0.10743618
-0.15078795 -0.06929853 -0.13576725 -0.022221006 0.0979873 -0.09286008 -0.05151105 -0.043862727
-0.054371953 0.124795295 0.00062673166 0.121315084 0.14256428 0.103312895 0.15995935 -0.16427559
-0.056476127 -0.13449277 -0.113610715 -0.077137984 0.097548686 0.085149705 -0.045877494 -0.064942904
-0.03177599 0.10849881 0.08842586 0.08326758 -0.034829855 0.025565498 -0.019965373 -0.039220307
0.13190533 -0.07369762 0.14811508 0.09331433 -0.059299074 -0.061777554 -0.15210575 -0.034265414
0.09685085 -0.090559565 0.07808378 -0.15016428 -0.15811194 0.00198732 -0.03568777 0.054151326
0.1204117 0.15375854 0.09643887 -0.104731984 -0.011271811 0.15710677 0.13125038 -0.0021231526
0.045756765 -0.12413498 -0.023806205 0.1290765 0.023585817 0.106523685 -0.040225983 -0.11106314
-0.037511423 -0.012682283 0.031155828 0.17405532 0.0776138 0.034183428 0.016683651 0.021104747
0.08260711 -0.18059437 0.09335653 -0.13081303 0.040029667 0.026786271 0.18016803 -0.0058148536
-0.053067494 -0.07171966 0.17625892 0.07170029 -0.033129174 0.08316267 -0.013301855 -0.04724622
0.16375141 -0.023878245 0.05761154 0.00046230055 -0.16876891 0.033440255 -0.11965447 -0.14257354
0.12060939 0.02158657 0.08817095 0.15549637 0.059267234 0.095688336 -0.009283925 0.12583601

encoder_b.convs.0.bias f4 [64]
00000000: 0000 0000 0000 0000 0000 0000 0000 0000
00000010: 0000 0000 0000 0000 0000 0000 0000 0000
00000020: 0000 0000 0000 0000 0000 0000 0000 0000
00000030: 0000 0000 0000 0000 0000 0000 0000 0000
00000040: 0000 0000 0000 0000 0000 0000 0000 0000
00000050: 0000 0000 0000 0000 0000 0000 0000 0000
00000060: 0000 0000 0000 0000 0000 0000 0000 0000
00000070: 0000 0000 0000 0000 0000 0000 0000 0000
00000080: 0000 0000 0000 0000 0000 0000 0000 0000
00000090: 0000 0000 0000 0000 0000 0000 0000 0000
000000a0: 0000 0000 0000 0000 0000 0000 0000 0000
000000b0: 0000 0000 0000 0000 0000 0000 0000 0000
000000c0: 0000 0000 0000 0000 0000 0000 0000 0000
000000d0: 0000 0000 0000 0000 0000 0000 0000 0000
000000e0: 0000 0000 0000 0000 0000 0000 0000 0000
000000f0: 0000 0000 0000 0000 0000 0000 0000 0000
0.0 0.0 0.0 0.0 0.0 0.0 0.0 0.0
0.0 0.0 0.0 0.0 0.0 0.0 0.0 0.0
0.0 0.0 0.0 0.0 0.0 0.0 0.0 0.0
0.0 0.0 0.0 0.0 0.0 0.0 0.0 0.0
0.0 0.0 0.0 0.0 0.0 0.0 0.0 0.0
0.0 0.0 0.0 0.0 0.0 0.0 0.0 0.0
0.0 0.0 0.0 0.0 0.0 0.0 0.0 0.0
0.0 0.0 0.0 0.0 0.0 0.0 0.0 0.0

encoder_b.convs.1.weight f4 [64, 64]
00000000: ed69 4e3e 8375 6a3c ff52 12be 441b 16be
00000010: 4015 c33c 2f53 92bd ca62 c43d fad2 48be
00000020: fc48 683c e1f1 b33d c4ce 44be bce7 593e
00000030: 032e 303e cc55 223d 4aad 5abe 7f09 5ebd
00000040: 1d1c 083e 7473 82bb d0d8 2f3d c8b3 3cbe
00000050: e223 d1bd 91fb d23d 085b f4bd a518 023e
00000060: c4bb a1bd 066f 0bbe 26ef 123e 8280 eebd
00000070: 51bc 07be 1ba9 e9bd bb4f 15be 8f36 7bbd
00000080: e70e 253e 4632 bbbd d781 24bc d509 56bd
00000090: 74ea 363d b5e6 b4bc 6677 2ebe 083f 57bd
000000a0: 27c8 1ebe aba7 09be 14e5 d23d fd83 4dbd
000000b0: cd8b 573e 2a54 2d3d 2285 443e 64ba 60bc
000000c0: bc2e 323e 06d1 dc3d 7adc a73d aef4 d23d
000000d0: f9c5 e0bb 7d90 293e c075 17be 2481 5ebd
000000e0: 225f 6abd d187 5dbe aeac 18be d0e5 ef3d
000000f0: 00c0 09be 3ae7 fb3c d6cb 3fbe 89dd 5e3c
00000100: 4f76 1dbe 7337 ad3d f892 1cbe ad6d 0cbe
00000110: 945e 533e 93a3 4f3e a8a4 12be dc1f 53bd
00000120: 9e73 f93d 213a 51bd 49bc db3d e1df 5cbd
00000130: 8031 533e f833 44be 0a40 e83d 44c9 48be
00000140: 58a5 22be b64c 39be 9ce3 273e 1597 c0bd
00000150: 5f9c 6ebd 6383 1dbd 3a90 e83d 0dea a2bb
00000160: 18d0 393d f165 033d 7cb1 183e 6d72 0fbe
00000170: fbd9 babd 43bd 1dbe 9eee 4ebe c4b5 d1bd
00000180: 43e5 0cbe b432 d23d 8594 c43d 6d6a c23d
00000190: 64a6 22be 4b9d 0f3d 4ad4 203e 1c9e 393d
000001a0: 9959 cb3d bbc7 67bc 959b 37bd b26a 58be
000001b0: 7566 55be 28d9 1dbe 6784 59be f835 17be
000001c0: 8003 173e 5d08 b8bd 2073 13bd e986 233e
000001d0: add3 c03d 469e e53d 1bf7 18be 40ef 313e
000001e0: 4e46 2ebe a91e 353e 73d5 2bbe 8612 913c
000001f0: 0398 58be 2b5e 52bd bd49 1abd 2949 49bc
00000200: 9617 e9bc 0b28 ecbc 2b35 45bd 54ae 76bd
00000210: b118 493d 3e7c 513d 61c8 55be 6d55 453c
00000220: d125 593d 1eda 073e 783d 3c3e 76d9 37be
00000230: 8db7 a5bc 34af e63d a5a5 c8bd 0e8e 993d
00000240: 41aa 1b3e 4612 9abd b258 c93c 7712 d1bd
00000250: 81ca 1cbe d356 30be 8a2a 52be 5d61 87bc
00000260: 2665 30be 328a 63bd 2608 223e ccef 3bbe
00000270: c71a 66bd 852d 123e 83b3 dcbd cf01 0cbe
00000280: 4422 cd3b 5468 2fbe c667 d7bd d5fa 20be
00000290: e07a 083d 93a2 acbb e03f a2bd f01c 12bc
000002a0: 1d46 00bd 6c45 1cbe a018 c43d 622e de3d
000002b0: a6ed 503d 2567 493d 5058 2cbe 985c 37be
000002c0: a02f e03d fce3 d03c 6312 32bd c40b d83d
000002d0: 4515 043e 9c44 50bd dab2 17be 8301 1dbe
000002e0: c3bf 353e 9fd7 8bbd 1d31 0cbe 640a 2dbc
000002f0: 62d9 283e e1c4 003e 8675 51be 9596 0cbe
00000300: 36b3 a0bd 0067 ad3c ebc2 32be 1e49 ed3d
00000310: 373c 1a3e 7a14 4b3d 1013 213e 04f2 2b3e
00000320: f1d3 7dbc 0c08 e6bc d0db 36be 84e0 413e
00000330: b6d1 86bd beb4 e13d 2990 c9bd 3406 39bd
00000340: e281 903d 564c 653d d398 e13d c2be 5b3e
00000350: 9390 3fbe 1396 26be 09cd 13be 00ea 0ebe
00000360: cc0a dc3d 14ef 4e3e 4507 f7bd cf59 23be
00000370: fbd2 c93d 63d4 1dbd b4a8 3bbd 3125 15bd
00000380: 2bc2 523d fea3 38bd c416 413e 4070 d03d
00000390: 40fa f53d 0279 08be 411d 913d e70d 31be
000003a0: cd2c 0f3e e35a 113e 4555 e53c 7c56 d83d
000003b0: d2a5 da3b 2706 2f3e 3fcd 23be b1f0 0dbd
000003c0: 4a4b 41be de2e 1d3d 79ec d33d 9623 933d
000003d0: 01a5 19be b48a 1f3d 26e5 ac3c e22c 2bbd
000003e0: cf9e 2a3e ed23 d2bd f96a 583d b115 ca3d
000003f0: 32c9 6d3d 6125 b1bd 80e1 52be 3d06 533e
0.20157595 0.014310244 -0.14289473 -0.14658839 0.023813844 -0.07144772 0.09589155 -0.19611731
0.014177557 0.08786369 -0.192195 0.21279806 0.17205052 0.039632604 -0.21355167 -0.054208275
0.13291974 -0.0039810482 0.042931378 -0.18427956 -0.10211922 0.10301889 -0.11931425 0.12704714
-0.078971416 -0.13616571 0.1434904 -0.11645605 -0.13255431 -0.114092074 -0.14581196 -0.061331328
0.16118966 -0.09140448 -0.010040722 -0.05225547 0.044657186 -0.022082666 -0.17037734 -0.052550346
-0.1550604 -0.13442867 0.102975994 -0.050174702 0.21049424 0.042316593 0.19191411 -0.013716314
0.1740064 0.107820556 0.081963494 0.10300575 -0.0068595377 0.16559024 -0.14791012 -0.054322377
-0.057219632 -0.21633841 -0.14909622 0.11713755 -0.13452148 0.030749906 -0.18730101 0.013602623
-0.15377162 0.08457842 -0.15290439 -0.13713713 0.20641547 0.20277242 -0.14320624 -0.051544055
0.12180255 -0.051080827 0.10729272 -0.053924445 0.20624352 -0.1916045 0.113403395 -0.19608027
-0.15883386 -0.18095669 0.1639542 -0.094038166 -0.058254596 -0.03845538 0.11355634 -0.0049717487
0.04536447 0.03207964 0.14911455 -0.14008494 -0.09123608 -0.15404229 -0.20208213 -0.10239747
-0.13759331 0.10263577 0.0959864 0.09492955 -0.15883785 0.035062116 0.15705982 0.0453168
0.09929199 -0.014146741 -0.04482611 -0.21134451 -0.20839866 -0.1541487 -0.21241914 -0.14766681
0.14747429 -0.0898597 -0.035998464 0.15969433 0.09415374 0.11211829 -0.14938013 0.17376423
-0.17019007 0.17687477 -0.16780643 0.017709028 -0.21151738 -0.051359337 -0.03766798 -0.012285509
-0.02845363 -0.028827688 -0.048146408 -0.060224846 0.049095813 0.051143877 -0.2087722 0.012044293
0.05301458 0.13266799 0.18382823 -0.17954049 -0.020229125 0.11263886 -0.09797219 0.07497798
0.15201665 -0.07523017 0.024578426 -0.102086 -0.15311624 -0.17220621 -0.2052404 -0.016525919
-0.17226085 -0.055551715 0.15823421 -0.18353194 -0.05617788 0.14275177 -0.10776427 -0.13672565
0.0062601883 -0.17129642 -0.1051784 -0.15720685 0.033320308 -0.005268404 -0.079223394 -0.008918032
-0.031316865 -0.15260857 0.09575009 0.108486906 0.05100789 0.049170632 -0.16830564 -0.17906415
0.10946584 0.025499336 -0.043474566 0.10549119 0.12898739 -0.05084668 -0.1481432 -0.15332608
0.17748933 -0.06828236 -0.1369061 -0.010561559 0.16489175 0.12575103 -0.20454988 -0.13729317
-0.07846682 0.021167278 -0.17457168 0.115862116 0.15062033 0.049580075 0.15729928 0.1679154
-0.015492425 -0.028080009 -0.1785729 0.18933302 -0.06582968 0.11020802 -0.098419495 -0.04517193
0.07056023 0.055981003 0.11015477 0.21459487 -0.18707494 -0.16268186 -0.14433683 -0.13956451
0.10744247 0.20208389 -0.120619334 -0.15952228 0.098546945 -0.038532626 -0.045815185 -0.03641242
0.051454704 -0.04507827 0.1885634 0.1017766 0.12010622 -0.13327411 0.07085658 -0.1729046
0.13981934 0.14194827 0.027994761 0.105633706 0.0066725994 0.1709219 -0.15996264 -0.03465337
-0.18876377 0.038374774 0.10347838 0.07184522 -0.1500435 0.038950637 0.02110536 -0.04179085
0.16662143 -0.102607585 0.052836392 0.098674186 0.058053203 -0.086497076 -0.20593834 0.20607848

encoder_b.convs.1.bias f4 [64]
00000000: 0000 0000 0000 0000 0000 0000 0000 0000
00000010: 0000 0000 0000 0000 0000 0000 0000 0000
00000020: 0000 0000 0000 0000 0000 0000 0000 0000
00000030: 0000 0000 0000 0000 0000 0000 0000 0000
00000040: 0000 0000 0000 0000 0000 0000 0000 0000
00000050: 0000 0000 0000 0000 0000 0000 0000 0000
00000060: 0000 0000 0000 0000 0000 0000 0000 0000
00000070: 0000 0000 0000 0000 0000 0000 0000 0000
00000080: 0000 0000 0000 0000 0000 0000 0000 0000
00000090: 0000 0000 0000 0000 0000 0000 0000 0000
000000a0: 0000 0000 0000 0000 0000 0000 0000 0000
000000b0: 0000 0000 0000 0000 0000 0000 0000 0000
000000c0: 0000 0000 0000 0000 0000 0000 0000 0000
000000d0: 0000 0000 0000 0000 0000 0000 0000 0000
000000e0: 0000 0000 0000 0000 0000 0000 0000 0000
000000f0: 0000 0000 0000 0000 0000 0000 0000 0000
0.0 0.0 0.0 0.0 0.0 0.0 0.0 0.0
0.0 0.0 0.0 0.0 0.0 0.0 0.0 0.0
0.0 0.0 0.0 0.0 0.0 0.0 0.0 0.0
0.0 0.0 0.0 0.0 0.0 0.0 0.0 0.0
0.0 0.0 0.0 0.0 0.0 0.0 0.0 0.0
0.0 0.0 0.0 0.0 0.0 0.0 0.0 0.0
0.0 0.0 0.0 0.0 0.0 0.0 0.0 0.0
0.0 0.0 0.0 0.0 0.0 0.0 0.0 0.0

encoder_b.convs.2.weight f4 [64, 64]
00000000: 5eb2 b4bd a400 06be 29c9 303d b724 553d
00000010: 4a4a bdbc 8583 a73c 8c26 513e d8ad 1c3e
00000020: c94c 0dbe d023 253d 9002 41be 43c6 3abe
00000030: 7154 3e3e 00ec 4e3e 72f4 bfbc f5b0 e7bd
00000040: 29b6 3fbe 5dd7 b43d b3d3 c73d 9e9d c53d
00000050: 0da0 543e 150c b53d 30a1 91bd 2766 febd
00000060: ec81 6f3d ddce 553c b893 3cb9 6aab bc3d
00000070: a893 2fbe bf25 103d 2b96 c1bd 5666 fdbd
00000080: d03b 823d 9ad3 11be f147 093e d6fd e3bc
00000090: 1e1c 3a3d 1f52 d43d 92ca 513e 8d40 36be
000000a0: fa52 333e 1972 963c 14c1 6dbd 6408 713d
000000b0: 37d8 41be 0424 183e 8006 fcbd 5aad debd
000000c0: 0765 b53d fe7d 5d3e 72f1 abbd 796e f1bd
000000d0: bd85 58bc c7ef 17be 7593 243d 0d43 21bd
000000e0: 0bf5 58be 3ec2 a23d 4e34 003d eff0 06be
000000f0: e736 ffbb 4fb8 a73d 0443 d63b 6b37 0dbe
00000100: 6c8e ca3d cd43 fdbd 9b83 4c3e e9c0 503e
00000110: 909d 71bd 7c2f c53d 450d 4cbe ebec 2fbe
00000120: 1c9f c33c d9ce 8f3c 24dd a23d 62bc 51bd
00000130: 892f 843d 2518 1cbc 8568 4dbc c022 99bd
00000140: c92d e3bd beba 303e 5149 08be 801f 4a3c
00000150: d9b6 523e ec4e 7a3d cde3 59be 19e1 cf3d
00000160: f5ff 1b3e e9c7 0dbd 1f20 20be 6046 25bd
00000170: 84b0 3fbe 37d4 86bd f2bc 3ebe 243a 88bc
00000180: c52f d5bd b22b 37be f2e6 d23c a0af 9bbc
00000190: 5bee c4bd 0f64 58be fac2 e6bd 0f6f 0ebe
000001a0: 85b5 09be 0a55 3dbe 30dc 99bd 672d d8bd
000001b0: 2131 24be 005a e43d 3858 243d c3f6 ad3d
000001c0: b7d3 4bbe 5922 74bc 988f 9dbd af5e 143c
000001d0: 72fd 86bd b624 103e f95e 8bbd 11e9 debd
000001e0: 2fb9 0ebe 2d2f 1fbd 5d5b bfbd 8bdd 073e
000001f0: 671e 0bbd ee21 683d 195b 43bd 08ec 663d
00000200: ab1d db3d 994b 37be 84fa 2e3d 9d09 4f3e
00000210: ef6d 2fbe c51a 02be 06bf a0bd 23d8 1dbe
00000220: 3f37 063e a031 58bc fc15 b23d 0e12 9c3d
00000230: 482c 88bd fa6b af3d 603c 363e d703 55be
00000240: 2ffd 60bd f838 5abd af8d 383e 566b 0ebe
00000250: 4264 dfbd a420 013e db3e 8c3d e2eb f13d
00000260: 3591 5c3d a9f7 20be c327 ddbb f098 a63c
00000270: 29d0 483e 274c 2a3c d244 e9bd 6de9 003e
00000280: 48b7 af3d 844c 11be c905 e5bd d4b9 dc3c
00000290: 0c8a d43c 2487 9ebc f3f1 0fbd 8a7c 51bd
000002a0: ad32 84bd 3b39 97bd 70fb f53d 00c9 22be
000002b0: c105 973d 5259 0dbe 3bb1 83bd a98d 3fbd
000002c0: 041a f0bd 32ec 5cbd 4df8 ed3d 92aa 653c
000002d0: 2b48 8abd 5e37 75bd bd10 4e3e 8431 c3bd
000002e0: 360d 82bd 3dca 563e 02a2 043e 154f fc3d
000002f0: 683a 1fbe 5531 2a3e 31e6 8abd 3c87 27be
00000300: 1835 e8bd 4b85 41be 3c9a 913d 3591 0c3e
00000310: 90f6 333e 03b6 13be 241c 10bd 89e4 28be
00000320: d6a4 4fbe 6ed4 103e 2c8c 4fbe c5d6 3b3e
00000330: d3cf 953c 6cba 21be 6e2d 313c 0f51 acbd
00000340: 0e46 063e 2a15 8cbd 482a f5bd fcab c73d
00000350: 5e05 4e3e 530a 23be eff6 10be af1d 133d
00000360: 8824 36be a7b0 353d c6f6 353e 0bb2 af3d
00000370: 054f 13bd 0788 163e f890 353e 7b6f fa3c
00000380: 7247 f63d e970 45be 355d d23d 15cd 86bd
00000390: 14ef 823c 656b fa3d a0bb f0bd a9ef aebd
000003a0: ec02 4f3e 48b9 0dbe 1515 303d a033 a13d
000003b0: 9790 253e 18af 5e3c 1ab9 b83b d7c3 d93c
000003c0: e4f2 89bc 5c25 a3bd 5af0 74bc da02 c93d
000003d0: c1b2 c0bc e2f1 ffbd 0420 0dbe 981c c83c
000003e0: c912 853d 560f 3fbe 069e 10be b292 223e
000003f0: 337d 553e d963 73bd b45b f6bc 5186 da3d
-0.08823083 -0.13086182 0.04316059 0.052036967 -0.023106713 0.020448456 0.2042486 0.15300691
-0.13798822 0.040317357 -0.18848634 -0.18239693 0.185869 0.20207214 -0.02343199 -0.11313049
-0.18721832 0.0883014 0.09757175 0.09649204 0.2076418 0.08840195 -0.07110822 -0.12421828
0.058473513 0.013049808 -0.00017984107 0.09212382 -0.1714617 0.035192247 -0.094524704 -0.12373035
0.063590646 -0.14240876 0.1340635 -0.027831 0.04543697 0.10367226 0.2048743 -0.17798062
0.17512122 0.018364953 -0.05804546 0.058845893 -0.18930136 0.14857489 -0.12305927 -0.10872908
0.0885716 0.21630093 -0.083956614 -0.11788649 -0.013215479 -0.14837562 0.04017969 -0.039370585
-0.21187226 0.07947205 0.03129988 -0.13177846 -0.0077885273 0.08189451 0.0065387506 -0.13790672
0.09890446 -0.123664476 0.19972079 0.2038609 -0.058988154 0.096281976 -0.19926937 -0.17180221
0.02387958 0.017554687 0.079523355 -0.051205046 0.06454379 -0.009527241 -0.012537126 -0.07477331
-0.11092717 0.17258736 -0.13309218 0.012336612 0.20577563 0.061110422 -0.21278305 0.10150356
0.15234359 -0.034614477 -0.15637253 -0.040350318 -0.18719679 -0.065834455 -0.18626764 -0.016629286
-0.10409502 -0.17887762 0.025744889 -0.019004643 -0.09615775 -0.2113192 -0.112676576 -0.13909553
-0.1344815 -0.18489471 -0.075127006 -0.10555535 -0.16034366 0.11149979 0.040123194 0.08494332
-0.19904982 -0.014900767 -0.07693404 0.009055777 -0.065913096 0.14076504 -0.06805224 -0.10884298
-0.1393783 -0.03886335 -0.09343598 0.13268106 -0.03396454 0.056672983 -0.0476943 0.05637744
0.10699018 -0.17899932 0.04271938 0.20218511 -0.1713178 -0.12705524 -0.07848935 -0.15414481
0.13107012 -0.013195425 0.086955994 0.07620631 -0.06649071 0.08565517 0.17796469 -0.20802246
-0.054928955 -0.053276986 0.18022798 -0.13908133 -0.109077945 0.12610108 0.06847926 0.11812569
0.053849418 -0.15719475 -0.0067491247 0.020336598 0.19610657 0.010394133 -0.113900796 0.12589045
0.0857988 -0.14189345 -0.11182744 0.026944079 0.025944732 -0.01935155 -0.03514285 -0.05114416
-0.06454978 -0.07383963 0.120108485 -0.15896988 0.07374144 -0.13803604 -0.064302884 -0.046765957
-0.11723712 -0.05393619 0.11619625 0.014017718 -0.06752046 -0.059867255 0.20123573 -0.09530929
-0.06350176 0.20975585 0.12952426 0.12319771 -0.15549624 0.16620381 -0.06782187 -0.16360182
-0.11338252 -0.18898503 0.07109496 0.13727267 0.17574525 -0.144249 -0.035183087 -0.16493429
-0.20277724 0.14143535 -0.20268315 0.18343647 0.018287575 -0.1579377 0.010814054 -0.08413898
0.13112661 -0.06839974 -0.11970955 0.097496 0.20119235 -0.15921907 -0.14156698 0.03591698
-0.17787373 0.044357922 0.17769918 0.08578881 -0.03596403 0.14700328 0.17731082 0.030570736
0.12025346 -0.19281353 0.10271684 -0.06582085 0.015983142 0.12227515 -0.11754537 -0.08541805
0.20215958 -0.1384021 0.042988855 0.07871175 0.16168438 0.01359155 0.0056373 0.026582642
-0.016839452 -0.0796611 -0.014949882 0.09814997 -0.023522737 -0.12497307 -0.13781744 0.024427697
0.064977236 -0.18658194 -0.14122781 0.15876272 0.20848541 -0.059421394 -0.030073024 0.1067015

encoder_b.convs.2.bias f4 [64]
00000000: 0000 0000 0000 0000 0000 0000 0000 0000
00000010: 0000 0000 0000 0000 0000 0000 0000 0000
00000020: 0000 0000 0000 0000 0000 0000 0000 0000
00000030: 0000 0000 0000 0000 0000 0000 0000 0000
00000040: 0000 0000 0000 0000 0000 0000 0000 0000
00000050: 0000 0000 0000 0000 0000 0000 0000 0000
00000060: 0000 0000 0000 0000 0000 0000 0000 0000
00000070: 0000 0000 0000 0000 0000 0000 0000 0000
00000080: 0000 0000 0000 0000 0000 0000 0000 0000
00000090: 0000 0000 0000 0000 0000 0000 0000 0000
000000a0: 0000 0000 0000 0000 0000 0000 0000 0000
000000b0: 0000 0000 0000 0000 0000 0000 0000 0000
000000c0: 0000 0000 0000 0000 0000 0000 0000 0000
000000d0: 0000 0000 0000 0000 0000 0000 0000 0000
000000e0: 0000 0000 0000 0000 0000 0000 0000 0000
000000f0: 0000 0000 0000 0000 0000 0000 0000 0000
0.0 0.0 0.0 0.0 0.0 0.0 0.0 0.0
0.0 0.0 0.0 0.0 0.0 0.0 0.0 0.0
0.0 0.0 0.0 0.0 0.0 0.0 0.0 0.0
0.0 0.0 0.0 0.0 0.0 0.0 0.0 0.0
0.0 0.0 0.0 0.0 0.0 0.0 0.0 0.0
0.0 0.0 0.0 0.0 0.0 0.0 0.0 0.0
0.0 0.0 0.0 0.0 0.0 0.0 0.0 0.0
0.0 0.0 0.0 0.0 0.0 0.0 0.0 0.0
