results/ADHD_3x5fold_seed0/fold4_rep0_seed4/ckpt_best_fold_4.pt (torch, 660351 bytes, 72 tensors)

encoder_c.convs.0.weight f4 [116, 64]
00000000: c69d b03c 66cf 22bb d406 c2bd 0e78 34bd
00000010: 3e70 f4bd 075d d2bd 6dc0 093e 0bb1 da3d
00000020: 69c3 ae3c 4e2b 173e 150f 51bd 6f89 a1bd
00000030: 3d0b 1e3e 9b7a 5e3c b7fa 563d edfc d33d
00000040: b192 793d 2553 b3bd b70d e1bc 53a5 aabd
00000050: 940e a03c 1c82 61bd 1a9e b23d b29b f33c
00000060: 712e e73d 0a6e 813c 9daa 1f3d 0608 953d
00000070: 95e1 b33d c797 1abd b8f7 003e ce5b 983d
00000080: f2bd 71bd 8e01 0e3e c894 e23d c1be a0bd
00000090: 4307 30bd 4742 d63d d363 a13d 049b e13c
000000a0: b54d 5e3d f7c9 5a3d 0ef0 9a3d 8521 91bd
000000b0: 9536 fdbc 4dbd 1f3e 9a4c 923d a650 d0bc
000000c0: 349c e7bc e11e 103e 5d3d 96bd 042c a13d
000000d0: fc54 f83d 31b7 27be 54c8 08be b6f9 7a3d
000000e0: 7632 db3d 2387 073e a253 6d3c 6541 083e
000000f0: ab57 dcbd 16d7 2d3d e77d f3bd 6633 c63d
00000100: 6e94 e63c ce5e 783d ef96 783d a553 03bd
00000110: b9ef 863c 1e43 11bd 0ab4 753d 4b6f 09be
00000120: 1dbe 3bbd ab50 52bd fd5b 49bd bf5b b63d
00000130: c55c 183e b88b d63d 0197 bb3c 86a0 15be
00000140: bea9 e33c 1044 073e c357 b03d 9f87 1abd
00000150: ebe8 6c3d 8361 563c 33d9 fd3d 7fe6 953d
00000160: eab9 dbbc ea39 efbd 2626 463d 4ea2 c33d
00000170: 984b 613d 9f55 f23d cbfd 023e c777 91bd
00000180: 991a 08be bc67 d43d 8ad1 003e 3919 f7bd
00000190: d25d 63bd 26e2 de3d bb5c ba3d 7a1d c13c
000001a0: b8d8 f2bd b413 eabc 2a95 1abe 3b39 94bd
000001b0: 842a 1f3d 8f77 913c 8e24 333d e886 fabc
000001c0: 6e78 07be 4134 043d d325 833d 5596 5b3d
000001d0: 5e58 843d 5fcc 89bd d846 ad3d 77d2 c03d
000001e0: f466 a53d 42c6 66bd db45 943d f0b8 f33c
000001f0: fedd c33c 5808 75bd fd5e 88bc a2b9 b03d
00000200: 6ada a63c cbde 5b3d 50f5 d9bc b1ae 263d
00000210: 5e70 563c 16f1 873d 67f1 a33c 13c5 28bc
00000220: db0f 203e 7b97 20bd 2904 f53d bb29 fe3c
00000230: e948 2ebd 0014 b63c a30a 4dbe 0a4a 653d
00000240: a80d db3b 4b9e 553d ca53 a93b 80e7 12bd
00000250: 05c0 4ebd d29c 9d3d 1d75 0fbe 12b4 b33d
00000260: 1eb4 30be 3be9 35bd 4467 acbd 34d1 7fbc
00000270: 0433 d6bd 23ca e43c be8b 243d 7e89 61bd
00000280: 12f6 f5bc 3c29 55bd cfaa c7bd 11e0 913d
00000290: 0e1f efbd 7979 32bd 139a 9c3d 816a 0a3e
000002a0: e4fa 873c 67de 50bd a6b9 0b3e 8cca fc3d
000002b0: 1085 4cbc 10bd c1bd bae7 b1bd b0bb b33d
000002c0: 0558 1a3d f1d8 6bbd 17a8 03be 463a 493e
000002d0: dace 433d da07 79bd 8b61 32be 1d05 40bd
000002e0: f98d 95bd b121 753c d320 5cbd 6ac2 fa3b
000002f0: 7d82 dd3c 8d5c ccbc 3a99 5e3d edee d43c
00000300: 3fef 293e 32a7 c2bd ad42 cebc 38b2 7d3c
00000310: 97e3 503b 42e1 c53d ee26 9f3d 65bf 13be
00000320: b53f 0b3e 8830 f5bd 85b7 8abc 3fb0 8d3d
00000330: 2cfc 90bd 6017 6fbd 3179 68be ca20 85bd
00000340: 2079 433d 7750 783d 71a3 9a3d 5a16 34bd
00000350: cd99 e0bd ab2b e83d f2ae 3dbc 4022 bf3b
00000360: 6daa 16bc 3b30 b7bd 9569 123c 247a 783d
00000370: 3036 433e 5b22 b7bd 76cc ebbd e64f a0bd
00000380: 9c1e 903c a97c b8bd 7e77 593d e48a fabc
00000390: 1e25 9abd 5fba 773d 6265 fabc 25bf 6fbd
000003a0: 4416 db3d 2bc2 6a3e b9fc 233d b18c 533c
000003b0: 758b 56bd b39f 3fbe 7a03 21bd dee3 143e
000003c0: f5a8 ddbd 50cf 0dbc e84b 96bd 40f0 fb3a
000003d0: 6a80 5c3d 682c e03d 6234 c7bd 946e b23a
000003e0: d150 1dbe c71f 743d 50a0 cbbd b287 8fba
000003f0: 30e3 5cbd 0f07 4b3d 03ce d8bd 3538 eebd
0.021559607 -0.0024842857 -0.094739586 -0.044059806 -0.11935471 -0.1027165 0.13452311 0.106782995
0.021333413 0.14762613 -0.051039774 -0.078875415 0.15433975 0.013579036 0.052485194 0.10350976
0.06093091 -0.08756093 -0.02747236 -0.08332314 0.019538201 -0.055055723 0.08721562 0.029737327
0.11288155 0.015799541 0.03898107 0.07276921 0.08783261 -0.037742402 0.12594497 0.07439385
-0.059019037 0.1386778 0.11063534 -0.078488834 -0.042975675 0.1046186 0.07880368 0.027539738
0.054273326 0.053415265 0.07565318 -0.070864715 -0.030909816 0.15599556 0.07143517 -0.025429081
-0.028272726 0.1407428 -0.07335923 0.078697234 0.121255845 -0.16378476 -0.13357669 0.0612733
0.10702984 0.13235144 0.014485272 0.13306196 -0.10758909 0.04244145 -0.11889248 0.09677772
0.028146949 0.060637288 0.060690816 -0.03206219 0.01647173 -0.0354644 0.05998615 -0.13421361
-0.045835603 -0.051346462 -0.049159992 0.08904218 0.14879139 0.10475868 0.022899153 -0.14612016
0.0277909 0.13209558 0.08610489 -0.037726995 0.057839315 0.013084772 0.12394943 0.07319354
-0.02682205 -0.11680968 0.048376225 0.095524415 0.055003732 0.11832737 0.12792127 -0.07102924
-0.13291396 0.10371348 0.12579933 -0.12065358 -0.055509396 0.10882978 0.09099718 0.023573626
-0.11857742 -0.028573848 -0.15095964 -0.07237478 0.038858905 0.017757205 0.043736033 -0.030581906
-0.13229534 0.032276396 0.06403699 0.053610165 0.06462167 -0.06728434 0.08460778 0.09415143
0.080762774 -0.056341417 0.072398864 0.029751271 0.023909565 -0.05982241 -0.016646856 0.08629157
0.02036782 0.05367927 -0.026606232 0.040693942 0.013088314 0.0663778 0.02001257 -0.010300892
0.15631048 -0.039206963 0.11963684 0.031025758 -0.04255 0.022226334 -0.20023589 0.055978812
0.0066849776 0.052152913 0.005167459 -0.035865307 -0.050476093 0.07695927 -0.14009519 0.0877458
-0.17256209 -0.04441188 -0.08418134 -0.015613843 -0.10458949 0.027928418 0.04017233 -0.055062763
-0.030024562 -0.052041277 -0.09749376 0.071228154 -0.11675845 -0.043572877 0.07646575 0.1351719
0.016599126 -0.05099335 0.13645038 0.1234332 -0.012482896 -0.09459889 -0.086867765 0.08776033
0.0376816 -0.05757994 -0.1285709 0.19651136 0.04780469 -0.060798503 -0.17420022 -0.046879876
-0.0730247 0.014961646 -0.05374224 0.0076525705 0.02703976 -0.024946475 0.054345347 0.025992835
0.16595171 -0.09504546 -0.025178278 0.015484385 0.0031873935 0.09662105 0.07771097 -0.1442848
0.13598521 -0.11972147 -0.016933212 0.06918382 -0.07079348 -0.0583719 -0.22702481 -0.06500395
0.047722936 0.060623612 0.07550705 -0.04396663 -0.10966835 0.11336454 -0.011577355 0.0058329403
-0.009195906 -0.08944746 0.0089363055 0.060663357 0.1906364 -0.089421 -0.11513607 -0.078277394
0.01759272 -0.09008152 0.053092472 -0.030583806 -0.07526611 0.06048047 -0.030565921 -0.0585319
0.10697606 0.22925632 0.040035937 0.012911961 -0.05237909 -0.18713264 -0.039309956 0.1454005
-0.108232416 -0.008655384 -0.07338697 0.001922138 0.053833403 0.1094597 -0.09726788 0.0013613277
-0.1536286 0.059600618 -0.099426866 -0.0010950475 -0.0539276 0.04956728 -0.105861686 -0.116318144

encoder_c.convs.0.bias f4 [64]
00000000: 15b3 af3c bfd2 c13c f08a da3b caeb ab3c
00000010: 4cfe abbc 3a84 343d 988a a13c 67f7 473c
00000020: 9688 543b f916 9f3a 1ddc 393c 92ff f43b
00000030: f523 80ba d352 c13c 4503 b33c 4f8f 653b
00000040: 2174 c53c 2b21 173c 6aaf 753a 340a 943b
00000050: 3baa 1c3b aa1c e63b 8568 fb3b be16 5f3a
00000060: 04c5 bbbc fcf2 c53b 7461 743c 7e9e 073d
00000070: 1f31 c53c 6f4c 0e3d ce65 493d 488a 173c
00000080: b99a e23c b855 103d a465 663c df4d eabc
00000090: b95c b53c 4f4f 8c3b 6c84 163b 847d e13b
000000a0: cbd7 d43b 0fdc fe3b 77f9 8c3d c65b 13bc
000000b0: 1205 07bd 58b7 533c 9703 673b 20df eebb
000000c0: 520b 5038 8272 983c 684c 8e3c f9ee 30bc
000000d0: 781b b73c 06d2 a43b 7235 233d 6506 f1bb
000000e0: 3562 f73c 82f1 ac3c 411b 88bb d300 2d3b
000000f0: 32eb 783c da12 ddbc e4bf bf3c 69ae 0f3c
0.021447698 0.023660062 0.0066693947 0.020986456 -0.020995282 0.044071414 0.019719407 0.012204981
0.0032430044 0.0012137584 0.011343983 0.0074767554 -0.0009776341 0.023599064 0.021852145 0.0035028046
0.024103226 0.009224216 0.0009372147 0.004517818 0.0023905176 0.00702246 0.007672372 0.0008510164
-0.022921093 0.006040929 0.014915813 0.033110134 0.024071274 0.03474086 0.049169354 0.009249277
0.027661668 0.035237998 0.014062319 -0.028601585 0.02213894 0.0042819153 0.0022967113 0.0068814177
0.006495451 0.007777698 0.06883519 -0.008994048 -0.03296382 0.0129221305 0.0035249942 -0.007289782
4.9601607e-05 0.01860929 0.017370418 -0.010799163 0.022351965 0.0050299196 0.03984589 -0.0073554986
0.030198196 0.021111254 -0.0041536395 0.0026398196 0.015192794 -0.026986528 0.02340693 0.00876961

encoder_c.convs.1.weight f4 [64, 64]
00000000: e133 cebd 66b7 863d 8fc9 323e 40b1 6cbd
00000010: 16bb a1bc da76 7ebd 1ffa 453d eca4 44bd
00000020: 1165 9d3d bd81 7b3d fc31 9d3d 0dd3 b635
00000030: ebe4 d7bd 655e a3bd 6a17 2e3d 01d8 ad3d
00000040: 43c8 3d3d 84f7 e4bc 9ae2 3b3e 1810 f5bd
00000050: 5222 a53d eb1c d0bd 55bf d63d 02b2 903c
00000060: d900 dab9 a2c8 c8bd 6db1 313e 94c9 d0bd
00000070: 6f5e 0dbe bc89 2a3e 526c d23d dcb6 e13c
00000080: a4df d6bd f7e1 253e bca5 37bd 03ed 9fbc
00000090: 50b9 783d 9af4 223e b0ba 433e da2f 943c
000000a0: 1d0b e8bd af90 70bd 6f6c 99bc b1c4 373c
000000b0: e917 783d e4b5 82bc e408 3e3e fb6c b03d
000000c0: c42c 29bd 2593 fa3d 2b39 373e 0b4e e83d
000000d0: 09f5 323d 2f52 263e f47f b3bd 7928 603e
000000e0: c050 3f3d c9b1 493e 2616 0c3e 7656 db3c
000000f0: d402 373c 3ece 403e 0c55 663e 8f8d 143e
00000100: 2593 413e 9516 733c 9de5 86bb f152 37bd
00000110: 0409 99bd 6c4f 4d3e bfa2 70bd 4f03 84bd
00000120: 5b7a 18be 1a97 ccbd 4ba8 f6bc 2ed1 3b38
00000130: 9ff5 a0bd 98a0 9ebd cd6d df3d 0cac 83bd
00000140: 03c5 1abc 0eb4 063d 50cc 27be 6adb b83d
00000150: 378a bd3d 9473 8c3d 7b41 18be 37c5 613e
00000160: 7040 14b9 4cc9 a6bd d226 453c 5f0b 9c3d
00000170: 008e 233d 7b4f b03d 4c2b 05bd c979 8b3c
00000180: c770 9fbd 9530 26bd 0aee d9bd fc2b af3d
00000190: b66b 2c3e fdc7 b93c 393c f5bd fa6c e3bd
000001a0: 7c9e 05bd 1d78 e93c 2e82 58bd cc1e 7f3d
000001b0: db45 153e a68e afbc 5eb5 7c3d 1b71 d3bd
000001c0: 0553 67bd 699a a83d dc10 33be 4ca6 06be
000001d0: 14ef fcbd 2491 25bd f772 6ebc cd56 da3c
000001e0: bbe8 0bbe 60de b53c 5acb 903c 8bfc 4a3d
000001f0: 80be 31bd c765 173e c7a3 24be 5754 9c3d
00000200: 85d7 313d ee08 063e 1b9c 413e c5ad 193e
00000210: c6e3 283c 1d9c c83a 56ef 8dbd 2c5c d6bd
00000220: c9ab 433e 4b06 833d 2511 573e 04ca c2b0
00000230: bae1 ccbd 961f 653e 704d f8bc 9212 0c3c
00000240: 67f0 393d 6949 3e3c a6f3 3c3e 2371 f3bd
00000250: 6c8e 0d3e b09c 00be 07af 163e f594 2cbe
00000260: 550c 42b9 7ddf 1e3e 3e9c 413e a262 12be
00000270: 16a5 353d 582b 803d 5799 063e 4533 e73d
00000280: 58c2 2abe 7b77 853b 1eed 813d a526 57bb
00000290: 65d3 8dbd 58fb fbbc 71ac 3a3e 5013 263e
000002a0: 4c45 b53c 0d42 01bd 0f2c dd3d b870 1abd
000002b0: 1353 783d 9f35 ebbd f070 4bbd be09 a3bd
000002c0: 980f 693d 3d4d 0a3d 3afe 713e 5b77 d83d
000002d0: 5389 223e 63f1 89bd 3c88 af3d 1ed8 de3d
000002e0: 76f3 b33d 2bf0 873c 41e3 363d e1d4 11be
000002f0: da0e e23c 642e 7cbd 3820 6a3d ab8a 31bd
00000300: 1a79 38bc 1bad 003c 0d8b c1bd 3b3f ae3d
00000310: 2b26 433d 6118 b63b 4498 203e 20f4 ff3d
00000320: dd92 3abd a782 ae3d 7b2b 8c3d bd99 2cb6
00000330: 5d31 c3bd b178 5e3e 49a7 043e 0c94 2cbc
00000340: f35a 133d 16aa 82bc ebdc f73d c25a 00be
00000350: 190c 043e fa78 f7bc 17a0 053e 637a 22be
00000360: 72e2 74b0 097c 15bd 625b e23d cd3e 7f3d
00000370: fdef 1c3d 341b 4a3e fb7b 153d 6c90 71bb
00000380: a7dd 6a3d c534 1dbe 2c80 073e d1fd a7bb
00000390: 5bbd c6bc bdad 873d 1e5f 6dbd b04e d4bc
000003a0: 36e3 a13c ebd6 f5ba bfbb 7b3d 7f58 46bb
000003b0: f5b6 ad3d 5efc f73c 790a a1bd a2f3 433e
000003c0: 11a7 d23c 9454 fe3d 156d 85bd fab6 eabb
000003d0: 131a 3b3e 1286 183e 01d0 9a3c 23fb bcbd
000003e0: ac7e 313e 2048 173e dee1 c73d 1b81 4ebc
000003f0: 07ec 1e3d 2c7f babd 5a7f e73d 98a0 fabd
-0.10068489 0.06577949 0.17459701 -0.057786226 -0.01974253 -0.062125064 0.048334237 -0.048008844
0.076852925 0.061403025 0.076755494 1.362148e-06 -0.105417095 -0.07976989 0.0425028 0.08488465
0.046333563 -0.027950056 0.1834816 -0.1196596 0.08063187 -0.10161766 0.104857124 0.017663006
-0.00041580832 -0.09803893 0.17352839 -0.10194698 -0.13805555 0.16654104 0.10274567 0.027553014
-0.10491875 0.1619948 -0.04483579 -0.019522196 0.060723603 0.1591362 0.19114184 0.018089224
-0.11330245 -0.05873173 -0.018728463 0.0112163285 0.060569678 -0.015955873 0.18558079 0.086145364
-0.041302457 0.12235097 0.17892902 0.113430105 0.043690715 0.16242288 -0.087646395 0.21890439
0.04670787 0.19696726 0.13680324 0.026774626 0.011170108 0.18828675 0.2249338 0.14507125
0.18903787 0.014836927 -0.0041167275 -0.044756833 -0.07472423 0.20049828 -0.058748957 -0.064459436
-0.14890425 -0.09989758 -0.030109545 4.4779088e-05 -0.078593485 -0.077454746 0.10909615 -0.064293
-0.009446385 0.032886557 -0.16386533 0.09026225 0.09254878 0.06857982 -0.14868729 0.22047888
-0.00014138385 -0.08143863 0.012033181 0.07619356 0.039930344 0.0860891 -0.032511994 0.017025845
-0.077851824 -0.040573675 -0.106411055 0.08553311 0.16837963 0.02267837 -0.11974377 -0.1110477
-0.032621846 0.028499657 -0.052858524 0.06228523 0.14577429 -0.021430325 0.061696403 -0.103243075
-0.056475658 0.082325764 -0.174869 -0.13149375 -0.12350288 -0.04042162 -0.014553777 0.026652718
-0.13662998 0.022200763 0.01767509 0.04955725 -0.043394566 0.14784919 -0.16078101 0.07633274
0.043418426 0.13089344 0.18907206 0.15007694 0.010308212 0.0015305314 -0.06930415 -0.10466799
0.191085 0.06397685 0.21002634 -1.4172774e-09 -0.100039914 0.2237533 -0.030310363 0.008549349
0.04539528 0.011614182 0.1845232 -0.118868135 0.13823861 -0.12559772 0.14715205 -0.16853698
-0.00018505876 0.15514942 0.18907258 -0.14295438 0.04434689 0.06258267 0.13144432 0.11289076
-0.16675699 0.004073081 0.06344055 -0.003282943 -0.06925086 -0.030759498 0.18229844 0.16218305
0.02212777 -0.03155713 0.10799419 -0.037705153 0.0606261 -0.11484837 -0.049668252 -0.079608425
0.056899637 0.033765066 0.23632136 0.1056964 0.15872698 -0.06735494 0.085709065 0.10881065
0.08786671 0.016594013 0.04465032 -0.14241363 0.027594972 -0.06156768 0.057159632 -0.043345135
-0.011259342 0.007853772 -0.0945035 0.08508154 0.04764382 0.0055571054 0.15683085 0.12497735
-0.045550216 0.08521014 0.06844231 -2.5719485e-06 -0.095309 0.21725728 0.12954439 -0.010533344
0.035975408 -0.015950244 0.12102684 -0.12534621 0.1289524 -0.030209053 0.1304935 -0.15867
-8.908848e-10 -0.036495242 0.11052586 0.06231575 0.03831481 0.1973694 0.03649519 -0.0036859764
0.05734029 -0.15352161 0.13232487 -0.005126693 -0.024260214 0.06624935 -0.05795204 -0.025916427
0.019761663 -0.0018756067 0.061458346 -0.003026515 0.08482162 0.030271705 -0.078633256 0.19135907
0.02571443 0.12418476 -0.06514946 -0.007162926 0.18271665 0.14894894 0.018898012 -0.09227588
0.17333478 0.14773607 0.097598776 -0.012604023 0.038799312 -0.09106287 0.11303587 -0.12237662

encoder_c.convs.1.bias f4 [64]
00000000: 856c 923c f6bc 4f3c 0f4c 9c3c 91a2 0aba
00000010: d166 c53c 818e 063d 5622 2e3c 5372 3c3d
00000020: 5877 4e3c 234c 363c c8dc 933c c0ce 1cbc
00000030: f6b0 cb3c a99d af3c d116 f93c ba14 0e3d
00000040: 7278 8139 95c7 ea3c f757 c23c 17aa f83c
00000050: 8b2c a83c 46f4 943c a1c9 a13c eb55 1f3d
00000060: c887 e3bc 281b ad3c e739 3b3c 0bbc b23c
00000070: c5a9 143d adde c63c 4880 0c3d 2735 183b
00000080: 0c4a 823c ce59 283c 6f6d cd3c 954c 07bd
00000090: 5803 163d b4e3 1a3c 0ac8 823c 5d54 163c
000000a0: 554e 063d 2d83 173d de0e 5a3c 3638 423c
000000b0: 7c68 3d3d f62d 233d 18af b63b 1d6a 2a3c
000000c0: a5f4 773a bbcf 613c 7599 823c 96d4 ae3c
000000d0: 1729 163c b894 153c a303 e73c fbc2 823c
000000e0: 2bfc aa3b c820 2e3c 3665 053d 6125 bd3c
000000f0: a662 543c d0f5 c23c d3f0 b03c 87e4 4c3c
0.017874012 0.012679329 0.019079236 -0.00052885065 0.024096878 0.032850746 0.0106283035 0.046007466
0.012601696 0.011126551 0.018049613 -0.009570777 0.024864655 0.021437483 0.030406388 0.034687735
0.00024694536 0.028659621 0.023723586 0.030354543 0.020529052 0.018182885 0.019749464 0.038900297
-0.027774706 0.021131113 0.011427379 0.021818181 0.036294717 0.024276102 0.034302026 0.002322504
0.015904449 0.010275317 0.025076596 -0.03303202 0.036624283 0.009453703 0.015964527 0.009175387
0.032789547 0.036990333 0.013309209 0.011854222 0.046242222 0.039838754 0.005575072 0.010401276
0.0009458757 0.013782437 0.015942315 0.021341603 0.00916507 0.009129696 0.028199976 0.015962115
0.005218049 0.010627933 0.032567225 0.023089113 0.012962973 0.023798853 0.021599209 0.012505657

encoder_c.convs.2.weight f4 [64, 64]
00000000: 5e1f fc3d dea8 6bbc 342a 833d 5ae5 903a
00000010: 2852 ebbd 9bc5 44bb 1fb3 c3bc 9d95 2fbd
00000020: e250 50bc eb2e cf3a 6440 343e 2461 913d
00000030: 5267 903d 19c9 013d 81ca 54bd 080e 96bb
00000040: 8cb2 5b3e 53fe a73d 9c45 b4bc 2c64 5fbd
00000050: 2871 843d e950 113d d1fb e93c a7c9 f53d
00000060: 06d1 cd3d b518 883d e9aa 1fbe 7400 ebbc
00000070: 2fec af3d 0f68 cd3d efad 1b3e 7e50 00be
00000080: b922 71bb 68e9 8ebd 508c 03bd ab3a 173e
00000090: c8e6 613d f2b5 013c 1ead 8c3d 76d9 7dbb
000000a0: 55a9 eb3d 17ca 183d 51c4 df3b 2022 0bbe
000000b0: 7f11 c1bc 6911 de3d 8911 12be 9bb9 56bd
000000c0: 96fd 89bd 75e9 95bd d1ab 9dbc 9033 f23d
000000d0: 675c 4cbd bb8b 353e d654 06bc 7d13 d23c
000000e0: 6e1d 51bb b1cd 86bd 9c62 933d 5be0 a23d
000000f0: 902d 43be 2947 043d 60fa 38bc 3f59 f3bd
00000100: 5403 033e 08d6 a43d bf2b b23d 2362 103d
00000110: 4fd4 573d c75a 83bd 4984 7bbd 239c 98bd
00000120: dc6a 46bd 9d3e 13be 039f db3c 43bf f93d
00000130: 8452 103e cb3d 4a3b 843f a6bd c243 ccbd
00000140: f348 43be 8009 e63d 6046 e7bc bdb9 153d
00000150: aaaa 38bd 840c 353d 199e 4b3e e01f ae3d
00000160: 6283 fc3d 9860 91bc ea53 e43c fd9f b2bc
00000170: 63e3 00be 8d91 0dbe 1c2d e53d f70b 2bbd
00000180: 37c3 ad3d d88d 213e 1c4c 81bd 1707 adbd
00000190: 7657 fbbc fefc 21bc 5ca4 b73c 8a57 813c
000001a0: 0032 37be 054f ccbd 5976 f1bc 7b57 453e
000001b0: 3cf8 1cbd a61c ff3d 1974 5abc 9304 42bd
000001c0: decb d6bd 2fa8 05bd 0c6a 3dbd b6c6 863a
000001d0: 10b2 05be 71cd cb3c 1620 5cbc 65a4 fc3b
000001e0: b035 28bc 9d38 37be 0f41 89bc 9fee 54be
000001f0: 70b7 6e3c 869d 4abe 0df6 e8bd a936 2c3c
00000200: 1f79 203d 6ebe 413d 131d 01be 35e1 5ebb
00000210: ccb4 f93c 2bf9 aebc 7dcc 11be a5c9 c03d
00000220: 3148 dd3d 4f89 b03d e51a a93d 805c d23b
00000230: 256b 873d 1f3f 2b3d 82eb 52bd 6588 12bd
00000240: 271b fabd 73d0 6a3d 3da4 8ebd c590 7d3c
00000250: 62c1 2a3d afed 6bbd 5149 b5bc b706 643d
00000260: af07 0bbe eca7 153d cba0 063d 395c bebc
00000270: 6ce9 223d c347 043d a399 e73d d0a6 bebd
00000280: 7d1e 96bc 6fdc ea3b 352c 84bd fde5 76bd
00000290: aac7 cabc 3330 32bd 668e 393d df07 fbbd
000002a0: 4d89 85bc 59f9 353d 653d fdbb 05a1 a83d
000002b0: de96 52bd b4de 9dbd efdd 8cbd 182f 46bd
000002c0: 34b9 a0bd d1f7 1a3e b559 25be 84e0 d1bd
000002d0: 3420 d9bd 2740 96bc 2bb9 853d 42f5 3fbd
000002e0: cb7e a1bd 1c4e 2b3d dffd a339 26d8 c7bb
000002f0: a5bd 443d 5d74 b7bd c1aa 123e 3cdd c83d
00000300: 510f 05be b312 bf3d 8af1 ccbd 3f91 bfbd
00000310: 6f75 0c3e 3d2a 473d 5883 8d3d 258d 953c
00000320: f164 2cbe ba68 2cbd 2857 3bbd 0320 ed3d
00000330: 5b5c aa3d ae66 2fbc ab0b 8cbd 0f8f 24bd
00000340: 522d cb3b 4a36 b43d f38d e43d 9a9e c2bd
00000350: bdbc eebc 9470 3a3d b317 533e a1b1 18bc
00000360: da13 68bd b7a9 373b 6d77 c43d aec6 10be
00000370: 1b47 06be 401d 1d3e 43eb 0ebd 0d4d 0d3d
00000380: 0cc4 e13d 3e38 c13d 4c67 043d 5d79 07be
00000390: 88db dcbd e46d 96bd fc9d 9f3d 0374 e7bd
000003a0: ec47 51be 55ff 013d 7a1e a73d 0c6f 9e3d
000003b0: c2b3 993d bb30 73bd 9abb b23d 546b 8abd
000003c0: 90a6 f13d 7830 5e3d f135 59bd 8c9d 15bd
000003d0: bbe1 b9bd 99bf c2bd ae9b ddbd e835 a0bd
000003e0: 4a66 b8bd 96e6 cbbd b46d 8ebd f5e4 5dbb
000003f0: 9fb5 bc3d b5e3 9bbd 6fc2 203e 0bea 083d
0.1231067 -0.014383523 0.06404534 0.001105468 -0.114902794 -0.0030025009 -0.023889123 -0.04286729
-0.012714596 0.0015806829 0.17602688 0.07098606 0.07050957 0.031685922 -0.051950935 -0.0045793094
0.21454829 0.08202805 -0.022005849 -0.05453889 0.06466895 0.035477553 0.028562458 0.12001353
0.10049634 0.066453375 -0.15592541 -0.02868674 0.0858997 0.10029613 0.15203069 -0.12530705
-0.0036794378 -0.069781125 -0.032116234 0.14768474 0.05515173 0.007916914 0.06868957 -0.0038734353
0.11506907 0.037302103 0.0068288227 -0.13587236 -0.023567913 0.108431645 -0.14264502 -0.0524231
-0.06737821 -0.07319919 -0.019246968 0.11826241 -0.04989281 0.17729084 -0.008198937 0.025644058
-0.003190841 -0.06582201 0.071965426 0.07952949 -0.1906035 0.032294426 -0.011290163 -0.11882257
0.12794238 0.08048636 0.0869975 0.03524984 0.052692708 -0.06413799 -0.061405454 -0.07451656
-0.048441753 -0.14379354 0.026809221 0.121946834 0.14093977 0.0030859585 -0.081175834 -0.09973861
-0.19070797 0.11232281 -0.0282318 0.036554087 -0.045084633 0.04420139 0.19884528 0.085021734
0.12329747 -0.017746255 0.027872045 -0.021804804 -0.12586741 -0.13825054 0.111902446 -0.041759457
0.084845 0.15776765 -0.06313345 -0.08448618 -0.030681353 -0.009886978 0.02241724 0.015788812
-0.17890167 -0.09976009 -0.029475378 0.19271652 -0.038322672 0.12456636 -0.013333344 -0.047367644
-0.10488103 -0.032631095 -0.046243712 0.0010282609 -0.13056207 0.024878236 -0.013435384 0.007710027
-0.010266706 -0.1789269 -0.016754655 -0.20794152 0.014570102 -0.19786653 -0.113750555 0.010511079
0.03917801 0.04730075 -0.12608747 -0.0034008746 0.030481718 -0.021359047 -0.14238162 0.09413461
0.10804785 0.086199395 0.08257083 0.0064197183 0.06612233 0.041808244 -0.05149413 -0.035774607
-0.1221221 0.0573277 -0.0696492 0.01547641 0.04168833 -0.05759972 -0.022129687 0.055670466
-0.1357715 0.036537096 0.032868188 -0.023237335 0.03977339 0.032295 0.11308601 -0.09309161
-0.018325085 0.007167391 -0.06453744 -0.060277928 -0.02475341 -0.043502998 0.045301817 -0.12257361
-0.016300822 0.04442725 -0.007728266 0.08233837 -0.05141341 -0.07708493 -0.06878268 -0.048384756
-0.07847825 0.15133597 -0.16147502 -0.10247901 -0.106018454 -0.018341137 0.065294586 -0.046864755
-0.07885512 0.041822538 0.0003127893 -0.006098765 0.04803242 -0.089577414 0.1432295 0.09807822
-0.12994124 0.093297385 -0.100070074 -0.09353875 0.13716672 0.048624266 0.069098175 0.01825578
-0.16835381 -0.042092063 -0.045737416 0.115783714 0.08318397 -0.010705633 -0.06838163 -0.040175494
0.006200471 0.08799417 0.11159887 -0.09502907 -0.029142732 0.04551752 0.2061451 -0.009319694
-0.056659557 0.0028024742 0.09593091 -0.1413829 -0.13113062 0.15343189 -0.03489233 0.03449731
0.11023721 0.094345555 0.032325074 -0.1322989 -0.1078406 -0.07345179 0.07793805 -0.11301424
-0.20437592 0.031737644 0.0816011 0.07736024 0.07504989 -0.059372645 0.087271884 -0.067587525
0.117993474 0.054245442 -0.05302996 -0.0365272 -0.09076258 -0.095092006 -0.10820709 -0.07822782
-0.09003885 -0.0995609 -0.06954518 -0.0033858393 0.09214329 -0.07611791 0.1569917 0.033426326

encoder_c.convs.2.bias f4 [64]
00000000: 687a 613b 3cc5 b33c 60b4 403c 12aa 3fbc
00000010: 4bd6 1dbc 0117 3ebd 0dac 74bc c6b5 3ebc
00000020: 4051 2f3c 441e 01bc ec23 2b3c ec7e 1ebc
00000030: bfd2 133c fd9c 5b3c b893 e0bc a8f5 d7bc
00000040: b0e0 2b3b d1d3 f33c 7900 b43c 5b10 053c
00000050: 5bf1 68bb b894 f03c e1cf 2ebc 95b9 093d
00000060: c9cd bcbc b1ff 7dbc 6b7d 4abc 4172 e8bb
00000070: 9b20 d93b b67e 63bc 04f0 973c 335d abbc
00000080: 0c95 e5bc 7e08 8b3c f8c9 5ebd 3b42 1e3c
00000090: b2e4 51ba 627b 1ebd 20b0 fb3c a97c d8bc
000000a0: d49b 6cbc 6cfd 813c fe89 9c3c aae6 ce3c
000000b0: f143 c93c e16a 51bc 14e4 79bc 5b7f 3ebb
000000c0: e8d0 4e3b 2ab0 4e3c e4aa 34bc 8b05 0f3b
000000d0: a46d 2bbc 5ad0 533c ba2b 093d 43f3 e8bc
000000e0: 21f7 8a3b d72a c9bc 7523 883c 1ac8 163a
000000f0: 8357 913b ed60 0c3c 8684 09bc 82b0 9b3c
0.0034405235 0.021944635 0.011761755 -0.011698263 -0.009633611 -0.046408657 -0.014933598 -0.011640018
0.010700524 -0.007880751 0.010445576 -0.009673815 0.009022414 0.013404128 -0.027414188 -0.026362255
0.0026226453 0.029764088 0.021972882 0.008121575 -0.003554425 0.02936779 -0.010669679 0.03362425
-0.023047345 -0.015502856 -0.012359004 -0.0070936983 0.0066262013 -0.013885191 0.018547066 -0.020918464
-0.028025173 0.016971823 -0.05439183 0.009659345 -0.00080067955 -0.038691886 0.030723631 -0.02642663
-0.014441449 0.015867911 0.019108769 0.025256474 0.02456853 -0.01278183 -0.015252132 -0.002906761
0.0031557623 0.012615243 -0.011027072 0.0021823372 -0.010463152 0.012928093 0.033488967 -0.028436309
0.004240886 -0.02455656 0.01661847 0.00057518634 0.004435481 0.008568031 -0.008393412 0.019005064

encoder_b.convs.0.weight f4 [116, 64]
00000000: 8566 a93b 45ef 593c 339e 7938 0bc6 513c
00000010: c5d9 a8ba a13e f6bb b4f8 6abb 80d4 70bc
00000020: 68b3 8dbc 5c48 503b 05b5 f6bb 8af7 14bc
00000030: 9546 0e3a 3cb1 33bb f67b 3c3c c8cd d63b
00000040: 5594 a1bb a51b 5aba a7bd 0e3b 2a00 4d3c
00000050: f1bc 6cbb bbc9 c6bc cdd4 32bb c62c 7a3c
00000060: 794b 283c a43a ee3b 116f f8bc 9c7a a439
00000070: 0604 8c3c 011f 793c c4ce 463b 821b 8dbc
00000080: 46f6 09bc 1d85 983c eb59 8dbb 6a3c c53a
00000090: cf01 1a3b cf9f 56bc 47b0 21bb ec6c 8b3b
000000a0: 87ec e8bc 28ae cd37 527f b13b 546b b4bb
000000b0: d507 bdbb 651d 20bb 9c75 83bc 1990 b8ba
000000c0: 5f37 863b 1948 76bb f9b3 403d 15bc 043a
000000d0: 5966 f1b9 00af 5937 f4f3 0c3a 01ea c8bc
000000e0: 85d0 b4bc 9645 2dbb 3e40 5bbc a43d 383c
000000f0: f41c 46bc 2aff 86bc f900 653c cac1 a739
00000100: 61d7 403b 6cac deb9 6512 95bb 2b48 a9bc
00000110: 0350 1e3c 32e9 edba d519 863c a568 693c
00000120: 50e9 aa3b b1f2 b137 aec8 79bc 8f08 bf3c
00000130: f688 a3bc 30d7 983c 40ca a8bc fa56 6b3a
00000140: 023b 4f3c b906 a03b 8555 c3bc cb8c 90bc
00000150: f179 873b 2a0e 9f3c 5dbc 49bc beba 253b
00000160: 6094 2f3c cbc9 ae3c ff23 733c 7af2 a4b9
00000170: 6dc4 34bb 5b90 253b b63f 0a3d 3f1c 8539
00000180: 44d3 3a3c 5922 183c e27f 14ba 23d0 5739
00000190: 01d2 38bb 61e3 bbba a0d7 983c 2226 01bc
000001a0: 9e06 81bb 6c8d 263c b06c fd38 2ca8 d63a
000001b0: c94a d8b9 8ab1 ee3c 48d6 303b 5eb9 56bb
000001c0: 1f95 1bbb 98ed 913c 733f 16bd a9b8 18bc
000001d0: 26be 1d3b bda8 373c fd9a 0b3c 5ae9 103b
000001e0: 2b65 833c 6b70 9fba a6ca 7fba 8028 98bb
000001f0: a94d b3bb 4400 223c c7e1 68bb 3e68 aa38
00000200: f405 07ba 28c3 4db9 64ff 183b 0546 383c
00000210: 0e9d 1b3c 6f73 acbb 8752 4d3c 9a5f 873c
00000220: 519a 5fbb f350 58bb bf0f e93b 1d25 b93c
00000230: b920 213a 0f31 6bb9 fe4c 483a f574 623b
00000240: 981c 843b 95e9 46bb ca80 6a3c 8e96 47bc
00000250: 6cf0 abbc e475 4ebc 4c81 18bb f9d2 79bc
00000260: 866b 47bb 6f3d 413c 6c02 94bb 1dfa 7bbb
00000270: 4d33 40bb a702 cdbc 5752 f2ba 08e0 9aba
00000280: b1ce 11bc f878 9d3c 9991 283c 46ae ad39
00000290: 6d60 30b9 c3ca 53bc b813 193a 3eef 9dbb
000002a0: eede 12bc 5e9a 103b 7907 efb7 83c9 a9ba
000002b0: 3b8b 7e38 ae6e 8c3b b6c7 473c 1792 333c
000002c0: 6547 dfba 26d3 77bb 3d48 60ba 33bb c93b
000002d0: 720f 2cbb fab0 e539 ac84 2dba 0ced 463c
000002e0: a3ff 8d3b 509b 9a3a 77ad 18ba 1130 3d3b
000002f0: 8db0 8dbb 3fdd 5a3c a295 913c a9e6 ae38
00000300: c0d9 dcb8 c5e8 ac3b f33f 37bc 6d12 34bc
00000310: ad99 fbbb 2521 19ba eaaa b7bc 1a7b e93c
00000320: 94b4 a0bb 92af ab39 5390 fdbb a34f c1bc
00000330: 5f8c c83c 89c1 d1bc 0576 173c 8158 473b
00000340: 0fd9 9339 fceb 78b8 1667 94b9 9ce4 e4bb
00000350: 086e 6cbc 4b5a bb3c 25f6 5b3c 6336 babc
00000360: f164 db3b 53c0 843b caae 583c e901 eeb6
00000370: c3b9 eb3b a9d1 843c 10b9 b63b 863e 5abc
00000380: 46ae 4bbb aa13 deba 18ff 2db9 8775 993c
00000390: ab73 9ab8 201c 3ab9 4ff0 90bb 06bc a5bb
000003a0: 72b5 ea3b 7f8d 9338 da80 25ba d394 81ba
000003b0: aefd a93a d709 41bc 925d bf3c 14c9 93ba
000003c0: 3df2 993c 1605 61bb dc21 d03c d005 d5bb
000003d0: 0071 173b 7ab8 68bc 019d 86ba 7d4c 013b
000003e0: b91f 43b9 35bb a8bb f9c0 653c 1ebb d6bb
000003f0: 096a 083c 2b3f 98bb 1e18 c9bc 52a0 923c
0.005169692 0.013301675 5.951356e-05 0.012803565 -0.0012882283 -0.00751479 -0.0035853805 -0.014699101
-0.017297462 0.003178141 -0.0075289034 -0.009092221 0.00054273877 -0.0027418872 0.011504164 0.0065552928
-0.0049310126 -0.00083201594 0.0021780522 0.012512246 -0.003612336 -0.024266114 -0.0027287484 0.015269464
0.0102719 0.007270174 -0.030326398 0.0003137187 0.017091762 0.015205146 0.0030335644 -0.01722503
-0.008420533 0.01861816 -0.0043136976 0.0015047912 0.0023499613 -0.013099625 -0.002467172 0.004254928
-0.028433098 2.4519002e-05 0.005416789 -0.0055059586 -0.005768756 -0.0024431583 -0.016047291 -0.001408103
0.004095956 -0.0037579595 0.047046635 0.0005063427 -0.00046043357 1.2974953e-05 0.0005376928 -0.024525644
-0.022072086 -0.0026439182 -0.013382016 0.011245165 -0.012091864 -0.016479094 0.013977283 0.00031997106
0.002942525 -0.00042471604 -0.004549312 -0.020664295 0.009662631 -0.0018151163 0.01636974 0.014246141
0.0052158013 2.1213056e-05 -0.0152456 0.02331951 -0.019962769 0.018657297 -0.020604253 0.0008977499
0.012648346 0.004883614 -0.02384449 -0.01764526 0.0041344096 0.019415934 -0.012312976 0.002528831
0.010716528 0.021336457 0.014840125 -0.00031461177 -0.00275829 0.0025263045 0.033752166 0.00025388782
0.011402909 0.009285533 -0.0005664808 0.00020581535 -0.0028201344 -0.0014334732 0.018657506 -0.007882627
-0.0039375564 0.010165554 0.00012084225 0.0016377023 -0.0004125445 0.029137392 0.002698319 -0.0032764296
-0.0023740006 0.017813489 -0.036681604 -0.00932137 0.0024069636 0.011209664 0.008520839 0.0022111745
0.016039452 -0.001216424 -0.0009757675 -0.0046435 -0.0054719043 0.009887759 -0.0035534964 8.125648e-05
-0.00051507284 -0.00019623025 0.0023345584 0.011247163 0.009497894 -0.005262784 0.012531883 0.016525079
-0.003411908 -0.0033007234 0.007112473 0.022600705 0.00061465387 -0.00022429622 0.0007640867 0.0034554575
0.004031729 -0.0030351628 0.014312932 -0.012181891 -0.020988666 -0.0126013495 -0.0023270426 -0.015248054
-0.003042908 0.011794432 -0.0045168903 -0.003844864 -0.0029327453 -0.025025679 -0.0018487674 -0.0011816034
-0.008899377 0.019222721 0.010288619 0.00033126975 -0.0001682059 -0.01292676 0.0005839425 -0.0048197797
-0.008964283 0.0022064666 -2.84945e-05 -0.0012953732 6.0687988e-05 0.004285655 0.012193611 0.0109601235
-0.0017034827 -0.0037815063 -0.0008555686 0.006156349 -0.0026254323 0.00043810142 -0.0006619196 0.012141477
0.004333453 0.0011795554 -0.0005824188 0.002886776 -0.004324025 0.013358413 0.017771546 8.33993e-05
-0.000105309766 0.0052767717 -0.01118468 -0.010990721 -0.0076782317 -0.0005841426 -0.022420365 0.028501082
-0.004904339 0.00032746472 -0.007738152 -0.023597544 0.024480997 -0.02560498 0.009244447 0.0030417743
0.00028199746 -5.9347585e-05 -0.00028305565 -0.00698526 -0.01443053 0.022870203 0.013425385 -0.022731012
0.0066953828 0.004051247 0.013225267 -7.093175e-06 0.0071937754 0.016213255 0.0055762604 -0.013320571
-0.0031079217 -0.0016943116 -0.00016593596 0.0187328 -7.364837e-05 -0.0001774882 -0.0044231783 -0.0050578145
0.0071627432 7.035862e-05 -0.0006313451 -0.0009886272 0.0012969279 -0.011782131 0.023360047 -0.0011275136
0.018792266 -0.0034335307 0.02540677 -0.006500937 0.0023108125 -0.014204139 -0.001027018 0.0019729428
-0.00018608467 -0.00514927 0.014023059 -0.006553068 0.008326062 -0.004646202 -0.024547633 0.017898712

encoder_b.convs.0.bias f4 [64]
00000000: b7f9 17bb ad58 e1ba d7ab f63b a28a 983b
00000010: 7aad 4a3c 4111 a6bb 85d4 31bb a434 713b
00000020: 6d97 39bb 98d0 203c 7795 b6bb a8fb 6d3b
00000030: 0e16 1e3c a86b 533c d555 fb3b dd76 f13b
00000040: 9ba4 c03b ee56 283b d27b acbb 5242 9cbb
00000050: 7910 0c3c af78 b4ba f500 3c3c 9316 15bc
00000060: 6679 753b e1d2 c13b 8244 05bb 6cda b53b
00000070: 3e8b 813c 8c91 143c 3105 6838 6638 a6ba
00000080: 362e 6cb9 b0a1 9f3b 4e67 023c 248c f1bb
00000090: df83 973b e122 0abc c0b4 c9ba c97c 3f3c
000000a0: 227d 61ba 5d00 0c3b 3e9f 523a cd2b b6bb
000000b0: 2090 373c 9335 1abb dc36 373c 7366 883b
000000c0: b6e2 b03b 7c66 82bb 6fdc 893b 0132 2cba
000000d0: bc9e b4bb 5c5d 9f3a 7ddc 513b 930a 81bb
000000e0: 2d29 a83b 5408 9d3a 92c4 95bb f27f 2fb9
000000f0: 353f c73b c211 413b 5059 223c 9257 713c
-0.0023189613 -0.0017192565 0.007527809 0.004655198 0.012370462 -0.005067975 -0.0027134728 0.0036805058
-0.0028319017 0.009815358 -0.005572017 0.003631333 0.009648813 0.012904085 0.007670144 0.007368906
0.0058789975 0.002568658 -0.005263784 -0.004768648 0.008548849 -0.0013768877 0.011474838 -0.00909962
0.0037456392 0.0059150313 -0.0020335023 0.0055497196 0.015813466 0.009067904 5.5317945e-05 -0.0012681603
-0.00022523929 0.0048715696 0.0079592 -0.0073714424 0.0046238746 -0.008431167 -0.0015388951 0.011687466
-0.0008601715 0.0021362521 0.0008034593 -0.0055594207 0.011203796 -0.0023530468 0.011182513 0.0041626035
0.00539812 -0.0039795022 0.004207186 -0.00065687305 -0.0055120867 0.001215856 0.003202229 -0.003938028
0.0051318617 0.0011980631 -0.004570552 -0.00016736964 0.006080533 0.0029460047 0.009908989 0.014730351

encoder_b.convs.1.weight f4 [64, 64]
00000000: bc33 a3bc 8e38 00b6 4e9e 0b3d 69e5 5cb9
00000010: 4b14 14bc 67ea ad39 1fd4 b9b9 6c09 243b
00000020: d59c 3d28 788b d9bc b8b1 0c3d d118 a8b7
00000030: a38d 843a a7da babb 29f9 19bc c219 dcbc
00000040: c849 5c3b 497e 9fb7 c8bd 30bd 7c86 b03a
00000050: 4e38 d5ba a903 0c3c 04b4 3d3c 5f36 cdbb
00000060: 438a d3bc 5539 683b 9918 44ba cdf6 8ab4
00000070: 942e d8bc 0b90 0fbc 3bbc bebc 81a6 28bc
00000080: f31b 523c 1e0f 9e3a 4656 593c 54ee 06bc
00000090: fb3f 703c 228e 11bb fd03 4c3b bd06 0c39
000000a0: 04c6 90b9 fb2d 84ba a96f b6bb 5af7 97b9
000000b0: 9754 49b9 3811 3c3d 4ffa 053c e905 6239
000000c0: 258a 49bb bf4e d9bb 1ad8 5e3a 5a32 13b6
000000d0: a52a d6ac f707 b5bc 464c 923c 5733 4f3c
000000e0: cc0c a73a 5218 b23c ff7a 14bc 215c ee38
000000f0: d71b a1ba 8fa9 2f3d d069 513c 6b5c 06b1
00000100: a097 853c 93ad 193c 0586 103c fb59 673a
00000110: 1491 83bb be58 75bc 2f04 053d 1e24 0bba
00000120: e427 1bb0 d3ef 05bd f52e 883a 16bc 19bb
00000130: 2c7f f635 281c c4ba a937 edbb 6587 073d
00000140: 581d a338 aebf ef3c 5e3b 4f3c b3e1 b83c
00000150: 199f b8bc 919f 493d 80ab 02bb 54b2 00bb
00000160: 132b debc 2792 e6bb 24f1 093b 71a3 3337
00000170: 72ce f2bb 41c1 0836 d4b1 f839 7d59 5e3c
00000180: c784 983b 5470 e43a 3143 36ba 0bbd fcbb
00000190: 6bb0 99bc 85dd 0cbc 6064 4b3b c925 a2b9
000001a0: 497a 363d bae2 8bbb 8372 3d3c 88e9 03bd
000001b0: 2204 dfbc d0c6 3fbc 867b 13bd ac5e d3ba
000001c0: 17f1 1abc eeee 9dbc a984 c234 5a06 34b9
000001d0: 8c42 0bbc 08a0 24bb 0709 54bd 3b1c 20bd
000001e0: 5d39 0fbd a91c 0c3c 849d 12ba daa0 31bb
000001f0: 528e 863b 9f36 e0ba c6ba 543d 95f1 53bc
00000200: df0e 7f3d f4ce 38ba 6a84 3dbc 295a d9bc
00000210: 21ef eebc 62a9 853c 2d16 bb3c d6b0 94bc
00000220: b2ab 65b8 a894 8a3c 24b0 5f3b fbd2 4f36
00000230: bc58 b638 5f67 a93a fffa b53b 5e75 d43c
00000240: 74fe 243c 6d4f 08ba 603c b93c 88c5 debb
00000250: 17ac d337 b577 fb3a 8c28 89bc d870 acbc
00000260: 8179 313d 8a52 4b3c 3e80 313b 5d90 44b9
00000270: 60ab 263d 9e70 72bc 827a eebc edb6 873c
00000280: f7e3 073a 8a22 0fbc 374d d7ba f324 943b
00000290: 27db 4ebc b56a e4bc cf50 00bc d348 a8ba
000002a0: 1f7a 8bbc e4dc 8cbc 35a6 0f36 597b bc3b
000002b0: 671e bd3b 6cb3 ccbc 5b91 0f3c 4f07 c53b
000002c0: c772 513d db65 15bd 024c 973c fb0a 0b38
000002d0: 6c66 06bb 97cd c3ba 20b9 523d b7fc 5b3d
000002e0: ab76 1b3d 8e45 50bd 50b3 043d 9f8d 68ba
000002f0: 8a08 15bc e17e 04bb c161 c7bb d293 163b
00000300: c17b d8bb 5958 9039 52eb 613d 946e 41ba
00000310: 81da 833b 702a b3ba 1e6b 06bc 0a6f e4b9
00000320: a0b4 022a ca01 bcbc e708 e2bc 52e0 e5bc
00000330: c660 18bb 104a c9bb d882 1fbb b42f 86ba
00000340: b22c 0e3a 2514 d83c 003f b93c c7c2 21bc
00000350: 1a6a 3338 e471 77bd e0d8 f53c 90cf 41bc
00000360: a419 173d 653c 713b 8d2b 9e3c d892 f0b6
00000370: dacf 2b3d 21f1 9034 8f7d c63c 542d bd3a
00000380: 2a69 33bc ab15 183c a221 fc3b 96cf 703b
00000390: f7b9 be39 5dce d8bb e302 abba 3392 c9b9
000003a0: a154 e23c 5204 9c3c 47b9 70bc 78a3 983c
000003b0: 69eb 883b 5595 adbc 928d 2ebd e70f 603a
000003c0: 0d92 23bc 5113 89bc 1511 8c3b 8de0 7f3c
000003d0: bda4 ba38 427c 7f34 ca53 5b3d dc15 833d
000003e0: b9a9 39bc 4751 e13b 7849 9fbc 11b1 893b
000003f0: 411f 063d 35aa 2bba 7611 97bb 7676 e4bb
-0.01992213 -1.9106405e-06 0.034086518 -0.00021066297 -0.009038041 0.00033171775 -0.00035443992 0.002503003
1.0525615e-14 -0.026555762 0.034349173 -2.0038717e-05 0.0010113012 -0.005702335 -0.009397783 -0.026867751
0.0033613313 -1.9013083e-05 -0.04314974 0.0013467814 -0.001626739 0.0085457945 0.011578564 -0.006262585
-0.025822764 0.0035434563 -0.0007480472 -2.5884074e-07 -0.026389398 -0.00876237 -0.023283115 -0.010293604
0.012824046 0.0012058949 0.013265198 -0.008235533 0.014663692 -0.0022209962 0.0031130307 0.0001335395
-0.00027613353 -0.0010084504 -0.00556751 -0.00028985256 -0.00019200366 0.04591486 0.008177354 0.00021555241
-0.0030752507 -0.0066317017 0.00085008296 -2.1934015e-06 -6.0869803e-12 -0.022098524 0.017858636 0.012646518
0.0012744903 0.021740112 -0.009062528 0.00011365885 -0.0012291622 0.042886313 0.012781575 -1.95521e-09
0.016307652 0.009379762 0.008821015 0.0008825359 -0.0040150974 -0.014974771 0.032474693 -0.0005307811
-5.644536e-10 -0.032699417 0.0010389971 -0.0023458055 1.836544e-06 -0.0014962004 -0.007239301 0.033088107
7.7779114e-05 0.029266205 0.012648432 0.02256856 -0.022536801 0.04922444 -0.0019938648 -0.0019637542
-0.027120149 -0.0070364657 0.0021048272 1.0707286e-05 -0.007409864 2.0378068e-06 0.00047434738 0.01357114
0.0046545 0.0017428496 -0.00069527613 -0.0077129654 -0.01876088 -0.008597736 0.003103517 -0.000309272
0.044550214 -0.0042689713 0.011562946 -0.032205135 -0.02722365 -0.011705115 -0.036006473 -0.0016126237
-0.009456894 -0.01927897 3.623184e-07 -0.00017168504 -0.008499753 -0.00251198 -0.05176642 -0.039089423
-0.034966815 0.008551755 -0.00055929297 -0.0027103932 0.0041063214 -0.0017106122 0.051935934 -0.012936016
0.06227004 -0.00070498814 -0.0115672145 -0.02653225 -0.02916676 0.01631612 0.022837723 -0.018150728
-5.475776e-05 0.016916588 0.0034132088 3.096821e-06 8.694964e-05 0.0012924484 0.0055536027 0.025934871
0.010070432 -0.00051998236 0.022611797 -0.00679845 2.5233296e-05 0.0019185456 -0.016742967 -0.021049902
0.043328766 0.012409816 0.0027084495 -0.00018745796 0.04069078 -0.014797358 -0.02911115 0.016566718
0.0005183811 -0.008736262 -0.001642621 0.0045210063 -0.012625492 -0.027882913 -0.007831766 -0.0012839086
-0.017026005 -0.017195173 2.1405406e-06 0.005752009 0.0057714465 -0.024987899 0.008762683 0.006012834
0.05113485 -0.03647409 0.01846886 3.315041e-05 -0.0020507826 -0.001493859 0.05144608 0.053707805
0.037954967 -0.050847583 0.03239757 -0.0008871201 -0.009096274 -0.0020217227 -0.006084651 0.0022976291
-0.0066065495 0.00027531644 0.05515606 -0.0007378843 0.0040238504 -0.0013669264 -0.00820425 -0.0004357028
1.1608986e-13 -0.022950072 -0.027592136 -0.028061066 -0.002325104 -0.006142862 -0.0024339464 -0.0010237605
0.000542353 0.026376793 0.022613049 -0.009873099 4.277574e-05 -0.06041135 0.03001064 -0.011829272
0.036889687 0.003680968 0.019307876 -7.1696522e-06 0.04194627 2.6997535e-07 0.024229793 0.0014433064
-0.010950366 0.00928251 0.007694439 0.0036744825 0.0003637818 -0.0066163973 -0.0013047125 -0.00038446634
0.027628245 0.019045029 -0.014692611 0.018632635 0.0041784537 -0.021189371 -0.04261548 0.00085472915
-0.009983552 -0.016732844 0.0042744973 0.015617502 8.899856e-05 2.379393e-07 0.053546704 0.06400654
-0.011331969 0.006876144 -0.019444212 0.004202016 0.03274465 -0.0006548495 -0.004610236 -0.0069721295

encoder_b.convs.1.bias f4 [64]
00000000: b877 393c 8ea1 f2bb 1b55 e13b c4e3 e5bb
00000010: 55bc 533b 150f a23b a75b e0ba 4e0a 273b
00000020: 88c1 acba 2359 113c 9b70 a5bb d487 bbb8
00000030: 8f13 443c a18a e13b 8c57 2d3c 49c4 c6bb
00000040: e9af 653b e5c9 e1b9 6e9b 3b3c 57d8 5a3c
00000050: e26f 2f3c 204e 933b 976c 343c 4509 493b
00000060: 5121 8e3b 620d 18bb 479f 723b acf8 f4bb
00000070: 4e09 be3b d8a9 2bbc 8727 6e3b 5132 833c
00000080: 2ade bcba 6bae 27bc 2267 dc3b 2ffa 073c
00000090: f811 64bb dd90 71bc 3e3e 64ba 5ed9 2a3c
000000a0: e9c2 073c 18d3 dfb8 0d08 16bc 3a5e da3b
000000b0: f3d0 283c 6c1c 923b 526d 433c 983c 953a
000000c0: b450 293b c966 cb3b afa6 0e3b e0ab 00bc
000000d0: cb2a 9cbb 2033 a63b a7db ff3b 6579 ac3b
000000e0: 3522 f2bb d5d6 ab3b 6c11 77bb 4f55 8b3a
000000f0: 9210 b5ba 2f67 97bb 8a5d 25bb a9bf aaba
0.011320047 -0.0074045127 0.0068766004 -0.007015677 0.00323083 0.0049456456 -0.0017117158 0.002548832
-0.0013180235 0.0088713495 -0.005048824 -8.942155e-05 0.011967554 0.006882981 0.010579955 -0.0060658795
0.0035047478 -0.00043065767 0.011450632 0.0133572435 0.010707827 0.004495397 0.011012218 0.003067569
0.0043374677 -0.0023201336 0.0037021206 -0.007475933 0.005799449 -0.010477506 0.0036339478 0.016015204
-0.0014409472 -0.010234456 0.0067261616 0.0082993945 -0.003480075 -0.014744011 -0.00087067846 0.010427801
0.008286216 -0.00010672788 -0.009157193 0.0066640647 0.010303724 0.0044589546 0.011927919 0.0011385856
0.0025835456 0.0062073213 0.0021766832 -0.007853478 -0.0047658435 0.0050720125 0.007808167 0.005263495
-0.0073893317 0.005244116 -0.0037699593 0.0010630282 -0.0013814142 -0.0046204547 -0.0025232756 -0.001302709

encoder_b.convs.2.weight f4 [64, 64]
00000000: 7d2d 8a3c 37cd eb39 d181 d53a da89 8e3b
00000010: 8e15 093d 73be 03bc 7913 8bbc 0164 e437
00000020: 16b4 b43c 0935 7eba 8bba 323c 190a fdb9
00000030: a69f 4238 3510 ecb8 b4de 0a3b f867 573c
00000040: afb0 adba 9015 a9bc 4aea ce3c e214 c03c
00000050: 6c1b 143b dd17 c9ba bea1 d83b 1f3b a1b9
00000060: f3d7 b83c bbea e93b 712e 813a bc13 c6ba
00000070: c09e dbbc 82f8 773b 1609 75b9 79f3 1d3c
00000080: c4a7 053d c455 89bc 0ecb b03b 9454 fd3a
00000090: 7d59 8e3c d07e 05bd ccdc 69bb 3122 0c3b
000000a0: cba5 783b de67 b7bb 97e3 cdbc ec37 fa3a
000000b0: 571d 04bd 8992 233b dff5 8f3b 1005 15ba
000000c0: 2b16 90bb a24f 12bd 616e 8dbc fb4f dd3c
000000d0: f4ca 13ba 5b53 d33a e63b 06b7 c5dd 913b
000000e0: 77d2 f43c fef0 34bb 905c 5f3a 7197 f93c
000000f0: 3729 253c 66a8 0d3a 3923 7b3b d1da 883a
00000100: 2d85 10ba 0138 c230 6621 2bbc 298f 9a34
00000110: 7191 afbc 42ab cb3b eb3e 0f3c 3a40 95b9
00000120: 7021 353b 5eca 42ba ebfb 9d3c 21f4 1cb0
00000130: 2d6e 053a a815 0cbc 1652 6536 627e dbb9
00000140: dbfd 5cbc 2b47 dcbc a2a7 6c39 58ff a533
00000150: 554d 2a3c 5caf 96aa e9d5 a8b7 346e c335
00000160: 4d5c 63bc e4d6 40b9 d476 06ba 1ec8 54bc
00000170: 9448 87b8 7b6c 35b4 6be7 3332 c15d b23c
00000180: f839 9136 04a0 8e3c e79c d8bb e04b 3636
00000190: e61e a53c 0c3a adba 55a3 a9af dd0d e138
000001a0: 99f2 bfba b204 1cbb 2d43 d1bc 8553 29b8
000001b0: 6357 f22c 943c a636 a1d5 bd39 6882 933c
000001c0: f423 05bb d57b b23b 6c33 0e3b 033f 603a
000001d0: 75b5 4d30 f4fe 19b6 bb58 173c e6bc 69b5
000001e0: 489a aa35 e48e 05b4 f394 3935 32da f1bb
000001f0: 45a4 87bc 7211 7bbc 493b f6ae 549f 8a3c
00000200: bed9 a83b d31f 633a 0f13 893c d0cf e7ba
00000210: af91 893b 7ecd 80bc a86a af3a 4fa4 d63a
00000220: 9db3 f73c cb2c 27bb 4e6c 3f3b 7ac4 ec3b
00000230: d614 9cb9 c440 9eba 13ff a0bb 4f32 af3b
00000240: 8478 a8bb ea37 b83c 3087 633c 7ac5 77b9
00000250: 9f2f b53c 2c2c f4b9 2a1c 48bc 545a a33a
00000260: 829c 73ba 22e6 ec3c 72a8 01bc 837e 59bc
00000270: 18c8 843c 9836 0e3d c569 24bc a2df 213c
00000280: 4861 933a 4ac4 31bd fb83 7ebb 6199 eeba
00000290: c46a 96bc 1bf0 36b9 880d c6bb ddea 72bc
000002a0: a461 a13c a2e6 023d b83f 99bc 8e55 7e3b
000002b0: aa5d 803c e142 b13c 4a44 303c f68f ffba
000002c0: 42bf e1bc a7ae 66bb 49c1 1b3c 2c9d 03bd
000002d0: 726c aabc 4cce 153d bee5 8bbc 6f75 82ba
000002e0: 0048 1fbb fafa cf3c ef62 293c c3e6 86ba
000002f0: 2cff 95b9 ca44 60ba 9ae7 193a 82a6 1bbb
00000300: 25a9 253b 672e 2c36 19c1 2fbc 765a 63ba
00000310: cc23 6cb9 59ce 18b8 c616 023c de4d 4b3c
00000320: 7393 9a3c 0e45 6b3c eb10 f4ba d94f 4d3b
00000330: bf2b 063a c1bb 803c 8db1 2bb6 2d39 9a33
00000340: da7d 603c a58f 1a33 5dfa 423c a286 2d3c
00000350: 6bec 6538 552a d13c 9980 7d3b a789 c2b1
00000360: 1650 7fb7 ae95 9e3c 67ee 8d3a b647 e23b
00000370: 43b8 ae3b d9c4 79bb 3d7a b339 9055 823c
00000380: beb9 4abb 165f 50b5 7da8 a73b e988 3a32
00000390: 0209 a33b 8609 3bbc f875 fab8 ea7c 2db4
000003a0: 4d37 cf3c 1000 5736 77fd ef3c f9d1 7c3a
000003b0: 0875 53b8 fa4a 043c 5c5f 0737 68cb 6d29
000003c0: f9db 32bc 5a38 04bc 62a6 27bc c00b 9f3c
000003d0: 7579 40b8 9806 dcba 3f49 34b7 4720 31b3
000003e0: 7bc1 7ab5 e035 26b3 8d23 d1bc 145e dc3b
000003f0: d42c 723c 05b8 1f3b 8161 3036 67ca f4bb
0.016867394 0.0004497559 0.0016289299 0.0043499293 0.03346782 -0.008041012 -0.016977059 2.7226286e-05
0.022058528 -0.0009697234 0.010908733 -0.00048263444 4.640189e-05 -0.00011256376 0.002118987 0.013147347
-0.0013251508 -0.020640165 0.025258202 0.023447458 0.0022599353 -0.0015342195 0.006611078 -0.00030752362
0.02256391 0.0071385778 0.000985576 -0.0015112082 -0.026809096 0.0037837331 -0.00023368406 0.009640568
0.032630697 -0.016764529 0.0053952998 0.0019327574 0.017376656 -0.03259164 -0.0035684584 0.0021382684
0.0037940617 -0.0055970987 -0.025132937 0.0019090152 -0.032254543 0.0024959168 0.004393324 -0.00056846533
-0.004397174 -0.035720475 -0.017264547 0.027015677 -0.00056378474 0.0016122864 -8.000969e-06 0.004451486
0.029885514 -0.0027609463 0.0008520568 0.03046772 0.010080627 0.00054038165 0.0038320555 0.0010441189
-0.0005513009 1.4131275e-09 -0.0104449745 2.8788898e-07 -0.021431657 0.006215484 0.008743028 -0.00028467347
0.0027638339 -0.0007430668 0.019285163 -5.70994e-10 0.0005089965 -0.008550085 3.417144e-06 -0.00041865098
-0.013488258 -0.026889404 0.00022569162 7.729858e-08 0.010394414 -2.6767033e-13 -2.012677e-05 1.4560705e-06
-0.013876987 -0.000183906 -0.0005129401 -0.012987165 -6.4508204e-05 -1.6896404e-07 1.047179e-08 0.021773221
4.328085e-06 0.017410286 -0.006610501 2.7164278e-06 0.020156335 -0.0013216152 -3.0856975e-10 0.00010731418
-0.0014644443 -0.002380651 -0.025544727 -4.0370523e-05 6.8877556e-12 4.9542377e-06 0.00036208055 0.018006518
-0.002031562 0.005446891 0.002169813 0.00085543114 7.483643e-10 -2.294718e-06 0.009237464 -8.707415e-07
1.2710889e-06 -1.2438574e-07 6.913462e-07 -0.0073807472 -0.016557822 -0.0153239835 -1.1197316e-10 0.016921677
0.00515291 0.0008664105 0.01673272 -0.0017685834 0.004198275 -0.015722986 0.0013383226 0.0016375872
0.030237013 -0.0025508876 0.0029208842 0.0072255703 -0.00029770163 -0.0012073745 -0.0049132197 0.0053465734
-0.0051413197 0.0224876 0.013887212 -0.00023629321 0.022117434 -0.00046572217 -0.012213746 0.0012462833
-0.0009293036 0.02891833 -0.007913696 -0.013274792 0.016208693 0.034720033 -0.010034983 0.009879978
0.0011244202 -0.043400086 -0.003883599 -0.001820367 -0.018361457 -0.00017446319 -0.0060440935 -0.014826504
0.019699879 0.03195823 -0.018707141 0.0038808319 0.015669663 0.021638336 0.010758469 -0.001949786
-0.02755702 -0.0035199316 0.009506532 -0.032132313 -0.020803664 0.036573693 -0.017077323 -0.0009953211
-0.002430439 0.02538823 0.010338529 -0.0010292161 -0.00028609612 -0.0008555172 0.0005870998 -0.002375037
0.002527782 2.5657007e-06 -0.01072719 -0.00086728425 -0.00022520049 -3.64318e-05 0.00794 0.012408702
0.018869137 0.014359726 -0.0018620765 0.003132811 0.0005118213 0.015714528 -2.5584334e-06 7.181584e-08
0.01370188 3.5986563e-08 0.011900512 0.010591181 5.4818036e-05 0.02553288 0.0038681387 -5.6617924e-09
-1.5217831e-05 0.019358482 0.0010828496 0.0069055213 0.0053320243 -0.0038111715 0.00034232615 0.01590994
-0.0030933465 -7.7624406e-07 0.005116521 1.0857755e-08 0.004975439 -0.011415845 -0.00011942902 -1.6157324e-07
0.025294924 3.2037533e-06 0.029295666 0.00096443255 -5.0415314e-05 0.008074516 8.06883e-06 5.2800998e-14
-0.010916703 -0.008070076 -0.01023254 0.019414783 -4.5889483e-05 -0.0016786633 -1.074589e-05 -4.124038e-08
-9.341381e-07 -3.8698886e-08 -0.025529647 0.006725082 0.014781196 0.0024371159 2.6282798e-06 -0.0074704173

encoder_b.convs.2.bias f4 [64]
00000000: e14f 7e3c 1b60 c93a 04b9 0b3b 4860 1d3b
00000010: 6b94 8c3b 3409 0c3b 8b75 48bc 86b0 743b
00000020: be08 a639 eaa4 bbb9 f88e 91ba 4df6 553b
00000030: eb63 de3b a122 2abc db38 ae3b 7872 84bb
00000040: 4c0a a2bb cd53 8f3b ad17 3c3b c88d 1d3c
00000050: 9c8f 04bc e8d6 dbba ad2c 2c38 2211 3238
00000060: 0186 24bb 1eba ee3b d962 973a 76c2 08ba
00000070: aef1 4939 b7c5 9b3a 44aa 5dba 7dda 143c
00000080: 18bc 9b3a 778e a23a 7a33 a83a b0d1 89bb
00000090: b2db 41bb 64d8 99bb 035a f6bb 718c 16bc
000000a0: 28c1 7f3a 5c43 dabb b4ce cdbb becd 0e3b
000000b0: 970f df39 ecdf ba3a f0bf cc3b 608c 0c3c
000000c0: b429 793b 4407 8d3a 52b7 30bc 8874 dc3b
000000d0: 8888 39bb 3bbc c2ba cf12 903a 008a d13b
000000e0: 1124 b8b9 ea72 c7bb 2858 713a 8cc5 ba3b
000000f0: b153 a0bb a75f 243c 0b60 6cbb 9eb1 283c
0.015521974 0.0015363725 0.0021319995 0.0024013687 0.0042901537 0.002136779 -0.012235056 0.0037336661
0.000316685 -0.0003579029 -0.001110523 0.0032648027 0.0067868135 -0.010384233 0.0053168363 -0.004041966
-0.004945075 0.0043740035 0.0028700635 0.009616323 -0.00809088 -0.0016772421 4.1049603e-05 4.2454463e-05
-0.0025104287 0.0072853705 0.0011549845 -0.0005216965 0.00019258886 0.0011884485 -0.00084558525 0.009085295
0.0011881618 0.0012402077 0.0012832724 -0.004205905 -0.0029580412 -0.004694985 -0.0075180545 -0.009188757
0.00097562606 -0.006660862 -0.0062807444 0.0021790112 0.0004254549 0.0014257408 0.0062484667 0.00857839
0.0038019242 0.0010759612 -0.0107858945 0.006727759 -0.0028310139 -0.0014857122 0.0010991934 0.0063946247
-0.00035122086 -0.006086697 0.0009206557 0.005699819 -0.0048927893 0.010032571 -0.0036067988 0.0102962535
