results/ABIDE_3x5fold_seed0/fold0_rep1_seed1000/ckpt_best_fold_0.pt (torch, 660358 bytes, 72 tensors)

encoder_c.convs.0.weight f4 [116, 64]
000000 59 bd 01 bd 8f 8d 22 3d d8 cf 7b bc 8a 42 87 bd
       -0.031674717 0.039685782 -0.015369378 -0.06604488
000010 9f 22 d0 bd e4 d1 4a a6 54 e4 e6 bc e6 a5 34 bd
       -0.101628534 -7.0367283e-16 -0.028185047 -0.044103526
000020 96 62 f3 bc 7e f9 f6 3c df 5b 83 bd 6f ae a1 bc
       -0.029710095 0.030148264 -0.064140074 -0.019736497
000030 f1 d9 8d bc 17 0f e2 bd 71 1f 76 3d 89 55 22 be
       -0.017315837 -0.110380344 0.06008858 -0.15852942
000040 ac 12 8c 3d d4 d9 27 be ea 23 bc bc c6 bc 25 be
       0.06839499 -0.16391689 -0.022966344 -0.16185293
000050 4f e6 ed bd 6e d4 af 3d 6e 7a 9b bd 6c eb 23 bd
       -0.116161935 0.085854396 -0.07591711 -0.040019438
000060 e1 3a 7d bd e6 74 f2 bb da b7 1e 3d dc 22 44 bd
       -0.06182373 -0.0073991893 0.038749553 -0.047884807
000070 b3 a3 fb bc 15 1a 64 3d e9 0b df 3d 2f 1b 50 bd
       -0.030717706 0.055688936 0.108909436 -0.050807174
000080 b8 6c 12 3d cd 1e 18 3e af 59 a0 3d 15 6b 3d 3e
       0.035748214 0.148555 0.07829606 0.1849788
000090 e9 73 10 bd 27 4e 21 3d ee d2 58 bd d0 0e 13 3c
       -0.03526679 0.039381173 -0.052935533 0.0089757
0000a0 91 28 ef bc e0 9b 8a bd c5 86 2f bd a8 0d 00 80
       -0.029194148 -0.06768012 -0.042853136 -4.899e-42
0000b0 2a de 10 3e 95 45 3a 3d 96 c2 fe 3d 3b fa f1 bd
       0.14147249 0.045476515 0.12439458 -0.11815306
0000c0 d8 e1 93 3d 23 60 52 bd cb 8d 27 3e 8d 13 00 80
       0.07220811 -0.051361214 0.16362683 -7.013e-42
0000d0 f1 de 0e 3e b2 cf ab 3d 6d c5 af bd a1 5a c3 bd
       0.13952233 0.08389224 -0.08582578 -0.095387705
0000e0 9f b3 02 be 43 04 c6 ba 4f c0 df 3d 5f 15 ce 3d
       -0.12763833 -0.0015107471 0.10925352 0.1006267
0000f0 c7 4f b0 3c 31 98 91 bd c6 a5 c7 bc 8f 77 20 be
       0.021522416 -0.07109106 -0.02437104 -0.15670608
000100 3d 90 17 3d c7 86 75 3c 9b 62 30 bd 77 05 0d bd
       0.03700279 0.014985747 -0.043062788 -0.03442904
000110 53 22 db 3c 9f 23 38 a9 71 dc fa bd 5a a3 a8 bc
       0.026749766 -4.0887104e-14 -0.12249077 -0.020585705
000120 e5 6f 3e 3d bd 77 14 3c f5 b7 e6 3d e5 4b c3 3d
       0.04649343 0.009061751 0.11265556 0.0953596
000130 71 b6 e6 bd 1e 0f 01 bc c6 1a 77 bd 75 40 5e 3d
       -0.11265267 -0.007877139 -0.060328268 0.05426069
000140 ed 58 8b 3d 5d aa 01 be 0d c3 4b 3c 27 84 ef 3d
       0.068040706 -0.12662645 0.01243664 0.11695128
000150 1e a9 0d be e4 86 72 bd c8 1e 7d bd 5f 2d 9e 3d
       -0.13834044 -0.059210673 -0.061796933 0.077234976
000160 4d 79 8f 3d b5 e8 ea bb 28 46 e7 bd db 44 63 bd
       0.07005558 -0.007168854 -0.11292678 -0.055485588
000170 7f 3b c0 bd 5c 40 b6 bc f4 14 95 3d f0 bd c9 bd
       -0.09386348 -0.022247486 0.07279387 -0.09850681
000180 56 30 2c 3d 71 4a 9b 3d 95 bc 48 bd 61 18 2d 3e
       0.042038284 0.07582558 -0.04900797 0.16903831
000190 e3 a1 21 be b2 ac 01 3e 58 44 e3 bc 8f cd 4f 3d
       -0.15784411 0.12663534 -0.02774255 0.050733145
0001a0 07 c7 e4 3c 5e 94 ee 3c 34 e8 e9 bb 0c 05 00 80
       0.027926935 0.029123481 -0.0071382765 -1.81e-42
0001b0 bf f9 19 be 2f 04 54 bb d1 81 f4 3d 25 96 13 3c
       -0.15036677 -0.0032351126 0.11938823 0.009007965
0001c0 77 9f 2a 3e 95 c4 03 3d f7 c5 cd bd 27 12 00 00
       0.16662394 0.032169897 -0.100475244 6.512e-42
0001d0 cf 4e 84 3d 13 a8 a7 3d 55 b3 10 be 07 90 94 bc
       0.06460344 0.081863545 -0.1413091 -0.018135084
0001e0 7a e9 85 bb c7 90 b9 bd 48 82 e9 3d 8c 07 b2 bd
       -0.0040866705 -0.09060817 0.11401802 -0.08692846
0001f0 1e 93 e5 bd 1b 74 a2 bc 4d e2 fc 3c 9d 21 6d bd
       -0.11209701 -0.019830754 0.030869627 -0.057893384
000200 02 b8 72 bd c4 6e e0 bb 23 51 27 bd 73 16 a1 bc
       -0.059257515 -0.006849142 -0.040848862 -0.019664025
000210 5f e3 7d bd a7 c3 33 a9 cc 79 c5 3c 0d bd a7 bc
       -0.061984416 -3.9915686e-14 0.024105929 -0.020475889
000220 2c eb e2 3d 85 6c 87 bd ea bd 21 3d 6f 3f f4 3d
       0.11080012 -0.06612495 0.039487757 0.119261615
000230 40 ff 3c 3e 2c d7 9f bd 49 73 ed 3d aa cd a8 3d
       0.18456745 -0.07804713 0.115942545 0.08242352
000240 d1 94 1c 3e 14 2e ff 3d 98 59 b3 3d 9b 70 24 bd
       0.15291144 0.124599606 0.08757323 -0.04014645
000250 ce f5 98 bd d9 c9 03 bd 3f ed fd 3c 79 1d 96 3c
       -0.074687585 -0.03217492 0.030996917 0.0183246
000260 ec 1f f8 bc b8 58 23 bd d9 12 0d 3e 8f ce 9a 3b
       -0.030288659 -0.03987953 0.13776721 0.0047243307
000270 72 74 eb bc dd b4 19 3e 9b d0 ea 3d a3 0d 88 bd
       -0.028742049 0.150104 0.114655696 -0.06643226
000280 85 74 15 be 3d a4 06 be 76 e4 98 bc 1e 29 32 be
       -0.1459523 -0.1314859 -0.018663626 -0.17398497
000290 b2 2c 31 3e 2a 69 fb 3c d3 cf 04 be c2 87 81 3c
       0.17302206 0.030689795 -0.12969904 0.015811805
0002a0 f8 ab 18 3e 2f 46 c1 3b e3 0b bb 3d 2e 05 00 80
       0.14909351 0.005898259 0.091331266 -1.858e-42
0002b0 fd bc cc bd d7 53 c0 3c 86 12 39 3d 45 20 50 bc
       -0.09996984 0.023477478 0.04518368 -0.012703006
0002c0 e2 5e c0 3d 74 d4 72 bd 71 c3 a6 3d bc 01 00 00
       0.093930975 -0.059284642 0.08142746 6.22e-43
0002d0 5a 26 4c bd 6a 18 20 3e 45 8e 13 3e d0 78 d9 bd
       -0.049841262 0.15634313 0.1440974 -0.10618746
0002e0 f1 50 ca bd 66 f9 82 3d 2b 21 54 bc 2f bd 8f bd
       -0.098787196 0.06395225 -0.012947361 -0.07018506
0002f0 37 95 53 3d 7e 7a ad bd be 41 d7 3c f7 20 3d 3e
       0.051655974 -0.08470629 0.026276466 0.18469606
000300 46 25 63 bd 0a ad 90 bd 68 fc aa 3d 38 c2 c4 3d
       -0.05545547 -0.070642546 0.08348924 0.09607357
000310 2b ad 0b 3e ba 08 43 2a 4d 88 a4 3c 7b fc c3 bd
       0.13640277 1.7322507e-13 0.020084525 -0.09569641
000320 2e ae b0 bd e5 24 51 3d 73 cc 1b 3e 38 c5 d7 bd
       -0.08626972 0.051060576 0.1521471 -0.10535663
000330 44 ef b4 3d d3 9a a4 bd 75 e9 23 3e 86 9c 90 3d
       0.08834699 -0.08037343 0.16007026 0.070611045
000340 c6 cd 26 bc 44 87 d2 bc 64 dc 3a bd 7e 81 ba bd
       -0.010180896 -0.025699265 -0.045620337 -0.0910673
000350 39 f9 77 bd 17 24 96 3c 6a 22 0f bd 36 10 f9 3c
       -0.06054041 0.018327756 -0.03494493 0.030403238
000360 78 b1 9e bd d1 65 fa 3c ce 5f 93 3d 50 63 d4 ba
       -0.07748693 0.030566128 0.07196008 -0.0016203914
000370 88 b9 81 3c c0 bc c0 bd 43 a2 a3 3a 8a fc 0a bc
       0.015835539 -0.09411001 0.0012484271 -0.008483062
000380 dc 54 1f 3e a6 15 13 3d 9a d4 ab bd 87 69 04 bd
       0.15559715 0.035909317 -0.0839016 -0.0323272
000390 d3 a5 07 3e 7c c2 c8 bc fa b2 9b bd 2d a3 40 bd
       0.1324685 -0.0245068 -0.076024964 -0.047030617
0003a0 7c b7 14 3e 77 62 0f 3c 9b 1f d4 3d d0 38 00 00
       0.14523119 0.008751503 0.10357591 2.038e-41
0003b0 c9 61 76 bd 4e 77 bd 3c f3 55 24 be c0 14 99 bd
       -0.06015185 0.023128178 -0.16048412 -0.07474661
0003c0 ae 2f 0a bd 49 15 49 bc ab 67 96 3d ca 1e 00 00
       -0.033736877 -0.012273141 0.07343992 1.1045e-41
0003d0 84 21 2b be e7 56 35 be 87 1f ba 3d 90 c3 eb 3d
       -0.16712004 -0.17708932 0.090880446 0.1151191
0003e0 27 1e e4 3c a4 ce b4 bd 6b 09 16 be 51 87 84 bd
       0.027846409 -0.08828476 -0.1465203 -0.06471122
0003f0 2f ac f6 bc 7d da 5f 3c 21 86 9a 3b c6 72 3f 3e
       -0.0301114 0.0136629315 0.0047156964 0.18696126

encoder_c.convs.0.bias f4 [64]
000000 b3 9d 2a bb ff c4 31 3c fd ef 27 bb 84 78 8e 3c
       -0.0026033937 0.01085019 -0.0025625222 0.01739145
000010 6d cf fd bb aa b8 c4 bb 2b fa 86 b9 03 31 18 bb
       -0.0077456743 -0.006003459 -0.0002574486 -0.0023222573
000020 bc 24 e3 3c 58 18 14 bc eb d5 5f bb 85 2f 96 bb
       0.027727477 -0.009039007 -0.0034154605 -0.0045833015
000030 bc 69 ad bb 34 81 c0 3c da ae 17 bc 11 38 31 3c
       -0.0052921455 0.023499109 -0.009257996 0.01081659
000040 b5 f9 62 3c cd da ac bc 51 f0 82 bc 68 18 93 3c
       0.01385348 -0.021100426 -0.015983732 0.017955974
000050 c5 e7 aa 3c a6 56 3e bc 9c 4e b4 3c 63 df fc bc
       0.02086247 -0.011617338 0.02201014 -0.030868238
000060 31 a6 31 3d a8 cb 9a 3b 4d 5e d6 3b f5 62 c8 3b
       0.043371383 0.0047239847 0.0065420032 0.006115312
000070 39 34 7e 3c 6c b7 5e 3d df 68 c6 3b 7b aa c3 3c
       0.015515381 0.054374143 0.006054982 0.023885002
000080 93 49 b9 3b 72 cb c4 bc bb 6a 1a 3c c4 89 26 bb
       0.0056545227 -0.024022792 0.009424861 -0.0025411705
000090 fc cb ab 3b 5a 06 00 3c fd d8 08 bb 0e fa 90 3c
       0.0052428227 0.007814014 -0.0020881288 0.01769736
0000a0 01 d1 01 bc e6 9c c7 bc d2 ed b7 3c f5 30 d9 bb
       -0.007923366 -0.024366807 0.022452269 -0.0066281506
0000b0 43 1a de 3c 5b ce 04 bc 44 e3 4d bc aa 09 0b 3d
       0.027112132 -0.00810584 -0.012566391 0.033944763
0000c0 e5 a5 af 3b 83 1a de 3c 68 8f 13 bc b3 28 cf bc
       0.0053603523 0.027112251 -0.009006359 -0.025287962
0000d0 e9 96 10 3c ca 59 d3 3b c8 ab 34 bc a5 4f 07 3b
       0.008825042 0.0064499127 -0.011027284 0.0020646837
0000e0 c4 b6 9b 3c da 1f 2d 3d 18 9a a4 3c 8f b3 53 3c
       0.019008048 0.042266704 0.020093009 0.012921228
0000f0 fc 94 49 bc 7d 46 8b bb a6 70 99 3c 53 3b 69 3b
       -0.012303587 -0.004250346 0.018730473 0.0035588339

encoder_c.convs.1.weight f4 [64, 64]
000000 04 11 9b bb 00 05 bf 3d 05 b1 68 3d 35 76 4d 3e
       -0.004732253 0.093271255 0.056809444 0.20064624
000010 ee 6c ed 3c f1 a9 02 bd 73 1c 68 3d 7f 33 9a 3d
       0.028982606 -0.03190035 0.056667756 0.07529353
000020 14 dd 57 9a 04 84 07 3e b7 3c 86 3d b2 2b 0a 3e
       -4.4639543e-23 0.13233954 0.06554549 0.13493231
000030 23 a4 07 3d f3 03 90 bd 7c 1d 3e bd d0 98 55 bd
       0.033115517 -0.07032003 -0.046414837 -0.052147686
000040 f6 80 43 3d c2 ef f3 3d 06 18 0e bd 09 04 b1 3d
       0.04773041 0.119109645 -0.03469088 0.08643348
000050 00 97 88 bd 72 45 00 00 94 96 87 3d d8 e0 97 bd
       -0.06669426 2.4912e-41 0.066205174 -0.074159324
000060 10 ca e1 3d 62 7c 8b bd 34 7f 68 bc 25 40 2c 3c
       0.110248685 -0.068108335 -0.014190484 0.01051334
000070 ea fd e8 bc bb 29 00 00 23 7f 00 80 13 5e 96 3d
       -0.028441388 1.497e-41 -4.5608e-41 0.07342162
000080 e1 fc 0d ba d7 f4 e4 bc 57 1d 34 3c d0 a3 34 be
       -0.0005416405 -0.02794878 0.010993323 -0.17640615
000090 04 45 d1 bc 85 85 09 3e 85 5b d3 bc ee dc 5b 3d
       -0.025545605 0.1342984 -0.025800476 0.05367749
0000a0 3f b6 12 bd 5a cf da 3d f4 4f 23 bc 49 bc 0d bd
       -0.035818335 0.106840804 -0.009967793 -0.03460339
0000b0 ab 24 89 3d 24 e1 b5 3b c4 ed a1 35 1b f7 5a 3d
       0.06696447 0.0055505205 1.2064634e-06 0.053458314
0000c0 9c f4 90 38 20 15 3e be b5 c5 74 bd 8f 0a 26 bb
       6.912017e-05 -0.18562746 -0.05975886 -0.0025335883
0000d0 e3 e3 01 bd 12 df ca 3d 96 92 bb 3d fe 8d 3a bd
       -0.03171147 0.099058285 0.091588184 -0.04554557
0000e0 7d ca 28 3e a5 3b a0 bd 49 11 82 3c 5c 5b 53 3d
       0.16483493 -0.07823876 0.015877383 0.0516008
0000f0 08 a6 41 be 76 f8 ce 3d da 42 a5 bd 2f 34 a8 bc
       -0.18910992 0.10105984 -0.080693915 -0.020532696
000100 e5 79 5c bb 13 21 0f 3e 20 ab 74 3c 5c 72 4b 3e
       -0.003364199 0.1397746 0.0149333775 0.19867843
000110 f6 53 bc bd c6 f8 2f 3e f4 73 3e bd a7 79 05 3e
       -0.09195702 0.17184743 -0.0464973 0.13034688
000120 71 12 5b b8 5b 61 44 3e b0 ab 3a bc c4 86 4d be
       -5.2230844e-05 0.19177763 -0.011393473 -0.2007094
000130 30 34 07 3e 15 d5 fe bd c7 e1 84 bd 65 07 87 3c
       0.13203502 -0.12442986 -0.06488376 0.016483018
000140 8a c1 2b 3e 03 ca 13 3e 93 03 b3 bd 55 8e 27 3e
       0.16773048 0.1443253 -0.08740916 0.16362889
000150 24 c5 b5 3d 89 03 00 80 46 99 2f 3e e3 c0 06 3e
       0.08875492 -1.268e-42 0.17148313 0.13159518
000160 77 60 90 3d 70 b6 8a 3d 11 5e b8 3d 9d 45 e9 bd
       0.07049649 0.067730784 0.09002317 -0.11390231
000170 23 92 26 3c 04 31 00 00 14 01 00 00 2e 79 17 3e
       0.010166678 1.7583e-41 3.87e-43 0.1479232
000180 8b 23 db bb aa 81 31 be 96 2a 0d bb e6 1b b5 39
       -0.0066875867 -0.17334619 -0.0021540276 0.00034543796
000190 d6 a0 72 bd c0 1f 39 bd 23 18 57 3e eb 8c 47 bd
       -0.059235416 -0.045196295 0.21005301 -0.048718374
0001a0 4f a6 40 be ba 6f 14 bd 93 bd 58 3d a7 3e 0f be
       -0.18813442 -0.036239363 0.052915167 -0.13988744
0001b0 26 4e 79 3d 04 60 08 3d 28 63 07 bb a1 cd f0 bc
       0.060865544 0.033294693 -0.0020658467 -0.029394927
0001c0 73 cc 6c ba d5 69 1e 3e 0d 47 46 3d a3 28 c9 bb
       -0.0009033151 0.15470059 0.048407603 -0.0061388775
0001d0 a6 28 bf bc 8e 44 2b 3e b8 92 e9 3d c4 af 9e 3c
       -0.023334812 0.1672537 0.114049375 0.019370921
0001e0 94 a4 f7 3c ed 8b 91 3d 05 6a 33 bd 4f 8c 39 3e
       0.030229844 0.07106767 -0.04380228 0.1811993
0001f0 b3 11 c5 bd 88 6e 36 3e d0 90 42 bd 4d f6 4e 3d
       -0.096225165 0.17815602 -0.047501385 0.05052786
000200 c6 6d ab b9 78 1f ef 3d ac c9 fc 3d 4c b7 fa 3d
       -0.0003269745 0.11675924 0.12343153 0.12241992
000210 f3 88 93 bd 2c 23 15 3e 46 24 11 3e ba a5 d0 3d
       -0.07203855 0.14564198 0.14173993 0.1018786
000220 44 16 dd 87 8b 57 eb 3d 9d cb e7 3d 39 41 22 3e
       -3.326547e-34 0.11491307 0.11318133 0.15845193
000230 55 03 49 3d 5c 0c ba bd 23 55 19 3d e8 f0 90 bd
       0.049075443 -0.090843886 0.03743471 -0.07077199
000240 fa 37 71 3d 89 d2 3d 3e e9 1a 1e be b0 46 29 3c
       0.058891274 0.18537344 -0.15439953 0.010331795
000250 74 8a 45 bd ed 23 00 00 b2 3c bd 3d 2f 48 dc bd
       -0.048227742 1.2888e-41 0.09240092 -0.107559554
000260 35 eb f9 3d fe 6e 98 bd cb ba 78 bd 31 7d db 3d
       0.12203065 -0.07443045 -0.060725015 0.10717238
000270 40 fb bf bd b6 26 00 00 cb 2b 00 80 cd 13 fa 3d
       -0.09374094 1.3887e-41 -1.571e-41 0.12210808
000280 f2 c1 e0 b9 e1 c6 9a bd 44 a4 4a bd 2b 83 1e be
       -0.0004286911 -0.075574644 -0.049473062 -0.15479724
000290 f5 c6 d4 3d d9 50 ea 3d 5b cc 1f be 9f 47 d5 3d
       0.103895105 0.11441202 -0.15605299 0.10414051
0002a0 1f 72 a3 bd dc b4 ec 3d eb be 9f bd b5 33 bd bd
       -0.07980751 0.11557934 -0.078000866 -0.09238378
0002b0 64 41 36 3e f2 73 14 3e c0 8e 98 24 83 8a 2a 3e
       0.17798382 0.14497355 6.616132e-17 0.166544
0002c0 59 be 65 39 61 eb af bd c6 d0 75 bd b4 6b b5 bd
       0.00021910052 -0.08589817 -0.060013555 -0.08858433
0002d0 13 82 93 bd 60 ad d0 3d 59 ac e0 3d b1 38 f0 bd
       -0.07202544 0.10189319 0.10970373 -0.11729563
0002e0 a2 8b 19 3c 3b ae b5 bd 86 9e af bb 17 1a f6 3d
       0.00937167 -0.088711224 -0.0053594736 0.12016695
0002f0 94 57 8e bd fa 24 ec 3d e2 aa d2 bd 9e 1d 9d 3d
       -0.06950298 0.1153049 -0.102864996 0.07671665
000300 bf a7 4b ba dc 3d 48 3e 54 b6 23 3e f2 63 4f 3d
       -0.00077688316 0.19554847 0.15987521 0.050632425
000310 e6 a3 ca bd 69 bc e4 3d 5a 6e 0a 3e 3e 82 e8 3d
       -0.098945424 0.11168749 0.13518658 0.11352967
000320 f8 5c 6f 0a 30 9c 1f 3e 70 4f 04 3e 21 6e aa 3d
       1.1524917e-32 0.15586925 0.12920928 0.08321787
000330 04 32 84 3c b4 84 df bd 8e 04 7d 3e ec 0b 8e bd
       0.01613713 -0.10913983 0.24708769 -0.06935868
000340 c3 5c 44 3d 27 19 62 3e f6 de 3d be d8 6c e0 3b
       0.047940027 0.22079907 -0.18542084 0.0068489127
000350 15 0b 96 bd 92 14 00 80 2e 41 08 3e c8 62 fa bd
       -0.073263325 -7.379e-42 0.13306114 -0.12225872
000360 e8 e7 64 3e 3e ac 1d be fb 4d a4 bd 11 b4 7b 3d
       0.2235409 -0.15397736 -0.08022686 0.06145102
000370 bc 52 bb bd a7 8b 00 80 66 9b 00 80 ab 0e 2c 3e
       -0.0914664 -5.0098e-41 -5.5746e-41 0.1680247
000380 3d b1 68 39 73 5e c6 bc 55 c3 4c bd 40 de ba bd
       0.0002219127 -0.024214959 -0.04999097 -0.09124422
000390 45 7c b0 3c 61 c7 2b 3e bf c9 d4 bd 71 02 01 3e
       0.021543631 0.16775276 -0.103900425 0.12598588
0003a0 55 9b 3e be d3 2e fc 3d 38 26 d5 bd 2e 88 23 be
       -0.18613942 0.123136185 -0.1040768 -0.15969917
0003b0 d1 32 83 3e 2e 96 ec 3d ac c5 70 36 7b 18 4b 3e
       0.25624707 0.11552082 3.5877847e-06 0.19833557
0003c0 a9 88 d3 b8 d9 0c 2e be c1 2a 12 be e5 74 18 be
       -0.00010086719 -0.16997088 -0.14274122 -0.14888342
0003d0 52 ab 00 be c4 bd 04 3e ae b1 13 3d 8f c4 40 be
       -0.12565354 0.12963015 0.03605812 -0.18824981
0003e0 3d 5b 1b 3e 7f d5 d1 bd 42 d0 c4 bc be 31 b8 3d
       0.15171523 -0.10245799 -0.024025086 0.089938626
0003f0 9a ea 80 be f5 33 0e 3e e6 71 f2 bd ee bb 10 3d
       -0.25178987 0.13887008 -0.11838131 0.035335474

encoder_c.convs.1.bias f4 [64]
000000 84 73 bf bc ad 46 96 3b d7 e5 ed 3b a9 88 8e 3c
       -0.023370512 0.004586062 0.007260065 0.017399149
000010 77 a7 dc 3b 06 e3 bf 3b dd 3c ed 3c 6a a8 66 3c
       0.0067338306 0.0058559207 0.028959686 0.014078239
000020 d3 ca d1 bc 3a 1e 77 3c df 7a 6a 3c 3e 8d 70 3c
       -0.02560941 0.01508289 0.014311521 0.014682112
000030 27 7e 29 3c 75 fb 6a 3c 44 bd c7 3c 4c f6 ba 3c
       0.0103450185 0.014342179 0.024382241 0.022822522
000040 00 dd 25 3c 0d 23 bf 3c 2e 81 c0 3b c1 44 e5 3c
       0.010123491 0.023332143 0.0058747744 0.027986886
000050 02 7d 74 bc b8 5f 9b bc 88 a0 6a 3c b7 ef d0 3c
       -0.014922382 -0.01896654 0.0143205 0.02550493
000060 44 6a 01 3d a8 58 a6 3c 06 6b 96 3c 9e 95 72 3c
       0.031595483 0.020305946 0.01836158 0.014806179
000070 54 c2 00 3c ad de b5 ba 61 06 06 bc a8 c9 83 3b
       0.007858831 -0.0013875567 -0.008180232 0.004021842
000080 3e 0e cd 3b bf 21 f7 39 f4 61 09 3d 05 64 1d 3c
       0.0062578013 0.00047136654 0.03354068 0.009606366
000090 33 a0 a1 3b dc a2 a6 3c c2 0b 8c 3b 9b 7e c7 3c
       0.0049324273 0.02034133 0.0042738626 0.024352362
0000a0 91 07 f1 3b eb 7e a2 3c 30 a0 a9 3b 00 57 3b 3b
       0.0073556383 0.01983591 0.0051765665 0.0028585792
0000b0 e2 d6 66 3c bb bc 75 3c 29 5b 5c bc 62 41 f2 3b
       0.014089318 0.01499861 -0.013449469 0.007393048
0000c0 e1 16 94 3a 13 78 f4 3a 88 81 f3 bb ad f9 9a bb
       0.0011298322 0.0018651508 -0.007431213 -0.0047294707
0000d0 e8 4e 99 3c 76 dd f5 3b 88 ed 97 3c a3 78 ba 3c
       0.018714383 0.007503207 0.01854588 0.022762602
0000e0 75 02 75 3c 7c 04 26 bc 64 a5 96 bb eb ef 5e 3c
       0.014954199 -0.010132905 -0.004597353 0.013607006
0000f0 31 e6 69 3c a2 eb ee 3c 67 01 9c 3a f8 70 03 3c
       0.014276073 0.029165093 0.0011902273 0.008022539

encoder_c.convs.2.weight f4 [64, 64]
000000 1e 55 34 bb c3 cd 2f ba 67 c5 50 3a a5 e5 49 bb
       -0.0027516554 -0.0006706381 0.00079639856 -0.0030807045
000010 3f 37 ea ba b7 f9 cf b9 38 d6 35 3a b2 d7 10 3b
       -0.0017869248 -0.0003966817 0.0006936523 0.002210122
000020 e7 30 6c 3b 73 05 60 bb a7 3a 19 3a 40 49 75 3b
       0.003603989 -0.0034182935 0.00058452267 0.0037427694
000030 e1 7a 7c 21 95 42 89 3b bd 95 cc 3a 52 14 31 bb
       8.554355e-19 0.0041888454 0.001560859 -0.0027020168
000040 60 15 80 b9 bc 12 73 3b c3 1b 58 bb 26 a1 99 ba
       -0.00024429988 0.0037090024 -0.0032975532 -0.0011721
000050 1d ba a7 3a 5f 85 b6 3a 56 75 85 bb 31 a1 da ba
       0.0012796555 0.0013925246 -0.0040728254 -0.0016680119
000060 fb 29 de 3a ba 14 08 3b c1 aa 26 bb 6b 78 4a bb
       0.0016949767 0.0020764307 -0.0025431367 -0.0030894529
000070 ac 15 5e 35 83 31 ac 3b 9b cb 34 3b dd 1a 92 3b
       8.273298e-07 0.0052549257 0.0027587179 0.0044587688
000080 09 db 2a 3a b9 b4 5d 3b 0b d7 67 3b b8 00 23 bb
       0.0006517624 0.0033829643 0.0035375978 -0.0024872255
000090 33 b3 0b 3c 70 ae 65 3a 8c b1 1a ba b2 62 8d ba
       0.008526611 0.000876165 -0.00059010903 -0.001078686
0000a0 7e 3e 89 3b 6f f6 3a bb 1b e7 1b bb 0c 1e 78 bb
       0.004188358 -0.0028528234 -0.0023788873 -0.0037859706
0000b0 f1 e3 39 b9 3a 85 8b 3b 42 17 a3 bb b6 c7 71 bb
       -0.0001772789 0.004257825 -0.004977138 -0.0036892719
0000c0 b0 e1 bf ba 9e 0d 8a b7 e4 11 53 bb 49 75 8c 3b
       -0.0014639404 -1.6457223e-05 -0.0032206709 0.0042864424
0000d0 e6 38 dc 3b bb 00 79 bb 4b ee 4e 3b b3 a6 4e 3b
       0.00672065 -0.003799482 0.003157514 0.0031532466
0000e0 75 78 8c ba 2b f2 e6 3a 9a 7f 01 3b 6c a9 ec 37
       -0.0010717051 0.0017619779 0.0019759894 2.8212286e-05
0000f0 5a 43 1c 3b 14 fb 55 bb af 2f 9f 3b 88 43 4c 3b
       0.0023843856 -0.0032650875 0.0048579792 0.0031168181
000100 fd 6c 16 3e cd 15 2c be e1 94 92 3c 41 59 26 bd
       0.14690013 -0.16805191 0.017893257 -0.040612463
000110 08 a6 2d bd 94 ae 03 bd 97 99 ed bd e3 db 07 bb
       -0.042394668 -0.032148913 -0.116015606 -0.0020730428
000120 59 ff 32 3c 6e 04 b2 bd 15 b5 14 be c6 e9 02 3e
       0.010925137 -0.08692251 -0.14522202 0.1278449
000130 a8 55 22 3b 02 d1 70 bd d0 6e ea 3d 9e c8 35 3b
       0.0024770293 -0.058793075 0.11446917 0.0027737985
000140 19 81 52 3d e4 aa b2 3d c0 d9 d8 bd 2e 80 f2 bd
       0.05139265 0.08724001 -0.105884075 -0.118408546
000150 f8 e6 b3 3d bb b8 bd 3d 82 db b9 3c a4 95 57 be
       0.08784288 0.0926375 0.022687677 -0.21053177
000160 ad f3 22 3d fd 8d 99 bd 5d 06 14 be 0c f7 a6 3d
       0.03978317 -0.07497785 -0.14455552 0.08152589
000170 09 0e 14 3d d4 54 c4 bd 2a 67 a7 bb 92 fd a5 bc
       0.036146197 -0.09586492 -0.0051087337 -0.020262513
000180 bb 54 15 be 71 cf 8d bd 9e 6a 1a 3e 2b 3b 12 be
       -0.14583103 -0.06924332 0.15079734 -0.14280383
000190 f6 95 69 3e d5 77 64 bc ad 73 f2 bd ae c4 13 be
       0.22811112 -0.013944586 -0.1183847 -0.14430496
0001a0 58 1d a9 bd d1 bf 83 3d ab 86 8d bd 4e c5 1d bc
       -0.0825755 0.064330705 -0.069104515 -0.009629561
0001b0 39 0c 1f bd 42 3e cd bd 6b e7 4f be a9 02 17 bb
       -0.038830016 -0.1002164 -0.20303123 -0.0023042357
0001c0 ce 60 40 be a5 51 56 3d 5c 1d 28 3e 87 fb bf bd
       -0.18786928 0.052323956 0.1641745 -0.09374147
0001d0 26 f5 94 3c bf 13 9c 3d 27 7a 9f bd c1 64 f8 bd
       0.018183302 0.07620954 -0.077869706 -0.12128592
0001e0 7f bb 0e 3c f7 b3 81 bd 53 8e 35 be 52 1a d9 3d
       0.008711695 -0.06333154 -0.17730074 0.10600723
0001f0 e4 23 17 3d 2c cf f7 bd 6e 59 e4 3d db 20 2c 3d
       0.036899462 -0.12100062 0.1114987 0.04202352
000200 fe 3d 05 bd 50 87 38 bd 5d 1f b5 3d 24 c5 20 bd
       -0.032529823 -0.04505092 0.08843873 -0.039250508
000210 9c f8 60 bd 6e ae d1 bd 47 d7 c7 3c 88 ff 22 bd
       -0.054924592 -0.10238348 0.024394644 -0.039794475
000220 e2 ef 58 3c 98 84 1d bd 08 0c 2e bd b5 0e 38 3d
       0.013240786 -0.03845653 -0.042491943 0.0449359
000230 26 1c af bb f2 fe 28 bd b5 f8 58 bc 5c d0 33 be
       -0.0053439317 -0.04125876 -0.01324289 -0.17559952
000240 98 d4 78 bc 35 ca 42 3d 3b 52 17 be 86 8e 64 bd
       -0.015187405 0.04755612 -0.14777462 -0.055799983
000250 5f ed dc 3c 7c 8f cf 3d 85 08 60 bd c8 65 8b bd
       0.026968656 0.10134789 -0.054695625 -0.068065226
000260 65 c6 00 3e c9 3f 24 3d 36 0d 0e 3d 1b e2 d1 bc
       0.12575682 0.040099893 0.034680568 -0.02562051
000270 cd 3c 0f bb 58 6c a5 3d 48 4e 26 3e a3 df 52 bd
       -0.0021856308 0.080773056 0.162408 -0.051482808
000280 22 77 b5 bc 66 96 a8 3d 9e e7 27 bd b5 d1 b7 bd
       -0.022151534 0.08231811 -0.04099237 -0.08975545
000290 51 ff 08 3e 95 83 b4 3c d5 09 cc 3b cd f9 0a bd
       0.13378645 0.0220354 0.006226758 -0.033929635
0002a0 34 30 f0 3d e7 33 f7 bc 16 ce 0d bc 9a 8f 3f bd
       0.11727944 -0.030176116 -0.008655092 -0.04676781
0002b0 5c 17 43 bd ed b8 08 3e 17 d2 08 bc 20 1d 8a bd
       -0.0476297 0.13351794 -0.008350871 -0.067438364
0002c0 ba 52 c9 bd 16 a6 52 bd af 95 52 3c 9f 4b 96 3d
       -0.09830232 -0.051427923 0.01285307 0.07338642
0002d0 9b 4b 34 bd ef 6d 4d bd 5b 25 5d bd b9 ce 0f 3d
       -0.044017415 -0.05015367 -0.053990703 0.035109255
0002e0 67 11 36 bc 38 d5 84 3d 35 10 8d bc 5f e0 2c bb
       -0.0111125475 0.06485981 -0.017219642 -0.0026378853
0002f0 11 e0 1e 3d a3 e1 97 3a a6 8b 67 3d 1a a9 a2 3d
       0.038787905 0.0011587631 0.056529664 0.0794241
000300 9c 9c b7 3d 71 c3 10 bd fa b8 4c 3e c2 e3 ad 3d
       0.08965418 -0.035342637 0.19992438 0.08490707
000310 d1 76 0f be 78 23 10 bc a4 72 56 bd 4d 60 57 be
       -0.14010169 -0.008797519 -0.052355424 -0.2103283
000320 42 ed b0 3d 37 bb 9f 3d 72 0b 82 3c e7 17 ea 3d
       0.08639003 0.0779938 0.015874598 0.1143034
000330 86 7b f0 bc c0 19 34 be 7d df 57 3e a3 80 67 bc
       -0.029355776 -0.17587948 0.21081348 -0.0141297905
000340 21 b0 26 bd 7a e6 f3 3d 5b d8 4c be 78 58 27 bd
       -0.040695313 0.11909194 -0.20004408 -0.040855855
000350 76 77 9d bd 10 e3 06 be 79 17 1f 3e d3 32 7a 3d
       -0.07688801 -0.13172555 0.15536298 0.061083626
000360 1e 63 cb 3d c8 56 ce 3c e6 1e d8 3d 45 39 a6 bd
       0.099310145 0.025187865 0.105527684 -0.08116392
000370 a5 c9 07 bd f0 0d 90 3d 83 b9 be 3d 61 e5 48 3e
       -0.033151288 0.07033908 0.09312727 0.19618751
000380 5e 53 df 3d 89 da f0 bd 3b 90 d3 3c 14 44 2f be
       0.10904573 -0.11760432 0.02582561 -0.17115813
000390 85 e5 aa bc 74 ad b2 bd 39 ae d3 bd 09 30 34 be
       -0.020861397 -0.0872449 -0.10335965 -0.17596449
0003a0 b7 6c 3d 3e f0 7f 70 bd f3 0d 2e be 92 7c a7 bc
       0.18498503 -0.05871576 -0.16997509 -0.020445142
0003b0 71 d2 0c be 38 a7 2e 3e e0 fd 1b 3e 64 59 e9 3d
       -0.13752152 0.17055976 0.15233564 0.11394003
0003c0 ce ad 43 3e 55 ea a4 3d 4f 79 49 bd 8f 3a 16 3e
       0.1910927 0.08052508 -0.049187955 0.14670776
0003d0 40 0c dd bd 89 6e 55 be a0 bc 1b 3e 83 60 22 3e
       -0.10793352 -0.20842947 0.15208673 0.15857129
0003e0 a5 ea c0 3d 9e 50 2e be a4 c2 b1 3d 1d 46 e4 bd
       0.09419755 -0.1702294 0.08679703 -0.111461855
0003f0 bd fb 0c bd f4 53 50 3d 68 e3 00 3e e0 45 dc bd
       -0.034419764 0.050861314 0.12586749 -0.10755515

encoder_c.convs.2.bias f4 [64]
000000 2d f6 b9 3b fc ab 8e bc 71 7e 8c 3c d8 a0 15 3a
       0.0056750984 -0.017415993 0.017150136 0.00057078665
000010 ac fc 25 bc 11 0c ac bc 6a f9 53 bc 25 6a 8f bc
       -0.010131042 -0.021001847 -0.012937883 -0.017506668
000020 5c fc 8b 3b 28 6b c8 3a ae 57 b8 bc 0c 99 a8 39
       0.004272027 0.0015290724 -0.022502746 0.00032157486
000030 ef 60 1e 3d 55 3b f1 b9 a6 de 5c 3c e8 b9 8c ba
       0.03866666 -0.00046011308 0.013480818 -0.0010736557
000040 55 3c bb 39 bb 3b 53 b9 4d 88 12 bc 22 04 2b bc
       0.0003571237 -0.0002014478 -0.008943629 -0.010437997
000050 09 bf 43 ba 22 b5 11 3c e2 83 86 3a 99 86 f8 b9
       -0.0007467126 0.008893283 0.0010262693 -0.0004740253
000060 14 a4 10 3c 12 aa 73 3b c5 63 12 3c 87 81 dd 3a
       0.008828182 0.0037180227 0.00893492 0.0016899564
000070 e0 db e5 bc 61 38 49 39 c2 66 2c 3c 00 c0 ef 3a
       -0.028058946 0.00019189857 0.010522546 0.0018291473
000080 10 9f fa b8 9c a1 c6 ba 5b af de ba 9c 00 4f 3a
       -0.00011950557 -0.0015154365 -0.0016989516 0.0007896514
000090 d5 09 7e 3a f0 20 3c bc 41 50 9f 3a a9 3a 5b bc
       0.0009690796 -0.011482462 0.0012154655 -0.013380685
0000a0 89 b2 74 ba b3 b5 4f ba 9d 07 98 bb fc 52 c3 3b
       -0.0009334465 -0.00079234986 -0.0046395794 0.0059608202
0000b0 d0 8f 5c bc c1 1b 9d ba 11 a6 a4 b9 32 ad 75 ba
       -0.013462022 -0.0011986421 -0.00031404247 -0.00093718164
0000c0 c5 a1 24 3c 79 23 93 bc 84 2a 56 3b e9 3c 61 bb
       0.0100483345 -0.01796125 0.003267915 -0.003436858
0000d0 ff 21 35 3b c6 79 d0 38 07 80 06 bc 3f 08 f5 3a
       0.0027638671 9.940895e-05 -0.008209235 0.0018694474
0000e0 f3 9a 8c 3c bb 40 72 bc 4f bf 6e bc e6 fe cb bc
       0.01716373 -0.014785941 -0.014571979 -0.024901818
0000f0 70 2f 81 ba 8a 36 23 3b d9 ba 03 3b 50 f5 da bb
       -0.0009856056 0.0024904334 0.0020100384 -0.0066820756

encoder_b.convs.0.weight f4 [116, 64]
000000 49 32 36 3d 7b 01 00 80 fe f2 ff 3d 80 ae 45 3d
       0.04448155 -5.31e-43 0.12497519 0.04826212
000010 95 21 13 bd 2e c5 29 bc 08 03 07 bd 6b 31 1d b1
       -0.0359207 -0.010361953 -0.032961875 -2.2874598e-09
000020 72 18 de 3c 27 64 68 23 69 a4 1a bc 2a 60 21 3d
       0.027111266 1.2597953e-17 -0.0094386125 0.03939835
000030 15 b5 a3 ba b1 93 60 bd 6b d2 45 3d 0e f0 14 3d
       -0.001248988 -0.05482835 0.048296373 0.036361746
000040 71 87 eb bb f2 32 88 bd ce 09 76 8e 83 02 2c 9d
       -0.0071877767 -0.06650342 -3.0326562e-30 -2.2765309e-21
000050 30 0b 74 3d f9 43 e8 bc 78 31 41 0c c3 13 05 3d
       0.05958098 -0.028352724 1.4883066e-31 0.03248955
000060 6d d1 65 3c 98 61 30 3c 9f 6d 8d 3d 06 62 28 bd
       0.014026982 0.010765456 0.06905674 -0.041109107
000070 2f ab 3a 3d a1 2e 79 bd 3e f3 89 bb de 00 16 3b
       0.04557341 -0.060835484 -0.004209905 0.00228887
000080 77 d1 dd 3c c1 9b b1 3b 60 35 b2 3c a7 5b 13 2d
       0.02707742 0.0054201786 0.021753967 8.3763335e-12
000090 75 1c fc ba 88 30 8f bd df 4b d0 bc a5 30 61 a0
       -0.0019234555 -0.069916785 -0.025426803 -1.9074336e-19
0000a0 e0 fa 3d b9 49 30 c7 ba 9c 5e 9f 3d 90 c6 7e bc
       -0.00018117903 -0.0015196885 0.07781717 -0.015550271
0000b0 45 6c 2c bd 5c 10 51 3c 27 67 36 3b 74 4b 55 b8
       -0.04209544 0.012760248 0.002783248 -5.085343e-05
0000c0 7d c8 76 bb 78 48 94 2c 2f 80 d2 3d 1d 02 00 bd
       -0.0037656121 4.2144586e-12 0.10278355 -0.031252015
0000d0 74 21 00 80 51 9b a0 bb b8 33 bc 3c 58 32 12 3d
       -1.2001e-41 -0.0049013277 0.02297388 0.035692543
0000e0 6b e2 b5 b8 ec 86 1f b9 8d 3a 8b 3c 9a a9 ae 3b
       -8.672926e-05 -0.00015213684 0.016995693 0.0053302767
0000f0 77 c0 e0 3a 98 5f ed 32 0d 66 12 3d 93 3e 03 be
       0.0017147203 2.7633902e-08 0.035741854 -0.12816839
000100 ef e3 63 3d 22 40 b8 12 3e f1 59 bd 56 a3 ca 3b
       0.055637296 1.16278425e-27 -0.053208582 0.006184022
000110 60 bb 29 bc 35 a7 fb 3c 76 3b 9a bd 11 10 00 80
       -0.010359615 0.030719379 -0.075308725 -5.764e-42
000120 a4 d3 53 3c 45 dd 72 a1 94 07 5b 39 b5 f4 d5 bc
       0.012928877 -8.2285637e-19 0.0002088829 -0.026117662
000130 76 35 4f ba 7f 1b da 3c 07 a7 cc bc 41 99 00 3d
       -0.00079043896 0.02662444 -0.024981989 0.031396154
000140 16 5d d7 3c e1 34 52 bd 68 80 ee 9e e5 21 87 9f
       0.026289504 -0.05131996 -2.5252338e-20 -5.72308e-20
000150 75 58 3e bc 0a f5 a7 bc b0 5e 3b 2a 2f eb 80 3d
       -0.0116177695 -0.020502586 1.6641788e-13 0.06294858
000160 40 36 87 bb 7e e2 c4 3b 2e 89 da bc 58 f2 56 bd
       -0.00412634 0.0060084453 -0.02667674 -0.05247721
000170 bc cc 28 3d ec bf b3 bd 99 fe bd bd e3 54 03 3c
       0.041210875 -0.087768406 -0.09277076 0.008015844
000180 24 57 e3 3c cc 24 bc 3c d4 a3 15 3d 99 35 a9 a8
       0.027751513 0.022966765 0.03653319 -1.8786013e-14
000190 18 24 ac ba 8e 8f c7 bd a0 32 a9 ba 4c 51 84 a8
       -0.0013133315 -0.09744178 -0.0012908764 -1.46902e-14
0001a0 24 75 a2 3b 0d 19 5c ba 3d f9 9a 3d 64 1f f2 3d
       0.004957812 -0.0008396067 0.0756707 0.118223935
0001b0 72 e0 e8 bc 82 c5 b4 3c 0d d2 c5 3c 4b 3c 89 b8
       -0.028427336 0.022066835 0.024148012 -6.5438995e-05
0001c0 81 5b fb ba e8 70 03 36 47 9b 36 bd 84 75 2e 3c
       -0.001917705 1.9586241e-06 -0.044581678 0.010648135
0001d0 5a 5b 4d 99 74 7c 0a bd fd ee a6 3c 63 a3 e8 3b
       -1.06167e-23 -0.033810094 0.02037763 0.0070995553
0001e0 df 56 39 b8 36 a6 2c b9 b0 de ab 3b ad da 16 bd
       -4.4188342e-05 -0.00016465117 0.0052450523 -0.03682964
0001f0 8d cf 2a 3c e7 3e 66 1f bf 9e 5c 3c 13 5a cd 3b
       0.0104254605 4.8756426e-20 0.013465582 0.006266841
000200 ca 6c 06 3d 1d 05 00 00 e2 73 c8 bd 52 5f 3b bc
       0.032818593 1.834e-42 -0.09787728 -0.0114363
000210 46 bc 74 bc 29 db c7 3c 5a 6a 83 3d 8a 11 00 80
       -0.014937466 0.024396496 0.06416769 -6.292e-42
000220 df d6 05 bd 12 fd a8 8f a7 e5 84 3c 24 ca f0 bc
       -0.03267562 -1.6663558e-29 0.016222788 -0.029393263
000230 6d 5a 78 ba 2c 2d 22 bd 12 41 60 3c 84 7c 00 ba
       -0.0009473924 -0.03959386 0.013687389 -0.0004901367
000240 69 df 74 bd a4 be 4f 3d 37 fe 2a 2c d2 50 7a a3
       -0.059783373 0.05071892 2.429957e-12 -1.35696415e-17
000250 1d 65 5e bd 5f 93 11 3c 08 fd d6 a0 5f 60 85 ba
       -0.054295648 0.008885234 -3.6420452e-19 -0.0010175816
000260 5e 2c 8f bb 3e a9 92 bb df c5 9e 3d 5d fc 8b bc
       -0.0043693027 -0.0044757416 0.07752585 -0.01708811
000270 1d 04 1c bd e4 ae 1d 3d a5 c0 d4 3c da fc 2e bc
       -0.03808986 0.038496867 0.025970766 -0.010680402
000280 c1 c2 0c bc d5 57 9e bc fb 31 9a 3d c4 18 a3 a9
       -0.008591355 -0.019328991 0.07529064 -7.24295e-14
000290 b1 d6 aa ba 8d 43 6f bd b2 cb 82 3d b0 71 d1 a2
       -0.0013033954 -0.05841403 0.06386508 -5.6769935e-18
0002a0 76 88 81 bc a8 e3 7e ba 58 67 07 bd 3a 41 8b bd
       -0.01581214 -0.00097232545 -0.03305754 -0.0679955
0002b0 1a b1 b7 3c f1 1a 89 bc 84 3e 81 3c c2 0e d4 b7
       0.022423316 -0.01673648 0.01577688 -2.5279242e-05
0002c0 83 bf 0b bb f3 a3 c7 b4 c9 21 de 3d b7 05 ce 3c
       -0.0021323867 -3.7185927e-07 0.10846288 0.02514921
0002d0 f7 85 e5 9f 8d c6 8b 3c 3d 6f 11 bc 14 cb 06 bd
       -9.72069e-20 0.01706245 -0.008876619 -0.032908514
0002e0 63 78 85 b8 6b a5 06 b9 f0 36 b8 3b 96 4f a8 bc
       -6.364358e-05 -0.00012840859 0.0056217834 -0.020545762
0002f0 f2 6f 1c bd 12 e6 60 a3 03 d3 f7 bc 55 b2 20 bd
       -0.038192697 -1.2191784e-17 -0.030251985 -0.03923257
000300 44 22 43 bc fe 00 00 00 c0 2d ca bd 0d 50 b8 bc
       -0.011910025 3.56e-43 -0.09872007 -0.022499109
000310 d0 b9 fc 3c 07 56 ff bc 8f 91 2a 3d 87 c3 56 ac
       0.030850321 -0.03116895 0.04164272 -3.0519769e-12
000320 9e 9a 5a 3d d0 2a ae 98 5c 76 6f bc 4e 95 98 bc
       0.05337011 -4.5021175e-24 -0.014615621 -0.018625882
000330 7d 2a 6f ba 9f 64 f6 3b 7c 10 e1 3d 9b fe 03 3c
       -0.0009123458 0.007519319 0.10989472 0.008056308
000340 ad 9b 9a bd ce 02 68 bd 49 7f 0e b4 30 d4 eb a8
       -0.07549224 -0.0566433 -1.3271087e-07 -2.6182263e-14
000350 15 f9 4d 3d b8 d8 c3 3c 87 91 74 35 e4 6b 19 bd
       0.05028637 0.02390705 9.1108853e-07 -0.03745641
000360 fb 58 00 bc 5f 6f 98 3c 8c fd 4d bd 34 34 38 3c
       -0.007833715 0.018607793 -0.05029063 0.011242915
000370 1b 1a 33 bc 3f 53 92 3d 30 9b 86 bd bc b0 de bb
       -0.010931517 0.07144784 -0.065725684 -0.0067959707
000380 89 32 f7 bb c6 01 55 bd 56 e4 07 bd af 7f ee b3
       -0.007543866 -0.052003644 -0.033176742 -1.1105964e-07
000390 90 94 aa ba 64 c1 8e 3c e9 ca 03 bd d5 9f 9d 31
       -0.0013014246 0.0174262 -0.032175932 4.587472e-09
0003a0 35 23 f8 3c b3 bb 79 ba 4b d1 87 bd 12 c2 8a 3c
       0.030290226 -0.00095265656 -0.06631716 0.016938243
0003b0 47 06 d8 3c 3c b7 99 bc af c8 c3 3c f5 79 0b b8
       0.02637018 -0.01876413 0.023899404 -3.3253764e-05
0003c0 ed 29 ed ba ce 55 05 30 5c 22 c7 3d 9c 88 52 3d
       -0.001809416 4.8507054e-10 0.097233504 0.051399812
0003d0 9b b3 bd a3 ad 54 85 3c e6 bd c6 bb 9d ba 08 bd
       -2.0567487e-17 0.016275728 -0.006065118 -0.033381093
0003e0 52 8c 61 b8 db e3 15 b9 03 53 62 bb a7 ac 7f 3d
       -5.3774864e-05 -0.0001429463 -0.0034534342 0.062420513
0003f0 02 20 10 bd 46 e2 34 b1 ec 86 bc 3c f5 2a 97 bd
       -0.035186775 -2.632207e-09 0.023013555 -0.0738124

encoder_b.convs.0.bias f4 [64]
000000 3b 4a 86 39 36 9b 1c bc 20 95 a2 3c a6 79 9a 3c
       0.00025613778 -0.00955849 0.019846499 0.018856835
000010 88 fe cc bc 00 b9 dc bc 24 c5 8a 3c e7 a5 64 bc
       -0.025023714 -0.026943684 0.016939707 -0.01395557
000020 d1 3a 69 3c 24 21 3a bc 20 3e 9c 3c de fb c2 3b
       0.014235214 -0.01136044 0.019072592 0.005950435
000030 5d 1a 20 3c 06 53 fd 3c fd 02 9c 3c 93 d6 96 bb
       0.0097719105 0.030923378 0.019044394 -0.004603216
000040 ab 4b 82 3c ad 7c ba 3c 83 88 da bc c8 ca c2 bc
       0.015905222 0.022764528 -0.026676422 -0.023778334
000050 96 36 b2 3c 9d 2d 17 3c 14 b7 79 bc 62 a3 1a 3d
       0.021754544 0.009227184 -0.015241403 0.03775347
000060 7a 80 79 3c 13 b6 60 bc 7e f3 af 3b 3a 89 a7 3c
       0.015228385 -0.013715285 0.0053696027 0.020451177
000070 29 f1 2c 3d c2 c3 e4 3c d6 4d 02 3c 44 18 eb 3c
       0.042222176 0.027925376 0.007953128 0.028698094
000080 d6 04 ff 3b e9 fe 9b 3c 9f 00 38 3b 6a 43 1d bc
       0.007782559 0.01904245 0.0028076542 -0.009598592
000090 cc 3e e0 3b 63 69 b5 3c cf 33 a1 bc 08 e2 a1 bc
       0.0068434235 0.022144979 -0.019678025 -0.0197611
0000a0 5e 04 55 3d 1c 1f 0b 3c b4 6f 91 3c e7 4c 0f 3d
       0.052006118 0.008491304 0.01775346 0.03498545
0000b0 e1 14 e2 3b 11 48 0f bc ec 92 b1 bc 09 e4 36 3a
       0.0068994616 -0.008745209 -0.021676503 0.0006976729
0000c0 20 cd 14 3d 52 35 c0 bc 34 f9 14 3d e6 07 fe bc
       0.036328435 -0.023462925 0.03637047 -0.031009626
0000d0 c4 09 9c bc f9 72 3e 3d 3a 15 0c 3c 86 32 2c 3c
       -0.019047625 0.046496365 0.008549983 0.010510093
0000e0 47 4a f5 39 a3 d5 18 3b 93 ba ee ba 6c 0b 58 bc
       0.00046785382 0.0023320697 -0.0018213562 -0.013186317
0000f0 54 5e da 3c e5 7b 00 bc 6d 64 a8 3b ac b1 96 3b
       0.026656307 -0.007842039 0.005138925 0.004598817

encoder_b.convs.1.weight f4 [64, 64]
000000 9b 12 47 36 d2 7a 88 bd be c8 6a 3d 27 2a a7 37
       2.966414e-06 -0.06664051 0.05732035 1.992758e-05
000010 70 56 44 a2 b7 5d b4 bc ee 09 de 3c 07 dd 46 3d
       -2.6608713e-18 -0.022017343 0.027104344 0.04855063
000020 cf 49 73 bd 83 c2 76 36 4e 46 88 3a 2b 39 00 80
       -0.05939656 3.6770077e-06 0.0010396929 -2.0508e-41
000030 a4 c5 b4 3c 5f 2c 00 00 3b b7 14 bd 2d 73 b1 3d
       0.022066899 1.5917e-41 -0.036307555 0.08664546
000040 c5 a7 21 3d 4c 7c 0e bd 51 2f 6c 3d 1f 9d b6 3d
       0.039466638 -0.034786507 0.057662312 0.08916687
000050 dd e7 81 3c df 6f 05 bd c2 0e 2c bd 18 82 6c bd
       0.015857631 -0.03257739 -0.04200626 -0.057741255
000060 f8 f9 6f 3d da 28 9b 31 8a a8 20 b9 14 18 87 3d
       0.058588 4.515738e-09 -0.00015321575 0.065963894
000070 91 77 8e 26 95 8c bb 3c 3a 13 0f 3d a7 32 10 b5
       9.885638e-16 0.022894183 0.034930445 -5.371789e-07
000080 38 b5 e7 bc 0c 8b 36 bd a9 18 a4 bc e6 4a 24 22
       -0.028284654 -0.0445662 -0.02003129 2.2265795e-18
000090 75 8f 3c 3d da 58 b6 bc 2c b8 b6 bc ea f9 57 3c
       0.04603525 -0.022259165 -0.022304617 0.013182143
0000a0 a7 1e 32 3d df 74 d4 3c 4a 71 88 bd 53 4e ce ae
       0.043486264 0.025934635 -0.06662233 -9.3817086e-11
0000b0 be 1f ee bc 67 67 9a bd 83 2b dd 3c 0e 97 15 3d
       -0.02906787 -0.07539254 0.026998287 0.03652101
0000c0 84 31 83 3d cc b5 b6 32 c2 0e ce bd 89 fa 60 3d
       0.06405929 2.127026e-08 -0.100614086 0.05492643
0000d0 2c 9f 49 3d 52 44 e0 3c fa 2a 58 3d c3 36 07 bd
       0.049224064 0.027376328 0.05277536 -0.03301121
0000e0 ca 68 3c bc 33 47 91 bd 55 16 94 11 da be 86 bd
       -0.011499593 -0.07093658 2.3364046e-28 -0.06579371
0000f0 ff ab f9 b5 48 e5 4a 3d 1f 87 7d bd 37 21 8d 3d
       -1.8602003e-06 0.049535066 -0.06189644 0.06891101
000100 3f f2 00 2d a8 83 27 09 d0 37 98 a6 42 7f 02 37
       7.329747e-12 2.0163798e-33 -1.0562247e-15 7.778233e-06
000110 7e 7e 8d 34 ef 1d 29 08 fa 22 00 00 26 7c da 33
       2.6355332e-07 5.0891774e-34 1.2547e-41 1.01739985e-07
000120 6c ef 3b 34 1a 0f 00 80 6c f2 25 81 bb e6 a8 0c
       1.7502833e-07 -5.417e-42 -3.0479643e-38 2.6023364e-31
000130 2e 4c d9 a0 da 1d 00 00 b5 38 c5 a7 82 fb df b4
       -3.6811641e-19 1.0709e-41 -5.4739966e-15 -4.1719983e-07
000140 b8 7a db 80 2e 64 fe 9a b8 04 00 00 69 55 0c b2
       -2.0155997e-38 -1.05213787e-22 1.693e-42 -8.1684925e-09
000150 42 09 5b 34 7e ba 27 9c e8 8d ce 0a e5 9d 07 2e
       2.0399332e-07 -5.54967e-22 1.9890458e-32 3.0835685e-11
000160 bc 17 01 b2 37 1d 00 80 2c 17 00 00 1c 03 a5 b0
       -7.514185e-09 -1.048e-41 8.313e-42 -1.2006214e-09
000170 00 0d 00 80 d3 04 00 00 f5 d0 e0 36 98 d4 4f a0
       -4.664e-42 1.73e-42 6.700046e-06 -1.7603923e-19
000180 de d4 b4 b3 e3 af 47 2c 4c 12 00 80 a8 09 00 00
       -8.4206235e-08 2.8377238e-12 -6.564e-42 3.464e-42
000190 0d 05 00 00 4f 5b d2 b6 21 32 00 00 ef 09 00 80
       1.812e-42 -6.2691174e-06 1.7983e-41 -3.564e-42
0001a0 d2 ba a7 1f ea 10 00 00 11 53 e5 2b 09 e0 14 35
       7.103632e-20 6.068e-42 1.6294484e-12 5.546031e-07
0001b0 37 3e 00 00 dd f7 c3 a9 54 94 1e b4 c8 0f ba 32
       2.2318e-41 -8.702737e-14 -1.4768858e-07 2.1660426e-08
0001c0 89 06 00 80 15 89 ba b5 72 19 fb 9c 4a 12 bd b6
       -2.344e-42 -1.3897976e-06 -1.6616364e-21 -5.634768e-06
0001d0 c4 da 1b 9a 8c ad 09 2f 89 72 19 ac 55 17 8c b6
       -3.2229966e-23 1.2521734e-10 -2.1806187e-12 -4.1750413e-06
0001e0 af 7d 01 b1 67 cb e3 b2 e9 23 8c 33 69 24 00 00
       -1.8843413e-09 -2.6518775e-08 6.52579e-08 1.3062e-41
0001f0 cb 07 00 80 31 16 00 00 04 1d 00 80 6a 12 00 00
       -2.796e-42 7.961e-42 -1.0409e-41 6.606e-42
000200 f5 ef 5c 30 31 4b 8e bd b8 2d a6 3d c8 7f be b6
       8.0376533e-10 -0.069479354 0.08114189 -5.677317e-06
000210 49 60 62 36 b8 70 d7 bc d4 0b f0 3d 01 3d 61 3d
       3.373267e-06 -0.026298866 0.11721006 0.05498982
000220 ec cc 14 be 55 32 00 00 e6 ca eb 3d a3 ca 59 1f
       -0.14531296 1.8056e-41 0.11513309 4.6119155e-20
000230 8c 20 9e 3d 07 d7 d3 b6 99 17 10 be f8 ea 1a 3e
       0.077210516 -6.3133225e-06 -0.14071502 0.15128696
000240 4d 5a 4d 3d 38 18 22 bd a0 c2 86 3d 2e b7 e5 3d
       0.050134946 -0.039573878 0.065800905 0.112165794
000250 f1 28 ad 3d 9f 71 5f bc 09 09 17 bd e7 d5 5c bd
       0.084550746 -0.013637929 -0.03687385 -0.05391493
000260 03 93 85 3d 09 d6 71 b3 f6 d7 43 bb b3 99 ba 3d
       0.06522181 -5.630685e-08 -0.0029883361 0.09111347
000270 7f 9b f1 ab ef 9d 01 3d 5c b7 2d 3d 53 d3 13 81
       -1.7167239e-12 0.031644758 0.042411193 -2.7151254e-38
000280 50 ef 50 bd 04 04 ec bd e6 89 ed bc 07 fd 06 36
       -0.051009476 -0.115242034 -0.02899642 2.0114837e-06
000290 87 dd 41 3d 73 c8 10 bd 8a 21 12 bd 35 11 13 3d
       0.047330406 -0.035347413 -0.035676517 0.03590508
0002a0 79 5b 77 3d 08 e3 0a 3d b8 66 17 bb 99 80 e1 b6
       0.06038997 0.03390792 -0.0023101997 -6.7204933e-06
0002b0 d9 35 1f bd 66 6b 81 bd 5e 73 14 3d 1f de c7 3d
       -0.038869713 -0.06319313 0.036242835 0.09759163
0002c0 f9 6d 6a 3d 97 e9 f6 36 46 70 91 bc 28 25 ad 3d
       0.057233784 7.3585647e-06 -0.017753731 0.084543526
0002d0 52 f6 bd 3c 44 88 14 3d d7 73 8e 3d 5f 49 5d bd
       0.023188744 0.036262766 0.069556884 -0.05402505
0002e0 4e d8 8d bc a6 94 d0 bd de cd 8f b2 64 c3 c1 bd
       -0.017315056 -0.101846024 -1.6741009e-08 -0.09461096
0002f0 db 3b 79 36 33 0d 7c 3d 8d 7b c6 bd 96 d7 22 3d
       3.7138732e-06 0.061536025 -0.09691534 0.03975638
000300 4c c1 00 00 92 91 4d bd a2 ba 3e 3d 80 00 4c b6
       6.9342e-41 -0.050187655 0.046564706 -3.039866e-06
000310 99 d1 81 9a c9 eb fb bc d2 94 4c 3d 53 25 42 3d
       -5.369177e-23 -0.03075208 0.049946614 0.047398876
000320 50 ff 74 bd d8 c4 8b 31 3b a8 a6 3c 41 26 00 80
       -0.059813797 4.067811e-09 0.02034389 -1.3723e-41
000330 78 0e ec 3c 72 41 00 00 c8 b7 2b bd 60 f3 66 3d
       0.028815493 2.3477e-41 -0.041923314 0.056384444
000340 de 64 29 3d 88 f1 0d bd be eb 3f 3d 2e ce 82 3d
       0.04135596 -0.03465417 0.04685568 0.06386982
000350 98 6c 94 3c b2 df 2d bd 8d 09 24 bd ce e0 44 bd
       0.018118188 -0.04244966 -0.04004817 -0.048065953
000360 cb e8 58 3d 92 61 61 84 1a 70 19 bc b8 1c 21 3d
       0.052956384 -2.6493425e-36 -0.009365106 0.03933403
000370 35 56 5b b3 e8 84 d5 3c 79 3e 17 3d 59 1a 00 80
       -5.1068316e-08 0.026064351 0.036924813 -9.452e-42
000380 f5 32 2e bd a8 8f 9d bd 3e ac e2 bb dc a7 fe 88
       -0.042529065 -0.07693416 -0.0069175055 -1.53265325e-33
000390 14 c9 50 3d 32 b3 d5 bc 00 df d6 bc a1 86 21 3c
       0.050973013 -0.026086424 -0.026229382 0.009858758
0003a0 bc 83 39 3d f9 8d e8 3c 06 92 ba bc 57 ae 19 13
       0.045291647 0.02838801 -0.022774708 1.9397271e-27
0003b0 4a ce ff bc c1 bc 6c bd ef ca f5 3c f2 22 30 3d
       -0.031226296 -0.057797197 0.030003993 0.043002076
0003c0 9a eb 41 3d 89 b6 cd 2a 9f 6d 08 bd bb c6 54 3d
       0.047343828 3.6541974e-13 -0.033307668 0.051947337
0003d0 32 51 51 3d 3e 07 f9 3c 3e 66 4c 3d 69 ec 31 bd
       0.051102825 0.030398961 0.049902193 -0.04343835
0003e0 a6 8a 55 bc aa 98 81 bd 1e 90 bf aa c5 f0 79 bd
       -0.013033545 -0.063279465 -3.4028417e-13 -0.06102063
0003f0 45 8b 92 9e 09 f0 54 3d 34 00 33 bb a0 0e 53 3d
       -1.5515952e-20 0.051986728 -0.0027313353 0.05152762

encoder_b.convs.1.bias f4 [64]
000000 c9 75 31 bc dc 6a e1 3c fa e3 24 3d 82 96 ae bc
       -0.010831305 0.027516775 0.040256478 -0.021312002
000010 77 73 48 bc 46 0b a8 bc cd 9b 97 3b b6 15 2c 3d
       -0.01223456 -0.020513188 0.004626727 0.042012893
000020 d7 58 0a bd e4 17 2f bc 0a 7a ba 3c d4 1a f0 ba
       -0.03377613 -0.010686848 0.02276327 -0.0018318542
000030 02 d7 3a 3d 6f 46 f6 b9 3e 0a b2 3c 9c 93 75 3c
       0.045615204 -0.00046973253 0.0217334 0.014988806
000040 82 9c 0d 3d 06 b5 a7 3d 0a 31 d9 3c 3c 62 e7 3c
       0.034573086 0.08188824 0.026512641 0.028245084
000050 34 d3 52 3d f8 3e 06 bb a8 0b 85 3c c7 9d ac 3c
       0.05147095 -0.002048431 0.01624091 0.021071328
000060 dc d8 22 3d 8a cf 99 bc d9 9d 60 3c 00 5a 6c 3d
       0.039757594 -0.01877572 0.013709509 0.05770302
000070 fb e6 19 bc 3b 0e e2 3c a9 77 cb 3c 89 48 2c bc
       -0.009393449 0.027594676 0.024837332 -0.010515341
000080 87 be 3f 3d d2 15 1f 3c 0c c9 19 3d ba 23 7b bc
       0.04681256 0.009709792 0.03754525 -0.015328342
000090 d9 be 8c 3d a0 c5 bd bc 4d d1 6c 3d 9d 1e 21 bc
       0.06872339 -0.023165524 0.057816792 -0.009833959
0000a0 e4 b5 f9 3c ea a9 07 3d 39 44 cc 3c ce b7 a4 bc
       0.03048224 0.033121027 0.024934875 -0.020107176
0000b0 7d c2 23 3d 62 2a e1 3c 63 35 2d 3d 4f 3b fa 3c
       0.0399804 0.02748603 0.04228724 0.030545859
0000c0 55 a5 49 3d 79 93 d4 bb ab 89 e7 bb 7e 10 06 3d
       0.04922994 -0.0064873067 -0.007065972 0.032730572
0000d0 ac 2e eb 3b a5 6d 35 3d dc 3c 40 3c 78 51 90 3c
       0.0071771946 0.04429402 0.01173326 0.017616972
0000e0 40 bf a1 3b c6 0e 3c 3d d3 20 34 b9 64 59 db 3c
       0.004936129 0.045912527 -0.00017178366 0.026776023
0000f0 7b 33 b2 bc 50 80 32 3d 0d 4d 21 3d a4 89 80 3d
       -0.021753063 0.0435794 0.039380122 0.06276253
