results/ABIDE_3x5fold_seed0/fold2_rep2_seed2002/ckpt_best_fold_2.pt (torch, 660353 bytes, 72 tensors)

encoder_c.convs.0.weight f4 [116, 64]
0	0x3c267f22	0.010162147
1	0xbe1b5423	-0.15168814
2	0xbe0b37c1	-0.13595487
3	0x3bffbd18	0.007804524
4	0xbb567a93	-0.0032726869
5	0xbdd13e89	-0.10217006
6	0x3d99a455	0.07502047
7	0x3d8f4bbe	0.069968686
8	0x3d4ba29d	0.049715627
9	0x3e0f95ae	0.14021942
10	0xbe29d52e	-0.16585228
11	0xbe13c932	-0.14432219
12	0x3d642359	0.055697773
13	0x80001b34	-9.759e-42
14	0x3d8cfe16	0.068844005
15	0xbe033bc8	-0.12815773
16	0xbe234172	-0.15942934
17	0xbd94dcbd	-0.07268665
18	0xbd5198f3	-0.051171254
19	0xbd40e9b7	-0.047097888
20	0xb7d70427	-2.563193e-05
21	0x3de16f8c	0.11007604
22	0xbe158f23	-0.14605384
23	0x3cd5895c	0.026066475
24	0xbdce978c	-0.10087499
25	0xbe2aecc0	-0.16691875
26	0x3dffb6d2	0.12486042
27	0x3d7aee27	0.061262276
28	0xbcc00475	-0.023439625
29	0xbcca7af8	-0.02471684
30	0x3d94e934	0.072710425
31	0xbc8295f3	-0.015940642
32	0x3dd97c3f	0.10619401
33	0xbd79adce	-0.06095677
34	0xbd8645e8	-0.06556302
35	0x3d8ef66d	0.06980596
36	0xbd92b9c2	-0.07164337
37	0xbdf0c365	-0.117560185
38	0xbd870720	-0.06593156
39	0xbdfade09	-0.12249381
40	0x3d69a93d	0.057046164
41	0x3e045cd4	0.12926036
42	0x3dae358a	0.085063055
43	0x3d6ee2d7	0.0583218
44	0x3e12946a	0.14314428
45	0x000000d4	2.97e-43
46	0x3d655d32	0.05599708
47	0x3dc72182	0.09723188
48	0xbcbb22d4	-0.022843756
49	0x3dda014e	0.1064478
50	0xbe33eb56	-0.17570242
51	0x3dfbe168	0.12298852
52	0xbd5103bc	-0.051028952
53	0xbda81914	-0.08207908
54	0xbcc5e82b	-0.024158558
55	0x3d52ca2e	0.051462345
56	0xbddd3873	-0.108017825
57	0x3dc99538	0.09842914
58	0x3d827bf1	0.06371296
59	0xbd333869	-0.04375497
60	0x3df101e4	0.11767939
61	0x3d7be649	0.061498914
62	0x3cafbb3f	0.02145159
63	0x3d2a358c	0.041554973
64	0x3d590b87	0.05298951
65	0x3a97620d	0.0011549607
66	0x3d2ef3fd	0.042713154
67	0xbb318b4a	-0.002709108
68	0x3d01fe6c	0.031736776
69	0x3d24b971	0.040215913
70	0xbcf301e0	-0.02966398
71	0xbdbba4fb	-0.09162327
72	0xbcff3df9	-0.03115748
73	0x3c96ba50	0.018399388
74	0xbe23bb59	-0.15989436
75	0x3ce238e4	0.027615018
76	0xbdda2f28	-0.106535256
77	0x80000c68	-4.45e-42
78	0xbdb12a7a	-0.0865068
79	0x3d33f273	0.04393239
80	0x3c9a7f39	0.018859493
81	0xbe250c8c	-0.16118068
82	0xbe11657b	-0.14198868
83	0x3e053f95	0.13012536
84	0xbdea56fa	-0.11442371
85	0x3df6c70c	0.12049684
86	0x3e03e51b	0.12880366
87	0xbe258223	-0.16162924
88	0x3e0b5522	0.13606694
89	0xbd50d7d6	-0.050987087
90	0xbe2f8406	-0.17140207
91	0xbe24d1cc	-0.16095656
92	0x3c8c7b64	0.017148681
93	0x3dfe9875	0.124314226
94	0x3ca58615	0.020205537
95	0xbb11b0e6	-0.0022230684
96	0xbe106fcc	-0.14105147
97	0x3d6a4dd0	0.057203114
98	0x3d862936	0.06550829
99	0x3d7753d6	0.060382687
100	0xbdbc2f88	-0.09188753
101	0x3c15a88c	0.009134423
102	0x3d730045	0.05932643
103	0xbd7dd506	-0.061970733
104	0xbd89f523	-0.06736209
105	0x3ce9f819	0.028560685
106	0x3dfcca3f	0.12343263
107	0x3c0fa25d	0.008766738
108	0xbd55378a	-0.05205492
109	0x80000320	-1.121e-42
110	0xbb696a20	-0.0035616234
111	0x3beec556	0.007286708
112	0xbb37b3c6	-0.0028030737
113	0xbe21bd65	-0.15794905
114	0xbdc527e1	-0.09626747
115	0x3dabeac9	0.08394391
116	0x3da83bbe	0.0821452
117	0xbd8adf14	-0.0678083
118	0x3d067110	0.03282267
119	0xbcbb75ca	-0.022883315
120	0xbe01d548	-0.12679017
121	0xbdeb3346	-0.11484389
122	0x3db0f0a9	0.08639652
123	0xbe3b561a	-0.18294564
124	0xbd07aee6	-0.03312578
125	0xbd07c255	-0.033144314
126	0x3d8eef02	0.06979181
127	0x3dddce03	0.10830309
128	0x3e18cc03	0.14921574
129	0x3e2def26	0.16985759
130	0xbdb1dfad	-0.08685241
131	0x3cf0f16e	0.029411998
132	0x3d059a65	0.032617945
133	0x3dd3f72f	0.10349881
134	0x3dba5c21	0.090996034
135	0xbba6433f	-0.0050739343
136	0xbdaa2735	-0.083082594
137	0xbdb8dce3	-0.09026506
138	0x3b1ed553	0.0024236038
139	0x3db2c135	0.087282576
140	0x3df47e68	0.119381726
141	0x80000f33	-5.452e-42
142	0x3baf901c	0.0053577553
143	0xbc98e64d	-0.018664503
144	0x3c9aaff0	0.018882722
145	0xbb160609	-0.002289178
146	0x3cad44bd	0.021150941
147	0xbc2eb0e5	-0.010662292
148	0xbe32f6ca	-0.17476955
149	0x3de5b4e2	0.11216141
150	0x3e275d34	0.16344148
151	0xbe1af004	-0.15130621
152	0xbb8fa17d	-0.0043832646
153	0x3e14048c	0.1445486
154	0x3c995bab	0.018720469
155	0xbe44eb6f	-0.19230436
156	0x3dbc5380	0.09195614
157	0xbde327ab	-0.110915504
158	0x3c9d4e7a	0.01920246
159	0xbdd96712	-0.10615362
160	0x3e14dca0	0.14537287
161	0xbd3e9dec	-0.046537325
162	0xbda28fe9	-0.07937605
163	0xbe158c9e	-0.14604422
164	0xbd9c74df	-0.07639479
165	0xbe18f673	-0.14937763
166	0x3d8ae4e7	0.06781941
167	0x3d99a03b	0.07501265
168	0x3da17f98	0.07885665
169	0xbd9fbf64	-0.07800177
170	0xbb480387	-0.003051968
171	0xbcbc56ee	-0.02299067
172	0x3ddf92ea	0.109166935
173	0x80001ac6	-9.604e-42
174	0x3df90af1	0.1216029
175	0x3d2ad9d2	0.041711636
176	0x3d1496e4	0.036276713
177	0x3e0c45c2	0.13698485
178	0xbdbe106a	-0.092804745
179	0xbe1d5ace	-0.1536667
180	0x3df90ad1	0.12160266
181	0xbd857d03	-0.06517985
182	0x3d8ecee1	0.06973053
183	0x3c9406a1	0.018069567
184	0x3d9a41d7	0.07532089
185	0x3d899c20	0.067192316
186	0xbe2c5167	-0.16827928
187	0xbd72c53b	-0.059270125
188	0x3d901c4b	0.070366465
189	0xbdbe9608	-0.0930596
190	0xbe05be8f	-0.13060974
191	0xbcf41784	-0.02979637
192	0x3e29021b	0.1650471
193	0x3dc3ed68	0.09566766
194	0x3d41a5e3	0.047277343
195	0x3d29f4b5	0.041493136
196	0x3d007851	0.031364743
197	0xbd120474	-0.035648778
198	0x3d1e27d0	0.038612187
199	0x3d84e7a9	0.06489498
200	0xbbdec0ec	-0.0067979004
201	0x3d01c35b	0.031680446
202	0x3dad1cbd	0.08452747
203	0x3d731396	0.05934485
204	0x3e31de57	0.17369972
205	0x000000c1	2.7e-43
206	0xbe0da1db	-0.13831274
207	0xbcb5637d	-0.022142166
208	0x3d890ca6	0.066918656
209	0xbe1fe118	-0.1561321
210	0xbcd9f124	-0.026604243
211	0x3e024ea4	0.12725312
212	0x3e25a953	0.16177873
213	0x3dccd6da	0.10001917
214	0xbdaf7d6e	-0.08568846
215	0x3dad0ac8	0.08449322
216	0xbdbfe1b1	-0.09369219
217	0x3daa57b8	0.08317512
218	0xbe1b1d01	-0.15147783
219	0xbd90fe0e	-0.07079707
220	0x3e1a2972	0.15054873
221	0xbd254abe	-0.040354483
222	0xbe0e187f	-0.13876532
223	0x3dad1c17	0.08452623
224	0x3ddba14c	0.10724124
225	0xbe35aaca	-0.17740932
226	0x3e043555	0.1291097
227	0x3d4df030	0.05027789
228	0x3cbd863d	0.023135299
229	0xbdabd3c7	-0.08390003
230	0x3df4a418	0.11945361
231	0x3e0b823f	0.13623904
232	0xbdde869b	-0.10865518
233	0x3d50453a	0.05084727
234	0xbd1d5e87	-0.038420226
235	0xbdf09c8b	-0.11748608
236	0xbc7f7b30	-0.015593335
237	0x80000e76	-5.188e-42
238	0x3b9d4406	0.004799369
239	0xbd883126	-0.06649999
240	0xbc5c5a9b	-0.013449336
241	0x3d1cd39a	0.038287736
242	0xbce04224	-0.027375288
243	0xbd2f70c8	-0.042832166
244	0xbd53ff1e	-0.05175697
245	0xbe0dbda4	-0.13841873
246	0xbd1ad25c	-0.03779827
247	0xbd866d80	-0.06563854
248	0x3dc017c9	0.09379537
249	0xbdd8975b	-0.10575744
250	0x3e22e19a	0.15906373
251	0x3e25bab1	0.16184498
252	0x3de178b3	0.1100935
253	0x3c429c96	0.011878153
254	0x3d92e86d	0.07173238
255	0x3d351f9a	0.04421959

encoder_c.convs.0.bias f4 [64]
0	0x3cc5ff5a	0.024169613
1	0xbb9c2bc6	-0.0047659604
2	0x3c66e8e3	0.01409361
3	0x3ca762f2	0.020432923
4	0xbbc41bab	-0.0059847436
5	0xbc9a1199	-0.01880722
6	0xb98693fc	-0.0002566873
7	0x3d0ef4e3	0.03490151
8	0x3d9da863	0.07698133
9	0x3c537ee3	0.01290867
10	0x3b3547a0	0.00276611
11	0x3a560988	0.00081648724
12	0xbc968ae5	-0.018376777
13	0xb843f9ad	-4.672415e-05
14	0x3cd91ade	0.02650207
15	0x3bff743e	0.0077958396
16	0x3c3bf65c	0.011472311
17	0xbbfa7119	-0.007642877
18	0x3c59bae9	0.013289192
19	0x3c3282af	0.010895415
20	0x3b6c61c3	0.0036069013
21	0x3cc0dba6	0.023542237
22	0x3a30723f	0.0006730891
23	0xbc7f89d1	-0.015596823
24	0xbca55db4	-0.020186283
25	0x3b83cce0	0.0040222257
26	0xbb0f16b0	-0.002183359
27	0x3cc1d36c	0.023660384
28	0x3d1333a7	0.03593793
29	0xbc89dc76	-0.016828757
30	0x3a06c62b	0.00051412237
31	0xbcc0b137	-0.023522003
32	0xbc426312	-0.0118644405
33	0x3a1c2054	0.0005955745
34	0x3b6d702f	0.0036230197
35	0x3cb50c93	0.022100722
36	0x3a70060f	0.0009156176
37	0x3c3e7dfb	0.011626716
38	0xbc1b3181	-0.009472252
39	0x3bc2178e	0.005923218
40	0x3cde5d10	0.027143985
41	0xba8d0124	-0.0010757786
42	0x3d011a50	0.031519234
43	0x3c6891a4	0.01419488
44	0xbb9b5962	-0.00474088
45	0xbc7f6148	-0.0155871585
46	0x3b242785	0.002504797
47	0x3c972a82	0.018452886
48	0x3bc7b565	0.006094622
49	0x3b4477d0	0.002997864
50	0x3cc015e5	0.02344794
51	0x3c513054	0.01276787
52	0x3d075f8c	0.033050105
53	0x3ca87177	0.020561917
54	0xbb7fa3ac	-0.0039007468
55	0xbd2e731e	-0.042590253
56	0xbc1d8f34	-0.009616662
57	0x3c71c18f	0.014755621
58	0x3cabff29	0.020995693
59	0x3baa796c	0.005202463
60	0xbca8de8a	-0.020613927
61	0x3b62c493	0.003460203
62	0x3cbb83c6	0.022889983
63	0x3cab9006	0.0209427

encoder_c.convs.1.weight f4 [64, 64]
0	0x3e0e4e2a	0.13897005
1	0x3c25fa29	0.010130444
2	0xbe0472a3	-0.12934355
3	0xbdd3921b	-0.10330602
4	0x3e0fee96	0.14055857
5	0xbc8ee93c	-0.0174452
6	0xbcc55f3b	-0.024093261
7	0x00000d7e	4.84e-42
8	0x00002d61	1.6279e-41
9	0xbdb217b5	-0.08695928
10	0x3b6a918a	0.0035792314
11	0x3b9b0365	0.0047306293
12	0x00002fc8	1.714e-41
13	0x3e0af6ce	0.13570711
14	0x14c29921	1.9649393e-26
15	0x3e899e25	0.26878467
16	0xbdaf5fb8	-0.08563179
17	0x000000e7	3.24e-43
18	0x3da3d9cf	0.08000528
19	0x3dda405c	0.10656807
20	0x3e6e5d5c	0.23277801
21	0x3d40b1bb	0.047044497
22	0x3d36565f	0.044515964
23	0xbda37edb	-0.0798318
24	0x3bbd2861	0.005772636
25	0xbdfdec24	-0.12398556
26	0x3dbe348b	0.092873655
27	0x3dc30756	0.095228836
28	0xbe0fcde6	-0.14043388
29	0xbdb4f47a	-0.08835693
30	0xbda90639	-0.0825314
31	0x3d38b238	0.045091838
32	0x3c76d18f	0.015064611
33	0xbd390731	-0.045172874
34	0x3a391e2c	0.0007061686
35	0x3db7d424	0.089760095
36	0xbc8b7434	-0.017023183
37	0x3e3316b3	0.17489128
38	0xbd1cb7af	-0.03826111
39	0x3aa538dd	0.0012605448
40	0xbdf8bd88	-0.12145525
41	0x3e23f695	0.16012032
42	0xbb8d3381	-0.0043091183
43	0x0000131c	6.855e-42
44	0x3e4fb519	0.20283927
45	0x3cf56c8b	0.029958984
46	0x3dd72225	0.105045594
47	0xbb0119fc	-0.0019699326
48	0xbaa47c27	-0.0012549207
49	0x3cefb94d	0.029263163
50	0x0000054e	1.903e-42
51	0x3e29987f	0.16562079
52	0x3d0f869a	0.035040475
53	0x3d496077	0.04916426
54	0xbdac2aa5	-0.08406571
55	0xbd133226	-0.035936497
56	0x3d81e521	0.06342531
57	0xbcebe390	-0.028795034
58	0x3ca8e6f6	0.020617943
59	0x3c58096a	0.013185838
60	0xbbb9cbef	-0.0056700627
61	0x3d86eb8a	0.06587894
62	0x3d81792d	0.063219406
63	0x3cae9e2b	0.021315655
64	0x3d2582c9	0.04040793
65	0x3c2c537b	0.01051795
66	0xbd1f8b36	-0.03895112
67	0x3da5e5e8	0.08100492
68	0x3da8d3bf	0.08243512
69	0xbd85379c	-0.06504747
70	0x3c50ed09	0.012751826
71	0x00000d35	4.738e-42
72	0x00001628	7.948e-42
73	0xbc3f2dfd	-0.011668679
74	0x3dd8dcaf	0.10588967
75	0xbb29238d	-0.0025808543
76	0x00005de3	3.368e-41
77	0x3d959f13	0.073057316
78	0x8293bd16	-2.1708239e-37
79	0x3de1d18e	0.110262975
80	0x3bca55e2	0.006174789
81	0x800005ae	-2.037e-42
82	0x3c6542c7	0.013992972
83	0x3d7a2bf4	0.061077073
84	0xbb35c117	-0.0027733499
85	0xbe15dbf0	-0.14634681
86	0xbdbc65d0	-0.09199107
87	0xbe086c92	-0.13322666
88	0xbc04f69b	-0.008115436
89	0xbd62df51	-0.055388752
90	0x3c048c61	0.00809011
91	0x3c9996c6	0.018748652
92	0x3cda4185	0.02664257
93	0x3e1beb28	0.15226424
94	0x3d23e3d6	0.040012203
95	0x3c7713ae	0.015080376
96	0xbcb28a2f	-0.021794407
97	0xbc822df3	-0.01589105
98	0xbcb164c5	-0.021654496
99	0x3dda7dee	0.106685504
100	0x3cc1ad4a	0.023642201
101	0x3d0f90bd	0.035050143
102	0xbe0cfc62	-0.13768151
103	0x3e409073	0.18805103
104	0x3e28b973	0.16476993
105	0x3d0cf56b	0.034413736
106	0xbd92defd	-0.07171438
107	0x80002f74	-1.7023e-41
108	0x3e4b57f8	0.19857776
109	0x3e4838b5	0.19552882
110	0x3d0228f4	0.031777337
111	0x3d0aafbb	0.033858996
112	0xbd5fee67	-0.054670718
113	0x3da05620	0.07828927
114	0x80002412	-1.294e-41
115	0x3d2e045b	0.042484622
116	0x3d6fee76	0.058577023
117	0xbc5b76fe	-0.013395069
118	0xbdc41517	-0.09574335
119	0xbd740aa9	-0.05958048
120	0xbd8efff9	-0.06982417
121	0x3c44c795	0.012010475
122	0xbdc399ca	-0.09550817
123	0xbd217a16	-0.03942307
124	0x3d0c27af	0.034217533
125	0xbd4f8124	-0.050660267
126	0x3e07b903	0.1325417
127	0xbd057787	-0.032584693
128	0x3e1d799d	0.15378423
129	0x3df710a5	0.120637216
130	0x3bf46701	0.007458568
131	0x3e504b95	0.20341332
132	0x3df2858b	0.118418775
133	0xbe269fe6	-0.16271934
134	0xbd9d2cc2	-0.076745525
135	0x00001f2e	1.1185e-41
136	0x80002564	-1.3413e-41
137	0x3ca8762b	0.02056416
138	0x3d36b5c3	0.044606935
139	0x3d3fb3c6	0.046802305
140	0x80005082	-2.8881e-41
141	0x3e0cc827	0.13748227
142	0xa8262280	-9.222332e-15
143	0x3d09b20b	0.03361706
144	0xbe281381	-0.1641369
145	0x188cfcea	3.644453e-24
146	0xbe06d7bf	-0.13168238
147	0xbd194156	-0.037415825
148	0x3e3ba43a	0.18324366
149	0x3e0045bb	0.125266
150	0x39d756c1	0.00041072632
151	0xbd662078	-0.05618331
152	0x3e2c05a7	0.16799031
153	0xbe0f79ad	-0.1401126
154	0xbd34c29b	-0.044130903
155	0xbc4da9e6	-0.012552714
156	0xbd010013	-0.03149421
157	0x3e5e5863	0.21713404
158	0xbe048965	-0.12943037
159	0xbd053fbd	-0.03253149
160	0xbdefcc94	-0.11708942
161	0xbd76e820	-0.060279965
162	0x3e00c892	0.12576512
163	0x3dde47c7	0.10853534
164	0x3ce2ac1f	0.027669964
165	0x3d185ca0	0.03719771
166	0xbc300b62	-0.010744901
167	0x3e45482e	0.19265816
168	0xbda12883	-0.07869055
169	0xbe2117cb	-0.15731733
170	0x3e169419	0.14704932
171	0x00002065	1.1621e-41
172	0xbe0b7e7f	-0.13622473
173	0xbbe3f07b	-0.0069561577
174	0x3e051cfc	0.12999338
175	0x3da9f34a	0.08298357
176	0xbd064f04	-0.0327902
177	0x3dd48389	0.10376651
178	0xa8d86647	-2.4025173e-14
179	0xbcc1f247	-0.023675097
180	0xbdd0c65a	-0.101940826
181	0xbce09ffc	-0.027420036
182	0xbdfc356a	-0.123148754
183	0x3d80d21d	0.06290076
184	0x3dc87c61	0.097893484
185	0x3dfe4f6c	0.12417492
186	0xbe4284c9	-0.18995966
187	0x3e1293ab	0.14314143
188	0xbce2f850	-0.027706295
189	0x3d0a2a7c	0.033731923
190	0x3e24138e	0.16023085
191	0xbe19f339	-0.15034188
192	0xbdf6f27a	-0.120579675
193	0xbdf8b292	-0.121434346
194	0x3e0253ef	0.1272733
195	0xbdc07f3c	-0.09399268
196	0xbde8a53e	-0.113596424
197	0xbdfddd92	-0.12395777
198	0x3d92d1c2	0.071689144
199	0x80006f4a	-3.9923e-41
200	0x80001c7e	-1.0221e-41
201	0x3e0683d5	0.13136227
202	0x3df80fea	0.1211241
203	0x3e0232ea	0.12714735
204	0x0000380d	2.0107e-41
205	0xbdb7869c	-0.089612216
206	0x800011a5	-6.33e-42
207	0xbdc43925	-0.09581212
208	0xbdbf3910	-0.09337056
209	0x000034c3	1.8927e-41
210	0xbe03cc12	-0.12870815
211	0xbdc3baf4	-0.09557143
212	0xbd9f0802	-0.07765199
213	0xbde2082a	-0.110367134
214	0xbde0b868	-0.10972673
215	0xbdd4e9dd	-0.103961684
216	0x3df0200a	0.11724861
217	0xbe04c3a3	-0.12965254
218	0xbda3e937	-0.080034666
219	0xbd92d616	-0.0716974
220	0x3dee7c2b	0.11644777
221	0x3dfa583c	0.122238606
222	0x3e059edf	0.13048886
223	0xbd8f047f	-0.069832794
224	0x3deea8de	0.116533026
225	0x3e01c50d	0.12672825
226	0xbdd99f92	-0.10626139
227	0x3da41c31	0.080131896
228	0x3da9c266	0.08289032
229	0xbdbbbc13	-0.09166732
230	0x3db5a608	0.088695586
231	0xbdc0505b	-0.093903266
232	0xbe06703c	-0.13128752
233	0xbe00e16c	-0.12585992
234	0x3df3dffe	0.119079575
235	0x80001a5b	-9.455e-42
236	0xbdbd63e5	-0.09247569
237	0xbdd9fd09	-0.10643966
238	0xbcd80564	-0.026369758
239	0x3de9cd02	0.11416055
240	0x3de057fe	0.10954283
241	0xbe01445b	-0.12623732
242	0x80002cd5	-1.6083e-41
243	0xbde20057	-0.11035221
244	0x3dcd3df4	0.10021582
245	0xbd776b30	-0.060404956
246	0x3dd124b6	0.1021208
247	0xbd9d4512	-0.0767919
248	0x3daae2e4	0.08344057
249	0x3dc7276d	0.09724317
250	0x3e022cf2	0.12712458
251	0x3deceab3	0.11568203
252	0x3d0c48cf	0.034249123
253	0x3e00aacc	0.12565154
254	0xbdeecd9b	-0.1166031
255	0xbdf86146	-0.121279284

encoder_c.convs.1.bias f4 [64]
0	0x3c7ac7e4	0.015306447
1	0xbc1cdcaa	-0.009574095
2	0x3c5fb917	0.013654969
3	0x3c6d9762	0.0145014245
4	0x3c4a6951	0.012354211
5	0xbc9245bf	-0.017855523
6	0x3c24bd87	0.010054952
7	0xbbf23427	-0.007391471
8	0xbbf1bcb4	-0.0073772315
9	0x3cbba983	0.022907978
10	0x3cd178b1	0.025570245
11	0xbbb90bde	-0.0056471666
12	0xbbfbaa93	-0.007680246
13	0xbb58cb51	-0.003308017
14	0xbc96dc0f	-0.018415479
15	0x3d09c554	0.033635452
16	0xbcbd3f75	-0.023101548
17	0xbc3ce4d2	-0.011529164
18	0xbacd88bc	-0.0015681009
19	0x3d587d51	0.052853886
20	0x3c827bce	0.015928175
21	0x3aa0c078	0.0012264391
22	0xb9b6bc8c	-0.00034854223
23	0x3b1a90fe	0.0023584957
24	0x3cb31e1c	0.021864943
25	0xbbd7378c	-0.006567901
26	0x3cfc9b21	0.03083569
27	0x3cae7086	0.02129389
28	0x3c631650	0.0138603
29	0x3d04ca19	0.032419298
30	0x3c9c8039	0.01910411
31	0xbc8d877c	-0.017276518
32	0x3cbb258d	0.022845054
33	0x3d1ca0bc	0.038239226
34	0x3b394ce9	0.0028274602
35	0x3d7f62a8	0.062349945
36	0x3d32d377	0.0436587
37	0x3b46ce5c	0.0030335402
38	0x3bab34dc	0.005224807
39	0x3bee8200	0.007278681
40	0x3c63f0c8	0.013912387
41	0x3b287a38	0.0025707614
42	0x3c6e9ab1	0.0145632485
43	0xbc3341bc	-0.010940965
44	0x3ba1e6af	0.0049408297
45	0x3c9f4556	0.019442242
46	0x3cf20c5b	0.029546907
47	0x3d03f5da	0.032216884
48	0x3c4cca23	0.012499365
49	0xba3099a1	-0.00067367597
50	0xbc99493c	-0.018711679
51	0x3d1b3807	0.03789523
52	0x3ccf9b49	0.0253426
53	0x3d21d848	0.039512902
54	0x3cf31153	0.029671347
55	0x3b9efebc	0.004852144
56	0x3d10121b	0.035173517
57	0xbcb97832	-0.022640321
58	0x3c5dce2f	0.0135379275
59	0x3c7a248d	0.015267503
60	0xbc81fd01	-0.015867712
61	0x3cc12c91	0.023580821
62	0x3ca2ef7d	0.019889588
63	0x3bd380e5	0.0064545744

encoder_c.convs.2.weight f4 [64, 64]
0	0x3db36e1c	0.08761236
1	0x3da656ff	0.08122062
2	0x3dc17565	0.09446219
3	0x3e27928e	0.163645
4	0x3b431467	0.00297668
5	0xbdfb812e	-0.122804984
6	0xbda03712	-0.07823004
7	0xbe60fb45	-0.21970852
8	0x3d9ecbe4	0.07753733
9	0x3e210d08	0.15727627
10	0x3da337fa	0.07969661
11	0x3d106c00	0.035259247
12	0xbe196796	-0.14980921
13	0xbdd09963	-0.10185506
14	0xbdba9015	-0.09109513
15	0xbc9a8ffa	-0.018867481
16	0x3c452d41	0.012034715
17	0x3dd67630	0.10471761
18	0xbd954728	-0.072889626
19	0xbdfc4615	-0.123180546
20	0xbe37cd34	-0.17949373
21	0xbe0c198a	-0.13681617
22	0xbca2e7f7	-0.019886
23	0xbc879869	-0.016552167
24	0xbc83b48b	-0.0160773
25	0x3dfa9def	0.12237155
26	0x3e539222	0.20661214
27	0xbd7195df	-0.05898082
28	0xbd2a594b	-0.041589063
29	0x3e476da3	0.19475417
30	0x3c8ed83b	0.017437091
31	0x3e8a0be4	0.26962197
32	0xbe057d43	-0.13036065
33	0xbe1240ec	-0.14282578
34	0xbd96ebd9	-0.07369203
35	0xbe61aa1a	-0.22037545
36	0x3da822aa	0.08209737
37	0xbd882e3f	-0.06649446
38	0xbc062bf5	-0.008189191
39	0xbe192585	-0.14955719
40	0xbc8f34fa	-0.017481316
41	0x3e75443e	0.23951814
42	0xbd05b106	-0.032639526
43	0xbb18b529	-0.002330134
44	0xbd2791dd	-0.04091059
45	0xbd14b0a2	-0.036301263
46	0x3d3b7ae7	0.045771506
47	0xbe428230	-0.18994975
48	0x3e5cd368	0.2156502
49	0x3de5cf73	0.112212084
50	0xbdf108b0	-0.11769235
51	0xbe4665eb	-0.19374816
52	0x3ddd1c57	0.10796421
53	0x3e37f263	0.17963557
54	0xbdc6fb14	-0.09715858
55	0xbe315ea5	-0.1732126
56	0x3d4c5956	0.049889885
57	0x3d952ff1	0.07284535
58	0xbddb4ff6	-0.10708611
59	0x3e5a91f5	0.2134474
60	0x3df49833	0.11943092
61	0x3e654e2c	0.22393101
62	0xbe015b20	-0.12632418
63	0xbe2f59d3	-0.17124109
64	0xbdd45275	-0.1036729
65	0x3dd37f81	0.10327054
66	0xbdfcca78	-0.12343305
67	0x3dabdf20	0.08392167
68	0xbcc848a3	-0.024448698
69	0xbe0f0c1b	-0.13969462
70	0xbdd0246f	-0.10163199
71	0xbe1cdb2e	-0.15317985
72	0xbe004998	-0.12528074
73	0xbc42e975	-0.011896481
74	0x3d646fb1	0.05577058
75	0x3da795c1	0.0818286
76	0xbdddb0e6	-0.10824756
77	0xbdb97ac2	-0.09056617
78	0xbe176a9e	-0.14786765
79	0xbe3ee98c	-0.18643779
80	0x3d177ae0	0.036982417
81	0x3e0fcb6d	0.14042445
82	0xbd05ad1e	-0.0326358
83	0x3d853583	0.06504347
84	0x3d93ed95	0.072230496
85	0xbddc9a1b	-0.10771581
86	0xbd6472a2	-0.055773385
87	0x3e48c933	0.19608001
88	0xbd869a87	-0.065724425
89	0x3e2857e4	0.16439778
90	0x3e4e6aa6	0.2015787
91	0x3e25eeb9	0.16204347
92	0xbe30584d	-0.17221184
93	0xbd6866da	-0.056738712
94	0x3da328f8	0.079667985
95	0xbc84e0aa	-0.01622041
96	0xbd0b14ba	-0.033955313
97	0xbe385905	-0.18002708
98	0xbdc40800	-0.095718384
99	0xbe31aa03	-0.1735001
100	0x3df39990	0.11894524
101	0xbdbdc2cd	-0.09265671
102	0xbdd10c7f	-0.102074616
103	0x3d8a4202	0.06750871
104	0xbd98cc93	-0.074608944
105	0x3da1e107	0.07904249
106	0x3dffb1cb	0.12485083
107	0x3d6a9463	0.05727042
108	0x3dbb8711	0.09156621
109	0xbda95a20	-0.08269143
110	0xbdd78883	-0.105240844
111	0x3d9d6092	0.07684435
112	0xbcbb078f	-0.022830753
113	0xbd0ab649	-0.033865247
114	0xbe1122d0	-0.14173436
115	0xbe0cac2f	-0.13737558
116	0x3e173d4b	0.14769475
117	0xbdefd5f4	-0.1171073
118	0xbd551062	-0.052017577
119	0x3c5c846b	0.013459305
120	0x3dc9648f	0.09833633
121	0xbca8ea74	-0.020619608
122	0xbe5903aa	-0.21192804
123	0xbd8c99ba	-0.068652585
124	0x3dc1a6ef	0.09455668
125	0x3e60e9d4	0.21964198
126	0xbe4a9c6e	-0.19786236
127	0xbdd1d784	-0.102461845
128	0x3d462320	0.04837334
129	0xbc51a6eb	-0.012796144
130	0xbdc33dea	-0.095332935
131	0xbe0ca125	-0.13733347
132	0x3c745ac1	0.014914216
133	0xbd96ac89	-0.07357127
134	0x3d0c9b5c	0.03432785
135	0xbc07a1b8	-0.008278303
136	0xbdaee656	-0.08540027
137	0x3d158e89	0.036512885
138	0x3d4c5702	0.049887665
139	0xbdff05e4	-0.124522954
140	0xbc23fc4d	-0.010008884
141	0x3ce9c0c7	0.028534306
142	0xbd6dbed3	-0.058043312
143	0x3d95f871	0.07322777
144	0xbc7d8224	-0.0154729225
145	0xbdaacac0	-0.08339453
146	0x3d0aab8c	0.033855006
147	0xbd126b78	-0.03574702
148	0x3dd6d907	0.104906134
149	0xbd7c93ab	-0.061664265
150	0xbcc85af2	-0.024457429
151	0xbcffa721	-0.031207623
152	0x3d9edbe0	0.077567816
153	0xbc5fbddd	-0.013656107
154	0xbd5cf394	-0.05394323
155	0xbe441f56	-0.19152579
156	0x3de5ce51	0.11220992
157	0xbd8da70c	-0.06916627
158	0xbd880514	-0.066415936
159	0x3deaee08	0.11471182
160	0x3da282f3	0.07935133
161	0x3d86cd18	0.06582087
162	0xbd88cfea	-0.066802815
163	0xbd8c38e6	-0.0684679
164	0x3b8c4068	0.0042801388
165	0xbb8b7609	-0.0042560142
166	0x3d50af02	0.05094815
167	0x3cdca4e4	0.026934095
168	0xbe043dbf	-0.1291418
169	0xbe143266	-0.1447235
170	0xbd8a4cff	-0.06752967
171	0xbcea8b36	-0.028630834
172	0xbb4cbf1f	-0.0031241847
173	0xbca1ce1a	-0.019751597
174	0x3cb140ae	0.021637287
175	0x3dc1ad68	0.09456903
176	0xbd51ff96	-0.051269136
177	0xbdcec6ac	-0.100964874
178	0xbb7cc29d	-0.0038568147
179	0xbb89eadc	-0.0042089056
180	0x3c865f3f	0.016402839
181	0xbd68e1ea	-0.056856073
182	0x3c4743b9	0.012162142
183	0x3dcc9cb8	0.09990829
184	0x3cba0194	0.02270583
185	0xbd2ac50c	-0.041691825
186	0x3dd1cdcb	0.1024433
187	0xbe0a92fa	-0.1353263
188	0xbd8959f6	-0.06706612
189	0x3c5eb511	0.013592974
190	0x3d640b5f	0.055674907
191	0xbc9285ef	-0.01788613
192	0x3e0bef5d	0.13665529
193	0x3e04b1d6	0.12958464
194	0xbde84467	-0.11341172
195	0x3db1b00f	0.08676159
196	0xbd7fedf8	-0.062482804
197	0xbe28a86e	-0.16470501
198	0xbd5f36fd	-0.0544958
199	0x3e05dda9	0.13072838
200	0x3c0546bc	0.00813454
201	0x3dd752c5	0.10513834
202	0xbd6d68d4	-0.0579613
203	0xbd51b359	-0.05119643
204	0x3c9ebe93	0.019377982
205	0xbe30f554	-0.17281085
206	0x3d5aed2b	0.053448837
207	0x3d475489	0.048664603
208	0x3d10c160	0.035340667
209	0xbe005472	-0.12532213
210	0xbe06110b	-0.13092439
211	0xbe6b88db	-0.23001425
212	0xbe07e225	-0.13269861
213	0xbe38e9b4	-0.180579
214	0x3e2b3764	0.16720349
215	0x3d48514f	0.048905667
216	0xbcd007c2	-0.025394324
217	0x3e2d0149	0.16895021
218	0xbd003f54	-0.031310394
219	0x3e4d1b30	0.20029902
220	0xbe3cfe9a	-0.18456498
221	0x3dc360c8	0.09539944
222	0xbc886ef4	-0.01665447
223	0x3c4b01dd	0.012390581
224	0xbe5f36f2	-0.21798304
225	0xbe70cd66	-0.23515853
226	0xbd8118b8	-0.06303543
227	0xbe62067e	-0.22072789
228	0xbcd4b98d	-0.025967384
229	0x3c345ad4	0.011007983
230	0xbe08e6ca	-0.13369289
231	0xbd67e871	-0.056618158
232	0xbcc204d5	-0.023683945
233	0xbdcc4b9b	-0.09975358
234	0x3beb41e1	0.0071794842
235	0x3ba91417	0.0051598656
236	0x3e2df319	0.16987266
237	0xbdbb682b	-0.09150728
238	0x3e43ac61	0.19108726
239	0xbdc3080f	-0.095230214
240	0x3e723a56	0.23655066
241	0xbd138aff	-0.03602123
242	0xbe4491fa	-0.1919631
243	0xbe2ac3ab	-0.16676204
244	0xbe473e7b	-0.19457428
245	0xbdad4661	-0.08460689
246	0xbdf61d7d	-0.12017343
247	0xbe6ccb67	-0.23124467
248	0x3c80ee6f	0.015738694
249	0xbdcf3c85	-0.10118965
250	0xbe532829	-0.20620789
251	0xbe108331	-0.14112546
252	0x3e4d1472	0.2002733
253	0x3d935d0f	0.07195484
254	0x3d4bc5af	0.049749073
255	0xbe263541	-0.16231252

encoder_c.convs.2.bias f4 [64]
0	0x3d22a248	0.039705545
1	0xbc8ddd86	-0.017317545
2	0xbc589c72	-0.013220893
3	0xbb84bde6	-0.004050958
4	0x3c61824f	0.013763978
5	0xbb28eb53	-0.002577503
6	0x3bb4c19d	0.0055162446
7	0x3a92ebca	0.0011209187
8	0xbc97ea39	-0.018544303
9	0x3bc561c6	0.0060236184
10	0x3c9becaf	0.019033758
11	0xbc0ecf6c	-0.008716445
12	0x3c8a7db8	0.01690565
13	0x3c28d9e1	0.010305853
14	0x3c4e4587	0.012589819
15	0x3c1bdebe	0.009513555
16	0xbd2219f8	-0.039575547
17	0xbbe3d39d	-0.0069527165
18	0x3c288b6e	0.010287149
19	0xbc196643	-0.00936276
20	0x3c5ec8bc	0.0135976635
21	0xbe13f42a	-0.1444861
22	0x3b9b6112	0.0047417963
23	0x3b0de0cf	0.002164889
24	0x3c40c2e3	0.011765215
25	0x3d067d18	0.032834142
26	0xbc17ec36	-0.009272626
27	0xbbfef26f	-0.007780365
28	0x3c13e268	0.009026147
29	0xbc491e41	-0.0122752795
30	0xbc9a4e3b	-0.018836131
31	0xbaed1c81	-0.001809016
32	0xba3e238f	-0.00072532234
33	0xbd09c618	-0.033636183
34	0xbd4b0b87	-0.04957154
35	0xbc92a5f5	-0.0179014
36	0xbc4a6fcb	-0.012355755
37	0xbcfeff67	-0.031127645
38	0x3c24ece8	0.0100662485
39	0x3c0fcfa2	0.008777531
40	0xbc85db8d	-0.016340042
41	0xbc7b0798	-0.015321635
42	0xbcaac982	-0.02084804
43	0xbc92ee6d	-0.017935956
44	0xbc16debb	-0.0092083765
45	0xbda32fa5	-0.07968072
46	0x396b8962	0.00022462526
47	0xbc831632	-0.016001794
48	0x3bcd38c9	0.006262873
49	0xbca1c147	-0.019745482
50	0xbd00b18f	-0.031419333
51	0x3b46f0d3	0.0030355945
52	0x3cac7e13	0.02105621
53	0xbc56a8bc	-0.013101753
54	0xbd13909e	-0.03602659
55	0xbbcb0c16	-0.006196509
56	0x3d48ae98	0.04899463
57	0xbc940837	-0.018070323
58	0x3c58868e	0.013215674
59	0xbc9bb31c	-0.019006304
60	0xbc0f0378	-0.008728854
61	0xbb41139f	-0.0029461158
62	0x3c456d8e	0.012050046
63	0xbb996984	-0.004681768

encoder_b.convs.0.weight f4 [116, 64]
0	0x210485ea	4.4900573e-19
1	0x3d651311	0.055926386
2	0x3d962135	0.073305525
3	0x3d96afb8	0.073577344
4	0xbd1c6b88	-0.038188487
5	0x3d5013f0	0.050800264
6	0xbdcbbdc8	-0.09948307
7	0xbcb6e091	-0.022323878
8	0xbe1121b9	-0.1417302
9	0x165c37fc	1.7789124e-25
10	0x3d844757	0.064589195
11	0xbc47c5d1	-0.012193159
12	0x3caf27a3	0.021381205
13	0x3d40d7ec	0.04708092
14	0xb9e551bc	-0.0004373918
15	0x3ca6ac64	0.020345874
16	0xadcc07f7	-2.3195652e-11
17	0xbd4fc3f9	-0.050724003
18	0x3d5ff192	0.05467374
19	0x3d0324bf	0.032017466
20	0xba3454be	-0.00068790826
21	0x3d0e3b6f	0.03472465
22	0x3d4629e3	0.04837979
23	0xbd133ee0	-0.035948634
24	0xbd8722ed	-0.065984584
25	0x0401d917	1.526356e-36
26	0x3cf2175d	0.029552156
27	0x3d8abdfe	0.067745194
28	0x3cf4bbd7	0.029874725
29	0xbce13343	-0.027490264
30	0x3d048190	0.032350123
31	0xbadfa939	-0.0017063982
32	0xbcfc53dd	-0.030801708
33	0x00001735	8.325e-42
34	0x00001b1a	9.722e-42
35	0x3d39b313	0.045336794
36	0x00001ac6	9.604e-42
37	0xbd664d86	-0.056226276
38	0xa9e20ff7	-1.00391856e-13
39	0xbdbbd97c	-0.09172341
40	0x3e04c015	0.12963898
41	0x3d37192c	0.04470174
42	0xba9d8ab3	-0.0012019485
43	0x3d7d0bf8	0.061778992
44	0x3d08303f	0.033249136
45	0xa469f8e9	-5.0734656e-17
46	0xbcbe8d30	-0.023260683
47	0xbd7d2a41	-0.061807875
48	0x35b02eff	1.31267e-06
49	0x3caa0257	0.020753069
50	0x3c0cd487	0.008595592
51	0xbd43b61a	-0.047781087
52	0xbd887f05	-0.06664852
53	0xbc7a0884	-0.015260819
54	0x9c9517a8	-9.866108e-22
55	0xbdd93dde	-0.10607503
56	0x3d3f11be	0.04664778
57	0x3d690628	0.056890637
58	0xab66b8b2	-8.196873e-13
59	0x3cb1ba5d	0.02169531
60	0x3cb7ca95	0.022435466
61	0x80000d51	-4.777e-42
62	0x3d72de66	0.059294127
63	0x3d9d96a4	0.07694748
64	0x03bb6de5	1.1016103e-36
65	0x3d2b3529	0.041798744
66	0x3d898377	0.06714528
67	0x3d04bfd1	0.032409493
68	0x3d5c1408	0.05373004
69	0xbd77df36	-0.060515605
70	0xbd5fe21a	-0.054658987
71	0xbd1cf380	-0.038318157
72	0x3dc0911b	0.09402677
73	0x80002602	-1.3635e-41
74	0x3d3dc055	0.046326
75	0x3a574d39	0.0008213106
76	0x3a93dc42	0.0011280852
77	0x3d2b4f33	0.041823577
78	0xb93b26e8	-0.00017848203
79	0x3d242144	0.040070787
80	0xaa82296e	-2.3121387e-13
81	0xbdd2bdb3	-0.102900885
82	0x3b14f584	0.0022729347
83	0x3d2f56f3	0.04280753
84	0xb979be04	-0.00023817277
85	0x3d279a1b	0.04091845
86	0x3c708f97	0.014682672
87	0x3b0b785e	0.0021281461
88	0xbd0aaf6d	-0.033858705
89	0x24694857	5.0585095e-17
90	0x3b9de54e	0.004818595
91	0x3c8d8ea5	0.017279932
92	0x3cb090b0	0.021553367
93	0xbc4bae54	-0.0124317
94	0xbdc806f6	-0.09766953
95	0xba170cfe	-0.0005762129
96	0x3d819938	0.06328052
97	0x263e6099	6.6050406e-16
98	0x27352cd7	2.5143104e-15
99	0x3da7a764	0.08186224
100	0x80000e8f	-5.223e-42
101	0xbd7b1b0c	-0.06130509
102	0x0000105a	5.866e-42
103	0x3d83d078	0.06436247
104	0x3db3a89d	0.08772395
105	0x3d2afa55	0.04174264
106	0x3c6b8070	0.014373884
107	0xbd1508dc	-0.036385402
108	0x3d314611	0.04327971
109	0xa566f20a	-2.0031326e-16
110	0xbd589e33	-0.052885246
111	0xbd8fab6d	-0.07015119
112	0xb5890f59	-1.0211762e-06
113	0x3d7cae1c	0.06168948
114	0x3d7afc8c	0.061276004
115	0xbd7124bc	-0.058872923
116	0xbc00896e	-0.007845266
117	0x3de917a5	0.11381463
118	0x0000049c	1.654e-42
119	0x3cf9b807	0.030483259
120	0x3d860a1d	0.06544898
121	0xbd0a5023	-0.03376783
122	0xaa312b74	-1.5735834e-13
123	0x3d9594af	0.0730375
124	0x3cafc73b	0.021457305
125	0x05805e7c	1.207177e-35
126	0x3d3dd6e1	0.046347503
127	0xbca793fc	-0.020456307
128	0x800007cf	-2.801e-42
129	0x3d45589d	0.04818021
130	0x3cd316ad	0.025767649
131	0xbdbf19fc	-0.09331128
132	0xbd077fb6	-0.03308078
133	0x3d4f3331	0.05058593
134	0x3cdd81a0	0.02703935
135	0xbc2386a0	-0.009980828
136	0xbc05dd2a	-0.008170405
137	0x0bd590e4	8.226262e-32
138	0x3dc42926	0.09578161
139	0xbb963789	-0.004584257
140	0x3b993a99	0.004676175
141	0xbd4fde81	-0.050749306
142	0xb99282a7	-0.00027944634
143	0xbd378250	-0.04480201
144	0xa98eaa65	-6.3356255e-14
145	0x3c7c56b8	0.015401535
146	0x3d9c9a65	0.07646636
147	0xbbb06ef2	-0.0053843195
148	0xb999d85a	-0.0002934363
149	0x3d20fb40	0.03930211
150	0xbc2534ee	-0.01008342
151	0xbc0c3780	-0.008558154
152	0x3dd6ad4b	0.10482272
153	0x00000d74	4.826e-42
154	0xbb8f2e29	-0.0043695164
155	0x3d36bb8b	0.04461245
156	0x3c7aa093	0.015297073
157	0xbb3fa732	-0.0029243943
158	0x3daa8fcc	0.08328208
159	0xba0ee757	-0.00054513424
160	0x3c9715e7	0.018443061
161	0x27cd90dd	5.705599e-15
162	0x80032b6a	-2.9108e-40
163	0x3a1f3051	0.00060725684
164	0x8000243e	-1.3001e-41
165	0x3d055f5d	0.03256165
166	0x80001e58	-1.0885e-41
167	0x3db2de18	0.08733767
168	0xbdbe0d11	-0.09279836
169	0xbcc043fa	-0.023469914
170	0xbcb626c3	-0.02223528
171	0x3c53cb67	0.012926913
172	0x3b792ae0	0.003801994
173	0x2e8778a1	6.160517e-11
174	0x3d3f63cd	0.046726037
175	0x3d3e3df6	0.04644581
176	0x34835954	2.4465646e-07
177	0x3c787126	0.015163695
178	0xbc9b5e98	-0.018966004
179	0x3d361007	0.04444888
180	0x3c247cc9	0.010039517
181	0xbd61e5ef	-0.055150922
182	0x00001f0c	1.1138e-41
183	0xbcacdb1d	-0.021100575
184	0x3c945b66	0.018109988
185	0x3bfde571	0.007748299
186	0x249ba3d3	6.7498064e-17
187	0xbce8b256	-0.02840535
188	0xbc1cc1ee	-0.009567721
189	0x00001276	6.623e-42
190	0xbb77545e	-0.0037739496
191	0xbc20147f	-0.009770512
192	0x000005f9	2.143e-42
193	0xbd9a2bf0	-0.07527912
194	0xbc9c0767	-0.019046498
195	0xbc7bf8bd	-0.015379128
196	0x3d850efe	0.06497
197	0xbca9ce22	-0.020728175
198	0xbd6bcbdf	-0.057567474
199	0x3c1cacf9	0.009562724
200	0x3dc6328b	0.09677609
201	0x9a9e31e0	-6.5427846e-23
202	0xbdae28e1	-0.08503891
203	0x3ab2b55e	0.0013634374
204	0xbaf3ed5a	-0.0018610165
205	0xbd44127a	-0.047869183
206	0xb86c97c4	-5.6408127e-05
207	0x3d6cef4f	0.05784541
208	0x2f51c8be	1.9079757e-10
209	0x3d8f9d2b	0.07012399
210	0xbd32197f	-0.043481346
211	0xbb46e25d	-0.0030347325
212	0xb93ca606	-0.00017990926
213	0xbc93c0d7	-0.01803629
214	0xbc80fd2c	-0.015745722
215	0x3c389177	0.01126515
216	0xbd2d3c38	-0.042293757
217	0xa137d8a8	-6.2289554e-19
218	0xbe08cbd9	-0.13359012
219	0xbd88b8fa	-0.066759065
220	0xbc0af9ec	-0.008482438
221	0x3ca543c7	0.02017392
222	0xbcf5bdbb	-0.029997697
223	0x38fa32b7	0.00011930375
224	0x3b91c48a	0.004448478
225	0x00001fd5	1.1419e-41
226	0x00004b44	2.7e-41
227	0x3a8bcbe3	0.0010665621
228	0x8011f5cd	-1.64938e-39
229	0xbd80be5e	-0.0628631
230	0x9e5f1264	-1.1809325e-20
231	0x3d7b0c84	0.061291233
232	0xbd9ba2f9	-0.07599444
233	0x3c42a101	0.011879207
234	0x3cfea15e	0.031082805
235	0x3b93a87b	0.0045061684
236	0x3d17d41a	0.03706751
237	0xac82e755	-3.7205052e-12
238	0xba47e1d1	-0.0007624897
239	0x3cc1b4da	0.023645807
240	0xb69fbeae	-4.7607673e-06
241	0x3a1409f1	0.00056472333
242	0x3bf486f5	0.007462377
243	0xbcfcaced	-0.030844176
244	0x3d8593cf	0.06522333
245	0x3e146985	0.14493378
246	0x80002635	-1.3706e-41
247	0x3dd4d193	0.103915356
248	0xbca178aa	-0.019710857
249	0x3cf6109a	0.030037213
250	0x2e07dd39	3.089193e-11
251	0x3d24f382	0.04027129
252	0x3d76ca4b	0.060251515
253	0x093d187e	2.2761564e-33
254	0xbd8e5bc0	-0.06951094
255	0x3cdcf0ef	0.026970355

encoder_b.convs.0.bias f4 [64]
0	0xbcb91277	-0.022591813
1	0x3d6bfa89	0.057611976
2	0x3d1aa242	0.037752397
3	0x3c0e45bb	0.008683617
4	0x3c0ffa60	0.008787721
5	0x3ba8943c	0.005144624
6	0x3cd821c4	0.026383288
7	0x3c8ecb5d	0.017430956
8	0x3cd8d015	0.026466409
9	0xbc0fc172	-0.008774148
10	0x3c850ff7	0.016242964
11	0x3d1e670b	0.03867249
12	0xbcc937cb	-0.024562737
13	0x3cdbb034	0.026817419
14	0x3b803958	0.003913086
15	0xbc081ac6	-0.008307165
16	0xbc60bbe4	-0.013716672
17	0x3c479695	0.012181898
18	0x3d48c8ad	0.049019504
19	0x3d23abc4	0.03995873
20	0x3bc1ba90	0.0059121326
21	0x3c58fdaf	0.013244077
22	0x3bb371b6	0.005476202
23	0x3cd6834a	0.02618565
24	0x3ce6ef04	0.028190143
25	0xbc5fab30	-0.013651654
26	0x3d01d26b	0.03169481
27	0x3c492844	0.0122776665
28	0x3c521770	0.012822971
29	0x3c8787b2	0.016544197
30	0x3cb59c3e	0.022169229
31	0x3c2dab81	0.010599972
32	0x3ce81e44	0.028334744
33	0xbc9fad5d	-0.019491846
34	0xbb2a2ace	-0.0025965455
35	0x3d5919ac	0.053003
36	0xbb805b24	-0.003917115
37	0x3d42049b	0.047367673
38	0xbc809605	-0.015696535
39	0xbc976195	-0.018479148
40	0xbc28f4b9	-0.010312253
41	0x3d76d7d7	0.060264435
42	0x3ca94a07	0.020665182
43	0x3bd4fb7f	0.0064997072
44	0x3d1ac87b	0.03778885
45	0xbcaf8ddd	-0.02142995
46	0x3d6b7782	0.05748702
47	0xb9d4dafd	-0.0004059895
48	0xbc628407	-0.013825423
49	0x3c2d5e45	0.010581558
50	0xbacb8d53	-0.0015529789
51	0x3cddf66b	0.02709504
52	0x3cf51add	0.029920036
53	0x3c7ba9e1	0.0153603265
54	0xbd0036a5	-0.031302113
55	0x3ccb1a99	0.024792956
56	0x3a97e590	0.0011588801
57	0x3c9c2ed7	0.019065304
58	0xbc627ea0	-0.013824135
59	0x3c36e4db	0.011162962
60	0x3ca34876	0.019932013
61	0xbc96834e	-0.018373158
62	0x3ca34049	0.019928114
63	0x3d73eb44	0.05955054

encoder_b.convs.1.weight f4 [64, 64]
0	0x00001829	8.667e-42
1	0x00000238	7.96e-43
2	0x00000103	3.63e-43
3	0x00000caf	4.55e-42
4	0x99abe30b	-1.7772688e-23
5	0xae481057	-4.5489248e-11
6	0x2950b0b4	4.6338543e-14
7	0x000011b5	6.352e-42
8	0xa7368992	-2.533215e-15
9	0x0000073f	2.6e-42
10	0xac0c0b4c	-1.9901468e-12
11	0x218db043	9.601188e-19
12	0x254db6c7	1.7842843e-16
13	0x24a72270	7.2483045e-17
14	0xac892983	-3.898383e-12
15	0x1cf7cf04	1.6398601e-21
16	0x8000008d	-1.98e-43
17	0x00000c1f	4.348e-42
18	0x80001303	-6.82e-42
19	0xad226de2	-9.233033e-12
20	0x00000e7f	5.2e-42
21	0xa6a0202d	-1.1110952e-15
22	0x800021de	-1.2149e-41
23	0x28deeafc	2.474886e-14
24	0x2043b518	1.6577061e-19
25	0xa8c17dfb	-2.148194e-14
26	0x000006a7	2.386e-42
27	0x9c077384	-4.4817054e-22
28	0x1cc287a8	1.2872909e-21
29	0x0000003c	8.4e-44
30	0x80001341	-6.907e-42
31	0x00001b43	9.78e-42
32	0xac3f381a	-2.7173875e-12
33	0x80000781	-2.692e-42
34	0xae97e504	-6.907366e-11
35	0x2dc2b0f0	2.2133823e-11
36	0xae61bfd6	-5.132946e-11
37	0x8ea6d3a9	-4.112598e-30
38	0xa38a7d17	-1.5014968e-17
39	0x1e190f62	8.102934e-21
40	0xa35f0298	-1.20894035e-17
41	0x00002455	1.3033e-41
42	0x0901f9fe	1.5645356e-33
43	0x0000238b	1.275e-41
44	0x80001383	-7e-42
45	0x0000167d	8.067e-42
46	0xae2f2244	-3.9820827e-11
47	0x251e7b52	1.3746098e-16
48	0x00002489	1.3106e-41
49	0x80001e77	-1.0929e-41
50	0x2422ed65	3.532923e-17
51	0xabe948d5	-1.6575861e-12
52	0x0000144b	7.28e-42
53	0xa5beac47	-3.3076486e-16
54	0x800011e7	-6.422e-42
55	0x97896604	-8.87917e-25
56	0xa799c73f	-4.2682054e-15
57	0x000017e2	8.568e-42
58	0x12e38a53	1.4359814e-27
59	0x000018d9	8.914e-42
60	0x2a8b39f0	2.4731562e-13
61	0x80000aca	-3.87e-42
62	0xa256befe	-2.9103519e-18
63	0xacc8cb02	-5.7068803e-12
64	0x00001023	5.789e-42
65	0x3dbd3ab9	0.09239716
66	0x3db94b28	0.09047538
67	0x842a8dc8	-2.0048507e-36
68	0x3dd580fc	0.104249924
69	0xbd958be8	-0.073020756
70	0x3c05d962	0.008169504
71	0x80001300	-6.816e-42
72	0xbd30ae0c	-0.043134734
73	0x3b6239b7	0.0034519264
74	0x3a8fa3e0	0.0010958873
75	0x8000058e	-1.993e-42
76	0xbdebd0bb	-0.115144216
77	0xbbcc4b0a	-0.0062345313
78	0x3e0f1e72	0.13976458
79	0x3bfdf552	0.0077501917
80	0x000007ef	2.846e-42
81	0x3c8d1439	0.017221557
82	0x3deca336	0.115545675
83	0x3c70e499	0.014702939
84	0x3dd9624a	0.1061445
85	0x3cc17704	0.023616321
86	0x3d7fd2ae	0.06245678
87	0xbceb5a12	-0.028729472
88	0xbcde92df	-0.027169643
89	0xbdcf7adb	-0.10130855
90	0x34a1c39c	3.0130911e-07
91	0x3d366b11	0.0445357
92	0xbc7fb588	-0.015607245
93	0x00000752	2.626e-42
94	0x3ddec92e	0.10878216
95	0x27df0521	6.1900494e-15
96	0x3d799a0a	0.06093792
97	0x9d18095b	-2.012187e-21
98	0xa8cdf765	-2.2866862e-14
99	0x3cdd1c98	0.026991174
100	0xb3db0d63	-1.0200417e-07
101	0x3cdb5975	0.026776055
102	0x3cc6f84f	0.024288325
103	0x30b7c2d3	1.3370375e-09
104	0xbaf29fe0	-0.0018510781
105	0xb44671b7	-1.8481556e-07
106	0xba2ec248	-0.00066665234
107	0x3de328f0	0.110917926
108	0x3c3a746f	0.011380299
109	0x3da5f8d4	0.08104101
110	0xa34b8c21	-1.10343255e-17
111	0x0000259d	1.3493e-41
112	0xb22c64ba	-1.003462e-08
113	0x3ce29af9	0.027661787
114	0x00001d0c	1.042e-41
115	0x3d16f9f7	0.03685948
116	0x3daa0d09	0.083032675
117	0x3d936582	0.071970955
118	0x3cc5acf5	0.024130324
119	0xad575180	-1.2239432e-11
120	0xbce14e1c	-0.027503066
121	0x3cc61c29	0.02418335
122	0xbce9f65a	-0.028559852
123	0x2af5e006	4.367619e-13
124	0x3c9b77f3	0.018978095
125	0xbc93b74f	-0.018031744
126	0x3d2ae4af	0.041721996
127	0x3c16e283	0.009209278
128	0xab511d74	-7.429259e-13
129	0x3d8647b5	0.06556646
130	0x3d3dd139	0.04634211
131	0x00001cad	1.0287e-41
132	0xbd9e2608	-0.07722098
133	0xbd571c0e	-0.05251699
134	0x3d8aabbd	0.06771038
135	0xa523d35a	-1.4209605e-16
136	0xbd8f90c4	-0.07010034
137	0xbc55f154	-0.013058025
138	0xbcd3c02f	-0.025848476
139	0xad992005	-1.7408306e-11
140	0xbcf5d717	-0.03000979
141	0x3d7306f9	0.05933282
142	0x3de0be04	0.109737426
143	0x3d8cdbba	0.06877847
144	0x25e63750	3.993612e-16
145	0xbd10919b	-0.03529511
146	0x39c1594e	0.00036878366
147	0xbc56e7d4	-0.013116796
148	0x3da44f92	0.08022989
149	0x3d930f11	0.07180608
150	0xbb34f938	-0.0027614366
151	0xbd9edd8e	-0.07757102
152	0xbcd3e111	-0.025864156
153	0xbdbe6fd0	-0.0929867
154	0x96a31156	-2.634501e-25
155	0xbdae3783	-0.08506682
156	0xbd569d7d	-0.052396286
157	0x80000019	-3.5e-44
158	0x3d6de163	0.058076274
159	0x9a3789e4	-3.79549e-23
160	0xbd5e0108	-0.054200202
161	0xa2f2b81f	-6.5789177e-18
162	0x9726cbb2	-5.3894592e-25
163	0xbd6edb8a	-0.058314838
164	0xb390dfb0	-6.746211e-08
165	0x3dc1e03c	0.094665974
166	0x3d65b7f0	0.05608362
167	0x80000ecd	-5.31e-42
168	0xbc8b35eb	-0.016993484
169	0xaf9e6eba	-2.8818709e-10
170	0xb9ad7fa3	-0.00033092228
171	0x3d1126e0	0.035437465
172	0x3d740e16	0.059583746
173	0x3d497ebb	0.049193125
174	0x00001960	9.103e-42
175	0x00001614	7.92e-42
176	0xb204adc5	-7.722922e-09
177	0x3d7aa1e5	0.06118955
178	0x800018c3	-8.883e-42
179	0xbcdfb8ae	-0.027309742
180	0xbcaa5928	-0.020794466
181	0xbcd34a3f	-0.02579224
182	0x3d8a0dde	0.06740926
183	0x23654f9d	1.2430974e-17
184	0x3d10f486	0.035389446
185	0xbc542b03	-0.012949708
186	0xbd55302b	-0.05204789
187	0x00002295	1.2406e-41
188	0xbd6a9320	-0.057269216
189	0xbd9ef9dd	-0.077625014
190	0xbd94d2d7	-0.07266777
191	0x3d9a45f6	0.07532875
192	0x04a790cb	3.9394483e-36
193	0x3dde5b1d	0.10857222
194	0xbd1df852	-0.038566895
195	0x8a0bb3cd	-6.726423e-33
196	0xbda0b3b4	-0.07846776
197	0xbd393e2f	-0.04522532
198	0x3cd574e1	0.026056709
199	0xa2bc69e2	-5.106961e-18
200	0xbe371e9f	-0.17882775
201	0xbc42869f	-0.0118729165
202	0xbdcfed48	-0.1015268
203	0xa4d8c01a	-9.40005e-17
204	0xbe1a964e	-0.15096399
205	0xbc5f4a88	-0.0136286095
206	0x3e287ba5	0.16453417
207	0x3d5c96cb	0.053854745
208	0xa5de1b11	-3.8529202e-16
209	0xbca3e30c	-0.020005725
210	0xbdfb4926	-0.12269811
211	0xbcb98b8e	-0.022649553
212	0x3c4a824d	0.012360168
213	0x3d8dda40	0.069263935
214	0x3bc0ac36	0.005879904
215	0xbe195419	-0.14973487
216	0x3ba0cd7f	0.0049073095
217	0xbcfb2a97	-0.030659957
218	0xa36f148f	-1.2960569e-17
219	0xbdce72f3	-0.100805186
220	0xba45a116	-0.0007538957
221	0x000008a0	3.094e-42
222	0x3e0e0712	0.13869885
223	0x23fbe40b	2.7310054e-17
224	0xbe18f34b	-0.14936559
225	0xa0d91357	-3.6774028e-19
226	0x8000147e	-7.351e-42
227	0xbd30b162	-0.043137915
228	0xb3adbb60	-8.0900236e-08
229	0x3cf4d438	0.02988635
230	0x3d65171a	0.055930234
231	0xac61a6d6	-3.2067036e-12
232	0xbc30e754	-0.01079734
233	0xab8219d1	-9.244221e-13
234	0xba3b1a4b	-0.0007137402
235	0x3bda7fc3	0.0066680624
236	0x3df1ce54	0.11806932
237	0x3d71ca2e	0.059030704
238	0x0000023a	7.99e-43
239	0xa46d7766	-5.1492317e-17
240	0x303ad65c	6.797103e-10
241	0x3da8681e	0.08222984
242	0x22987035	4.1318486e-18
243	0xbd9af65c	-0.075665206
244	0x3d85870d	0.065198995
245	0x3cef5e16	0.029219668
246	0x3d760bdb	0.0600699
247	0x03d1f1ac	1.2339401e-36
248	0x3d542840	0.051796198
249	0xbd92f0e2	-0.07174851
250	0xbd3d0a5e	-0.046152465
251	0x945c9d40	-1.1138174e-26
252	0xbd2fc24b	-0.0429099
253	0xbde3ffb2	-0.111327544
254	0xbd91baea	-0.07115729
255	0x3d07e53d	0.033177603

encoder_b.convs.1.bias f4 [64]
0	0xbcd98a6d	-0.026555264
1	0x3d5b5bd4	0.05355437
2	0x3d8f2820	0.06990075
3	0xb7b27cc8	-2.127736e-05
4	0xbc07b1b5	-0.008282115
5	0xbbff84d3	-0.0077978163
6	0x3d5c7c7b	0.05382965
7	0xbcb7c32e	-0.022431936
8	0x3cdcc3dd	0.026948864
9	0xbc9f11ab	-0.019417604
10	0x3cbebd40	0.0232836
11	0xbbcb6a7e	-0.006207763
12	0x3cbd7ec7	0.023131741
13	0x3d1da98a	0.038491763
14	0x3d86de47	0.06585365
15	0x3d2e1196	0.04249724
16	0xbb879b13	-0.0041383593
17	0xbbbaa8a1	-0.0056963717
18	0x3d3e50d8	0.046463817
19	0xbc966681	-0.018359425
20	0x3d3a0a1b	0.045419794
21	0x3d9da701	0.07697869
22	0x3d35256d	0.044225145
23	0xbd25d6a6	-0.040487908
24	0xbc0932c2	-0.008373918
25	0x3cf0da0a	0.029400844
26	0xbc3c529e	-0.011494307
27	0x3b548145	0.0032425683
28	0x3c367784	0.011136893
29	0xba0eb13c	-0.000544328
30	0x3c35e722	0.01110247
31	0xbbbc44b9	-0.005745497
32	0x3cd78f60	0.026313484
33	0xbc0a9b3e	-0.008459864
34	0xbbf5b5c3	-0.0074984743
35	0x3b9c4fa2	0.004770235
36	0x3554f4e6	7.933253e-07
37	0x3d63f859	0.055656765
38	0x3d751350	0.05983287
39	0xbb8cec6b	-0.004300644
40	0xbb716ae8	-0.0036837403
41	0xb9abae98	-0.00032745744
42	0x3c30a46b	0.010781388
43	0x3d5905bd	0.052983988
44	0x3d42dc94	0.04757364
45	0xbb86dd90	-0.004115768
46	0xbc0c5d1c	-0.008567121
47	0xb3fe8343	-1.1851673e-07
48	0x330eacce	3.3219116e-08
49	0x3d6203db	0.055179458
50	0xbc65f43e	-0.014035283
51	0x3d3ed845	0.04659297
52	0x3d1b202a	0.03787247
53	0x39bdb10b	0.00036180796
54	0x3d70f98f	0.058831748
55	0xbba8454c	-0.005135214
56	0x3d274577	0.04083773
57	0x3d01d573	0.0316977
58	0x3c68b913	0.014204281
59	0xbaadabd0	-0.0013250057
60	0x3cb048d7	0.021519108
61	0x3bb699ce	0.005572534
62	0xbbfd78b5	-0.0077353367
63	0x3d8d4e62	0.06899716

encoder_b.convs.2.weight f4 [64, 64]
0	0x2c96c2de	4.284891e-12
1	0xad93eefc	-1.6818096e-11
2	0x800016da	-8.198e-42
3	0x00001f2a	1.118e-41
4	0xa906eba2	-2.9958356e-14
5	0x8000004b	-1.05e-43
6	0xad1ac095	-8.796648e-12
7	0x28a51ccd	1.833117e-14
8	0x800010d1	-6.033e-42
9	0x0000003d	8.5e-44
10	0x0901e240	1.5634192e-33
11	0x9619a000	-1.2409729e-25
12	0x00001f84	1.1306e-41
13	0x80000cd4	-4.602e-42
14	0x00002257	1.2319e-41
15	0x80001753	-8.367e-42
16	0x80000391	-1.28e-42
17	0x8f47821c	-9.836516e-30
18	0x20f0514a	4.0711374e-19
19	0x000021f4	1.218e-41
20	0xaef02c90	-1.0921852e-10
21	0xaf1d4ca5	-1.4306296e-10
22	0x00000b5d	4.076e-42
23	0x94c9c86a	-2.0374863e-26
24	0x27d1731f	5.8133968e-15
25	0x0004f401	4.54874e-40
26	0x000010f5	6.083e-42
27	0x000001b2	6.08e-43
28	0x24ad0adf	7.5045207e-17
29	0x26bea509	1.3228631e-15
30	0x00000e8c	5.218e-42
31	0x00001c6a	1.0193e-41
32	0x1db60c03	4.818742e-21
33	0x2815bfbf	8.31274e-15
34	0x00001de9	1.073e-41
35	0xa69048e1	-1.0011761e-15
36	0x0000195f	9.101e-42
37	0x28c59367	2.193532e-14
38	0x00001874	8.772e-42
39	0x00000051	1.14e-43
40	0x2929d745	3.7712255e-14
41	0x0000037f	1.254e-42
42	0x8eba5874	-4.5937717e-30
43	0x80001624	-7.943e-42
44	0x800012a2	-6.684e-42
45	0x00001d26	1.0456e-41
46	0x800006d1	-2.445e-42
47	0x800009cf	-3.519e-42
48	0xad80ae1e	-1.4629239e-11
49	0x00000e6b	5.172e-42
50	0x22b6f2bc	4.9588204e-18
51	0x2853f617	1.1766215e-14
52	0x800019e3	-9.286e-42
53	0x800024d2	-1.3209e-41
54	0x0000041b	1.473e-42
55	0x80001911	-8.992e-42
56	0x03ebe5f1	1.3864851e-36
57	0x2dbc9d15	2.1442884e-11
58	0x0683f75c	4.9640185e-35
59	0x00001598	7.746e-42
60	0x00001be4	1.0005e-41
61	0x86a12677	-6.061799e-35
62	0x84136222	-1.7324827e-36
63	0x80002374	-1.2718e-41
64	0xbd0a19eb	-0.033716124
65	0xbdd9e4e9	-0.10639364
66	0xbd16abd5	-0.036784966
67	0x3da1a4ad	0.078927375
68	0x3d398499	0.04529247
69	0xbdac5336	-0.08414309
70	0xbd9ec653	-0.07752671
71	0x3aa84375	0.0012837487
72	0xbccce400	-0.025011063
73	0xbca72a99	-0.020406054
74	0xbd8b706b	-0.068085514
75	0xbac9e98c	-0.0015404685
76	0xbdd44a44	-0.103657275
77	0x3dd08fe1	0.10183693
78	0xbc90213c	-0.017593972
79	0xbdfda5a4	-0.12385109
80	0xbd6c95d5	-0.05776008
81	0x3ce2b39a	0.027673531
82	0x3e155a02	0.14585117
83	0xbcf8cb02	-0.03037024
84	0xbd43668b	-0.047705214
85	0x3dd15321	0.10220934
86	0x3b06ce49	0.0020569733
87	0x3de89cd9	0.11358041
88	0x3d12e3fd	0.035861958
89	0x3d4bbaa9	0.04973856
90	0x3d9f208c	0.0776988
91	0xbcf25e23	-0.029585904
92	0x3d968a59	0.073506065
93	0xbccc5af9	-0.024945723
94	0xbde2c9ab	-0.11073621
95	0xbd895109	-0.06704909
96	0xbd01851e	-0.03162109
97	0x3dc5f57d	0.09665964
98	0xbccbbcb9	-0.024870263
99	0xbe08a145	-0.1334277
100	0xbd7599a3	-0.059960973
101	0x3e199955	0.14999898
102	0xbc10b33a	-0.008831793
103	0x3c89af92	0.016807351
104	0xbdb6997d	-0.08915994
105	0x3da1caf8	0.07900041
106	0x3d8bf2e7	0.06833439
107	0xbcb0208b	-0.021499893
108	0x3d26459f	0.04059374
109	0x3e08cc1d	0.13359113
110	0xbd449f1e	-0.04800331
111	0xbc1979e9	-0.009367445
112	0x3ca26fcf	0.019828705
113	0xbdc6e4a6	-0.0971158
114	0xbd4a7f49	-0.049437795
115	0xbdcf1c5d	-0.10112832
116	0xbcc26f46	-0.0237347
117	0x3c9bab84	0.019002683
118	0xbda44c91	-0.080224164
119	0x3c026df8	0.007960789
120	0x3d163bd1	0.03667814
121	0xbe014efa	-0.12627783
122	0x3e12dfa1	0.1434312
123	0x3d4cf3a6	0.05003705
124	0x3e12a60d	0.14321156
125	0xbd152568	-0.036412627
126	0x3d35bbb7	0.044368472
127	0xbd7279de	-0.059198253
128	0xbcad06ba	-0.021121372
129	0xbdac3614	-0.08408752
130	0xbe17c884	-0.14822584
131	0xbdb99590	-0.0906173
132	0xbb1e4a0e	-0.0024153027
133	0xbdfc03a5	-0.12305383
134	0x3d75d462	0.060016997
135	0xbd7fbd63	-0.062436473
136	0x3cd346d6	0.025790613
137	0xbe05b2e2	-0.1305652
138	0xbd20d146	-0.03926208
139	0xbd793a22	-0.060846455
140	0xbdc6fe4b	-0.09716471
141	0x3d2a0f63	0.04151858
142	0xbd0bf23c	-0.03416656
143	0x3e03e321	0.12879612
144	0x3bd1ab62	0.0063986043
145	0x3da485d1	0.08033336
146	0x3e0f1487	0.13972674
147	0x3d9c6f1f	0.07638382
148	0x3e050565	0.12990339
149	0x3dc96180	0.0983305
150	0xbd9a164b	-0.07523783
151	0x3df0dcd3	0.11760869
152	0x3b0d9f7c	0.0021609953
153	0x3da5ebf6	0.081016466
154	0x3d548cff	0.051892277
155	0xbdd0c6be	-0.10194157
156	0xbb96f170	-0.0046064183
157	0x3d04efb3	0.032455157
158	0xbdb40392	-0.087897435
159	0xbd51470f	-0.051093157
160	0x3d9d78cd	0.076890565
161	0xbba41c32	-0.005008244
162	0x3de00fc5	0.10940508
163	0x3d453239	0.0481436
164	0xbdf06928	-0.11738807
165	0x3dd83bdb	0.105582915
166	0x3deb25c8	0.114818156
167	0x3dcf2542	0.10114528
168	0x3c52239b	0.012825872
169	0xbd92b89e	-0.07164119
170	0x3d9ff088	0.078095496
171	0x3d59d870	0.053184927
172	0xbd74f359	-0.059802387
173	0xbd84f6a5	-0.06492356
174	0xbcd3c277	-0.025849564
175	0x3d71ec90	0.059063494
176	0x3d8f5aa2	0.06999709
177	0xbdc0b93b	-0.0941033
178	0x3db219eb	0.0869635
179	0x3d92ad7f	0.07161998
180	0xbdfa407f	-0.12219333
181	0xbd3cca26	-0.04609122
182	0xbde7813a	-0.11303945
183	0x3daeb24c	0.08530101
184	0xbc90e70f	-0.017688302
185	0xbd7802ce	-0.06054955
186	0xbdda610d	-0.10663042
187	0x3dd62a41	0.10457278
188	0x3c431d99	0.011908912
189	0xbdba8938	-0.09108204
190	0x3d5c5f11	0.0538016
191	0xbda801b6	-0.08203451
192	0xa8a39ecf	-1.8165508e-14
193	0x2890c1ea	1.6071308e-14
194	0x2a624d17	2.0099578e-13
195	0x9d96786e	-3.982919e-21
196	0x000010c8	6.02e-42
197	0x80001151	-6.212e-42
198	0x1fdd9ed4	9.38599e-20
199	0x00000134	4.32e-43
200	0x80022532	-1.97014e-40
201	0x0cb1372c	2.7304373e-31
202	0x17aa060c	1.0987519e-24
203	0x80001d72	-1.0563e-41
204	0x2b67f049	8.240115e-13
205	0x8000140b	-7.19e-42
206	0x85036e10	-6.179806e-36
207	0x80001554	-7.651e-42
208	0x29f2da09	1.0784782e-13
209	0x00001a50	9.439e-42
210	0x0002824c	2.30413e-40
211	0xa61f2d5b	-5.5225675e-16
212	0x0005baa7	5.26136e-40
213	0x000015c8	7.814e-42
214	0x0783eefd	1.9851154e-34
215	0xa90a18d8	-3.0663704e-14
216	0xaeb46626	-8.2035975e-11
217	0x89cb3ae9	-4.892587e-33
218	0x000602b0	5.51977e-40
219	0x8000177c	-8.425e-42
220	0x802811ef	-3.679853e-39
221	0x2612c1c6	5.091654e-16
222	0x00002395	1.2764e-41
223	0x18a914ca	4.3706468e-24
224	0x1900d401	6.660259e-24
225	0xa1840f15	-8.94866e-19
226	0x27ca7306	5.619097e-15
227	0x93ff4eb7	-6.444867e-27
228	0x80001517	-7.566e-42
229	0xac3f5ff4	-2.7195997e-12
230	0x05266428	7.823678e-36
231	0x2732ebe3	2.4830337e-15
232	0x800022ad	-1.244e-41
233	0x0047b742	6.586061e-39
234	0x8000041f	-1.478e-42
235	0x0000234c	1.2662e-41
236	0x2c70c9bb	3.4218034e-12
237	0x9ed0ca25	-2.2106462e-20
238	0x268531c7	9.242221e-16
239	0x800003b9	-1.335e-42
240	0x00001fa0	1.1345e-41
241	0x815db0de	-4.0718185e-38
242	0x00001bae	9.93e-42
243	0x1048d007	3.9603304e-29
244	0x00000464	1.575e-42
245	0x0000116b	6.248e-42
246	0x0afebf46	2.453126e-32
247	0x80000db9	-4.923e-42
248	0x232d7929	9.4040055e-18
249	0x80002328	-1.2612e-41
250	0x0000088d	3.067e-42
251	0x000005e2	2.11e-42
252	0xa3a4d976	-1.7873014e-17
253	0x2e99d7f3	6.995995e-11
254	0x83714cec	-7.0911837e-37
255	0x2ae6b1ee	4.097967e-13
