results/ADHD_3x5fold_seed0/fold2_rep1_seed1002/ckpt_best_fold_2.pt (torch, 660342 bytes, 72 tensors)

encoder_c.convs.0.weight f4 [116, 64]
-0.20511927 0.14937453 -0.12670186 0.013961894 0.011350175 -0.05572497 -0.019662557 -0.15116875
0.087906025 -0.0062502753 0.16721398 -0.12637648 -0.05169836 0.042119667 -0.16171193 -0.04401195
0.026471408 -0.1026685 -0.060216237 0.1290515 0.06691735 0.15263908 -0.021859713 0.018341903
-0.15956649 0.030151233 -0.042673495 -0.123450875 0.006400204 0.12577492 -0.04194778 0.08810862
0.08968168 -0.008959447 0.03791535 0.014841333 0.070128985 0.06358591 0.050595157 0.09476287
0.11782619 0.00015492839 0.1045231 -0.063686185 -0.114410914 -0.06655818 0.063196786 -0.16669036
-0.022305882 -0.042912107 -0.12682821 0.16518864 0.03837007 0.112140104 0.13806364 0.0427642
-0.13974674 0.093751974 0.09111491 -0.04725975 -0.09436738 0.073568195 0.07279176 0.12505463
0.020250116 0.10844516 -0.124308534 -0.04671154 0.04820757 -0.19090942 -0.078097396 0.025482802
-0.109355286 0.010976694 0.07881638 -0.06635904 0.12239133 0.07180662 -0.005251861 -0.11926146
0.14904098 0.0024600688 -0.07860411 0.21130098 -0.112350546 0.17922267 -0.0022799016 0.11367137
0.008659864 0.06223187 0.17544752 -0.08816443 -0.05881341 -0.0026335437 -0.116806164 0.16056357
0.1660062 0.1091138 0.05323593 0.15332437 0.029823873 -0.08071606 0.0062497435 -0.040267196
-0.059605252 0.04938653 0.17887254 0.038155984 -0.0016130285 0.00958604 0.022629505 0.008111296
0.032845046 0.05109844 -0.08638533 0.07299503 0.034017447 -0.02822919 -0.012692335 0.012397882
-0.101701505 -0.04948287 -0.08592302 -0.042232994 0.026678523 0.10628629 0.11949542 0.066026144
0.091843575 0.041262943 -0.16122405 -0.087461494 -0.05754027 -0.13829467 0.05945316 0.029173236
-0.10205315 -0.137856 0.02692816 -0.07006982 -0.11432361 -0.011212163 0.06560351 -0.08373438
-0.008365451 -0.087157354 -0.048639994 0.1364955 0.03408169 -0.021861305 0.08618276 0.14227816
0.04513373 -0.16112316 -0.10633679 -0.0391138 -0.03909745 -0.07569447 0.05420287 0.09739157
-0.0505447 0.16681115 0.056417517 0.08635567 -0.036022186 0.059504956 -0.15146099 -0.13084468
0.1115431 -0.097061716 0.06579222 -0.17011975 0.01629036 -0.012179455 0.1421528 0.012476676
-0.031240249 0.03176323 -0.06285601 -0.21234289 0.046155468 -0.036498982 0.12227678 -0.105975345
-0.093534544 -0.1494836 -0.088178925 -0.045491423 -0.08363877 -0.106925175 0.030622087 0.03844273
0.08132045 0.09654515 -0.0684446 0.007391857 -0.1246539 0.19648212 -0.13416383 -0.08282694
-0.09922316 -0.1893684 0.046079375 -0.1586772 0.029474277 -0.10370396 0.03416943 0.08042443
-0.049119238 -0.048347387 -0.1274458 -0.09541563 0.0737661 -0.047333438 0.048780736 0.12822773
0.19575457 -0.09698118 0.14645672 -0.14360209 -0.076167054 0.1272951 0.08366121 0.042666562
-0.1220758 0.01771405 0.078098856 0.01609753 0.10851713 0.04483894 0.040908057 0.042942327
0.14528143 -0.0026300675 -0.03435119 -0.04849622 0.053592168 0.016076505 -0.055516437 0.050941274
-0.115946576 -0.15747453 0.11406467 0.0043001166 0.06733614 -0.05548942 0.002834007 0.03646945
-0.07245401 -0.10455733 -0.18751924 -0.09665296 -0.026428195 -0.0849274 0.07767832 0.024764735
00000000: c90a 52be a3f5 183e 22be 01be 6ec0 643c
00000010: 16f6 393c de3f 64bd 5f13 a1bc fbcb 1abe
00000020: 1308 b43d 1ccf ccbb 243a 2b3e d668 01be
00000030: a9c1 53bd ac85 2c3d d097 25be e045 34bd
00000040: 91da d83c dd43 d2bd 4da5 76bd 1426 043e
00000050: f70b 893d 6b4d 1c3e 2413 b3bc c241 963c
00000060: 6665 23be b8ff f63c 67ca 2ebd d0d3 fcbd
00000070: cdb8 d13b 24cb 003e 6fd1 2bbd 4b72 b43d
00000080: 07ab b73d a5ca 12bc 204d 1b3d 1029 733c
00000090: c99f 8f3d 5439 823d de3c 4f3d 0913 c23d
000000a0: dc4e f13d 4674 2239 3510 d63d e76d 82bd
000000b0: 4550 eabd a84f 88bd 516d 813d e1b0 2abe
000000c0: d3ba b6bc 9bc4 2fbd 41df 01be 3627 293e
000000d0: ef29 1d3d b6a9 e53d 8e60 0d3e 8429 2f3d
000000e0: c519 0fbe 0901 c03d 749a ba3d 7193 41bd
000000f0: af43 c1bd ecaa 963d d913 953d 520e 003e
00000100: 92e3 a53c 7f18 de3d 7995 febd 9a54 3fbd
00000110: 4d75 453d c27d 43be 87f1 9fbd 4fc1 d03c
00000120: aaf5 dfbd 97d7 333c 7b6a a13d 40e7 87bd
00000130: 4ea8 fa3d 590f 933d ce17 acbb 5a3f f4bd
00000140: 339e 183e 1b39 213b 31fb a0bd 495f 583e
00000150: 0b18 e6bd 2686 373e 676a 15bb 89cc e83d
00000160: 1ae2 0d3c d8e6 7e3d 84a8 333e 8d8f b4bd
00000170: 55e6 70bd 8897 2cbb 1238 efbd c76a 243e
00000180: 87fd 293e 0e77 df3d eb0d 5a3d 1001 1d3e
00000190: 3251 f43c 764e a5bd a6ca cc3b 37ef 24bd
000001a0: a324 74bd 8849 4a3d 5d2a 373e 7349 1c3d
000001b0: 416c d3ba c40e 1d3c 8361 b93c 3ee5 043c
000001c0: 8788 063d 994c 513d cbea b0bd 6b7e 953d
000001d0: e155 0b3d e740 e7bc 83f3 4fbc 7c20 4b3c
000001e0: e148 d0bd 8dae 4abd 69f8 afbd 81fc 2cbd
000001f0: eb8c da3c a0ac d93d 04ba f43d b738 873d
00000200: 7c18 bc3d 5503 293d eb17 25be 031f b3bd
00000210: 59af 6bbd 1e9d 0dbe 2885 733d b6fc ee3c
00000220: 3e01 d1bd 202a 0dbe 7298 dc3c c480 8fbd
00000230: 7f22 eabd 38b3 37bc 225b 863d ee7c abbd
00000240: 3f0f 09bc 8e7f b2bd bb3a 47bd 7ac5 0b3e
00000250: 3e99 0b3d 7b16 b3bc 9680 b03d 5eb1 113e
00000260: 25de 383d 78fd 24be 1ac7 d9bd cb35 20bd
00000270: a624 20bd b405 9bbd d403 5e3d 3b75 c73d
00000280: f607 4fbd 8bd0 2a3e 0e16 673d 3edb b03d
00000290: 008c 13bd 78bb 733d 9718 1bbe 26fc 05be
000002a0: b570 e43d 4bc8 c6bd 12be 863d df33 2ebe
000002b0: 5c73 853c 568c 47bc 8190 113e f96a 4c3c
000002c0: 8deb ffbc 291a 023d a7ba 80bd 6a70 59be
000002d0: 840d 3d3d f57f 15bd 406c fa3d 9a09 d9bd
000002e0: 0a8f bfbd 3b12 19be 2797 b4bd 3755 3abd
000002f0: ce4a abbd 96fb dabd 2cdb fa3c 2076 1d3d
00000300: 568b a63d 77b9 c53d af2c 8cbd 6437 f23b
00000310: 8b4a ffbd 9c32 493e 3e62 09be 2ca1 a9bd
00000320: 8335 cbbd cae9 41be babd 3c3d 477c 22be
00000330: 0a74 f13c be62 d4bd 3ff5 0b3d 90b5 a43d
00000340: 4131 49bd e907 46bd 2781 02be 4569 c3bd
00000350: ae12 973d b5e0 41bd 4fce 473d 214e 033e
00000360: e373 483e 129e c6bd c0f8 153e 6d0c 13be
00000370: 79fd 9bbd a659 023e 9256 ab3d 22c3 2e3d
00000380: e102 fabd 0e1d 913c 4bf2 9f3d f8de 833c
00000390: 3b3e de3d 09a9 373d 358f 273d 4be4 2f3d
000003a0: a8c4 143e 365d 2cbb d5b3 0cbd f9a3 46bd
000003b0: 7683 5b3d e0b2 833c 3465 63bd cca7 503d
000003c0: 6675 edbd 0141 21be bd9a e93d fee7 8c3b
000003d0: 88e7 893d e048 63bd bfba 393b fd60 153d
000003e0: c562 94bd 2722 d6bd 0b05 40be fdf1 c5bd
000003f0: f17f d8bc 6bee adbd d015 9f3d 6adf ca3c

encoder_c.convs.0.bias f4 [64]
0.0019712124 0.0149685675 -0.010073449 -0.0010078042 0.0054473234 -0.018519532 0.008450542 0.02349606
0.025367185 -0.0018252312 0.029865209 0.016797254 0.016794827 0.008731644 0.013196895 0.022533897
0.036094632 -0.0011168899 0.031195166 0.02751556 0.0013476269 0.035313107 0.008627158 0.008752462
-0.0056934464 0.017557297 0.013702897 0.00040650714 0.018397937 0.026539473 0.007163334 0.04717965
-0.009798707 0.017993482 -0.0038664248 0.0010255846 0.010190132 0.010864298 0.009831755 0.018162174
0.046467617 0.043626066 0.016880127 0.002227529 0.015237479 0.024518644 -0.0061612115 -0.008283503
0.015314746 0.012308582 -0.00025881064 0.0068358923 0.0049610054 0.012277747 0.025296066 0.006239124
0.004638104 0.00411905 0.02450796 0.0145345675 0.004458751 0.007963663 0.009108805 -0.0025518045
00000000: 752f 013b b93e 753c 1c0b 25bc 4c18 84ba
00000010: 767f b23b 46b6 97bc 2474 0a3c cf7a c03c
00000020: d8ce cf3c 993c efba e2a7 f43c 659a 893c
00000030: 4e95 893c 2b0f 0f3c ca37 583c 0299 b83c
00000040: f7d7 133d 9b64 92ba 018d ff3c 5068 e13c
00000050: dba2 b03a 7aa4 103d ec58 0d3c 7d66 0f3c
00000060: 1790 babb 52d4 8f3c 1e82 603c 7720 d539
00000070: 45b7 963c 4f69 d93c 67ba ea3b 733f 413d
00000080: c28a 20bc 1167 933c d863 7dbb e96c 863a
00000090: 83f4 263c 2b00 323c 5f15 213c d7c8 943c
000000a0: d454 3e3d 3fb1 323d 3148 8a3c bcfb 113b
000000b0: 9ea6 793c 53db c83c fde3 c9bb 88b7 07bc
000000c0: b3ea 7a3c efa9 493c fab0 87b9 9fff df3b
000000d0: ee8f a23b 9a28 493c b239 cf3c 9171 cc3b
000000e0: 3cfb 973b 19f9 863b ebc4 c83c 6522 6e3c
000000f0: b71a 923b 067a 023c 193d 153c 2d3c 27bb

encoder_c.convs.1.weight f4 [64, 64]
0.2041974 0.1392837 0.046950087 0.16815399 -0.06414737 0.070579596 0.19247468 0.15535276
-0.14381279 -0.14451952 0.17864701 -0.18258262 -1.1149e-41 0.010528985 -0.0064692 -0.089991964
-1.687e-42 0.087628484 0.03849912 0.117992885 -0.03391837 0.080413096 0.13787986 0.001992624
0.017242901 0.16305563 -0.06648056 0.19015953 -0.046694476 -0.14200146 0.10212036 -0.0372201
0.14142194 0.08887639 -0.12812023 -0.123384446 0.05560515 -0.057738617 0.042773366 -0.053901367
-0.092148095 -0.012869983 -0.032161143 -0.13187514 -0.14604247 0.008285557 0.13758722 0.09490658
0.12468333 0.09885283 0.14979194 0.035769224 -0.17950924 -0.015147941 0.13255194 -0.12239943
-0.0045954543 0.081269085 -0.11237412 0.11454529 0.03502099 -0.038466014 -0.09121617 -0.16924413
-0.048509963 -0.070212826 0.039198156 0.09862221 -0.09387025 0.13947874 0.032994892 0.1625789
0.11221268 0.14708997 0.021142261 0.19107278 1.1858472e-12 -0.19016212 0.034320675 -0.09267324
1.192077e-35 0.13237296 -0.039131094 0.0497179 -0.06638099 0.020902887 -0.10340564 -0.0006343421
0.055559877 0.13411833 0.0632986 -0.059689574 -0.03584347 0.08261039 0.07469575 -0.020273466
0.23375653 -0.038059436 -0.09270828 0.06922467 0.06857271 -0.036268856 0.10994155 0.15097211
0.019854316 -0.014944705 -0.019220278 0.13485774 0.18424371 0.15471603 -0.013547381 0.1823261
0.09945612 0.027359748 0.10356405 -0.08658955 0.13757552 0.030352242 -0.11389196 -0.11083095
0.18830827 0.06833107 0.052426614 0.10503191 0.024659421 -0.11522751 0.016586622 -0.18823926
0.13819103 0.1724538 -0.18489406 0.022626296 0.039396483 -0.091222435 0.055111196 0.039302677
-0.09839872 0.074339174 0.089010894 -0.18165395 -5.9486266e-16 0.015439183 -0.024332711 0.019582318
-1.8063e-41 0.06468265 0.04163434 0.1637728 -0.10050185 0.041160475 0.10057136 -9.804897e-05
0.037984684 0.15614592 -0.17581932 -0.05213709 0.058966644 -0.07088997 -0.093813166 -0.08805792
0.1333888 0.08213359 -0.072067514 -0.032732114 0.03875272 -0.044666663 -0.15186323 -0.12150074
-0.08200811 0.07873559 -0.06405928 -0.15042488 -0.08506317 0.017123139 0.16512364 0.011369084
0.14299083 0.1809213 0.067761436 0.04785282 0.03922996 -0.21247442 0.21785332 -0.028703284
0.027273068 0.002315444 0.04697672 -0.0054998826 -0.092329636 -0.10198991 -0.23868042 -0.10068349
-0.11612344 0.09510996 0.13881634 0.14845705 -0.03500082 -0.2107035 -0.10339715 0.09799921
0.103526 0.120616935 -0.12120539 0.20252995 1.3148e-41 0.16470829 0.08831112 0.18084136
-2.1060047e-37 0.05252493 -0.12148967 -0.105349325 0.08904002 -0.17856267 -0.015631488 0.12166626
0.07360413 -0.15869303 0.024358336 -0.093582176 -0.20024793 0.09170626 0.18639408 -0.05007107
-0.17565851 -0.016503006 0.039752293 0.20693916 -0.10944892 -0.018249901 0.054257095 0.14707093
-0.032861974 -0.0041193953 0.016417427 0.0072731655 0.23287551 -0.03486529 -0.012761026 -0.062210504
0.14411418 0.10624053 -0.16721052 0.014758829 -0.0961619 0.11421821 -0.2035656 0.0036414424
-0.13453911 -0.055976342 -0.016658746 -0.1499532 0.14829262 -0.008191217 0.22996092 0.056496773
00000000: 2019 513e 63a0 0e3e bc4e 403d 8f30 2c3e
00000010: b25f 83bd 098c 903d 1518 453e cb14 1f3e
00000020: a943 13be edfc 13be 3eef 363e f0f6 3abe
00000030: 141f 0080 c481 2c3c 95fb d3bb b54d b8bd
00000040: b404 0080 9076 b33d 41b1 1d3d 41a6 f13d
00000050: fded 0abd 9faf a43d 6130 0d3e af96 023b
00000060: fc40 8d3c 0ef8 263e f626 88bd 2eb9 423e
00000070: b542 3fbd d568 11be 7b24 d13d 1b74 18bd
00000080: ead0 103e d304 b63d f331 03be fcb0 fcbd
00000090: 3ac2 633d 547f 6cbd 2033 2f3d aec7 5cbd
000000a0: 24b8 bcbd 9fdc 52bc 67bb 03bd 470a 07be
000000b0: 288c 15be 25c0 073c aae3 0c3e 625e c23d
000000c0: f959 ff3d 5a73 ca3d 0f63 193e c082 123d
000000d0: 45d1 37be 122f 78bc b2bb 073e 8dac fabd
000000e0: 7795 96bb 6870 a63d 6724 e6bd b996 ea3d
000000f0: 2b72 0f3d 8a8e 1dbd 8bcf babd 554e 2dbe
00000100: 62b2 46bd becb 8fbd 3f8e 203d 71fa c93d
00000110: 0c3f c0bd 84d3 0e3e a725 073d 157b 263e
00000120: c3cf e53d c19e 163e 8932 ad3c 95a8 433e
00000130: a6e4 a62b dcb9 42be d693 0c3d 78cb bdbd
00000140: d886 7d05 c78c 073e ed47 20bd ffa4 4b3d
00000150: c2f2 87bd 883c ab3c 56c6 d3bd fa49 26ba
00000160: c192 633d 5156 093e b2a2 813d 0e7d 74bd
00000170: 9ad0 12bd a32f a93d 16fa 983d 8a14 a6bc
00000180: df5d 6f3e 36e4 1bbd d7dd bdbd aac5 8d3d
00000190: d96f 8c3d a78e 14bd 0929 e13d 6f98 1a3e
000001a0: 85a5 a23c a3da 74bc d873 9dbc 2618 0a3e
000001b0: 62aa 3c3e e16d 1e3e d6f5 5dbc b1b3 3a3e
000001c0: a6af cb3d 8d21 e03c 6319 d43d dd55 b1bd
000001d0: 99e0 0c3e 44a5 f83c 3040 e9bd 56fb e2bd
000001e0: e2d3 403e 29f1 8b3d 4abd 563d f81a d73d
000001f0: 8e02 ca3c 67fc ebbd abe0 873c cbc1 40be
00000200: f381 0d3e bb97 303e de54 3dbe c85a b93c
00000210: 355e 213d d4d2 babd 47bc 613d d8fb 203d
00000220: 4585 c9bd 233f 983d 584b b63d 7e03 3abe
00000230: 1e75 2ba6 a1f4 7c3c 6555 c7bc 196b a03c
00000240: 5a32 0080 5678 843d c588 2a3d 0fb4 273e
00000250: ead3 cdbd e397 283d 5bf8 cd3d a49f cdb8
00000260: d495 1b3d b7e4 1f3e fb09 34be b48d 55bd
00000270: 0287 713d c32e 91bd 1e21 c0bd b657 b4bd
00000280: 1397 083e a835 a83d 2298 93bd 1c12 06bd
00000290: 2cbb 1e3d 64f4 36bd 0982 1bbe 61d5 f8bd
000002a0: def3 a7bd 2040 a13d 8331 83bd fb08 1abe
000002b0: 9935 aebd d345 8c3c 2c16 293e 6545 3a3c
000002c0: 306c 123e 6f43 393e 82c6 8a3d 5201 443d
000002d0: 98af 203d e592 59be f114 5f3e 2623 ebbc
000002e0: c56b df3c b4be 173b a96a 403d 5c38 b4bb
000002f0: 5217 bdbd 16e0 d0bd a468 74be 2533 cebd
00000300: 20d2 edbd 03c9 c23d df25 0e3e 2005 183e
00000310: 055d 0fbd a9c2 57be e3c1 d3bd cfb3 c83d
00000320: 7105 d43d 0306 f73d 883a f8bd 0364 4f3e
00000330: a724 0000 4aa9 283e 76dc b43d 7a2e 393e
00000340: c753 8f82 6224 573d 93cf f8bd 63c1 d7bd
00000350: 9d5a b63d 22d9 36be 9b0d 80bc 292c f93d
00000360: c3bd 963d 6d80 22be 228b c73c 03a8 bfbd
00000370: cb0d 4dbe 7ed0 bb3d 17de 3e3e 5317 4dbd
00000380: d3df 33be 5031 87bc 4dd3 223d dce7 533e
00000390: c126 e0bd d180 95bc b03c 5e3d c399 163e
000003a0: 479a 06bd fefb 86bb d77d 863c bc53 ee3b
000003b0: eb76 6e3e e8ce 0ebd 9f13 51bc 71d0 7ebd
000003c0: ab92 133e a394 d93d 3c39 2bbe 04cf 713c
000003d0: 88f0 c4bd 3deb e93d 8073 50be 44a5 6e3b
000003e0: 9fc4 09be 7347 65bd ec77 88bc 558d 19be
000003f0: 05da 173e 7434 06bc e07a 6b3e 2969 673d

encoder_c.convs.1.bias f4 [64]
0.02243292 0.009940406 0.027018322 0.010114267 0.020406801 0.006314994 0.012558027 -0.0033833322
0.019585608 0.019661546 0.020988485 0.022640355 -0.009526449 0.017780032 0.012209226 0.026777657
-0.010044499 0.016232468 0.02314917 0.017359957 0.03602025 0.01184225 0.01691083 0.008773913
-0.0127803385 0.026929734 0.03991575 0.01508367 0.01683561 0.031416763 0.008366558 0.025100315
0.0089806225 0.013899399 0.027302084 0.01953649 0.024598 0.031603016 0.022666853 0.028874807
0.025117096 0.00744732 0.020917358 0.032953132 0.025819888 0.020935845 0.025244841 0.03220983
0.032634165 0.013215098 0.010097294 0.0008501825 0.026250172 0.023826445 0.020390721 0.019224735
0.0109898 0.01985177 0.004385537 0.0069414806 0.021866323 -0.011954581 0.018730436 0.016128343
00000000: 3ec5 b73c 16dd 223c 8755 dd3c 4fb6 253c
00000010: 2a2c a73c 02ee ce3b 2fc0 4d3c e5ba 5dbb
00000020: ff71 a03c 4011 a13c 0bf0 ab3c 4478 b93c
00000030: d314 1cbc 6ea7 913c 3509 483c d15c db3c
00000040: af91 24bc f4f9 843c 54a3 bd3c 7836 8e3c
00000050: f889 133d ff05 423c 9588 8a3c 75c0 0f3c
00000060: a064 51bc bf9b dc3c b37e 233d 7f21 773c
00000070: d5ea 893c ddae 003d e313 093c 2d9f cd3c
00000080: 7623 133c 4eba 633c 9fa8 df3c fd0a a03c
00000090: bf81 c93c 2a72 013d d6af b93c dc8a ec3c
000000a0: 5ec2 cd3c a608 f43b e15a ab3c ddf9 063d
000000b0: 3b84 d33c a681 ab3c 45ce ce3c 74ee 033d
000000c0: 67ab 053d 2384 583c 1f6f 253c c8de 5e3a
000000d0: 9a0a d73c ad2f c33c 710a a73c 317d 9d3c
000000e0: 900e 343c 2ea0 a23c 8db4 8f3b 5c75 e33b
000000f0: 0121 b33c 26dd 43bc 9270 993c 961f 843c

encoder_c.convs.2.weight f4 [64, 64]
0.093686596 -0.00053327373 -0.03530924 -0.012789759 0.025637466 0.11609435 -0.13647665 0.07737484
0.06727337 0.18997192 0.23817761 0.10387199 -0.10167718 0.17936546 -0.16317318 0.14960182
-0.08378357 -0.13871276 0.0587897 -0.23417002 -0.23646471 -0.13674067 -0.19584176 0.06358971
0.094612524 -0.07646996 0.1639698 -0.13107604 -0.0705551 0.08634106 0.04875254 -0.15646872
-0.20903625 -0.08707949 0.064491466 -0.18898088 0.14454632 0.04416056 -0.13478878 -0.04665547
-0.078304976 0.24872595 0.12445787 0.013183459 -0.06537597 0.071448475 0.112454996 -0.2108307
0.08548104 0.016671758 0.13791107 0.16310115 -0.12766892 0.091397904 -0.24124326 0.18763812
0.0075533884 -0.11454248 0.26875773 -0.1639238 0.086415276 0.12307705 -0.12181145 -0.0566373
0.12006633 -0.071277425 0.034828495 0.090434365 -0.026512485 0.15291049 -0.016398428 0.16078684
0.03314321 -0.027677588 -0.021260615 0.056340624 -0.024492435 -0.014668083 -0.10005388 0.025296375
-0.1391755 0.03960448 -0.0034246498 -0.18263257 -0.06662008 0.09741705 -0.032744832 0.09876052
0.017178072 -0.13487701 -0.010633794 -0.13696693 0.016809871 0.05401017 0.2073564 -0.16710135
-0.0044284556 -0.06835301 -0.010882595 0.0050539733 0.21446228 -0.046907734 -0.10203361 -0.118338436
-0.21155003 0.0622204 0.050086413 -0.1256231 0.095830016 -0.016412035 0.08294917 0.07038092
0.15703608 0.037406486 -0.0402176 0.022044173 -0.013933444 0.059179883 -0.032795366 0.190294
-0.15078734 -0.08900629 -0.101878285 -0.14195691 0.028911564 0.13407494 0.018864403 0.07248086
0.01124976 0.27645114 0.06392844 0.15636377 -0.049506206 -0.26832727 0.038012203 -0.1278268
-0.055953804 -0.005013615 -0.1449062 -0.025057925 0.085364945 -0.1384437 0.12979712 0.054232385
0.20066813 -0.07190223 -0.14777087 0.25871837 0.027045734 0.14451458 0.18958771 -0.08981215
-0.19170353 0.029088628 -0.08635826 0.052113798 0.025242789 -0.16966245 -0.23235099 0.08749382
-0.01422349 0.19664793 0.08773196 0.08011618 -0.15594824 -0.21335362 0.25569972 0.0055945464
0.19635768 0.015555443 -0.05424581 -0.06420333 -0.08082754 -0.10150958 -0.11997061 0.25520304
-0.24171484 -0.16195959 -0.21719743 -0.15424293 0.0807617 -0.05354651 -0.093806215 -0.21998993
-0.0043964763 0.048671827 -0.03830725 0.11010427 -0.14894551 -0.079896204 0.12411938 -0.07183834
0.20299003 0.04283355 -0.038063295 -0.19260196 0.14570688 0.1026662 -0.15164472 -0.1064061
0.19042866 0.10996432 -0.08665335 0.08990197 -0.24013671 0.10107068 -0.1969696 -0.017216295
0.04609781 -0.032885067 0.2488356 -0.096615985 -0.17135133 -0.25525185 -0.08059716 -0.004305518
0.15653642 -0.097007856 0.104350455 -0.12778053 -0.17798834 0.09238861 0.19441772 -0.074556895
-0.21588571 -0.23466246 0.16163042 -0.15601772 0.13120802 -0.031835135 -0.2855159 -0.0018303994
-0.10233726 0.017820923 0.17839877 0.08503343 -0.23502676 0.17835945 0.024377806 -0.23106931
0.013858453 0.022911066 0.13044225 0.13908066 -0.25708717 -0.11361088 -0.085993625 0.22724727
-0.034878258 -0.090227336 -0.059440386 0.0736251 0.041206628 0.05118553 -0.18890828 -0.008678681
00000000: c2de bf3d 65cb 0bba 6ca0 10bd 238c 51bc
00000010: aa05 d23c e0c2 ed3d 89c0 0bbe b376 9e3d
00000020: 9fc6 893d 0088 423e d5e4 733e d7ba d43d
00000030: 203c d0bd 94ab 373e df16 27be 3831 193e
00000040: b896 abbd b80a 0ebe 78cd 703d 44ca 6fbe
00000050: ce23 72be bf05 0cbe be8a 48be 523b 823d
00000060: 36c4 c13d 489c 9cbd b3e7 273e cc38 06be
00000070: 317f 90bd 95d3 b03d beb0 473d 5639 20be
00000080: 990d 56be bb56 b2bd 1a14 843d 3484 41be
00000090: f303 143e b4e1 343d 1206 0abe ce19 3fbd
000000a0: 5c5e a0bd 04b2 7e3e c5e3 fe3d 6fff 573c
000000b0: d6e3 85bd 9453 923d ce4e e63d 01e4 57be
000000c0: af10 af3d 3693 883c 8f38 0d3e fd03 273e
000000d0: a4bb 02be d32e bb3d 7908 77be 3524 403e
000000e0: 6a82 f73b 3f95 eabd 9d9a 893e a4db 27be
000000f0: 7efa b03d d20f fc3d 4878 f9bd 83fc 67bd
00000100: 56e5 f53d e6f9 91bd 53a8 0e3d a735 b93d
00000110: b630 d9bc 9194 1c3e ff55 86bc 4ea5 243e
00000120: 2dc1 073d 1cbc e2bc be2a aebc 6dc5 663d
00000130: 5ca4 c8bc 6652 70bc 0ce9 ccbd 583a cf3c
00000140: 0684 0ebe 4f38 223d 1770 60bb 0804 3bbe
00000150: 1c70 88bd 9782 c73d 721f 06bd f542 ca3d
00000160: 07b9 8c3c 331d 0abe 5d39 2ebc 0f41 0cbe
00000170: dbb4 893c c539 5d3d 3c55 543e 9e1c 2bbe
00000180: 941c 91bb aafc 8bbd e94c 32bc cd9b a53b
00000190: 009c 5b3e 5322 40bd fff6 d0bd 6c5b f2bd
000001a0: 92a0 58be d1da 7e3d 6927 4d3d 58a3 00be
000001b0: 8742 c43d 8872 86bc 41e1 a93d df23 903d
000001c0: 11ce 203e 8b37 193d 36bb 24bd fb95 b43c
000001d0: 1a49 64bc 9b66 723d 6f54 06bd 6edc 423e
000001e0: ff67 1abe ee48 b6bd 90a5 d0bd 275d 11be
000001f0: f2d7 ec3c f14a 093e 8589 9a3c d870 943d
00000200: ea50 383c 018b 8d3e eaec 823d d31d 203e
00000210: 05c7 4abd 3162 89be afb2 1b3d 07e5 02be
00000220: d12f 65bd 4049 a4bb 4a62 14be 4746 cdbc
00000230: d1d3 ae3d 2fc4 0dbe 89e9 043e c722 5e3d
00000240: f27b 4d3e 7a41 93bd 3f51 17be bc76 843e
00000250: 048f dd3c a1fb 133e 4823 423e 6fef b7bd
00000260: ee4d 44be 464b ee3c 99dc b0bd 4775 553d
00000270: f7c9 ce3c febb 2dbe 6bed 6dbe f62f b33d
00000280: a409 69bc 135e 493e d0ac b33d f413 a43d
00000290: e5b0 1fbe 5f79 5abe 13eb 823e 7552 b73b
000002a0: fd11 493e 42dc 7e3c db30 5ebd 097d 83bd
000002b0: e988 a5bd 41e4 cfbd 27b3 f5bd f9a9 823e
000002c0: 1884 77be bcd8 25be 0169 5ebe dcf1 1dbe
000002d0: 6466 a53d 9653 5bbd 791d c0bd 0a45 61be
000002e0: 5110 90bb 1c5c 473d 10e8 1cbd 597e e13d
000002f0: 2c85 18be 9fa0 a3bd 4d32 fe3d fb1f 93bd
00000300: 9edc 4f3e 3c72 2f3d 42e8 1bbd 7339 45be
00000310: 2f34 153e a842 d23d c148 1bbe 71eb d9bd
00000320: bbff 423e f934 e13d 5077 b1bd 861e b83d
00000330: 66e6 75be 25fe ce3d 66b2 49be 3009 8dbc
00000340: 0fd1 3c3d 7eb2 06bd c2ce 7e3e 9ade c5bd
00000350: b976 2fbe 5fb0 82be 2010 a5bd 4e15 8dbb
00000360: 154b 203e 0eac c6bd b1b5 d53d e6d8 02be
00000370: 9342 36be 3d36 bd3d 7015 473e 49b1 98bd
00000380: 2511 5dbe 5b4b 70be 7282 253e 1cc3 1fbe
00000390: 655b 063e 8f65 02bd 242f 92be 03ea efba
000003a0: 3396 d1bd 2ffd 913c 2bae 363e 0226 ae3d
000003b0: dbaa 70be dca3 363e f7b3 c73c 6f9d 6cbe
000003c0: 910e 633c fdaf bb3c a792 053e 296b 0e3e
000003d0: eea0 83be d2ac e8bd 6d1d b0bd 82b3 683e
000003e0: 81dc 0ebd 1cc9 b8bd c377 73bd c2c8 963d
000003f0: 48c8 283d eba7 513d 2c71 41be 0731 0ebc

encoder_c.convs.2.bias f4 [64]
0.030769743 -0.00063796976 0.020662809 0.005833457 0.02569118 0.00450082 -0.028609106 -0.022300242
-0.007898641 0.0042023943 -0.003830207 0.0126255965 0.005533946 -0.01737118 0.011944607 0.019601615
-0.007701841 -0.0050562765 -0.008157148 -0.0053058476 -0.0066650887 0.0033971237 0.003382505 0.03849514
0.0073790504 -0.032598734 -0.018096225 -0.015061278 0.011953012 -0.016559608 -0.00062840164 -0.020681687
0.0002779064 0.016225426 0.02917139 0.0024226476 0.008915617 -0.02135166 -0.011668467 -0.011506639
-0.005871241 0.017741038 -0.02524769 0.012738208 -0.0025109767 0.010857999 -0.013563369 0.0023764556
-0.020190755 -0.0132235745 -0.024407791 -0.0029560134 0.0033364997 -0.026939332 -0.017522713 0.00082505686
0.01225087 -0.031083964 0.011293945 -0.017931921 -0.0069611003 -0.026555577 -0.0058614286 -0.02967643
00000000: d410 fc3c 6d3d 27ba 0d45 a93c 9626 bf3b
00000010: 4f76 d23c 9d7b 933b a55d eabc ffae b6bc
00000020: 4d69 01bc 3db4 893b 3604 7bbb 97db 4e3c
00000030: 1b56 b53b 014e 8ebc 50b3 433c 9193 a03c
00000040: ba5f fcbb 1faf a5bb 8fa5 05bc addc adbb
00000050: d166 dabb 47a2 5e3b 04ad 5d3b 14ad 1d3d
00000060: f6cb f13b 4086 05bd 893e 94bc 94c3 76bc
00000070: 91d6 433c 04a8 87bc 52bb 24ba a46c a9bc
00000080: f7b3 9139 2feb 843c d7f8 ee3c 48c5 1e3b
00000090: cf12 123c ade9 aebc 192d 3fbc 5886 3cbc
000000a0: 8a63 c0bb a755 913c 3ed4 cebc ebb3 503c
000000b0: 338f 24bb c0e5 313c e538 5ebc 4fbe 1b3b
000000c0: 1567 a5bc b1a7 58bc d9f2 c7bc adb9 41bb
000000d0: 2da9 5a3b e0af dcbc cb8b 8fbc a148 583a
000000e0: dfb7 483c cca3 febc 3d0a 393c f7e5 92bc
000000f0: f119 e4bb 158b d9bc 3a11 c0bb fc1b f3bc

encoder_b.convs.0.weight f4 [116, 64]
-2.0927428e-06 0.00049922947 0.0019893227 -0.00036165112 0.0008531446 0.0010555693 -0.0036468601 9.7461125e-06
8.55592e-05 0.0005183086 1.2456472e-05 -2.3098919e-05 -5.7497393e-05 -3.0887175e-05 0.00016439121 -0.00026665925
-0.0014540107 1.9553074e-05 0.00021721268 0.002834721 5.6765715e-05 0.00050570583 -0.00045447587 -0.0035783888
0.0010693135 7.201551e-05 -3.3355704e-05 -0.0016159749 2.2726075e-05 0.000482647 0.0007044295 -0.00036208826
9.532994e-05 0.00018421376 -2.9894363e-05 -1.7683255e-05 6.2783205e-05 -0.001656975 0.0017621497 -5.8074934e-06
-0.0023956967 -7.34353e-05 0.00085807627 -1.9327757e-05 0.0013753198 0.00094315805 0.0016087487 5.5204814e-06
-0.00040918498 0.0006072997 -0.00055782404 0.0038638487 -0.00036043115 0.00017111085 8.457309e-06 2.433373e-08
-0.00027672586 -1.2079423e-05 0.0015924167 -0.0009227552 1.7720868e-05 -3.744919e-05 -0.0027475264 -0.0011026389
0.00019090867 -0.00042028807 -2.3464114e-05 -8.471926e-06 -0.00031726708 -4.6709665e-05 -0.004583786 0.0010000787
-0.002017434 -0.0044781435 -0.00011583526 0.00013009598 -0.00057786074 1.443576e-05 0.00043645647 -0.00010750076
-6.507098e-06 0.004619579 -0.00090926513 0.0019266004 -0.00032618738 -0.0005873746 0.0022596626 -3.0316109e-05
-0.008020047 7.474408e-05 -0.0021064733 0.0041977665 -0.0026109219 -0.0007853529 0.0003502633 0.0008328524
-1.326045e-05 -0.0017738028 -0.0043582083 -0.0027006594 0.0024285351 -0.00050671084 -0.00068564573 0.00014189874
0.009844877 -0.0004267888 -0.0031611125 -7.577065e-06 0.0002256016 -0.00020377994 0.0015721271 0.0013414413
0.00036923707 -0.0046540992 -0.0012374979 -0.00049462775 6.3344924e-06 0.0019517189 -0.00033897415 -6.576538e-05
1.956315e-05 -0.00048439865 -0.0010417645 -0.00016170976 8.20652e-05 -0.0019814344 0.0004911794 0.005189775
-4.1334843e-06 0.0015203746 -0.0023808845 0.0001177942 -0.0043613184 -2.865789e-05 0.00013869113 -3.0314104e-05
-0.0033724352 -0.00074434595 -1.8149536e-05 -0.0001241847 -0.003350524 7.14635e-08 0.002342462 -0.0029724254
-0.0018888471 -5.3861232e-08 -0.0007186934 -0.0023957163 0.0014950848 -9.619439e-06 0.0023003316 0.0010563761
0.0053564087 0.0019076017 2.2248087e-05 -0.0004271528 -7.978805e-05 4.9733077e-05 -1.44895e-07 -6.6195303e-06
0.00082110666 0.0019266211 -7.746652e-05 0.00041183486 -5.1772393e-05 0.00012655646 0.00024886985 -1.8559732e-07
0.0011470264 3.905573e-05 0.0002389285 3.884475e-06 9.616767e-06 -0.00031261696 -7.865923e-05 5.3862555e-06
2.4973333e-05 -0.00027003218 6.2418156e-05 0.00014610977 -4.762765e-06 5.4104952e-05 -3.3893227e-07 -0.00027864426
0.0012803314 2.6458676e-05 -0.0013125972 -1.5065172e-06 -1.6520398e-05 8.368938e-05 -0.0012774228 0.00030042752
-0.00017126549 8.6182976e-05 0.0020248545 -0.00014533955 -0.00059542345 -0.0011838215 -0.004694453 4.4213335e-05
-8.921545e-05 -0.0004884569 0.0012858906 0.00213405 -0.0002489453 6.244566e-08 -0.0026755421 -0.00084300165
-2.2396348e-06 0.0008260946 8.1697995e-05 -0.0001822484 8.06894e-05 7.489005e-05 0.0006718581 8.172674e-06
3.7505995e-06 3.8577098e-05 -0.0002723515 -4.346213e-05 0.0024222778 3.4663037e-06 0.0017233238 -2.8693374e-05
3.7236132e-05 0.0027900655 -0.000932106 -8.19463e-06 -0.00072429294 0.0027717673 -0.0007541998 -2.617946e-07
0.0001994082 -4.0079318e-05 0.0010910915 2.0646896e-06 -1.9369816e-05 0.00012124048 8.381003e-06 4.8274993e-05
-0.0004797803 -0.00022529252 -9.607785e-06 0.0003942345 -2.7824937e-05 0.0035761963 0.0003788616 -3.7419988e-05
-0.00010036979 0.003301257 4.2250023e-05 0.00021653176 0.000112113215 7.0722587e-07 0.00052507117 0.0029875292
00000000: 0c71 0cb6 b9de 023a 4c5f 023b fe9b bdb9
00000010: 91a5 5f3a 075b 8a3a 2900 6fbb 3c83 2337
00000020: 3f6e b338 1adf 073a 24fc 5037 8dc4 c1b7
00000030: 5b29 71b8 da8c 01b8 6e60 2c39 66ce 8bb9
00000040: 8194 beba e805 a437 96c3 6339 bac6 393b
00000050: b917 6e38 5891 043a b846 eeb9 6783 6abb
00000060: 3528 8c3a 0807 9738 6ae7 0bb8 1fcf d3ba
00000070: e0a3 be37 c90b fd39 77a9 383a aad6 bdb9
00000080: dfeb c738 8129 4139 a8c5 fab7 8056 94b7
00000090: 7aaa 8338 db2e d9ba eff7 e63a fddd c2b6
000000a0: 1f01 1dbb 4701 9ab8 86f0 603a 0b22 a2b7
000000b0: 1344 b43a 443e 773a a6dc d23a 933c b936
000000c0: e187 d6b9 3133 1f3a f03a 12ba a038 7d3b
000000d0: 40f8 bcb9 386c 3339 dee3 0d37 7006 d132
000000e0: 8415 91b9 baa8 4ab7 a3b8 d03a 0ee5 71ba
000000f0: 46a7 9437 c312 1db8 d80f 34bb 6c86 90ba
00000100: a82e 4839 1c5a dcb9 cdd4 c4b7 a522 0eb7
00000110: de56 a6b9 1fea 43b8 9533 96bb 1315 833a
00000120: ed36 04bb 64bd 92bb 95ec f2b8 606a 0839
00000130: 947b 17ba 1e31 7237 32d4 e439 0872 e1b8
00000140: 8c57 dab6 d65f 973b c05b 6eba fb85 fc3a
00000150: 2104 abb9 0bfa 19ba d916 143b 594f feb7
00000160: 8466 03bc ecbf 9c38 c20c 0abb 6b8d 893b
00000170: 001c 2bbb 24e0 4dba 8ba3 b739 c753 5a3a
00000180: 3379 5eb7 f27e e8ba 4dcf 8ebb 8cfd 30bb
00000190: 0f28 1f3b cad4 04ba e8bc 33ba a7ca 1439
000001a0: 684c 213c a0c2 dfb9 ab2a 4fbb 7e3e feb6
000001b0: 788f 6c39 c3ad 55b9 d50f ce3a 4dd3 af3a
000001c0: 2996 c139 6a81 98bb 8a33 a2ba e8a9 01ba
000001d0: e08c d436 d2d0 ff3a 57b8 b1b9 85eb 89b8
000001e0: 8b1b a437 e3f6 fdb9 d18b 88ba a290 29b9
000001f0: 6b1a ac38 f4da 01bb 7ec2 003a fd0e aa3b
00000200: 5cb2 8ab6 4e47 c73a 9d08 1cbb 4808 f738
00000210: 64e9 8ebb 5a66 f0b7 9e6d 1139 0b4b feb7
00000220: 1304 5dbb 3620 43ba d53f 98b7 9437 02b9
00000230: 7794 5bbb 7977 9933 fe83 193b 06cd 42bb
00000240: 3193 f7ba 0d55 67b3 b366 3cba 7301 1dbb
00000250: b9f6 c33a 2d63 21b7 29c1 163b 1a76 8a3a
00000260: d084 af3b 7e08 fa3a 67a1 ba37 7af3 dfb9
00000270: e253 a7b8 7c98 5038 6f94 1bb4 551d deb6
00000280: 893f 573a ad86 fc3a 8575 a2b8 8aeb d739
00000290: 2f26 59b8 3eb4 0439 bf7a 8239 9a48 47b4
000002a0: d257 963a c5cf 2338 e188 7a39 6357 8236
000002b0: b357 2137 bde6 a3b9 daf5 a4b8 95bb b436
000002c0: d37d d137 1b93 8db9 7ee6 8238 0b35 1939
000002d0: d7cf 9fb6 c0ee 6238 7ff6 b5b4 0017 92b9
000002e0: cbd0 a73a 93f3 dd37 740b acba 8933 cab5
000002f0: 4995 8ab7 6582 af38 326f a7ba b382 9d39
00000300: bb95 33b9 22bd b438 6cb3 043b 4a66 18b9
00000310: 3116 1cba 752a 9bba edd3 99bb b571 3938
00000320: 2e19 bbb8 ca0b 00ba 548b a83a 6bdb 0b3b
00000330: df84 82b9 dd19 8633 2658 2fbb e2fc 5cba
00000340: a24c 16b6 458e 583a 4755 ab38 ef19 3fb9
00000350: cb37 a938 4a0e 9d38 a21f 303a 5e1d 0937
00000360: cfb2 7b36 d8cd 2138 66ca 8eb9 1b4b 36b8
00000370: 14bf 1e3b a59e 6836 27e1 e13a 8db2 f0b7
00000380: fe2d 1c38 88d9 363b 9358 74ba ab7b 09b7
00000390: 7ade 3dba 8aa6 353b 7eb5 45ba c78c 8cb4
000003a0: 3b18 5139 d71a 28b8 f502 8f3a 198f 0a36
000003b0: 5d7c a2b7 7d42 fe38 229c 0c37 e17a 4a38
000003c0: 068b fbb9 803c 6cb9 1f31 21b7 42b1 ce39
000003d0: 9969 e9b7 9e5e 6a3b f1a1 c639 68f3 1cb8
000003e0: 9f7d d2b8 e759 583b 9e35 3138 cd0c 6339
000003f0: 531e eb38 31d8 3d35 eea4 093a 6cca 433b

encoder_b.convs.0.bias f4 [64]
0.010840204 0.0013924016 -0.011897969 0.013441284 0.013311491 0.010600882 0.00019222066 0.0024181758
-0.0011090995 0.0031592124 0.011576546 0.004324556 0.008697356 0.0032298488 0.009181468 0.003725703
-0.006672251 -0.0112345815 -0.003235682 -0.0046482338 0.008394754 0.0062837517 -0.0050014183 0.008736856
0.0071496903 0.003733298 0.007360347 0.003823988 0.008720044 -0.0040981597 0.006684046 -0.0038464835
0.009035672 -0.0070573534 0.005855931 0.0057145767 -0.009829794 0.0013955624 -4.574454e-05 0.006276624
0.0056150462 0.0069829733 -0.007090157 -0.011025312 0.014134595 0.0076192706 0.006666682 0.009398713
0.0014027508 -0.0018461373 0.00464101 0.00889313 0.0124764815 0.0072872695 0.0015274052 0.0028559468
0.008892188 0.0029411775 -0.0052288626 0.006843694 0.0064063943 0.011241226 -0.011286843 0.007929174
00000000: 1c9b 313c 3f81 b63a b3ef 42bc d538 5c3c
00000010: 7118 5a3c 52af 2d3c d78e 4939 427a 1e3b
00000020: 345f 91ba ca0a 4f3b 8eab 3d3c 01b5 8d3b
00000030: 5b7f 0e3c dfab 533b de6d 163c ed2a 743b
00000040: e6a2 dabb 4011 38bc bc0d 54bb 3650 98bb
00000050: 268a 093c eee7 cd3b f0e2 a3bb 0825 0f3c
00000060: f347 ea3b 59aa 743b 112f f13b df9b 7a3b
00000070: 84de 0e3c db49 86bb d705 db3b 4915 7cbb
00000080: 5b0a 143c 5f41 e7bb 1ce3 bf3b 5841 bb3b
00000090: 250d 21bc 4eeb b63a d3dd 3fb8 23ac cd3b
000000a0: 6cfe b73b 6dd1 e43b 8c54 e8bb 83a3 34bc
000000b0: ca94 673c 13ab f93b 2f74 da3b 0ffd 193c
000000c0: 82dc b73a 17fa f1ba 9d13 983b 7eb4 113c
000000d0: 286a 4c3c 0cca ee3b 3733 c83a d62a 3b3b
000000e0: 8ab0 113c c5c0 403b e156 abbb 1141 e03b
000000f0: bbec d13b 1f2d 383c 73ec 38bc 5ee9 013c

encoder_b.convs.1.weight f4 [64, 64]
-1.4972327e-08 0.00046573143 -0.0066252802 0.0026785487 -5.1496394e-05 0.00074210204 -6.0041194e-18 0.0011855378
0.0043306025 -2.7748997e-06 0.0007977454 -0.00016948194 -4.372522e-09 -0.00020985707 0.008305485 3.299998e-05
-0.00023279348 -0.0011359338 0.003078422 2.4425366e-05 -8.0186985e-10 0.00024202892 -4.717462e-07 0.00018484128
-1.4877783e-05 -2.195591e-07 0.00033243033 8.984624e-05 -3.482293e-06 -1.1123905e-06 0.00041820065 -8.726294e-05
0.0021652507 -1.7495041e-06 -0.0012058704 -1.5781646e-07 2.8319087e-06 2.3300574e-05 -0.0008271282 -3.9231796e-13
-0.0067647407 -2.4927518e-05 -1.9124844e-05 -0.0021457248 0.0065162275 -7.5478497e-06 -0.0048107123 -4.088466e-06
0.0058088126 -0.0026470544 0.002224013 0.002404481 -3.746635e-05 0.0004129103 0.002805082 -0.000113762864
0.0015843724 -0.0003249734 -0.0064355712 -1.7392338e-05 -0.0005554126 -7.926253e-08 -0.010263372 0.0016640498
8.175538e-10 0.004560251 0.0092570735 0.006580421 -0.004043884 0.0067110388 -0.0002571039 -0.00011276198
0.000310769 -9.633458e-06 -0.0017826145 -0.0150589105 -1.4450839e-05 4.199728e-06 0.015684003 1.21334715e-05
0.0011098423 0.0004491011 0.0008640475 0.003785853 0.0017285034 0.0036267426 -3.2103628e-07 -1.823747e-18
1.5184362e-05 -3.1708063e-05 -0.0001318724 0.0010850934 0.0017469781 -1.909449e-07 0.003710858 0.00022013424
1.6460784e-07 0.0024683718 -5.8944977e-05 -0.0012280283 -0.00012621927 2.9654548e-09 0.004371043 -1.3116841e-09
1.6807757e-05 4.065236e-05 -0.0026799696 0.00045101013 -6.625198e-05 4.2069545e-26 -0.0026486425 -2.541645e-06
0.0031758442 0.0013981008 -0.00014683924 0.01280235 5.052876e-05 -3.6671313e-10 1.0043577e-05 1.2016382e-05
-0.004807169 0.0016126155 9.476271e-05 -3.839859e-05 0.0020070917 -0.0014305707 0.0016266246 0.015254968
-0.000116668234 5.314684e-06 -0.001908794 0.00061290554 -0.0010005137 -0.0053264424 -9.300137e-06 -0.001188768
3.646933e-05 -1.20623875e-11 -0.012015876 -0.00025226842 1.7914434e-10 9.660921e-05 0.0038344688 -0.0026998778
-0.00016370064 0.00021603491 0.013983237 0.0020213935 1.1229654e-11 0.0028502713 -0.0027619442 9.358429e-13
-3.3837307e-06 2.2003037e-10 -0.0006490795 3.3181917e-05 -3.883722e-06 0.00017836563 -0.00010024049 0.00716286
-0.0005186716 2.3285429e-05 -0.0059327013 2.5634797e-08 -0.00088230614 -0.00022019823 0.00022217468 -0.0018748484
6.3930405e-05 -1.6577047e-05 -1.7538235e-06 -3.2836222e-05 7.3352145e-05 -0.0004654624 -1.4075645e-05 -0.0007638946
-0.015381278 -0.00027727007 -0.00069408223 -0.0001705571 0.0023401456 -7.9774944e-11 -8.398686e-05 -3.9542438e-06
0.0012448002 -6.472725e-11 -0.000373616 -4.9308135e-05 8.980369e-09 5.136957e-06 0.011448216 0.009850562
0.0022394161 0.0014834929 0.007895255 0.004715306 -0.000441009 -0.0016454317 2.194205e-11 0.0061627333
-0.00022542555 -0.00020388204 0.0062669357 0.005182572 5.053989e-10 -0.000986665 -3.3431922e-07 -3.0375357e-05
-0.00024293884 0.00076458295 -0.0031615498 -0.00057149306 0.0012379158 -0.0066856835 0.0025907834 -0.00028340542
-0.006290578 -1.2094996e-05 -0.00019873511 -0.00045963365 0.009149847 -2.1955428e-05 -2.3397488e-06 -0.0017931443
5.042067e-07 0.0045945626 -0.0015582164 -4.7366435e-09 1.4746195e-16 6.2817234e-12 -0.0001383455 0.0025521957
-0.00032337924 -9.8049146e-05 0.003200464 -3.415303e-05 -0.0006809447 -0.0007985942 0.00012395761 -8.036202e-07
-0.00015289422 -0.00039201303 -0.0009319572 -0.007858074 -0.0024062104 -0.0013553995 0.001223638 8.778972e-07
0.011907821 0.00086240587 0.008667507 0.0011263104 6.2090895e-23 3.595822e-06 -0.001401187 0.015504218
00000000: 7f9c 80b2 6a2d f439 e118 d9bb 978a 2f3b
00000010: d5fd 57b8 a089 423a 4e83 dda2 0c64 9b3a
00000020: bae7 8d3b 6a38 3ab6 ca1f 513a f6b6 31b9
00000030: 1c3d 96b1 140d 5cb9 bb13 083c 7569 0a38
00000040: 061a 74b9 9de3 94ba 5abf 493b 13e5 cc37
00000050: 936a 5cb0 25c9 7d39 4e44 fdb4 f4d1 4139
00000060: 979b 79b7 f2bf 6bb4 0b4a ae39 d56b bc38
00000070: 57b1 69b6 724d 95b5 f141 db39 ef00 b7b8
00000080: e1e6 0d3b 81d0 eab5 4c0e 9eba 4274 29b4
00000090: d20b 3e36 9a75 c337 a2d3 58ba fada dcaa
000000a0: c2aa ddbb 701b d1b7 4a6e a0b7 4a9f 0cbb
000000b0: 1486 d53b 8943 fdb6 2ea3 9dbb a82f 89b6
000000c0: da57 be3b 347a 2dbb bfc0 113b 7f94 1d3b
000000d0: 3025 1db8 e27b d839 77d5 373b f993 eeb8
000000e0: b7aa cf3a 3161 aab9 7ce1 d2bb c3e5 91b7
000000f0: 1c99 11ba 0937 aab3 b427 28bc 3f1c da3a
00000100: 3cba 6030 286e 953b fbaa 173c 92a0 d73b
00000110: 8f82 84bb 46e8 db3b e7cb 86b9 a17a ecb8
00000120: b6ee a239 639f 21b7 9ea6 e9ba a6b9 76bc
00000130: e271 72b7 64eb 8c36 bd7b 803c dd90 4b37
00000140: 2178 913a 5475 eb39 3f81 623a 131c 783b
00000150: f38e e23a a5ae 6d3b e45a acb4 9b91 06a2
00000160: 57c0 7e37 46fe 04b8 3a47 0ab9 b139 8e3a
00000170: dcfa e43a 8906 4db4 de31 733b d6d3 6639
00000180: 0fbf 3034 68c4 213b b03b 77b8 cbf5 a0ba
00000190: ba59 04b9 d5c8 4b31 f73a 8f3b c846 b4b0
000001a0: 62fe 8c37 2482 2a38 6ea2 2fbb 8e75 ec39
000001b0: c3f0 8ab8 7c51 5015 d994 2dbb 2191 2ab6
000001c0: d321 503b 7a40 b73a dcf8 19b9 f3c0 513c
000001d0: d8ee 5338 499a c9af d680 2837 f899 4937
000001e0: 7585 9dbb 665e d33a 58bb c638 2c0e 21b8
000001f0: 6989 033b fd81 bbba 7734 d53a f9ef 793c
00000200: c8ab f4b8 ca54 b236 8030 faba 65ab 203a
00000210: ab23 83ba 7089 aebb c907 1cb7 6fd0 9bba
00000220: a5f6 1838 2a34 54ad 3dde 44bc e542 84b9
00000230: a6f8 442f ad9a ca38 b64b 7b3b 6ff0 30bb
00000240: 0ea7 2bb9 6e87 6239 f219 653c 5b79 043b
00000250: de8d 452d 9ecb 3a3b bc01 35bb 4bb5 832b
00000260: 0d14 63b6 0bed 712f fd26 2aba d02c 0b38
00000270: eb50 82b6 a907 3b39 3438 d2b8 6db6 ea3b
00000280: 76f7 07ba 1455 c337 1b67 c2bb 8433 dc32
00000290: 904a 67ba 03e5 66b9 90f7 6839 79bd f5ba
000002a0: 6012 8638 f00e 8bb7 eb64 ebb5 a0b9 09b8
000002b0: a2d4 9938 4e09 f4b9 6f26 6cb7 1940 48ba
000002c0: c101 7cbc 8f5e 91b9 12f3 35ba 93d7 32b9
000002d0: 215d 193b 4d6d afae 1a22 b0b8 b2ae 84b6
000002e0: 9028 a33a 3456 8eae e4e1 c3b9 35d0 4eb8
000002f0: 1548 1a32 205e ac36 4c91 3b3c 4064 213c
00000300: 2bc3 123b c371 c23a 1a5b 013c db82 9a3b
00000310: 3a37 e7b9 87ab d7ba 1b01 c12d c1f0 c93b
00000320: 3660 6cb9 2bc9 55b9 de5a cd3b 91d2 a93b
00000330: 49ec 0a30 fc52 81ba 7c7c b3b4 95ce feb7
00000340: 66bd 7eb9 4b6e 483a 0132 4fbb 40d0 15ba
00000350: 9041 a23a 9413 dbbb 22ca 293b 0896 94b9
00000360: 3121 cebb 9deb 4ab7 8d63 50b9 fcfa f0b9
00000370: 3de9 153c ec2c b8b7 9404 1db6 f007 ebba
00000380: d258 0735 fc8d 963b 113d ccba f5bf a2b1
00000390: 1603 2a25 bc04 dd2c d610 11b9 bd42 273b
000003a0: 3a8b a9b9 bc9f cdb8 e0be 513b 893f 0fb8
000003b0: 6d81 32ba c058 51ba 9efa 0139 5cb8 57b5
000003c0: 3b52 20b9 1987 cdb9 974e 74ba 27bf 00bc
000003d0: 83b1 1dbb a9a7 b1ba 7a62 a03a a3a8 6b35
000003e0: 0519 433c 1413 623a 2902 0e3c b5a0 933a
000003f0: 6720 961a c04f 7136 09a8 b7ba 6705 7e3c

encoder_b.convs.1.bias f4 [64]
-0.0022525955 -0.009683487 0.012828038 0.004941264 -0.0036667131 -0.0071271346 -0.008183653 0.010672253
0.013991624 -0.0024942227 0.0075469567 0.01696744 -0.0052422117 0.00027846158 0.00050657877 -0.008627984
0.017671555 0.002826883 -0.0067991856 -0.0060673263 -0.006222034 -0.008721679 -0.008248964 -0.0005506943
0.009630798 0.0022361958 0.005912691 0.00024062382 -0.0029775915 -0.00410274 0.003722927 -0.010219007
0.0021039639 0.018331895 0.008561898 -0.0021733597 -0.0009398898 -0.00490797 -0.006591752 -0.0033410522
0.0060436986 0.009335016 0.006131228 0.0058311396 -0.0018169608 -0.0046625454 -0.004603739 0.0044936063
0.018090766 0.0029154278 0.003881394 0.00534847 -0.005034199 -0.0025742394 0.0067841504 -0.0022656485
0.01326481 -0.00017031701 -0.0058237584 0.0006626928 -0.000313516 -0.0044405917 0.0077934414 0.0043449174
00000000: 48a0 13bb 7da7 1ebc b12c 523c 54ea a13b
00000010: 3d4d 70bb bd8a e9bb ba14 06bc acda 2e3c
00000020: 203d 653c 1d76 23bb 764c f73b 4dff 8a3c
00000030: dcc6 abbb 7bfe 9139 edcb 043a 635c 0dbc
00000040: f0c3 903c 3a43 393b b4cb debb 6cd0 c6bb
00000050: 34e2 cbbb 60e5 0ebc aa26 07bc 785c 10ba
00000060: 7fca 1d3c 248d 123b 3fbf c13b f74f 7c39
00000070: b223 43bb 4770 86bb 5afc 733b 9f6d 27bc
00000080: a8e2 093b c52c 963c 3447 0c3c ed6e 0ebb
00000090: f062 76ba 09d3 a0bb a0ff d7bb 8ef5 5abb
000000a0: 380a c63b e5f1 183c 78e8 c83b 2513 bf3b
000000b0: 1627 eeba 44c8 98bb f6da 96bb 1a3f 933b
000000c0: 1633 943c c310 3f3b fc5e 7e3b 3842 af3b
000000d0: ecf5 a4bb 92b4 28bb 944d de3b 467b 14bb
000000e0: a554 593c 2097 32b9 3ad5 bebb 90b8 2d3a
000000f0: 685f a4b9 6282 91bb 2060 ff3b cf5f 8e3b

encoder_b.convs.2.weight f4 [64, 64]
2.624999e-06 2.7091077e-24 4.8356828e-08 -8.9837416e-15 -0.0016971471 2.9764287e-14 -5.418673e-14 0.00011162518
0.0004463145 -1.462172e-20 0.0037638957 -3.6024583e-11 0.0002991972 -1.8622593e-25 -0.0010616285 -8.806292e-07
-0.0009881088 0.0010612312 -0.0005603279 -3.4263962e-28 1.1343566e-06 -0.00014656714 4.9651826e-06 5.210754e-14
-4.3118627e-05 -1.8958546e-15 -1.1591328e-18 -5.914846e-06 -0.0022383446 -0.004219508 0.00026707188 -5.769787e-05
0.00050721795 -5.9117347e-06 0.0005607867 -1.9108966e-12 -1.2294737e-16 3.2862e-14 1.4953703e-19 -1.7004009e-08
-1.0626317e-17 5.8666148e-05 -0.0034840102 9.300217e-13 0.0014688197 -6.3235406e-05 -0.00072925386 1.471144e-09
8.7319266e-20 1.6839203e-05 1.7956627e-06 2.7486284e-20 -2.6142547e-07 5.2460414e-10 0.0005672365 5.7115576e-06
-1.5425185e-05 1.6850455e-21 3.0826516e-08 -0.0017212048 3.0587191e-06 -0.00016127805 -0.0040524937 -1.5733426e-06
0.0005634328 0.00029773457 2.1344339e-07 -1.8938e-05 1.1112609e-05 2.3748986e-07 3.237399e-11 0.0007457796
-0.004455167 0.0042887297 -0.0010384513 0.00053989235 5.997938e-10 -0.00020478436 1.4199741e-08 4.571451e-06
-1.1281195e-07 1.5102105e-09 3.6546872e-09 -0.00021195233 1.9154746e-10 2.983193e-06 0.0024836764 0.00077426666
2.2741544e-09 0.00018621265 -1.0133376e-06 9.457176e-08 0.0003202974 -0.0046444195 0.006443471 6.105471e-09
-1.207543e-05 3.64319e-05 -0.00055023783 -0.0024597053 0.00044485388 1.0883028e-06 -7.787128e-05 0.0041115936
0.0003855648 -2.4500775e-07 -0.0009608026 0.00047124308 -0.003898573 -0.00013171358 -7.661436e-11 9.2474984e-05
-0.00025957133 0.003890209 0.00113045 -4.979758e-06 0.0009646847 0.0015749204 0.000150527 -3.4188805e-10
-0.00022276136 -1.3245803e-08 -2.6238126e-08 1.5349241e-06 9.8371995e-05 1.6985918e-08 0.00032612606 3.8122656e-05
-3.926102e-05 0.0035628972 -0.00033736802 3.430495e-05 -0.004845989 0.00020940568 2.5782068e-05 0.00015297522
-0.00059746625 0.0038599926 -9.981125e-05 -0.007099292 0.00060203066 0.00093938864 0.0015561797 0.0007740622
4.812632e-05 2.289685e-05 -6.097241e-05 6.777948e-05 0.0021696377 -4.5578246e-05 -0.012009269 0.0006615712
8.8021756e-05 0.00015842966 -3.0347355e-05 -0.0006649443 5.9908016e-05 -0.006072706 -7.0620445e-05 8.725061e-05
5.522669e-05 9.68221e-05 0.007185703 -0.00087084656 -4.6545872e-05 0.002609031 4.2201777e-05 -0.0021488608
6.468349e-05 0.0019626208 -4.5829715e-05 8.902889e-05 6.647222e-05 0.0004137279 -5.5173656e-05 2.5736419e-05
-4.8135837e-05 -6.729715e-05 -0.0029507864 -0.00012248693 3.9728093e-05 -0.00020972996 3.3774482e-05 0.0050858743
-0.0011860728 -0.0005598214 -0.0013243239 -0.00016234822 -0.00213166 -7.055268e-05 -1.1056971e-05 0.0020349808
0.0019529084 0.00028507196 -0.0020973706 9.162978e-06 -0.00013220977 -0.0014958099 1.09338225e-05 -0.0025870875
-2.7095359e-05 -0.004064235 -3.5760757e-05 0.00034044683 2.1047405e-05 -0.0003492358 2.9453886e-05 -0.00014704218
2.3900311e-05 0.00016883833 5.9212627e-05 -0.0032454345 2.2129382e-06 0.0014845275 0.007382139 0.0036004812
-2.2733244e-05 -0.0045240386 -2.704941e-05 3.457622e-05 2.6844009e-05 -0.0012133733 -0.00057629286 2.791572e-05
-0.00013169613 0.00019175498 -2.2590397e-05 0.00037017534 0.00081718015 -2.407211e-06 -2.0641814e-05 -3.111127e-05
2.794199e-05 -2.1959595e-05 -0.0051028742 -0.0004417433 0.00629781 -0.00024856595 0.00036492167 0.0019232814
0.00054034934 -0.0017395843 -4.481942e-05 -0.00013217964 -0.00033415607 -2.6503814e-05 0.003988419 -3.192024e-05
-0.00014031286 7.8499994e-05 0.0023185376 0.0036296686 -3.4156234e-05 -2.924303e-05 -0.0068080304 -0.00015302085
00000000: 2429 3036 689b 5118 e5b0 4f33 32d6 21a8
00000010: cf72 deba e30b 0629 0c09 74a9 5018 ea38
00000020: 51ff e939 2619 8a9e b1ab 763b 1370 1eae
00000030: 92dd 9c39 5a89 6696 5726 8bba 6164 6cb5
00000040: 6e83 81ba 0319 8b3a f8e2 12ba 752c d991
00000050: 3240 9835 d1af 19b9 989a a636 e7ab 6a29
00000060: 46da 34b8 589c 08a7 cd0e aba1 2478 c6b6
00000070: 31b1 12bb cc43 8abb c805 8c39 9e00 72b8
00000080: d2f6 043a 6a5d c6b6 c201 133a a777 06ac
00000090: a9bf 0da5 4eff 1329 cb8a 3020 3610 92b2
000000a0: 5d05 44a3 4c10 7638 fe53 64bb 90e3 822b
000000b0: 6985 c03a 409d 84b8 662b 3fba 4731 ca30
000000c0: 422d ce1f ea41 8d37 8002 f135 e1cc 011f
000000d0: 0b5a 8cb4 bc33 1030 99b2 143a e8a5 bf36
000000e0: 5565 81b7 0aa3 fe1c 1d66 0433 0d9a e1ba
000000f0: 6544 4d36 bf1c 29b9 c8ca 84bb a42b d3b5
00000100: 56b3 133a 4219 9c39 df2e 6534 0cdd 9eb7
00000110: 4b70 3a37 b700 7f34 df61 0e2e 6c80 433a
00000120: a6fc 91bb 7988 8c3b a51c 88ba 9087 0d3a
00000130: bdde 2430 62bb 56b9 1ff3 7332 7764 9936
00000140: 0643 f2b3 cf8f cf30 f025 7b31 853f 5eb9
00000150: d19b 522f de32 4836 2dc5 223b 28f8 4a3a
00000160: 5947 1c31 1442 4339 0402 88b5 6017 cb33
00000170: 97ed a739 3730 98bb c123 d33b 4ac8 d131
00000180: 9497 4ab7 74ce 1838 d63d 10ba 0233 21bb
00000190: 473b e939 cd11 9235 d34e a3b8 8cba 863b
000001a0: a225 ca39 9c89 83b4 5fde 7bba 2d11 f739
000001b0: 347f 7fbb 981c 0ab9 0d7a a8ae 21ef c138
000001c0: 1317 88b9 e0f2 7e3b 9c2b 943a cc17 a7b6
000001d0: e5e2 7c3a 8f6d ce3a c9d6 1d39 77f4 bbaf
000001e0: 0c95 69b9 a88f 63b2 4062 e1b2 9703 ce35
000001f0: 104d ce38 6ee8 9132 e6fb aa39 e4e5 1f38
00000200: 33ac 24b8 7f7f 693b c5e0 b0b9 a9e2 0f38
00000210: 1acb 9ebb e993 5b39 9246 d837 f967 2039
00000220: 489f 1cba eef7 7c3b c251 d1b8 2da1 e8bb
00000230: 98d1 1d3a 4e41 763a baf8 cb3a 6fea 4a3a
00000240: 3edb 4938 9c12 c037 a0bc 7fb8 d524 8e38
00000250: 7b30 0e3b 452b 3fb8 86c2 44bc 4b6d 2d3a
00000260: 5298 b838 2320 2639 7392 feb7 a84f 2eba
00000270: be45 7b38 8dfd c6bb 101a 94b8 51fa b638
00000280: 35a3 6738 f80c cb38 0c76 eb3b 8649 64ba
00000290: 403a 43b8 47fc 2a3b d001 3138 e7d3 0cbb
000002a0: afa6 8738 509f 003b 4839 40b8 05b5 ba38
000002b0: 0067 8b38 9ee9 d839 436a 67b8 8ae4 d737
000002c0: 76e5 49b8 e221 8db8 fb61 41bb d66f 00b9
000002d0: b7a1 2638 f5ea 5bb9 13a9 0d38 68a7 a63b
000002e0: 0076 9bba fac0 12ba f094 adba 053c 2ab9
000002f0: 52b3 0bbb aff5 93b8 5481 39b7 505d 053b
00000300: bbf8 ff3a b675 9539 0a74 09bb b1ba 1937
00000310: caa1 0ab9 0d0f c4ba 6970 3737 208c 29bb
00000320: d74a e3b7 462d 85bb d2fd 15b8 007e b239
00000330: f58e b037 a319 b7b9 bd13 f737 562f 1ab9
00000340: 877d c837 320a 3139 135b 7838 5bb1 54bb
00000350: fd81 1436 7a94 c23a dfe5 f13b 0df6 6b3b
00000360: 45b3 beb7 633e 94bb 2ae8 e2b7 ef05 1138
00000370: 122f e137 0d0a 9fba 5c12 17ba 8d2c ea37
00000380: e917 0ab9 d611 4939 8280 bdb7 1814 c239
00000390: 0838 563a 928b 21b6 f527 adb7 797d 02b8
000003a0: f764 ea37 df35 b8b7 0336 a7bb c899 e7b9
000003b0: dc5d ce3b f551 82b9 f552 bf39 9d16 fc3a
000003c0: 3ba6 0d3a c302 e4ba 7cfc 3bb8 b499 0ab9
000003d0: ab31 afb9 8254 deb7 49b1 823b 19e2 05b8
000003e0: f220 13b9 5da0 a438 9bf2 173b bcdf 6d3b
000003f0: fa42 0fb8 ee4e f5b7 e615 dfbb 3974 20b9

encoder_b.convs.2.bias f4 [64]
0.01194582 0.009454906 0.01990651 -0.00587191 -0.016825939 -0.0032719444 0.0028320756 -0.008624181
0.0022247892 0.013215726 0.013216431 -0.00040669437 0.00048149767 0.011927604 0.020465745 -0.007448569
-0.011942463 0.0035395583 -0.00482357 -0.015257511 -0.0066142674 -0.0012840445 0.008764394 0.0075060544
0.0150880385 -0.015554629 0.005964068 0.011363317 0.008796676 -0.006035185 -0.015864633 0.011637457
0.0037703947 0.0030519252 0.014599676 0.013240503 0.0025800667 0.015527892 -0.0112661505 -0.013149447
0.015707053 0.012994948 -0.008363611 -0.012834062 -0.0009769677 -0.013797898 -0.00777274 -0.011874261
0.010677867 0.011733239 0.0057771634 -0.011316241 -0.010805172 0.0010944295 -0.0037796327 -0.018422801
-0.012108146 0.009295684 -0.020996237 0.006784266 -0.014348521 -0.0025286789 0.0018328582 0.018404365
00000000: 67b8 433c c0e8 1a3c fa12 a33c 2769 c0bb
00000010: 8dd6 89bc 1e6e 56bb 589a 393b 704c 0dbc
00000020: c5cd 113b c686 583c bb89 583c 9839 d5b9
00000030: 8671 fc39 ff6b 433c c7a7 a73c 2013 f4bb
00000040: 52aa 43bc eff7 673b 0a0f 9ebb a4fa 79bc
00000050: 7fbc d8bb 624d a8ba 8898 0f3c 59f5 f53b
00000060: d233 773c d8d8 7ebc 3b6e c33b 352d 3a3c
00000070: ef1f 103c cdc2 c5bb 8cf6 81bc 08ab 3e3c
00000080: ba18 773b cf02 483b 7b33 6f3c b2ee 583c
00000090: 5616 293b b368 7e3c a995 38bc c770 57bc
000000a0: 14ac 803c c3e8 543c 8707 09bc f545 52bc
000000b0: 990d 80ba 9410 62bc 78b2 febb 438c 42bc
000000c0: 38f2 2e3c c53c 403c 5c4e bd3b c167 39bc
000000d0: 2d08 31bc f672 8f3a b7b3 77bb 6aeb 96bc
000000e0: 3f61 46bc ed4c 183c 4d00 acbc 8c4e de3b
000000f0: 0f16 6bbc 31b8 25bb 843c f03a c0c4 963c
