results/ABIDE_3x5fold_seed0/fold1_rep2_seed2001/ckpt_best_fold_1.pt (torch, 660354 bytes, 72 tensors)

encoder_c.convs.0.weight f4 [116, 64]
0	0x3d9c3c45	0.07628683
1	0x3d7de036	0.061981402
2	0x3d1912d2	0.037371464
3	0x3dfed52a	0.124430016
4	0x3dcc850d	0.09986315
5	0xbd81a29a	-0.06329842
6	0xbd989875	-0.07450954
7	0x3bc3f8e8	0.0059805997
8	0x3e1449d5	0.1448129
9	0x3d65fd34	0.056149676
10	0x3d43be3d	0.047788847
11	0xbca0f34c	-0.019647263
12	0x3c96fa8a	0.018430013
13	0x3e05e17a	0.13074294
14	0x3db9592c	0.09050211
15	0x3dc781cb	0.09741553
16	0x3d924fd2	0.07144131
17	0xbdf18c2d	-0.117943145
18	0xbd94ba09	-0.07262046
19	0xbd4de0c0	-0.050263166
20	0x3e0b501e	0.13604781
21	0xbc875d77	-0.01652406
22	0xbc8082eb	-0.015687427
23	0x3d0b0f23	0.033949982
24	0x3e11b550	0.14229321
25	0xbbb14168	-0.0054094084
26	0xbd9b4192	-0.07580866
27	0xbd8e14eb	-0.069375835
28	0x3d76272b	0.060095947
29	0xbdef65cf	-0.1168934
30	0x3e0f9e0d	0.14025135
31	0x3d898f67	0.06716805
32	0x3daceb51	0.084433205
33	0x3de6f7b8	0.11277717
34	0x3d810ffa	0.063018754
35	0x399101ac	0.000276578
36	0x3db479a8	0.088122666
37	0xbdc1bb41	-0.09459544
38	0x3da163b5	0.07880346
39	0xbd327bbf	-0.043575045
40	0xbca59561	-0.020212831
41	0x3d34dc96	0.04415568
42	0x3e07fad5	0.13279279
43	0x3dac9091	0.08426011
44	0x3c78fa72	0.01519643
45	0xbd8a5c4e	-0.06755887
46	0x3e1f49e3	0.1555553
47	0xbdf8bdd4	-0.12145582
48	0xbb2dbbc8	-0.0026509631
49	0x3bfa3f6d	0.0076369555
50	0xbdc6ff31	-0.09716643
51	0x3d87980b	0.06620797
52	0x3cbbe2fd	0.022935385
53	0xbe1f7aef	-0.15574239
54	0x3c823c67	0.015897943
55	0x3c620ab6	0.013796499
56	0x3db82daa	0.08993085
57	0x3d9f06d6	0.07764976
58	0x3af0a058	0.0018358333
59	0xbd0358dc	-0.032067165
60	0xbd911ffc	-0.07086179
61	0xbdeec478	-0.11658567
62	0xbb6d80e8	-0.0036240164
63	0x3d82cc8b	0.0638667
64	0x3d7438f0	0.059624612
65	0xbd8888b7	-0.06666701
66	0xbd8bfa7b	-0.06834885
67	0x3c82e5ea	0.015978772
68	0x3e08971c	0.13338894
69	0xbdfe7abd	-0.12425754
70	0xbdc26748	-0.094923556
71	0x3c0ec2d3	0.008713442
72	0xbe1b9a11	-0.1519549
73	0xbd40fce4	-0.047116175
74	0x3b9ac91b	0.0047236807
75	0x3c805ee8	0.015670255
76	0xbd6a54af	-0.057209667
77	0xbbd2369d	-0.006415202
78	0x3c36f407	0.011166579
79	0x3ce7914f	0.02826753
80	0xbb5f683f	-0.0034089235
81	0xbdfd74de	-0.12375806
82	0xbce31105	-0.027718076
83	0xbd5d201b	-0.053985696
84	0xbd890711	-0.06690801
85	0x3da62140	0.08111811
86	0x3dee6724	0.11640766
87	0xbd8b02ee	-0.06787668
88	0x3e243aa5	0.16037996
89	0xbdec6707	-0.115430884
90	0x3dc390c2	0.09549095
91	0x3d07dc8d	0.033169318
92	0x3e18a1fd	0.14905544
93	0xbc3569c0	-0.011072576
94	0x3e1c8c64	0.1528793
95	0xbd370fac	-0.04469268
96	0xbdf71ecb	-0.1206642
97	0xbd4447ec	-0.047920153
98	0x3e31d744	0.17367274
99	0xbbe7e78c	-0.007077163
100	0xbe11b0c6	-0.1422759
101	0xbdcf0642	-0.101086155
102	0xbc9824e2	-0.018572275
103	0xbd4211d2	-0.047380276
104	0x3ba9322a	0.0051634507
105	0xbd836577	-0.06415837
106	0x3e2281b4	0.1586979
107	0xbd90d734	-0.07072297
108	0xbd68d0cf	-0.05683976
109	0x3db068ea	0.08613761
110	0x3e23b03f	0.15985201
111	0xbde8535f	-0.11344027
112	0x3ce2c954	0.027683891
113	0xbd628330	-0.05530089
114	0x3cbcf008	0.023063675
115	0x3e1ac61b	0.15114634
116	0xbd08d1b9	-0.033403132
117	0x3de7a529	0.11310799
118	0xbbfde532	-0.0077482695
119	0xbcc48854	-0.023990788
120	0x3d3cf540	0.046132326
121	0xbe20a49e	-0.15687796
122	0x3df3369c	0.1187565
123	0xbd09a17f	-0.03360128
124	0xbd7dfad2	-0.06200678
125	0x3d9a757e	0.07541941
126	0xbe0d2b95	-0.13786156
127	0x3e1efe8b	0.15526788
128	0x3b281909	0.0025649688
129	0x3ce91685	0.028453121
130	0x3cac6634	0.021044828
131	0x3e15f6dc	0.1464495
132	0xbd526ca0	-0.051373124
133	0xbd6a2a1a	-0.057169057
134	0xbe0617dc	-0.13095039
135	0xbdde93eb	-0.10868057
136	0x3e1d38b2	0.15353659
137	0xbd0ed824	-0.034874097
138	0xbd11f889	-0.035637412
139	0xbcce35e8	-0.025172189
140	0x3e0c8c6b	0.1372544
141	0x3dedaf5b	0.11605712
142	0xbc01a1d9	-0.007912123
143	0x3d503112	0.050828047
144	0x3d8701b4	0.06592122
145	0x3dae8b1e	0.08522628
146	0x3d828873	0.06373682
147	0x3e0d3226	0.13788661
148	0xbd63f84c	-0.055656716
149	0x3c64f583	0.01397455
150	0xbdeebfe3	-0.11657693
151	0xbdfeadc5	-0.12435488
152	0xbe42c03a	-0.19018641
153	0xbc1e5360	-0.009663433
154	0xbd5b2686	-0.053503536
155	0x3e368bcc	0.17826766
156	0x3e33fdfc	0.17577356
157	0xbd8c8add	-0.068624236
158	0xbd01e4c6	-0.031712316
159	0x3d95e979	0.07319922
160	0xbdfafce9	-0.1225527
161	0xbe1c3d58	-0.15257776
162	0xbe2c0013	-0.16796903
163	0x3bb2760e	0.005446202
164	0x3dbf8481	0.09351445
165	0x3de8e2ea	0.113714054
166	0x3b278500	0.0025561452
167	0xbd68cd5f	-0.056836482
168	0xbc74a970	-0.014932975
169	0x3d20764a	0.03917531
170	0x3d71edd4	0.0590647
171	0x3dbe2314	0.09284034
172	0xbcd73553	-0.026270544
173	0xbdf66bc8	-0.120322764
174	0x3dcbc158	0.09948987
175	0xbe02497d	-0.12723346
176	0xbd0a7a53	-0.033808064
177	0xbb40be45	-0.0029410284
178	0x3e11a9fc	0.14225
179	0xbd3d01b7	-0.046144214
180	0xbe22cd05	-0.15898521
181	0x3d963f11	0.07336248
182	0x3d84185d	0.064499594
183	0xbdac5b3c	-0.08415839
184	0x3d593faf	0.05303925
185	0x3d9ea6f9	0.07746691
186	0x3cc19ea4	0.023635216
187	0x3e20a3ed	0.15687533
188	0xbc96b4c1	-0.018396737
189	0xbddc9b8b	-0.10771855
190	0x3d98c829	0.074600525
191	0x3d8a24c7	0.06745296
192	0x3d3f0708	0.046637565
193	0xbc16dbd9	-0.009207689
194	0xbd64b122	-0.05583299
195	0x3dbba257	0.09161823
196	0x3dc6bce8	0.09704
197	0x3da12712	0.0786878
198	0xbc0d41a9	-0.008621612
199	0xbce5b639	-0.028040992
200	0x3db6dd52	0.08928932
201	0xbdab3cdb	-0.08361217
202	0x3d6001fd	0.054689396
203	0xbd1d2a2a	-0.03837029
204	0x3ddde58c	0.10834798
205	0x3c77c7f4	0.015123356
206	0xbce2df3b	-0.027694335
207	0xbd9030c6	-0.07040553
208	0x3db165dd	0.08662007
209	0x3dbdf505	0.092752494
210	0xbdacbf15	-0.084348835
211	0xbd57ffa9	-0.05273405
212	0xbe39bbcc	-0.18138045
213	0x3dffb15a	0.12484999
214	0xbc2aae85	-0.010417585
215	0x3d0e7eda	0.034788944
216	0xbdff251e	-0.124582514
217	0x3db2fecc	0.08740005
218	0xbd946bf6	-0.072471544
219	0xbdd37df4	-0.10326758
220	0x3c630846	0.013856953
221	0xbdfdb9cd	-0.12388954
222	0xbd937ab7	-0.072011404
223	0x3d16ad92	0.036786623
224	0xbdff0ebd	-0.12453983
225	0xbc9bfa7c	-0.019040339
226	0x3d4ecba0	0.05048716
227	0xba543029	-0.00080943346
228	0x3c82e20c	0.015976928
229	0x3c7805fa	0.015138144
230	0xbda31d58	-0.07964581
231	0x3d670d5e	0.056409232
232	0xbd0a67e6	-0.03379049
233	0x3e237e28	0.15966094
234	0x3d5f50bc	0.054520354
235	0x3dcc0277	0.09961408
236	0x3d2616a8	0.04054895
237	0xbe0ba4dc	-0.13637108
238	0xbb0c85b6	-0.0021442003
239	0xbd4e4405	-0.050357837
240	0xbd3df7c4	-0.046378866
241	0xbe37401d	-0.17895551
242	0xbe0a5388	-0.13508427
243	0xbe36a45d	-0.17836137
244	0x3b845c9e	0.004039361
245	0x3d7a02b1	0.061037723
246	0xbdef87f4	-0.11695853
247	0x3bbded45	0.005796107
248	0x3d71d5e8	0.059041888
249	0xbd48cd91	-0.04902417
250	0xbc80865c	-0.015689068
251	0x3e364fec	0.17803925
252	0xbd86f52a	-0.0658973
253	0x3d9afa1a	0.07567234
254	0x3e355fb3	0.17712288
255	0xbd1c5de7	-0.03817549

encoder_c.convs.0.bias f4 [64]
0	0x3d553347	0.052050855
1	0x3c8c5be1	0.017133655
2	0x3cd47f9a	0.025939751
3	0x3c404ad2	0.011736589
4	0xbbb1e413	-0.0054288
5	0xbb6c2fbc	-0.0036039194
6	0x3bbfa962	0.0058490494
7	0xbc2753f7	-0.01021289
8	0xbb813be8	-0.003943909
9	0x3c1a8fb4	0.009433676
10	0x3be47680	0.006972134
11	0x3bb40cae	0.0054946756
12	0x3bf71b36	0.0075410856
13	0xba1b1479	-0.00059158314
14	0x3ceedf01	0.02915907
15	0x3c2f00b5	0.010681321
16	0x3d1af09d	0.037827123
17	0x3b9ca02c	0.004779836
18	0xbb80eeab	-0.0039347014
19	0x3be8a146	0.0070993034
20	0xbbde0efc	-0.0067766886
21	0x3bd4922c	0.0064871516
22	0xbbf9c0e3	-0.007621871
23	0x3ca8373a	0.020534147
24	0x3acf3565	0.001580876
25	0x3c6282cd	0.013825131
26	0x3c8d8cf6	0.01727913
27	0x3d0c080b	0.034187358
28	0x3c70f07b	0.0147057725
29	0x3cb4e24e	0.022080567
30	0x3ca28ea8	0.019843414
31	0x3b7ccf0a	0.0038575553
32	0x3cb3b24b	0.021935603
33	0xbb6a9262	-0.0035792817
34	0x3a3f990b	0.0007308877
35	0x3d36e08f	0.04464775
36	0x3c97b20e	0.01851752
37	0x3d02f726	0.03197398
38	0x3bab6642	0.005230696
39	0x3cb60874	0.022220828
40	0x3c9677c7	0.018367661
41	0xbc8bc4e6	-0.017061662
42	0xbcafad99	-0.021445083
43	0xbca176b3	-0.01970992
44	0xbb49404f	-0.0030708497
45	0xbc00d0ca	-0.007862279
46	0xbbd05fed	-0.0063590915
47	0x3c018dc9	0.007907339
48	0x3bf8bde2	0.007590995
49	0x3d31a7bc	0.043372855
50	0x3cca767b	0.024714699
51	0x3c037f00	0.008025885
52	0xbbca0d89	-0.0061661643
53	0xbba5ce77	-0.005060013
54	0xbb91c1bc	-0.0044481438
55	0x3ccbdf46	0.024886739
56	0xbb849783	-0.004046382
57	0x3ce7252a	0.028215963
58	0xbc12689b	-0.008936073
59	0xbb346d0d	-0.002753082
60	0x3d0fbc99	0.03509197
61	0x3d143aee	0.036189012
62	0xbafb5756	-0.0019175808
63	0x3a0dfe46	0.0005416613

encoder_c.convs.1.weight f4 [64, 64]
0	0xbdaf2056	-0.085510895
1	0x3d9ef1f3	0.07760992
2	0xbbe3315c	-0.0069333743
3	0x800037fb	-2.0082e-41
4	0xbd331179	-0.043717835
5	0x3d6b07be	0.05738043
6	0x3e312e88	0.17302907
7	0xbdde2bd7	-0.108482055
8	0x3bc95534	0.00614419
9	0x3da84ce1	0.082177885
10	0x3d87116b	0.06595119
11	0xbe24ac7d	-0.16081424
12	0x3e2c2084	0.16809279
13	0x3df019f9	0.11723704
14	0xbe0f2a24	-0.13980919
15	0xbdd159bc	-0.102221936
16	0x3db64020	0.088989496
17	0x3d381b47	0.04494789
18	0xbd439779	-0.047751877
19	0x3dc01e72	0.09380807
20	0xbd2947ef	-0.041328367
21	0xbcbc4c76	-0.022985678
22	0x3e3a08e7	0.18167458
23	0xbdcfca12	-0.10145964
24	0x3de29a1f	0.110645525
25	0xbd6b3e84	-0.057432666
26	0x3d119ab0	0.035547912
27	0xbd48a68c	-0.048986956
28	0x2b0a352a	4.910123e-13
29	0xbdd58227	-0.10425215
30	0x3cd284e4	0.025698133
31	0x8093fd6d	-1.359073e-38
32	0xbda66e06	-0.08126454
33	0x3e0d4ff2	0.13800028
34	0x3e1353f8	0.143875
35	0x340f29e2	1.333315e-07
36	0x3d874abf	0.066060536
37	0x3c7a04f5	0.015259971
38	0x00006e32	3.953e-41
39	0x3d759b4b	0.059962552
40	0x3d87afee	0.06625353
41	0xbd95cfeb	-0.07315048
42	0x3e5b9e10	0.21447015
43	0x3a9328d7	0.0011227381
44	0x3d28c970	0.04120773
45	0x3dc5e3ae	0.09662567
46	0xbd5e77d6	-0.054313503
47	0x3e00e822	0.12588552
48	0xbdd0c6bd	-0.10194156
49	0x3e0d1abe	0.13779733
50	0xbd00deed	-0.0314626
51	0xbd33a3c4	-0.04385735
52	0x3dc76f3e	0.09738015
53	0xbda52852	-0.08064331
54	0xbd01f138	-0.031724185
55	0xbd52754a	-0.051381387
56	0x3da25ee1	0.07928253
57	0xb73d2cf1	-1.1275742e-05
58	0x800048a7	-2.6063e-41
59	0xbd467b32	-0.048457332
60	0xbcf1f51a	-0.029535819
61	0xbe1ab381	-0.15107538
62	0xbdcc405c	-0.09973213
63	0x800023ac	-1.2797e-41
64	0x3d91eb09	0.071249075
65	0xbd41ba42	-0.04729677
66	0x3e2d9425	0.16951044
67	0x80001d73	-1.0564e-41
68	0x3d7d0d2f	0.06178015
69	0xbd58f77c	-0.052970394
70	0xbd3f1135	-0.04664727
71	0x3ca8427a	0.020539511
72	0xbc99251f	-0.018694459
73	0xbdc35aef	-0.095388286
74	0xbd4047fd	-0.046943653
75	0x3df294fa	0.11844821
76	0xbd03c737	-0.032172408
77	0xbd2647eb	-0.04059593
78	0x3d0423cd	0.032260705
79	0x3dfb633a	0.12274785
80	0xbd4190eb	-0.047257345
81	0xbc94c926	-0.018162321
82	0x3c9e23da	0.019304205
83	0xbc572c4b	-0.013133119
84	0x3d08c6ef	0.033392843
85	0x3ca24329	0.019807415
86	0x3cc0d7f1	0.023540469
87	0x3d884dd9	0.06655473
88	0xbd97aa8a	-0.074055746
89	0x3d02672c	0.031836674
90	0xbc85946d	-0.016306126
91	0x3d887c83	0.06664374
92	0xa4180c2b	-3.2970053e-17
93	0x3cc2af62	0.02376527
94	0xbca1b883	-0.019741302
95	0x048bb7ff	3.2847717e-36
96	0x3d8f7ce1	0.07006241
97	0xbcf931b1	-0.030419203
98	0xbd330679	-0.043707345
99	0xaaa61ce9	-2.9507584e-13
100	0xbd845884	-0.064621955
101	0x3d0eecdf	0.034893867
102	0x000010c1	6.01e-42
103	0xbd11f378	-0.03563258
104	0x3cd96ca7	0.026541067
105	0x3c465ef1	0.012107597
106	0xbe2fdaa5	-0.1717325
107	0x37a4042b	1.9552264e-05
108	0xbd2fb2e8	-0.042895228
109	0xbc94cf58	-0.018165275
110	0x3ddbd16d	0.10733304
111	0xbc81e043	-0.015854007
112	0x3cdf1b23	0.02723462
113	0xbd426a97	-0.047464933
114	0x3d80e5ff	0.06293868
115	0x3d17ce07	0.037061717
116	0xbb1fc869	-0.0024380928
117	0x3df1c25b	0.118046485
118	0x3d06ea8c	0.032938525
119	0x3d34b344	0.044116274
120	0xbe04400e	-0.1291506
121	0xba01ec72	-0.00049561926
122	0x80003b92	-2.137e-41
123	0x3d7ed21a	0.062212087
124	0x3d25b723	0.040457856
125	0x3d859361	0.06522251
126	0xba869fbe	-0.0010270996
127	0x22490176	2.7241353e-18
128	0x3e19d337	0.15021978
129	0xbb7f0e98	-0.003891861
130	0x3d1301ad	0.03589027
131	0x80001a6a	-9.476e-42
132	0xbca4a741	-0.020099284
133	0xbc53492b	-0.012895863
134	0x3e09939e	0.13435218
135	0x3daf0a11	0.08546842
136	0x3ce46c79	0.027883755
137	0x3dee072e	0.11622463
138	0x3dcc3351	0.09970725
139	0x3e6a6350	0.22889447
140	0xbe19446e	-0.1496751
141	0x3d029c7e	0.031887524
142	0xbdc36f81	-0.09542752
143	0x3e59c9d8	0.21268404
144	0xb96260dd	-0.00021589124
145	0xbc149467	-0.009068585
146	0x3dbce072	0.09222497
147	0xbe117e75	-0.14208396
148	0xbbe831b9	-0.0070860055
149	0x3e1dd92c	0.15414876
150	0x3d94c749	0.07264573
151	0xbd54771f	-0.051871415
152	0x3cec895a	0.028874088
153	0x3da2e406	0.07953648
154	0x3d4540eb	0.048157614
155	0x3e374089	0.17895712
156	0xb612e27d	-2.188753e-06
157	0xbe09229b	-0.13392107
158	0x3da18826	0.078872964
159	0xb5b2501e	-1.3285351e-06
160	0x3df54815	0.11976639
161	0x3d0c695b	0.034280162
162	0x3c5f66f2	0.013635384
163	0x369de813	4.7059816e-06
164	0x3d8ea940	0.069658756
165	0xbe4b1e7a	-0.19835845
166	0x00012372	1.04551e-40
167	0xbac0cdc0	-0.0014709756
168	0x3db4c5ec	0.08826813
169	0xbc5795aa	-0.013158241
170	0xbd076a25	-0.03306021
171	0xbb3c3efc	-0.0028724065
172	0xbc92f0c9	-0.017937081
173	0xbce347e7	-0.027744247
174	0xbc81a755	-0.01582686
175	0xbcab9052	-0.02094284
176	0xbe28f130	-0.16498256
177	0x3df18fcf	0.117950074
178	0xbcaaf8c7	-0.02087058
179	0xbcc399b0	-0.023876995
180	0x3dac7fa1	0.08422781
181	0x3dceaaf8	0.100912035
182	0xbe00b6dd	-0.12569757
183	0x3c4babe3	0.012431118
184	0xbd11ed9c	-0.035626993
185	0xbc365cfc	-0.011130568
186	0x000cef2f	1.187829e-39
187	0x3d50cfb6	0.05097934
188	0xbd833b9c	-0.06407854
189	0x3c36382f	0.011121794
190	0x3d6c70b2	0.057724662
191	0xaa48d343	-1.7836865e-13
192	0x3d93e452	0.07221283
193	0x3ce8e318	0.0284286
194	0xbe485eff	-0.19567488
195	0x11bef0bb	3.0125076e-28
196	0x3d4d75c2	0.05016113
197	0x3daaa673	0.08332529
198	0xbe0043fb	-0.12525932
199	0xbd2bcc35	-0.041942794
200	0xbb57b591	-0.0032914618
201	0x3e671876	0.22567925
202	0x3ca8e04e	0.02061477
203	0x3d4efd17	0.050534334
204	0xbc16e7bf	-0.009210526
205	0x3e16d5c8	0.14729989
206	0x3e0eefce	0.13958666
207	0xbe6bbd33	-0.23021393
208	0x3c92da71	0.017926427
209	0x3c07a8e5	0.008280014
210	0xbe0af138	-0.1356858
211	0x3dc397d9	0.09550447
212	0xbc3cf02a	-0.011531869
213	0x3d27cd03	0.040967
214	0xbc3a42bd	-0.011368451
215	0x3dd32ea9	0.10311634
216	0x3e4d740d	0.20063801
217	0xbd379d41	-0.044827703
218	0x3dfa2684	0.122143775
219	0xbe22dfc2	-0.1590567
220	0xb58b936c	-1.0399212e-06
221	0xbdfa426c	-0.122197
222	0xbdf965f5	-0.1217765
223	0xae048a5c	-3.0136213e-11
224	0xbe42ad41	-0.19011404
225	0xbdfad022	-0.122467294
226	0x3e5648b7	0.20926176
227	0xb987714c	-0.0002583362
228	0x3d54fb19	0.051997278
229	0x3e73567a	0.23763457
230	0x0001163f	9.9816e-41
231	0x3b9275fb	0.004469631
232	0x3ca08112	0.019592796
233	0xbd8d2cc8	-0.06893307
234	0x3e2ef2f4	0.17084867
235	0x3cfd00a0	0.030884087
236	0xbd9ea20d	-0.077457525
237	0x3cd5add5	0.026083866
238	0x3b9df6c4	0.0048206765
239	0x3d7a340d	0.061084796
240	0x3c5f652b	0.01363496
241	0x3e2efc4f	0.17088436
242	0x3d3a4eba	0.045485236
243	0xbd3df1f8	-0.046373338
244	0xbbe5f3d2	-0.007017591
245	0x3e0a8b6f	0.13529752
246	0x3d338769	0.04383031
247	0xbdc66072	-0.09686364
248	0x3e3edd3d	0.18639083
249	0xbd0b31bd	-0.03398298
250	0x80002915	-1.4737e-41
251	0xbb3f83e6	-0.0029222905
252	0xbe387ce6	-0.18016395
253	0xbdedd9ac	-0.11613783
254	0xbcc32e46	-0.023825776
255	0xa90bc4fd	-3.103506e-14

encoder_c.convs.1.bias f4 [64]
0	0x3c2e6f18	0.010646604
1	0x3d357e8e	0.044310145
2	0x3b393ce1	0.0028265046
3	0xbb806408	-0.0039181747
4	0x3b1c636d	0.0023862973
5	0x3cd6d0f9	0.026222693
6	0x3c651801	0.013982774
7	0x3bb4c63a	0.0055167945
8	0xbc313712	-0.010816352
9	0x3bf4c149	0.0074693304
10	0x3b9f1dd2	0.00485585
11	0xb9bc9acb	-0.00035973484
12	0x3c4fe207	0.012688166
13	0x3cde24fd	0.027117247
14	0x3b71631a	0.003683275
15	0x3c102d70	0.008799896
16	0x3bccff99	0.0062560556
17	0x3c051d1f	0.008124619
18	0x3b5d17d6	0.003373613
19	0x3c9ec032	0.019378755
20	0x3c376538	0.011193566
21	0x3bc64854	0.0060511027
22	0x3d102383	0.035190117
23	0x3b2efb7e	0.0026700194
24	0x3bb4df44	0.0055197794
25	0xbcc0178e	-0.023448732
26	0xbbe6d4a6	-0.0070443926
27	0xbb0afd60	-0.0021208152
28	0xbc573e27	-0.013137377
29	0x3b1e9679	0.0024198575
30	0x3c47f8a8	0.01220528
31	0xbc3b531f	-0.011433392
32	0x3a99e22d	0.0011740379
33	0x3c4f0420	0.012635261
34	0x3ce6eb58	0.028188393
35	0xbc13b719	-0.009015822
36	0x3c804658	0.015658543
37	0x3bf9280a	0.00760365
38	0xbc4176d9	-0.011808121
39	0xbb072df6	-0.002062676
40	0x3c90a3b8	0.017656192
41	0xbc6e93f0	-0.014561638
42	0x3c535634	0.01289897
43	0xbc5a6879	-0.013330572
44	0x3cd7dbb0	0.026349872
45	0x3c8b4d4d	0.017004633
46	0xbb90fd31	-0.004424714
47	0x3c8e12cc	0.017342947
48	0xbb9976aa	-0.0046833353
49	0x3c3592a9	0.01108233
50	0x3cab2c98	0.020895287
51	0xbb1e9e10	-0.00242031
52	0x3c63b4e2	0.013898106
53	0xbbcd9ded	-0.0062749297
54	0xbbdf5aaf	-0.0068162302
55	0x3a98463a	0.0011617609
56	0x3c884e9e	0.01663905
57	0xbca248ea	-0.019810159
58	0xbc6810ec	-0.014164191
59	0x3cd04b2d	0.025426472
60	0x3ae9d015	0.0017838503
61	0x3bae1f2a	0.0053137736
62	0xbc3c7aa8	-0.011503853
63	0xbad75592	-0.00164287

encoder_c.convs.2.weight f4 [64, 64]
0	0x3e124ca6	0.14287052
1	0x3db9113b	0.090364896
2	0x3c905aad	0.017621363
3	0x3cb4f109	0.02208759
4	0xbd9d6123	-0.07684543
5	0x3d82bf67	0.06384163
6	0x3d94a245	0.07257513
7	0xbd77eecf	-0.06053048
8	0x3de0498b	0.10951527
9	0xbd05708b	-0.032578032
10	0xbde85288	-0.113438666
11	0xbd69eb1e	-0.05710899
12	0xbe32f261	-0.17475273
13	0x3d167745	0.036734838
14	0xbddf774d	-0.10911427
15	0x3d868964	0.06569174
16	0xbcdbbf41	-0.026824595
17	0x3dc90863	0.09816053
18	0x3d254a32	0.04035396
19	0x3ad5394a	0.0016267684
20	0xbda7c648	-0.08192116
21	0xbdb44353	-0.088019036
22	0xbe08e0ee	-0.13367054
23	0x3d0d7e2a	0.034544148
24	0x3dede4d2	0.1161591
25	0xbcafc973	-0.021458363
26	0xbd968b76	-0.07350819
27	0xbe2ec882	-0.17068675
28	0xbd9c58a0	-0.076340914
29	0x3d953f3f	0.07287454
30	0x3e58d192	0.21173695
31	0x3da16f0c	0.07882509
32	0x3d461d7b	0.04836796
33	0xbc35f8bf	-0.011106669
34	0xbe12ce48	-0.14336503
35	0xbd0c146d	-0.034199167
36	0x3d8e93a2	0.069617525
37	0xbdaa5523	-0.0831702
38	0x3e2db7e7	0.16964684
39	0xbbbc697f	-0.005749881
40	0xbe20a214	-0.15686828
41	0xbe484060	-0.19555807
42	0xbdc07325	-0.09396962
43	0xbd078d53	-0.03309376
44	0x3d965666	0.07340698
45	0xbe36c9e8	-0.17850459
46	0xbd911040	-0.070831776
47	0xbcbfb8c6	-0.023403537
48	0xbdd9468f	-0.10609161
49	0x3db6751b	0.08909055
50	0x3d127f83	0.035766136
51	0xbd944a69	-0.07240755
52	0x3c8e5041	0.017372252
53	0xbd8de444	-0.06928304
54	0x3d48608a	0.04892019
55	0x3d2fdcf6	0.042935334
56	0x3dc693cc	0.09696159
57	0x3d08454b	0.033269208
58	0x3dbf0680	0.09327412
59	0xbe0794e6	-0.13240394
60	0x3c9a75c6	0.018854987
61	0xbda7be41	-0.08190585
62	0xbd9b065f	-0.075695746
63	0x3ddd4804	0.108047515
64	0xbd4f8b5e	-0.05067002
65	0xbd18c463	-0.037296664
66	0x3d425104	0.047440544
67	0xbdaade0f	-0.083431356
68	0x3d450f55	0.048110325
69	0xbc927e6b	-0.017882546
70	0xbd2b98ba	-0.0418937
71	0x3d18ce9a	0.037306406
72	0xbda11acb	-0.078664385
73	0x3d3c63cd	0.045993615
74	0x3cf47287	0.029839767
75	0x3cf8270d	0.030292058
76	0x3d0c5443	0.034260046
77	0xbd2e9b7d	-0.042628754
78	0x3d29a5f0	0.041418016
79	0xbd19031e	-0.03735649
80	0x3cc0f88d	0.023556018
81	0xbd0cda3b	-0.03438781
82	0xbd656266	-0.056002043
83	0x3d78f8e7	0.060784247
84	0x3d1d993c	0.038476214
85	0x3d31eb52	0.04343731
86	0x3d959128	0.07303077
87	0x3d560e83	0.052259933
88	0xbd458b9f	-0.048228856
89	0x3d0dfeb9	0.03466675
90	0x3d4c77b0	0.04991883
91	0x3d4ca7e0	0.049964786
92	0x3d20a5dc	0.039220676
93	0xbd35f0a0	-0.04441893
94	0xbd4fa87c	-0.05069779
95	0xbd318cb3	-0.04334707
96	0xbd1aae8d	-0.03776412
97	0xbd4e20ed	-0.05032437
98	0x3d1339a0	0.035943627
99	0xbd3ebc49	-0.04656628
100	0xbd5e4fb4	-0.05427523
101	0x3d43e63c	0.04782699
102	0xba956bb9	-0.0011399902
103	0xbc72c73c	-0.014818009
104	0x3d2f50b1	0.042801563
105	0x3d5983e7	0.053104308
106	0x3d3874b9	0.04503319
107	0x3d3f8c8a	0.046764888
108	0xbd34253c	-0.043980822
109	0x3d696520	0.056981206
110	0x3d2ae8c4	0.04172589
111	0x3d242f25	0.040084023
112	0x3d5e91a5	0.054338116
113	0xbd17d221	-0.03706563
114	0xbd09c2ed	-0.03363316
115	0x3d5cc4c2	0.05389858
116	0xbd642ae3	-0.055704962
117	0x3c081892	0.008306639
118	0xbd0b82b1	-0.034060184
119	0xbc828864	-0.015934177
120	0xbd2dc3f2	-0.042423196
121	0x3ccd3b1e	0.025052603
122	0xbd2f1e7e	-0.04275369
123	0x3d590a1c	0.052988157
124	0xbd7dea21	-0.06199086
125	0x3d29754b	0.041371625
126	0x3c7dc3c3	0.015488568
127	0xbd4c85da	-0.04993234
128	0x3e5c2796	0.21499476
129	0x3e7de844	0.24795634
130	0xbc2218bf	-0.009893595
131	0x3e7f3673	0.24923114
132	0xbe0e93d8	-0.13923585
133	0x3c780048	0.015136786
134	0x3db252aa	0.08707173
135	0xbd6f6827	-0.058448937
136	0x3e81ef70	0.2537799
137	0xbe60106d	-0.21881266
138	0xbdba944f	-0.09110319
139	0xbe2e24c6	-0.17006215
140	0xbe37b910	-0.1794169
141	0x3e014255	0.1262296
142	0xbd80d71b	-0.06291028
143	0x3e191607	0.14949809
144	0x3b4d346f	0.003131177
145	0x3db26886	0.087113425
146	0x3e825aca	0.25459892
147	0xbbf55128	-0.007486481
148	0x3dc2a317	0.09503763
149	0xbd1619e5	-0.03664579
150	0xbddad8d2	-0.106858864
151	0xbcf8923c	-0.030343167
152	0x3e1be14e	0.15222666
153	0x3d39d55d	0.045369495
154	0xbe008362	-0.12550119
155	0xbde5041b	-0.11182424
156	0x3db91ffb	0.09039303
157	0x3df05659	0.117352195
158	0x3dc18dee	0.09450899
159	0x3ce5cee9	0.028052764
160	0xbd1cd950	-0.038293183
161	0x3db039b2	0.086047545
162	0xbe58ffe3	-0.21191363
163	0x3d052900	0.032509804
164	0xbdb9bb5d	-0.0906894
165	0xbd244c76	-0.04011198
166	0x3e0f0f89	0.1397077
167	0xbc5237c7	-0.012830681
168	0xbe7c1bfb	-0.24620049
169	0xbe905035	-0.28186193
170	0xbe21bdc9	-0.15795054
171	0xbe78e608	-0.243065
172	0x3e583b0d	0.21116276
173	0xbd9e733b	-0.07736822
174	0xbe017a5c	-0.12644333
175	0xbdd9ade5	-0.10628871
176	0x3cd0532b	0.025430283
177	0x3d16a41b	0.036777597
178	0xbbb3d064	-0.0054874886
179	0xbe31cc84	-0.17363173
180	0x3e68648e	0.22694609
181	0xbe3f53ea	-0.18684354
182	0x3d92ad71	0.071619876
183	0x3e0e55ed	0.13899966
184	0x3e23f940	0.1601305
185	0xbe4ffb34	-0.2031067
186	0x3d080d71	0.033215944
187	0x3d982e63	0.074307226
188	0xbc8a9f1f	-0.016921578
189	0xbe00bc57	-0.12571846
190	0x3ce62ec8	0.028098479
191	0xbbf6439a	-0.007515383
192	0x80005976	-3.2093e-41
193	0x80004279	-2.3846e-41
194	0x80001039	-5.82e-42
195	0x00001168	6.244e-42
196	0x00003005	1.7226e-41
197	0x80008da0	-5.0805e-41
198	0x80000143	-4.53e-43
199	0x800069f1	-3.8005e-41
200	0x80002c5c	-1.5913e-41
201	0x80002bfe	-1.5781e-41
202	0x80001da2	-1.063e-41
203	0x8000206b	-1.163e-41
204	0x21297e88	5.742689e-19
205	0x000027dc	1.4299e-41
206	0x80004a25	-2.6598e-41
207	0x00001aaa	9.565e-42
208	0x0000be2d	6.8222e-41
209	0x80008fbe	-5.1565e-41
210	0x80002e7e	-1.6678e-41
211	0x00001f35	1.1195e-41
212	0x0000575d	3.134e-41
213	0x8000430a	-2.4049e-41
214	0x8000258a	-1.3466e-41
215	0x80003a5f	-2.094e-41
216	0x800011be	-6.365e-42
217	0x0000b70f	6.5669e-41
218	0x80000fb5	-5.635e-42
219	0x8000273a	-1.4072e-41
220	0xa6ca0f88	-1.4020775e-15
221	0x96819379	-2.0934142e-25
222	0x00003da0	2.2107e-41
223	0x8000d4a7	-7.6285e-41
224	0x2533ee25	1.5606462e-16
225	0x91d9de39	-3.4373519e-28
226	0x00000633	2.224e-42
227	0x06958f62	5.625825e-35
228	0x000005c4	2.068e-42
229	0x1622c9fa	1.3149988e-25
230	0x80002276	-1.2362e-41
231	0x800025f0	-1.361e-41
232	0x00005c8a	3.3197e-41
233	0xa26c4d74	-3.2024967e-18
234	0x00005251	2.953e-41
235	0x80002532	-1.3343e-41
236	0x00005299	2.963e-41
237	0x80004e9b	-2.8198e-41
238	0x80001d5c	-1.0532e-41
239	0x80002206	-1.2205e-41
240	0x243784b6	3.979421e-17
241	0x00002854	1.4467e-41
242	0x80009227	-5.243e-41
243	0x000026a9	1.3869e-41
244	0x80003040	-1.7309e-41
245	0x8000090f	-3.25e-42
246	0x00003b76	2.133e-41
247	0x19600ca5	1.1583082e-23
248	0x00002287	1.2386e-41
249	0x00006915	3.7696e-41
250	0x8000c69c	-7.1248e-41
251	0x80004aa5	-2.6777e-41
252	0x80001f67	-1.1265e-41
253	0x0000a1ff	5.8113e-41
254	0x80001499	-7.389e-42
255	0x000013b9	7.075e-42

encoder_c.convs.2.bias f4 [64]
0	0xbb9b4a3f	-0.0047390754
1	0x3a33b1ff	0.00068548316
2	0x3c224d1f	0.009906082
3	0xbb8a7508	-0.004225377
4	0x3b9325f4	0.0044906083
5	0x3b66c56e	0.0035212892
6	0xbc9d12a0	-0.01917392
7	0xbbdaf03e	-0.006681471
8	0xbbc8937b	-0.0061210967
9	0x3b92b070	0.0044765994
10	0xba1c2920	-0.0005957056
11	0x3c2cae7e	0.010539649
12	0x3be43c33	0.006965184
13	0xbba70907	-0.0050975117
14	0x3b8db9d8	0.004325133
15	0x39094c95	0.00013093867
16	0x3be83c6c	0.007087281
17	0xbc669a54	-0.014074881
18	0xbbb32108	-0.005466584
19	0x3bce7a6b	0.0063012145
20	0x3c467605	0.012113099
21	0xba36cffa	-0.000697374
22	0x3bb8a50b	0.005634909
23	0x3bb6ac55	0.005574743
24	0xbba8dbd6	-0.0051531596
25	0x3cdae197	0.026718898
26	0x3c11b15a	0.008892382
27	0x3bb5c6b8	0.0055473708
28	0x3c51150c	0.012761366
29	0xbb78a226	-0.0037938445
30	0xbc06645f	-0.008202641
31	0xbc41b964	-0.011823986
32	0xbcaadc3a	-0.020856965
33	0xbc6763db	-0.0141229285
34	0x3bccf301	0.0062545543
35	0xbc555e08	-0.013022907
36	0xbb957359	-0.0045608697
37	0x3b8bc3f6	0.0042653037
38	0x3b60a669	0.0034278876
39	0xbd0bced9	-0.034132812
40	0x3b120813	0.0022282645
41	0x3bafa968	0.005360771
42	0x3c0c014c	0.008545231
43	0x3c026f9a	0.007961178
44	0xbc892024	-0.016738959
45	0x3b24939e	0.00251124
46	0x39eac41c	0.0004477807
47	0x3b8ed46c	0.0043588188
48	0x3c5e5341	0.013569654
49	0xbc34ae13	-0.011027831
50	0xbc8aabec	-0.016927682
51	0x3c30398c	0.010755908
52	0xbbc6a921	-0.006062642
53	0xbc723d4e	-0.014785124
54	0xbba06c60	-0.004895732
55	0xbbcb9017	-0.006212245
56	0xbba15cea	-0.0049244063
57	0x3c293eee	0.010329945
58	0x38570ef8	5.1273935e-05
59	0x3bd48f24	0.0064867903
60	0xbc672e91	-0.014110223
61	0x3c64a004	0.013954166
62	0xbc544180	-0.01295507
63	0xbca41417	-0.02002911

encoder_b.convs.0.weight f4 [116, 64]
0	0x3cff4236	0.031159502
1	0xbd5f617e	-0.054536335
2	0x3d78785b	0.060661655
3	0xbda2fc50	-0.07958281
4	0x3d63248f	0.055454787
5	0x3dc51195	0.09622494
6	0xbdc7e076	-0.097596094
7	0x3ceaaccf	0.028646855
8	0xbbb8578d	-0.0056256712
9	0x3dea7db0	0.11449754
10	0xbb09009c	-0.0020904904
11	0xbdd59da0	-0.10430455
12	0x3dca5330	0.09879148
13	0x35c4b173	1.4654782e-06
14	0xbd96e96b	-0.0736874
15	0xbd44d246	-0.048052095
16	0xbc824479	-0.015901791
17	0x3d1f3d05	0.038876552
18	0x3c8451cd	0.016152287
19	0xb8a77d2b	-7.986495e-05
20	0xbb8a22e9	-0.0042155874
21	0x3d65544f	0.055988606
22	0xba97ec11	-0.0011590739
23	0xbcbe1121	-0.023201527
24	0x3dabb95f	0.08384966
25	0xbd301b47	-0.042994764
26	0x3d7504dd	0.05981909
27	0xbd8f704e	-0.07003842
28	0x3df5e299	0.12006111
29	0xbc344fd0	-0.011005357
30	0xb824b952	-3.927324e-05
31	0x3c8b1445	0.016977439
32	0x3dd95a57	0.10612934
33	0x3d8ba404	0.06818393
34	0xbd7628fe	-0.060097687
35	0x3d08f296	0.033434473
36	0x3d692218	0.05691728
37	0x3d7982a6	0.06091561
38	0x3d968d2a	0.07351144
39	0x3d6f4a5f	0.058420535
40	0xbdb44d2c	-0.08803782
41	0xb6e1b5d8	-6.726692e-06
42	0xbcac803b	-0.021057239
43	0x3c519cd8	0.012793742
44	0xbdd3ab8f	-0.103354566
45	0xba739c41	-0.0009292998
46	0x3d10dcff	0.03536701
47	0x394d54d7	0.00019581929
48	0xbc526784	-0.012842063
49	0x3b34c29b	0.0027581814
50	0xbb074554	-0.0020640688
51	0x3d9e88cb	0.07740935
52	0xbc6ac418	-0.014328979
53	0x3c9f85b6	0.019472938
54	0xbde1bdc7	-0.11022525
55	0xbb00d22b	-0.001965652
56	0x3dcce67c	0.10004899
57	0x3d1c6829	0.038185272
58	0x3d973e0d	0.07384882
59	0xbcca1a35	-0.0246707
60	0x3dee2d7d	0.1162977
61	0x30293ba2	6.1566585e-10
62	0xbd8e832d	-0.069586135
63	0x3b8f0c0c	0.00436545
64	0xbc5c09b6	-0.01343005
65	0xbd740f58	-0.059584945
66	0x3dcf34d2	0.101174966
67	0x3cf9aa27	0.030476643
68	0xbca2e13f	-0.019882796
69	0xbd65a7cb	-0.056068223
70	0x3df0a131	0.11749495
71	0x3dfdacd3	0.12386479
72	0xbbc3ff13	-0.005981335
73	0xbccc78a8	-0.024959877
74	0xbb64f1ad	-0.003493409
75	0xbc2ebb0c	-0.010664713
76	0x3c615192	0.013752358
77	0xb7a37de9	-1.9489746e-05
78	0x3c48fe8e	0.012267722
79	0x3c983f0d	0.018584752
80	0xbca7422d	-0.020417297
81	0x3da71846	0.08158927
82	0x3d9bb2b5	0.07602445
83	0xbaa82943	-0.001282968
84	0x3b2fcff3	0.0026826828
85	0x3da7b3ea	0.08188613
86	0xbaca67af	-0.0015442277
87	0xbdaa4d54	-0.083155304
88	0xbd2ed7de	-0.042686336
89	0x3c2b9985	0.010473614
90	0xbd214677	-0.03937384
91	0xbdb11884	-0.08647254
92	0x3d6a6401	0.057224277
93	0xbcec2330	-0.028825372
94	0xb99266f8	-0.00027924008
95	0x3bed8335	0.007248307
96	0x3d9cddb5	0.07659475
97	0x3c97e711	0.018542798
98	0x3d85619a	0.06512757
99	0x3ca64974	0.020298697
100	0xbdf77f4f	-0.12084829
101	0xbdea5d9b	-0.11443635
102	0xbd3376d4	-0.043814495
103	0x3c946bbf	0.018117784
104	0xbdb5c0d2	-0.08874668
105	0xb76bd1f1	-1.4055972e-05
106	0xbde764b5	-0.11298505
107	0x3b7cfb59	0.0038601963
108	0xbdac2a3a	-0.084064916
109	0xba93b938	-0.001127041
110	0x3c1ac8a3	0.00944725
111	0xb9dfb28e	-0.00042666908
112	0xbd73322b	-0.059374016
113	0x3b411d01	0.002946675
114	0xb9815df9	-0.00024674812
115	0x3d5abc1e	0.05340206
116	0x38b53fa0	8.642604e-05
117	0x3d1a73fb	0.037708264
118	0xba561a4d	-0.0008167371
119	0xbb5d614d	-0.003377992
120	0x3dc8b602	0.0980034
121	0x3c2488fb	0.010042424
122	0x3c64c300	0.013962507
123	0x3d039104	0.03212072
124	0x3da3090b	0.07960709
125	0xbb39fe14	-0.0028380202
126	0xbd8ae75a	-0.06782408
127	0x3c0ca183	0.008583429
128	0x3d53ae86	0.05168011
129	0x3ddfb84c	0.10923824
130	0x3d017760	0.031607985
131	0x3c8faee0	0.017539442
132	0x3dcdcf37	0.10049289
133	0xbd97adf0	-0.07406223
134	0xbc821547	-0.015879286
135	0xbdfa9cc2	-0.122369304
136	0xbbb7a4cb	-0.0056043616
137	0xbcaa0786	-0.02075554
138	0xbb04059b	-0.0020144943
139	0xbd3a7b2d	-0.045527626
140	0x3e07228e	0.13196775
141	0x3694d315	4.435317e-06
142	0x3ca8ad9a	0.020590592
143	0x3d720faf	0.05909699
144	0xbb66ebf3	-0.0035235852
145	0x3db52cad	0.08846412
146	0x3d8d0405	0.06885532
147	0xb7f63ca8	-2.935373e-05
148	0xb994d202	-0.00028385228
149	0xbdd27fa2	-0.1027825
150	0xbad6fd4e	-0.0016402395
151	0x3d09b159	0.033616398
152	0x3d304e70	0.043043554
153	0x3d82b7bc	0.06382701
154	0x3de5babb	0.11217257
155	0xbd4d080f	-0.050056513
156	0x3ae82049	0.0017709817
157	0x3cb35201	0.021889688
158	0xb84768e3	-4.754298e-05
159	0x3a85e0d7	0.0010214102
160	0xbc84f570	-0.016230315
161	0x3a6ff52d	0.00091536605
162	0xbd355d15	-0.044278223
163	0x3d501250	0.050798714
164	0x3d412e82	0.047163494
165	0x3dea8c4d	0.114525415
166	0xbde99957	-0.114062004
167	0x3d1fcb49	0.039012227
168	0xbd48253f	-0.048863646
169	0x33af397b	8.159528e-08
170	0xbc86a644	-0.016436704
171	0x3ded07d5	0.115737595
172	0xbc743112	-0.014904277
173	0xbaf97334	-0.0019031526
174	0xbc3020e7	-0.010750032
175	0xbb85feff	-0.004089236
176	0x3dfa86ae	0.12232719
177	0x3c447619	0.011991047
178	0xb9dd9116	-0.00042260502
179	0xbca4ec87	-0.020132316
180	0xbbcd5050	-0.0062656775
181	0x3d0d331b	0.034472566
182	0x3e08060e	0.1328356
183	0xba7d08a1	-0.000965247
184	0xbd48cdcb	-0.049024384
185	0x3c96c0b8	0.018402442
186	0x3d573d08	0.05254844
187	0x3b13058f	0.0022433733
188	0xbd4ce77d	-0.050025452
189	0xb28e5650	-1.6570226e-08
190	0x3d7c59a0	0.06160891
191	0xbc1465cc	-0.009057473
192	0xbd4ea020	-0.050445676
193	0x3d83fe38	0.06444973
194	0xbc3f017d	-0.01165807
195	0x3d6db52f	0.05803412
196	0x3c7c92be	0.015415845
197	0x3bf4604d	0.007457769
198	0x3d7998a6	0.060936593
199	0x3d765e52	0.060148545
200	0xbbbf6e79	-0.005842027
201	0x3dca8282	0.09888174
202	0xbb5c8862	-0.0033650626
203	0xbd1eab11	-0.03873736
204	0x3dab586d	0.08366475
205	0xb9b241e9	-0.00033999913
206	0xbd3ed3a4	-0.046588555
207	0xbc90e3b0	-0.017686695
208	0xbce28fde	-0.027656492
209	0xbd4cd293	-0.050005507
210	0xbd0991aa	-0.03358618
211	0xb7c7f6e9	-2.3837625e-05
212	0xb9aa3487	-0.00032464063
213	0x3db7f91c	0.08983061
214	0x3b3d2073	0.0028858453
215	0xbc83aab8	-0.016072616
216	0xbd51d3aa	-0.05122725
217	0xbd28ad2f	-0.041180786
218	0x3d65fe40	0.056150675
219	0x3c960fe6	0.018318128
220	0x3c8d3907	0.017239107
221	0x3df9042c	0.12158999
222	0xb83d6d53	-4.5162928e-05
223	0x3c13279f	0.008981614
224	0x3db92b77	0.090414934
225	0xbc3b3240	-0.011425555
226	0xbde61b2d	-0.11235652
227	0xbd44fb8e	-0.048091464
228	0x3d5dfc45	0.05419566
229	0xbd1e5aff	-0.038661
230	0x3ddf4d56	0.109034225
231	0x3cf59d0a	0.029982109
232	0xbdbf2f47	-0.09335189
233	0xb9e154c1	-0.0004297849
234	0x3e08aa4b	0.13346212
235	0x3dc80207	0.09766012
236	0x3d9cad31	0.07650221
237	0xbad5c756	-0.0016310017
238	0x3cacafcd	0.021079922
239	0xb90d081b	-0.00013449827
240	0xbd3930f9	-0.04521272
241	0x3c15424f	0.0091100475
242	0xba76fa2b	-0.0009421433
243	0x3d4501ec	0.048097536
244	0xba1f7959	-0.0006083451
245	0x3c53e6e2	0.012933465
246	0xbdae0da8	-0.084986985
247	0xbb0d106c	-0.002152468
248	0x3d64c343	0.05585028
249	0xbc819657	-0.015818758
250	0x3ddc4e61	0.10757137
251	0x3be789e8	0.0070660003
252	0xbdc3a34d	-0.095526315
253	0xb41a7e64	-1.4388348e-07
254	0x3bfbed6c	0.007688215
255	0x3cd142f8	0.025544629

encoder_b.convs.0.bias f4 [64]
0	0x3ba5b92b	0.005057474
1	0x3c55afdb	0.0130424155
2	0x3c1d7952	0.009611445
3	0x3c94c669	0.018161016
4	0x3b9968b8	0.004681673
5	0x3c955883	0.018230682
6	0x3c3fcd5e	0.011706678
7	0x3cceb34a	0.025231976
8	0x3d0a7346	0.03380134
9	0x3ca94fe3	0.020667976
10	0x3c951cad	0.01820215
11	0x3c21f75d	0.009885636
12	0xbbe951a4	-0.007120328
13	0xbc5eb6bf	-0.013593375
14	0x3cd9d575	0.026591042
15	0xbc8d6e1a	-0.017264415
16	0x3c891d84	0.016737707
17	0x3cccf47b	0.025018921
18	0x3d01c7f8	0.031684846
19	0xbcf76d60	-0.030203521
20	0x3b117e85	0.0022200656
21	0xbcb1de68	-0.021712497
22	0x3cec35e8	0.028834298
23	0x3b94cf5a	0.00454132
24	0x3d04e2d1	0.03244287
25	0x3c44f487	0.0120211905
26	0xbb9c9daf	-0.0047795395
27	0x3d0c9782	0.034324177
28	0x3c449ae8	0.011999823
29	0xbc7cd686	-0.015432006
30	0xbd3a028a	-0.045412578
31	0x3c6fa859	0.01462754
32	0x3ce3ab7f	0.027791737
33	0x3ba36c23	0.004987256
34	0x3c6b0f2d	0.01434688
35	0xbbe7d327	-0.007074732
36	0x3ca80139	0.020508396
37	0x3c8e20d8	0.017349645
38	0xbbb89fb6	-0.0056342734
39	0x3aa6ca5f	0.0012725106
40	0x3c937175	0.017998436
41	0xbc09ca82	-0.008410098
42	0x39aaf8b7	0.00032610234
43	0x3c120f87	0.008914835
44	0x3cc588f1	0.02411315
45	0x3c2d060d	0.010560525
46	0x3cc179fb	0.023617735
47	0xbbad2faf	-0.0052852253
48	0x3b4c5e49	0.0031184128
49	0xbb798541	-0.003807381
50	0x39903267	0.00027503373
51	0xbaf67d99	-0.0018805742
52	0x3c3d0f6a	0.0115393195
53	0x3c96be32	0.018401239
54	0xbc18959d	-0.009313014
55	0x3c9b76da	0.018977571
56	0x3c0723ef	0.008248313
57	0x3c6e820f	0.014557376
58	0x3ca12dca	0.019675154
59	0x3c04a622	0.00809625
60	0x3c51895f	0.0127890995
61	0xbc6a0d65	-0.01428542
62	0xbbf5582f	-0.007487319
63	0x3c6e5cef	0.014548524

encoder_b.convs.1.weight f4 [64, 64]
0	0xbd58c090	-0.052918017
1	0xbd8ca4b4	-0.06867352
2	0x3d6a6637	0.057226386
3	0x36b37aee	5.3489266e-06
4	0xbd15f0ef	-0.036606725
5	0xbaa02b95	-0.001222002
6	0xbcf87966	-0.030331325
7	0xbd2273de	-0.03966128
8	0xbd7beb56	-0.06150373
9	0x3c03fc04	0.008055691
10	0x3d544430	0.05182284
11	0x3b344911	0.0027509371
12	0x3c72de74	0.014823545
13	0x3c92c736	0.017917257
14	0x3bbad12c	0.0057012048
15	0xbd8fcd7c	-0.07021615
16	0xbc14c120	-0.009079248
17	0xbb254abd	-0.002522155
18	0xbe33ae89	-0.17547049
19	0x3bc4f123	0.006010191
20	0xba88db85	-0.0010441398
21	0xbbb8b1fe	-0.0056364527
22	0xb52255b9	-6.0474446e-07
23	0x3d3cd70e	0.04610353
24	0xbd6eab07	-0.058268573
25	0xbd936e25	-0.07198743
26	0x3d566a37	0.052347388
27	0x3d4a4cbc	0.049389586
28	0x3a51d95b	0.0008005106
29	0x3d843b7e	0.0645666
30	0x3ce77eb1	0.028258653
31	0x3c8c1cb8	0.017103538
32	0xbdd4f8c0	-0.10399008
33	0xbd440eed	-0.047865797
34	0xbd3ef0fe	-0.046616547
35	0x3d9bc26d	0.07605443
36	0x3c2059ef	0.009787067
37	0xbdebcb11	-0.11513341
38	0x3d0fb4a3	0.035084378
39	0xb8d2046c	-0.00010014404
40	0xbcc499b4	-0.023999073
41	0xbbe375db	-0.0069415397
42	0xbe00fde7	-0.12596856
43	0x3bee4455	0.0072713294
44	0xbd7c9fa8	-0.061675698
45	0x3da54050	0.08068907
46	0x3cc6ae04	0.024252899
47	0x3d55a12e	0.052155666
48	0xbaf24f23	-0.0018486719
49	0x3789c996	1.6425543e-05
50	0x3dd71c07	0.10503393
51	0xbdb95041	-0.0904851
52	0xb73f11b4	-1.1388609e-05
53	0x3cd7231c	0.026261859
54	0xbd462598	-0.048375696
55	0xbd4d5dc4	-0.05013825
56	0xb991271e	-0.000276857
57	0x3c4895e7	0.012242771
58	0xbdaab125	-0.08334569
59	0x3d74da00	0.059778214
60	0x3cc0e289	0.02354552
61	0xbda18bbb	-0.078879796
62	0x2d0ef8ef	8.12704e-12
63	0x3c5ea416	0.013588926
64	0xbe1ff608	-0.15621197
65	0xbdf9f63a	-0.12205167
66	0x3bf03105	0.0073300623
67	0xb90488ed	-0.0001263951
68	0x3dcc98f2	0.099901095
69	0xbb0f9bb6	-0.002191288
70	0x3deff150	0.117159486
71	0x3e1b1ac5	0.1514693
72	0x3ddfc149	0.10925538
73	0x3e0960fe	0.13415906
74	0xbd443ef4	-0.0479116
75	0x2ab68232	3.2420036e-13
76	0xbb91c48f	-0.0044484804
77	0x3e0cc9df	0.13748883
78	0xbb5e6a98	-0.0033938047
79	0x3e2eaa32	0.17057112
80	0xbe113731	-0.1418121
81	0xba5880cb	-0.0008258938
82	0x3df42a6e	0.11922155
83	0x3c780a31	0.015139149
84	0xb77969ed	-1.4866219e-05
85	0xbb60e999	-0.0034318923
86	0xbbe861ea	-0.0070917504
87	0xbaf4966a	-0.001866055
88	0xbd6aa67e	-0.057287686
89	0x3df3a7b0	0.11897218
90	0x3e2c1611	0.16805293
91	0x3e3511b3	0.17682533
92	0xbdb2da5a	-0.087330535
93	0x3d704464	0.058658972
94	0xbceef14f	-0.0291678
95	0x3e1be5a9	0.15224327
96	0x3d8c7969	0.06859095
97	0x3e34b885	0.17648514
98	0x3de4291f	0.11140656
99	0x3dc120e8	0.094301045
100	0xbcc6504b	-0.024208209
101	0x3d8d0e0c	0.06887445
102	0x3d8503c1	0.064948566
103	0x373d7bd0	1.1294105e-05
104	0x3d7f6a2f	0.062357124
105	0x3bd95cf7	0.0066333967
106	0xbcf7f242	-0.030266885
107	0x38b519f5	8.6355874e-05
108	0x3e4c55b7	0.19954573
109	0xbcb1207e	-0.021621939
110	0xbca09841	-0.01960385
111	0x3d4b67da	0.049659587
112	0x3d0fa55f	0.03506982
113	0xb896f296	-7.1977425e-05
114	0x3c3a979d	0.0113886865
115	0x3e0289aa	0.12747827
116	0x1d8a527c	3.6613583e-21
117	0x3e180c66	0.1484848
118	0x3e565584	0.20931059
119	0x3da363eb	0.07978042
120	0x3c432a33	0.011911917
121	0xbdd4b3e8	-0.10385877
122	0x3e40c330	0.18824458
123	0xbc2bd6f1	-0.010488258
124	0xbcaa3894	-0.020778932
125	0xbde7d059	-0.11319036
126	0xb27a424a	-1.4566988e-08
127	0xba55da70	-0.0008157855
128	0xbd22fa9e	-0.03978979
129	0xbe160ce6	-0.14653358
130	0xbb1da889	-0.0024056754
131	0xbacf9047	-0.0015835845
132	0x3e1dab81	0.15397455
133	0xbb0f329f	-0.002185024
134	0x3df69b9f	0.12041401
135	0xbd8f74e9	-0.07004721
136	0x3d2c9bdd	0.04214083
137	0x3d81c1e5	0.063358106
138	0xbb9cedad	-0.0047890753
139	0xb95466a3	-0.0002025613
140	0xbabe74ae	-0.0014530623
141	0x3d968f42	0.07351543
142	0xb819f357	-3.670467e-05
143	0x3d6e5797	0.058189
144	0x3c94e2f4	0.018174626
145	0xb9b42d58	-0.0003436606
146	0xb9a2d8c0	-0.0003106054
147	0xbc39c516	-0.011338493
148	0xb732c090	-1.0654461e-05
149	0xbb76471c	-0.0037579006
150	0x1d791bc1	3.2969224e-21
151	0x3c3ad629	0.011403599
152	0x3e223c7f	0.1584339
153	0xbda49e86	-0.080380484
154	0xbe3e66d7	-0.18593918
155	0xbdb9bbfd	-0.09069059
156	0xbcdd1263	-0.026986307
157	0xbe0f9fed	-0.1402585
158	0xbc30fc9f	-0.010802417
159	0x3d07224b	0.03299169
160	0xbc929ef5	-0.017898062
161	0x3dbd388c	0.09239301
162	0xbd94d92b	-0.07267984
163	0x3c30a415	0.010781308
164	0x3b9e33f6	0.0048279716
165	0x3da097d2	0.078414574
166	0x3cf01b52	0.029309902
167	0xb87d4ec2	-6.039325e-05
168	0xbcede397	-0.029039187
169	0xbbb9683a	-0.0056581767
170	0x3da7f86c	0.082016796
171	0xb5a60b6d	-1.2371289e-06
172	0xbe0f2580	-0.13979149
173	0xbd0d6a8a	-0.03452543
174	0xbcbf324b	-0.023339411
175	0x3e0bb2b9	0.13642396
176	0x3d2ffbe3	0.042964827
177	0x3c0c3953	0.008558589
178	0x3e1de056	0.15417609
179	0x3e307a10	0.17234063
180	0x3625ef38	2.472616e-06
181	0xbc8ccd16	-0.017187636
182	0x3d7ef45a	0.06224475
183	0x3ca9abf9	0.020711886
184	0xba375cd8	-0.0006994731
185	0x3da17e10	0.07885373
186	0xbe2f4b5e	-0.17118594
187	0x3e1271c0	0.14301205
188	0x3d4dd8df	0.050255653
189	0xbd7647f1	-0.060127202
190	0xbb81f0ae	-0.003965459
191	0x3b9e93c8	0.0048393942
192	0x3c905550	0.017618805
193	0xbcb8cf46	-0.022559773
194	0x3d033def	0.032041486
195	0x3aca2796	0.0015423174
196	0xbd20d7f8	-0.039268464
197	0xbb511dfc	-0.0031908741
198	0xbb9e8f8b	-0.004838889
199	0xbbf2aa38	-0.0074055456
200	0xbc25728a	-0.010098109
201	0xbd11a58a	-0.03555826
202	0x3cb80475	0.022463063
203	0x38872056	6.443325e-05
204	0x3aac4291	0.0013142397
205	0x3cc9cb2a	0.024633009
206	0xb5de3ac2	-1.655739e-06
207	0xbd12b95b	-0.0358213
208	0x3d8ca1a2	0.068667665
209	0xbbfbdef2	-0.0076864893
210	0xbd14ff7c	-0.03637646
211	0xbbb3caa0	-0.0054868013
212	0xb6cd1193	-6.111522e-06
213	0x3a8c0e1d	0.0010685358
214	0x3ab62ca3	0.0013898801
215	0x3c116890	0.008875027
216	0x3ac4eeb8	0.0015024757
217	0xbc1265de	-0.00893542
218	0xbba493f3	-0.0050225197
219	0x3cc685d2	0.024233732
220	0x3b846bca	0.00404117
221	0xbc332d97	-0.010936162
222	0x3ced5319	0.028970288
223	0xbc501c17	-0.01270201
224	0xbd80284c	-0.06257686
225	0xbc823bba	-0.01589762
226	0xbd09dd19	-0.03365812
227	0x3d801385	0.06253723
228	0xbb60e651	-0.0034316967
229	0x3cd50760	0.026004493
230	0x3c0c338b	0.008557211
231	0xb625a0ab	-2.4680437e-06
232	0xbc341900	-0.010992289
233	0xbc6f8326	-0.014618671
234	0xbd224cde	-0.039624088
235	0x3803ab3e	3.1392316e-05
236	0xbc3a192b	-0.01135854
237	0x3c80904c	0.015693806
238	0xbd0cb6d2	-0.03435404
239	0x3d4af54e	0.049550347
240	0x3d61e01b	0.055145364
241	0xbbb1cc40	-0.00542596
242	0x3c5bd179	0.013416641
243	0x3dc63bf7	0.09679406
244	0x1b0d7f0a	1.1704295e-22
245	0xbc292df8	-0.010325901
246	0x39084510	0.00012995698
247	0xbc6a74a4	-0.014310036
248	0xbb6b388b	-0.0035891857
249	0x3b0040bc	0.0019569835
250	0x3d8b9e75	0.06817333
251	0x3d247bc8	0.04015711
252	0x3c5344c5	0.012894814
253	0x3d122cd4	0.035687283
254	0x3b0ae1ad	0.0021191642
255	0x3c4a768b	0.012357364

encoder_b.convs.1.bias f4 [64]
0	0xbc46cfc3	-0.012134495
1	0x3ce715c3	0.028208619
2	0x3d2d4c15	0.042308886
3	0xbbfdadc4	-0.0077416617
4	0x3b25270c	0.0025200276
5	0x3c685bce	0.014182044
6	0xbbc4c08f	-0.0060044
7	0xbcd2a1aa	-0.025711853
8	0x3c954939	0.018223392
9	0x3c64b811	0.0139599005
10	0x3d563300	0.05229473
11	0xbb71f4f2	-0.003691968
12	0xbbc92a72	-0.006139093
13	0x3cf9b6aa	0.030482609
14	0xbb53e0f6	-0.0032330132
15	0xbc2c06dc	-0.010499682
16	0x3c811fe2	0.015762273
17	0x3bc7ecec	0.0061012413
18	0xbb863dfb	-0.004096744
19	0x3cc4348b	0.023950836
20	0x3afd7b9b	0.0019339205
21	0x3cb2ff55	0.021850267
22	0xbb532f4e	-0.003222424
23	0x3d203ec7	0.03912237
24	0x3cf41403	0.029794699
25	0x3c349613	0.011022109
26	0x3a3cd207	0.00072029274
27	0x3d089b41	0.033351187
28	0xbc913f2c	-0.017730318
29	0x3c9d3308	0.019189373
30	0x3c326fb0	0.010890886
31	0xbbb0334e	-0.0053772097
32	0x3b992aa9	0.004674275
33	0xbc319b91	-0.010840313
34	0x3c87f79c	0.016597562
35	0x3cefa147	0.029251708
36	0x3da50d72	0.08059205
37	0x3c895186	0.016762506
38	0xb90ca2af	-0.00013412045
39	0x3b176f43	0.0023107089
40	0x3b369f58	0.0027865972
41	0xbba77c1d	-0.005111231
42	0x3c8c046a	0.017091949
43	0xbcab1c9f	-0.020887671
44	0x3a96632a	0.0011473645
45	0x3cf7dd44	0.030256875
46	0xbbe18ece	-0.0068834787
47	0xba3b3344	-0.0007141123
48	0x3ced6e12	0.02898315
49	0xbcd55b93	-0.026044643
50	0x3cb07dda	0.021544386
51	0x3c985efb	0.018599978
52	0xbb107873	-0.002204445
53	0x3b1febf8	0.0024402123
54	0x3c4605b6	0.0120863225
55	0x3bf90a2f	0.007600091
56	0xbbb8c5c2	-0.005638809
57	0xbce58497	-0.028017325
58	0x3cc11d3c	0.02357351
59	0x3d0b290b	0.03397469
60	0x3c387e9d	0.011260656
61	0x3c9902f0	0.018678159
62	0xbc95b789	-0.018275993
63	0x3d2647b6	0.040595733

encoder_b.convs.2.weight f4 [64, 64]
0	0xbe09c754	-0.13454944
1	0x3e1b01c9	0.151374
2	0xbd0e417f	-0.03473043
3	0x3dda5a6c	0.10661778
4	0xbc893d64	-0.016752906
5	0xbe208471	-0.15675522
6	0xbdb0fb2a	-0.08641656
7	0x3e17ffbe	0.14843652
8	0xbe02cc16	-0.12773165
9	0xbe04c1f9	-0.1296462
10	0x3ddfea19	0.109333225
11	0x3d1b82f5	0.037966687
12	0x3c3f7095	0.0116845565
13	0x3d3776aa	0.0447909
14	0x3de5eceb	0.11226829
15	0x3e204227	0.15650235
16	0x3d9f78c5	0.07786707
17	0x3df4ba35	0.11949579
18	0xbe1b8e7c	-0.15191072
19	0xbdd3a03c	-0.10333297
20	0x3d2e9e9e	0.042631738
21	0x3dc9b406	0.0984879
22	0x3d2047f1	0.03913111
23	0x3a9091fc	0.0011029835
24	0x3da0f033	0.07858314
25	0xbe194443	-0.14967446
26	0xbdd605ab	-0.104503
27	0x3de50498	0.11182517
28	0x3e0fed49	0.14055361
29	0xbcfacd1a	-0.030615378
30	0xbde25c98	-0.11052817
31	0x3dee9ec5	0.11651377
32	0xbd91d556	-0.07120769
33	0xbd5a4854	-0.053291634
34	0x3da76a40	0.081745625
35	0x3da8ac9b	0.08236047
36	0xbcaa9626	-0.02082355
37	0xbdc850f0	-0.097810626
38	0xbcb0a469	-0.021562772
39	0xbe0e2a94	-0.1388343
40	0x3e1a8a79	0.15091886
41	0xbb7f87db	-0.0038990888
42	0x3c9f4144	0.0194403
43	0x3db0bd58	0.086298645
44	0xbdd18ecd	-0.10232315
45	0x3e00ddef	0.12584661
46	0x3dc46b80	0.095908165
47	0x3e236301	0.15955736
48	0xbdc73d39	-0.09728474
49	0xbd595431	-0.053058807
50	0xbe08610a	-0.13318267
51	0xbcf321ce	-0.029679205
52	0xbd76041f	-0.060062524
53	0xbd0105ff	-0.03149986
54	0x3e0b420f	0.13599418
55	0x3d9af5d2	0.07566418
56	0xbdca8c4c	-0.09890041
57	0x3cf9fd42	0.03051627
58	0xbdf2c351	-0.1185366
59	0xbd5e9908	-0.05434516
60	0xbdf525e8	-0.11970121
61	0xbd8c4f84	-0.06851104
62	0xbd1a6cd8	-0.037701458
63	0xbd95bc4b	-0.07311305
64	0xbc8462bf	-0.016160367
65	0x3cccbf0c	0.024993442
66	0xbc6b5419	-0.014363312
67	0xbccb3cd6	-0.024809282
68	0x3cc0bb6f	0.023526875
69	0x3d7eccec	0.062207147
70	0x3d889501	0.06669045
71	0xbcf90f93	-0.030402934
72	0xbdefd139	-0.11709828
73	0x3d354ed4	0.04426463
74	0xbd819394	-0.063269764
75	0x3d469f14	0.048491552
76	0x3c5302e4	0.012879107
77	0xbd7d99d7	-0.06191429
78	0x3d7bdb0f	0.061488207
79	0xbd0b0a68	-0.03394547
80	0xbdd4b4e6	-0.10386066
81	0x3d56412b	0.052308243
82	0xbde90343	-0.11377575
83	0xbd9d4acd	-0.07680283
84	0xbd45ed0f	-0.04832178
85	0x3e291f73	0.16515903
86	0xbd73ae6c	-0.059492514
87	0x3d494d3f	0.049145933
88	0x3da2d5ac	0.07950911
89	0x3debdd1d	0.115167834
90	0x3db6314f	0.088961236
91	0xbdbc17d5	-0.09184233
92	0x3c4b318f	0.012401952
93	0xbbbc2fc2	-0.005742998
94	0x3d906745	0.07050947
95	0x3d93104d	0.071808435
96	0x3d7acfa9	0.061233196
97	0xbb42216c	-0.0029621972
98	0x3c22e3cd	0.009942007
99	0xbd8c1301	-0.06839562
100	0xbde0af60	-0.1097095
101	0xbda972b7	-0.08273833
102	0xbd188f68	-0.037246138
103	0x3d3fbe9d	0.046812642
104	0xbde4473d	-0.111464
105	0x3d80a805	0.06282047
106	0x3d5555a3	0.052083623
107	0xbd137105	-0.035996456
108	0xbe1c1361	-0.15241767
109	0x3dd04000	0.10168457
110	0x3be0e600	0.0068633556
111	0x3c71f550	0.01476796
112	0xbb11cc98	-0.0022247192
113	0xbd8f36b9	-0.069928594
114	0xbdfc5139	-0.123201795
115	0xbd918807	-0.07106023
116	0xbde8a221	-0.11359049
117	0x3d8f2a0c	0.06990442
118	0xbcb10fe3	-0.02161402
119	0xbda2792c	-0.07933268
120	0x3d23415c	0.039857253
121	0xbdb3e987	-0.08784776
122	0x3d941183	0.072299026
123	0x3bd23588	0.006415073
124	0x3d9b204f	0.07574522
125	0x3df7fcf3	0.12108793
126	0xbd317471	-0.043323938
127	0xbca6ba72	-0.020352576
128	0x3d3be920	0.045876622
129	0xbd6de908	-0.058083564
130	0x3c63f447	0.013913221
131	0xbcad3b77	-0.02114652
132	0x3d7ea525	0.062169213
133	0x3c73f891	0.014890806
134	0xbc88189b	-0.016613295
135	0xbcece7b0	-0.028919071
136	0x3d993f0c	0.07482728
137	0x3d5c4bf7	0.053783383
138	0xbd53684d	-0.05161314
139	0x3b316659	0.002706906
140	0xbd19a371	-0.037509385
141	0xbc086988	-0.008325942
142	0x3ccd60c7	0.025070561
143	0xbd6d800e	-0.05798345
144	0x3d5bd030	0.05366534
145	0xba769d8d	-0.0009407632
146	0xbd106eae	-0.035261802
147	0x3cc3306b	0.023826798
148	0xbc4e5cee	-0.012595398
149	0xbd88646f	-0.06659781
150	0x3ba522b8	0.005039539
151	0x3d26cca8	0.04072252
152	0x3d21e92a	0.039529003
153	0xbd23e066	-0.040008925
154	0xbcf3ec88	-0.029775873
155	0xbd20484f	-0.03913146
156	0xbab4225b	-0.0013743149
157	0xbce022b7	-0.027360303
158	0x3d776d21	0.060406808
159	0xbc9bbd58	-0.019011185
160	0xbc889e83	-0.016677147
161	0x3cdb743f	0.026788829
162	0x3c52d2cb	0.01286764
163	0x3c410fdd	0.011783567
164	0x3c5c02e7	0.013428426
165	0x3d56edb9	0.052472804
166	0x3cbca984	0.02303005
167	0x3d96ba40	0.07359743
168	0xbd3e9b97	-0.0465351
169	0xbc2a5cfb	-0.010398145
170	0xbb845d72	-0.00403946
171	0xbd548fe4	-0.051895037
172	0x3d18c89a	0.037300684
173	0xbd493b96	-0.04912909
174	0x3d382ee9	0.044966612
175	0xbbcb4ee6	-0.006204474
176	0xbcbff29f	-0.02343112
177	0x3cc5112d	0.024056042
178	0xbca62166	-0.020279597
179	0x3d55f074	0.052231267
180	0x3c57ea3b	0.0131784035
181	0xbc4fe4c6	-0.012688821
182	0xbce01f11	-0.027358564
183	0x3d7174d7	0.058949318
184	0xbc9ba9ec	-0.019001924
185	0xbd82b9e2	-0.063831106
186	0x3c535049	0.012897559
187	0xbc2c7e4f	-0.010528161
188	0x3b787c10	0.0037915744
189	0xbc45863c	-0.01205593
190	0xbcdcabab	-0.026937326
191	0xbced67b9	-0.028980123
192	0x3a64f1c9	0.00087335386
193	0x3be9a9cb	0.0071308366
194	0x3ab1f125	0.0013575895
195	0xb5f9ec98	-1.8620804e-06
196	0x364f45bc	3.0885994e-06
197	0xb4726277	-2.2573828e-07
198	0x37d188dc	2.4978472e-05
199	0xbbcf9053	-0.0063343435
200	0x369703e2	4.5006027e-06
201	0xb608ab31	-2.0365226e-06
202	0xb62c06ae	-2.5633885e-06
203	0x3386887d	6.264688e-08
204	0x361aa30f	2.30427e-06
205	0xb48a2faa	-2.5739183e-07
206	0xb406cbc1	-1.2553848e-07
207	0x3b2ac2c8	0.002605604
208	0x3bd6de14	0.0065572355
209	0xb704b0db	-7.9089905e-06
210	0xb6ad1c1d	-5.1590746e-06
211	0xbb283bb8	-0.002567036
212	0xb5cd5a12	-1.5299904e-06
213	0x36877e45	4.0380132e-06
214	0x3abda8bf	0.0014469846
215	0x349e86ac	2.952778e-07
216	0x3b5f6360	0.0034086332
217	0x3683751f	3.917739e-06
218	0x39581b05	0.00020609431
219	0x3bb2e179	0.0054590073
220	0xb705c76a	-7.9738475e-06
221	0x3ac57aff	0.0015066563
222	0x3aa87b72	0.0012854172
223	0x358fb736	1.0707652e-06
224	0x3683a3c4	3.923169e-06
225	0x3b7199af	0.0036865284
226	0xb9e94870	-0.00044495193
227	0x38b7be4e	8.761567e-05
228	0xb627abb2	-2.498488e-06
229	0x3bf29547	0.007403049
230	0xb508fb1b	-5.1029355e-07
231	0xb405151a	-1.2394267e-07
232	0x38ac4730	8.214859e-05
233	0xbac8f33e	-0.0015331281
234	0xb8981866	-7.2524694e-05
235	0x36010d9c	1.923042e-06
236	0xba990a82	-0.0011676105
237	0x3428aa6f	1.5708223e-07
238	0x36307ae5	2.6297578e-06
239	0x38381ca2	4.3895685e-05
240	0xb5fc052c	-1.8776968e-06
241	0x33453a38	4.5920586e-08
242	0x384b0658	4.840488e-05
243	0x3923cbd5	0.00015620825
244	0x399e4a8a	0.00030191644
245	0xb60b9a63	-2.080248e-06
246	0xb5df54b3	-1.6639445e-06
247	0x3896e663	7.19547e-05
248	0x34ed7bb5	4.42347e-07
249	0xb9148849	-0.0001416515
250	0xb393ea62	-6.887855e-08
251	0xb51de3a2	-5.8818307e-07
252	0x3b242b15	0.0025050093
253	0x374d0958	1.2221128e-05
254	0x3c0c188a	0.008550772
255	0xb63622a0	-2.7140268e-06
