results/ABIDE_3x5fold_seed0/fold4_rep1_seed1004/ckpt_best_fold_4.pt (torch, 396075 bytes, 42 tensors)

encoder_c.convs.0.weight f4 [116, 64]
000000 ff 98 10 3e 94 47 fa bc db 07 a5 bd 10 82 fa 3d
       0.14120863 -0.03055171 -0.08058139 0.12231839
000010 36 f9 17 be e6 dc 30 be db 4a 05 be 44 ec 2e 3d
       -0.1484116 -0.17271766 -0.13016836 0.04270579
000020 31 30 de bc 53 a8 35 3d 28 ef 02 3d 00 b2 1d bd
       -0.027122589 0.04434998 0.03196636 -0.038499832
000030 5c c9 83 bd 03 dd c7 3c 0f c8 09 be 2f 9f b3 bc
       -0.06434891 0.024397379 -0.13455223 -0.02192649
000040 7a 3d 03 3d 36 f7 dc bc a8 b9 a9 bc 7f 68 04 3d
       0.03204105 -0.026973348 -0.02071841 0.032326218
000050 49 a5 4d 3d 38 ff 8d 3d 0b 12 34 be 37 5e dc 3d
       0.050206456 0.06933445 -0.17585008 0.107601576
000060 3a 84 1b 3d af 5a 1d 3e cd 95 20 be 09 51 15 be
       0.037967898 0.15366624 -0.15682144 -0.14581694
000070 f3 52 9d bd 77 bd 05 be 26 ef ab 3d d9 38 7b bd
       -0.07681837 -0.13060556 0.08395223 -0.06133351
000080 be 03 e0 bd 0d 78 fa bc f3 7f 73 3d 6b 8c df bc
       -0.10938214 -0.030574823 0.059448194 -0.027288636
000090 9f 02 48 3d a6 eb 2d be f6 98 bc bd 97 ab 0d 3e
       0.048830625 -0.16984424 -0.092088625 0.13834988
0000a0 de ab 1a be bc f7 b6 bd 95 b7 55 3d 15 9b 0a be
       -0.15104625 -0.0893397 0.05217703 -0.13535722
0000b0 54 9c f1 3d 67 10 a5 3d 0c d1 0a 3d 7c 03 e9 bd
       0.11797395 0.08059769 0.03389077 -0.11377618
0000c0 71 6a c1 bd f8 57 15 b9 52 94 72 3d 23 ef da 3d
       -0.0944413 -0.00014242518 0.05922348 0.10690143
0000d0 fb a2 d3 bb 55 3a 24 be 8e c0 74 3d de 76 a2 3c
       -0.006458638 -0.16037877 0.059753947 0.01983207
0000e0 80 22 0f 3e a9 dd 1a be 5c d9 1b 3e 60 14 54 3d
       0.13978004 -0.15123619 0.15219635 0.051777244
0000f0 e2 a1 77 3d 84 88 6d bd cf 67 c7 3d f0 54 fd 3b
       0.060457118 -0.05799152 0.09736597 0.0077310726
000100 63 55 ae bc f9 23 3f 3e 55 21 8a 3d 44 f0 85 bd
       -0.02128095 0.18666066 0.06744639 -0.06539968
000110 bd a8 0e be e0 c9 ef bd dc 40 b9 bd 39 9b b8 3b
       -0.13931556 -0.117084265 -0.09045574 0.0056337384
000120 42 12 75 bd 65 06 d4 3d 0c 19 09 3d 34 cc cf bd
       -0.059831865 0.10352782 0.033471152 -0.101463705
000130 f4 2d 0a 3c 8c 93 f9 39 6f 53 04 be 22 7c 39 3c
       0.008433808 0.00047602912 -0.12922452 0.0113210995
000140 d7 4f f7 bc ec f8 5a 3d e2 bb b3 3d d5 7a 5f bd
       -0.030189438 0.053460047 0.0877607 -0.0545605
000150 d0 a4 af bd fd fd 08 3e af 5e b8 bc 2b e0 a7 bd
       -0.08576357 0.13378139 -0.022506086 -0.081970535
000160 d2 a7 8d 3d bb cd ee bd 39 b3 01 3e e8 8e e2 bd
       0.06916775 -0.11660334 0.12666024 -0.110624135
000170 63 e1 31 3e f9 16 b1 bd 38 6a 22 be ec fa 15 3d
       0.17371134 -0.0864696 -0.15860832 0.03661625
000180 bb 4f f9 bc 9e f0 a3 bd 07 73 97 3d 26 05 16 bd
       -0.030433526 -0.080048785 0.073949866 -0.036626004
000190 7c cf 86 3d 06 de d4 bd 99 22 36 3d 26 0b 01 3e
       0.06582543 -0.1039391 0.04446659 0.12601909
0001a0 35 15 93 3d d1 d9 d5 3c 54 a9 11 3e 67 c8 65 3d
       0.07181779 0.02610484 0.1422475 0.05609932
0001b0 0e 17 0e 3d 28 47 af 3d c0 9b b6 3c 39 1b d8 3d
       0.034689955 0.08558494 0.022291064 0.10552067
0001c0 8e 7b 25 3e 49 10 41 b9 be 72 99 3c 6b 98 d9 3c
       0.16160414 -0.00018411981 0.018731471 0.026561936
0001d0 8d c2 1c be b4 42 22 3c ab 24 1d 3d a7 5b d8 bd
       -0.1530859 0.009903599 0.038365047 -0.10564356
0001e0 a4 24 2e 3e a5 88 cc 3a 6a a2 1d 3d 98 6a 32 3c
       0.17006165 0.0015604688 0.03848497 0.010889672
0001f0 4f ab c4 bd 27 6d f2 bd 18 ce 45 bd ec cb 1f bd
       -0.09602987 -0.118372254 -0.04829225 -0.039012834
000200 c2 1c 32 3d e6 66 94 bd 75 94 52 bd 40 be 31 bd
       0.043484457 -0.07246189 -0.05141111 -0.043394327
000210 b8 f7 90 bd 44 ca ef 39 e8 e9 28 3e 1f c4 bd bd
       -0.070784986 0.00045736332 0.16495478 -0.09265923
000220 08 17 19 3e 4c a6 86 3d 15 4a 6c 3d 7b 5e 5c bc
       0.14950192 0.06574687 0.057687838 -0.01345026
000230 96 e6 db bd 76 71 41 3b 47 e5 85 bd 86 7c 1e bd
       -0.1073734 0.002951709 -0.06537872 -0.038692974
000240 d0 cf 07 be ae c7 9b bd 2c a7 87 bc 85 8f c8 3d
       -0.13262868 -0.07606445 -0.016559206 0.09792999
000250 81 75 13 bd 62 36 fa bd 76 e7 8b 3c ef af f4 bd
       -0.036000732 -0.12217404 0.017078143 -0.11947619
000260 56 f9 c6 3d 1c 2a b7 bd 05 ad dd 3d c7 bf eb bd
       0.09715526 -0.089435786 0.108240165 -0.11511188
000270 b0 28 0f 3d ff 71 b6 bd 73 dd db bd 8f 48 9f 3d
       0.034950912 -0.08908462 -0.107355975 0.07777511
000280 02 c3 f9 bd 9a c4 16 3e eb eb 44 3d a0 62 40 3d
       -0.12195398 0.14723435 0.04807655 0.046969056
000290 01 f2 a8 bb 05 26 6e bd c0 78 e8 3c c9 7e 0b 3e
       -0.0051558022 -0.058141727 0.02837789 0.13622583
0002a0 b7 c5 89 3d 47 94 0d 3d 54 b5 ad 3b 26 98 0a be
       0.06727164 0.034565236 0.005301157 -0.13534603
0002b0 f0 8b e2 bb f7 6c 0f 3d 65 81 c0 3d 31 cb 00 3e
       -0.0069136545 0.035016026 0.0939968 0.12577511
0002c0 7a 9b 57 bc fb e5 63 bb 54 d7 c9 bc 47 37 cc 3d
       -0.013159627 -0.003477453 -0.02463881 0.09971481
0002d0 ad ba 23 3e e0 f3 4c 3d 7a a9 0c 3e 71 1b 81 bd
       0.1598918 0.050037265 0.13736525 -0.06304062
0002e0 bc 78 9d 3d 22 57 02 be cb 69 3b bc 23 f9 5d b9
       0.07689044 -0.12728551 -0.011438797 -0.00021169013
0002f0 4a bb f5 bd 03 91 b9 3d c0 6b 16 3c 9a 2e 54 bc
       -0.11998613 0.09060862 0.009180963 -0.012950564
000300 9b 00 8a 3c 44 47 a9 3d 97 a4 c9 3b fe 57 38 bd
       0.016845992 0.08265546 0.006153654 -0.04500579
000310 6c c8 79 bb 0f 13 3e bd 7e 83 98 bd 84 3d 5e 3d
       -0.0038113846 -0.046404894 -0.07446955 0.054257885
000320 a3 cf 04 be ba f7 8b 3d c5 47 85 3d d1 92 ff 3d
       -0.12969832 0.068343595 0.065078296 0.12479175
000330 bd 5d 95 bc a3 67 a3 3b 5a 3e 0b 3e ba a5 d0 bc
       -0.018233174 0.0049867197 0.13598004 -0.02546965
000340 71 69 83 bd be b2 ba 3d 71 1b 97 bd 44 1d 8d 3d
       -0.06416596 0.091161236 -0.07378281 0.068903476
000350 ff 18 8b 3d 27 d3 e3 3d b4 dd 93 bd ea 70 0f bd
       0.06791877 0.111242585 -0.07220021 -0.035019793
000360 7e 0c 99 3d b6 b2 ba 3d bb 2f 1c be 3a ad 7d 3d
       0.07473086 0.09116118 -0.15252583 0.06193278
000370 8d 35 89 3d 56 65 c4 bc 54 96 ac bd 5c 52 1b be
       0.06699667 -0.023974102 -0.0842711 -0.15168136
000380 1d c1 c7 3d a4 88 3f bd cd 6b 48 bd 03 9b 94 bd
       0.0975363 -0.04676117 -0.04893093 -0.07256129
000390 5c 40 0c 3e a6 f7 f8 3d 9b 86 b2 bd bb 8f 00 be
       0.13696426 0.1215661 -0.0871708 -0.12554829
0003a0 89 41 fd bd eb 0d f8 bd 77 b3 2a 3e 7e 4c 41 3d
       -0.123660155 -0.1211203 0.16670023 0.04719209
0003b0 a5 9a fc bc 71 23 80 3d 22 f8 f0 bd f4 50 ae bd
       -0.030835459 0.0625676 -0.117660776 -0.08511534
0003c0 8b e8 03 be 15 7a 63 3b 46 7a 70 3d 2a 30 88 3d
       -0.12881677 0.0034710218 0.05871036 0.066498116
0003d0 ef 5d ea bd f6 a3 03 3c 0c 93 6e 3d 1b ca 63 ba
       -0.11443698 0.008034697 0.058245704 -0.0008689479
0003e0 4b 2d c6 bd 15 35 0a bc f4 b0 e9 3c f9 17 af 3b
       -0.09676608 -0.008435507 0.02852676 0.005343434
0003f0 4e 3f d4 bc 5f eb 86 3b 6f 0b 11 be f1 63 42 bd
       -0.025909092 0.004117414 -0.14164518 -0.047458593

encoder_c.convs.0.bias f4 [64]
000000 99 93 ae 3c 8e 79 41 3c d9 74 e5 3b 92 02 6e 3b
       0.021310614 0.011808766 0.0070024547 0.003631745
000010 be aa 58 bc 4f 4b 08 bc 25 55 d4 bb 42 86 b6 bb
       -0.013224302 -0.008318736 -0.0064798766 -0.005570204
000020 9c a3 c6 3c ec 38 26 3c 60 e4 da bb 2b 15 03 3c
       0.024247937 0.010145407 -0.0066800565 0.008000652
000030 35 a0 24 3c 57 47 d3 3b cf 04 74 ba a2 32 23 3c
       0.010047962 0.0064477134 -0.0009308578 0.009960802
000040 b6 64 99 3c 5a 34 b4 3b 19 53 85 3c 98 8c 5d 3b
       0.01872478 0.005499405 0.016274976 0.0033805724
000050 2f a9 04 bc 29 ae 4a 3c 8c b1 d3 bb 04 bf 8f bb
       -0.008096977 0.012370625 -0.006460374 -0.0043867845
000060 ca a6 1d bc 6c b7 04 3c 6d e5 29 bc 61 e8 46 3c
       -0.009622285 0.008100372 -0.010369641 0.012140364
000070 29 71 d8 3b 11 1b 57 bb 2c dd 52 bb 78 93 78 3c
       0.0066052866 -0.003282253 -0.0032175286 0.015171878
000080 94 f8 ab 3c 58 9f aa ba fc c6 e2 3b 53 e4 49 bb
       0.020992555 -0.0013017459 0.0069206934 -0.0030806258
000090 9a 45 50 3c d7 1c 33 3c 2e e8 01 3b 43 25 2e ba
       0.012711907 0.010932169 0.0019822228 -0.00066431257
0000a0 6d d5 2e 3c d2 2a a1 3c bc 63 b8 3a 46 3e bd 3c
       0.010671002 0.019673739 0.0014067809 0.023100983
0000b0 0b 50 14 bc 3a 9f e6 3c 2e f3 81 3c 95 d9 5f 3c
       -0.009052287 0.028152097 0.015863027 0.013662715
0000c0 62 74 6f 3c 45 7d 9a bc 5c b7 b1 bb 5b e4 68 3c
       0.01461515 -0.018858561 -0.0054234695 0.0142146
0000d0 af 7e 67 bc 68 c3 1f bc e0 98 d2 3b 5f 49 0e bc
       -0.014129325 -0.009751178 0.0064269155 -0.008684485
0000e0 4a 4f a9 bb d6 52 43 bc 0b c4 85 bc a5 77 3e bc
       -0.0051669227 -0.011921605 -0.016328832 -0.011625205
0000f0 75 2e 13 bb 2e f6 23 3a 5a 1a 2c bb 61 b3 0e 3c
       -0.002245811 0.000625464 -0.0026260824 0.008709759

encoder_c.convs.1.weight f4 [64, 64]
000000 12 e2 9f bd 31 b6 15 b5 17 7f e5 bc 1c d6 c3 bd
       -0.07806791 -5.577195e-07 -0.028014703 -0.095623225
000010 0d fe fd bc 90 95 00 3d 26 62 a5 bc 77 67 0a 3e
       -0.03100493 0.031392634 -0.020188402 0.13516031
000020 fe 8f 1d 3e 80 47 83 bc 1d 83 01 ba db 65 1a bd
       0.1538696 -0.016025305 -0.0004940497 -0.037694793
000030 d3 05 11 bd fb 56 ba b9 25 aa e9 3d 3e 28 0d bd
       -0.035405945 -0.0003554149 0.114094056 -0.034462206
000040 4f 56 77 bc b0 ba 35 be 2b 8d 03 bd 43 3a 0e bb
       -0.015096261 -0.17746997 -0.03211705 -0.0021702207
000050 8f 08 28 be 3b 4f 25 3b c3 45 20 3e 76 dd c3 3c
       -0.16409515 0.0025224227 0.15651612 0.023909312
000060 67 6f 78 bd 43 d6 28 bd cf b0 5c 33 f2 b3 42 3d
       -0.060653117 -0.04121996 5.1383548e-08 0.04753489
000070 32 37 85 3d 74 d5 11 3c c4 78 60 3d b9 6f e2 bd
       0.06504668 0.008900989 0.05480267 -0.11056466
000080 51 f8 4d 38 48 e0 3c 3d a7 c5 5f 3d a2 d0 84 bc
       4.910707e-05 0.04611233 0.054631855 -0.016212765
000090 33 ef 6c 3d 23 a9 36 bb 8c 08 bd 3c fd 8b 62 bd
       0.057845306 -0.002787181 0.023075365 -0.055309284
0000a0 cb 57 40 3e 83 ce eb 3c 3d 81 73 bd 5a 26 f1 3d
       0.1878349 0.028784996 -0.059449423 0.11774893
0000b0 61 a3 9d bc 33 ae 20 be da 1b 1a 3c f4 d2 4f 3d
       -0.019242944 -0.15691452 0.009406054 0.05073829
0000c0 d2 32 e7 3d cd 7c 87 bc 08 c2 d6 38 9e 66 92 3d
       0.1128899 -0.016539002 0.00010240456 0.07148479
0000d0 66 3f b1 3d c3 1b 37 bd bf 5b ed 3c 52 b6 8f 3d
       0.086546704 -0.04470421 0.028974412 0.07017197
0000e0 08 93 fc 3d 2e eb 06 3e 24 9a 24 3e 79 74 b4 bc
       0.123327315 0.13175651 0.16074425 -0.022028195
0000f0 0a df bc 3b 4d 51 9c bb 65 59 a4 3d 0d e2 10 be
       0.005763893 -0.004770434 0.08024863 -0.14148732
000100 81 3e 29 3e be 42 3d bc ec 26 54 bc d0 68 30 bd
       0.1652775 -0.011551557 -0.012948733 -0.043068707
000110 9f 6d 60 3d 5a f7 91 bd 0b 3e 94 3c d7 27 28 3d
       0.054792043 -0.07127257 0.01809599 0.04105362
000120 99 17 40 bd 49 d2 e7 3d 18 08 8f b9 10 e3 bf bd
       -0.046897504 0.113194056 -0.00027281116 -0.093694806
000130 04 8b 0e 3e ec f5 fd b7 8c 90 7b bd 16 6d 3e be
       0.13920218 -3.0274467e-05 -0.061417148 -0.185963
000140 19 58 f7 bd 0e 91 5c 3c 06 39 27 bb 0f 9d a0 3d
       -0.1207735 0.013462318 -0.0025516166 0.078424565
000150 ba ef ae 3d 8d 47 e3 bc 00 5c d4 3d 30 23 14 be
       0.08541818 -0.027744079 0.1036911 -0.14466548
000160 4c 17 14 3e a2 1a f5 3d f0 d8 6c 33 64 75 44 be
       0.14462012 0.119679704 5.5145335e-08 -0.19185406
000170 dc 79 db bc e5 80 46 bd 45 cc d5 bd a8 91 02 be
       -0.026791506 -0.048462767 -0.10439352 -0.12750876
000180 42 77 90 39 cf a7 b4 3d 13 c3 10 be 1a ca 72 3d
       0.00027554674 0.088210694 -0.14136915 0.05927477
000190 27 f6 4b bd 26 be 6b bb 48 ce ad bd a4 47 6b 3d
       -0.049795296 -0.0035971492 -0.08486611 0.05744137
0001a0 46 19 37 be 54 32 1f 3e 0d f2 a9 3d ba ba 36 3d
       -0.17880735 0.15546542 0.08298121 0.04461167
0001b0 be 9e 99 bd 63 0a 38 be 05 0c 8f 3c 53 df a8 3d
       -0.07500981 -0.17972712 0.017461786 0.08245721
0001c0 8d 92 71 bd 22 cb 16 3e cf 04 99 3a 90 5f 07 bd
       -0.058977652 0.14725927 0.0011674407 -0.03305012
0001d0 22 a4 16 3e 0d 6c 5c 3d be e3 a4 ba c9 22 80 bd
       0.14711049 0.053813983 -0.001258008 -0.06256635
0001e0 ea 11 10 3e 16 cf 05 be 4a bc 35 bc 6d 2c fb ba
       0.14069334 -0.13067278 -0.011092255 -0.001916302
0001f0 d2 96 be 3b 9e 6c a2 3c c2 e3 5a bd 28 41 9c 3c
       0.005816319 0.019827183 -0.053439863 0.019074038
000200 67 fc 52 bc 88 ff 9a bc 49 da 99 3c 32 b0 c0 3d
       -0.01287756 -0.018920675 0.018780844 0.094086066
000210 47 ae f9 3d 17 74 cf 3d c7 49 c1 3d 0a 2a 0c bd
       0.12191444 0.10129564 0.094379 -0.03421978
000220 5d 08 29 be e9 48 3f bd ae f6 7a bb d7 e4 9c 3d
       -0.16507097 -0.046700392 -0.0038294005 0.07660835
000230 4a ed 16 3e 5f 71 04 b8 75 bb 1e bd 0f c1 39 3d
       0.14738956 -3.1576838e-05 -0.03875299 0.04535013
000240 96 47 d0 bc 47 c8 24 bd a1 bc 5d bd 69 2e f6 bd
       -0.02542476 -0.04023006 -0.05413497 -0.12020571
000250 f3 e6 0b bd b1 d2 26 bd f9 b3 b7 bd 20 d0 ad bc
       -0.034155797 -0.040728275 -0.08969874 -0.021217406
000260 e3 e6 dd bd 93 8e 8b 3d a5 4c 22 34 5e 0d 3a 3d
       -0.10835054 0.06814303 1.5115309e-07 0.045422904
000270 d4 e8 6a bd 5b 75 1b bc 96 d6 42 3e 8f ae fc bd
       -0.05735095 -0.009488429 0.1902717 -0.12337982
000280 47 15 53 bd f2 02 cc bd 79 a2 ed bd e2 8e ad bd
       -0.051533964 -0.09961499 -0.11603255 -0.08474518
000290 13 4c 27 be 0b d1 9d b9 1a 1e 08 3e c4 46 d6 3d
       -0.16337614 -0.00030101123 0.13292733 0.10462716
0002a0 aa 5e 5a 3e e4 45 f1 3d fd 70 b0 3d 06 44 2e 3e
       0.21325174 0.11780909 0.08615301 0.17018136
0002b0 51 76 f5 3d c3 82 bf 3d a2 da 71 bd 6b d1 e1 bc
       0.11985458 0.09351113 -0.059046395 -0.027565679
0002c0 61 eb 00 be a4 16 06 3e 61 a0 1a bc ac 96 fc bc
       -0.1258979 0.13094574 -0.009437651 -0.030833565
0002d0 29 63 94 3d 66 49 5e 3e 63 81 fd bc 1e 73 00 3e
       0.07245476 0.21707687 -0.030945485 0.12543914
0002e0 ea 67 c5 3d d0 96 e2 bd 7f 8d a0 bd a4 1c 8f bd
       0.09638961 -0.110639215 -0.07839488 -0.06987885
0002f0 4e 55 8d bd 13 96 92 bd 9c d4 d5 3d 41 8b 32 bd
       -0.06901036 -0.07157531 0.10440943 -0.043589834
000300 45 6d b4 3d cd 30 51 33 df 35 5e 3d 22 96 a8 bd
       0.08809904 4.870599e-08 0.054250594 -0.082317606
000310 a9 5c bf bc be 78 3d bd 74 43 ba bd 1c da a6 3d
       -0.023359613 -0.046257727 -0.09094897 0.0814707
000320 55 31 30 3e 2e fe 5b bc 17 a3 96 3c fa ca 45 3e
       0.17206319 -0.0134273 0.018388314 0.1931571
000330 76 5a 89 3d 37 97 1c b5 36 50 71 bd 49 0d dd 3d
       0.06706707 -5.8334575e-07 -0.058914386 0.107935496
000340 6b 6c b2 bd 1c c9 fc 3c 09 f1 7f 39 e3 4e b8 bc
       -0.08712085 0.030857615 0.00024408488 -0.022498554
000350 cc 11 18 bd a5 7d ff 3c d2 94 02 be 59 66 01 3e
       -0.037126347 0.031187842 -0.12752083 0.12636699
000360 f8 3e 61 bd b3 9a 84 bd 95 1d b6 34 9e f4 d6 3c
       -0.054991692 -0.06474819 3.3921665e-07 0.02623969
000370 b6 69 71 bd d4 4e 7f 3c 87 19 dd bc a3 43 27 3d
       -0.058938704 0.015582759 -0.026989711 0.040835988
000380 69 11 90 3b ea 7c ee 3d 4a 1f 0a be 13 d9 b1 3b
       0.0043966067 0.11644919 -0.13488498 0.0054274886
000390 37 df 04 bc 37 6b eb b8 bc 2a 9a bd 50 a2 8c b9
       -0.008109859 -0.000112256435 -0.07527682 -0.00026823813
0003a0 04 d2 f0 bd ec fc d7 3a 0a d2 76 3c a0 58 ea 3d
       -0.11758807 0.0016478575 0.015064726 0.11442685
0003b0 25 41 47 bd dc 56 8a 3d b3 67 3a bd 17 4a 99 bc
       -0.04864611 0.06754848 -0.04550905 -0.018712087
0003c0 ff df 9f 3d 74 7b 49 3c 83 c5 70 3a da 96 89 3d
       0.07806396 0.0122975 0.0009184705 0.06718226
0003d0 23 ec 43 be ef 43 cd bb 8e 9d c6 bc 63 e0 7a 3a
       -0.19133048 -0.006264202 -0.02424505 0.00095701794
0003e0 c0 bd 12 bd 08 9f 67 3d 41 23 01 3e 38 e1 6b 3b
       -0.03582549 0.05654815 0.12611105 0.0035992395
0003f0 3c 19 52 3c ca db 4f 3c c7 e1 b9 bd aa 36 32 3d
       0.012823399 0.012686679 -0.09076267 0.043509163

encoder_c.convs.1.bias f4 [64]
000000 6b 99 0f bb 61 94 64 bc ec 7a 94 bb c7 ce c2 3c
       -0.0021911513 -0.013951392 -0.004531255 0.02378024
000010 52 08 72 3c 65 72 a0 3c 00 d8 b3 3c 56 89 06 bb
       0.0147724915 0.019585798 0.021953583 -0.0020528636
000020 0f df e8 3b 1b e2 63 3c fb 3c 48 bc 4c 86 24 bc
       0.007106669 0.013908888 -0.01222157 -0.0100417845
000030 b9 0d 28 bc 0f 33 1d bc dc c6 02 3d c9 2f 55 bc
       -0.010257178 -0.009594693 0.03192793 -0.013011881
000040 29 2a 26 3b 68 4c 6e 3b 4b 76 b9 bc 86 9d 1b bc
       0.002535472 0.003636146 -0.022639414 -0.009498006
000050 de aa 4a 3c ce 45 36 3c 91 86 e7 3b 66 86 33 bc
       0.0123698395 0.011125041 0.007065602 -0.010957336
000060 8f 94 92 3c 6a d8 56 3b 3e bf 91 bb 6a 5a 1a bc
       0.017893104 0.0032782801 -0.0044478467 -0.00942097
000070 fe d5 ea 3b ef 8c 0e 3c 55 d5 ad 3c 66 31 10 3b
       0.007166623 0.008700593 0.021219889 0.00220021
000080 15 10 b2 bb 3c 27 8e 3b 98 13 c9 3b e7 83 15 3c
       -0.005434046 0.004338173 0.006136369 0.009125686
000090 9f 6d e0 3c 6f 59 15 b7 c7 06 3b 3c c6 cd a6 ba
       0.027396021 -8.901915e-06 0.01141519 -0.001272612
0000a0 bc 92 3f 3c 3c 8d ce bb e1 7a 63 bc f5 8b 8c 3c
       0.011692699 -0.0063034575 -0.013884277 0.01715658
0000b0 80 39 1a 3c 5a 64 31 bc 53 ae 66 3c d7 51 28 bc
       0.009413123 -0.010827148 0.014079648 -0.010273418
0000c0 5d 66 72 bb 18 67 01 3c f6 af 2a bc 1c 62 6a 3c
       -0.0036987283 0.007898115 -0.010417929 0.014305618
0000d0 a8 e1 60 3c 95 c4 82 3c 1d 06 4d bb d7 49 c3 bc
       0.013725676 0.015962878 -0.0031284161 -0.02383892
0000e0 83 e4 06 bc 6e 1b de 3b d9 89 19 bc 42 54 e4 bc
       -0.008233192 0.006778172 -0.009371244 -0.027872209
0000f0 05 9a 46 bc 93 36 a2 ba 00 60 b3 3b ae a9 87 3c
       -0.012121682 -0.0012375884 0.0054740906 0.016560402

encoder_c.convs.2.weight f4 [64, 64]
000000 47 c7 8a bc 50 85 0b bb 37 0b 88 bb 15 54 76 3c
       -0.016940726 -0.0021289177 -0.0041517275 0.015034695
000010 b4 8a c7 3c d3 10 d9 3c df 05 d4 ba 4f 7a be 3d
       0.024358131 0.02649728 -0.0016176066 0.09300672
000020 4c 72 10 3b 5c fc b4 3c 38 82 f0 bc a3 06 32 3b
       0.0022040782 0.02209299 -0.029358968 0.00271646
000030 7f d5 18 bd 76 c2 b3 3c 77 5e 15 3d 2b 0f 94 3d
       -0.03731298 0.021943312 0.03646704 0.072294556
000040 b6 95 8c bc 8b 1d 1f 3b 94 4a 35 bd f4 cf 93 3d
       -0.017161231 0.0024279084 -0.044260576 0.07217398
000050 16 c3 2c 3d 59 15 04 bc 69 74 73 3b 50 be 80 3c
       0.042178236 -0.00806173 0.0037148243 0.015715748
000060 a3 b0 79 bd e3 4e 43 3c 34 18 1a 3c 8b db aa bd
       -0.06095947 0.0119206635 0.009405185 -0.08342656
000070 16 68 1a bd 2b 48 d9 ba 6a 29 67 bd a6 eb 8b 3d
       -0.03769692 -0.0016577294 -0.05643598 0.06832056
000080 42 92 47 bd 2f 7a af 3d 98 d8 0d bc 88 b8 fd bb
       -0.048723467 0.085682265 -0.008657597 -0.007742945
000090 9e cc 5e bb ea c2 c6 3d 9c 06 9d 3a d1 1f 50 3d
       -0.0033996473 0.09705146 0.0011980119 0.050811592
0000a0 4c 65 9d 3b ec ce a5 bd 15 4a 24 3d 22 3a ca 3a
       0.0048033353 -0.08096108 0.040109713 0.0015428702
0000b0 24 87 ca 3b 30 09 88 3b a6 c7 e0 3b da a2 1a bc
       0.006180661 0.004151486 0.0068597374 -0.009438241
0000c0 dc df 0f 3d 8a fe d7 bd f6 83 1a bb e4 05 0d bb
       0.0351256 -0.10546596 -0.002357719 -0.0021518404
0000d0 cf b9 00 be 99 b3 b3 3d e6 73 6e 3b 9d 3a ec 3b
       -0.1257088 0.0877449 0.0036384999 0.0072091357
0000e0 e2 bc 40 3c 08 9e c2 3d 9f de 84 3b eb ed 35 bd
       0.011763783 0.09502798 0.004054859 -0.04441635
0000f0 24 d5 24 3d f8 a9 f1 bd e3 57 8f bb 2f 63 34 bb
       0.04024233 -0.11799997 -0.0043744906 -0.0027524938
000100 25 2e 6f 31 48 03 b8 b1 2e 33 05 bb 6b 3e 89 3c
       3.4805308e-09 -5.355478e-09 -0.0020324695 0.016753396
000110 cb ff 0d 32 67 f9 b5 b1 a9 c5 da b1 a8 00 9d b1
       8.265441e-09 -5.296147e-09 -6.3671064e-09 -4.569376e-09
000120 39 cb 4f 3c 6a cc 9a 31 9b eb e1 31 bc 5a 28 bc
       0.012682729 4.505229e-09 6.575147e-09 -0.010275539
000130 14 15 c1 b6 21 77 03 b2 49 12 84 38 fe c8 07 32
       -5.754302e-06 -7.65229e-09 6.2976564e-05 7.9037346e-09
000140 2f db c8 30 f1 17 a0 3c ea 73 8b 31 85 e8 0a 32
       1.4614211e-09 0.019542666 4.0586103e-09 8.085526e-09
000150 4f 68 69 3c e1 8f 96 b1 02 e3 e0 31 29 48 68 bc
       0.0142460605 -4.3819317e-09 6.545066e-09 -0.014177361
000160 5a 37 26 b2 86 89 b8 3c 35 45 a6 b0 d6 36 06 3a
       -9.675057e-09 0.022526514 -1.209776e-09 0.00051198655
000170 22 76 45 31 0f 84 19 31 5b 6b c0 3c 16 82 13 b9
       2.8734424e-09 2.2339497e-09 0.023488691 -0.00014067473
000180 2f 17 a1 2f 5a d5 1b 3c d6 36 02 32 07 68 f0 b1
       2.9302202e-10 0.009511316 7.579464e-09 -6.996746e-09
000190 bd 7c f1 38 cb ee 98 bc ab 38 a3 3b 51 5a 83 32
       0.0001151501 -0.018668553 0.0049811206 1.5291478e-08
0001a0 ad 96 21 bb f0 3c ad 3c 84 fd cd 30 d2 b8 76 2f
       -0.002465646 0.021147221 1.4987767e-09 2.2439231e-10
0001b0 21 ee f9 b1 78 dc 95 b8 04 72 f6 36 01 a8 c4 b1
       -7.273926e-09 -7.145939e-05 7.3446445e-06 -5.7234506e-09
0001c0 2b 35 bc bb 20 9c 70 3a 7f 18 98 af 2e 1a 70 ba
       -0.005743643 0.0009178538 -2.7666044e-10 -0.00091591745
0001d0 9d 91 59 b8 68 d7 f1 31 5b 40 1c b0 f6 47 8e bb
       -5.1872445e-05 7.038512e-09 -5.6843924e-10 -0.0043420745
0001e0 ef bf b3 3c e5 0b 40 31 4f 4b a8 bc 8f d5 8c b1
       0.021942107 2.7946438e-09 -0.020543722 -4.098815e-09
0001f0 54 5c 08 bc 48 4b 83 32 c2 e7 fe 34 86 36 a5 b1
       -0.008322794 1.5284641e-08 4.7479813e-07 -4.8083306e-09
000200 2d 6a 24 3a b3 3e c5 3a 28 7d 0f 3d 56 0b 83 3d
       0.0006271925 0.0015048593 0.035031468 0.063986465
000210 a0 7c 36 3c 57 d2 14 bb 99 d1 1d bb db 3a bb 3c
       0.011138111 -0.002270838 -0.0024081229 0.022855213
000220 69 da 05 3c be 27 c4 bb b2 59 66 3d 50 55 f0 ba
       0.008169749 -0.005986183 0.056237884 -0.0018335972
000230 d8 8a ec bc 5b 7f 33 3c 6f 45 16 bc 20 2b 2c 3c
       -0.0288748 0.010955657 -0.009171828 0.010508329
000240 61 54 4d 3c 04 77 e9 bc 82 b0 87 3d ca 01 92 ba
       0.0125323245 -0.028499134 0.06625463 -0.0011139449
000250 58 f7 10 3a e8 2e 85 3d fa 40 26 bb ca bb 91 3c
       0.0005530021 0.06503087 -0.002536832 0.01778974
000260 bc 7d 6d bc 26 18 7e 3d f8 ed 8e 3a 8f 83 09 3c
       -0.014495309 0.06203475 0.001090466 0.008393182
000270 3f 1f 72 3d f0 eb 8d 3a 6e fb fa 3a 38 5a b4 bb
       0.05911183 0.0010827761 0.0019148418 -0.005503919
000280 61 46 62 ba 1a a4 ae 3d b7 80 68 bc 18 c6 03 3d
       -0.0008631703 0.08527394 -0.014190844 0.03217134
000290 d1 a9 a4 3c 2a ff f2 bc 43 55 33 bb 27 c4 d6 b9
       0.020100506 -0.029662687 -0.0027364052 -0.00040963406
0002a0 4d 3b 59 3d 55 f6 9a 3c c3 61 a8 3d 88 55 38 3c
       0.05303507 0.018916288 0.082217716 0.011250861
0002b0 75 13 96 bb e0 8b 58 bb 26 71 2c 3a 0d d5 46 bb
       -0.004579956 -0.0033042356 0.000657814 -0.003033939
0002c0 8a 2a 07 bd 77 8c d1 3c 61 f4 03 3b 37 4f da ba
       -0.032999553 0.025579674 0.0020134675 -0.0016655688
0002d0 9d 4b 91 bc e2 90 29 3b 3a 5f e6 ba 09 c6 85 3b
       -0.01773625 0.002587371 -0.0017575987 0.0040824455
0002e0 fb 45 be 3c 1f 70 72 bc b5 cd 0c bb ff 21 a7 bd
       0.023226729 -0.01479724 -0.0021484916 -0.08160781
0002f0 04 68 88 bc a4 ee b6 bd 3c 0e 0c 3b cd df 0a 3c
       -0.016651161 -0.08932236 0.002137079 0.00847621
000300 03 82 bd bd 8c 31 85 3c 05 b4 0b bd d7 25 a4 3d
       -0.092533134 0.016258977 -0.034107227 0.0801503
000310 52 f9 62 3d 32 48 f6 bb 00 a3 f2 3b b8 e8 b2 bd
       0.05541355 -0.0075159306 0.007404685 -0.08735794
000320 19 05 a3 3d 28 74 ed bd 6c 40 99 3d ca b3 3b ba
       0.07959957 -0.11594421 0.074829906 -0.00071602745
000330 28 2c 10 be f7 20 a8 3d b4 da eb bd 29 8e 1a be
       -0.14079344 0.082094125 -0.11516324 -0.15093292
000340 9d 6c d6 3c 52 78 44 be ce 7f 99 bd 8b 50 ab bc
       0.026174838 -0.19186524 -0.0749508 -0.02091243
000350 41 0e 16 3e ac 6c 03 3e 49 e5 12 3d 5b 17 2a 3d
       0.14653875 0.12834424 0.035863195 0.04152618
000360 89 01 2b 3e 04 1d 6e bd 42 d3 98 3c ad 61 de bd
       0.16699804 -0.05813314 0.018655423 -0.10858474
000370 df 59 4d be 08 1e d6 bd c3 58 70 3d b2 2c 16 3e
       -0.20053814 -0.10454947 0.0586784 0.14665487
000380 5b 67 d1 bd f4 e1 1c 3e e9 37 11 3d 65 eb 69 be
       -0.102247916 0.1532057 0.03545371 -0.22843702
000390 27 9d fb bc bf a1 2f 3e f1 a9 56 bd 64 d8 34 3e
       -0.030714585 0.17151545 -0.052408163 0.17660671
0003a0 b7 a8 0c 3e 99 a7 0e 3d 81 88 11 3e d9 5e bd bc
       0.13736235 0.034827802 0.14212228 -0.023116516
0003b0 bd 40 0f be 4f 79 a2 bd 3e 21 7c 3b 7a 5a 32 3d
       -0.1398954 -0.07933294 0.0038471962 0.043543316
0003c0 3b 2b 34 bd 8d 9f 29 be fb 9e a3 3d 2f 05 81 bd
       -0.04398654 -0.1656477 0.079893075 -0.06299817
0003d0 60 69 e9 3c 89 e1 d4 3d 9b e9 5b bd e9 3a e6 3d
       0.02849263 0.1039458 -0.05368958 0.11241705
0003e0 11 fc 14 be 74 62 11 be 17 dc 9f 3d 31 fd 63 bc
       -0.1454928 -0.14197713 0.07805651 -0.013915346
0003f0 dd 11 8a bd 27 2d 71 be 11 d8 f1 bc e6 29 c3 3d
       -0.067416884 -0.2355238 -0.029521974 0.09529476

encoder_c.convs.2.bias f4 [64]
000000 64 8a 17 3c 0a 81 b6 3b ce 6d 0a bc bd 20 0e 3c
       0.0092493035 0.005569582 -0.008449031 0.008674798
000010 73 ff 15 bc e8 1c 65 3b 3c 01 f5 bb 76 93 0a bc
       -0.009155142 0.0034959856 -0.007476954 -0.008458009
000020 70 cc 06 bc c2 e3 31 bc 31 78 10 3c 47 d4 8b bc
       -0.008227453 -0.010857524 0.008817718 -0.017068995
000030 5d 0e 0b bc 5d 34 0a bc 08 08 32 bc 79 66 07 bc
       -0.008487311 -0.008435336 -0.010866173 -0.0082641775
000040 a9 50 15 3c a8 2a f4 bb d3 20 10 3c 0f b0 16 3c
       0.009113469 -0.007451374 0.008796888 0.009197249
000050 a0 76 1f bc 37 f6 13 3c 48 55 80 bb cb 75 16 bc
       -0.009732872 0.00903087 -0.0039164163 -0.0091833575
000060 d3 78 1a 3c 44 36 0e bc c9 50 3b 3c 18 03 0c 3c
       0.009428221 -0.00867993 0.011432835 0.0085456595
000070 e5 ec 0f bc bd 05 ef bb 25 66 0b 3c 73 b7 16 bc
       -0.008784507 -0.007294385 0.00850824 -0.009199011
000080 b1 57 a2 b9 40 63 13 bc de 7d 1f bc af 49 1e bc
       -0.00030964383 -0.008995831 -0.009734599 -0.009661122
000090 88 83 d2 3b bb 6d 09 bc c7 d4 02 bc 12 95 18 3c
       0.006424371 -0.008387978 -0.0079853 0.009312885
0000a0 8d 1b 1b 3c 8f 26 12 bc 02 1a 0e 3c be d1 9f b4
       0.009467018 -0.008920326 0.008673193 -2.9768665e-07
0000b0 8d cd 06 bc b8 77 a6 3b 98 21 47 bc d7 29 1c bc
       -0.008227718 0.0050801896 -0.0121540055 -0.00953146
0000c0 90 5e 0e bc d7 30 12 3c 3a 7d cf 3b c9 b8 a0 3b
       -0.008689538 0.008922777 0.006332067 0.0049048406
0000d0 8c 40 14 3c 1e 20 0e 3c 04 e8 f3 bb 99 b4 4a 3b
       0.009048592 0.0086746495 -0.00744343 0.0030930398
0000e0 a2 6e 22 bc fd fb 14 bc 3c 44 05 bc 11 59 19 bc
       -0.009914072 -0.009093282 -0.008133944 -0.009359614
0000f0 2e d3 f3 3b fc 02 15 bc 1b 81 01 3c 22 d7 ea 3b
       0.007440946 -0.00909495 0.007904316 0.007166759

encoder_b.convs.0.weight f4 [116, 64]
000000 18 9a 57 bc 9d 70 69 3d 2c 28 cb bd 68 c9 23 3e
       -0.013159297 0.056992162 -0.099197716 0.15994799
000010 ab dc 2a be 84 83 d2 ba 52 84 e8 bd 18 35 06 be
       -0.1668574 -0.0016060923 -0.11353363 -0.13106191
000020 e2 20 0a be 56 ea 06 bd 4b 97 a4 bd 9d 25 a0 bd
       -0.13489106 -0.032938324 -0.08036669 -0.07819674
000030 ca 41 d5 3c aa b6 25 be 9f a3 91 3d 28 a4 e1 3d
       0.026032347 -0.16182962 0.07111286 0.110176384
000040 2c ee 19 bc c6 75 d7 bd 96 9a c3 3d 16 d5 b0 3d
       -0.0093951635 -0.105205104 0.09550969 0.08634393
000050 19 28 37 be 0a ce 19 3e c8 ac 76 bd b7 6a e2 bd
       -0.1788639 0.15020004 -0.06022337 -0.110555105
000060 b3 f6 2b 3e c1 fe c0 bd b8 a8 b6 3b 87 a3 ba 3d
       0.16793327 -0.094235905 0.005574312 0.091132216
000070 e0 40 3c bd ad e7 ec bb e7 5c 29 be 4a 33 1a 3e
       -0.045960307 -0.0072297663 -0.16539346 0.15058628
000080 46 5a 69 3d 9c 5c 8c bb f3 b5 36 3e 70 11 2f be
       0.056970857 -0.004283501 0.17842846 -0.17096496
000090 ba 07 f7 bc b6 28 2c be a5 e2 23 3e 82 93 09 3e
       -0.030155051 -0.16812405 0.16004427 0.13435176
0000a0 8c 53 e7 3d 8a f7 ca 3d e6 be 8b bd e1 59 ba bd
       0.11295232 0.099104956 -0.0682352 -0.09099174
0000b0 bc 12 b0 bc 78 06 33 3e 44 89 bc 3d 43 8e 2e be
       -0.021493308 0.17482936 0.09205869 -0.17046456
0000c0 ce 7f c6 3d 4b f6 cc bd 21 10 39 be 8d c1 10 be
       0.096923456 -0.10007914 -0.18072559 -0.14136334
0000d0 92 26 8d bd 57 fe 3c 3c df 5e 2d bc e7 32 2c 3c
       -0.06892122 0.011535249 -0.010581701 0.010510183
0000e0 62 9e 2d bd ce ab 2d be c3 eb 1a 3e ac 4e 08 be
       -0.042387374 -0.1696007 0.15128998 -0.13311261
0000f0 7a fc 1b 3e 5d a0 29 3e 86 dc 5d 3d 2c b9 15 be
       0.15233031 0.1656508 0.054165386 -0.14621419
000100 38 96 10 3e 12 79 b1 3d 7b ed cc 3d ca 14 93 bd
       0.14119804 0.086656705 0.10006233 -0.071816996
000110 e3 20 30 3c a4 68 c3 3c 8e ce d5 bc 1f 69 ab 3d
       0.010750028 0.023853607 -0.02609947 0.0836966
000120 2f 9d 04 be 22 79 0d be 4f 04 e7 bd 4c 84 d0 bd
       -0.12950586 -0.1381574 -0.11280119 -0.101814836
000130 82 f8 51 3d d2 3d 06 be f0 66 d0 bd 46 0c e4 bd
       0.051262386 -0.1310952 -0.10175884 -0.111351535
000140 b5 a3 0a be 5b 3b 6e 3c 08 5e 11 3e ed cd 19 be
       -0.13539012 0.014540519 0.14196026 -0.1501996
000150 0a 70 af 3d c4 6f 2b 3e 37 aa a5 bd e7 f2 45 3d
       0.08566292 0.16741854 -0.080891065 0.048327353
000160 31 bf b1 3d ba 77 dc 3d 13 2b b0 bd 2a 5f 0c 3e
       0.08679045 0.107650235 -0.08601966 0.13708177
000170 12 6e 08 3e ee 5b 95 bd 68 0d 86 bd cd 64 da bd
       0.13323238 -0.07292925 -0.06545526 -0.106637575
000180 e1 4d 77 bc 21 2a 82 3d c5 2b 0c bd bd b6 0c be
       -0.015094251 0.06355692 -0.03422143 -0.13741584
000190 a3 41 14 bd eb 2d b0 3d 1e 06 e9 bd f9 83 ab 3d
       -0.03619541 0.08602508 -0.1137812 0.08374781
0001a0 57 a1 58 bd ab 8f 67 3d 70 d4 db 3c b3 4d 7f 3d
       -0.05288824 0.056533497 0.026834697 0.06232996
0001b0 c9 c0 90 3d 7f 98 70 3b f6 56 fd bd 48 ed 29 3e
       0.07068021 0.0036711989 -0.12370102 0.16594422
0001c0 61 10 ff 3d 02 5e 0b bd 2d 10 0f bd 2d f9 16 3d
       0.12454296 -0.0340252 -0.034927536 0.036858726
0001d0 0b 5e 88 bd 92 63 33 be 4a d4 7e 3d 16 6c 6d bd
       -0.06658562 -0.17518452 0.062214173 -0.057964407
0001e0 ca af ce bd a2 8a 1d be c9 fe f8 3d ae 11 3c 3d
       -0.10092123 -0.15384915 0.121579714 0.0459153
0001f0 71 0a 45 3d 31 2a 4a 3d 56 e4 24 3d 9c 0e 99 bb
       0.04810566 0.049356643 0.04025682 -0.004670931
000200 92 a2 f7 bd 2b 56 17 be e9 51 0e 3d 96 e3 21 be
       -0.12091555 -0.14778964 0.034746084 -0.15809473
000210 f4 76 32 3d db 41 05 3e ea a4 14 be 74 20 38 3c
       0.043570474 0.13013403 -0.14516035 0.011238206
000220 8f f2 45 bc 8c 40 fd 3c 31 1a 03 be 41 1f 16 be
       -0.012081756 0.030914567 -0.1280296 -0.1466036
000230 f4 6e 32 3e e4 bc eb 3d ac be b9 3d 7c 71 18 bd
       0.17425138 0.115106374 0.09069571 -0.037217602
000240 29 82 d2 3d 70 45 ed 3d 60 0c 35 3e cb 7e 88 bd
       0.10278732 0.1158551 0.17680502 -0.06664809
000250 08 17 33 be 1b 7d 52 bd d8 1b 9b 3d f0 db 05 be
       -0.17489254 -0.05138884 0.0757367 -0.13072181
000260 bb 7b 16 3e 3d bd 34 be e3 d6 cf bd 2e b7 0d bd
       0.14695637 -0.17650314 -0.10148408 -0.034598522
000270 61 8d 28 3e 19 ec 4b 3d ba 11 ff 3d e8 d2 1b 3c
       0.16460182 0.049785707 0.12454553 0.009510733
000280 94 90 78 bd 8a 59 05 bd 16 72 91 bc a5 90 39 3e
       -0.060684755 -0.032556094 -0.017754596 0.18121584
000290 5b b7 78 bd 55 52 c3 bd 43 2d a1 bd 1d 89 28 3e
       -0.060721736 -0.09537188 -0.07869961 0.16458555
0002a0 a1 08 16 be 9a 59 ce 3c 5a e7 07 3e 65 8c ab 3b
       -0.14651729 0.02518921 0.13271847 0.005235242
0002b0 bd 99 8d 3c 74 0c 12 bd fc e9 22 3e d7 28 f0 bd
       0.017285222 -0.035656407 0.1590957 -0.117265396
0002c0 fb a0 2b 3e 15 5c 9d bb cb df f8 bd dc 79 cd bd
       0.16760628 -0.004802237 -0.1215206 -0.100330085
0002d0 cc 63 28 be 8e 06 1d be 1d e8 bc 3c ab cf 1d be
       -0.1644432 -0.15334532 0.023059899 -0.1541125
0002e0 6f ad 18 3d ef a7 a6 b9 ea 00 9f bc 5f 17 f7 3d
       0.037274774 -0.00031787108 -0.019409616 0.120650046
0002f0 2a 5c b3 3d 2d aa fc bd 98 ae f9 bd f7 1b 2c 3d
       0.08757813 -0.12337146 -0.12191504 0.042018857
000300 63 49 1e 3e 6b 6c 3a be 58 6c 6f 3b c7 de ae bc
       0.15457682 -0.1820542 0.0036533084 -0.021346463
000310 22 7a 1c be f8 2c 0e 3e 2c 03 00 3e 2a ef 83 3d
       -0.15280965 0.13884342 0.1250121 0.06442101
000320 fa e6 05 3e 31 d2 5f 3d f3 bf c8 bd 75 6f 60 bd
       0.13076392 0.054643814 -0.098022364 -0.054793794
000330 96 d1 b1 ba 2a f9 d6 bd c7 b6 37 be ec c9 6e bd
       -0.001356649 -0.10496743 -0.17940818 -0.058298036
000340 fc a8 ec bd 47 27 57 bd 1e 55 3c bd f5 f8 b9 bd
       -0.11555669 -0.052527692 -0.04597961 -0.09080688
000350 7b 05 f4 3d 89 0f 84 3c 00 a2 cc 3d f7 34 1a 3e
       0.11915108 0.016120689 0.099918365 0.15059267
000360 6b 42 67 bc 32 94 e6 3c 14 17 07 3e be c6 7a bc
       -0.014114956 0.028146837 0.13192397 -0.015306173
000370 3b 3d 49 3d 75 31 c2 3d 78 5c 9a bd e0 e3 e5 3c
       0.04913066 0.094820894 -0.07537168 0.02806276
000380 20 0b 89 3d 03 c2 0b be 72 8e 98 bd de 2a 72 bd
       0.06691575 -0.13648228 -0.07449044 -0.059122913
000390 c0 36 b4 bd 72 0a 80 3d 8c d8 3c 3d c6 b2 b7 3c
       -0.08799505 0.06251992 0.046104953 0.022424113
0003a0 ec f1 1b 3d 14 69 23 be d8 48 0c 3d 26 69 ef 3d
       0.03807251 -0.15958053 0.034249157 0.11689977
0003b0 79 41 41 bd c3 ba 00 3e a8 1e 37 3e 24 32 c2 bd
       -0.04718158 0.12571244 0.17882788 -0.0948222
0003c0 4a 02 ce 3c 83 7d 23 3e a7 51 1f 3e 63 a5 82 3d
       0.025147576 0.15965848 0.15558492 0.06379201
0003d0 a3 5b c8 3d a0 c7 7b 3d 24 7a 1e 3e 30 44 2d 3e
       0.09783103 0.061469674 0.1547628 0.16920543
0003e0 86 64 39 3d ea 4a 39 be 42 2d a6 bd bf 22 d0 bd
       0.045261882 -0.18094984 -0.08114101 -0.10162877
0003f0 83 5b 2a 3e 39 5b 29 be ef 6f 95 3d 42 36 53 bc
       0.16636471 -0.16538705 0.0729674 -0.012891354

encoder_b.convs.0.bias f4 [64]
000000 00 00 00 00 00 00 00 00 00 00 00 00 00 00 00 00
       0.0 0.0 0.0 0.0
000010 00 00 00 00 00 00 00 00 00 00 00 00 00 00 00 00
       0.0 0.0 0.0 0.0
000020 00 00 00 00 00 00 00 00 00 00 00 00 00 00 00 00
       0.0 0.0 0.0 0.0
000030 00 00 00 00 00 00 00 00 00 00 00 00 00 00 00 00
       0.0 0.0 0.0 0.0
000040 00 00 00 00 00 00 00 00 00 00 00 00 00 00 00 00
       0.0 0.0 0.0 0.0
000050 00 00 00 00 00 00 00 00 00 00 00 00 00 00 00 00
       0.0 0.0 0.0 0.0
000060 00 00 00 00 00 00 00 00 00 00 00 00 00 00 00 00
       0.0 0.0 0.0 0.0
000070 00 00 00 00 00 00 00 00 00 00 00 00 00 00 00 00
       0.0 0.0 0.0 0.0
000080 00 00 00 00 00 00 00 00 00 00 00 00 00 00 00 00
       0.0 0.0 0.0 0.0
000090 00 00 00 00 00 00 00 00 00 00 00 00 00 00 00 00
       0.0 0.0 0.0 0.0
0000a0 00 00 00 00 00 00 00 00 00 00 00 00 00 00 00 00
       0.0 0.0 0.0 0.0
0000b0 00 00 00 00 00 00 00 00 00 00 00 00 00 00 00 00
       0.0 0.0 0.0 0.0
0000c0 00 00 00 00 00 00 00 00 00 00 00 00 00 00 00 00
       0.0 0.0 0.0 0.0
0000d0 00 00 00 00 00 00 00 00 00 00 00 00 00 00 00 00
       0.0 0.0 0.0 0.0
0000e0 00 00 00 00 00 00 00 00 00 00 00 00 00 00 00 00
       0.0 0.0 0.0 0.0
0000f0 00 00 00 00 00 00 00 00 00 00 00 00 00 00 00 00
       0.0 0.0 0.0 0.0

encoder_b.convs.1.weight f4 [64, 64]
000000 01 a8 36 be 5f e7 9d bd cb a1 51 be 69 54 e9 3d
       -0.17837526 -0.07710146 -0.20471875 0.11393053
000010 8f 83 74 bd fb d1 f0 3d 0c 8d 92 3d ea b3 78 3c
       -0.059695777 0.117588006 0.07155809 0.015179614
000020 1d 80 3b be 6c c5 37 3c 1b 1d 9e bc 9c b7 4b 3e
       -0.1831059 0.011216503 -0.019300988 0.1989426
000030 69 7f 51 bd 57 1d 59 3e ed cf 84 3d 60 0d f2 bd
       -0.0511469 0.21202599 0.06484971 -0.11818957
000040 4b a5 f7 3d 56 d9 92 3d 9c bd 36 3e 8f 2b ab 3d
       0.12092074 0.0717036 0.17845768 0.083579175
000050 af b1 1e be f3 78 5d be 48 db 45 bd c0 5c 0f 3e
       -0.15497468 -0.2162817 -0.048304826 0.14000225
000060 53 48 46 be dc 8e 5c be 8e 12 44 be f5 09 9b 3d
       -0.19363527 -0.21538872 -0.19147703 0.075702585
000070 b6 a7 a3 3a f0 5f c2 bd 99 79 c8 bd b8 ba fd bb
       0.0012485895 -0.09490955 -0.09788818 -0.007743206
000080 0b 1d 0f 3e 11 8e 27 be 53 20 58 be 6d df c8 bd
       0.13975923 -0.16362788 -0.2110608 -0.0980824
000090 18 d4 22 be 5e c3 54 3d 2a b3 d3 3c 40 2a 3b be
       -0.1590122 0.05194413 0.025842268 -0.18277836
0000a0 40 d0 4f 3e 89 7c 3b bd 7a b2 b4 bc 29 da 32 3e
       0.20294285 -0.045773063 -0.02205776 0.17466034
0000b0 b4 1d 02 3e dc 99 24 be 8b 35 9e bd b3 e3 f1 3d
       0.12706643 -0.16074318 -0.07725056 0.11811008
0000c0 c0 ae ef 3d 1d d8 42 be 44 ec 3e be ff 20 1b be
       0.11703253 -0.19027753 -0.18644816 -0.15149306
0000d0 73 e3 52 be 8e 84 f6 3d ec cd 4b 3e 87 14 34 3e
       -0.20594577 0.120370016 0.19902772 0.17585956
0000e0 5c fa 1b be d5 9a a9 bc 94 11 76 3d e7 2c 29 3d
       -0.15232223 -0.020703712 0.060075358 0.041302588
0000f0 3c 3f 30 be d8 67 48 3e d5 55 f6 3d 77 d8 0e bd
       -0.17211622 0.19570863 0.1202809 -0.034874406
000100 a9 0c db 3b f4 06 1a be 2b a6 ab 3d 6a 77 8e 3c
       0.006684859 -0.15041715 0.083813034 0.017390925
000110 49 28 0f be 55 a6 41 be da a7 c1 bd 8c 55 c0 bc
       -0.13980211 -0.18911107 -0.09455843 -0.023478292
000120 be cf 50 3d cc 0d 3d be ba ef 46 be 63 fc 10 be
       0.05097937 -0.18462294 -0.19427386 -0.14158778
000130 73 9e 1a be 9d 69 3e 3e 57 fb 1b 3e b1 98 99 bc
       -0.15099506 0.18594976 0.15232597 -0.018749567
000140 11 64 84 3c 3b 15 03 be 37 1c 2f be 8d ae 95 bd
       0.016160997 -0.12801068 -0.17100607 -0.073086835
000150 10 23 36 be 01 60 e3 bd 34 15 45 be db ac b3 3d
       -0.17786813 -0.11102296 -0.1924637 0.08773204
000160 13 34 32 3e 8c 77 8b 3d b2 45 63 bd 13 5c 3f be
       0.17402677 0.06809911 -0.05548639 -0.18687467
000170 00 99 cf bd 94 c3 41 bd 64 d3 b8 bd 88 11 38 3e
       -0.10136604 -0.04730566 -0.090246946 0.17975438
000180 c5 1c 57 3d 96 cb 0c 3e 4e 7f 09 be b0 8f 56 bd
       0.05251767 0.13749537 -0.13427469 -0.052383125
000190 d8 2c b5 bd a9 bd 15 be c1 16 fd 3d 4c 38 50 3b
       -0.08846444 -0.14623131 0.123578556 0.0031771837
0001a0 9a 3d 85 bd 3b 8f e6 bd 04 af 44 bd 86 66 02 be
       -0.0650589 -0.11257788 -0.04801847 -0.12734422
0001b0 e0 3e c9 bc 42 f5 42 3d 3d 5c 4e 3e ce 1e 28 be
       -0.024566114 0.047597177 0.20152374 -0.16418001
0001c0 42 c7 7c bd 17 97 37 3c 3f 85 6c 3c 96 d0 01 be
       -0.061713465 0.011205456 0.014436065 -0.12677225
0001d0 a3 ca 23 3e 27 64 9f 3d 51 7d 0c be 8c e4 a8 bd
       0.15995269 0.077827744 -0.1371968 -0.08246717
0001e0 13 78 db bd 5d 9c 41 bc c4 c1 41 be df 60 32 bd
       -0.10716262 -0.011817065 -0.18921572 -0.043549415
0001f0 7e d5 06 be c6 d0 11 be 9a 52 50 3e 2d a0 33 3e
       -0.13167378 -0.14239797 0.2034401 0.17541571
000200 07 16 59 3e 14 15 c9 3d ed 97 3d 3e be 40 90 3d
       0.21199809 0.098184735 0.18514986 0.070435986
000210 98 4f ca bd 29 1f a8 3d e6 9b 4f 3d 3b d2 cd bc
       -0.098784626 0.08209068 0.050685786 -0.02512466
000220 38 1c fa 3d 49 9c f8 3d 99 5a 18 3e e9 31 50 3d
       0.122124135 0.12139184 0.1487831 0.050828848
000230 80 42 9a 3d 45 cf c3 3d 3e cd 4e 3e d9 80 15 be
       0.07532215 0.09561018 0.20195481 -0.14599933
000240 94 6c 2a be 36 e6 e6 3d a1 71 ea 3d c7 5e 52 3e
       -0.16642982 0.11274378 0.11447454 0.20543967
000250 0b f6 50 be fe 4b 11 be 63 11 0e 3c 51 bf 35 3e
       -0.20406358 -0.14189145 0.0086711375 0.17748763
000260 55 f2 51 3e 07 50 4a 3e fd 1e bd bd 4b e8 43 3e
       0.20502599 0.1975709 -0.09234426 0.19131581
000270 42 8f 41 3e a0 5b 1c 3e 31 1d c8 bc c9 84 d7 bd
       0.18902305 0.15269327 -0.024427982 -0.10523374
000280 74 2f 59 3d 33 cb af bd 42 20 61 bc e3 b4 5b 3d
       0.05302377 -0.08583679 -0.013740601 0.053639304
000290 3e 60 08 3e 1b 86 88 bd 54 d2 db 39 41 1f 13 bd
       0.13317963 -0.066662036 0.00041927642 -0.035918478
0002a0 4f 03 1e be 28 15 c1 3c 25 3d e3 bd ba 4e 71 bd
       -0.1543095 0.023569658 -0.11095647 -0.05891297
0002b0 85 13 40 be fe 70 4d be 2c e0 39 3d cb 68 d0 bd
       -0.18757446 -0.20062634 0.045379803 -0.10176238
0002c0 2a f6 2a bd e2 24 3a 3d e6 be aa bb a3 54 9b bd
       -0.041738667 0.04544533 -0.005210745 -0.075845025
0002d0 57 09 e2 3d 8f e5 48 be 52 da 23 3e 8f 01 6f 3b
       0.11036938 -0.1961882 0.16001251 0.0036469435
0002e0 fb 03 2a 3e c9 07 9a 3d e3 94 4a 3e d0 7b 2d be
       0.16603081 0.07521016 0.19783358 -0.16941762
0002f0 0e 75 38 3e eb a2 f0 3d 54 77 9a 3d 75 9f 41 3e
       0.18013403 0.11749824 0.07542291 0.18908484
000300 a8 24 12 be 05 f3 23 be 85 1e 41 3d db 06 5b 3e
       -0.14271796 -0.16010673 0.047148246 0.21389334
000310 d0 ff 1c 3e 8d cf 55 3e be 94 36 be c7 da 59 be
       0.1533196 0.20879956 -0.17830178 -0.21274863
000320 a9 95 3d 3e bc 91 36 be a1 5d 37 3e 49 8a 31 3d
       0.18514122 -0.17829031 0.1790681 0.04334477
000330 34 19 08 3e 26 7b a0 3d 71 84 75 3c 48 6e ab bd
       0.13290864 0.07835989 0.01498519 -0.08370644
000340 cb 4a 3f be 51 e4 4f 3d cb 6f 0c 3e c6 a2 3b bd
       -0.18680875 0.05075485 0.1371452 -0.04580953
000350 66 6f 05 be 7e 5f 1b bd e3 55 bb bb 26 35 b2 bd
       -0.13030776 -0.037932865 -0.0057170256 -0.087015435
000360 3f 46 1d 3e d2 93 64 bc 07 c0 6c 3d 52 e3 b3 bd
       0.15358828 -0.013951259 0.05780032 -0.08783592
000370 2a 65 82 3d 85 4f bc bd ec 8d 21 3e 8d 14 a8 3d
       0.06366952 -0.09194855 0.15776795 0.08207045
000380 65 fc 4d 3d f2 d7 23 3e 3a bb 19 3d 94 b7 2f be
       0.05028953 0.16000345 0.03753207 -0.17159873
000390 43 53 c8 3d b2 49 52 3e 32 b8 26 be 4e a1 39 bc
       0.09781506 0.20535925 -0.16281202 -0.011329962
0003a0 a6 b3 19 3d 47 57 ad bd fc c5 47 be 48 35 9a bd
       0.03752484 -0.084639125 -0.19509119 -0.07529694
0003b0 dd 93 3e be 7a f7 32 bd b2 c3 2a 3e 34 8a c3 3d
       -0.18611093 -0.043693043 0.16676214 0.095478445
0003c0 e2 66 2f be 46 eb 09 3e a2 97 b2 bd f5 3b ad bd
       -0.1712909 0.13468656 -0.08720328 -0.084587015
0003d0 4a 23 89 bd d7 b2 d3 bc 05 3f 52 3e 74 df 50 be
       -0.06696184 -0.025842113 0.20531853 -0.2039774
0003e0 5b 20 ca 3d de 5c 2c 3e cc 7c 41 be 8e df 2d 3e
       0.098694526 0.16832301 -0.18895262 0.1697981
0003f0 0f 9d b2 3d 5f a8 0f 3e a5 e2 13 3e 21 47 12 3d
       0.08721363 0.14029072 0.14441927 0.035712365

encoder_b.convs.1.bias f4 [64]
000000 00 00 00 00 00 00 00 00 00 00 00 00 00 00 00 00
       0.0 0.0 0.0 0.0
000010 00 00 00 00 00 00 00 00 00 00 00 00 00 00 00 00
       0.0 0.0 0.0 0.0
000020 00 00 00 00 00 00 00 00 00 00 00 00 00 00 00 00
       0.0 0.0 0.0 0.0
000030 00 00 00 00 00 00 00 00 00 00 00 00 00 00 00 00
       0.0 0.0 0.0 0.0
000040 00 00 00 00 00 00 00 00 00 00 00 00 00 00 00 00
       0.0 0.0 0.0 0.0
000050 00 00 00 00 00 00 00 00 00 00 00 00 00 00 00 00
       0.0 0.0 0.0 0.0
000060 00 00 00 00 00 00 00 00 00 00 00 00 00 00 00 00
       0.0 0.0 0.0 0.0
000070 00 00 00 00 00 00 00 00 00 00 00 00 00 00 00 00
       0.0 0.0 0.0 0.0
000080 00 00 00 00 00 00 00 00 00 00 00 00 00 00 00 00
       0.0 0.0 0.0 0.0
000090 00 00 00 00 00 00 00 00 00 00 00 00 00 00 00 00
       0.0 0.0 0.0 0.0
0000a0 00 00 00 00 00 00 00 00 00 00 00 00 00 00 00 00
       0.0 0.0 0.0 0.0
0000b0 00 00 00 00 00 00 00 00 00 00 00 00 00 00 00 00
       0.0 0.0 0.0 0.0
0000c0 00 00 00 00 00 00 00 00 00 00 00 00 00 00 00 00
       0.0 0.0 0.0 0.0
0000d0 00 00 00 00 00 00 00 00 00 00 00 00 00 00 00 00
       0.0 0.0 0.0 0.0
0000e0 00 00 00 00 00 00 00 00 00 00 00 00 00 00 00 00
       0.0 0.0 0.0 0.0
0000f0 00 00 00 00 00 00 00 00 00 00 00 00 00 00 00 00
       0.0 0.0 0.0 0.0
