results/ABIDE_3x5fold_seed0/fold4_rep2_seed2004/ckpt_best_fold_4.pt (torch, 660363 bytes, 72 tensors)

encoder_c.convs.0.weight f4 [116, 64]
0	0x3c653b51	0.013991193
1	0xbe263d15	-0.16234238
2	0x3e27b798	0.16378629
3	0x3d5d3376	0.054004155
4	0xbcd39774	-0.025829054
5	0xbd2ae7cc	-0.041724965
6	0xbd537be2	-0.051631816
7	0x3db51a64	0.08842924
8	0xbdd177da	-0.10227938
9	0xbd61f2b4	-0.0551631
10	0x3dcc21b0	0.09967363
11	0x3dc89049	0.09793145
12	0x1e818308	1.37126e-20
13	0xbb8571c2	-0.004072399
14	0x3de669a0	0.11250615
15	0xbdaedf3f	-0.085386746
16	0xbde55388	-0.11197573
17	0xbdde60bc	-0.10858294
18	0xbd7a54dd	-0.06111609
19	0x3c4d0279	0.012512797
20	0xbdc38e08	-0.09548575
21	0x3d099949	0.03359345
22	0xbd2c2de4	-0.042035952
23	0xbda50b8c	-0.08058843
24	0xbdef5f69	-0.1168812
25	0x3de11dea	0.10992034
26	0x3e0c928e	0.13727781
27	0xbd762e91	-0.060103003
28	0xbd760655	-0.060064632
29	0x3e04434a	0.12916294
30	0xbd6eed72	-0.058331914
31	0xbccad385	-0.024759063
32	0x3db53b24	0.08849171
33	0x3dfec10d	0.12439165
34	0xbdeb6a4c	-0.11494884
35	0xbdf0fb2d	-0.11766658
36	0xbceb62ee	-0.028733697
37	0xbd45fb10	-0.048335135
38	0xbe1073a1	-0.14106609
39	0xbd0ffa45	-0.035150785
40	0x3d037164	0.03209056
41	0xbd6d5a28	-0.057947308
42	0xbda1cc81	-0.07900334
43	0xbdcba4c5	-0.09943537
44	0xbdd9aafe	-0.10628317
45	0xbd4af09a	-0.04954586
46	0x3ce80e30	0.028327078
47	0xbdc4ac22	-0.09603144
48	0x3d919953	0.071093224
49	0xbdc47c1f	-0.09593987
50	0xbda9acb0	-0.08284891
51	0xbd37507a	-0.044754483
52	0x3d389e45	0.045072813
53	0x3de3f8fc	0.111314744
54	0x3ba2ae97	0.0049646604
55	0x3ae4f93b	0.0017469296
56	0x3e191081	0.14947702
57	0x3dac05c7	0.083995394
58	0x3c465aae	0.012106581
59	0x3bb6fce9	0.0055843485
60	0xbe13ccae	-0.14433548
61	0x3e19f21a	0.1503376
62	0xbd180bdf	-0.037120696
63	0x3d488180	0.048951626
64	0xbc43acac	-0.011943024
65	0x3e27c330	0.16383052
66	0xbdb2dc11	-0.087333806
67	0xbdabf3c8	-0.08396107
68	0xbdf524a5	-0.1196988
69	0xbd26c07d	-0.040710915
70	0xbdb45726	-0.08805685
71	0x3d938697	0.07203405
72	0xbd567222	-0.05235494
73	0x3db9ebd9	0.090781875
74	0xbdee2c91	-0.11629594
75	0x394f137a	0.00019748314
76	0x12bdfb69	1.1989554e-27
77	0xba8f2a42	-0.0010922628
78	0xbd473bd4	-0.04864104
79	0xbe1ade22	-0.151238
80	0xbd7a9202	-0.0611744
81	0xbdaeac55	-0.085289635
82	0x3dab072f	0.083509795
83	0x3cb15550	0.021647125
84	0x3d823701	0.063581474
85	0xbd3aac27	-0.045574334
86	0xbcc49ca6	-0.024000477
87	0xbdd25abf	-0.10271215
88	0x3dc99523	0.09842899
89	0xbdf031ce	-0.117282495
90	0xbe187860	-0.1488967
91	0x3c78256d	0.015145642
92	0xbdd9241e	-0.10602592
93	0x3dcb462a	0.09925492
94	0xbd5d26b3	-0.053991985
95	0xbe08fd12	-0.13377789
96	0xbd9087ad	-0.07057128
97	0x3d92854c	0.071543306
98	0x3ccc8425	0.024965355
99	0xbe0dd117	-0.13849293
100	0xbd90121a	-0.070347026
101	0x3ccb505d	0.024818594
102	0xbdc66a5d	-0.09688256
103	0x3e33ca5c	0.17557663
104	0x3d4c2385	0.04983856
105	0xbc2b00c9	-0.010437199
106	0xbd1ff503	-0.03905202
107	0x3e01ef0b	0.12688844
108	0xbdc8d7ec	-0.09806809
109	0xbd1488d2	-0.036263295
110	0x3d4408dc	0.04786001
111	0xbcd1cdc2	-0.025610808
112	0x3bc7e021	0.0060997163
113	0x3df11912	0.1177236
114	0x3d23bf12	0.03997714
115	0x3c862d63	0.016379064
116	0x3ddff29d	0.10934947
117	0x3dd8d976	0.105883524
118	0xbdad6430	-0.08466375
119	0xbdfa3346	-0.12216811
120	0xbcfcbe00	-0.030852318
121	0x3dbcdaba	0.09221406
122	0x3d19418a	0.03741602
123	0xbdc8593c	-0.09782645
124	0xbdfc426c	-0.123173565
125	0xbcd3940d	-0.025827432
126	0xbd519f70	-0.051177442
127	0xbe0b5d64	-0.13609844
128	0x3c729cfa	0.014807934
129	0xbd39b867	-0.045341875
130	0x3d863768	0.06553537
131	0xbd8fb24c	-0.07016429
132	0xbe057540	-0.13033009
133	0x3e1da2e4	0.15394169
134	0x3cba28d8	0.022724554
135	0x3e17d1aa	0.14826074
136	0xbe0e911f	-0.13922547
137	0xbe13d704	-0.1443749
138	0x3d917a80	0.07103443
139	0xbdf1d69f	-0.11808514
140	0x21d9583d	1.4727848e-18
141	0x3b9f6cd9	0.0048652706
142	0xbdecb8fb	-0.1155872
143	0x3d8ed6e3	0.0697458
144	0xbc95dc91	-0.01829365
145	0x3e1d7a2a	0.15378633
146	0xbdfba360	-0.12287021
147	0xbd129a56	-0.035791717
148	0x3c12984c	0.008947443
149	0x3dcfa84b	0.10139521
150	0xbdfc6b6f	-0.12325179
151	0xbd57a279	-0.05264518
152	0x3e0200bd	0.12695594
153	0xbd444bd3	-0.047923874
154	0x3c921741	0.017833354
155	0xbe20afc3	-0.15692048
156	0x3d91f31a	0.07126446
157	0xbd029d8a	-0.031888522
158	0x3d9dc765	0.07704047
159	0xbd766a3f	-0.060159918
160	0x3d791471	0.06081051
161	0x3c098ae9	0.008394935
162	0x3dc1e3a8	0.0946725
163	0x3dfb87bd	0.122817494
164	0xbb770d2c	-0.003769706
165	0x3d48fbae	0.049068145
166	0xbd8ceb84	-0.068808585
167	0xbd4f2ef1	-0.050581876
168	0xbe0e416e	-0.13892147
169	0xbc80fc67	-0.015745355
170	0x3d294a36	0.04133054
171	0x3e11b909	0.14230742
172	0x3c1b6430	0.009484336
173	0xbd44ec12	-0.048076697
174	0x3d8f8669	0.070080586
175	0x3d3560f4	0.044281915
176	0xbce2d6eb	-0.027690371
177	0x3dfd6a70	0.12373817
178	0x3e09857f	0.13429831
179	0x3d7ab42e	0.06120699
180	0xbccc62e1	-0.024949493
181	0xbc369b93	-0.01114549
182	0xbd7ae1fa	-0.061250664
183	0xbe1c7454	-0.1527875
184	0xbdf64c87	-0.12026315
185	0xbd2a54e7	-0.041584875
186	0xbd53b0cb	-0.051682275
187	0x3ce145ae	0.027499046
188	0x3da3337d	0.07968805
189	0xbe26638f	-0.16248916
190	0xbafdd3dd	-0.0019365508
191	0xbcbea9dd	-0.023274356
192	0xbdce22fd	-0.10065267
193	0xbe284f0d	-0.16436405
194	0x3d9d7189	0.07687671
195	0xbdffbca8	-0.12487155
196	0xbbcadbee	-0.0061907684
197	0xbcceef8c	-0.02526071
198	0xbc80c7f0	-0.015720338
199	0x3e0cae6b	0.1373841
200	0x3da8b244	0.082371265
201	0x3df79193	0.12088313
202	0x3d32de49	0.04366902
203	0x3dc2da0f	0.095142476
204	0x9db76c79	-4.8551855e-21
205	0xba092876	-0.00052321644
206	0xbe0f2e4e	-0.13982508
207	0x3e220a25	0.15824182
208	0x3e105bd7	0.14097534
209	0xbdeb83f6	-0.11499779
210	0x3babc945	0.005242499
211	0xba95c185	-0.0011425471
212	0x3dabdab7	0.08391326
213	0x3d759b8e	0.0599628
214	0xbe13b27c	-0.14423555
215	0xbd276280	-0.04086542
216	0x3d83997a	0.06425758
217	0xbde0680a	-0.10957344
218	0xbc8fbbd8	-0.017545626
219	0x3d67c5be	0.056585066
220	0x3dda5a26	0.10661726
221	0xbdef8a6d	-0.116963245
222	0x3c31c04e	0.010849072
223	0xbddeabaa	-0.10872586
224	0x3e0f9339	0.14021005
225	0x3ded8414	0.115974575
226	0x3df81b64	0.12114599
227	0xbdfba624	-0.12287548
228	0x3b97101b	0.004610074
229	0xbde6e5af	-0.112742774
230	0x3d15de41	0.03658891
231	0x3d1621ce	0.036653332
232	0xbd5e5f94	-0.05429037
233	0xbd9801ba	-0.07422204
234	0x3da50c1a	0.08058949
235	0xbd7f17d3	-0.06227858
236	0x3c3244df	0.010880678
237	0x3e3447f0	0.17605567
238	0xbd847bfd	-0.064689614
239	0xbdd1a1e3	-0.102359556
240	0xbdeb0028	-0.11474639
241	0x3c32b00b	0.01090623
242	0x3c60e403	0.013726237
243	0xbd4c13b6	-0.049823485
244	0xbd7960bd	-0.060883272
245	0x3d7dcdcb	0.061963838
246	0xbd9932b1	-0.07480372
247	0xbe10ab14	-0.14127761
248	0x3cea2af3	0.028584933
249	0xbd1f8c4c	-0.038952157
250	0xbd1a50a7	-0.037674572
251	0x3de09a3b	0.10966917
252	0x3d77250f	0.060338076
253	0x3ca95a52	0.02067295
254	0x3ce0b8ce	0.027431872
255	0x3d447463	0.047962558

encoder_c.convs.0.bias f4 [64]
0	0x3cefbcf2	0.0292649
1	0x3a13fee4	0.00056455866
2	0x3bbcdc55	0.0057635703
3	0xb9a4935b	-0.00031390306
4	0x3a91b632	0.001111692
5	0x3c09173c	0.008367356
6	0x3c0c2605	0.008553986
7	0x3c6ad52b	0.01433305
8	0xbc160183	-0.009155634
9	0xbb84a4f1	-0.004047983
10	0x3c443120	0.011974603
11	0xbbda7b7f	-0.006667554
12	0xbcbfe323	-0.023423737
13	0x3b8b90b6	0.0042591942
14	0xbc86d2ae	-0.016457882
15	0xb905c2cd	-0.00012756437
16	0xbb43c617	-0.002987271
17	0x3c7a6cf0	0.015284762
18	0x3b124519	0.0022319017
19	0xbb15fac3	-0.0022885061
20	0x3c88631c	0.016648822
21	0xbbaf76a0	-0.0053547174
22	0x3ccbb8d5	0.024868408
23	0x3c39b958	0.011335693
24	0x3ad51eab	0.001625975
25	0xbce15973	-0.027508473
26	0x3b0b26c1	0.0021232816
27	0x3c819bf5	0.015821436
28	0x3b15b52c	0.0022843583
29	0x3c5ff2df	0.013668745
30	0xbbe5a3c8	-0.0070080496
31	0x3c59ac09	0.013285645
32	0xbc33bbe9	-0.010970094
33	0x3bb2f873	0.0054617464
34	0x3bd9b558	0.0066439323
35	0x3c2ed869	0.010671713
36	0x3c3b732a	0.0114410315
37	0x3c5105ab	0.012757699
38	0x3b9f7892	0.004866668
39	0x3c5c8d1d	0.013461378
40	0xbabcdca2	-0.0014409015
41	0x3c8dcb2f	0.0173088
42	0x3c10e097	0.008842609
43	0x3c17a3d0	0.009255365
44	0x3c223ffb	0.009902949
45	0xbbd1ee84	-0.006406607
46	0xbae62fb2	-0.0017561822
47	0xbc734c0e	-0.014849676
48	0x3c4c5a0d	0.012472642
49	0x3b9e0b81	0.0048231487
50	0x3c5444d6	0.012955865
51	0xbc36cddc	-0.011157479
52	0x3c1832f0	0.009289488
53	0xbc8f43ab	-0.017488321
54	0xba33e9d3	-0.00068631506
55	0x3c2c0773	0.010499823
56	0xbb4e8f4f	-0.0031518524
57	0xbc132ad0	-0.008982375
58	0x3d225f40	0.03964162
59	0x3bb09326	0.005388635
60	0xbba67c53	-0.0050807386
61	0x3ca1255f	0.01967114
62	0x3b9ade85	0.0047262334
63	0x3c8d3d2d	0.017241085

encoder_c.convs.1.weight f4 [64, 64]
0	0x3d889fdc	0.06671116
1	0xbb6214a6	-0.003449717
2	0xbda77af0	-0.08177745
3	0xbd69512d	-0.05696218
4	0x3d0b06d7	0.03394207
5	0x3d8ea1c4	0.06964448
6	0xbd7f00e3	-0.062256705
7	0xbc283ddd	-0.010268656
8	0x3ddf8798	0.10914534
9	0x38f5ab66	0.00011714436
10	0x3d3efdc0	0.046628714
11	0x3c5100cb	0.012756537
12	0xb92326de	-0.0001555937
13	0xbcf96677	-0.030444367
14	0xa0e4041b	-3.862742e-19
15	0x3d64ebe2	0.055889018
16	0x3aa5dbc9	0.0012654002
17	0xbc8c5045	-0.01712812
18	0x3c1e0cc9	0.009646603
19	0xbc3d9f72	-0.011573659
20	0x3d5965f9	0.053075764
21	0xbd2767ba	-0.040870406
22	0x3d8b2f0d	0.067960836
23	0x3d307b79	0.043086503
24	0xbb361b8c	-0.0027787415
25	0x3c98d611	0.018656762
26	0xbdbd3fde	-0.09240697
27	0x3d0d75ce	0.034536175
28	0x3d8306ad	0.06397758
29	0x3e039eb6	0.12853512
30	0xbd78cb0b	-0.060740512
31	0x3d8571f4	0.065158755
32	0x3d39bed5	0.045348007
33	0xbcae3914	-0.021267451
34	0x3ddd1f56	0.107969925
35	0xbc5adc8a	-0.013358245
36	0x3d515d7b	0.05111454
37	0x3d06ee56	0.03294214
38	0xbc81ca72	-0.015843604
39	0x3d11a991	0.0355621
40	0x3d674598	0.056462854
41	0xbd95ddc2	-0.073176876
42	0x3c1ef015	0.009700795
43	0xb9fef6b3	-0.0004863046
44	0x3b89672c	0.0041932072
45	0x3e32accd	0.17448731
46	0x3b097664	0.0020975107
47	0xbd308e0f	-0.043104228
48	0x3e1ef775	0.15524085
49	0xbdfb67ed	-0.12275682
50	0x3d833436	0.06406443
51	0x3d3e7f67	0.04650822
52	0xb8e9f96e	-0.00011156766
53	0xbe2f40f5	-0.17114623
54	0x3c0ded42	0.008662524
55	0x3d022696	0.03177508
56	0xbd750c9f	-0.05982649
57	0xbcc4c6b9	-0.02402054
58	0xbd615e45	-0.055021543
59	0x3d9cbe07	0.07653432
60	0xa95b7a0c	-4.8733627e-14
61	0xb752b487	-1.2559008e-05
62	0xbdcf5458	-0.10123509
63	0x3d13ddfa	0.036100365
64	0xbd7ecd85	-0.062207717
65	0xbc9c25d5	-0.019061008
66	0xbdd6764d	-0.10471783
67	0xbdbad022	-0.091217294
68	0xbdeb693f	-0.114946835
69	0xbc886806	-0.016651165
70	0x3ab002f4	0.0013428614
71	0xbdc271bd	-0.0949435
72	0x3e09b5a6	0.134482
73	0x3ba7ab10	0.005116828
74	0xbda1c2da	-0.07898493
75	0x3cd9a0e6	0.02656598
76	0xbb62c344	-0.003460125
77	0xbc6ab33e	-0.014324961
78	0x214e84f2	6.9971467e-19
79	0xbd596029	-0.05307022
80	0xbabc24c4	-0.0014354219
81	0xbd063f06	-0.032774948
82	0x3d4aca66	0.04950943
83	0xbd5c0e8d	-0.053724814
84	0xbd414668	-0.047186285
85	0xbe181ae0	-0.14854002
86	0xbd274823	-0.04084028
87	0x3c6a34cb	0.014294813
88	0x3d911102	0.07083322
89	0x3ca9dd05	0.020735273
90	0xbca6cde8	-0.020361856
91	0x3e1e1425	0.15437372
92	0x3de24d6b	0.110499226
93	0x3e239c5b	0.15977614
94	0x3e3bd024	0.18341118
95	0x3c5990c1	0.013279141
96	0x3dc48127	0.09594946
97	0x3cc80cdb	0.024420192
98	0xbd10ae96	-0.035322748
99	0xbc6395ba	-0.013890678
100	0x3cbeebfe	0.02330589
101	0xbdddc915	-0.10829369
102	0xbd4f5a05	-0.05062296
103	0xbd9b708d	-0.07589827
104	0x3b1bc79b	0.0023770097
105	0xbc71168e	-0.01471485
106	0x3dbf4139	0.09338612
107	0x3b8b7619	0.0042560217
108	0xbb0d333f	-0.0021545438
109	0x3d4fed54	0.050763443
110	0xbdac2965	-0.08406333
111	0xbb87c8e7	-0.0041438225
112	0xbca8943b	-0.020578494
113	0xbdceab11	-0.10091222
114	0x3e32888d	0.17434902
115	0xbd5d3362	-0.05400408
116	0xb8ff2d0e	-0.000121677396
117	0xbc7e6dfb	-0.015529151
118	0x3d899219	0.06717319
119	0x3dc9bf47	0.098509364
120	0xbdae270a	-0.0850354
121	0x3da8cd68	0.08242303
122	0x3e47b53b	0.19502728
123	0x3e353005	0.17694099
124	0xb5f854d1	-1.8502125e-06
125	0x39004ed1	0.00012236393
126	0xbdd5f17d	-0.10446451
127	0xbe2114b0	-0.15730548
128	0xbd13cfd9	-0.03608689
129	0x3c878490	0.016542703
130	0xbe24aee6	-0.16082343
131	0x3d8d60c5	0.06903223
132	0x3e379af6	0.17930207
133	0xbe0ee8af	-0.13955949
134	0x3b844d54	0.0040375385
135	0xbc74716d	-0.014919621
136	0xbdc79070	-0.09744346
137	0xbb1ed127	-0.0024233551
138	0x3dcee4b3	0.10102215
139	0xbbfb57fd	-0.007670401
140	0xbc87a710	-0.016559154
141	0x3da6c922	0.08143832
142	0x21989281	1.03387e-18
143	0x3d146109	0.036225352
144	0x3b819320	0.0039543062
145	0x3e050cdf	0.12993191
146	0x3d1f167e	0.03883981
147	0xbbccda84	-0.006251635
148	0x3d985373	0.07437792
149	0xbe05383b	-0.13009731
150	0x3d6628ab	0.056191128
151	0x3df034b7	0.117288046
152	0xbdbaec7a	-0.091271356
153	0xbd4b790d	-0.04967599
154	0x3e432a46	0.19059095
155	0xbc870b67	-0.01648493
156	0xbd1eb7c6	-0.03874948
157	0x3e40b82f	0.1882026
158	0xbdfca8be	-0.123368725
159	0xbd3ab985	-0.04558708
160	0xbcc4a8ee	-0.024006333
161	0x3cefa594	0.029253758
162	0x3d0c24e1	0.034214858
163	0x3d2cdaa1	0.04220069
164	0x3e378922	0.17923406
165	0x3e153ed1	0.14574744
166	0x3a8073ac	0.0009800098
167	0x3dae5b29	0.08513481
168	0x3d985253	0.07437577
169	0xbe3861c2	-0.18006042
170	0xbe1eb044	-0.15496927
171	0xbb755bcc	-0.0037438748
172	0xbd3a7ddf	-0.045530196
173	0x3df35ab9	0.11882538
174	0x3bf0f1ac	0.0073530283
175	0x3a92ac62	0.001119029
176	0xbe120dcc	-0.14263076
177	0xbdc5080d	-0.09620676
178	0x3dfc428e	0.12317382
179	0x3c152761	0.009103627
180	0xba728849	-0.00092518755
181	0x3d9196de	0.07108854
182	0x3bef9e23	0.0073125525
183	0xbd15ff1a	-0.036620237
184	0x3e25a9d1	0.16178061
185	0xbd6e2054	-0.0581363
186	0x3e1ac95c	0.15115875
187	0x3e4177f1	0.1889341
188	0xba95bed3	-0.0011424668
189	0xba336c7a	-0.00068444724
190	0x3e093970	0.13400817
191	0x3e1c93ac	0.15290707
192	0x3da12fc8	0.07870442
193	0x3dddd12a	0.108309105
194	0xbd315d05	-0.0433016
195	0xbe015700	-0.12630844
196	0x3e4c106a	0.19928136
197	0x3c929089	0.017891185
198	0x3e1d596e	0.15366146
199	0xbd860308	-0.06543547
200	0xbd42b9a9	-0.04754034
201	0xbab6b12e	-0.0013938302
202	0xbdfee288	-0.12445551
203	0x3e239aec	0.15977067
204	0xbbacc6dd	-0.00527273
205	0x3dc490e9	0.09597952
206	0x2095240e	2.526544e-19
207	0xbe22719a	-0.15863648
208	0xbc5ced0c	-0.013484251
209	0x3dd77339	0.10520024
210	0x3e0c9634	0.13729173
211	0xbd919a3c	-0.07109496
212	0x3e24b895	0.16086037
213	0x3db3bac1	0.08775855
214	0x3da8e089	0.08245952
215	0x3cfad951	0.030621203
216	0xbda78bb2	-0.08180942
217	0x3e27b5b4	0.16377908
218	0xbe149e5f	-0.14513539
219	0x3bdaa060	0.00667195
220	0x3dca0b9f	0.09865498
221	0x3d6c4bbb	0.05768941
222	0x3da8072b	0.08204492
223	0x3dc28a02	0.09498979
224	0x3d2ee1a5	0.04269566
225	0x3c6c5037	0.014423422
226	0xbdd75265	-0.105137624
227	0xbe070f9f	-0.13189553
228	0x3e0b76ed	0.13619585
229	0x3c004c88	0.0078307465
230	0xbc8550e1	-0.016273918
231	0xbe3c6dce	-0.18401262
232	0x3de9a311	0.114080556
233	0x3e3fd162	0.18732217
234	0x3e1b094c	0.15140265
235	0xbadde0bf	-0.0016927941
236	0xbd990b4b	-0.07472857
237	0xbd6a50fc	-0.05720614
238	0x3d37e096	0.044891916
239	0x3d53a65d	0.05167233
240	0xbde68ff4	-0.11257926
241	0xbda004b8	-0.078134
242	0x3dd4c866	0.103897855
243	0xbdc6f93a	-0.09715505
244	0xbaff6a88	-0.0019486705
245	0x3dbc80cf	0.09204256
246	0xbe0780ba	-0.13232699
247	0xbe1f1028	-0.15533507
248	0xbe22ca8e	-0.15897581
249	0xbd9fc04e	-0.07800351
250	0x3e1839be	0.14865777
251	0x3d448b5b	0.047984462
252	0xbc50a06e	-0.012733562
253	0xbc9e0e5e	-0.01929396
254	0x3df2ae39	0.118496366
255	0x3e3f1aac	0.18662518

encoder_c.convs.1.bias f4 [64]
0	0x3bbfff7b	0.005859313
1	0x3b84a7fe	0.0040483465
2	0x3c89c7fc	0.016818993
3	0x39f201da	0.00046159216
4	0x3c9df49f	0.019281683
5	0x3ba565de	0.005047544
6	0x3cafc0c2	0.021454219
7	0xbc0c7a93	-0.008574146
8	0x3b1b5da9	0.002370695
9	0x3c5b2afc	0.0133769475
10	0x3c2f2dc9	0.010692068
11	0xbc33098a	-0.010927567
12	0xbca594a3	-0.020212477
13	0xbb0a4a85	-0.0021101546
14	0xbab73660	-0.0013977997
15	0x3caaded8	0.020858213
16	0xbbb26fe6	-0.0054454682
17	0xbc21fa04	-0.0098862685
18	0x3895220b	7.111215e-05
19	0xbb83435c	-0.0040058326
20	0xbb8a8de1	-0.004228339
21	0x3aa7ded0	0.0012807492
22	0x3cd7a905	0.026325712
23	0x3cf4c490	0.029878885
24	0xbc7cb4bd	-0.015423951
25	0xbb952285	-0.004551234
26	0x3b242d2f	0.0025051346
27	0x3c5e710f	0.01357676
28	0x3bc2a868	0.0059404857
29	0x3c818ae3	0.015813297
30	0xbb1b618d	-0.0023709268
31	0x3ba9dacd	0.005183554
32	0x3d00312e	0.0312969
33	0xbb863cb7	-0.0040965932
34	0x3c590fc1	0.013248385
35	0xbca85a2c	-0.02055081
36	0x3c8adf54	0.016952194
37	0x3baa3f9a	0.00519557
38	0xbc045224	-0.0080762245
39	0xba992575	-0.0011684137
40	0x3c6d1f60	0.014472812
41	0x3b4a2181	0.0030842724
42	0xbc36857b	-0.011140223
43	0x3be21fa8	0.0069007464
44	0xbc561530	-0.013066575
45	0x3c90cc0b	0.01767542
46	0x3c3768d1	0.011194424
47	0x3c4a49ce	0.012346698
48	0x3c8b1208	0.016976371
49	0x3b67b944	0.003535823
50	0x3c4b7011	0.012416855
51	0x3c30e8bc	0.010797676
52	0x3be984c2	0.0071264217
53	0xbb541f8b	-0.0032367434
54	0x3c49112b	0.01227216
55	0x3cb9fe2b	0.022704205
56	0x3b56dc0e	0.0032784971
57	0xbb01af61	-0.0019788372
58	0xbb6b71ac	-0.0035925908
59	0x3c34f5fb	0.011044974
60	0xbd142816	-0.03617104
61	0x3a7a308f	0.0009543979
62	0xb9026a22	-0.00012437304
63	0x3c481cb6	0.0122138765

encoder_c.convs.2.weight f4 [64, 64]
0	0x3e09aacd	0.13444062
1	0xbd5709f8	-0.05249974
2	0x3dd5d9c0	0.10441923
3	0xbe302528	-0.17201674
4	0x3d0a99a1	0.03383792
5	0xbd8428b0	-0.06453073
6	0xbdfe5f1b	-0.12420484
7	0x3dd44baf	0.10365998
8	0xbe2e09db	-0.16995947
9	0xbd8f42ce	-0.06995164
10	0xbe17eed5	-0.14837201
11	0x3e3f3b25	0.18674906
12	0x3e4a6a37	0.1976708
13	0xbcf23590	-0.029566556
14	0x3dee9511	0.11649526
15	0xbe1922f2	-0.14954737
16	0x38f771a1	0.00011799043
17	0x3db156f6	0.086591646
18	0x3e42e8a7	0.19034062
19	0x3e21122e	0.15729591
20	0x3e14d010	0.14532495
21	0xbd372952	-0.04471714
22	0xbdeaf237	-0.1147198
23	0xbbc88f32	-0.006120586
24	0x3d74a2c9	0.059725557
25	0xbdb0061c	-0.08594915
26	0xbe167ff3	-0.14697246
27	0x3de4116e	0.11136137
28	0x3d680781	0.05664778
29	0xbe3966d4	-0.18105632
30	0x3e170245	0.1474696
31	0xbc590f2c	-0.013248246
32	0xbdda1bcf	-0.10649835
33	0xbe4e83aa	-0.20167413
34	0xbe01f588	-0.12691319
35	0xbe268578	-0.16261852
36	0x3c53a2a4	0.0129171945
37	0x3e027a35	0.12741931
38	0xbcc25c01	-0.023725512
39	0xbde0844b	-0.10962733
40	0x3e2800ad	0.16406508
41	0x3dbd1e0b	0.09234246
42	0x3cef1b51	0.02918783
43	0xbdfee9eb	-0.1244696
44	0xbdb8afb9	-0.090178914
45	0xbcd33221	-0.02578074
46	0xbc6bd8a8	-0.014394917
47	0x3b442172	0.0029927162
48	0x3e404293	0.18775396
49	0xbdc66e06	-0.09688954
50	0xbde8ebaa	-0.11373074
51	0xbe3d47af	-0.18484376
52	0xbb43cb16	-0.0029875687
53	0xbd856256	-0.06512897
54	0x3d6ae061	0.05734289
55	0x3db3989d	0.08769343
56	0x3e2f4395	0.17115624
57	0x3b73bc12	0.0037190956
58	0x3d67d07f	0.05659532
59	0x3e1166ec	0.14199418
60	0xbe27b575	-0.16377814
61	0xbdc4c4a7	-0.09607821
62	0xbc24a55e	-0.010049192
63	0x3d78639b	0.060641866
64	0x3cf2a797	0.029620929
65	0x3e32e11f	0.1746869
66	0xbc9b1fbf	-0.018936036
67	0x3e11bbba	0.14231768
68	0xbd9f8d70	-0.07790649
69	0xbe1cbe01	-0.15306856
70	0xbd612b85	-0.054973144
71	0x3e11f607	0.14254008
72	0x3c67fa87	0.0141588515
73	0x3d6e6e0c	0.058210418
74	0x3df13b20	0.11778855
75	0xbcc3e26d	-0.02391168
76	0xbe4f9355	-0.20271046
77	0xbd949864	-0.07255629
78	0xbc974a1e	-0.018467959
79	0xbdbafd3f	-0.09130334
80	0x3e251695	0.16121896
81	0xbd596fb1	-0.053085033
82	0x3e387a26	0.18015346
83	0xbe1e9479	-0.15486325
84	0xbdde76e5	-0.10862521
85	0xbe166131	-0.14685513
86	0x3cd126c6	0.025531184
87	0x3b1cc93b	0.0023923654
88	0xbc76e8c8	-0.015070148
89	0x3e37e794	0.17959434
90	0xbc1e2048	-0.009651251
91	0xbda3fd91	-0.08007348
92	0x3c9ebdbb	0.01937758
93	0x3c617bfb	0.013762469
94	0x3d9bde5c	0.07610771
95	0x3df1f022	0.1181338
96	0xbdad7452	-0.08469452
97	0x3d86a9ca	0.065753534
98	0x3e233f9a	0.15942231
99	0xbe0c7d47	-0.13719665
100	0xbd44df98	-0.048064798
101	0x3dacb697	0.08433264
102	0xbe493a91	-0.19651248
103	0xbd874e0c	-0.06606683
104	0x3e55c70d	0.20876713
105	0xbcbbec9d	-0.022939974
106	0xbdd5ce8e	-0.10439788
107	0xbd408de1	-0.047010306
108	0x3e327ab6	0.17429623
109	0xbce88d21	-0.028387608
110	0x3dacd999	0.08439941
111	0xbe16e575	-0.14735968
112	0xbe090ae8	-0.13383067
113	0xbe3fcca2	-0.18730405
114	0x3dfb7666	0.12278442
115	0xbc934098	-0.017975137
116	0x3dc87117	0.09787195
117	0x3e4f009b	0.20215075
118	0x3df7f9ff	0.1210823
119	0x3e363080	0.17791939
120	0x3e212d10	0.15739846
121	0xbdbd10a3	-0.09231689
122	0xbe2f90a4	-0.1714502
123	0x3e499f4b	0.19689672
124	0xbcafe4b4	-0.021471359
125	0xbd3cce82	-0.04609538
126	0xbd912e98	-0.07088965
127	0x3dfd8085	0.12378029
128	0xbdc3cfca	-0.09561117
129	0xbdbb1d6a	-0.0913647
130	0x3df791a8	0.120883286
131	0x3e54b7d0	0.20773244
132	0xbd324d23	-0.043530595
133	0xbd35172c	-0.04421155
134	0x3d1e8f98	0.03871116
135	0x3de4e9b4	0.11177388
136	0xbd8f57c1	-0.069991596
137	0xbd6d0cea	-0.057873644
138	0xbaf812d6	-0.0018926512
139	0xbe250525	-0.16115244
140	0xbe0db258	-0.13837564
141	0xbd285554	-0.041097
142	0xbcf9d71e	-0.030498084
143	0xbe2ee711	-0.17080332
144	0xbe035e84	-0.12829024
145	0xbe3429af	-0.17594026
146	0xbe45ad46	-0.1930438
147	0x3d69f52a	0.057118572
148	0xbda3cfe9	-0.0799864
149	0x3d846e00	0.06466293
150	0x3c7ed34e	0.015553309
151	0xbd6c07ff	-0.057624813
152	0xbd8de12a	-0.06927712
153	0x3dcdde42	0.10052158
154	0xbe400836	-0.18753132
155	0x3ab3adbd	0.0013708394
156	0x3e343cce	0.1760132
157	0x3e22c0b0	0.15893817
158	0xbd3188e8	-0.043343455
159	0x3cd3eee7	0.025870753
160	0x3d84aec1	0.06478644
161	0xbdfeb4fc	-0.12436864
162	0xbe5b3a4e	-0.2140896
163	0xbccba2a0	-0.02485782
164	0xbe37da4f	-0.17954372
165	0xbd1b3e30	-0.037901103
166	0xbdcc5da6	-0.099787995
167	0x3bde9931	0.006793164
168	0x3e18b9da	0.14914647
169	0xbd4a60f9	-0.049408887
170	0x3d8f5ce9	0.07000143
171	0xbd85c96d	-0.065325595
172	0xbdaba8ec	-0.08381829
173	0x3dc378ee	0.0954455
174	0x3993d788	0.00028198608
175	0x3d99a5b9	0.07502312
176	0xbcb4c07b	-0.022064438
177	0x3de06630	0.10956991
178	0x3e41038b	0.18849008
179	0xbd294499	-0.041325185
180	0x3da9b782	0.082869545
181	0xbd81d723	-0.06339862
182	0x3e05b109	0.13055815
183	0xbde310e4	-0.11087206
184	0xbd50c3a6	-0.050967835
185	0xbd54f9aa	-0.05199591
186	0xbe002127	-0.12512647
187	0xbbfc0cb2	-0.007691943
188	0xbe2b1f48	-0.16711152
189	0x3dcf42ed	0.10120187
190	0x3cc1bdc9	0.023650067
191	0xbe2e2d03	-0.17009358
192	0xbe16c530	-0.14723659
193	0xbe4cc872	-0.19998339
194	0xbc034d37	-0.008014015
195	0xbd74e7b7	-0.059791293
196	0xbd7d2019	-0.06179819
197	0xbdc1e0da	-0.09466715
198	0xbdda3c87	-0.10656076
199	0x3daab2cb	0.08334883
200	0x3df53ca2	0.119744554
201	0xbdfc1919	-0.123094745
202	0x3dd8acfa	0.10579868
203	0xbcbb05b6	-0.022829872
204	0xbd54a7a3	-0.051917683
205	0xbe5d6f63	-0.21624522
206	0x3ca0423b	0.019562831
207	0x3d6650fb	0.056229573
208	0x3d827632	0.063702
209	0x3e1b4255	0.15162022
210	0x3d6646b9	0.05621979
211	0xbcbe38e7	-0.023220493
212	0x3beb1b62	0.007174895
213	0x3dca10c5	0.0986648
214	0xbd526f81	-0.05137587
215	0xbc978095	-0.01849393
216	0xbcc15fac	-0.02360519
217	0x3e092d10	0.13396096
218	0xbe0c98e2	-0.13730195
219	0x3deeb4ff	0.11655616
220	0x3dcec9fd	0.1009712
221	0x3d932195	0.0718414
222	0xbdcc0c3d	-0.09963272
223	0xbdf6540d	-0.1202775
224	0x3d545fbd	0.051849116
225	0xbd9fa3c6	-0.07794909
226	0xbc40a23e	-0.011757432
227	0x3d3c0f54	0.045913056
228	0x3dd68d4a	0.104761675
229	0xbc28e374	-0.010308135
230	0x3e1a0f9a	0.15045014
231	0x3dda2080	0.1065073
232	0x3df91414	0.12162033
233	0xbdb3cb99	-0.087790675
234	0x3d2d9582	0.04237891
235	0xbd8d9220	-0.06912637
236	0xbdcfe1c6	-0.10150485
237	0xbd48cd09	-0.04902366
238	0xbe0d9a51	-0.13828398
239	0xbe22ffcb	-0.1591789
240	0xbd2ff3aa	-0.042956986
241	0xbbf3a76a	-0.007435729
242	0x3b27d7c0	0.0025610775
243	0x3dbaa913	0.091142796
244	0xbce1a5f6	-0.027544957
245	0xbd833752	-0.06407036
246	0x3d874dca	0.06606634
247	0xbe293010	-0.1652224
248	0x3bc3b1da	0.0059721293
249	0xbc4bcd7a	-0.012439126
250	0xbde828dd	-0.11335919
251	0xbcf29e10	-0.029616386
252	0xbdd82548	-0.10553986
253	0x3d9a8f57	0.07546871
254	0x3b45ec8b	0.0030200805
255	0xbe132376	-0.14368996

encoder_c.convs.2.bias f4 [64]
0	0x3c579080	0.01315701
1	0x3b9f4665	0.0048606866
2	0x3b9ceab5	0.0047887214
3	0xbc0b4e46	-0.008502549
4	0xbc3c21ba	-0.01148265
5	0xbbc4ba4d	-0.006003654
6	0xbbb0df25	-0.0053976947
7	0x3c95fec0	0.01830995
8	0x3bdeb882	0.0067968974
9	0xbb9cef6e	-0.0047892844
10	0xbb870c15	-0.0041213133
11	0x3c6d9ae1	0.014502258
12	0x3c104e91	0.008807794
13	0xbb487617	-0.0030587965
14	0xbbd3bed7	-0.006461959
15	0x3c4f6344	0.012657944
16	0x3b99e19b	0.0046960837
17	0x3c4d571e	0.012532977
18	0x3c4ec1a8	0.012619413
19	0xbc2ae95a	-0.010431612
20	0xbc8f798b	-0.01751401
21	0xbb8d45a7	-0.0043112817
22	0xbc25efe8	-0.010127999
23	0xbc4c3881	-0.012464643
24	0x3c83c9d9	0.01608746
25	0xbc3ba5b6	-0.011453083
26	0x3bd7acd3	0.0065818815
27	0xbc2eeb1a	-0.01067617
28	0xbbbad243	-0.0057013347
29	0x3b06a671	0.0020545984
30	0x3c13aa82	0.00901282
31	0xbb9c0b4b	-0.0047620884
32	0xbaddc78e	-0.0016920434
33	0xbabb37b2	-0.0014283566
34	0x3be8305c	0.007085843
35	0xbc05590d	-0.008138907
36	0x3c074fba	0.008258754
37	0x3c8777cb	0.016536614
38	0xbc1ec243	-0.00968987
39	0x3c49fc72	0.012328254
40	0x3b1223a0	0.0022299066
41	0xbc8aa2d9	-0.016923355
42	0xbc064ac1	-0.008196534
43	0x3c2e112a	0.010624209
44	0x3b806d03	0.003919245
45	0xba66ab67	-0.00087993447
46	0x39f2f31e	0.00046338973
47	0x3c0bd9a1	0.0085357735
48	0x3ca489f0	0.020085305
49	0xbc9a3cf4	-0.018827893
50	0xbbf459d2	-0.0074569965
51	0x3c26928b	0.0101667745
52	0xbc86b6a5	-0.016444514
53	0xbc308f15	-0.010776301
54	0xbb86661e	-0.004101529
55	0x3c132ecf	0.008983328
56	0xba33d261	-0.0006859657
57	0xbb592d45	-0.0033138555
58	0xbb793990	-0.0038028695
59	0x3b7e22df	0.003877811
60	0xbbf19288	-0.007372204
61	0xbc552676	-0.013009658
62	0x3babcf1e	0.005243196
63	0x3bae1f0a	0.0053137587

encoder_b.convs.0.weight f4 [116, 64]
0	0xbd029cfd	-0.031887997
1	0xbb7dc291	-0.0038720707
2	0xbdf1236c	-0.11774334
3	0xbdcb1f84	-0.099181205
4	0xbc42f726	-0.011899745
5	0x3cbd7c55	0.023130575
6	0x3e0a5005	0.13507088
7	0x3d83f057	0.064423256
8	0x3e2913f5	0.16511519
9	0x3cac6a00	0.021046638
10	0xb998e296	-0.0002916052
11	0x3e0ca834	0.1373604
12	0xbd925149	-0.0714441
13	0xbb0aaca8	-0.002116004
14	0x3d83d753	0.06437554
15	0xbcc4ec81	-0.024038555
16	0xbb9acd14	-0.0047241542
17	0x3cde0782	0.02710319
18	0x3dba050f	0.09082996
19	0xbd6be129	-0.057587776
20	0xba81ab1c	-0.0009892914
21	0xbd582c58	-0.052776664
22	0x3c6ff09d	0.014644769
23	0x3d35d8b6	0.044396125
24	0x3d9db171	0.0769986
25	0x3e1638e1	0.14670135
26	0x3cc01d5c	0.0234515
27	0xba263270	-0.0006339913
28	0x3d1f851c	0.038945302
29	0xbcd0732e	-0.025445547
30	0xbcf591ff	-0.029976843
31	0x3a960ebc	0.0011448483
32	0x3dc05304	0.09390834
33	0xbd2792e4	-0.04091157
34	0xbce272bf	-0.027642606
35	0x3d19f3ff	0.03758621
36	0x3e07b56d	0.13252802
37	0xbd67f63a	-0.056631304
38	0xbda85ba1	-0.08220602
39	0xbe06a6f3	-0.13149624
40	0xbe10bb38	-0.14133918
41	0xbd9666d3	-0.07343831
42	0xbdd107be	-0.10206555
43	0xbd5f3b64	-0.0545
44	0xbd29356a	-0.041310705
45	0x3ddb457e	0.10706614
46	0xb9edcecb	-0.00045358235
47	0x3e090a36	0.13382801
48	0xbdb41f7d	-0.087950684
49	0x3d62cfc9	0.05537394
50	0xbd8bdb8d	-0.06828985
51	0xbdaacdfd	-0.083400704
52	0x3c9a4ce8	0.0188355
53	0xbdab0edb	-0.08352443
54	0xbdc4c5ed	-0.09608064
55	0x3b9677dc	0.004591925
56	0x3de7199e	0.11284183
57	0x3c96b3d0	0.018396288
58	0x3cd5f3f8	0.02611731
59	0xbd467719	-0.048453424
60	0x3c907713	0.017634904
61	0x3c9a68b2	0.01884875
62	0x3dd4afa6	0.10385065
63	0x3cbbd978	0.022930846
64	0x3d21d731	0.039511863
65	0x3cc19fc3	0.02363575
66	0xbcf3731e	-0.029717978
67	0xbdc3a13d	-0.09552238
68	0x3a20d0e2	0.00061346416
69	0x3d2d3122	0.042283185
70	0xbc53b56c	-0.012921672
71	0xbe0dff54	-0.13866931
72	0x3de8c5a0	0.11365819
73	0x3d168e5b	0.036756855
74	0x397f23e2	0.00024332062
75	0xbe02d5c1	-0.12776853
76	0x3c397d08	0.011321314
77	0x3d121beb	0.035671156
78	0x3d856b33	0.06514587
79	0xbbe8737b	-0.0070938445
80	0xbd1cc99d	-0.03827821
81	0x3db2a193	0.08722224
82	0x3e109f61	0.14123298
83	0x3bf691a8	0.007524688
84	0xbc14061a	-0.009034658
85	0x3d30da14	0.043176726
86	0xbd83a944	-0.06428769
87	0x3d82e993	0.06392207
88	0xbca7026b	-0.020386895
89	0xbcebe525	-0.028795788
90	0xbc68c834	-0.014207888
91	0xbc6c5294	-0.014423985
92	0x3d355454	0.044269875
93	0x3bd85da5	0.00660296
94	0x3de61476	0.11234371
95	0xbd5e74a4	-0.054310456
96	0xbd3682b3	-0.04455824
97	0x3d2a245a	0.041538574
98	0xbd89e148	-0.06732422
99	0xbd6309c2	-0.055429228
100	0x3d9744ba	0.073861554
101	0x3e237128	0.15961134
102	0xbc24cb5e	-0.010058252
103	0xbd667106	-0.05626013
104	0xbda572e9	-0.08078558
105	0x3cde3b18	0.027127787
106	0x3c80b7a6	0.01571257
107	0xbd228be0	-0.039684176
108	0xbcf76c27	-0.030202938
109	0xbe00b880	-0.12570381
110	0xbb11b0c7	-0.0022230612
111	0x3c34bab6	0.0110308435
112	0x3dfb9f93	0.12286296
113	0xbcde9fe5	-0.027175853
114	0x3d494d13	0.04914577
115	0x3e1d4a00	0.1536026
116	0x3d970bc7	0.07375293
117	0x3d43dbcf	0.047817048
118	0xbd6e4dad	-0.058179546
119	0xbd9b0e89	-0.07571132
120	0xbd9d5d7c	-0.07683846
121	0x3c10fdf8	0.008849613
122	0xbd4f9522	-0.050679334
123	0xbda2a357	-0.07941311
124	0x3d75e113	0.0600291
125	0x3bcdb9ac	0.0062782373
126	0x3d938077	0.07202237
127	0x3d966ab6	0.07344572
128	0x3d513475	0.051075418
129	0x3c030e85	0.007999067
130	0x3dd1fc55	0.10253207
131	0x3d895167	0.067049794
132	0xbc11913b	-0.008884723
133	0xbca9c5d3	-0.020724213
134	0xbde3387f	-0.1109476
135	0xbe146596	-0.14491877
136	0xbdac349b	-0.08408471
137	0x3d7dc8a6	0.06195893
138	0xbc5b6694	-0.013391156
139	0x3dae9615	0.085247196
140	0x3a4e1332	0.00078611367
141	0xb9b2fb89	-0.00034138214
142	0xbbf90998	-0.0076000206
143	0xbd59cd75	-0.053174455
144	0xbd93e50e	-0.07221423
145	0xbc4db6a4	-0.012555752
146	0xbd133522	-0.035939343
147	0xbde8aaa7	-0.11360674
148	0xbc905106	-0.01761676
149	0x3de0f246	0.1098371
150	0xbde08064	-0.109619886
151	0xbdaa47bc	-0.083144635
152	0x3ddf278b	0.10896214
153	0xbe027322	-0.12739232
154	0xbd55f4ae	-0.052235298
155	0x3a1c090c	0.0005952276
156	0x3c7ea3a1	0.015541942
157	0x3dade79c	0.084914416
158	0x3c368811	0.011140839
159	0x3b94dc9f	0.0045429016
160	0x3de7b288	0.11313349
161	0xbdb3a1a2	-0.087710634
162	0xbd81f33d	-0.06345222
163	0x3d62850d	0.05530267
164	0xbd805f99	-0.06268234
165	0xbe221c3f	-0.15831088
166	0x3c180649	0.009278842
167	0x3ded968d	0.11600981
168	0x3d5ca698	0.053869814
169	0xbd919848	-0.071091235
170	0xbd98d883	-0.07463171
171	0xbb399648	-0.0028318334
172	0xbde00e63	-0.10940244
173	0xbd531c0e	-0.051540427
174	0x3c9aaad6	0.018880289
175	0x3dfc1cf1	0.12310208
176	0xbd1142e8	-0.035464197
177	0x3cf3d2fd	0.029763693
178	0xbd5f903f	-0.054580923
179	0x3da746fa	0.081678346
180	0x3dd78d91	0.105250485
181	0x3bc70e38	0.006074693
182	0xbd8c3000	-0.06845093
183	0x3d7775b4	0.060414985
184	0xbe01c22b	-0.12671725
185	0x3d871d97	0.06597441
186	0x3d05466a	0.032537855
187	0xbc29fc5c	-0.010375109
188	0xbbd13693	-0.0063846796
189	0xbafd1242	-0.0019307809
190	0xbddb5455	-0.107094444
191	0x3d299660	0.041403174
192	0x3d62bcff	0.055356022
193	0xbc886668	-0.016650394
194	0x3d9a9a26	0.07548933
195	0xbc14bb3a	-0.009077841
196	0xbc278098	-0.01022353
197	0x3d31d178	0.043412656
198	0x3896268d	7.159738e-05
199	0x3da1dece	0.07903825
200	0x3e0dadef	0.13835882
201	0xbd63603e	-0.055511706
202	0xbbcef8b5	-0.0063162693
203	0xbd48ff90	-0.04907185
204	0x3d84ac85	0.06478218
205	0xbd6e1db8	-0.05813381
206	0xbc0d8a9c	-0.008639004
207	0x3dbba478	0.09162229
208	0x3c26a601	0.010171414
209	0xbd856426	-0.065132424
210	0x3d42909a	0.047501184
211	0x3dad9d89	0.08477313
212	0xbcba1708	-0.02271606
213	0xbbb2a4eb	-0.0054517887
214	0x3da0d6e7	0.07853489
215	0x3865711b	5.4703192e-05
216	0xbda2e4db	-0.07953807
217	0x3c816d38	0.01579915
218	0x3db52394	0.088446766
219	0x3a90df0e	0.0011052804
220	0xbd02e302	-0.031954773
221	0x39ce3227	0.00039328748
222	0x3d9f91ca	0.07791479
223	0xbc4f71ac	-0.012661379
224	0xbd11587f	-0.035484787
225	0x3e098de7	0.13433038
226	0x3d96c3f8	0.07361597
227	0x3ca8fbf9	0.020627962
228	0x3d5df205	0.054185886
229	0xbd2097ef	-0.039207395
230	0x3e0cceb8	0.13750732
231	0x3c25c7e8	0.010118462
232	0x3df4488e	0.11927901
233	0x3b552cf2	0.003252801
234	0xbddc8bee	-0.10768877
235	0x3d34e629	0.04416481
236	0xbdb62556	-0.0889384
237	0x3e12a81f	0.14321946
238	0xbc001a3b	-0.007818754
239	0x3d4e1029	0.05030838
240	0x3d412226	0.047151707
241	0xbdd3b03b	-0.10336348
242	0x3d098e49	0.03358296
243	0xbdfdba8a	-0.12389095
244	0x3bd7c365	0.006584572
245	0xbbd15a37	-0.0063889283
246	0xbd9d573d	-0.07682655
247	0x3db87309	0.09006316
248	0xbd9cb528	-0.0765174
249	0xbdbbbdb4	-0.091670424
250	0x3e15267f	0.14565466
251	0x3d561c62	0.05227316
252	0xbd91beff	-0.07116508
253	0xbda523d4	-0.08063474
254	0xbd9a14c8	-0.07523495
255	0xbdbf9dc6	-0.09356265

encoder_b.convs.0.bias f4 [64]
0	0xbc2f3f64	-0.010696266
1	0x3d051bc0	0.032497168
2	0x3c97c68d	0.018527294
3	0xbba5292e	-0.0050403094
4	0xbaff6e44	-0.0019487818
5	0xbcb88e6e	-0.022528853
6	0x3c2c75a8	0.010526098
7	0x3cb3f962	0.0219695
8	0x3cb5cedf	0.02219337
9	0xbcaca7a9	-0.02107604
10	0xbb3aa8e3	-0.0028482012
11	0x3c154936	0.009111693
12	0xbc20aa58	-0.009806238
13	0x3bf83d0d	0.007575637
14	0xbc8c666c	-0.017138682
15	0x3c2f359c	0.010693934
16	0x39ddb946	0.00042290444
17	0x3ce9714e	0.02849641
18	0x3b6306dc	0.003464154
19	0x3ca85c0f	0.02055171
20	0xbc65edaa	-0.014033714
21	0xba0791e5	-0.0005171581
22	0xbba662e6	-0.0050777076
23	0x3ccfa5a5	0.02534754
24	0xbc596620	-0.013268977
25	0x3c8417f9	0.016124712
26	0x3c9a6bbd	0.018850202
27	0xbc0a56e8	-0.008443572
28	0x3cb8182f	0.02247247
29	0x3a8ddd30	0.0010823365
30	0xbb430303	-0.0029756434
31	0x3cd936fa	0.026515473
32	0x3c551cc6	0.013007348
33	0x3ba5e6f1	0.0050629308
34	0xbcc31e9c	-0.023818307
35	0x3c659c51	0.0140143195
36	0x3c7e11c1	0.015507163
37	0x3c76276a	0.0150240455
38	0x3c8853f7	0.0166416
39	0xbc7cf232	-0.015438603
40	0x3c433317	0.011914036
41	0x3c530eaf	0.012881919
42	0x3c84547b	0.016153565
43	0x3c60667f	0.013696312
44	0x3cb6f22c	0.022332273
45	0x3ba96720	0.005169764
46	0xbc74af87	-0.014934427
47	0xbc6160f4	-0.013756026
48	0x3c433690	0.011914864
49	0xbc04f90e	-0.00811602
50	0x3c2c0fb0	0.010501787
51	0x3ca6c105	0.02035571
52	0xbc992ddf	-0.01869863
53	0xbbaddecd	-0.005306101
54	0x3bdecb9a	0.0067991735
55	0x3c8c22e3	0.017106479
56	0x3bb9ba37	0.0056679505
57	0x3c8bbffe	0.017059322
58	0x3c97307c	0.018455736
59	0x3cef87f4	0.029239632
60	0xbc5a1bca	-0.0133122895
61	0xbc49585a	-0.012289131
62	0x3c7a03b9	0.015259677
63	0x3c6a5240	0.0143018365

encoder_b.convs.1.weight f4 [64, 64]
0	0x3bfe3f97	0.0077590453
1	0xbd8b096c	-0.067889065
2	0x3c9d2cec	0.01918646
3	0x3d3712bf	0.044695612
4	0x3ca920d7	0.020645542
5	0x3520d107	5.990882e-07
6	0xbdb0887e	-0.08619784
7	0x3dd1ea83	0.10249808
8	0xbe02c4ef	-0.12770437
9	0xbd1613a0	-0.03663981
10	0x3c7e7694	0.015531201
11	0xbd9216ee	-0.0713328
12	0x3d1c0265	0.03808822
13	0x3c3b4f63	0.0114325015
14	0xbbd0767b	-0.00636178
15	0xbd650854	-0.055916145
16	0xb6c1876d	-5.767614e-06
17	0x3daf63c2	0.08563949
18	0x3b7793c1	0.0037777277
19	0xbc04f4f2	-0.00811504
20	0x3de017ea	0.10942061
21	0xbccf3f2a	-0.025298674
22	0xbd498af0	-0.049204767
23	0x3b35503e	0.0027666236
24	0x3db4247c	0.08796021
25	0x3bec5456	0.007212202
26	0x3d1d8077	0.03845259
27	0x377a0d2c	1.4904228e-05
28	0xbcbaaf46	-0.022788655
29	0x3d70c942	0.058785684
30	0xbd14b812	-0.036308356
31	0xbd2fba10	-0.042902052
32	0x3dbbab05	0.09163479
33	0xbc1b2aa4	-0.009470616
34	0x3c38efdf	0.0112876585
35	0xbdb9bed6	-0.09069602
36	0xbbc56037	-0.0060234326
37	0x3d062a57	0.032755222
38	0x3d5a1437	0.053241935
39	0x3afab872	0.0019128455
40	0x37ef93a8	2.8559778e-05
41	0xbb01ac8c	-0.0019786684
42	0xbd8288b4	-0.0637373
43	0x3ddb9d18	0.10723323
44	0xbc7ee4fa	-0.015557522
45	0x3d943baf	0.07237946
46	0x3d14a5d6	0.036290966
47	0xbdd24e07	-0.10268789
48	0x3d216ff4	0.039413407
49	0x3d6cf469	0.057850275
50	0x3cd42289	0.025895374
51	0xbd83921a	-0.06424351
52	0x3cdaaf44	0.026694901
53	0x3b6793d2	0.003533591
54	0x3dc94f45	0.098295726
55	0xbda5abfc	-0.08089444
56	0x3dafd2d4	0.08585134
57	0xbb3bf67f	-0.0028680859
58	0xbd21ee6e	-0.039534025
59	0x3d736a24	0.059427395
60	0x3b8d59df	0.004313692
61	0x3b2bfb25	0.0026242223
62	0xbd6c95c5	-0.05776002
63	0xbcb9a085	-0.02265955
64	0x3ba51a8e	0.005038566
65	0xbb956151	-0.00455872
66	0xbcd725d3	-0.026263153
67	0x3bf441ee	0.0074541485
68	0xbb240372	-0.0025026468
69	0xb6affc20	-5.2447576e-06
70	0xbba3502e	-0.0049839234
71	0xbbc7a0bc	-0.006092159
72	0x3dde184d	0.10844479
73	0x3b787046	0.0037908717
74	0x3c58fde8	0.01324413
75	0xbdad4606	-0.084606215
76	0x3db6c0a4	0.08923462
77	0xbd20fc80	-0.039303303
78	0xbb7bea97	-0.0038439387
79	0x3d9f16f9	0.077680536
80	0x3dd0f148	0.10202271
81	0x3843f7d1	4.672242e-05
82	0xbdd51dbe	-0.104060635
83	0x3d1c73d4	0.0381964
84	0x3cb67a97	0.022275252
85	0x3adfb6d0	0.0017068032
86	0x3dbd90fe	0.09256171
87	0xbc40c877	-0.011766545
88	0x3d2d9d12	0.042386122
89	0x3d8f2b70	0.06990707
90	0x3d748c1b	0.059703927
91	0x3a6a60ba	0.0008940805
92	0x3a07c340	0.0005178936
93	0x3d4252ad	0.047442127
94	0xbc7195bb	-0.014745171
95	0xbbc2fe52	-0.0059507275
96	0xbd9a3e0b	-0.07531365
97	0xba3b912a	-0.0007155115
98	0x3d0ed2ec	0.03486912
99	0x3d1c695c	0.038186416
100	0xbd8ef445	-0.069801845
101	0xbc69b005	-0.014263158
102	0x3d222d97	0.03959426
103	0x3dd3a750	0.10334647
104	0x342029ce	1.491637e-07
105	0x383c5b55	4.4907752e-05
106	0xbd8c3f09	-0.068479605
107	0x3d6d1b06	0.0578871
108	0xbd64fe78	-0.055906743
109	0x3bfbb8b5	0.007681931
110	0xbdd654c9	-0.1046539
111	0x3c747c97	0.014922283
112	0xbdbfa6de	-0.09357999
113	0xbd36cb1e	-0.0446273
114	0x3dcccdc2	0.10000183
115	0xbb7d96de	-0.003869466
116	0x3c3f0831	0.011659668
117	0xbbf34633	-0.00742414
118	0x3ccaaa18	0.02473931
119	0xbd171e1d	-0.036893953
120	0xbd072586	-0.03299477
121	0xbcf84812	-0.030307803
122	0xbcd5469c	-0.026034646
123	0x3d91e46d	0.07123647
124	0xbd057b95	-0.03258856
125	0x3c8728ef	0.01649901
126	0xbcf7f651	-0.03026882
127	0x3dbb14b5	0.09134809
128	0xbda730ab	-0.081635796
129	0x3dcbb572	0.09946717
130	0xbcad5b8e	-0.02116182
131	0x3cf74ee5	0.030188987
132	0xbdfb6c4a	-0.12276514
133	0xbd86fefc	-0.06591603
134	0xbc738fe1	-0.014865846
135	0xba2b8d30	-0.0006544171
136	0xbdef5929	-0.11686928
137	0xbde377e3	-0.11106851
138	0xbcece495	-0.02891759
139	0x3e080712	0.13283947
140	0x3e36bb8f	0.17844985
141	0xbd8e26b8	-0.06940979
142	0xbd802b0e	-0.06258212
143	0xbd10b71b	-0.035330873
144	0xbdaf49a7	-0.0855897
145	0xbac08d33	-0.0014690518
146	0x3cefc0b1	0.029266687
147	0x3e1f8e00	0.15581512
148	0xbe4b9d29	-0.1988417
149	0xbd0d2e34	-0.03446789
150	0xbdb08db2	-0.08620776
151	0xbdddfcca	-0.10839231
152	0x3e3e1234	0.18561631
153	0xbc0378d6	-0.008024415
154	0x3e40b503	0.1881905
155	0xbc620e5e	-0.013797371
156	0xbc882793	-0.016620433
157	0x3d5a6f6b	0.053328913
158	0xbcee0380	-0.029054403
159	0x3e4466c5	0.19179828
160	0x3d270837	0.04077932
161	0x3d482e2d	0.04887216
162	0xbafb7eb7	-0.0019187544
163	0x3d137a08	0.03600505
164	0x3e33883b	0.17532437
165	0x3d207a3a	0.039179064
166	0x3e2cc6ca	0.16872707
167	0x3e454d01	0.19267656
168	0xafe2fb62	-4.128778e-10
169	0xbd8eeb4a	-0.069784716
170	0xbd07766e	-0.033071928
171	0x3e3d4a51	0.1848538
172	0xbdd45a5a	-0.10368796
173	0x3c48c9b3	0.01225512
174	0xbdcfef5b	-0.10153075
175	0xbda2eae2	-0.079549566
176	0xbc238488	-0.009980328
177	0xbc8b8b30	-0.017034143
178	0x3ab1a470	0.0013553035
179	0xbe120799	-0.14260711
180	0x3de83c30	0.11339605
181	0x39d2cc44	0.0004020651
182	0x3a43fdb4	0.00074764644
183	0x3de7ade0	0.11312461
184	0xb98cd515	-0.0002686164
185	0x3a3cec36	0.0007206829
186	0x3e14c627	0.14528714
187	0xba1008cf	-0.00054944766
188	0xba2f0d63	-0.0006677715
189	0x3d7269dc	0.059182987
190	0x3e3da622	0.18520406
191	0x3d20401f	0.03912365
192	0x3d301ddd	0.04299723
193	0xbd3ad540	-0.045613527
194	0xbbcc359d	-0.006231977
195	0x3dcc2210	0.099674344
196	0x3c8d6e2c	0.017264448
197	0x3544e41c	7.334763e-07
198	0xbca1da42	-0.019757394
199	0xb9cfd096	-0.00039637525
200	0xbda96573	-0.08271303
201	0x36d8c2cd	6.4599794e-06
202	0x3cb4695e	0.0220229
203	0x3d26369b	0.04057942
204	0x3d3b185b	0.045677524
205	0x3c92b37a	0.017907847
206	0xbc36c4bb	-0.011155303
207	0xba705a5c	-0.0009168738
208	0xbbbe2f3f	-0.005803972
209	0x3cba60df	0.02275127
210	0x3c5f5270	0.0136304945
211	0x3d1b439e	0.03790628
212	0x3dffe7bd	0.124953724
213	0x3c7ba993	0.015360254
214	0x3d195784	0.037436977
215	0xbbd3f5f4	-0.006468529
216	0xbdc0a578	-0.09406561
217	0x3cffb7b6	0.03121553
218	0xbd2be9ba	-0.041970946
219	0xbd1271c5	-0.03575303
220	0x358bf66f	1.0428029e-06
221	0x3b0f637c	0.0021879366
222	0xbcdf69f0	-0.027272195
223	0x3d706014	0.058685377
224	0x3d28a8dd	0.041176666
225	0x3c3cca57	0.011522851
226	0xbbdcb2b2	-0.0067351693
227	0xbc25bc49	-0.010115691
228	0x3cebb38a	0.028772134
229	0x3ac75c2c	0.0015209964
230	0xbd8ac95f	-0.0677669
231	0xbb88f69d	-0.004179789
232	0xbcb3753c	-0.021906488
233	0xbc6f9920	-0.01462391
234	0x3d6494e8	0.05580607
235	0x3c666c48	0.014063902
236	0xbb9537f4	-0.0045537893
237	0x3dd43495	0.10361592
238	0xbd457f61	-0.04821718
239	0xbd722d45	-0.059125204
240	0xbdbb7432	-0.09153022
241	0xbdc145cf	-0.09437143
242	0x3ad241a5	0.0016041292
243	0x3d8ae508	0.067819655
244	0xbbec045f	-0.0072026695
245	0x3b398484	0.0028307745
246	0x3d887999	0.06663818
247	0xbcc1f533	-0.02367649
248	0xb9e19589	-0.00043026757
249	0x3c5d8f24	0.013522897
250	0x3e0790cc	0.1323883
251	0x3dbdcbc4	0.09267381
252	0xbcd7ca67	-0.02634163
253	0xbc80942f	-0.01569566
254	0xbd3a047e	-0.04541444
255	0xbdd2cecc	-0.102933496

encoder_b.convs.1.bias f4 [64]
0	0x3c8f711f	0.017509995
1	0xbc72aa99	-0.014811181
2	0x3c7b8a00	0.015352726
3	0x3c801f09	0.015639799
4	0x3c803e02	0.015654568
5	0xbc51ab4e	-0.01279719
6	0xba7ba24f	-0.0009599076
7	0xbba23b36	-0.004950906
8	0x3c99ba34	0.018765546
9	0x3c99559d	0.018717581
10	0xbc324c9d	-0.010882524
11	0x3bd242cc	0.006416654
12	0x3cb892b0	0.022530884
13	0x3bed4f10	0.007242091
14	0xbc966e97	-0.01836328
15	0x3c2b8ff3	0.010471332
16	0x3b576471	0.0032866264
17	0xbc090dbd	-0.008365092
18	0x3b0a7c5e	0.0021131258
19	0xbc7d1494	-0.015446801
20	0x3b94bc21	0.0045390283
21	0x3c5c8c8b	0.013461242
22	0x3bcd3905	0.006262901
23	0x3cc5e403	0.024156576
24	0x3c587428	0.013211288
25	0x3ce20c62	0.027593795
26	0x3ca309e7	0.019902183
27	0xbc1eedab	-0.009700219
28	0xbc583d60	-0.013198227
29	0x3ba41fdc	0.0050086807
30	0xba918ece	-0.0011105181
31	0x3c2c8d44	0.010531727
32	0xbc3a7918	-0.01138141
33	0x3ba72f63	0.0051020845
34	0x3c99bf9d	0.018768126
35	0x3c8be9ae	0.0170792
36	0x3c3f3309	0.011669883
37	0x3b73fceb	0.0037229608
38	0x3c9993fa	0.018747319
39	0xbc4259b0	-0.0118622035
40	0xba700a7c	-0.0009156836
41	0xbb4c6117	-0.00311858
42	0xba7b8211	-0.00095942715
43	0x3cbb1a7e	0.02283978
44	0x3ca222bb	0.019791951
45	0xbc2d4d86	-0.010577565
46	0x3b8786e0	0.0041359514
47	0x3c81b3fe	0.015832897
48	0x3b8a2ba8	0.00421663
49	0xbc46c4d4	-0.012131888
50	0x3cf1895a	0.02948444
51	0xbca54c19	-0.020177888
52	0x3c7cb3b7	0.015423707
53	0xba957d87	-0.0011405208
54	0x3c5f662d	0.0136352
55	0xbc1abe7f	-0.009444832
56	0x3c1111ae	0.008854313
57	0xbba793fe	-0.0051140776
58	0x3c678907	0.014131791
59	0xbc3c3181	-0.011486412
60	0x3c85a052	0.016311798
61	0xbb13e481	-0.002256662
62	0x3c5dbf21	0.013534338
63	0xbc39cebb	-0.011340792

encoder_b.convs.2.weight f4 [64, 64]
0	0xbca0b334	-0.0196167
1	0x3ca9a083	0.02070642
2	0x3a7c7893	0.0009631004
3	0x3cd0d4f4	0.025492169
4	0x3c909fb0	0.01765427
5	0x3b0f5bd3	0.00218748
6	0x3c072740	0.008249104
7	0x3bad0e5b	0.0052812523
8	0x3c6d279c	0.014474776
9	0xbd8d285f	-0.06892466
10	0x3d257609	0.04039577
11	0xb8e3345e	-0.00010833958
12	0x3db9db79	0.09075064
13	0x3c944231	0.018097969
14	0xbbc6b95f	-0.0060645784
15	0x3d685eb1	0.05673093
16	0xbd8fb6c4	-0.07017282
17	0xbc27ec73	-0.010249245
18	0xbb632772	-0.0034660962
19	0x3bafc1af	0.005363665
20	0x3c32f925	0.0109236585
21	0x3dd5ed6d	0.10445676
22	0x3db7e4eb	0.089792095
23	0x3beb29fc	0.007176636
24	0xbdb9ddf6	-0.09075539
25	0xbb769234	-0.0037623765
26	0xbdc5af88	-0.096526206
27	0x3d10431a	0.035220243
28	0xba8cf7cc	-0.0010755002
29	0x3d91a91d	0.07112334
30	0x3c3fc05d	0.011703578
31	0x3dd4e11a	0.10394497
32	0xbdccc88a	-0.09999187
33	0xbb806848	-0.0039186813
34	0x3cbf72cf	0.023370175
35	0xbd1e2be7	-0.038616087
36	0x3dcdc334	0.10046998
37	0x3d849e06	0.06475453
38	0xbc2967b8	-0.01033967
39	0xbceb4159	-0.028717684
40	0xba41d1e8	-0.0007393644
41	0x3d2bad53	0.04191334
42	0xbdba8905	-0.09108166
43	0xbdb6ebc8	-0.089316905
44	0x3ca412de	0.020028528
45	0xbd5ee492	-0.0544172
46	0x3cf07df3	0.029356932
47	0xbb9e3933	-0.004828596
48	0xbd66e9c9	-0.0563753
49	0xbcee9a52	-0.02912632
50	0x3d144550	0.036198914
51	0xbdca0ade	-0.09865354
52	0x3d9d9df1	0.076961406
53	0x3a28024c	0.00064090337
54	0xbd81e465	-0.06342391
55	0x3cb7b127	0.02242334
56	0x3d439ffe	0.047760002
57	0xbc8cd3ac	-0.017190777
58	0xbd82013e	-0.06347893
59	0xbdb60c5f	-0.08889078
60	0xbd6dc343	-0.058047544
61	0x3b43aea7	0.002985874
62	0xbceaca83	-0.028661018
63	0x3cc24c14	0.023717918
64	0x3df8434a	0.12122209
65	0xbd89d686	-0.0673037
66	0x3dabf72d	0.083967544
67	0xbd92aded	-0.0716208
68	0xbd89e6d3	-0.06733479
69	0x3d442cc6	0.04789426
70	0x3d9abb32	0.07555236
71	0xbb3ebf50	-0.002910573
72	0xbdfd8108	-0.123781264
73	0x3b192641	0.0023368748
74	0xbd2c4ec0	-0.04206729
75	0xbd11979e	-0.035544984
76	0xbd491e4c	-0.04910116
77	0xbcbcfdcb	-0.023070237
78	0xbc1c53db	-0.009541477
79	0xbd35c923	-0.044381272
80	0x3ca68911	0.02032903
81	0x3de75565	0.112955846
82	0xbe285589	-0.16438879
83	0xbce27a1d	-0.027646119
84	0x3b7efa07	0.0038906352
85	0x3e000239	0.12500848
86	0x3d07fa13	0.033197474
87	0xbdf0856f	-0.117442004
88	0x3c8ff3a0	0.017572224
89	0x3cda0c78	0.026617274
90	0xbe007a3d	-0.1254663
91	0xbd652ecc	-0.055952832
92	0xbe222a86	-0.15836534
93	0x3db4d48d	0.08829603
94	0x3e229d5e	0.15880343
95	0xbd21b454	-0.039478615
96	0x3de5ee72	0.112271205
97	0xbda52726	-0.080641076
98	0x3d792737	0.060828414
99	0xbde2acb5	-0.110680975
100	0x3e0289f8	0.12747943
101	0x3dc48092	0.09594835
102	0xbdba2ddb	-0.090907775
103	0xbdd51e8f	-0.10406219
104	0xbd48c762	-0.04901827
105	0xbdfd4059	-0.12365789
106	0x3d1ec9d3	0.038766693
107	0x3dea4784	0.11439422
108	0xbd6d506d	-0.057938028
109	0x3db79dc0	0.08965635
110	0xbd7f9151	-0.062394444
111	0xbd9888c7	-0.07447963
112	0xbd79f28f	-0.061022338
113	0x3c72610f	0.014793648
114	0xbdf815de	-0.12113546
115	0x3be4108b	0.00695998
116	0x3dd09a65	0.101856984
117	0x3d8c0150	0.06836188
118	0xbc00bb43	-0.007857147
119	0xbd0d2c61	-0.03446615
120	0xbbbe8b88	-0.0058149733
121	0xbe0476ad	-0.12935896
122	0x3d317b72	0.043330617
123	0xbd3b51e2	-0.045732386
124	0x3df545a6	0.11976175
125	0xbdceba5f	-0.10094141
126	0xbe18d52a	-0.14925066
127	0x3dcf80fe	0.10132025
128	0xbe21170f	-0.15731452
129	0xba8d12c2	-0.0010763037
130	0x3c2702e8	0.010193564
131	0xbdf17ae0	-0.11791015
132	0x3d93bec6	0.072141215
133	0x3ca17c54	0.019712605
134	0x3e38541b	0.18000834
135	0xbb0d5902	-0.0021567945
136	0x3da97608	0.08274466
137	0xbe138d6e	-0.1440942
138	0xbe0829c1	-0.13297178
139	0x3cb75f8c	0.022384427
140	0x3d0f2c27	0.034954216
141	0x3e434100	0.19067764
142	0x3dc58086	0.096436545
143	0x3e21f1dd	0.1581492
144	0xbd4c8354	-0.04992993
145	0xbdc7ad87	-0.097498946
146	0xbe085db1	-0.1331699
147	0x3c1eb64f	0.00968702
148	0xbdd45448	-0.10367638
149	0x3da22e71	0.07919014
150	0x3d80c19e	0.062869295
151	0x3e2de2fc	0.16981119
152	0xbcc33e37	-0.023833377
153	0x3d49b92e	0.049248867
154	0xbe097bc3	-0.13426118
155	0x3e3ca73c	0.1842317
156	0x3bc82ae2	0.0061086277
157	0x3dac88f7	0.084245615
158	0xbe5bfb84	-0.21482664
159	0xbd24b686	-0.04021313
160	0x3e2d3a2e	0.16916725
161	0x3db77ad2	0.08958973
162	0x3e291c97	0.16514812
163	0xbe2c2e96	-0.16814646
164	0xbdd23a42	-0.10265018
165	0xbe0c8a49	-0.13724627
166	0x3e18cb71	0.14921357
167	0x3e2a3091	0.16620089
168	0xbcfa9657	-0.030589266
169	0xbe28b725	-0.16476114
170	0x3e42a5e7	0.19008599
171	0x3d1927f1	0.037391607
172	0xbe22f413	-0.1591342
173	0xbe2e5f7b	-0.1702861
174	0xbdc3b0d9	-0.095552154
175	0x3e082c80	0.13298225
176	0x3d1ea632	0.038732715
177	0x3c99be27	0.01876743
178	0x3de673f9	0.11252589
179	0x3e028254	0.12745029
180	0x3e2ea6e0	0.17055845
181	0xbcc9785c	-0.024593525
182	0x3d372ed3	0.04472239
183	0xbd990c0d	-0.07473002
184	0xbdf5318d	-0.11972342
185	0x3e4c9198	0.19977415
186	0x3da79aaf	0.081838004
187	0x3e2e5f53	0.17028551
188	0xbe4e88e6	-0.2016941
189	0xbd193520	-0.03740418
190	0xbcc1bf32	-0.02365074
191	0x3e25ec0c	0.16203326
192	0x3d4632fd	0.04838847
193	0x3e03227c	0.12806123
194	0x3dadb4d0	0.08481753
195	0x3c5283bd	0.012848792
196	0x3e07246d	0.13197489
197	0xbce6acbc	-0.028158538
198	0xbc52472f	-0.012834354
199	0xbd6c23ea	-0.057651438
200	0xbddb17ce	-0.106979
201	0x3dfa50d5	0.12222449
202	0xba57e34f	-0.0008235471
203	0xbe100b5d	-0.14066835
204	0x3e3fef7f	0.18743704
205	0x3c84b535	0.016199687
206	0x3dac4cda	0.08413096
207	0xbdcd3552	-0.10019936
208	0xbd815e05	-0.06316761
209	0xbe0a6471	-0.13514878
210	0x3dfd2e50	0.12362349
211	0xbd1281dc	-0.035768375
212	0xbe1e1fd7	-0.15441833
213	0x3d90b74a	0.070662096
214	0xbe1060be	-0.14099404
215	0x3dc67920	0.096910715
216	0xbe215d27	-0.15758191
217	0x3e1f6b5b	0.15568297
218	0xbe0af1cf	-0.13568805
219	0x3d674479	0.056461785
220	0x3e036c89	0.12834372
221	0xbd2e46e8	-0.04254809
222	0xbde1f46d	-0.11032949
223	0x3da0701d	0.07833884
224	0xbd79f500	-0.061024666
225	0xbcff2960	-0.031147659
226	0xbd8d97a3	-0.06913688
227	0xbdeb2626	-0.114818856
228	0x3df0bf1b	0.117552005
229	0x3e111b4e	0.14170572
230	0x3d027055	0.03184541
231	0x3d5a864e	0.05335074
232	0xbdaefa09	-0.08543784
233	0x3cf5d648	0.030009404
234	0x3e2d095d	0.16898103
235	0xbda29b64	-0.07939795
236	0xbdd16a25	-0.102253236
237	0xbd9ba1e9	-0.07599241
238	0xbe15a6fc	-0.1461448
239	0x3dc3db85	0.095633544
240	0xbdf21f99	-0.11822433
241	0x3d64f36d	0.05589621
242	0x3c832081	0.01600671
243	0x3d5111b4	0.051042274
244	0xbd8c4ef8	-0.068509996
245	0xbdde6082	-0.10858251
246	0xbdea0c76	-0.11428158
247	0xbde36ca0	-0.11104703
248	0xbda61038	-0.08108562
249	0x3d81f490	0.06345475
250	0x3d6546e0	0.055975795
251	0x3deb95eb	0.11503204
252	0x3d3851b5	0.044999797
253	0x3e0d960c	0.1382677
254	0x3dc994d8	0.09842843
255	0x3c8d8012	0.017272983
