results/ABIDE_3x5fold_seed0/fold3_rep1_seed1003/ckpt_best_fold_3.pt (torch, 660357 bytes, 72 tensors)

encoder_c.convs.0.weight f4 [116, 64]
-0.17288113 -0.06731531 0.030754073 0.1642274 -0.043844562 -0.027423779 0.08369808 0.06975779
-0.15177128 -0.053673293 0.11825812 -0.08731777 0.03232842 0.0071967775 0.17714855 -0.08042852
-0.12082879 -0.011330447 -0.1484558 -0.15863591 0.14924094 -0.004098 0.009528506 -0.10245266
0.06623158 -0.0656276 -0.15993677 -0.05110371 -0.0038362052 0.020467589 -0.13957585 0.05542345
0.0068707876 -0.09844545 -0.05999297 -0.13535586 -0.0006885738 0.038190126 0.0824977 -0.033030156
0.0063815215 -0.1543628 0.034460314 0.17526495 0.15870239 0.13977078 -0.040017854 0.17013735
-0.067887194 0.005958473 -0.04878328 -0.080240354 -0.031406622 0.16022359 -0.14405917 0.10055817
-0.12244501 -0.018524207 -0.034549065 0.05499728 0.014324804 -0.06388202 0.028842855 0.10133482
0.13116293 -0.062051564 -0.18156861 0.069561966 -0.13767493 0.17819512 -0.02371509 -0.014594136
-0.08186184 0.031221585 0.01891669 0.16998935 0.18381664 -0.10346099 0.013522866 0.108119175
0.056664683 -0.002137466 0.12558748 -0.043064833 0.025935974 -0.088977106 -0.11501227 0.008383707
-0.1274772 -0.13649867 0.13219942 -0.0645892 0.05567462 -0.11930489 0.046027508 -0.037474904
0.13174859 -0.05930872 0.14951701 0.061831452 0.17834646 0.08977173 0.016956585 -0.15878655
0.054576762 0.09570723 0.15621495 -0.16064377 0.053932413 0.0941423 0.047785275 -0.0800216
-0.09702286 -0.12832005 -0.0844854 -0.038835537 0.03733976 0.13833338 0.10854614 -0.096782446
-0.078668915 -0.018439844 -0.023613688 0.09034041 0.034611613 -0.037197873 -0.0022853015 0.14373663
-0.098481484 0.004646255 -0.07072418 -0.120606326 0.10395201 -0.14968076 0.14142083 0.028197125
-0.14452282 0.08659441 0.06728651 -0.07472469 0.076891124 0.08527781 0.10480452 0.07661072
-0.13614461 0.033593398 -0.11893383 0.115267806 -0.09078406 0.06902179 -0.014650428 0.025026852
-0.18655042 0.15612553 -0.10984788 0.05538832 -0.063794486 0.02138231 0.04785974 -0.054567896
0.030241491 -0.035054103 -0.16252781 0.012694578 -0.15306008 -0.07421508 0.06776538 -0.13858317
0.049141552 0.069485545 0.18479455 0.06394431 0.13395682 -0.11698591 -0.019878369 -0.045560107
0.121704675 0.13145229 -0.012612942 0.01669894 0.12835535 0.054080047 -0.12861893 -0.005037416
-0.07204969 -0.047658045 0.056421086 -0.006485167 0.1635773 -0.05423104 0.10339492 -0.12746075
0.04803364 -0.13308954 0.04082806 0.08197278 0.12499984 0.1441536 -0.10002967 0.11194214
-0.07920418 -0.07986117 0.14167812 0.11825824 -0.058376104 0.049069658 -0.015507847 -0.06742492
-0.12402776 -0.019742709 0.13479896 0.12965848 0.00014080158 -0.063535996 0.12922 0.04896898
-0.065143906 0.0052322005 -0.037034456 0.030966237 -0.15882169 0.015729325 -0.1014662 0.0587963
-0.084057145 -0.077165335 0.042195152 -0.073347956 -0.08418374 0.13580616 0.050399866 -0.10742415
-0.12642543 -0.15198761 0.039277945 -0.047421977 -0.1283846 0.094052985 -0.1313613 0.16656981
0.009701979 0.11146833 -0.015503311 0.08264687 0.08514775 -0.1290687 0.037169077 -0.094876334
0.16544628 -0.053372856 0.017373541 0.12896653 0.10521533 -0.12841503 0.099992506 0.1183983
00000000: c007 31be 9cdc 89bd f7ef fb3c 3a2b 283e
00000010: 5b96 33bd d5a7 e0bc e669 ab3d 2cdd 8e3d
00000020: ee69 1bbe 87d8 5bbd 5031 f23d a9d3 b2bd
00000030: ce6a 043d f2d2 eb3b 6e66 353e b5b7 a4bd
00000040: 1675 f7bd 57a3 39bc cc04 18be 7471 22be
00000050: 9ed2 183e 8448 86bb 731d 1c3c b3d2 d1bd
00000060: 6ca4 873d c367 86bd 77c6 23be 2052 51bd
00000070: d868 7bbb a5ab a73c f9ec 0ebe b303 633d
00000080: 5824 e13b c59d c9bd 30bb 75bd ba9a 0abe
00000090: 6881 34ba 406d 1c3d 8ef4 a83d a14a 07bd
000000a0: 151c d13b 4811 1ebe 4226 0d3d a878 333e
000000b0: e182 223e 1220 0f3e c3e9 23bd 7c38 2e3e
000000c0: 7108 8bbd 4b3f c33b fad0 47bd 0e55 a4bd
000000d0: 3ba4 00bd a711 243e 3f84 13be 71f1 cd3d
000000e0: 73c4 fabd 14c0 97bc 5283 0dbd d444 613d
000000f0: 95b2 6a3c 94d4 82bd da47 ec3c a188 cf3d
00000100: 934f 063e c829 7ebd 1fed 39be 8176 8e3d
00000110: a8fa 0cbe c878 363e 2646 c2bc 3e1c 6fbc
00000120: 2ea7 a7bd 69c4 ff3c 2df7 9a3c b011 2e3e
00000130: 6e3a 3c3e 5be3 d3bd 038f 5d3c 966d dd3d
00000140: 3a19 683d bb14 0cbb 019a 003e c064 30bd
00000150: ae77 d43c a139 b6bd 8e8b ebbd d15b 093c
00000160: 6289 02be 4fc6 0bbe 495f 073e 5847 84bd
00000170: 120b 643d 1f56 f4bd 5787 3c3d 497f 19bd
00000180: 1ae9 063e b3ed 72bd fd1a 193e fa42 7d3d
00000190: 74a0 363e 3eda b73d 89e8 8a3c f198 22be
000001a0: e28b 5f3d 2702 c43d d0f6 1f3e cd7f 24be
000001b0: 3ce8 5c3d aecd c03d 7eba 433d 5de2 a3bd
000001c0: ecb3 c6bd 5566 03be ae06 adbd 0312 1fbd
000001d0: 94f1 183d 44a7 0d3e 704d de3d e035 c6bd
000001e0: 2b1d a1bd 280f 97bc 7e71 c1bc 6504 b93d
000001f0: e8c4 0d3d cc5c 18bd ffc4 15bb b22f 133e
00000200: a9b0 c9bd 9d3f 983b d7d7 90bd 7300 f7bd
00000210: cbe4 d43d ea45 19be 9fd0 103e a8fd e63c
00000220: cafd 13be 6958 b13d 82cd 893d 4209 99bd
00000230: 1879 9d3d 22a6 ae3d c1a3 d63d 15e6 9c3d
00000240: 7e69 0bbe 3b99 093d 9493 f3bd 8711 ec3d
00000250: feec b9bd 4c5b 8d3d 5908 70bc 1d05 cd3c
00000260: 1307 3fbe 5fdf 1f3e edf7 e0bd ddde 623d
00000270: afa6 82bd f429 af3c 9308 443d 9682 5fbd
00000280: 01bd f73c e494 0fbd b16d 26be ebfc 4f3c
00000290: c8bb 1cbe 13fe 97bd 93c8 8a3d bfe8 0dbe
000002a0: a748 493d 704e 8e3d c83a 3d3e 3cf5 823d
000002b0: fa2b 093e 4f96 efbd f6d7 a2bc 3c9d 3abd
000002c0: 4d40 f93d 6e9b 063e 83a6 4ebc 37cc 883c
000002d0: 966f 033e 0a83 5d3d aeb4 03be e810 a5bb
000002e0: ca8e 93bd 1535 43bd cc19 673d 8681 d4bb
000002f0: cf80 273e 5e21 5ebd b7c0 d33d 1285 02be
00000300: ecbe 443d a048 08be 533b 273d 58e1 a73d
00000310: ebff ff3d 009d 133e 5bdc ccbd ec41 e53d
00000320: cd35 a2bd 418e a3bd 1214 113e 6031 f23d
00000330: c81b 6fbd 44fd 483d a014 7ebc 1416 8abd
00000340: 4402 febd 76bb a1bc bd08 0a3e 31c5 043e
00000350: 23a4 1339 291f 82bd 3f52 043e b293 483d
00000360: 2b6a 85bd e172 ab3b 71b1 17bd e8ac fd3c
00000370: 27a2 22be c9da 803c 83cd cfbd 64d4 703d
00000380: 2726 acbd dc08 9ebd d3d4 2c3d 7437 96bd
00000390: 8668 acbd c510 0b3e 1770 4e3d 3101 dcbd
000003a0: ab75 01be a4a2 1bbe e9e1 203d 8c3d 42bd
000003b0: 4177 03be da9e c03d 9483 06be 4791 2a3e
000003c0: 0df5 1e3c 8249 e43d 9901 7ebc c342 a93d
000003d0: f261 ae3d 962a 04be 9a3e 183d 864e c2bd
000003e0: c06a 293e 7f9d 5abd f552 8e3c cd0f 043e
000003f0: 237b d73d 3b7f 03be dfc8 cc3d cf7a f23d

encoder_c.convs.0.bias f4 [64]
-0.0019363372 0.0073854257 -0.010194987 -0.0020357894 0.014505076 0.007554674 -0.0011480864 -0.009542999
0.00924531 0.0020987394 -0.0043488736 0.002010159 -0.00012713243 0.0024866976 0.009020494 -0.008734238
-0.012647563 0.0051967534 0.00044926655 -0.004196967 0.019900795 -0.0006683703 0.0020164554 -0.00086650136
-0.0005171644 0.007397055 0.0045885835 0.010585892 -0.015475742 -0.0031638492 0.008475496 0.0111672105
0.02259666 0.004170902 0.0033000917 -0.0018401205 0.0007021857 0.0056642164 -0.016273327 -0.00010295397
-0.004004968 -0.004162575 0.017315222 -0.0025272237 0.0076403166 0.00010161066 0.011533125 0.010192781
0.0039506727 0.014540709 0.012189818 -0.010343893 0.007417612 -0.0005844259 -0.0022523145 0.017655833
0.009037332 0.0075091175 -0.0128446175 -0.01717527 0.006726506 0.00097070244 0.019621707 -0.013553769
00000000: b2cc fdba 7101 f23b e008 27bc e16a 05bb
00000010: b3a6 6d3c 338d f73b 637b 96ba 3d5a 1cbc
00000020: a479 173c 018b 093b ff80 8ebb dfbc 033b
00000030: da4e 05b9 ddf7 223b b2ca 133c 0d1a 0fbc
00000040: b937 4fbc 8749 aa3b 898b eb39 b686 89bb
00000050: fe06 a33c 9235 2fba 8226 043b ec25 63ba
00000060: 5192 07ba ff62 f23b d45b 963b 7370 2d3c
00000070: f78d 7dbc 9558 4fbb cfdc 0a3c adf6 363c
00000080: a11c b93c 10ac 883b 5a46 583b 3330 f1ba
00000090: e212 383a e49a b93b a44f 85bc fee8 d7b8
000000a0: 1b3c 83bb 3666 88bb a7d8 8d3c c79f 25bb
000000b0: 9f5b fa3b cf17 d538 6ff5 3c3c 9fff 263c
000000c0: a574 813b 273c 6e3c cdb7 473c 6f79 29bc
000000d0: 700f f33b 2934 19ba 919b 13bb f7a2 903c
000000e0: 5111 143c 0b0f f63b 3b72 52bc 27b3 8cbc
000000f0: 066a dc3b bd76 7e3a b4bd a03c a110 5ebc

encoder_c.convs.1.weight f4 [64, 64]
0.13929124 -0.055429928 0.032989003 0.15001383 0.20791855 0.070685685 0.04777171 -0.01861321
0.10544184 -0.17100151 0.11905315 0.07477797 0.15928705 0.018552773 -0.00036566777 0.1626898
-0.19776854 0.000177338 -0.031183537 0.14044054 0.081182994 -0.058661215 0.049399413 -0.19089302
-9.324697e-05 0.06877172 -0.0011561944 -0.032853134 0.06265689 0.15432534 -0.14145055 0.022511909
0.015032749 0.027107706 0.03256119 0.06809838 0.09273033 -0.11310372 0.08300069 -0.027130216
-0.12331204 0.017471736 -0.068761975 -0.10712033 0.126158 0.1435718 0.13784356 0.03959327
-0.14758432 -0.010805048 -5.3751013e-14 0.19762692 -0.07650316 -0.0059721316 -0.17074442 0.19432256
-0.015466885 0.12084828 -0.031889062 -0.028927764 0.014712693 0.02126228 0.19158769 0.01902688
-0.004602229 0.08306124 0.0054844394 -0.21551813 -0.14859253 -0.017697625 0.017128292 -0.028909426
-0.018974217 0.077802934 0.03354309 -0.0516109 -0.079927705 0.0040977746 3.5982428e-12 0.086801
0.024485216 0.0004651331 -0.022104355 -0.079421945 0.09340271 -0.120134026 0.0010689175 0.038237423
0.0004010239 -0.19481412 -0.039625924 0.0035617882 0.047000203 0.07394552 -0.15389547 0.094421715
-0.13995636 -0.014517209 -0.02888656 0.05972219 0.030287364 0.054686572 -0.11413964 -0.031454384
0.21921554 -0.057651524 -0.011952729 0.023822824 0.03973006 -0.13727759 -0.15725973 0.05575903
-0.16079648 0.091601074 -3.9031777e-12 0.043883346 0.031080287 0.11221252 -0.03924274 0.035870295
0.15960771 0.015262831 -0.061670333 0.041690357 -0.03896497 0.06906815 -0.03554907 -0.083605625
0.047434352 -0.14499132 0.110767536 -0.15791033 -0.15561996 0.119853646 0.14588584 -0.013172505
0.12717845 -0.10896233 -0.089681104 -0.18990415 0.04993284 -0.102562815 -5.8791065e-06 0.16792135
-0.065203264 0.07213717 -0.027002001 0.108387485 -0.051080935 0.1624227 -0.020256449 0.1705892
-0.00010121097 -0.1496564 -0.01670862 0.007942876 -0.0884376 -0.13720807 0.17455365 0.041742004
0.14663826 -0.000924653 -0.037374347 0.06066414 -0.04807737 0.21315092 0.20608515 -0.10992817
0.07623432 0.05957851 -0.034390498 -0.11026854 -0.117474005 -0.025943512 0.18972115 -0.013551774
0.20036417 -0.03245199 1.8032674e-13 -0.1676098 -0.010523467 -0.07947747 -0.21260834 -0.16010179
-0.011410641 0.11769372 -0.07861472 0.034544084 -0.12985595 0.07010735 0.20128646 -0.023606302
-0.18960562 -0.15080528 0.06612784 0.034479275 0.08553965 -0.17831294 0.025385223 0.15699604
0.071471356 -0.12064801 -0.009376843 0.18492892 0.14507031 -0.013149713 3.5246463e-05 0.07079514
-0.049642388 0.051485196 0.086950265 0.14755839 -0.18520033 0.10261153 -0.012290982 -0.028776193
-4.5800556e-05 -0.12413644 -0.005485741 0.0076115928 0.007945056 0.1352756 -0.021981994 0.011116829
0.042246137 0.009550215 0.09516411 0.17096706 -0.06336866 0.10526932 -0.13460042 -0.04248433
0.06519887 -0.0111266645 -0.13096349 0.08783131 -0.07989656 -0.032642342 -0.027546242 -0.017412066
0.16976644 0.090103105 -1.0223343e-14 0.02304806 0.00011186828 -0.069505736 -0.18665068 0.10974425
0.18869953 0.16212769 0.1329756 -0.07631012 0.017673265 0.18892607 -0.049451552 0.0073613813
00000000: 5da2 0e3e 7e0a 63bd 7a1f 073d 3a9d 193e
00000010: 9ae8 543e a8c3 903d 45ac 433d bb7a 98bc
00000020: e4f1 d73d 051b 2fbe 23d2 f33d 3125 993d
00000030: 251c 233e fcfb 973c 19b7 bfb9 2898 263e
00000040: d683 4abe cff3 3939 9e74 ffbc a5cf 0f3e
00000050: 4543 a63d be46 70bd 0a57 4a3d 7679 43be
00000060: 968d c3b8 30d8 8c3d 728b 97ba 0291 06bd
00000070: 4152 803d 7607 1e3e 6ad8 10be e56a b83c
00000080: eb4b 763c fb10 de3c e25e 053d 2a77 8b3d
00000090: 66e9 bd3d eca2 e7bd 44fc a93d 3040 debc
000000a0: 068b fcbd e320 8f3c 14d3 8cbd e761 dbbd
000000b0: 902f 013e 7c04 133e dd26 0d3e 8d2c 223d
000000c0: 5820 17be a807 31bc b312 72a9 b65e 4a3e
000000d0: b0ad 9cbd dfb1 c3bb a0d7 2ebe 7efc 463e
000000e0: d168 7dbc 4e7f f73d 1b9e 02bd ebf9 ecbc
000000f0: 820d 713c 3c2e ae3c 902f 443e 42de 9b3c
00000100: 4cce 96bb 031c aa3d d0b6 b33b c9b0 5cbe
00000110: a428 18be 9cfa 90bc a250 8c3c 76d3 ecbc
00000120: d16f 9bbc 2557 9f3d 7b64 093d f365 53bd
00000130: 23b1 a3bd a046 863b 2e34 7d2c b9c4 b13d
00000140: 3895 c83c 1cdd f339 3114 b5bc f9a7 a2bd
00000150: ec49 bf3d d408 f6bd eb1a 8c3a d89e 1c3d
00000160: 8440 d239 5a7d 47be cb4e 22bd e46c 693b
00000170: 4983 403d c070 973d c696 1dbe 2c60 c13d
00000180: b850 0fbe 96d9 6dbc 82a3 ecbc 419f 743d
00000190: 351d f83c 07ff 5f3d 0bc2 e9bd 50d6 00bd
000001a0: 0a7a 603e 0124 6cbd 61d5 43bc 1528 c33c
000001b0: fdbb 223d 7f92 0cbe b208 21be 9563 643d
000001c0: d5a7 24be 5899 bb3d b354 89ac 06bf 333d
000001d0: 169c fe3c adcf e53d ffbc 20bd bbec 123d
000001e0: 3470 233e f410 7a3c 089a 7cbd 82c3 2a3d
000001f0: bb99 1fbd 9a73 8d3d e79b 11bd 6d39 abbd
00000200: 864a 423d 9b78 14be 17da e23d 3fb3 21be
00000210: d75a 1fbe d475 f53d 1963 153e 7ed1 57bc
00000220: 113b 023e a427 dfbd baaa b7bd 3c76 42be
00000230: 6186 4c3d 740c d2bd 2445 c5b6 93f3 2b3e
00000240: 4a89 85bd a7bc 933d 4d33 ddbc 42fa dd3d
00000250: 3e3a 51bd 2352 263e daf0 a5bc efae 2e3e
00000260: 3a41 d4b8 873f 19be 84e0 88bc d622 023c
00000270: c61e b5bd 4680 0cbe 31be 323e aaf9 2a3d
00000280: 5728 163e 6a64 72ba d815 19bd f67a 783d
00000290: c7ec 44bd 3c44 5a3e fc07 533e 0522 e1bd
000002a0: bd20 9c3d 9808 743d 0ddd 0cbd 79d4 e1bd
000002b0: 3696 f0bd 7d87 d4bc 4346 423e 4308 5ebc
000002c0: 442c 4d3e 61ec 04bd a507 4b2a e7a1 2bbe
000002d0: 9f6a 2cbc 15c5 a2bd 00b6 59be b9f1 23be
000002e0: b2f3 3abc 6809 f13d c100 a1bd 197e 0d3d
000002f0: f5f8 04be 7194 8f3d 0a1e 4e3e 0162 c1bc
00000300: fa27 42be b36c 1abe 086e 873d 243a 0d3d
00000310: 692f af3d ab97 36be acf4 cf3c 92c3 203e
00000320: 935f 923d 4e16 f7bd 55a1 19bc 025e 3d3e
00000330: 508d 143e e571 57bc 9ad5 1338 0bfd 903d
00000340: d155 4bbd 24e2 523d fb12 b23d 8c19 173e
00000350: 28a5 3dbe fe25 d23d 1d60 49bc 0dbc ebbc
00000360: f919 40b8 3f3b febd bbc1 b3bb ab6a f93b
00000370: fb2b 023c b085 0a3e 9513 b4bc 5c23 363c
00000380: 490a 2d3d 8178 1c3c 67e5 c23d fd11 2f3e
00000390: 6ec7 81bd 7197 d73d b1d4 09be 0c04 2ebd
000003a0: fc86 853d 9d4c 36bc 4b1b 06be e7e0 b33d
000003b0: cfa0 a3bd fab3 05bd a8a8 e1bc c0a3 8ebc
000003c0: 41d7 2d3e fa87 b83d d92a 38a8 49cf bc3c
000003d0: d39a ea38 0659 8ebd 5b21 3fbe 98c1 e03d
000003e0: 733a 413e cd04 263e c12a 083e 7b48 9cbd
000003f0: 86c7 903c d675 413e b68d 4abd be37 f13b

encoder_c.convs.1.bias f4 [64]
0.0048198034 -0.00035463448 -0.010745587 -0.0037635572 0.01594892 -0.0041295635 0.010139496 0.017594388
0.0002858812 0.0076328595 0.011204906 0.004993724 0.0069347653 0.016042328 -0.007381989 0.0047756284
-0.012823336 -0.011568686 0.00179812 -0.0020353775 0.016281733 0.01190951 0.0067165038 0.015254938
-0.018425101 0.0055227955 -0.011270087 -0.00036582115 0.018329572 0.009646813 -0.0036624977 0.0012592762
0.0088513335 -0.0008436278 -0.006752201 0.003419718 0.009630042 0.020208756 0.005073191 0.015575853
0.019343447 0.010778344 0.001879154 0.013808985 -0.0030569504 -0.0014476877 0.013318495 0.010026882
0.0009067784 0.017148603 -0.009173636 0.0030067265 0.0045079365 0.016024277 0.0071417606 0.0013323365
0.008588617 0.010859398 0.004741945 0.0057029664 0.016140949 0.00770604 -0.0061165057 0.011765915
00000000: 71ef 9d3b 3cee b9b9 420e 30bc 03a6 76bb
00000010: 4fa7 823c 4a51 87bb 2120 263c 1b22 903c
00000020: 53e2 9539 111d fa3b c894 373c 65a2 a33b
00000030: 073d e33b 336b 833c 9de4 f1bb e07c 9c3b
00000040: f818 52bc 968a 3dbc e5ae eb3a f863 05bb
00000050: 4561 853c 1b20 433c 1e16 dc3b d9ef 793c
00000060: 3df0 96bc 91f8 b43b 2ca6 38bc afcb bfb9
00000070: e627 963c ab0d 1e3c 8406 70bb 4c0e a53a
00000080: 2f05 113c e726 5dba 9141 ddbb 591d 603b
00000090: 53c7 1d3c d58c a53c 033d a63b dd31 7f3c
000000a0: 2676 9e3c a797 303c f24d f63a 153f 623c
000000b0: 1e57 48bb 57c0 bdba d135 5a3c cb47 243c
000000c0: deb4 6d3a 3a7b 8c3c 054d 16bc 800c 453b
000000d0: 50b7 933b 5845 833c 6e05 ea3b cba1 ae3a
000000e0: 45b7 0c3c 9eeb 313c 5162 9b3b f3df ba3b
000000f0: 063a 843c f382 fc3b f86c c8bb d3c5 403c

encoder_c.convs.2.weight f4 [64, 64]
-0.009005405 -0.16336395 -0.0062156757 -0.075920545 -0.1397902 -0.044996627 -0.00971716 0.021397652
0.17531893 -0.14713915 -0.08124733 0.0416074 -0.031086529 -0.09819543 -0.050797462 0.11811309
-0.011705476 -0.06618503 -0.0897307 -0.14830203 -0.053838078 0.033914384 -0.037368037 0.06033419
-0.057077 0.08083504 0.12592183 -0.14341192 0.018712992 0.073992446 -0.159226 -0.09453847
-0.039133217 0.051797148 -0.106133826 -0.09049942 -0.021713983 -0.008248681 -0.10795617 0.0566745
0.13192339 -0.053012606 -0.0926759 0.17999424 0.13534558 -0.08300577 -0.14013301 -0.054012887
0.14456359 0.07883165 -0.16577803 0.046034463 0.1335896 -0.18247408 -0.053577423 -0.14287326
0.14511591 0.045276474 0.0018174228 0.017460292 0.042720437 -0.14976652 -0.0018439677 0.056456678
0.013473448 0.17196077 0.021765197 0.030965995 0.060331915 -0.12874126 -0.10382578 0.06976764
-0.19419366 -0.033469044 -0.14492318 -0.005687551 -0.12626192 0.009208445 0.16532622 -0.038117673
0.0045482647 -0.05539019 0.17926589 0.024617093 -0.16870204 0.11648193 0.13638389 0.052017685
0.012487954 0.13864867 0.14684778 -0.034381587 -0.02787858 -0.1831806 -0.16016759 0.162402
0.08762878 0.16135474 -0.051714268 0.025794271 -0.12010677 -0.17878503 -0.1798806 -0.10430864
-0.13598956 0.08892209 0.0082970625 -0.13419758 -0.2132745 0.03620814 0.22031868 -0.022992766
-0.06264091 -0.1515409 0.07046451 -0.0057604667 0.13538687 -0.01819117 -0.12661879 -0.18715978
-0.011043531 -0.13425276 -0.056640193 0.021705933 -0.08612182 -0.0751333 0.01241358 0.004724004
-0.052460205 -0.13904075 -0.18947646 0.029109525 -0.09985164 0.004397756 0.17651787 -0.07896673
0.06619657 -0.13189685 0.17003617 0.07591141 -0.0564367 -0.020640142 0.119840674 -0.041601356
0.0027843735 0.1219644 -0.0749323 0.15960442 -0.004383497 0.0855012 -0.009781236 0.076414734
0.07352353 -0.023800053 0.04127471 0.08365417 -0.08911402 0.097146705 0.20705071 0.18214509
0.064280055 0.09488991 -0.010424543 -0.10282241 0.047858592 0.21297802 -0.10053437 -0.16613448
-0.14529473 0.034626123 0.07676378 0.052749865 -0.15361966 0.07436684 -0.11914875 0.05071228
0.09896899 0.15492804 -0.012409019 -0.0074891974 0.0023106914 0.12732387 -0.107659295 -0.18027471
0.11047865 0.19575864 -0.051331487 -0.0022143694 -0.057581928 0.11015482 -0.009363683 -0.0039312565
0.08884523 -0.120732956 -0.061402127 -0.13394748 0.050608292 0.01095912 -0.16040082 0.15088579
0.16506222 0.055319242 0.20932406 -0.09511972 -0.032741785 0.028006606 0.2093781 0.07783159
0.052098043 0.050510593 0.07034295 0.1349321 0.14010715 -0.011027949 0.04771824 -0.09069864
0.079897895 -0.18532263 -0.056929458 0.026513355 -0.026641294 0.03924474 -0.056553975 -0.011965357
-0.0047819945 -0.11593419 0.044080306 0.07860976 0.060132824 0.044444166 -0.0503527 0.088373005
0.13293639 -0.10690883 0.01959539 0.061862595 0.16353843 0.026649348 -0.16333471 -0.044162493
-0.13469437 0.11796698 0.21903123 -0.027476761 0.14681561 0.20879166 -0.054779746 0.08709437
-0.08794558 0.10200695 -0.21262474 -0.018336404 -0.029427197 0.041056447 -0.0026542784 0.04085163
00000000: 688b 13bc e148 27be deac cbbb 3b7c 9bbd
00000010: 2a25 0fbe 624e 38bd b934 1fbc 214a af3c
00000020: ce86 333e a5ab 16be 0065 a6bd 856c 2a3d
00000030: 2da9 febc b01a c9bd 0011 50bd 47e5 f13d
00000040: 53c8 3fbc 048c 87bd bbc4 b7bd 7ddc 17be
00000050: 5185 5cbd cfe9 0a3d 3a0f 19bd fc20 773d
00000060: 93c9 69bd d78c a53d a7f1 003e 93da 12be
00000070: fd4b 993c 5a89 973d 240c 23be 639d c1bd
00000080: 274a 20bd 3f29 543d b15c d9bd c357 b9bd
00000090: 86e1 b1bc 7a25 07bc 2018 ddbd 8523 683d
000000a0: ed16 073e bf23 59bd ddcc bdbd 6950 383e
000000b0: 0898 0a3e eefe a9bd 077f 0fbe 9e3c 5dbd
000000c0: 7a08 143e 7d72 a13d b7c1 29be a28e 3c3d
000000d0: b6cb 083e 7cda 3abe 0074 5bbd 5e4d 12be
000000e0: 4499 143e d373 393d 9736 ee3a e308 8f3c
000000f0: a0fb 2e3d 655c 19be 4ab1 f1ba 1e3f 673d
00000100: bdbf 5c3c 7c16 303e ed4c b23c 66ac fd3c
00000110: 991e 773d c0d4 03be 9ca2 d4bd 56e2 8e3d
00000120: b4da 46be d616 09bd be66 14be a35e babb
00000130: ce4a 01be 05df 163c 474b 293e 4721 1cbd
00000140: 9c09 953b d3e0 62bd 7a91 373e c9a9 c93c
00000150: 3ac0 2cbe 148e ee3d 38a8 0b3e 7f10 553d
00000160: 479a 4c3c ebf9 0d3e 445f 163e b5d3 0cbd
00000170: 9f61 e4bc b293 3bbe f902 24be b64c 263e
00000180: b876 b33d 2d3a 253e 57d2 53bd 824e d33c
00000190: 8afa f5bd 6c13 37be 9f32 38be c59f d5bd
000001a0: d940 0bbe c91c b63d 67f0 073c 176b 09be
000001b0: a164 5abe fd4e 143d 389b 613e 535b bcbc
000001c0: e149 80bd 8a2d 1bbe b24f 903d 4cc2 bcbb
000001d0: dba2 0a3e a605 95bc 5ba8 01be d0a6 3fbe
000001e0: edef 34bc 8e79 09be 8cff 67bd a4d0 b13c
000001f0: a360 b0bd 7ddf 99bd 5462 4b3c d1cb 9a3b
00000200: 83e0 56bd b360 0ebe 1e06 42be 1977 ee3c
00000210: 047f ccbd 0d1b 903b 1ac1 343e 4fb9 a1bd
00000220: 1192 873d f80f 07be f61d 2e3e 7177 9b3d
00000230: 2b2a 67bd 8415 a9bc 076f f53d 2f66 2abd
00000240: 097a 363b 79c8 f93d 1b76 99bd 576f 233e
00000250: 70a3 8fbb 411b af3d 7a41 20bc 547f 9c3d
00000260: 8193 963d 54f8 c2bc ac0f 293d e152 ab3d
00000270: 6981 b6bd daf4 c63d 1a05 543e 3e84 3a3e
00000280: 43a5 833d a455 c23d b4cb 2abc 8e94 d2bd
00000290: 5f07 443d e916 5a3e f7e4 cdbd 281f 2abe
000002a0: 24c8 14be 1fd4 0d3d 5436 9d3d 3e10 583d
000002b0: 794e 1dbe a44d 983d 4304 f4bd aeb7 4f3d
000002c0: 41b0 ca3d 75a5 1e3e 334f 4bbc f167 f5bb
000002d0: f86e 173b 3061 023e 7a7c dcbd ef99 38be
000002e0: a142 e23d f474 483e f740 52bd f41e 11bb
000002f0: 07db 6bbd da98 e13d 226a 19bc c5d1 80bb
00000300: 7df4 b53d d742 f7bd cc80 7bbd 8729 09be
00000310: a44a 4f3d e18d 333c 1d40 24be ce81 1a3e
00000320: 1206 293e 6e96 623d 0c59 563e 21ce c2bd
00000330: 401c 06bd 1c6e e53c 3667 563e 2b66 9f3d
00000340: c264 553d 32e4 4e3d f70f 903d a42b 0a3e
00000350: 4078 0f3e 92ae 34bc 3474 433d 35c0 b9bd
00000360: 82a1 a33d 37c5 3dbe dd2e 69bd 8932 d93c
00000370: d83e dabc 18bf 203d 24a5 67bd 580a 44bc
00000380: 47b2 9cbb e86e edbd 8d8d 343d 27fe a03d
00000390: d64d 763d 160b 363d a23e 4ebd e8fc b43d
000003a0: 7a20 083e 04f3 dabd 8386 a03c a263 7d3d
000003b0: 9e76 273e bc4f da3c 3741 27be bbe3 34bd
000003c0: 52ed 09be ac98 f13d b949 603e f216 e1bc
000003d0: d556 163e 7bcd 553e ba60 60bd 885e b23d
000003e0: d01c b4bd 05e9 d03d 4dba 59be 3a36 96bc
000003f0: 4e11 f1bc ce2a 283d 67f3 2dbb 0a54 273d

encoder_c.convs.2.bias f4 [64]
0.005416592 0.013020844 0.0062424517 -0.014588152 0.0026754155 -0.007172403 0.0012820562 -0.0033450068
0.008721992 -0.016662646 -0.002883413 0.0042589745 0.0022219908 -0.012501435 0.016313441 -0.0034657533
0.0015998652 0.006858014 -0.0047341287 -0.0149187995 0.012338274 0.003383553 -0.010935325 0.017407065
0.0027007568 0.004685734 0.007465875 -0.007584608 0.009533804 0.0026843697 -0.0014446671 0.0045205466
-0.00041454152 -0.003285806 -0.012436608 -0.0070992815 -0.004592137 -0.0025214863 -0.0038303724 -0.016231453
0.012119709 0.0064342073 -0.0025753754 -0.011886476 -0.006317216 0.021464111 0.0026911404 -0.009768292
0.0029279084 0.0075323028 -0.0011968074 -0.0035766615 -0.010685297 -0.0031672711 -0.0029738876 -0.013518037
-0.025877712 0.003394249 0.011262639 0.016768513 0.009955279 -0.004502093 -0.0026762618 -0.002134211
00000000: ab7d b13b 6155 553c 7b8d cc3b 2503 6fbc
00000010: 0656 2f3b 7a06 ebbb ab0a a83a e737 5bbb
00000020: b0e6 0e3c 1a80 88bc a5f7 3cbb de8e 8b3b
00000030: d29e 113b d2d2 4cbc c4a3 853c b121 63bb
00000040: 91b2 d13a 31b9 e03b c020 9bbb fb6d 74bc
00000050: 7926 4a3c 99be 5d3b 142a 33bc 4399 8e3c
00000060: 2eff 303b c98a 993b 4ca4 f43b 4e88 f8bb
00000070: ac33 1c3c 40ec 2f3b fc5a bdba 1821 943b
00000080: d256 d9b9 ad56 57bb eac2 4bbc 17a1 e8bb
00000090: a379 96bb 853f 25bb fc06 7bbb d3f7 84bc
000000a0: be91 463c 0bd6 d23b a1c7 28bb 7ebf 42bc
000000b0: a600 cfbb 81d5 af3c d85d 303b 300b 20bc
000000c0: 27e2 3f3b 89d1 f63b 31de 9cba 6c66 6abb
000000d0: 6211 2fbc fe91 4fbb 8ee5 42bb c27a 5dbc
000000e0: 7ffd d3bc 0c72 5e3b ef86 383c 1f5e 893c
000000f0: 771b 233c 4b86 93bb 3964 2fbb 1ede 0bbb

encoder_b.convs.0.weight f4 [116, 64]
-0.05862236 0.06582384 -0.10935036 0.030761097 -0.08922023 0.024483126 0.028964844 0.08163793
0.0037100862 -0.04056891 0.084980056 -0.04886002 0.04542679 -0.110631034 -0.009539485 -0.15074968
-0.11606198 0.09690038 0.09707292 0.05404264 -0.038253833 0.09718966 0.18156998 -0.050912585
0.07940591 -0.14367959 0.083601765 0.002856278 -0.08044029 -0.002935277 -0.11473859 0.16740677
0.007268615 0.1110659 0.1065059 0.08944315 0.15392534 -0.06761775 0.094811045 0.034547172
0.021695638 -0.011045259 -0.004534376 -0.048932984 0.17408495 -0.09707358 -0.12426306 -0.11621268
-0.14556584 -0.05750701 0.037610434 0.13917845 0.095774695 0.12158833 -0.06790287 0.09067609
0.11072234 0.07337823 0.118827544 -0.00701739 0.06350215 0.113384835 0.008995856 0.046279464
-0.050957456 -0.018351521 -0.014579079 -0.05574296 0.12320799 0.082950026 0.007846415 -0.00460257
0.00014421281 -0.08217847 0.14838396 0.03352017 -0.1115185 -0.07677275 -0.05395647 -0.09427253
0.13071395 -0.015722515 0.06394748 0.05007615 0.050711427 -0.11343754 -0.0663001 -0.04760562
-0.025075318 -0.06406198 0.117746115 -0.04655082 -0.021795353 -0.027313652 -0.09568401 0.10974335
-0.015465253 0.049855966 0.09891144 -0.05316066 0.061176956 0.14422971 -0.12197737 -0.026358843
0.07128206 0.08214257 0.084826216 -0.007941408 -0.103948824 -0.12252049 0.14562525 0.10459156
-0.035643067 0.050043546 0.12380155 0.16433541 0.10008172 -0.034732465 0.021549705 0.076103784
-0.070479915 0.0380163 -0.02620663 -0.116836384 -0.15507576 0.09769808 -0.00028081174 -0.011259139
0.081679724 -0.09978226 -0.03308411 -0.10765722 0.061364632 -0.011715879 0.026800914 -0.0074120103
-0.07453394 -0.056384295 -0.09341592 0.15160835 0.009678531 0.032071684 0.08250775 -0.11840631
0.08596751 0.14206536 -0.046124186 -0.03407398 0.08684129 -0.10976563 -0.023335563 -0.070563495
-0.003070455 0.14888 -0.039440855 0.130469 -0.153591 0.057867993 -0.04672923 0.11881578
-0.00094044727 -0.16724797 -0.12101364 -0.06272811 -0.16177236 0.13267489 0.0227711 0.046400547
-0.059628643 -0.113372564 0.108077236 0.07388984 0.15190421 -0.08212693 -0.097555764 -0.0141774155
-0.07798277 -0.00060255796 0.020239968 -0.078109205 0.15601906 0.00018041304 -0.009134409 -0.084108435
0.16125287 0.16580616 0.16727717 0.17092583 0.13773166 -0.04474446 0.015614632 0.0003583564
-0.16056328 0.024607934 0.10813435 -0.02386656 -0.006159432 -0.027133891 0.112668395 0.012700537
-0.0364764 -0.05943245 0.03389143 0.031856935 0.03562335 -0.101827815 0.12608364 0.122577615
-0.0285078 0.15847299 0.0031180703 0.16293646 0.15848745 -0.055050246 0.15842225 -0.010047928
-0.04128991 -0.015638787 0.12930286 -0.0040462012 0.14794302 -0.00954639 -0.13403553 0.08977323
-0.038834553 -0.06326035 0.06443752 -0.12433548 0.009145653 -0.104528286 0.017674565 0.007843606
0.14276025 0.013765073 -0.09192613 0.1321024 0.14915398 0.037949506 -0.12990259 -0.044009075
0.057026207 0.024343146 -0.10006825 -0.029096346 -0.0522205 -0.099302046 -0.041310947 0.012922609
-0.15066192 0.10607589 -0.05069447 -0.082050174 -0.07559638 -0.07445963 -0.10824313 -0.024059359
00000000: 001e 70bd a6ce 863d 15f3 dfbd b2fe fb3c
00000010: 19b9 b6bd d690 c83c ae47 ed3c c931 a73d
00000020: eb24 733b 962b 26bd 060a ae3d 7221 48bd
00000030: 7111 3a3d 8692 e2bd 804b 1cbc 205e 1abe
00000040: e7b1 edbd b573 c63d 2bce c63d d15b 5d3d
00000050: 0db0 1cbd 5f0b c73d 7bed 393e b789 50bd
00000060: 919f a23d be20 13be 6737 ab3d 6530 3b3b
00000070: e1bd a4bd c75d 40bb 11fc eabd ae6c 2b3e
00000080: 902d ee3b 8576 e33d c41f da3d f82d b73d
00000090: 9b9e 1d3e 2d7b 8abd 4b2c c23d 5681 0d3d
000000a0: 0dbb b13c 2df7 34bc 1a95 94bb f46d 48bd
000000b0: 5343 323e 83ce c6bd a27d febd ea00 eebd
000000c0: 360f 15be 788c 6bbd 660d 1a3d cc84 0e3e
000000d0: 8625 c43d 4d03 f93d a910 8bbd 63b4 b93d
000000e0: 65c2 e23d 5347 963d db5b f33d 22f2 e5bb
000000f0: 6a0d 823d 4f36 e83d 5b63 133c 898f 3d3d
00000100: c4b8 50bd ee55 96bc 17dd 6ebc bb52 64bd
00000110: 7854 fc3d b4e1 a93d 408e 003c 28d1 96bb
00000120: d537 1739 304d a8bd f7f1 173e 724c 093d
00000130: d063 e4bd 083b 9dbd 7601 5dbd f511 c1bd
00000140: e1d9 053e 81cc 80bc e5f6 823d a61c 4d3d
00000150: c9b6 4f3d f151 e8bd 59c8 87bd 1cfe 42bd
00000160: c16a cdbc ed32 83bd e024 f13d 13ac 3ebd
00000170: 2b8c b2bc e1c0 dfbc faf5 c3bd 1fc1 e03d
00000180: f961 7dbc c535 4c3d 1592 ca3d febe 59bd
00000190: b094 7a3d f4b0 133e 45cf f9bd 80ee d7bc
000001a0: 54fc 913d 5d3a a83d 5eb9 ad3d ae1c 02bc
000001b0: 1fe3 d4bd 06ec fabd c91e 153e 1a34 d63d
000001c0: 77fe 11bd 76fa 4c3d ab8b fd3d 8b47 283e
000001d0: a5f7 cc3d a143 0ebd 0289 b03c 4ddc 9b3d
000001e0: c657 90bd fbb6 1b3d 49af d6bc ea47 efbd
000001f0: 2ecc 1ebe ee15 c83d ea39 93b9 4078 38bc
00000200: b347 a73d a45a ccbd 3483 07bd 637b dcbd
00000210: 7b59 7b3d f5f3 3fbc 978d db3c 73e0 f2bb
00000220: 40a5 98bd 38f3 66bd d950 bfbd 383f 1b3e
00000230: b492 1e3c 995d 033d d3f9 a83d 027f f2bd
00000240: bc0f b03d 9579 113e b7ec 3cbd 2891 0bbd
00000250: d9d9 b13d cdcc e0bd 392a bfbc 9883 90bd
00000260: b039 49bb 0074 183e bc8c 21bd aa99 053e
00000270: f646 1dbe fd06 6d3d 2667 3fbd b055 f33d
00000280: 5988 76ba 0d43 2bbe 00d6 f7bd 9877 80bd
00000290: a7a7 25be eddb 073e 758a ba3c 800e 3e3d
000002a0: 2a3d 74bd e02f e8bd 9957 dd3d 8e53 973d
000002b0: c78c 1b3e 2a32 a8bd 51cb c7bd 6448 68bc
000002c0: 6eb5 9fbd fbf4 1dba 4ace a53c b8f7 9fbd
000002d0: 76c3 1f3e 422d 3d39 7da8 15bc 0b41 acbd
000002e0: 791f 253e 17c9 293e b54a 2b3e 2e07 2f3e
000002f0: 8709 0d3e f845 37bd 83d4 7f3c c8e1 bb39
00000300: b36a 24be 9496 c93c 8b75 dd3d ce83 c3bc
00000310: 10d5 c9bb e547 debc b0be e63d ea15 503c
00000320: 4768 15bd 716f 73bd bdd1 0a3d 6b7c 023d
00000330: cae9 113d 1a8b d0bd 121c 013e f909 fb3d
00000340: 3189 e9bc be46 223e 8a58 4c3b d1d8 263e
00000350: 894a 223e 5e7c 61bd 7139 223e 11a0 24bc
00000360: 9c1f 29bd ea1c 80bc f867 043e ff95 84bb
00000370: 607e 173e 7668 1cbc 9c40 09be 07db b73d
00000380: fb10 1fbd a48e 81bd d2f7 833d 9aa3 febd
00000390: a6d7 153c ed12 d6bd 40ca 903c 7882 003c
000003a0: be2f 123e e786 613c c443 bcbd da45 073e
000003b0: d2bb 183e f170 1b3d 2f05 05be dc42 34bd
000003c0: 5094 693d 476b c73c 95f0 ccbd 765b eebc
000003d0: 2ae5 55bd df5e cbbd ab35 29bd 5ab9 533c
000003e0: 1e47 1abe 513e d93d 01a5 4fbd ec09 a8bd
000003f0: 46d2 9abd 4a7e 98bd 93ae ddbd 2218 c5bc

encoder_b.convs.0.bias f4 [64]
0.009971658 0.007100093 -0.0043145292 -0.007310442 -0.014171118 -0.012378526 0.0069255 -0.0063725626
-0.0015046273 0.0028695485 0.005892706 0.010353023 0.013977981 0.009547776 0.0032794292 -0.011008552
-0.0115325805 0.004768703 0.0064239316 0.00043262664 0.0012820612 -0.0014751205 0.014484478 0.0058537554
-0.004307276 0.013119352 0.0031333256 0.011017125 0.013473279 -0.011087483 0.0034575888 0.013483125
0.00036796043 -0.012992889 -0.00048169037 -0.004779793 0.012760305 0.011086385 -0.008675579 -0.013802212
0.010078362 -0.009971448 0.013267063 0.011085806 0.015496799 -0.0021543119 -0.00565179 0.0012252774
-0.0035829449 -0.0059921425 0.0040255687 0.0026606517 -0.007761277 -0.011264439 -0.009571179 -0.000630676
0.011336535 0.011546196 -6.170796e-05 0.007854403 -0.002814089 -0.006428774 -0.0008948741 -0.013739901
00000000: 2a60 233c e6a7 e83b e560 8dbb 6f8c efbb
00000010: fa2d 68bc 4dcf 4abc 4eef e23b eed0 d0bb
00000020: ea36 c5ba 090f 3c3b 9a17 c13b ba9f 293c
00000030: e703 653c 466e 1c3c b1eb 563b 375d 34bc
00000040: 26f3 3cbc c842 9c3b d87f d23b 2ad2 e239
00000050: d60a a83a d558 c1ba 4e50 6d3c dcd0 bf3b
00000060: 0d24 8dbb 8df2 563c 7b58 4d3b 2c81 343c
00000070: 07bf 5c3c 46a8 35bc b798 623b 53e8 5c3c
00000080: d0ea c039 20e0 54bc 638b fcb9 cf9f 9cbb
00000090: 9910 513c aba3 353c 0424 0ebc ac22 62bc
000000a0: b71f 253c 495f 23bc 185e 593c 3ea1 353c
000000b0: 49e6 7d3c 5b2f 0dbb a732 b9bb 7d99 a03a
000000c0: d7cf 6abb bc59 c4bb ebe8 833b 545e 2e3b
000000d0: 4f52 febb 7b8e 38bc 6fd0 1cbc f353 25ba
000000e0: e0bc 393c 422c 3d3c 3569 81b8 c1af 003c
000000f0: 946c 38bb 77a8 d2bb fc95 6aba 521d 61bc

encoder_b.convs.1.weight f4 [64, 64]
-0.114947714 0.017986707 -0.1368594 0.1281037 0.14268932 -0.07938866 0.02354015 -0.19365893
0.1554175 -0.085925356 0.16401803 0.15792564 -0.053607147 -0.02223094 -0.037624743 -0.05074311
-0.025553927 -0.036468294 0.05447927 -0.0669961 0.19671883 -0.06600098 -0.037771616 0.15714891
0.0017487194 0.09751509 0.0011512694 0.045353055 -0.017373357 -0.072625116 -0.004537044 -0.17850813
-0.12520386 -0.009163867 -0.065364234 -0.00085895363 -0.12771045 -0.08004598 0.034557056 -0.08145026
0.088664345 0.10083746 -0.20130815 -0.020884853 -0.07242406 0.1362418 -0.022128262 -0.0803878
-0.031510297 -0.117793635 -0.15112342 0.18259273 0.13442501 -0.08456431 -0.17172149 -0.03807853
0.022520497 0.0051102987 -0.012839715 -0.059703186 -0.11417994 -0.075232655 -0.016284542 -0.09894002
-0.101114534 0.086686395 -0.13988994 -0.18258686 0.10300247 -0.04575489 -0.018794632 -0.14874674
-0.05967762 -0.18774495 -0.05759962 -0.16874734 0.07335733 0.13012888 0.11581909 -0.027762614
-0.048396643 -0.101143025 -0.16455388 -0.061478823 -0.10750488 0.06334154 0.007761341 -0.03222199
0.13756353 -0.06290504 -0.09902262 -0.055188514 -0.11350621 -0.19338895 -0.19090816 -0.0018198383
0.19770578 0.20622505 -0.025507515 -0.10923026 0.09190701 0.0048331213 0.16610493 0.19100422
-0.061437253 -0.16245356 0.1036498 -0.19979069 -0.16920523 0.114781685 0.018532969 -0.07443294
0.079652295 0.016301824 -0.07438705 0.17364012 0.047614165 0.07927064 0.058527317 -0.07653901
-0.10688647 -0.04668469 0.010701991 -0.042050775 -0.16102396 -0.021220967 0.13728228 0.053237356
-0.08699918 -0.13846327 0.013583883 0.045794874 -0.07419078 -0.053504013 -0.13913144 0.16174677
-0.054035798 0.04771243 -0.14802381 0.03359573 -3.503347e-05 0.102413714 -0.12460065 -0.026396561
0.114011966 0.08548922 0.03032278 0.16086185 -0.05656304 -0.046755575 0.07054966 0.078802094
-0.055653315 0.093825445 0.0075206095 0.06705911 0.06937514 0.106054746 0.048778772 0.06930033
0.023466812 -0.099206574 -0.015659694 0.101324774 0.014256955 -0.06544259 -0.11054618 0.15487148
0.008065226 0.07004892 -0.030357504 -0.14445432 -9.3638875e-05 0.045755383 0.055463377 -0.00060423854
-0.15787064 0.0022246728 -0.15515198 -0.04271317 -0.00049149164 -0.14685741 -0.11060815 0.16159044
0.04031645 0.045207813 0.010944313 0.0886804 0.03459205 -0.04195714 0.010301215 0.010587392
-1.3878089e-06 0.007594758 0.14782476 0.12574239 -0.14012277 0.027461788 -0.012195329 0.0014924704
-0.009711734 -0.05951097 -0.10127257 -0.08486577 -0.14432828 0.04148668 0.020412192 0.038202424
-2.8470558e-07 -0.092964426 0.07855327 -0.08535981 0.011433464 0.06195367 -0.0010018831 1.8290708e-06
-0.1525385 -0.105088346 -0.1254993 -0.0016696412 0.02583397 0.033032272 0.13945083 0.029314699
-0.028010711 0.056573905 0.15883125 -0.017069677 -0.001739095 -0.015030586 0.051897302 0.11926683
0.01460907 0.16089629 0.0047125937 0.045185074 0.15964691 0.051327515 -0.09278439 -0.0029871215
-0.0022901301 0.1351537 0.07771983 -0.02933014 -0.00053107116 0.16158003 -0.026969854 0.011546783
0.04446219 -0.022420842 -0.1327983 0.07808793 0.14372766 -0.03548525 0.072676264 0.0052768053
00000000: b569 ebbd dc58 933c df24 0cbe 9e2d 033e
00000010: 261d 123e 8696 a2bd 46d7 c03c 874e 46be
00000020: c425 1f3e a2f9 afbd 58f4 273e 42b7 213e
00000030: 2b93 5bbd a91d b6bc 671c 1abd 02d8 4fbd
00000040: 7856 d1bc c75f 15bd a825 5f3d 4035 89bd
00000050: a970 493e 862b 87bd 69b6 1abd a5eb 203e
00000060: 4935 e53a feb5 c73d 31e6 963a 20c4 393d
00000070: 9252 8ebc 7abc 94bd 7cab 94bb d6ca 36be
00000080: 7135 00be 0b24 16bc afdd 85bd 672b 61ba
00000090: 87c6 02be 26ef a3bd b38b 0d3d 65cf a6bd
000000a0: a795 b53d df83 ce3d b923 4ebe b616 abbc
000000b0: 1153 94bd f882 0b3e 5446 b5bc 5ca2 a4bd
000000c0: f110 01bd ca3d f1bd 19c0 1abe 97f9 3a3e
000000d0: b6a6 093e 0e30 adbd c2d7 2fbe 3cf8 1bbd
000000e0: e87c b83c 4b74 a73b ab5d 52bc 548b 74bd
000000f0: 2cd7 e9bd 9413 9abd 2967 85bc 11a1 cabd
00000100: 2315 cfbd a388 b13d 4f3f 0fbe 0df8 3abe
00000110: f6f2 d23d 7b69 3bbd 33f7 99bc 1151 18be
00000120: 8570 74bd 3640 40be 94ed 6bbd 1acc 2cbe
00000130: 5e3c 963d 8140 053e 8f32 ed3d 6c6e e3bc
00000140: 8f3b 46bd 1324 cfbd d080 28be 38d1 7bbd
00000150: 852b dcbd 36b9 813d d952 fe3b 35fb 03bd
00000160: 74dd 0c3e 5cd4 80bd 5fcc cabd 5a0d 62bd
00000170: f275 e8bd c107 46be 6e7d 43be a487 eeba
00000180: 6273 4a3e a92c 533e 23f5 d0bc 1db4 dfbd
00000190: be39 bc3d 295f 9e3b 6917 2a3e 9c96 433e
000001a0: a1a5 7bbd 3a5a 26be 5946 d43d ee95 4cbe
000001b0: 2344 2dbe a912 eb3d 74d2 973c 4c70 98bd
000001c0: be20 a33d 678b 853c 3d58 98bd b7ce 313e
000001d0: 1207 433d a558 a23d 57ba 6f3d 7cc0 9cbd
000001e0: 4be7 dabd 7238 3fbd 6757 2f3c 6f3d 2cbd
000001f0: 77e3 24be 98d7 adbc ba93 0c3e 6a0f 5a3d
00000200: a02c b2bd 51c9 0dbe ef8e 5e3c 6893 3b3d
00000210: 56f1 97bd 0627 5bbd 7978 0ebe f2a0 253e
00000220: a454 5dbd 1c6e 433d 8e93 17be ad9b 093d
00000230: e7f0 12b8 48be d13d a02e ffbd 9a3d d8bc
00000240: 1b7f e93d f914 af3d 7b67 f83c f8b8 243e
00000250: a5ae 67bd c682 3fbd 577c 903d fe62 a13d
00000260: bbf4 63bd 8e27 c03d 726f f63b 4956 893d
00000270: 8e14 8e3d 3b33 d93d 40cc 473d 55ed 8d3d
00000280: 793d c03c d12c cbbd c248 80bc 5d83 cf3d
00000290: 0196 693c c406 86bd 0966 e2bd a196 1e3e
000002a0: 0224 043c cf75 8f3d 4db0 f8bc d5eb 13be
000002b0: fd5f c4b8 ff69 3b3d 912d 633d c365 1eba
000002c0: d7a8 21be d1cb 113b 29e0 1ebe 01f4 2ebd
000002d0: 72d7 00ba ca61 16be 8786 e2bd f777 253e
000002e0: dd22 253d d42b 393d c74f 333c 129e b53d
000002f0: 65b0 0d3d 40db 2bbd 6dc6 283c be76 2d3c
00000300: c044 bab5 73dd f83b 605f 173e 9dc2 003e
00000310: 587c 0fbe 8bf7 e03c ebce 47bc ff9e c33a
00000320: f71d 1fbc c6c1 73bd fe67 cfbd 1bce adbd
00000330: cbca 13be f0ed 293d 7837 a73c 257a 1c3d
00000340: a3d9 98b4 2264 bebd 89e0 a03d 20d1 aebd
00000350: 6c53 3b3c 22c3 7d3d 9e51 83ba 657e f535
00000360: 0d33 1cbe 8f38 d7bd e382 00be ddd7 daba
00000370: c3a1 d33c d94c 073d 33cc 0e3e 6125 f03c
00000380: b876 e5bc 0aba 673d a9a4 223e b5d5 8bbc
00000390: 58f2 e3ba d942 76bc 4492 543d 2b42 f43d
000003a0: e15a 6f3c ffc1 243e 1a6c 9a3b fc13 393d
000003b0: 7b7a 233e cd3c 523d be05 bebd 95c3 43bb
000003c0: 0216 16bb bb65 0a3e 932b 9f3d c345 f0bc
000003d0: 9537 0bba 3c75 253e e2ef dcbc b82e 3d3c
000003e0: fc1d 363d eaab b7bc 47fc 07be 91ec 9f3d
000003f0: 582d 133e fb58 11bd 4bd7 943d 0de9 ac3b

encoder_b.convs.1.bias f4 [64]
0.00010460631 0.0044486606 0.014467799 -0.009090807 0.013639376 0.0006623424 -0.0048355907 -0.005999741
0.00071143813 0.0090025645 0.013504117 0.014486728 -0.012873683 -0.008404133 -0.005832784 -0.0133849885
-0.0074578403 0.013794013 -0.010170815 -0.0025141374 0.0058071185 0.0064725215 -0.005728873 -0.008640718
0.007414817 0.010596584 0.0042598033 -0.005581208 0.011744748 -0.0018084608 0.013349094 0.0131017845
0.014169981 0.0034126267 -0.011099099 -0.005110241 -0.0076957014 -0.0032548069 0.012766798 -0.0018408038
0.008990267 -0.00569575 -0.00593668 -0.003184992 0.0055801687 0.0063255806 -0.003247944 -0.0017104286
0.010891247 0.0011410711 -0.011271859 0.012412626 -0.008865306 -0.014381244 0.0073695425 -0.009216424
0.008539983 0.006356416 -0.00049807376 0.006568905 0.0039192857 0.012750158 0.014327235 -0.0072627724
00000000: 1660 db38 12c6 913b 590a 6d3c 9cf1 14bc
00000010: b077 5f3c 0ca1 2d3a e073 9ebb 7a99 c4bb
00000020: ce7f 3a3a 7e7f 133c 5f40 5d3c be59 6d3c
00000030: 24ec 52bc 7db1 09bc f020 bfbb b64c 5bbc
00000040: e660 f4bb 4900 623c 7da3 26bc 3ac4 24bb
00000050: a449 be3b 7217 d43b 45b9 bbbb cc91 0dbc
00000060: fef7 f23b 4b9d 2d3c d295 8b3b 91e2 b6bb
00000070: 0b6d 403c e009 edba 29b6 5a3c dea8 563c
00000080: 3529 683c 60a6 5f3b ffd8 35bc cf73 a7bb
00000090: 392c fcbb 994e 55bb d52b 513c 2047 f1ba
000000a0: ea4b 133c 6aa3 babb 7b88 c2bb 4cbb 50bb
000000b0: d9d9 b63b d146 cf3b 75db 54bb 7630 e0ba
000000c0: 3371 323c fe8f 953a 9aad 38bc 545e 4b3c
000000d0: ca3f 11bc 4f9f 6bbc 347c f13b 7c00 17bc
000000e0: 49eb 0b3c 7b49 d03b 2a91 02ba f83f d73b
000000f0: 5a6d 803b 0ae6 503c c7bc 6a3c 8dfc edbb

encoder_b.convs.2.weight f4 [64, 64]
0.13788117 -0.12649359 -0.050890133 0.014518146 -0.039272677 -0.07025174 0.07676764 -0.0059192805
-0.03848395 -0.15236785 -0.0024510818 0.083560824 0.0329703 -0.029255541 0.11957008 -4.9416366e-07
-0.0052145813 0.15469027 -0.07504757 -0.046189554 0.15023871 -0.092528604 0.012694522 -0.08232695
0.07519404 0.13676314 -0.0038314671 -0.042044237 0.012971617 -0.13327637 -0.04948803 -0.14599936
9.712359e-08 -0.005396922 0.12089541 -0.053733505 -0.16139874 0.08388712 0.01970081 -0.10061172
0.10627912 -0.12611984 -0.063651554 -0.074788034 0.14630003 0.097065516 0.011973398 0.12336259
0.077490285 0.020239256 1.5032409e-08 -0.0072776023 0.07192646 0.101155 -0.003384865 0.0015933135
0.13199155 -0.06437493 -0.005716546 0.145001 0.014734116 0.049444597 -0.1430266 -0.010478951
0.19477466 -0.023419349 -0.015002095 0.07239342 0.17296149 -0.12694721 0.034377925 0.1015389
-0.024960412 0.15510511 -0.078868195 0.09042467 -0.051094525 0.019350601 -0.12588343 0.057317216
-0.10222639 0.16477658 -0.01635924 -0.14530012 -0.123169206 -0.18926696 -0.08615239 0.16095926
-0.1395703 -0.1873643 -0.13778561 0.05809054 -0.07168724 -0.050898734 0.21454492 0.13276638
-0.11503885 -0.13956451 0.1415703 0.14509204 -0.12300966 0.18817967 -0.19472468 0.18985657
0.0042126314 -0.04677635 0.17988326 0.14946754 0.16505206 0.03300469 -0.042968344 0.0818895
-0.18659109 0.14221819 0.00088883174 0.15033248 0.100184776 -0.14779472 -0.053505428 -0.05163719
-0.06999166 -0.14968611 0.19632037 -0.18971394 -0.07791153 0.13345988 0.017753372 0.09988923
0.02588363 -0.05418961 0.10835061 0.14899518 0.09913494 0.04313565 0.11859273 0.03000572
-0.11223755 0.00299934 -0.1631827 -0.19651759 0.1699611 0.020961542 -0.1373212 -0.20274898
-0.16197132 -0.15383253 -0.03235122 0.02214885 0.013067504 0.012159122 0.0592457 -0.0057065357
-0.078398034 0.097325616 -0.17728764 -0.085816085 -0.13529974 -0.100282945 0.15652762 -0.10126491
-0.20865896 0.07951513 -0.070399165 -0.071132496 0.04305051 -0.20663089 -0.19947678 -0.027172633
-0.15496966 0.1970452 0.11761118 0.17528057 0.12511685 0.033453614 -0.009013935 -0.08932954
-0.0077737654 -0.10913089 -0.17698258 -0.042879 -0.14190893 -0.1424006 -0.13073318 0.019649787
0.13087517 -0.0074113887 0.21218853 -0.1899409 -0.06250144 0.04818468 0.15580575 0.101411305
-0.08297019 -0.05058144 -0.0054548155 -0.018864563 0.16357999 -0.059419997 0.033174466 -0.035351425
-0.09376179 -0.007825989 -0.051873583 0.14193 0.06695092 0.11659947 -0.016674813 -0.087592736
0.1328312 -0.016649002 0.084106654 -0.017783808 0.06211759 0.016937824 -0.06911617 0.096035846
0.041206516 0.08368053 0.037293795 -0.014396159 0.031534784 -0.004465107 0.10433664 0.100810364
0.023871398 0.016413419 -0.09521919 -0.0020366912 -0.11836406 -0.010705998 -0.07891179 -0.10554067
-0.092756905 -0.009765526 0.11757619 -0.030252185 -0.015986364 -0.1533928 0.048929963 0.057437483
-0.03479557 0.14976034 -0.06795452 -0.131392 -0.121390805 -0.0754774 -0.050441016 0.093368895
-0.05947584 0.010213806 -0.10768015 -0.01592778 -0.006787873 -0.16271868 -0.09228454 0.014830908
00000000: b930 0d3e 8987 01be 2c72 50bd 85dd 6d3c
00000010: 63dc 20bd 25e0 8fbd 5a38 9d3d 86f6 c1bb
00000020: 59a1 1dbd 5106 1cbe 54a2 20bb f021 ab3d
00000030: de0b 073d 51a9 efbc 28e1 f43d aba6 04b5
00000040: 14df aabb 2067 1e3e 8ab2 99bd 4231 3dbd
00000050: 2dd8 193e a37f bdbd affc 4f3c 089b a8bd
00000060: 55ff 993d a30b 0c3e 5a19 7bbb 9436 2cbd
00000070: e886 543c 9a79 08be f6b3 4abd db80 15be
00000080: 4292 d033 aad8 b0bb 0398 f73d aa17 5cbd
00000090: b645 25be 03cd ab3d 9863 a13c 840d cebd
000000a0: dea8 d93d 8f25 01be bf5b 82bd 782a 99bd
000000b0: adcf 153e 49ca c63d 122c 443c 87a5 fc3d
000000c0: 3ab3 9e3d cccc a53c 9e20 8132 f478 eebb
000000d0: 2e4e 933d 5a2a cf3d 9cd4 5dbb bbd6 d03a
000000e0: cb28 073e 01d7 83bd dd51 bbbb 247b 143e
000000f0: 5d67 713c 6b86 4a3d 9175 12be e8af 2bbc
00000100: 0273 473e efd9 bfbc 59cb 75bc 0043 943d
00000110: d11c 313e 73fe 01be decf 0c3d a0f3 cf3d
00000120: c779 ccbc e0d3 1e3e a685 a1bd 9230 b93d
00000130: 7e48 51bd 2785 9e3c 96e7 00be 75c5 6a3d
00000140: 125c d1bd 31bb 283e d003 86bc 8ec9 14be
00000150: 2340 fcbd 33cf 41be aa70 b0bd 81d2 243e
00000160: 84eb 0ebe 6ddc 3fbe ac17 0dbe 59f0 6d3d
00000170: c2d0 92bd 317b 50bd aab1 5b3e e9f3 073e
00000180: 7d99 ebbd 00ea 0ebe cef7 103e 0293 143e
00000190: 7dec fbbd 2cb2 403e e865 47be c369 423e
000001a0: 1d0a 8a3b 8f98 3fbd 5133 383e 050e 193e
000001b0: 6803 293e ed2f 073d 93ff 2fbd afb5 a73d
000001c0: bc11 3fbe a5a1 113e 7d00 693a c2f0 193e
000001d0: ad2d cd3d 8057 17be 8228 5bbd 8581 53bd
000001e0: ca57 8fbd 5147 19be 3508 493e 5f44 42be
000001f0: 1590 9fbd b5a9 083e 856f 913c ba92 cc3d
00000200: e809 d43c edf5 5dbd ede6 dd3d 3192 183e
00000210: 4207 cb3d 02af 303d bfe0 f23d 8ece f53c
00000220: cddc e5bd 9390 443b 5e19 27be e83b 49be
00000230: 480a 2e3e 8ab7 ab3c ee9d 0cbe 6e9d 4fbe
00000240: cfdb 25be 4686 1dbe b682 04bd 8171 b53c
00000250: 1619 563c 0e37 473c 9eab 723d e4fd babb
00000260: 268f a0bd a752 c73d e48a 35be 58c0 afbd
00000270: 048c 0abe 2561 cdbd c748 203e fa63 cfbd
00000280: b2aa 55be d4d8 a23d 702d 90bd eaad 91bd
00000290: bb55 303d 0c97 53be a443 4cbe 2499 debc
000002a0: 5eb0 1ebe 38c6 493e 21de f03d c07c 333e
000002b0: a21e 003e a806 093d 2faf 13bc 68f2 b6bd
000002c0: 12bb febb 0480 dfbd ec3a 35be e4a1 2fbd
000002d0: 9350 11be 76d1 11be ebde 05be 97f8 a03c
000002e0: 2404 063e 3cdb f2bb f347 593e de7f 42be
000002f0: c100 80bd 4d5d 453d 8b8b 1f3e bbb0 cf3d
00000300: 46ec a9bd 7c2e 4fbd 4fbe b2bb db89 9abc
00000310: 8381 273e 6262 73bd f3e1 073d a8cc 10bd
00000320: 2e06 c0bd 9438 00bc 6579 54bd 1956 113e
00000330: 901d 893d b4cb ee3d 9e99 88bc d263 b3bd
00000340: e704 083e 7d63 88bc 1c40 ac3d 59af 91bc
00000350: 046f 7e3d 31c1 8a3c c78c 8dbd 71ae c43d
00000360: 2ac8 283d b360 ab3d 61c1 183d dedd 6bbc
00000370: 9e2a 013d 0850 92bb 73ae d53d aa75 ce3d
00000380: f38d c33c 6f75 863c 4702 c3bd 027a 05bb
00000390: db68 f2bd 3668 2fbc 819c a1bd b525 d8bd
000003a0: 55f7 bdbd 96ff 1fbc c9cb f03d 6ed3 f7bc
000003b0: d6f5 82bc 0113 1dbe c96a 483d 9143 6b3d
000003c0: cd85 0ebd c65a 193e bd2b 8bbd a08b 06be
000003d0: be9b f8bd e593 9abd 3d9b 4ebd 3138 bf3d
000003e0: f09c 73bd cf57 273c 6987 dcbd fa7a 82bc
000003f0: ce6c debb ba9f 26be adff bcbd 56fd 723c

encoder_b.convs.2.bias f4 [64]
0.011406404 -0.006125553 0.009943075 -0.010535226 -0.009979313 -0.0028448205 -0.011891632 0.010935621
0.012392597 -0.004410481 0.0065311166 -0.00025159278 0.010288034 -0.0070939227 -0.013309951 -0.010189263
0.011423167 -0.0074827843 -9.2113565e-05 -0.0032208152 0.009621258 0.00046705114 -0.0015143546 -0.0026655768
0.0024886336 -0.007840974 -0.0008690303 0.013528674 -0.013258631 -0.012102906 0.013482453 0.011295028
-0.010490299 0.008605731 0.013309527 -0.010458028 -0.012010067 -0.009061439 -0.011051739 0.012271023
0.0076896334 0.0129703665 -0.0118976 0.012269215 0.0127813965 0.00949393 -0.012389751 -0.012410294
-0.006819522 0.007053006 -0.011321854 -0.008316102 -0.009068688 0.010861437 -0.008192823 -0.01188147
0.012899803 0.012850953 0.010788486 0.00045714865 -0.003705775 0.010918362 -0.005582985 -0.001865024
00000000: ede1 3a3c ddb8 c8bb 47e8 223c f19b 2cbc
00000010: 4680 23bc 2b70 3abb 1fd5 42bc 522b 333c
00000020: 520a 4b3c cc85 90bb fa02 d63b 36e8 83b9
00000030: 248f 283c 2374 e8bb fb11 5abc def0 26bc
00000040: 3c28 3b3c 2532 f5bb 182d c1b8 5014 53bb
00000050: 7ba2 1d3c 8bde f439 4f7d c6ba f5b0 2ebb
00000060: 5818 233b 6e77 00bc a3cf 63ba 5fa7 5d3c
00000070: bb3a 59bc 444b 46bc 82e5 5c3c c80e 393c
00000080: 81df 2bbc 0dff 0c3c 3410 5a3c 2658 2bbc
00000090: dfc5 44bc 6e76 14bc 5a12 35bc 670c 493c
000000a0: 52f9 fb3b a981 543c 27ee 42bc d104 493c
000000b0: 1069 513c 6e8c 1b3c 62fe 4abc 8c54 4bbc
000000c0: 4c76 dfbb e71c e73b 4c7f 39bc 4340 08bc
000000d0: d694 14bc 2bf4 313c 313b 06bc 7faa 42bc
000000e0: b259 533c ce8c 523c 31c2 303c 74ad ef39
000000f0: 96dc 72bb eee2 323c 79f1 b6bb d273 f4ba
