results/ADHD_3x5fold_seed0/fold1_rep0_seed1/ckpt_best_fold_1.pt (torch, 660345 bytes, 72 tensors)

encoder_c.convs.0.weight f4 [116, 64]
0	0x3d6caaee	0.0577802
1	0xbd83406e	-0.06408773
2	0xbda68a23	-0.08131816
3	0x3d82daae	0.06389366
4	0xbda1e806	-0.07905583
5	0x3dfef169	0.12448389
6	0xbd1f0f8c	-0.038833186
7	0x3c5c6921	0.013452799
8	0x3c89ecce	0.01683655
9	0xbcdd90e5	-0.02704663
10	0x3d83fdc1	0.06444884
11	0xbbfa9d92	-0.0076481784
12	0x3d1d409d	0.0383917
13	0xbd3b3cef	-0.045712408
14	0xbd1e1f05	-0.0386038
15	0x3d0b58c0	0.034020185
16	0x3c2cb574	0.010541309
17	0xbc3e19f9	-0.011602872
18	0x3e0ab6e0	0.13546324
19	0x3d02f160	0.031968474
20	0xbcdbc16b	-0.026825627
21	0xbdc2093b	-0.09474417
22	0xbc06707e	-0.008205531
23	0xbe072e84	-0.13201338
24	0xbcfe2b09	-0.03102638
25	0x3b36cbfc	0.002789258
26	0x3dfbd329	0.12296135
27	0x3d68b44c	0.05681257
28	0xbe240c10	-0.16020226
29	0x3db5a0c3	0.088685535
30	0xbcaac5e5	-0.020846317
31	0x3dd9b737	0.106306486
32	0x3d72783c	0.059196696
33	0xbe24fa4f	-0.1611111
34	0xbe18430f	-0.14869331
35	0xbdc0560a	-0.09391411
36	0x3deaa1c9	0.11456639
37	0xbc7a2440	-0.015267432
38	0x3d2cf375	0.042224366
39	0xbd5f3451	-0.054493252
40	0x3e153c74	0.14573842
41	0xbd93b843	-0.072128795
42	0x3dffe99d	0.1249573
43	0x3cdac1cf	0.026703743
44	0xbdde62ff	-0.10858726
45	0x3db88b71	0.09010971
46	0xbdb41c5f	-0.08794474
47	0x3cb07f6f	0.02154514
48	0xbc1b656b	-0.009484629
49	0xbcdb3870	-0.02676031
50	0xbe27e408	-0.16395581
51	0xbd69d4a6	-0.057087563
52	0x3db18ee3	0.086698316
53	0xbb991099	-0.004671168
54	0x3df2dc61	0.1185844
55	0x3e25b359	0.16181697
56	0x3d222145	0.03958251
57	0xbd5ae95e	-0.053445213
58	0x3dcab126	0.0989707
59	0x3d366307	0.044528034
60	0xbce0e07f	-0.027450798
61	0x3dd35c7b	0.103203736
62	0x3daf8a65	0.085713185
63	0x3e19065b	0.1494383
64	0xbcda0738	-0.02661477
65	0x3bc21ae2	0.005923615
66	0xbdaf885b	-0.085709296
67	0xba8035c3	-0.0009781647
68	0xbd7fbe9c	-0.06243764
69	0xbd03c576	-0.032170735
70	0x3d2e0eb0	0.042494476
71	0xbd796610	-0.06088835
72	0x3d8f0c3a	0.06984754
73	0xbc98fc75	-0.018675068
74	0x3dd1d2f4	0.10245314
75	0xbc99bdf5	-0.018767336
76	0x3d685c25	0.0567285
77	0x3dfc2421	0.123115785
78	0xbe15866a	-0.14602056
79	0x3dc56e52	0.096401826
80	0xbe16e9f0	-0.14737678
81	0xbdee562c	-0.1163753
82	0x3c90bf75	0.017669419
83	0xbc8c329d	-0.017113978
84	0x3df7f5be	0.121074185
85	0xbda8be40	-0.08239412
86	0xbe1dd2ee	-0.15412495
87	0x3d9ef144	0.077608615
88	0xbd0e8891	-0.03479821
89	0x3dcfa252	0.10138382
90	0x3d8e1537	0.0693764
91	0xbe0ed02a	-0.13946596
92	0x3d3f8c91	0.046764914
93	0x3d1d49a6	0.038400315
94	0xbddf2037	-0.10894816
95	0xbda96952	-0.082720414
96	0x3cc81240	0.024422765
97	0x3d1dcc56	0.038524948
98	0xbd8b6abd	-0.06807468
99	0xbd202ac3	-0.03910328
100	0x3de96ed2	0.113980904
101	0xbcb8c156	-0.022553127
102	0x3d54bf86	0.051940463
103	0x3d53c247	0.05169895
104	0xbd5c0f33	-0.053725433
105	0xbe18e58a	-0.14931312
106	0x3e385b42	0.18003562
107	0x3d706f38	0.058699816
108	0x3da2cf6f	0.07949721
109	0x3d1cf615	0.03832062
110	0x3d4285bc	0.04749082
111	0x3d850a70	0.064961314
112	0x3e3b7399	0.18305816
113	0xbdafc0d7	-0.08581703
114	0x3d274b51	0.04084331
115	0x3de5bb87	0.112174086
116	0x3dd059d1	0.10173381
117	0x3dc3fbca	0.09569509
118	0xbd5cbdcb	-0.05389194
119	0xbd91f446	-0.071266696
120	0xbdb05553	-0.08610024
121	0xbc0f4d8d	-0.008746517
122	0x3e3fdc4c	0.1873638
123	0xbdc6cdfc	-0.09707257
124	0x3e1111a9	0.14166893
125	0xbda4df33	-0.08050384
126	0xbdb3fe9e	-0.08788799
127	0xbc3a4783	-0.011369589
128	0x3d69a359	0.057040546
129	0x3e087829	0.13327087
130	0xbcd2750e	-0.025690582
131	0x3d0c91aa	0.034318604
132	0x3e2be328	0.16785872
133	0x3da1adac	0.078944534
134	0x3da785f9	0.0817985
135	0x3d8a44fa	0.067514375
136	0x3df75078	0.12075895
137	0x3b44e0dd	0.0030041256
138	0xbe223d5c	-0.15843719
139	0xbd9c3665	-0.076275624
140	0xbdbc7325	-0.092016496
141	0xbd90d265	-0.070713796
142	0xbe11940e	-0.14216635
143	0x3d1b3843	0.037895452
144	0x3d4decb6	0.050274573
145	0xbd96bcaa	-0.073602036
146	0x3e0c2957	0.13687645
147	0x3d2ecd69	0.042676363
148	0x3e02b4c3	0.12764268
149	0x3d83a473	0.064278506
150	0xbcde79ac	-0.027157627
151	0x3e117dc5	0.14208134
152	0xbd368d49	-0.044568334
153	0xbb8c87e7	-0.0042886618
154	0xbe1e1264	-0.15436703
155	0xbdb6a425	-0.08918027
156	0xbdc0b5ea	-0.09409697
157	0xbe056604	-0.13027197
158	0x3e14f66a	0.14547125
159	0x3c29cdf2	0.010364043
160	0xbd98c4ac	-0.07459387
161	0x3bba0ced	0.0056778104
162	0x3dc69ac3	0.09697487
163	0x3d8d0a03	0.06886675
164	0xbc44fab7	-0.012022666
165	0x3d88c589	0.06678302
166	0x3cd4a0f4	0.025955655
167	0xbc6e6162	-0.014549585
168	0xbde80543	-0.113291286
169	0xbda503e5	-0.080573834
170	0xbd8c3996	-0.06846921
171	0x3e0cd6f2	0.1375387
172	0x3c5d9c5f	0.013526051
173	0x3dc3f2c4	0.09567788
174	0x3e216140	0.15759754
175	0x3ddc6312	0.10761084
176	0x3df8c441	0.121468075
177	0x3d48534c	0.048907563
178	0xbe11a809	-0.14224257
179	0x3db1f349	0.08688981
180	0xbd805708	-0.062666
181	0x3c57ca62	0.01317081
182	0xbd38ced0	-0.045119107
183	0xbcd59ab9	-0.026074754
184	0xbe1bf933	-0.1523178
185	0x3de58b24	0.112081796
186	0xbdc1ac35	-0.09456674
187	0xbdc2c8a8	-0.095109284
188	0xbbc6ad89	-0.0060631675
189	0xbdef4bff	-0.11684417
190	0x3bba6bd0	0.005689122
191	0x3913dd59	0.00014101471
192	0xbd487cd0	-0.048947155
193	0x3c2c19be	0.010504184
194	0x3e290174	0.1650446
195	0xbd1d227b	-0.03836296
196	0x3d5dedaf	0.05418175
197	0x3d35955c	0.044331893
198	0x3e1515c0	0.14559078
199	0xbdbda2c6	-0.09259562
200	0x3d4bf4d8	0.049794048
201	0xbe0120ef	-0.1261022
202	0x3dc1f19f	0.09469914
203	0xbd5d5663	-0.054037463
204	0x3d59cd68	0.053174406
205	0xbcfd2e28	-0.030905798
206	0x3c4e6292	0.012596743
207	0xbd307cb4	-0.043087676
208	0x3d7370f1	0.05943388
209	0x3ca6f7b0	0.020381778
210	0x3d8ac702	0.06776239
211	0x3ce43293	0.027856147
212	0xbe096a5c	-0.13419479
213	0x3db9d592	0.090739384
214	0x3e0d4fa4	0.13799912
215	0x3e2487db	0.1606745
216	0x3dbf950e	0.09354602
217	0xbdd5bbac	-0.10436186
218	0xbe102fd8	-0.14080751
219	0x3e1362b3	0.1439312
220	0xbddeadca	-0.108729914
221	0x3dcbdfb7	0.099547796
222	0xbda98602	-0.08277513
223	0xbd0f7990	-0.03502804
224	0x3d86b130	0.065767646
225	0xbdd60530	-0.10450208
226	0x3c8342cd	0.016023064
227	0x3dc638eb	0.09678825
228	0x3d36cc3c	0.044628367
229	0x3e35868d	0.17727108
230	0xbc065b74	-0.008200515
231	0xbd9d0f0c	-0.076688856
232	0x3e1c6610	0.15273309
233	0xbb882dda	-0.0041558566
234	0xbd52b5d8	-0.05144295
235	0x3d2a7750	0.04161769
236	0xbd406c54	-0.04697831
237	0x3da87755	0.08225886
238	0x3e029edf	0.12755917
239	0xbda081f9	-0.0783729
240	0xbd87a133	-0.06622543
241	0x3d144b15	0.036204416
242	0x3d39af5b	0.045333248
243	0xbcc27482	-0.023737196
244	0xbd731e32	-0.05935497
245	0xbcc44c7a	-0.023962248
246	0xbd4ff6d4	-0.050772503
247	0xbde3d843	-0.11125233
248	0xbe132be0	-0.14372206
249	0x3dbd0b1b	0.09230634
250	0x3e2bfc73	0.1679552
251	0xbc99d355	-0.018777529
252	0x3d427103	0.047471058
253	0x3d460d87	0.048352744
254	0xbc729048	-0.014804907
255	0xbca57500	-0.020197392

encoder_c.convs.0.bias f4 [64]
0	0xbd4ba785	-0.049720306
1	0x3c180549	0.009278604
2	0xbc519c3e	-0.012793599
3	0x3b508292	0.0031816107
4	0x3b98d3fa	0.0046639415
5	0xbb5385e0	-0.003227584
6	0x3a773703	0.00094304996
7	0xbc6e6b76	-0.014551988
8	0x3c89dd27	0.016829086
9	0x3b9d24ee	0.004795662
10	0x3b9c72aa	0.004774411
11	0x3cb726b1	0.022357317
12	0x3c3bd7e8	0.01146505
13	0x3cc19fd8	0.02363579
14	0xbc022424	-0.007943187
15	0x3bdb70a8	0.0066967793
16	0x3b4b320b	0.003100517
17	0x3ce62e5e	0.028098281
18	0x3cec4f76	0.028846484
19	0xbb35b8bb	-0.0027728516
20	0x3b464f1f	0.0030259562
21	0x3d8089e5	0.06276301
22	0x3c08312d	0.008312506
23	0xbc262d1b	-0.01014259
24	0x3ace8b31	0.0015758035
25	0x3c199ab1	0.00937526
26	0x3c2e0af8	0.010622732
27	0x3c37ac8d	0.011210573
28	0x3d1e47c8	0.038642675
29	0x3cef444e	0.029207375
30	0x3ca80779	0.020511376
31	0x3ba5185a	0.0050383033
32	0x3d1ec3b1	0.038760845
33	0xba7709d2	-0.00094237656
34	0x3acfe942	0.0015862363
35	0x3c5b8694	0.013398785
36	0x3b9819a5	0.004641729
37	0x3b955355	0.004557053
38	0x3d3e3717	0.046439257
39	0x3cd88334	0.02642975
40	0x3c968a0d	0.018376375
41	0x3cb28bec	0.021795236
42	0x3b346ce6	0.002753073
43	0xbb49e11a	-0.0030804337
44	0xba803dd5	-0.0009784052
45	0x3bae81b2	0.0053255195
46	0x3c1189a9	0.008882918
47	0x3c9f5498	0.019449517
48	0x3c9e35db	0.01931279
49	0xbce0ff4e	-0.027465489
50	0x3c17bc96	0.009261271
51	0x3d49a70a	0.049231566
52	0x3c8c574f	0.017131476
53	0xbc361d86	-0.011115437
54	0x3d9a5b57	0.07536953
55	0xbb906fae	-0.0044078445
56	0xbbcf5760	-0.0063275546
57	0x3c20e084	0.009819154
58	0x3c6443cb	0.013932179
59	0xbc446875	-0.011987795
60	0x3d1ee41c	0.03879176
61	0x3c849264	0.016183086
62	0x3c42a1c7	0.011879391
63	0x3b5bb71a	0.0033525885

encoder_c.convs.1.weight f4 [64, 64]
0	0x3d12d662	0.035848983
1	0x3e1c9991	0.15292956
2	0x3d66a099	0.0563055
3	0xbcf69d9f	-0.030104456
4	0x3e1e654a	0.15468326
5	0xbddca37d	-0.107733704
6	0x3d01af78	0.03166148
7	0xbcb2a33c	-0.021806352
8	0x3cef9d16	0.02924971
9	0xbd628a79	-0.05530784
10	0xbdba8e19	-0.09109134
11	0x3e05140f	0.12995933
12	0xbce05956	-0.027386349
13	0xbdb8d148	-0.09024292
14	0xbc075eb1	-0.008262322
15	0x3df144ee	0.117807254
16	0x3dd03c10	0.10167706
17	0xbd5a7e69	-0.05334321
18	0xbe21cf06	-0.1580163
19	0xbe534c5f	-0.20634602
20	0x382e2264	4.151686e-05
21	0xbd561b22	-0.05227197
22	0x3c057ce4	0.008147452
23	0xbe164eaa	-0.14678445
24	0x3e46764a	0.19381061
25	0xbe38f398	-0.18061674
26	0x39e035ef	0.00042764793
27	0x3cce89e8	0.025212243
28	0xbc02925e	-0.007969467
29	0x3d8f728e	0.070042714
30	0x3dfa1aaf	0.12212121
31	0x3db8c6a4	0.09022263
32	0xbd52cbd3	-0.051463913
33	0x3cba9a5b	0.02277868
34	0x3e110baa	0.14164606
35	0x3cccf3c8	0.025018588
36	0x3e1c3b6c	0.15257043
37	0xbbac717e	-0.0052625528
38	0xbc0eb217	-0.008709452
39	0xbd719865	-0.058983225
40	0x3d7f8195	0.06237944
41	0x3e61e682	0.22060588
42	0xbcb71f57	-0.022353811
43	0xbcf49dd1	-0.029860409
44	0xbdb620fd	-0.08893011
45	0xbd043971	-0.032281343
46	0xbe267655	-0.16256078
47	0x3dfbf67f	0.12302875
48	0xbd8239bc	-0.06358668
49	0x3c8e6918	0.017384097
50	0x3e0ddea3	0.1385446
51	0xbc3a586d	-0.011373621
52	0x3c221cb8	0.009894542
53	0x3d1710d7	0.036881294
54	0xbe2cc47e	-0.16871831
55	0x3ce493dd	0.027902538
56	0xbd3a954f	-0.045552548
57	0xbd9fd909	-0.07805068
58	0xbb38c9d4	-0.002819647
59	0xbc92f953	-0.017941153
60	0x3e69dd55	0.22838338
61	0xbe2fd34d	-0.17170449
62	0x3e21c9fd	0.15799709
63	0xbbf1201a	-0.007358563
64	0xbdac7428	-0.084205925
65	0x3dfec537	0.124399595
66	0xbd930322	-0.07178332
67	0x3d6997f3	0.057029676
68	0x3d932b05	0.0718594
69	0xbd0ceff1	-0.034408513
70	0x3d9ef830	0.07762182
71	0xbd721755	-0.059104282
72	0xbd32befd	-0.043639172
73	0x3d6190f9	0.055069897
74	0x3d9a6262	0.07538296
75	0x3da0e488	0.07856089
76	0xbca8e600	-0.020617485
77	0x3e0c0ed8	0.13677537
78	0xbbf5dce7	-0.0075031403
79	0xbd21f4b6	-0.039540015
80	0x3e7bcaaf	0.24589036
81	0xbc2d1a74	-0.010565389
82	0x3d7ae31f	0.061251756
83	0xbc223604	-0.009900574
84	0xbb6d156a	-0.0036176094
85	0x3e2d51f0	0.16925788
86	0x3d948b4d	0.07253132
87	0xbd9b7ebf	-0.07592534
88	0x3e5341aa	0.20630518
89	0xbe1063f7	-0.14100634
90	0x3d7191cb	0.05897693
91	0x3d1a71ec	0.0377063
92	0x3df2d75b	0.11857482
93	0x3d80f5b4	0.06296864
94	0xbd89e9bb	-0.06734034
95	0x3d96e02f	0.073669784
96	0xbd304c6e	-0.04304164
97	0x3cf8c848	0.030368939
98	0xbb5464b6	-0.0032408661
99	0xbd4c45ca	-0.049871244
100	0x3e545e6a	0.20739141
101	0xbe428ef5	-0.18999846
102	0x3e14f395	0.14546044
103	0xbd6583cc	-0.056033894
104	0xbd674d44	-0.05647017
105	0x3dc4b6b5	0.09605161
106	0xbdc90087	-0.09814554
107	0x3d79a33b	0.060946684
108	0x3db3661a	0.08759709
109	0x3e711f1b	0.23547022
110	0xbc40a27f	-0.011757492
111	0xbe008ede	-0.125545
112	0x3dca2412	0.09870161
113	0xbd7ab8e9	-0.0612115
114	0x3df59e3f	0.11993074
115	0x3c92eba9	0.017934637
116	0xbdf6a8bf	-0.120439045
117	0x3e07a095	0.13244851
118	0xbe1d4ea4	-0.1536203
119	0xbe10c600	-0.14138031
120	0xbd2499f3	-0.04018588
121	0x3e81abef	0.25326487
122	0xbe064f5a	-0.13116208
123	0xbcdeb534	-0.027186014
124	0xbd9c302b	-0.07626375
125	0x3dbfb669	0.09360964
126	0x3a6f0f50	0.0009119408
127	0xbe22b4bd	-0.15889259
128	0x3cc0453b	0.023470512
129	0xbe139396	-0.14411768
130	0x3e3f363e	0.18673036
131	0x3dff392d	0.12462077
132	0xbbfbf8d5	-0.007689575
133	0x3da9cb9a	0.08290787
134	0xbdac1155	-0.08401743
135	0x3dfab7d9	0.122420974
136	0x3daf61db	0.08563586
137	0xbe129749	-0.14315523
138	0x3dbe4a23	0.09291484
139	0xbe21352e	-0.15742943
140	0x3cf2f088	0.02965571
141	0xbe295614	-0.16536742
142	0xbc2961f7	-0.010338298
143	0xbc8ba417	-0.017046018
144	0xbe31546c	-0.1731736
145	0x3db218a1	0.08696104
146	0x3e3a9ae8	0.18223155
147	0x3e013f0d	0.12621708
148	0xb92f4395	-0.00016714477
149	0xbdba670e	-0.09101687
150	0xbd6d45bc	-0.057927832
151	0x3d286a70	0.04111713
152	0x3d1e66c1	0.038672213
153	0x3e300053	0.17187624
154	0x3db68412	0.08911909
155	0x3e093f15	0.1340297
156	0xbd6fb8a2	-0.05852569
157	0xbcc6c4fc	-0.024263851
158	0x3de1ed81	0.110316284
159	0xbd7e0157	-0.062012997
160	0xbd8b25df	-0.06794333
161	0xbd1539cd	-0.036432076
162	0xbd7ce3e7	-0.061740782
163	0x3daa50c5	0.08316187
164	0xbe440954	-0.19144183
165	0xbd06808d	-0.03283744
166	0xbdca466b	-0.098767124
167	0x3d48f9be	0.049066298
168	0xbdb39db8	-0.08770317
169	0x3da4d096	0.08047597
170	0x3d91476c	0.07093701
171	0x3e2d5986	0.16928682
172	0x3cc1ecdd	0.023672516
173	0xbdbcee9f	-0.09225201
174	0xbd228e05	-0.03968622
175	0xbd0ae4b2	-0.033909507
176	0x3cfc9365	0.030832002
177	0xbd0639b2	-0.032769866
178	0xbe3a58bf	-0.18197916
179	0x3e3bc3d0	0.18336415
180	0x3c05cd08	0.008166559
181	0x3d6bf447	0.057606008
182	0x3d699095	0.05702265
183	0xbd73ece2	-0.05955208
184	0x3d557a51	0.052118603
185	0xbdefd5ba	-0.11710687
186	0x3d706c8d	0.058697272
187	0x3da96069	0.08270342
188	0x3dc09a91	0.09404481
189	0x3d8e7b5b	0.06957122
190	0xbe270546	-0.16310605
191	0x3d3a0566	0.045415305
192	0xbc48b250	-0.012249544
193	0xbc27e68e	-0.01024784
194	0x3e1febc9	0.15617289
195	0xbc8d418e	-0.017243173
196	0xbe62ea1f	-0.22159623
197	0x3d90314d	0.070406534
198	0xbd9884f1	-0.074472316
199	0xbe48f1f2	-0.19623545
200	0x3def3001	0.11679078
201	0xbda7eaf0	-0.08199108
202	0x3db5e652	0.08881821
203	0xbd417ed5	-0.047240097
204	0x3d3259a1	0.043542508
205	0xbde15829	-0.11003143
206	0x3cfefd20	0.031126559
207	0xbd4ac4c8	-0.04950407
208	0xbd508b10	-0.05091387
209	0x3dacc400	0.084358215
210	0xbd1b8e77	-0.037977662
211	0x3dd879df	0.1057012
212	0xb7051ade	-7.933673e-06
213	0xbda99da2	-0.08282019
214	0x3b73cce8	0.003720099
215	0x3dab5063	0.08364942
216	0x3cefbfcc	0.02926626
217	0x3e65d051	0.22442748
218	0x3ddafa8c	0.10692319
219	0x3cee1056	0.029060524
220	0xbd52b0c5	-0.05143811
221	0xbd346451	-0.04404098
222	0xbdcfb1f8	-0.10141367
223	0x3d8bb7d8	0.06822175
224	0xbdaf4fdf	-0.08560156
225	0xbda20be5	-0.07912425
226	0xbd0d68d5	-0.034523804
227	0xbd342700	-0.043982506
228	0xbdc1eb10	-0.09468663
229	0x3e2f4b98	0.1711868
230	0xbe08a640	-0.1334467
231	0xbc9cc354	-0.019136108
232	0x3d05a40f	0.03262716
233	0xbde721f5	-0.11285774
234	0x3d9f3196	0.0777313
235	0x3db16b18	0.08663005
236	0x3d8cd735	0.06876985
237	0xbe251ccb	-0.16124265
238	0x3e13c729	0.14431442
239	0xbd1a6861	-0.0376972
240	0xbe373922	-0.17892888
241	0x3e515fd8	0.20446718
242	0xbdec3eaa	-0.1153539
243	0xbdb426ae	-0.0879644
244	0xbb563c02	-0.0032689576
245	0x3d3dfc35	0.0463831
246	0xbcb9421f	-0.022614537
247	0xbd2d8351	-0.04236156
248	0x3af81f69	0.0018930259
249	0xbd979c1a	-0.07402821
250	0xbc5383de	-0.012909858
251	0x3d92bb69	0.07164652
252	0xbe2be13c	-0.16785139
253	0x3e71cf77	0.23614298
254	0x3d4b6c36	0.049663745
255	0x3d8e3bb9	0.06944985

encoder_c.convs.1.bias f4 [64]
0	0xbbf78f1c	-0.0075549018
1	0x3cad2384	0.0211351
2	0x3ce123d7	0.02748291
3	0x3c9e5b0f	0.01933053
4	0x3c29644a	0.010338852
5	0x3d422ad9	0.047404144
6	0x3bd2dfb6	0.00643536
7	0x3c480346	0.012207812
8	0x3d0cf5ad	0.034413982
9	0x3caddf04	0.021224506
10	0x3d11276c	0.035437986
11	0x3cb8d271	0.022561284
12	0x3b53578e	0.0032248232
13	0x3cb5fac4	0.0222143
14	0x3d312053	0.043243717
15	0x3c0c8412	0.00857641
16	0x3cb93ca0	0.022611916
17	0x3cd6b7a7	0.02621062
18	0x3c833f22	0.016021315
19	0x3cdc6bec	0.02690693
20	0xbcef266e	-0.02919313
21	0x3c88d250	0.016701847
22	0x3c087d15	0.008330603
23	0x3cc5bdcd	0.024138356
24	0x3c7bde6a	0.015372852
25	0x3cf90282	0.030396704
26	0x3d4c1274	0.049822286
27	0x3c39aa70	0.011332139
28	0x3d07a0b2	0.033112235
29	0x3ca79f4c	0.0204617
30	0x3c8008d1	0.015629204
31	0x3c8166dd	0.01579612
32	0x3c67aae4	0.014139865
33	0xbbb8249f	-0.0056196
34	0x3bafd484	0.00536591
35	0x3ce21c18	0.027601287
36	0x3c91ea97	0.017812056
37	0x3cc4b91d	0.02401405
38	0xba811dc6	-0.0009850792
39	0x3cbaec40	0.02281773
40	0x3ca54a04	0.020176895
41	0xbc359b2a	-0.011084357
42	0x3cb11052	0.021614227
43	0x3ca1e276	0.019761305
44	0x3d1672f2	0.036730714
45	0x3c90ec0c	0.01769068
46	0x3cdac696	0.026706021
47	0x3bd852dd	0.006601675
48	0x3ce262c8	0.027634993
49	0x3cbdf82f	0.023189632
50	0x3ce325b9	0.027727949
51	0x3cab537d	0.020913834
52	0x3ccee48e	0.025255468
53	0x3d9e6091	0.07733262
54	0x3c9083ca	0.017640967
55	0xbc8df715	-0.017329732
56	0x3d046c3f	0.032329794
57	0x3ca71f55	0.020400682
58	0x3c99a4da	0.018755365
59	0xbb0e755d	-0.0021737434
60	0x3ccae915	0.024769345
61	0x3cfc5a80	0.030804873
62	0x3c290099	0.010315084
63	0x3ca8a9d3	0.020588791

encoder_c.convs.2.weight f4 [64, 64]
0	0xbd708283	-0.058718216
1	0x3da14e0c	0.078762144
2	0xbd66d91e	-0.056359403
3	0x3d7110d1	0.058853928
4	0x3d8cc62c	0.06873736
5	0xbd5438a8	-0.051811844
6	0xbd534c09	-0.051586185
7	0xbd6cbffd	-0.05780028
8	0xbd9e6d23	-0.0773566
9	0xbd4d2a90	-0.05008942
10	0x3d6ad070	0.057327688
11	0xbd824ef7	-0.063627176
12	0xbd218ba5	-0.039439816
13	0xbd688aad	-0.056772877
14	0xbc685260	-0.014179796
15	0x3d5e9f3c	0.054351076
16	0xbdbc163f	-0.091839306
17	0x3d5cd0d9	0.05391011
18	0xbc526978	-0.0128425285
19	0x3d2c9dfe	0.04214286
20	0x3d81485c	0.063126296
21	0x3d88c757	0.06678646
22	0xbd5e5206	-0.054277442
23	0x3d66e6fd	0.05637263
24	0xbd8122e7	-0.06305485
25	0xbd5a3b24	-0.053279057
26	0x3db18926	0.08668737
27	0xbd09fdb4	-0.033689216
28	0xbd8ffe20	-0.07030892
29	0xbd539cd3	-0.05166323
30	0xbc9dddc0	-0.019270778
31	0xbd375e71	-0.0447678
32	0x3d2abb52	0.04168255
33	0xbd0efb35	-0.03490754
34	0xbd423d58	-0.047421783
35	0x3d3ffb83	0.04687072
36	0xbd00477a	-0.031318165
37	0xbd3edb7f	-0.046596047
38	0xbd6b526f	-0.05745166
39	0x3d7b276d	0.061316896
40	0xbd2036e2	-0.03911484
41	0x3d5d6515	0.054051477
42	0x3d329434	0.04359837
43	0xbd3b3168	-0.045701414
44	0xbd36a94d	-0.04459505
45	0x3d3f7dff	0.04675102
46	0x3c516ba5	0.012782012
47	0x3daacc10	0.08339703
48	0x3c9df413	0.019281423
49	0xbd66f4e5	-0.056385893
50	0x3d6bbeeb	0.05755512
51	0x3db5e015	0.08880631
52	0xbd6c0ba3	-0.057628285
53	0xbd360059	-0.044433925
54	0xbd51b033	-0.051193427
55	0xbd5cd902	-0.053917892
56	0x3d85c04b	0.065308176
57	0xbd8ed4af	-0.0697416
58	0x3cc103ab	0.02356132
59	0x3d641ed8	0.055693477
60	0x3d938fe6	0.07205181
61	0xbd40da04	-0.047082916
62	0xbcba8aa4	-0.022771187
63	0x3d255b58	0.040370315
64	0xbda4558a	-0.08024128
65	0x3d77fe0f	0.060545024
66	0xbe009b86	-0.12559327
67	0x3de49e2a	0.1116298
68	0xbd4bc27a	-0.049746014
69	0xbc828912	-0.0159345
70	0xbe4fd4f8	-0.20296085
71	0xbd8e9f30	-0.06963956
72	0x3ce69367	0.028146459
73	0xbdb785c3	-0.0896106
74	0xbc7c75fa	-0.015408987
75	0x3d3f93df	0.04677188
76	0xb9f20c63	-0.00046167066
77	0xbe0947c4	-0.13406283
78	0xbd98cf9d	-0.07461474
79	0x3e28ea6c	0.16495675
80	0xbe5a9f14	-0.21349746
81	0x3dbc99c1	0.09209014
82	0x3d18b231	0.03727931
83	0x3dc0b167	0.09408837
84	0x3d8d1436	0.068886206
85	0x3dba79bc	0.0910525
86	0xbb61ee01	-0.0034474137
87	0x3e18e04e	0.14929315
88	0xbe59fbf1	-0.21287514
89	0xbe3636dc	-0.17794365
90	0x3d08d04a	0.033401765
91	0xbdb0aa95	-0.08626286
92	0xbe1ad5c8	-0.15120614
93	0xbdc3c2ed	-0.095586635
94	0xbc2b4a9f	-0.010454803
95	0x3db413bb	0.08792826
96	0x3e3571a7	0.17719136
97	0xbd2a0639	-0.04150984
98	0xbd06d45b	-0.03291736
99	0xbc020d6c	-0.00793777
100	0xbd8ae784	-0.06782439
101	0x3b8772e3	0.0041335686
102	0xbdf5d312	-0.12003149
103	0x3dd009e0	0.101581335
104	0xbdd3a85a	-0.10334845
105	0x3dbd75d1	0.09250987
106	0x3d81f828	0.0634616
107	0x3d43fcb7	0.04784843
108	0x3c1919a9	0.009344497
109	0x3dae4d74	0.08510867
110	0x3e67227e	0.22571751
111	0x3cb47a48	0.022030964
112	0x3d88bee0	0.066770315
113	0x3ccf830b	0.02533104
114	0x3c850f07	0.016242517
115	0x3e3ca6f8	0.18423069
116	0xbe36cdcb	-0.17851941
117	0xbe236f5f	-0.15960453
118	0x3d562519	0.052281473
119	0xbdabfeb0	-0.08398187
120	0xbccd330d	-0.025048757
121	0x3d6379ff	0.055536266
122	0x3e1b9ee6	0.15197334
123	0x3df09206	0.11746602
124	0x3d915d27	0.070978455
125	0xbca039b2	-0.019558761
126	0xbe7bd8d0	-0.24594426
127	0xbdb8b0e4	-0.09018114
128	0xbcf3c769	-0.029758172
129	0xbd9b7d50	-0.07592261
130	0x3d55fb0a	0.052241363
131	0x3dd78810	0.10523999
132	0xbe257045	-0.16156109
133	0x3d4f339a	0.05058632
134	0x3cf9f4cf	0.030512242
135	0x3e1a6916	0.1507915
136	0x3e149f41	0.14513876
137	0xbc7e9ca0	-0.015540272
138	0xbdd4cc7c	-0.10390565
139	0x3d37147e	0.044697277
140	0x3e33d0b4	0.17560083
141	0x3d952818	0.07283038
142	0x3e3e72a1	0.18598415
143	0xbd4475a8	-0.04796377
144	0xbd9a2ddb	-0.075282775
145	0x3ccd7a5a	0.025082756
146	0x3e314b08	0.17313778
147	0xbc855582	-0.016276125
148	0xbe07defb	-0.13268654
149	0x3dbb8919	0.09157009
150	0x3e0c1fbb	0.13683979
151	0xbe09d694	-0.13460761
152	0x3c86cb46	0.01645435
153	0x3dc855b2	0.0978197
154	0x3c8efc40	0.017454267
155	0x3e0ae582	0.13564113
156	0x3d8aed34	0.06783524
157	0xbd75b4de	-0.05998694
158	0x3dc7e860	0.09761119
159	0x3d660ce3	0.056164633
160	0x3e1ddbc7	0.1541587
161	0xbc969598	-0.018381879
162	0xbcaca538	-0.021074876
163	0xbbf6032f	-0.0075077037
164	0xbcf082ee	-0.029359307
165	0x3d5838da	0.052788593
166	0xbe04d765	-0.12972791
167	0xbe1ce6bf	-0.15322398
168	0x3dd550a1	0.10415769
169	0xbd881101	-0.06643868
170	0xbdb343dc	-0.087531775
171	0xbc9b353b	-0.01894628
172	0x3e28c010	0.16479516
173	0xbd6e5770	-0.058188856
174	0xbe31c74d	-0.17361183
175	0xbe3543bf	-0.17701624
176	0xbdd065ae	-0.10175644
177	0x3d911dd5	0.07085768
178	0xbdb6ea9e	-0.089314684
179	0xbe320e2e	-0.17388222
180	0x3e35cf72	0.17754915
181	0xbc8bb064	-0.017051883
182	0xbd914fc2	-0.07095291
183	0x3c9e2998	0.019306943
184	0xbdd321da	-0.10309191
185	0xbdc8463b	-0.097790204
186	0xbe30f1e0	-0.17279768
187	0x3d03e5be	0.03220152
188	0xbd120d3f	-0.035657164
189	0xbd7a3faf	-0.06109589
190	0xbb93e28a	-0.0045130895
191	0xbe1fd82e	-0.1560981
192	0x3d8d8eb5	0.06911985
193	0xbd69ac01	-0.0570488
194	0x3e47b8f4	0.19504148
195	0x3d432273	0.047640275
196	0xbd83e44e	-0.0644003
197	0x3d562dad	0.052289654
198	0xbc8289c3	-0.01593483
199	0xbd33de4f	-0.043913182
200	0x3d9131f1	0.07089604
201	0x3da184d0	0.0788666
202	0xbd650774	-0.05591531
203	0x3dbbe958	0.09175366
204	0x3d05f822	0.03270734
205	0x3d90cce7	0.07070332
206	0xbcc90856	-0.024540108
207	0xbd5a1f3f	-0.053252455
208	0x3e5bab18	0.21451986
209	0xbd03655d	-0.03207909
210	0xbd4d9845	-0.050194044
211	0xbda9d2a0	-0.08292127
212	0xbe2af992	-0.16696766
213	0x3d1d6edd	0.038435806
214	0x3dc0bb6b	0.09410747
215	0xbe4b202f	-0.19836496
216	0x3d81487f	0.06312656
217	0x3d548e85	0.05189373
218	0xbbb0ee6b	-0.0053995154
219	0x3dac28dc	0.08406231
220	0x3de9b78d	0.11411963
221	0x3d3ab4ed	0.0455827
222	0x3c988392	0.018617425
223	0x3db61e4e	0.08892499
224	0xbd878400	-0.06616974
225	0xbcab173d	-0.020885104
226	0xbdac1b54	-0.0840365
227	0xbd377114	-0.044785574
228	0x3de0d087	0.109772734
229	0x3d9146e5	0.070936
230	0x3d47eb06	0.04880812
231	0xbb0d0cd0	-0.002152253
232	0x3c8de2dd	0.01732009
233	0xbdc652cf	-0.09683763
234	0xbd9c81a8	-0.076419175
235	0x3e102282	0.14075664
236	0x3cb216d7	0.021739407
237	0x3c382b10	0.011240736
238	0xbd2a8572	-0.04163117
239	0xbe35788b	-0.17721765
240	0xbdfe2932	-0.12410201
241	0x3dd14438	0.1021809
242	0xbdb4a106	-0.08819775
243	0xbd2d2ef1	-0.042281095
244	0x3e2d0be5	0.16899069
245	0x3d8f1925	0.06987218
246	0x3e169da5	0.14708574
247	0x3dcbe534	0.099558264
248	0xbd9e1f29	-0.07720787
249	0x3e18e816	0.14932284
250	0x3c1c5876	0.009542575
251	0xbd260ffc	-0.040542588
252	0xbe037f81	-0.12841608
253	0x3d4688cd	0.048470307
254	0x3e2908b5	0.16507228
255	0x3cbaecb4	0.022817947

encoder_c.convs.2.bias f4 [64]
0	0x3cd996b1	0.026561113
1	0xbc6d68e7	-0.014490343
2	0x3c10428c	0.0088049285
3	0x3ca52102	0.02015734
4	0x3c2ca0e3	0.010536405
5	0xbca730e7	-0.02040906
6	0xbcb8c188	-0.02255322
7	0xbcb5f705	-0.022212515
8	0x3bdd6021	0.006755844
9	0x3d08334f	0.033252057
10	0xbc05ae4e	-0.008159233
11	0xbc23b971	-0.009992943
12	0x3c36a0c9	0.011146733
13	0x3ceecfda	0.029151846
14	0x3ba7e9ca	0.0051243054
15	0x3c8ec933	0.017429924
16	0xbc452a7b	-0.012034054
17	0x3c8f7823	0.01751334
18	0x3c653a90	0.013991013
19	0xbd269ba5	-0.040675778
20	0xbc371df3	-0.011176574
21	0x3ce84b76	0.028356295
22	0x3bb0bb0d	0.005393392
23	0xbc8397b2	-0.016063545
24	0xbb6424ad	-0.00348119
25	0xbc50d165	-0.012745236
26	0xbc264b99	-0.01014986
27	0x3c963fd3	0.01834098
28	0xbc08987a	-0.0083371345
29	0xbd07bc33	-0.033138465
30	0x3c9ad8e9	0.018902259
31	0x3c6ac71a	0.014329696
32	0x3cbd2bee	0.023092236
33	0xbd0e30c4	-0.034714475
34	0xbd391300	-0.045184135
35	0x3c6def92	0.01452245
36	0x3c9056a4	0.017619438
37	0x3c92d702	0.01792479
38	0xbcbb03c6	-0.022828948
39	0xbbc7ca49	-0.0060971123
40	0x3c88255d	0.016619379
41	0x3b9ec246	0.0048449365
42	0x3cac3d3d	0.021025294
43	0x3c938a0c	0.018010162
44	0xbc809e1a	-0.015700389
45	0x3cacc342	0.0210892
46	0x3c400d4c	0.01172192
47	0xba8085d6	-0.0009805511
48	0xbc703979	-0.01466214
49	0x3c941223	0.018075055
50	0xbc3dac1d	-0.01157668
51	0x3abe4bf4	0.0014518485
52	0x3c521853	0.012823182
53	0x3cb49569	0.0220439
54	0xbc721728	-0.014776029
55	0xbcf8da31	-0.03037748
56	0x3acfb9fb	0.0015848273
57	0xbcccb1e6	-0.024987172
58	0xbb8deb1d	-0.004331006
59	0x3ca1199d	0.019665534
60	0xbb919932	-0.004443311
61	0x3c906312	0.017625365
62	0x3c58392d	0.0131972255
63	0xbd2d9665	-0.042379756

encoder_b.convs.0.weight f4 [116, 64]
0	0xbbb43667	-0.0054996493
1	0xba72234e	-0.0009236828
2	0x3a07405f	0.00051594333
3	0xb9caae0b	-0.00038658114
4	0x3abe95bf	0.0014540477
5	0xbb18ca25	-0.0023313847
6	0xb995363c	-0.00028459902
7	0x3aa46226	0.0012541458
8	0x39e0ef47	0.00042902885
9	0xb7a7e154	-2.0012878e-05
10	0x35054ade	4.9655307e-07
11	0x3a82c184	0.0009975885
12	0x3a9c19ca	0.0011909541
13	0xba93853a	-0.0011254915
14	0xbc0ad417	-0.008473418
15	0x3bbcd8aa	0.005763133
16	0x37a7db9b	2.0010213e-05
17	0xb8314be0	-4.2270753e-05
18	0x3b7392e9	0.0037166423
19	0xba2408c5	-0.000625741
20	0xb87c55bc	-6.016133e-05
21	0x37515fbd	1.2479662e-05
22	0x3ac3e272	0.0014944805
23	0xb9077759	-0.00012919064
24	0xbba9f6fd	-0.005186914
25	0x365fc9bc	3.3347014e-06
26	0x38610bd9	5.3655214e-05
27	0x393df67b	0.00018116266
28	0x3a1a90e3	0.00058962236
29	0x342ce7b0	1.6103036e-07
30	0x3bf9ff2b	0.0076292953
31	0x342a1887	1.5841407e-07
32	0x3bd7ab4c	0.0065816995
33	0x37e9d8b4	2.7876675e-05
34	0xba386b47	-0.00070350285
35	0xb725df4d	-9.886758e-06
36	0x37e9c16a	2.786583e-05
37	0xb6f6e99f	-7.3585684e-06
38	0xb9c16894	-0.00036889745
39	0x3b171208	0.002305152
40	0x3ac7d030	0.001524454
41	0x3947e0ea	0.00019061906
42	0x3a85a55a	0.0010196373
43	0x37a59163	1.9737234e-05
44	0xb5f7936e	-1.8445842e-06
45	0xbbba7678	-0.005690392
46	0xb9347410	-0.00017209374
47	0xba37eb37	-0.0007015946
48	0x379a8281	1.8419001e-05
49	0x36a098ae	4.786146e-06
50	0xb8826c8b	-6.219101e-05
51	0xb5e432bc	-1.7002089e-06
52	0x39502c42	0.00019852913
53	0x371e71af	9.444003e-06
54	0xbb249ce3	-0.0025117926
55	0xbabd7b7d	-0.0014456358
56	0xb9e4c470	-0.00043633906
57	0x3ad53f24	0.0016269428
58	0x36cd548d	6.119319e-06
59	0x3a55ad3c	0.0008151119
60	0x35a385aa	1.2183348e-06
61	0x3b043313	0.0020172044
62	0x3a0eb394	0.00054436293
63	0xbb67453f	-0.0035289077
64	0xba253936	-0.00063027756
65	0xb9fe42b2	-0.00048496347
66	0x3bf03da0	0.007331565
67	0xbafcb3ad	-0.0019279622
68	0xb8819d25	-6.18047e-05
69	0xb701cee1	-7.737167e-06
70	0x3bae1b1d	0.0053132907
71	0x3a9f0807	0.001213313
72	0xbb25c197	-0.002529239
73	0xbb908426	-0.0044102846
74	0x3a40fd8c	0.0007362
75	0x3b0cfff8	0.0021514874
76	0x38c0c4c5	9.1919246e-05
77	0x39831b3c	0.00025006558
78	0xb947c90a	-0.00019053012
79	0x3b36fa32	0.0027920124
80	0x3784e5d5	1.584265e-05
81	0xb98eda23	-0.00027246875
82	0xba00e21b	-0.0004916505
83	0x3a512bce	0.00079792447
84	0xb81c47e1	-3.726024e-05
85	0xba9a7de8	-0.001178679
86	0xb99c9c0e	-0.00029870908
87	0x3afa1d97	0.0019082305
88	0x398a3d81	0.00026367235
89	0x3aead5a5	0.0017916454
90	0x39042c58	0.0001260502
91	0xb3c3a9e0	-9.111295e-08
92	0x37a1bf26	1.9281706e-05
93	0xbb766fa2	-0.003760316
94	0xbbf0607f	-0.007335722
95	0x35efa2ce	1.785427e-06
96	0x391773b1	0.0001444358
97	0x3583aea3	9.811087e-07
98	0x3a984dbd	0.0011619848
99	0x3b9927da	0.00467394
100	0x3abf8554	0.0014611878
101	0x3a0a33fc	0.00052720285
102	0xb6044870	-1.9711697e-06
103	0xb9d5760e	-0.00040714483
104	0x3911f0d3	0.00013917992
105	0xbac8f13e	-0.0015330685
106	0x3b68fb0d	0.0035550029
107	0xb837562e	-4.371086e-05
108	0xb536eb11	-6.814235e-07
109	0x3c150bb8	0.009097032
110	0xb895f838	-7.151108e-05
111	0xba45cffa	-0.00075459445
112	0xba985622	-0.0011622349
113	0xb804adfd	-3.163329e-05
114	0x38d1f0bf	0.00010010739
115	0x39a43426	0.0003131937
116	0xbad4496c	-0.0016196198
117	0x392ce53d	0.00016488596
118	0xbb444023	-0.0029945455
119	0xbb0ea31c	-0.0021764701
120	0x3b87ca87	0.004144016
121	0xb91b761a	-0.00014825948
122	0x3a20b8b0	0.0006131036
123	0x3c06358b	0.008191477
124	0xbb653230	-0.003497254
125	0xb6db5baa	-6.5373797e-06
126	0x399310f3	0.00028050653
127	0x3626ce53	2.4856024e-06
128	0xb9f91977	-0.00047511954
129	0x375ad6d2	1.3043829e-05
130	0xb77e40c9	-1.5154664e-05
131	0xb98657d0	-0.00025623897
132	0x382297a8	3.876505e-05
133	0x3b39eba2	0.0028369208
134	0xba0db086	-0.0005405027
135	0x3a8a83fd	0.00105679
136	0xbc067d84	-0.008208636
137	0xb90c3878	-0.00013372477
138	0xb9120cda	-0.00013928433
139	0x3951f60f	0.00020023457
140	0x3bc02d85	0.0058648014
141	0x39ebbe87	0.00044964647
142	0xb8aef75c	-8.343041e-05
143	0xb9331dbe	-0.0001708185
144	0xb77bb6c3	-1.5003318e-05
145	0xbab663c0	-0.0013915226
146	0x363e6c03	2.8375077e-06
147	0xba862003	-0.0010232929
148	0x3b3869b6	0.002813918
149	0x37246b0d	9.800086e-06
150	0x3934c2af	0.00017238663
151	0x3ab294b6	0.0013624642
152	0x3bd1f1b7	0.0064069885
153	0xb8a97154	-8.079657e-05
154	0x3431c2d6	1.655529e-07
155	0xb6ac8809	-5.141836e-06
156	0xb90de398	-0.00013531593
157	0xb3266506	-3.8741767e-08
158	0xb888ad5e	-6.5172775e-05
159	0xb5f78af9	-1.844338e-06
160	0xb990164e	-0.0002748244
161	0xb8f10eb3	-0.000114945135
162	0x3b83106b	0.00399976
163	0xb8a07e95	-7.652972e-05
164	0xbbc5e3fb	-0.0060391403
165	0xb8928331	-6.986259e-05
166	0xb28bf9b2	-1.6295278e-08
167	0xba0b7684	-0.00053200894
168	0x38950993	7.106657e-05
169	0xba7590a9	-0.00093675643
170	0x3a8c20f8	0.0010690978
171	0x38585963	5.158166e-05
172	0x388f00f2	6.8189474e-05
173	0xba9a1135	-0.0011754396
174	0x38b02e10	8.400914e-05
175	0xba7d2b37	-0.00096576236
176	0x3ba74b9b	0.0051054484
177	0xb5497c6f	-7.505941e-07
178	0xb8292c18	-4.0333805e-05
179	0xb5652493	-8.536237e-07
180	0xbb107090	-0.0022039749
181	0x3b9673a7	0.0045914236
182	0x3731f9ae	1.0608155e-05
183	0x385fd11e	5.33621e-05
184	0x3b8dcafc	0.004327176
185	0x38e73115	0.000110240806
186	0xb91c1e88	-0.00014888693
187	0x36b4af85	5.384851e-06
188	0x375b679c	1.3077541e-05
189	0xb8e81e0f	-0.00011068221
190	0xba9f3f44	-0.0012149592
191	0xb928e97e	-0.00016108711
192	0x385cc6f2	5.263737e-05
193	0x36bb6f71	5.586008e-06
194	0xbbbfa479	-0.005848464
195	0x3a84fd1b	0.0010146232
196	0xb68ca2b4	-4.1912663e-06
197	0x3b002e51	0.0019558857
198	0x3a932a4e	0.0011227818
199	0x39c14ec5	0.00036870516
200	0x3ba0d11a	0.0049077393
201	0xb92cc3c6	-0.0001647613
202	0x343ad0dd	1.7398584e-07
203	0x3bb06bc1	0.005383939
204	0x3ab5b0a0	0.0013861842
205	0x383b0d1a	4.4596476e-05
206	0xb857a943	-5.141763e-05
207	0x3af76795	0.0018875474
208	0xbb164b48	-0.0022933055
209	0x39181548	0.00014503777
210	0xbb9da897	-0.0048113572
211	0x3a301c6d	0.0006718103
212	0xbadcff6c	-0.001686079
213	0x3a5a473e	0.0008326656
214	0x351ec6b2	5.9148726e-07
215	0x39e694a9	0.0004397978
216	0xb8b70cf4	-8.728533e-05
217	0xb42a8404	-1.5880511e-07
218	0x353e33c7	7.085586e-07
219	0x38030ea5	3.1246473e-05
220	0xb3b9b534	-8.6476945e-08
221	0x382b677c	4.0865954e-05
222	0x386b8dc2	5.616039e-05
223	0x36012ed9	1.9249767e-06
224	0x38bf4f55	9.1223665e-05
225	0x3a2a819f	0.00065043004
226	0x3aaf2372	0.0013362004
227	0x3aba45ba	0.0014211454
228	0x39f3ebec	0.00046524347
229	0x37f6c2d1	2.9416204e-05
230	0x3a0853d9	0.00052004826
231	0x34369e24	1.7007602e-07
232	0x35e6036f	1.7137335e-06
233	0xb796c1ec	-1.7971695e-05
234	0x35a81f38	1.2526061e-06
235	0x365626dc	3.1911104e-06
236	0x3b19d573	0.0023473173
237	0x3a592e10	0.0008284757
238	0x382e08eb	4.149314e-05
239	0xb58e70cc	-1.0612653e-06
240	0x39bf50fd	0.000364907
241	0x39e11daf	0.0004293746
242	0xbb05b12e	-0.0020399797
243	0xb5f26867	-1.806079e-06
244	0xb8cd04a9	-9.77603e-05
245	0xb9dc3d73	-0.00042007453
246	0x3805407c	3.1769727e-05
247	0x38072f46	3.2230535e-05
248	0x34d6b4c7	3.999214e-07
249	0xbbaef27c	-0.005338965
250	0x39d8ac38	0.00041327043
251	0xbb429698	-0.0029691812
252	0xb387fb09	-6.3320904e-08
253	0x348cb3b4	2.6207783e-07
254	0xbba0e7b8	-0.0049104355
255	0xb72ac67f	-1.0179006e-05

encoder_b.convs.0.bias f4 [64]
0	0x3b038616	0.0020068935
1	0x3c392da4	0.0113023855
2	0x3c03c71d	0.008043078
3	0x3c108ca1	0.008822591
4	0x3c037585	0.008023624
5	0x3a9be1c5	0.0011892846
6	0x3c2e9254	0.0106550045
7	0x3c23584e	0.009969784
8	0x3b3b1e9f	0.0028552187
9	0x3c6c09d1	0.014406637
10	0x3bf9d3d2	0.007624128
11	0x3b3df975	0.00289878
12	0x3c172c37	0.00922685
13	0x3bbb7531	0.0057207574
14	0x3c455e41	0.012046398
15	0xbb55d944	-0.003263072
16	0xbc11f172	-0.008907663
17	0xba29d73d	-0.00064789114
18	0x3c35fe14	0.01110794
19	0xbc619168	-0.013767578
20	0x3bcd8ee4	0.0062731374
21	0xbb92c14a	-0.0044786083
22	0xba6a5782	-0.0008939431
23	0xbb4198ed	-0.0029540614
24	0xbc0c686f	-0.008569821
25	0x3baf0fcb	0.005342459
26	0xbae52843	-0.0017483312
27	0x3bcaf53c	0.006193785
28	0x3c3b4659	0.011430346
29	0xbba881af	-0.0051424126
30	0xbb65e78c	-0.003508064
31	0xbb34f597	-0.0027612203
32	0x3b92fa15	0.0044853785
33	0x3be3f90d	0.0069571794
34	0x3c08cbef	0.008349403
35	0xbb597a6f	-0.0033184548
36	0xbb197c80	-0.0023420155
37	0xbabda6d0	-0.001446927
38	0xbbeeef2c	-0.007291695
39	0x3be42b77	0.006963189
40	0x39834ce4	0.00025043555
41	0x3b9e5bc5	0.004832717
42	0x3be5daef	0.0070146243
43	0x3b9641b5	0.0045854696
44	0x3c6d460f	0.014482035
45	0xbc4f4026	-0.0126495715
46	0x3c3495a0	0.0110220015
47	0x3a95ef9f	0.001143921
48	0x3c491788	0.012273677
49	0xba263364	-0.0006340055
50	0xbb99d543	-0.004694612
51	0xbc0e26fe	-0.008676289
52	0x3c056680	0.008142114
53	0x3c86004a	0.01635756
54	0x3b5d7b2f	0.0033795347
55	0x3b2e0aab	0.0026556652
56	0xbbf46c8e	-0.00745923
57	0x3b6361c6	0.0034695729
58	0xbc00f9b8	-0.007872038
59	0xbc13bf5b	-0.009017791
60	0x398f18ea	0.00027293648
61	0x3c78fda8	0.015197195
62	0x3b726b1d	0.0036990114
63	0x3b2e1b7e	0.002656668

encoder_b.convs.1.weight f4 [64, 64]
0	0xb9253e2d	-0.00015758789
1	0xb86210f9	-5.3898406e-05
2	0x3b14cbce	0.0022704485
3	0x3c0dbedb	0.0086514605
4	0xacd5f123	-6.0805957e-12
5	0xbb70a8dd	-0.0036721744
6	0xb352c95f	-4.907758e-08
7	0xbc830891	-0.015995296
8	0xb9f584d5	-0.0004682901
9	0xb6a4d877	-4.9127807e-06
10	0x3a4183ba	0.00073819945
11	0x3be66c2d	0.0070319385
12	0x3a44bbeb	0.00075048086
13	0xbb6f8315	-0.0036546637
14	0xbc9abb1a	-0.018888045
15	0xb41929f2	-1.4264495e-07
16	0x3c76f390	0.015072718
17	0x38ab23e6	8.160602e-05
18	0x3b27444e	0.002552289
19	0xbbb00d19	-0.005372655
20	0xbbf0b911	-0.0073462804
21	0x3ace361c	0.0015732679
22	0xb5fa7c7c	-1.8662681e-06
23	0xb7ede149	-2.8357508e-05
24	0x39b6cce4	0.000348664
25	0xb38da526	-6.5958645e-08
26	0xb9af44cf	-0.00033429867
27	0xbc50ecb9	-0.012751752
28	0x3c103260	0.008801073
29	0x3b929f91	0.004474588
30	0xbaf0f0b3	-0.0018382281
31	0xbbeb163c	-0.0071742814
32	0xb6dfa23b	-6.664804e-06
33	0x3adbb47f	0.0016762166
34	0xba216393	-0.00061565003
35	0xb9b7029d	-0.00034906427
36	0x396b6505	0.00022448979
37	0xbc03b24c	-0.008038115
38	0xb7206d98	-9.56226e-06
39	0xb7d2be2f	-2.5122512e-05
40	0x3c492e66	0.012279129
41	0xb8fe8d60	-0.00012137997
42	0x3c1d1890	0.009588376
43	0x36cccaec	6.103297e-06
44	0xb49fcffc	-2.9767386e-07
45	0xb8889801	-6.513298e-05
46	0x3ba6c7d0	0.0050897375
47	0x9d4b60d8	-2.6916893e-21
48	0xbb063a19	-0.0020481406
49	0x3a8f7c84	0.0010947143
50	0xbb8aa324	-0.0042308737
51	0xbb97e3f9	-0.0046353308
52	0xb3e2c012	-1.05588825e-07
53	0x3a273716	0.0006378753
54	0xbc2212da	-0.00989219
55	0x396a2465	0.00022329537
56	0xb65d7d3b	-3.300446e-06
57	0x3b3bf2e6	0.0028678714
58	0x3a848529	0.0010110486
59	0x370d0100	8.404488e-06
60	0xbc08b8ca	-0.008344838
61	0x3969c4e4	0.00022293959
62	0x39c01a06	0.00036640483
63	0x39f8e54f	0.00047473094
64	0xb8847c5a	-6.317413e-05
65	0xa88095a3	-1.427575e-14
66	0x375c56d9	1.3133243e-05
67	0x19cef9d4	2.1400806e-23
68	0x3a43ff07	0.00074766617
69	0xb45e9202	-2.0728478e-07
70	0x97d1de7c	-1.3562471e-24
71	0xba11b864	-0.00055587874
72	0x360aa36f	2.0658733e-06
73	0xadd46e79	-2.415067e-11
74	0xb89fdc79	-7.622777e-05
75	0xb4b50e23	-3.3724163e-07
76	0xbb341804	-0.0027480135
77	0x3c4230f3	0.011852491
78	0xba18a789	-0.00058233045
79	0xb118d79a	-2.2241466e-09
80	0x33a56507	7.701788e-08
81	0x3b2e410c	0.0026589064
82	0x3c098ed5	0.00839587
83	0xb04c8900	-7.4409456e-10
84	0xb9917f8b	-0.00027751582
85	0xbb489578	-0.0030606668
86	0xbc11f148	-0.008907624
87	0xba5e9ee8	-0.0008492307
88	0xb1d40da1	-6.1715615e-09
89	0x361da871	2.349287e-06
90	0xb7965e93	-1.7925433e-05
91	0x38b5f65b	8.67664e-05
92	0x3bb7dd59	0.0056111035
93	0x3c5ab15e	0.013347952
94	0x3aa9eead	0.0012964808
95	0xbac9c10b	-0.0015392614
96	0x3b086012	0.0020809215
97	0xb7fdc6ee	-3.0252584e-05
98	0xb6a20233	-4.8282322e-06
99	0xb50fff58	-5.3643225e-07
100	0xb597d64c	-1.1312745e-06
101	0xbb574478	-0.0032847207
102	0x1a90da53	5.9909726e-23
103	0xbadd72c4	-0.0016895165
104	0xbb976d30	-0.0046211705
105	0x903347a1	-3.5356706e-29
106	0xb5ed0bc3	-1.7661299e-06
107	0xbb90ebd3	-0.0044226437
108	0xa8621a23	-1.2551188e-14
109	0xbbac2383	-0.0052532568
110	0x3c2e8976	0.01065289
111	0x3aa12de4	0.0012297002
112	0x381cb30c	3.736005e-05
113	0xb611d980	-2.1733285e-06
114	0xbb50f75d	-0.0031885721
115	0xb579569b	-9.2885756e-07
116	0xb61c3cbc	-2.3281164e-06
117	0x3a141c92	0.0005650009
118	0x3ab764f7	0.0013991882
119	0xbbdf5456	-0.0068154735
120	0xb8a07b4b	-7.65236e-05
121	0xbc3f59b8	-0.011679105
122	0xb6d46ab9	-6.3305165e-06
123	0xba5d0b82	-0.0008432196
124	0xb834ab63	-4.307496e-05
125	0x391f4bb9	0.0001519163
126	0x36a10aad	4.7994167e-06
127	0xba24ce04	-0.0006286802
128	0x3ab5ab30	0.0013860222
129	0xb0eed54a	-1.73774e-09
130	0x3b086576	0.0020812429
131	0xbab70638	-0.0013963645
132	0xbc0c2d09	-0.008555659
133	0xb885cc6e	-6.380012e-05
134	0x9eebca18	-2.4965177e-20
135	0xbc35201e	-0.011055021
136	0xbbc903ea	-0.0061345
137	0xbb136a06	-0.0022493615
138	0xbb770ff1	-0.003769871
139	0xbc0d7eee	-0.008636219
140	0xbb2633fa	-0.002536057
141	0xb81960f4	-3.6568337e-05
142	0x38f6e558	0.00011772913
143	0xbbdd54ad	-0.006754479
144	0x392b1bb3	0.0001631815
145	0x37edf04a	2.8364495e-05
146	0xb82ea4ac	-4.1638195e-05
147	0x3a9d2713	0.0011989794
148	0xbba43d00	-0.0050121546
149	0x39b21f36	0.0003397406
150	0x334bd93a	4.7462187e-08
151	0xb42980e9	-1.5786249e-07
152	0x3b122c71	0.0022304321
153	0xb9378b5d	-0.00017504157
154	0x3829e429	4.050523e-05
155	0x3c1e8727	0.0096757775
156	0x3c675547	0.014119453
157	0xbc737f4e	-0.014861895
158	0x3c87adcb	0.016562363
159	0xb486a7cb	-2.508153e-07
160	0xbbba5ff9	-0.0056877104
161	0xbad4be3e	-0.0016231013
162	0x381256ff	3.4890134e-05
163	0x3b8f440c	0.0043721255
164	0x37e72330	2.7553731e-05
165	0x3be228b0	0.006901823
166	0xbbcc6daf	-0.0062386612
167	0x3a326fa1	0.0006806795
168	0x39a24651	0.00030951438
169	0x9302a680	-1.6490398e-27
170	0xb69d3622	-4.6852665e-06
171	0x3a108cd7	0.0005514151
172	0xb34fa5fd	-4.834691e-08
173	0x3b0dad14	0.0021618055
174	0xba9da82b	-0.0012028267
175	0xbc18f64b	-0.009336065
176	0xbcb32472	-0.021867964
177	0x390aba0f	0.00013230018
178	0xb81efa66	-3.7903337e-05
179	0xb6b69cf8	-5.4422962e-06
180	0x9b93a8f3	-2.442829e-22
181	0x3bce92d4	0.0063041244
182	0x386e84d2	5.686732e-05
183	0x356616bd	8.5714765e-07
184	0xba83d6b1	-0.001005849
185	0x3b3363ab	0.002737264
186	0x3b31cadf	0.0027128977
187	0xbb1e1717	-0.002412265
188	0x3c344f71	0.011005268
189	0x3be8e8d9	0.0071078357
190	0xb41b24aa	-1.4448838e-07
191	0xb87192da	-5.7595644e-05
192	0x3b92867a	0.0044715973
193	0xa7bd4e3d	-5.2542864e-15
194	0xbc9d16cd	-0.019175911
195	0xb32f7e9b	-4.086051e-08
196	0x39282e0c	0.00016038882
197	0xb94c5ec8	-0.00019490265
198	0xb82aaf1b	-4.0694238e-05
199	0xbcb94e04	-0.022620209
200	0xb8b1f553	-8.485713e-05
201	0xb605c91c	-1.9935605e-06
202	0x38c58b36	9.419622e-05
203	0xb523f8b8	-6.1084165e-07
204	0x38853375	6.351519e-05
205	0xb6a9902e	-5.053377e-06
206	0x3bfe658e	0.007763571
207	0xb4b1bd7d	-3.310669e-07
208	0x37afb093	2.094385e-05
209	0x3b09940c	0.0020992784
210	0x3977ea1f	0.00023642973
211	0xb80388f7	-3.1360392e-05
212	0x38cd68f3	9.79471e-05
213	0x3c992f33	0.018699264
214	0xb6c53d53	-5.8781966e-06
215	0x3983a705	0.00025110706
216	0x3b473209	0.0030394814
217	0xb52b6968	-6.385585e-07
218	0x3a37201c	0.00069856807
219	0x3c554b21	0.0130184
220	0x3c55558a	0.013020882
221	0x3c426729	0.011865416
222	0xbb929788	-0.0044736303
223	0xbb0abe80	-0.0021170676
224	0x396aa73e	0.00022378282
225	0x3aeb4e6c	0.0017952449
226	0x3888f6e1	6.53097e-05
227	0x3aa09ce0	0.0012253784
228	0xb8d10357	-9.966519e-05
229	0x3bbb20bf	0.0057106907
230	0xb76d0148	-1.4126599e-05
231	0x3c5fa7ee	0.013650877
232	0x3bac3c36	0.005256201
233	0xbbeccaee	-0.0072263395
234	0x3b12f279	0.0022422357
235	0x3ad6f0de	0.0016398688
236	0x3b9e839a	0.0048374655
237	0xb8842b81	-6.302354e-05
238	0xbbaed65d	-0.0053356127
239	0xba280d07	-0.00064106326
240	0x38819017	6.178038e-05
241	0xb7edb32a	-2.8336031e-05
242	0x33964b5e	6.9986285e-08
243	0x374dcec3	1.2267093e-05
244	0xba7f3f54	-0.00097369147
245	0xbbe41897	-0.006960939
246	0xb745143d	-1.1746827e-05
247	0xbc2c976e	-0.0105341505
248	0xb9788f95	-0.00023704612
249	0xbb5afd79	-0.0033415242
250	0x3b5d27be	0.0033745612
251	0x390eab6b	0.00013606033
252	0x3a91ce37	0.0011124079
253	0x365b864f	3.271172e-06
254	0x3816ed58	3.598383e-05
255	0x3c040404	0.008057598

encoder_b.convs.1.bias f4 [64]
0	0x3b8de067	0.0043297294
1	0xbb960f59	-0.0045794663
2	0x3c4b5f8e	0.012412919
3	0xbbef89f2	-0.0073101455
4	0xbb811c1e	-0.0039401194
5	0xbc1f7b96	-0.009734055
6	0xbc00d483	-0.007863167
7	0x39f3c9cb	0.0004649892
8	0x3c1a5c40	0.009421408
9	0xbb2641c1	-0.0025368782
10	0x3ba0f551	0.0049120565
11	0x3a3d3b25	0.0007218591
12	0xba1a8ab8	-0.00058953045
13	0xbbf41c7e	-0.0074496856
14	0x3c0ce441	0.008599342
15	0xbbeaba9c	-0.007163359
16	0x3c0716e1	0.008245201
17	0x3bc678e5	0.006056892
18	0xbbd2aa9e	-0.0064290306
19	0xbbfb96ac	-0.0076778736
20	0x3c505509	0.012715586
21	0x3bd720ad	0.0065651746
22	0xbbb2c1d4	-0.005455235
23	0x3c6c80d8	0.014435016
24	0xbb5a9eeb	-0.0033358883
25	0x3b806b9d	0.0039190785
26	0xbb2cdcda	-0.0026376755
27	0x3b49e22c	0.0030804975
28	0x3c0adbd1	0.00847526
29	0x3c6fd280	0.014637589
30	0x3bf2491b	0.0073939688
31	0x3b216110	0.0024624504
32	0x38236127	3.895271e-05
33	0x3b945d53	0.0045277267
34	0x3aa33818	0.001245263
35	0x3c051c5b	0.008124436
36	0x3abfce6f	0.0014633666
37	0x3c16b02c	0.009197276
38	0xba8acdee	-0.0010589936
39	0xbbdefbc8	-0.006804917
40	0x3aacf945	0.0013196847
41	0xbbf6f487	-0.007536474
42	0x3c3d6a13	0.011560935
43	0x3b34c861	0.0027585255
44	0xbc30522c	-0.010761779
45	0x3bf52950	0.0074817315
46	0x3c34ec84	0.011042718
47	0xbbd100ff	-0.0063782926
48	0x3c413773	0.011793005
49	0x3c2856cd	0.010274601
50	0x3c3c1deb	0.011481742
51	0xbac34f43	-0.0014900941
52	0xbc38290a	-0.011240253
53	0x3c8631a7	0.016381098
54	0x3b9a0637	0.004700448
55	0x3c47192a	0.012151996
56	0x3c1b0c2b	0.00946335
57	0xbac22fe0	-0.0014815293
58	0x3be8ca6b	0.007104208
59	0x3be72242	0.0070536444
60	0x3c53262d	0.01288752
61	0x3aaac1c3	0.0013027716
62	0xbc48286d	-0.0122166695
63	0x3b2652fd	0.0025379055
