results/ADHD_3x5fold_seed0/fold3_rep0_seed3/ckpt_best_fold_3.pt (torch, 660351 bytes, 72 tensors)

encoder_c.convs.0.weight f4 [116, 64]
0	0xbe3bdb75	-0.18345435
1	0xbe13fe83	-0.14452557
2	0xbd6f9432	-0.05849094
3	0xbe3532c0	-0.17695141
4	0xbc7346d7	-0.0148484325
5	0xbe088def	-0.13335393
6	0x3d6eefee	0.058334284
7	0x3d1f8fd8	0.03895554
8	0xbba52507	-0.0050398144
9	0x3e13628e	0.14393064
10	0xbc15e056	-0.009147724
11	0x3df7585a	0.120773986
12	0xbd96cdeb	-0.073634945
13	0xb9017094	-0.00012344337
14	0xbd9e1fd5	-0.07720915
15	0x3ca1e20c	0.019761108
16	0xbdd56849	-0.104202814
17	0x3e24af27	0.1608244
18	0x3e06d91e	0.13168761
19	0x3e1d8f08	0.15386593
20	0x3dade34b	0.08490618
21	0xbd85bf08	-0.06530577
22	0x3e2a90f1	0.16656853
23	0xbe2aee93	-0.16692571
24	0xbd9a72db	-0.07541438
25	0xbdcf6867	-0.10127335
26	0xbda4cfeb	-0.0804747
27	0x3d4259cb	0.047448914
28	0xbdba3cc8	-0.09093624
29	0xbe024434	-0.1272133
30	0xbccacd3b	-0.024756065
31	0x3db27f9f	0.08715748
32	0xbdd83161	-0.10556293
33	0xbe0e7bf2	-0.13914469
34	0xbdd5a6fc	-0.1043224
35	0xbd469ef7	-0.048491444
36	0xbd3e4c8f	-0.04645973
37	0xbdcbdf92	-0.09954752
38	0xbdcd6098	-0.100281894
39	0x3b434ea2	0.0029801507
40	0xbcd490c7	-0.025947941
41	0x3c70970c	0.01468445
42	0x3bbac477	0.00569969
43	0xbddbc22a	-0.10730393
44	0x3db7ba51	0.08971084
45	0xbd3008e5	-0.042977232
46	0xbd91960f	-0.071086995
47	0xbc38d682	-0.011281611
48	0xbd9ef3d5	-0.07761351
49	0x3dcfff7e	0.10156153
50	0x3dbe5964	0.09294394
51	0xbd650223	-0.05591024
52	0x3c73806f	0.014862164
53	0x3de755ae	0.11295639
54	0x3d4de04d	0.050262738
55	0x3d44da60	0.04805982
56	0xbdc15bab	-0.094413124
57	0x3e0a9b94	0.13535911
58	0x3d684e58	0.05671534
59	0xbd16306b	-0.03666727
60	0x3db63e03	0.088985465
61	0xbd0381aa	-0.03210608
62	0xbdf4a6c8	-0.119458735
63	0xbd32bb0f	-0.043635424
64	0xbe154f92	-0.14581135
65	0xbdcfc018	-0.10144061
66	0xbcfdd4af	-0.030985205
67	0xbdbb7a06	-0.091541335
68	0x3dd0019d	0.10156558
69	0x3de8c874	0.113663584
70	0xbbeaabc9	-0.0071615917
71	0x3df620ca	0.12017973
72	0xbd809aab	-0.062795006
73	0xbc279ccd	-0.010230255
74	0x3d90b1b2	0.07065143
75	0x3dde428d	0.10852537
76	0x3cc600fc	0.024170391
77	0x3e2826fa	0.16421118
78	0x3d2a8dae	0.041639023
79	0x3df47459	0.11936254
80	0xbe1e941c	-0.15486187
81	0xbde3a84c	-0.111160845
82	0xbdf7692f	-0.12080609
83	0x3d37414e	0.044740014
84	0x3e1ec63b	0.15505306
85	0xbdfadd4f	-0.122492425
86	0x3d82c69c	0.06385538
87	0xbe1c6320	-0.15272188
88	0xbd8a88e3	-0.0676439
89	0xbc99636b	-0.018724164
90	0xbda55d7c	-0.08074471
91	0x3d8f84e6	0.0700777
92	0xbe073004	-0.1320191
93	0x3e13cad2	0.14432839
94	0x3d0dda13	0.0346318
95	0x3dc76ca4	0.097375184
96	0xbd856ecc	-0.065152735
97	0x3df279a8	0.1183961
98	0xbcee1e44	-0.029067166
99	0xbd6f5823	-0.058433663
100	0x3d47b218	0.048753828
101	0x3d531050	0.05152923
102	0x3d380ca9	0.04493395
103	0xbc464d33	-0.012103367
104	0x3bf86d82	0.0075814137
105	0xbbc4e6d4	-0.006008962
106	0xbb3f3258	-0.0029174294
107	0xbd25adec	-0.040449068
108	0x3e096322	0.13416722
109	0xbdfac2e5	-0.122442044
110	0x3d8c160b	0.06840142
111	0x3ddcff1e	0.10790847
112	0xbe28cd57	-0.16484581
113	0xbdb17a3b	-0.08665892
114	0xbde53bcd	-0.11193047
115	0xbdfa2b9a	-0.122153476
116	0x3dfae964	0.12251547
117	0x3dfacddb	0.12246295
118	0xbd8549b8	-0.06508201
119	0x3e112be3	0.14176898
120	0x3d62268b	0.05521254
121	0xbe0baeda	-0.1364092
122	0xbdf34d67	-0.11879998
123	0xbdad99f7	-0.08476632
124	0xbe11a201	-0.14221956
125	0xbdec4183	-0.11535933
126	0x3c096e64	0.008388136
127	0x3d6a34ab	0.057179134
128	0xbd17e717	-0.03708562
129	0x3c18487a	0.0092946235
130	0x3e0b6435	0.13612445
131	0xbb832d91	-0.0040032347
132	0x3dcf5150	0.10122931
133	0xbcc2a79f	-0.023761569
134	0xbdf69e06	-0.12041859
135	0x3b94d213	0.0045416444
136	0x3dd5b122	0.10434176
137	0x3da3ae8d	0.07992277
138	0xbdda655c	-0.10663864
139	0xbd3a2e35	-0.045454223
140	0xbdfd819d	-0.123782374
141	0x3c77c4d1	0.015122608
142	0xbc2b8dd5	-0.010470827
143	0x3d147732	0.036246486
144	0xbcb4c8fa	-0.02206849
145	0xbcb38448	-0.021913663
146	0x3d096774	0.033545926
147	0xbdda4579	-0.10657782
148	0x3d586c01	0.052837376
149	0x3dc58060	0.09643626
150	0xbe0a25ab	-0.13490932
151	0x3e3caf0f	0.18426155
152	0x3d2af45d	0.04173695
153	0x3e376ec8	0.17913353
154	0x3e2232a0	0.15839624
155	0xbe010a0d	-0.1260149
156	0x3dfcc399	0.12341995
157	0x3cefdf2d	0.029281223
158	0x3d2487e0	0.040168643
159	0xbd665c12	-0.05624015
160	0xbdc92de3	-0.09823205
161	0x3d0f8edf	0.035048362
162	0x3b30fd66	0.0027006506
163	0x3d9aca22	0.07558085
164	0xbddbf244	-0.10739568
165	0xbe1aeb17	-0.15128742
166	0x3dc347ae	0.09535156
167	0x3caf9fce	0.021438506
168	0x3c5d2d7e	0.013499616
169	0xbd258d8a	-0.040418185
170	0x3d302af2	0.043009706
171	0x3cc2a5b8	0.023760661
172	0xbe10e9d5	-0.141517
173	0x3d3a30e7	0.045456793
174	0xbbe195fc	-0.0068843346
175	0x3d76bb6d	0.060237337
176	0xbdb918e3	-0.0903795
177	0x3d6ba1ad	0.057527233
178	0x3db576e7	0.088605694
179	0xbd5d237d	-0.053988922
180	0x3dc2eed0	0.09518206
181	0xbbfe13a0	-0.0077538043
182	0x3e03286b	0.12808387
183	0x3e12715e	0.14301059
184	0x3ce2f572	0.027704928
185	0x3d78251e	0.060582273
186	0x3c95e7df	0.018299041
187	0x3dd560ad	0.1041883
188	0xbdf0ef6f	-0.11764418
189	0xbc7e0e9f	-0.015506416
190	0x3e136a2a	0.14395967
191	0xbddb514f	-0.10708868
192	0xbd0868b8	-0.033302993
193	0x3c02d12b	0.00798444
194	0x3da1a85f	0.07893442
195	0x3c72b223	0.014812979
196	0xb9b85e92	-0.00035165675
197	0x3cf24c0e	0.029577281
198	0xbd7ca269	-0.061678324
199	0x3dc25d9a	0.09490509
200	0xbe10b933	-0.14133148
201	0x3de6c2c2	0.11267616
202	0x3de001c7	0.10937839
203	0x3da97e72	0.08276071
204	0x3e0c901d	0.1372685
205	0xbd34eede	-0.044173114
206	0x3da7ae0b	0.08187493
207	0xbe0734c0	-0.13203716
208	0x3dad9f4f	0.08477651
209	0xbde6d295	-0.11270634
210	0xbe0c4226	-0.13697109
211	0xbdd6d11f	-0.104891054
212	0x3e235287	0.1594945
213	0x3d180d46	0.037122034
214	0xbdf9c99f	-0.12196659
215	0xbdd7f6cc	-0.1054512
216	0x3b8325c7	0.004002306
217	0xbc979408	-0.018503204
218	0x3cc623e3	0.024187034
219	0x3d04ff10	0.03246981
220	0xbdb73e32	-0.0894741
221	0xbdf4145d	-0.119179465
222	0x3b6856fc	0.0035452237
223	0x3df68dcc	0.12038764
224	0x3dd07d57	0.10180157
225	0xbbfbb29f	-0.0076812054
226	0xbd83de98	-0.06438941
227	0x3d27d2a6	0.040972374
228	0x3e0f9ebc	0.14025396
229	0xbe071d7b	-0.1319484
230	0xbd08f4dc	-0.03343664
231	0x3e115c28	0.14195311
232	0x3dc4a27d	0.09601305
233	0x3dbef23c	0.09323546
234	0x3d98bfc6	0.07458453
235	0x3e184f21	0.14873935
236	0xbe30a674	-0.17250997
237	0x3cabffe9	0.02099605
238	0xbc847bf2	-0.016172383
239	0x3d658e80	0.0560441
240	0x3d8e5ed8	0.06951684
241	0x3ccc13b1	0.024911733
242	0xbdf6178d	-0.12016211
243	0xbca6a3ed	-0.020341838
244	0x3c329816	0.010900518
245	0x3d831320	0.06400132
246	0x3d87f584	0.06638625
247	0x3db1ecca	0.08687742
248	0xbd8561f8	-0.06512827
249	0xbc232f93	-0.009960073
250	0x3dee6256	0.1163985
251	0x3de688c4	0.11256555
252	0x3df21e90	0.118222356
253	0xbdf82dfa	-0.12118144
254	0x3d4a25df	0.049352523
255	0xbe3b0c89	-0.182665

encoder_c.convs.0.bias f4 [64]
0	0xbbde28da	-0.006779772
1	0x3c0f8343	0.008759323
2	0x3a91cb69	0.0011123243
3	0xbad78b80	-0.0016444772
4	0x3c6c343e	0.014416752
5	0x3bf8e92a	0.0075961547
6	0x3c634922	0.013872417
7	0xbba99a73	-0.0051758825
8	0x3b84d0e3	0.0040532215
9	0x3c01f97f	0.00793302
10	0x3c24c242	0.01005608
11	0x3cb04a47	0.021519793
12	0xbc45523c	-0.012043532
13	0x3cca030c	0.024659656
14	0xbc0dc95e	-0.008653967
15	0x3c42d4b4	0.011891533
16	0x3ccf5877	0.025310738
17	0x3ca91b8c	0.020643018
18	0x3c72a55b	0.014809932
19	0x3cb167e9	0.021655994
20	0xb993488b	-0.00028092074
21	0x3c2087c9	0.009797999
22	0x3c6fd5f5	0.014638414
23	0x3d17c082	0.037048824
24	0x3c9c7b8a	0.019101877
25	0x3c80080d	0.015628839
26	0xba6a283c	-0.0008932387
27	0xbc1d7c96	-0.009612223
28	0x3c2a51ba	0.010395462
29	0x3ce798a3	0.028271025
30	0x3caf92a1	0.021432223
31	0x3c96741d	0.018365914
32	0x3c4bbc08	0.012434967
33	0x3cf12241	0.029435279
34	0xbb7f3474	-0.0038941177
35	0xb9c3352a	-0.0003723291
36	0x3cbc1026	0.022956919
37	0x3b83e8a6	0.0040255366
38	0x3c97dfe1	0.018539371
39	0x3ccc881d	0.024967248
40	0x3d00b68f	0.0314241
41	0xbb01fc6f	-0.00198343
42	0x3c991695	0.018687526
43	0x3c462853	0.012094575
44	0x3c6fe2ae	0.014641447
45	0x3c85ece1	0.016348304
46	0x3c058e6a	0.00815163
47	0x3c3feb35	0.011713793
48	0xbb319154	-0.002709468
49	0xbc7da411	-0.015481011
50	0xbacd0553	-0.0015641846
51	0x3d2a39ed	0.04155915
52	0x3c3888c6	0.011263078
53	0xbc9f4185	-0.019440422
54	0x3ad3b9ca	0.0016153392
55	0x3c898ccf	0.016790776
56	0x3c7d426a	0.015457729
57	0x3c2cdacb	0.010550211
58	0xbbe39c0e	-0.0069460934
59	0xbc2b4ca1	-0.0104552815
60	0x3ced729a	0.02898531
61	0xbc4ca0c0	-0.012489498
62	0xbbe6eb8d	-0.007047123
63	0x3c323c87	0.010878689

encoder_c.convs.1.weight f4 [64, 64]
0	0xba952550	-0.0011378918
1	0x3d54fd51	0.051999394
2	0xbd8175b5	-0.06321279
3	0x3e4f1f8c	0.20226878
4	0xbe2ff50e	-0.17183325
5	0x3e1064e0	0.14100981
6	0x3e4a7973	0.19772892
7	0xbe0da90d	-0.13834019
8	0x3deee416	0.11664598
9	0x3d431196	0.047624193
10	0x3d23041d	0.039798845
11	0x3c9ed66c	0.019389354
12	0xbd7d894f	-0.061898526
13	0xbb679e3d	-0.003534212
14	0x3e45b106	0.1930581
15	0x3e0d0bad	0.13773985
16	0xbdecd8d5	-0.11564795
17	0x3d9236e7	0.07139378
18	0xbe0e23a0	-0.13880777
19	0xbdadd19c	-0.084872454
20	0x384ecd01	4.9305152e-05
21	0xbdba37e4	-0.090926915
22	0x3c957f13	0.01824907
23	0x3cdb3d2d	0.02676257
24	0xbde44d54	-0.11147562
25	0xbe0438f9	-0.12912358
26	0x3e1e7078	0.15472591
27	0x3d9183c4	0.071052104
28	0x3e299ea6	0.16564426
29	0x3e111e03	0.14171605
30	0x3d241771	0.040061418
31	0xbe05d251	-0.1306851
32	0xbe2f177d	-0.17098804
33	0x3e3bae2e	0.18328163
34	0xbe17e6ef	-0.14834188
35	0xbb00e4d7	-0.001966765
36	0x3e2b027a	0.16700163
37	0x3b2b0da0	0.002610065
38	0x3d9924b3	0.07477703
39	0xbe1f2e8c	-0.155451
40	0xbd440793	-0.047858786
41	0x3dbb2713	0.09138312
42	0xbdd34dbf	-0.10317563
43	0xbe148468	-0.14503634
44	0xbe1cd14b	-0.15314214
45	0x3defef99	0.117156215
46	0xbd870759	-0.06593198
47	0xbd727f0a	-0.059203185
48	0x3e5b28bf	0.21402262
49	0xbd9154a9	-0.07096226
50	0xbd693a4d	-0.056940366
51	0xbd611154	-0.054948166
52	0x3d2626ad	0.040564228
53	0x3d262772	0.04056496
54	0x3e00025e	0.12500903
55	0xbaa7be81	-0.0012797863
56	0x3d929cd6	0.0715882
57	0xbe384e2d	-0.17998572
58	0xbc954ef9	-0.018226134
59	0xbe0feb62	-0.14054635
60	0x3e2c87a8	0.16848624
61	0x3dcb2178	0.09918493
62	0x3dfd6839	0.123733945
63	0xbded028d	-0.11572752
64	0x3e16f2ff	0.14741133
65	0x3dff201b	0.124572955
66	0xbdf0e7df	-0.11762976
67	0xbb87191f	-0.0041228677
68	0x3d9671f2	0.07345952
69	0x3de78528	0.113046944
70	0xbd422ec8	-0.047407895
71	0xbc51d2c6	-0.0128066
72	0x3d49e512	0.049290724
73	0xbbf356ad	-0.007426104
74	0x3e0f544a	0.13996997
75	0xbdc15ca3	-0.09441497
76	0x3dd6a95c	0.104815215
77	0x3e27c28a	0.16382805
78	0xbde32a7a	-0.11092086
79	0xbde37a39	-0.111072965
80	0xbe29d450	-0.16584897
81	0x3db1ae34	0.08675805
82	0x3dd4b233	0.10385551
83	0xbdf58c61	-0.11989666
84	0xbb1480f7	-0.0022659877
85	0x3d3a789c	0.04552518
86	0x3e519f85	0.20471008
87	0xbd21bd7d	-0.03948735
88	0x3de11055	0.10989443
89	0xbc8f17bd	-0.017467374
90	0xbe3cac90	-0.18425202
91	0x3a3cd894	0.00072039035
92	0xbdd8dac8	-0.10588604
93	0xbd086a4b	-0.033304494
94	0xbd860edc	-0.06545803
95	0x3e0bab7e	0.13639638
96	0x3df763f5	0.12079612
97	0x3e0caced	0.13737841
98	0xbdb1fbed	-0.08690629
99	0x3ca1c48a	0.019747037
100	0x3e5746f3	0.21023159
101	0x3e20efbd	0.15716453
102	0xbd8cd2a9	-0.06876118
103	0x3e08e4d8	0.13368547
104	0xbc915105	-0.017738828
105	0x3ddf2879	0.108963914
106	0x3e20ff16	0.15722308
107	0xbc141160	-0.009037346
108	0xbdaf4adc	-0.085592
109	0x3de99c50	0.11406767
110	0x3d8f47f2	0.06996144
111	0xbd5c039b	-0.053714376
112	0xbd9247c2	-0.07142593
113	0x3dfa7b05	0.12230495
114	0xbcb47f82	-0.022033457
115	0x3e4ebbae	0.20188782
116	0xbd93bb0e	-0.07213412
117	0xbe441d73	-0.19151859
118	0x3cc9fac8	0.024655715
119	0xbd81c0da	-0.06335612
120	0xbdd61dc0	-0.10454893
121	0xbd7409c6	-0.059579633
122	0x3d8c3068	0.0684517
123	0x3e0f820c	0.14014453
124	0x3dd1654c	0.10224399
125	0x3d4a2142	0.049348123
126	0xbcedcd49	-0.029028552
127	0xbd7e4176	-0.062074147
128	0x3cf8e807	0.030384077
129	0xbd8b7159	-0.06808729
130	0x3e0cc838	0.13748252
131	0x3e2fb8d2	0.17160347
132	0xbe1fe4d5	-0.15614636
133	0x3c0a095c	0.008425083
134	0x3cffc8f1	0.031223746
135	0xbdd883a7	-0.10571986
136	0x3d41a047	0.047271993
137	0x3c66c8f6	0.014085999
138	0xbc9c4da4	-0.01907999
139	0x3d0c6382	0.034274586
140	0xbd4fd236	-0.050737582
141	0xbde0b9b7	-0.10972922
142	0xbca13022	-0.019676272
143	0xbdfddbee	-0.12395464
144	0x3e2e483d	0.17019744
145	0xbe15fa32	-0.14646223
146	0xbe2ce02c	-0.1688239
147	0xbd10de78	-0.035368413
148	0x3be65c8b	0.007030075
149	0x3db7a573	0.08967104
150	0xbe0507b0	-0.12991214
151	0xbe297e52	-0.16552094
152	0xbd19cbf9	-0.03754804
153	0xbdcca038	-0.09991497
154	0x3e2f3dfd	0.1711349
155	0x3dd1747a	0.10227294
156	0xbdb744cc	-0.08948669
157	0x3db4f291	0.08835328
158	0xbcde29af	-0.027119486
159	0xbc439088	-0.011936314
160	0xbdb7e420	-0.08979058
161	0x3d69ebef	0.05710977
162	0xbd72284c	-0.05912046
163	0x3cc53101	0.024071218
164	0x3e20701b	0.15667765
165	0x3d41e21b	0.04733477
166	0x3d8fe50f	0.07026111
167	0xbe345aaa	-0.1761271
168	0x3d1f2fda	0.038863994
169	0x3c63c5ee	0.013902171
170	0xbd77e74e	-0.060523324
171	0x3d4d0131	0.050049964
172	0xbdc345dd	-0.0953481
173	0xbd655787	-0.055991676
174	0x3cfc6ba6	0.03081305
175	0xbdd0e23e	-0.10199402
176	0xbc84202e	-0.016128626
177	0xbdb679b6	-0.08909933
178	0x3c50fdcb	0.012755821
179	0xbd6ddb70	-0.0580706
180	0x3e1da665	0.15395506
181	0x3d90bce0	0.07067275
182	0x3e3ac95d	0.18240876
183	0x3dc4b7c9	0.09605367
184	0xbd420ca6	-0.047375344
185	0x3d3acc96	0.045605265
186	0xba78adf4	-0.000948637
187	0x3cd2ba80	0.025723696
188	0xbdc7f600	-0.09763718
189	0xbd71c40f	-0.059024867
190	0x3ce1d12c	0.027565561
191	0xbd850c88	-0.06496531
192	0xbcce978a	-0.025218744
193	0xbc75682d	-0.014978451
194	0xbe021e94	-0.12706977
195	0x3d5c4463	0.053776156
196	0xbcadc292	-0.021210942
197	0x3c26ac7c	0.010172959
198	0xbc7f772c	-0.015592378
199	0x3e4c26b4	0.19936639
200	0x3dad3962	0.084582105
201	0xbde3a5b0	-0.11115587
202	0x3e2db9de	0.16965434
203	0x3e08d3c0	0.13362026
204	0xbe2cdb80	-0.16880608
205	0xbdcfea06	-0.10152058
206	0x3df10b58	0.11769742
207	0xbd7b384f	-0.061332997
208	0xbde314ec	-0.11087975
209	0x3e389dac	0.18028897
210	0x3ca63081	0.0202868
211	0xbdda0f59	-0.106474586
212	0x392dade9	0.00016563352
213	0x3e04d327	0.12971173
214	0x3e1f20a3	0.15539794
215	0xbca03c2d	-0.019559944
216	0x3df3f0c2	0.11911155
217	0xbcfb4d1d	-0.030676419
218	0x3de51979	0.11186499
219	0xbdbebd21	-0.09313417
220	0xbc2b8a99	-0.010470056
221	0xbd9d733d	-0.076879956
222	0xbd7494b3	-0.059712123
223	0x3c84475c	0.016147308
224	0x3e2615cd	0.16219254
225	0xbcce18e4	-0.025158353
226	0xbd72f341	-0.059314016
227	0x3d6caa73	0.05777974
228	0x3e35b530	0.17744899
229	0xbdff7c00	-0.12474823
230	0xbb557cb6	-0.0032575554
231	0x3e3fc884	0.18728834
232	0xbd0e03a0	-0.034671426
233	0xbd314538	-0.043278903
234	0xbe0f6183	-0.14002042
235	0x3dc431f7	0.095798425
236	0x3db6cde5	0.0892599
237	0x3e00e552	0.12587479
238	0x3cfcbb38	0.030850992
239	0x3dfb465a	0.12269278
240	0xbe1e96a2	-0.1548715
241	0x3df45d11	0.119318135
242	0x3d408b58	0.04700789
243	0x3e54d9a7	0.20786153
244	0xbe383de3	-0.17992358
245	0xbdfc66ca	-0.12324293
246	0x3d4b0170	0.049561918
247	0x3d760a43	0.06006838
248	0xbc71c2a8	-0.014755882
249	0x3d9677ab	0.073470436
250	0xbb1e0d84	-0.0024116943
251	0x3c655dbe	0.013999401
252	0x3e328ec9	0.1743728
253	0x3d9047b7	0.070449285
254	0xbe293e49	-0.16527666
255	0x3d6d96c7	0.05800512

encoder_c.convs.1.bias f4 [64]
0	0x3c30a184	0.010780696
1	0x3ca04abf	0.019566892
2	0x3c6b5df8	0.014365666
3	0x3c812e17	0.015769048
4	0x3d109b03	0.03530408
5	0x3c9c648b	0.019090911
6	0x3c435f84	0.011924628
7	0x3ca0f4c7	0.019647969
8	0x3c8c5e45	0.017134795
9	0x3c182d63	0.009288165
10	0x3c89006e	0.016723838
11	0x3bcb1db2	0.0061986083
12	0x3c671dc4	0.014106218
13	0x3c723c7c	0.014784928
14	0x3c916f48	0.017753258
15	0x3cb174d6	0.021662157
16	0x3ca39a7d	0.019971127
17	0x3c35cb0c	0.011095773
18	0x3ca5dd10	0.020247012
19	0x3b5e7fd4	0.0033950703
20	0xbba7ba8f	-0.005118675
21	0x3cae21eb	0.021256408
22	0x3bb3d12f	0.005487583
23	0x3c8ffc8c	0.017576478
24	0x3cb93021	0.022605957
25	0x3c931ddd	0.017958576
26	0x3bd15516	0.006388317
27	0x3cc390e7	0.023872806
28	0x3c49cc2e	0.012316747
29	0x3bd704b3	0.0065618395
30	0x3c80d5be	0.01572692
31	0x3c961f33	0.018325424
32	0x3d03c103	0.032166492
33	0x3cae91f1	0.021309825
34	0x3cc06a88	0.023488298
35	0x3c89e7bb	0.01683413
36	0x3c7f6256	0.01558741
37	0x3cb4cd09	0.022070425
38	0x3c0147fb	0.007890697
39	0x3c4e27e7	0.012582756
40	0x3ca2040f	0.019777326
41	0x3c4e4aa0	0.012591034
42	0x3c99ce11	0.018775018
43	0x3c6ada52	0.014334278
44	0x3d0758e5	0.03304376
45	0x3c2fcdf9	0.01073026
46	0x3bc062e2	0.0058711627
47	0xba3cfece	-0.00072096
48	0x3b22a5bb	0.0024818021
49	0x3c8b063e	0.01697075
50	0xb92e83e7	-0.0001664307
51	0x3c8c3a81	0.01711774
52	0x3c427375	0.011868347
53	0x3c0e4fa6	0.008685982
54	0x3c827a84	0.01592756
55	0x3cd83f9c	0.026397519
56	0xbca826c5	-0.0205263
57	0x3c454093	0.0120393215
58	0xbbd7c20e	-0.0065844124
59	0x3cb69e29	0.022292214
60	0x3b9a57ac	0.0047101583
61	0x3bbeabca	0.0058188187
62	0x3c83f618	0.016108558
63	0x3a3df5a4	0.0007246381

encoder_c.convs.2.weight f4 [64, 64]
0	0xbe06badb	-0.13157217
1	0xbd4d09bf	-0.050058123
2	0x3d3d2719	0.046179865
3	0x3e012a54	0.12613803
4	0xbdc99016	-0.09841935
5	0x3de072c5	0.109593906
6	0xbd5a2806	-0.053260826
7	0xbc6f60ab	-0.01461045
8	0xbd9c99fd	-0.076465584
9	0x3da855ca	0.08219488
10	0xbe38d4c9	-0.18049921
11	0x3e10beea	0.14135328
12	0x3db604e6	0.08887653
13	0xbd2e0acd	-0.04249077
14	0xbe07bfe4	-0.13256794
15	0x3c471967	0.0121520525
16	0x3e0bf5f8	0.13668048
17	0x3ddc75a3	0.10764625
18	0x3e298a08	0.16556561
19	0x3e15debf	0.14635752
20	0x3e036bb1	0.1283405
21	0xbe186b7c	-0.14884752
22	0xbd19447d	-0.03741883
23	0x3d6da3fc	0.058017716
24	0xbdbee826	-0.093216226
25	0x3d5269f9	0.051370595
26	0xbdd81c1e	-0.10552238
27	0xbdf145bb	-0.11780878
28	0xbe2a06cf	-0.1660416
29	0xbe0b0b75	-0.1357859
30	0x3de86a00	0.11348343
31	0x3dd61bf4	0.104545504
32	0x3debe1d7	0.11517685
33	0x3d9adefe	0.07562064
34	0x3cfb5a5d	0.030682737
35	0xbdecf166	-0.115694806
36	0x3e1908c1	0.14944746
37	0x3c2b4f0d	0.010455859
38	0xbccac696	-0.024752896
39	0x3bd013a8	0.0063499995
40	0xbdee4652	-0.11634506
41	0xbc4343c7	-0.011918015
42	0x3d12f642	0.03587938
43	0x3d00e2b4	0.0314662
44	0xbdb0ae39	-0.0862698
45	0x3c3e782a	0.011625329
46	0xbd67cfd9	-0.056594703
47	0xbdf1306d	-0.117768146
48	0xbd14c827	-0.036323693
49	0x3e40502a	0.1878058
50	0xbdc79fe5	-0.09747294
51	0x3d760632	0.060064502
52	0x3cf0ba4c	0.029385708
53	0xbd86318a	-0.065524176
54	0xbc60dd04	-0.013724569
55	0x3debeafc	0.11519429
56	0x3c15daad	0.009146375
57	0xbcc5b111	-0.024132283
58	0x3cccbcd7	0.02499239
59	0xbb6e6553	-0.0036376312
60	0xbc559b66	-0.013037538
61	0xbdf9fb60	-0.12206149
62	0x3e013fb3	0.12621956
63	0xbdb65541	-0.0890298
64	0xbe238348	-0.15968049
65	0xbd77af7e	-0.060470097
66	0x3da5eaad	0.081014015
67	0xbd3bb47d	-0.045826424
68	0x3c861bdb	0.016370704
69	0xbcd6fc7d	-0.026243443
70	0x3e0d1424	0.13777214
71	0x3dbadb88	0.091239035
72	0x3daaa8da	0.08332987
73	0xbd4201c2	-0.047364958
74	0xbe35c79e	-0.17751929
75	0x3d563314	0.052294806
76	0xbc774782	-0.015092732
77	0x3d694203	0.05694772
78	0xbe3049b9	-0.17215623
79	0xbca49e43	-0.020094996
80	0xbe308d09	-0.172413
81	0x3d100ebe	0.03517031
82	0x3e3a3b3a	0.18186656
83	0xbda1d3aa	-0.079017
84	0x3da00590	0.07813561
85	0x3dbfbdd1	0.093623765
86	0xbcb4865d	-0.022036726
87	0x3ca8d724	0.0206104
88	0x3df42873	0.119217776
89	0x3e004724	0.12527138
90	0xbc385a64	-0.01125202
91	0xbd88daf7	-0.06682389
92	0xbd29099a	-0.041268922
93	0x3d1a575d	0.037680972
94	0x3d42ae40	0.04752946
95	0x3daa26a6	0.08308153
96	0x3d8a6180	0.06756878
97	0xbde5742c	-0.11203799
98	0xbd021563	-0.031758677
99	0xbd047dcf	-0.032346543
100	0x3e0e6260	0.13904715
101	0xbd4e6af0	-0.050394952
102	0xbc80dc0b	-0.015729925
103	0x3c874638	0.016512975
104	0x3e2efb4e	0.17088053
105	0x3bc1412b	0.005897661
106	0x3d4f4b9a	0.05060921
107	0x3de641fd	0.11243055
108	0xbdf74aa8	-0.120747864
109	0x3dc9a849	0.09846551
110	0xbe53d0fc	-0.2068519
111	0x3e08e081	0.13366891
112	0xbd5eca49	-0.054392133
113	0x3dc71494	0.09720722
114	0xbd297fe7	-0.041381743
115	0xbe475afd	-0.19468303
116	0xbc87b487	-0.016565574
117	0x3d6157ff	0.05501556
118	0x39a7de5c	0.00032018393
119	0x3dc51ca1	0.09624601
120	0x3d818b67	0.06325417
121	0xbd9db806	-0.07701115
122	0xbca04cd9	-0.019567894
123	0xbb095e3d	-0.0020960711
124	0xbdcbfe37	-0.09960597
125	0xbe5e0247	-0.21680556
126	0xbc813fac	-0.015777431
127	0x3daa2f53	0.08309808
128	0xbdf90125	-0.121584214
129	0x3e004731	0.12527157
130	0x3cf077f5	0.029354075
131	0x3da621ef	0.08111941
132	0xbe09a815	-0.13443024
133	0x3e03c365	0.12867506
134	0xbd666d08	-0.056256324
135	0xbdc902bc	-0.09814975
136	0xbdadb0e1	-0.084810026
137	0x3c0bf5af	0.008542462
138	0x3d958c48	0.07302147
139	0xba85ca71	-0.0010207427
140	0xbe1aff5b	-0.15136473
141	0x3dd999d2	0.10625042
142	0x3dbea4e1	0.09308792
143	0x3d0bbc3e	0.03411507
144	0x3d415900	0.047204018
145	0xbcd63daf	-0.02615246
146	0x3bde63c7	0.0067867967
147	0xbd9d4ab4	-0.07680264
148	0x3d7ceb26	0.061747693
149	0xbe566a72	-0.20939043
150	0xbe0dcb03	-0.13846974
151	0x3d38d41a	0.04512415
152	0x3e1b62f8	0.15174472
153	0xbe0056ef	-0.12533163
154	0xbe3c25c2	-0.18373778
155	0xbe573ac4	-0.21018511
156	0x3e021971	0.12705018
157	0xbe26c8c1	-0.16287519
158	0x3e0c20e2	0.13684419
159	0x3e1a1b7e	0.1504955
160	0x3d51eede	0.051253192
161	0x3d840ba3	0.06447532
162	0xbd301343	-0.04298712
163	0x3d848872	0.064713374
164	0x3df5c8ca	0.12001188
165	0x3e0170d1	0.12640692
166	0xbd82c23c	-0.063847035
167	0x3d157e1f	0.03649723
168	0xbd2d53bf	-0.042316195
169	0x3aa97a50	0.0012930129
170	0xbde84c8e	-0.11342727
171	0x3b4aef7e	0.0030965502
172	0x3d7d4d71	0.061841432
173	0x3cd8d640	0.02646935
174	0xbdac62a7	-0.08417254
175	0xbe31df86	-0.17370424
176	0xba96c5e5	-0.0011503069
177	0x3d8d3528	0.068949044
178	0x3c81a2b5	0.015824655
179	0x3e11e469	0.14247288
180	0xbd03b2cf	-0.032152947
181	0x3b1c65e5	0.0023864445
182	0x3d5a1a08	0.05324748
183	0xbd49d37f	-0.049273964
184	0xbde92ea2	-0.11385848
185	0x3d753da4	0.05987324
186	0xbbeadbdd	-0.007167323
187	0x3d39c291	0.04535157
188	0xbe3d90d5	-0.1851228
189	0x3df2f0ce	0.11862336
190	0xbd61c9f9	-0.055124257
191	0xbe25a306	-0.1617547
192	0xbdf3a39a	-0.11896439
193	0x3d317f5e	0.043334357
194	0xbd709964	-0.058740035
195	0xbe004b5e	-0.1252875
196	0x3e0191bb	0.12653248
197	0x3d7f6439	0.06235144
198	0xbcf951ff	-0.030434607
199	0xbdf99269	-0.12186129
200	0x3c127a9a	0.008940363
201	0x3e18a551	0.14906813
202	0xbe590dc0	-0.21196651
203	0x3de03459	0.109474845
204	0x3e4918e3	0.196384
205	0xbe00dd5d	-0.12584443
206	0xbe0e4fd5	-0.13897641
207	0xbe1d6359	-0.1536993
208	0xbe1238b0	-0.14279437
209	0x3a88b597	0.0010430095
210	0x3e42ca8d	0.1902258
211	0xbe462ec2	-0.19353774
212	0xbc70e9fb	-0.014704223
213	0xbddd3490	-0.10801041
214	0xbdbeeb54	-0.09322229
215	0x3dc1673f	0.09443521
216	0x3d956d86	0.072962806
217	0xbd752f49	-0.059859548
218	0x3e5df74d	0.21676369
219	0x3e3c9cac	0.1841914
220	0xbe11a8d7	-0.14224564
221	0xbde09450	-0.10965788
222	0xbdc0d6b9	-0.09415955
223	0x3e251930	0.1612289
224	0xbd1b3d94	-0.037900522
225	0xbdbbc0e7	-0.091676526
226	0xbe22c395	-0.15894921
227	0x3d056000	0.032562256
228	0xbe0140fb	-0.12622444
229	0xbc1e9b04	-0.009680513
230	0x3ccb2bda	0.024801183
231	0xbe3a8408	-0.18214428
232	0x3dbb1bf8	0.09136194
233	0xbd24df4c	-0.040252015
234	0x3dd05610	0.10172665
235	0x3e6b9b3a	0.23008433
236	0x3e3416e1	0.17586853
237	0x3e4e935d	0.20173402
238	0x3d125e76	0.035734616
239	0xba90be1f	-0.0011042989
240	0xbd49be16	-0.049253546
241	0xbdfb8330	-0.122808814
242	0x3b38dc02	0.0028207307
243	0xbc9ac7b1	-0.018894048
244	0x3d0c36a6	0.034231804
245	0xbdf159d2	-0.1178471
246	0x3ccc8734	0.024966814
247	0xbd17275a	-0.036902763
248	0x3c14a012	0.009071367
249	0xba2a1a54	-0.00064889085
250	0x3e3be95e	0.18350741
251	0xbc8a2ca4	-0.01686699
252	0xbe59da55	-0.21274693
253	0xbde90dab	-0.1137956
254	0x3dace3f3	0.08441915
255	0x3d57c214	0.05267532

encoder_c.convs.2.bias f4 [64]
0	0xbb7821d2	-0.0037861955
1	0x3cb594b2	0.02216563
2	0x3cb300a4	0.021850891
3	0xba44bf7b	-0.00075053395
4	0xbb7b87ba	-0.003838046
5	0x3bd102ec	0.006378522
6	0x3c69910b	0.014255772
7	0xbcb0376c	-0.021510802
8	0xbca884e2	-0.020571176
9	0xbbdee741	-0.00680247
10	0x3b06433a	0.0020486847
11	0x3bdf2491	0.006809779
12	0xbc7a0a5b	-0.015261258
13	0xbc6c42fb	-0.014420266
14	0x3c3b166d	0.011418921
15	0xbac67440	-0.0015140846
16	0xbbf65702	-0.0075176964
17	0xbc3bfc2e	-0.011473699
18	0x3bd00399	0.006348085
19	0x3bfb4054	0.0076675806
20	0xbc119766	-0.008886194
21	0xbca53a9a	-0.020169545
22	0xbcc44163	-0.02395696
23	0x3bb5961c	0.005541576
24	0x3bfbb8d4	0.0076819453
25	0x3b9c12bd	0.004762976
26	0xbbb32283	-0.0054667606
27	0xbc947465	-0.018121907
28	0x396a883d	0.00022366732
29	0x3c7fe4f0	0.015618548
30	0xbbfae2c9	-0.0076564294
31	0x3b84feb0	0.0040586814
32	0x3a86b840	0.00102783
33	0xbc7de826	-0.015497243
34	0x3b952a4c	0.0045521613
35	0x3bbd90d3	0.0057850867
36	0x3be8d9eb	0.007106056
37	0x3bc6e769	0.0060700667
38	0x3be8627b	0.007091818
39	0x3aacab0f	0.0013173538
40	0xbca9284d	-0.0206491
41	0xbbc7aab1	-0.006093346
42	0x3c5bf039	0.013423973
43	0xbc68fb0f	-0.014220013
44	0xbc64703e	-0.013942776
45	0x3bc366fa	0.0059632035
46	0x3be5ae52	0.007009306
47	0xbc84c0fc	-0.016205303
48	0xbc84eb86	-0.016225588
49	0xbc54b923	-0.012983593
50	0xbcba8bd9	-0.022771763
51	0x3b52e00f	0.0032177006
52	0x3cc71bff	0.024305342
53	0x3b020e5b	0.0019844982
54	0xbca68d82	-0.020331148
55	0x3b1f8fde	0.0024347226
56	0xbcd1af96	-0.025596421
57	0x3c751ec1	0.014960946
58	0x3b27185f	0.0025496704
59	0x3bdab0a7	0.0066738906
60	0x3997a85d	0.00028926405
61	0xbb48c02c	-0.0030632121
62	0x3baf4b6c	0.005349567
63	0xbb127988	-0.002235027

encoder_b.convs.0.weight f4 [116, 64]
0	0x3c01c226	0.007919824
1	0x3d605d81	0.054776672
2	0xbd7a5252	-0.061113663
3	0x3dc866a8	0.09785205
4	0x3e00309d	0.12518544
5	0x3df736aa	0.12070973
6	0xbd6a22a4	-0.057161942
7	0xbd225990	-0.039636195
8	0xbd7f15fd	-0.06227683
9	0xbd8e5932	-0.069506064
10	0xbe0685be	-0.13136956
11	0x3dc6f87f	0.097153656
12	0x3debb50b	0.115091406
13	0xbbbd6e97	-0.0057810056
14	0xbd233276	-0.039843045
15	0x3d2c5109	0.04206947
16	0xbd9c9446	-0.076454684
17	0xbdfef1b1	-0.12448443
18	0xbdf07087	-0.11740213
19	0x3def665d	0.11689446
20	0x3dbe627e	0.0929613
21	0x3cb363b2	0.021898124
22	0x3a78f03c	0.0009496247
23	0xbdd31d06	-0.1030827
24	0xbde4065e	-0.11134027
25	0xbd59f38d	-0.053210784
26	0xbd64165f	-0.055685397
27	0xbc3361d7	-0.01094862
28	0x3e01aaa6	0.12662753
29	0xbddf3eb0	-0.109006286
30	0x3dbcfef5	0.09228317
31	0x3c413fdc	0.01179501
32	0xbdbfa7d2	-0.09358181
33	0x3d9a0b4d	0.07521687
34	0xbd4b3ff3	-0.049621534
35	0x3df0a17e	0.11749552
36	0xbdb17949	-0.086657114
37	0x3dca2ea7	0.098721795
38	0xbb864589	-0.0040976447
39	0x3d50d091	0.050980154
40	0xbc8dfc6b	-0.017332276
41	0x3d2d013b	0.0422375
42	0x3db8acb2	0.09017314
43	0x3e0154a2	0.12629941
44	0xbe0e7735	-0.13912661
45	0x3d98f6ae	0.074689254
46	0xbdf3ff6b	-0.119139515
47	0x3d9c8815	0.07643143
48	0x3d3241c7	0.04351976
49	0x3db65495	0.089028515
50	0xbd925f61	-0.07147098
51	0x3ce4d5ff	0.027934073
52	0xbddac472	-0.10682
53	0x3b99cf48	0.0046938993
54	0x3d468856	0.048469864
55	0x3d0892fa	0.033343293
56	0x3dbbedbb	0.09176203
57	0xbc47b081	-0.012188078
58	0x3d98feeb	0.07470497
59	0xbde4a1b3	-0.11163654
60	0x3c0ef54c	0.0087254755
61	0xbdbe4972	-0.09291352
62	0xbb3a1789	-0.0028395376
63	0xbcf160e0	-0.029465139
64	0x3dfc5013	0.123199604
65	0xbdfb6fbe	-0.122771725
66	0xbd8a7bc2	-0.06761886
67	0x3dfd38fb	0.12364384
68	0xbddfbed8	-0.109250724
69	0xbd333823	-0.043754708
70	0xba9720bd	-0.0011530143
71	0x3d590c88	0.052990466
72	0x3dbe83f9	0.093025155
73	0x3e02af16	0.12762102
74	0xbd812f47	-0.063078456
75	0x3e007a3d	0.1254663
76	0xbda219df	-0.07915091
77	0xbd877b4b	-0.06615313
78	0x3e0fc83d	0.14041229
79	0x3dff25e7	0.12458401
80	0xbd7323f9	-0.059360478
81	0x3dd5e662	0.10444333
82	0x3d45eb33	0.048320007
83	0x3b43ba8e	0.0029865834
84	0xbdcf799f	-0.10130619
85	0xbd91347f	-0.07090091
86	0x3d5de01f	0.054168817
87	0x3bc1e3a6	0.0059170304
88	0xbddaf1a1	-0.10690618
89	0xbdf1cfb4	-0.11807194
90	0xbd819531	-0.06327284
91	0x3d759bb6	0.05996295
92	0x3da17c1d	0.07885001
93	0xbdb1f069	-0.08688433
94	0xbddf2046	-0.108948275
95	0x3d62d33e	0.055377237
96	0x3bddc265	0.0067675584
97	0xbc579acb	-0.013159464
98	0xbaa690c6	-0.0012707941
99	0xbd0663a1	-0.032809857
100	0x3d9d8c11	0.07692731
101	0x3cdab688	0.026698366
102	0x3d803ec5	0.06261972
103	0x3d32f9e9	0.043695364
104	0xbdc2706e	-0.094941005
105	0xbd9a2bec	-0.07527909
106	0xbe0a26f5	-0.13491423
107	0xbd7fbbb6	-0.062434874
108	0x3dca4742	0.098768726
109	0xbde564d8	-0.11200875
110	0xbe019c40	-0.12657261
111	0xbb402119	-0.0029316603
112	0x3c94b791	0.018153938
113	0x3e08f75a	0.13375607
114	0x3bf23b25	0.0073923045
115	0xbda69b20	-0.081350565
116	0xbb4bc29d	-0.003109134
117	0xbcf00c24	-0.029302664
118	0x3d553f44	0.052062288
119	0xbd777de4	-0.060422793
120	0xbdd7506f	-0.10513388
121	0x3da4aec8	0.080411494
122	0xbd89464c	-0.06702861
123	0x3dc43b06	0.0958157
124	0xbcab3020	-0.020896971
125	0x3df3b9b9	0.11900658
126	0x3cca5f2d	0.024703586
127	0xbddd84a8	-0.10816318
128	0xbc3ebcb1	-0.011641667
129	0x3dd4340f	0.10361492
130	0xbdd3a75a	-0.10334654
131	0xbd935074	-0.071930796
132	0xbdf186ef	-0.11793315
133	0xbd9abfc3	-0.07556107
134	0xbce6c251	-0.02816883
135	0xbd4989be	-0.049203627
136	0x3cd9280f	0.02650836
137	0xbd26b568	-0.040700346
138	0x3d2bf33a	0.041980006
139	0x3dd176a1	0.10227705
140	0x3db3b525	0.08774785
141	0x3dac3c41	0.0840993
142	0xbcee8e7f	-0.029120682
143	0xbe043083	-0.12909131
144	0x3d80ebbf	0.06294965
145	0xbbf23822	-0.0073919455
146	0x3d64a569	0.05582181
147	0x3da683a2	0.08130576
148	0x3c018c50	0.007906988
149	0xbdb53142	-0.08847286
150	0xbc197c8d	-0.009368074
151	0xbbf314d7	-0.007418256
152	0x3c27d2ed	0.01024316
153	0xbd95deda	-0.07317896
154	0x3ddd92ce	0.108190164
155	0x3d244a10	0.040109694
156	0xbdae6350	-0.08515036
157	0xbd3b1ba7	-0.04568067
158	0xbd49fbd2	-0.04931242
159	0x3b684a18	0.0035444554
160	0x3de8fc30	0.11376226
161	0x3da41718	0.08012217
162	0x3d6b9cd6	0.057522617
163	0x3dc5fdc7	0.09667545
164	0x3bbbe633	0.005734229
165	0x3d884773	0.06654253
166	0xbd328a84	-0.04358913
167	0x3d969fa9	0.073546715
168	0xbd6bec62	-0.05759848
169	0x3df835a0	0.12119603
170	0xbc8037d0	-0.015651613
171	0x3d88d641	0.06681491
172	0xbcbf5c05	-0.023359308
173	0x3dd84797	0.1056053
174	0xbdbdbba6	-0.09264307
175	0x3cd29722	0.025706831
176	0x3c412b2a	0.011790076
177	0xbd986193	-0.07440486
178	0xbcd42a19	-0.02589898
179	0x3deee4b8	0.116647184
180	0xbded0baa	-0.1157449
181	0x3d509d6c	0.05093138
182	0x3c408687	0.011750824
183	0x3b677125	0.0035315242
184	0x3cf11526	0.02942903
185	0xbbaa5284	-0.005197825
186	0xbdb92b89	-0.09041507
187	0x3c8acc4c	0.01694312
188	0x3c751728	0.014959134
189	0xbd8ea464	-0.06964949
190	0x3d88d8f5	0.06682006
191	0x3c757081	0.014980436
192	0xbcda9dd3	-0.026686585
193	0xbc82d02a	-0.015968401
194	0x3d02d620	0.031942487
195	0x3dafae3e	0.08578156
196	0xbd28b8af	-0.041191753
197	0xbde67d26	-0.11254339
198	0xbc989a46	-0.01862825
199	0xbd3d7e80	-0.046263218
200	0xbc98f168	-0.018669799
201	0xbd76f057	-0.0602878
202	0xbbc66514	-0.00605453
203	0x3d1230ba	0.035691
204	0x3da1c10b	0.07898148
205	0x3d9d0063	0.076660894
206	0x3cec79b7	0.028866632
207	0x3ddb2fb0	0.10702455
208	0x3c975d37	0.018477065
209	0xbdc4efe1	-0.09616066
210	0x3d60f244	0.054918543
211	0xbda66c93	-0.08126178
212	0x3d86c65e	0.06580804
213	0xbd05df34	-0.032683566
214	0xbd524815	-0.051338274
215	0xbcca6a9a	-0.024709035
216	0x3d9368ca	0.07197721
217	0x3db0c28f	0.08630859
218	0xbdce9096	-0.10086171
219	0xb9fc6e8b	-0.00048147546
220	0x3d97fe1e	0.07421516
221	0xbd3673d3	-0.044544052
222	0x3df2d5c7	0.11857181
223	0x3e02f8b8	0.12790191
224	0xbd592746	-0.05301597
225	0x3dc8620f	0.09784328
226	0x3d890d6c	0.06692013
227	0xbdc2f155	-0.09518687
228	0xbd6afd2d	-0.057370353
229	0xbd2f463c	-0.04279159
230	0xbd914adf	-0.07094359
231	0x3d867c85	0.06566719
232	0xbd35dfef	-0.044403013
233	0xbd814306	-0.06311612
234	0xbab6b22e	-0.00139386
235	0xbd40d541	-0.047078375
236	0xbd3baff7	-0.04582211
237	0xbd82590b	-0.0636464
238	0xbd7977c0	-0.060905218
239	0x3d2831b6	0.041063033
240	0x3cf0d833	0.029399967
241	0x3dcfd41c	0.101478785
242	0xbd64203f	-0.055694815
243	0xbccef89d	-0.025265032
244	0x3dc988b8	0.0984053
245	0x3dc5b1b6	0.09653036
246	0x3dcc3b8f	0.099722974
247	0xbbb11f88	-0.00540537
248	0x3c266512	0.010155933
249	0xbd35c39a	-0.044375993
250	0x3e01a9ff	0.12662505
251	0xbdd1d44d	-0.10245571
252	0x3d1d516e	0.038407736
253	0x3db178a4	0.086655885
254	0x3bb5ab3b	0.005544094
255	0x3d216b84	0.039409176

encoder_b.convs.0.bias f4 [64]
0	0x3ba98cee	0.005174271
1	0xbb68082e	-0.0035405266
2	0x3a6497f1	0.0008720151
3	0x3ba0d8f0	0.0049086735
4	0x3be967db	0.0071229762
5	0x3c01b0f2	0.007915722
6	0xbb90da0f	-0.004420526
7	0x3b5cebf3	0.0033709973
8	0x3b5513ad	0.0032512948
9	0x3bba7190	0.0056898072
10	0x39ac5d64	0.00032875978
11	0x3bdc9a04	0.0067322273
12	0xbbb781b8	-0.0056001805
13	0xbb800f36	-0.0039080633
14	0x3b073acc	0.002063441
15	0xbaf4975a	-0.0018660829
16	0x3c0901b4	0.008362222
17	0xba2f6ce5	-0.0006691947
18	0x3ba5f3c4	0.0050644595
19	0xbbd29d61	-0.0064274524
20	0x3c0175dc	0.007901635
21	0xba315ef4	-0.0006766163
22	0x3a567dd8	0.00081822043
23	0x3bbf6df0	0.005841963
24	0x3b4a80bc	0.0030899486
25	0x3a05a65a	0.00050983357
26	0x3bcd5c03	0.006267072
27	0x3b97de02	0.0046346197
28	0x3c1adc69	0.009451964
29	0xbb9aba6d	-0.0047219307
30	0x3b572db5	0.003283364
31	0x3b9c652b	0.0047728023
32	0x3af3fc6d	0.0018614657
33	0xbbda5234	-0.0066626314
34	0x3b23db41	0.0025002512
35	0xbb520731	-0.0032047743
36	0xba36aaef	-0.000696822
37	0x3bd35dee	0.0064504063
38	0x3ae22d2f	0.0017255897
39	0xb95c1bae	-0.00020991146
40	0x3c05463a	0.008134419
41	0xbb14e27a	-0.0022717998
42	0x3ac70743	0.0015184659
43	0x3a533e39	0.0008058283
44	0x3a557646	0.00081429293
45	0xbb4d6f6c	-0.003134693
46	0x3c0c1e64	0.008552168
47	0x3c11cf96	0.00889959
48	0xba9b504b	-0.0011849491
49	0xbbafa084	-0.005359711
50	0xbb32aa9e	-0.002726234
51	0x3c1497c0	0.009069383
52	0x3bf40d20	0.0074478537
53	0xbb916cf7	-0.0044380384
54	0x3b65b737	0.0035051832
55	0x39d550a6	0.00040686614
56	0x3be195b8	0.006884303
57	0x3bb08df0	0.005388014
58	0x3b10fb6f	0.0022122522
59	0xbaa09ff4	-0.0012254701
60	0xbc0285bf	-0.007966458
61	0x3c019799	0.007909679
62	0xba0e0d29	-0.0005418831
63	0x3b671c30	0.0035264604

encoder_b.convs.1.weight f4 [64, 64]
0	0xbe24ff56	-0.16113028
1	0xbc89af70	-0.016807288
2	0x3c8cbc44	0.017179616
3	0xbd40b4f3	-0.047047567
4	0xbe1b6ebe	-0.15178964
5	0xbdd0adcf	-0.10189401
6	0x3e06eb03	0.13175587
7	0x3d92b834	0.0716404
8	0x3d1958d0	0.037438214
9	0xbc31e342	-0.010857405
10	0xbde265e4	-0.1105459
11	0x3e06985b	0.13144056
12	0x3e1888c4	0.14895922
13	0x3d7c2601	0.06155968
14	0xbdda94ec	-0.10672936
15	0x3d1c6d60	0.038190246
16	0xbe2c2db7	-0.16814314
17	0x3dc5867e	0.09644793
18	0x3d9290a9	0.07156498
19	0xbdd662b1	-0.10468043
20	0x3e204304	0.15650564
21	0x3dfd80a6	0.12378053
22	0xbc7cbd7f	-0.015426039
23	0xbceb5d37	-0.028730972
24	0x3d217458	0.039417595
25	0x3b082347	0.002077298
26	0x3c6947fe	0.014238356
27	0xbda9d24e	-0.082920656
28	0x3d61207f	0.05496263
29	0x3c92cba4	0.017919369
30	0xbd87119c	-0.065951556
31	0x3de158ef	0.11003291
32	0xbe23d3e5	-0.159988
33	0x3c8b16ca	0.01697864
34	0x3b526dff	0.003210902
35	0x3d0ed9d3	0.034875702
36	0xbe00b8a1	-0.1257043
37	0xbd42710a	-0.047471084
38	0x3c4a2b8d	0.012339485
39	0xbdda0a1e	-0.10646461
40	0x3a99e19a	0.0011740208
41	0x3d16c686	0.03681042
42	0xbe23ff4d	-0.16015358
43	0x3df875f2	0.12131871
44	0x3dac4597	0.08411711
45	0x3d420805	0.04737093
46	0x3e2f6253	0.17127351
47	0x3c3ebc06	0.011641508
48	0x3d119af0	0.03554815
49	0xbe12f43d	-0.14350982
50	0x3c72517e	0.014789937
51	0x3dae8dde	0.08523153
52	0x3c7f7cfc	0.015593763
53	0x3e055710	0.13021493
54	0x3dd8dd77	0.10589116
55	0x3d6e90de	0.058243625
56	0x3e1849de	0.14871928
57	0x3c8f0cb3	0.01746211
58	0x3d830af5	0.06398574
59	0xbd4a6941	-0.049416784
60	0xbd1bbe3f	-0.03802323
61	0xbe200429	-0.15626587
62	0xbe02f268	-0.12787783
63	0x3e0da56f	0.13832639
64	0xbe0cb8af	-0.13742326
65	0x3e0ffc7e	0.14061162
66	0x3cfc7d72	0.030821536
67	0xba613020	-0.000859024
68	0xbcbd5d5f	-0.023115812
69	0x3dfd18e0	0.1235826
70	0xbe20f1ea	-0.15717283
71	0xbdc393e3	-0.095496915
72	0x3d87c643	0.06629612
73	0xbe0e68fc	-0.13907236
74	0x3c913d9d	0.017729575
75	0xbdc1087d	-0.09425447
76	0xbdded7c4	-0.10880998
77	0xbda7ba80	-0.08189869
78	0x3d39a960	0.045327544
79	0xbd112dae	-0.035443954
80	0x3d596376	0.05307337
81	0x3c8d2343	0.017228728
82	0x3d85ad11	0.065271504
83	0x3ce42a8e	0.027852323
84	0x3e1b8e44	0.15190989
85	0xbde5a9c8	-0.11214024
86	0x3d7c9f6c	0.061675474
87	0x39be34ff	0.0003627911
88	0xbe03cc1c	-0.1287083
89	0x3e13de96	0.14440379
90	0xbd4f530c	-0.05061631
91	0x3ce6aee9	0.028159576
92	0x3a8a38d7	0.0010545504
93	0xbd9db0ce	-0.076997384
94	0x3c71fc2c	0.014769595
95	0x3d2c4efe	0.04206752
96	0xbd99c638	-0.0750851
97	0x3d9ae28b	0.07562741
98	0xbdef87cc	-0.11695823
99	0x3b19457b	0.002338736
100	0x3de32203	0.110904716
101	0xbb3d3326	-0.0028869598
102	0x3d8798ab	0.06620916
103	0x3e15e2fb	0.14637367
104	0xbe0796dc	-0.13241142
105	0xbe0afd52	-0.13573197
106	0x3d21414b	0.03936891
107	0x3d54bfff	0.051940914
108	0xbe1ffad6	-0.1562303
109	0x3e105ee1	0.14098693
110	0xbdf97fad	-0.12182555
111	0x3d591a42	0.053003557
112	0xbe1acc93	-0.15117101
113	0x3d9767b4	0.07392827
114	0x3de59127	0.11209326
115	0xbced4c6d	-0.028967107
116	0x3debd8c1	0.11515952
117	0x3df7037d	0.12061212
118	0x3d19d344	0.037554994
119	0x3e0ded38	0.13860023
120	0x3cd19b1d	0.02558666
121	0xbd31f677	-0.043447938
122	0x3d78d6da	0.060751773
123	0xbe09f799	-0.13473357
124	0x3d8844d2	0.066537514
125	0xbd5315ab	-0.051534336
126	0x3d21de05	0.039518375
127	0x3d29e744	0.041480318
128	0xbe1a7c3d	-0.15086456
129	0x3de01dc8	0.1094318
130	0xbd8ad26b	-0.06778415
131	0xbc8cabda	-0.017171789
132	0x3c35c927	0.011095322
133	0xbcc684ae	-0.024233188
134	0xbd5c03a4	-0.05371441
135	0xbaddd281	-0.0016923697
136	0x3d5e5f3d	0.054290045
137	0xbe3455a4	-0.17610794
138	0x3d96eba6	0.07369165
139	0xb20879bf	-7.943924e-09
140	0x3df9bc3d	0.12194107
141	0xbe00a79e	-0.12563941
142	0xbd967afa	-0.07347675
143	0xbca61ab4	-0.020276405
144	0x3d07e731	0.033179466
145	0x3e129c54	0.14317447
146	0xbb9ba89d	-0.004750325
147	0xbdafb4d2	-0.085794106
148	0x3d989424	0.074501306
149	0xbd9beda1	-0.076136835
150	0x3dbe140c	0.092811674
151	0xbe0ddab3	-0.13852958
152	0xbdb045aa	-0.08607037
153	0x3d92b9f1	0.07164372
154	0x3e162651	0.14663054
155	0x3c51a967	0.012796736
156	0x3d284d34	0.04108925
157	0x3be15054	0.006876031
158	0xbe1edcda	-0.15513936
159	0xbdc3ca8a	-0.09560116
160	0xbcc835b4	-0.02443967
161	0x3d042e47	0.032270696
162	0x3ddc9cf2	0.107721224
163	0xbe002a1c	-0.12516063
164	0x3e28ca32	0.16483381
165	0xbcf801b5	-0.030274251
166	0xbc8c0319	-0.01709132
167	0xbe18e0e3	-0.14929537
168	0x3cc7d910	0.024395496
169	0x3db75882	0.089524284
170	0xbdf5dbae	-0.12004791
171	0x3ccad2f0	0.024758786
172	0x3d04c7f1	0.03241724
173	0xbdfb799c	-0.122790545
174	0x3c3408d6	0.010988435
175	0xbe060021	-0.13085987
176	0xbbc17ddf	-0.0059048976
177	0xbdc8e347	-0.09808975
178	0x3d400180	0.04687643
179	0x3d1e7df6	0.038694344
180	0xbd7c3819	-0.061576936
181	0xbcf86d52	-0.030325565
182	0x3d689af1	0.05678839
183	0x3e0a5643	0.13509469
184	0x3cf381fe	0.029725071
185	0xbd86436c	-0.065558285
186	0xbe1a011c	-0.15039486
187	0xbdedef64	-0.11617926
188	0x3d2fdbe0	0.0429343
189	0x3e1a6a08	0.1507951
190	0x3d9252d8	0.071447074
191	0xbcbf2332	-0.023332212
192	0xbd8bd0c5	-0.06826929
193	0x3d97a4b8	0.074044645
194	0xbce03381	-0.027368309
195	0xbdb41e31	-0.08794821
196	0xbde1c6df	-0.1102426
197	0xbd17f7a8	-0.037101418
198	0xbd9d2a14	-0.076740414
199	0xbdfaae06	-0.122402236
200	0x3d93d331	0.07218016
201	0x3e35d241	0.17755987
202	0x3cc00223	0.023438519
203	0xbda1342f	-0.07871281
204	0x3dd1bdf8	0.10241312
205	0x3e2d84b8	0.1694516
206	0xbcdf5a4c	-0.027264737
207	0x3de45b33	0.11150207
208	0x3df3aefa	0.118986085
209	0xbe0d894d	-0.13821907
210	0xbc66ad2d	-0.014079374
211	0x3c709b38	0.0146854445
212	0xbd36bb22	-0.044612058
213	0xbe1653e6	-0.14680442
214	0x3c7cca23	0.0154290525
215	0x3d1c976f	0.038230356
216	0xbe003be0	-0.1252284
217	0xbe045e9c	-0.12926716
218	0xbde4ee23	-0.111782335
219	0xbe1cec34	-0.1532448
220	0xbd2fe715	-0.042944986
221	0xbd884ce1	-0.066552885
222	0x3d732841	0.05936456
223	0xbd95b77a	-0.07310386
224	0x3e337b5f	0.17527531
225	0xbe34d0f2	-0.17657831
226	0x3d7e1bce	0.062038235
227	0xbd7fab35	-0.062419135
228	0x3da219b6	0.0791506
229	0xbc9b5d84	-0.01896549
230	0xbd021a19	-0.03176317
231	0xbe0aaa30	-0.13541484
232	0xbe05feb9	-0.1308545
233	0x3d0e93a7	0.03480878
234	0xbdb97828	-0.09056121
235	0xbb84ce0e	-0.004052884
236	0xbdb91cae	-0.09038673
237	0x3caf100f	0.021369962
238	0x3e27ee54	0.16399509
239	0x3e25ed0b	0.16203706
240	0xb86e54b8	-5.6822522e-05
241	0x3e37e138	0.17957008
242	0x3e108764	0.14114147
243	0xbde66410	-0.11249554
244	0xbe0cb714	-0.13741714
245	0x3ca42f63	0.020042127
246	0x3e3257d1	0.17416312
247	0xbdd15291	-0.102208264
248	0x3d995c0d	0.074882604
249	0xbded613c	-0.115908116
250	0xbc858d8a	-0.016302843
251	0x3e14da5a	0.1453642
252	0xbc0b69fa	-0.0085091535
253	0x3da927c5	0.082595386
254	0x3caa1f06	0.020766746
255	0xbce6eb6c	-0.02818843

encoder_b.convs.1.bias f4 [64]
0	0x3bf11066	0.007356691
1	0xbbafada2	-0.005361275
2	0xbace886b	-0.0015757208
3	0x3ab2aabd	0.0013631206
4	0xbaf76252	-0.0018873906
5	0xbbfbac6e	-0.0076804673
6	0x3b690ad3	0.003555943
7	0x3abe42e9	0.001451579
8	0x3c1a9754	0.0094354935
9	0x3bd378de	0.0064536175
10	0x3983b494	0.00025120808
11	0xba81bf5e	-0.0009898951
12	0xbb88a366	-0.0041698692
13	0xbaf80ef6	-0.0018925357
14	0xbb760886	-0.0037541701
15	0xbac0149c	-0.001465458
16	0x3c1561d1	0.0091175595
17	0xbb9c8a5d	-0.0047772364
18	0xba93ffab	-0.0011291405
19	0xbb24b495	-0.002513205
20	0xbb864c83	-0.0040984764
21	0xbbb4120e	-0.0054953163
22	0x3b5882ba	0.0033036903
23	0xb9917bde	-0.00027748843
24	0xbb392d32	-0.0028255698
25	0x3bcccd0a	0.0062500285
26	0xbae7cdca	-0.0017685231
27	0x3a8e9ca7	0.0010880426
28	0x3c16deb6	0.009208372
29	0xbbc65132	-0.0060521597
30	0x3b1be695	0.002378856
31	0x3b5f815c	0.0034104204
32	0xbaf3c519	-0.0018598168
33	0x3c113c36	0.008864453
34	0x3ac7ed15	0.0015253151
35	0xbb4a87b7	-0.0030903646
36	0xb9662bfd	-0.00021950896
37	0x3abc472e	0.0014364475
38	0xba1fcb58	-0.0006095669
39	0xbb90b6be	-0.004416316
40	0xb9ad158c	-0.00033013185
41	0x3b591a33	0.0033127188
42	0xbba5d324	-0.0050605703
43	0xbbe2cbb0	-0.006921254
44	0x3bab53cb	0.0052284948
45	0xbabdce68	-0.001448107
46	0x3c0dab37	0.008646778
47	0xbbec95b6	-0.0072199954
48	0xbadfcddc	-0.0017074901
49	0x3af780c0	0.0018882975
50	0x3a9caf56	0.001195411
51	0xbb840638	-0.0040290616
52	0x3b56d1fe	0.0032778974
53	0xbb2927a9	-0.0025810993
54	0x3bb5ad32	0.005544328
55	0xbb3e205a	-0.0029010982
56	0x3bfc5e2d	0.0077016563
57	0x3bc77880	0.0060873628
58	0xbb9a0cc0	-0.004701227
59	0x3b0c9c18	0.0021455344
60	0xba56b59b	-0.00081905135
61	0x3a7cb27c	0.00096396334
62	0x3b5083db	0.0031816873
63	0x3b53ed3e	0.0032337452

encoder_b.convs.2.weight f4 [64, 64]
0	0x3e17fd38	0.14842689
1	0x3dd23927	0.10264807
2	0xbdf369a5	-0.118853845
3	0x3dd0592c	0.10173258
4	0x3d64c988	0.055856258
5	0x3d55eadd	0.052225936
6	0xbe04220f	-0.12903617
7	0x3dcf693c	0.10127494
8	0xbde223a9	-0.11041958
9	0xbb007cb8	-0.0019605588
10	0x3e112a34	0.14176255
11	0xbdc7ea06	-0.09761433
12	0x3dc8c40f	0.0980302
13	0xbc86addd	-0.016440326
14	0x3dd8ddc5	0.10589174
15	0xbd3ebbc5	-0.04656579
16	0x3d7fd732	0.062461086
17	0xbe117548	-0.14204895
18	0xbc6cb012	-0.014446275
19	0x3cccc99c	0.024998479
20	0x3cb8aa4b	0.02254214
21	0x3d9e7f29	0.077390976
22	0x3dfe153f	0.12406396
23	0xbda148b5	-0.07875196
24	0xbd53ecb0	-0.051739395
25	0x3d21cf23	0.03950418
26	0x3e10f696	0.14156565
27	0xbd4eaa16	-0.050455175
28	0xbd8eaedc	-0.069669455
29	0xbdb98794	-0.090590626
30	0x3d11b3c6	0.035571836
31	0x3dab4d38	0.08364338
32	0xbd8ab050	-0.0677191
33	0x3cc950ac	0.0245746
34	0x3de0c411	0.10974897
35	0xbe136426	-0.14393672
36	0xbc8bf6bb	-0.017085424
37	0xbd9afa73	-0.07567301
38	0x3e1556f4	0.14583951
39	0x3e0c5d0d	0.13707371
40	0x3ccffea1	0.025389971
41	0xbd0da63b	-0.034582358
42	0xbd5b7568	-0.053578764
43	0xbe06b18e	-0.13153669
44	0x3def53df	0.11685919
45	0x3dfa3b9f	0.12218403
46	0x3e0872b6	0.13325009
47	0xbdfacf05	-0.12246517
48	0x3df73bf9	0.12071986
49	0x3bf9a044	0.007617982
50	0x3cd15168	0.025551513
51	0xbd99729b	-0.074925624
52	0x3d019d59	0.0316442
53	0xbd56b475	-0.05241819
54	0xbe1b6165	-0.15173872
55	0x3db3b759	0.08775205
56	0xbdfd2952	-0.12361397
57	0x3da9bab7	0.08287566
58	0x38ab8fb6	8.180684e-05
59	0xbda3b770	-0.07993972
60	0x3cb477e7	0.02202983
61	0xbd8cea4f	-0.06880628
62	0x3c6aad36	0.014323523
63	0xbdecd238	-0.115635335
64	0xbde5bcad	-0.11217628
65	0x3d1c58e1	0.0381707
66	0x3d683c78	0.056698292
67	0xbb5f9664	-0.003411674
68	0x3dc07314	0.093969494
69	0xbdff17a2	-0.124556795
70	0xbd32ae3b	-0.04362319
71	0xbe10b02a	-0.14129701
72	0xbdaa033b	-0.083013974
73	0x3dd82469	0.1055382
74	0x3bdf9677	0.0068233567
75	0x3d1b32e5	0.037890334
76	0xbdd85146	-0.10562377
77	0xbc9523e5	-0.018205592
78	0x3b188b24	0.0023276294
79	0xbdcf87a7	-0.101332955
80	0x3d8f1a05	0.06987385
81	0x3cc057d8	0.023479387
82	0x3bee4a00	0.007272005
83	0x3cc7d341	0.024392726
84	0xbd100109	-0.035157237
85	0x3df824e9	0.12116415
86	0xbdf789c4	-0.120868236
87	0x3c81607a	0.015793074
88	0xbd130aea	-0.03589908
89	0xbe179cc3	-0.14805894
90	0x3dcd4c8d	0.100243665
91	0xbbe4378c	-0.0069646295
92	0xbd93a34f	-0.07208883
93	0x3dab991d	0.083788134
94	0xbdf53189	-0.11972339
95	0x3e03845e	0.12843463
96	0xbdc4ccf8	-0.09609407
97	0x3de8c8aa	0.11366399
98	0xbbf79396	-0.0075554354
99	0x3d56b233	0.052416038
100	0xbc865db8	-0.01640211
101	0x3b959333	0.0045646667
102	0xbd04e628	-0.032446057
103	0xbd64bcdf	-0.055844184
104	0x3d92a157	0.071596794
105	0xbdfd5fc6	-0.12371783
106	0xbd97aa63	-0.074055456
107	0xbdfdbf81	-0.12390042
108	0xbe198118	-0.14990652
109	0x3c313663	0.010816189
110	0x3e171eae	0.14757797
111	0xbda857c1	-0.08219863
112	0xbda8fa26	-0.08250837
113	0x3e0c400c	0.13696307
114	0xbcf57e8c	-0.029967569
115	0x3cc29535	0.023752788
116	0x3c99365c	0.018702678
117	0x3de74c05	0.112937964
118	0x3defe7f1	0.11714161
119	0x3e200319	0.15626182
120	0x3c0466cd	0.00808115
121	0xbd1981a6	-0.037477158
122	0xbd2fef05	-0.042952556
123	0xbdada63e	-0.08478974
124	0x3ba16e6e	0.0049264943
125	0x3ab03b55	0.0013445417
126	0xbd962b6f	-0.07332503
127	0xba2c680e	-0.00065767847
128	0x3af0d12b	0.0018372884
129	0x3d98f95d	0.07469437
130	0x3d998d74	0.07497683
131	0xbdd86c8c	-0.10567579
132	0x3e17600e	0.14782736
133	0xbc8b9d52	-0.01704279
134	0x3d95e119	0.073183246
135	0x3d06f0a7	0.032944348
136	0xbb304bc6	-0.0026900633
137	0x3e140bd5	0.14457639
138	0xbd362805	-0.04447176
139	0x3e1e5236	0.15461048
140	0x3bdd4528	0.006752629
141	0xbe18c6ba	-0.14919558
142	0xbd8816f2	-0.066450015
143	0x3df34ef4	0.118802935
144	0xbc13cd81	-0.009021164
145	0xbb1b612f	-0.002370905
146	0xbe16692f	-0.14688562
147	0x3e0af99f	0.13571785
148	0x3e110e84	0.14165694
149	0xbd305d18	-0.04305753
150	0xbe1fef8b	-0.15618722
151	0x3da87855	0.082260765
152	0xbabb5a25	-0.0014293833
153	0xbbcd281c	-0.006260885
154	0x3e02a64a	0.12758747
155	0xbc6a36b3	-0.014295268
156	0x3d2b169a	0.0417696
157	0x3d0c54b3	0.034260463
158	0x3de83c25	0.11339597
159	0xbccc5e35	-0.024947265
160	0x3e1024f0	0.1407659
161	0x3e00a92d	0.12564535
162	0x3d4e4f8f	0.05036884
163	0x3d49947c	0.04921387
164	0x3cb1b388	0.021692052
165	0xbc70a0ac	-0.014686745
166	0xbe1a5e65	-0.15075071
167	0xbda2fe06	-0.079586074
168	0x3d6f221d	0.058382142
169	0xbb024ab0	-0.0019880943
170	0xba05a498	-0.0005098074
171	0x3b39fd64	0.0028379792
172	0x3be4d797	0.006983708
173	0xbb314c26	-0.0027053445
174	0x3e11bc1f	0.14231919
175	0xbe1e96ae	-0.15487167
176	0xbd07ad67	-0.033124354
177	0x3debbf71	0.11511124
178	0x3e11e693	0.14248113
179	0x3df1d7dd	0.11808751
180	0xbdf18df7	-0.11794656
181	0x3d76b14c	0.060227677
182	0x3d5ef331	0.054431144
183	0xbc79047b	-0.015198822
184	0x3ce30092	0.027710233
185	0xbdda4668	-0.1065796
186	0xbdb3215e	-0.08746599
187	0xbdc853b9	-0.09781594
188	0xbe03813e	-0.1284227
189	0x3da9ce18	0.082912624
190	0xbd13a378	-0.036044568
191	0x3e208e02	0.15679172
192	0xbdd53842	-0.10411121
193	0xbcac1126	-0.02100427
194	0xbbe6c1bd	-0.0070421384
195	0xbd78fd24	-0.06078829
196	0xbdc6248b	-0.09674939
197	0xbb9f2a4d	-0.0048573376
198	0x3d9f3d76	0.077753946
199	0x3e091ffa	0.13391104
200	0xbc42c76e	-0.011888368
201	0x3e15d8f3	0.14633541
202	0x3d372aae	0.044718437
203	0xbc618d85	-0.013766651
204	0xbb64c3e4	-0.00349068
205	0x3db88e2a	0.09011491
206	0x3de1a2be	0.11017369
207	0x3e002d92	0.12517384
208	0x3cb9425d	0.022614652
209	0xbced7ca4	-0.028990097
210	0xbd710289	-0.05884031
211	0x3d6a02b3	0.05713148
212	0xbd055316	-0.03254994
213	0x3d5f15cf	0.054464158
214	0xbd096fea	-0.033553995
215	0xbce66aec	-0.028127156
216	0xbde85cbf	-0.11345815
217	0x3d05344e	0.032520585
218	0x3ccf0261	0.025269689
219	0x3cf0f071	0.029411526
220	0x3ba9f786	0.005186978
221	0xbda255b8	-0.07926506
222	0xbdc2a0a2	-0.095032945
223	0x3d84112e	0.06448589
224	0x3b0ebd4b	0.0021780308
225	0x3d44c68c	0.04804091
226	0xbde42f71	-0.11141861
227	0xbbeebe48	-0.007285867
228	0x3d17a317	0.03702077
229	0x3e007135	0.12543185
230	0xbca94974	-0.020664908
231	0x3c77346c	0.015088182
232	0x3dc65d77	0.09685796
233	0x3db4af74	0.088225275
234	0x3e1ecc01	0.15507509
235	0x3d355d12	0.044278212
236	0x3d741efd	0.059599865
237	0x3ddb73d2	0.1071545
238	0xbcf18d7b	-0.029486408
239	0xbc8d7a12	-0.017270122
240	0xbddbf4fd	-0.10740087
241	0xbde851b9	-0.11343712
242	0x3e1220d7	0.1427034
243	0x3e1eab2a	0.15494981
244	0x3bb5d347	0.005548868
245	0xbdb22414	-0.086982876
246	0x3e22324f	0.15839504
247	0xbd2281da	-0.039674617
248	0x3c463271	0.012096987
249	0xbdd2b7cc	-0.10288963
250	0xbbaaaaf1	-0.005208366
251	0xbddd0fd4	-0.107940346
252	0x3ba794ef	0.00511419
253	0xbd9673bb	-0.073462926
254	0xbc6d0512	-0.014466541
255	0xbbb110c2	-0.005403609
