results/ADHD_3x5fold_seed0/fold2_rep0_seed2/ckpt_best_fold_2.pt (torch, 396064 bytes, 42 tensors)

encoder_c.convs.0.weight f4 [116, 64]
000000 c5 ed a1 3c b8 ec d5 bc d6 eb 1f 3d 5e 07 31 3b
       0.019766698 -0.026113853 0.03904327 0.0027012448
000010 53 5d 8a 3d 80 89 bf 3c 47 a8 92 3b 79 fb fb bd
       0.067560814 0.023380995 0.0044756266 -0.12303824
000020 74 ce 8a 3c 8f ed f2 bd e5 d3 53 3c 19 3f 6c 3c
       0.016944148 -0.11861717 0.012928938 0.0144193405
000030 74 3b 2e bd 8a d0 1f 3e c0 5e d3 3b 00 e3 70 3d
       -0.042537168 0.15606895 0.006450504 0.058810234
000040 d8 01 bb 3d 9f 51 2a bd 0d 7b 68 bd 06 7b 12 3e
       0.09131211 -0.041581746 -0.056757975 0.14304742
000050 bd d5 16 be 72 67 39 bb 01 ec 40 3c d9 d7 e2 3d
       -0.14729972 -0.0028290418 0.011775018 0.11076326
000060 db 45 9e bc 2f 7b 89 3d 15 2a 84 b8 46 64 ae bd
       -0.019320419 0.067129485 -6.302089e-05 -0.085152194
000070 23 89 b6 bd ad c5 89 bd f6 b0 0a be 40 ea d6 bd
       -0.089128755 -0.06727157 -0.13544068 -0.104938984
000080 e6 72 1d 3d 60 d9 07 3e eb d3 8e 3c 22 86 16 bd
       0.038439654 0.13266516 0.017435035 -0.036749013
000090 a1 43 c4 3d 01 76 50 bd 69 08 3f bd 96 91 c5 bd
       0.09583212 -0.050893787 -0.04663888 -0.09646909
0000a0 1f b4 cb bc 1f cf 09 be c2 bc 51 3d 14 13 56 3d
       -0.024866162 -0.13457917 0.051205404 0.052264288
0000b0 0f 47 b8 3c 53 15 4f 3d 33 87 a0 3d 93 22 e1 3b
       0.02249482 0.050557446 0.07838287 0.0068705766
0000c0 34 0d f2 3c 4a c0 a2 3c fe dc 7d 3d 1d aa f8 3d
       0.029547311 0.019867081 0.061978333 0.121418215
0000d0 f2 87 ab 3d 7e dc cd 3d 41 5c 25 bd 2e 43 91 bc
       0.08375539 0.10051821 -0.040371183 -0.01773223
0000e0 ed 36 18 3c 4d 8f a4 3d a3 51 f6 3b 10 40 12 3e
       0.009290439 0.08035145 0.007517056 0.1428225
0000f0 95 ab a8 3d 7c 82 c0 bd 38 b4 4e 3d df ac 15 3e
       0.08235852 -0.09399888 0.05046484 0.14616726
000100 ce bd d4 3d 88 b7 87 3b 20 33 9c 3d 27 47 01 be
       0.10387765 0.0041417517 0.07626939 -0.12624799
000110 dd 80 0c bc 80 72 2b 3d 33 f6 a0 bd 9b 40 03 3e
       -0.008575645 0.041857243 -0.07859459 0.12817614
000120 78 76 85 bd 09 e9 85 3d be 15 58 3c b0 42 37 3c
       -0.06516737 0.065385886 0.0131887775 0.011185333
000130 b5 ce cf bb ef ec 08 be b8 0c 75 bb db 23 7b bd
       -0.00634178 -0.13371633 -0.0037391614 -0.06131349
000140 98 51 33 3e 56 6b 91 bb 47 d9 07 be 66 f6 4b 3d
       0.17511594 -0.0044378443 -0.13266478 0.04979553
000150 a5 04 94 3c b1 02 9f bd 72 d1 b3 3c 48 5d d5 3d
       0.018068621 -0.07764185 0.021950457 0.104181826
000160 fe 04 b3 bd 14 a1 80 bd 4b b5 12 bc 3b 0e 04 be
       -0.087411866 -0.06280723 -0.008954356 -0.12896053
000170 98 5e 89 3d b7 57 27 3d ca d9 89 3d e4 7c 7d 3d
       0.067074955 0.040855136 0.06730993 0.061886683
000180 38 e7 d7 bd 68 b5 fa bd 94 e7 fd bd b4 a7 dc bc
       -0.10542148 -0.12241632 -0.12397686 -0.026935436
000190 16 61 e4 bc 93 5c 2b 3c 21 c2 31 be a6 f1 fd 3c
       -0.027878325 0.010459083 -0.1735921 0.030999016
0001a0 ec 5d 95 3d 76 f2 82 3d 53 41 6a 3d bd bd f3 3d
       0.07293305 0.06393902 0.057191204 0.11901424
0001b0 8f 6b 3a be 82 cb 39 3c 9e 8f 23 3e 9c da 0c be
       -0.18205093 0.011340024 0.15972754 -0.13755268
0001c0 de a1 be bd 7a 77 63 bc 8f 60 1b bd 84 8c 7c b9
       -0.093082175 -0.013883466 -0.037933882 -0.00024084939
0001d0 18 4b 50 3c 2c de fe 3d 2b c6 da 3b fe c2 af 3d
       0.012713216 0.1244472 0.0066764555 0.08582114
0001e0 73 69 e4 3d 2f a7 87 3d 69 e8 d8 bd 08 3d 09 3e
       0.11152925 0.066236846 -0.10591204 0.13402188
0001f0 41 87 ab 3d 8d 1d ba bd f4 77 bd bc 42 dc cc 3d
       0.08375407 -0.090876676 -0.023128487 0.10002948
000200 10 3b 29 be 8a cd f0 bd 52 f5 00 be 3a b0 12 3d
       -0.16526437 -0.117579535 -0.12593582 0.035812594
000210 a5 dc 0e bd 22 95 33 be e2 54 32 3d b4 d7 9e 3d
       -0.03487839 -0.17537358 0.04353798 0.07755986
000220 af 20 30 3d 79 b2 f1 bd 72 46 48 3e ca fc 44 bd
       0.04299992 -0.11801619 0.19558123 -0.04809264
000230 47 50 0f be 45 21 8c 3b 02 3b a5 3d 93 7b 3b 3d
       -0.13995467 0.004276427 0.080678955 0.045772146
000240 cb 24 27 bc 90 27 b0 3d 09 0a 35 be 87 2c b8 3d
       -0.010201643 0.08601296 -0.1767961 0.08992868
000250 c4 b4 dd 3d 91 2d c5 bd e8 9f 87 3d 66 7e 0a bd
       0.10825494 -0.09627832 0.066222966 -0.03381195
000260 bf e4 8b bd 64 cf 50 3c 2d 49 bd bc 96 55 11 be
       -0.06830739 0.012744758 -0.023106182 -0.14192805
000270 31 ef c8 bd 15 7e 27 3c cf f6 f5 3d 6b 7a 45 3d
       -0.09811247 0.010222931 0.12009966 0.04821245
000280 57 9c d8 bd 42 7e b8 3d b8 c8 8e bc 09 0a f0 bd
       -0.105766945 0.09008457 -0.017429695 -0.11720664
000290 9b eb d6 3c 5e 55 03 3e 1d a9 dc bd e3 48 20 bd
       0.026235392 0.12825534 -0.10774443 -0.03913201
0002a0 72 b4 09 bd 1a e6 de bd cf 1c ed bd 9b b3 9b bb
       -0.03361935 -0.10883732 -0.115777604 -0.0047516352
0002b0 eb 9b 81 3d 44 dd b6 bc 99 76 10 be c3 24 f6 bc
       0.06328567 -0.022322305 -0.14107741 -0.030046826
0002c0 6a c8 0f be f1 d4 16 3d a2 23 6a 3d 38 ac bc 3d
       -0.14041296 0.03682417 0.05716289 0.092125356
0002d0 eb 94 66 bd 1b 69 8e bd 12 57 ae 3d 52 1e 95 3c
       -0.056294363 -0.06953641 0.08512701 0.018202934
0002e0 f9 0f 05 be a8 95 b3 bd 9b c8 cf bb ec ff c2 3d
       -0.12994374 -0.08768779 -0.0063410527 0.095214695
0002f0 ad ea 08 3e b5 d0 95 3d 97 7a d8 3d d7 02 d4 bd
       0.13370772 0.07315198 0.10570257 -0.10352104
000300 31 f4 a6 3d 07 c9 ab 3d 54 48 31 bd 7e 66 73 bd
       0.081520446 0.08387952 -0.043281868 -0.059423916
000310 69 ea 30 3d d7 e0 d2 bd 47 c0 1c 3d 44 12 a2 3d
       0.0431923 -0.10296791 0.038269307 0.0791364
000320 6a be 8a bd 8e aa d7 bd 07 99 7c bd 8c 86 22 be
       -0.067746 -0.105305776 -0.061669376 -0.15871638
000330 cd cf 45 3c 46 e9 fd 3d 0d 7b c9 3c 59 08 aa bd
       0.012073469 0.12398009 0.024594808 -0.083023734
000340 5e 8d 3e bd 5b df 85 bd aa 61 34 be f3 0d bd bd
       -0.046521537 -0.06536742 -0.17615381 -0.09231176
000350 b6 67 b2 bc 7f 64 7c bd f6 8c 19 be de 6a 1a 3b
       -0.021777969 -0.061619278 -0.14995179 0.0023562233
000360 64 0d 44 3c 91 1d 8a bd 29 c4 3e 3d 87 8a 18 3e
       0.011966083 -0.067439206 0.04657379 0.14896594
000370 3c d1 8d 3c e7 f0 ee bd 33 cf 01 3e 0c 2b 00 3e
       0.017311685 -0.11667042 0.12676696 0.12516421
000380 ab 7e a6 bc 38 04 c4 bd 35 8e a3 bd 0e 82 f0 3d
       -0.020324072 -0.09571117 -0.07986108 0.11743556
000390 7f 6c b9 3d 08 01 99 bd 83 c6 c3 3b 32 8d 86 3c
       0.09053897 -0.074709 0.005974592 0.016424749
0003a0 ce 8d 33 3d 64 8a 34 bc 79 a3 d3 bd de 26 d9 bc
       0.043836407 -0.011019323 -0.10333914 -0.026507791
0003b0 f5 41 7f bd cd b0 95 bd fd 69 df bd 56 82 c4 bd
       -0.06231876 -0.07309113 -0.109088875 -0.09595172
0003c0 f1 3d af bd 1a 50 6d 3c f4 3b fb bd a1 bd 2f be
       -0.08556736 0.01448443 -0.122672945 -0.17162181
0003d0 b6 8d d9 3d af 11 bd 3c 24 29 91 3d a9 96 13 3d
       0.10622732 0.023079721 0.07087925 0.036032353
0003e0 5c 8b 73 bd e1 29 ed bd 12 ae 9b bd 6c 9e 8c 3c
       -0.059459075 -0.115802534 -0.07601561 0.017165385
0003f0 7d 7b 4e 3d d5 37 b2 bd 40 af d5 bd 64 49 ea 3d
       0.050410736 -0.08702055 -0.10433817 0.114397794

encoder_c.convs.0.bias f4 [64]
000000 59 69 93 bc 6d 24 91 3b 08 44 84 3c c0 62 00 3d
       -0.01799457 0.004429391 0.016145721 0.031344175
000010 1b 8b 84 bb 01 84 65 bc 46 c4 d6 3c 6b aa 84 3c
       -0.004044903 -0.014008523 0.026216637 0.016194543
000020 e3 5e a9 3b 1d 15 a8 3c 99 d1 6c 3c 80 84 86 3b
       0.005168782 0.02051788 0.014454269 0.0041051507
000030 2c d2 03 39 7a b1 ee 3b 70 e9 8b 3c c5 2c c8 3c
       0.00012571429 0.0072843404 0.017079085 0.02443541
000040 6d 87 93 3c b8 53 a3 3c b1 16 80 3c 36 55 b0 3c
       0.018008912 0.019937381 0.01563582 0.021525007
000050 a0 58 cf ba f5 57 f6 ba cc f8 b7 3c 14 13 af 3c
       -0.0015819259 -0.0018794524 0.022457503 0.021371402
000060 03 0c 64 bc c9 a9 aa 3c 5e 73 62 3c 65 68 2d bb
       -0.013918879 0.020832913 0.013821451 -0.002645993
000070 c9 db ad 3b f7 04 f2 3b 41 f4 bc bc ab 00 92 3a
       0.0053057414 0.0073858458 -0.023065688 0.0011139115
000080 ce 6b 0b bc 73 56 d8 ba 2f bf 93 bb 46 26 22 bd
       -0.008509589 -0.0016505256 -0.004508875 -0.03958728
000090 16 af 71 3a 1b 7b 89 3c 27 39 e2 bb f6 b8 fc bb
       0.000921951 0.016782334 -0.0069037857 -0.0077124787
0000a0 2c c4 24 3a 4d e7 7f 3c 6a 5c ed 3c a2 37 1b 3c
       0.00062853354 0.015619111 0.02897473 0.009473713
0000b0 33 40 99 bb ef ef 82 3c 3a 2d b9 3c b4 d0 6a bb
       -0.0046768426 0.01598355 0.022604574 -0.0035829963
0000c0 16 17 b6 b8 a2 c6 aa 3c 0e a3 b6 3c 2c 4a 9f 3c
       -8.6827364e-05 0.020846669 0.022294547 0.019444548
0000d0 fd d4 a3 3b 00 0d 1d 3d e0 54 ef 3c 96 76 95 3a
       0.0049997554 0.038342476 0.029215276 0.0011403139
0000e0 52 92 27 3c 46 98 1e 3c ef 24 97 3a 7e bd 04 3b
       0.010227757 0.0096798595 0.0011531393 0.0020254548
0000f0 d7 8c fd 39 73 1f 65 bc 9b d6 76 3c fa f1 3b bc
       0.00048360854 -0.013984549 0.015065814 -0.011471266

encoder_c.convs.1.weight f4 [64, 64]
000000 5b 85 46 be ff f6 1c 3e 08 27 89 3b 5b 26 a7 3c
       -0.19386809 0.15328597 0.004185561 0.020404032
000010 43 37 0a be ae e8 1e 3e 37 9c a0 3c 2f e2 1c bd
       -0.13497643 0.15518448 0.019605739 -0.038301643
000020 cf 35 4f bd 50 23 2d 3c 8e 3a 58 3e 95 1b b1 3d
       -0.050588425 0.010567501 0.21116087 0.08647839
000030 51 2e bc 3d 21 d1 b9 bd 21 c9 0d bd 07 41 43 3c
       0.09188522 -0.09073091 -0.03461564 0.011917359
000040 3b a1 c5 3d 21 4a 01 be e3 bf 43 3d e5 21 21 bd
       0.09649893 -0.12625934 0.04779042 -0.039338965
000050 83 f1 ad bd 50 60 a2 bd d5 60 5d 3c 59 47 2a be
       -0.0849333 -0.079285264 0.013511856 -0.1662878
000060 86 22 0e be de e6 3b 3e b9 6b 4c 3d 7a 82 1c be
       -0.13880357 0.18349788 0.04990742 -0.15284148
000070 02 98 c0 bd 48 fd 96 bd f1 19 18 3d d0 52 97 3c
       -0.09403993 -0.07372528 0.037134115 0.018472105
000080 c4 2a ab bd 53 f2 06 be b2 54 da 3a e6 f5 33 be
       -0.08357766 -0.13178377 0.0016657321 -0.17574272
000090 da 0b 83 bd 15 71 48 ba 4f 6f fc 3c 76 23 14 3e
       -0.06398745 -0.0007646245 0.030814795 0.14466652
0000a0 ef 24 cc 3d a1 56 a2 3c 5b f4 77 bc 1b c3 25 3e
       0.09967982 0.019816699 -0.0151339425 0.16187708
0000b0 6b 61 93 3d 2d 36 28 bc 22 9c f3 3d 8a 86 8f bd
       0.071963154 -0.010266823 0.11895014 -0.07008083
0000c0 c9 51 32 be eb ec e9 3d 6b 57 ea bc e7 ce 35 bd
       -0.17414011 0.11422142 -0.028606137 -0.04438677
0000d0 7e 5f 61 3d 63 9a 1b 3d 85 4d 97 bb 96 95 36 3c
       0.05502271 0.03798903 -0.0046173953 0.0111440625
0000e0 82 ee d7 bc 3d 5c 0f bd 6b 45 ab 3d 19 e4 77 bd
       -0.026358847 -0.035000075 0.0836285 -0.060520265
0000f0 90 78 2c be b4 92 5c bd 8a c0 45 bd 16 c4 8b ba
       -0.16842866 -0.053850845 -0.048279323 -0.0010663297
000100 71 3f b6 3d 7f 69 40 3e 0f f7 b2 bd 04 95 3a bd
       0.08898819 0.18790244 -0.08738529 -0.04555227
000110 eb 90 4a be 67 85 9b 3b c0 f7 94 3d 50 52 6c 3d
       -0.19781844 0.0047461274 0.07273817 0.057695687
000120 bc 05 fd bd f3 69 a7 3c 41 82 2b 3e b3 f8 bb bd
       -0.12354609 0.020436263 0.16748907 -0.09178295
000130 60 dd a5 3c c2 e5 9f bc 15 7d 8b bd a0 41 6f bc
       0.020247161 -0.019518737 -0.06810967 -0.014603049
000140 ce 48 0e be 0e be 1c be b7 67 44 bd c3 c3 13 3b
       -0.1389496 -0.15306875 -0.047950473 0.0022547103
000150 83 b8 1e 3e 2f fb 57 3d 43 8a 2c 3d 33 23 06 be
       0.15500073 0.05272978 0.042124044 -0.13099365
000160 b6 d5 0d 3e 16 e1 64 b9 b7 8a 0e 3c aa 36 3f bc
       0.13851056 -0.00021827625 0.008700064 -0.011670748
000170 4a 97 3a be 7d 18 b9 bd 0d cf e4 3d b9 67 d0 bd
       -0.18221775 -0.09037874 0.11172304 -0.101760335
000180 eb e3 d6 3c 62 38 80 bd b6 9e 8f 3c ad 4d d1 bd
       0.026231727 -0.06260754 0.017531734 -0.102198936
000190 25 a7 69 bb 55 4d 1c bc eb 4e 13 be 73 ed 8e bd
       -0.0035652604 -0.009539922 -0.14385574 -0.069788836
0001a0 cf 08 25 bd ad f5 13 bc 0e 91 c1 3d a0 d8 fc 3d
       -0.040291604 -0.009030742 0.09451495 0.123460054
0001b0 53 e2 f6 bd 60 8e 8d bc 46 9f d9 3d bf 37 a2 3d
       -0.12054887 -0.017279804 0.10626082 0.07920789
0001c0 22 ae e1 3d e9 f8 55 3e d1 94 5b 3d 94 02 a6 3d
       0.11019541 0.20895733 0.05360872 0.081059605
0001d0 b3 f8 34 3e 8d fe 91 3d a1 f3 8a bd 05 8c 39 3d
       0.17672996 0.0712863 -0.0678475 0.04529955
0001e0 d3 1a 42 ba 6e ca 9e 3d 45 a6 db 3d ce ca 57 3c
       -0.000740451 0.07753454 0.10725073 0.013170911
0001f0 e7 fb 2c 3e c7 8c 33 be e2 d8 98 bd 1b 08 27 bd
       0.16892968 -0.17534171 -0.07463242 -0.040779214
000200 24 a7 91 3d 63 4f e6 3d f2 d6 67 bd 97 59 8b bd
       0.07111958 0.112456106 -0.056601472 -0.06804197
000210 99 c7 13 3e 0d da 28 3e ef aa df 3b 38 ca 4f 3d
       0.14431609 0.1648943 0.006825797 0.05072996
000220 d7 8c 60 3c 26 5a 88 bc 52 2a e4 3d 7e 63 bc 3c
       0.013705454 -0.016644549 0.111408845 0.02299666
000230 91 d5 85 3d 85 cb a3 3b ea 3d c6 3c 06 62 1f be
       0.06534875 0.0049986267 0.024199445 -0.15564737
000240 a0 94 32 3e 1e d4 a6 3d 99 e2 91 3b f9 6d 8e 3d
       0.17439508 0.08145927 0.0044520614 0.06954569
000250 9a b3 91 bd 2e 47 2b be be c7 73 bb 9b b2 d2 bd
       -0.071143344 -0.16726372 -0.0037197913 -0.102879725
000260 1f c8 10 3d 09 8a 0f be 7b b8 e0 3d 5d 37 66 3d
       0.0353471 -0.140175 0.10972687 0.056205142
000270 b5 2c 63 bd 74 ee 34 3e b9 b2 82 bd aa 21 b9 3c
       -0.055462558 0.17669088 -0.06381745 0.02259906
000280 41 b4 45 3c b8 8b a7 3d 92 27 2c 3d 2a 40 62 3e
       0.012066902 0.08180946 0.042029925 0.22094789
000290 0d 25 3c ba 04 c9 31 bb 3c 3a 33 bd 5f 1c 0d 3d
       -0.0007177152 -0.0027127871 -0.04375671 0.034450885
0002a0 47 61 7a 3d 3f 19 56 3b a1 b6 a8 3d 72 c9 fc bd
       0.061127927 0.0032668856 0.08237959 -0.1234311
0002b0 30 bd 37 bd 6d 81 95 bd 2c 3b c9 bd 83 da ef bd
       -0.044858158 -0.07300077 -0.09825739 -0.117116
0002c0 dd 77 a8 3d b0 ba f5 bd 24 33 23 bc c5 e2 a0 bd
       0.08225987 -0.119984984 -0.009960923 -0.07855753
0002d0 35 54 61 3d aa 46 f4 3d 85 c0 86 bd f2 1f a6 bd
       0.055011947 0.119275406 -0.06579689 -0.08111562
0002e0 f1 30 93 3b ac 58 0f 3d d3 c4 db bd 09 97 3e 3e
       0.0044919183 0.034996673 -0.107309006 0.18612303
0002f0 f5 a7 13 be 5e b9 33 3e 0d ad 05 3e 5b b0 71 3d
       -0.1441954 0.1755118 0.13054295 0.059006076
000300 be 8d 37 3d e7 15 2a 3e 56 bc db bc f0 68 7e 3b
       0.04481291 0.16609918 -0.026823204 0.0038819872
000310 ca f0 41 be d2 e9 db 3d ca 58 cb bd 7d 75 ec bd
       -0.1893951 0.10737957 -0.099290445 -0.115458466
000320 29 a4 38 be 05 4f 84 bc f8 f4 03 be 81 8d 0f 3e
       -0.18031372 -0.01615096 -0.12886417 0.14018823
000330 94 46 ca 3b c2 61 95 bd fb 80 88 3d 84 c5 b2 3d
       0.0061729643 -0.072940364 0.06665226 0.08729079
000340 d9 62 3d 3e b8 ee 0d be 2d e6 a5 bd e9 32 8d bd
       0.18494739 -0.13860595 -0.08100543 -0.06894476
000350 63 fa 4c bd 0a ef db 3d 36 0f 12 3c 58 06 0d 3e
       -0.050043475 0.107389525 0.008914759 0.13771951
000360 60 5b 5a bd 5d 60 07 3d 65 66 07 bb e0 6d 86 3d
       -0.0533098 0.033050884 -0.0020660397 0.06563926
000370 e4 e0 16 3e f4 71 19 be 79 c5 9b bd f3 bb cb 3d
       0.14734226 -0.14984876 -0.07606024 0.09947958
000380 d6 8b 13 be bc 85 bd bd ab fa 51 bd 00 69 2b bd
       -0.14408812 -0.092540234 -0.051264446 -0.041848183
000390 cf 59 20 bc 6f 49 7d bc 19 5f 8e bd 3b 28 09 3e
       -0.009787037 -0.015459402 -0.06951732 0.13394253
0003a0 6f 48 5e bc e2 83 81 3c 03 41 e0 bd e3 a0 db bd
       -0.013567074 0.015809957 -0.109499 -0.10724046
0003b0 8e 66 03 3c 0d 0f dd 3d c7 56 7f bd 69 c6 32 3e
       0.008020056 0.10793886 -0.062338617 0.174585
0003c0 16 d5 1c 3e 26 fe 92 3d ea 9b 3a 3d 03 8e 12 be
       0.15315661 0.07177381 0.045558847 -0.14311986
0003d0 f2 2f 86 3c be a3 de bd 37 20 0f 3b 2c a2 a2 3c
       0.016380284 -0.10871075 0.002183927 0.01985272
0003e0 7f 66 ee bd 8b 0f 1e 3e cb b7 04 be 2b cf 03 3c
       -0.11640643 0.15435617 -0.12960736 0.008044998
0003f0 74 7c 28 3e 7f fe 49 3c af bf 03 3d 9a 81 db bc
       0.16453725 0.012328743 0.032165226 -0.026795197

encoder_c.convs.1.bias f4 [64]
000000 42 16 5b 3c 98 c1 a5 bb 85 fa b5 3c fa 29 d9 38
       0.013372006 -0.0050584786 0.022214184 0.00010355185
000010 84 be a0 3c d5 9e e0 3c 58 c6 6b bc 1d 90 3b b9
       0.019622095 0.027419487 -0.014390551 -0.00017887396
000020 27 ff e3 3c f7 87 ce bb c0 36 95 3b 5d f1 12 bc
       0.027831627 -0.0063028294 0.004553646 -0.008968678
000030 d6 d0 08 3b 20 d3 70 3c 31 f3 a2 bb 7d 23 86 39
       0.002087643 0.014698774 -0.0049728383 0.00025584913
000040 6f 0a 89 3c 36 21 95 3c 46 0f 97 3b 4d c4 41 bc
       0.016728608 0.018204313 0.004609975 -0.011826587
000050 91 c0 5e bc 5c 8d 29 3b a7 a5 e5 b7 ca fd 82 3c
       -0.013595716 0.002587161 -2.7376065e-05 0.015990157
000060 d5 2c 52 3c b0 52 a2 bb 4f bb 09 3d 3f 88 0c 3c
       0.012828072 -0.004953705 0.033625897 0.0085774055
000070 0f 56 83 3c 9d 90 46 3c b3 d0 c4 3b 4a 82 01 3c
       0.016032247 0.012119439 0.006006324 0.0079045985
000080 1c 2e 87 bc 88 b6 35 bb a3 c1 db 3b 80 ec 92 3c
       -0.016501479 -0.0027727205 0.006706433 0.017935038
000090 1e 95 0f 3c b4 01 63 bc c7 91 47 3c 53 b0 05 bc
       0.00876358 -0.0138553865 0.012180752 -0.008159715
0000a0 6d 70 45 bc 17 5e 33 3c e4 aa ce 3b 0d 6f 4a bc
       -0.01205073 0.010947726 0.006306993 -0.012355578
0000b0 13 93 6a 3c 1a dd 0a 3d 17 05 57 3c c6 b8 6f 3c
       0.014317292 0.033902265 0.013123772 0.014631456
0000c0 a5 3a 42 3c 58 09 93 3c 39 2a 93 3c 43 2f 84 bc
       0.011854802 0.017948791 0.01796447 -0.016135817
0000d0 f3 d0 55 3c 32 0d 9c bb 0a b3 26 bc c6 85 19 3d
       0.013050306 -0.004762315 -0.010174522 0.037481092
0000e0 62 51 74 3a 82 c4 02 3d 0f ec 14 3d bb 94 58 ba
       0.00093199883 0.031925686 0.036357936 -0.00082619087
0000f0 ba 73 73 3b 61 56 85 3c 8e e6 c0 3c 4d 0e c0 3b
       0.0037147836 0.01627654 0.023547437 0.00586108

encoder_c.convs.2.weight f4 [64, 64]
000000 24 ca fb bb 02 55 23 3e 2e 21 03 bc d8 fc aa bd
       -0.007684009 0.15950397 -0.008003516 -0.08349007
000010 3e 4b 2b 3e e2 ac a2 3d 16 df 0d 3e 8a 5c f3 3d
       0.16727921 0.07943131 0.13854632 0.11882885
000020 93 67 f0 bd 2c df 19 3e 6f 17 2d bd e3 ae 18 3e
       -0.11738505 0.1502654 -0.042258676 0.14910464
000030 0a e5 f1 3d 25 0a d4 bc e3 5a 34 3c 00 02 08 be
       0.11811264 -0.025883744 0.011007997 -0.13282013
000040 1d ad 14 3e 96 d2 69 bd b2 75 4d be ce be 42 bd
       0.14519162 -0.057085596 -0.20064428 -0.047545247
000050 43 b5 9e bd b9 9a 47 3c c0 52 e7 3d f9 23 97 3d
       -0.07749417 0.012182885 0.1129508 0.07379908
000060 e7 08 97 3d d4 b4 21 bd 4a 85 b2 3d f4 1b 3a 3d
       0.07374745 -0.03947909 0.08716829 0.045436814
000070 ed 03 2f bd a9 17 31 3e 1e d4 b7 bd 82 37 c9 bd
       -0.042728353 0.17294182 -0.08976005 -0.098250404
000080 c5 c5 be bd 1a 72 d4 bd a4 37 b5 3c 3f fd 12 bc
       -0.09315065 -0.10373326 0.022121258 -0.008971511
000090 97 dc 85 bd 34 6e 89 bd 90 92 fb bd 9a 60 13 3d
       -0.06536215 -0.06710473 -0.12283814 0.0359808
0000a0 fa 60 f1 3d 46 d6 cd bc 9c 4e c2 bd a5 9b d6 bd
       0.11786075 -0.025126588 -0.0948765 -0.104789056
0000b0 3f a2 d2 3d 1c e6 dc 3d d3 2e 37 3e 4d 55 36 3e
       0.10284852 0.107860774 0.17888956 0.17805977
0000c0 1e fe f6 3d ff 14 3e be 1c 53 04 be 71 1c f6 bd
       0.12060188 -0.18562697 -0.12922329 -0.120171435
0000d0 d3 e2 28 be 01 d6 d3 bd 51 24 8c bd 54 88 80 3d
       -0.16492777 -0.103435524 -0.06842864 0.062760025
0000e0 fa f7 96 bd c2 9b d9 bd 0b 36 5a 3e e4 70 65 bc
       -0.073715165 -0.106254116 0.21309678 -0.014003966
0000f0 6e a9 9e bd 0e 8e 5f bd f1 ba fe bd 33 75 c7 bc
       -0.0774716 -0.054578833 -0.12438 -0.024347877
000100 a1 fb b8 3d d3 d2 bd 3d cd 00 af bb 35 92 87 3d
       0.090323694 0.09268727 -0.0053406716 0.06619684
000110 37 68 0a 3e 5b fa 19 3c af 6b b2 3c ab b8 03 3e
       0.13516317 0.009398068 0.021779863 0.12863414
000120 71 b4 ef bd 64 63 f0 bd bc 6b 28 bd d3 da da 3d
       -0.11704338 -0.11737707 -0.04111837 0.10686269
000130 2d 8c e6 3d 30 67 d1 bd 5d 61 99 bd 2b 8a 25 3e
       0.11257205 -0.102247596 -0.07489274 0.16165988
000140 6f 07 1a be 39 17 3f bd 75 db 0e bd 43 6f 2b 3e
       -0.15041898 -0.046653006 -0.03487726 0.16741662
000150 f7 22 98 bd a5 b8 1c be 8b 08 2b be fb 77 89 bd
       -0.07428544 -0.15304811 -0.16702478 -0.067123376
000160 64 08 05 be 6e 66 07 3e 0a 29 04 bc 53 a5 10 3e
       -0.12991482 0.13222668 -0.008066425 0.14125566
000170 1f 6b 52 be 6c 57 f9 bd b6 6d 78 3d 46 2a 54 bd
       -0.20548676 -0.121748775 0.060651504 -0.051798128
000180 c8 ba 44 be 93 c7 d0 3d 0f 9c e9 bd ca 9e ed 3c
       -0.19211876 0.10194316 -0.11406719 0.02900638
000190 41 1f 13 3e 39 2e b4 bd 92 6d 65 be 70 eb fe bd
       0.14367391 -0.08797879 -0.22405079 -0.1244725
0001a0 34 e9 f8 bd a4 41 b0 3d 9d 6b a4 3d e1 af 0b 3e
       -0.12153855 0.0860627 0.08028338 0.13641311
0001b0 87 36 07 be fa 52 f8 3d 0c 0a 2d 3d 71 76 a1 bd
       -0.13204394 0.121252015 0.04224591 -0.07883919
0001c0 67 13 5e bc 67 b9 61 3e f3 d4 87 3d 67 bc 80 bc
       -0.013554431 0.22043382 0.06632414 -0.015714837
0001d0 da 25 15 be 8a 1c 0a be ba f0 6d bc cc 23 25 bd
       -0.1456522 -0.1348745 -0.014522726 -0.04031734
0001e0 2e 7c ac 3d 50 70 6d 3c 2b bc 98 3c 76 2d 10 be
       0.08422123 0.014492109 0.018644413 -0.14079842
0001f0 57 d0 ac ba b3 70 31 3e 27 94 f9 bd 2a e1 1e ba
       -0.0013184649 0.17328148 -0.12186461 -0.0006060774
000200 7d d0 70 ba ec 89 1c bc 49 f6 02 3c 29 e2 99 bd
       -0.00091863406 -0.0095543675 0.007993289 -0.0751384
000210 da 28 42 be eb 1d 1b 3e be 0d 25 3e 36 2f 06 be
       -0.18960896 0.15148132 0.16118523 -0.13103947
000220 35 79 25 be 1b 59 3e 3e b7 4d fb bc ff 4d b9 bd
       -0.16159518 0.18588679 -0.030676706 -0.0904808
000230 9c 33 62 3e 01 cb c3 bd 63 1c 38 3d 86 09 80 3c
       0.2209 -0.09560204 0.044948947 0.015629541
000240 05 ff af bc 61 85 33 bd 84 dc 58 bd 50 7e ae bc
       -0.021483907 -0.043828372 -0.052944675 -0.021300465
000250 5e 1d 9d ba 3f bc 0d bc fc 2c ad bd f7 38 53 3e
       -0.0011986902 -0.008650838 -0.08455846 0.20627199
000260 df 93 ed 3d da 8a 85 3d f8 77 c4 3b f4 59 96 bd
       0.1160047 0.065206245 0.0059957467 -0.07341376
000270 89 8f 01 be 41 75 bf 3c c2 14 3f bd f7 44 ac 3c
       -0.1265241 0.02337134 -0.046650656 0.021028979
000280 59 95 79 bd 4c bf 22 3e 7b 99 c5 bc 4b 67 ef 38
       -0.060933445 0.15893286 -0.024121037 0.00011415648
000290 6d 80 d6 3d 0c 20 bc bc f1 9a 3b 3e 09 6f ab 3c
       0.10473714 -0.0229645 0.18320824 0.02092697
0002a0 e0 ee fe 3d 02 09 89 bb 13 62 64 3d 72 58 cc 3c
       0.124479055 -0.004181982 0.055757593 0.024944518
0002b0 2e c1 98 3d 4a 58 f3 3d 91 ce a5 bc ae 24 e4 3d
       0.07458721 0.11882074 -0.0202401 0.111398086
0002c0 da b1 cb ba c2 52 a3 3d 6f fc e5 3d 4a 04 13 3e
       -0.0015540675 0.07974769 0.112297885 0.14357105
0002d0 1d 16 a6 3d d1 70 e7 bc e5 aa 0b 3d 3b a9 c5 bc
       0.081096865 -0.028252037 0.034098525 -0.024128547
0002e0 c6 92 b1 bd c1 69 40 be e3 cb 14 3e 86 2d 12 bc
       -0.08670573 -0.18790342 0.14530902 -0.008921986
0002f0 23 93 a6 bc e7 ce 29 3d 8c b2 a7 3d 15 eb 27 bd
       -0.020333832 0.041457083 0.08188352 -0.040995676
000300 a2 28 aa bc 35 2d 49 bd 35 07 96 bd ad 1d ff 3c
       -0.020771328 -0.04911538 -0.073255934 0.03114208
000310 da 3f 09 3d c5 11 90 3d b3 fb 81 3c 89 44 60 3d
       0.03350816 0.07034639 0.01586709 0.05475286
000320 d1 e5 ad 3c e5 23 4b 3b 40 bc b2 bd 96 55 b5 bd
       0.021227749 0.0030996737 -0.08727312 -0.08854215
000330 69 46 70 3d ad 4c 1c bd dd ae 88 3d e6 2f 8f 3d
       0.0586609 -0.03815906 0.066739775 0.06991558
000340 39 43 bf bd 8a df 53 bd d7 a4 31 3e 75 c4 8c 3c
       -0.093389936 -0.051726855 0.17348038 0.017183522
000350 55 f9 d7 3c ee 7d af bc b5 15 b4 3d f6 e1 fa bd
       0.026364008 -0.021422353 0.08793203 -0.1225013
000360 df b6 0b be d0 d0 3e bd 91 ca ac bc 21 bd 91 bb
       -0.13643979 -0.046585858 -0.021092685 -0.0044475948
000370 e6 86 c8 bc 45 6a ee bd f4 b6 b9 3c 53 fa b9 3d
       -0.024478387 -0.11641363 0.022670247 0.09080949
000380 41 28 5e bd a1 bc 20 3d 7b d1 8a 3c b7 3b f6 bc
       -0.054237608 0.03924239 0.016945591 -0.030057771
000390 bc f6 bf bd be 2f ee bd d5 bc 8f bd df 3a 3d bb
       -0.09373233 -0.116302 -0.07018439 -0.0028874201
0003a0 59 0c c3 bc a9 dc 9c bd 7d 9a 77 3d 47 ab bd 3b
       -0.023809599 -0.07659275 0.060450066 0.00578824
0003b0 71 02 62 bd 20 38 7a bc 00 aa e7 bd ca 90 83 3d
       -0.05517811 -0.01527217 -0.11311722 0.06424101
0003c0 43 62 99 bd 90 cc 36 3d ab d9 bc bd cc bc 14 be
       -0.07489445 0.04462868 -0.09221204 -0.14525145
0003d0 76 26 6e bd 74 55 f6 3d 95 3d 70 3d ce c1 fd b9
       -0.058142148 0.12028018 0.05865248 -0.00048400316
0003e0 85 22 b1 3c e7 0c 4c 3d da 14 ca bc 86 fc 8f bc
       0.021622906 0.049816992 -0.024668146 -0.017576467
0003f0 dc a3 b2 bd aa 59 4a bd 0f 22 01 be 95 e9 83 bc
       -0.0872266 -0.049401917 -0.12610649 -0.016102592

encoder_c.convs.2.bias f4 [64]
000000 ad 5a e3 3b 85 4c 4d bc 49 c3 34 3c ae 56 35 3c
       0.0069382996 -0.012530451 0.011032888 0.011068029
000010 d8 e1 49 bc de ce 2f 3c c6 ce 3c 3c 3b 7f 45 bc
       -0.012321912 0.010730473 0.011523908 -0.01205426
000020 8a a4 2f bc 5d 34 32 3c 0c d3 44 3c 11 28 42 3c
       -0.0107203815 0.010876742 0.012013208 0.011850373
000030 ae 8c 38 3c 8c 94 31 3c 55 3f 65 bc 7c eb 33 bc
       0.011264009 0.010838639 -0.01399215 -0.010981437
000040 6b 1a 3a 3c 9d 5f 6a 3c 10 e3 3a bc d8 86 4a bc
       0.011358838 0.014305023 -0.011406675 -0.012361251
000050 3b 61 36 bc 4a 7d 32 bb b1 20 3d 3c 8d a6 2f 3c
       -0.01113158 -0.0027235323 0.011543439 0.010720861
000060 e6 16 41 3c 4f 40 0f 3c ca 56 5d 3c 49 e1 56 bc
       0.011785245 0.00874336 0.013509462 -0.013115236
000070 b6 f5 25 3c 3f 3b 41 3c 4c 09 4f bc 52 ad 31 bc
       0.010129383 0.0117939105 -0.012636494 -0.010844545
000080 58 32 38 3c 46 ec 35 bc 2a 25 2b bc bb d6 49 3c
       0.011242472 -0.011103695 -0.010445872 0.012319262
000090 c9 d6 41 bc d3 68 46 3c 80 19 4a 3c 7e 23 cf 3a
       -0.011830994 0.012109953 0.012335181 0.0015803424
0000a0 dc 3e 3c 3c fc 0a 54 bc 74 c9 33 3c ad fd 5a bc
       0.011489596 -0.012942072 0.010973323 -0.013366145
0000b0 f9 b9 3e bc c0 09 23 3c dc 14 36 3c b6 33 6f 3c
       -0.011641019 0.009951055 0.011113372 0.014599731
0000c0 7b f8 4c 3c 97 de 54 bc 77 2e 33 3c 10 2f 4d 3c
       0.012510414 -0.012992523 0.010936371 0.012523428
0000d0 3a 84 3f 3c dd 12 53 bc 5c b5 46 bc 35 6d 17 bb
       0.01168924 -0.012882915 -0.0121282 -0.0023105864
0000e0 63 96 ee ba ff f7 38 bc 55 98 36 3c e2 f9 2a 3c
       -0.0018202778 -0.011289596 0.011144717 0.010435553
0000f0 e6 a2 48 3c ce ab 35 bc c5 c8 45 3c 30 be 3e 3c
       0.012245869 -0.011088325 0.012071793 0.011642024

encoder_b.convs.0.weight f4 [116, 64]
000000 d0 68 7f 3d 2a 1b 72 bd f5 e6 98 bd ce ea ed bd
       0.062355816 -0.059107937 -0.074659266 -0.11617051
000010 0c 79 30 be 84 44 ab bd db c8 62 bd 18 a5 e5 bd
       -0.17233676 -0.08362678 -0.055367332 -0.1121313
000020 d0 47 09 be 57 34 c8 3d b8 83 0a 3d 5b 24 2d be
       -0.134063 0.09775608 0.033817023 -0.169084
000030 35 8e 20 be 15 d4 bb bd 8f cb 36 3e 8f c4 21 3e
       -0.15679248 -0.09171311 0.17851089 0.15797637
000040 46 ba 1c 3d 7e 16 db 3d 86 f5 d9 bd 28 12 e9 bc
       0.03826358 0.106976494 -0.10642533 -0.02845104
000050 86 5a ec 3d 36 dd e9 3d 4e 85 08 3e d1 9e 2b 3e
       0.115407035 0.11419146 0.13332102 0.16759802
000060 f4 71 1a be ae 6f e2 bd 3e 69 10 bd d5 1d 17 be
       -0.15082532 -0.110564575 -0.035256617 -0.14757474
000070 d9 40 f3 3d 1e 20 88 3b 29 8b e0 3d 95 07 e7 3c
       0.11877603 0.0041542193 0.10964043 0.028201858
000080 65 0f 1b be 1b f5 12 3e 19 a3 d8 bd 70 5d 19 bd
       -0.15142591 0.14351313 -0.105779834 -0.037442625
000090 c8 23 82 3d fa ce c0 bd bd fc 5e bd bd 07 1f bd
       0.06354481 -0.09414478 -0.05444025 -0.03882574
0000a0 85 51 a2 3c cd 2c c9 bc 6d 76 8e 3c 94 10 61 3c
       0.019814262 -0.024557495 0.017390454 0.013736863
0000b0 00 5b 82 3d e8 28 56 bd ab 90 a9 3d b1 d1 fc 3d
       0.06365013 -0.052285105 0.08279546 0.12344683
0000c0 6d fb 1a bd 89 73 06 3e bd 99 04 be ff 97 19 bc
       -0.037837435 0.1313001 -0.12949272 -0.009374618
0000d0 10 ad 14 3e 71 1d 38 3e e3 ac d4 3d 4e e4 0e 3e
       0.14519143 0.17979981 0.10384538 0.13954279
0000e0 63 20 15 3e 48 1b 07 3e 35 d9 18 3e e6 24 c0 bd
       0.14563136 0.13194 0.14926608 -0.09382038
0000f0 4e 07 98 3d b6 06 24 3e 42 32 dc bd fc 3c bc 3d
       0.07423268 0.16018185 -0.107517734 0.09191319
000100 0f 1a 44 3d 8e f2 ea 3c e0 48 87 3d c6 e9 85 bb
       0.047876414 0.028680112 0.06605697 -0.004086706
000110 85 54 fd 3d 09 b7 22 3e 12 f2 62 3d 84 2d 2f 3d
       0.123696364 0.15890135 0.055406637 0.042768016
000120 22 13 2c 3c 69 17 47 3c b5 cc 01 3e 81 04 48 3d
       0.0105026085 0.0121515775 0.12675746 0.04883242
000130 d9 8d 02 3d 27 45 d8 3d d6 5e 8a bd e6 36 9f 3d
       0.031873558 0.10560065 -0.0675637 0.07774143
000140 e7 35 1f 3e 71 b1 26 be af 32 fd 3d 7b a5 c9 3c
       0.15547906 -0.16278626 0.12363183 0.02461504
000150 4e ee 62 3d 8f 2e 1a 3e 8f 0c eb 3d 85 ab 18 3e
       0.055403046 0.15056823 0.11477005 0.1490918
000160 7e 65 00 3d f4 0c ca bd 96 b5 25 be 3d 2c 89 3d
       0.03134679 -0.09865752 -0.16182551 0.06697891
000170 5f c0 16 bd 74 35 ed bc 90 00 7f 3d 87 8d d6 bc
       -0.036804553 -0.028956152 0.062256396 -0.026190532
000180 1a de da bc b9 5f 03 be c5 0c 32 3e b8 ca 17 be
       -0.026717234 -0.12829484 0.17387684 -0.14823425
000190 b9 be 32 3e a5 16 99 bd 76 bd 0f 3e 92 b4 4e bd
       0.17455567 -0.07475022 0.14037117 -0.050465174
0001a0 15 a1 ea 3b 20 c5 31 bd 53 eb 09 3e e9 fe 1f be
       0.0071603158 -0.043400884 0.13468675 -0.15624584
0001b0 dd f3 38 be d7 ae 87 3d bb 12 04 3c e9 db 25 3d
       -0.18061776 0.06625145 0.008061106 0.040492926
0001c0 37 d2 27 3d 5d 55 c9 3d 3b fb 48 3c b1 5a 23 3e
       0.04097196 0.09830735 0.012266929 0.15952565
0001d0 02 25 87 bd 11 2d 96 bd b8 44 51 bd ad 7c 06 3d
       -0.065988556 -0.073328145 -0.051090926 0.032833744
0001e0 80 1e 12 3e da 9a fc bd 49 0e 35 be 19 fe 89 bc
       0.14269447 -0.12334223 -0.1768123 -0.016844796
0001f0 7b 59 ee 3d db 74 3a 3d 0d 2a 32 3e bb 47 7b 3c
       0.11638161 0.0455216 0.17398854 0.015336926
000200 1a 3f 26 be 6e 4e 77 3d 0f 4d 8d bb cb 08 1f 3e
       -0.16235009 0.06037753 -0.0043121646 0.15530698
000210 e8 12 6f bd 03 bb c8 3c 18 5d bc bd 3b 10 f8 bc
       -0.05836764 0.024503237 -0.09197444 -0.030281177
000220 e8 13 20 3e 30 87 31 3d 4a bf 38 3e d5 9e ca 3d
       0.15632594 0.043341815 0.18041721 0.09893576
000230 71 9b 78 bc 93 41 f2 bc e4 df 2a 3e 43 0c 59 bd
       -0.015173779 -0.029572284 0.1668697 -0.05299021
000240 8d 89 a7 bc 23 16 06 3e 11 6c 6a 3d 14 84 85 ba
       -0.020451332 0.13094382 0.057231966 -0.0010186457
000250 40 39 42 3d 6a 5d 24 3e 89 26 9b 3d d6 2a 57 3d
       0.04741788 0.1605126 0.075757094 0.052531086
000260 0a 4d ff 3c 80 49 8a 3b fd e0 42 3d a4 7b 9c bd
       0.031164665 0.0042201877 0.047577847 -0.0764077
000270 c1 46 99 bc 86 78 df b9 f8 c2 b8 bd 69 6d bf 3d
       -0.018710496 -0.00042623671 -0.09021562 0.0934704
000280 d4 eb 77 3d f5 6c 67 bd 07 95 bb bb 1a 44 2f 3e
       0.060527638 -0.056500394 -0.0057245526 0.17115822
000290 49 47 34 3d 6b ec 24 be ef eb 0f be 55 b0 61 3c
       0.044013295 -0.16105811 -0.14054845 0.013774951
0002a0 92 7a 36 3d 6b 65 f6 3d 16 d8 fd bc 16 b8 ea 3a
       0.044550486 0.12031063 -0.030986827 0.0017907645
0002b0 23 6f 2f 3e dc f7 ae 3d 50 4e ef 3d 59 f6 37 3d
       0.17132239 0.08543369 0.11684859 0.04491267
0002c0 bb 96 74 bc 81 4b 10 be 0c d7 e4 3d 49 cb 34 3e
       -0.014928515 -0.14091302 0.111738294 0.17655672
0002d0 5c b9 b8 bd ad 69 0f be 2e 58 90 3d a4 20 d9 3d
       -0.090197295 -0.14005156 0.07048069 0.10601929
0002e0 27 02 08 bd 82 bf 6c 3d b3 d7 2d be a9 5a db 3c
       -0.033205178 0.057799824 -0.16976814 0.026776629
0002f0 6a ca 48 bd 60 b8 20 3e 3b 15 dc bd dd 33 74 bd
       -0.049021162 0.15695333 -0.10746237 -0.059619773
000300 29 2a 05 3e 40 67 3a 3e 70 b4 8c 3d 00 bd 08 3e
       0.13004364 0.18203449 0.06870353 0.13353348
000310 3f 9d 2c 3e ae a9 d3 3d f1 3f e0 3d 1a 28 dc bb
       0.1685686 0.10335098 0.10949696 -0.0067186477
000320 00 ac 07 3d a3 9f ef 3d 16 13 e7 3c 07 d0 c1 3d
       0.033123016 0.1170037 0.028207343 0.09463506
000330 a8 31 0e be 5a 0f 87 bd ce fa 06 be 78 df b0 3d
       -0.1388613 -0.06594725 -0.13181612 0.08636373
000340 56 09 13 be e4 47 8a 3d 65 33 3b 3d fe 04 04 3d
       -0.1435903 0.06751993 0.04570331 0.032231323
000350 98 be 21 3d e5 5e c9 3d 89 bd 2d 3e c7 f8 d3 3d
       0.039488405 0.09832553 0.16966833 0.10350185
000360 65 6f ed 3d bb e6 78 bd 19 13 ab 3d 64 5f 96 3d
       0.115935124 -0.060766917 0.08353252 0.07342413
000370 c3 c8 b7 bd 05 93 9f 3c 3f 00 36 3d 7f 4a 72 3d
       -0.08973839 0.019479284 0.04443383 0.059153076
000380 5c bd d9 3a f6 b9 af bd d1 2e cf 3d 9b a1 06 3e
       0.001661222 -0.08580391 0.101163514 0.13147585
000390 df a9 85 3d 80 6a a3 bd b7 ea 02 3e b2 57 15 3d
       0.06526541 -0.07979298 0.12784849 0.036460586
0003a0 30 fb 6c bd d4 89 72 bd 52 08 f4 bb 45 e3 0d be
       -0.05785674 -0.059213474 -0.007447281 -0.13856228
0003b0 16 3d 0a bc d0 93 05 3e 43 56 29 3e 19 e4 fc bd
       -0.008437416 0.13044667 0.16536812 -0.12348194
0003c0 35 41 27 bd 2c bf b6 bb d4 63 34 be ac ca cd 3d
       -0.04083367 -0.0055769887 -0.17616206 0.10048422
0003d0 8b 3d ce bd ba 9e 49 bc b9 07 37 3d 3f 8f 1d be
       -0.10070332 -0.01230591 0.0446851 -0.15386675
0003e0 d6 45 38 be 63 c2 db bd 7e 1c 26 bd ac f6 e2 bd
       -0.1799539 -0.10730436 -0.040554516 -0.11082205
0003f0 06 ac 55 3d f8 7e be bd a8 6b eb 3d 5e 96 dd 3d
       0.052166007 -0.09301561 0.11495143 0.10819696

encoder_b.convs.0.bias f4 [64]
000000 00 00 00 00 00 00 00 00 00 00 00 00 00 00 00 00
       0.0 0.0 0.0 0.0
000010 00 00 00 00 00 00 00 00 00 00 00 00 00 00 00 00
       0.0 0.0 0.0 0.0
000020 00 00 00 00 00 00 00 00 00 00 00 00 00 00 00 00
       0.0 0.0 0.0 0.0
000030 00 00 00 00 00 00 00 00 00 00 00 00 00 00 00 00
       0.0 0.0 0.0 0.0
000040 00 00 00 00 00 00 00 00 00 00 00 00 00 00 00 00
       0.0 0.0 0.0 0.0
000050 00 00 00 00 00 00 00 00 00 00 00 00 00 00 00 00
       0.0 0.0 0.0 0.0
000060 00 00 00 00 00 00 00 00 00 00 00 00 00 00 00 00
       0.0 0.0 0.0 0.0
000070 00 00 00 00 00 00 00 00 00 00 00 00 00 00 00 00
       0.0 0.0 0.0 0.0
000080 00 00 00 00 00 00 00 00 00 00 00 00 00 00 00 00
       0.0 0.0 0.0 0.0
000090 00 00 00 00 00 00 00 00 00 00 00 00 00 00 00 00
       0.0 0.0 0.0 0.0
0000a0 00 00 00 00 00 00 00 00 00 00 00 00 00 00 00 00
       0.0 0.0 0.0 0.0
0000b0 00 00 00 00 00 00 00 00 00 00 00 00 00 00 00 00
       0.0 0.0 0.0 0.0
0000c0 00 00 00 00 00 00 00 00 00 00 00 00 00 00 00 00
       0.0 0.0 0.0 0.0
0000d0 00 00 00 00 00 00 00 00 00 00 00 00 00 00 00 00
       0.0 0.0 0.0 0.0
0000e0 00 00 00 00 00 00 00 00 00 00 00 00 00 00 00 00
       0.0 0.0 0.0 0.0
0000f0 00 00 00 00 00 00 00 00 00 00 00 00 00 00 00 00
       0.0 0.0 0.0 0.0

encoder_b.convs.1.weight f4 [64, 64]
000000 ec 48 2b be ce 91 8f bd 34 2d f0 3a c4 f2 02 3e
       -0.16727036 -0.07010232 0.0018324018 0.1278792
000010 4a ed 81 bd 6f 69 88 3d 4e 81 cc 3d 5c 8a f6 3d
       -0.063440874 0.06660735 0.099856004 0.12038109
000020 45 14 f1 3c eb 41 00 be c7 1a 5c bd 21 71 23 be
       0.02942861 -0.12525146 -0.053736474 -0.15961124
000030 41 b7 f0 bd 03 c4 1e 3e e4 29 9d bd 0a 88 f7 3d
       -0.11753703 0.1550446 -0.07674006 0.12086494
000040 6f ce 98 bd 3b 5b 42 be eb de 01 3e a6 6b 02 3e
       -0.07461249 -0.18980114 0.12682693 0.12736377
000050 89 17 4b 3e d4 7a 11 3e a1 f8 12 3e 1c f7 57 be
       0.19833197 0.14207011 0.14352657 -0.21090358
000060 ff c0 e0 bd 1c 94 fc bc 17 82 a8 bd 19 f3 57 be
       -0.10974311 -0.030832343 -0.08227938 -0.21088828
000070 cc 88 31 be 6b 61 3e be 78 f9 23 3d 18 26 df 3d
       -0.1733734 -0.1859185 0.040032834 0.10895938
000080 d8 74 3f 3d da 2b d9 3d d0 89 15 3e 2a f1 be bd
       0.04674229 0.10604067 0.14603353 -0.09323342
000090 64 9e 79 3c 7c 44 bd bd 4f 74 8a 3c 1e 41 4c 3e
       0.015235517 -0.09241578 0.016901163 0.19946715
0000a0 c2 25 50 bd 88 de 58 bd f1 99 b9 bc 83 77 64 bd
       -0.05081726 -0.052946597 -0.022656413 -0.055778038
0000b0 f9 13 e4 3d 9f 28 22 3e 58 60 f3 3d b3 cc 72 bc
       0.11136622 0.15835808 0.118836105 -0.014819312
0000c0 32 2b 22 3e ac 54 0f be 43 68 3d be 50 ac 49 be
       0.1583679 -0.13997144 -0.18496804 -0.19694638
0000d0 6f ec bf 3d 9e bf 7d bd 08 fd 12 be 95 b2 ff 3c
       0.09371268 -0.06195032 -0.14354336 0.031213084
0000e0 82 a8 1b be 91 08 f6 bd 3f 8d 55 be 1c ad 2b bd
       -0.15201 -0.12013353 -0.20854662 -0.041913137
0000f0 5b 6e 41 bd 63 a5 c8 bd 95 aa 22 be 0e 97 48 3d
       -0.047224384 -0.0979717 -0.15885384 0.048972182
000100 b6 a4 b6 3c 74 ad a7 3d 56 9d 55 bd ad 74 34 be
       0.022295337 0.081873804 -0.052152 -0.17622633
000110 75 20 0f be 08 5a 65 bd 76 9d 9f 3b 36 d1 eb 3d
       -0.13977225 -0.055994064 0.0048710657 0.11514513
000120 b4 85 2e 3e ad fc 1b bd 23 6c c6 bd 2e 1c 4a be
       0.17043191 -0.038082767 -0.09688594 -0.19737312
000130 b6 d2 90 bd 7a 16 9e bd 4c d6 73 3d cd 60 81 3d
       -0.0707144 -0.07719131 0.05953054 0.063172914
000140 38 b7 0c 3d bb b4 26 bd 7a 70 34 3e a4 ef 1c 3e
       0.03435442 -0.0406997 0.17621031 0.1532579
000150 1f 65 bd bd c4 a8 53 3e 3b 1d 25 be 62 12 12 be
       -0.09247803 0.20669848 -0.16124432 -0.14264825
000160 6b bb b4 bd 4d c0 01 3e 62 ae f9 3d c4 7b f2 3d
       -0.0882481 0.12671013 0.12191464 0.11840013
000170 68 13 0f 3d 48 bc 57 be c1 38 64 bd 18 ac b5 3d
       0.034930617 -0.21067917 -0.055718187 0.08870715
000180 be 55 4a 3e 3b 0f 9d 3d 54 6d 12 3e a6 7b 51 3e
       0.1975927 0.076689206 0.14299518 0.20457324
000190 ac dd 21 3e 3a e3 24 be 44 64 a0 3d 03 f4 2d 3e
       0.15807217 -0.16102305 0.07831624 0.16987614
0001a0 ac bc 35 bd 00 08 d5 3b d3 1f c7 3c e4 fd 63 3d
       -0.044369385 0.006501198 0.024307167 0.05566205
0001b0 5e 28 19 be ed e7 45 be 9d a7 8b 3d 23 1e 87 bc
       -0.14956805 -0.19326754 0.06819079 -0.016493862
0001c0 44 09 35 be 01 c4 f6 bc b4 3f 47 bc b8 45 e2 bd
       -0.17679316 -0.030122759 -0.012161184 -0.11048454
0001d0 f5 37 12 3e 44 13 44 3e ab 1f 4f be 84 47 c0 3d
       0.14279158 0.19147974 -0.20226924 0.093886405
0001e0 6f 78 40 bd 38 b4 46 bd da 78 e4 bd 71 07 47 3d
       -0.046989854 -0.048511714 -0.11155863 0.04859108
0001f0 d8 2f 4d be 96 ac 74 3d c8 f4 7f 3b 09 88 55 3e
       -0.20037782 0.059734903 0.0039055813 0.20852675
000200 62 da 4c bc 16 0b 9c bd d5 f7 49 be ae 32 1b 3e
       -0.012503238 -0.07619302 -0.19723447 0.15156052
000210 3a 34 aa 3c 95 32 2e 3e c7 1f 6a 3d 9a 23 42 3d
       0.020776857 0.17011483 0.05715921 0.047397234
000220 10 68 92 bd ee 68 6a bd 8e c0 2f be 8f 12 90 bc
       -0.071487546 -0.057228975 -0.17163298 -0.017586974
000230 a1 36 19 3e df cb 58 be 4e c9 7a 3d ed 2f 2d be
       0.14962246 -0.2117152 0.061227135 -0.16912813
000240 d1 92 1b 3e a0 56 98 3d 08 5e 30 be 66 da 13 3e
       0.15192725 0.074383974 -0.1722337 0.14438781
000250 a1 23 e9 bd f5 80 08 3e dd df 0b be a3 af 02 3e
       -0.11383749 0.13330443 -0.13659616 0.12762313
000260 28 fe f7 bd c1 9d f4 bc 05 8a 28 be af 62 a8 3c
       -0.12109023 -0.02986038 -0.164589 0.020554869
000270 03 06 55 be 1b 30 37 be b0 04 db 3d 9a 2f ba 3c
       -0.20803075 -0.17889445 0.106942534 0.022727776
000280 77 78 4f 3e 90 f4 85 bd 4e b7 ff bd 42 19 bc bd
       0.20260797 -0.06540787 -0.124861345 -0.09184505
000290 e8 ad 53 be 82 07 29 3e 85 bb 0a be 44 d0 1e be
       -0.20671809 0.1650677 -0.13548096 -0.15509135
0002a0 f4 e0 26 be 2e 5f 0e be 3e e2 23 3e fe 1e 23 be
       -0.1629675 -0.13903496 0.16004273 -0.15929791
0002b0 9c 0c 4a 3d 48 71 5e 3d 10 5b 48 3e 84 e2 03 be
       0.04932843 0.054307252 0.19565988 -0.12879378
0002c0 1e f8 02 bd 27 d4 d0 bd a3 a4 a3 3d bd aa 2a bd
       -0.031974904 -0.10196715 0.07990386 -0.041666735
0002d0 cc 71 af 3d 0c f9 f0 3c 21 f2 33 3e c8 ca 02 be
       0.08566627 0.02941563 0.17572834 -0.12772667
0002e0 54 36 e6 3c 3c 0a 39 3e 56 f1 b0 3d 7d 51 df 3d
       0.028102078 0.1807031 0.08639781 0.109042145
0002f0 d8 bc 93 bd cc bb 53 bd 5e 48 fb 3a f5 b6 bf 3d
       -0.072137535 -0.05169277 0.0019171347 0.09361068
000300 24 5d 8f 3d 3d 49 08 3d 54 5a 1a 3d c2 b6 d7 3d
       0.07000187 0.03327297 0.0376838 0.10532905
000310 87 2b f0 3d 54 e2 ad bd 26 1b 1b be 79 2c 25 bd
       0.11727052 -0.08490434 -0.15147075 -0.040325616
000320 f2 17 10 be d8 05 ca bc 3f dd ea 3d 60 2b 23 3e
       -0.14071634 -0.02466099 0.114679806 0.15934515
000330 f1 3d c6 3d fa 06 4a be 6e 44 ab bc 59 9c c3 3c
       0.09679783 -0.19729224 -0.020906653 0.023878263
000340 e8 d6 14 3e 63 ff 58 3d b1 47 14 3e dc 09 86 3d
       0.14535105 0.05297793 0.14480473 0.06544849
000350 6d 8a 20 3d f6 a2 26 3e 2f dc c4 bd 71 c0 b4 3c
       0.039194513 0.16273102 -0.09612309 0.02206442
000360 0b 1f 26 3d 07 e6 0b be 3a 7a b7 3d 8e dd b0 3d
       0.04055695 -0.13661967 0.0895886 0.08636008
000370 c2 73 25 3d 6d 45 63 3d dc 88 2b be a2 4b fc bc
       0.0403936 0.05548613 -0.16751426 -0.030797783
000380 12 39 aa 3d e1 7f 5d be 3e c2 2e be c7 48 29 3b
       0.083116665 -0.21630813 -0.17066285 0.0025830732
000390 f7 67 21 3d 4d 89 63 bc 64 18 53 3d c1 5d c1 bd
       0.03940579 -0.0138877155 0.051536933 -0.0944171
0003a0 34 f3 1e 3e 81 ff 1f be 51 fc d3 3d 38 60 56 3d
       0.15522462 -0.15624811 0.1035086 0.052337855
0003b0 dc db f8 bd 51 cf 46 be c8 53 16 be be dc 4a 3e
       -0.1215131 -0.19415022 -0.14680398 0.19810769
0003c0 0e 67 84 bd 91 42 3e bb d5 9f 44 3d ef 69 03 3e
       -0.064649686 -0.0029031376 0.04800399 0.12833379
0003d0 bb 11 b1 bd 1d ae ab bd 9a 7e 15 3e ce 65 4e bd
       -0.0864596 -0.08382819 0.14599076 -0.050390057
0003e0 af a0 56 3d 83 bc 43 be fa 02 e4 3d d7 4b 03 be
       0.052399334 -0.1911488 0.1113338 -0.128219
0003f0 c9 f4 f3 3d 14 c6 c3 bd 8d b4 a0 3d 21 58 ad bd
       0.119119234 -0.09559265 0.07846937 -0.08464075

encoder_b.convs.1.bias f4 [64]
000000 00 00 00 00 00 00 00 00 00 00 00 00 00 00 00 00
       0.0 0.0 0.0 0.0
000010 00 00 00 00 00 00 00 00 00 00 00 00 00 00 00 00
       0.0 0.0 0.0 0.0
000020 00 00 00 00 00 00 00 00 00 00 00 00 00 00 00 00
       0.0 0.0 0.0 0.0
000030 00 00 00 00 00 00 00 00 00 00 00 00 00 00 00 00
       0.0 0.0 0.0 0.0
000040 00 00 00 00 00 00 00 00 00 00 00 00 00 00 00 00
       0.0 0.0 0.0 0.0
000050 00 00 00 00 00 00 00 00 00 00 00 00 00 00 00 00
       0.0 0.0 0.0 0.0
000060 00 00 00 00 00 00 00 00 00 00 00 00 00 00 00 00
       0.0 0.0 0.0 0.0
000070 00 00 00 00 00 00 00 00 00 00 00 00 00 00 00 00
       0.0 0.0 0.0 0.0
000080 00 00 00 00 00 00 00 00 00 00 00 00 00 00 00 00
       0.0 0.0 0.0 0.0
000090 00 00 00 00 00 00 00 00 00 00 00 00 00 00 00 00
       0.0 0.0 0.0 0.0
0000a0 00 00 00 00 00 00 00 00 00 00 00 00 00 00 00 00
       0.0 0.0 0.0 0.0
0000b0 00 00 00 00 00 00 00 00 00 00 00 00 00 00 00 00
       0.0 0.0 0.0 0.0
0000c0 00 00 00 00 00 00 00 00 00 00 00 00 00 00 00 00
       0.0 0.0 0.0 0.0
0000d0 00 00 00 00 00 00 00 00 00 00 00 00 00 00 00 00
       0.0 0.0 0.0 0.0
0000e0 00 00 00 00 00 00 00 00 00 00 00 00 00 00 00 00
       0.0 0.0 0.0 0.0
0000f0 00 00 00 00 00 00 00 00 00 00 00 00 00 00 00 00
       0.0 0.0 0.0 0.0

encoder_b.convs.2.weight f4 [64, 64]
000000 72 48 43 3e bb 01 46 be aa fd 38 3e c5 f9 4d be
       0.19070604 -0.19336598 0.18065515 -0.20114811
000010 00 6b 65 bd 52 39 19 3e b7 ea 10 bd 60 bb b3 bd
       -0.056010246 0.14963272 -0.03538009 -0.08775973
000020 95 3b 79 bd c4 51 d3 3d 20 a5 ca bd a9 42 8f bb
       -0.060847837 0.1031833 -0.09894776 -0.00437196
000030 00 ac 9b bc d8 fa 10 be 74 c9 7f bd 01 c7 52 3e
       -0.019002914 -0.1415819 -0.06244798 0.20583726
000040 3b 4a 9d bd fb 49 8a 3c 2e d9 9b bd ff c7 e1 3d
       -0.07680174 0.01688098 -0.07609783 0.11024474
000050 de 61 00 be 54 23 98 3d 44 47 18 ba f5 a3 ed 3d
       -0.12537333 0.07428613 -0.0005808959 0.11603538
000060 c3 d6 03 3e 33 2d 50 3e 94 fa 99 bd 5b 16 71 bd
       0.12874894 0.20329742 -0.07518497 -0.05885921
000070 27 8a fd bd 36 87 43 3e 3b 86 14 3e 83 d0 14 3e
       -0.12379866 0.19094548 0.1450433 0.14532666
000080 ef 6c cb 3d d7 c7 d0 3c 29 1f 35 bd 12 a9 b9 bd
       0.09932887 0.025485916 -0.04421917 -0.09065451
000090 11 c3 ce 3d 12 3a cb bd 98 0a fb 3d 53 56 ed 3d
       0.100958 -0.099231854 0.1225788 0.11588731
0000a0 f1 7c 42 be 52 e4 c5 3b 38 96 0d 3d 00 bc 57 be
       -0.18992974 0.006039181 0.034567088 -0.2106781
0000b0 2a ce eb 3d 16 9d a8 bd de de da 3d ef 2a a0 bd
       0.11513932 -0.08233087 0.1068704 -0.07820689
0000c0 50 6d 2d 3e 1d e2 d7 3d 08 0e c7 3d ff 8b 61 3d
       0.1693623 0.105411746 0.09719473 0.05506515
0000d0 d8 45 a2 3d 79 b9 18 3d 94 93 8c 3c 75 d1 da 3d
       0.07923478 0.037286256 0.017160214 0.10684482
0000e0 2e 9b 9b bd 03 e2 1f 3e 91 07 14 3d e2 88 eb bd
       -0.075979576 0.1561356 0.03614003 -0.11500718
0000f0 12 7b 40 be 26 35 f5 3c 38 14 d2 3d 54 d5 5a be
       -0.18796948 0.02993257 0.10257763 -0.2137044
000100 b7 af 00 3e 6e 84 49 be 29 3c ca 3d 87 0c 89 bd
       0.1256703 -0.19679424 0.09874756 -0.066918425
000110 ca 21 40 be 8e 15 39 be 99 e4 72 bd 5c 5d 6f bb
       -0.1876289 -0.18074629 -0.05930004 -0.0036524152
000120 77 15 5d 3c fb f7 2f be c5 39 ec bd 79 13 c5 bd
       0.013493887 -0.17184441 -0.11534456 -0.09622855
000130 0c 9d e4 3d 72 2c 4a 3e 02 68 f7 3d 15 3e c5 bd
       0.11162767 0.19743517 0.12080385 -0.09630982
000140 94 86 88 3d 05 ed 45 be 78 50 25 bd 68 21 0b 3e
       0.06666294 -0.19328697 -0.040359944 0.13586962
000150 46 6f 99 3d 84 bc 09 be fc ee c0 bd e3 fc 0b 3e
       0.07491927 -0.13450819 -0.09420583 0.13670687
000160 8a e0 b4 bd 6e 58 11 3d 79 41 77 bc a9 37 cb 3b
       -0.0883189 0.035484724 -0.0150912935 0.0062017036
000170 ee 7b 49 3e eb 9b 19 3e 17 60 55 be 42 a9 d0 3d
       0.19676182 0.15000884 -0.20837437 0.10188533
000180 dd 7c 4b bd 49 0d 54 bc 33 ba 8f bd 25 c3 12 3e
       -0.049679626 -0.012942621 -0.070179366 0.14332254
000190 c1 4d da 3d f2 64 04 3e bf 5c ca 3d db ab e2 bd
       0.10659362 0.12929133 0.09880971 -0.11067935
0001a0 92 92 4c 3e cc 95 18 be 71 3f 1b 3e 0f 78 5d bd
       0.19977787 -0.14900893 0.1516092 -0.054069575
0001b0 40 00 1e be 2b 3b b7 bd 74 6e 15 3e d7 72 fb 3d
       -0.15429783 -0.08946832 0.14592916 0.12277763
0001c0 4c a2 13 bd 17 d6 80 3d 97 e9 05 3d d0 82 fe 3d
       -0.03604345 0.062908344 0.03269347 0.12427294
0001d0 e4 a9 87 bc bc 60 29 3e 80 39 29 be 76 63 29 bd
       -0.016560502 0.16540807 -0.16525841 -0.04135462
0001e0 7c 63 07 3e 1f fd a0 3d fb 73 1e 3e e9 e3 81 bd
       0.13221544 0.07860779 0.1547393 -0.063422985
0001f0 b9 b4 aa bd 27 bd 42 be da 69 3d 3e 70 7e 17 3e
       -0.08335251 -0.19017468 0.1849741 0.14794326
000200 e2 dc 8d 3d a8 71 85 bd 08 3b fa 3a 2b 01 53 3d
       0.06926896 -0.06515819 0.0019091079 0.051514786
000210 6a a0 c7 3d da 92 a4 3d 1d 24 01 3d f4 ce 2b be
       0.097473934 0.08035822 0.03152858 -0.16778165
000220 1d b6 f4 3b d6 3e 41 3c 5a 9f 36 bd 1b 45 1a 3e
       0.0074679987 0.011794766 -0.044585563 0.15065424
000230 db 98 41 3e ec 12 b6 3d f9 26 94 3d 1e c2 f7 3d
       0.18905966 0.08890328 0.07233996 0.12097572
000240 fa 9e 88 bc 68 19 95 3d ed be 15 be ca 37 36 be
       -0.016677368 0.072802365 -0.14623614 -0.1779472
000250 23 31 c0 bd a9 b7 21 be 6d d0 24 3e 83 02 e8 bd
       -0.09384372 -0.15792717 0.16095133 -0.11328604
000260 7f 07 91 bd a8 6f 1d bd a6 22 44 be dd ff 03 be
       -0.07081508 -0.03843656 -0.19153842 -0.12890573
000270 f9 e9 70 3d ff 5c be 3d 99 6c 72 3d f0 bb 24 be
       0.058816884 0.09295081 0.059185598 -0.16087317
000280 02 6a 3d 3d e5 be 4b be 1b 31 09 be 53 95 26 be
       0.046243675 -0.19897039 -0.13397638 -0.162679
000290 6b 5e 37 bd f2 26 56 be dd 55 0a 3d 4c 34 a0 bd
       -0.04476778 -0.20913294 0.03377329 -0.07822475
0002a0 ae e5 b4 3d 67 31 a0 3d 50 0f 2e 3e 61 24 04 3e
       0.088328704 0.07821923 0.16998029 0.12904502
0002b0 1f 3b 52 3e cf 4f f3 bd bd 99 e0 bd ac 22 3b 3e
       0.20530365 -0.11880457 -0.10966823 0.18274945
0002c0 9d bd e3 3d aa 51 37 3e 01 fd 2e 3d 87 24 b9 bd
       0.1112015 0.17902246 0.042721752 -0.0904017
0002d0 00 18 49 be 5f 2b 51 be 26 5a 4d 3e a8 da 1f 3e
       -0.19638062 -0.20426701 0.2005392 0.15610754
0002e0 00 27 56 3e 2c a5 0d be e7 9b 1f 3e ed 58 0f be
       0.20913315 -0.1383254 0.15586816 -0.13998766
0002f0 d0 8d dc 3d f4 fa 1d bd 6d 23 23 bc e2 87 5c be
       0.10769236 -0.038569406 -0.009957177 -0.2153621
000300 af c4 3d be 05 c2 2e be d4 7b 4f bd 42 46 0f 3e
       -0.1853206 -0.170662 -0.0506552 0.13991645
000310 88 fb 1a 3e b2 9c 12 be 21 b3 eb bc 94 32 86 3b
       0.15135014 -0.14317587 -0.028771939 0.004095385
000320 1b d1 94 bc 43 26 0d 3d 8e 01 31 be 3d db 4f 3e
       -0.018166116 0.034460317 -0.1728575 0.20298477
000330 e2 38 51 3d 1b f8 7c 3d 02 ab 9d bd 36 36 1b 3e
       0.05107964 0.06176005 -0.07698633 0.15157399
000340 1f 5e aa 3b 49 c0 1a 3e af 0a 75 bd c7 71 bb 3d
       0.0051992084 0.15112413 -0.05982464 0.09152561
000350 43 a2 21 3c 38 49 2b bd 14 2f ab bd 44 fa b2 bc
       0.009865346 -0.041817874 -0.08358589 -0.021847852
000360 12 ee 2f 3e 02 23 99 bd 9a 11 3a be f5 38 33 be
       0.1718066 -0.0747738 -0.18170777 -0.17502196
000370 e0 12 3a be b4 51 30 bd 81 12 bc 3d f7 2d 59 bc
       -0.18171263 -0.04304667 0.09183217 -0.013255588
000380 85 74 2b be 27 2b 28 3d 48 91 fc 3d 06 f1 a3 3d
       -0.16743667 0.04105678 0.12332398 0.08004956
000390 a5 5e 2e 3e ba fa 11 b9 75 8d ad bd 29 67 3c 3e
       0.17028292 -0.0001392168 -0.084742464 0.18398727
0003a0 2b b1 a0 bd f1 9c d2 bd 8d 42 a1 3d b2 1e 47 3e
       -0.07846292 -0.102838404 0.07874022 0.19445303
0003b0 5d a1 59 bc 94 38 c0 3d 5a 33 ee bd 0c 6c c4 bd
       -0.013283101 0.093857914 -0.11630888 -0.09590921
0003c0 a7 5d 45 ba 73 2b c2 bd 35 93 90 bd 4c 4e 26 bd
       -0.0007528909 -0.094809435 -0.070593275 -0.040602013
0003d0 39 39 0e 3d cb 73 24 3e 15 b1 42 be 3f c5 15 be
       0.03472254 0.16059797 -0.19012864 -0.14626025
0003e0 eb 3a 11 be 2a 04 13 bb 57 98 16 3d df 5c 36 be
       -0.14182632 -0.0022432902 0.036766376 -0.17808865
0003f0 e0 be 3f be 98 29 dc 3d 37 6e a8 bc 03 af b7 bb
       -0.18725157 0.10750121 -0.020560367 -0.00560558
