results/ABIDE_3x5fold_seed0/fold1_rep1_seed1001/ckpt_best_fold_1.pt (torch, 396074 bytes, 42 tensors)

encoder_c.convs.0.weight f4 [116, 64]
-0.03697309 -0.111631535 0.12439638 -0.10888584 -0.039549183 -0.06736784 -0.07941674 0.019873336
0.03269458 -0.11174758 -0.0643764 0.0022040552 -0.07759819 0.043040495 -0.12775174 0.00013101747
-0.049522813 0.10304544 0.012003891 -0.17333415 0.016214108 -0.123828836 0.002643326 -0.027181104
0.15428503 -0.098006606 0.032742642 0.04111691 0.16932803 -0.062785655 -0.1140769 0.090544924
-0.037517007 -0.1540916 0.021162402 -0.06513607 -0.005413263 -0.0016795414 -0.11931056 0.0064234063
0.049266215 0.15066576 -0.03894135 0.10434479 -0.06651953 -0.15152982 -0.12937555 0.101468354
0.04483207 -0.15147637 0.1422621 -0.020488499 -0.07897573 0.06334291 -0.020007437 0.058711242
0.12763038 0.019390801 0.040922098 0.0670934 -0.12042478 0.15580653 0.06531562 -0.022750385
0.013164881 0.043633692 0.15809491 0.08533923 0.03440407 0.10229937 -0.08057723 -0.050593704
0.031712707 -0.04007929 -0.01977912 -0.0018055013 0.13114724 -0.10923374 0.14280194 0.066338666
0.004604513 0.072707355 -0.1407043 -0.05839813 0.027443951 0.05473478 -0.11675409 0.17035137
0.022532878 0.14779988 -0.06925935 -0.085142024 0.12243044 0.056782182 0.044731423 -0.12544028
0.06832824 0.042851586 -0.003846394 -0.0061593554 -0.004835711 -0.15613703 0.10408181 0.03451628
0.177473 0.1223818 -0.02570446 0.003471477 -0.05472425 0.09630564 0.04697799 0.046211
0.06429619 0.04313091 0.11379844 0.06161936 -0.1717454 -0.027458513 -0.15081632 0.0295229
0.01464528 0.09185464 -0.05772429 0.06340561 0.037810296 0.10302909 0.018910911 -0.056497253
-0.10452031 0.033619482 -0.15065373 -0.049597684 -0.09121331 -0.051399484 0.111675836 0.015495673
-0.02753541 -0.12526341 -0.019077156 -0.013315547 0.16371128 0.16797191 -0.15914015 0.15312913
0.028991118 -0.100104235 -0.00088206714 0.08849338 0.05863085 -0.123031735 -0.05891673 -0.04020986
-0.05680814 -0.045776203 -0.028663656 0.13767025 -0.16663648 0.056081966 0.111445986 0.02221893
0.12489447 -0.081581846 0.16908924 0.025084373 -0.030986661 -0.042471696 -0.13076189 -0.014408009
-0.09073109 0.16579749 0.040713638 -0.17160138 0.00015540834 -0.13892245 0.082489185 -0.0042395536
-0.088440925 -0.14414491 0.029008122 -0.07590744 0.13120095 0.0014809628 0.08244737 -0.0101184845
-0.014288825 0.0012919711 0.076285414 0.12962697 -0.08604883 -0.011909542 3.6997855e-05 -0.041827846
0.075456224 -0.03146316 0.009222486 0.033179637 -0.026364714 -0.13686697 -0.07598784 -0.09879564
0.00017130992 -0.0932465 0.0676905 0.0015996493 0.02554807 0.032011 0.0026474344 -0.048987374
-0.02181354 0.028175674 0.06120035 0.12580912 -0.14853655 0.1617584 0.0052782604 -0.13732825
-0.03819451 -0.0500971 -0.01652568 0.005519393 0.10423477 0.0005869835 0.14924106 -0.05575156
0.17253205 -0.08852504 0.1677261 -0.13599809 0.14610465 0.08486091 0.10988051 -0.007862158
-0.030610042 0.034436855 0.0059671216 0.021228211 0.051505663 0.026455345 -0.11755855 0.058414295
0.05043813 0.075935505 -0.033743963 0.043663274 -0.113841735 0.023774883 0.011269312 -0.13599457
-0.10833526 -0.0310562 -0.15570149 -0.033713907 0.06165501 0.031634044 -0.06975843 0.053055957
00000000: 1871 17bd 139f e4bd 87c3 fe3d 8aff debd
00000010: 53fe 21bd 26f8 89bd 3ea5 a2bd 68cd a23c
00000020: c0ea 053d eadb e4bd c6d7 83bd e971 103b
00000030: cdeb 9ebd 3b4b 303d 5ad1 02be bc61 0939
00000040: 6fd8 4abd 7d09 d33d f8ab 443c 827e 31be
00000050: 73d3 843c f999 fdbd a73b 2d3b e8aa debc
00000060: e5fc 1d3e b0b7 c8bd 261d 063d 346a 283d
00000070: 5464 2d3e c495 80bd 26a1 e9bd 9e6f b93d
00000080: 6fab 19bd 30ca 1dbe c65c ad3c 0f66 85bd
00000090: be61 b1bb 0f24 dcba 1859 f4bd 707b d23b
000000a0: 5fcb 493d 2048 1a3e f780 1fbd b9b2 d53d
000000b0: 643b 88bd a22a 1bbe 067b 04be a4ce cf3d
000000c0: d5a1 373d 9f1c 1bbe 28ad 113e 7fd7 a7bc
000000d0: 07be a1bd edb9 813d a3e6 a3bc 337b 703d
000000e0: 8ab1 023e 75d9 9e3c ee9d 273d 4468 893d
000000f0: 44a1 f6bd bf8b 1f3e 32c4 853d 045f babc
00000100: 83b1 573c 3eb9 323d a2e3 213e 56c6 ae3d
00000110: 48eb 0c3d 5582 d13d ad05 a5bd 583b 4fbd
00000120: 2fe5 013d 2e2a 24bd d207 a2bc 92a6 ecba
00000130: 764b 063e f0b5 dfbd ac3a 123e 91dc 873d
00000140: 74e1 963b 98e7 943d ca14 10be e132 6fbd
00000150: 23d2 e03c 9431 603d c51c efbd 9770 2e3e
00000160: df96 b83c da58 173e d9d7 8dbd f15e aebd
00000170: cfbc fa3d 6f94 683d 4c38 373d 6b73 00be
00000180: adef 8b3d 2585 2f3d c813 7cbb 6bd4 c9bb
00000190: e274 9ebb 63e2 1fbe d828 d53d f160 0d3d
000001a0: 7bbb 353e 4fa3 fa3d 2992 d2bc b881 633b
000001b0: 8926 60bd e43b c53d fe6b 403d bf47 3d3d
000001c0: b9ad 833d 09aa 303d 280f e93d 9564 7c3d
000001d0: 07de 2fbe adf0 e0bc 986f 1abe 02da f13c
000001e0: c2f2 6f3c 491e bc3d 4e70 6cbd cdda 813d
000001f0: f8de 1a3d ea00 d33d 0eeb 9a3c aa69 67bd
00000200: bf0e d6bd 95b4 093d f944 1abe f126 4bbd
00000210: 0bce babd 4488 52bd 4db6 e43d 90e1 7d3c
00000220: f191 e1bc 0d45 00be b247 9cbc 7429 5abc
00000230: eea3 273e d400 2c3e a3f5 22be e2cd 1c3e
00000240: c87e ed3c 7303 cdbd 863a 67ba 043c b53d
00000250: e726 703d 10f8 fbbd ab52 71bd 18b3 24bd
00000260: a7af 68bd d47f 3bbd 0bd0 eabc 6ef9 0c3e
00000270: c1a2 2abe 34b6 653d cb3d e43d 7904 b63c
00000280: acc8 ff3d 6214 a7bd bb25 2d3e be7d cd3c
00000290: bdd7 fdbc cdf6 2dbd 72e6 05be 920f 6cbc
000002a0: 39d1 b9bd d1c6 293e 58c3 263d 46b8 2fbe
000002b0: 1cf5 2239 b041 0ebe 17f0 a83d f4eb 8abb
000002c0: 8420 b5bd b99a 13be 71a2 ed3c 5c75 9bbd
000002d0: 8b59 063e de1c c23a 2bda a83d 00c8 25bc
000002e0: ad1b 6abc 5b57 a93a 873b 9c3d efbc 043e
000002f0: 5e3a b0bd 3d20 43bc 252e 1b38 ad53 2bbd
00000300: cb88 9a3d 84df 00bd e919 173c 5fe7 073d
00000310: d0fa d7bc db26 0cbe 839f 9bbd 5e55 cabd
00000320: a8a1 3339 05f8 bebd 51a1 8a3d 53ab d13a
00000330: 304a d13c f71d 033d 9480 2d3b fca6 48bd
00000340: 4fb2 b2bc acd0 e63c 38ad 7a3d 1bd4 003e
00000350: f719 18be fea3 253e 42f5 ac3b c79f 0cbe
00000360: d971 1cbd 9e32 4dbd dd60 87bc 06dc b43b
00000370: 0a79 d53d ccdf 193a a6d2 183e bf5b 64bd
00000380: 3eac 303e 9e4c b5bd 64c0 2b3e 1543 0bbe
00000390: 759c 153e 8fcb ad3d 0809 e13d 48d0 00bc
000003a0: e9c1 fabc a90d 0d3d d887 c33b c9e6 ad3c
000003b0: 9af7 523d e1b8 d83c 89c2 f0bd d443 6f3d
000003c0: 3698 4e3d 1384 9b3d 1c37 0abd 43d8 323d
000003d0: db25 e9bd 8bc3 c23c eca2 383c 2942 0bbe
000003e0: e0de ddbd 9269 febc 3670 1fbe 9817 0abd
000003f0: f789 7c3d b392 013d 82dd 8ebd 3451 593d

encoder_c.convs.0.bias f4 [64]
-0.0019219788 0.0027345156 -0.0008549502 0.012203127 0.020477537 -0.001313916 0.017907018 -0.015523488
-0.020909721 0.0007470011 -0.0104204295 -0.004368063 -0.004027388 -0.0007662943 -0.007418295 0.01093185
0.000400709 0.0073732045 -0.0026644492 0.0043528965 0.000106406216 0.0024323515 0.0019139074 0.003320247
0.011887527 0.015189097 0.012823631 0.00016122319 0.012811313 -0.017037777 -0.003426608 -0.0036984854
0.0076351245 0.0042317994 -0.0012202092 0.008214912 -0.0008729179 0.007892979 -0.0058758925 0.012886001
0.012007975 -0.011792161 -0.0101619 -0.015707267 -0.009072214 0.00301751 -0.00036589117 -0.0051506865
0.007863337 -0.0031983291 0.0001750528 0.0013683718 -0.0031503069 -0.007164519 -0.00827208 0.006727368
-0.0082431305 0.0069105932 -0.0092748925 0.004118253 -0.007884974 0.005804547 0.0039147227 -0.01567488
00000000: e8ea fbba 8f35 333b bd1e 60ba a0ef 473c
00000010: 82c0 a73c b437 acba bdb1 923c 3a56 7ebc
00000020: dd4a abbc 65d2 433a 73ba 2abc f821 8fbb
00000030: 2ef8 83bb 24e1 48ba 2b15 f3bb 811b 333c
00000040: 4016 d239 ec9a f13b 0a9e 2ebb bea2 8e3b
00000050: 6726 df38 1668 1f3b 13dc fa3a 8098 593b
00000060: e7c3 423c b1db 783c 351a 523c 050e 2939
00000070: 8be6 513c cf92 8bbc f190 60bb 4a62 72bb
00000080: 1130 fa3b e8aa 8a3b 6def 9fba d797 063c
00000090: 87d4 64ba 8e51 013c 8f8a c0bb ce1f 533c
000000a0: 19bd 443c e833 41bc 197e 26bc 87ac 80bc
000000b0: a0a3 14bc 6bc1 453b 15d5 bfb9 17c7 a8bb
000000c0: 3ad5 003c 0f9b 51bb 618e 3739 f05a b33a
000000d0: 6175 4ebb 57c4 eabb 9e87 07bc 4171 dc3b
000000e0: 320e 07bc 4272 e23b b8f5 17bc 69f2 863b
000000f0: fa2f 01bc 1234 be3b 1347 803b 9b68 80bc

encoder_c.convs.1.weight f4 [64, 64]
-0.15707462 0.17386976 -0.030544626 -0.023392342 0.16108671 7.918608e-05 -0.01747867 0.0520672
-0.019872962 0.016843827 0.040455833 0.014918595 -0.0068228645 0.039804373 -0.14576057 0.16217488
-0.0762587 0.22281045 0.07409495 0.12265 0.20726617 0.006509093 0.02331602 0.24348739
-0.08569687 0.05190557 -0.09282798 0.0046974854 -0.077190384 -0.028562063 0.15945962 0.17953616
0.04424488 0.1224387 -0.070972055 -0.020164613 -0.045598716 0.11446317 -0.15654425 -0.13853498
0.1851291 -0.1185404 -0.053685997 -0.013609724 0.09105596 0.1467723 -0.016118063 0.10784793
0.10017086 -0.006839475 -0.11562338 -0.095699534 -0.10792868 0.15221897 -0.16463749 0.19604388
-0.012084949 0.19355375 -0.2010984 -0.060060546 0.022820596 0.036295053 0.09717985 0.13258128
-0.003729588 0.026103012 -0.0027266596 0.0013125916 0.083954036 -0.01464334 0.022108495 -0.048763037
-0.07743886 -0.008254114 -0.030423496 -0.059783485 0.029307498 0.09207552 0.081126995 -0.006344005
-0.03710531 0.07004989 0.08949677 0.12838814 0.16581497 -0.03622828 0.1523449 0.18412699
0.019299468 0.121529415 -0.06533991 0.0023758246 -0.011759614 0.03951925 -0.15544064 0.012909911
0.042913534 0.0558691 0.08806345 0.000959271 -0.05661352 0.0014647723 0.10895424 0.12176461
0.15396199 -0.051883698 0.22379224 -0.1394079 -0.01741243 0.033789948 -0.113147385 -0.021297041
-0.13077918 -0.00077799556 0.15296307 -0.112765476 -0.057453793 0.07859331 -0.14281993 -0.16116787
-0.15809551 -0.1560909 -0.026313499 0.002448607 -0.14993584 0.03542759 0.059846256 -0.01110482
0.18356182 0.14148287 0.00457744 -0.025441255 0.0013073091 -0.00088372285 -0.07848619 -0.18230869
-0.020752363 -0.011914953 0.003530586 0.040452786 0.0032370705 0.06757733 0.02528442 0.16776687
0.116880484 0.1039415 0.124066986 -0.08602868 -0.040903587 -0.058883876 -0.13766767 -0.09928653
0.04533059 0.09320219 -0.07451048 -0.006282095 -0.043088276 -0.046672933 -0.02888551 0.020470463
-0.054959312 0.05717183 -0.13894545 -0.0066278847 0.14577729 -0.042041305 -0.065325655 -0.05909851
-0.14266646 -0.011075592 -0.14954035 0.08201415 -0.12659384 0.11270575 0.08180635 0.092813134
0.16237842 0.018487621 -0.02336791 -0.038841106 -0.004217738 0.032447815 0.09104845 -0.19371022
0.0016612102 -0.0698277 0.13171615 -0.022127451 -0.12707306 -0.055278707 0.03186736 -0.15893556
-0.07476842 -0.14495012 -0.02014161 0.029186327 0.047821105 -0.0042795185 -0.1806985 -0.10202407
0.050425954 -0.036884025 -0.011544836 0.027754955 0.023694731 -0.117660604 0.04211938 0.13370925
-0.05051701 0.07218814 -0.1148567 0.003088594 0.07298429 0.001655716 0.013682597 -0.0938705
-0.031938598 0.077776715 0.06467428 -0.005592136 -0.013593127 0.1598034 -0.06036681 -0.06360526
-0.014560846 0.11667174 0.041077383 0.02442895 -0.030411126 0.18923105 0.01330941 -0.05597181
0.014253726 -0.05145978 0.022574503 -0.17850874 0.09530371 0.022602715 0.023512878 -0.01435414
0.0697366 -0.0010309337 -0.13002329 0.0012022187 0.017142408 -0.04859881 -0.1190446 -0.16028428
0.02336315 -0.0014825948 0.023840575 0.03938831 0.09766463 0.015517094 0.04526423 -0.12787527
00000000: 2bd8 20be ea0a 323e b938 fabc 4ca1 bfbc
00000010: eaf3 243e b410 a638 6e2f 8fbc 6b44 553d
00000020: 9fcc a2bc 11fc 893c 04b5 253d 1f6d 743c
00000030: 5692 dfbb e909 233d 4242 15be 2c11 263e
00000040: 852d 9cbd 6c28 643e 18bf 973d ec2f fb3d
00000050: 953d 543e 3b4a d53b 3d01 bf3c c254 793e
00000060: d781 afbd ef9a 543d 991c bebd 5ded 993b
00000070: fe15 9ebd fdfa e9bc 6249 233e 54d8 373e
00000080: 1f3a 353d 24c1 fa3d cc59 91bd 4230 a5bc
00000090: b8c5 3abd ab6b ea3d 234d 20be 1ddc 0dbe
000000a0: 7c92 3d3e 4fc5 f2bd d9e5 5bbd 52fb 5ebc
000000b0: 8c7b ba3d 7a4b 163e 070a 84bc 60df dc3d
000000c0: 6126 cd3d ad1d e0bb f3cb ecbd 1efe c3bd
000000d0: b609 ddbd 4adf 1b3e bb96 28be babf 483e
000000e0: f3ff 45bc f432 463e bdec 4dbe 0c02 76bd
000000f0: 42f2 ba3c 1faa 143d 3b06 c73d 63c3 073e
00000100: 1a6c 74bb fcd5 d53c c2b1 32bb 440b ac3a
00000110: 18f0 ab3d 9fea 6fbc e01c b53c c0bb 47bd
00000120: 4498 9ebd 433c 07bc b23a f9bc 87df 74bd
00000130: 4716 f03c 1792 bc3d e925 a63d 5fe1 cfbb
00000140: bdfb 17bd 5176 8f3d 154a b73d 2e78 033e
00000150: 66cb 293e 1b64 14bd 4d00 1c3e c98b 3c3e
00000160: eb19 9e3c 6ae4 f83d eed0 85bd b9b3 1b3b
00000170: 65ab 40bc f0de 213d d52b 1fbe 1784 533c
00000180: 1ac6 2f3d ffd6 643d 9c5a b43d 9677 7b3a
00000190: 94e3 67bd 9afd bf3a 6723 df3d b95f f93d
000001a0: 36a8 1d3e 0084 54bd cb29 653e f2c0 0ebe
000001b0: 83a4 8ebc 5467 0a3d d1b9 e7bd 2277 aebc
000001c0: faea 05be 66f2 4bba 5aa2 1c3e 96f1 e6bd
000001d0: ab54 6bbd 88f5 a03d 633f 12be 3109 25be
000001e0: cae3 21be 4bd6 1fbe 688f d7bc cf78 203b
000001f0: c888 19be 851c 113d 5921 753d fef0 35bc
00000200: a1f7 3b3e e3e0 103e 5afe 953b 2e6a d0bc
00000210: 045a ab3a a3a9 67ba 5ebd a0bd 21af 3abe
00000220: dc00 aabc ef36 43bc 6761 673b d2b1 253d
00000230: 0825 543b fc65 8a3d 4621 cf3c 14cb 2b3e
00000240: 095f ef3d 48df d43d d516 fe3d ce2f b0bd
00000250: 858a 27bd 3830 71bd c1f8 0cbe bc56 cbbd
00000260: 92ac 393d cae0 be3d f398 98bd 08da cdbb
00000270: 557d 30bd 1e2c 3fbd 4ea1 ecbc acb1 a73c
00000280: 041d 61bd 022d 6a3d b747 0ebe ba2e d9bb
00000290: a446 153e 8133 2cbd 75c9 85bd 4711 72bd
000002a0: 2817 12be 6676 35bc 1b21 19be 09f7 a73d
000002b0: d1a1 01be 46d2 e63d 168a a73d d014 be3d
000002c0: 8746 263e 5a73 973c 0f6e bfbc da17 1fbd
000002d0: f334 8abb 00e8 043d 9c77 ba3d f95b 46be
000002e0: f7bc d93a d301 8fbd 99e0 063e a144 b5bc
000002f0: 711f 02be ed6b 62bd 5987 023d 01c0 22be
00000300: 2f20 99bd ce6d 14be 0500 a5bc 2a18 ef3c
00000310: 10e0 433d 343b 8cbb 0709 39be fff1 d0bd
00000320: 728b 4e3d b413 17bd 8d26 3dbc 5c5e e33c
00000330: 741b c23c 0bf8 f0bd 5f85 2c3d 14eb 083e
00000340: edea 4ebd 60d7 933d fd39 ebbd 026a 4a3b
00000350: ca78 953d 9c04 d93a f92c 603c 2d3f c0bd
00000360: 0cd2 02bd 6649 9f3d f373 843d 3d3e b7bb
00000370: b5b5 5ebc 81a3 233e 3043 77bd 7943 82bd
00000380: 9d90 6ebc 98f1 ee3d c240 283d 391f c83c
00000390: c120 f9bc c9c5 413e b60f 5a3c b242 65bd
000003a0: 7688 693c 7ec7 52bd 2aee b83c ffca 36be
000003b0: 972e c33d 5429 b93c 149e c03c a02d 6bbc
000003c0: 10d2 8e3d 6520 87ba d324 05be c493 9d3a
000003d0: 3c6e 8c3c 8c0f 47bd a8cd f3bd 9021 24be
000003e0: 1464 bf3c a053 c2ba 4f4d c33c a355 213d
000003f0: 6504 c83d 693b 7e3c fc66 393d bcf1 02be

encoder_c.convs.1.bias f4 [64]
0.0011281968 -0.0064850715 -0.0072977412 -0.00683831 0.006092448 0.014340176 -0.0019576626 0.0042698667
0.0057362337 0.028238192 -0.0016067086 0.022942347 0.0026160679 -0.0018261832 0.015636912 0.007617133
-0.013164737 -0.0076201763 -0.006828882 0.011879648 -0.008351647 0.022133205 -0.00400346 0.0028714093
-0.0020538413 -0.0023505723 0.0049693347 -0.014621065 -0.008004992 0.0057978937 -0.0042397743 0.007648804
-0.0040223775 -0.005150735 0.0075299307 -0.010021766 0.02119837 0.0066357986 0.020446507 0.014363938
-0.0041608745 0.00023054481 -0.0006050931 -0.0063574696 -0.009234002 -0.0019123337 0.007265975 0.0026252372
0.0063696024 -0.011414118 0.0043564616 0.00594879 0.02871043 0.0039399057 0.0021445514 -0.0017194189
-0.0017492208 -0.010518051 0.0063846484 -0.016172264 0.010441448 -0.002528303 0.030363102 -0.008835344
00000000: 01e0 933a b980 d4bb e421 efbb e713 e0bb
00000010: 28a3 c73b 0ff3 6a3c 214c 00bb 3dea 8b3b
00000020: 04f7 bb3b c853 e73c 3298 d2ba 97f1 bb3c
00000030: 5672 2b3b 8a5c efba fb18 803c 2599 f93b
00000040: e9b0 57bc acb2 f9bb d0c4 dfbb dba2 423c
00000050: 59d5 08bc b250 b53c 752f 83bb 412e 3c3b
00000060: bd99 06bb 0f0c 1abb cdd5 a23b 318d 6fbc
00000070: 5f27 03bc 42fc bd3b ceed 8abb d2a2 fa3b
00000080: 26ce 83bb 7fc7 a8bb a3bd f63b 5532 24bc
00000090: 34a8 ad3c 1d71 d93b 6f7f a73c b956 6b3c
000000a0: f257 88bb 67be 7139 1c9f 1eba 5252 d0bb
000000b0: 364a 17bc 45a7 faba 6a17 ee3b 2c0c 2c3b
000000c0: 19b8 d03b 4802 3bbc a6c0 8e3b 11ee c23b
000000d0: 2332 eb3c 531a 813b 9a8b 0c3b 205e e1ba
000000e0: 1c46 e5ba e753 2cbc 5036 d13b b27b 84bc
000000f0: 9b12 2b3c e3b1 25bb 0abc f83c 1ec2 10bc

encoder_c.convs.2.weight f4 [64, 64]
-0.09642265 -0.15630126 -0.11184159 -0.09580262 0.14356254 -0.10679727 -0.058932405 -0.05276834
-0.092344195 -0.09423014 -0.060692597 -0.11866484 -0.015797695 -0.14931034 -0.072851874 -0.022019582
0.1230133 -0.047495015 -0.06863646 -0.000537662 0.13108733 -0.1758664 0.1522822 -0.06664743
0.017946996 0.14070162 0.11064949 0.005954506 -0.21267349 -0.067006394 0.12218493 0.07532
0.13036497 -0.026326422 -0.112803824 -0.12894964 0.17677338 0.17275491 0.13275562 -0.0013231582
0.09252727 0.14237456 0.026441362 0.11387122 0.0073885354 -0.13482042 -0.021833098 0.07620714
-0.008345765 0.11535639 -0.18255238 -0.12404792 0.08360592 -0.20248353 -0.1621666 -0.1884677
-0.07136035 0.08909119 -0.19120076 -0.22458741 0.15649036 -0.022573793 0.14445668 0.022241822
-0.11121924 0.1830477 -0.15695623 0.0574451 0.027645806 -0.04186611 0.1376647 -0.015777638
-0.063253835 -0.04989544 -0.15700637 -0.12564833 -0.13607961 -0.07995349 0.108858846 0.017460994
-0.08428299 0.12669916 0.0125725325 -0.20956941 0.12411077 -0.16812372 0.024480881 -0.09150825
0.20436262 -0.13047822 -0.14966331 -0.103540175 0.13840185 -0.16553472 0.036046617 -0.18017907
-0.11218556 0.012129831 -0.09748011 0.07264132 -0.114808284 0.11055855 0.036950544 0.14800844
-0.04347191 0.14774564 0.028607886 0.059596095 -0.20060365 0.112596184 -0.00064606086 0.13680558
0.15986212 -0.0071492125 -0.06820272 -0.11892168 -0.11273947 0.05455421 -0.0036926174 -0.18423657
0.08863706 0.017575482 0.19601339 0.17239058 0.19626048 -0.06745377 0.1273522 0.12742265
-0.027009167 0.043992538 -0.042809095 0.027774032 0.03367002 0.020878658 -0.061375376 -0.044386107
0.00093735673 0.04066664 0.019528743 0.029871777 -0.012851609 -0.001391049 -0.009125765 -0.009737037
-0.00054889725 -0.0059411004 -0.019076964 -0.05534927 0.02304594 -0.0014821178 0.0054575186 -0.0049782987
-0.0021958326 -0.0059892857 -0.049062796 0.032373812 -0.011798376 0.06987912 0.04036486 0.0028882541
-0.034247484 -0.000771688 0.06717884 -0.0012393611 0.00086727674 -0.00019829448 -0.010211219 -0.002333713
7.3315396e-06 -0.00041859964 0.028683946 0.004269051 -0.0033158695 -0.0007408501 -0.0017191862 0.045678806
-0.0067791836 -0.029573448 -0.010413552 0.001657242 -0.042998053 0.00068269024 0.052646752 -0.00082823203
0.0011216983 0.008034839 -0.002160981 0.020214628 0.024205266 -0.0018187325 0.0044923257 0.00085224956
-0.01918042 -0.042968113 -0.032753937 0.016470997 0.00020469066 0.022063762 -0.073441826 0.0007312777
0.00014518443 -0.07326845 0.0039337846 -0.0048050825 -0.0026766662 0.011025317 0.0074648564 0.0008223671
5.2979765e-05 -0.027021082 0.0043660435 0.051775 0.0015054588 -0.00053872674 0.019905673 0.000970482
-0.0534112 0.017982151 0.0357378 0.000106744665 -0.033578414 -0.041451953 0.011101495 0.0004135693
-0.022942508 0.00011975137 -0.060218647 -0.00075832964 0.036402084 -0.037510246 -0.016741488 -0.0023521285
0.00023571329 0.013157509 -0.030748248 0.04378367 0.01105573 0.00010199521 -0.002138697 -0.017248293
0.00010524256 0.0005306603 -0.0031466472 0.0010060209 0.0002738743 -0.001233687 -0.0019621844 0.015225502
0.0006269768 -0.052485812 0.0023275586 0.025279988 0.0010152742 0.040011417 0.0071043326 -0.01048741
00000000: 3d79 c5bd 700d 20be 340d e5bd 2a34 c4bd
00000010: 0f02 133e 87b8 dabd 1b63 71bd 9d23 58bd
00000020: f41e bdbd bbfb c0bd cd98 78bd 8d06 f3bd
00000030: 2b6a 81bc cfe4 18be 5d33 95bd 6962 b4bc
00000040: 66ee fb3d 228a 42bd 4691 8cbd e3f1 0cba
00000050: c23b 063e 5216 34be ddef 1b3e 737e 88bd
00000060: 9405 933c 1614 103e 339c e23d 041e c33b
00000070: 14c7 59be a63a 89bd 183c fa3d 5f41 9a3d
00000080: 657e 053e 82aa d7bc b105 e7bd 600b 04be
00000090: 1504 353e aae6 303e 17f1 073e d26d adba
000000a0: f07e bd3d a3ca 113e 8e9b d83c 5035 e93d
000000b0: 871b f23b 5d0e 0abe 53db b2bc 7d12 9c3d
000000c0: adbc 08bc f93f ec3d 03ef 3abe d60c febd
000000d0: 9539 ab3d d857 4fbe 000f 26be adfd 40be
000000e0: 6025 92bd 7175 b63d 22ca 43be 3efa 65be
000000f0: 023f 203e adec b8bc 74ec 133e 7b34 b63c
00000100: eac6 e3bd db70 3b3e 22b9 20be 8e4b 6b3d
00000110: 7579 e23c cc7b 2bbd faf7 0c3e 1b40 81bc
00000120: 3a8b 81bd 295f 4cbd 47c6 20be f5a9 00be
00000130: 7458 0bbe a8be a3bd 63f1 de3d 5c0a 8f3c
00000140: 8f9c acbd 6dbd 013e 06fd 4d3c 5d99 56be
00000150: ca2d fe3d a028 2cbe 218c c83c ad68 bbbd
00000160: 6f44 513e 159c 05be 5741 19be df0c d4bd
00000170: 37b9 0d3e ef81 29be 9ea5 133d dd80 38be
00000180: 8bc1 e5bd 33bc 463c a7a3 c7bd f9c4 943d
00000190: 9b20 ebbd 856c e23d 7459 173d 868f 173e
000001a0: 9a0f 32bd a24a 173e 165b ea3c 091b 743d
000001b0: 0b6b 4dbe d498 e63d 695c 29ba c316 0c3e
000001c0: e5b2 233e f143 eabb dead 8bbd 368d f3bd
000001d0: f4e3 e6bd 3c74 5f3d d7ff 71bb 83a8 3cbe
000001e0: 5987 b53d 75fa 8f3c bcb7 483e 2887 303e
000001f0: 82f8 483e 3425 8abd 9d68 023e 157b 023e
00000200: 5442 ddbc 8531 343d 9758 2fbd 5e86 e33c
00000210: 93e9 093d b809 ab3c bf64 7bbd 35ce 35bd
00000220: f2b8 753a 1092 263d befa 9f3c a8b5 f43c
00000230: 8e8f 52bc dc53 b6ba 3c84 15bc 1888 1fbc
00000240: dfe3 0fba 90ad c2bb 4b47 9cbc ebb5 62bd
00000250: d7ca bc3c 9f43 c2ba fcd4 b23b ff20 a3bb
00000260: f5e7 0fbb c541 c4bb 12f6 48bd 679a 043d
00000270: fa4d 41bc c91c 8f3d a055 253d dd48 3d3b
00000280: 1747 0cbd 1b4b 4aba 0f95 893d 0f72 a2ba
00000290: f559 633a 45ed 4fb9 f54c 27bc 35f1 18bb
000002a0: 7201 f636 7e77 dbb9 98fa ea3c 65e3 8b3b
000002b0: 0f4f 59bb 9c35 42ba 5156 e1ba b319 3b3d
000002c0: ea23 debb 0444 f2bc 9a9d 2abc d037 d93a
000002d0: ba1e 30bd 91f6 323a 1fa4 573d b61d 59ba
000002e0: f305 933a 8fa4 033c 3f9f 0dbb 2699 a53c
000002f0: 1f4a c63c 8962 eeba 5c34 933b 8069 5f3a
00000300: 4220 9dbc 55ff 2fbd fe28 06bd 2fee 863c
00000310: 3ba2 5639 10bf b43c ab68 96bd 37b3 3f3a
00000320: a63c 1839 c50d 96bd fae6 803b f473 9dbb
00000330: 026b 2fbb 88a3 343c c19b f43b 1f94 573a
00000340: 9736 5e38 515b ddbc 0711 8f3b 0612 543d
00000350: d152 c53a 5739 0dba 3911 a33c f267 7e3a
00000360: b4c5 5abd 4e4f 933c cd61 123d 1bdc df38
00000370: 8589 09bd 86c9 29bd 0be3 353c 55d4 d839
00000380: edf1 bbbc 0723 fb38 d4a7 76bd a4ca 46ba
00000390: 5a1a 153d 58a4 19bd 7225 89bc 2b26 1abb
000003a0: ce29 7739 9892 573c c0e3 fbbc 8156 333d
000003b0: 1823 353c 43e6 d538 6229 0cbb 4b4c 8dbc
000003c0: abb5 dc38 031c 0b3a fb37 4ebb 76dc 833a
000003d0: c996 8f39 abb3 a1ba fe97 00bb 6274 793c
000003e0: b35b 243a 5dfb 56bd f489 183b fa17 cf3c
000003f0: f312 853a 03e3 233d 76cb e83b 63d3 2bbc

encoder_c.convs.2.bias f4 [64]
-0.00805482 -0.0077241138 0.0075773755 -0.008097181 0.006513619 0.007653474 -0.0077034403 0.0076500853
0.0066855396 0.0077259424 0.007817862 -0.0071291174 0.0069832583 -0.006526575 -0.007001389 -0.00765367
0.00032146458 0.0019856268 -0.0072091427 0.007296233 -0.008171255 -0.008578085 -0.009212863 0.0071946173
-0.007925472 -0.0070673325 -0.0013556725 -0.009598077 -0.008742545 0.0073951227 0.004595998 0.007325743
-0.007619297 -0.014887123 0.0077233966 -0.0045115934 0.008296877 -0.0068112407 -0.007084105 -0.007996862
-0.0035279049 -0.0075150677 0.001182208 0.009111804 -0.008279198 -0.008485653 -0.007589015 0.0072706817
-0.005363306 4.5127734e-05 0.007997324 0.008090722 0.008310403 -0.008286944 -0.0070989775 -0.0067237006
0.0069413744 0.008728264 -0.008316324 -0.008197769 0.007761263 -0.007845291 0.0074150916 -0.007953778
00000000: 5df8 03bc 901a fdbb a24b f83b 0aaa 04bc
00000010: 3270 d53b fec9 fa3b 246d fcbb 91ad fa3b
00000020: 5f12 db3b e729 fd3b 7d16 003c 5f9b e9bb
00000030: d1d3 e43b e1dc d5bb e86b e5bb a3cb fabb
00000040: 3f8a a839 4a21 023b ac3a ecbb 3d15 ef3b
00000050: bae0 05bc 198b 0cbc 8cf1 16bc d3c0 eb3b
00000060: d7d9 01bc 1595 e7bb d2b0 b1ba 4141 1dbc
00000070: e43c 0fbc c952 f23b 079a 963b c90c f03b
00000080: 4cab f9bb 1fe9 73bc 8c14 fd3b fdd5 93bb
00000090: a0ef 073c d430 dfbb c821 e8bb 4505 03bc
000000a0: 6c34 67bb f540 f6bb 51f4 9a3a ad49 153c
000000b0: 79a5 07bc 6907 0bbc 46ad f8bb e63e ee3b
000000c0: acbe afbb 8947 3d38 3507 033c f38e 043c
000000d0: 5b28 083c f6c5 07bc 8a9e e8bb 7d52 dcbb
000000e0: 7874 e33b fe00 0f3c 3141 08bc ef4f 06bc
000000f0: 3152 fe3b 8989 00bc 4cfa f23b 9050 02bc

encoder_b.convs.0.weight f4 [116, 64]
0.11498367 -0.0031325046 -0.02587216 0.09399669 0.10643802 0.03623489 -0.043655768 0.041062634
-0.108843 -0.07980181 -0.16045122 0.00046238763 0.0598685 0.13306311 0.15241413 -0.12901583
-0.17251065 0.1013052 -0.15701589 -0.06693305 0.15864815 -0.117237344 0.14166354 -0.16426405
0.17613506 -0.11264461 -0.01932384 0.026319377 -0.100854956 -0.13771099 -0.11610937 0.15295562
-0.14406116 -0.04551581 -0.01525224 -0.11759371 0.16198142 -0.11140251 0.10529862 -0.17103304
-0.09413037 -0.09874734 -0.15459016 0.16062808 0.15474798 0.17600337 -0.0053571016 -0.021613406
-0.030400295 -0.06642985 0.03231762 0.1326914 -0.17196526 -0.18179846 0.08281094 0.13599291
0.15818462 0.018594338 0.10772291 0.09196388 0.0046926956 0.16633193 0.1509678 -0.026414119
-0.003765374 0.16192351 -0.16717124 0.06547642 0.04502278 -0.12706618 -0.1458556 -0.056707114
-0.083766006 -0.015869591 0.12712166 -0.13356069 -0.13673413 0.13559528 0.040366866 -0.102643676
-0.028451258 0.17469016 0.112426355 0.068357326 -0.17902905 -0.17327267 -0.050587863 -0.15603587
-0.0041577015 -0.067704976 0.13380623 -0.1125253 -0.17877866 -0.09945796 0.015269805 0.17016008
-0.025064021 -0.16871765 0.13205203 0.042568717 0.021504126 -0.13519813 -0.025750736 0.08294252
0.13288787 -0.13489918 0.09961921 -0.06997678 -0.05970498 0.1678723 0.17702636 0.06298055
0.1737433 0.13323115 -0.15511878 0.14309622 0.064883225 -0.09960968 0.16788512 0.07668437
-0.15958133 0.10360042 -0.11232232 0.013017414 -0.034310706 -0.08978075 0.074241586 0.07723952
0.07317532 -0.018236334 -0.13792495 -0.07562796 -0.1657655 -0.17208056 0.10720104 -0.16679835
0.080534846 0.089798376 0.0016359751 0.14391884 0.1678713 0.045889463 -0.1510772 0.14005822
0.03214274 0.07289096 0.16639376 -0.13032296 0.16554327 0.0959782 -0.043422606 -0.026628869
0.119881645 -0.18106954 0.17313418 -0.038336016 -0.013466808 0.14115563 0.061913498 -0.16111808
-0.13495764 0.047204696 0.019258961 0.10064175 0.12679447 0.14944425 0.16394356 -0.01776378
-0.035876796 -0.020899985 -0.047020413 0.0738158 0.062022753 -0.053960558 -0.07775843 0.024925642
-0.09469091 -0.0866103 0.13071527 -0.16024706 -0.015430144 0.08125353 0.011157373 -0.14072935
0.16757245 0.1820759 -0.076842576 -0.17161956 -0.176766 -0.063347735 -0.05297704 -0.15090306
-0.011318387 0.019032458 -0.054520886 0.0031695915 0.16022806 -0.057473335 -0.0046824445 0.10439783
0.13917369 0.00604534 -0.16179338 -0.12629297 -0.031409495 -0.018656475 0.046912417 0.1759269
-0.061229087 -0.03527196 -0.018556882 0.09186022 -0.10378359 0.08654386 0.08144332 0.014646533
0.06732771 0.13386104 -0.13498904 0.104628816 0.054342896 0.11543052 0.10506733 0.16269544
-0.18189667 -0.033068713 0.1204295 0.0629405 0.031419463 -0.024202712 -0.09826285 0.13236307
0.00059206074 0.12173651 -0.043559853 -0.12612431 0.057222042 0.12543365 0.15102859 0.1104124
0.16860807 -0.13933717 0.07520995 0.11898569 0.16471648 0.09308397 0.069714755 0.08899907
-0.18147343 0.13769476 -0.11276107 0.009844666 -0.14817981 0.030935831 0.15123074 0.032049414
00000000: 8f7c eb3d b54a 4dbb daf1 d3bc 5681 c03d
00000010: 2dfc d93d 096b 143d 64d0 32bd 4b31 283d
00000020: 14e9 debd 226f a3bd 534d 24be 9e6c f239
00000030: ac38 753d b241 083e 7312 1c3e ba1c 04be
00000040: a2a6 30be 1a79 cf3d c6c8 20be 3214 89bd
00000050: a974 223e 221a f0bd 3f10 113e d634 28be
00000060: c05c 343e 38b2 e6bd 084d 9ebc bc9b d73c
00000070: 0b8d cebd 1c04 0dbe c0ca edbd 66a0 1c3e
00000080: c584 13be c96e 3abd 88e4 79bc f9d4 f0bd
00000090: 75de 253e 0027 e4bd cea6 d73d 4923 2fbe
000000a0: 6cc7 c0bd 0c3c cabd e24c 1ebe b07b 243e
000000b0: 4176 1e3e 3a3a 343e a08a afbb 990e b1bc
000000c0: 0a0a f9bc 600c 88bd 7b5f 043d 41e0 073e
000000d0: a917 30be 6029 3abe c898 a93d ba41 0b3e
000000e0: 26fb 213e 2753 983c d49d dc3d 8f57 bc3d
000000f0: 2fc5 993b eb52 2a3e 4e97 1a3e 6c62 d8bc
00000100: 7ec4 76bb 47cf 253e f02e 2bbe 8018 863d
00000110: ce69 383d a31d 02be 2c5b 15be b845 68bd
00000120: 838d abbd f200 82bc 2e2c 023e 22c4 08be
00000130: 0804 0cbe 7dd9 0a3e ba57 253d d936 d2bd
00000140: 9d12 e9bc fae1 323e ca3f e63d edfe 8b3d
00000150: 6453 37be 646e 31be 3835 4fbd dec7 1fbe
00000160: 543d 88bb e8a8 8abd 8004 093e aa73 e6bd
00000170: c111 37be 9db0 cbbd 342e 7a3c 723e 2e3e
00000180: 1053 cdbc 52c4 2cbe a638 073e 895c 2e3d
00000190: 6c29 b03c 6171 0abe 35f3 d2bc c5dd a93d
000001a0: c213 083e 0323 0abe 2805 cc3d fc4f 8fbd
000001b0: 368d 74bd b7e6 2b3e 6646 353e f2fb 803d
000001c0: c3e9 313e bf6d 083e 75d7 1ebe d187 123e
000001d0: 7fe1 843d 2900 ccbd 14ea 2b3e b20c 9d3d
000001e0: 4a69 23be 752c d43d 3f09 e6bd fe46 553c
000001f0: 6289 0cbd f8de b7bd f90b 983d c12f 9e3d
00000200: f1dc 953d 5d64 95bc 333c 0dbe d5e2 9abd
00000210: 6ebe 29be e335 30be 388c db3d 30cd 2abe
00000220: 74ef a43d 36e8 b73d 376e d63a 765f 133e
00000230: 74e6 2b3e 97f6 3b3d fbb3 1abe 6c6b 0f3e
00000240: 1ba8 033d db47 953d 2063 2a3e 6273 05be
00000250: 2d84 293e 3890 c43d e7db 31bd c924 dabc
00000260: 8284 f53d 4b6a 39be 164a 313e 3a06 1dbd
00000270: e3a3 5cbc 1a8b 103e 0299 7d3d 23fc 24be
00000280: 5632 0abe b659 413d f8c4 9d3c 431d ce3d
00000290: 69d6 013e ea07 193e d2e0 273e 5985 91bc
000002a0: 8cf3 12bd 7236 abbc 7a98 40bd bd2c 973d
000002b0: 920b 7e3d bf05 5dbd d03f 9fbd dc30 cc3c
000002c0: 4fed c1bd be60 b1bd 39da 053e ce17 24be
000002d0: b7ce 7cbc 4068 a63d 6acd 363c 5b1b 10be
000002e0: 1d98 2b3e 1b72 3a3e a45f 9dbd 0abd 2fbe
000002f0: 2502 35be 75bc 81bd 74fe 58bd 5586 1abe
00000300: c270 39bc f5e9 9b3c 4b51 5fbd ecb8 4f3b
00000310: d312 243e 2969 6bbd 316f 99bb 88ce d53d
00000320: 8c83 0e3e fd17 c63b 2aad 25be f252 01be
00000330: 3ea7 00bd 77d5 98bc 3c27 403d 2e26 343e
00000340: 5acb 7abd 5579 10bd 9a04 98bc 3621 bc3d
00000350: 7e8c d4bd e83d b13d c1cb a63d 03f8 6f3c
00000360: 1ce3 893d de12 093e 913a 0abe a247 d63d
00000370: a896 5e3d d666 ec3d 8a2d d73d a299 263e
00000380: 1f43 3abe 0f73 07bd bea3 f63d f3e6 803d
00000390: b2b1 003d c444 c6bc 083e c9bd 2f8a 073e
000003a0: 8634 1b3a fe50 f93d d16b 32bd bb26 01be
000003b0: a961 6a3d ae71 003e 3da7 1a3e e51f e23d
000003c0: 98a7 2c3e 67ae 0ebe ad07 9a3d c5ae f33d
000003d0: 70ab 283e cfa2 be3d 9cc6 8e3d 2545 b63d
000003e0: 2cd4 39be dbff 0c3e 47ef e6bd 864b 213c
000003f0: 73bc 17be 246d fd3c 3bdc 1a3e 3f46 033d

encoder_b.convs.0.bias f4 [64]
0.0 0.0 0.0 0.0 0.0 0.0 0.0 0.0
0.0 0.0 0.0 0.0 0.0 0.0 0.0 0.0
0.0 0.0 0.0 0.0 0.0 0.0 0.0 0.0
0.0 0.0 0.0 0.0 0.0 0.0 0.0 0.0
0.0 0.0 0.0 0.0 0.0 0.0 0.0 0.0
0.0 0.0 0.0 0.0 0.0 0.0 0.0 0.0
0.0 0.0 0.0 0.0 0.0 0.0 0.0 0.0
0.0 0.0 0.0 0.0 0.0 0.0 0.0 0.0
00000000: 0000 0000 0000 0000 0000 0000 0000 0000
00000010: 0000 0000 0000 0000 0000 0000 0000 0000
00000020: 0000 0000 0000 0000 0000 0000 0000 0000
00000030: 0000 0000 0000 0000 0000 0000 0000 0000
00000040: 0000 0000 0000 0000 0000 0000 0000 0000
00000050: 0000 0000 0000 0000 0000 0000 0000 0000
00000060: 0000 0000 0000 0000 0000 0000 0000 0000
00000070: 0000 0000 0000 0000 0000 0000 0000 0000
00000080: 0000 0000 0000 0000 0000 0000 0000 0000
00000090: 0000 0000 0000 0000 0000 0000 0000 0000
000000a0: 0000 0000 0000 0000 0000 0000 0000 0000
000000b0: 0000 0000 0000 0000 0000 0000 0000 0000
000000c0: 0000 0000 0000 0000 0000 0000 0000 0000
000000d0: 0000 0000 0000 0000 0000 0000 0000 0000
000000e0: 0000 0000 0000 0000 0000 0000 0000 0000
000000f0: 0000 0000 0000 0000 0000 0000 0000 0000

encoder_b.convs.1.weight f4 [64, 64]
0.07466687 -0.013840897 0.049005866 0.06873875 -0.12547816 0.055560645 -0.12942533 -0.09634056
0.009618245 0.03763778 -0.08671754 -0.083137184 -0.09689312 0.06008932 0.10081256 -0.10274567
-0.026418235 -0.15599948 -0.17239258 0.18531097 0.03526266 0.13984357 -0.16752924 0.015926285
-0.03661242 0.10085228 0.15520427 0.046497304 -0.023385534 0.13482843 0.17186867 0.2130407
0.10852095 0.10337903 -0.052132566 -0.061114684 0.15414764 -0.17012446 -0.17425312 0.13375421
-0.18210942 -0.12632668 -0.001662162 -0.15196678 0.18432443 -0.15952112 -0.02932674 -0.115991086
0.030036194 -0.043026693 0.19264293 -0.15027872 0.11669708 -0.14707845 -0.18532474 0.123589866
-0.08566962 -0.2043891 -0.16513576 -0.17364301 0.111602716 -0.19626896 0.13160214 -0.14617184
-0.06988751 -0.108697176 -0.10800708 0.20187518 -0.15159753 -0.048670214 -0.12452505 0.05073219
-0.001388245 0.1612807 -0.0712359 0.1525088 -0.047484495 -0.12727913 -0.09437444 0.106086664
-0.10041099 -0.17938693 0.13092579 0.14071015 0.03212731 0.00042067014 -0.11729388 0.083091274
0.19830802 0.18831624 -0.07973244 0.16605073 0.09730225 -0.03319162 -0.03535098 0.19392148
-0.0052144104 0.014824525 -0.06964428 -0.09623464 0.027433274 -0.01874825 0.21504289 -0.12000654
0.09004956 -0.014326684 0.1500671 0.19261307 0.21322417 -0.046833422 0.17281437 -0.14886564
-0.17656599 0.053010657 -0.11951224 -0.07697118 -0.0690392 -0.0957863 -0.026715303 0.0886451
-0.15024908 0.19800024 -0.16554262 0.048631135 0.10889225 0.16820551 -0.07407201 0.16958939
0.10436904 0.18628544 0.110633716 0.07079877 -0.04829174 0.05553161 0.009411149 -0.11886819
-0.018973697 -0.09698531 0.021615151 0.056095418 -0.1284281 -0.0803505 0.17030683 0.19821213
-0.10175864 -0.1970267 0.14975859 -0.04131343 0.08688396 0.21338642 0.04891971 -0.21399125
-0.13655978 0.15429288 -0.01904919 -0.16349734 -0.15803654 0.16732389 -0.13974944 -0.1616356
0.065640464 -0.19936033 -0.1892638 -0.09829765 0.18177384 -0.10805359 -0.105542056 0.16644722
-0.11762561 0.2124516 -0.2088524 0.18845442 -0.13543347 -0.1717715 0.21288212 -0.08695406
-0.17065655 -0.18541545 -0.094345376 0.0030617116 -0.09337437 -0.19904262 -0.069056235 -0.08880396
0.09465367 -0.19383813 -0.14530386 0.099173985 0.03260977 0.053376716 0.10351235 0.13486259
-0.0793503 -0.17145126 0.029243737 0.13669088 0.21566935 -0.0037555243 0.19898173 -0.17093316
0.20866519 0.08961049 -0.14807783 0.088945396 -0.012850506 0.2080352 0.10420097 0.17610526
-0.14834607 0.03184186 0.081433006 0.11195225 0.19157141 0.12625334 -0.07872266 -0.0717004
-0.09937471 0.02868496 -0.013614367 -0.18297598 0.02379033 0.07448316 -0.21548645 0.027194483
-0.019998595 0.16905437 -0.18349274 0.083034284 0.07935474 0.030982811 -0.012487417 -0.21327266
0.029835422 0.104338765 -0.058620315 0.06942895 0.04771539 0.11536407 -0.1266272 -0.07459347
0.016806133 -0.16472211 0.20852825 0.076845616 0.20818038 0.1647106 0.11484331 -0.03837865
0.04352084 -0.12814832 0.11845082 0.15864405 -0.120709285 -0.008407286 -0.00647735 0.1477948
00000000: f2ea 983d eec4 62bc 60ba 483d e7c6 8c3d
00000010: 597d 00be 8f93 633d 1388 04be 334e c5bd
00000020: d895 1d3c 132a 1a3d f798 b1bd d443 aabd
00000030: e66f c6bd 3820 763d d176 ce3d 526c d2bd
00000040: 0e6b d8bc 54be 1fbe ae87 30be 29c2 3d3e
00000050: 946f 103d 2733 0f3e c98c 2bbe d777 823c
00000060: e8f6 15bd a48b ce3d deed 1e3e f573 3e3d
00000070: 0593 bfbc 7710 0a3e 57fe 2f3e 5727 5a3e
00000080: 3b40 de3d 63b8 d33d f588 55bd 6453 7abd
00000090: e1d8 1d3e 1b35 2ebe 696f 32be ddf6 083e
000000a0: e47a 3abe c85b 01be e7dc d9ba 2e9d 1bbe
000000b0: 8bbf 3c3e 8159 23be a23e f0bc bc8c edbd
000000c0: 770e f63c c23c 30bd 3044 453e aae2 19be
000000d0: e1fe ee3d bc9b 16be c5c5 3dbe af1c fd3d
000000e0: 8e73 afbd 604b 51be 5919 29be 79cf 31be
000000f0: f78f e43d bbfa 48be b6c2 063e 12ae 15be
00000100: 2f21 8fbd a09c debd d132 ddbd 5eb8 4e3e
00000110: 623c 1bbe 6b5a 47bd fd06 ffbd 8fcc 4f3d
00000120: c6f5 b5ba c526 253e 21e4 91bd 442b 1c3e
00000130: 1a7f 42bd 7655 02be 6347 c1bd f743 d93d
00000140: 47a4 cdbd 35b1 37be 6911 063e 5216 103e
00000150: ed97 033d 648d dc39 c637 f0bd c22b aa3d
00000160: 4211 4b3e f9d5 403e c34a a3bd 3409 2a3e
00000170: 6746 c73d f0f3 07bd 30cc 10bd 5a93 463e
00000180: a5dd aabb 91e2 723c a9a1 8ebd ab16 c5bd
00000190: bfbb e03c ee95 99bc 3434 5c3e fdc5 f5bd
000001a0: e76b b83d 78ba 6abc 31ab 193e 5c3c 453e
000001b0: 7057 5a3e 67d4 3fbd 40f6 303e 3c70 18be
000001c0: b7cd 34be b421 593d d5c2 f4bd 11a3 9dbd
000001d0: 6d64 8dbd 9c2b c4bd 0dda dabc 908b b53d
000001e0: e5da 19be 93c0 4a3e 0184 29be 7131 473d
000001f0: e602 df3d 113e 2c3e 11b3 97bd d7a8 2d3e
00000200: 6fbf d53d 9cc1 3e3e ee93 e23d f2fe 903d
00000210: 8fcd 45bd 1d75 633d 3831 1a3c 2a71 f3bd
00000220: ba6e 9bbc 3ca0 c6bd 4212 b13c 4fc4 653d
00000230: a882 03be ce8e a4bd ea64 2e3e 1ff8 4a3e
00000240: d566 d0bd 5ec1 49be 515a 193e 4538 29bd
00000250: 38f0 b13d f881 5a3e 0960 483d 8620 5bbe
00000260: 54d6 0bbe f4fe 1d3e 0c0d 9cbc d96b 27be
00000270: 55d4 21be f456 2b3e 7a1a 0fbe cd83 25be
00000280: 826e 863d 1d25 4cbe 5fce 41be 4750 c9bd
00000290: ec22 3a3e 334b ddbd 6f26 d8bd 2471 2a3e
000002a0: b2e5 f0bd ea8c 593e 67dd 55be 32fa 403e
000002b0: 12af 0abe dee4 2fbe c5fd 593e f814 b2bd
000002c0: 97c0 2ebe 8cdd 3dbe 2638 c1bd ffa6 483b
000002d0: 103b bfbd d4d1 4bbe 5b6d 8dbd dade b5bd
000002e0: c9d9 c13d 817d 46be 89ca 14be bb1b cb3d
000002f0: d291 053d 8ba1 5a3d 48fe d33d 6b19 0a3e
00000300: 6982 a2bd eb90 2fbe 9090 ef3c b2f8 0b3e
00000310: 6dd8 5c3e 3e1f 76bb dec1 4b3e 1a09 2fbe
00000320: 54ac 553e b485 b73d b7a1 17be 0129 b63d
00000330: ee8a 52bc 2e07 553e 5167 d53d f054 343e
00000340: 08e8 17be 9c6c 023d 59c6 a63d 3947 e53d
00000350: 4c2b 443e 8e48 013e 5939 a1bd a9d7 92bd
00000360: f884 cbbd b9fc ea3c cb0e 5fbc 0e5e 3bbe
00000370: f0e3 c23c a18a 983d 7ba8 5cbe f7c6 de3c
00000380: 18d4 a3bc 971c 2d3e 85e5 3bbe e10d aa3d
00000390: bd84 a23d aacf fd3c 0698 4cbc 2664 5abe
000003a0: 6a69 f43c 90af d53d db1b 70bd c430 8e3d
000003b0: 3671 433d ff43 ec3d 90aa 01be 76c4 98bd
000003c0: 04ad 893c eaac 28be 6e88 553e 3c61 9d3d
000003d0: 3d2d 553e e5a9 283e f832 eb3d ee32 1dbd
000003e0: e942 323d 5039 03be 5896 f23d 9673 223e
000003f0: 6e36 f7bd b7be 09bc f33f d4bb 8557 173e

encoder_b.convs.1.bias f4 [64]
0.0 0.0 0.0 0.0 0.0 0.0 0.0 0.0
0.0 0.0 0.0 0.0 0.0 0.0 0.0 0.0
0.0 0.0 0.0 0.0 0.0 0.0 0.0 0.0
0.0 0.0 0.0 0.0 0.0 0.0 0.0 0.0
0.0 0.0 0.0 0.0 0.0 0.0 0.0 0.0
0.0 0.0 0.0 0.0 0.0 0.0 0.0 0.0
0.0 0.0 0.0 0.0 0.0 0.0 0.0 0.0
0.0 0.0 0.0 0.0 0.0 0.0 0.0 0.0
00000000: 0000 0000 0000 0000 0000 0000 0000 0000
00000010: 0000 0000 0000 0000 0000 0000 0000 0000
00000020: 0000 0000 0000 0000 0000 0000 0000 0000
00000030: 0000 0000 0000 0000 0000 0000 0000 0000
00000040: 0000 0000 0000 0000 0000 0000 0000 0000
00000050: 0000 0000 0000 0000 0000 0000 0000 0000
00000060: 0000 0000 0000 0000 0000 0000 0000 0000
00000070: 0000 0000 0000 0000 0000 0000 0000 0000
00000080: 0000 0000 0000 0000 0000 0000 0000 0000
00000090: 0000 0000 0000 0000 0000 0000 0000 0000
000000a0: 0000 0000 0000 0000 0000 0000 0000 0000
000000b0: 0000 0000 0000 0000 0000 0000 0000 0000
000000c0: 0000 0000 0000 0000 0000 0000 0000 0000
000000d0: 0000 0000 0000 0000 0000 0000 0000 0000
000000e0: 0000 0000 0000 0000 0000 0000 0000 0000
000000f0: 0000 0000 0000 0000 0000 0000 0000 0000

encoder_b.convs.2.weight f4 [64, 64]
0.09088713 -0.15962738 -0.03994077 0.13836361 -0.19221845 -0.005007856 0.20262483 -0.04216179
0.20986578 -0.13773727 0.14052469 0.099519216 0.11107839 0.10457306 -0.079009876 -0.041184843
-0.18955775 -0.062475696 0.010906401 -0.14738688 0.1627047 -0.20823516 -0.15953822 0.012624595
-0.064021304 -0.043005295 -0.10010659 0.19759962 -0.20435801 -0.09852962 -0.20431359 -0.10150351
0.13233228 -0.10086129 -0.069588244 0.15414248 0.017608525 -0.12956604 0.14032295 0.21603042
0.039439134 -0.157238 0.10517848 0.011716046 -1.5795455e-05 0.0046946313 -0.11311118 -0.06905195
0.12990063 -0.18131505 0.1544683 0.21289128 -0.06560617 0.013047356 0.2080981 -0.06893194
0.17542604 0.058431234 -0.08448107 -0.013283849 -0.13979322 0.022982879 -0.19406846 -0.06070777
-0.1971387 0.07358039 0.065224595 0.18122147 -0.15618533 0.16591644 -0.11324567 0.12773447
0.0029467558 -0.1821424 -0.061565574 -0.07609177 0.00083153264 -0.17572322 0.17972194 0.1961237
0.0013445495 -0.169846 0.21399961 0.118201934 -0.20286769 -0.047017988 0.21013735 0.1714026
0.14224027 0.16374308 0.16994485 0.06517223 0.03593954 0.019900441 -0.123670675 0.1965515
-0.13624662 0.0035629077 -0.17489451 0.11008093 0.14236942 0.1852794 0.0052497694 -0.13755214
-0.00013872642 0.17486857 -0.034834966 -0.009511445 -0.07464256 -0.124422505 0.0724299 -0.046388593
0.15206107 -0.10060381 0.13055362 0.11481353 -0.05647988 -0.10021868 -0.12537661 0.15292317
-0.14975996 0.20210536 0.056581233 -0.2016514 -0.16132869 -0.089857504 -0.20082372 0.0050227228
0.018421836 -0.20564617 0.020607494 -0.09236849 -0.21138924 -0.0048547024 -0.14399965 0.06839042
-0.14337413 0.125281 -0.013709965 -0.1330849 -0.16710384 -0.18996565 -0.1346354 -0.04272978
0.17355941 -0.049900863 0.14029594 0.17281899 -0.013931256 -0.11774381 -0.016977817 0.19055586
-0.18728742 0.07489345 -0.11967613 0.0579161 -0.084697865 -0.16319978 -0.19055165 -0.03330699
-0.18473531 0.02813452 -0.06189003 0.04608497 -0.16178611 0.11861288 -0.14289318 -0.13522856
-0.052752253 -0.020239683 0.07563339 0.18966003 0.15988219 -0.13700666 0.038133327 -0.07881124
-0.07066224 -0.033393737 0.12247814 0.20163038 0.02479458 0.0060249595 0.012671182 0.011700328
-0.03513965 -0.12663965 -0.0076190876 -0.112931006 -0.07548708 -0.041966204 -0.187879 -0.072909266
0.052751917 -0.1581558 -0.074239135 -0.13874173 0.10648695 -0.066724315 0.12285643 -0.19028375
-0.03472827 0.13751777 -0.114732124 -0.109974824 0.11279765 -0.0012182632 0.0037350317 -0.18101208
-0.05582896 0.11666549 0.08120663 -0.045494474 -0.040338676 0.096837476 0.17633027 -0.1697589
-0.18239944 -0.089192316 -0.041519567 0.006350367 -0.1979265 0.070736825 -0.058642305 0.17860734
-0.0725038 -0.06031838 -0.043192647 -0.11519992 0.015048449 0.005461408 -0.17336263 -0.1531389
-0.17392051 -0.037913043 -0.013760501 0.0017296023 -0.1275482 -0.009934644 -0.09774682 0.010771649
0.09728973 -0.058169294 0.018164232 -0.03361456 -0.120360754 0.07375131 -0.12998796 -0.09707905
-0.20965295 0.16052152 0.07609494 -0.0014229589 0.05130075 -0.0428572 -0.17251866 -0.027269563
00000000: 0823 ba3d 5c75 23be ef98 23bd 31af 0d3e
00000010: ead4 44be f118 a4bb e27c 4f3e d7b1 2cbd
00000020: 0ee7 563e 000b 0dbe b4e5 0f3e bbd0 cb3d
00000030: 117d e33d 672a d63d eecf a1bd 70b1 28bd
00000040: 6d1b 42be 84e6 7fbd c3b0 323c 96ec 16be
00000050: 109c 263e 993b 55be fd5d 23be 64d7 4e3c
00000060: 9a1d 83bd 5226 30bd af04 cdbd 8e57 4a3e
00000070: 3a43 51be e6c9 c9bd 9537 51be 12e1 cfbd
00000080: 1d82 073e 5d90 cebd 4884 8ebd 87d7 1d3e
00000090: c13f 903c f6ac 04be d2b0 0f3e 1437 5d3e
000000a0: ee8a 213d 0003 21be d167 d73d a9f4 3f3c
000000b0: 7b80 84b7 6cd5 993b d6a6 e7bd 1c6b 8dbd
000000c0: ac04 053e a7aa 39be f02c 1e3e 2c00 5a3e
000000d0: 875c 86bd 94c4 553c ab17 553e 302c 8dbd
000000e0: e2a2 333e 9755 6f3d 6904 adbd 80a4 59bc
000000f0: f425 0fbe 9746 bc3c e2b9 46be b6a8 78bd
00000100: bade 49be 51b1 963d 7994 853d 1f92 393e
00000110: 0cef 1fbe 00e6 293e 59ed e7bd d3cc 023e
00000120: 5c1e 413b 8a83 3abe 2f2c 7cbd 00d6 9bbd
00000130: 36fb 593a caf0 33be 0709 383e a7d4 483e
00000140: 983b b03a 1cec 2dbe b722 5b3e db13 f23d
00000150: 8cbc 4fbe ef95 40bd 3f2e 573e 2a84 2f3e
00000160: 6fa7 113e 44ac 273e 0606 2e3e 0579 853d
00000170: 5735 133d 4006 a33c 0d47 fdbd cc44 493e
00000180: 3c84 0bbe ac7f 693b 8c17 33be 1c72 e13d
00000190: 4ac9 113e e2b9 3d3e 4206 ac3b 78da 0cbe
000001a0: 1777 11b9 bf10 333e 1caf 0ebd e4d5 1bbc
000001b0: 33de 98bd 3ad1 febd 2156 943d f701 3ebd
000001c0: e6b5 1b3e 5f09 cebd d9af 053e 5b23 eb3d
000001d0: 7257 67bd 743f cdbd ba62 00be e497 1c3e
000001e0: ad5a 19be b5f4 4e3e b9c1 673d b47d 4ebe
000001f0: 5933 25be 3607 b8bd bca4 4dbe a795 a43b
00000200: 64e9 963c e994 52be 0cd1 a83c b12b bdbd
00000210: 6c76 58be 3214 9fbb a574 13be 4710 8c3d
00000220: abd0 12be aa49 003e c39f 60bc 6847 08be
00000230: 451d 2bbe 5b86 42be dddd 09be 6c05 2fbd
00000240: 8fb9 313e d964 4cbd bda9 0f3e 76f7 303e
00000250: ec3f 64bc ab23 f1bd 1015 8bbc 1321 433e
00000260: 46c8 3fbe bd61 993d c218 f5bd 6f39 6d3d
00000270: 1376 adbd d81d 27be f91f 43be e96c 08bd
00000280: 412b 3dbe 5d7a e63c 6680 7dbd 98c3 3c3d
00000290: 42ab 25be 4feb f23d 9752 12be 5b79 0abe
000002a0: bf12 58bd b1cd a5bc aee5 9a3d 3d36 423e
000002b0: 28b8 233e 794b 0cbe b131 1c3d ca67 a1bd
000002c0: 5db7 90bd dfc7 08bd d2d5 fa3d 3278 4e3e
000002d0: 011e cb3c 066d c53b ca9a 4f3c bcb2 3f3c
000002e0: 98ee 0fbd d3ad 01be 8aa9 f9bb 5f48 e7bd
000002f0: f898 9abd c1e4 2bbd 5a63 40be 7451 95bd
00000300: 6512 583d 98f3 21be b00a 98bd 5012 0ebe
00000310: d415 da3d c2a6 88bd 279c fb3d bed9 42be
00000320: 3b3f 0ebd 75d1 0c3e adf8 eabd 7b3a e1bd
00000330: 7402 e73d 21ae 9fba 6fc7 743b 3b5b 39be
00000340: e8ac 64bd 51ee ee3d a94f a63d 6a58 3abd
00000350: 2b3a 25bd ba52 c63d ec8f 343e 47d5 2dbe
00000360: ebc6 3abe 76aa b6bd 6c10 2abd bd16 d03b
00000370: 3fad 4abe 78de 903d ea32 70bd d8e4 363e
00000380: df7c 94bd 6810 77bd c6ea 30bd f0ed ebbd
00000390: c58d 763c 9cf5 b23b f985 31be 72d0 1cbe
000003a0: 3818 32be b54a 1bbd b973 61bc d3b3 e23a
000003b0: ff9b 02be ebc4 22bc 7c2f c8bd 927b 303c
000003c0: d73f c73d ed42 6ebd 28cd 943c 6caf 09bd
000003d0: b37f f6bd ed0a 973d 901b 05be 62d1 c6bd
000003e0: 43af 56be c15f 243e aad7 9b3d 9482 baba
000003f0: bc20 523d 088b 2fbd bba8 30be 6b64 dfbc

encoder_b.convs.2.bias f4 [64]
0.0 0.0 0.0 0.0 0.0 0.0 0.0 0.0
0.0 0.0 0.0 0.0 0.0 0.0 0.0 0.0
0.0 0.0 0.0 0.0 0.0 0.0 0.0 0.0
0.0 0.0 0.0 0.0 0.0 0.0 0.0 0.0
0.0 0.0 0.0 0.0 0.0 0.0 0.0 0.0
0.0 0.0 0.0 0.0 0.0 0.0 0.0 0.0
0.0 0.0 0.0 0.0 0.0 0.0 0.0 0.0
0.0 0.0 0.0 0.0 0.0 0.0 0.0 0.0
00000000: 0000 0000 0000 0000 0000 0000 0000 0000
00000010: 0000 0000 0000 0000 0000 0000 0000 0000
00000020: 0000 0000 0000 0000 0000 0000 0000 0000
00000030: 0000 0000 0000 0000 0000 0000 0000 0000
00000040: 0000 0000 0000 0000 0000 0000 0000 0000
00000050: 0000 0000 0000 0000 0000 0000 0000 0000
00000060: 0000 0000 0000 0000 0000 0000 0000 0000
00000070: 0000 0000 0000 0000 0000 0000 0000 0000
00000080: 0000 0000 0000 0000 0000 0000 0000 0000
00000090: 0000 0000 0000 0000 0000 0000 0000 0000
000000a0: 0000 0000 0000 0000 0000 0000 0000 0000
000000b0: 0000 0000 0000 0000 0000 0000 0000 0000
000000c0: 0000 0000 0000 0000 0000 0000 0000 0000
000000d0: 0000 0000 0000 0000 0000 0000 0000 0000
000000e0: 0000 0000 0000 0000 0000 0000 0000 0000
000000f0: 0000 0000 0000 0000 0000 0000 0000 0000
