results/ABIDE_3x5fold_seed0/fold3_rep0_seed3/ckpt_best_fold_3.pt (torch, 660360 bytes, 72 tensors)

encoder_c.convs.0.weight f4 [116, 64]
00000000: 05d2 4bbe bc72 f4bd 3c1e 0080 8297 05be
00000010: d18b 7e3c fad2 05be b82f 843d 711c b23d
00000020: 1b88 a53d b0d0 b03d 8287 8bbc d5f7 0c3e
00000030: 03ca 4abd b2cc 2cbd e9ce a5b8 468d 6f3b
00000040: e866 0ebe d663 6b3c d14f 1e3e e551 ee3d
00000050: 5326 293c f81e f2bd 0fca 0d3e ba95 4fbe
00000060: 23fa c8bd 2348 a0bd 6e51 dbbd 5477 c0bc
00000070: 7dac ebbd 866d 96bd 0d54 a7bd fa2a fe3d
00000080: c030 26bd d232 0dbe 85ca 07be 50e8 9cbd
00000090: cb41 0080 1744 c3bc 0bff a7bd c30f 2dbc
000000a0: 69e2 2c3c 8665 f23a b2fb d43c 61e7 e3bc
000000b0: 13f7 cb3d bf1f 9fbd 7902 0bbe 0de9 7abc
000000c0: e57d b93b cd38 443d ba37 813d 64f1 69bb
000000d0: 56c1 0fbd 64ae 383e 3a3f da3d ae7a 873c
000000e0: 3f30 943c 2fa3 0a3e 45df a93d b8d9 34bd
000000f0: 3e61 aa3d 34ff 8e3c 0876 24be b7f2 18bd
00000100: b5a1 18be 697f 0bbe dd02 0000 8eee ccbd
00000110: d82d 983d d781 be3d 526a 073c c439 0c3e
00000120: 3de4 48bd 4a0f 363c 5f3d 793d 5586 a83d
00000130: 16e0 0d3c dae7 0e3e 6ba8 0f37 2c9c 063e
00000140: fa20 30be 8d25 39bc a0f8 edbd f1cb 4f3c
00000150: 97f2 f13d 9727 1ebe 21c0 9b3d 8e0e 37be
00000160: f0ab b6bd 9c4a 74bd 96de c1bd da48 96bc
00000170: dccb 19be ef64 043e 7bee 6c3c d283 973d
00000180: f66e 97bd 7d35 b83d 2e61 24bd 5d11 8abd
00000190: 1126 0000 b542 1fbc b859 4c3c c601 00bd
000001a0: 4811 c93b c8bb 56bd 748b 47bd af66 32bd
000001b0: 8d6b d43d 8621 1ebe e991 8f3d 3ef8 ea3c
000001c0: 44e8 bcbd ab69 dcbd 7349 02be 81da 99bc
000001d0: f930 013e bfff 333e 7bcc 94bc 81d1 103e
000001e0: 2764 4d3d 3b8b c9bd 9d7b 07be 972b 78bd
000001f0: c8f1 2abe 7c98 6fbd 5ea9 883c 8cc9 983c
00000200: 1fe8 e9bc 9c05 5cba a4b8 d61f 6378 383a
00000210: 437e 053d 922b 57bd 2543 0cbe a5ef e63c
00000220: 9dbc b43d 54ba d03d a019 eabd 9adb c4bc
00000230: a769 c8bd d774 94bc 1cd3 09b5 b5eb ce3d
00000240: 6304 2bbd 55a3 113c 11ed 3a3d ec87 14be
00000250: 9adc a83d 8066 433e 1d9f babd e18d 423e
00000260: d4cf 2b3d e819 de3d 5b26 193e b505 e4bd
00000270: 6e39 f33d c7b4 183a 9124 2a3d 9ae6 22bd
00000280: a19b 8cbd 0031 8b3c 6f60 853d 40a7 e53d
00000290: 3216 0080 6317 70bc 69f3 a13d f20a ac3c
000002a0: 6f37 13bc 1bf9 2ebd 0e67 c3bc 9729 06bc
000002b0: ca5e 0bbe 2184 c83d f38e 0b3d 61af dfbc
000002c0: 3ba2 a6bd 333a bc3d 8f2e 063e 8cbf 493c
000002d0: 8c42 053e f0e4 803c 444d 273e 4150 2a3e
000002e0: f06a b53c eaff ad3c 4867 393d e004 a03d
000002f0: 01cf fbbd d677 0a3d 6529 353e 5b61 f5bd
00000300: 5a1e acbd af92 58ba 490b 0000 b751 9c3d
00000310: 885a 71bd 2d90 d33c 48d1 b0bd 2cda 0f3e
00000320: f45c dcbd d68f 183e f07e c33d 2fc3 123e
00000330: c365 3d3d d271 7ebd 2e75 0f39 a10c d1bd
00000340: be8d 0a3e 96b5 dabb 860f efbd 9e14 abbd
00000350: be10 3c3e 14a7 d53d beeb 01be 382d d9bd
00000360: 48be dc3c 3a25 41bd 9e5c 673d a0fc f33d
00000370: 56f7 11be 1037 e8bd 2600 713c 9cf0 b43d
00000380: 7617 0e3d c1a6 88bc 6830 32bd ca0a 9a3d
00000390: 5822 0000 0edf 7ebd cdcd 4dbb 96cb 013e
000003a0: 5d29 06bc 79fa 103e 71dc 333d e1ee 5e3d
000003b0: ea07 18be 1c9a ad3d 97be 323d b6e5 1d3d
000003c0: 9098 003d ea3d de3d 8743 e0bd 9516 53bd
000003d0: e502 493d 67b1 cd3d 66e7 723d dd72 033e
000003e0: 8bc5 c5bc 3a0c 5abc 0124 1a3e 4ccf 7e3d
000003f0: 0aec 043e 91d3 dcbd c015 7c3c 27a4 34be
-0.19904335 -0.11935946 -1.0846e-41 -0.13046077 0.0155362645 -0.13068762 0.06454414 0.08696831
0.08082601 0.08633554 -0.017032389 0.13766415 -0.04950906 -0.0421874 -7.906353e-05 0.0036552711
-0.13906443 0.014367064 0.15460135 0.11636714 0.010324079 -0.11822313 0.1384661 -0.2027196
-0.09813335 -0.07826259 -0.10708891 -0.0234944 -0.11507509 -0.07345109 -0.08170328 0.12410541
-0.040573835 -0.13788918 -0.13260849 -0.076614976 -2.3602e-41 -0.023836179 -0.082029425 -0.01056284
0.010552027 0.0018493391 0.025998924 -0.027820291 0.09959235 -0.07769727 -0.13575162 -0.015314353
0.0056607598 0.047905732 0.06309457 -0.0035696859 -0.03509649 0.18035275 0.10656591 0.01653799
0.018089412 0.13538812 0.082945384 -0.044152945 0.08319329 0.017455675 -0.1606065 -0.037340846
-0.14905436 -0.13622822 1.027e-42 -0.10006438 0.07430619 0.09302109 0.008265095 0.13693911
-0.04904579 0.011112044 0.060849544 0.08228747 0.008659383 0.13955632 8.562677e-06 0.13145512
-0.1720008 -0.011300457 -0.11619687 0.012682901 0.118138485 -0.1544479 0.07605005 -0.17876646
-0.08919513 -0.059641466 -0.09466283 -0.018345285 -0.15019172 0.12929128 0.014461155 0.073981896
-0.07394211 0.08994577 -0.04013174 -0.06741593 1.3656e-41 -0.009720494 0.0124725625 -0.03125169
0.0061360933 -0.052425176 -0.048716977 -0.043554958 0.10372076 -0.15442476 0.07010252 0.028682824
-0.09223989 -0.10762342 -0.12723331 -0.018780949 0.12616338 0.17578028 -0.01816391 0.1414242
0.05014434 -0.09841009 -0.13230748 -0.060588446 -0.16693795 -0.05849503 0.016682323 0.018650793
-0.028553067 -0.000839317 9.093799e-20 0.0007036982 0.032591116 -0.052531786 -0.13697489 0.028190443
0.08825038 0.10191789 -0.11430669 -0.024030495 -0.097857766 -0.01812212 -5.134368e-07 0.10103551
-0.04175223 0.008889039 0.04563624 -0.14504975 0.082452014 0.1908207 -0.0911238 0.18999435
0.041946247 0.10844785 0.14956038 -0.11133901 0.11876188 0.0005825278 0.04153878 -0.0397707
-0.06865621 0.016991138 0.06512534 0.11213541 -7.962e-42 -0.014654013 0.07907755 0.021001313
-0.008985384 -0.042718034 -0.023852851 -0.008188627 -0.13610378 0.097908266 0.034071874 -0.027305307
-0.08136412 0.09190788 0.13103698 0.012313735 0.13013667 0.015734166 0.16338068 0.16632177
0.022145718 0.021240193 0.045264512 0.0781343 -0.12295342 0.03380569 0.17691572 -0.1198146
-0.084042266 -0.00082616037 4.048e-42 0.07632773 -0.058924228 0.025825584 -0.08633667 0.1404807
-0.10759917 0.14898619 0.09545696 0.14332269 0.046239626 -0.062120266 0.00013681196 -0.10207487
0.13530633 -0.0066744788 -0.11672883 -0.08353542 0.18365762 0.10432258 -0.12687585 -0.10604328
0.026946202 -0.047154643 0.05648481 0.11913419 -0.14254507 -0.11338627 0.014709508 0.08834955
0.034690343 -0.016681077 -0.043503195 0.07521589 1.232e-41 -0.06222444 -0.0031403184 0.12675318
-0.008188573 0.14158048 0.0439114 0.05442703 -0.14846769 0.0847666 0.043638792 0.038549148
0.031395495 0.10851653 -0.1095038 -0.051535208 0.049075026 0.100436024 0.05930271 0.12836786
-0.024142047 -0.013308579 0.15052797 0.062209412 0.12980667 -0.107825406 0.015386045 -0.17640744

encoder_c.convs.0.bias f4 [64]
00000000: 48ec 31bb 7624 2e3c 3d5a e0bc f3d1 e03c
00000010: 4670 883c 3993 313c 8ac0 f2bc 7aea 81bb
00000020: 776f 2b3c 1ba1 ef3c 0f26 1a3c c4bf d13c
00000030: 6541 b33c cac9 44bc 10ef b9bc 51a1 c63c
00000040: 4074 96bb 732f 433c aea3 b83c 56f5 39bc
00000050: 0d91 8b3a 572f 043c b25c 58bc f630 b2bb
00000060: 5f0d 313c d889 163c ef94 5cbc ceda f93b
00000070: f3d9 4e3c c184 723c 69d8 2d3c 6456 043d
00000080: c6ef c4bc 60e8 593c d570 593c c0a3 993b
00000090: 6a8d a7bc 61bf ab3c 98b0 efbb 55f7 943b
000000a0: e0dd 0b3d e0c5 bd3c abbb 5c3b f596 e93b
000000b0: 844b 993c 7a2a 903c 8e13 073c 1fa8 8d3c
000000c0: 85ab c33c ac29 953c 7655 c73b 2587 d83b
000000d0: bcdd 07bc c575 803c cfee 6cbc 7eb5 9dbc
000000e0: e0e6 163d 2774 943c d278 523c a877 b93c
000000f0: 05d5 823b f012 d23b 6f08 5ebc 8c07 863c
-0.0027148891 0.01062881 -0.027386779 0.027443862 0.016655099 0.010838323 -0.029632825 -0.0039647194
0.010463587 0.029251626 0.009408488 0.025604136 0.021881768 -0.012011001 -0.022697002 0.024246844
-0.004591495 0.011913168 0.022538986 -0.011349997 0.0010648087 0.008067927 -0.013205694 -0.0054379655
0.010806411 0.009188138 -0.013463243 0.0076249605 0.012625205 0.014802159 0.010610678 0.03230895
-0.024040114 0.013300031 0.01327153 0.00468871 -0.020453174 0.02096528 -0.007314753 0.004546086
0.034147143 0.023165643 0.0033681195 0.007128591 0.018712766 0.01759838 0.008244408 0.01729208
0.023885498 0.018208347 0.006083186 0.0066079074 -0.008292612 0.015681157 -0.014461233 -0.019251581
0.036841273 0.018121792 0.012846189 0.022640064 0.003992679 0.006410949 -0.013551815 0.01636102

encoder_c.convs.1.weight f4 [64, 64]
00000000: 8fb8 64bd 6fbd 013d 926e e9bc 3eb6 363e
00000010: 5ad7 d4aa 3818 123e b941 413e 6919 0000
00000020: 92df 0c3e 1828 563d a92b b03b a5aa 0abc
00000030: bd99 06be edb3 bb3c 1d36 373e 9221 293e
00000040: 1786 98bd e5d9 ca3d 60e1 a4bd 2417 7dbd
00000050: 70d9 0080 74ff 91bd 806d 553d 9a31 023d
00000060: ecfe acbd 2573 20bc 702e 103e 6512 793d
00000070: d93d 633e d586 443d a15b 113d e672 c2bd
00000080: 31f2 00be 4c2b 273e 6ad1 2ebd 140a 003d
00000090: 19d7 373e 32c7 7f3c 03f0 013e c1e8 1abe
000000a0: 9016 c5bd 9553 263e e201 4abd 6126 0000
000000b0: d207 0000 73ea 0a3e 4e76 c7bd d7e1 b4bd
000000c0: 79f2 443e f0fa 81bd d183 bdbd d2dd a93b
000000d0: c0ad 0d3c 577f e63c 66b5 213e b1d2 22bd
000000e0: 7a59 393d 4fa0 3abe 1a0c 0080 ff4b ecbd
000000f0: abec 3e3e e986 553d 3789 263e c5ae 0dbe
00000100: e926 333e 91ac 373e f925 e6bd 91d8 093b
00000110: 79e6 0c8e 7e39 1a3e e431 86bd df23 0000
00000120: a97b b53d 9471 a6bc 3982 1d3e 2e01 dbbb
00000130: 9a2c a93d ced4 293e 2999 fcbd 8560 ddbd
00000140: 8bea 0abe ef1a ab3d 1376 b13d 9ad8 21be
00000150: 0724 0000 6f99 493d 740a 5c3e fcb0 fabc
00000160: 66c1 6e3d 15c8 dd3c 710e 46be cdbe 24bc
00000170: 4c23 febd 012f 8bbc a18a fbbd 9fb0 0e3e
00000180: a96d df3d 0457 163e 8e76 d2bb 9808 8d3c
00000190: 181f 4e3e 9d84 143e 7a83 2abe bb76 193e
000001a0: 59fb 95bd 7221 3d3e 92ae fc3d 6926 0080
000001b0: 601b 0000 b332 b03d 2241 a03d 07fc 48bd
000001c0: b1aa 8fbd d66f f33d 36be 603b 3f97 6f3d
000001d0: ae96 a2bd 22d1 1bbe 823d ad3c d558 b2bd
000001e0: 4473 e6bd 8fbc a0bd e4b9 551b b874 cc3d
000001f0: 1999 ef3d d5b2 143d 7ad2 aabc 9576 08bd
00000200: 092e 0080 9e25 0000 6425 0000 5513 0080
00000210: 341c 0080 b961 0080 4751 0000 c420 0000
00000220: a11f 0080 0c2f 0080 2f0f 0000 2bf3 0080
00000230: b930 0000 fa2b 0080 0c49 0080 2a26 0000
00000240: b600 0000 3208 0000 4807 0000 4228 0000
00000250: ed04 0080 f012 0000 ed1a 0000 ec1e 0080
00000260: c820 0000 6605 0080 be52 f907 530a 0080
00000270: b102 0080 6c0f 0000 1e17 0080 272d 0080
00000280: 4a10 0000 f042 0080 372a 0080 6126 0080
00000290: 041e 0000 e70a 0000 1425 0000 f622 0080
000002a0: fd60 0080 e74e 0000 ec0a 0000 1a3d 0000
000002b0: 5b15 0080 3925 0000 d757 0000 8c15 0080
000002c0: 8d13 0000 8e2c 0080 d021 0080 9369 0080
000002d0: d212 0080 aa12 0080 57b1 3880 d433 0080
000002e0: 1a18 0080 5a00 0000 276e 0080 120f 0000
000002f0: bb01 0000 133d 0000 bc17 0080 7901 0080
00000300: 3a77 72bd 762c 38bd 9219 04be 606a 703a
00000310: d50a 0080 53b7 3cbd f38e 56bd 4223 0080
00000320: f726 a23d 1fc5 fabd dcc0 7c3d ea51 adba
00000330: 7b29 0dbe 2b0f a1bb 5a6c 7e3c f88b b53b
00000340: e50e 5a3d 1a05 443e 25b0 9b3d 2674 99bd
00000350: 940e 0000 be9d 273e e59b 413e 903d 6e3d
00000360: 8625 92bc 87c6 7abd 1b7a 693d 180b 9f3b
00000370: 5fd2 1c3d 3810 63bc cb4d 90bb e819 9f3d
00000380: 5a39 083e 711c c9bd 8a3e 833d ad8c 35bd
00000390: adca 4d3e 09bc 1ebd f159 9abd 0ff5 593e
000003a0: fd71 87bd aad0 d9bc e538 13be 9752 0080
000003b0: a05d 0080 b2ab f33d 9543 57bd 47c5 353d
000003c0: 9331 3fbe 7350 143e 6d61 aa3d bee7 3bbc
000003d0: 35f6 5bbe 5541 ebbd c2d4 9ebc 25a2 cc3d
000003e0: c93e a2bd 8778 c53d db0e 0080 2eef 5dbd
000003f0: 05cf 433e 1d05 1ebd 59a5 46bd eb04 e43d
-0.05584007 0.0316748 -0.028495107 0.17842957 -3.7808195e-13 0.14267051 0.18872727 9.115e-42
0.1375716 0.05228433 0.0053762984 -0.008463536 -0.13144584 0.022912944 0.17891736 0.16516712
-0.074474506 0.09904841 -0.08050799 -0.061789647 -7.8002e-41 -0.07128802 0.05210638 0.031785585
-0.0844706 -0.009793078 0.14080215 0.060808558 0.22191562 0.04798015 0.035487775 -0.094945714
-0.12592389 0.1632511 -0.04268018 0.03125961 0.17953147 0.015611457 0.12689213 -0.15127851
-0.09623444 0.16242822 -0.0493182 1.3768e-41 2.805e-42 0.13565998 -0.09739362 -0.08832138
0.19233121 -0.06346691 -0.092536576 0.0051839137 0.008647382 0.028136892 0.15791854 -0.039751712
0.045251347 -0.18225215 -4.341e-42 -0.115379326 0.18644969 0.052130613 0.16263281 -0.138362
0.17495312 0.17936923 -0.112377115 0.0021033625 -1.73673e-30 0.15060994 -0.06552485 1.2868e-41
0.08861477 -0.02031783 0.15381707 -0.0066834902 0.0826046 0.16585085 -0.123339005 -0.10809425
-0.13566034 0.083547466 0.08665099 -0.15805283 1.2924e-41 0.04921859 0.21488363 -0.03060197
0.058289908 0.027072946 -0.19341446 -0.010055256 -0.12409076 -0.016990187 -0.12282301 0.13934563
0.10909588 0.14681631 -0.006422824 0.017216012 0.20129049 0.14503713 -0.16651717 0.14986698
-0.073233314 0.1846979 0.12337984 -1.3779e-41 9.82e-42 0.0860342 0.07824923 -0.049068477
-0.07014979 0.118865654 0.0034293062 0.05849385 -0.07938896 -0.15216497 0.021147493 -0.087083496
-0.11252454 -0.07848465 1.7679012e-22 0.099832 0.11699123 0.03630336 -0.020852316 -0.033316214
-1.6514e-41 1.3495e-41 1.3413e-41 -6.935e-42 -1.0117e-41 -3.5056e-41 2.9157e-41 1.1754e-41
-1.1346e-41 -1.6877e-41 5.447e-42 -8.7232e-41 1.7478e-41 -1.5776e-41 -2.6204e-41 1.369e-41
2.55e-43 2.94e-42 2.612e-42 1.4442e-41 -1.767e-42 6.793e-42 9.659e-42 -1.1093e-41
1.176e-41 -1.937e-42 3.7513987e-34 -3.704e-42 -9.65e-43 5.532e-42 -8.293e-42 -1.6198e-41
5.843e-42 -2.4013e-41 -1.5144e-41 -1.3768e-41 1.0768e-41 3.911e-42 1.3301e-41 -1.2542e-41
-3.4793e-41 2.8305e-41 3.918e-42 2.1919e-41 -7.661e-42 1.3353e-41 3.1511e-41 -7.73e-42
7.013e-42 -1.5983e-41 -1.213e-41 -3.7873e-41 -6.751e-42 -6.695e-42 -5.206405e-39 -1.8592e-41
-8.646e-42 1.26e-43 -3.9515e-41 5.406e-42 6.21e-43 2.191e-41 -8.514e-42 -5.28e-43
-0.059195735 -0.044964276 -0.1290038 0.00091711245 -3.886e-42 -0.04607327 -0.05238242 -1.2648e-41
0.07917588 -0.12244629 0.061707363 -0.0013223265 -0.13785355 -0.0049151382 0.015528763 0.005540367
0.05323686 0.19142571 0.07601956 -0.07492857 5.23e-42 0.16368768 0.18907125 0.05816418
-0.017840158 -0.061224487 0.057001214 0.0048536174 0.038286563 -0.013858847 -0.004403805 0.07768613
0.13303128 -0.09819878 0.06408413 -0.044323612 0.20096846 -0.038753543 -0.07536686 0.21284889
-0.066135384 -0.026588757 -0.14377172 -2.9628e-41 -3.3586e-41 0.11897983 -0.052554686 0.04437759
-0.18671255 0.14483814 0.08319364 -0.011468826 -0.2148064 -0.114870705 -0.01938856 0.09991864
-0.079221316 0.096421294 -5.329e-42 -0.054183178 0.1912194 -0.038579095 -0.04849753 0.111337505

encoder_c.convs.1.bias f4 [64]
00000000: 56a4 5ebb 157c af3b 4a02 163c 7645 6b3b
00000010: 79d8 b6bb 1649 1ebb 373c 36bb ef34 9dbc
00000020: 21e2 a03d d9a2 af3b e33a 31bc 4697 87bc
00000030: 996a 84bc 1581 dc3c 83f3 3d3c c6e9 453c
00000040: 1809 783c 5343 e93c 2d3f 2c3d f67a fe3c
00000050: 4b54 70bc 86c4 1c3d 8f57 de3c 6f3b b73c
00000060: d7b6 e93b c796 bf3c 0f24 ef3b 857f db3c
00000070: 9148 8d3c 8062 b0bc 0b96 84bc 1075 033d
00000080: c0f8 463d 2931 79ba 4967 9f3c 7e88 c63b
00000090: 25a9 973c 092b 9a3c 0266 133b 725f 003d
000000a0: 5af5 e5bb 3cdf 2b3d a747 c5bb 18ac a2bb
000000b0: d631 beb6 380f eb3c fb08 09bb 6e4e 65b9
000000c0: 7ce5 d4bb c579 cc3c f8e4 d43c 07ee af39
000000d0: 975e 78bb 4e6a 8d3c 5c57 143c e3fc 073d
000000e0: 0ee6 893c b9c6 b93b c7cc 30bc ac5b 103c
000000f0: bc6e 893c f992 093d 4bdd 123d 6852 d53c
-0.0033972464 0.005355368 0.009155819 0.0035899556 -0.005580005 -0.002415245 -0.0027806887 -0.01919028
0.07855631 0.005359989 -0.010817262 -0.016551625 -0.016164111 0.02691702 0.011593702 0.012079662
0.015138887 0.028474486 0.042052437 0.031064492 -0.0146685345 0.038273357 0.02714136 0.022367207
0.007132392 0.023387326 0.0072979997 0.026794204 0.017246516 -0.021531343 -0.016184827 0.03209406
0.04857707 -0.00095059216 0.01945843 0.0060587516 0.018513272 0.018819349 0.0022491221 0.031341024
-0.0070177736 0.04196094 -0.0060205045 -0.004964363 -5.668243e-06 0.02869378 -0.0020909894 -0.00021868359
-0.006497083 0.024960408 0.025988087 0.00033555945 -0.0037898177 0.017262604 0.009054031 0.033200156
0.016833331 0.0056694415 -0.01079101 0.008810919 0.016776435 0.03358743 0.035855573 0.02604027

encoder_c.convs.2.weight f4 [64, 64]
00000000: 57e7 dfbd 2e5e b3bc 8c5d c63c aa02 003e
00000010: 0f41 8ebd 907c 093d 61e7 48bd 346b 99bc
00000020: 7aa4 80bd 8751 8b3c f86d 1ebe 829e f93d
00000030: 69cc 643d 70c6 c5bc 1460 e4bd 30ec 34bb
00000040: ccf1 f73d 9fe9 cd3d cb2f 203e 9b8b e73d
00000050: 6fc4 e63d 0d81 f5bd 4193 25bd 50e5 1e3d
00000060: 5367 aebd e8d8 543d 245c 97bd 3f7c 83bd
00000070: 0a0c 14be c849 a5bd f65c e03d d8fe c23d
00000080: 9ad5 be3d 9f66 aa3d b1aa 1c3c 30dd 6fbd
00000090: b4b7 013e 07e9 2c3d b54f 0fbd 5b9e 72bc
000000a0: 3371 b1bd 7e62 a63b cbfd 52bc 3f26 3f3d
000000b0: c6a9 85bd 68ca 943c 6830 5dbd 6051 a5bd
000000c0: e26e dd3b bde5 313e f371 04be f2a8 1e3d
000000d0: 6aaa 13bd 8c98 f13d c772 833c 66b7 d63d
000000e0: 7b56 803d 1817 e5bc 70b3 cb3c b2bb 1f3d
000000f0: 04fb 97bc 4afc d9bd 2b30 803d c9cd 86bd
00000100: bdc5 47be 5420 b1bd 5f11 493d 8dea 323c
00000110: 5793 d6bd 07c8 9bbd 17c5 cc3d 42d2 be3d
00000120: 3793 af3d 48e9 00be 12cc 60be b1d3 bc3d
00000130: 84dc f23c 4274 dc3d f8b9 4fbe 964d 29bd
00000140: 4514 59be adc6 a73d 12e5 763e 6f2f 07be
00000150: 5590 de3d fd19 d33d 755b 0abe b5dc f8bc
00000160: 938d 973d feeb 433e 24ed 1e3d b711 4abc
00000170: 503b b1bd 5ece 593c 1e27 dd3d 2e9e f63d
00000180: 160d f13d a4d2 1ebd c447 92bd 2c3a 793c
00000190: 850d b53d 99ca 023d a4ea a73c 4dd0 02bd
000001a0: d78c 4e3e 5313 6e3d 8194 86bc de5b 343e
000001b0: eecd 95bd bd76 113e f103 75be e33e 493e
000001c0: a29d 0f3d 081a 113e 10ff ecbd f27d 74be
000001d0: 9344 ebbd a54c 053e 0320 943d 586d 0e3e
000001e0: a243 463e 3063 f2bd 8ebe b53c 25bb af3d
000001f0: 97bf 17be a826 7dbe eec7 da3c 4c5d e53d
00000200: c3ea 2abe b177 f73a d33c 96bc e3a3 1b3e
00000210: 74be f4bd 7de0 fc3c 9c82 d6bd 5efb 39bd
00000220: f57c 27bd c5c9 0cbd 9ab8 713c ff57 593d
00000230: 5479 8ebd 3182 263e 9c23 153d ff8d edbc
00000240: 999a 24bc 8eff 323d 6e19 783d 1b65 0dbe
00000250: a3b1 d83d e77d 15be c5cc f8bd 6651 c4bc
00000260: 7753 af3d e93c 8fbd 8b25 dabd 1ec3 e8bd
00000270: 5b76 673d d569 2cbe 2987 483e 2ef3 4b3e
00000280: ffea d73d ec3c 0d3e 4842 b8bd f285 003e
00000290: 5b41 4d3d 1adc 243e 9a11 f3bc 4082 debc
000002a0: 7aab 923c dbbd 8b3d 568a 1bbe 667a 9a3d
000002b0: 782e f23d 5129 ae3d a7ab 06be e7bc b3bd
000002c0: 3e31 1d3d 6f58 043e 41f8 0e3d d0f9 873d
000002d0: 721d cabd 07b8 203e 52ae 383d 39c3 f23c
000002e0: 936e a0bd 4ba1 d2ba 85e2 503d 6c17 8f3d
000002f0: 9625 6ebe 7792 3c3d 352c a93c 62ff c9bd
00000300: 0e79 0bbe 543a fbbc 5c39 a1bd 6df8 9fbd
00000310: af6f 10bc 5dfb 1fbc ed61 51bd 5e1e bebd
00000320: 6e71 3f3c a5f6 47bb 7878 71be 66fd 093e
00000330: ff41 403e c555 bcbd 486a 20be 5d44 30be
00000340: f25b 27be 7852 0a3d ccac 663e 7728 6abe
00000350: 1da0 ac3b abb6 afbd cd48 46be 9e3c 653d
00000360: bb4d 243d 6028 53bd 56f7 833e 8e60 353e
00000370: 3165 2fbe ee9e c6bd d9c8 62bd 50bd 383e
00000380: a8af 80bb 773b 08bd 9db0 36be 745d 803d
00000390: 91ab 27be 7700 6c3d c108 853d f630 32be
000003a0: bbbb eb3d 5984 90ba a26f e93c 2f28 8d3e
000003b0: 902e 4d3e 1705 653e 4ff4 2e3c 209c 3a3d
000003c0: fd22 ea3c 47d7 a1bd ce43 e73c 5242 6abd
000003d0: d183 9dbd 8455 e63d cfc8 8e3d b8f7 9e3b
000003e0: a9a5 af3d 7e68 fbbc 0e9c 583e 6b96 a23d
000003f0: 1288 79be f6e6 08be fee8 963d f5f4 923d
-0.109327964 -0.021895494 0.024214529 0.12501016 -0.06946003 0.033566058 -0.049048785 -0.018727876
-0.062813714 0.017006649 -0.15471637 0.12188436 0.055859003 -0.024142474 -0.11151138 -0.00276066
0.12106666 0.10054325 0.15643232 0.113059245 0.112679355 -0.11987505 -0.040423635 0.03879291
-0.08515801 0.05196467 -0.07390621 -0.064201824 -0.14457718 -0.08070713 0.10955231 0.09521264
0.09318085 0.08320355 0.00956218 -0.05856055 0.12667733 0.04221442 -0.034988124 -0.014808263
-0.08664169 0.005077659 -0.012877892 0.046667334 -0.06526522 0.018162921 -0.054001242 -0.08072162
0.006757603 0.17372794 -0.12934093 0.038735338 -0.03605119 0.11796674 0.016045941 0.10484199
0.06266495 -0.027965114 0.024865836 0.03899736 -0.01855231 -0.106438234 0.06259187 -0.06582219
-0.19509025 -0.08648744 0.049088832 0.010920179 -0.104773216 -0.076065116 0.099985294 0.09317447
0.08573001 -0.1258899 -0.21952847 0.092200644 0.029646166 0.10764362 -0.20285785 -0.041333757
-0.21199138 0.08192191 0.24110821 -0.13201688 0.10867373 0.10307691 -0.1351145 -0.030378679
0.0740005 0.19132993 0.038800374 -0.012333325 -0.08653891 0.013293831 0.10798477 0.12041889
0.11770074 -0.0387751 -0.071425945 0.015211623 0.08840469 0.031931493 0.020497628 -0.031936932
0.20170914 0.058123898 -0.016428234 0.1761317 -0.073146686 0.14205451 -0.23927285 0.19652896
0.03506244 0.14170086 -0.11572087 -0.2387617 -0.11487689 0.13017519 0.07232668 0.13908899
0.19361737 -0.11835325 0.02218559 0.08580617 -0.1481918 -0.24721777 0.026706662 0.111994356
-0.16691117 0.0018880275 -0.01833955 0.15199237 -0.119503886 0.030868763 -0.104741305 -0.045405738
-0.040890653 -0.03437211 0.014753485 0.053062435 -0.06956735 0.16260602 0.036410913 -0.028998373
-0.010046625 0.043700747 0.060571127 -0.138081 0.105807565 -0.14598809 -0.12148432 -0.023964595
0.085608415 -0.069940396 -0.10651692 -0.11365341 0.056509357 -0.16837247 0.1958281 0.19916984
0.10542869 0.13792771 -0.08997017 0.12551096 0.050111156 0.16099587 -0.029671479 -0.027161717
0.017904032 0.068233214 -0.1518949 0.07542877 0.118252695 0.08503974 -0.13151418 -0.08776265
0.03837704 0.1292436 0.034904722 0.06639445 -0.098688975 0.15695201 0.04508812 0.029634105
-0.0783359 -0.0016069798 0.050997276 0.06986889 -0.23256525 0.046038117 0.020650962 -0.098631635
-0.13620397 -0.030667461 -0.078722686 -0.07811055 -0.00881569 -0.0097645195 -0.05111878 -0.09283136
0.011684759 -0.0030512002 -0.23581111 0.1347557 0.18775176 -0.09196047 -0.15665543 -0.17213579
-0.16343668 0.033770055 0.22526854 -0.22866999 0.0052681104 -0.08579763 -0.19363709 0.055966012
0.040113192 -0.051552176 0.2577464 0.17712614 -0.17128445 -0.09698282 -0.055367325 0.18040967
-0.00392719 -0.033259835 -0.1784081 0.06267825 -0.16374041 0.05761763 0.0649581 -0.1740149
0.11510416 -0.0011025771 0.028495613 0.2756972 0.20037293 0.22365223 0.010678365 0.04555905
0.028581137 -0.07902389 0.028230574 -0.057192154 -0.076911576 0.112467796 0.06971895 0.0048513077
0.08576519 -0.030689474 0.2115328 0.07938846 -0.24368313 -0.13369355 0.073686585 0.07175628

encoder_c.convs.2.bias f4 [64]
00000000: d379 d73a e630 793c 7a6c fa3c 387b 503c
00000010: 36a6 253c 88e5 0b3c b359 fa3c a8b5 47bd
00000020: fe0b 52bd da63 213c fee8 923c 2682 0e3a
00000030: 4234 c7bc 35a8 8cbc 8d1e c73c 8561 39bb
00000040: 61f9 0b3b 7f59 43bc 6b25 47bc 9c2d 1a3c
00000050: a316 bdbc 6d37 42bd 12fa 293c 7322 6a3c
00000060: 174f ac3c 418e 12bc eaf6 5bbc 2ac0 abbc
00000070: 48ce 353c 5eb4 343d 2ecc 3dbc f6e4 62ba
00000080: a6b3 86bc 596c 8cbc b3c9 853c c72b af3c
00000090: f649 8b3c 4192 303d 5d99 86bc c34a 763b
000000a0: a873 00bd 9b50 c6bb 5138 cfbc 4f8f 7abc
000000b0: 4410 c1bc b99d 603b 8cb2 b23c 7964 29bc
000000c0: cb10 7ebc 162f 98bc 6eb7 f23b 7e90 023c
000000d0: bf6b 4ebd 9f09 453e 7528 a3ba ab13 2c3c
000000e0: 1ef9 a4bc 1a04 c73c a4af 50bc 6cfa f03c
000000f0: b765 743c 70e5 eb3a 280c 9a3c 4930 b0bc
0.0016439505 0.015209412 0.030569304 0.01272469 0.010110429 0.008538611 0.03056035 -0.048757225
-0.051280968 0.009850467 0.017933365 0.0005436264 -0.02431691 -0.017170051 0.02430656 -0.0028286886
0.0021358358 -0.011923193 -0.012154917 0.009410288 -0.023082083 -0.04741614 0.010374563 0.01429044
0.021033807 -0.008945049 -0.013425568 -0.020965654 0.011096545 0.044117324 -0.011584325 -0.00086553337
-0.016443085 -0.017141508 0.01633153 0.02138318 0.01700304 0.04310823 -0.016430551 0.0037581183
-0.0313603 -0.0060520894 -0.025295408 -0.0152929565 -0.023567326 0.0034273698 0.021813653 -0.010338896
-0.015506933 -0.01857714 0.0074071204 0.00796902 -0.050395723 0.19241951 -0.001244797 0.010502736
-0.02013832 0.024293948 -0.0127371885 0.029416285 0.014916829 0.0017997455 0.018804625 -0.0215074

encoder_b.convs.0.weight f4 [116, 64]
00000000: d332 e7ba b3de f93a 3607 bba0 2689 a33d
00000010: fa97 6eb9 e9e9 813d 7490 34bd b539 3cae
00000020: 9fbf 17bd a730 66bd 0397 9cbd 716b 333d
00000030: 57b4 5832 2e66 26bb f756 08bc 7ae4 023c
00000040: 6a48 bcbc 97d4 04be cc4e dabd 6574 843d
00000050: 370d 9d3d 24c4 453a bd92 84b4 ff8c c5b5
00000060: cf87 b6bd e897 aabc 81c6 5f3b 5e8c c7bc
00000070: f5e7 c83d de10 babd d201 083d 467e fb3c
00000080: 4b38 8abc a67e 383d dd62 583b 0bf3 fd3c
00000090: 23e1 a73c 1692 b23d e2e2 3abc 00a5 973d
000000a0: e240 8f3c 0ccb cf3c b931 3c2d 2750 283d
000000b0: c22b 70bd 2dc9 0c3d f60d 9dbd 33fc 2c3d
000000c0: 74bf 941b dee9 813d 9820 8e3c b3a5 173d
000000d0: 37c8 16ba f84c 2ab8 d188 833d 113c 7f36
000000e0: ae9b 8d3d 7a1a 833c 8a08 ae3d 09ee ccbd
000000f0: ec79 8c95 aaec b8bd c41c 0080 2bbf b33c
00000100: 5451 dd3d 37bb 3fbc cb73 cba2 5dfe a83d
00000110: e4d5 20b9 338f 25bd d5cb 05bc d187 3cae
00000120: 37da 043d b5d4 a33d a024 e9bc 21b0 713d
00000130: c66b 21aa 7451 c4ba 62f7 853d 0c62 933c
00000140: fabc 42bc ce80 c03d 25fa 1a3d 65be 62bb
00000150: 0a9c aabd b4bb 14bb e48a 63b5 7a8d 16b0
00000160: 25f9 9dbd 7c62 7cbd 2b88 98bc a048 173d
00000170: 50e3 963d b6cf 82bd 87ee cdbb 44d5 2e3d
00000180: a73b 7d3c c8b7 12bc 3a5a 8d3c 1c4a f13b
00000190: f34d 9f3c 139f 1a3d 59fd 583c e60f 563d
000001a0: c064 94bc 444f 9fbd 1f28 28b4 71c7 01bd
000001b0: e3ce c83c 7ce9 76bd 9af1 90bd 8d51 f53b
000001c0: 7c0e 0000 4105 dd3d 2690 913c dcab 71bd
000001d0: 7f57 9db9 a243 23b9 281e 523d 6155 9fb7
000001e0: 84c6 b3bd 325e 523d 2290 49bd 77dc 943d
000001f0: 5327 a595 083c ae3d 6bf6 0c00 2935 533b
00000200: 6b64 26bb 5b63 f73b 5953 87b0 5c2a 42bd
00000210: 57d6 3ab9 108f 46bd 3695 0fbb cf81 2db0
00000220: 55d4 973c 80a9 dabc 61e5 103d 215c 643d
00000230: d0bc 342c 5c01 01bb 1b80 4fbc 35d6 7fbc
00000240: 6bcd b83c fbcc 14bc 3929 693d 9ca2 8c3d
00000250: 6a8c a03c 7e94 7cbb f5fe e5b3 b3c6 fbb0
00000260: 5338 813c 5555 54bd a2ef 6c3d 8f43 073d
00000270: 57a8 7fbd 7c09 9abc db3b 97bc 9ebb 9e3b
00000280: 9a84 593d 1717 793d 1324 093d 96b1 153c
00000290: 898d 303b d9b3 393d ee06 33bc 525f 643d
000002a0: 5c6f 81bc cc39 053e 2705 0080 ea5a fc3c
000002b0: a84f f93b 8440 803d 80e5 73bd 96e3 c03c
000002c0: 9b0f 0080 1fa7 61bd 2199 09bb a146 cf3d
000002d0: d327 fcb9 9850 9037 b19f c93b 1f66 75b5
000002e0: c96e 193d 81c8 b5bb 6dda a5bd 1a78 b23c
000002f0: 3868 dc04 19b2 40bd c9b4 9fa4 d65c 583b
00000300: 91e3 b3bc 40bf 403b 848c 8300 315a 433d
00000310: ca8a d2b8 f181 a4bd ab33 eebb 237c 4eb0
00000320: bdd6 01bc 0b99 36bd 2e4c 0d3b abfd 753c
00000330: 3731 f02b cbf3 beba 7c62 2c3c aa5f 923c
00000340: 6ba4 ef3b 1775 bfbd 3972 573d 36da 83bd
00000350: cc7d 9b3d 6181 fdba d626 5ab5 e02b fab1
00000360: b052 573d c978 723d fcc2 94bd de83 0f3c
00000370: 4d46 683d f056 efbc a7a9 d23c ffdc 863d
00000380: 5a76 bebc a7c1 923d 112b 1b3d 8e82 31bb
00000390: 3a67 b63b f161 d1bc 3ea5 bbbc 927c 693d
000003a0: 1607 d3bb 503a 69bd e603 0000 bfb8 bcbc
000003b0: deab 0bbb ef17 28bd 6fdb 1dbd 2af0 0c3d
000003c0: d261 0000 fae9 dd3d f3dc 23bb d753 98bc
000003d0: 32df 0bb9 a95c 8439 953d 8f3d 0339 bbb5
000003e0: 3d85 8b3c ea6c 4dbc 9625 e53d cde8 a8bd
000003f0: de7f 981a bb61 893d fa24 0000 ecdd cf3b
-0.0017639048 0.0019063562 -3.1683804e-19 0.07985143 -0.00022754064 0.06343443 -0.044083074 -4.2797505e-11
-0.03704798 -0.056198742 -0.07645991 0.043803636 1.2613859e-08 -0.0025390494 -0.008321515 0.007989043
-0.022983748 -0.12971722 -0.106595606 0.06467513 0.07668536 0.0007544181 -2.4693682e-07 -1.4718679e-06
-0.08912622 -0.020824388 0.0034145417 -0.024358924 0.09809867 -0.090852484 0.03320486 0.03069986
-0.016872546 0.045042656 0.0033017911 0.030999681 0.020493096 0.0871927 -0.011406632 0.07404518
0.017486993 0.025365375 1.0697603e-11 0.041092064 -0.05863548 0.034371544 -0.076686785 0.042232703
2.460827e-22 0.06343435 0.017349526 0.037023257 -0.000575188 -4.060284e-05 0.0642258 3.8032924e-06
0.06914459 0.016003836 0.084977224 -0.10006339 -5.673791e-26 -0.09029515 -1.0319e-41 0.021941742
0.10806528 -0.01170235 -5.514586e-18 0.08251641 -0.0001533847 -0.04041977 -0.008166273 -4.286688e-11
0.03243467 0.07999555 -0.028459847 0.05900586 -1.4337064e-13 -0.0014977888 0.06541325 0.017991088
-0.011885876 0.093995675 0.037836213 -0.0034598347 -0.08330543 -0.0022694888 -8.47662e-07 -5.477073e-10
-0.07713536 -0.06161736 -0.018619617 0.036934495 0.07367575 -0.06387274 -0.006284538 0.042683855
0.015456117 -0.00895495 0.017254937 0.007363571 0.019446349 0.03774936 0.013243997 0.052261256
-0.018114448 -0.077787906 -1.5660815e-07 -0.031684343 0.024512714 -0.06028126 -0.07077332 0.0074865283
5.196e-42 0.10792018 0.01776893 -0.05900179 -0.00030010563 -0.00015570087 0.05129829 -1.8994035e-05
-0.08778098 0.051359363 -0.04920972 0.07268613 -6.670501e-26 0.08507544 1.190424e-39 0.003222773
-0.0025389444 0.007549686 -9.846232e-10 -0.04740368 -0.0001781819 -0.04847628 -0.0021909005 -6.31215e-10
0.018533865 -0.026692152 0.035375003 0.055751923 2.568435e-12 -0.0019684648 -0.01266482 -0.015615036
0.022558888 -0.009082074 0.05692408 0.06866953 0.019598205 -0.0038540657 -1.071002e-07 -1.8319127e-09
0.015773928 -0.05183919 0.05784572 0.033023413 -0.0624164 -0.01880335 -0.018461158 0.004844143
0.053104974 0.060813036 0.03348167 0.009136578 0.002693983 0.04533753 -0.010926945 0.055754967
-0.01580017 0.13010329 -1.848e-42 0.03080507 0.0076083727 0.062623054 -0.05954504 0.023546021
-5.598e-42 -0.05509102 -0.0020995813 0.10120893 -0.00048094857 1.7203667e-05 0.00615307 -9.141822e-07
0.03745917 -0.0055475836 -0.08098302 0.021785785 5.181746e-36 -0.047044847 -6.926152e-17 0.003301432
-0.021959098 0.002941087 1.2080858e-38 0.047693435 -0.00010039432 -0.08032597 -0.007269343 -7.511877e-10
-0.007924733 -0.044579547 0.00215603 0.015014092 1.7066686e-12 -0.0014568506 0.010521527 0.017867882
0.0073133013 -0.09348505 0.052599166 -0.06438105 0.07592353 -0.0019340926 -8.126784e-07 -7.2809456e-09
0.05256909 0.05919722 -0.07263753 0.008759467 0.05670767 -0.02921626 0.025715662 0.065851204
-0.023249794 0.071658425 0.03788287 -0.0027085873 0.005566505 -0.025559397 -0.022905942 0.057003565
-0.0064400537 -0.056940377 1.398e-42 -0.023037313 -0.0021312158 -0.04103845 -0.038539346 0.034408726
3.5091e-41 0.10835643 -0.0025003522 -0.018594665 -0.0001333922 0.0002524604 0.06994168 -1.3949178e-06
0.017031306 -0.012538174 0.111888096 -0.08247528 6.307231e-23 0.06708094 1.3265e-41 0.006343594

encoder_b.convs.0.bias f4 [64]
00000000: 1c0b 013d fc06 043b 3737 c3bc 74fa c73b
00000010: 1a37 373b ba57 623b 5253 833c 8775 b1ba
00000020: d7a1 bd37 39d0 be3c 462c 273d 8581 61bc
00000030: 7889 1fbc 82f5 f63c cdef 1e3d 5c42 0abd
00000040: 3a21 78bc 3b74 bd3c eaa9 29b9 33f4 acbc
00000050: c23c e43c 5f85 4dbc c4ab 35bb 8726 4abc
00000060: d92c 0d3b 3fec 22bc 9988 bf3b 8054 033c
00000070: 320d 503d 5582 17bc 8423 143c 885f e43b
00000080: 1cd4 0b3a 0fac 763c 9ade 073d 5157 1cbc
00000090: 2dcb 8f3c 7bb5 143d 75f8 ebb9 c551 af3a
000000a0: a6a9 e63b 72f3 853c 8208 85bc 6a81 c9bc
000000b0: bdf2 f2bc 03d4 cc3c 5557 173d 3ba1 1e3d
000000c0: 9ea9 b7bc da1d 2b3c 493e 423d 1b49 2d3d
000000d0: a7d9 d83b b2ca c2bc d2a0 fc3c 3cba 57bc
000000e0: adf4 923c 6d23 8bbc eaac 733c e378 e5bb
000000f0: f0b8 c3bc 2d67 a63b b89e 24bc aa73 383b
0.031504735 0.0020145765 -0.02383004 0.0061028544 0.0027956427 0.0034537152 0.016030941 -0.0013539054
2.2605918e-05 0.023292648 0.040813707 -0.01376379 -0.009737365 0.030146364 0.03880291 -0.03375469
-0.015144641 0.023126712 -0.00016180394 -0.021112537 0.027861003 -0.012544005 -0.0027720788 -0.012338287
0.0021541624 -0.009944021 0.005845141 0.008015752 0.050793834 -0.009247382 0.009041671 0.006969396
0.0005334036 0.01505567 0.033171274 -0.009542302 0.017552936 0.036305886 -0.00045007808 0.001337581
0.0070392666 0.016351435 -0.016239408 -0.024597842 -0.029656762 0.025003439 0.03694852 0.03872798
-0.022419747 0.010444129 0.04742268 0.042306047 0.006617743 -0.023778293 0.030838404 -0.01316696
0.017938936 -0.016984666 0.014872769 -0.007002936 -0.023891896 0.0050782175 -0.010047607 0.0028145113

encoder_b.convs.1.weight f4 [64, 64]
00000000: 586d a6bd 142d 993a 4681 953b 6467 28b9
00000010: 55fe 4fb7 c7c9 98bd 6fba 2a3d 3fd4 ad3d
00000020: d3a1 443d 6e73 af3b c237 d4bd b519 123e
00000030: 840c 2d3e 415c b23d 980a 57b8 5c27 018f
00000040: b47c 27bb 4efc 093e dfb4 3c3d 063d 9bb2
00000050: 0545 ed3d ca52 1a3c 3654 e3bb e6d7 99bc
00000060: b2db a13d 2ed2 023d e8e0 923c d933 9fae
00000070: fac0 3c3d ab3b 4d3d a49b e1b4 3abf e434
00000080: f088 90bb 47e0 9bb4 962e 8e1c 9d01 301e
00000090: bd7b b4bd 0ac4 f6b3 f9f4 ab2c ac93 acb2
000000a0: a132 d690 18f0 173d 17fe 13be bc81 a63b
000000b0: 2c66 d83d fa17 793d 415e 3f3e 87ab b386
000000c0: 3f47 ba3c 5bc5 98bd e278 123c 6a89 473d
000000d0: 0871 0f3d d02e 1e3e cc3a ca3d e3af 7f3d
000000e0: 1b62 243e 9a05 4e3d cb8f 363d a64f 2dbd
000000f0: 1d6c bbbc b94d 97b6 3433 abbd 575d 1a3e
00000100: 776b 1abb 8a09 e73b 3bd9 8fbb cfdf 0b8b
00000110: 7426 0080 b77b ba3b c597 003b 567d 9fbb
00000120: 0a2f 003c d6f8 04bb 3483 d2ba dbc3 b33b
00000130: 55f9 b3ba 61dc c9bb cad2 c824 002a c499
00000140: a693 9a9d 5575 6b3b 8238 85bb bae1 3d0c
00000150: 4981 873b 86e9 8fb4 aa93 01bb 1268 2b3b
00000160: d7d6 a93b ec5e 5b3c a709 623b 4800 0900
00000170: b60f b5bb e55b ce3b a5f5 a006 baaf 6a11
00000180: 434d 3026 fc6e 0ba3 4d7f ffb2 3106 0000
00000190: 65a6 03b8 5f04 8692 5e6e a025 b9e9 9236
000001a0: 4ec9 5db5 9d0d 7fbb d304 4d3c 1605 23bb
000001b0: 3ab2 a13a f800 4e3b ce22 82bb 21bf 2a20
000001c0: b423 d8ba d3a2 583b cd54 0fbb bd5a 0cbb
000001d0: 9622 25ba f747 aa3b 3468 48ba 11e4 0b3a
000001e0: e4f0 833b 7859 993a 8631 c63b 843d 44bb
000001f0: 801f 613b 89a3 ec9b 06c4 8ebb 7a55 b339
00000200: f5f3 48b5 2d41 282f 7fdf 089b d402 0000
00000210: e307 0000 3b13 0000 4ab5 4295 0b07 0080
00000220: f0ae 1480 8fc3 b9b6 c6ba d022 f10d 0000
00000230: ee10 0b32 015f d5b3 3b88 88a7 7f18 0000
00000240: 5001 0000 6f3f 1836 a129 0080 86d4 a1af
00000250: cc0d e026 4d10 a4ad b57d 262c 2a10 00b6
00000260: 93e7 42af 6914 0d2b ced4 ba35 9904 0080
00000270: f008 0000 c602 0000 5638 c1b6 6b0a 88b0
00000280: f427 0000 4427 0080 5aca bb2e 729c c0b4
00000290: 50ba 5136 c09c cb8a bb2b 0080 c2f7 c8b6
000002a0: 170a 0080 e54e f326 34da e4b3 2225 0000
000002b0: e621 0000 9bc8 f7b3 e128 0080 a930 cfb4
000002c0: 3328 0000 922d b7ab 7381 0080 9f75 0f00
000002d0: a812 c997 c0d4 e40a 9194 2a8d 1012 0c34
000002e0: 471d 0000 0503 3eaa e841 dab6 f224 29b3
000002f0: 4b08 1a80 5a5a e135 910c 7f23 e805 0080
00000300: f0a4 f03c 5754 bbbb 3dfd 823c 751d afb6
00000310: e1ce 95b1 5970 d6bc 89be 14bc ec1b f8bc
00000320: 3ca4 373c 0c9f 8a3d 1a77 053c f23b 2ebd
00000330: 97c7 113d 1882 9e3d 6aba 4c2d 9c0e 1033
00000340: 9b7d 2a37 d631 ccbd dd89 3f3c a820 0000
00000350: fad2 d0bc da6f 2a37 6095 e33c 8102 9fbc
00000360: c181 38bd c2fd cdbd d909 adbc 5452 01b7
00000370: 3365 d43c a3bf 37bd 57fa 02ac 169e aeaa
00000380: d6e6 7039 317e ebb6 b9b1 2a25 eff9 78a5
00000390: 30e6 153d 9456 5fa7 493b 9107 b5be acb5
000003a0: 2b07 9eb4 7a4c 043d b88c b1bd 03f5 b63b
000003b0: 0445 2bbd 05f5 2ebc c177 813d d44e b636
000003c0: a088 043d 9656 4a3c 37c7 c23d dc93 a93c
000003d0: da78 4bbd 90b8 1e3c b171 ee3d 2ecb 7c3b
000003e0: fcf7 b93c 6897 d7bd 51ab d8bc 3014 363d
000003f0: e8e0 e0bc 44f7 5428 50d8 563d 18b3 833c
-0.081263244 0.0011686408 0.0045625297 -0.00016060245 -1.2397378e-05 -0.07460361 0.041681703 0.08487748
0.04800589 0.0053543365 -0.103621975 0.14267619 0.16899306 0.08709002 -5.126986e-05 -6.3677714e-30
-0.0025556507 0.13475153 0.04607093 -1.8072125e-08 0.1158543 0.0094191525 -0.006937529 -0.018779706
0.07903232 0.031938724 0.01792951 -7.239693e-11 0.046082474 0.050105732 -4.202276e-07 4.2607445e-07
-0.0044108555 -2.9034183e-07 9.408814e-22 9.317696e-21 -0.08812664 -1.1490927e-07 4.8873097e-12 -2.0090589e-08
-8.4486123e-29 0.037094206 -0.14452396 0.0050813835 0.10566363 0.06081388 0.18688299 -6.7584353e-35
0.02273905 -0.074595176 0.0089399535 0.048715033 0.035019904 0.15447545 0.09874496 0.062423598
0.1605305 0.05029831 0.044570725 -0.042312287 -0.0228787 -4.509199e-06 -0.083593756 0.15074669
-0.002356259 0.0070506977 -0.0043899096 -2.69388e-32 -1.3794e-41 0.0056910175 0.0019621712 -0.004867236
0.007823715 -0.002028992 -0.001606083 0.0054859943 -0.0013730923 -0.0061603044 8.7093264e-17 -2.0282889e-23
-4.0916125e-21 0.003592809 -0.004065574 1.4627957e-31 0.004135285 -2.6805736e-07 -0.0019771853 0.002615456
0.0051830816 0.01338933 0.0034490617 8.2662e-40 -0.0055255545 0.006297576 6.0546253e-35 1.8513495e-28
6.1166976e-16 -7.558707e-18 -2.9743797e-08 2.221e-42 -3.13878e-05 -8.457666e-28 2.7830363e-16 4.378348e-06
-8.262185e-07 -0.0038918026 0.012513357 -0.0024874858 0.0012336441 0.0031433683 -0.003971434 1.4462799e-19
-0.0016490133 0.0033056035 -0.0021870614 -0.002141639 -0.0006299404 0.005196567 -0.0007644922 0.0005336414
0.004026519 0.0011699637 0.006048384 -0.0029943893 0.003435105 -3.9148607e-22 -0.004356864 0.00034205226
-7.486081e-07 1.5302666e-10 -1.1321872e-22 1.015e-42 2.829e-42 6.899e-42 -3.9321e-26 -2.527e-42
-1.899466e-39 -5.5361957e-06 5.6576267e-18 5.001e-42 8.094714e-09 -9.9358665e-08 -3.7895284e-15 8.788e-42
4.71e-43 2.2686688e-06 -1.4934e-41 -2.9436736e-10 1.5546862e-15 -1.865188e-11 2.36598e-12 -1.9082895e-06
-1.7726469e-10 5.012159e-13 1.3920014e-06 -1.65e-42 3.206e-42 9.95e-43 -5.7584066e-06 -9.898263e-10
1.4332e-41 -1.4086e-41 8.53972e-11 -3.5876616e-07 3.1251875e-06 -1.9607152e-32 -1.5688e-41 -5.9893073e-06
-3.62e-42 1.6882897e-15 -1.0656768e-07 1.3321e-41 1.216e-41 -1.1538324e-07 -1.4665e-41 -3.859216e-07
1.4421e-41 -1.301558e-12 -4.6438e-41 1.419727e-39 -1.299403e-24 2.2035629e-32 -5.2564125e-31 1.3045087e-07
1.0503e-41 -1.6876438e-13 -6.504579e-06 -3.938198e-08 -2.390698e-39 1.6790102e-06 1.3826239e-17 -2.119e-42
0.029375523 -0.005716841 0.015989894 -5.2188357e-06 -4.35999e-09 -0.026176618 -0.00907863 -0.030286752
0.01120859 0.06768617 0.008146072 -0.042537637 0.035590734 0.07739657 1.163745e-11 3.35409e-08
1.0162034e-05 -0.09970443 0.011690584 1.1715e-41 -0.025491226 1.0158832e-05 0.027781188 -0.019410374
-0.045045618 -0.10058166 -0.02112286 -7.708168e-06 0.025927162 -0.044860493 -1.8613078e-12 -3.1018303e-13
0.00022974177 -7.0182364e-06 1.4805364e-16 -2.1595252e-16 0.036596477 -3.09944e-15 2.185202e-34 -1.2870502e-06
-2.943501e-07 0.032299496 -0.08669418 0.005583407 -0.041813865 -0.010678534 0.06321669 5.4331995e-06
0.03235686 0.012349745 0.095106535 0.020700388 -0.0496758 0.009687558 0.11642779 0.0038573253
0.022701256 -0.10526925 -0.026448878 0.044452846 -0.027450994 1.1821981e-14 0.052452385 0.01607661

encoder_b.convs.1.bias f4 [64]
00000000: bac0 043d f9aa 0abc df16 be3c b6a3 14bc
00000010: 3bb2 ecbb cb30 28bc 1c9c 6cbc ad2a ce3c
00000020: 12be 153d a384 9a3c fd18 fe3c bdc0 4a3c
00000030: 5e52 97bc 4ce6 113d 3481 b1bc 5efd 06bc
00000040: c548 ffba 21a8 343d 99d8 c63c 3795 d6ba
00000050: 2483 24bc f258 c7bc bbf1 0d3c 32e2 8a3c
00000060: e92c 1a3c f5e3 bf3b 8ac4 53bc b619 89bc
00000070: d54d 733d a28e 5e3c bc9d 81bc 3d5c 77bc
00000080: f2df 8dbc 8365 71bc 978c 5cbb 21e3 39bb
00000090: f689 f93b 3f23 d9ba 8d0b 37bc 2527 cdba
000000a0: cf37 38bc d8e0 bd3c 1459 f2ba fcbb b53c
000000b0: 92d9 143d 1251 2b3c 2332 803c 91c0 eeba
000000c0: b0f6 873c 70ad 2e3c ae5b da3c a20d 373c
000000d0: 9ccf ea3c 4b7e 443d ddff 7e3c 6aae e13b
000000e0: 6080 353a ca1d ac3c d317 25bc a812 3c3c
000000f0: 48c9 493c a2bd 20bc ca75 ac3d 373c 5d3d
0.03241036 -0.008463615 0.023204265 -0.009072235 -0.007223395 -0.010265539 -0.014441516 0.025166834
0.03655822 0.018862074 0.031017775 0.012375054 -0.018471893 0.03562002 -0.021668054 -0.008239118
-0.0019476643 0.044105653 0.024273204 -0.0016371374 -0.010041032 -0.024334405 0.00866359 0.016953561
0.0094101215 0.005856032 -0.0129252765 -0.016735893 0.0594004 0.013583811 -0.015822284 -0.015097675
-0.0173187 -0.014733675 -0.0033653134 -0.002836414 0.007615323 -0.001656629 -0.0111721875 -0.0015651925
-0.011243775 0.023178503 -0.0018489682 0.022184364 0.036340304 0.01045634 0.015648907 -0.0018215348
0.016597122 0.010661468 0.026655044 0.011172684 0.028663449 0.047972005 0.015563932 0.006887247
0.00069237314 0.021010298 -0.010076481 0.011479057 0.012316056 -0.009810837 0.08420904 0.054012503

encoder_b.convs.2.weight f4 [64, 64]
00000000: 65b4 4b3c 7dbb 723d 8a63 05bd 3ed1 363d
00000010: dc3a 193c 205a e83c 5526 55bd ecd6 04bc
00000020: 761f 95bc db5c 183d 93e7 193d 7643 bdbc
00000030: 9db2 663c 318d 9bbc a97a 0d3d fe5c 9dbc
00000040: a291 413d 5369 2ebb ea5f 19bd d01e e93c
00000050: 5182 eebb 61b5 1ebc 7f6e f23d e318 30bd
00000060: b5ae 1abd c4dd 9d3c c75b 443d 6409 69bd
00000070: ca40 f93c 595d 90bd 3f38 4d3d 59c7 023d
00000080: 5cb9 b63a 7733 11bd ebba a43c 1886 babd
00000090: f3fa 58bd 80dd 13bc 1326 6f3d 28ba 103d
000000a0: dff3 a6bb 3d76 2fbc a7f5 61bd aece 97bb
000000b0: 9244 b33c 0c5e ad3c aafe b93c b007 90bd
000000c0: d75d 883d ee95 db3c bf1d 4b3d a504 95bc
000000d0: 824e e2bb 31d8 3fbd e43a 85bd 0e2d 353d
000000e0: 25cc c5bc ba1a e83c 9fe4 51bd 7a3b 07bd
000000f0: d201 e33c 5182 61bd 9df8 3a3d a1a4 8fbc
00000100: b3a6 bb3b f0f7 a43b a404 5c3d a41b cdbc
00000110: e85e 8d3d 4907 5fbd 71b7 4fbb 5db4 1abd
00000120: 0b08 61bd ebaa 133d 792b a03c 4473 033c
00000130: 1c99 32bc 2094 e0bc 0e0b b6bc fe2d 85bc
00000140: 1507 e43c 1624 05bd 6467 7a3d c3bf 793c
00000150: 01fb 493b a81a 053e e531 16be 2e89 3d3d
00000160: 934f 74bc e02f c6bd ce27 0a3d afcb 513d
00000170: d995 ecbd 54b5 d23d a6f7 ffbd 6567 b63d
00000180: b843 bbbd a223 763d 9d1b 513c b1cc c73d
00000190: fdcd 643d 5134 2fbd ad52 b3bb bcdb 5bbd
000001a0: 6cf8 403d 3ad7 b5bd 5848 0bbd c06c cbbd
000001b0: 3732 97bd 79f2 193d 98e2 4e3d f617 f4bc
000001c0: 369e b0bd fdd4 d83c 5ea4 67bd da59 8fbc
000001d0: 71ae a53d 04dd d63d 7679 443d 7837 273d
000001e0: d90b b1bc 0c50 34bc 8297 8f3c 1549 09bd
000001f0: 9756 173c dfc1 4c3d 2a47 e8bd ee15 cc3c
00000200: 9a9f b93a 044b ab3d 48bf 4f3d cd11 49bd
00000210: e285 d13d b365 04bc 8144 2e3d d17f ceba
00000220: b797 5a3b 4fd3 113e def6 27bd e05e 083e
00000230: 727c 3c3b 1448 d7bd ee54 09bd a0e2 823d
00000240: 6fee 06ba 0088 913c 488f f7bd c2ea b63d
00000250: 15d6 4e3d f00e 88bd 96ec bdbd 4997 833d
00000260: 5950 d7bb d457 2cba a195 b83d 6471 24bd
00000270: 8406 a83d a037 793c 14b7 f63d 6d2f adbc
00000280: 747f e83d e9de ce3a 5bf4 113d 26ab 3a3c
00000290: 200e cfbc 4881 dbba 73a1 d3bd 4d43 93bd
000002a0: 9032 003d 4c53 943b cc67 bfbc 1a7b 803c
000002b0: 17d6 143a 2d97 5abc 5ce3 843d cfaf 07be
000002c0: d405 3abb 9519 af3d dcbc 0c3e bbb1 d33d
000002d0: 551c e1bd 91e7 3b3d 6e52 033d abdc 44bc
000002e0: ff0b 313c ca4b a8bd 0a04 c5bd a72c 98bd
000002f0: 19a6 bdbd f976 813d bc73 b3bc 66fc f23d
00000300: ec06 38b1 d1b5 ec21 a292 a40f 0b27 cd28
00000310: e6b3 35b2 1c6e c815 ee0f ac2e 4b9a a035
00000320: 1897 c48c c3d6 ab36 51d8 fa28 1e48 9893
00000330: 5c1c bc8e e16f 802f 40c2 ff33 ba71 3834
00000340: 75f8 1291 f132 fe8e bad5 752b 13f7 2f28
00000350: 58f8 1314 1721 0d2b e427 329f 1fd1 8f22
00000360: 2993 6fb3 1a31 4816 d1a7 a91a 297a 368c
00000370: 6b43 150d 1ce9 b4af d95c e8b0 0d89 0f2c
00000380: 534a 2e0f 98d6 42a0 0b33 aab2 1bf3 f38d
00000390: 2d9b db13 6693 8c34 584f 3222 a186 5096
000003a0: 04e8 a131 7e17 092f abd0 1637 6157 5ea4
000003b0: 96bd 82aa 650e f132 251c ee1a a945 df1b
000003c0: c4cc b5b2 8b8d 90b3 0c60 8736 afb9 3037
000003d0: eef0 660b 12a4 8eb1 f1cb e736 08db e718
000003e0: 35b6 be0c 90c6 06b2 fc7b 228e d7b7 6cb2
000003f0: dce0 4b8e d2d8 522e 8e8f 4e96 0c9e 090f
0.012433146 0.059260834 -0.03256563 0.044633143 0.009352412 0.028363287 -0.05203851 -0.008107882
-0.018203478 0.03719793 0.037574362 -0.023103457 0.014080671 -0.018988224 0.034540806 -0.019209381
0.047258027 -0.002661307 -0.037444986 0.028457075 -0.0072787185 -0.009686799 0.11837482 -0.042992484
-0.03776427 0.019270785 0.04793909 -0.05689372 0.030426402 -0.07049055 0.05010247 0.031928394
0.001394074 -0.03544947 0.02010866 -0.091076076 -0.0529737 -0.009024978 0.05838592 0.035333782
-0.0050949897 -0.010709343 -0.055165913 -0.0046327924 0.021883283 0.02116301 0.022704441 -0.07032716
0.066585235 0.02680489 0.049588915 -0.018190691 -0.0069063315 -0.046837036 -0.06505373 0.04423242
-0.024145195 0.028333057 -0.05124342 -0.033015706 0.027710829 -0.05505592 0.045647252 -0.017534556
0.005726659 0.0050344393 0.053715363 -0.025037594 0.069028676 -0.054450307 -0.0031695033 -0.037769664
-0.05493931 0.036051672 0.01955198 0.008023087 -0.010900762 -0.027414382 -0.022222068 -0.016257282
0.027835408 -0.032505117 0.061133757 0.015243473 0.0030819776 0.1299845 -0.14667471 0.046273403
-0.01491155 -0.096771 0.033729367 0.05121964 -0.11552019 0.10288492 -0.12498407 0.0890644
-0.09143776 0.060092576 0.012762931 0.09755839 0.05586051 -0.042774502 -0.005472502 -0.053676352
0.047111914 -0.08878942 -0.03400454 -0.09932852 -0.073826246 0.037584756 0.050509065 -0.029796582
-0.08623926 0.026468748 -0.056553237 -0.0174989 0.08089913 0.10491374 0.047967397 0.040824383
-0.021612095 -0.011005413 0.0175283 -0.033516962 0.009236953 0.049989577 -0.113416985 0.0249128
0.0014161945 0.083639175 0.05071953 -0.04908924 0.10230614 -0.008080888 0.0425458 -0.0015754645
0.003335459 0.14240764 -0.041006915 0.13317442 0.0028760699 -0.10511795 -0.03352826 0.063908815
-0.0005147224 0.017765045 -0.120878756 0.08931495 0.050497133 -0.06643474 -0.09273641 0.0642534
-0.0065708575 -0.00065743667 0.090129144 -0.0401472 0.08204368 0.015211016 0.12046638 -0.021140778
0.11352435 0.0015782985 0.035633426 0.011393344 -0.02527529 -0.0016746903 -0.10333528 -0.07190571
0.03129822 0.0045265313 -0.023364924 0.0156837 0.0005677654 -0.013341707 0.06488678 -0.1325066
-0.0028384821 0.08549801 0.13743919 0.10336634 -0.10991732 0.045875136 0.032061033 -0.012015502
0.010806083 -0.082175806 -0.09619911 -0.07430392 -0.09260196 0.0632152 -0.021905772 0.118645474
-2.6779459e-09 1.6040108e-18 1.622813e-29 2.2776504e-14 -1.0576491e-08 8.095308e-26 7.824484e-11 1.1965834e-06
-3.0289518e-31 5.1211987e-06 2.7849388e-14 -3.8441307e-27 -4.6372887e-30 2.336256e-10 1.1909697e-07 1.7177709e-07
-1.1593931e-28 -6.266489e-30 8.733809e-13 9.768027e-15 7.4705806e-27 5.0139184e-13 -3.7725963e-20 3.8981643e-18
-5.5780365e-08 1.6171365e-25 7.0167884e-23 -1.4057531e-31 4.599532e-31 -3.2907443e-10 -1.6906611e-09 2.03976e-12
8.593177e-30 -1.6503442e-19 -1.9813816e-08 -1.5034557e-30 5.5436387e-27 2.6184279e-07 2.4165503e-18 -1.6844588e-25
4.712094e-09 1.2468424e-10 8.989281e-06 -4.821259e-17 -2.322419e-13 2.8062638e-08 9.847996e-23 3.6937272e-22
-2.116429e-08 -6.731269e-08 4.034495e-06 1.053365e-05 4.4477644e-32 -4.1513966e-09 6.9080784e-06 5.9933266e-24
2.9383797e-31 -7.8449744e-09 -2.0027738e-30 -1.3778808e-08 -2.5129948e-30 4.7941047e-11 -1.6685845e-25 6.78506e-30

encoder_b.convs.2.bias f4 [64]
00000000: 8f29 5a3c 9711 353d cca8 223d 5085 b63c
00000010: 7998 103b 2417 3e3d 9718 05bd b073 1ebd
00000020: b01b 233c fb63 563c 84ab 9ebc 0027 acbc
00000030: f1b0 f63c c6c6 37bd 7264 e3bc a64d cc3c
00000040: 74b9 d4bb bc06 46bb 92f3 4d3c 67e1 803d
00000050: 48a3 d6bb 273d 8fbc ef00 0b3d adab 093d
00000060: c2ff 293c fb96 84bc f7d9 14bd 26c5 55bc
00000070: c872 123d 9177 753c 461a d03c d51b 073d
00000080: 88da 9a3c dab1 aebc 7179 4c3d 0013 3fbc
00000090: 2f61 92bc 5649 24bc 1553 4e3d c663 c7bc
000000a0: 8ea4 23bd 81f9 a13c 6c81 61bd f6cb 8d3b
000000b0: 54c8 40bc 8832 dabc 96af 193d 754d 233c
000000c0: 569e 743c c924 f13c 43c5 eb3c c7e2 f2bc
000000d0: 1820 273c 7584 143d 0d76 29bd ee0d 97bc
000000e0: 3aee 5ebd 56c1 64bc 99bc 71bc 8a25 ccbc
000000f0: 2fe2 553c 673e b93c 9761 883c 7840 b63c
0.013315572 0.044206228 0.03971176 0.022280365 0.0022063537 0.046408787 -0.032494154 -0.038684547
0.009955332 0.013085361 -0.019368894 -0.02101469 0.03011367 -0.0448673 -0.027757857 0.02493937
-0.0064918343 -0.0030216416 0.012570279 0.06292992 -0.0065502264 -0.017485214 0.033936437 0.03361099
0.010375919 -0.016185274 -0.03634068 -0.013047492 0.035753995 0.01498212 0.025403153 0.032985527
0.018903032 -0.02132504 0.049920503 -0.011662245 -0.017868606 -0.01002725 0.050372202 -0.024339568
-0.039951853 0.019772293 -0.055055067 0.0043272926 -0.011766512 -0.026635423 0.037520967 0.009967198
0.014930328 0.029436486 0.028780585 -0.029649151 0.010200523 0.036259133 -0.041372348 -0.01843926
-0.05442641 -0.0139621105 -0.014754438 -0.024920244 0.013054415 0.022612764 0.016648097 0.022247538
