results/ckpt_best_fold_2.pt (torch, 660365 bytes, 72 tensors)

encoder_c.convs.0.weight f4 [116, 64]
000000 90 93 f8 3b db 9f 88 bd 6a 2a 6e 3c 01 8c c4 bb
       0.00758595 -0.06671115 0.0145364795 -0.005998135
000010 54 e5 d2 3c 5e b3 36 3d 1d 19 00 bd b8 c1 09 be
       0.025744118 0.04460465 -0.03127395 -0.13452804
000020 75 ee 2f 3c 23 79 44 17 3b 0f c8 3c a4 e3 d7 3c
       0.010738005 6.348391e-25 0.024421325 0.026353665
000030 eb 1d 1a bd e4 e9 0b 3e 1d 25 aa 3b 51 5c 92 3d
       -0.03762619 0.13663441 0.0051924125 0.07146514
000040 39 7e 82 3d 52 2b 3b bd 36 36 09 bc 27 1d 21 3e
       0.06371731 -0.04569561 -0.008374741 0.15733777
000050 bf 05 ed bd c3 9b 11 ba d4 94 b4 bb 17 9f 8e 3d
       -0.115733616 -0.00055545213 -0.0055109058 0.06963938
000060 28 dc 15 bc 34 d1 97 3c a1 02 1b bc a3 2f b0 bd
       -0.009146728 0.018532373 -0.009461076 -0.08602836
000070 e0 ab bc bd 05 b0 26 bd 98 76 36 be 7c b3 cb bd
       -0.0921247 -0.04069521 -0.17818677 -0.09946343
000080 a7 1c b0 3c f0 8f df 3d e3 62 3e 3b 2e a5 55 bd
       0.021498038 0.10916126 0.002905064 -0.05215948
000090 e8 ca ce 3d f9 c7 8f bb 6c a3 87 bd 14 09 c2 bd
       0.10097295 -0.0043878523 -0.06622967 -0.09474388
0000a0 d6 0a e6 bc d9 8e 0a be 11 35 2d 3d e6 5e 98 3d
       -0.028081339 -0.13531055 0.042286936 0.074399754
0000b0 8f 43 48 bc 95 91 7e 3d b2 bf a9 3d 75 6f 4e 3b
       -0.0122231385 0.062150557 0.08288516 0.003149954
0000c0 52 3d c6 3c 96 67 a2 3c 78 66 5c bb 21 1b b4 3d
       0.024199162 0.019824784 -0.0033630412 0.08794237
0000d0 ae 5c 05 3e 00 2b 9a 3d a3 7a 94 bd ca ce 30 3c
       0.13023636 0.07527733 -0.072499536 0.01079149
0000e0 82 8c cf ba a1 18 e3 3d 52 6e 4f 3c d7 c6 2f 3e
       -0.0015834721 0.11088682 0.01266058 0.17165695
0000f0 c7 44 ac 3d 5a 83 dd bd b3 7e 8c 3d 9e 9e 2c 3e
       0.08411556 -0.10816069 0.068601035 0.16857383
000100 2c ae fd 3c c4 8d 1f bd cc d5 6d 3c f1 20 71 bd
       0.03096684 -0.038953558 0.014516305 -0.058869306
000110 ba 96 8b 3c 3e 9d aa 3d 1b 98 34 be 6b 77 05 3e
       0.017039645 0.08330773 -0.17636149 0.13033836
000120 7b d1 65 bb 1e 40 ad 89 d2 69 4d 3b 89 15 1b 3d
       -0.0035067487 -4.170853e-33 0.0031343591 0.037862334
000130 48 5d 38 3c b7 0f 2b be 3d 87 a1 3b f9 f0 b5 bd
       0.011252709 -0.16705213 0.0049294517 -0.088838525
000140 db b4 0c 3e 03 50 5e bc 1c 5d 3f bd ce 0e 00 3d
       0.13740866 -0.013568881 -0.046719655 0.03126412
000150 5a 7d 35 3d e3 27 95 bd e1 c0 5b 3c 30 fb 48 3d
       0.044308998 -0.072829984 0.013412685 0.049067676
000160 24 e5 d0 bd 9d 1e 31 bd 0b 58 8a bc 9c 01 d7 bd
       -0.10199955 -0.043242086 -0.016887685 -0.10498354
000170 47 ed b8 3d db 12 b9 bb ee a9 93 3d 21 b5 bd 3d
       0.09029632 -0.0056479997 0.07210146 0.09263063
000180 4a 7c 07 be c0 b7 e8 bd a6 b8 00 be d4 06 be bc
       -0.13231006 -0.113631725 -0.12570438 -0.023196615
000190 ad be 4a bd 7f 95 91 bb a0 0b 50 be 61 e4 7a 3d
       -0.04949825 -0.00444287 -0.20316935 0.061252955
0001a0 97 83 b3 3d 0a b9 8d 3d fa 0d 8d 3d 24 a9 0a 3e
       0.08765333 0.06920059 0.068874314 0.13541085
0001b0 43 a7 1d be e0 d4 11 3d 70 a3 2c 3e 3c 3d 0c be
       -0.15395837 0.035603404 0.16859221 -0.13695234
0001c0 d8 64 37 bd 5d 8d 8f bc dd e6 b8 bc f7 19 a9 bc
       -0.044773906 -0.017523462 -0.022571022 -0.020642264
0001d0 64 21 69 bc 9d 96 00 3e b7 f5 30 bd 6b 2c e5 3d
       -0.014229152 0.12557454 -0.043203082 0.11190113
0001e0 ec ad ef 3d 5b 16 b5 3d 4f 0f b0 bd e8 04 13 3e
       0.11703095 0.088421546 -0.0859667 0.1435734
0001f0 50 d2 ed 3d cd 30 bb bd da e0 3b bd 5b a2 ed 3d
       0.116123796 -0.091401674 -0.045868732 0.116032325
000200 d1 97 9c bc 9a 4b 09 be 7c 0e 4d bd 49 d9 f1 3b
       -0.01911536 -0.13407746 -0.05006264 0.0073806387
000210 e3 66 a0 bd 4b b2 22 be 54 cf b4 3d 3a 42 a2 3d
       -0.07832124 -0.15888326 0.08828607 0.07922788
000220 df d7 51 3c 00 87 70 10 2c b4 20 3e 7f 6d 2e 3b
       0.012807815 4.7435655e-29 0.1569373 0.0026615558
000230 62 59 29 be 79 5b 7f bc fb aa 1b bb 5d b8 af 3d
       -0.16538003 -0.015585774 -0.0023753035 0.085800864
000240 a2 b8 ea 3b a2 bd 2d 3d 06 78 ed bd 59 89 0d 3e
       0.007163123 0.042417176 -0.11595158 0.13821925
000250 f7 e3 f7 3d c7 1d dd bd b8 30 ac bc 41 88 b8 bc
       0.12104028 -0.10796695 -0.021019325 -0.022525908
000260 3f f6 e3 bd e7 35 25 bd ff 4f 3b bd 00 4c 0a be
       -0.11130952 -0.04033461 -0.045730587 -0.13505554
000270 d8 41 a9 bd 54 4c 08 bc 5b 85 35 3e b1 d4 89 3d
       -0.08264512 -0.008318979 0.17726652 0.06730021
000280 31 ed be bd 8e f3 0e 3e b2 1a d7 3c df 41 2c be
       -0.093225844 0.13960096 0.026257847 -0.16822003
000290 24 f4 33 bc fe 68 d8 bb be a1 c6 bd 79 2f 9d bc
       -0.010983501 -0.006604313 -0.096988186 -0.019187676
0002a0 c8 85 9d bd 4e 18 f7 bd b0 18 62 bc b5 7f af 3b
       -0.076915324 -0.120651826 -0.013799831 0.0053558
0002b0 1f f4 d4 3d 95 b9 b2 bc be 80 10 be b0 d6 1b 3c
       0.10398125 -0.021817008 -0.14111611 0.009511635
0002c0 40 bc c1 bd fd 63 11 3d 73 69 c3 3c c0 50 6b 3d
       -0.09459734 0.035495747 0.023853993 0.057450056
0002d0 48 d5 98 bd 13 97 29 bd f5 95 c2 3d 1e d0 52 3d
       -0.07462555 -0.04140384 0.09501258 0.051468007
0002e0 c2 6b b3 bd 4c ec ea bd 59 72 ca bc 2e b6 5b 3d
       -0.087607875 -0.11470851 -0.024712728 0.053640537
0002f0 dd 60 f4 3d a9 1b 89 3d 68 e1 7d 3d 94 dc 0a be
       0.11932538 0.06694729 0.061982542 -0.13560706
000300 96 6b 05 3c 3f 15 bb 3d 70 ef 8a bd 44 88 51 bb
       0.008143326 0.09134912 -0.0678395 -0.003197209
000310 d8 fa 8d bc 70 f5 eb bd 6a 74 c2 3d 07 db e5 3d
       -0.017331526 -0.11521423 0.094948605 0.11223417
000320 67 98 26 bb cd 27 ba 88 47 a9 80 bd 76 ed c6 bd
       -0.0025420429 -1.1203825e-33 -0.06282287 -0.09713261
000330 c4 11 f0 bc 78 08 fe 3d c0 81 be bb b4 81 d1 bc
       -0.029305346 0.12403959 -0.0058138072 -0.025574543
000340 0b 7f 49 bc e1 4b 32 bc 6d f0 d1 bd a5 92 05 bd
       -0.012298356 -0.010882349 -0.10250936 -0.032610554
000350 12 83 95 3c 72 56 ba bd 25 54 33 be 3e bf 0c 3d
       0.018250976 -0.090985194 -0.17512567 0.03436207
000360 e6 31 32 3d 29 c5 63 bd b4 b2 7c 3d 7c 6a 12 3e
       0.043504618 -0.05560795 0.061693862 0.14298433
000370 90 65 35 3d ce e7 3e bd 26 12 38 3e 45 fb fe 3d
       0.04428631 -0.046607785 0.17975673 0.124502696
000380 65 66 67 bb 5d 5f 63 bd 90 da 66 bd 62 f5 f7 3d
       -0.0035308835 -0.055510867 -0.05636078 0.1210735
000390 2f ab 84 3d 88 1b 29 bc 8a 5c 3c 3c 10 db dd 3c
       0.06477963 -0.010321505 0.011496672 0.027081996
0003a0 fa 14 9f 3c 93 ac 1f bc af ca 55 3b 58 ea 57 bc
       0.019419182 -0.009745735 0.003262203 -0.0131784305
0003b0 2b 68 e4 3b d2 6f 4c bd 06 85 a0 bd c6 3c 9d bd
       0.0069704256 -0.049911328 -0.07837872 -0.07677607
0003c0 d3 13 f5 bc 8b 90 b9 3d 76 e9 94 bb ff 3f 0b be
       -0.02991668 0.090607725 -0.0045444323 -0.13598631
0003d0 a3 ef 20 3e 60 a9 8b 3d 75 e6 06 3e 9e bb 9f 3d
       0.15716414 0.06819415 0.1317385 0.07799457
0003e0 94 6d 30 b9 3a 74 02 be f6 0e 81 bd ee 7b bf bc
       -0.00016825489 -0.1273965 -0.06301682 -0.023374524
0003f0 ca f3 3c 3d fc 44 1d be c3 f0 12 be 15 07 ec 3d
       0.046130933 -0.15358347 -0.14349656 0.11524788

encoder_c.convs.0.bias f4 [64]
000000 a0 38 a5 3a c0 c3 66 3c 18 83 81 3c 48 3d 0c 3c
       0.0012605377 0.014084756 0.01580958 0.008559532
000010 5d bb 31 3c 9f a8 30 bb c3 f2 1c 3b 1f fc ab 3b
       0.010847894 -0.0026955975 0.0023948408 0.005248561
000020 ba 9a 47 3b 92 51 97 bb 70 c0 fe 3b 75 51 ab 3c
       0.0030457214 -0.0046178782 0.007774405 0.020912865
000030 e4 7f fb 3c 1c 54 ae bb a5 56 21 3d 7d 7b 47 3c
       0.030700631 -0.005320085 0.03938927 0.012175438
000040 33 6a e9 bb ee 09 8c 3c 0b bc ee 3b 91 ba d9 bb
       -0.0071232556 0.017094579 0.0072856 -0.006644555
000050 89 c4 2b 3b 4b 33 fc bb 3f e8 e2 3c 29 57 8b ba
       0.0026209673 -0.0076965443 0.027698634 -0.0010630834
000060 56 60 e5 ba 5f 00 3f 3b 04 a3 f3 3a 6f 52 74 3b
       -0.0017500024 0.0029144508 0.0018588011 0.003728058
000070 33 70 0e 3c ad 6e fd b8 6e 13 a4 3a 35 e5 45 3c
       0.008693743 -0.00012084595 0.0012517998 0.012078573
000080 f1 74 fb 39 ee 74 9f 3c b2 d5 d3 3b aa cc 1b 3c
       0.0004796158 0.019464936 0.0064646835 0.009509245
000090 1f de d9 3a 92 14 bf bb d3 d0 13 3c af 9f 96 3c
       0.0016621983 -0.0058313096 0.009021956 0.01838669
0000a0 6f 6e 16 3d dd 3b 99 3c de 32 11 3c 30 07 db bb
       0.03672641 0.018705303 0.008862225 -0.0066842064
0000b0 e9 c3 7a 3c 76 e5 20 3a 90 0c 8d 3a 71 51 b6 3a
       0.015305498 0.0006137708 0.001076119 0.001390977
0000c0 82 4c e6 3c 9a 94 6b 3c 7b fd 98 3c 3a b0 53 3c
       0.028112654 0.014378691 0.018675556 0.012920434
0000d0 cc 0d fc 3b 92 29 32 bb 74 f2 92 3c e7 8f 1d 3c
       0.0076920744 -0.0027185422 0.017937876 0.0096168285
0000e0 00 34 65 3c 21 d5 a3 3b 40 45 00 3c 2d 41 69 3c
       0.013989449 0.004999772 0.0078290105 0.0142367305
0000f0 f8 cb 58 bc 1f 9e bf 3c d1 48 7d 3b 05 01 65 3b
       -0.013232224 0.023390828 0.0038648138 0.0034943235

encoder_c.convs.1.weight f4 [64, 64]
000000 ed 61 12 bc af 74 94 3c 0e f2 6d a8 a2 c8 8f 37
       -0.00893448 0.018122045 -1.320863e-14 1.7140355e-05
000010 a6 2b 1e bb a7 ab 8f ba ae 6a 13 3c f6 c5 28 3a
       -0.0024134903 -0.001096119 0.008997602 0.000643819
000020 8a 3c 5e bb 83 d2 05 3b af 60 88 3c 23 d8 08 3b
       -0.0033910596 0.0020419664 0.016647665 0.002088078
000030 48 d1 05 bb 8f 35 cf bb b9 19 29 3c 78 28 08 3b
       -0.002041893 -0.0063235234 0.010321074 0.0020776074
000040 d6 7b 45 3b a0 af c8 bb f4 3a c3 bb a7 a9 71 36
       0.0030133626 -0.0061244518 -0.0059579555 3.601055e-06
000050 e9 2d 58 3c 7e 8c 9f bb d6 96 6c b9 f4 e8 f2 b8
       0.01319454 -0.004869043 -0.00022562905 -0.0001158285
000060 69 d0 87 bc 95 89 4b bb 03 58 00 00 a3 b7 53 bb
       -0.01657887 -0.0031057347 3.1573e-41 -0.00323055
000070 7e b3 dd bb ad 4e a7 bb 4b b5 dc 3b c1 00 eb 3a
       -0.006765782 -0.0051058144 0.006735479 0.0017929302
000080 8f af 47 bc 65 6b 97 bc fe fa ae ba 7e 33 15 bd
       -0.0121878525 -0.018483827 -0.0013349948 -0.03642606
000090 9a 22 a5 bb 9c 6e 86 3b 23 29 41 3b 59 35 59 3c
       -0.005039525 0.004102541 0.0029473982 0.013257348
0000a0 a0 42 a9 b9 92 3e 2b 3b 9d 24 4e bb 39 2f a9 3c
       -0.0003228383 0.0026129824 -0.0031454929 0.0206524
0000b0 ac 85 73 3b fb d1 eb bb f8 5b 90 3b 9a 05 b0 ba
       0.0037158532 -0.0071966625 0.004405495 -0.0013429404
0000c0 2e 95 74 bc 7d ab 65 3b 71 31 8f ba 2d 81 4d ba
       -0.014928145 0.0035044842 -0.0010924769 -0.0007839378
0000d0 2f c3 0f 3a 1d a4 27 3b 1e b5 f2 3a 18 b3 1f 8a
       0.0005484102 0.0025579997 0.0018517112 -7.689255e-33
0000e0 c8 f5 1c ba 96 c9 46 3a 55 14 03 06 a1 68 92 3b
       -0.0005987552 0.0007583139 2.46533e-35 0.004468039
0000f0 88 d4 2b bd 5b 78 4d bb 9d 4b b6 3a d5 20 07 3c
       -0.041950732 -0.0031352255 0.0013908033 0.008247574
000100 f3 a1 25 3c 54 c8 67 3e f1 5f 87 30 3e ff 12 b9
       0.0101094125 0.22635013 9.849811e-10 -0.0001401873
000110 4e ed 3f be 09 63 1d bc f9 6b ef 3d 29 82 03 3d
       -0.18742868 -0.009606131 0.11690516 0.032106552
000120 14 9a 71 bd fd e2 27 3d 5a f7 3b 3e 48 fa 81 bd
       -0.05898483 0.040987957 0.18356076 -0.063465655
000130 a7 ef 22 3c 6e b1 99 bd 98 a8 c2 3a 86 59 06 3d
       0.009944833 -0.07504545 0.001485127 0.03280022
000140 61 2f 20 be aa 26 2c bd 71 0b 03 3c 7c 07 03 3b
       -0.15643074 -0.04202906 0.007998333 0.0019993475
000150 53 ca 8d 3d ec 2a c7 3d f7 d9 1e 3c f4 a6 df bc
       0.06923356 0.097249836 0.009695522 -0.02730129
000160 8f 54 40 3e 7d 80 81 3c 87 50 09 80 33 91 cc 3c
       0.18782257 0.015808338 -8.55407e-40 0.02497158
000170 75 14 53 be 1d 28 99 bd 4f 14 29 3e 2d d1 70 be
       -0.20613272 -0.07478354 0.16511653 -0.23517294
000180 0e 07 cf 3d 52 bb 1a be 14 e7 d5 3d 72 b3 d0 bd
       0.101087674 -0.1511052 0.10444465 -0.101904765
000190 bf 3b af 3d dc 61 55 bd c8 b0 0f bc 54 8e 41 bd
       0.085563175 -0.05209528 -0.008770175 -0.047254875
0001a0 b1 64 9e bd eb f0 07 3e c9 15 42 3d 86 cd 42 3e
       -0.07734049 0.13275497 0.047384057 0.19023713
0001b0 35 88 d4 bc fa 4d dd bc 5d 20 fc 3d e1 a0 16 3d
       -0.025943855 -0.027014721 0.1231086 0.03677452
0001c0 98 a6 62 3d da 60 84 3e fa d8 7c 3c c1 49 2e 3e
       0.055334657 0.25855142 0.015432591 0.17020322
0001d0 0d 7a 71 3e aa 8d e8 3d 68 4c 35 be 52 76 ab b3
       0.23581715 0.11355145 -0.17704928 -7.98433e-08
0001e0 33 16 36 bd 27 36 2d 3e 1c 4b f3 32 91 59 3e bc
       -0.044454765 0.16915189 2.8323079e-08 -0.011618034
0001f0 ed 60 5f 3e d4 28 51 be c1 85 05 be 7a f6 1d 3d
       0.21814318 -0.20425731 -0.13039304 0.038565136
000200 76 86 cb 3c 5e 46 07 bd 91 b9 d3 29 5c 36 46 b7
       0.02484439 -0.03302609 9.402473e-14 -1.1814376e-05
000210 3e 13 eb 3b 66 7e b7 3c c6 2d 56 bc b6 58 a5 3d
       0.0071739247 0.022399139 -0.013072437 0.08073561
000220 f9 48 25 3d d7 a9 90 bd 99 9e ed bc 1d 52 6e bd
       0.040352795 -0.070636444 -0.02900629 -0.058183778
000230 f6 55 40 3d de 7d 98 3d 93 1c 89 bd 79 b8 c4 bd
       0.04695698 0.07445882 -0.06694903 -0.09605498
000240 7e b4 61 3d 92 54 60 3d 75 cf 81 3d e0 3f b9 b8
       0.05510377 0.054768153 0.063383974 -8.833385e-05
000250 f9 26 64 bd 33 83 ce bd 1c e6 97 3d 4c 82 b1 bc
       -0.05570123 -0.10083618 0.07416937 -0.021668576
000260 c8 3d ee bc d4 1f 73 3c 50 70 bf 80 51 b7 83 3d
       -0.029082194 0.014839131 -1.758087e-38 0.06431449
000270 04 23 8b 3d 5d 7f ea 3d d5 ee 4e bd 82 30 ad 3d
       0.06793788 0.11450074 -0.050520737 0.08456518
000280 ed 54 4b bd 96 d6 b7 3d 02 94 ed bc 3d 01 19 3e
       -0.04964154 0.08976476 -0.02900124 0.14941879
000290 64 02 92 bd 90 21 94 3d a8 04 8e bd 38 53 90 bd
       -0.07129362 0.07232964 -0.06934482 -0.07047123
0002a0 62 4e 9e 3d 71 35 55 bd 35 84 4f 3d 4c 13 4a bd
       0.07729794 -0.05205292 0.05066319 -0.04933481
0002b0 26 dd 63 bd 80 7a 88 3d cb 8d 71 bd 25 b6 f4 3c
       -0.055630825 0.0666399 -0.058973115 0.02987201
0002c0 61 23 95 3d f3 a0 62 bd 31 b6 8b 3d b1 fe 88 bd
       0.072821386 -0.055329274 0.0682186 -0.066892035
0002d0 01 80 73 bd df 8c e1 bc 40 4e 96 3d 3f cf 92 a7
       -0.059448246 -0.027532993 0.07339144 -4.0747837e-15
0002e0 a7 4d 28 3d 82 b5 31 bd d0 89 b0 ab 82 83 ba 3b
       0.04108968 -0.04338599 -1.2543803e-12 0.0056919465
0002f0 06 9a a3 bd b9 29 fe 3d 71 ed d0 3d ac af 8a bd
       -0.07988362 0.12410302 0.10201538 -0.06771788
000300 4e 94 86 3b c5 99 9b 3d 1a ff 51 ac c0 87 df b8
       0.0041070348 0.075976886 -2.9842296e-12 -0.00010658754
000310 7b d6 b4 bd bc c2 19 3c e1 2d 09 bd 61 35 25 bd
       -0.088299714 0.009384807 -0.03349102 -0.04033411
000320 27 de 8a bd 59 ca 4a 3b 41 b1 35 bd 96 52 57 3d
       -0.067806534 0.0030943363 -0.044358496 0.052568994
000330 71 10 96 bb 08 1b 0c bd cf a5 4a 3c c2 fa c2 3c
       -0.0045795967 -0.034205467 0.012368633 0.023801211
000340 68 9c 9e 3d ea 78 26 bd 92 43 88 bb 9f 85 23 bb
       0.07744676 -0.040642656 -0.0041584456 -0.002495147
000350 90 9d 6b 3c cc b0 e3 3c 1c ad aa bb 56 32 78 3c
       0.014380828 0.027794264 -0.0052086245 0.01514872
000360 15 70 81 3c ca c5 80 bc 4e 8d 00 00 ba 33 08 bc
       0.015800515 -0.015719313 5.069e-41 -0.008313114
000370 ff fa 65 3d 8d 50 2d bd cf f4 c2 3b 69 60 ca 3c
       0.05614757 -0.042313147 0.0059495936 0.024704175
000380 08 87 a3 bd 09 ad 0a bd c5 62 48 bd 6a 22 6a bc
       -0.079847395 -0.033856425 -0.04892232 -0.0142904315
000390 31 92 83 3b 36 23 1a bd 22 a0 0f 3c 16 20 82 3d
       0.00401523 -0.037631236 0.008766206 0.06353776
0003a0 a9 18 3b bb 73 f6 89 3c 15 86 03 bd 0e a7 47 bc
       -0.0028548634 0.016841149 -0.032110292 -0.012185825
0003b0 a8 27 63 3c 80 ce 04 3d 57 c7 af 3c c8 4a 6c 3d
       0.013864435 0.032423496 0.021457357 0.057688504
0003c0 a1 d4 4a 3d b5 af 8f 3c 5f 44 4d bb 92 ef 8b bd
       0.049519185 0.017539838 -0.003132127 -0.06832804
0003d0 f2 03 3a 3c fc ab ed bc 98 23 d4 39 db 68 02 b7
       0.01135348 -0.029012673 0.0004046231 -7.773017e-06
0003e0 68 3a 83 bd b8 5a a4 3d 69 62 fa ae 31 35 93 3c
       -0.064076245 0.08025116 -1.1386165e-10 0.0179697
0003f0 e2 a2 a3 3d 30 83 46 bb 0d 60 79 3b 73 43 b1 3c
       0.07990052 -0.0030290596 0.0038051635 0.021638608

encoder_c.convs.1.bias f4 [64]
000000 d1 4b 8d bc a1 3d fd 3b 4f af fc bb ef ab 79 3b
       -0.017248066 0.007728294 -0.007711328 0.0038096865
000010 7d b0 46 bb 0c 61 e6 3a 63 91 f1 bb e1 e5 75 3c
       -0.0030317598 0.001757653 -0.007372068 0.015008421
000020 9b 02 2b 3c 74 38 31 bc 67 44 9c 3b db 69 97 bb
       0.010437633 -0.010816682 0.0047688964 -0.0046207733
000030 b8 d2 88 3c f1 40 e5 3c 82 66 87 3c 5d 1e 06 3b
       0.016702041 0.027985068 0.016528372 0.0020464875
000040 f6 3f 68 3b bb 5d 79 3c 68 00 5f 3c fc f3 b8 bc
       0.0035438514 0.015220101 0.013610937 -0.022577278
000050 77 54 0b 3c 43 6f 43 3c ff ed 75 3c cd b3 07 bd
       0.008504025 0.011928382 0.015010356 -0.033130456
000060 cd a2 66 ba 9c 3b bd bb 55 d9 94 bc 31 f0 b2 3c
       -0.0008798063 -0.0057749283 -0.018170038 0.021843048
000070 11 1d 49 3c 71 26 da 3c 59 41 c4 3c 03 13 6c 3c
       0.012274996 0.026629658 0.023956941 0.01440883
000080 a5 93 98 38 89 3a 53 3c ee 25 45 bc 2c eb b1 3c
       7.275426e-05 0.012892374 -0.012032969 0.021718584
000090 f2 27 38 3b b0 0d dd 3c 1c 62 ee 3a 07 46 b1 bb
       0.002809998 0.026984066 0.0018187198 -0.0054099592
0000a0 5f ff 4f 3c ac d0 18 3c b2 37 1f 3b af 85 5e 3c
       0.012695163 0.009327095 0.0024294672 0.013581677
0000b0 83 ad 24 bb 78 94 9b 3c c0 db 93 bb f9 d6 84 3c
       -0.0025127835 0.018991694 -0.00451228 0.016215788
0000c0 f3 5b ab b9 ad cd 22 3c 52 f3 fd 3b b6 50 90 3b
       -0.0003268417 0.009936732 0.0077499533 0.0044041527
0000d0 4b cc 00 3c ea 05 82 3c c9 a6 f9 3b c2 f1 97 bb
       0.007861207 0.01587196 0.0076187593 -0.004636974
0000e0 a7 0b 46 3c 77 c2 b9 3c 79 01 3e bc 8a f0 ba bb
       0.012087739 0.022675736 -0.011597031 -0.005704944
0000f0 60 f1 34 3c c7 bc 50 3c 29 49 aa 3c 46 18 87 b8
       0.011043876 0.0127403205 0.020786839 -6.441823e-05

encoder_c.convs.2.weight f4 [64, 64]
000000 0f c2 6c bd 31 81 f2 3c 48 62 65 bd 59 4a 60 3c
       -0.057802256 0.029602619 -0.05600193 0.013689601
000010 a3 85 bc 3c 6d 52 b9 3d 5b 04 1e 3e e1 ba a0 3c
       0.023012942 0.090489246 0.15431349 0.01962036
000020 1c 14 bd bd b9 36 a4 3d d5 6e aa 3c bf 49 0e 3e
       -0.09232351 0.0801825 0.020804802 0.1389532
000030 2e f1 0f 3d 41 00 07 3d 3b 48 7a bd ed f5 d0 bd
       0.035142116 0.032959227 -0.06110404 -0.102031566
000040 92 52 0d 3e 13 64 73 3d 3a ef 5d be 5d a5 a2 bd
       0.1380103 0.05942161 -0.21673289 -0.07941697
000050 7c e6 4a 3d cb ef 54 3d ab d6 0b 3e 7e ac f0 3d
       0.049536213 0.051986497 0.13656108 0.1175165
000060 1e 23 a6 3d 56 06 2a 3d 2a 11 9c 3d 3b 15 e0 bc
       0.08112167 0.04150995 0.07620461 -0.027353873
000070 b7 f4 02 3d 15 06 45 3e 3e 7a cf bd 72 ff a8 bd
       0.03197166 0.19240601 -0.10130738 -0.08251847
000080 73 1b 0b 3b e0 8d 11 be a0 1a 53 bd be 11 70 3d
       0.0021226078 -0.14214277 -0.051539063 0.05861067
000090 dd 9c d1 bd 07 ea 59 3c 3f d2 1a bd a1 e2 5d 3d
       -0.102349974 0.013300425 -0.037798163 0.05417121
0000a0 94 e5 c8 3d 58 45 4a bd 28 d7 e2 3c e1 68 2f bd
       0.098094136 -0.049382538 0.027690485 -0.04282463
0000b0 1e d9 ad bc eb 27 11 3e 3c 8e 4d 3e 85 ae ea 3d
       -0.021221694 0.14175384 0.2007379 0.11459068
0000c0 9a 4a 0b 3e ff 17 96 bc e2 34 00 bc c7 55 b1 bc
       0.13602677 -0.01832199 -0.007825108 -0.021647347
0000d0 e1 2c 8e bd 25 e0 9c bd e6 60 be bd 83 05 dd 3d
       -0.06942154 -0.0765994 -0.09295826 0.10792067
0000e0 e1 d3 af bd d9 ff a3 bd 43 76 1c 3e 45 c7 55 3d
       -0.085853346 -0.080077834 0.15279488 0.05219199
0000f0 48 a9 ea 3b 99 63 ca bd 2a b0 ef bc 88 44 af bd
       0.007161293 -0.09882278 -0.029258806 -0.08557993
000100 d0 2b c1 3d 3d 25 ce 3d bf 45 72 3d 13 58 ae 3d
       0.09432185 0.100656964 0.059148546 0.085128926
000110 55 86 08 3e dd b4 bb bb 3e 13 99 3c c6 64 34 3e
       0.13332494 -0.0057283477 0.018685933 0.17616567
000120 19 a2 ee bd 8a eb 12 be 63 34 5f bd ee 05 c0 3d
       -0.116520114 -0.14347664 -0.05449332 0.09376131
000130 f9 6b ba 3d c2 b6 f3 bd 63 f4 a0 bd 02 e7 31 3e
       0.091026254 -0.11900093 -0.07859113 0.17373279
000140 5d ea 1c be bf 06 1a bd 93 64 16 bd ba 3c 38 3e
       -0.15323777 -0.03760409 -0.03671701 0.17991915
000150 77 06 c8 bd 52 bb 19 be 0d 83 30 be ac ac 9e bd
       -0.09766858 -0.15012863 -0.17237492 -0.07747778
000160 d3 ab 00 be 26 1b 00 3e b6 e8 56 bc b9 5a 1d 3e
       -0.12565546 0.12510356 -0.013117006 0.15366639
000170 01 4f 45 be 56 73 01 be c5 0d 99 3d 44 e1 c6 bd
       -0.19268419 -0.12641653 0.074733295 -0.09710935
000180 b3 16 62 be cd 8d e1 3d 19 b3 09 be 63 72 c6 3c
       -0.22078972 0.110133745 -0.13447227 0.024224466
000190 95 31 1e 3e 80 4d c4 bd eb 3f 73 be 35 0e c8 bd
       0.15448602 -0.095850945 -0.23754852 -0.09768335
0001a0 32 92 ec bd f8 0e e5 3d 98 ea ed 3d 87 d0 5b 3e
       -0.11551322 0.11184496 0.11617011 0.21466266
0001b0 53 83 43 be e1 75 f4 3d 57 08 14 3d 0b 0c a7 bd
       -0.19093065 0.11936546 0.036140766 -0.08156594
0001c0 6c cc 99 bc 0f 58 08 3e aa f5 a1 3d 77 e7 1d bd
       -0.018774234 0.13314842 0.07908185 -0.03855082
0001d0 77 8d 1a be a6 f5 17 be 77 54 22 bc f2 c7 e5 bd
       -0.15093027 -0.14839801 -0.009907833 -0.11219777
0001e0 72 e8 7f 3d 87 3a b0 bc 07 f5 9e 3c f8 a4 49 be
       0.062477536 -0.021512283 0.019403948 -0.19691837
0001f0 49 1f c9 bb 58 3c 3e 3e 83 98 01 be 2b 27 7f 3d
       -0.0061377627 0.18577707 -0.12655835 0.062293213
000200 61 2b c4 a9 3e 6f a8 32 ad fb 07 2a 4c ec 54 2f
       -8.7116736e-14 1.9608361e-08 1.2077726e-13 1.9365237e-10
000210 71 bd ce 34 26 0b 72 b3 76 08 12 b6 1e e9 eb 31
       3.8508327e-07 -5.6355155e-08 -2.176062e-06 6.8659025e-09
000220 f2 c1 0a b1 3c 26 4c b5 fd 98 bf b3 23 9f 9c b3
       -2.0191888e-09 -7.605156e-07 -8.921959e-08 -7.293263e-08
000230 de 49 e2 37 db 11 af b6 1e 57 03 2d a2 98 d5 26
       2.6975697e-05 -5.217485e-06 7.465832e-12 1.4821215e-15
000240 06 2f 8f af d2 c1 00 2a 09 64 e3 36 70 67 c6 30
       -2.604496e-10 1.1435929e-13 6.776773e-06 1.4435795e-09
000250 0d d4 06 2a 27 c6 03 a9 0b 44 d6 b5 c6 5f c8 37
       1.1975161e-13 -2.9259713e-14 -1.5964046e-06 2.3886456e-05
000260 3d 21 1b aa 79 b0 fc b4 cd 1c 17 aa 48 0d 9f 36
       -1.3778297e-13 -4.7067059e-07 -1.3421486e-13 4.7401154e-06
000270 9f 9e 74 32 9c 26 aa b6 a7 c5 98 31 57 73 4f aa
       1.42387355e-08 -5.0708895e-06 4.4462527e-09 -1.842531e-13
000280 c6 72 12 2b 37 7d 48 39 64 f9 19 a9 3b 18 3b b5
       5.20289e-13 0.00019120132 -3.4189136e-14 -6.969819e-07
000290 27 b0 30 35 8b be da b4 49 71 a1 b6 9f 7e b0 29
       6.5821445e-07 -4.0744303e-07 -4.811362e-06 7.8379354e-14
0002a0 17 e7 9d 29 fa c6 b8 2c 77 21 0e aa 5b e7 00 ac
       7.012288e-14 5.2516854e-12 -1.2623744e-13 -1.8318322e-12
0002b0 92 70 fe 28 9a a0 32 b5 77 4e 0a b7 d8 29 85 29
       2.8248484e-14 -6.6543873e-07 -8.24371e-06 5.913645e-14
0002c0 26 5b ab b5 fd 58 3f 27 db d5 19 ab 85 c1 13 b1
       -1.276702e-06 2.6554815e-15 -5.4653303e-13 -2.1501319e-09
0002d0 ea 83 0a b7 df 0b b3 29 71 77 51 33 03 c2 a7 a8
       -8.256155e-06 7.951256e-14 4.8770236e-08 -1.8624864e-14
0002e0 2c 45 23 2c ee e1 81 b4 a1 82 9c 2e 00 d1 f0 b5
       2.3202091e-12 -2.4192508e-07 7.117263e-11 -1.794222e-06
0002f0 7b 1f 83 b0 ff b3 69 35 2e d1 82 b5 fb 95 19 34
       -9.540452e-10 8.706119e-07 -9.746634e-07 1.4303798e-07
000300 eb 67 3e 39 24 2b 44 39 4a b1 01 39 72 76 b4 b8
       0.00018158524 0.00018708088 0.00012368444 -8.605131e-05
000310 62 64 37 39 1a 24 18 b9 25 53 0d b9 d8 af ba 38
       0.00017489636 -0.00014509298 -0.00013477782 8.9019246e-05
000320 bd a0 7d 39 ff 8c 26 b9 c5 fe 66 b9 79 1d 42 b9
       0.0002418784 -0.00015883519 -0.00022029418 -0.00018512261
000330 40 6b a2 37 19 21 24 b9 cd b9 2e 39 f3 43 52 39
       1.9361847e-05 -0.00015652589 0.0001666315 0.00020052474
000340 9f ab 2c b9 f6 91 52 b9 3a bd 4b b7 9e b9 48 39
       -0.00016467132 -0.00020081535 -1.2143801e-05 0.00019142634
000350 d1 21 7a b9 2b 4c 78 b9 b3 83 0d b9 bf 0c 0e b9
       -0.00023854456 -0.00023679498 -0.0001349587 -0.00013546924
000360 29 0b c2 b8 7b c7 1e b9 96 18 4a b9 e0 83 f6 38
       -9.2527196e-05 -0.00015142366 -0.0001927338 0.00011754758
000370 ec 10 1a b9 58 99 ce b8 eb ff 16 39 91 9b 8d 38
       -0.00014692888 -9.851408e-05 0.00014400452 6.7523804e-05
000380 51 4c 65 b9 6b 12 d7 38 64 56 02 39 12 fd 13 b9
       -0.00021867572 0.000102554295 0.00012429949 -0.00014113288
000390 78 5f 0e 39 bf 94 26 b9 1b d4 37 b9 7a b6 67 b9
       0.0001357774 -0.00015886406 -0.00017531255 -0.00022097855
0003a0 5b 08 47 b9 4c 3d 1a 39 cb b1 93 b7 85 16 15 39
       -0.00018981232 0.0001470942 -1.7606557e-05 0.00014218136
0003b0 7d 08 be b6 29 d9 45 b9 3f e4 13 b9 c2 e6 3a b9
       -5.6634294e-06 -0.00018868282 -0.00014104041 -0.00017824306
0003c0 a6 34 12 b9 29 21 23 37 c5 b5 d7 b8 1f b5 0a b9
       -0.00013943258 9.723278e-06 -0.00010285856 -0.00013228178
0003d0 cd f6 e2 b8 bd ee 6f 38 e3 e3 1f 39 ee 16 4a b9
       -0.0001082249 5.7204383e-05 0.00015248316 -0.00019272763
0003e0 6e b7 5f 39 5c 5e 7c 38 a3 91 5f b9 b5 ba bf b8
       0.0002133527 6.016936e-05 -0.00021321191 -9.1423666e-05
0003f0 f2 37 74 b9 ee e3 a7 38 04 81 08 b9 ea 80 17 39
       -0.00023290495 8.005636e-05 -0.00013018033 0.00014448506

encoder_c.convs.2.bias f4 [64]
000000 c1 72 59 bc 98 67 25 bb 13 21 a1 bb 66 8b c2 3c
       -0.013271988 -0.0025238749 -0.004917273 0.023748111
000010 ec 21 03 bc d7 8a ed bb 48 2b c7 3b 02 56 da 3c
       -0.008003693 -0.007249217 0.0060781576 0.02665234
000020 4e fc 1d bc 9e 7a 9f bc c7 58 00 bc 7e ce f0 bb
       -0.009642674 -0.019467648 -0.007833666 -0.0073488345
000030 b2 ca 03 bc db 27 e2 bb 02 36 55 bb 71 ae f9 b9
       -0.008043932 -0.006901724 -0.0032533412 -0.0004762295
000040 a6 66 29 3c 99 f1 ff b8 4c 14 2a bc f1 6b d6 ba
       0.010339415 -0.000122043486 -0.010380816 -0.0016359073
000050 94 9f 50 3c de dd 2b 3b d3 9b ca 3b 97 62 77 3b
       0.012733359 0.0026224772 0.0061831265 0.0037747973
000060 a2 59 e6 3b 1a fe 89 3b 0c 32 f4 3b 38 a2 fd b9
       0.007029728 0.0042111995 0.007452255 -0.00048376783
000070 c5 b1 95 3c f4 c6 d4 3b f2 bc be ba 98 e5 16 bd
       0.018273244 0.0064934436 -0.001455216 -0.03684005
000080 e3 d8 3a bc a1 bb b3 bb d6 bc c0 bc 68 a6 45 3b
       -0.011404249 -0.0054850136 -0.023527544 0.0030159
000090 09 ed 1c bb 2a 8a e2 3a 41 5a f0 bb 01 3b 65 3c
       -0.0023944995 0.0017283608 -0.007334978 0.013991118
0000a0 47 92 40 3c 0d 89 b5 3c ad 44 47 3d 5f 70 1e 3d
       0.011753625 0.022160077 0.04864948 0.038681384
0000b0 3d 80 b0 bd 39 05 0e 3c 3c 5a 26 3b d2 6b 93 3a
       -0.086182095 0.008668237 0.0025383374 0.0011247343
0000c0 2a 71 62 3b 8a ec d3 bb f2 69 9b 3c fb ab 9d bc
       0.0034552314 -0.0064674066 0.018971417 -0.019247046
0000d0 32 b4 85 3b 3a c0 d6 bc 10 30 c8 bb b1 5a 88 3b
       0.004080319 -0.026214708 -0.006109245 0.004161202
0000e0 fe bf 53 bc a8 05 22 bd 5a 8e ff 3b 5b 1c a3 3b
       -0.0129241925 -0.039556175 0.007798952 0.0049777455
0000f0 7e d2 15 ba 03 8f fd bb 08 03 6c 3b 86 1f 30 bc
       -0.00057152647 -0.0077379956 0.003601255 -0.010749703

encoder_b.convs.0.weight f4 [116, 64]
000000 5c 2e 36 3d 8d 35 39 bd 81 ab 8f bc c0 8b ab bc
       0.044477805 -0.045217086 -0.017537834 -0.020940661
000010 41 73 1e be d5 d2 72 bd 2c 05 b5 bb 29 af 9d bd
       -0.15473653 -0.059283096 -0.005524298 -0.07699425
000020 0b a5 d5 bd 6c cd 60 3c 2d f2 4d ba 3c 20 91 bd
       -0.1043187 0.013720851 -0.00078562164 -0.07086226
000030 c7 e7 de bd c1 96 1d bb e1 ba 4a 3d 3b 77 dc 3d
       -0.10884052 -0.0024046155 0.049494628 0.10764929
000040 05 a8 ef 3c 08 e4 ea 3c 1a 06 9e bd 65 a2 eb 3b
       0.029254923 0.028673187 -0.077160075 0.00719099
000050 90 23 7f 3d c5 77 91 3d 1f 3f ae 3d 73 7b d5 3d
       0.062289774 0.07102922 0.08508133 0.10423937
000060 72 e8 00 be 97 7a 32 bd 41 c8 d3 bc e5 9c ec bd
       -0.12588671 -0.043573942 -0.025852324 -0.11553363
000070 b3 66 a7 3d 05 5a 4d ba 2a 78 b5 3d ce f4 49 3c
       0.08173885 -0.00078335433 0.0886081 0.012326432
000080 23 cd d5 bd c9 6c cd 3c 3c 92 e8 bb 57 79 5e bc
       -0.10439517 0.025076287 -0.0070975106 -0.013578734
000090 54 e2 5e ba c1 1a 26 bd 2d 1b 8c bc 73 b3 14 3c
       -0.00085023534 -0.04055286 -0.017102802 0.009075987
0000a0 2d 90 a8 b9 cc 77 76 3b a5 bd 10 3c d1 b6 67 b9
       -0.00032150876 0.0037608026 0.008834277 -0.00022097981
0000b0 57 f0 49 3d 70 02 2e bd 53 ed 69 3d c3 3e 1c 3d
       0.04930147 -0.042482793 0.057111096 0.03814579
0000c0 ae aa ac bc 00 87 e7 3d ab ae 50 bd 93 5c 87 bb
       -0.02107748 0.11305046 -0.050947826 -0.0041309088
0000d0 ae bb c2 3c 23 f7 f1 3d 57 15 53 3c 73 ab d9 3d
       0.023771133 0.11814716 0.012883506 0.106284045
0000e0 94 70 dc 3d 94 df 8b 3b c3 9b 2d 3d 4e cd 83 bd
       0.1076366 0.004268596 0.042384874 -0.06435643
0000f0 ee c3 7d 3d 23 7f b9 3d ec 00 a1 bd 9b b5 7e 3d
       0.06195443 0.090574525 -0.07861504 0.06218491
000100 c4 53 0b 3d 29 98 14 3d b4 2a 59 3c e9 a8 80 ba
       0.034015432 0.036277924 0.01325481 -0.0009815964
000110 50 a8 bd 3d b7 f9 f0 3d 29 0c d7 3c 39 35 db 3c
       0.09260619 0.11766379 0.026250916 0.026758777
000120 eb f2 85 3c 9d f0 6c bb 65 6f 66 3b 91 f4 ea 3c
       0.016351184 -0.003615416 0.003516161 0.028681071
000130 5e 4d cc 3c c4 f5 23 3b 32 41 8f bc 78 90 60 3d
       0.024939235 0.0025018314 -0.017487142 0.054825276
000140 b5 d0 c0 3d b2 e1 4d bd ab 1b cf 3d 5c 79 fd 3c
       0.09414808 -0.050264068 0.10112699 0.030941658
000150 78 88 11 3d dc 00 b5 3d f4 16 8d 3d 47 6a b4 3d
       0.035530537 0.088380545 0.068891436 0.08809333
000160 2f f3 1a 3d a8 80 04 bd 3b 29 d4 bd 33 ae 81 3d
       0.037829574 -0.03234926 -0.103594266 0.06332054
000170 81 8f a5 bc da 0d 3c ba 96 7d 62 3d a1 4c ac bc
       -0.02021003 -0.0007173695 0.05529555 -0.021032633
000180 dd 29 0e bc 4e 29 ae bc 0c c0 16 3d c3 0a 49 bd
       -0.008676973 -0.02125993 0.036804244 -0.04908253
000190 c3 ec 8e 3c 77 2d 08 bd 03 e3 66 3d bb 3a f5 3b
       0.017446881 -0.033246484 0.05636884 0.007483808
0001a0 10 55 68 39 98 a9 19 3b 2f 61 4e 3d 32 bf 18 bc
       0.00022156932 0.0023447033 0.05038565 -0.009322928
0001b0 8d e9 e5 bd c8 0d 66 3d 0b 5d 21 3c 21 75 22 3c
       -0.11226187 0.056165487 0.009848843 0.009915621
0001c0 ab d0 9b 3c 84 9a b8 3d 62 36 2b 3c 51 1b 83 3d
       0.0190204 0.090138465 0.010449978 0.064016946
0001d0 24 57 05 bc e0 0e 49 bd b3 63 bd 3b 30 5d 13 3d
       -0.008138452 -0.04908645 0.0057797073 0.035977542
0001e0 1b 18 d9 3d 9a c4 3d bb 31 db 0f bd b6 00 59 bb
       0.10600301 -0.0028956295 -0.035121147 -0.0033111996
0001f0 4c aa 9e 3d 42 b2 b1 3c 42 e1 00 3e b0 1f 2b 3c
       0.07747325 0.021691445 0.12585929 0.010444567
000200 0b 5e fc bd 6e de 4f 3d 8d 94 9c bb b5 a3 2b 3d
       -0.12322625 0.050749235 -0.004778451 0.04190417
000210 26 ea 4c bd b1 de 80 3c 53 dc ac bc 99 54 57 bc
       -0.05002799 0.015731188 -0.021101153 -0.013142728
000220 26 ce f7 3d d7 7d df 3b ed 52 b7 3c 03 20 3c 3d
       0.120998666 0.006820421 0.02237841 0.045928966
000230 0a 3f 62 bc d2 63 6c b9 78 80 45 3d c6 d9 1f bd
       -0.013808975 -0.000225439 0.04821822 -0.039026044
000240 7d b4 9e bc 50 58 16 3d 70 6d 31 3d c1 09 e8 39
       -0.019373173 0.036705315 0.04331726 0.00044257756
000250 d6 d7 e9 3c ca 2a cb 3d 0f e5 52 3d 6d 6c 37 3d
       0.028545301 0.09920271 0.05148798 0.044781137
000260 94 05 e6 3c ce 4b 3b 3b 79 07 b7 3c c5 9b 6e bd
       0.028078832 0.0028579119 0.02234243 -0.058254022
000270 b7 bd 24 bc 19 09 bb b9 ff b4 8b bd c6 da 4a 3d
       -0.010054997 -0.00035674198 -0.06821632 0.049525045
000280 77 f1 3c 3d 51 2d 6c 3b 41 94 7d 3b b0 d3 92 3d
       0.046128716 0.0036037753 0.0038693103 0.071692824
000290 b8 7c 20 b9 91 93 ad bd 55 d7 41 bd 41 60 c9 b9
       -0.0001530525 -0.08475412 -0.047324497 -0.00038409422
0002a0 c3 e4 0b ba 6c 72 32 3c 8f b9 34 bc d3 69 89 b9
       -0.00053365174 0.010891538 -0.011030569 -0.00026209521
0002b0 96 b2 da 3d ce dc 90 3d a1 d1 b5 3d 0b 1d b6 3b
       0.10678594 0.07073365 0.08877874 0.0055576614
0002c0 ac 57 26 bc c4 d9 f4 bd 10 fb 08 3d c2 e2 6e 3d
       -0.010152739 -0.11955598 0.033442557 0.05832172
0002d0 3a 51 e9 bb de 67 b1 bd 0b 20 a1 3b 5f 2d b1 3d
       -0.0071202787 -0.08662389 0.00491715 0.08651232
0002e0 4e a9 0d bd c2 73 06 b9 ae e7 16 bd a3 ce d1 3c
       -0.03458529 -0.00012822359 -0.03684204 0.025611227
0002f0 c7 d8 cb bc 8c 92 a6 3d 76 ad 94 bd 37 a2 57 bd
       -0.02488364 0.0813342 -0.072596475 -0.052644935
000300 6a ad ce 3d 65 50 1c 3e 44 43 7a 3c 84 23 ff 3c
       0.1009167 0.15265043 0.015274826 0.031144865
000310 2c c3 0b 3e 8d f1 91 3d 94 d7 c7 3c be 1c 89 3b
       0.13648671 0.0712615 0.024394788 0.0041843345
000320 6d aa c9 3c 21 81 cd 3c 8f 4a 52 ba 80 f1 2f 3d
       0.024617398 0.025085988 -0.00080219744 0.04295492
000330 44 23 c9 bd 6f c8 13 bb 28 e0 07 bd 1f a7 77 3d
       -0.098211795 -0.0022549888 -0.033172756 0.060462113
000340 c1 8d bd bd 69 cd 35 3c 1f e5 0c 3d 0d 28 b1 3c
       -0.09255553 0.011096337 0.034398194 0.021625543
000350 bb 3e b8 3c 0f 79 82 3d 9e 3a f8 3d 12 52 97 3d
       0.02249085 0.06370746 0.12120555 0.073887005
000360 72 99 cb 3d 26 a7 9e bc ae 70 32 3d 5c 56 80 3d
       0.09941377 -0.019366812 0.04356449 0.06266472
000370 2c 4f 51 bd e0 60 d8 b9 28 e9 45 3d 77 1e 01 3d
       -0.051100895 -0.00041270908 0.04831806 0.031523194
000380 40 8b ed 3b e0 3f 2e bb c7 d0 52 3c 9f 73 62 3d
       0.007249266 -0.0026588365 0.012867159 0.055286046
000390 78 e7 6b ba 82 ad 37 bd 0c 98 43 3d b7 1b a3 39
       -0.000899903 -0.044843204 0.047752425 0.00031110432
0003a0 8e f9 9a ba 7e c2 32 bc 55 9f a9 bb 52 75 aa bb
       -0.0011823641 -0.010910628 -0.0051764646 -0.005201974
0003b0 be 0a 8d bb 9c 7d d6 3d f6 6a 01 3e 9a c9 d4 bc
       -0.004304259 0.10473177 0.12638459 -0.025975037
0003c0 0a 8b c7 bc 6b 53 e6 bb a2 95 a4 bd ad 9a b8 3c
       -0.024358291 -0.007028987 -0.08036353 0.022534693
0003d0 7c 55 22 bc 68 c2 b4 3b 7e 7a bf 39 dc b1 d6 bd
       -0.009908076 0.005516339 0.00036521623 -0.10483143
0003e0 a8 81 12 be 7a a3 95 ba 7f 42 f4 b8 4e 3e 93 bd
       -0.14307272 -0.0011416518 -0.000116472125 -0.07189618
0003f0 f2 45 f9 3c 0a 29 2f bd 8b 81 b6 3d cf 40 81 3d
       0.03042886 -0.042763747 0.08911427 0.063111894

encoder_b.convs.0.bias f4 [64]
000000 be c0 58 3c 9d b3 cb 3c 54 d4 86 bc 05 0c 99 bc
       0.013229547 0.02486592 -0.016458668 -0.01868249
000010 03 d4 ba bb 45 5b be 3c 07 3c 0d 3c cf 69 83 bc
       -0.0057015433 0.02323688 0.008620269 -0.016041664
000020 d4 cc b2 3c f0 b6 82 bc 15 47 fa bb 70 2f 72 3b
       0.021826185 -0.015956372 -0.007637868 0.0036954544
000030 f5 64 7b 3c c0 c5 f6 3b ec 18 a2 3a 7d 40 5d 3c
       0.015343894 0.007530898 0.0012367046 0.013504145
000040 2f 87 a3 3c c4 28 7f bc 0d 2d c3 3c 70 98 7a 3c
       0.019961921 -0.015573684 0.023825193 0.015295133
000050 d6 a1 f6 3a 42 23 89 bb 1e 17 82 bc 07 09 ab bc
       0.0018816541 -0.0041851113 -0.015880164 -0.020878328
000060 6c ac b0 3c 4d cf 6e 3c cb 90 79 3b 21 9f e1 3c
       0.021566592 0.014575792 0.0038080688 0.027541699
000070 f3 b0 5a 3c 9c c4 ab 3c a3 43 0e 3c b3 ec 1e bc
       0.013347852 0.020967774 0.008683118 -0.009699988
000080 c4 d2 83 3c a6 54 8b 3c 5e 97 94 3c 42 12 32 bc
       0.016091712 0.017008137 0.018138584 -0.010868611
000090 2a 7f 5b bc 73 89 69 bb 61 fc 2e bc 41 7d f5 3c
       -0.0133970175 -0.0035634905 -0.010680289 0.029966952
0000a0 79 94 96 bc c8 c8 74 3c 4a af 01 bc 61 f8 a0 bb
       -0.018381344 0.014940448 -0.007915327 -0.0049124216
0000b0 9a ca 7f b8 d2 8b a7 3b 4e 29 08 3c 85 ee 79 bc
       -6.0985425e-05 0.0051131034 0.008310629 -0.015254621
0000c0 92 96 2d 3c bc 20 ee 3c 05 01 f5 3c d5 cb f4 3c
       0.010594981 0.029068343 0.029907713 0.029882351
0000d0 3f 9b b9 bc 49 85 ec 3a 4f 73 d9 3b af 8e bb 3c
       -0.022657035 0.0018045093 0.0066360603 0.022895185
0000e0 4f 4d 32 3c 71 76 c5 ba 93 aa 1f 3c 08 28 b7 3c
       0.01088269 -0.0015065206 0.009745258 0.022357956
0000f0 e8 1f a0 3c 90 ce 04 bb be 2b 5b 3c 56 5b df 3c
       0.019546464 -0.0020264722 0.013377128 0.027265232

encoder_b.convs.1.weight f4 [64, 64]
000000 86 aa 03 be 16 c2 2e ba 12 97 11 39 18 5d fa 3d
       -0.12858018 -0.00066664943 0.00013884556 0.122247875
000010 9d bb 15 bd ee 3b fb 3a ce 95 98 3d 76 48 fd 3d
       -0.036555875 0.0019167641 0.07450448 0.123673365
000020 95 a7 fd 3c e4 11 0f bb 36 a3 40 38 03 0a a5 bc
       0.030963698 -0.0021830732 4.592837e-05 -0.020146376
000030 9d da d2 bd a3 ae 25 3c e9 6e 3c bd a4 30 f6 3d
       -0.102956034 0.010112437 -0.04600421 0.12020996
000040 4e ea 5d bd f5 91 19 be 13 20 56 3d 2b dc 62 3c
       -0.05417853 -0.14997084 0.052276682 0.013846437
000050 6b fb 27 3d 6a 18 01 3e f2 d8 d1 3d 60 4e 07 bd
       0.041011255 0.1260697 0.10246457 -0.03303373
000060 b9 46 7f ba d3 be 49 bc 37 04 32 bd fb 1f 26 be
       -0.00097380165 -0.012313562 -0.04346105 -0.16223137
000070 31 70 e2 bd dc ac 1e be d8 83 51 b7 a2 90 2b 3d
       -0.11056555 -0.15495628 -1.2488068e-05 0.04188598
000080 4a 38 ee 3c bd 6d 6a 3d 06 18 0e 3e a7 b7 b6 bd
       0.029079575 0.05723356 0.13876352 -0.08921748
000090 30 66 ad 3c c1 ef 38 b9 12 91 d9 3c 2d 6b 48 3e
       0.02116689 -0.00017636923 0.026558433 0.19572134
0000a0 dc 6e 44 bd 5b 57 01 bb 14 bf 87 bc 21 6d 3e bd
       -0.047957286 -0.0019735906 -0.016570605 -0.046490792
0000b0 3b 1c 82 3a 1f 8b f2 3d 86 64 9a 3d 78 ac 81 bb
       0.0009926626 0.118429415 0.075387046 -0.0039573275
0000c0 80 6d 78 3d fa e2 91 bd 41 9c 42 bd 52 a0 57 bd
       0.060651302 -0.071233705 -0.047512297 -0.052643128
0000d0 45 22 94 ba ca 5c c7 bc 73 a5 bb bb 64 f3 ff 3c
       -0.0011301717 -0.024336237 -0.00572651 0.031243987
0000e0 83 71 05 bc 40 25 8d bb 54 74 13 bd dc 18 d0 bc
       -0.008144739 -0.004307419 -0.03599961 -0.025402479
0000f0 83 21 31 3b c2 b1 f3 bc b2 2c 22 bc e5 5d c3 b9
       0.0027028031 -0.029747847 -0.0098983515 -0.00037263255
000100 c6 bc c8 3c 4e 6a f6 b9 c3 37 95 b9 85 77 18 be
       0.024504077 -0.0004699998 -0.0002846104 -0.14889343
000110 98 23 b5 bd 2c 25 c6 ba 90 3e 28 bc 9c d9 e7 3d
       -0.088446796 -0.0015117279 -0.010268822 0.113208026
000120 2c fa 13 3e 1a e9 f5 b8 cf b1 ba b9 7d ca 34 bd
       0.14450902 -0.00011725929 -0.00035609162 -0.04413842
000130 15 17 8d bd a1 6c 29 ba 0f 76 69 3d 13 35 89 3d
       -0.06889168 -0.00064630253 0.056997355 0.06699576
000140 03 4f 8f 3c a6 b6 04 bd 38 d9 b2 3d f8 f4 c5 3c
       0.01749373 -0.03240075 0.087328374 0.024164662
000150 cb 79 94 bb c2 cf 3f 3e 8c 5b d1 bd ba 88 b4 bb
       -0.0045311204 0.18731597 -0.10222539 -0.005509463
000160 96 f6 32 ba 21 83 f2 3d de af a1 3d bf 48 ab 3d
       -0.00068269053 0.11841417 0.07894872 0.083634846
000170 6c 4d af 3c 31 82 42 be 12 2e ff 38 68 b3 16 3d
       0.021399222 -0.18994977 0.00012167929 0.03679219
000180 e0 74 1f 3e a9 6d 1d 3d 72 7a 0b 3e 40 d8 4d 3e
       0.15571928 0.03843466 0.13620928 0.20102024
000190 09 55 14 3e 81 f6 30 bc 7d 12 9f 3d 29 2c 27 3e
       0.14485563 -0.010800959 0.07767198 0.1632544
0001a0 58 be 40 bd 5f 50 ef b9 a6 cf b1 3c 82 14 70 3d
       -0.047056526 -0.00045645513 0.02170546 0.058613308
0001b0 b4 c6 ec bb b8 b7 18 be 9c 28 2b 3d 07 72 43 bb
       -0.0072258357 -0.14913833 0.041786775 -0.0029822604
0001c0 02 93 87 bd ca 6a d0 bc f3 ca b3 3c 81 dd c8 bc
       -0.066198364 -0.025441546 0.02194736 -0.024519684
0001d0 4b e5 82 3b 92 02 11 3e e4 e4 e9 bc 39 da 9c 3d
       0.003994619 0.14161137 -0.028551526 0.0765881
0001e0 15 2a 71 38 d4 fc 19 bb e8 53 2d bb e5 a9 4d 3d
       5.749807e-05 -0.0023496645 -0.0026447717 0.050210852
0001f0 09 f4 de bc 3b d3 77 3c e7 0f 03 9c ff 8e 1d 3d
       -0.027215974 0.015126045 -4.3364817e-22 0.03846645
000200 b9 c8 10 ba 85 f6 6c b7 20 ac d4 bc 90 f4 8f 3c
       -0.0005523074 -1.41240935e-05 -0.025960982 0.017572671
000210 bc bb a2 3a b1 69 63 3c 3e 9d dc 3a de 69 5f 3c
       0.0012415568 0.013880179 0.001683153 0.013636081
000220 a0 9a 94 bb 19 ba 21 b7 92 4d 6e bc 7a dd 44 ba
       -0.0045350343 -9.639677e-06 -0.014544861 -0.0007509809
000230 0d 4d 09 3d 67 41 0a bd 4b 3e 4d 3b 3a a6 08 bd
       0.033520747 -0.03375378 0.0031317647 -0.03336165
000240 05 45 1d 3d e2 2d 87 3b 56 f4 60 bc fa 24 d3 3b
       0.0383959 0.0041253427 -0.013730129 0.006443617
000250 34 a3 9c ba 5c 84 96 3c b4 7b d2 bb e7 dc 39 3b
       -0.0011950494 0.01837366 -0.006423438 0.0028360428
000260 eb 72 e2 ba a9 ba 8a 3b dd b3 47 bc df 7d a3 38
       -0.001727668 0.0042336774 -0.012188879 7.795891e-05
000270 9d 49 2a bd 6f f6 0f bd 8c d3 34 3a b4 4c 74 b9
       -0.04157411 -0.035147127 0.0006897978 -0.00023298227
000280 b9 9f 45 3d c7 be 31 bb ab f8 7e bc ca 09 de bc
       0.048248027 -0.0027121769 -0.015562217 -0.027104277
000290 40 04 23 bd 9b 42 44 3c b0 e3 db bc be 65 0d bd
       -0.039798975 0.011978771 -0.026841968 -0.034520857
0002a0 f5 2e bb bc 2f ad 9c bb a2 e6 dd 3c 10 85 14 bd
       -0.02284954 -0.0047813873 0.027087513 -0.03625971
0002b0 b3 f1 0a 30 07 bc 42 39 b1 a9 2f 3d ca 5b 7e bb
       5.0547583e-10 0.00018571327 0.04288644 -0.0038812035
0002c0 ac ea 18 b9 11 96 38 bb 23 0d 33 37 7c 16 53 b9
       -0.00014583272 -0.0028165618 1.067229e-05 -0.00020130904
0002d0 ce 95 9b 38 8e 17 ab ba 6a e6 83 3c 0a 25 68 bc
       7.418879e-05 -0.0013053284 0.01610108 -0.014168987
0002e0 03 17 21 38 df cb 94 3c 42 43 1b 39 af ff e8 3c
       3.8406823e-05 0.01816362 0.00014807007 0.028442232
0002f0 2b 32 ce b8 9f 98 e7 b9 9b 80 c7 9d cd c4 00 3a
       -9.83219e-05 -0.00044173465 -5.2807836e-21 0.0004912138
000300 4e 05 2a 3a a4 89 43 37 c6 e0 60 38 ac 26 ef 3b
       0.0006485776 1.1654953e-05 5.36151e-05 0.007298311
000310 42 18 95 3b 69 30 e0 38 74 f7 37 bc a1 3f d7 39
       0.004550011 0.000106901694 -0.011228431 0.00041055403
000320 d9 c1 82 bc 03 b2 9b 36 7f 4b a9 3a fa c0 58 3c
       -0.015961574 4.6400833e-06 0.0012916176 0.013229603
000330 26 bc 96 3c ef 64 d5 bc e4 23 29 3b 41 34 ea 3b
       0.018400263 -0.026049105 0.0025808746 0.0071473424
000340 44 57 ed 3c ca bb 98 3b 70 62 3d 3c 07 74 94 b8
       0.028972276 0.004661058 0.011559114 -7.078802e-05
000350 20 dd c4 b8 88 46 c8 3c e2 80 73 bb 24 91 9e ab
       -9.387196e-05 0.024447694 -0.0037155678 -1.126686e-12
000360 7e 83 99 b6 71 3a 56 bc a1 cb 99 39 a2 8f 85 3b
       -4.575063e-06 -0.013075457 0.0002933415 0.0040759603
000370 0e b6 df 3a 43 1e 07 3c d7 96 52 bc c5 1f cd b9
       0.0017067806 0.008246961 -0.012853346 -0.00039124317
000380 e0 ba 05 3c 20 16 43 bd f3 64 04 bd da f2 9c b9
       0.00816223 -0.047628522 -0.032322835 -0.00029935577
000390 bc e2 38 3b 7d e2 0c b6 fa 69 d4 3b 58 42 6a bc
       0.0028211316 -2.099346e-06 0.00648236 -0.014298044
0003a0 af ee ee 3c ff af 1b bc a2 e2 02 3c c1 28 20 3c
       0.029166548 -0.00950241 0.007988604 0.0097753415
0003b0 01 db f7 ba 9a be d8 bc ab 57 53 bc 74 27 da 3c
       -0.0018909873 -0.026458073 -0.01289932 0.02663014
0003c0 22 38 44 b9 fa 3d 5f 3a f0 d8 ac ba fc 75 d9 3b
       -0.00018712928 0.000851601 -0.0013187211 0.0066363793
0003d0 f3 56 7e b9 07 f7 7a 3a b7 26 cf 3b 06 6c 03 3b
       -0.00024255719 0.0009573553 0.006321754 0.00200534
0003e0 c6 a1 30 b9 ef 14 bc bc ea a2 76 3a 37 49 d0 bc
       -0.00016844933 -0.0229592 0.00094084314 -0.025425537
0003f0 e9 56 0f 3b 52 9d 51 ba 1a f7 ab 37 c3 04 a4 b8
       0.002187187 -0.000799616 2.0499854e-05 -7.821016e-05

encoder_b.convs.1.bias f4 [64]
000000 ed 73 8c bc 31 99 1c bb 39 57 8d 3c 1b 50 a1 3c
       -0.017145121 -0.002389502 0.017253505 0.019691518
000010 e2 0e 45 bc 1a fc 26 3c 40 ce bc bc 7a 62 dd 3c
       -0.012027474 0.010191942 -0.023047566 0.027024496
000020 b6 e1 51 3c 71 7f e9 bb 83 17 56 b8 26 71 57 bc
       0.012810161 -0.007125788 -5.1043473e-05 -0.013149535
000030 35 ac 8f 3c aa be 8c 3a 8b 41 b1 3c 8e 68 8f 3c
       0.01753817 0.0010737975 0.021637699 0.01750591
000040 ad a2 4f bc 1d 01 ad 3c 10 e1 49 bc ac 4a 47 3d
       -0.012673062 0.021118695 -0.0123217255 0.048655197
000050 c2 42 fa 3b 6d 48 df 3c 8e 02 7e 3c 51 04 0d bb
       0.0076373527 0.027256215 0.015503539 -0.0021517465
000060 50 01 ac bc 97 59 99 3c 7f 9a 25 bc ed df 0f bc
       -0.02099672 0.018719478 -0.0101076355 -0.008781415
000070 75 7b 8b 3b 99 4a 27 bc 91 6e c1 bb 03 ea 82 bc
       0.0042566606 -0.010210657 -0.005903073 -0.015980726
000080 94 11 05 bd 8d b7 59 bc 18 a6 9d 3c e1 0c 65 3c
       -0.032487467 -0.013288391 0.019244239 0.013980121
000090 7f 37 aa 3c 68 ad 9b 3a 33 5e f4 3c 18 ad 81 3c
       0.020778416 0.0011877241 0.029830074 0.015829608
0000a0 d7 4f af bc f6 a4 c4 3a c8 62 94 3c 50 81 7e 3c
       -0.021400375 0.0015002775 0.018113509 0.01553376
0000b0 58 fc 05 bb 55 09 5a bb f4 35 48 bc 1b e6 0c ba
       -0.0020444598 -0.0033269722 -0.012219895 -0.00053748646
0000c0 56 99 30 ba 8e 00 37 bc c2 13 9e 3c 80 40 08 bc
       -0.0006736716 -0.011169566 0.01929653 -0.008316159
0000d0 a6 d9 ae 3c 8d f8 4c 3c 0d eb f7 ba f4 65 1d bc
       0.021344017 0.012510431 -0.0018914655 -0.009606827
0000e0 8c 9d 33 3d d5 58 1f bc 6b db ee bb 61 b8 a7 3c
       0.04385142 -0.009725769 -0.0072893403 0.02047366
0000f0 90 22 93 bb 40 e7 c4 bb 6a 3c 7f bc 5d 63 c1 bb
       -0.004490204 -0.0060090125 -0.015578369 -0.0059017376
