results/ckpt_best_fold_0.pt (torch, 660354 bytes, 72 tensors)

encoder_c.convs.0.weight f4 [116, 64]
0	0x3cdda89e	0.027057942
1	0x3c9c0742	0.01904643
2	0xbe06b801	-0.1315613
3	0xbde85709	-0.11344726
4	0xbc813a65	-0.015774915
5	0x3cb604ed	0.022219146
6	0xbc614d18	-0.013751291
7	0x3e0e502b	0.13897769
8	0xbd7fb47a	-0.062427975
9	0x3d1500c6	0.03637769
10	0xbd7db769	-0.06194249
11	0xbd166941	-0.03672147
12	0xbe2a7ca9	-0.16649117
13	0xbdebc5f4	-0.11512366
14	0xbd6a0716	-0.057135664
15	0xbb8dff97	-0.004333447
16	0x3cd46bc9	0.025930302
17	0x3de45ce2	0.111505285
18	0xbd8215e4	-0.063518316
19	0xbdb10a8a	-0.08644588
20	0x3d95072a	0.07276757
21	0x3e02957a	0.12752333
22	0xbccb68a7	-0.024830176
23	0x3ded433e	0.11585091
24	0xbd915117	-0.07095545
25	0x3c8c223c	0.017106168
26	0x3e06db67	0.13169633
27	0x00001358	6.939e-42
28	0xbd6f08d7	-0.05835804
29	0xbd6a47dd	-0.05719744
30	0xbda9a47a	-0.082833245
31	0x3e11b04e	0.14227411
32	0xbde31047	-0.11087089
33	0xbd21beb3	-0.039488506
34	0xbdc11108	-0.094270766
35	0xbe067341	-0.13129903
36	0xbdb5504a	-0.088532045
37	0x3e0aa9fd	0.13541408
38	0x3da75b59	0.0817172
39	0x3dd482a7	0.103764825
40	0x3ca1c972	0.019749377
41	0xbd592135	-0.053010184
42	0x3cb84bd2	0.022497091
43	0xbc95e1ed	-0.018296206
44	0xbe11c108	-0.14233792
45	0xbdf312d5	-0.11868826
46	0x3dc14e7f	0.094388
47	0x3d7f3248	0.06230381
48	0xbc186689	-0.00930179
49	0x3c5180ef	0.012787088
50	0x3bcc6471	0.0062375595
51	0x3dd14cef	0.10219752
52	0x3d8b5874	0.068039805
53	0x3c98ecfe	0.018667694
54	0x3dd0d8ac	0.10197577
55	0xbcf2b324	-0.029626437
56	0x3c00e840	0.007867873
57	0xbd978837	-0.07399028
58	0xbdd2ff75	-0.10302631
59	0xbdd04142	-0.10168697
60	0x3da19b8d	0.07890997
61	0x3d97e4b4	0.074166685
62	0xbde99b87	-0.114066176
63	0x3d8063e8	0.062690556
64	0x3dd505bf	0.104014866
65	0xbd2faabc	-0.042887434
66	0x3b747220	0.003729947
67	0x3d28f073	0.041244935
68	0x3d40da5a	0.047083236
69	0x3e1fef7d	0.15618701
70	0xbe0ec7df	-0.13943432
71	0xbd8d56e8	-0.06901342
72	0x3c72f62b	0.014829199
73	0x3d9aa7d6	0.075515434
74	0x3e084c8b	0.13310449
75	0x3e19dcf9	0.150257
76	0x3cbeb857	0.02328126
77	0xbe282930	-0.16421962
78	0x3ba02ccb	0.0048881522
79	0xbddc8962	-0.10768391
80	0xbd8c0618	-0.068371
81	0x3e1e1b1f	0.15440033
82	0x3e1b1c1e	0.15147445
83	0xbe3952f7	-0.18098055
84	0x3d1d5bc9	0.03841761
85	0xbd6bda92	-0.05758149
86	0xbcfd8b72	-0.030950282
87	0xbd9a229d	-0.07526133
88	0x3cdd8ff7	0.027046187
89	0xbdd7fa08	-0.105457366
90	0x3d34d916	0.04415234
91	0x00003aa5	2.1038e-41
92	0x3db56b9c	0.088584155
93	0x3d628084	0.055298343
94	0xbe1e7094	-0.15472633
95	0xbdfcba4d	-0.123402216
96	0x3d4a790c	0.049431846
97	0x3d0f2d99	0.034955595
98	0xbdf9203a	-0.1216435
99	0xbde5363e	-0.111919865
100	0x3e1349f4	0.1438368
101	0x3db37265	0.087620534
102	0xbd8a0c6c	-0.067406505
103	0xbce03c0b	-0.02737238
104	0xbe3007d6	-0.17190489
105	0xbd12472a	-0.0357124
106	0xbe038122	-0.12842229
107	0xbbb450ad	-0.0055027814
108	0xbc802c00	-0.01564598
109	0x3c77944b	0.015111039
110	0xbd897704	-0.067121536
111	0x3d807e38	0.06274074
112	0xbccbb15d	-0.024864847
113	0x3e16276b	0.14663474
114	0x3d180d8d	0.037122298
115	0xbd41e0cf	-0.047333535
116	0xbd234478	-0.03986022
117	0x3c78cbaf	0.015185281
118	0x3ce72ad0	0.028218657
119	0xbca1b26a	-0.019738395
120	0x3d6fe691	0.058569495
121	0xbcf1a9b3	-0.029499864
122	0xbdae7031	-0.085174926
123	0x3d85baeb	0.065297924
124	0xbe29fbed	-0.16600008
125	0xbdd32d9e	-0.10311435
126	0xbd327974	-0.043572858
127	0xbd96f8c0	-0.07371664
128	0xbc43b0bf	-0.011943995
129	0xbe1332e6	-0.14374885
130	0xbcfbd6b5	-0.030742029
131	0x3d6f38e2	0.058403857
132	0xbd8eef01	-0.0697918
133	0xbce6bf02	-0.028167251
134	0x3e076a19	0.13224067
135	0xbc1a6eae	-0.009425802
136	0xbc0cfe07	-0.008605487
137	0x3cd3c2f1	0.025849791
138	0xbc81397a	-0.015774477
139	0x3dfb2d9e	0.1226456
140	0x3e3dbb28	0.18528426
141	0x3e0543a8	0.1301409
142	0x3de45bc5	0.11150316
143	0xbca58eb8	-0.020209655
144	0xbd87bcd2	-0.066278115
145	0xbd876ee4	-0.066129476
146	0x3e246dc0	0.16057491
147	0x3c41fc24	0.0118399
148	0xbdbd2d04	-0.09237102
149	0xbd68f680	-0.056875706
150	0xbe189b6f	-0.14903043
151	0xbdf4d9b6	-0.119555876
152	0xbd635add	-0.055506576
153	0x3dacdb0b	0.08440217
154	0x3db1efd6	0.08688323
155	0x000002a8	9.53e-43
156	0x3dbdff3b	0.09277197
157	0xbe1ca7aa	-0.15298334
158	0xbd791721	-0.060813073
159	0xbd2c8fb0	-0.04212922
160	0xbc502203	-0.0127034215
161	0x3b82a62a	0.0039870935
162	0xbdc1bdb4	-0.09460011
163	0xbd9c9a72	-0.076466456
164	0xbcad9f90	-0.02119425
165	0xbbc2aefb	-0.0059412695
166	0xbda77dc6	-0.08178286
167	0x3dcfc161	0.10144306
168	0xbe0f753d	-0.14009567
169	0xbc2a5c7f	-0.010398029
170	0x3e19698c	0.14981669
171	0x3b8b5235	0.004251743
172	0x3e2386f4	0.1596945
173	0x3d2a0e8f	0.04151779
174	0xbe1f8fce	-0.15582201
175	0x3deebbff	0.11656951
176	0x3b939bd6	0.004504661
177	0xbd2b9680	-0.041891575
178	0x3d2d573b	0.042319518
179	0xbe01f1d7	-0.12689911
180	0x3ba055ab	0.004893025
181	0xbd551f7f	-0.05203199
182	0x3dfb631e	0.122747645
183	0xbd89745d	-0.06711648
184	0x3d8e9841	0.06962634
185	0xbca008b9	-0.01953541
186	0xbd334666	-0.04376831
187	0xbd082cbb	-0.033245783
188	0xbe06f77d	-0.13180347
189	0x3deb754b	0.11496981
190	0x3db2be6b	0.087277256
191	0x3e03cf5c	0.1287207
192	0xbd69138a	-0.0569034
193	0x3adf0978	0.0017016372
194	0xbde7acb2	-0.11312236
195	0xbd69f9e5	-0.057123084
196	0xbd361648	-0.044454843
197	0x3ce3d051	0.027809294
198	0xbdfc281a	-0.12312336
199	0x3c278092	0.010223525
200	0xbcc02bef	-0.02345845
201	0x3ddd3ed0	0.10802996
202	0xbe003dab	-0.12523524
203	0xbde28cee	-0.110620365
204	0xbd9c6c0f	-0.07637798
205	0x3e05cf82	0.13067439
206	0xbca2ef33	-0.01988945
207	0x3e07b30a	0.13251892
208	0x3d3e42f1	0.04645056
209	0x3d0fdb6d	0.03512137
210	0x3bcc3b05	0.0062326216
211	0xbd3e5725	-0.046469826
212	0x3be5a140	0.007007748
213	0xbd53f8d4	-0.051750973
214	0xbc47f1d6	-0.012203654
215	0xbc2889c8	-0.010286756
216	0xbe2bf4f0	-0.16792655
217	0xbddabddc	-0.10680744
218	0x3dca018e	0.09863578
219	0x0000296e	1.4862e-41
220	0xbb9f0152	-0.0048524523
221	0x3e1961a7	0.14978658
222	0x3d8258cf	0.06364595
223	0x3c440d48	0.011966057
224	0xbe02b3fa	-0.12763968
225	0x3dc2de5a	0.095150664
226	0xbda7f910	-0.08201802
227	0xbd6072f1	-0.054797117
228	0xbd6d0435	-0.05786534
229	0xbd163156	-0.036668144
230	0x3c657d91	0.014006988
231	0x3e04cce5	0.12968786
232	0x3d1151ad	0.035478283
233	0x3d97b79a	0.07408066
234	0x3dc51fe5	0.09625224
235	0x3c6a88a6	0.014314806
236	0x3d9b92bf	0.07596349
237	0xbe0753db	-0.13215582
238	0xbd869db2	-0.06573047
239	0x3d111eec	0.03542988
240	0x3c406ed3	0.011745173
241	0x3dee2893	0.11628833
242	0x3cb74a39	0.02237426
243	0xbc5381d3	-0.0129093705
244	0x3dd1e0ae	0.102479324
245	0xbe3a4408	-0.18190014
246	0x3e146df2	0.14495066
247	0xbda21200	-0.079135895
248	0xbc8982e7	-0.016786052
249	0x3c5af99b	0.013365175
250	0xbda61728	-0.081098855
251	0x3ca3c70b	0.019992372
252	0x3e04bd96	0.12962946
253	0xbce59752	-0.028026257
254	0xbe163349	-0.14668001
255	0xbd3ed301	-0.046587948

encoder_c.convs.0.bias f4 [64]
0	0xbc185492	-0.009297507
1	0x3cfe83ef	0.03106877
2	0xbbe0b913	-0.006858
3	0x38b99c8a	8.850645e-05
4	0xbbbf3c49	-0.005836044
5	0x3bdbad7b	0.00670403
6	0x3d86f11c	0.06588957
7	0xbc2dd52c	-0.010609906
8	0xbb464a54	-0.0030256705
9	0x3c878dc7	0.016547097
10	0x3c6ff828	0.014646567
11	0xbc15e136	-0.009147933
12	0xbc1f016e	-0.009704931
13	0xbaa4bbb1	-0.0012568143
14	0xbcbf9082	-0.023384336
15	0x3b8939e1	0.004187808
16	0x3c419073	0.0118142245
17	0xbc02e0c3	-0.007988158
18	0x3cc6ad2a	0.024252493
19	0x3cbd59da	0.023114134
20	0x3c583590	0.013196364
21	0x3c4b55cb	0.012410591
22	0x3d075e11	0.033048693
23	0x3cc69cab	0.024244627
24	0xbc509c57	-0.012732587
25	0x3c1c182e	0.009527249
26	0x3c1e255b	0.009652461
27	0xbcc23635	-0.023707489
28	0xbc9d5e2a	-0.01920994
29	0x3c7a68b1	0.015283749
30	0x3c675505	0.014119391
31	0x3c83f561	0.016108217
32	0x3c4a8f6f	0.012363299
33	0x3b36faf5	0.0027920578
34	0x3ce2c0bd	0.027679795
35	0x3c0a36c9	0.008435913
36	0x3cd83c25	0.026395867
37	0x3b22353b	0.0024750966
38	0xbc836c5a	-0.016042877
39	0x3d04c5b0	0.032415092
40	0xbbfcc446	-0.0077138273
41	0x3add44d3	0.0016881473
42	0x3c703c21	0.014662773
43	0x3ccf13cb	0.025277993
44	0xbc308806	-0.010774618
45	0x3cc98e0d	0.024603868
46	0x3cba01fd	0.022706026
47	0x3d180005	0.037109394
48	0xbc1e21f8	-0.0096516535
49	0x3c8c303c	0.017112844
50	0x3c0fd69b	0.008779193
51	0xbb6d1d7a	-0.00361809
52	0x3bc9d395	0.0061592557
53	0x3b54c19a	0.0032464028
54	0x3bac9945	0.0052672946
55	0x3b9167ec	0.0044374373
56	0xbae2aae9	-0.0017293367
57	0x3c9c6c27	0.01909454
58	0x3a881f88	0.0010385374
59	0x3cc40c0b	0.023931524
60	0x3c4e794b	0.012602161
61	0x3b28d0a6	0.002575913
62	0xba0a919a	-0.00052859786
63	0x3c14307b	0.009044762

encoder_c.convs.1.weight f4 [64, 64]
0	0x3d85c45b	0.065315925
1	0xbd920225	-0.07129315
2	0xbd0e8ada	-0.034800388
3	0x3c4a9a3f	0.012365877
4	0x3b4c3e81	0.0031165185
5	0x3e11ec81	0.14250375
6	0xbd5b91ab	-0.053605717
7	0x3dc38579	0.09546942
8	0xbd692244	-0.056917444
9	0xbd0beb0b	-0.0341597
10	0xbe0d4d7a	-0.13799086
11	0x3e3515d4	0.17684108
12	0x3d209349	0.039202962
13	0x3cd73be0	0.026273668
14	0x3e6db45a	0.2321333
15	0xbe1c16f5	-0.15243132
16	0x3bc3b2ce	0.005972243
17	0x3e089cb8	0.13341033
18	0x3d9fcfa1	0.07803274
19	0x3dedd66a	0.11613162
20	0x000016c4	8.167e-42
21	0xbc1e2f75	-0.009654869
22	0xbdc70f26	-0.09719686
23	0x00005214	2.9444e-41
24	0x3ddd19d7	0.10795944
25	0xbd249cfc	-0.040188774
26	0xbb56c194	-0.003276919
27	0x3ce8e811	0.02843097
28	0xbdfd21ce	-0.12359963
29	0xbe4a6fe3	-0.19769244
30	0x800040f3	-2.33e-41
31	0xbd1734f3	-0.03691573
32	0xbdbedd72	-0.09319581
33	0x3d838f7a	0.0642385
34	0x3e22e7ab	0.15908687
35	0xbd047034	-0.032333568
36	0x3e4a813b	0.1977586
37	0xb345da20	-4.606602e-08
38	0x3e3dfcf3	0.18553524
39	0x3cf1883f	0.029483913
40	0x380b9684	3.328036e-05
41	0x3d0d6b7b	0.03452633
42	0xbd7c1c04	-0.061550155
43	0x3e07b844	0.13253886
44	0x3dd14c53	0.10219636
45	0xbaf1d48d	-0.0018450186
46	0x323e01e8	1.1059889e-08
47	0x3dd683fe	0.10474394
48	0x3d90d133	0.070711516
49	0x3e0a0845	0.13479717
50	0xbd9cc12f	-0.07654034
51	0xbe21e3a1	-0.1580949
52	0x3d8463f1	0.06464375
53	0x3d999a26	0.075001046
54	0xbe16d1d2	-0.14728478
55	0xa376c9af	-1.3378395e-17
56	0x3d81cbd5	0.06337706
57	0x3daa85df	0.08326315
58	0x3dc567d7	0.096389465
59	0x3dcc0c63	0.099633
60	0xbe50a2dd	-0.20374627
61	0xbd07386b	-0.03301279
62	0x3df6b9ef	0.12047183
63	0x3d945416	0.072426006
64	0xbe0dc6d6	-0.13845381
65	0x3e25af2e	0.16180107
66	0x3e29f954	0.16599017
67	0xbe1a7d35	-0.15086825
68	0x3ddf2985	0.10896591
69	0xbd6090b5	-0.054825503
70	0x3e03fae1	0.12888671
71	0xbe02f1b8	-0.12787521
72	0x3e053d92	0.13011768
73	0xbdbcc69a	-0.09217568
74	0x3e0dcebc	0.13848394
75	0xbdb55faa	-0.08856137
76	0xbdf745a6	-0.12073831
77	0xbd590019	-0.05297861
78	0xbe192f4b	-0.14959447
79	0x3e1404ec	0.14455003
80	0x3d96d9c2	0.07365753
81	0x3e1cab76	0.15299782
82	0xbe121173	-0.14264469
83	0xbdd94944	-0.106096774
84	0x800002d8	-1.02e-42
85	0xbdb25c01	-0.087089546
86	0x3dfab538	0.12241596
87	0x80006ece	-3.9749e-41
88	0xbd9cbc8e	-0.076531515
89	0xbe2bf7c1	-0.1679373
90	0xbdf14541	-0.11780787
91	0x3e250e72	0.16118792
92	0x3e533664	0.20626217
93	0x3de04f25	0.109525956
94	0x00001986	9.156e-42
95	0x3e12ee00	0.14348602
96	0x3e129cba	0.14317599
97	0xbde007ca	-0.10938986
98	0xbdf20706	-0.11817746
99	0x3ddb98cc	0.10722503
100	0xbda8cf68	-0.082426846
101	0x1cdef1e3	1.4753254e-21
102	0xbdb93e20	-0.090450525
103	0xbdb3116c	-0.08743557
104	0x29882370	6.045761e-14
105	0xbd1e4786	-0.03864243
106	0x3e1b7be9	0.15183987
107	0xbdbd71b3	-0.09250202
108	0xbd1185d4	-0.03552802
109	0xbdd66e87	-0.104703
110	0x1905d1d2	6.918312e-24
111	0xbdf0e893	-0.1176311
112	0xbdcfedbd	-0.10152767
113	0xbe08a6e5	-0.13344915
114	0x3dfb3bb6	0.12267248
115	0x3e63045c	0.22169632
116	0x3e5a8206	0.21338663
117	0x3c383783	0.011243704
118	0x3e39f393	0.18159322
119	0x000015c3	7.807e-42
120	0xbdbf68c5	-0.09346155
121	0xbd390ce8	-0.045178324
122	0xbdbe2a9c	-0.09285471
123	0xbe01f63c	-0.12691587
124	0x3e2d71e2	0.16937974
125	0x3d92ceeb	0.07168373
126	0xbd9b59aa	-0.075854614
127	0xbe34b253	-0.1764615
128	0x3d489c06	0.04897692
129	0x3df061d6	0.11737411
130	0x3d3b75a3	0.045766484
131	0xbc528f55	-0.012851556
132	0x3df5de79	0.12005324
133	0x3e31af68	0.17352068
134	0xbdcd62d7	-0.10028618
135	0x3e093608	0.13399518
136	0xbd37742a	-0.044788517
137	0x3d9185b4	0.0710558
138	0x3b62c90b	0.0034604694
139	0x3dd3adca	0.10335882
140	0xbd66742f	-0.056263145
141	0x3caf240e	0.021379497
142	0xbdce71a9	-0.10080273
143	0xbe13add9	-0.14421786
144	0xbdd7d63a	-0.10538907
145	0x3d868a9d	0.06569407
146	0x3dae2701	0.08503533
147	0x3d767022	0.060165532
148	0x000011b5	6.352e-42
149	0x3e00da17	0.12583195
150	0x3e1b8ffd	0.15191646
151	0x80001c7b	-1.0217e-41
152	0x3c958d9c	0.018256001
153	0x3d9ffae5	0.07811526
154	0xbd6a4e56	-0.057203613
155	0xbafa5bc0	-0.001910083
156	0x3b739aeb	0.0037171196
157	0xbe30ad3a	-0.1725358
158	0x800001bf	-6.26e-43
159	0xbc448d94	-0.0119966455
160	0x3e16f25f	0.14740895
161	0x3db3468d	0.08753691
162	0xbdc45fc3	-0.095885776
163	0x3d1971a5	0.037461895
164	0xbd680e07	-0.056654003
165	0xb54d14cf	-7.639873e-07
166	0x3db44a73	0.088032626
167	0x3d3bf847	0.045891073
168	0x38e6e097	0.00011009088
169	0xbd6c7579	-0.05772922
170	0x3dd5f2ad	0.10446677
171	0x3bd8c02e	0.0066147065
172	0xbdec4221	-0.115360506
173	0xbe0505a4	-0.12990433
174	0xb32a2429	-3.9614097e-08
175	0x3e220701	0.15822984
176	0x3d8d4cbc	0.068994015
177	0xbe05766c	-0.13033456
178	0x3d076cfa	0.033062913
179	0x3cf55922	0.029949728
180	0x3c817764	0.015804
181	0x3daa9154	0.083285004
182	0xbe37d30e	-0.17951605
183	0xa141550d	-6.5503507e-19
184	0xbd3cbfeb	-0.046081465
185	0x3d3d72f8	0.04625222
186	0x3d2a9bf4	0.041652635
187	0xbb9474f3	-0.004530543
188	0xbe58fca8	-0.2119013
189	0x3ded4e74	0.11587229
190	0xbe0d0b6e	-0.13773891
191	0x3d9c979c	0.07646105
192	0xbdaf80c2	-0.085694805
193	0x3db2e737	0.08735507
194	0x3d994b62	0.07485081
195	0xbc957135	-0.018242458
196	0x3de74d8d	0.112940885
197	0x3b8e1e8a	0.0043371366
198	0xbe381b50	-0.17979169
199	0xbc1a7727	-0.009427822
200	0xbe136629	-0.1439444
201	0x3da7204d	0.08160458
202	0xbcacc401	-0.021089556
203	0xbc44f4ad	-0.012021226
204	0xbc1c487e	-0.009538768
205	0x3c29ea8e	0.010370864
206	0xbd7c3991	-0.061578337
207	0x3d2b5872	0.041832395
208	0xbddba5be	-0.10724972
209	0x3ddbd2fd	0.10733602
210	0xbba3e36e	-0.005001477
211	0xbd7a0512	-0.06103999
212	0x80002109	-1.1851e-41
213	0x3d9c1238	0.076206625
214	0xbe1e924f	-0.154855
215	0x800020c4	-1.1754e-41
216	0x3bf0efea	0.0073528187
217	0x3e4016a2	0.18758634
218	0x3d4b057c	0.049565777
219	0xbcdd363a	-0.027003396
220	0xbe0b41bd	-0.13599296
221	0xbe246854	-0.16055423
222	0x80001298	-6.67e-42
223	0xbd038c93	-0.032116484
224	0xbe04e157	-0.12976585
225	0x3dbda24b	0.092594706
226	0xbd25a29e	-0.040438287
227	0xbc8d4473	-0.017244553
228	0xbc366502	-0.011132481
229	0xb34bab93	-4.7420667e-08
230	0x3d025da4	0.031827584
231	0x3d9656ce	0.073407754
232	0x385c654f	5.254644e-05
233	0xbc116d6a	-0.008876184
234	0x3da45f16	0.08025949
235	0xba7ceca5	-0.00096483
236	0x3e470360	0.19434881
237	0x3b417662	0.0029520025
238	0xb1c17e74	-5.6314153e-09
239	0x3e63c856	0.22244391
240	0x3d315f91	0.04330403
241	0xbdeda899	-0.11604423
242	0xbe0a0271	-0.13477494
243	0xbe658ddd	-0.22417398
244	0xbe2a6d95	-0.16643365
245	0x3df60d84	0.12014297
246	0x3cf99c34	0.030469991
247	0xa379c010	-1.3538988e-17
248	0xbd8d671d	-0.06904433
249	0x3e247bbb	0.16062824
250	0x3dda389d	0.106553294
251	0x3dee5fe9	0.11639387
252	0xbdbcd669	-0.09220583
253	0xbe53eaf4	-0.20695096
254	0x3e112e19	0.14177741
255	0x3d8d54e9	0.06900961

encoder_c.convs.1.bias f4 [64]
0	0xbc87dc09	-0.016584413
1	0x3c771573	0.0150807975
2	0x3d3e656d	0.046483446
3	0x3c327042	0.010891022
4	0x3cd4fc55	0.025999228
5	0x3c94aabb	0.018147817
6	0x3c259504	0.010106329
7	0x3c945aa2	0.018109623
8	0x3d1b7371	0.03795189
9	0x3a8e600c	0.0010862364
10	0x3c3187e2	0.01083562
11	0xbb7b6ae3	-0.003836327
12	0x3bf79b59	0.0075563607
13	0x3c370e44	0.011172835
14	0xbb8f8f03	-0.004381062
15	0x3c876af9	0.0165305
16	0x3c6b2a82	0.014353396
17	0x3d7a64c3	0.06113125
18	0x3c49894f	0.012300803
19	0x3c77a7b0	0.015115663
20	0xbc401c2a	-0.011725465
21	0x3c1dffe8	0.009643532
22	0x3cacb3c5	0.021081815
23	0xba6be045	-0.00089979573
24	0x3c9ff593	0.019526279
25	0x3ba6e106	0.005092743
26	0x3c0fcec0	0.00877732
27	0x3c3ea894	0.011636872
28	0x3c34c728	0.011033811
29	0x3cc3ce95	0.023902217
30	0xbc9a3957	-0.01882617
31	0x3d076a16	0.033060156
32	0x3caf2481	0.021379711
33	0xbbec98a0	-0.0072203428
34	0xbc50fafd	-0.012755153
35	0x3cde2732	0.0271183
36	0xba05e3d2	-0.0005107495
37	0xb87fb744	-6.0967417e-05
38	0x3ac63d3f	0.0015124454
39	0x3c373470	0.011181936
40	0xbce2cb05	-0.027684698
41	0x3c5c3d41	0.013442338
42	0x3d106e27	0.0352613
43	0xbca34e35	-0.019934753
44	0x3c751799	0.014959239
45	0x3c0a4830	0.008440062
46	0xbcb9dc71	-0.022688122
47	0x3c3b764f	0.011441781
48	0xba8ecfaf	-0.0010895635
49	0x3b2a8354	0.002601822
50	0x3d452e20	0.04813969
51	0x3c95127e	0.018197294
52	0x3cd6a63b	0.026202312
53	0x3d867ee5	0.06567172
54	0x3cc5d3a1	0.024148764
55	0xbcc83153	-0.024437582
56	0x3bd40a51	0.0064709564
57	0x3c6e0b27	0.014529026
58	0x3c9441e6	0.01809783
59	0x3c41a386	0.011818772
60	0x3ce94ec6	0.028479945
61	0x3c3d0014	0.011535663
62	0xbca7bba5	-0.020475218
63	0x3bbcd3f2	0.0057625705

encoder_c.convs.2.weight f4 [64, 64]
0	0x3df52465	0.11969832
1	0x3de9f61e	0.11423896
2	0xbe08a703	-0.1334496
3	0x3db6a0c6	0.08917384
4	0xbda3f943	-0.08006527
5	0xbe4f28f3	-0.20230465
6	0x3e17abd3	0.1481164
7	0x3e04d389	0.1297132
8	0xbe143e9f	-0.14477013
9	0x3d3709bb	0.044687014
10	0x3e7dcfa8	0.24786246
11	0x3e26d683	0.16292767
12	0x3dc428a0	0.09578061
13	0x3df4300a	0.11923225
14	0xbd4b70aa	-0.04966799
15	0x3dc9d481	0.09854985
16	0x3e1104fa	0.14162055
17	0xbde1668d	-0.11005888
18	0x3ddb031b	0.10693952
19	0x3e3499db	0.17636816
20	0xbdd3a0a9	-0.10333378
21	0xbe1f9b17	-0.15586506
22	0x3df05632	0.117351905
23	0xbd70e82e	-0.058815174
24	0x3e079b85	0.1324292
25	0xbe214b36	-0.15751347
26	0x3dd96e48	0.106167376
27	0xbdb09ca2	-0.08623625
28	0x3dc2b502	0.09507181
29	0xbd9aefdf	-0.07565283
30	0x3e395502	0.18098834
31	0x3e464064	0.193605
32	0xbddbdc19	-0.1073534
33	0x3e19519d	0.14972539
34	0x3dfd6a53	0.12373795
35	0xbde7ed82	-0.11324598
36	0xbe487c8c	-0.19578761
37	0x3e3f7096	0.18695292
38	0xbdfc30b5	-0.12313978
39	0x3e3f9e75	0.1871279
40	0xbe26bb42	-0.1628237
41	0x3db9254c	0.09040317
42	0x3e14a6b4	0.14516717
43	0xbe084df5	-0.13310988
44	0xbde20620	-0.110363245
45	0x3e4acbc0	0.19804287
46	0x3e0a940d	0.1353304
47	0x3d810672	0.063000575
48	0x3e17d9fc	0.14829248
49	0xbe22b425	-0.15889032
50	0x3e0f9316	0.14020953
51	0xbe0769fc	-0.13224024
52	0xbdbc329f	-0.09189343
53	0x3e3c14db	0.1836733
54	0xbe167b6a	-0.14695516
55	0x3e059379	0.13044538
56	0xbde8178d	-0.11332617
57	0x3db2a323	0.08722522
58	0x3ddc576f	0.10758864
59	0xbdefb0ba	-0.1170363
60	0xbe1c1edb	-0.15246145
61	0xbdba7c96	-0.09105794
62	0x3e300966	0.17191085
63	0xbd992eec	-0.07479653
64	0xbe6c00e8	-0.2304722
65	0xbe1d63b7	-0.1537007
66	0x3e032b24	0.12809426
67	0xbd97edda	-0.074184135
68	0x3e058c69	0.13041843
69	0x3e656f02	0.22405627
70	0xbe3fd6f0	-0.18734336
71	0xbe0c0d10	-0.13676858
72	0x3e769de8	0.24083674
73	0xbe27443b	-0.16334622
74	0xba729456	-0.0009253671
75	0xbdce6bc7	-0.10079151
76	0xbe17db8b	-0.14829843
77	0xbceaca8e	-0.028661039
78	0x3e9055b3	0.28190383
79	0xbe281d7c	-0.16417497
80	0xbd9573ea	-0.072974995
81	0x39aa16d0	0.00032441923
82	0xbe765dba	-0.24059191
83	0xbcc0ed60	-0.02355069
84	0x3d065e1d	0.032804597
85	0x3a27235a	0.0006375812
86	0xbdcaa7a5	-0.09895257
87	0xbcc3cde8	-0.023901895
88	0xbe441d6f	-0.19151853
89	0x3e2b069e	0.16701743
90	0xbd0fde63	-0.035124194
91	0x3e0efa28	0.13962615
92	0xbe57302c	-0.2101447
93	0xbd810464	-0.062996656
94	0xbe8fa662	-0.28056628
95	0xbda7a02a	-0.08184846
96	0x3dfc6718	0.12324351
97	0xbe2da57b	-0.16957657
98	0x3da4243c	0.08014724
99	0x3b8d9d76	0.0043217493
100	0x3dc94d01	0.098291405
101	0xbe9391c8	-0.2882216
102	0x3e70a351	0.234998
103	0xbd4c50bf	-0.049881693
104	0x3e1b24bc	0.15150732
105	0xbe58f120	-0.21185732
106	0xbe82eba6	-0.2557041
107	0x3e68d33c	0.2273683
108	0x3e701d60	0.23448706
109	0xbe3f6142	-0.18689445
110	0xbe03f8ff	-0.12887953
111	0xbe19f275	-0.15033896
112	0xbe039f7a	-0.12853804
113	0x3e8a282e	0.2698378
114	0xbde57261	-0.11203457
115	0x3e1cd0ef	0.15314077
116	0x3e7f10a7	0.24908696
117	0xbe724cdb	-0.2366213
118	0x3e02edb0	0.12785983
119	0xbdd5473e	-0.10413979
120	0x3cc270a9	0.023735361
121	0x3bdcf008	0.006742481
122	0xbe27e6bb	-0.1639661
123	0x3e9badc7	0.3040602
124	0x3e040390	0.12891984
125	0x3dd26245	0.1027265
126	0xbe8313f7	-0.2560117
127	0x3e0e51d7	0.13898407
128	0xbe29c830	-0.16580272
129	0xbd9925cd	-0.07477913
130	0x3dd6249e	0.10456203
131	0xbe5be082	-0.21472362
132	0x3dba5d7a	0.090998605
133	0x3d95f222	0.07321574
134	0xbd3eac1e	-0.046550862
135	0xbe054aca	-0.13016811
136	0x3e0d042b	0.13771121
137	0xbdeb0e65	-0.11477355
138	0xbda48feb	-0.08035263
139	0xbdaae59b	-0.08344575
140	0x3ba4b5b2	0.0050265426
141	0x3d45a94b	0.048257153
142	0x3da1817a	0.07886024
143	0xbe013aaf	-0.12620042
144	0xbd94185e	-0.0723121
145	0x3c82706c	0.015922748
146	0xbd96980a	-0.07353218
147	0xbe0ebc3b	-0.13938992
148	0xbd149fbb	-0.036285143
149	0x3dcdbe3b	0.10046049
150	0xbd997ecc	-0.07494888
151	0x3d70076a	0.05860082
152	0xbd929cda	-0.07158823
153	0x3e10c9cd	0.14139481
154	0x3d1b774e	0.037955575
155	0x3df5112c	0.11966166
156	0xbe42c553	-0.19020586
157	0xbd911368	-0.070837796
158	0xbd81302e	-0.06308018
159	0xbc17a20c	-0.009254944
160	0x3cea036d	0.028566087
161	0xbdae1df4	-0.08501807
162	0xbc81a76c	-0.015826903
163	0x3d047bd3	0.03234465
164	0x3e736535	0.23769076
165	0xbe1d2a84	-0.1534825
166	0x3d4744a4	0.048649445
167	0x3d3d92fe	0.04628276
168	0x3e478a16	0.1948627
169	0xbe0117d1	-0.12606741
170	0xbdd860a2	-0.10565306
171	0x3d801ccb	0.06255492
172	0x3e32eb6c	0.17472619
173	0xbe08a5a8	-0.13344443
174	0xbdc5b2e7	-0.096532635
175	0xbdd6a4a8	-0.104806244
176	0xbd1bd74a	-0.038047113
177	0x3dd3e080	0.10345554
178	0xbe3303b3	-0.1748188
179	0x3e2b54b4	0.1673153
180	0x3c839326	0.016061377
181	0x3d871f85	0.06597809
182	0x3c71175a	0.01471504
183	0x3d107c11	0.03527457
184	0x3dab4dba	0.083644345
185	0x3dba2667	0.09089356
186	0xbda14167	-0.07873803
187	0x3d20660c	0.03915982
188	0x3d5f77ce	0.054557614
189	0x3da32b1c	0.07967207
190	0xbd917367	-0.071020894
191	0x3dee2b62	0.11629368
192	0x3d0fbd61	0.035092715
193	0x3d7088bb	0.058724146
194	0x3d9fe8c7	0.07808071
195	0xbd396b03	-0.04526807
196	0xbd094b4c	-0.033519074
197	0x3d6343bf	0.05548453
198	0xbc639449	-0.013890334
199	0x3d691afc	0.0569105
200	0x3d6efcc8	0.05834654
201	0xbc3ae8f7	-0.011408082
202	0xbce1369e	-0.027491864
203	0x3e365b4b	0.17808263
204	0x3da4a3f4	0.08039084
205	0xbd4ca3c8	-0.04996088
206	0xbe556248	-0.20838273
207	0xbc48c3f6	-0.012253752
208	0xbd34b9fd	-0.044122685
209	0x3dfc01ed	0.12305055
210	0x3e29cb2f	0.16581415
211	0x3e0cd7a3	0.13754134
212	0x3cb49c26	0.022047114
213	0x3d9f0d99	0.077662654
214	0x3e0fdbdf	0.14048718
215	0xbcb87125	-0.022514889
216	0x3e0c88fc	0.1372413
217	0x3cfbbdad	0.030730093
218	0x3d64c701	0.055853847
219	0xbdca4680	-0.09876728
220	0x3ddaa441	0.1067586
221	0xbd3b894e	-0.04578524
222	0x3c0599b5	0.008154322
223	0xbd9cb2a4	-0.076512605
224	0xbc94e8fc	-0.018177502
225	0x3d2a0722	0.04151071
226	0x3c9a02c8	0.018800154
227	0x3e2b186f	0.1670854
228	0xbe578042	-0.2104502
229	0xbe26495c	-0.16238922
230	0xbc0f4dc2	-0.008746566
231	0xbdb40cbb	-0.08791491
232	0xbe0ca943	-0.13736443
233	0xbda80afb	-0.08205219
234	0x3e07dcc4	0.13267809
235	0xbdb51667	-0.088421635
236	0xbe40e7a3	-0.18838362
237	0x3e2ce06a	0.16882482
238	0xbd844c85	-0.064599074
239	0xbc4734e4	-0.012158606
240	0xbcc40ffd	-0.023933405
241	0x3c95dd5b	0.018294027
242	0x3e31c6fb	0.17361061
243	0xbe0a721a	-0.13520089
244	0xbe1b342e	-0.15156624
245	0x3de56fdd	0.11202977
246	0xbdb321d3	-0.08746686
247	0x3daf82bb	0.08569857
248	0x3dc10d39	0.0942635
249	0x3e07aec7	0.13250266
250	0x3baa0df7	0.005189653
251	0x3e104ac8	0.14091027
252	0xbd8cc1be	-0.06872891
253	0x3d10de2b	0.035368126
254	0xbcd40fde	-0.025886472
255	0xbcc39c86	-0.023878347

encoder_c.convs.2.bias f4 [64]
0	0xbc03c672	-0.0080429185
1	0xba912a92	-0.0011075309
2	0x3bcc4150	0.006233372
3	0xbb436295	-0.0029813398
4	0x3d400c8c	0.046886966
5	0x3a66c347	0.00088029023
6	0x3c0c216c	0.00855289
7	0xbbf1570c	-0.007365113
8	0x3cdaf327	0.026727272
9	0xbcbdbece	-0.023162272
10	0xbbb73ad5	-0.00559173
11	0xbb9357e2	-0.0044965604
12	0x3d0af84c	0.0339282
13	0x3d70e0a6	0.05880799
14	0x3a1aeec2	0.00059102115
15	0xbcfc9f62	-0.030837718
16	0xbc73d19d	-0.014881519
17	0x3cd26850	0.025684506
18	0xbc3ab529	-0.011395731
19	0xbc6322b6	-0.013863256
20	0xbd697f24	-0.057006016
21	0xbc5daeb9	-0.013530427
22	0xbc339019	-0.0109596485
23	0x3b24dab6	0.0025154776
24	0x3b89167b	0.004183588
25	0xbc8c1516	-0.017099898
26	0x3d459e1b	0.048246484
27	0x3c64f5ab	0.013974587
28	0xbc2bbeae	-0.010482473
29	0xbdac9b1f	-0.084280245
30	0xbcfad23a	-0.030617822
31	0xbbf2ae79	-0.0074060527
32	0xbc55b4a9	-0.013043561
33	0xbc4bdbfa	-0.012442583
34	0x3d35b957	0.044366207
35	0x3b7dec77	0.003874568
36	0x3b32ea07	0.0027300136
37	0x3b9216cf	0.0044582854
38	0x3aec1255	0.0018010834
39	0x3ca34227	0.019929005
40	0x3c8fdd9a	0.017561723
41	0xbd0e39ec	-0.034723207
42	0xbbe38a5c	-0.006943984
43	0x3c80d27b	0.015725365
44	0x3ba923d0	0.00516174
45	0xbb9191eb	-0.0044424436
46	0x3aacac7e	0.0013173965
47	0xbd8da638	-0.06916469
48	0x3c513853	0.012769776
49	0xb87b3d79	-5.9900314e-05
50	0xbbe686fb	-0.007035134
51	0x3c3e8a9e	0.011629729
52	0x3c654df6	0.013995638
53	0x3c07e8b6	0.008295229
54	0xbcac3d01	-0.021025183
55	0x3cfbb83a	0.030727495
56	0x3ca82712	0.020526443
57	0x3d9d0baf	0.07668244
58	0xbd2245bb	-0.03961728
59	0x3b871f3c	0.0041235965
60	0xbc219358	-0.00986179
61	0x3d0b4064	0.033996955
62	0xbc361686	-0.011113768
63	0x3d65dbc2	0.05611778

encoder_b.convs.0.weight f4 [116, 64]
0	0xbd21f155	-0.039536793
1	0x20e0543a	3.8002813e-19
2	0x3cd3f174	0.02587197
3	0x800012d2	-6.751e-42
4	0xbd504ee5	-0.05085649
5	0x3d7978a8	0.060906082
6	0xbdb6ac86	-0.08919625
7	0xbc3103cc	-0.010804128
8	0xbd3f99d5	-0.046777565
9	0xbda38225	-0.079838075
10	0xbddcc984	-0.107806236
11	0x3d836e26	0.064174935
12	0x3d980ba7	0.074240975
13	0xbc490584	-0.012269381
14	0x231eef15	8.615825e-18
15	0xbdb054d2	-0.08609928
16	0x3d0f081d	0.034919847
17	0xbd4b401c	-0.049621686
18	0xba50c639	-0.0007964108
19	0xbcecbddf	-0.028899131
20	0x3c7041e2	0.014664145
21	0x3ce2d0db	0.02768748
22	0xbca35046	-0.019935738
23	0xbd5b3d05	-0.05352499
24	0xba3e4d94	-0.0007259485
25	0x3d12c9d3	0.035837006
26	0xbd057adf	-0.032587882
27	0xae5084ed	-4.7411786e-11
28	0xbccd61ff	-0.025071142
29	0x3d3a5cba	0.045498587
30	0x3d3c1f38	0.04592821
31	0x3dd1d7dc	0.1024625
32	0xbd042d15	-0.032269556
33	0xbcdbbaae	-0.026822414
34	0xbbafc818	-0.005364429
35	0xbc512aa2	-0.012766512
36	0xbc657485	-0.014004831
37	0x3c1d95a6	0.0096181985
38	0x3d13d7bf	0.036094423
39	0xbcd5b75e	-0.026088413
40	0x1c12b2aa	4.8538266e-22
41	0x318b5027	4.0545447e-09
42	0x3c8b50f1	0.01700637
43	0x3c54fac5	0.012999241
44	0xbd33cb28	-0.043894917
45	0x3cd97fe6	0.026550245
46	0xbd164b54	-0.036692932
47	0x3ce2c770	0.02768299
48	0x3cca5f90	0.02470377
49	0x22b082ed	4.784352e-18
50	0x3ab78684	0.0014001881
51	0xa6311028	-6.1431107e-16
52	0x3d403642	0.046926744
53	0x8000204b	-1.1585e-41
54	0x3d2ba3a9	0.041904125
55	0xbdd17b8e	-0.10228644
56	0x3c6ed47c	0.014577027
57	0x31ce2261	5.9992975e-09
58	0x3d4a1ce5	0.049343962
59	0xbdd14f9b	-0.10220262
60	0xbc61c88f	-0.013780727
61	0xbc99275e	-0.01869553
62	0xbd52fd26	-0.051510952
63	0x83697ab9	-6.8613425e-37
64	0xbb7b4534	-0.0038340809
65	0x0000243e	1.3001e-41
66	0x3d3685f5	0.044561345
67	0x000006c8	2.433e-42
68	0xbdb81e5e	-0.08990167
69	0x3d5e9f3e	0.054351084
70	0x3d289c06	0.04116442
71	0x3d20871f	0.03919136
72	0x3cea6c4b	0.028616091
73	0xbd7fc67b	-0.062445145
74	0xbcec84e4	-0.028871961
75	0x3d83d3be	0.06436871
76	0xbce9c152	-0.028534565
77	0x3d494916	0.049141966
78	0x991de1c7	-8.162305e-24
79	0x3d608cf9	0.054821942
80	0x3d56bbbf	0.052425142
81	0x3c1bd309	0.009510764
82	0xb97041f5	-0.00022912755
83	0x3c4438bd	0.011976418
84	0x3b4836b1	0.0030550177
85	0x3b0ef412	0.0021812958
86	0x3c7a6288	0.015282281
87	0xbc44163e	-0.011968194
88	0xbd9829f0	-0.07429874
89	0xbd9d797f	-0.07689189
90	0xbc011264	-0.00787792
91	0xb0a0c915	-1.1698683e-09
92	0x3e00a6a0	0.12563562
93	0xbd428a4f	-0.047495183
94	0x3bb1bd92	0.00542421
95	0x3dbb4ebb	0.09145876
96	0xbd5ae38e	-0.05343967
97	0xbd6d95f7	-0.058004346
98	0xbac39075	-0.0014920371
99	0xbcfd3f46	-0.03091396
100	0x3cc60de7	0.024176551
101	0x3be24efb	0.006906388
102	0x3c92b0aa	0.017906506
103	0x3d9cac73	0.076500796
104	0x2239daf9	2.5188098e-18
105	0xb17b7273	-3.6590364e-09
106	0xbadf3ecc	-0.0017032265
107	0x3daf2315	0.08551613
108	0xb693b2fd	-4.4017784e-06
109	0x3c845cc2	0.016157512
110	0x3ddfe421	0.10932184
111	0xbc6e840f	-0.014557852
112	0x3cb6e7e2	0.022327367
113	0x203c0625	1.5926252e-19
114	0x3be02f38	0.0068415664
115	0x9ef1cd70	-2.5601834e-20
116	0x3c81823a	0.015809167
117	0x9e831789	-1.3879898e-20
118	0xbc9d4b44	-0.019200929
119	0xbda4c667	-0.08045655
120	0x3c97b8b3	0.018520689
121	0xafdd8c05	-4.0299156e-10
122	0x3c6e0116	0.014526626
123	0x3a6f38e4	0.0009125604
124	0xbb54fc06	-0.003249885
125	0xbbe6c03b	-0.0070419586
126	0xbcce9936	-0.025219541
127	0x2ae3b63a	4.0449745e-13
128	0xbb69a57e	-0.003565162
129	0xa4d1df8a	-9.101799e-17
130	0xbd3abba6	-0.04558911
131	0x00001845	8.706e-42
132	0xbb7182dc	-0.003685168
133	0x3d901177	0.07034581
134	0x3d9665f4	0.07343665
135	0x3c5fbbfd	0.01365566
136	0x3b0b19d9	0.0021225123
137	0x3d295603	0.041341793
138	0xbb4dc3de	-0.0031397264
139	0xbd7500e0	-0.059815288
140	0x3c9c7efe	0.019103523
141	0xbd2fc9bb	-0.042916995
142	0x0000237e	1.2732e-41
143	0xbbc12a7f	-0.0058949585
144	0x3ccb8f7b	0.02484869
145	0xbd751a4b	-0.059839528
146	0xbb7c01a2	-0.0038453122
147	0x3d2bd8a9	0.04195467
148	0xbde8c708	-0.11366087
149	0x3d35db8f	0.04439884
150	0xbca8f17b	-0.02062296
151	0xbbdea699	-0.0067947623
152	0x3c59bc2d	0.0132894935
153	0xbc8eb596	-0.017420571
154	0x3b9af4fa	0.0047289105
155	0x2f8927b0	2.4948354e-10
156	0x3d2a42bb	0.041567545
157	0xbd0953fd	-0.033527363
158	0xbc866611	-0.01640609
159	0xbcb95c0e	-0.022626903
160	0x3d64d338	0.055865496
161	0xbdb7cc05	-0.089744605
162	0xbb1a77a8	-0.0023569856
163	0xbd54ab3b	-0.05192111
164	0xbdb02d80	-0.086024284
165	0x3c437d52	0.011931734
166	0xbb2174de	-0.0024636309
167	0x3d4c5d80	0.049893856
168	0x9a9840f7	-6.297068e-23
169	0x32fc949b	2.9404239e-08
170	0xbd6a1df8	-0.057157487
171	0xbcfcc8cd	-0.030857468
172	0x3d2f9c4b	0.042873662
173	0x3ab384e2	0.0013696218
174	0xbd62024c	-0.05517797
175	0x3d8dc854	0.06922975
176	0xbc85bd1d	-0.016325528
177	0x966bc888	-1.9046425e-25
178	0xbbb1afed	-0.0054225833
179	0x80000106	-3.67e-43
180	0x3c5da546	0.013528174
181	0x80001466	-7.318e-42
182	0x3d640ca2	0.05567611
183	0x3cf1c46a	0.029512603
184	0xbca602c9	-0.020265
185	0x31f1f020	7.041322e-09
186	0xbd0cd9cf	-0.034387406
187	0x3dd32cae	0.10311256
188	0x3b285a48	0.0025688577
189	0x3baa8c96	0.0052047474
190	0xbcadab21	-0.021199765
191	0x80000e4f	-5.133e-42
192	0x3c7abcb8	0.015303783
193	0x00000250	8.3e-43
194	0xbccd6f20	-0.025077403
195	0x0ed905e9	5.350032e-30
196	0x3d6266ce	0.055273823
197	0x3d7a9f45	0.061187048
198	0xbdbf999e	-0.09355472
199	0xbcdba3fe	-0.026811596
200	0xbd43b9e8	-0.047784716
201	0xbd935be4	-0.07195261
202	0x3e0e2f6e	0.1388528
203	0x3d9b67a1	0.07588125
204	0xbda2c2b4	-0.07947293
205	0xbcfe1579	-0.031016098
206	0x97c76c3b	-1.2887395e-24
207	0x3dc9a7aa	0.098464325
208	0x3bdac36e	0.006676129
209	0x3c25f9d6	0.010130366
210	0xbb885c7e	-0.0041614166
211	0xbb8d28bc	-0.0043078344
212	0xbdd728ab	-0.10505804
213	0x3de05e8f	0.109555356
214	0x3ccad761	0.024760904
215	0x3c138657	0.009004197
216	0x3d76d608	0.06026271
217	0x3d3d6490	0.046238482
218	0x3cc667c2	0.024219397
219	0xa919675b	-3.406247e-14
220	0xbcdffdbf	-0.027342675
221	0x3d375773	0.044761132
222	0xbca9f9a5	-0.020748923
223	0xbd82cbbd	-0.06386516
224	0x3db2a67f	0.08723163
225	0xbb989d28	-0.0046574064
226	0xb9afdf87	-0.00033545142
227	0x3ca861ea	0.020554502
228	0x3dc0e8f7	0.094194345
229	0xbb335153	-0.0027361705
230	0xbcbd5e5d	-0.023116285
231	0x3d830d0a	0.063989714
232	0x9c916be9	-9.623189e-22
233	0x35cf6c64	1.5454248e-06
234	0x3d444425	0.04791655
235	0x3d93c12c	0.07214579
236	0x3cba1d33	0.022719001
237	0xbc176136	-0.0092394855
238	0x3d049fb3	0.032378864
239	0x3cbfa730	0.02339515
240	0xbc24b9bd	-0.010054049
241	0x28d7ae49	2.394538e-14
242	0xbc271def	-0.010200008
243	0x800019bf	-9.236e-42
244	0x3d58094d	0.052743245
245	0x000020b1	1.1727e-41
246	0x3d4c23a6	0.049838684
247	0x3d92cc2f	0.07167851
248	0xbcc07ce6	-0.023497056
249	0xb0121d16	-5.3155824e-10
250	0xbceb542b	-0.028726658
251	0x3db08b80	0.086203575
252	0x3ba898c5	0.0051451647
253	0x3c9e3161	0.019310655
254	0xbc0c0f17	-0.00854852
255	0x8b327f54	-3.4377344e-32

encoder_b.convs.0.bias f4 [64]
0	0x3dacb282	0.08432485
1	0xbc9d246e	-0.01918241
2	0x3d367daa	0.044553436
3	0xbbd3bda5	-0.0064618164
4	0x3d9d3443	0.07675984
5	0x3c676d47	0.014125175
6	0xbcee3fab	-0.029083094
7	0x3cfbf85b	0.030758074
8	0x3cb91de5	0.022597263
9	0x3d864101	0.06555367
10	0x3cc26bae	0.023732986
11	0x3c5b2b02	0.013376953
12	0x3cc467c4	0.02397526
13	0x3d5669bb	0.052346926
14	0xb9cb9fed	-0.0003883833
15	0xbcb9d9ac	-0.022686802
16	0xbc7c8b52	-0.015414076
17	0x3c98fd46	0.018675458
18	0x3db01439	0.08597607
19	0x3dd0ad29	0.10189278
20	0x3d8d721b	0.069065295
21	0x3d291026	0.041275166
22	0x3da6562e	0.08121906
23	0xbce7700f	-0.028251676
24	0x3cb8c4db	0.022554806
25	0xbaeb28c6	-0.0017941229
26	0x3da08e9d	0.07839701
27	0xbcefb5c7	-0.029261483
28	0x3d95e16e	0.07318388
29	0x3da915fb	0.082561456
30	0x3cc3a07c	0.023880236
31	0x3b927483	0.0044694557
32	0xbd1c6808	-0.03818515
33	0x3d3a5356	0.04548963
34	0x3db013cd	0.08597527
35	0x3d935e82	0.0719576
36	0x3d3f5031	0.046707336
37	0x3d49d292	0.04927308
38	0x3c1501dd	0.0090946825
39	0x3da423e0	0.08014655
40	0xbb9b4207	-0.0047380957
41	0xbcbe04fe	-0.02319574
42	0x3c94ad14	0.018148936
43	0x3d10a2ae	0.035311393
44	0x3d48aec9	0.048994813
45	0xbc6e6714	-0.014550943
46	0x3d73c15a	0.059510566
47	0x3bb4d529	0.0055185747
48	0x3cc1ac16	0.023641627
49	0xbb4ffabc	-0.0031735143
50	0x3d09f3ad	0.033679653
51	0xbc489587	-0.012242681
52	0xbc868ef5	-0.01642559
53	0xbc981ec9	-0.018569367
54	0x3d13a320	0.03604424
55	0x3d51b052	0.051193543
56	0x3cedbbdd	0.029020244
57	0xbcc8d63b	-0.024516216
58	0x3d700b22	0.058604367
59	0xbbffcc22	-0.007806317
60	0x3dc7288c	0.097245306
61	0x3cdeac81	0.027181866
62	0x3cb33c6b	0.021879395
63	0xbcebf270	-0.028802127

encoder_b.convs.1.weight f4 [64, 64]
0	0x00002223	1.2246e-41
1	0x8000092f	-3.294e-42
2	0xb5bb5133	-1.3956218e-06
3	0x3c9c6d93	0.019095218
4	0x3c958e05	0.018256197
5	0x3dc5cee0	0.09658599
6	0x3b39f4d1	0.0028374682
7	0x3db0c47f	0.08631229
8	0x3cbdc79a	0.023166467
9	0x3bdca447	0.0067334506
10	0x1382feaa	3.306773e-27
11	0x3d1b1730	0.03786391
12	0xb7f7fe50	-2.9563118e-05
13	0x3c0cc3eb	0.008591632
14	0xbbc792a6	-0.00609048
15	0x0000102c	5.801e-42
16	0x3ba760d8	0.00510798
17	0x3ba99a32	0.005175852
18	0xa8972205	-1.6779121e-14
19	0xa208a1fe	-1.8517195e-18
20	0x3d558811	0.052131716
21	0xbc1c2285	-0.0095297145
22	0x3d5fec38	0.054668635
23	0x3cb35aa6	0.02189381
24	0x3da0c1f8	0.078494966
25	0x22da9c63	5.92546e-18
26	0x3c764e02	0.015033247
27	0x3d29d8c1	0.04146648
28	0x3cce1350	0.025155693
29	0x3d35ee27	0.044416573
30	0x3c4a3109	0.012340792
31	0x9d3d5112	-2.5055854e-21
32	0x3ce76f41	0.028251292
33	0x3c7fc002	0.015609743
34	0x3b825dcb	0.003978466
35	0x3bb65de9	0.005565394
36	0x3bcbc39d	0.0062183873
37	0xbc451e5c	-0.012031164
38	0x3d1dc8e8	0.038521677
39	0x3a958172	0.0011406376
40	0x3c257297	0.010098121
41	0x3be57083	0.007001938
42	0x3c6ca87d	0.014444468
43	0x3b17200d	0.0023059875
44	0x3c9440a9	0.018097239
45	0x3cb33e1f	0.021880208
46	0x3cbc36a0	0.022975266
47	0x3cf3dd59	0.029768633
48	0x3cadfda7	0.021239115
49	0x3c5e5d59	0.0135720605
50	0x3ddc0692	0.10743441
51	0x3cc279a9	0.023739653
52	0x3dd16244	0.10223821
53	0x0000127c	6.631e-42
54	0x3cd10dae	0.025519218
55	0x3c6d0a29	0.014467754
56	0x3b0fc705	0.0021938693
57	0x9afdc229	-1.0495203e-22
58	0x3c4c46f3	0.0124680875
59	0x3d5535f4	0.052053407
60	0x000021b3	1.2089e-41
61	0x3ba3c87c	0.004998265
62	0x00002462	1.3052e-41
63	0x3bcc233c	0.006229786
64	0x28287032	9.350202e-15
65	0x2988ff8c	6.0839436e-14
66	0x2cd9ffd4	6.1959136e-12
67	0x000001b1	6.07e-43
68	0x2800fbb6	7.1600085e-15
69	0xaea10a85	-7.323301e-11
70	0x8000208c	-1.1676e-41
71	0x9d9509f9	-3.9450283e-21
72	0x1d231a52	2.1586478e-21
73	0x00000177	5.25e-43
74	0xa8e7ba42	-2.5726928e-14
75	0x80001419	-7.21e-42
76	0x94b6b5d7	-1.8449027e-26
77	0x296fccd4	5.324632e-14
78	0x800016ff	-8.25e-42
79	0xa667f8eb	-8.048157e-16
80	0x00000dbb	4.926e-42
81	0x2b6ad97c	8.343532e-13
82	0x0000096b	3.379e-42
83	0x800024ed	-1.3246e-41
84	0x22c778b5	5.406686e-18
85	0x800008f5	-3.213e-42
86	0x1c8022d2	8.47933e-22
87	0x02390023	1.3591693e-37
88	0x80001916	-8.999e-42
89	0x2902c9e4	2.904091e-14
90	0x00002046	1.1578e-41
91	0x95df6710	-9.0231587e-26
92	0xade772f3	-2.6312707e-11
93	0xa385de5c	-1.4514062e-17
94	0x975e7685	-7.188166e-25
95	0x000014e9	7.501e-42
96	0x00001679	8.062e-42
97	0x8000159a	-7.749e-42
98	0x00002338	1.2634e-41
99	0x2ad4444e	3.770616e-13
100	0x000026e2	1.3949e-41
101	0x1901df48	6.714235e-24
102	0x8000225f	-1.233e-41
103	0x2c8fc77a	4.086451e-12
104	0x2bb95e69	1.3171245e-12
105	0x9e00b618	-6.81392e-21
106	0x878cc4ae	-2.1180457e-34
107	0x8c5d415e	-1.7044891e-31
108	0x80002099	-1.1694e-41
109	0xa2887caf	-3.6994888e-18
110	0xa7ed496b	-6.5860314e-15
111	0x19872f22	1.397771e-23
112	0x80003981	-2.0629e-41
113	0x215f1dd1	7.55948e-19
114	0x00000e5e	5.154e-42
115	0x8001a003	-1.49237e-40
116	0xaf323aa0	-1.6209833e-10
117	0x80000bab	-4.186e-42
118	0x800007a2	-2.738e-42
119	0x800014a1	-7.4e-42
120	0x80000b99	-4.16e-42
121	0x000010fb	6.091e-42
122	0x000005ac	2.035e-42
123	0x8000056e	-1.948e-42
124	0x800024fa	-1.3265e-41
125	0x00000e3f	5.11e-42
126	0x946c7d28	-1.1939638e-26
127	0x2ccd9662	5.8431463e-12
128	0x2131fe1b	6.030624e-19
129	0x2365a05c	1.2448072e-17
130	0xb561354c	-8.389659e-07
131	0x3de327f8	0.11091608
132	0xbb874751	-0.0041283746
133	0x3e0d7712	0.13814953
134	0xbc91a4b9	-0.017778741
135	0x3d8e86e3	0.06959321
136	0x3c67f32a	0.014157096
137	0x3c227b00	0.009917021
138	0x1f42566e	4.115259e-20
139	0x3cd8ded2	0.026473437
140	0xb8c888f6	-9.562254e-05
141	0x3c6cfa60	0.014463991
142	0xbc9f0f86	-0.019416582
143	0x9bb82aa0	-3.0467792e-22
144	0xbc599873	-0.013280976
145	0xbbd06240	-0.0063593686
146	0x1dc3250e	5.1654384e-21
147	0xa434af5a	-3.9179807e-17
148	0xbc9b9c0b	-0.018995306
149	0xbd2677e1	-0.04064167
150	0x3e1907a1	0.14944316
151	0xbdac320d	-0.08407984
152	0x3de26e8c	0.110562414
153	0xa06cbd58	-2.0052626e-19
154	0x3c8be561	0.01707715
155	0x3bb368a4	0.0054751206
156	0xbd4fc2a8	-0.050722748
157	0x3d41f3e0	0.047351718
158	0xbc0ce0a9	-0.008598485
159	0xaa4554dd	-1.7526558e-13
160	0x3ba46e48	0.0050180294
161	0x3cc3d9c1	0.023907544
162	0xbbee7fa4	-0.0072783995
163	0xbca71338	-0.020394906
164	0xbc67c938	-0.014147095
165	0xbc800352	-0.015626583
166	0x3d8b3e5b	0.06799003
167	0xbb62a09b	-0.0034580592
168	0x3c772f84	0.015087012
169	0x3c131971	0.008978234
170	0x3e14c83c	0.14529508
171	0xbd4d7c96	-0.050167643
172	0x3d4594dc	0.048237666
173	0x3d09c60d	0.03363614
174	0x3d3dc1c5	0.04632737
175	0x3d9b6479	0.07587523
176	0xbbaa2aa5	-0.005193072
177	0x3bda4b29	0.006661792
178	0x3dc6f8d5	0.0971543
179	0x3d79183b	0.060814124
180	0x3dcf7225	0.10129193
181	0x2f5dbd12	2.0167004e-10
182	0x3c83c80c	0.0160866
183	0x3d0f8ee1	0.03504837
184	0xbd0df6eb	-0.034659307
185	0x9426558c	-8.3977294e-27
186	0x3cbdbf0f	0.023162393
187	0xbca82c16	-0.020528834
188	0x800031f3	-1.7918e-41
189	0xbc60e13a	-0.013725573
190	0x00001973	9.13e-42
191	0xbb40512b	-0.0029345255
192	0x00000f47	5.48e-42
193	0x0000195d	9.099e-42
194	0x91136fea	-1.1630741e-28
195	0x000003b2	1.326e-42
196	0x9b61d397	-1.8679932e-22
197	0x00000d4a	4.767e-42
198	0x00000f71	5.54e-42
199	0x800016cb	-8.177e-42
200	0x000027cb	1.4275e-41
201	0x00000c30	4.372e-42
202	0x2dce76bb	2.3472215e-11
203	0x8000222a	-1.2256e-41
204	0xacc2c9d7	-5.5362204e-12
205	0x0000056d	1.946e-42
206	0x00000086	1.88e-43
207	0x1a1ca3f9	3.23925e-23
208	0x1d207348	2.1235423e-21
209	0x00000d70	4.82e-42
210	0x00001891	8.813e-42
211	0x28402c78	1.0667784e-14
212	0x9647c36a	-1.6136754e-25
213	0x00000091	2.03e-43
214	0x83eda4ae	-1.3967417e-36
215	0x00001bf0	1.0022e-41
216	0x800023bb	-1.2818e-41
217	0x000025f8	1.362e-41
218	0x1a1f713f	3.297191e-23
219	0x00000ca3	4.533e-42
220	0x00000144	4.54e-43
221	0x0000152f	7.599e-42
222	0x000003a7	1.31e-42
223	0x233bd666	1.0182691e-17
224	0x2d41076b	1.0972427e-11
225	0x00000763	2.65e-42
226	0x800024a1	-1.314e-41
227	0x80032023	-2.87035e-40
228	0x93ea23e7	-5.9105307e-27
229	0x9cffc91c	-1.692647e-21
230	0x16dd07ce	3.57094e-25
231	0x800005e5	-2.115e-42
232	0xad9f90d2	-1.814052e-11
233	0x9946e15f	-1.02818734e-23
234	0x8ab9da4e	-1.7896969e-32
235	0x2d1ddf65	8.97402e-12
236	0x0000043f	1.523e-42
237	0x00001eaf	1.1007e-41
238	0x80000ab4	-3.84e-42
239	0x000006c6	2.43e-42
240	0x00002254	1.2315e-41
241	0x000023f7	1.2902e-41
242	0x80000706	-2.52e-42
243	0x2b21d855	5.749891e-13
244	0x29e3dc8f	1.0119086e-13
245	0x991026ec	-7.452486e-24
246	0x80001db5	-1.0657e-41
247	0x2501bb45	1.1252416e-16
248	0xa7774ca5	-3.4319685e-15
249	0x00001b3d	9.771e-42
250	0xa2231e0a	-2.2106522e-18
251	0x1d6d22e2	3.1384723e-21
252	0x2d6b73b5	1.33838956e-11
253	0x000026d7	1.3933e-41
254	0xa195921b	-1.0135307e-18
255	0x1120cc8f	1.2684809e-28

encoder_b.convs.1.bias f4 [64]
0	0xbc66e069	-0.0140915895
1	0xbc83afb7	-0.016074998
2	0x3804967d	3.1611406e-05
3	0xbc68ec03	-0.014216426
4	0x3d9b9fe1	0.07598854
5	0x3d696c18	0.05698785
6	0x3c927fc0	0.017883182
7	0x3da80264	0.08203581
8	0x3d10471b	0.03522406
9	0x3cb32d07	0.021872057
10	0xbc89307b	-0.01674675
11	0x3db3f264	0.08786467
12	0x3c0110dd	0.007877556
13	0xbb8fba57	-0.004386227
14	0xbd3a61a8	-0.04550329
15	0xb9949cb4	-0.00028345513
16	0x3c7a7db5	0.01528876
17	0xbcc6fc25	-0.024290154
18	0xbbdffa65	-0.0068352693
19	0xbc77205d	-0.0150834
20	0x3c19aab6	0.00937908
21	0x3ba9d7e7	0.0051832083
22	0x3d45f1e6	0.048326395
23	0x3cc23c32	0.023710344
24	0x3d8b6690	0.068066716
25	0xbb9015bb	-0.0043971217
26	0x3bdbe702	0.006710888
27	0x3d4a44c2	0.04938198
28	0x3d6cd993	0.057824682
29	0x3d116f89	0.03550676
30	0x3d3c3bca	0.045955457
31	0xbc9d1053	-0.019172823
32	0x3d92059d	0.07129977
33	0x3d98dc92	0.074639454
34	0x3c3e477a	0.011613721
35	0x3c4da5c9	0.012551733
36	0x3c0a5f0e	0.008445514
37	0x3d49ac8e	0.049236827
38	0x3db686bf	0.089124195
39	0x3cca23f0	0.02467534
40	0xbbe92113	-0.0071145385
41	0xbc2c9949	-0.010534593
42	0x3c352ff6	0.011058798
43	0x3d46786e	0.048454694
44	0xbc55fd94	-0.013060946
45	0x3bb91611	0.0056483825
46	0x3ccaec5f	0.024770914
47	0x3d220b61	0.039561633
48	0x3a98ab24	0.0011647684
49	0x3dba5fc0	0.09100294
50	0x3db30487	0.08741098
51	0x3cbfafc9	0.02339925
52	0x3dbece97	0.09316748
53	0xbc96eb37	-0.018422706
54	0x3cd9803d	0.026550407
55	0x3bc5a949	0.0060321433
56	0x3d8c4696	0.06849401
57	0xb75adb46	-1.3044866e-05
58	0x3d304a05	0.04303934
59	0x3d77411e	0.060364835
60	0xbb0c89ed	-0.0021444515
61	0x3d4e8051	0.05041534
62	0xbc3ed3e6	-0.0116472
63	0x3cafcb30	0.021459192

encoder_b.convs.2.weight f4 [64, 64]
0	0x106c325e	4.6581595e-29
1	0x000023e8	1.2881e-41
2	0x24c9edd1	8.757273e-17
3	0x00000a05	3.594e-42
4	0x219177db	9.857308e-19
5	0x947bc3ab	-1.271085e-26
6	0x000023e1	1.2871e-41
7	0x80000eca	-5.305e-42
8	0xa6488ca5	-6.957955e-16
9	0xa12626cd	-5.629434e-19
10	0x2b4b338f	7.219164e-13
11	0x80001b8e	-9.885e-42
12	0xa1fbbd6e	-1.7058563e-18
13	0x141763c0	7.643224e-27
14	0x9e5c0251	-1.1647182e-20
15	0x000008c0	3.139e-42
16	0xac5e2d91	-3.1573392e-12
17	0x0000049a	1.651e-42
18	0x00002110	1.186e-41
19	0x000010f5	6.083e-42
20	0x8000002d	-6.3e-44
21	0x800023d3	-1.2851e-41
22	0x8000273f	-1.4079e-41
23	0x800024fa	-1.3265e-41
24	0x000007d4	2.808e-42
25	0xacdcdab3	-6.2770566e-12
26	0x0ad709a9	2.070738e-32
27	0x9ad4b7e6	-8.797825e-23
28	0x00000984	3.414e-42
29	0x00001bb6	9.941e-42
30	0x9c1edd3d	-5.256376e-22
31	0xa639e23b	-6.449137e-16
32	0x2a00ca73	1.1438922e-13
33	0x0000170f	8.272e-42
34	0x8000238c	-1.2752e-41
35	0x800014d7	-7.476e-42
36	0xa7ac16cb	-4.7764302e-15
37	0x9225a7dc	-5.227172e-28
38	0x04567a46	2.5211724e-36
39	0x800020e4	-1.1799e-41
40	0x95301aed	-3.5564158e-26
41	0x00001c1a	1.0081e-41
42	0x000007ff	2.868e-42
43	0x00002564	1.3413e-41
44	0x0000277c	1.4164e-41
45	0x80000695	-2.361e-42
46	0x8000219d	-1.2058e-41
47	0xa437b5e3	-3.9835864e-17
48	0xa287c0a3	-3.6795785e-18
49	0x2483155d	5.6848385e-17
50	0x00000b6d	4.099e-42
51	0x285b1d05	1.2163235e-14
52	0x0000028f	9.18e-43
53	0x00002170	1.1995e-41
54	0x0000038e	1.275e-42
55	0xa5c28f7d	-3.3750867e-16
56	0x29e3822d	1.0103407e-13
57	0x00002cf5	1.6128e-41
58	0x29e71f26	1.0263864e-13
59	0x80001fc0	-1.139e-41
60	0x0c1b8f49	1.1983884e-31
61	0x2b09d623	4.896935e-13
62	0x2b773be5	8.783515e-13
63	0x2bb8d717	1.3133686e-12
64	0x0a2d1112	8.3328576e-33
65	0x00001eca	1.1045e-41
66	0x800022ec	-1.2528e-41
67	0x9c15f6a7	-4.9618755e-22
68	0x1084b934	5.235017e-29
69	0x8000140b	-7.19e-42
70	0x22ed64c5	6.4345673e-18
71	0xa3fb3640	-2.723645e-17
72	0xa905abc5	-2.968092e-14
73	0x8000206d	-1.1632e-41
74	0x9fdaf256	-9.27275e-20
75	0x2bd58373	1.5171045e-12
76	0x2262722f	3.068916e-18
77	0x00002328	1.2612e-41
78	0x000022bc	1.246e-41
79	0x25b7f52a	3.191157e-16
80	0xa9d0a816	-9.266214e-14
81	0x22f17da3	6.5456204e-18
82	0x00002444	1.301e-41
83	0x1b1972fb	1.2693016e-22
84	0x000020d5	1.1778e-41
85	0xaae932f0	-4.142446e-13
86	0xa3d41ede	-2.2998159e-17
87	0x2b117d13	5.1687924e-13
88	0x00001cea	1.0372e-41
89	0x0463eefc	2.6793458e-36
90	0x079948fe	2.3063782e-34
91	0x80000744	-2.606e-42
92	0xa061dadb	-1.9130655e-19
93	0x824e8221	-1.5171835e-37
94	0xa43ff6b7	-4.16255e-17
95	0x80000fb3	-5.632e-42
96	0x8000210f	-1.1859e-41
97	0xad5a03c0	-1.2392698e-11
98	0x8002dd54	-2.63069e-40
99	0x9706594c	-4.3410444e-25
100	0x800003db	-1.383e-42
101	0x1380fcb2	3.256092e-27
102	0x131bfcec	1.968845e-27
103	0x2e0e6c11	3.2383044e-11
104	0x1f402e19	4.0695713e-20
105	0x9d716b65	-3.1951606e-21
106	0x80001203	-6.461e-42
107	0x9fc6b66a	-8.415804e-20
108	0x9c8eef41	-9.458617e-22
109	0x0f1341e5	7.2603504e-30
110	0x00001dd5	1.0702e-41
111	0x00001467	7.319e-42
112	0xa34f196b	-1.1226875e-17
113	0x86d7da9d	-8.1195235e-35
114	0x8000070e	-2.531e-42
115	0x80001933	-9.04e-42
116	0x800022ab	-1.2437e-41
117	0xac4a1bb5	-2.8721307e-12
118	0x2088dc60	2.3185128e-19
119	0x0000210e	1.1858e-41
120	0x292bc771	3.8142615e-14
121	0x26932627	1.0210515e-15
122	0xa5cbbd6d	-3.5343246e-16
123	0xa45eeb5a	-4.8337927e-17
124	0xa7a01a91	-4.4437724e-15
125	0xa36de692	-1.2896621e-17
126	0x16325329	1.4404966e-25
127	0x1d6b6c45	3.1157965e-21
128	0xb652889d	-3.1371958e-06
129	0x358e03c3	1.0580919e-06
130	0xb6286253	-2.5091183e-06
131	0xb6377ba5	-2.7341096e-06
132	0xb5169275	-5.609248e-07
133	0xb58752f3	-1.0082425e-06
134	0x36467384	2.9571538e-06
135	0x35ccd4f6	1.5261164e-06
136	0xb4a63230	-3.0956426e-07
137	0x35871fcf	1.0067541e-06
138	0xb610de64	-2.158712e-06
139	0x3603f909	1.9665479e-06
140	0xb459b38f	-2.0275023e-07
141	0xb5ff9800	-1.9043218e-06
142	0x3662192f	3.3691283e-06
143	0x361f5ba9	2.37462e-06
144	0xb530e459	-6.58974e-07
145	0x35c93ed6	1.4993955e-06
146	0x3513070e	5.4772033e-07
147	0xb6893ed0	-4.0902305e-06
148	0xb5cabbd0	-1.5104833e-06
149	0x352ad32d	6.3637236e-07
150	0x36790cd8	3.7111367e-06
151	0x366e6ad0	3.5526937e-06
152	0xb654d227	-3.1712786e-06
153	0x35693c68	8.6887167e-07
154	0x35f119f9	1.7963458e-06
155	0x349884d2	2.8408846e-07
156	0x343139b0	1.6505396e-07
157	0x3638c1fd	2.7531053e-06
158	0x3615fd82	2.2350291e-06
159	0xb67753a1	-3.6854547e-06
160	0xb5863c2e	-1.0001293e-06
161	0x3431cb05	1.6558268e-07
162	0x35de647a	1.6569531e-06
163	0x35f7dce9	1.8467227e-06
164	0xb57a2d25	-9.319795e-07
165	0xb6026d5f	-1.9435172e-06
166	0x351e4f3a	5.8974877e-07
167	0xb5ce83bc	-1.5386536e-06
168	0xb68e1a7b	-4.2350125e-06
169	0x34bcadcd	3.5144186e-07
170	0xb5898102	-1.0244842e-06
171	0xb6885f9c	-4.0642462e-06
172	0x364b8cfe	3.0331425e-06
173	0x36604631	3.3419458e-06
174	0xb5e132ba	-1.677857e-06
175	0x3590f294	1.0799436e-06
176	0x363bc6ab	2.7980811e-06
177	0xb584a052	-9.881426e-07
178	0x35f33bb6	1.8122289e-06
179	0xb65aa81c	-3.2582384e-06
180	0xb612f7e4	-2.1899987e-06
181	0xb5642628	-8.4992143e-07
182	0x36666f3e	3.4337422e-06
183	0x35c50b82	1.4680993e-06
184	0xb5be673f	-1.4186152e-06
185	0xb53364d1	-6.6829404e-07
186	0xb5805b1e	-9.563262e-07
187	0xb4ab550d	-3.1913115e-07
188	0xb5d99504	-1.6211129e-06
189	0x35da2f24	1.6255985e-06
190	0x35da9b43	1.6287453e-06
191	0xb63ff42a	-2.860334e-06
192	0x3bc8fb8e	0.0061335033
193	0x3c9cfd14	0.019163646
194	0xbdb04c78	-0.08608335
195	0x3d5b4551	0.053532902
196	0xbdd805df	-0.10547995
197	0xbcb7cb39	-0.022435771
198	0x3dfa2acc	0.12215194
199	0x3e30ba2c	0.17258519
200	0xbd982f0b	-0.07430848
201	0xbc0db9ae	-0.0086502265
202	0x3b61c2ac	0.003444831
203	0x3e0a59d1	0.13510825
204	0xbb8d8f9c	-0.004320098
205	0xbd89f28a	-0.06735714
206	0x3d9793d2	0.07401241
207	0x3d9eacf7	0.07747834
208	0x3cd4a332	0.025956724
209	0x3dce01fe	0.10058974
210	0x3d6d80b2	0.05798406
211	0xbe02ffd9	-0.1279291
212	0xbd0ef7e5	-0.03490438
213	0x3dd46594	0.10370937
214	0x3e06e692	0.13173893
215	0x3be6aad9	0.0070394096
216	0xbd684c10	-0.056713164
217	0x3d292204	0.041292205
218	0x3d5b60d0	0.053559124
219	0xbd178e6c	-0.03700106
220	0xbc9b70a0	-0.018974602
221	0xbd5594b9	-0.052143786
222	0x3a74015e	0.0009308065
223	0xbdd7a41e	-0.1052935
224	0xbd9fa6f1	-0.077955134
225	0xbc6ab14e	-0.014324499
226	0xbd4f8c76	-0.050671063
227	0x3d4b6c33	0.049663734
228	0x3c75758c	0.014981639
229	0x3dafd850	0.0858618
230	0xbd9aa44b	-0.07550868
231	0xbba845c8	-0.0051352717
232	0xbd4cf6ac	-0.050039932
233	0xba49b49e	-0.00076944556
234	0xbd6f9da2	-0.05849994
235	0xbc1a1cc1	-0.0094062695
236	0x3da5643e	0.0807576
237	0x3dad6326	0.08466177
238	0xbda23188	-0.079196036
239	0xbde5ce6f	-0.11221015
240	0x3de5d855	0.11222903
241	0xbdcd11aa	-0.10013135
242	0xbd684552	-0.056706734
243	0xbdde03a2	-0.10840537
244	0xbb5240fb	-0.0032082188
245	0xbb54dfa9	-0.0032481945
246	0x3e29080c	0.16506976
247	0xbd50a670	-0.050939977
248	0xbe028ed8	-0.12749803
249	0xbb1d8647	-0.0024036334
250	0xbcdedfe7	-0.027206374
251	0x3cafb952	0.021450672
252	0xbdfa4f50	-0.12222159
253	0x3d1a50af	0.037674602
254	0x3dc49c39	0.096001096
255	0x3d6fa610	0.05850798
