results/ckpt_best_fold_4.pt (torch, 396078 bytes, 42 tensors)

encoder_c.convs.0.weight f4 [116, 64]
0.03241037 0.041378547 -0.1377331 -0.10371043 -0.16726722 -0.120855086 0.1794483 0.14487754
0.032929007 0.15988477 -0.012642014 -0.09364081 0.15795259 -0.0125633 0.03520737 0.09042529
0.08719778 -0.116822116 -0.06727791 -0.16231048 -0.0032074552 -0.037270073 0.038325574 0.014942672
0.14159723 0.012260601 0.050587308 0.048125118 0.15821663 -0.077521436 0.14290099 0.12044022
-0.053369604 0.090280555 0.14588001 -0.0781334 -0.07538858 0.100967355 0.13411392 0.04922863
0.028693957 0.01298368 0.12313852 -0.08378263 -0.09001603 0.14823687 0.09046913 -0.08280532
-0.038744897 0.15888211 -0.10081383 0.124904096 0.068666875 -0.15513025 -0.1400161 0.055898733
0.101372905 0.10277267 0.011323071 0.13141334 -0.10863675 0.032969933 -0.034287024 0.105709724
0.02823488 0.13237527 0.064840496 -0.12598689 0.004167524 0.050438944 0.03308525 -0.1420651
-0.07762089 -0.0883738 -0.025291959 0.16507939 0.11222031 0.06867074 -0.0072071995 -0.14973636
0.032433253 0.13121635 0.0729441 -0.14768709 -0.028648065 0.0146105485 0.1069032 0.08392234
-0.14082907 -0.15877037 0.02734182 0.07776975 0.102658495 0.11092008 0.15252994 -0.05384284
-0.13900705 0.06859999 0.15712073 -0.093328476 -0.09860081 0.12387579 0.12581222 -0.016109599
-0.12239076 -0.0011807824 -0.15281916 -0.047230344 -0.047199287 -0.040676095 0.06374811 -0.0014275791
-0.116546385 -0.01820475 0.026278585 0.12373773 0.021150108 -0.06173133 0.07536441 0.0699705
0.05796291 -0.049437575 0.035265025 0.038741633 0.055238277 -0.03244297 0.0014984728 0.08195229
-0.01131052 0.08933875 -0.013491089 0.16693011 0.010512716 -0.02542759 0.0500378 -0.01782801
0.13125864 -0.024013005 0.06630627 -0.048287045 0.012120803 0.058051176 -0.13973643 0.019975182
0.09099799 0.05423579 0.0020467981 0.0036268397 0.06847828 0.055572536 -0.08010202 0.06874372
-0.14622481 0.0023115878 -0.03774086 -0.072680034 -0.14320354 0.11841846 0.01509306 0.0032426012
-0.026816647 -0.0847828 -0.1374041 0.028871696 -0.115430675 -0.07291878 0.09728053 0.15874404
-0.051606815 -0.03173334 0.17070575 0.06839618 0.1281959 -0.048850473 -0.029613635 0.038170233
0.04423556 0.011639844 -0.092095636 0.16790248 0.07312188 -0.0092486655 -0.14398034 -0.06557041
-0.051875822 -0.027276654 0.056061286 -0.03345814 0.032246232 -0.04795402 -0.0020101257 0.068453394
0.18070944 -0.148382 0.029701788 0.10132147 -0.008321577 0.04039718 0.10008327 -0.17853609
0.097037815 -0.15637992 0.015452208 0.10764064 -0.08000061 0.0018231806 -0.14005898 -0.017449625
0.093947165 0.064762905 0.044889588 0.0025331506 -0.06363571 0.13677621 0.05120615 0.06652023
0.09074367 -0.05298551 -0.015387181 0.15088633 0.15302688 -0.17708373 -0.15017498 -0.052898936
0.039162375 -0.10304698 0.07687362 -0.1263626 -0.012151467 0.09174 -0.036611035 -0.03649085
0.038189735 0.015759448 0.050278682 -0.011222322 -0.0030803764 -0.16526367 -0.06577077 0.1917769
-0.11004676 0.08040173 -0.06091221 0.07051114 0.05233021 0.11331909 -0.10054411 -0.024186516
-0.11390375 0.023427371 -0.08355593 0.015461604 -0.11997032 -0.0070780274 -0.016743705 -0.1575538
00000000: bcc0 043d 8d7c 293d e809 0dbe 2266 d4bd
00000010: 1948 2bbe df82 f7bd 4cc1 373e c75a 143e
00000020: 91e0 063d d5b8 233e 7320 4fbc c1c6 bfbd
00000030: 53be 213e 4dd6 4dbc 9a35 103d e530 b93d
00000040: c094 b23d 6f40 efbd 00c9 89bd b834 26be
00000050: 2b34 52bb 81a8 18bd 47fb 1c3d 1cd2 743c
00000060: ddfe 103e b0e0 483c a334 4f3d d81e 453d
00000070: 8a03 223e 8fc3 9ebd a354 123e 5da9 f63d
00000080: 169a 5abd 03e5 b83d 9261 153e 6704 a0bd
00000090: 5465 9abd f9c7 ce3d 2955 093e f6a3 493d
000000a0: 970f eb3c 80b9 543c 0c30 fc3d 3a96 abbd
000000b0: 535a b8bd 68cb 173e e147 b93d d695 a9bd
000000c0: f8b2 1ebd feb1 223e 7b77 cebd b8cd ff3d
000000d0: 38a1 8c3d 77da 1ebe 6160 0fbe 12f6 643d
000000e0: 999c cf3d 7a7a d23d 6784 393c 3891 063e
000000f0: f27c debd 7b0b 073d 8d70 0cbd 577e d83d
00000100: d64c e73c 628d 073e 18cb 843d b502 01be
00000110: ba8f 883b 1199 4e3d 6684 073d 8379 11be
00000120: b4f7 9ebd 53fd b4bd 1531 cfbc 920a 293e
00000130: c3d3 e53d 3fa3 8c3d 5f2a ecbb 7d54 19be
00000140: bbd8 043d 945d 063e b763 953d 493b 17be
00000150: 59af eabc 1561 6f3c 11f0 da3d 7adf ab3d
00000160: 7f35 10be b394 22be f4fb df3c bf45 9f3d
00000170: 9e3e d23d 112a e33d cf30 1c3e 4f8a 5cbd
00000180: dd57 0ebe 277e 8c3d 42e4 203e 0023 bfbd
00000190: 39ef c9bd 97b2 fd3d ebd4 003e 47f8 83bc
000001a0: 02a8 fabd 7cc4 9aba a07c 1cbe 9b74 41bd
000001b0: 0a54 41bd fa9b 26bd 5e8e 823d 9b1d bbba
000001c0: dfaf eebd 2122 95bc 3046 d73c 356a fd3d
000001d0: fe42 ad3c fed9 7cbd a858 9a3d b24c 8f3d
000001e0: 846a 6d3d 0e7f 4abd 0f72 103d 8caf 1e3d
000001f0: 8841 623d ebe2 04bd 6768 c43a 9ad6 a73d
00000200: c24f 39bc 3cf7 b63d bb09 5dbc baef 2a3e
00000210: 873d 2c3c 854d d0bc 70f4 4c3d 0c0c 92bc
00000220: aa68 063e ecb6 c4bc 95cb 873d a3c8 45bd
00000230: 5596 463c 12c7 6d3d 1117 0fbe fea2 a33c
00000240: 275d ba3d 5926 5e3d 9323 063b 46b0 6d3b
00000250: 573e 8c3d 07a0 633d 870c a4bd 82c9 8c3d
00000260: f5bb 15be 027e 173b 2996 1abd 45d9 94bd
00000270: f3a3 12be 6185 f23d e248 773c d281 543b
00000280: 96ae dbbc 9ba2 adbd a9b3 0cbe 5684 ec3c
00000290: eb66 ecbd 7156 95bd 043b c73d cc8d 223e
000002a0: ab61 53bd d2fa 01bd 7dcd 2e3e 4c13 8c3d
000002b0: c945 033e 6f17 48bd 4b98 f2bc 6458 1c3d
000002c0: 5930 353d 0bb5 3e3c a39c bcbd a1ee 2b3e
000002d0: edc0 953d b787 17bc 956f 13be c749 86bd
000002e0: be7b 54bd 4a73 dfbc 85a0 653d 670b 09bd
000002f0: a014 043d 6f6b 44bd 50bc 03bb 4b31 8c3d
00000300: e50b 393e 73f1 17be 2a51 f33c a281 cf3d
00000310: 3957 08bc 8377 253d 75f8 cc3d 2ad2 36be
00000320: c3bb c63d 0f22 20be 422b 7d3c b272 dc3d
00000330: 5cd7 a3bd caf7 ee3a 9f6b 0fbe 84f2 8ebc
00000340: 5f67 c03d 6aa2 843d 25de 373d 3703 263b
00000350: 7053 82bd 100f 0c3e 8abd 513d c23b 883d
00000360: d1d7 b93d 5607 59bd 841a 7cbc f281 1a3e
00000370: 14b3 1c3e 7055 35be 78c7 19be 8eac 58bd
00000380: ba68 203d 4c0a d3bd eb6f 9d3d 3365 01be
00000390: f216 47bc 2ee2 bb3d 74f5 15bd 6e77 15bd
000003a0: d76c 1c3d f519 813c 05f1 4d3d d4dd 37bc
000003b0: 24e0 49bb e13a 29be d3b2 86bd 2a61 443e
000003c0: 3260 e1bd aaa9 a43d 157f 79bd 2568 903d
000003d0: 3458 563d d713 e83d 12ea cdbd cd22 c6bc
000003e0: 5f46 e9bd c2ea bf3c 5f1f abbd ab52 7d3c
000003f0: 00b3 f5bd ccee e7bb 182a 89bc c955 21be

encoder_c.convs.0.bias f4 [64]
0.013478794 0.014420892 0.0035639226 -0.004250275 0.0005917581 0.014512462 0.007600787 0.0026283322
0.012971073 -0.004098227 0.0008362936 0.008542135 0.015191757 -0.00041923998 0.017883794 -0.014228307
-0.0017286749 -0.014464887 -0.011971171 0.0023052427 -0.005561627 -0.0036795875 -0.00077559095 0.009108994
-0.009532752 0.006003248 -0.007820026 0.0006913236 0.006151083 -0.003940976 -0.007485754 0.007364175
0.007232874 -0.01136767 -0.00947348 -0.011970023 -0.0015210401 -0.010576558 -0.006227224 0.004049
0.0011697861 -0.004551736 0.008464206 0.011721552 -0.015717162 -0.002451302 -0.001268961 0.00995469
0.01817336 0.009466983 0.0052810903 0.016659884 0.008803612 -0.0067005013 0.013275295 -0.0041095545
0.01668385 -0.006348706 -0.008412531 0.00787614 -0.0136630945 -0.00020854136 -0.017768675 -0.018398281
00000000: 29d6 5c3c 9b45 6c3c b390 693b e445 8bbb
00000010: 3720 1b3a adc5 6d3c 0610 f93b 1940 2c3b
00000020: a084 543c 6b4a 86bb b73a 5b3a 50f4 0b3c
00000030: d9e6 783c 70cd dbb9 0981 923c d81d 69bc
00000040: b494 e2ba 22fe 6cbc bb22 44bc 8e13 173b
00000050: 4f3e b6bb 3c25 71bb 0751 4bba e43d 153c
00000060: 432f 1cbc e5b6 c43b 911f 00bc f139 353a
00000070: 068f c93b 4e23 81bb 0e4b f5bb 2d4f f13b
00000080: bf01 ed3b 773f 3abc a836 1bbc ea1d 44bc
00000090: a35d c7ba 4d49 2dbc be0d ccbb 79ad 843b
000000a0: 8253 993a bb26 95bb 74ad 0a3c c10b 403c
000000b0: 47c1 80bc 06a6 20bb 4453 a6ba ff18 233c
000000c0: 4ce0 943c 681b 1b3c ff0c ad3b 4f7a 883c
000000d0: 063d 103c e18f dbbb 9f80 593c 71a9 86bb
000000e0: 92ac 883c ce08 d0bb b6d4 09bc ed0a 013c
000000f0: 2cdb 5fbc e5ab 5ab9 9d8f 91bc feb7 96bc

encoder_c.convs.1.weight f4 [64, 64]
-0.10238214 0.080996096 0.16310593 -0.17647325 -0.020785246 -0.017555064 0.0017997429 -0.0726095
0.010816334 -0.0077098142 -0.03948927 -0.00033114906 -0.124149345 -0.14572571 0.04865341 0.0136299245
0.019404376 -0.028910998 0.044916134 -0.088987865 0.06515561 -0.07813559 0.07347069 0.05875929
-0.108213924 -0.14681058 0.081037834 -0.055237357 -0.08511987 0.08093166 0.05585144 -0.09621461
-0.10506826 0.17747037 -0.075975455 -0.007521106 0.14137132 0.08050286 0.16727051 -0.04681612
-0.052359097 -0.046827033 -0.0077836784 0.08122927 0.046938263 -0.00043623493 0.15497221 0.006851614
0.02728891 0.069533095 0.13265161 0.13124007 -0.009850098 0.097998425 -0.12549655 0.18196929
-0.023536844 0.16994768 0.04301492 0.029701471 -0.06344468 0.11925224 0.17042203 0.11264083
0.17204536 0.018819699 0.021346457 -0.07520843 -0.10211255 0.074473344 -0.0193153 -0.106622055
-0.10447691 -0.1069455 -0.0022884458 -0.044754438 -0.124183044 -0.07132629 0.066808425 -0.012409122
0.0853026 -0.034864787 -0.06603251 0.025873993 0.003694968 0.02838035 -0.088519916 0.22254568
-0.03918258 -0.037123326 0.030982167 0.02955735 -0.01041755 0.10828112 -0.033495076 0.051302012
-0.15186812 -0.09353931 -0.066313826 0.11756712 0.1718678 0.017814964 -0.02017194 -0.1307801
-0.008831525 0.0005720293 -0.0083749145 0.076444544 0.19192609 -0.010704581 0.12601565 -0.13359502
-0.11247758 0.13969925 -0.137617 -0.1376016 -0.080792084 -0.049895763 -0.061714172 0.06680578
-0.09650295 0.050812222 0.032176208 0.0018280814 -0.015649786 0.15177196 -0.08656205 0.13491192
0.13093722 0.19256231 0.16982205 0.16644746 0.089884974 0.0025027976 -0.092485756 -0.17229998
0.10258178 0.020502541 0.105317496 1.1606995e-05 -0.067465805 0.13209228 -0.0054117613 -0.0003064773
-0.08917698 0.06930767 0.049959596 -0.06539139 0.12342868 -0.112941146 0.057004463 -0.18531878
-0.09006378 0.08524245 0.07550797 -0.106375076 0.023688551 -0.015580619 0.07375911 0.1124227
-0.13660307 0.05368504 0.011559432 -0.007265122 -0.047712684 -0.09747025 0.07696169 0.14885423
0.0029874395 0.00016648814 0.0035656404 -0.032738097 0.046088792 -0.032803804 -0.1191031 -0.1715766
0.18784733 -0.056087617 0.17473255 0.05184325 0.08879963 -0.14770967 0.15966894 0.037277203
-0.0025786445 -0.053203013 -0.007587149 -0.029569555 -0.06404233 -0.13067168 -0.030111045 -0.114486225
0.03893886 -0.10744489 -0.17257255 0.118486024 0.09205475 -0.0008133387 0.06437951 0.16452245
-0.094050564 0.09384967 0.05144236 7.253123e-09 -0.06347551 0.16101529 0.11532788 -0.00019317967
-0.035962675 -0.0113408575 0.030432839 -0.09266821 0.07670277 -0.04597409 0.10765908 -0.20893955
0.07570182 -0.091038845 0.037408594 0.05431902 0.010366446 0.14403568 -0.019690925 -0.027424023
0.102193765 -0.13550274 0.07554552 -0.03709591 -0.026951255 0.030392168 -0.06938735 -0.052356273
0.00021455479 0.0044708834 0.01628213 0.024624081 0.06026245 0.00076205836 -0.12639953 0.1833182
0.107275054 0.0926942 -0.13993353 -0.05397049 0.14017218 0.14048535 0.07805074 -0.15270664
0.1256284 0.106201425 0.043908723 0.0012247303 -0.027878806 -0.14949788 0.040207945 -0.19737482
00000000: baad d1bd 48e1 a53d 3e05 273e 67b5 34be
00000010: d245 aabc a3cf 8fbc 5ae5 eb3a 4ab4 94bd
00000020: fe36 313c 9ca2 fcbb 80bf 21bd 139e adb9
00000030: 0342 febd 1f39 15be cc48 473d 0c50 5f3c
00000040: edf5 9e3c c2d6 ecbc fbf9 373d 453f b6bd
00000050: 4e70 853d 8d05 a0bd cd77 963d 95ad 703d
00000060: 439f ddbd 8355 16be 2af7 a53d 9140 62bd
00000070: 5453 aebd 80bf a53d 7bc4 643d 2a0c c5bd
00000080: 072e d7bd cbba 353e 0599 9bbd 9c73 f6bb
00000090: a5c3 103e afde a43d f648 2b3e 43c2 3fbd
000000a0: 7e76 56bd b4cd 3fbd 3a0e ffbb 885b a63d
000000b0: 5642 403d 76b6 e4b9 09b1 1e3e 8183 e03b
000000c0: fe8c df3c 5e67 8e3d d3d5 073e cc63 063e
000000d0: 4e62 21bc 66b3 c83d 2b82 00be 2856 3a3e
000000e0: 57d0 c0bc c406 2e3e 6a30 303d 8050 f33c
000000f0: 49ef 81bd 853a f43d 1d83 2e3e 3cb0 e63d
00000100: a92c 303e c52b 9a3c c4de ae3c e106 9abd
00000110: 6220 d1bd 7b85 983d 1f3b 9ebc aa5c dabd
00000120: fdf7 d5bd 3e06 dbbd c0f9 15bb 6e50 37bd
00000130: ae53 febd 8513 92bd dbd2 883d a14f 4bbc
00000140: 21b3 ae3d 61ce 0ebd 0d3c 87bd b2f5 d33c
00000150: 4727 723b e87d e83c ee49 b5bd 04e3 633e
00000160: ea7d 20bd a10e 18bd 50ce fd3c 4122 f23c
00000170: 5fae 2abc 7ec2 dd3d 2232 09bd 0f22 523d
00000180: 5183 1bbe 8a91 bfbd 8bcf 87bd 08c7 f03d
00000190: 1dfe 2f3e b0f0 913c a03f a5bc 38eb 05be
000001a0: 1ab2 10bc 3df4 153a f036 09bc f58e 9c3d
000001b0: 4688 443e 4462 2fbc 3f0a 013e 22cd 08be
000001c0: a55a e6bd 520d 0f3e 79eb 0cbe 6fe7 0cbe
000001d0: 5276 a5bd 805f 4cbd 00c8 7cbd 78d1 883d
000001e0: 57a3 c5bd 7a20 503d 33cb 033d 3c9c ef3a
000001f0: fb33 80bc 1c6a 1b3e 7247 b1bd 5a26 0a3e
00000200: 6814 063e 0e2f 453e d5e5 2d3e 3471 2a3e
00000210: 9d15 b83d fa05 243b 2c69 bdbd 686f 30be
00000220: 6516 d23d f2f4 a73c b3b0 d73d aabb 4237
00000230: 832b 8abd 3343 073e 2555 b1bb b0ae a0b9
00000240: 6ca2 b6bd 2ef1 8d3d 6fa2 4c3d eceb 85bd
00000250: 2dc8 fc3d b04d e7bd 837d 693d 35c4 3dbe
00000260: 5c73 b8bd 9893 ae3d eca3 9a3d 2ddb d9bd
00000270: 7e0e c23c da45 7fbc 040f 973d df3d e63d
00000280: ade1 0bbe d8e4 5b3d c663 3d3c 4310 eebb
00000290: 606e 43bd 7c9e c7bd 179e 9d3d 3e6d 183e
000002a0: ebc8 433b 5293 2e39 85ad 693b 6218 06bd
000002b0: 9ac7 3c3d 485d 06bd 53ec f3bd c7b1 2fbe
000002c0: 0d5b 403e 21bc 65bd 17ed 323e 9659 543d
000002d0: 95dc b53d 3441 17be 4180 233e fbaf 183d
000002e0: 7afe 28bb 67eb 59bd 9e9d f8bb da3b f2bc
000002f0: a028 83bd ccce 05be 70ab f6bc c177 eabd
00000300: 5b7e 1f3d 110c dcbd dcb6 30be cda8 f23d
00000310: 3387 bc3d 3c36 55ba 68d9 833d 9378 283e
00000320: 959d c0bd 4134 c03d 39b5 523d 2537 f931
00000330: 73ff 81bd 31e1 243e 0631 ec3d 4690 4ab9
00000340: 994d 13bd 01cf 39bc 4a4e f93c d5c8 bdbd
00000350: 5816 9d3d 544f 3cbd 5d7c dc3d 40f4 55be
00000360: 8e09 9b3d 9372 babd c139 193d 9f7d 5e3d
00000370: 07d8 293c 177e 133e dd4e a1bc 58a8 e0bc
00000380: f74a d13d 3bc1 0abe 9cb7 9a3d e2f1 17bd
00000390: e1c8 dcbc fff8 f83c f41a 8ebd 8873 56bd
000003a0: 1dfa 6039 7d80 923b 1a62 853c 71b8 c93c
000003b0: c2d5 763d dfc4 473a e16e 01be c4b7 3b3e
000003c0: 06b3 db3d 75d6 bd3d bc4a 0fbe 2910 5dbd
000003d0: 4c89 0f3e 64db 0f3e 11d9 9f3d 215f 1cbe
000003e0: bba4 003e 2280 d93d a2d9 333d 2187 a03a
000003f0: 1862 e4bc f915 19be 16b1 243d a01c 4abe

encoder_c.convs.1.bias f4 [64]
0.0056629763 0.0025166129 0.0071977535 -0.0048299883 0.014813385 -0.009784295 -0.008557746 0.013794934
-0.0027808456 0.0034694204 0.004750426 -0.0033733502 -0.0023960841 -0.0053910464 -0.014357133 -0.008273552
0.015080792 -0.003398931 -0.013254925 -0.0028672556 -0.014428054 -0.01581484 0.015727483 0.010250943
0.0069024255 0.013462939 -0.0071208286 -0.0073717847 -0.016379982 -0.008008491 0.0032235533 0.00785796
-0.0060131326 -0.007886177 0.0031084733 0.0025547275 0.015551019 -0.0074632373 0.0326574 0.00036969996
-0.0020692234 0.009308237 -0.0036955993 0.023965646 0.005775544 -0.012499929 0.012006839 -0.00921844
0.0003475534 0.007352528 0.0021890923 0.011626856 0.0040186243 -0.009200661 0.004507455 0.008974941
-0.0019733917 0.005340655 0.026231313 0.002488437 0.016320538 -0.001575793 0.0020870038 0.0098568415
00000000: 7d90 b93b c2ed 243b 22db eb3b e144 9ebb
00000010: d7b3 723c 4f4e 20bc ca35 0cbc 2604 623c
00000020: d93e 36bb 375f 633b 76a9 9b3b 6d13 5dbb
00000030: 9f07 1dbb 60a7 b0bb 2e3a 6bbc cb8d 07bc
00000040: 6d15 773c 99c0 5ebb 2f2b 59bc 91e8 3bbb
00000050: a563 6cbc 208e 81bc ecd6 803c 92f3 273c
00000060: be2d e23b a993 5c3c d755 e9bb 038f f1bb
00000070: 502f 86bc 0c36 03bc 4042 533b acbe 003c
00000080: d009 c5bb 0635 01bc 87b7 4b3b 376d 273b
00000090: b4c9 7e3c 2c8e f4bb c4c3 053d 4ad4 c139
000000a0: cf9b 07bb 9381 183c de31 72bb 9a53 c43c
000000b0: c640 bd3b 81cc 4cbc 55b8 443c f108 17bc
000000c0: d437 b639 7aed f03b e076 0f3b 927e 3e3c
000000d0: aaae 833b 5fbe 16bc 46b3 933b a20b 133c
000000e0: 0554 01bb a900 af3b 0de3 d63c 0c15 233b
000000f0: a6b2 853c d78a ceba 1dc6 083b 977e 213c

encoder_c.convs.2.weight f4 [64, 64]
0.105400026 -0.019548317 0.027392196 -0.018755313 -0.088459775 0.096773066 0.017940136 -0.0063678552
-0.059116967 0.039727792 0.14498945 0.124668114 0.111334264 -0.00893973 -0.12206593 0.062858075
0.19854784 0.096656784 -0.022663392 -0.10010972 0.045460735 0.034380965 0.0715022 0.13214485
0.16777202 0.11854486 -0.116297916 -0.050738577 0.05864824 0.15625519 0.12245627 -0.10785578
0.08983788 -0.07218991 0.095234744 0.04999131 0.05708617 0.031970326 0.049844563 0.008876482
0.11718816 0.052154414 0.01173212 -0.15367562 -0.024086503 0.107855 -0.13948286 -0.13672403
-0.050063495 -0.06685742 -0.034552805 0.10354243 -0.11746787 0.15394758 -0.115966275 0.029558452
-0.049010504 -0.07619903 0.034041747 0.062105168 -0.18842745 -0.0045856684 0.02654188 -0.12584306
0.19864549 0.009591417 0.15102468 0.11791644 0.017212728 -0.10084495 -0.11118209 -0.12689288
-0.012960431 -0.2066985 0.07141069 0.0959543 0.13461551 0.04720217 -0.027488302 -0.11769016
-0.16061865 0.045110635 -0.12613437 0.09046695 0.0037444246 -0.059036616 0.17267957 0.15994714
0.13243599 -0.060178466 -0.008952422 0.038081273 -0.09536391 -0.19346409 0.16002968 -0.08554901
0.17254178 0.10900573 -0.096956834 -0.066552766 0.05330563 0.16776875 -0.064272985 0.12623326
-0.13332914 -0.1918999 -0.1105395 0.13970402 -0.14190492 0.21439514 -0.06472507 -0.026507776
-0.17942408 -0.10562454 0.015896803 0.05422453 -0.16584541 0.07684576 -0.020517427 0.120305724
0.0343969 -0.12503573 0.018418724 -0.17893314 -0.045089893 -0.18175629 -0.1800196 -0.06855912
0.020363789 0.02456019 -0.2009274 -0.01157723 0.06669255 -0.023000624 -0.123867124 0.14783303
0.0929328 0.12834494 0.05865284 0.037553377 0.020008253 0.0128823845 0.050419245 0.11202248
-0.16254017 0.0535276 -0.08925213 -0.010479958 0.037156794 -0.10001426 0.008230841 0.04341659
-0.11532155 0.08976058 0.06884411 -0.038341343 0.021180209 0.07624111 0.085922115 -0.08343726
-0.08792518 0.00740501 -0.12661138 -0.020568496 0.0069848956 -0.022128453 0.012548947 -0.10714024
-0.018234236 0.052827213 -0.017452251 0.08426784 -0.06317936 -0.09519697 -0.06714859 -0.034644574
-0.05711155 0.17946565 -0.19789566 -0.14001489 -0.10979338 -0.06517628 0.12379775 -0.03804878
-0.08659444 0.06819389 -0.045085207 -0.027415365 0.072991736 -0.13739339 0.20690237 0.11161843
-0.049845126 -0.026151374 -0.015505865 -0.016089143 0.09886453 -0.06523319 -0.028927328 -0.11522601
-0.13111205 -0.20053187 0.069761105 0.044214502 -0.0061227777 0.14091712 0.103108704 -0.08852189
0.16378072 -0.032587517 0.041331027 0.0073808143 0.13076779 -0.11086264 0.1501384 0.119649306
-0.20248888 -0.14342844 0.025295783 -0.06324343 -0.06728648 0.10287001 0.070494965 -0.095221505
0.12996776 -0.028146142 0.121987015 -0.09485386 -0.07041729 0.008184677 -0.032744695 -0.0503413
-0.1605918 -0.13191365 -0.044760417 -0.05943311 -0.08647168 0.085083224 0.054570265 0.09962913
0.047918826 -0.08720403 0.09463144 0.09623957 -0.048483238 -0.039433017 -0.13676338 0.08587005
-0.0066401674 0.0076522063 0.022548612 0.14975618 -0.0258254 0.03894666 0.1145887 -0.12625593
00000000: f8db d73d cb23 a0bc 9965 e03c bea4 99bc
00000010: 662a b5bd f530 c63d 31f7 923c 71a9 d0bb
00000020: a224 72bd 9cb9 223d 1d78 143e ff51 ff3d
00000030: 3803 e43d f277 12bc b4fd f9bd bcbb 803d
00000040: 2050 4b3e fef3 c53d 94a8 b9bc 5306 cdbd
00000050: 0935 3a3d 0ed3 0c3d bf6f 923d fb50 073e
00000060: 6ecc 2b3e a6c7 f23d 9a2d eebd 41d3 4fbd
00000070: 2339 703d 5c01 203e 5aca fa3d 7ee3 dcbd
00000080: ecfc b73d 4ed8 93bd 6f0a c33d b0c3 4c3d
00000090: 30d3 693d 51f3 023d d029 4c3d aa6e 113c
000000a0: 5900 f03d de9f 553d 1438 403c 245d 1dbe
000000b0: 0f51 c5bc 15e3 dc3d 98d4 0ebe 6201 0cbe
000000c0: 610f 4dbd 8bec 88bd 3e87 0dbd 0e0e d43d
000000d0: ff92 f0bd 6fa4 1d3e ba7f edbd 9124 f23c
000000e0: 3dbf 48bd 3d0e 9cbd 5c6f 0b3d fd61 7e3d
000000f0: 20f3 40be 6043 96bb 5b6e d93c 01dd 00be
00000100: b969 4b3e 5225 1d3c 37a6 1a3e 2d7e f13d
00000110: b501 8d3c cc87 cebd 70b3 e3bd 35f0 01be
00000120: fd57 54bc c6a8 53be c53f 923d b083 c43d
00000130: a6d8 093e 1057 413d 262f e1bc 8a07 f1bd
00000140: 3779 24be eec5 383d 5e29 01be bc46 b93d
00000150: 0565 753b 61d0 71bd ead2 303e 2fc9 233e
00000160: 4d9d 073e b27d 76bd 2ead 12bc 1cfb 1b3d
00000170: 274e c3bd 731b 46be d2de 233e 5234 afbd
00000180: cbae 303e 653e df3d 4e91 c6bd d14c 88bd
00000190: 0157 5a3d 92cb 2b3e 8ea1 83bd 4b43 013e
000001a0: 6f87 08be 6881 44be 8962 e2bd 920e 0f3e
000001b0: 864f 11be 668a 5b3e 948e 84bd d626 d9bc
000001c0: f2ba 37be ae51 d8bd 033a 823c 8a1a 5e3d
000001d0: 61d3 29be 4f61 9d3d 2a14 a8bc d962 f63d
000001e0: c4e3 0c3d 5e09 00be dde2 963c 403a 37be
000001f0: 2eb0 38bd 521e 3abe 0f57 38be b968 8cbd
00000200: f6d1 a63c 7432 c93c eabf 4dbe 6cae 3dbc
00000210: 1b96 883d ce6b bcbc 0cae fdbd 8b61 173e
00000220: 8d53 be3d db6c 033e f63d 703d 92d1 193d
00000230: 59e8 a33c a310 533c 6984 4e3d 0b6c e53d
00000240: ee70 26be c23f 5b3d d2c9 b6bd 21b4 2bbc
00000250: b931 183d 47d4 ccbd a6da 063c 98d5 313d
00000260: b42d ecbd 65d4 b73d 24fe 8c3d d00b 1dbd
00000270: 1e82 ad3c 4d24 9c3d eff7 af3d 27e1 aabd
00000280: 1e12 b4bd baa5 f23b 6aa6 01be 437f a8bc
00000290: 8de1 e43b bb46 b5bc 199a 4d3c 586c dbbd
000002a0: f75f 95bc 5961 583d 06f8 8ebc 9e94 ac3d
000002b0: 2e64 81bd a1f6 c2bd 3385 89bd 78e7 0dbd
000002c0: cded 69bd d8c5 373e 29a5 4abe 1060 0fbe
000002d0: 5adb e0bd 247b 85bd ad89 fd3d 0ad9 1bbd
000002e0: 6d58 b1bd 3da9 8b3d 44ab 38bd 3096 e0bc
000002f0: b17c 953d dab0 0cbe 37de 533e 3498 e43d
00000300: 672a 4cbd 683b d6bc 500c 7ebc 61cd 83bc
00000310: 7d79 ca3d fb98 85bd 01f9 ecbc 9dfb ebbd
00000320: 3d42 06be 3a58 4dbe e9de 8e3d 441a 353d
00000330: 95a1 c8bb 944c 103e a82a d33d f74a b5bd
00000340: 22b6 273e 7d7a 05bd b94a 293d c2da f13b
00000350: fee7 053e f40b e3bd e1bd 193e b20a f53d
00000360: 3f59 4fbe e8de 12be 1a39 cf3c c585 81bd
00000370: 7ecd 89bd 83ad d23d aa5f 903d 7e03 c3bd
00000380: 4516 053e bd92 e6bc 54d4 f93d be42 c2bd
00000390: f136 90bd 0619 063c 4d1f 06bd ae32 4ebd
000003a0: 2d72 24be 5f14 07be b356 37bd 2270 73bd
000003b0: 1018 b1bd 1d40 ae3d 1285 5f3d 5b0a cc3d
000003c0: 8846 443d 0798 b2bd 21ce c13d 4019 c53d
000003d0: 5c96 46bd 8484 21bd b30b 0cbe a3dc af3d
000003e0: c395 d9bb 5cbf fa3b deb7 b83c af59 193e
000003f0: ca8f d3bc 8886 1f3d 7bad ea3d 3c49 01be

encoder_c.convs.2.bias f4 [64]
-0.0069576264 -0.0065727723 -0.0061267633 -0.004583874 0.006677628 -0.0073418017 0.0068421788 0.006646057
-0.0066103516 0.0066023236 -0.0065683657 0.006749748 -0.0033322268 -0.006657483 0.007678231 0.0070930463
-0.006183493 0.0055984184 0.0052607507 -0.0053142016 -0.006788137 0.006396331 0.0065100705 -0.008088177
0.005696442 0.0070448928 0.0073637334 -0.0067545306 -0.006148661 0.006263796 -0.006725889 0.007021059
-0.0067124767 0.0061296765 -0.0065281745 -0.0044645616 0.006514068 -0.006036832 -0.00048014772 -0.0001777376
-0.006010497 0.006402142 0.005699091 0.0055761924 0.009574141 -0.0068745427 0.006329465 0.008783558
0.007895893 0.0061934106 -0.006071564 -0.0060140183 0.007875076 -0.007516613 0.008299928 -0.0050646644
-0.008582477 -0.006173662 -0.008552892 -0.005995785 0.006623264 -0.005966497 0.006968548 0.006203311
00000000: cdfc e3bb 6960 d7bb 04c3 c8bb 5234 96bb
00000010: 01d0 da3b 7f93 f0bb 5b34 e03b 2bc7 d93b
00000020: a69b d8bb 4e58 d83b 723b d7bb fd2c dd3b
00000030: 7d61 5abb 0427 dabb ac99 fb3b c96c e83b
00000040: e69e cabb f072 b73b 6062 ac3b c122 aebb
00000050: 056f debb 5098 d13b 6e52 d53b 4684 04bc
00000060: 38a9 ba3b d8d8 e63b 794b f13b 1c55 ddbb
00000070: b57a c9bb 8740 cd3b d964 dcbb e910 e63b
00000080: 56f4 dbbb 74db c83b 4cea d5bb 754b 92bb
00000090: f773 d53b 9ed0 c5bb 56bc fbb9 135f 3ab9
000000a0: b4f3 c4bb 0fc9 d13b 71bf ba3b 7eb8 b63b
000000b0: dcdc 1c3c d843 e1bb 6767 cf3b eae8 0f3c
000000c0: c75d 013c 18f2 ca3b f8f3 c6bb 3e11 c5bb
000000d0: 7606 013c ec4d f6bb 6cfc 073c 7cf5 a5bb
000000e0: 859d 0cbc 6e4c cabb 6e21 0cbc 4a78 c4bb
000000f0: f707 d93b 9b82 c3bb 6b58 e43b 2545 cb3b

encoder_b.convs.0.weight f4 [116, 64]
0.105344065 0.14511706 -0.014526045 0.10846658 -0.06072091 -0.14397012 -0.019946242 -0.1298595
-0.16575216 0.082899734 -0.07553553 -0.121282436 0.04286528 -0.02289414 0.13238594 0.110423625
-0.10537378 -0.0113904495 0.0401184 0.107189156 -0.10992909 -0.15343437 -0.057575453 0.15121056
0.107923165 0.063320465 -0.17165391 0.040791817 0.1782149 0.14972886 0.026970856 -0.17611593
-0.053847928 0.1657389 -0.108237684 0.04302488 0.10143039 -0.15151973 -0.08565014 0.11019092
-0.17841826 0.01447912 0.13400342 -0.07082701 -0.121437244 -0.06092225 -0.14854144 -0.032024994
0.081567355 -0.07714982 0.17303117 0.0483287 -0.02161789 -0.024780037 0.022132903 -0.15277797
-0.17474483 -0.09062619 -0.15188581 0.13905531 -0.124002695 -0.12600978 0.1390805 0.0319483
0.07516645 0.0028564434 -0.08378281 -0.13436577 0.13924453 -0.102876164 0.11167285 0.12884511
0.108971216 0.0003695401 -0.10860768 0.1752513 -0.16868801 0.12602371 -0.14834921 0.01639516
0.14259124 0.043937076 -0.1652758 -0.12495198 0.09602225 0.12592325 -0.13357435 0.07470798
0.103202306 0.1380121 0.11831628 -0.010699578 -0.108463995 0.060122795 0.16591796 0.042509343
0.07858287 0.12371525 -0.02321915 0.021604743 -0.10951916 -0.06930016 0.17265317 -0.13730235
-0.059753757 0.15522249 0.014590729 0.027217949 -0.026312478 0.17379083 0.056325667 -0.065538965
-0.07111922 0.14582811 -0.14495397 -0.13760325 0.06395449 0.14193025 0.10877901 0.0368752
0.14767647 -0.06453403 -0.04673188 -0.09641688 -0.074835256 0.08341409 -0.0670523 -0.0053443913
-0.041613188 0.009802661 0.04519228 0.09624627 0.12772006 -0.13373059 0.09248482 0.1447332
-0.10471751 -0.11059531 0.086013764 0.17742248 0.024854645 -0.0022949618 0.03938143 0.081225015
0.09381491 -0.054724626 0.14503536 -0.107630886 -0.17359951 -0.08960556 -0.041890796 -0.16214801
-0.06304614 0.09831425 -0.059197955 -0.11630125 -0.10189513 -0.17684112 0.004313405 -0.07951585
-0.07381369 0.17237397 0.14335984 0.020008989 -0.019254934 -0.16167179 0.031712044 -0.08634626
-0.106065646 0.09781027 0.0017501954 -0.025031874 -0.013889759 0.0706897 0.13623886 0.11212927
-0.05014848 -0.08962448 -0.026650308 0.11523485 -0.083355 0.015151144 -0.03319758 0.11594055
0.058070924 0.0453413 -0.02589018 0.08152691 -0.0672798 0.11331668 0.15259714 0.03781301
-0.01183745 0.100308344 -0.13748018 -0.09886405 -0.12309949 -0.071505345 -0.13984212 0.17808655
-0.11971456 0.010452289 -0.079865366 -0.1747023 0.18101959 -0.16442645 0.12658264 0.086928785
0.0047986456 0.009537852 -0.015277095 -0.08965268 -0.15404694 0.13658336 0.13953227 -0.1767617
0.09906458 0.038394038 0.096768774 0.0076101017 0.14060952 0.1397875 0.040221803 -0.16259068
-0.032492343 -0.07450557 -0.024807809 0.16539657 -0.0048230435 -0.03696106 -0.10339786 -0.107933804
0.109103955 0.023050822 -0.07205795 -0.013122341 0.059536636 -0.1091373 0.1708106 -0.027034648
0.17619476 -0.09512605 0.11662794 -0.10332266 0.0803491 -0.16124327 -0.015044998 0.04204957
0.0062216544 -0.098726735 0.16436534 -0.11252181 0.100777455 -0.06414284 -0.1762964 0.17322996
00000000: a1be d73d 9199 143e a6fe 6dbc ba23 de3d
00000010: 7db6 78bd e76c 13be 4d66 a3bc e4f9 04be
00000020: efba 29be 56c7 a93d 5fb2 9abd ed62 f8bd
00000030: 8193 2f3d 7e8c bbbc 2e90 073e c825 e23d
00000040: 35ce d7bd 029f 3abc 3153 243d fd85 db3d
00000050: 8122 e1bd e61d 1dbe 3dd4 6bbd f1d6 1a3e
00000060: d206 dd3d 29ae 813d 0bc6 2fbe 5215 273d
00000070: f77d 363e 8652 193e fcf1 dc3c bc57 34be
00000080: a58f 5cbd 75b7 293e b8ab ddbd db3a 303d
00000090: bcba cf3d fd27 1bbe 5769 afbd c7ab e13d
000000a0: 47b3 36be d539 6d3c 3138 093e c00d 91bd
000000b0: 17b4 f8bd 9c89 79bd 3f1b 18be a42c 03bd
000000c0: c90c a73d ba00 9ebd 152f 313e 51f4 453d
000000d0: 0018 b1bc 81ff cabc 1050 b53c d471 1cbe
000000e0: 4ff0 32be 399a b9bd f487 1bbe 8464 0e3e
000000f0: 20f5 fdbd b508 01be 1e6b 0e3e 38dc 023d
00000100: def0 993d 2b33 3b3b 5296 abbd 2e97 09be
00000110: 1e96 0e3e bdb0 d2bd bcb4 e43d f9ef 033e
00000120: 4d2c df3d d5be c139 b46d debd 1475 333e
00000130: 8dbc 2cbe 5c0c 013e dbe8 17be 254f 863c
00000140: 7003 123e 5df7 333d 0f3e 29be d3e6 ffbd
00000150: 50a7 c43d 06f2 003e b7c7 08be 7f00 993d
00000160: bb5b d33d 0b53 0d3e ce4f f23d 484d 2fbc
00000170: 5f22 debd 5243 763d 66e6 293e 471e 2e3d
00000180: 0ef0 a03d 6c5e fd3d 1636 bebc 6efc b03c
00000190: 954b e0bd 3eed 8dbd fecb 303e fd98 0cbe
000001a0: 5bc0 74bd a5f2 1e3e f40d 6f3c 2df8 de3c
000001b0: 448d d7bc 39f6 313e beb5 663d 4b39 86bd
000001c0: f4a6 91bd f753 153e d06e 14be dee7 0cbe
000001d0: 92fa 823d 2a56 113e 88c7 de3d 730a 173d
000001e0: 8038 173e 6b2a 84bd ee69 3fbd 3776 c5bd
000001f0: 3a43 99bd 02d5 aa3d b752 89bd 0120 afbb
00000200: 9772 2abd 579b 203c 8a1b 393d c41c c53d
00000210: 0cc9 023e acf0 08be ae68 bd3d f134 143e
00000220: 2276 d6bd cb7f e2bd fc27 b03d 3dae 353e
00000230: f89b cb3c 1267 16bb 6c4e 213d 4d59 a63d
00000240: 0822 c03d ee26 60bd 2684 143e 956d dcbd
00000250: 12c4 31be 1f83 b7bd af95 2bbd 210a 26be
00000260: 561e 81bd fb58 c93d 8e79 72bd 5a2f eebd
00000270: 65ae d0bd d715 35be 7757 8d3b 35d9 a2bd
00000280: a22b 97bd cd82 303e eccc 123e e4e9 a33c
00000290: 86bc 9dbc 4a8d 25be 7de4 013d 4fd6 b0bd
000002a0: f238 d9bd c050 c83d d066 e53a a50f cdbc
000002b0: df91 63bc c3c5 903d 3382 0b3e 08a4 e53d
000002c0: 7e68 4dbd 0a8d b7bd bf51 dabc 4000 ec3d
000002d0: 07b6 aabd 813c 783c 30fa 07bd 3d72 ed3d
000002e0: c7db 6d3d cdb7 393d a517 d4bc 95f7 a63d
000002f0: fec9 89bd 9312 e83d 6d42 1c3e d1e1 1a3d
00000300: ddf1 41bc 766e cd3d 9bc7 0cbe 3c79 cabd
00000310: 961b fcbd 6571 92bd c632 0fbe 525c 363e
00000320: e82c f5bd 1440 2b3c 7490 a3bd 29e5 32be
00000330: 335d 393e 685f 28be e19e 013e b807 b23d
00000340: f53d 9d3b a744 1c3c c84c 7abc d39b b7bd
00000350: 7bbe 1dbe 82dc 0b3e 8ce1 0e3e 0501 35be
00000360: 5fe2 ca3d 1143 1d3d b52e c63d 295e f93b
00000370: f1fb 0f3e 7424 0f3e 9ebf 243d 2c7e 26be
00000380: b116 05bd 6096 98bd bf39 cbbc b85d 293e
00000390: 9f0a 9ebb 7b64 17bd 42c2 d3bd 660c ddbd
000003a0: e571 df3d 14d5 bc3c 1e93 93bd 16ff 56bc
000003b0: b0dc 733d 6083 dfbd f9e8 2e3e c477 ddbc
000003c0: 666c 343e 72d1 c2bd a1da ee3d d59a d3bd
000003d0: 128e a43d f51c 25be 4c7f 76bc 2b3c 2c3d
000003e0: 05df cb3b 3e31 cabd 634f 283e d671 e6bd
000003f0: 6964 ce3d 525d 83bd 0b87 34be 3263 313e

encoder_b.convs.0.bias f4 [64]
0.0 0.0 0.0 0.0 0.0 0.0 0.0 0.0
0.0 0.0 0.0 0.0 0.0 0.0 0.0 0.0
0.0 0.0 0.0 0.0 0.0 0.0 0.0 0.0
0.0 0.0 0.0 0.0 0.0 0.0 0.0 0.0
0.0 0.0 0.0 0.0 0.0 0.0 0.0 0.0
0.0 0.0 0.0 0.0 0.0 0.0 0.0 0.0
0.0 0.0 0.0 0.0 0.0 0.0 0.0 0.0
0.0 0.0 0.0 0.0 0.0 0.0 0.0 0.0
00000000: 0000 0000 0000 0000 0000 0000 0000 0000
00000010: 0000 0000 0000 0000 0000 0000 0000 0000
00000020: 0000 0000 0000 0000 0000 0000 0000 0000
00000030: 0000 0000 0000 0000 0000 0000 0000 0000
00000040: 0000 0000 0000 0000 0000 0000 0000 0000
00000050: 0000 0000 0000 0000 0000 0000 0000 0000
00000060: 0000 0000 0000 0000 0000 0000 0000 0000
00000070: 0000 0000 0000 0000 0000 0000 0000 0000
00000080: 0000 0000 0000 0000 0000 0000 0000 0000
00000090: 0000 0000 0000 0000 0000 0000 0000 0000
000000a0: 0000 0000 0000 0000 0000 0000 0000 0000
000000b0: 0000 0000 0000 0000 0000 0000 0000 0000
000000c0: 0000 0000 0000 0000 0000 0000 0000 0000
000000d0: 0000 0000 0000 0000 0000 0000 0000 0000
000000e0: 0000 0000 0000 0000 0000 0000 0000 0000
000000f0: 0000 0000 0000 0000 0000 0000 0000 0000

encoder_b.convs.1.weight f4 [64, 64]
-0.13632074 -0.06664867 0.16209435 -0.07802395 -0.14950693 0.06693249 -0.024392312 0.09418732
0.01273346 -0.19545668 0.20250703 -0.0082603 0.102176644 -0.14472377 -0.10384139 -0.21083196
0.13129874 -0.0054803262 -0.20663333 0.014314271 -0.12621558 0.05774522 0.1529866 -0.13738742
-0.14331295 0.13772228 -0.046297796 0.000447254 -0.20163746 -0.16883239 -0.1934171 -0.12036578
0.12976383 0.08846462 0.14093764 -0.10812366 0.18580842 -0.10561151 0.07495927 0.024838973
-0.020358691 -0.06723222 -0.15392083 -0.015796902 -0.0030348697 0.21573067 0.0987346 0.04275293
-0.06327435 -0.09599889 0.10308679 -0.004732804 -0.03808034 -0.204413 0.13231598 0.07294904
0.064218156 0.17196819 -0.16264431 -0.020890316 -0.03542939 0.21522583 0.095951766 -0.056155708
0.097172014 0.15666209 0.05356466 0.09421001 -0.06844269 -0.16128011 0.18749683 -0.030022824
0.049749233 -0.18585989 0.016425442 -0.0846609 -0.015253584 -0.10404056 -0.045109678 0.17965493
0.010303438 0.17338364 0.091219015 0.13244516 -0.20303944 0.19127068 -0.061280094 -0.049503498
-0.12627687 -0.15909 0.0252583 0.037379686 -0.13163194 -0.014188965 0.01458349 0.110494345
0.046159226 0.09898287 -0.009906848 -0.07619697 -0.19683683 -0.10221343 0.054653462 -0.0035533323
0.21155638 -0.08474412 0.1531094 -0.18367532 -0.1742576 -0.11409114 -0.18707949 -0.094331644
-0.0972757 -0.11880991 0.0007140733 -0.06095079 -0.16743709 -0.13725384 -0.18815929 -0.15060323
-0.20080613 0.08229698 -0.007892204 -0.081179425 0.046178736 -0.02499734 0.19705398 -0.18163894
0.20004588 -0.08407596 -0.06967811 -0.18879208 -0.17372562 0.14577995 0.16847716 -0.16140153
-0.09232934 0.12676473 0.029957604 -0.0014444324 0.003019668 0.07611087 0.014947921 0.16711871
0.120975174 -0.008024169 0.15677647 -0.058966577 -0.013520188 0.009244239 -0.14776504 -0.17194802
0.1545149 0.14906101 0.013573406 -0.03557676 0.20676821 -0.18630226 -0.18678245 0.095860295
0.015245969 -0.13483728 -0.036656324 0.04813758 -0.18076815 -0.16830476 -0.12922877 -0.032644354
-0.11933175 -0.15283675 0.05608925 0.026515976 0.046800025 -0.16102876 0.045991335 0.08816048
0.20643924 -0.17981732 0.17904371 0.027591202 -0.13334212 -0.12817767 0.19478402 0.17490855
0.18305482 -0.21007235 0.18954518 -0.00015769646 -0.07113388 -0.013449211 -0.03925682 0.13633001
-0.044216823 0.06735946 0.20636259 -0.044766385 0.06863027 -0.06264713 -0.124063835 -0.020370021
-0.034942724 -0.17565964 -0.18412411 -0.20301607 -0.12039836 -0.14561129 -0.014445408 -0.018654691
0.0313682 0.17782044 0.14039566 -0.07382891 0.017297883 -0.21439618 0.19511561 -0.14581881
0.14618357 0.11785872 0.13222466 -0.045180682 0.21261166 0.009012392 0.16511537 -0.0027364595
-0.09861862 0.12146989 0.08590361 0.037289843 0.096043825 -0.07982489 -0.11788146 -0.0017740723
0.17142971 0.14673635 -0.18526676 0.12169219 0.04400947 -0.16468331 -0.20173058 0.03313164
-0.097112425 -0.13145502 0.12388079 0.16067883 0.094602674 -0.0334444 0.20037095 0.20213346
-0.13411935 0.064994946 -0.17252086 0.061195828 0.16950694 -0.01108157 -0.032817587 -0.16158648
00000000: aa97 0bbe 197f 88bd 10fc 253e 05cb 9fbd
00000010: 5818 19be e713 893d 63d2 c7bc 48e5 c03d
00000020: 01a0 503c cc25 48be 015e 4f3e 3656 07bc
00000030: fd41 d13d 7832 14be cbaa d4bd 55e4 57be
00000040: 2d73 063e 4f94 b3bb b097 53be 6786 6a3c
00000050: a83e 01be 4086 6c3d 85a8 1c3e 4aaf 0cbe
00000060: a1c0 12be 1207 0d3e c2a2 3dbd 6a7d ea39
00000070: 0d7a 4ebe 66e2 2cbe 220f 46be 5682 f6bd
00000080: cfe0 043e f02c b53d f551 103e f06f ddbd
00000090: 9044 3e3e d94a d8bd 3f84 993d 1a7b cb3c
000000a0: 45c7 a6bc 0cb1 89bd 6c9d 1dbe 8168 81bc
000000b0: aae4 46bb 80e8 5c3e 5e35 ca3d b21d 2f3d
000000c0: fb95 81bd 119b c4bd 2b1f d33d a315 9bbb
000000d0: 21fa 1bbd a451 51be d77d 073e 4e66 953d
000000e0: cf84 833d 6e18 303e 3b8c 26be 2b22 abbc
000000f0: 681e 11bd 2964 5c3e 5c82 c43d 8703 66bd
00000100: 1f02 c73d 076c 203e 9e66 5b3d 2df1 c03d
00000110: ae2b 8cbd 9d26 25be 2bff 3f3e 6df2 f5bc
00000120: dac5 4b3d 0e52 3ebe a68e 863c b262 adbd
00000130: 2bea 79bc 3813 d5bd edc4 38bd 76f7 373e
00000140: c0cf 283c 7b8b 313e 09d1 ba3d b49f 073e
00000150: 92e9 4fbe 76dc 433e d600 7bbd 2ec4 4abd
00000160: b94e 01be 7de8 22be 7fea ce3c 711b 193d
00000170: 86ca 06be d578 68bc 97ef 6e3c dc4a e23d
00000180: 7511 3d3d 88b7 ca3d 5550 22bc 280d 9cbd
00000190: 988f 49be 4655 d1bd 4fdc 5f3d 06df 68bb
000001a0: 3ca2 583e 538e adbd b6c8 1c3e 6215 3cbe
000001b0: 9670 32be 9ea8 e9bd c491 3fbe f330 c1bd
000001c0: 7b38 c7bd 9c52 f3bd a630 3b3a 89a7 79bd
000001d0: a174 2bbe 458c 0cbe d4ac 40be bc37 1abe
000001e0: 1fa0 4dbe 528b a83d 4e4e 01bc 6641 a6bd
000001f0: ea25 3d3d 39c7 ccbc 85c8 493e 8fff 39be
00000200: d4d8 4c3e 0430 acbd 66b3 8ebd b652 41be
00000210: 21e5 31be 5747 153e 4785 2c3e 7146 25be
00000220: 2a17 bdbd 9dce 013e a669 f53c 1c53 bdba
00000230: 9fe5 453b 04e0 9b3d 20e8 743c 2b21 2b3e
00000240: d5c1 f73d ce77 03bc 038a 203e f086 71bd
00000250: c783 5dbc 2675 173c b84f 17be 2413 30be
00000260: 2739 1e3e 73a3 183e fe62 5e3c f0b8 11bd
00000270: 0cbb 533e 05c6 3ebe e643 3fbe 6752 c43d
00000280: 3bca 793c c912 0abe f124 16bd e92b 453d
00000290: 491b 39be 1558 2cbe 8c54 04be 16b6 05bd
000002a0: 3464 f4bd 3d81 1cbe d7bd 653d 0838 d93c
000002b0: 62b1 3f3d b9e4 24be 6961 3c3d 7b8d b43d
000002c0: cf64 533e 0822 38be 3c57 373e f206 e23c
000002d0: d68a 08be 0241 03be 7675 473e 3a1b 333e
000002e0: b972 3b3e 351d 57be 2218 423e 525b 25b9
000002f0: a4ae 91bd 145a 5cbc c2cb 20bd 189a 0b3e
00000300: b31c 35bd c2f3 893d b750 533e f55c 37bd
00000310: 078e 8c3d 234d 80bd 2e15 febd 08df a6bc
00000320: 1a20 0fbd 1fe0 33be 088b 3cbe 72e3 4fbe
00000330: 6a93 f6bd 201b 15be 6fac 6cbc b9d1 98bc
00000340: f17b 003d 9016 363e e1c3 0f3e 9d33 97bd
00000350: 4ab4 8d3c ac8a 5bbe 63cc 473e 8751 15be
00000360: 25b1 153e ea5f f13d e765 073e 610f 39bd
00000370: dfb6 593e b6a8 133c 0114 293e 2c56 33bb
00000380: 8ff8 c9bd 35c5 f83d 3bee af3d 3cbd 183d
00000390: a0b2 c43d 3b7b a3bd d66b f1bd fd87 e8ba
000003a0: 458b 2f3e 0e42 163e 92b6 3dbe c139 f93d
000003b0: 4643 343d bea2 28be 7692 4ebe 0bb5 073d
000003c0: e1e2 c6bd 259c 06be 36b5 fd3d fe88 243e
000003d0: 0cbf c13d fffc 08bd 0b2e 4d3e 13fc 4e3e
000003e0: 9556 09be 121c 853d 4fa9 30be 7aa8 7a3d
000003f0: 3a93 2d3e 798f 35bc bc6b 06bd ed76 25be

encoder_b.convs.1.bias f4 [64]
0.0 0.0 0.0 0.0 0.0 0.0 0.0 0.0
0.0 0.0 0.0 0.0 0.0 0.0 0.0 0.0
0.0 0.0 0.0 0.0 0.0 0.0 0.0 0.0
0.0 0.0 0.0 0.0 0.0 0.0 0.0 0.0
0.0 0.0 0.0 0.0 0.0 0.0 0.0 0.0
0.0 0.0 0.0 0.0 0.0 0.0 0.0 0.0
0.0 0.0 0.0 0.0 0.0 0.0 0.0 0.0
0.0 0.0 0.0 0.0 0.0 0.0 0.0 0.0
00000000: 0000 0000 0000 0000 0000 0000 0000 0000
00000010: 0000 0000 0000 0000 0000 0000 0000 0000
00000020: 0000 0000 0000 0000 0000 0000 0000 0000
00000030: 0000 0000 0000 0000 0000 0000 0000 0000
00000040: 0000 0000 0000 0000 0000 0000 0000 0000
00000050: 0000 0000 0000 0000 0000 0000 0000 0000
00000060: 0000 0000 0000 0000 0000 0000 0000 0000
00000070: 0000 0000 0000 0000 0000 0000 0000 0000
00000080: 0000 0000 0000 0000 0000 0000 0000 0000
00000090: 0000 0000 0000 0000 0000 0000 0000 0000
000000a0: 0000 0000 0000 0000 0000 0000 0000 0000
000000b0: 0000 0000 0000 0000 0000 0000 0000 0000
000000c0: 0000 0000 0000 0000 0000 0000 0000 0000
000000d0: 0000 0000 0000 0000 0000 0000 0000 0000
000000e0: 0000 0000 0000 0000 0000 0000 0000 0000
000000f0: 0000 0000 0000 0000 0000 0000 0000 0000

encoder_b.convs.2.weight f4 [64, 64]
0.14618707 0.04825922 0.048381764 0.09700844 0.21382429 -0.1352649 -0.18412004 0.0099396
0.16469131 -0.048503406 0.13210188 -0.020122197 0.030911552 -0.038674887 0.08738387 0.1266914
-0.058495786 -0.15176113 0.1751156 0.20083462 0.08035827 -0.08677765 0.10143712 -0.013736756
0.17415388 0.088801794 0.050712653 -0.094999835 -0.1850792 0.08986159 -5.370971e-05 0.111199565
0.19730939 -0.13983631 0.105023414 0.070405066 0.15687332 -0.21011606 -0.112071544 0.06429042
0.07577134 -0.09160412 -0.18786694 0.091822185 -0.19898906 0.080166325 0.10875445 -0.047045086
-0.09189693 -0.20786858 -0.17514674 0.18785252 -0.037108455 0.067698576 -0.010019094 0.10743829
0.19764802 -0.07351907 0.05591976 0.21015036 0.13877487 0.050962258 0.11013319 0.0745769
-0.11087731 0.018042153 -0.17294364 -0.04557216 -0.20175014 0.15746172 0.1671825 -0.10379738
0.13821162 -0.11634393 0.19688952 0.014445899 0.112296164 -0.16777869 0.07343599 -0.10652814
-0.18257768 -0.21366492 0.100749455 -0.05242091 0.1731048 0.011041152 -0.08108654 0.071133904
-0.1837963 -0.096326314 -0.112959474 -0.1813636 -0.092754684 0.044964448 0.035047896 0.20302922
0.06190549 0.19283779 -0.15924816 0.07072098 0.19893073 -0.12578177 -0.01118166 0.09730891
-0.12451898 -0.13548622 -0.21096924 -0.09026615 0.0024182016 0.06555401 0.10736259 0.19499433
-0.13200873 0.15348685 0.13213928 0.11811148 0.0015925277 -0.07346559 0.16945675 0.074061945
-0.05853762 -0.055525593 -0.07816471 -0.16234946 -0.19108813 -0.18677783 0.024933772 0.19220613
0.10998647 0.06609957 0.15934078 -0.088879324 0.11380971 -0.1678033 0.042916793 0.08296292
0.19452532 -0.09540992 0.08358748 0.13169903 -0.0077035623 -0.10418311 -0.100611344 0.10287479
-0.11444221 0.17898037 0.13364176 0.009287935 0.17871885 -0.06382951 -0.116621226 0.07584611
-0.06083754 0.19794495 -0.13941316 -0.16844846 0.1735799 0.20070542 -0.14328863 0.122934505
0.024431827 -0.2114358 -0.11080675 -0.09552836 -0.18236455 -0.061444733 -0.14371036 -0.1794691
0.16718324 0.18624182 -0.16602965 0.102132566 0.17945251 0.1749875 0.1421265 -0.08916044
-0.18690492 -0.09123982 0.12906913 -0.20283718 -0.1845738 0.2159299 -0.17750438 0.0232147
-0.0797329 0.18538785 0.1387716 -0.07724969 0.025663564 -0.036623545 -0.018812465 -0.049144644
0.13900347 0.059912886 -0.1715657 -0.11649729 -0.10011611 -0.08970688 0.16196217 0.18021768
0.19462626 0.17973615 -0.13014624 0.1414671 0.11135205 0.18540275 -0.07116888 0.043515008
0.17999247 -0.008284277 0.17362282 0.17492434 0.089713596 0.20882 0.1462637 -0.021617372
-0.076109625 0.19837254 0.115858376 0.1576906 0.15008329 -0.1410089 0.10704121 0.18952753
-0.13745825 0.040698126 0.15177275 -0.01901667 0.14493552 -0.1772071 -0.09841625 0.049693976
0.211607 0.06132397 0.21583721 0.118103966 -0.08672291 0.1661055 0.07236469 -0.0050245035
-0.17022264 -0.16265589 -0.17123422 0.1960716 -0.08427939 -0.1283248 -0.07869967 -0.005780259
0.051555436 0.008137318 -0.21002342 0.15638779 0.18602261 0.13663201 0.0636148 -0.16037084
00000000: 10b2 153e 76ab 453d f52b 463d 5cac c63d
00000010: c1f4 5a3e e282 0abe f789 3cbe b4d9 223c
00000020: d7a4 283e 82ab 46bd b745 073e 4ed7 a4bc
00000030: 393a fd3c 8f69 1ebd 50f6 b23d 64bb 013e
00000040: 4799 6fbd 4567 1bbe 8151 333e 97a7 4d3e
00000050: e092 a43d 7bb8 b1bd 44be cf3d 2110 61bc
00000060: 6555 323e b7dd b53d 12b8 4f3d 468f c2bd
00000070: 6785 3dbe 5a09 b83d 5d46 61b8 99bc e33d
00000080: 790b 4a3e 4031 0fbe 8416 d73d 8830 903d
00000090: 66a3 203e aa28 57be c485 e5bd b2aa 833d
000000a0: 012e 9b3d f19a bbbd 3160 40be 450d bc3d
000000b0: cac3 4bbe 3e2e a43d a7ba de3d 59b2 40bd
000000c0: 7534 bcbd 80db 54be ab59 33be 695c 403e
000000d0: 09ff 17bd 8da5 8a3d 2027 24bc 9b08 dc3d
000000e0: 3e64 4a3e 2b91 96bd 1e0c 653d a831 573e
000000f0: 001b 0e3e cdbd 503d 838d e13d c6bb 983d
00000100: a513 e3bd 23cd 933c 2318 31be e0a9 3abd
00000110: 9797 4ebe a53d 213e e431 2b3e b993 d4bd
00000120: 5987 0d3e ba45 eebd 689d 493e 7eae 6c3c
00000130: 88fb e53d 2dce 2bbe 9c65 963d 6d2b dabd
00000140: a5f5 3abe faca 5abe bb55 ce3d 4fb7 56bd
00000150: 6242 313e f3e5 343c b310 a6bd a7ae 913d
00000160: 1935 3cbe bb46 c5bd 4c57 e7bd 61b7 39be
00000170: 2bf6 bdbd a42c 383d 628e 0f3d e4e6 4f3e
00000180: 9c90 7d3d 4577 453e f311 23be 29d6 903d
00000190: 7fb4 4b3e f0cc 00be 4833 37bc e549 c73d
000001a0: cf03 ffbd e6bc 0abe 5208 58be 76dd b8bd
000001b0: b17a 1e3b 2e41 863d ebe0 db3d 98ac 473e
000001c0: 4c2d 07be a82b 1d3e 854f 073e 6ee4 f13d
000001d0: 5dbc d03a 2175 96bd 1286 2d3e caad 973d
000001e0: 25c5 6fbd ce6e 63bd d214 a0bd f03e 26be
000001f0: 9bac 43be b042 3fbe e941 cc3c afd1 443e
00000200: 9640 e13d 365f 873d 3b2a 233e 5d06 b6bd
00000210: 1115 e93d a1d4 2bbe 85c9 2f3d 77e8 a93d
00000220: a531 473e 4766 c3bd ea2f ab3d 1cdc 063e
00000230: 2a6e fcbb f45d d5bd 520d cebd 05b0 d23d
00000240: ad60 eabd a146 373e 63d9 083e 6c2c 183c
00000250: 1302 373e 0cb9 82bd 1cd7 eebd 3555 9b3d
00000260: c930 79bd 15b2 4a3e 53c2 0ebe c17d 2cbe
00000270: eebe 313e b985 4d3e 41ba 12be 16c5 fb3d
00000280: 4125 c83c a082 58be a6ee e2bd 5fa4 c3bd
00000290: c6bd 3abe 79ad 7bbd cf28 13be bfc6 37be
000002a0: 1532 2b3e 2db6 3e3e ad03 2abe e12a d13d
000002b0: 66c2 373e ec2f 333e 9c89 113e c099 b6bd
000002c0: 0164 3fbe f1db babd b32a 043e 8db4 4fbe
000002d0: ea00 3dbe ba1c 5d3e b5c3 35be c12c be3c
000002e0: 014b a3bd 50d6 3d3e 241a 0e3e 1635 9ebd
000002f0: 653c d23c 9202 16bd 991c 9abc e54b 49bd
00000300: ed56 0e3e 3767 753d ebae 2fbe 2296 eebd
00000310: ad09 cdbd 3eb8 b7bd 69d9 253e fc8a 383e
00000320: 1b4c 473e c10c 383e 0e45 05be c0dc 103e
00000330: 8b0c e43d 38da 3d3e fdc0 91bd cb3c 323d
00000340: f24f 383e c7ba 07bc 2eca 313e 5e1f 333e
00000350: c3bb b73d e9d4 553e 27c6 153e ea16 b1bc
00000360: 5ddf 9bbd 2c22 4b3e 2847 ed3d a579 213e
00000370: 6faf 193e a364 10be 6c38 db3d 8113 423e
00000380: dbc1 0cbe 14b3 263d 516a 1b3e d9c8 9bbc
00000390: fa69 143e c775 35be 758e c9bd e98b 4b3d
000003a0: 81af 583e d82e 7b3d 6e04 5d3e 7ee0 f13d
000003b0: c89b b1bd 8f17 2a3e f033 943d 97a4 a4bb
000003c0: d84e 2ebe 448f 26be 0658 2fbe fec6 483e
000003d0: ac9a acbd 9467 03be 4b2d a1bd 5468 bdbb
000003e0: cb2b 533d 6352 053c 6110 57be 1f24 203e
000003f0: b67c 3e3e 43e9 0b3e 7a48 823d 4138 24be

encoder_b.convs.2.bias f4 [64]
0.0 0.0 0.0 0.0 0.0 0.0 0.0 0.0
0.0 0.0 0.0 0.0 0.0 0.0 0.0 0.0
0.0 0.0 0.0 0.0 0.0 0.0 0.0 0.0
0.0 0.0 0.0 0.0 0.0 0.0 0.0 0.0
0.0 0.0 0.0 0.0 0.0 0.0 0.0 0.0
0.0 0.0 0.0 0.0 0.0 0.0 0.0 0.0
0.0 0.0 0.0 0.0 0.0 0.0 0.0 0.0
0.0 0.0 0.0 0.0 0.0 0.0 0.0 0.0
00000000: 0000 0000 0000 0000 0000 0000 0000 0000
00000010: 0000 0000 0000 0000 0000 0000 0000 0000
00000020: 0000 0000 0000 0000 0000 0000 0000 0000
00000030: 0000 0000 0000 0000 0000 0000 0000 0000
00000040: 0000 0000 0000 0000 0000 0000 0000 0000
00000050: 0000 0000 0000 0000 0000 0000 0000 0000
00000060: 0000 0000 0000 0000 0000 0000 0000 0000
00000070: 0000 0000 0000 0000 0000 0000 0000 0000
00000080: 0000 0000 0000 0000 0000 0000 0000 0000
00000090: 0000 0000 0000 0000 0000 0000 0000 0000
000000a0: 0000 0000 0000 0000 0000 0000 0000 0000
000000b0: 0000 0000 0000 0000 0000 0000 0000 0000
000000c0: 0000 0000 0000 0000 0000 0000 0000 0000
000000d0: 0000 0000 0000 0000 0000 0000 0000 0000
000000e0: 0000 0000 0000 0000 0000 0000 0000 0000
000000f0: 0000 0000 0000 0000 0000 0000 0000 0000
