results/ckpt_best_fold_3.pt (torch, 660360 bytes, 72 tensors)

encoder_c.convs.0.weight f4 [116, 64]
-0.19757931 -0.1197373 -6.077e-42 -0.13078766 0.015448458 -0.13088258 0.06544795 0.08586366
0.07947916 0.09192985 -0.015184787 0.13731828 -0.0507475 -0.04066182 -1.1936949e-07 0.0032967115
-0.13880306 0.0018680233 0.15429604 0.116104946 0.01216639 -0.11614501 0.13849118 -0.2015706
-0.097650416 -0.072415575 -0.10454642 -0.020636812 -0.118608385 -0.073113 -0.08134225 0.124290474
-0.041860476 -0.13444407 -0.13075893 -0.076536216 -4.693e-42 -0.023163224 -0.08141324 -0.009522993
0.008486009 0.0023381398 0.024800058 -0.032290597 0.09881759 -0.076559074 -0.1348863 -0.016354728
0.0049615833 0.054985072 0.06491868 -0.005724954 -0.034955475 0.18030785 0.10707533 0.017308075
0.017536446 0.13475241 0.08413623 -0.04481007 0.08639748 0.018112479 -0.15959382 -0.04028805
-0.1473039 -0.13638103 1.796e-42 -0.09939123 0.07142906 0.093418986 0.009750085 0.13479823
-0.049857214 0.013324134 0.06546495 0.0829673 0.009236195 0.14188378 -2.969503e-08 0.13149422
-0.17116584 -0.031675708 -0.11705088 0.011702848 0.11840747 -0.15255545 0.07584136 -0.17745271
-0.08866202 -0.05621245 -0.09236231 -0.014949597 -0.15236162 0.12949406 0.016942596 0.07410009
-0.07336314 0.09428442 -0.03836266 -0.06774639 1.153e-42 -0.0108526 0.013231861 -0.030067777
-0.009741115 -0.05188451 -0.04956503 -0.045326706 0.10383123 -0.1527376 0.0709304 0.028467117
-0.093125634 -0.10649678 -0.12724717 -0.021647312 0.12744515 0.17509517 -0.017626416 0.14232226
0.05036337 -0.098125994 -0.13414375 -0.060145605 -0.1639653 -0.05796505 0.018819362 0.018710872
-0.028301973 0.0013015532 1.7822939e-14 0.0016645445 0.031456027 -0.051868573 -0.13742751 0.02884882
0.08887862 0.10582819 -0.115585685 -0.022613192 -0.102563284 -0.0192819 -2.5264116e-08 0.09689566
-0.043460894 -3.875356e-06 0.04647228 -0.14284727 0.08533806 0.19095714 -0.09210633 0.18943216
0.03964718 0.107853405 0.15114439 -0.10964866 0.11953876 0.0026525436 0.040819608 -0.03882395
-0.066054605 0.016601007 0.06497674 0.10938654 -1.2539e-41 -0.01239987 0.07835118 0.01920375
0.006513938 -0.041527454 -0.020882683 -0.0091468785 -0.13318835 0.09707437 0.034078717 -0.025488477
-0.08076582 0.09719978 0.13346161 0.0075082327 0.12755072 0.017565722 0.16277915 0.16677193
0.02346541 0.022974977 0.04834931 0.07872802 -0.12323485 0.03332446 0.17789842 -0.12008904
-0.08496024 2.5287569e-05 -1.3179e-41 0.0772787 -0.05931224 0.026375193 -0.08486106 0.14038727
-0.10810977 0.14904921 0.09393241 0.1454671 0.047608364 -0.061859906 7.8483777e-07 -0.10303699
0.13402951 -0.025850603 -0.11617824 -0.08503433 0.18270244 0.104173034 -0.12310482 -0.10726505
0.02690419 -0.04651609 0.05741754 0.119846754 -0.14458604 -0.11248019 0.016446585 0.08930228
0.039659537 -0.014127275 -0.043019414 0.07391869 -1.8724e-41 -0.06276552 -0.0040456844 0.12529254
-0.011438515 0.14334555 0.044493105 0.052334517 -0.14844786 0.08243721 0.044046663 0.034971487
0.031677194 0.11010742 -0.10967569 -0.052448172 0.044848345 0.10188491 0.059198268 0.12820114
-0.023259008 -0.012636553 0.15283577 0.0627559 0.12953524 -0.107831515 0.015921475 -0.17773184
00000000: 3b52 4abe d438 f5bd f110 0080 33ed 05be
00000010: 871b 7d3c 1506 06be 9309 863d 49d9 af3d
00000020: f8c5 a23d b845 bc3d 9dc9 78bc 2a9d 0c3e
00000030: 9cdc 4fbd 028d 26bd 092c 00b4 a40d 583b
00000040: 6422 0ebe 76d8 f43a c8ff 1d3e 6ec8 ed3d
00000050: 8a55 473c 6fdd edbd a2d0 0d3e 8668 4ebe
00000060: f1fc c7bd 9e4e 94bd 6f1c d6bd 880e a9bc
00000070: f4e8 f2bd 45bc 95bd c496 a6bd 018c fe3d
00000080: e475 2bbd b5ab 09be abe5 05be 05bf 9cbd
00000090: 150d 0080 cdc0 bdbc fcbb a6bd 5406 1cbc
000000a0: e708 0b3c 7a3b 193b 7e29 cb3c 2543 04bd
000000b0: e060 ca3d 01cb 9cbd a21f 0abe 5afa 85bc
000000c0: c794 a23b 0738 613d 16f4 843d 6598 bbbb
000000d0: 792d 0fbd 9fa2 383e 504a db3d aac9 8d3c
000000e0: 98a8 8f3c 89fc 093e 9e4f ac3d c48a 37bd
000000f0: 29f1 b03d 9f60 943c 906c 23be 1505 25bd
00000100: d5d6 16be 78a7 0bbe 0205 0000 a18d cbbd
00000110: 6649 923d 7452 bf3d d2be 1f3c 8c08 0a3e
00000120: 1437 4cbd 784d 5a3c 7d12 863d c3ea a93d
00000130: 6953 173c fb49 113e 1014 ffb2 6ca6 063e
00000140: 1946 2fbe 63be 01bd 5fb8 efbd 4dbd 3f3c
00000150: 9e7f f23d 7f37 1cbe b752 9b3d 2ab6 35be
00000160: 6f94 b5bd 073f 66bd 7328 bdbd 28ef 74bc
00000170: af04 1cbe 179a 043e 33cb 8a3c cac1 973d
00000180: 6a3f 96bd 3118 c13d 2a22 1dbd 9fbe 8abd
00000190: 3703 0000 1bcf 31bc 73ca 583c b350 f6bc
000001a0: 3399 1fbc da84 54bd b304 4bbd 7fa8 39bd
000001b0: 78a5 d43d 3f67 1cbe f543 913d df33 e93c
000001c0: a7b8 bebd fc1a dabd 154d 02be b455 b1bc
000001d0: fb80 023e 264c 333e 4665 90bc edbc 113e
000001e0: d249 4e3d 48f6 c8bd fb5c 09be 3d5b 76bd
000001f0: 85e6 27be c36c 6dbd 102b 9a3c 8b47 993c
00000200: 8ad9 e7bc e198 aa3a e688 a028 d82c da3a
00000210: 09d8 003d 2474 54bd ccb9 0cbe 5c54 ec3c
00000220: fe05 b63d 73bc d83d 30b8 ecbd 4d3f b9bc
00000230: b30c d2bd 13f5 9dbc 6104 d9b2 3b71 c63d
00000240: 0d04 32bd 0e09 82b6 b859 3e3d 8e46 12be
00000250: b9c5 ae3d 458a 433e 3ea2 bcbd 81fa 413e
00000260: 1565 223d 3fe2 dc3d 98c5 1a3e 7a8f e0bd
00000270: bdd0 f43d 4cd6 2d3b 7632 273d dd05 1fbd
00000280: a347 87bd d6fe 873c 8612 853d 0d06 e03d
00000290: f422 0080 d328 4bbc 9576 a03d 2f51 9d3c
000002a0: df72 d53b b118 2abd 2912 abbc cadc 15bc
000002b0: 8762 08be edce c63d 2096 0b3d 36cd d0bc
000002c0: 8d68 a5bd ae10 c73d 29aa 083e 9f07 f63b
000002d0: a89c 023e fde5 8f3c 94af 263e 43c6 2a3e
000002e0: 883a c03c 0536 bc3c ed09 463d 283c a13d
000002f0: 8e62 fcbd 3b7f 083d 012b 363e 3ef1 f5bd
00000300: a2ff adbd a420 d437 bd24 0080 4c44 9e3d
00000310: 64f1 72bd ca10 d83c a3cb adbd aec1 0f3e
00000320: a868 ddbd 5ba0 183e a35f c03d 54f5 143e
00000330: fd00 433d d060 7dbd a4ad 5235 0f05 d3bd
00000340: 083f 093e a5c4 d3bc dbee edbd 7b26 aebd
00000350: 5916 3b3e ac58 d53d 611e fcbd c7ad dbbd
00000360: 2d66 dc3c a887 3ebd a82e 6b3d 3772 f53d
00000370: 5d0e 14be 045c e6bd fdba 863c 1de4 b63d
00000380: 0a72 223d 1676 67bc 2035 30bd af62 973d
00000390: 3234 0080 358b 80bd a991 84bb b04c 003e
000003a0: 9c68 3bbc 2dc9 123e 673e 363d b85c 563d
000003b0: b702 18be d7d4 a83d 466a 343d 433e 0f3d
000003c0: f2bf 013d 0080 e13d a69d e0bd e5d3 56bd
000003d0: e6b2 373d 09a9 d03d e279 723d 2947 033e
000003e0: ad89 bebc 8b09 4fbc fb80 1c3e 2a86 803d
000003f0: e3a4 043e c5d6 dcbd c16d 823c 56ff 35be

encoder_c.convs.0.bias f4 [64]
-0.003195502 0.01066744 -0.027350817 0.025867082 0.017529761 0.010319318 -0.027769914 -0.004147879
0.010357995 0.027167823 0.009492752 0.025941487 0.021871079 -0.011804671 -0.022548398 0.023393242
-0.0046370304 0.008588467 0.023080586 -0.01026565 -1.2484147e-05 0.008313445 -0.011921512 -0.0058317035
0.011614786 0.006296636 -0.013593836 0.00607158 0.011026385 0.015461071 0.0121965995 0.03250944
-0.020565191 0.01487475 0.01533786 0.005157823 -0.020437239 0.021094756 -0.006245874 0.004149529
0.009960693 0.024051242 0.0045016464 0.004975943 0.020047685 0.01681916 0.008022856 0.017479645
0.02340542 0.015875703 0.005616079 0.0028797651 -0.009431378 0.015908023 -0.01399971 -0.018036727
0.037333902 0.019454822 0.0142271975 0.020959778 0.0033293555 0.006750914 -0.01390962 0.01925303
00000000: a16b 51bb 7cc6 2e3c d20e e0bc 34e7 d33c
00000010: 939a 8f3c 5b12 293c bb7d e3bc eeea 87bb
00000020: 94b4 293c 0e8f de3c 7d87 1b3c 3e83 d43c
00000030: fa2a b33c 6168 41bc 6bb7 b8bc 2fa3 bf3c
00000040: 3bf2 97bb a4b6 0c3c 7f13 bd3c 4231 28bc
00000050: 0173 51b7 1e35 083c 7252 43bc e017 bfbb
00000060: f24b 3e3c 0354 ce3b aeb8 5ebc 1bf4 c63b
00000070: 03a8 343c 6f50 7d3c 3fd4 473c 9e28 053d
00000080: 5578 a8bc 39b5 733c a64b 7b3c f502 a93b
00000090: ff6b a7bc e9ce ac3c 30aa ccbb c6f8 873b
000000a0: 2d32 233c 1c07 c53c 8c82 933b 3c0d a33b
000000b0: 0b3b a43c 56c8 893c 4c72 033c 7931 8f3c
000000c0: b9bc bf3c c30d 823c 1607 b83b 71ba 3c3b
000000d0: 1186 1abc 8b51 823c 0a5f 65bc c2c1 93bc
000000e0: 6feb 183d b85f 9f3c 3119 693c d7b3 ab3c
000000f0: 5131 5a3b c536 dd3b 2de5 63bc 88b8 9d3c

encoder_c.convs.1.weight f4 [64, 64]
-0.05701669 0.0286951 -0.029235758 0.17701854 -4.3071314e-13 0.14275226 0.18874428 1.3287e-41
0.14893536 0.049459577 0.0040920204 -0.0066322815 -0.12981361 0.023881476 0.17884272 0.16591951
-0.07523462 0.10012273 -0.07944916 -0.061592903 -1.04883e-40 -0.06881235 0.053318087 0.032556448
-0.0864134 -0.012623584 0.13958086 0.06278527 0.2233775 0.04964991 0.035086796 -0.094405316
-0.12580438 0.16068141 -0.051694777 0.03056948 0.18268493 0.01692497 0.12650493 -0.14993979
-0.097102255 0.16307259 -0.05000849 -3.102e-42 -0.00032072995 0.13651408 -0.098924085 -0.08948712
0.19173644 -0.062882945 -0.09184458 0.0027875388 0.007975883 0.027021253 0.15773901 -0.038932327
0.0441079 -0.1796112 -4.5870416e-33 -0.11581972 0.18889348 0.04901088 0.16365153 -0.13573444
0.17453817 0.17675179 -0.113179274 6.98488e-05 -2.5163453e-38 0.15060042 -0.065793775 1.7586e-41
0.09190676 -0.024288466 0.15210512 -0.0058742845 0.08308863 0.1664033 -0.12424652 -0.10707128
-0.13755172 0.08411397 0.08702316 -0.15877277 -8.832e-42 0.05042724 0.21542858 -0.030335784
0.05598909 0.024510883 -0.19514565 -0.009580868 -0.12203949 -0.017413117 -0.12133945 0.13967174
0.10913738 0.14479576 -0.013468603 0.01682178 0.2025379 0.14582998 -0.16732608 0.15022102
-0.07234369 0.18363029 0.12329752 -2.1563e-41 -8.9255926e-05 0.08621349 0.07780673 -0.05016357
-0.0711519 0.11917981 0.003921195 0.05447907 -0.07994991 -0.15399113 0.02100957 -0.0870418
-0.1131863 -0.077046044 2.4510402e-16 0.09992695 0.11854821 0.031772096 -0.020650135 -0.03206069
4.634e-42 -5.761e-42 -1.4286e-41 7.674e-42 -3.858e-42 8.269e-42 3.891e-42 4.753e-42
2.1626e-41 -2.0743e-41 -9.6e-42 -7.556e-41 -4.361e-42 8.987e-42 -1.122e-42 -1.0636e-41
4.097e-42 4.41e-42 7.498e-42 -8.256e-42 -1.405e-41 1.1229e-41 2.31203e-40 -3.754911e-39
-1.8868e-41 -1.7952e-41 3.4803246e-23 -4.884e-42 -8.09e-43 -4.425e-42 -4.785e-42 1.8567e-41
1.5402e-41 9.041e-42 -1.405e-41 -7.306e-42 1.3440268e-35 4.491e-42 5.16e-42 1.2305398e-35
4.2123e-41 1.9816e-41 3.33e-42 -1.7282e-41 -9.626e-42 -9.128e-42 -1.6071e-41 7.414e-42
9.078e-42 -1.533e-42 -1.8978e-41 -1.537e-41 4.621e-42 -1.345e-41 -2.6193434e-28 -6.924e-42
1.5053e-41 -1.2549e-41 -9.686e-42 -1.979e-41 -1.3653e-41 2.6793e-41 1.3005e-41 5.72e-43
-0.054808486 -0.044648197 -0.12355122 0.0036243116 -1.5058e-41 -0.040907804 -0.04681704 -6.718e-42
0.07112719 -0.12337404 0.06472586 -0.0024404307 -0.13447115 -0.012108171 0.021312578 0.005151144
0.04245526 0.1856708 0.07001827 -0.08246825 4.3722e-41 0.15858842 0.1834092 0.051298205
-0.01578673 -0.056598227 0.06120222 -0.0028302434 0.033436384 -0.0056105237 -0.0070191678 0.0719086
0.12709536 -0.09201703 0.061163668 -0.038883206 0.19429596 -0.044539567 -0.07116218 0.20747751
-0.05978412 -0.028816497 -0.13802797 2.1409e-41 -2.4319793e-12 0.11231971 -0.045577653 0.048756007
-0.18217182 0.13898994 0.07673719 -0.009319225 -0.2102394 -0.11072544 -0.01390087 0.09356056
-0.07230051 0.09115495 -1.205e-42 -0.04917203 0.18617855 -0.033239413 -0.054559734 0.10428043
00000000: 558a 69bd fd11 eb3c d47f efbc 5944 353e
00000010: 4e78 f2aa a62d 123e 2e46 413e 0a25 0000
00000020: 8382 183e 2096 4a3d 5b16 863b 9c53 d9bb
00000030: dced 04be 16a3 c33c 8c22 373e cee6 293e
00000040: 9c14 9abd 250d cd3d 3eb6 a2bd d748 7cbd
00000050: 5f24 0180 7ded 8cbd 1164 5a3d e959 053d
00000060: 82f9 b0bd 26d3 4ebc 49ee 0e3e 9095 803d
00000070: 12bd 643e b45d 4b3d 2cb7 0f3d 9357 c1bd
00000080: ddd2 00be ab89 243e e7bd 53bd d96c fa3c
00000090: c211 3b3e 3ca6 8a3c 828a 013e d189 19be
000000a0: 8cdd c6bd 80fc 263e b4d5 4cbd a608 0080
000000b0: a527 a8b9 59ca 0b3e b698 cabd 0645 b7bd
000000c0: 8f56 443e c6c8 80bd 0319 bcbd 24af 363b
000000d0: 47ad 023c ad5b dd3c 5686 213e 8177 1fbd
000000e0: 7caa 343d 00ec 37be cb89 be89 e432 edbd
000000f0: 4b6d 413e a2bf 483d 4494 273e f8fd 0abe
00000100: 22ba 323e 6cfe 343e 89ca e7bd ca7b 9238
00000110: bc00 0981 ff36 1a3e e3be 86bd 0631 0000
00000120: 9d39 bc3d 9bf8 c6bc 72c1 1b3e 127d c0bb
00000130: 5f2a aa3d a065 2a3e f674 febd 3048 dbbd
00000140: 5cda 0cbe f243 ac3d 3339 b23d 5495 22be
00000150: 9f18 0080 cb8c 4e3d 4f99 5c3e c082 f8bc
00000160: d154 653d 0ccb c83c 43d4 47be 13f9 1cbc
00000170: d7ef f9bd f4a5 8ebc d180 f8bd 1c06 0f3e
00000180: 6b83 df3d 5745 143e 6aab 5cbc d4cd 893c
00000190: 1866 4f3e 7454 153e 8757 2bbe 8ad3 193e
000001a0: ee28 94bd 9409 3c3e 6983 fc3d 1c3c 0080
000001b0: e92e bbb8 b390 b03d 2359 9f3d 5178 4dbd
000001c0: 16b8 91bd 8b14 f43d 5e7d 803b 7225 5f3d
000001d0: c7bc a3bd daaf 1dbe 431c ac3c f942 b2bd
000001e0: 38ce e7bd 51ca 9dbd f84a 8d25 80a6 cc3d
000001f0: 67c9 f23d 7523 023d 792a a9bc 1252 03bd
00000200: eb0c 0000 0f10 0080 d327 0080 6415 0000
00000210: c10a 0080 0d17 0000 d90a 0000 400d 0000
00000220: 493c 0000 d339 0080 c31a 0080 a1d2 0080
00000230: 280c 0080 0d19 0000 2103 0080 a61d 0080
00000240: 6c0b 0000 4b0c 0000 e714 0000 0417 0080
00000250: 2a27 0080 4d1f 0000 8084 0200 2ae3 2880
00000260: 9934 0080 0b32 0080 554c 281a 9d0d 0080
00000270: 4102 0080 560c 0080 570d 0080 c233 0000
00000280: ef2a 0000 3419 0000 2a27 0080 5e14 0080
00000290: e4eb 8e05 850c 0000 620e 0000 7bda 8205
000002a0: 6c75 0000 3d37 0000 4809 0000 2d30 0080
000002b0: d51a 0080 7219 0080 cd2c 0080 ab14 0000
000002c0: 4e19 0000 4604 0080 e734 0080 d82a 0080
000002d0: e20c 0000 7e25 0080 4705 a691 4d13 0080
000002e0: f629 0000 fb22 0080 001b 0080 2b37 0080
000002f0: 0f26 0080 b04a 0000 4124 0000 9801 0000
00000300: dd7e 60bd 07e1 36bd 6c08 fdbd dc85 6d3b
00000310: fa29 0080 f18e 27bd 39c3 3fbd ba12 0080
00000320: 22ab 913d 87ab fcbd fe8e 843d a2ef 1fbb
00000330: ceb2 09be 5a61 46bc b797 ae3c eeca a83b
00000340: 91e5 2d3d 7c20 3e3e bd65 8f3d 1de5 a8bd
00000350: e179 0000 0165 223e 9fcf 3b3e 111e 523d
00000360: 2c53 81bc 8bd3 67bd 2eaf 7a3d 9b7b 39bb
00000370: 97f4 083d 7cd8 b7bb 0c01 e6bb d144 933d
00000380: 4925 023e 6d73 bcbd c186 7a3d ff43 1fbd
00000390: 85f5 463e 1f6f 36bd 7abd 91bd fc74 543e
000003a0: 32e0 74bd 9310 ecbc 3457 0dbe ae3b 0000
000003b0: a522 2bac e007 e63d a2af 3abd 61b4 473d
000003c0: 408b 3abe 6153 0e3e 6328 9d3d aaaf 18bc
000003d0: ff48 57be 05c4 e2bd 7ac0 63bc ae9c bf3d
000003e0: 4a12 94bd 72af ba3d 5c03 0080 9c68 49bd
000003f0: 97a5 3e3e 0d26 08bd 077a 5fbd fa90 d53d

encoder_c.convs.1.bias f4 [64]
-0.0039349673 0.004170992 0.009346135 0.0033064838 -0.006459228 -0.0021251894 -0.002345425 -0.019161291
0.06973419 0.0036254344 -0.011591558 -0.01602936 -0.015562364 0.026076531 0.011421971 0.012394096
0.01437885 0.027348394 0.0417243 0.029195467 -0.014668898 0.038336653 0.026227089 0.021216372
0.005085581 0.021924663 0.0067798407 0.02663818 0.01696944 -0.020327117 -0.016305534 0.031446457
0.047688447 -0.0020765443 0.015696412 0.0062640943 0.018470673 0.018507611 0.0020756996 0.030882392
-0.006445479 0.036706176 -0.005600794 -0.004937116 -0.0030088068 0.027422423 -0.0020465686 -0.00057708484
-0.0064175716 0.024133004 0.025126677 -0.00032691736 -0.0036293122 0.016837426 0.009161487 0.03185598
0.015695717 0.006679104 -0.01076138 0.008553073 0.01620073 0.030946497 0.034985207 0.025396174
00000000: e6f0 80bb d1ac 883b 8820 193c 98b1 583b
00000010: efa7 d3bb c346 0bbb b4b5 19bb 24f8 9cbc
00000020: cdd0 8e3d b298 6d3b 85ea 3dbc 0150 83bc
00000030: 49f9 7ebc 739e d53c 3823 3b3c 9b10 4b3c
00000040: 4595 6b3c bd09 e03c 19e7 2a3d 552b ef3c
00000050: d155 70bc e506 1d3d 31da d63c f5cd ad3c
00000060: f2a4 a63b 5a9b b33c 6d29 de3b 5038 da3c
00000070: 7f03 8b3c 0e85 a6bc 2f93 85bc 00ce 003d
00000080: f654 433d a216 08bb c395 803c 0843 cd3b
00000090: cf4f 973c 469d 973c 7608 083b 12fd fc3c
000000a0: 9934 d3bb 3759 163d de86 b7bb 88c7 a1bb
000000b0: 672f 45bb fda4 e03c b91f 06bb 8247 17ba
000000c0: 7e4a d2bb 94b2 c53c 76d6 cd3c 1b66 abb9
000000d0: c1d9 6dbb a4ee 893c 101a 163c 6b7b 023d
000000e0: 4e94 803c 63dc da3b 8050 30bc 3022 0c3c
000000f0: 65b7 843c 8283 fd3c a64c 0f3d a30b d03c

encoder_c.convs.2.weight f4 [64, 64]
-0.10889626 -0.020598266 0.025940068 0.12566194 -0.06811593 0.035637174 -0.048246987 -0.018997675
-0.06443436 0.018935055 -0.15396138 0.12220122 0.05477113 -0.02579651 -0.11116697 -0.0014999863
0.1233558 0.09966689 0.15535218 0.11484907 0.11214086 -0.12217034 -0.039074104 0.040480122
-0.08444971 0.05103336 -0.075863294 -0.06790932 -0.1438705 -0.081540525 0.10856047 0.094766
0.09173834 0.08192143 0.0114396615 -0.061113805 0.12855074 0.040606927 -0.03711858 -0.013937675
-0.088730715 0.0038522552 -0.011546246 0.045302946 -0.06727221 0.01701602 -0.052919775 -0.082524106
0.0053661037 0.17358603 -0.12912078 0.040412195 -0.03681705 0.11464965 0.014122939 0.10535893
0.061491676 -0.02710209 0.023338635 0.03874036 -0.016903182 -0.10609943 0.06503867 -0.068048075
-0.19316225 -0.08300879 0.053203758 0.0045213127 -0.09974229 -0.06963625 0.1047224 0.096607745
0.08864084 -0.12099116 -0.21696739 0.08910613 0.025741348 0.10349583 -0.20271292 -0.036821622
-0.209573 0.077792235 0.23708108 -0.12813433 0.10595364 0.104890384 -0.13088188 -0.024862677
0.07974647 0.18828942 0.03330351 -0.016607858 -0.081780225 0.015523588 0.103409454 0.116945565
0.11258899 -0.0452227 -0.06656695 0.009151506 0.09427416 0.025466986 0.01447658 -0.027131835
0.20269229 0.053496685 -0.010295404 0.17212626 -0.07831705 0.13882954 -0.23850526 0.19369186
0.029656503 0.13993776 -0.112347044 -0.23679802 -0.115678295 0.12162504 0.066665955 0.13629407
0.19242471 -0.115825646 0.016917465 0.0833244 -0.14370278 -0.2453385 0.023708923 0.108904876
-0.16652739 0.002942565 -0.018128138 0.15185809 -0.118315384 0.032717902 -0.10466944 -0.044724133
-0.040583298 -0.032688413 0.016023299 0.052376103 -0.07140321 0.16175161 0.03726604 -0.027918
-0.008743357 0.04261667 0.05930663 -0.13740207 0.10531094 -0.14661676 -0.12045189 -0.022611296
0.08703461 -0.071368106 -0.10823226 -0.11641132 0.058031812 -0.17060341 0.19501427 0.19898146
0.104080014 0.13680239 -0.08860398 0.12519741 0.05143806 0.16138677 -0.031573262 -0.02645362
0.017455373 0.06734816 -0.15403926 0.07436029 0.117847025 0.08424366 -0.13114357 -0.08920833
0.037261657 0.12891857 0.036313206 0.067866355 -0.0993521 0.14814438 0.04341811 0.028352924
-0.07982303 -0.00094085734 0.049678426 0.06904813 -0.23159353 0.04741318 0.021274127 -0.10046682
-0.13341387 -0.026430426 -0.07747384 -0.08453083 -0.0032939764 -0.0032493866 -0.04833449 -0.09675017
0.0111482665 0.0027424274 -0.23319991 0.1327074 0.18716985 -0.097388886 -0.15515749 -0.1701579
-0.16053815 0.029382704 0.2213154 -0.22579835 0.0014827022 -0.089613855 -0.19012423 0.061390456
0.044953004 -0.05688648 0.25387228 0.18037534 -0.1676474 -0.09802785 -0.060460698 0.17806505
-0.0093375 -0.038944054 -0.17489731 0.059284765 -0.15998727 0.05405743 0.059695 -0.1717556
0.11368985 -0.0056607863 0.036208767 0.2723268 0.19877551 0.2218956 0.0145522505 0.041279584
0.023637803 -0.08405133 0.03361288 -0.05318751 -0.07523025 0.10411574 0.06423657 -0.00065383856
0.08263154 -0.027269315 0.20749584 0.077313446 -0.24002936 -0.13055117 0.07478963 0.068011664
00000000: 0105 dfbd b2bd a8bc 4480 d43c 86ad 003e
00000010: 5d80 8bbd 49f8 113d a29e 45bd 03a1 9bbc
00000020: 29f6 83bd b01d 9b3c 0da8 1dbe a244 fa3d
00000030: b157 603d 3453 d3bc 82ab e3bd 309b c4ba
00000040: f7a1 fc3d 281e cc3d a414 1f3e fd35 eb3d
00000050: 1baa e53d 7134 fabd 2b0c 20bd 7cce 253d
00000060: f8f3 acbd 5b08 513d 375e 9bbd 0b14 8bbd
00000070: ca52 13be b8fe a6bd f454 de3d ad14 c23d
00000080: 50e1 bb3d 6cc6 a73d 6b6d 3b3c 7852 7abd
00000090: cea2 033e 7353 263d a709 18bd d95a 64bc
000000a0: 73b8 b5bd 1e76 7c3b 772c 3dbc 958f 393d
000000b0: 03c6 89bd 2e65 8b3c 68c2 58bd 6602 a9bd
000000c0: 24d6 af3b 89c0 313e 3d38 04be 4287 253d
000000d0: 7acd 16bd 70cd ea3d e663 673c 6cc6 d73d
000000e0: b2de 7b3d 3405 debc aa30 bf3c 36ae 1e3d
000000f0: 8b78 8abc a84a d9bd ff32 853d ca5c 8bbd
00000100: 53cc 45be 8300 aabd 2fec 593d 8527 943b
00000110: b045 ccbd 739d 8ebd b378 d63d 48da c53d
00000120: 5489 b53d 37ca f7bd b32c 5ebe 467d b63d
00000130: 85df d23c 9ff5 d33d fa93 4fbe 45d2 16bd
00000140: 4e9a 56be 8951 9f3d 62c5 723e a535 03be
00000150: 39fe d83d c5d0 d63d e605 06be d0ac cbbc
00000160: 1e52 a33d f1ce 403e 4369 083d 340d 88bc
00000170: 647c a7bd a656 7e3c 56c8 d33d 2881 ef3d
00000180: 0e95 e63d 703b 39bd 4154 88bd 33f0 153c
00000190: d012 c13d 24a0 d03c 2d2f 6d3c 9543 debc
000001a0: 918e 4f3e 571f 5b3d 0eae 28bc de41 303e
000001b0: b164 a0bd 5529 0e3e b93a 74be 2957 463e
000001c0: 32f2 f23c d84b 0f3e 3516 e6bd 2e7b 72be
000001d0: bee8 ecbd 8d16 f93d 2988 883d ac90 0b3e
000001e0: fc0a 453e ff35 edbd 7f96 8a3c fca5 aa3d
000001f0: d226 13be 043a 7bbe 3739 c23c 8509 df3d
00000200: 2886 2abe 0cd8 403b 7681 94bc b080 1b3e
00000210: 564f f2bd 3503 063d ee5c d6bd a730 37bd
00000220: ac3a 26bd 49e4 05bd 4b43 833c 5388 563d
00000230: d93b 92bd 37a2 253e 46a4 183d 4ab4 e4bc
00000240: 4c40 0fbc d18e 2e3d 82eb 723d 21b3 0cbe
00000250: 43ad d73d b422 16be 7baf f6bd 533b b9bc
00000260: 343f b23d 7129 92bd e0a8 ddbd 0f69 eebd
00000270: c4b2 6d3d a9b2 2ebe d2b1 473e ccc1 4b3e
00000280: e727 d53d ed15 0c3e 0176 b5bd c033 003e
00000290: b7b0 523d 9342 253e f752 01bd 43b5 d8bc
000002a0: 92fe 8e3c d5ed 893d 78bc 1dbe 354a 983d
000002b0: c859 f13d f187 ac3d 804a 06be dbb2 b6bd
000002c0: ae9f 183d 3b03 043e 28bd 143d 84fd 8a3d
000002d0: 1d79 cbbd 29b3 173e 30d7 313d 6444 e83c
000002e0: 427a a3bd dea3 76ba 9b7b 4b3d 1b69 8d3d
000002f0: db26 6dbe 5334 423d 1447 ae3c 8cc1 cdbd
00000300: a59d 08be 9f84 d8bc 9baa 9ebd 801e adbd
00000310: c1df 57bb a9f3 54bb 63fa 45bd f424 c6bd
00000320: 38a7 363c 4cba 333b f5cb 6ebe 73e4 073e
00000330: 74a9 3f3e d373 c7bd 9be1 1ebe df3d 2ebe
00000340: 1d64 24be ffb3 f03c 81a0 623e af37 67be
00000350: 3b57 c23a 7887 b7bd edaf 42be 8f74 7b3d
00000360: a420 383d cc01 69bd 8cfb 813e 50b4 383e
00000370: c3ab 2bbe d3c2 c8bd a3a5 77bd af56 363e
00000380: 50fc 18bc cd83 1fbd 4818 33be 95d4 723d
00000390: b4d3 23be 536b 5d3d bf82 743d b3e0 2fbe
000003a0: 39d6 e83d 1e7e b9bb a54f 143d 6b6e 8b3e
000003b0: cf8b 4b3e 9a38 633e 906c 6e3c c814 293d
000003c0: 11a4 c13c 1b23 acbd a9ad 093d 26db 59bd
000003d0: 5112 9abd a23a d53d 768e 833d 5d66 2bba
000003e0: ba3a a93d e663 dfbc ca79 543e 8356 9e3d
000003f0: 42ca 75be 35af 05be 4e2b 993d b349 8b3d

encoder_c.convs.2.bias f4 [64]
0.0016993338 0.014486555 0.029141422 0.011288969 0.0093899835 0.0076666684 0.02908401 -0.04552826
-0.048059333 0.009231341 0.017245693 0.00064978603 -0.023650669 -0.01668358 0.023232192 -0.002371919
0.0022437354 -0.011590565 -0.011588039 0.008963729 -0.022341011 -0.04431032 0.009842052 0.013719229
0.02010979 -0.008679814 -0.012672827 -0.0201165 0.01063545 0.041680135 -0.011129232 -0.0009579628
-0.015839307 -0.016510868 0.015938561 0.019607954 0.016318487 0.0372701 -0.015848473 0.0030872598
-0.0301038 -0.005908592 -0.021408444 -0.01468044 -0.022501273 0.002966343 0.020907188 -0.009939179
-0.014902899 -0.01774793 0.0071834354 0.007749687 -0.04551647 0.16964994 -0.00052491913 0.009369697
-0.019402 0.023252944 -0.012246576 0.02581239 0.014381247 0.0019005964 0.019699592 -0.020898243
00000000: 2ebc de3a 0459 6d3c feb9 ee3c 5ef5 383c
00000010: 72d8 193c ad38 fb3b 9741 ee3c d77b 3abd
00000020: ddd9 44bd 0d3f 173c d746 8d3c 6756 2a3a
00000030: 0cbf c1bc 01ac 88bc 7051 be3c 3372 1bbb
00000040: a20b 133b 5ae6 3dbc c2db 3dbc 9bdc 123c
00000050: 7f04 b7bc bd7e 35bd 8f40 213c 9ec6 603c
00000060: 49bd a43c c735 0ebc b0a1 4fbc 5ccb a4bc
00000070: 4f40 2e3c cab8 2a3d 6257 36bc cc1f 7bba
00000080: 6fc1 81bc cd41 87bc 9691 823c dca0 a03c
00000090: 59ae 853c 88a8 183d a8d4 81bc a053 4a3b
000000a0: 3f9c f6bc dd9c c1bb c360 afbc 3a86 70bc
000000b0: 9754 b8bc fa66 423b 8d45 ab3c f0d7 22bc
000000c0: 4a2b 74bc 1b64 91bc 0663 eb3b 16f1 fd3b
000000d0: 7a6f 3abd b7b8 2d3e ba9a 09ba 5c83 193c
000000e0: f1f0 9ebc f57c be3c dda5 48bc 8174 d33c
000000f0: 529f 6b3c 6f1d f93a 0a61 a13c cb32 abbc

encoder_b.convs.0.weight f4 [116, 64]
0.0008216262 0.0053934334 -2.0586114e-13 0.07993171 0.0045814565 0.06962609 -0.041684102 -5.098432e-08
-0.03374588 -0.059861783 -0.08509912 0.050779726 1.3438325e-06 -0.0009245652 -0.012114572 0.011837702
-0.019970514 -0.13080715 -0.10666855 0.06898781 0.082543485 0.0014922596 -3.19748e-11 -8.266417e-05
-0.08902629 -0.024275413 -0.0023625325 -0.022775589 0.10263704 -0.086579144 0.03126424 0.026404727
-0.02092112 0.048908796 -0.0013084856 0.027188657 0.017533403 0.0852789 -0.013273085 0.07201404
0.014055717 0.029105997 1.4998408e-08 0.045172077 -0.058910865 0.037471134 -0.0881822 0.04979423
2.0927861e-15 0.06745808 0.013744163 0.034909282 -0.001334243 -0.00023236233 0.061861113 4.4917382e-05
0.07367402 0.012886691 0.084244505 -0.099262394 -9.7159344e-17 -0.08930209 -3.6619526e-15 0.016292829
0.113658495 -0.02085297 -9.419276e-13 0.08508647 0.0003856106 -0.039689865 -0.0069243377 -5.1366047e-08
0.03451912 0.09265061 -0.032882877 0.065304846 -1.0013541e-08 -0.0010333629 0.07530634 0.026069993
-0.010679734 0.09897408 0.040858295 -0.0017364979 -0.08637507 -0.0057336716 -5.8160975e-07 -1.225462e-06
-0.07822039 -0.06586103 -0.02244267 0.042047717 0.075972155 -0.06095132 -0.00900815 0.042972196
0.014019234 -0.008315932 0.015707718 0.0054526147 0.017797198 0.036142804 0.013099516 0.051527925
-0.01961692 -0.077809356 -8.94044e-06 -0.033836253 0.026898539 -0.0627814 -0.08193014 0.0071597435
-9.681859e-30 0.11115065 0.015773905 -0.06443876 -0.0007169347 -0.0009480844 0.050585434 -0.00023615031
-0.08977027 0.051788904 -0.051118724 0.074850574 -7.352809e-17 0.08909858 5.184618e-15 0.0004461075
-0.00399674 0.01401351 -2.1619316e-07 -0.05103088 -0.0024326728 -0.052608002 -0.0040514795 -2.2994129e-07
0.01711515 -0.029064909 0.037544683 0.061825715 4.4722266e-09 -0.00076316093 -0.013710638 -0.023164447
0.01949895 -0.009061701 0.057708215 0.06973798 0.018192116 -0.009179588 1.9398925e-11 -1.3006371e-06
0.014388249 -0.05083269 0.061388776 0.034474872 -0.06776038 -0.019364784 -0.015941387 0.0044683586
0.055314735 0.06173803 0.03628007 0.010039538 0.0038410183 0.047391735 -0.013436537 0.059031658
-0.014978267 0.13109118 -2.7936779e-27 0.031916395 0.006215928 0.062882856 -0.06549041 0.025189886
-1.0561275e-34 -0.05870954 -0.0005159305 0.106077865 -0.001307713 0.00014375463 0.0077217733 -2.7395277e-05
0.036399327 -0.003192174 -0.07976518 0.021038959 3.5120179e-25 -0.049936008 -4.675759e-10 0.002862633
-0.0246295 0.0028955785 4.555408e-27 0.05150878 -0.0020433425 -0.08487569 -0.009432564 -2.902317e-07
-0.009638299 -0.04960276 0.0019852282 0.018237693 3.7034532e-08 -0.0008777808 0.014111277 0.024289047
0.005159136 -0.096943446 0.05273449 -0.06517623 0.07599025 -0.004376185 -4.1707764e-07 -3.0901617e-06
0.05319616 0.06295754 -0.07343921 0.0075546387 0.06142199 -0.029722616 0.02736922 0.07023751
-0.022610722 0.07301967 0.04135467 -0.003394548 0.00686867 -0.025361078 -0.026806457 0.059655212
-0.005460704 -0.059923016 -1.16235906e-29 -0.025260836 -0.004570118 -0.044200134 -0.04297782 0.036219966
9.6839825e-27 0.107940964 -0.0008122938 -0.019373255 6.6274515e-05 0.0013880042 0.0727175 -4.0036364e-05
0.015374437 -0.012939132 0.11473109 -0.085258126 -7.2985884e-17 0.06771179 -8.261925e-15 0.00680318
00000000: 6762 573a 66bb b03b 6fc7 67aa 3db3 a33d
00000010: 0b20 963b 2098 8e3d f3bc 2abd daf9 5ab3
00000020: 1f39 0abd a131 75bd 7348 aebd 67fe 4f3d
00000030: bc5d b435 855e 72ba 337c 46bc ecf2 413c
00000040: 3499 a3bc 4ff2 05be 0a75 dabd 7b49 8d3d
00000050: 8f0c a93d ec97 c33a 6da0 0cae fd5b adb8
00000060: 6a53 b6bd 3bdd c6bc b8d4 1abb df93 babc
00000070: 5e33 d23d 6850 b1bd ef0e 003d ba4e d83c
00000080: c562 abbc 9754 483d 7e81 abba bfba de3c
00000090: 36a2 8f3c b4a6 ae3d 5a77 59bc 197c 933d
000000a0: f349 663c b36f ee3c d9d5 8032 5b06 393d
000000b0: 854c 71bd 557b 193d df98 b4bd 09f5 4b3d
000000c0: 17cd 1627 7627 8a3d 332f 613c 09fd 0e3d
000000d0: c4e1 aeba 4aa6 73b9 1462 7d3d ac65 3c38
000000e0: 68e2 963d b322 533c 6288 ac3d 154a cbbd
000000f0: c108 e0a4 04e4 b6bd 8def 83a7 8a78 853c
00000100: c9c5 e83d d9d3 aabc 8590 84ab d141 ae3d
00000110: c72b ca39 d791 22bd 8ee5 e2bb 919d 5cb3
00000120: ec63 0d3d 9abf bd3d 32b0 06bd 8cbe 853d
00000130: 0508 2cb2 e871 87ba 363a 9a3d bd90 d53c
00000140: 0dfa 2ebc ecb2 ca3d 075b 273d 339b e3ba
00000150: 6ae5 b0bd 86e1 bbbb eb1f 1cb5 8e7a a4b5
00000160: 0332 a0bd 26e2 86bd b1d9 b7bc 3a3a 2c3d
00000170: 4a97 9b3d 17a8 79bd eb96 13bc 9d03 303d
00000180: eeb0 653c 8c3f 08bc 79ad 803c d9ab b23b
00000190: 6ecb 913c 7a0a 143d 5a9f 563c f20e 533d
000001a0: aab3 a0bc 835a 9fbd e6fe 15b7 e297 0abd
000001b0: 535a dc3c 8993 80bd fdca a7bd 489c ea3b
000001c0: 165f 448f f4a2 e33d 4738 813c 78f8 83bd
000001d0: acf0 3bba de88 78ba ac32 4f3d 1e9f 77b9
000001e0: 7ad9 b7bd 9a20 543d de61 51bd 424b 993d
000001f0: 538b a9a4 5179 b63d a9cb ba27 89e3 e939
00000200: 16f7 82bb ec98 653c b922 68b4 c205 51bd
00000210: 7a6d 1fbb 7d7b 57bd 46c2 84bb c8e5 76b4
00000220: 1235 8c3c 8819 eebc 74c8 193d f63c 7d3d
00000230: 1faa 9931 dd0e 48ba 95a2 60bc 5ec3 bdbc
00000240: 43bc 9f3c 8777 14bc 735f 6c3d c9d2 8e3d
00000250: a207 953c fc65 16bc 7fa2 aa2d 8d91 aeb5
00000260: b1bc 6b3c f035 50bd cc72 7b3d 8635 0d3d
00000270: f4c5 8abd e5a2 9ebc 8397 82bc 4f6b 923b
00000280: b491 623d 04e1 7c3d 699a 143d e07c 243c
00000290: 98b9 7b3b d61d 423d ec24 5cbc 2ecb 713d
000002a0: 6867 75bc c43c 063e 8556 5d93 c4ba 023d
000002b0: fcae cb3b bac8 803d d61f 86bd 055b ce3c
000002c0: 2862 0c87 6a79 70bd 823f 07ba 5a3f d93d
000002d0: 9167 abba d7bc 1639 ee06 fd3b e9ce e5b7
000002e0: 7617 153d cb33 51bb ed5b a3bd e559 ac3c
000002f0: 2562 d916 b389 4cbd bb86 00b0 039b 3b3b
00000300: cec3 c9bc bfc3 3d3b 5375 b413 dffa 523d
00000310: 99e9 05bb 4ed3 adbd 0a8b 1abc 24d1 9bb4
00000320: f5e9 1dbc 432c 4bbd 9a1a 023b 3767 953c
00000330: e60f 1f33 df1a 66ba fc32 673c d3f9 c63c
00000340: f80d a93b 498a c6bd 1f00 583d 1e7b 85bd
00000350: c7a0 9b3d 1a66 8fbb b7ea dfb4 9360 4fb6
00000360: 37e4 593d e2ef 803d 4c67 96bd e78c f73b
00000370: a095 7b3d d87c f3bc 6a35 e03c afd8 8f3d
00000380: 1f3a b9bc 568b 953d 8463 293d 1177 5ebb
00000390: 9512 e13b 09c2 cfbc 3799 dbbc 0659 743d
000003a0: b5ef b2bb d671 75bd 22c1 6b8f d0ef cebc
000003b0: eec0 95bb 330b 35bd 8309 30bd 635b 143d
000003c0: a0cf 3f14 2710 dd3d 1df0 54ba a9b4 9ebc
000003d0: dcfc 8a38 b1ed b53a eaec 943d b8ec 27b8
000003e0: 10e5 7b3c a7fe 53bc 22f8 ea3d d09b aebd
000003f0: 434b a8a4 7bac 8a3d 67d5 14a8 36ed de3b

encoder_b.convs.0.bias f4 [64]
0.029385868 0.0032085474 -0.020242844 0.006027529 0.005291467 0.0040962524 0.015214169 -0.0019704276
-0.0001166716 0.022361461 0.0374193 -0.011748385 -0.005471883 0.014220626 0.03527942 -0.031733796
-0.01583438 0.023330094 0.00027175248 -0.02019281 0.026510784 -0.013606965 -0.00037501834 -0.011074425
0.0034367891 -0.011306903 0.005779581 0.008374217 0.044289906 -0.00958584 0.008289624 0.0063798134
-0.0005274132 0.014663838 0.03201293 -0.010354926 0.014942194 0.034059934 -0.0017364105 0.0015597508
0.006155538 0.016534848 -0.014571971 -0.02379278 -0.028664362 0.023936503 0.032713242 0.034687728
-0.020466758 0.010182945 0.04198626 0.03904091 0.0064161792 -0.023110425 0.030705854 -0.013408893
0.017243749 -0.01666323 0.015786313 -0.00713045 -0.02298485 0.005253293 -0.0043018707 0.0028750922
00000000: a2ba f03c 7e46 523b 52d4 a5bc 9482 c53b
00000010: 0b64 ad3b db39 863b da44 793c 4a22 01bb
00000020: 97ad f4b8 622f b73c fb44 193d 4c7c 40bc
00000030: 7b4d b3bb a1fd 683c 2781 103d 4cfb 01bd
00000040: 1ab7 81bc c11e bf3c 007a 8e39 646b a5bc
00000050: 252d d93c bfef 5ebc 1c9e c4b9 8171 35bc
00000060: c13b 613b 9740 39bc a462 bd3b 0334 093c
00000070: 5569 353d ed0d 1dbc 34d1 073c c10d d13b
00000080: 1a42 0aba 9840 703c fd1f 033d b5a7 29bc
00000090: 1bd0 743c 6e82 0b3d 4598 e3ba 8d70 cc3a
000000a0: 65b4 c93b 1774 873c 47bf 6ebc 13e9 c2bc
000000b0: 86d1 eabc 7c16 c43c 52fe 053d b814 0e3d
000000c0: e7a9 a7bc 5ed6 263c c9f9 2b3d 5ce9 1f3d
000000d0: d03e d23b 1352 bdbc d88a fb3c f9b0 5bbc
000000e0: c342 8d3c 5381 88bc 4c52 813c 8da6 e9bb
000000f0: b94a bcbc d123 ac3b b5f6 8cbb 0b6c 3c3b

encoder_b.convs.1.weight f4 [64, 64]
-0.08846601 -0.00031865295 0.0042242915 -0.0010852244 -0.00019750877 -0.075805835 0.04212636 0.0852735
0.04606127 0.0046441304 -0.11259109 0.14274043 0.1716072 0.08947507 -0.0005610925 1.6994302e-19
-0.0087776445 0.13774727 0.049226034 -1.6403822e-06 0.11348207 0.020514816 -0.0090837525 -0.019744944
0.07667138 0.03171632 0.016583545 -3.3455542e-08 0.04502111 0.048571605 -2.0758911e-05 3.0479805e-05
-0.0122351255 -4.828274e-08 2.9536423e-17 1.1998581e-14 -0.09288149 -6.9106336e-06 1.4303743e-08 -1.7537309e-06
-4.0012925e-14 0.037084546 -0.1480831 0.0036595082 0.10723824 0.06093318 0.1897853 -4.752956e-06
0.022022458 -0.08221464 0.008297548 0.050806414 0.03511151 0.15767667 0.099031396 0.06268305
0.16465442 0.0505218 0.044138663 -0.043444768 -0.02361861 -8.551519e-05 -0.087943345 0.15108132
-0.0028909908 0.01200736 -0.0058593582 2.0935271e-20 -6.367715e-33 0.00878811 0.0013582766 -0.008014316
0.011469404 -0.0026248205 -0.00065436534 0.008651672 -0.0019525129 -0.0060957093 3.5997008e-09 -2.2396605e-16
1.0729408e-11 0.009249942 -0.0027055638 4.2109176e-21 0.0070213634 -2.3588313e-05 -0.0020123108 0.0038662753
0.007326736 0.023480283 0.005679104 1.6028842e-29 -0.008489376 0.010060282 4.765625e-24 -1.4835024e-17
1.4991104e-10 -7.0777737e-12 -2.3239152e-06 5.518221e-39 -0.00073566684 1.8694582e-16 1.0646373e-11 8.440881e-05
-2.525579e-05 -0.005219326 0.019025473 -4.930404e-05 0.00049972336 0.0053383126 -0.0040271054 7.759182e-07
-0.003871537 0.0039034334 -0.0030195971 -0.0022665297 0.0032716533 0.01498579 -0.0029808222 -0.0005831368
0.0051580896 0.0032244371 0.010401195 -0.0031548894 0.00860186 -1.3092562e-15 -0.006295289 0.0007945805
-2.4624256e-05 6.093269e-08 -1.7339308e-15 -1.3974e-41 2.2e-42 -1.16e-42 -1.0188335e-17 1.4243e-41
-2.8063986e-26 -0.00010717801 6.976864e-13 -1.7962e-41 9.2887706e-07 -5.7961106e-06 -3.7657308e-11 2.9930425e-32
3.8040354e-36 5.3887303e-05 1.3443e-41 -8.918612e-08 2.4501694e-11 -1.2937324e-08 3.2208034e-09 -4.6204237e-05
-6.233703e-08 1.0613452e-09 3.793602e-05 4.434e-42 1.391861e-39 -1.1554e-41 -0.0001019406 -2.0711262e-07
-1.4358e-41 -4.481e-42 4.0246366e-08 -1.38728665e-05 6.811612e-05 -1.1363357e-21 5.623e-42 -0.000105350955
-3.9686e-41 4.2861863e-11 -5.7743105e-06 1.8393963e-31 3.392045e-31 -6.300613e-06 -2.93896e-40 -1.4580139e-05
1.6531e-41 -2.203113e-09 -3.4413633e-29 2.339672e-28 -2.8394172e-17 1.2586402e-19 -5.7165284e-19 7.548228e-06
1.1836461e-36 -4.959313e-10 -0.0001117883 -2.8553413e-06 9.1781885e-21 4.261963e-05 1.0043051e-12 -3.8113129e-35
0.020866755 0.0029267725 0.007679876 -0.00011554201 -6.8779457e-07 -0.02105062 -0.0044724713 -0.045652162
0.018674625 0.08230303 0.012314172 -0.038493726 0.048591472 0.09017782 1.8308813e-07 2.5497627e-06
0.00019814582 -0.114091635 0.0028505719 2.0294133e-37 -0.01810239 0.00017527155 0.019390479 -0.013260305
-0.040945914 -0.1016687 -0.016299527 -0.00012650702 0.013834618 -0.041923475 -4.290958e-09 -7.3917783e-10
0.0015536523 -0.00013871737 1.985795e-12 -5.446142e-12 0.031603485 -9.1667235e-10 -1.175896e-18 -3.4566787e-05
-1.2271719e-05 0.026843045 -0.08643281 0.00016180341 -0.04596448 -0.0057808757 0.07678557 8.566651e-05
0.025051892 0.025194574 0.09377848 0.010416331 -0.056359287 0.011329324 0.11673895 -0.007409907
0.032006275 -0.106996335 -0.021050733 0.05897385 -0.022446385 1.6376844e-10 0.04585419 0.0058080014
00000000: ab2d b5bd e010 a7b9 ed6b 8a3b 173e 8eba
00000010: 5b1a 4fb9 1740 9bbd b18c 2c3d dfa3 ae3d
00000020: beaa 3c3d ca2d 983b 2896 e6bd 8c2a 123e
00000030: ccb9 2f3e b53e b73d 4816 13ba 20a2 4820
00000040: 1cd0 0fbc 9f0d 0d3e 3da1 493d 1a2b dcb5
00000050: 4a69 e83d b00e a83c 05d4 14bc 26c0 a1bc
00000060: e205 9d3d f9e8 013d 37da 873c c2b0 0fb3
00000070: 0e68 383d 05f3 463d 6c23 aeb7 e2ae ff37
00000080: d675 48bc 6f5f 4fb3 7436 0824 b025 5828
00000090: a738 bebd e4e1 e7b6 87bc 7532 bc61 ebb5
000000a0: c333 34a9 f7e5 173d 19a3 17be 5cd4 6f3b
000000b0: b99f db3d 1295 793d 1457 423e 957b 9fb6
000000c0: 7168 b43c 2660 a8bd 70f2 073c 631a 503d
000000d0: 16d1 0f3d fe75 213e f9d0 ca3d f95f 803d
000000e0: 2b9b 283e f2ef 4e3d beca 343d 24f3 31bd
000000f0: d17b c1bc 9e56 b3b8 a41b b4bd 10b5 1a3e
00000100: c776 3dbb 85ba 443c dcff bfbb 61ba c51e
00000110: 9540 048a 01fc 0f3c 3308 b23a 7a4e 03bc
00000120: 2bea 3b3c 2e05 2cbb b789 2bba bebf 0d3c
00000130: 76eb ffba 84be c7bb 9b5e 7731 8e1b 81a5
00000140: f5c0 3c2d 128d 173c d44f 31bb 7f15 9f1d
00000150: 7713 e63b 84df c5b7 f9e0 03bb 5661 7d3b
00000160: 1e15 f03b b959 c03c c717 ba3b 418d a20f
00000170: 0617 0bbc e2d3 243c 775c b818 36d4 88a3
00000180: 35d4 242f eb06 f9ac 8ff4 1bb6 8e16 3c00
00000190: c4d9 40ba ab88 5725 004b 3b2d a304 b138
000001a0: 65dc d3b7 e106 abbb 4fdb 9b3c cfcb 4eb8
000001b0: deff 023a 03ed ae3b cff5 83bb b148 5035
000001c0: 9db9 7dbb bfd0 7f3b 6fe4 45bb 0f8a 14bb
000001d0: 3c69 563b f586 753c e659 43bb a6dd 18ba
000001e0: 3105 a93b 1451 533b c669 2a3c 43c2 4ebb
000001f0: d1ee 0c3c 07af bca6 b648 cebb 654b 503a
00000200: 3090 ceb7 1ada 8233 c1e2 f9a6 f426 0080
00000210: 2206 0000 3c03 0080 0df1 3ba3 b427 0000
00000220: 54f7 0a95 c2c4 e0b8 9a61 442b 1232 0080
00000230: f257 7935 367c c2b6 5c9e 25ae 5c68 1b0b
00000240: 47ce a104 0d05 6238 7925 0000 9786 bfb3
00000250: e984 d72d f442 5eb2 f954 5d31 6ccb 41b8
00000260: 25de 85b3 c4de 9130 7e1d 1f38 5c0c 0000
00000270: f127 0f00 3520 0080 f1c8 d5b8 af62 5eb4
00000280: 0628 0080 7e0c 0080 59db 2c33 82bf 68b7
00000290: 90d9 8e38 dcb7 ab9c ad0f 0000 ddef dcb8
000002a0: a16e 0080 2b82 3c2e f3c0 c1b6 6dc4 6e0c
000002b0: 0428 dc0c db69 d3b6 4333 0380 389d 74b7
000002c0: 152e 0000 9365 17b1 737f 2e90 594b 9411
000002d0: ecf1 02a4 1198 1420 deb8 28a1 c946 fd36
000002e0: 0f63 c903 1052 08b0 e36f eab8 649e 3fb6
000002f0: ff5e 2d1e 7bc2 3238 e857 8d2b e7a4 4a86
00000300: c2f0 aa3c 18cf 3f3b 78a7 fb3b 254f f2b8
00000310: e2a0 38b5 5a72 acbc cf8d 92bb c3fd 3abd
00000320: 87fb 983c 7e8e a83d 62c1 493c 99ab 1dbd
00000330: da07 473d 26af b83d e296 4434 971c 2b36
00000340: 5dc5 4f39 e0a8 e9bd a9d0 3a3b 5e1d 8a02
00000350: 774b 94bc 19c9 3739 c8d8 9e3c c041 59bc
00000360: e7b6 27bd ae37 d0bd 9686 85bc f8a6 04b9
00000370: 98aa 623c f3b7 2bbd aa6f 93b1 042f 4bb0
00000380: eca3 cb3a a974 11b9 e7bc 0b2c 7c9e bfac
00000390: a872 013d 15f9 7bb0 1888 ada1 cefb 10b8
000003a0: a2e2 4db7 f2e5 db3c af03 b1bd c6a9 2939
000003b0: 4045 3cbd 806d bdbb c141 9d3d dba7 b338
000003c0: a039 cd3c da64 ce3c ef0e c03d 42a9 2a3c
000003d0: ffd8 66bd a19e 393c d514 ef3d cece f2bb
000003e0: 0319 033d e520 dbbd 9672 acbc 908e 713d
000003f0: 7be1 b7bc b810 342f 9ad1 3b3d 0c51 be3b

encoder_b.convs.1.bias f4 [64]
0.031493243 -0.008204398 0.0208841 -0.008602632 -0.006328483 -0.0108924555 -0.016222067 0.021972423
0.031198347 0.01810119 0.028687285 0.011282802 -0.016891532 0.03208443 -0.02177363 -0.00757629
-0.0030232817 0.03949293 0.020922806 -0.0015791298 -0.009761587 -0.023975601 0.0047631618 0.01649224
0.0073385295 0.0061095036 -0.013620854 -0.014353048 0.053501416 0.010828181 -0.015375172 -0.011638069
-0.016094696 -0.014047265 -0.0034222691 -0.0028776745 0.0039259447 -0.0014530167 -0.011802613 -0.00224471
-0.0075143534 0.018360687 -0.0033070387 0.015034301 0.032593023 0.009136264 0.016915381 0.00013851824
0.0132997595 0.008551538 0.024125285 0.008089565 0.026593396 0.042313516 0.012628886 0.0049172477
0.00019832193 0.02076774 -0.01016461 0.011941486 0.013083642 -0.008009684 0.08021813 0.043766193
00000000: 0fff 003d bd6b 06bc 2215 ab3c 0ef2 0cbc
00000010: 2a5f cfbb 4576 32bc 24e4 84bc 83ff b33c
00000020: ad93 ff3c f248 943c 9901 eb3c 80db 383c
00000030: 1c60 8abc f76a 033d 9d5e b2bc 8742 f8bb
00000040: 4022 46bb 57c3 213d 4e66 ab3c cefa ceba
00000050: 10ef 1fbc 7b68 c4bc 4c14 9c3b bc1a 873c
00000060: 0c78 f03b 3b32 c83b 012a 5fbc 0c29 6bbc
00000070: 4d24 5b3d af68 313c 25e8 7bbc 99ad 3ebc
00000080: 06d9 83bc 8026 66bc 2648 60bb 5e97 3cbb
00000090: 36a5 803b 2673 beba bf5f 41bc fc1b 13bb
000000a0: f73a f6bb 2769 963c e7ba 58bb 6e52 763c
000000b0: 4380 053d 45b0 153c 2092 8a3c 353f 1139
000000c0: 3ce7 593c c01b 0c3c 64a2 c53c 188a 043c
000000d0: 65da d93c f050 2d3d 63e9 4e3c dd20 a13b
000000e0: a3f4 4f39 1c21 aa3c 7789 26bc 39a6 433c
000000f0: c65c 563c 0d3b 03bc 6749 a43d 2e44 333d

encoder_b.convs.2.weight f4 [64, 64]
0.017902462 0.06316212 -0.041592166 0.044524007 0.018622734 0.029714178 -0.058194753 0.005236603
-0.028770944 0.028683549 0.045779653 -0.033443164 0.020788386 -0.01786937 0.038775977 -0.021482604
0.046985634 -0.014152092 -0.033951346 0.024878556 -0.00045905053 0.0014853651 0.118026435 -0.047813468
-0.039509095 0.021932708 0.05755401 -0.051834375 0.018318329 -0.06927655 0.046957903 0.038322814
-0.010842757 -0.028651336 0.020495012 -0.08970979 -0.04614574 -0.018689234 0.067354195 0.047187243
-0.0016160113 -0.01652257 -0.055128954 -0.016684089 0.03410518 0.033324182 0.026589882 -0.07549611
0.063778095 0.018712645 0.04749512 -0.024791237 -0.002531142 -0.0458277 -0.07357476 0.052004978
-0.028028116 0.03532719 -0.040717542 -0.036111824 0.0246382 -0.058535315 0.041621502 -0.030510426
-0.010416194 0.016983207 0.06226026 -0.019932717 0.07759516 -0.068730906 -0.01892503 -0.057119563
-0.061147477 0.051331434 0.018103728 0.015021966 -0.026153382 -0.030225534 -0.018595852 -0.028473807
0.03645995 -0.023159435 0.0563763 0.018877828 -0.007054454 0.13218448 -0.1448324 0.0472741
-0.024592642 -0.10696437 0.04819088 0.043114822 -0.1102436 0.103418104 -0.12913671 0.10225323
-0.09689555 0.05455043 0.008286366 0.092355825 0.044272095 -0.036193863 -0.011814785 -0.06182843
0.052856114 -0.09595138 -0.0454853 -0.10360599 -0.08743656 0.036255147 0.063693 -0.04083923
-0.0835657 0.046909746 -0.056916937 -0.010065508 0.07850497 0.10976295 0.06419521 0.05965341
-0.016924942 -0.02066492 0.004137463 -0.046310667 0.01596876 0.04638646 -0.1129706 0.019892152
0.0001820707 0.086651124 0.059279334 -0.06205319 0.11591036 -0.012276724 0.052954637 0.0063135154
0.0014574637 0.14422917 -0.047867496 0.13952154 0.003872612 -0.115469694 -0.04231512 0.07414845
-0.005982937 0.013531161 -0.12565757 0.09711783 0.06617975 -0.064446166 -0.10671993 0.07200332
-0.0037205622 -0.002572021 0.099746905 -0.03463852 0.07679776 0.024953399 0.12292699 -0.024824694
0.121261686 0.011012386 0.037292838 0.021426223 -0.01749222 -0.006045281 -0.115964934 -0.07939704
0.03883713 0.0036537221 -0.017975796 0.011803904 0.004192388 -0.011275271 0.07517649 -0.13931121
-0.012632634 0.08773214 0.14297618 0.11101145 -0.116986714 0.053905237 0.039330993 -0.013628657
0.01671668 -0.09210045 -0.09153267 -0.08155501 -0.10541043 0.072058804 -0.030044002 0.12777254
-6.5185134e-07 1.265482e-10 -5.752166e-17 1.0663512e-09 -1.8213673e-06 1.1210672e-13 2.2163436e-08 3.149594e-05
6.565875e-20 0.00010485993 1.4682501e-09 -1.1315221e-14 3.3204353e-19 8.9076174e-08 6.1027163e-06 8.712248e-06
4.8216766e-15 1.411715e-17 5.9142855e-09 3.7192824e-10 -1.7055239e-12 3.532965e-09 -3.706194e-12 5.9482086e-11
-3.4536747e-06 7.721338e-14 -4.385607e-12 -1.7031416e-20 4.0362001e-19 -7.157987e-08 -2.0305873e-07 2.163282e-08
-1.5510809e-18 -2.4459178e-12 -1.9023303e-06 -6.316931e-19 1.8072071e-14 1.1552654e-05 4.298238e-11 2.885082e-13
5.0373734e-07 1.978084e-08 0.00013273548 -1.1024259e-10 -6.2553944e-09 1.8755488e-06 -2.2704796e-11 -3.126437e-12
-2.1432215e-06 -5.1514253e-06 8.459531e-05 0.00015934509 5.8472364e-20 -7.429546e-07 0.00011456364 -3.1367278e-13
-1.5966649e-18 -1.1837564e-06 -2.254049e-20 -1.3757394e-06 3.9612193e-20 3.6424993e-08 6.216532e-13 -1.4161217e-18
00000000: 2fa8 923c 245b 813d 8c5c 2abd ce5e 363d
00000010: b48e 983c 266b f33c 9f5d 6ebd cf97 ab3b
00000020: 0bb1 ebbc c3f9 ea3c 7283 3b3d b3fb 08bd
00000030: 684c aa3c c962 92bc 8fd3 1e3d 49fc afbc
00000040: 0274 403d 2dde 67bc 9110 0bbd 1dce cb3c
00000050: b8ac f0b9 95b0 c23a d8b7 f13d 0ed8 43bd
00000060: 4ad4 21bd 39ac b33c c1bd 6b3d 4850 54bd
00000070: 5210 963c dde0 8dbd ee56 403d 62f8 1c3d
00000080: d2a5 31bc 35b6 eabc 28e5 a73c c4b9 b7bd
00000090: 5103 3dbd 2a1a 99bc fff0 893d 6947 413d
000000a0: 57d0 d3ba 575a 87bc e6ce 61bd 12ad 88bc
000000b0: e0b1 0b3d f07e 083d 06d3 d93c b49d 9abd
000000c0: 179e 823d 434b 993c 3e8a 423d fe16 cbbc
000000d0: 84e1 25bb d4b5 3bbd 5dae 96bd 2c03 553d
000000e0: 389b e5bc 3eb3 103d 70c7 26bd fee9 13bd
000000f0: 0dd6 c93c bac2 6fbd 4f7b 2a3d 00f1 f9bc
00000100: afa8 2abc 5e20 8b3c 9d04 7f3d f049 a3bc
00000110: 36ea 9e3d cac2 8cbd aa08 9bbc 34f6 69bd
00000120: c775 7abd e940 523d 454e 943c b11e 763c
00000130: 9e3f d6bc 8a9b f7bc 5456 98bc e741 e9bc
00000140: 0757 153d dbb8 bdbc d6ea 663d ada5 9a3c
00000150: 0d29 e7bb 5e5b 073e f24e 14be 7da2 413d
00000160: 8276 c9bc 2310 dbbd cd63 453d 2b99 303d
00000170: 66c7 e1bd dfcc d33d 6a3c 04be 246a d13d
00000180: 2d71 c6bd 4670 5f3d 8ac3 073c 0d25 bd3d
00000190: a856 353d 0440 14bd cd92 41bc cf3f 7dbd
000001a0: a77f 583d 2882 c4bd cb4e 3abd 612f d4bd
000001b0: f011 b3bd 4780 143d 7a71 823d 0947 27bd
000001c0: 7e24 abbd 6f24 403d bc21 69bd cde9 24bc
000001d0: 37c7 a03d 66cb e03d c778 833d 2257 743d
000001e0: 2da6 8abc 7a49 a9bc 8e93 873b 41b0 3dbd
000001f0: ebd0 823c bbff 3d3d 215d e7bd def4 a23c
00000200: 3bea 3e39 2576 b13d e3ce 723d 7c2b 7ebd
00000210: 6962 ed3d 5024 49bc f6e6 583d 9be1 ce3b
00000220: 5e08 bf3a d0b0 133e b510 44bd bcde 0e3e
00000230: a6cb 7d3b 607b ecbd 9f52 2dbd 24db 973d
00000240: 830c c4bb cdb1 5d3c 61ac 00be b6e5 c63d
00000250: 4089 873d 5afc 83bd fb8f dabd 7a76 933d
00000260: add4 73bb 5a8f 28bb 1b48 cc3d 1fe1 0dbd
00000270: 2548 9d3d 126b cc3c 25c1 fb3d 285d cbbc
00000280: 0c58 f83d 4b6d 343c 60c0 183d 0c86 af3c
00000290: d84b 8fbc 7e17 c6bb 067f edbd ea9a a2bd
000002a0: af13 1f3d 4973 6f3b fa41 93bc 2965 413c
000002b0: 4d60 893b eabb 38bc 22f6 993d 99a7 0ebe
000002c0: 1bf9 4ebc e9ac b33d 5968 123e f959 e33d
000002d0: bb96 efbd bdcb 5c3d 8919 213d bb4a 5fbc
000002e0: 6bf1 883c 299f bcbd 7b75 bbbd 5006 a7bd
000002f0: 6ce1 d7bd 9193 933d d71e f6bc ced6 023e
00000300: e2fa 2eb5 2724 0b2f cba2 84a4 e68e 9230
00000310: b475 f4b5 2071 fc29 e961 be32 821a 0438
00000320: 4708 9b1f 3fe8 db38 75cb c930 3fd6 4ba8
00000330: 0001 c420 254a bf33 efc5 cc36 d22a 1237
00000340: 1eb8 ad27 2e35 8223 9b36 cb31 3f78 cc2f
00000350: f907 f0ab 94c8 7231 6e66 82ac 70cd 822e
00000360: aec5 67b6 7cde ad29 094e 9aac 70db a09e
00000370: 5541 ee20 73b7 99b3 5c08 5ab4 13d3 b932
00000380: 2ee6 e4a1 bd1d 2cac 9253 ffb5 6271 3aa1
00000390: 5cc7 a228 45d2 4137 dc09 3d2e 6a6a a22a
000003a0: 9138 0735 87ea a932 e92e 0b39 106d f2ae
000003b0: 08ef d6b1 5ebb fb35 a8b6 c7ad e200 5cac
000003c0: 44d4 0fb6 68da acb6 c368 b138 df15 2739
000003d0: 6010 8a1f 746f 47b5 e341 f038 0395 b0aa
000003e0: 4ba0 eba1 8fe1 9eb5 90e3 d49e 0ca6 b8b5
000003f0: 3410 3b1f b471 1c33 d5fa 2e2b 91fb d0a1

encoder_b.convs.2.bias f4 [64]
0.008897509 0.040936522 0.036663435 0.019918581 0.0038355696 0.04021064 -0.030860845 -0.03630331
0.00934832 0.010083174 -0.020536104 -0.0205726 0.025724253 -0.040333252 -0.026943058 0.022030093
-0.008263919 -0.003072272 0.013333207 0.05397441 -0.0037926373 -0.016199157 0.03106418 0.031434704
0.009638825 -0.01399356 -0.03278922 -0.010621642 0.032464527 0.01727063 0.022056842 0.029199867
0.015994735 -0.01799218 0.03937166 -0.009400707 -0.0159324 -0.00932379 0.045476053 -0.022906547
-0.03813113 0.019643014 -0.04885704 0.0038182125 -0.00901019 -0.024439668 0.031110652 0.010520804
0.012721089 0.025259946 0.026428528 -0.026394166 0.007966781 0.036048397 -0.03560364 -0.014158828
-0.046898384 -0.014279592 -0.010959162 -0.022127435 0.011421715 0.021316418 0.014141429 0.01682599
00000000: dcc6 113c 0ead 273d 662c 163d 4b2c a33c
00000010: 2e5e 7b3b e9b3 243d e2cf fcbc c8b2 14bd
00000020: b229 193c e633 253c 553b a8bc df87 a8bc
00000030: abbb d23c 7b34 25bd b0b7 dcbc 7478 b43c
00000040: 6365 07bc 2c58 49bb 8673 5a3c 4514 5d3d
00000050: e58d 78bb 18b4 84bc 4f7a fe3c adc1 003d
00000060: 2aec 1d3c 3f45 65bc fd4d 06bd 6506 2ebc
00000070: 86f9 043d 237b 8d3c 8db0 b43c 8f34 ef3c
00000080: 6407 833c 5664 93bc 2e44 213d 6c05 1abc
00000090: aa84 82bc cfc2 18bc 1945 3a3d 83a6 bbbc
000000a0: 632f 1cbd 63ea a03c 521e 48bd fa3a 7a3b
000000b0: 7a9f 13bc b335 c8bc c4db fe3c 735f 2c3c
000000c0: 1d6c 503c f2ed ce3c a480 d83c 9438 d8bc
000000d0: 1a87 023c 7ca7 133d 1fd5 11bd 6efa 67bc
000000e0: 8518 40bd f3f4 69bc 0f8e 33bc 9844 b5bc
000000f0: 2522 3b3c c59f ae3c 74b1 673c a9d6 893c
