results/ADHD_3x5fold_seed0/fold4_rep1_seed1004/ckpt_best_fold_4.pt (torch, 660350 bytes, 72 tensors)

encoder_c.convs.0.weight f4 [116, 64]
000000 91 fa 8a 3d e8 be 45 bc 2a c3 4c bc 26 33 5c 3d
       0.06786073 -0.012069441 -0.012497703 0.053759716
000010 46 0a 05 be f3 b9 07 be f4 03 d9 bd a9 e0 95 3d
       -0.129922 -0.13254528 -0.10596457 0.07318241
000020 02 50 a4 bc 55 39 10 3c 9a 82 3b 3c a1 1d 82 bc
       -0.020057682 0.0088027315 0.011444712 -0.015883269
000030 fc e4 33 3b 52 ed 00 3d b0 14 b5 bd 8c 90 d1 bd
       0.0027449718 0.031476326 -0.088418365 -0.10232648
000040 89 fd e9 3c 38 37 ba bc 28 8a ae bc 3d 64 62 3d
       0.028563278 -0.022731408 -0.021306112 0.055271376
000050 f7 0e 48 3d a7 a8 8c 3d c8 3d 23 be cb 08 08 3e
       0.048842397 0.068681054 -0.15941536 0.13284604
000060 4c 1b d0 3c b4 15 48 3e 62 38 ca bd c0 99 ba bd
       0.025403641 0.19539529 -0.098740354 -0.09111357
000070 94 77 8c bd f6 6f 0e be 6a 61 55 3d 52 9b 6f bd
       -0.06858745 -0.13909897 0.052094854 -0.058497734
000080 56 40 f8 bd d6 da 76 bd aa 42 9c 3d b9 8c 4a bd
       -0.12121646 -0.060267292 0.07629903 -0.04945061
000090 0a e3 e9 3c fc 87 d5 bd 82 80 a5 bd 29 f0 2e 3e
       0.028550643 -0.104263276 -0.080811515 0.17083801
0000a0 43 b5 04 be 51 37 06 be 38 5e bb 3d 62 70 11 be
       -0.12959771 -0.13107039 0.0914883 -0.14203027
0000b0 fc da 17 3e 30 1e 45 3e dc e9 76 3c f7 f9 90 bd
       0.1482963 0.19249797 0.015070405 -0.07078927
0000c0 ac dd 8a bd f1 40 27 3b 18 e2 c6 3d 4f 60 df 3d
       -0.06780562 0.0025520886 0.09711093 0.10907041
0000d0 26 d0 14 bc 0c 8d 14 be 3e 8c 9c 3d 3a 1e 7d 3d
       -0.00908283 -0.1450693 0.076439366 0.061796404
0000e0 1a 8e 03 3d 13 7b 3e be 4e 1a 15 3e b6 9c 85 3d
       0.03211794 -0.18601637 0.14560816 0.06524031
0000f0 d0 37 1d 3d d4 5f 4b b9 03 77 28 3e 1f ee 56 3d
       0.038383305 -0.00019395287 0.1645165 0.052473184
000100 f0 ce 37 bd f1 4b 1b 3e 5e 8a ca 3d 30 51 b6 bd
       -0.044875085 0.15165688 0.09889673 -0.08902204
000110 07 d5 04 be 48 3c 9e bd a7 67 8c bc c8 8d 66 3d
       -0.12971888 -0.077263415 -0.017139269 0.056287557
000120 eb a8 ae bd 62 0b a7 3d 88 d2 e2 3c 8a 54 a2 bd
       -0.08528312 0.08156468 0.02768828 -0.07926281
000130 01 8c 92 3c 65 9f 24 bd 3e 90 d4 bd e0 9b 8f 3d
       0.017889025 -0.040191073 -0.103790745 0.07012153
000140 06 89 c2 3b 34 63 69 3d c4 13 cc 3d 6f c9 3b bd
       0.0059367446 0.056979373 0.099647075 -0.0458464
000150 1f c0 4c bd fc 74 c7 3d eb 3c 8b 3c d1 0f b5 bd
       -0.04998791 0.0973911 0.016996821 -0.08840907
000160 08 98 9b 3d d0 ce 3c bd d9 7a aa 3d 59 1b 81 bd
       0.07597357 -0.04609567 0.083242126 -0.06304044
000170 aa e3 60 3e b7 f2 00 be 4b b9 20 be 75 e4 a9 3d
       0.21961847 -0.12592588 -0.15695684 0.08295528
000180 db 11 30 bd 86 c6 09 be e5 7c f5 3d c7 5d f2 bc
       -0.04298578 -0.13454637 0.11986712 -0.029585732
000190 33 8c 86 3d 6d 84 72 bd fd 43 82 3d 06 53 4e 3e
       0.0656971 -0.059208322 0.06360624 0.20148858
0001a0 52 7f af 3d 48 2c 53 3d fe 31 65 3e 37 46 98 3d
       0.08569206 0.0515559 0.22382352 0.074352674
0001b0 be 91 d3 3d c3 aa 6c 3e ce 72 36 3d e5 6b f9 3d
       0.103305325 0.23112015 0.04454308 0.121787824
0001c0 fe 5a 3d 3e 04 ac 1f be 4a e3 a5 3d 18 87 9e bc
       0.18491742 -0.15592963 0.080999926 -0.019351527
0001d0 e0 84 22 be 21 7a 38 3d d4 19 d8 3d a2 26 ea bd
       -0.15871 0.045038346 0.10551801 -0.1143315
0001e0 e4 ff 96 3d fa a9 98 3c 53 3a 56 3c 9f 46 01 3d
       0.07373026 0.018635739 0.013075429 0.03156149
0001f0 0e 3c a6 bd ba 2f bf bd 75 1b 67 bc 70 4d f0 bd
       -0.08116923 -0.09335275 -0.014105667 -0.1173352
000200 d6 ac a7 3d 14 a1 6f bc 21 8c 67 3b 97 97 14 3d
       0.08187263 -0.014625806 0.0035331326 0.03627738
000210 37 43 3a bd 16 9a 5c bd 33 ac d1 3d a9 45 b8 bd
       -0.045474257 -0.053857885 0.102379225 -0.089976616
000220 ed ea f3 3d 5a 3a 80 3d 21 0f a5 3b 85 ab 4a 3c
       0.11910043 0.0626113 0.005037204 0.012369995
000230 92 f6 9f bd fa a0 8e 3d 51 73 f9 bc cf 02 1c be
       -0.078107014 0.069642976 -0.030450495 -0.15235446
000240 a0 3a 23 be 79 bb 97 bd f1 27 02 bd 29 a2 9d 3d
       -0.15940332 -0.074088044 -0.031776372 0.07696945
000250 27 3a 5b bd c0 41 88 bd 1a 42 ec 3c e7 4d 22 bd
       -0.053522255 -0.06653166 0.028840113 -0.039625075
000260 9e 53 c2 3d 29 1e a1 bd fe 47 c1 3d ec 73 d3 bd
       0.09488605 -0.07867081 0.094375595 -0.10324845
000270 37 85 04 3d a3 fd bb bd 74 00 05 be 7b 07 94 bc
       0.032353606 -0.09179237 -0.12988454 -0.018069973
000280 b8 b9 29 be 29 66 dc 3d 7a b2 86 3d b9 d8 c4 3c
       -0.16574752 0.10761673 0.065770105 0.024029123
000290 63 cd b2 bc 99 93 aa 3c 61 71 aa 3c a0 c2 c9 3d
       -0.021826452 0.020822333 0.020806016 0.09851575
0002a0 1b b2 ad 3d 36 e3 95 3b c5 20 a1 bd ee 09 14 be
       0.084812365 0.004574205 -0.078675784 -0.14456913
0002b0 bf 26 f3 bc d2 7b b5 3c 4c e0 f3 3d c2 b6 32 3e
       -0.029681562 0.022153769 0.119080156 0.17452529
0002c0 44 0c 0d bd fc 97 84 bd 57 0e 79 bd 79 23 2e 3e
       -0.034435526 -0.06474301 -0.06080469 0.17005719
0002d0 bb 21 fd 3d c1 23 08 bc 79 6f fe 3d 29 e5 73 bd
       0.12359949 -0.008309306 0.124236055 -0.059544716
0002e0 bf 6f 7f 3d bf 6d 57 bd aa 60 49 bd 85 c7 eb 3c
       0.06236243 -0.052594896 -0.04916445 0.028781662
0002f0 2f d1 59 bd 81 97 14 3e b8 2e 8a 3d e8 ae 8c 3c
       -0.05317801 0.14510919 0.06747192 0.017173246
000300 eb 46 84 3d 6d 41 d9 3c d7 05 2e 3d fb 68 2e 3d
       0.06458839 0.026520455 0.042486038 0.042580586
000310 5f eb 06 3d 2d 61 66 bd f9 96 6f bd 47 34 07 3d
       0.03293931 -0.056245018 -0.058493588 0.03300884
000320 2e ae 20 be 13 70 c4 3d 73 cb 8e 3c b4 6f cf 3d
       -0.15691444 0.09591689 0.017430997 0.101287276
000330 9c ac a3 bd bd 5c bc 3d 7a c3 f2 3d f8 6e 00 be
       -0.07991907 0.09197376 0.118536904 -0.12542331
000340 21 d1 83 bd 52 44 8c 3d 62 9c 7b bd a0 d5 97 3c
       -0.064363725 0.068489686 -0.061428435 0.018534482
000350 fe 00 f8 3c b2 33 e7 3d 57 bf d5 bc 64 85 f2 bc
       0.03027391 0.11289157 -0.026092215 -0.029604621
000360 c7 99 12 3e 70 75 80 3d b3 04 c1 bd 66 f5 da 3c
       0.14316474 0.062723994 -0.094247244 0.026728343
000370 e2 6f c6 3c e5 45 3e bd d5 95 9e bd 42 45 41 be
       0.024223272 -0.046453375 -0.07743422 -0.18874076
000380 af f0 80 3d e9 22 70 bd c9 b7 75 bc 32 ef 54 bd
       0.06295907 -0.058627043 -0.014997431 -0.051985927
000390 29 83 ca 3d 66 34 c3 3d aa d9 0e be 2d ae 3a be
       0.09888298 0.095314786 -0.1395022 -0.18230505
0003a0 bc d0 e1 bd c1 0c 51 be 76 60 98 3d 0b 45 48 3d
       -0.11026141 -0.20415021 0.074402735 0.04889397
0003b0 4a 92 ac bd aa c6 88 3d f8 e1 1f be 6f 0a 04 be
       -0.0842634 0.06678517 -0.15613544 -0.12894605
0003c0 7b 03 14 be 2e 0a 4a 3e dc b8 fc 3d 9d ce 2f 3d
       -0.14454453 0.19730446 0.12339947 0.04292165
0003d0 15 be 59 bd af 89 50 bd bf 49 be 3d 01 34 0f 3c
       -0.053159792 -0.050912555 0.0929141 0.008740426
0003e0 0a c2 11 bd fa d9 a5 3d 9d 9a 3a bb c9 32 df 3c
       -0.03558544 0.08098216 -0.0028473504 0.027245896
0003f0 60 fe 86 3c 9f 50 e0 3d c2 c7 24 be 62 df 07 be
       0.016478717 0.10952877 -0.16091827 -0.13268808

encoder_c.convs.0.bias f4 [64]
000000 53 c3 64 3d a1 e4 ac 3c 2e 8b 03 3b a9 65 f9 3b
       0.05585034 0.021105113 0.0020071971 0.007610996
000010 42 02 25 3d 49 c8 9a 3c 32 db ef 3b a1 5b 2c 3c
       0.040285356 0.018894332 0.0073198313 0.010519893
000020 5c fb 4f 3b ae 89 fd 3b 42 0b d4 3c ca f0 06 3c
       0.0031735515 0.00773736 0.025884274 0.0082361195
000030 95 a7 aa 3c ad 71 27 3d 58 9c 84 bc 71 29 7a 3c
       0.020831862 0.040879894 -0.016187832 0.015268669
000040 da 8d 9a 3c 28 d1 c5 3c b2 b9 eb 3c 92 c3 3c 3d
       0.018866468 0.024147585 0.02877507 0.046084948
000050 b3 fc 4a 3c 87 ca 19 3c 8f a4 8b 3d a2 88 b2 3c
       0.01238935 0.009386665 0.068184964 0.021793667
000060 76 a7 8a 3b 8f 14 03 3d 06 41 56 3d ca 0f 8f 3c
       0.0042313887 0.032002028 0.052308105 0.017463583
000070 8a 4a d7 3b 06 22 bc 3b f2 54 49 3c 17 f2 40 3c
       0.006570165 0.0057413606 0.012288319 0.011776469
000080 65 79 b9 3c 3c fe 67 3c ac 5b ec 3b 0b 79 75 3d
       0.022640893 0.014159735 0.0072130766 0.05992989
000090 56 a9 aa 3c 25 f8 f7 ba f4 c7 a9 3c 98 94 e3 3c
       0.020832699 -0.0018918557 0.020725228 0.027780816
0000a0 8a 60 72 3c fe 35 9c 3c f4 73 a5 3b 9d de d9 3b
       0.0147935245 0.019068714 0.005049223 0.006648852
0000b0 89 94 1e 3c f1 25 e8 3c ca 65 9f 3c 8d 88 07 3d
       0.009678968 0.028338404 0.019457716 0.03308921
0000c0 76 98 bc 3a 03 f0 dd 3b f5 94 ba ba 06 66 fe 3b
       0.0014388699 0.0067729964 -0.0014235066 0.007763627
0000d0 d0 91 1f 3c 54 46 c1 3c 23 16 14 3d 7e c9 12 3c
       0.009739354 0.023593105 0.036153924 0.008959172
0000e0 bb 60 d9 bc 5f de 7d bb a7 a5 24 bc 99 83 ef 3c
       -0.026535382 -0.003873728 -0.01004926 0.029237555
0000f0 08 9e 9b bc 5f f8 f2 3b ce 34 ab 3c 8a 30 a4 3c
       -0.018996254 0.007414862 0.020899203 0.020042676

encoder_c.convs.1.weight f4 [64, 64]
000000 7d 86 ac b4 0d d3 1f 89 d9 b9 45 bd 71 95 d3 bd
       -3.213535e-07 -1.9238164e-33 -0.04827294 -0.10331238
000010 8f 5b 65 3c f4 4c 21 3d 80 77 16 bd 84 b2 fe 3d
       0.01399888 0.03938003 -0.036735058 0.12436393
000020 d5 5e 1d 3e 3c 10 17 bd 35 01 31 3d 18 1a aa bc
       0.15368207 -0.036880717 0.04321404 -0.020764396
000030 6c 5a a9 3b 62 dd ad bc 2b 05 ad 3d e3 17 a8 bc
       0.00516825 -0.021223728 0.08448251 -0.020519203
000040 35 38 8f bc e2 7d 41 be f8 c8 ca bd c2 14 cc 3c
       -0.017482856 -0.18895677 -0.09901613 0.024912242
000050 d9 72 30 be 3c b7 6f 3b 27 6e 1c 3e 33 f5 01 3d
       -0.17231311 0.0036577722 0.15276395 0.03172798
000060 44 c6 81 bd bd 30 6c 3c b6 b6 03 3b a6 ec 81 3d
       -0.06336644 0.014415917 0.0020097918 0.06343965
000070 9d 18 98 3d 21 58 ef 3c b4 18 5d 3d f1 4d de bd
       0.074265696 0.029216828 0.053978637 -0.1085471
000080 80 82 bf bd 23 56 80 3d 68 bd 84 3d 8a d0 46 bc
       -0.09351063 0.06266429 0.06481439 -0.0121346805
000090 6b 3e b7 3d 23 fb 03 be d2 31 ec 3b b8 77 f3 3c
       0.08947452 -0.1288877 0.0072080875 0.029720172
0000a0 28 4a 30 3e c9 cf 89 3d 85 42 0f bc ba b1 da 3d
       0.17215788 0.06729085 -0.008743887 0.1067843
0000b0 8c 4d 99 3c 65 78 be bd c7 d5 66 3d a9 93 8f 3d
       0.018713735 -0.09300307 0.056356218 0.07010586
0000c0 eb 9f 38 3e 14 4a 2e bc e1 40 6a 3d a4 17 d5 3d
       0.18029754 -0.010637779 0.05719078 0.104049
0000d0 7c 07 a9 3d c9 45 3c bd 65 55 09 3e 12 22 17 3e
       0.08253381 -0.04596499 0.13411482 0.1475909
0000e0 7a 0d 1a 3e 81 6f 2c 3e 5c c2 35 3e cc 9e 75 bd
       0.15044203 0.1683941 0.17749923 -0.059965894
0000f0 fa 91 3a 3c f5 63 67 3c 58 44 c3 b5 96 9c d5 bd
       0.011387343 0.014122953 -1.4548523e-06 -0.10430257
000100 eb 3d 78 39 7f c1 46 b2 eb 66 79 bd 4a c6 bb 3a
       0.0002367419 -1.1569113e-08 -0.060889166 0.0014326063
000110 8b f4 b8 b9 f7 aa 97 bd 02 bc 52 3d ce 39 54 3a
       -0.00035277414 -0.07405656 0.05144883 0.0008095772
000120 24 1f ae bd 2f 0f 5b 3e 61 15 c4 bd 6a 2e f1 bd
       -0.08502033 0.21392511 -0.0957439 -0.11776431
000130 18 c7 b6 3d 70 e5 87 bd 41 42 a3 bd 16 2c 70 bd
       0.08924693 -0.066355586 -0.07971621 -0.058635794
000140 4a e6 27 bd 9d 06 a0 3d 8b 7d 61 bd bf 8e 80 3d
       -0.040991105 0.078137614 -0.055051368 0.06277227
000150 a3 a1 08 3e e1 58 85 bd 56 39 2e 3e 8e 16 13 be
       0.1334291 -0.06511093 0.1701406 -0.14364073
000160 75 2d 47 3e 06 e5 d9 3b c1 24 0e 3e 42 1d 2e be
       0.19450934 0.006649616 0.13881208 -0.17003348
000170 c1 d1 dd 3c 90 86 23 bd 00 53 b1 bd 23 17 46 bd
       0.027077558 -0.03992325 -0.08658409 -0.04836191
000180 50 22 ea 3d 15 97 29 3e e2 62 b5 bd e4 88 2a 3e
       0.11432326 0.1656154 -0.08856751 0.16653782
000190 e2 91 ae bc 3f 25 7c bd fa 5e 39 bd fa 2b 42 3c
       -0.021309797 -0.06155896 -0.045256592 0.011851305
0001a0 76 3c f3 bd 47 77 f2 3d 14 38 4d 3d ba ef a9 3d
       -0.118767664 0.118391566 0.05010231 0.08297677
0001b0 94 5d 8b bd 72 2f 2d be 0a db 05 3e 25 ab 27 3e
       -0.06804958 -0.1691263 0.13071838 0.1637388
0001c0 42 bd aa bc 22 0c 3b 3e 19 b6 88 3b 74 c6 e8 bd
       -0.020842198 0.18266347 0.0041720984 -0.11365977
0001d0 0d 6e 4d 3e e6 0c dc 3d fb d6 f5 3b d5 3e bf bd
       0.20061512 0.10744648 0.0075024343 -0.09338156
0001e0 c3 ec 6f 3e 41 56 e7 bd 62 3d ec bc 25 99 52 3d
       0.23430161 -0.112957485 -0.028837863 0.05141558
0001f0 d1 4d 12 bd 62 98 96 3d 5c 85 48 b9 ac 58 d9 3d
       -0.035718743 0.073532835 -0.00019123167 0.10612616
000200 30 9a 86 2b e7 78 d8 b4 d2 7a 35 3b 6d 1d 88 3d
       9.564068e-13 -4.0321103e-07 0.0027691615 0.066462375
000210 ae 5f 02 3e 84 f5 ab 3d 1d 28 89 3d aa 96 b6 3c
       0.12731811 0.08396438 0.06697104 0.02228864
000220 7e 39 fc bd 84 67 cc bd 64 5d 68 bd 71 73 c5 3d
       -0.12315653 -0.099806815 -0.05672969 0.09641159
000230 e0 6d 3a 3e 9c 96 f2 bb a9 6c c7 3a 21 ef 12 3d
       0.18205976 -0.007403208 0.0015214878 0.035872582
000240 b9 d2 82 bc a5 84 4f bd 50 0b d5 bd d4 1f b0 bd
       -0.015969621 -0.05066361 -0.10402548 -0.08599821
000250 8a a3 45 bd 7a 80 c6 3b 9d 70 cb bd f6 4e 10 3c
       -0.048251666 0.006057796 -0.09933589 0.008807888
000260 22 0d cb bd db 2f 96 3d 2b 14 e4 bc 0f 94 90 3d
       -0.09914614 0.073333465 -0.027841648 0.0705949
000270 7b 12 2d bd 11 96 8e 3c d7 f6 36 3e d1 0b e4 bd
       -0.042253952 0.017405542 0.178676 -0.11135066
000280 c8 33 04 be 09 fa f2 bd 47 57 f0 bd b2 43 9d bd
       -0.12910378 -0.11864097 -0.11735397 -0.076789275
000290 ba 33 21 be 46 52 21 ba 12 b6 d5 3d 85 d9 95 3d
       -0.15742388 -0.00061539223 0.10435118 0.07316879
0002a0 e9 76 3f 3e 62 97 1c 3e d5 87 02 3e 1b bc 1b 3e
       0.18697704 0.15292123 0.12747128 0.15208475
0002b0 9f f4 ca 3d 58 11 02 3e dd f9 1c be da 2d cd bc
       0.09909939 0.12701929 -0.1532969 -0.025046278
0002c0 89 00 cd bd 8b 43 e4 3d 0e 10 45 bc 6d 93 ad bc
       -0.10009868 0.11145695 -0.0120277535 -0.021188462
0002d0 1a 61 53 3d b1 f8 4b 3e be 3c 26 be d9 1c 37 3e
       0.051606275 0.19919087 -0.16234109 0.17882098
0002e0 ce 5e cc 3d c8 27 f9 bd 70 a0 c9 bc c7 d5 a7 bd
       0.0997902 -0.12165791 -0.024612635 -0.08195072
0002f0 5e 01 db bc ff ff a7 bd a5 66 80 3b 86 6f 0c bd
       -0.02673405 -0.08203124 0.003918486 -0.034286045
000300 44 2b d6 38 2a f3 20 09 b5 c7 17 3e ee 9d 99 bd
       0.00010212374 1.9373635e-33 0.14822276 -0.07500826
000310 29 fe 94 3d b9 ee 0e 3d 8d cd 68 bd 23 44 a8 3d
       0.0727504 0.034895632 -0.056836654 0.08216121
000320 b2 85 23 3e f2 c5 bc 3d 5f 24 21 3e 28 a4 4a 3e
       0.1596897 0.092174426 0.1573653 0.19789183
000330 eb 28 50 3d 39 1e 20 3d b1 2c 45 3c 88 6f bf 3d
       0.050820272 0.039091323 0.012034581 0.09347445
000340 f3 b8 c8 bd 46 d7 76 3d 47 57 a6 3b 48 17 a2 bd
       -0.09800901 0.060263894 0.0050763222 -0.07914597
000350 e0 03 a8 bc 07 9c fa 3c f7 41 e4 bd e2 a0 f9 3d
       -0.02050966 0.030591978 -0.11145394 0.12188889
000360 55 0b 8a bb 46 d4 f5 bc 50 e7 bc bd a1 f1 fc 3c
       -0.0042127767 -0.030008446 -0.09223807 0.030876936
000370 57 59 0f bc ea 60 c9 3c 46 02 46 3d 7c c0 ab 3d
       -0.008749328 0.024582345 0.048342012 0.08386323
000380 b9 f7 a7 3d ca e5 ed 3d 8a da ea bd 63 66 c9 3c
       0.08201546 0.116160944 -0.11467464 0.024584955
000390 95 70 4d 3d 4e f8 03 3d 02 26 37 bd 06 ec 5e 3d
       0.050156195 0.032219224 -0.04471398 0.05442431
0003a0 ba e3 fd bd 66 f4 ae 3d 40 b6 a0 3c 75 a7 30 3e
       -0.12396951 0.08542709 0.019618154 0.1725138
0003b0 79 8c e0 3c 2f bb 90 3d 2d cc 1b be df 90 a1 bd
       0.027410733 0.070669524 -0.15214606 -0.0788896
0003c0 9e 45 3e 3e df ae 70 3d 78 81 63 3d 72 0f d5 3d
       0.18581244 0.05876052 0.055543393 0.104033366
0003d0 00 c7 62 be 15 43 0b 3d ac bd 09 be f7 0e 95 3d
       -0.22146225 0.03399952 -0.1345126 0.07278245
0003e0 c1 a9 a4 bd 8a a0 35 3d c6 61 08 3e a7 1d 4a 3d
       -0.080401905 0.044342555 0.13318548 0.049344685
0003f0 c6 e5 70 3d 6a 19 4d 3d 9e cd 86 b4 b3 ee 07 3d
       0.05881288 0.050073065 -2.510905e-07 0.033186626

encoder_c.convs.1.bias f4 [64]
000000 54 7a a8 bc 65 64 67 bc d2 3a 9d 3c 19 b1 b0 3c
       -0.020566143 -0.014123057 0.019193087 0.021568822
000010 f5 3a 3d 3d 24 c8 00 3d 2e 6c 93 3c 1e 5d b8 3c
       0.046198804 0.03144087 0.01799592 0.02250534
000020 98 8a 8a 3c 3c ab da 3c 21 74 2c 3d fc 07 01 3b
       0.01691179 0.026692979 0.042102937 0.0019688597
000030 54 86 b9 3c 84 04 aa 3c a6 d3 19 3d c8 15 b6 3b
       0.02264706 0.020754106 0.03755536 0.0055567957
000040 15 7a cf 3c 52 d3 6f 3c f0 26 97 bc 90 68 f4 3c
       0.025326768 0.014637785 -0.018451184 0.029835016
000050 9f 0f 41 3c 25 cb d2 3c 76 60 a7 3c 3c df 0d 3c
       0.0117835095 0.025731632 0.020431738 0.00865918
000060 db 48 00 3d 92 12 db 3c 64 b0 49 3d b1 36 86 3c
       0.03131948 0.026742253 0.049240485 0.0163835
000070 d3 97 01 3d 80 2d 52 bb 12 c9 17 3d 4e 1d 2c 3c
       0.03163893 -0.0032070577 0.03705699 0.010505034
000080 b9 83 a3 3c a1 05 dd 37 21 55 a9 3c d0 04 d6 3c
       0.019960271 2.6347874e-05 0.020670475 0.026125342
000090 cf 0e 0b 3d 11 57 63 3c e6 6c ea 3b de 9d 8a 3d
       0.03394967 0.013875739 0.007154095 0.06768392
0000a0 bd d9 2e 3c 7e 9e 85 3c 2c d2 96 3c 95 eb 82 3c
       0.01067203 0.016310927 0.018410765 0.015981475
0000b0 aa 81 d5 3c c5 d0 db 3c 93 74 80 3c 4a d2 93 3b
       0.026062805 0.026832948 0.015680587 0.0045111524
0000c0 63 7e 1c 3d ab cd 88 3c 22 70 f1 3c 5f 9a a3 3c
       0.03820647 0.016699633 0.029472414 0.01997107
0000d0 80 f3 2d 3c 52 dc d4 3c 04 59 ff 3c e5 9f 74 3c
       0.010617137 0.025983963 0.031170376 0.0149307
0000e0 98 95 30 3c b5 cc a9 3c e5 04 b5 3c b7 47 3e 3b
       0.010777853 0.020727495 0.02209706 0.0029034445
0000f0 49 88 d5 3c aa 0c cf 3c b2 46 91 bc 6f 18 a6 3c
       0.026065962 0.025274593 -0.017733905 0.020275323

encoder_c.convs.2.weight f4 [64, 64]
000000 5d b3 8f 9f 74 5d 15 9f bb 38 31 a0 dc 9b e4 25
       -6.085959e-20 -3.162928e-20 -1.5011254e-19 3.965731e-16
000010 2a 39 a7 a2 86 55 94 35 69 4f 7e 20 03 9e ac 36
       -4.5325966e-18 1.105175e-06 2.1540911e-19 5.1443944e-06
000020 1e b4 11 9f 61 c6 22 2a 5a 6b 07 20 df e4 89 9f
       -3.0853934e-20 1.4457317e-13 1.1470464e-19 -5.840039e-20
000030 1e fc 99 ad 45 bd 56 1f 67 c8 8e b0 9b 4e 89 32
       -1.7506049e-11 4.5472823e-20 -1.0388818e-09 1.5984645e-08
000040 f0 be b4 27 11 a8 b2 9e 18 ef 6a 2c ff dc b4 31
       5.016705e-15 -1.8915994e-20 3.3386124e-12 5.263814e-09
000050 3d b9 63 ad 3d 03 0d 2a b2 f8 84 9f 87 c4 c9 a0
       -1.2944587e-11 1.2524439e-13 -5.6315606e-20 -3.4180775e-19
000060 57 72 df 30 46 7e e4 9e ea ad de 2a ac 52 ab b4
       1.6257883e-09 -2.4192664e-20 3.95558e-13 -3.1911384e-07
000070 10 c4 92 24 cd c3 c3 9e cd cc 0e 30 21 ad b3 33
       6.364955e-17 -2.072741e-20 5.195034e-10 8.366829e-08
000080 8c 82 03 b6 e3 90 57 33 11 5f 75 9f c9 6e 71 a0
       -1.959651e-06 5.0190362e-08 -5.1959405e-20 -2.045015e-19
000090 ef 2a a0 9e 4b 9f a9 36 bb f6 99 9d dc 7c 4c ad
       -1.6958416e-20 5.0551366e-06 -4.0753876e-21 -1.1623782e-11
0000a0 48 14 9f 9f 2f f8 a1 b5 82 94 54 2e a9 e4 a7 9e
       -6.737267e-20 -1.2067666e-06 4.833512e-11 -1.7776384e-20
0000b0 48 1d 21 1f 8b c5 30 1f 93 25 d7 9e 16 1a e1 9f
       3.4117297e-20 3.7432853e-20 -2.277955e-20 -9.533436e-20
0000c0 e3 af 4f ac fb 2c 0a b8 84 90 62 1f 47 92 17 20
       -2.9514106e-12 -3.2943655e-05 4.7976902e-20 1.2838597e-19
0000d0 7a e0 88 b8 27 11 8f 35 64 32 ca 1e 47 08 5c 2f
       -6.5267974e-05 1.0659322e-06 2.1408423e-20 2.0011824e-10
0000e0 55 37 12 1f 96 5c 7f 34 56 c7 fc 9e f0 50 e2 ae
       3.0962472e-20 2.3782408e-07 -2.6763981e-20 -1.02916675e-10
0000f0 50 b4 54 35 ee 80 f4 b7 81 f2 6c 9f 27 63 69 9f
       7.9238544e-07 -2.9147104e-05 -5.017554e-20 -4.9421686e-20
000100 ef 5d 43 07 da 11 8f 20 80 7d 98 b4 5c 23 1e 38
       1.4697774e-34 2.4236955e-19 -2.840352e-07 3.7703066e-05
000110 f2 13 a6 2f 48 57 ef 9f 49 00 33 90 7f fb 63 b4
       3.0209396e-10 -1.0136483e-19 -3.5301745e-29 -2.1232516e-07
000120 c9 60 af 33 39 d8 13 87 b1 d1 82 23 d8 d4 c7 b1
       8.166678e-08 -1.1122593e-34 1.4183436e-17 -5.81586e-09
000130 23 89 5a ab 01 7f 06 94 f9 06 af 2b 91 bb d2 a4
       -7.7639474e-13 -6.790318e-27 1.2436433e-12 -9.139073e-17
000140 9a 07 b8 b2 a9 dc 05 36 40 4e 56 b0 a6 54 82 29
       -2.1423876e-08 1.9946986e-06 -7.7963946e-10 5.787844e-14
000150 c1 ab 63 34 a1 65 a2 b2 fe c7 6d a6 e4 dc 19 b6
       2.1203506e-07 -1.8905498e-08 -8.2496933e-16 -2.2927352e-06
000160 9f 21 f2 2e de 1b fc 37 2f ee 05 07 39 d1 22 35
       1.1010858e-10 3.0053718e-05 1.0075804e-34 6.065416e-07
000170 e6 e5 b5 29 db 67 61 0c 8f 67 a8 37 83 33 a8 aa
       8.077896e-14 1.7364622e-31 2.0075384e-05 -2.9878538e-13
000180 b8 4d 84 a2 2f 67 30 39 f7 ec 08 9f 22 19 75 2d
       -3.586096e-18 0.00016823107 -2.8995133e-20 1.3932218e-11
000190 56 81 18 22 ca f2 81 b7 9a ff a6 34 5c 8e 61 1d
       2.0668311e-18 -1.5491056e-05 3.1105884e-07 2.98521e-21
0001a0 87 ba e0 b3 7b 33 23 36 6c 3d d0 31 95 ee 6d 19
       -1.0464742e-07 2.4318858e-06 6.0605796e-09 1.2300794e-23
0001b0 d8 95 0f a5 70 98 2f 1d 39 51 4b 2a 7c 16 a3 07
       -1.2454042e-16 2.3239865e-21 1.8058202e-13 2.453873e-34
0001c0 53 4e a1 b7 1d ff c2 35 d4 09 32 8a 02 f9 b4 ae
       -1.9229168e-05 1.4528374e-06 -8.572237e-33 -8.229685e-11
0001d0 9a da f7 b6 ce 28 c3 2c b7 cc 26 a5 d2 75 e2 af
       -7.386622e-06 5.5467636e-12 -1.4467565e-16 -4.1192877e-10
0001e0 07 95 8f 36 be a3 eb b0 c2 62 46 b5 86 8a 22 b2
       4.279081e-06 -1.7145039e-09 -7.390446e-07 -9.461138e-09
0001f0 96 05 02 b1 99 a9 6f b4 bf 3d 7a 98 7c cb 4a 07
       -1.8920665e-09 -2.2320309e-07 -3.2342916e-24 1.525659e-34
000200 de ed 0e bd 7b c0 39 3d d1 f4 71 3d 20 95 55 3e
       -0.034894817 0.04534958 0.059071366 0.20857668
000210 b6 15 3a 3d f3 48 09 3c 5d b3 ac bc 3d ff 3e 3d
       0.04543086 0.008379209 -0.02108162 0.046630133
000220 c7 77 9b 3d 08 28 c1 3c 4d dc 6a 3e 2d b7 ca 3d
       0.07591205 0.023578659 0.229356 0.09898219
000230 08 e9 3c be f6 f9 cc 3c 15 fc bd bd c8 07 93 3c
       -0.1844827 0.025021534 -0.092765965 0.017948046
000240 01 02 b0 3d 38 7f 4e be b0 88 5b 3e c3 56 81 3c
       0.08594132 -0.20165718 0.21438861 0.015788442
000250 7d 46 0b 3d 7a 54 37 3e 07 db 12 3b 71 b6 87 3d
       0.03400277 0.17903319 0.0022408383 0.06626595
000260 72 27 12 bd 2b 57 da 3d c1 e5 c9 bc fc f5 7f 3d
       -0.03568215 0.10661157 -0.024645688 0.06249045
000270 a2 42 cf 3d c9 a2 7b bd 2e 45 21 3d 4a 9b 3b bd
       0.10120131 -0.06143454 0.039372616 -0.045802392
000280 9a 44 d7 3b 2b 5b 0f 3e 32 53 2c be 43 f6 d3 3d
       0.0065694572 0.13999622 -0.16828611 0.10349705
000290 45 b2 35 3e 66 76 1a be 7e b6 60 bd 30 e6 40 bd
       0.17743786 -0.15084228 -0.054861538 -0.047094524
0002a0 01 3b 59 3e 36 90 49 3c ea 19 61 3e 1a 64 2f 3e
       0.21213914 0.012302449 0.21982542 0.1712803
0002b0 97 e7 a0 bd aa 59 d3 bd 77 bf 37 3c 62 e7 04 bd
       -0.07856672 -0.103198364 0.011215082 -0.032447226
0002c0 ee 84 07 be 90 d0 00 3e aa 01 0d 3e 6d e5 94 bd
       -0.13234302 0.1257956 0.13770166 -0.07270322
0002d0 a2 16 8f bc 83 83 3e 3d 8a 40 99 3c 77 d8 e9 3d
       -0.017466847 0.046512138 0.018707532 0.114182405
0002e0 e8 87 be 3d 38 5b 93 bd c3 d5 b1 bd 73 3b 65 be
       0.09303266 -0.07195133 -0.0868335 -0.2238596
0002f0 76 e7 22 bd 0d 43 58 be 0a 83 d9 3c 00 c9 15 3e
       -0.03977152 -0.21119328 0.026551742 0.14627457
000300 cf 21 fb bd 0a 3e 00 3d d7 82 52 bd 51 85 a2 3d
       -0.12262308 0.031309165 -0.05139431 0.07935584
000310 84 ee 87 3d e2 2a 0f bc 01 4b 4c 3c 6a 2f aa bd
       0.0663729 -0.008738251 0.012469054 -0.08309825
000320 d8 3b d4 3d f3 28 8c bc c6 39 bc 3d 2c 41 02 3e
       0.10362977 -0.01710937 0.09190707 0.12720174
000330 c7 b9 15 be 4c ae 73 3d 37 d3 c7 bd ee b6 18 be
       -0.1462165 0.059492394 -0.09757083 -0.14913532
000340 f4 53 4f 3c 6f 36 64 be 0d 41 af bd d3 7d 0e bd
       0.012654293 -0.2228639 -0.08557329 -0.034787964
000350 4c 61 34 3e 5c b8 e2 3d 6c 3e cf 3d 7d 1f 5f 3d
       0.17615241 0.1107032 0.10119328 0.05447339
000360 02 2f 1c 3e cd c3 89 bd 38 4f 2b bc ec 8f e9 bd
       0.15252307 -0.06726799 -0.010455899 -0.11404404
000370 a6 7b 58 be e8 b6 45 be fb 10 80 3d 82 cf 30 3e
       -0.21140918 -0.19308054 0.06253239 0.17266658
000380 58 3e 1d be 17 ed 26 3e c4 71 24 3d b6 4f 5b be
       -0.15355814 0.1630138 0.040147558 -0.21417126
000390 07 50 68 bc fc d5 19 3e 7b 4f 8a bd 5c 42 02 3e
       -0.014179236 0.15023035 -0.06753441 0.12720627
0003a0 67 0b 10 3e a9 19 b8 3b 6b 81 1c 3e 1a c9 ee 3b
       0.1406685 0.0056182933 0.15283744 0.007287157
0003b0 4c 00 13 be 70 73 1f be 5d db c7 3c 89 5e 34 3d
       -0.14355582 -0.1557138 0.024396593 0.04403547
0003c0 03 ec 1e bd 51 32 39 be 60 ac 02 3e 62 b9 c6 bd
       -0.038799297 -0.180856 0.12761068 -0.09703328
0003d0 50 e6 0b 3c 46 66 e3 3d fe 43 62 bd f7 5a 1e 3e
       0.0085387975 0.111034915 -0.055240624 0.15464388
0003e0 43 31 06 be 20 99 0d be e8 38 b8 3d c2 fe 18 3b
       -0.1310473 -0.13827944 0.08995229 0.0023345207
0003f0 38 e6 0e bd e4 ef 64 be 93 49 34 bc 54 8e fd 3d
       -0.034887522 -0.22357136 -0.01100387 0.123806626

encoder_c.convs.2.bias f4 [64]
000000 a2 3d 86 bc cf 1d 44 bc 3a 2e bd bc f5 e9 02 3c
       -0.01638681 -0.011969998 -0.023093332 0.00799035
000010 6d 40 df 3a e5 62 0c 3c 6c 6c 81 bc 82 81 a4 ba
       0.001703275 0.0085685 -0.01579877 -0.0012550803
000020 25 1f a7 3c 8c 70 84 3b 37 7c d4 3c 83 87 0a 3d
       0.020400593 0.004041737 0.025938137 0.03382064
000030 c3 75 66 bc af 89 d4 bc 1f d7 a9 3b e8 4c 83 bb
       -0.0140661625 -0.025944559 0.005183115 -0.0040069707
000040 db c4 04 bc 6f 32 c8 bc e8 f9 0e bc 44 21 24 bc
       -0.008103575 -0.024438111 -0.0087265745 -0.010017697
000050 bf b0 89 3c 44 e7 1f bc a2 33 15 3c 97 b9 1f 3c
       0.016807912 -0.009759728 0.0091065485 0.009748838
000060 c1 ab fe bb 2e 42 88 bc 58 61 8f bc 36 f3 44 3a
       -0.0077719395 -0.01663312 -0.017502472 0.0007513048
000070 29 c3 ad bc 2c 7b 8e bc e2 8f 42 3c 21 f6 78 3c
       -0.021211224 -0.017392717 0.011875125 0.0151954
000080 de 36 04 3d cf 4e b6 3a af 16 c7 bb 61 76 12 3c
       0.032278888 0.0013908985 -0.006075702 0.008939357
000090 bf 1e e9 3c 34 35 a4 bc 9f b6 a7 bc 4c 5a 00 3d
       0.028457044 -0.0200449 -0.020472823 0.031336114
0000a0 8e 6e 89 3c d9 20 05 bd 96 59 9d 3c 6a dd be 3c
       0.01677635 -0.03250203 0.019207757 0.023298938
0000b0 cf 77 24 bc af e3 93 bc f2 ca 2c 3c 1b 25 e9 3b
       -0.01003833 -0.018052904 0.010546433 0.007115019
0000c0 e8 6b cb 38 af 3e c9 bb e7 f8 f7 3c de 11 83 bb
       9.6998934e-05 -0.0061415057 0.030270053 -0.0039999327
0000d0 98 70 3e bc de ab 88 3c 96 6f b3 3a ad d0 2b bb
       -0.011623524 0.016683515 0.0013689871 -0.002621691
0000e0 0a 23 39 3c b6 1e 05 bc d3 bf a7 bc ce c3 1c 3c
       0.011299858 -0.008124998 -0.020477211 0.009568168
0000f0 cf 00 1d 3d 5f e7 e6 3a 77 7a f1 3c b0 97 fa 3c
       0.03833085 0.0017616561 0.029477341 0.030589908

encoder_b.convs.0.weight f4 [116, 64]
000000 8d 83 1b b9 6d 7c 60 3b a1 41 8b bb 3f e0 98 3c
       -0.00014830958 0.003425385 -0.004249767 0.018661616
000010 d6 aa 7e bc 5d 43 d8 b8 87 b5 3f bc 2a 74 81 bb
       -0.01554366 -0.0001031223 -0.011700994 -0.0039506154
000020 6b cd 28 bc 83 79 99 b9 ef d2 9c ba f1 0b d0 b9
       -0.010302882 -0.00029272967 -0.0011964719 -0.0003968175
000030 21 49 72 37 2e 0a 3e bc 67 0b 22 3b 1d 17 d8 3b
       1.4441351e-05 -0.011599107 0.0024726035 0.006594552
000040 55 5b e5 b9 03 cd 2d bb 8f 51 5d 3b fa 6b b8 3a
       -0.0004374633 -0.0026519902 0.0033770537 0.0014070265
000050 ff 4e 8f bc dd f2 bc 3b 30 af 89 bb 51 07 e7 bb
       -0.017493723 0.0057662562 -0.004201792 -0.0070504327
000060 b0 26 53 3c b8 1c ed bb d6 f3 d6 b7 81 70 7f 3c
       0.012887642 -0.0072360896 -2.5624333e-05 0.015590788
000070 68 11 5f ba a7 56 53 b9 fa 71 e2 bc df b5 f3 3b
       -0.00085093686 -0.00020154809 -0.027642239 0.007437452
000080 63 a3 39 3a 20 6c b3 b9 0e 38 ba 3c ba be 35 bc
       0.00070815365 -0.000342221 0.022731807 -0.011092836
000090 95 bd 0d ba 5e 66 32 bc 3f cc 82 3c 10 7a 4b 3c
       -0.0005406973 -0.010888664 0.015966533 0.012419239
0000a0 ed fa 6c 3b d6 de 4d 3b 50 bf 3d ba fd e4 88 bb
       0.0036160306 0.0031413338 -0.00072382856 -0.004177688
0000b0 62 50 34 ba 6d c8 93 3c c8 86 45 3b 6a 96 d3 bc
       -0.0006878433 0.018039906 0.003014015 -0.025828559
0000c0 e2 9a 65 3b a1 12 06 bb a7 ef 95 bc fc fd 27 bc
       0.0035034944 -0.002045788 -0.018302752 -0.010253426
0000d0 d7 43 a0 bb b5 38 6c 38 38 fa 8a ba d9 7e f2 38
       -0.0048908996 5.6319597e-05 -0.0010603135 0.000115630864
0000e0 6f 7e 44 b9 ee df 9b bc 5c 6c 48 3c 9a 4e 19 bc
       -0.00018739117 -0.019027676 0.012232866 -0.009357119
0000f0 12 cf 11 3c ef 51 8f 3c f4 db 44 38 67 b0 bc bb
       0.008899467 0.017495124 4.693489e-05 -0.0057583335
000100 05 78 26 3c e1 93 ae 3b 1a 98 d7 3b 90 b3 69 bb
       0.010160451 0.005327687 0.006579411 -0.0035660006
000110 b0 8e 34 39 a0 8d bc 3a bf 1f da ba 5b 4a 1f 3a
       0.00017219293 0.0014385469 -0.0016641541 0.00060764485
000120 96 2b 06 bc 7b 3e 9c bb 01 67 85 bb 7e ee ab ba
       -0.008189103 -0.0047681904 -0.004071117 -0.0013117341
000130 5d 0c 36 39 f6 5b a7 bb 92 0e bf bb 12 39 ff bb
       0.00017361478 -0.005107398 -0.0058305943 -0.0077887857
000140 1b 53 93 bc 39 62 9c 39 6f 94 30 3c 1c 57 2e bc
       -0.017983964 0.0002982782 0.010777577 -0.010640886
000150 17 b5 73 3b f0 32 1b 3c 33 87 b4 bb fb 14 db 3a
       0.0037186795 0.009472594 -0.005509281 0.0016714627
000160 b7 77 ae 3a f1 91 06 3c 08 5b 84 bb 44 d4 07 3d
       0.0013310824 0.008213506 -0.004039172 0.033161417
000170 c3 05 0d 3c ae 89 64 bb 46 0e b8 bb 55 52 33 bb
       0.008607331 -0.0034872103 -0.005616936 -0.0027362306
000180 b2 97 de b8 c5 7e 24 3b d0 8c b7 ba fb 17 95 bb
       -0.000106140404 0.0025099975 -0.0014003757 -0.004549978
000190 c4 12 57 ba 8d 2f ad 3a ab 27 bb bb 4f bc af 3b
       -0.00082043954 0.0013213024 -0.005711516 0.0053630243
0001a0 45 42 6f ba 92 cb 56 3a 59 c3 45 39 e1 78 e8 3a
       -0.00091270014 0.00081937865 0.00018860157 0.001773622
0001b0 20 6f 9e 3b d2 97 23 39 86 e7 02 bc 9a 90 e2 3c
       0.0048350245 0.00015601449 -0.00798977 0.027656842
0001c0 47 64 c7 3b 7b f6 de b8 ae 4d af b9 1b 52 44 3a
       0.006084952 -0.000106316955 -0.00033436477 0.00074890413
0001d0 75 69 a6 bb 8b 4a 8c bc 93 2b 3e 3b d2 b0 19 ba
       -0.0050784894 -0.017125389 0.0029017671 -0.0005862835
0001e0 aa 55 4b bb 9b d3 71 bc 75 c3 28 3c aa 7c 40 3a
       -0.0031026402 -0.014759923 0.010300507 0.0007342795
0001f0 b8 ba 2f 3a 2d e1 bb 3a d2 35 20 38 c9 d7 2e b8
       0.00067035435 0.0014334075 3.8197097e-05 -4.16858e-05
000200 24 74 03 bc 4f d7 3f bc e5 01 93 3a 6d bf 6a bc
       -0.008023296 -0.011709048 0.0011215775 -0.014327866
000210 08 2f 8e 3a c7 20 3c 3c 43 b9 6d bc 67 3b 3d b8
       0.0010847757 0.011482424 -0.014509502 -4.5116434e-05
000220 cf b0 64 b9 24 05 7e 39 0a 3a 00 bc bf 94 ea bb
       -0.00021809641 0.00024225243 -0.007826338 -0.007158845
000230 be 09 50 3c a5 ef 8b 3b 99 41 04 3b 73 14 8d ba
       0.012697635 0.004270511 0.00201807 -0.0010763541
000240 45 47 19 3c 60 bc 68 3b 38 29 a5 3c cd af 59 ba
       0.009355371 0.003551267 0.020161256 -0.00083040894
000250 fb 16 94 bc c5 e1 24 b9 ff 76 4e 3b 19 e8 0e bc
       -0.018077364 -0.00015724364 0.0031504033 -0.008722329
000260 32 07 e8 3b 38 68 ec bc b8 c4 a3 bb 96 e6 7e bb
       0.007080936 -0.02885829 -0.004997816 -0.0038894764
000270 59 0b 62 3c 3c 30 80 3b d7 b5 44 3c 55 25 e8 38
       0.013796651 0.003912 0.012006245 0.00011069576
000280 3f 8c b1 ba 62 07 d9 ba e9 c5 78 b8 9a af 84 3c
       -0.0013545825 -0.0016557986 -5.9312126e-05 0.016197015
000290 13 f4 0c bb 8d 9f c5 ba 02 57 0f bb f5 c0 bd 3c
       -0.0021507784 -0.0015077457 -0.002187193 0.023163298
0002a0 d1 f0 16 bc fd b2 3e 39 27 c1 05 3c b3 6a 84 b9
       -0.009212689 0.0001818649 0.008163727 -0.000252565
0002b0 50 16 25 3a 13 61 0b ba 82 00 70 3c be d6 29 bc
       0.00062975753 -0.00053168944 0.014648559 -0.01036614
0002c0 f3 ba 69 3c 49 a6 ef 35 14 93 7b bb ad 6a 42 bb
       0.014265764 1.7855283e-06 -0.0038387226 -0.0029665635
0002d0 97 a8 b3 bc 65 b9 83 bc a9 bb 90 3a ea ab 14 bc
       -0.021930976 -0.016079614 0.0011042255 -0.009074191
0002e0 25 08 a6 3a e2 84 a6 38 30 09 f3 ba 2b cd fb 3b
       0.0012667222 7.940248e-05 -0.0018542167 0.00768437
0002f0 01 38 03 3b 16 a1 ea bb 8d 44 02 bb 13 74 2f 38
       0.0020022395 -0.007160316 -0.0019877285 4.1831354e-05
000300 25 09 69 3c 0c ff a2 bc 50 3a 6c 38 63 5b 37 ba
       0.014223372 -0.019897006 5.6321092e-05 -0.00069945137
000310 0a a9 3f bc 87 1a 39 3c 95 c9 33 3c 56 b4 8c 38
       -0.011698017 0.0112978285 0.010973354 6.7093104e-05
000320 7a 79 26 3c d4 26 5c 3a 43 08 07 bb e6 3e 97 b8
       0.010160798 0.000839812 -0.002060429 -7.211957e-05
000330 29 17 f6 37 fc 2a 03 bb fe 3f 89 bc 42 86 7c ba
       2.933627e-05 -0.0020014634 -0.016754147 -0.0009633043
000340 31 29 37 bc 4d 02 42 b9 07 dc 7e ba 93 fe da ba
       -0.011179254 -0.00018502139 -0.00097221177 -0.0016707949
000350 88 00 bb 3b 3c 69 06 37 9b 31 a7 3b 3e 5b 35 3c
       0.0057068504 8.011524e-06 0.005102349 0.011069117
000360 93 50 40 b8 34 cf 84 3a 75 1b 29 3c a2 09 4b ba
       -4.5851408e-05 0.0010132552 0.010321488 -0.0007745271
000370 33 e8 3c 3a a0 30 b4 3b 4e 9d 8c bb e1 bc 95 38
       0.0007206231 0.0054989606 -0.004291213 7.140055e-05
000380 c8 05 22 3a 49 43 18 bc 60 1c 1b bb eb bc 17 ba
       0.0006180671 -0.009293386 -0.0023668036 -0.0005788344
000390 7d b0 1d bb 49 56 9f 39 f5 a3 06 3a 66 ab 39 3a
       -0.0024061494 0.0003039113 0.0005136126 0.00070827303
0003a0 c6 d3 1a 39 e7 62 46 bc 06 98 e8 39 2e 77 a2 3b
       0.00014765476 -0.012108541 0.00044363755 0.004958055
0003b0 9b 43 0f bb 3e 36 bf 3b e2 6a a1 3c 6a 3e 03 bc
       -0.0021860364 0.0058353236 0.019704286 -0.008010486
0003c0 ca e4 04 39 29 10 06 3c a9 7c 48 3c bd 5c 74 3a
       0.00012673732 0.008182564 0.012236753 0.00093216804
0003d0 f6 d3 cc 3b 19 6e c4 3a 2e 88 7f 3c e8 6c 56 3c
       0.0062508537 0.0014986425 0.015596433 0.013087489
0003e0 ee 42 96 3a 56 fc 9e bc f6 a9 83 bb 41 09 92 bb
       0.0011464038 -0.019407433 -0.0040180637 -0.0044566696
0003f0 fe da 82 3c a0 d4 7a bc 79 76 e0 38 48 9a 5e 37
       0.015973564 -0.015309483 0.000107032196 1.32681525e-05

encoder_b.convs.0.bias f4 [64]
000000 86 52 2b 3b dd b5 42 bb 80 a5 fa 3b b2 8b 19 3c
       0.0026141717 -0.002971045 0.0076491237 0.009371685
000010 bd 53 c7 3a bd a1 c4 3b 86 11 bb 3b d2 ba 27 bc
       0.0015207451 0.006000726 0.005708876 -0.0102374125
000020 3e 95 58 bb 70 df 55 3c ff 58 1a 3c 1d c6 51 b9
       -0.003304794 0.01305376 0.009420632 -0.00020005596
000030 b8 23 54 3b 5f 40 33 3c 28 a0 f3 3b 81 02 e4 bb
       0.0032369923 0.01094064 0.0074348636 -0.0069583063
000040 db 50 ed 3a a8 3a 63 3c 06 3c 8b ba 84 a2 ae bb
       0.0018105762 0.013868965 -0.0010622747 -0.005329432
000050 52 0c f0 ba 3c c8 21 3b c2 11 77 3c d5 62 61 3c
       -0.0018314219 0.0024686 0.015079917 0.013756474
000060 21 2f c8 bb 99 78 0b 3c 3e f0 67 3c b9 6f 5e 3c
       -0.006109134 0.008512639 0.014156399 0.013576441
000070 ca 25 7d 3b ba 68 a5 bb 8c 04 51 3b a1 d1 f7 3a
       0.003862726 -0.005047885 0.003189358 0.0018907079
000080 d6 5f 94 38 59 3f ef 3b 5b 58 86 3b 05 af 29 3c
       7.075041e-05 0.007301253 0.0040998883 0.010356669
000090 32 87 2a 3b 86 e4 fa 3b 4a 01 96 3b ba 49 0a 3c
       0.0026020524 0.0076566366 0.0045777904 0.008440429
0000a0 bd 5b 3f bb ab 0f 0f 3c e3 92 48 3c 79 cd 39 3b
       -0.0029198967 0.008731763 0.012242052 0.002835123
0000b0 4a 3f 0f bc 41 13 e3 bb 7a 95 46 3b dc 1e 3d 3c
       -0.008743117 -0.0069297855 0.0030301497 0.011543002
0000c0 76 48 51 3b 0e 51 0f 3a ab dd f5 3b 47 1f b1 3b
       0.003193406 0.0005467095 0.0075032315 0.00540534
0000d0 be 65 19 bb a5 5d ca 3a 6c 43 5b 3b 7e 2d 28 3c
       -0.002340659 0.0015439285 0.0033456935 0.010264752
0000e0 57 b6 eb b9 16 17 4b bb 71 6f 83 3b 9a 9b 5c 3c
       -0.00044958547 -0.0030989102 0.0040110876 0.013464833
0000f0 11 26 4a 3c 6e ae 2f bb 36 1f 8a 3a e0 7e ef bb
       0.012338177 -0.002680685 0.0010537866 -0.007308826

encoder_b.convs.1.weight f4 [64, 64]
000000 12 b6 01 bd 3a a0 87 b7 3d 5b 1c bd f2 03 41 3c
       -0.031667776 -1.6167865e-05 -0.03817295 0.011780726
000010 cd 3e f6 b8 98 b3 54 3c ed c3 a8 3b e5 52 7c 39
       -0.00011741892 0.012982272 0.0051503093 0.00024063473
000020 43 ee 0a bd d3 ae 81 39 54 52 c8 ba a6 3d 5e 3d
       -0.03391863 0.00024735052 -0.0015283325 0.05425801
000030 0d 31 a8 b6 45 ef 5a 3d 51 67 8d 3b 06 26 0f bc
       -5.0125004e-06 0.05345084 0.004315295 -0.008737093
000040 8c 8d 6c 3a 88 2e ae 3a 76 c5 9f 3c ec 19 8a 37
       0.00090237777 0.0013289014 0.019503336 1.6462953e-05
000050 22 66 d0 bb b8 40 e2 bc d6 d8 f6 b7 c5 63 72 3c
       -0.0063598314 -0.02761875 -2.9426457e-05 0.014794295
000060 3e fe 93 bc 12 98 a5 bc c8 6e ef bc 6a a7 d5 38
       -0.018065568 -0.020214114 -0.02922763 0.00010187815
000070 bb ad 5c 3a b8 0c b8 bb cc 6b 63 b8 68 02 9e b9
       0.0008418222 -0.0056167506 -5.422141e-05 -0.000301379
000080 20 b7 9c 3c 52 3f fa bb 4f 1f a0 bc d0 c4 dc ba
       0.01913029 -0.007636943 -0.01954618 -0.0016843323
000090 45 d3 9e bc 5e d6 24 38 7c 44 0d 3a 8e 39 5b bc
       -0.01938785 3.9300292e-05 0.0005388928 -0.013380421
0000a0 2e 31 8d 3c 14 76 af ba c2 f3 b2 b9 1d 68 bb 3c
       0.017235365 -0.001338663 -0.0003413242 0.022876794
0000b0 ec 24 2e 3c ec 23 0f bc 08 56 7c b9 8b bd 91 3c
       0.01062892 -0.008736592 -0.00024064642 0.017790576
0000c0 88 ea 55 3c 10 fc e1 bc e3 1f 2e bc 2c 3a 60 bb
       0.013056405 -0.027586013 -0.01062772 -0.003421436
0000d0 26 87 34 bd 4f 71 f3 3b a5 21 0a 3d ca cf 08 3d
       -0.0440742 0.007429279 0.033723492 0.033401288
0000e0 6d f9 17 bc 74 fe 22 b9 29 d2 33 3b 08 ee 14 3c
       -0.009275776 -0.00015544315 0.0027438498 0.009089954
0000f0 a6 9c 0a bd b1 68 15 3d 97 7d a1 3c 4d b8 38 bb
       -0.033840798 0.036476795 0.019713206 -0.0028186024
000100 25 8a 94 38 c8 4d 31 bb c3 2d 67 3b 39 1f d8 3a
       7.0829214e-05 -0.0027054418 0.003527508 0.0016488797
000110 7f 7e 0d bb e6 ac 96 bc 2c e6 12 bc be 83 01 ba
       -0.002159029 -0.018392991 -0.00896601 -0.00049405906
000120 10 72 ad 3a 88 78 96 bc 04 67 fe bc 63 b4 d4 bc
       0.0013232846 -0.01836802 -0.031054981 -0.025964921
000130 6f 49 40 bb e1 9c bb 3c e1 b3 62 3c 40 cd 49 b9
       -0.0029340645 0.022901954 0.013836832 -0.00019245315
000140 bd a3 53 b4 67 ff 45 bb e7 3d 70 bc b1 f7 77 b4
       -1.9710474e-07 -0.0030212046 -0.014663196 -2.3093777e-07
000150 44 80 6c bc c2 a9 05 ba d8 82 4f bc fc ca 82 3b
       -0.014434878 -0.0005098843 -0.012665473 0.003991483
000160 02 7a 93 3c 5f 78 fa 35 13 ee 22 ba fa ae 27 bc
       0.018002514 1.8661484e-06 -0.00062152854 -0.010234589
000170 b6 ec a1 bb 9a b3 38 bb e0 ee 20 b8 bd 77 f6 3c
       -0.004941548 -0.0028183223 -3.8369442e-05 0.030086393
000180 a6 96 05 3b 6e 37 9c 3b 40 f3 8e ba d6 89 36 ba
       0.0020383983 0.00476735 -0.0010906234 -0.0006963288
000190 b3 4f 25 bb b3 fa 21 bb c5 7a d0 3b e2 1b cc 38
       -0.0025224506 -0.0024716079 0.0063622915 9.7326716e-05
0001a0 19 36 e8 b6 3a d8 80 bb be d3 bf b9 a6 37 d4 bb
       -6.9204366e-06 -0.003932026 -0.0003658812 -0.0064763604
0001b0 c9 44 e4 b9 09 6b fc 38 ff 8b 8c 3c 12 c1 51 bc
       -0.00043538798 0.00012036233 0.0171566 -0.012802379
0001c0 7b 89 1f bb f6 cc 72 38 c9 db 7d 34 38 50 a7 ba
       -0.002434342 5.788818e-05 2.3642419e-07 -0.0012764996
0001d0 21 db e1 3c 12 5a 15 3a 59 42 3d bc 9a 5f 0d bb
       0.02757031 0.00056973204 -0.011551463 -0.0021571876
0001e0 3d 48 8a b9 f5 95 10 b8 09 2e 45 bc f9 cd 00 bb
       -0.00026375233 -3.4471934e-05 -0.012034901 -0.001965402
0001f0 24 f2 80 bc f9 90 26 bc 41 ed 09 3d 2a e6 b8 3c
       -0.015740462 -0.0101664 0.03367353 0.022570688
000200 f0 f3 f9 3c 39 60 a0 38 89 b0 c3 3c e9 d8 68 3b
       0.030511826 7.6473174e-05 0.02388789 0.003552968
000210 16 73 0a ba 47 5a 40 3b cc 53 4d 3a f1 97 23 ba
       -0.00052814314 0.0029350684 0.0007832616 -0.00062405976
000220 c6 03 a1 3b 23 b7 bb 3b fe 89 36 3c 24 a9 1b 3b
       0.00491378 0.0057286187 0.011141298 0.0023751939
000230 f1 df 2b 37 10 03 67 3b bf be ca 3c 3b 15 d7 bb
       1.0244535e-05 0.0035249628 0.024749158 -0.00656381
000240 43 55 a5 bb b8 31 a9 3a a3 fe 5b 3b ae 9c 90 3c
       -0.0050455644 0.0012908494 0.0033568523 0.017652836
000250 ae 82 92 bc 5c 95 42 bb 08 54 c2 34 f0 4b 99 3c
       -0.017884579 -0.0029691076 3.6196457e-07 0.018712968
000260 4a 2e b5 3c 54 11 62 3c 41 87 ae ba e2 2a 6f 3c
       0.022116799 0.013798077 -0.0013315455 0.014597626
000270 9c 61 c7 3c 0f 50 8c 3c 7d bd cb 2c ea d1 40 bc
       0.024338536 0.017128019 5.7906444e-12 -0.011768797
000280 05 0a e9 3a ed 15 fc b9 8c 71 e0 ac d3 07 fa 39
       0.0017779475 -0.00048081522 -6.379069e-12 0.00047689545
000290 1b 58 d0 3b c5 9f ca b5 cb 5d ab b8 f2 37 37 b8
       0.0063581592 -1.5096672e-06 -8.171386e-05 -4.3682703e-05
0002a0 21 7b 55 bb 81 96 0f 3a 01 90 de ba c0 27 9d ba
       -0.0032574611 0.0005477444 -0.0016980172 -0.0011989996
0002b0 b5 9d c9 bc cd f3 9a bc b7 c1 8e b6 82 04 76 bb
       -0.024611333 -0.018915081 -4.254481e-06 -0.0037539308
0002c0 8c dc dd b9 dc 4a 12 39 94 b1 e1 b4 dc 84 9b b6
       -0.00042316725 0.00013951532 -4.203872e-07 -4.634827e-06
0002d0 23 61 09 3c df 48 86 bc b6 65 6e 3c 32 42 b4 b8
       0.008384976 -0.01639217 0.014550617 -8.595399e-05
0002e0 e9 49 28 3c fe 83 39 3a c4 71 94 3c 60 3c c4 bc
       0.010271528 0.00070768583 0.018120654 -0.02395457
0002f0 92 b3 c5 3c 4e 30 a3 3b 83 83 3a 3b 7a e9 cc 3c
       0.024133477 0.0049801236 0.0028459735 0.025013674
000300 a5 19 33 bc 85 ba a6 bb 36 06 b1 3a 23 21 09 3d
       -0.010931407 -0.005088153 0.0013505879 0.033478867
000310 82 c7 bc 3b c5 30 0c 3d 86 5b ab bc a0 fd db bc
       0.005761088 0.034226198 -0.020917665 -0.026854336
000320 4c 18 96 3c d7 e7 5e bc eb ab 9a 3c 14 ea 41 3b
       0.018322133 -0.01360508 0.018880805 0.0029588984
000330 2a 73 8d 3a eb 98 3c 3b d4 f8 fb 38 89 f4 b0 ba
       0.0010791768 0.002877767 0.000120149605 -0.0013500612
000340 f9 49 25 bc e7 32 e5 36 d5 f5 ca 3b 59 c9 69 35
       -0.010088437 6.8306576e-06 0.0061938562 8.7092263e-07
000350 04 ac 8b ba b8 64 ca 37 8e c9 01 37 c0 af 26 ba
       -0.0010656123 2.4127177e-05 7.735927e-06 -0.0006358586
000360 36 79 ac 3b 36 db bd a8 78 9c 4c 3a 1c 99 03 b8
       0.005263473 -2.1078283e-14 0.0007805298 -3.1375428e-05
000370 d5 e9 83 3a 2c 1b 95 b9 60 ae 82 3b 17 f1 8f 3b
       0.0010064194 -0.0002843974 0.0039880723 0.004392754
000380 96 76 70 39 39 fb 1d 3c ea 9f dd b0 82 65 1f bc
       0.0002293236 0.009642416 -1.6125317e-09 -0.009728791
000390 1f 83 dd 3a 92 32 99 3c d5 51 08 bc 30 67 13 39
       0.0016900039 0.018700872 -0.0083202915 0.00014057453
0003a0 9c 20 8e 2c ce 96 b0 ba cd 60 5a bc d5 d5 a8 ba
       4.039503e-12 -0.0013472678 -0.013328743 -0.001288111
0003b0 ef 9e b2 bc f7 f3 96 35 67 c6 cf 3b 15 4d 78 3b
       -0.021804301 1.1246874e-06 0.00634079 0.0037887741
0003c0 0c f4 7c bc 3f c5 74 3b cd 96 2c b6 bb 25 0a b7
       -0.015439045 0.0037349013 -2.5717775e-06 -8.234226e-06
0003d0 85 b0 18 bb 81 ee 6b b8 a8 ff df 3c 55 2c ac bc
       -0.0023298573 -5.625049e-05 0.027343586 -0.021017233
0003e0 bf 8f 96 3a ed fb 1b 3c 60 98 39 bc bf 4d 9c 3c
       0.0011486931 0.009520513 -0.011327833 0.019080041
0003f0 6c 73 3b 3b 0d ab c0 3b 0c 02 2e 3c 0f 91 8d 3a
       0.0028602732 0.005879766 0.010620605 0.0010800677

encoder_b.convs.1.bias f4 [64]
000000 65 1d 3f 3c c8 b3 fe b9 d2 fc 4a 39 78 96 3c 3c
       0.011664723 -0.00048580603 0.00019358404 0.011510484
000010 38 a1 2e bc 1d 88 10 bc c8 8e 8a 3c f4 ef ee ba
       -0.010658555 -0.008821514 0.016913787 -0.0018229471
000020 19 c9 c7 3b 08 b1 67 bb e4 2a 11 3c 12 98 09 3c
       0.0060969708 -0.0035353322 0.008860324 0.008398073
000030 8b c6 ec b9 b1 43 48 3c 9d 7a fe 3a 2c b8 a0 3a
       -0.00045161354 0.01222317 0.0019415204 0.0012261919
000040 83 14 4b bc c2 a2 b2 3b 29 eb 63 bb de e0 72 39
       -0.012395027 0.005451531 -0.0034777618 0.00023162688
000050 c9 f9 bd bb 78 ac 26 3a 9c 14 e9 39 a3 45 d5 39
       -0.005797599 0.00063580973 0.00044456578 0.0004067841
000060 75 58 01 bc aa 5c 72 3b e2 7b 10 3c aa 05 de bb
       -0.007894625 0.0036981502 0.008818598 -0.0067755776
000070 3b fe 47 3c 90 dd 48 3a 8b 35 88 bb de 20 58 3c
       0.012206609 0.000766241 -0.0041567734 0.01319143
000080 f6 e2 f3 3b e1 ed 9e bb 0d c9 e5 ba 96 8f b7 bb
       0.0074428273 -0.0048501347 -0.0017531231 -0.0056018336
000090 b3 42 85 3b 5a 7d 05 bc cb 6c f0 bb 8c 42 df 3a
       0.004066789 -0.008147562 -0.007337188 0.0017033382
0000a0 8d 96 ab bb 31 8c 8f 3b a8 e6 71 3b 07 c7 bf 3b
       -0.005236453 0.004380726 0.0036911163 0.0058525833
0000b0 2e a3 78 3c 31 39 52 3b 92 12 22 bc d6 a1 9e 3b
       0.015175624 0.0032077546 -0.009892123 0.0048410697
0000c0 b6 14 f0 3b bb 5e 80 3c 36 f0 87 3b a0 14 58 3b
       0.0073266877 0.015670171 0.0041485084 0.0032971278
0000d0 23 72 26 bc 30 f5 01 bc 59 c2 d6 bb bc 70 29 bb
       -0.010159048 -0.007931992 -0.0065539298 -0.0025854548
0000e0 c0 17 f6 bb 8a 20 88 3b cb 01 b1 3b 27 eb 82 3c
       -0.0075101554 0.0041542696 0.005401825 0.01598127
0000f0 50 3e 8d 3c fe 0f 8b 3a 61 a8 12 3c 72 cb 90 3b
       0.017241627 0.0010609624 0.0089512775 0.004418784
