results/ADHD_3x5fold_seed0/fold1_rep2_seed2001/ckpt_best_fold_1.pt (torch, 396078 bytes, 42 tensors)

encoder_c.convs.0.weight f4 [116, 64]
0	0x3d89b5ba	0.06724115
1	0x3e0eda37	0.1395043
2	0x3d9eba55	0.07750384
3	0x3db9b429	0.09067566
4	0x3d6c2512	0.05765254
5	0x3be12112	0.0068703974
6	0xbda97d7f	-0.082758896
7	0xbae69665	-0.0017592428
8	0x3dd6c81d	0.10487387
9	0x3d808adf	0.062764876
10	0x3e03167c	0.12801546
11	0xbddf185c	-0.10893318
12	0x3c33fa44	0.010984961
13	0x3dc50b9a	0.096213534
14	0x3e23b8e6	0.15988502
15	0x3dceb1e3	0.10092523
16	0x3df8f9b0	0.12156999
17	0xbd627a98	-0.055292696
18	0xbd7c1fd4	-0.06155379
19	0xbd642030	-0.05569476
20	0x3dcccf99	0.100005336
21	0xbc96be2e	-0.018401232
22	0x3bced9d1	0.006312587
23	0x3ca9c600	0.020724297
24	0x3df3ae7b	0.11898514
25	0xbcbb04f4	-0.02282951
26	0xbe0a0644	-0.13478953
27	0xbd0448cd	-0.03229599
28	0x3ccc961f	0.024973927
29	0xbddbc37d	-0.10730646
30	0x3dc9e793	0.098586224
31	0x3d40c7ae	0.04706543
32	0x3d952dfe	0.07284163
33	0x3df7cfc9	0.12100179
34	0x3d1b6d95	0.037946302
35	0x3dc68560	0.09693408
36	0x3dd0f797	0.10203474
37	0xbdc8b9cf	-0.09801065
38	0x3dfc8c7a	0.12331481
39	0xbe12bb01	-0.14329149
40	0xbd56c565	-0.052434344
41	0x3d4e7bb7	0.050410952
42	0x3daf6b18	0.085653484
43	0x3dc8a4d6	0.09797065
44	0x3bc7e3e4	0.0061001647
45	0xbce6b34e	-0.028161671
46	0x3e0af3b5	0.1356953
47	0xbd9d6e76	-0.076870844
48	0xbc72d229	-0.014820614
49	0xbc25e289	-0.010124811
50	0xbd8559ef	-0.06511294
51	0x3d2308c2	0.039803274
52	0x3cfd1ca3	0.030897444
53	0xbdeee3e6	-0.11664562
54	0xbc82afce	-0.01595297
55	0x3cbb800d	0.022888208
56	0x3da5221c	0.080631465
57	0x3da4cb32	0.08046569
58	0x3bb19ccd	0.0054203034
59	0x3c5f98f7	0.0136473095
60	0xbe068c0f	-0.13139366
61	0xbdb0e969	-0.086382695
62	0x3c8d3fd4	0.01724235
63	0x3d3d5071	0.046219293
64	0x3d8eb4b9	0.06968064
65	0xbd00a6c8	-0.031409055
66	0xbc95c839	-0.01828395
67	0x39c0f4b2	0.00036803406
68	0x3dad8be9	0.08473951
69	0xbd4b429f	-0.04962408
70	0xbdc17ebd	-0.094480015
71	0x3af72d04	0.001885802
72	0xbdcbf1d4	-0.099582344
73	0xbd30939c	-0.04310952
74	0x3daca22b	0.084293686
75	0xbc52c39e	-0.012864022
76	0xbd1b28ea	-0.037880816
77	0xbc69a60e	-0.014260782
78	0x3c81ce44	0.015845425
79	0x3d8944f0	0.06702602
80	0xbcce6562	-0.025194827
81	0xbd950cae	-0.07277809
82	0xbc8ef151	-0.017449053
83	0xbd89d15b	-0.067293845
84	0xbdb1412b	-0.08655008
85	0x3d9e6f5a	0.077360824
86	0x3e16d2c8	0.14728844
87	0xbd93e522	-0.07221438
88	0x3e143963	0.14475016
89	0xbdffd444	-0.12491658
90	0x3e072240	0.13196659
91	0x3da0dcba	0.078546
92	0x3db66f16	0.08907907
93	0xbbda1a94	-0.0066560004
94	0x3e052e86	0.13006029
95	0xbd405a29	-0.046960983
96	0xbdf5c967	-0.12001305
97	0xbd11e8d9	-0.03562245
98	0x3e2bc856	0.16775641
99	0x3cc73c12	0.024320636
100	0xbdd5cb40	-0.104391575
101	0xbdd511fa	-0.104038194
102	0xbd8fcda4	-0.07021645
103	0xbe0b7344	-0.13618189
104	0x3d835412	0.064125195
105	0xbd00390f	-0.031304415
106	0x3dfc622a	0.12323411
107	0xbc909863	-0.017650789
108	0xbd972eaf	-0.07381951
109	0x3d818a6f	0.06325232
110	0x3e127c1e	0.1430516
111	0xbd805895	-0.06266896
112	0x3ccbc9ce	0.024876501
113	0xbdaa05e3	-0.08301904
114	0x3dbb52b9	0.091466375
115	0x3dde79c6	0.1086307
116	0xbc2900f6	-0.0103151705
117	0x3dad3b1e	0.08458541
118	0xbd57a499	-0.052647207
119	0xbd3467ba	-0.044044234
120	0x3d94022d	0.072269775
121	0xbe090af5	-0.13383086
122	0x3dd0dd20	0.10198426
123	0xbc23f313	-0.010006684
124	0xbe03e525	-0.1288038
125	0x3da86f75	0.08224384
126	0xbde53a9d	-0.1119282
127	0x3dd6ad1a	0.10482235
128	0xbb9c6bbd	-0.0047735856
129	0x3d78fa2d	0.06078546
130	0xbb1745ee	-0.0023082453
131	0x3e05f171	0.13080384
132	0xbd15cc8b	-0.03657202
133	0xbcfdb661	-0.030970754
134	0xbded5eed	-0.11590371
135	0xbd84f0a6	-0.064912125
136	0x3dee003c	0.116211385
137	0xbd5357d2	-0.051597424
138	0xbd411c12	-0.04714591
139	0xbc286ee3	-0.010280344
140	0x3e2557b7	0.16146742
141	0x3d88d9f7	0.066821985
142	0xbd4f7885	-0.050652046
143	0x3cc172d5	0.023614326
144	0x3e04e8dd	0.12979455
145	0x3d3afcf6	0.0456514
146	0x3d26f57c	0.040761456
147	0x3dec52c7	0.11539226
148	0x3bc27100	0.005933881
149	0x3c986fe6	0.018608045
150	0xbe131465	-0.14363249
151	0xbe04eecb	-0.12981717
152	0xbe0376da	-0.12838307
153	0x3c2e4888	0.01063741
154	0xbda898f1	-0.08232296
155	0x3e2b5a66	0.16733703
156	0x3df83ec1	0.12121344
157	0xbd916aaa	-0.07100423
158	0xbc0c5a3d	-0.008566436
159	0x3d7f0a14	0.06226547
160	0xbddf8600	-0.1091423
161	0xbe2f8dbe	-0.17143914
162	0xbe3a9dc7	-0.1822425
163	0x3d6235d7	0.055227127
164	0x3d802c19	0.06258411
165	0x3e0a607d	0.1351337
166	0xbc05ce69	-0.008166888
167	0xbdc02210	-0.09381497
168	0xbd8d31c8	-0.06894261
169	0x3d6c8d19	0.05775175
170	0x3d838b78	0.06423086
171	0x3d762fbd	0.06010412
172	0xbca09f67	-0.019607259
173	0xbddf6464	-0.1090782
174	0x3db67200	0.089084625
175	0xbdd48705	-0.103773154
176	0xbcd1eb0b	-0.025624773
177	0x3b0811c4	0.0020762542
178	0x3e236214	0.15955383
179	0xbd005687	-0.03133252
180	0xbde0a538	-0.10969013
181	0x3c1703b0	0.009217188
182	0x3dc8bbdf	0.098014586
183	0xbd8d8f65	-0.06912116
184	0x3db4ee71	0.088345416
185	0x3d351c72	0.04421658
186	0x3cfa3c11	0.03054622
187	0x3e10776b	0.14108054
188	0xbd65bf6d	-0.05609076
189	0xbde4a14a	-0.11163576
190	0x3d6831c9	0.056688104
191	0x3cb5a3db	0.022172859
192	0x3db7cb08	0.08974272
193	0xbcc25a7e	-0.02372479
194	0xbda84409	-0.08216102
195	0x3d9d9d0d	0.07695971
196	0x3da188be	0.078874096
197	0x3da96bd2	0.08272518
198	0xbba72b43	-0.0051015927
199	0xbc06cf10	-0.0082280785
200	0x3d8c309e	0.068452105
201	0xbd770092	-0.06030328
202	0x3d423df4	0.047422364
203	0xbdbcbc6e	-0.092156276
204	0x3e0cdcc5	0.13756092
205	0xbcad4eaa	-0.021155674
206	0xbdd7a555	-0.105295815
207	0xbd8df9d5	-0.06932417
208	0x3dda4024	0.10656765
209	0x3d573383	0.05253936
210	0xbdb5235b	-0.08844634
211	0xbd4a1eae	-0.049345665
212	0xbe02748b	-0.1273977
213	0x3dec1548	0.115274966
214	0xbbd88b90	-0.006608434
215	0x3d95718b	0.07297047
216	0xbda4f777	-0.08055013
217	0x3da3ae37	0.07992213
218	0xbd9cd18c	-0.076571554
219	0xbe14f8c9	-0.14548029
220	0x3ce66770	0.028125495
221	0xbddddc7c	-0.1083307
222	0xbd322e7f	-0.043501373
223	0x3d4ac33f	0.049502607
224	0xbdb54e14	-0.08852783
225	0xbd473aea	-0.04864017
226	0x3d5d85dc	0.054082736
227	0xbdd3f7dd	-0.103500105
228	0x3c687f7a	0.014190549
229	0x3d06ee77	0.03294226
230	0xbdd1bb36	-0.10240786
231	0x3dfe2727	0.124098115
232	0xbdc7fe6f	-0.09765326
233	0x3e1906a5	0.14943941
234	0x3d8d020c	0.06885156
235	0x3d34b3b5	0.044116694
236	0x3cf6d399	0.030130195
237	0xbdecddd3	-0.11565747
238	0xbcbe6153	-0.023239767
239	0xbd681085	-0.05665638
240	0xbd04712b	-0.032334488
241	0xbe10e84f	-0.14151119
242	0xbe050fc8	-0.12994301
243	0xbde1f290	-0.11032593
244	0x3d3d1ccb	0.046170037
245	0xbbea3df4	-0.0071484987
246	0xbe0458b5	-0.12924464
247	0x3d367c29	0.044552002
248	0x3de6fd1a	0.11278744
249	0xbd792b59	-0.060832355
250	0xbc8b41a5	-0.016999075
251	0x3e0fde2b	0.14049594
252	0xbde90a58	-0.11378926
253	0x3d866732	0.06562652
254	0x3e2cc703	0.16872792
255	0xbd4ff103	-0.050766956

encoder_c.convs.0.bias f4 [64]
0	0xba45d4c1	-0.00075466564
1	0x3c3226e8	0.010873534
2	0x3c1f0282	0.009705188
3	0x3c80d208	0.01572515
4	0xbc7d9648	-0.015477724
5	0x3cb98384	0.02264572
6	0x3c0f31b4	0.0087398775
7	0xbb92a4af	-0.004475198
8	0x3c3164aa	0.010827223
9	0xbb81d5a5	-0.003962236
10	0x3c5fb1e6	0.013653254
11	0x3bcfe787	0.006344739
12	0x3bba3ab9	0.00568327
13	0x3b00f7a3	0.0019678853
14	0x3c7f3bd5	0.01557823
15	0xba0480dc	-0.0005054602
16	0x3c595336	0.013264468
17	0xbb87ccb1	-0.004144274
18	0xbc59267f	-0.013253807
19	0xbbf7b097	-0.007558893
20	0xbb457455	-0.0030129154
21	0x3ca6600d	0.020309472
22	0x3cad6b79	0.021169411
23	0x3c92d097	0.017921729
24	0x3c359e93	0.01108517
25	0x3c80c4db	0.015718868
26	0x3c69b96d	0.0142654
27	0x3cbf345e	0.0233404
28	0xbc1a376c	-0.009412628
29	0x3c229147	0.009922332
30	0x3c97bc4a	0.0185224
31	0x3c673025	0.0141106
32	0x3c2e7092	0.010646956
33	0xbc18743f	-0.009305059
34	0x3c2f905e	0.010715572
35	0x3c8cacbd	0.017172212
36	0x3c75131a	0.014958167
37	0x3c750c73	0.014956581
38	0x3c36dd0f	0.011161103
39	0x3c223cbd	0.009902176
40	0x3c5e3ae7	0.013563848
41	0x3b6a03bb	0.003570779
42	0xbbdd3de9	-0.006751765
43	0x3bd17afc	0.0063928347
44	0x3c2cfebd	0.010558781
45	0x3aae544c	0.0013300269
46	0x3ca625dc	0.020281725
47	0x3c057da7	0.008147634
48	0x3c2b90c5	0.010471527
49	0x3c97464c	0.018466137
50	0x3c8e4415	0.017366448
51	0xbc19d73e	-0.009389697
52	0x3bc4faf3	0.006011361
53	0xbbb94592	-0.0056540454
54	0xbc1d9b8b	-0.009619604
55	0xbb92f0ae	-0.0044842577
56	0x3b876c8c	0.004132813
57	0x3c9e7cf4	0.019346692
58	0x3bf4ef21	0.0074747954
59	0xbbc678f8	-0.006056901
60	0x3c9c9e6d	0.019118512
61	0xbaee49a6	-0.0018179908
62	0xbc1f0a7e	-0.009707091
63	0xbc0a8487	-0.008454449

encoder_c.convs.1.weight f4 [64, 64]
0	0xbe08f029	-0.13372864
1	0xbe00bfa9	-0.12573113
2	0x3de883cc	0.11353263
3	0x3d068a30	0.03284663
4	0x3d0fbcfd	0.035092343
5	0xbdc98098	-0.098389804
6	0x3e1ec540	0.15504932
7	0xbd2ab703	-0.04167844
8	0xbe19063e	-0.14943787
9	0x3bcd0221	0.0062563573
10	0xbd819ff2	-0.06329335
11	0xbe12232c	-0.1427123
12	0x3e4cea1d	0.20011182
13	0x3dc68484	0.09693244
14	0xbd929b75	-0.07158557
15	0xbd3adddf	-0.04562175
16	0xbd235c5d	-0.039883006
17	0x3d330ac4	0.04371144
18	0xbdc9e2d0	-0.09857714
19	0xbca6c4db	-0.02035754
20	0x3d1d426e	0.03839343
21	0x3dcf6b88	0.10127932
22	0x3e4bbf0b	0.19897096
23	0xbd55990c	-0.05214791
24	0x3d936b12	0.071981564
25	0xbbb16989	-0.005414192
26	0x3ba1d507	0.004938725
27	0x3d94d99d	0.07268069
28	0x3dec97c5	0.11552385
29	0xbcae5c2b	-0.021284183
30	0xbe107acf	-0.14109348
31	0xbd766c0c	-0.060161635
32	0x3b1baaa0	0.0023752823
33	0x3e1a4a9f	0.15067528
34	0x3d69a5a6	0.05704274
35	0x3dbbf06c	0.09176716
36	0xbd33f9f5	-0.04393955
37	0xbe05f1e2	-0.13080552
38	0xbc332d24	-0.010936055
39	0x3c270ea4	0.010196362
40	0xbd8d8dca	-0.0691181
41	0x3d706253	0.05868752
42	0x3e3bc1c3	0.18335633
43	0xbdd3e500	-0.10346413
44	0xbdda595a	-0.10661574
45	0xbcfdf386	-0.03099991
46	0x3d41c4a5	0.047306675
47	0x3df44147	0.11926513
48	0xbdb9b5a9	-0.09067852
49	0x3e1cf3b3	0.15327339
50	0x3d5c4706	0.05377867
51	0x3d441e94	0.047880724
52	0xba931c02	-0.0011223557
53	0x3ccd1c28	0.02503784
54	0x3d9df639	0.07712979
55	0xbbbd2840	-0.0057726204
56	0x3ae4edac	0.0017465851
57	0x3bf67712	0.0075215185
58	0xbd81bfde	-0.06335424
59	0xbe045c95	-0.12925942
60	0x3db0244f	0.08600675
61	0xbdcb2cf1	-0.09920681
62	0x3c02cecf	0.007983877
63	0x3d7183c0	0.058963537
64	0xbcf5b162	-0.02999181
65	0xbdbf7d2c	-0.093500465
66	0x3e179083	0.1480122
67	0x3d1297da	0.03578935
68	0x3dc8ff9e	0.0981438
69	0x3c084f7f	0.008319735
70	0x3c4226ed	0.011850101
71	0xbd9c559f	-0.076335184
72	0xbdf11171	-0.11770905
73	0xbe3d6e3e	-0.18499085
74	0x3d68f49b	0.0568739
75	0x3dc17452	0.094460145
76	0x3d6e561b	0.058187585
77	0x3e097f8f	0.13427566
78	0xbda58695	-0.0808231
79	0x3da9e310	0.08295262
80	0xbd7a1262	-0.061052687
81	0xbbb88b50	-0.0056318417
82	0xbde5799d	-0.112048365
83	0x3e26d04e	0.162904
84	0xbd7014c5	-0.058613557
85	0xbe02679c	-0.12734836
86	0x3e18ae83	0.14910321
87	0x3c42903d	0.011875209
88	0xbcfb8134	-0.030701257
89	0x3b8cee81	0.004300893
90	0x3e499227	0.19684659
91	0x3c15b197	0.009136579
92	0x3dba5f5b	0.09100219
93	0xbd399dd8	-0.045316547
94	0x3df4ae16	0.11947267
95	0xbc847729	-0.016170101
96	0x3d1030fc	0.035202965
97	0x3d96498d	0.073382474
98	0x3d83b965	0.064318456
99	0x3c1e2f87	0.009654886
100	0xbc8f5a1d	-0.017499024
101	0x3e5ae2fc	0.2137565
102	0xbd1803d5	-0.03711303
103	0x3de1da4e	0.110279664
104	0x3e480325	0.1953245
105	0x3d9705ec	0.073741764
106	0xbe282ad4	-0.16422588
107	0x3e54a43c	0.20765775
108	0x3d79cdff	0.06098747
109	0xbd92b867	-0.07164078
110	0x3dcba016	0.09942643
111	0x3e2bce36	0.16777882
112	0xbd11a396	-0.0355564
113	0x3b7ea82c	0.0038857562
114	0xbc84014e	-0.016113903
115	0x3c7e5e74	0.015525449
116	0x3e1654df	0.14680813
117	0x3e020cf1	0.12700249
118	0x3d04e0d3	0.03244097
119	0xbd263b4b	-0.04058389
120	0xbe32a582	-0.17445949
121	0x3e00ad52	0.12566116
122	0x3d58a17e	0.052888386
123	0xbb1fbbfb	-0.002437352
124	0xbd5df013	-0.05418403
125	0x3bdb7edd	0.006698473
126	0xbd6935e0	-0.056936145
127	0x3e154948	0.14578736
128	0x3dcbab9c	0.09944841
129	0xbd6271d8	-0.05528435
130	0xbc8c3a5b	-0.01711767
131	0xbd7ea138	-0.06216547
132	0xbd39b0d3	-0.04533465
133	0xbd49f86b	-0.049309175
134	0x3e2ff796	0.1718429
135	0x3d027464	0.03184928
136	0x3e175843	0.14779763
137	0x3e2c22ff	0.16810225
138	0x3e1c7cf7	0.15282045
139	0x3e3790af	0.17926286
140	0xbe0745a4	-0.1321016
141	0x3dc3a6cd	0.09553299
142	0xbde6d797	-0.11271589
143	0x3e31fa60	0.17380667
144	0x3de98e70	0.11404121
145	0xbc3adcdc	-0.011405196
146	0x3d83d9b7	0.0643801
147	0xbe1346b5	-0.14382441
148	0xbc8c2710	-0.01710847
149	0x3e26c4ca	0.16286007
150	0x3dc8adc8	0.09798771
151	0xbd5983ed	-0.05310433
152	0x3db30b5b	0.087424
153	0x3e0d7738	0.1381501
154	0x3e04a31e	0.1295285
155	0x3e10e07c	0.14148134
156	0xbdd39a34	-0.10332146
157	0xbde924fa	-0.11384006
158	0x3de75243	0.11294987
159	0xbe219acf	-0.15781711
160	0x3d8811c3	0.06644013
161	0x3d947b35	0.072500624
162	0x3ce392f7	0.02778004
163	0xbb7104c8	-0.0036776531
164	0x3d96e994	0.0736877
165	0xbe326a7a	-0.1742343
166	0x3ba86c9d	0.005139901
167	0x3d48ec5f	0.049053546
168	0x3df6b1f4	0.120456606
169	0x3d935306	0.0719357
170	0xbb71507d	-0.0036821656
171	0xbdbb9226	-0.09158735
172	0xbc90d288	-0.017678514
173	0xbd02f047	-0.031967428
174	0xbd5face8	-0.054608256
175	0x3bdb1fad	0.0066871257
176	0xbe09d1d8	-0.13458955
177	0x3e28d887	0.16488849
178	0xbe0159fa	-0.1263198
179	0xbd1c7410	-0.038196623
180	0x3e05cda5	0.13066728
181	0x3d90793f	0.07054376
182	0xbda2e24f	-0.07953321
183	0xbac4634e	-0.0014983208
184	0xbc98e841	-0.018665435
185	0xbd956a36	-0.07295649
186	0xbdd6b1e6	-0.1048315
187	0x3d197812	0.037468024
188	0xbdc32bb9	-0.09529824
189	0xbd10f59b	-0.035390478
190	0x3d27c3ee	0.040958337
191	0x3d8ae380	0.067816734
192	0x3dd111ac	0.10208449
193	0x3d87bcea	0.066278294
194	0xbe179ee7	-0.1480671
195	0xbd9510de	-0.07278608
196	0x3d33ace3	0.04386605
197	0x3d435524	0.04768862
198	0xbe196b76	-0.149824
199	0xbbf3e6df	-0.0074432935
200	0x3d2cb5bd	0.042165507
201	0x3e4c2f7c	0.19939989
202	0x3aaa3399	0.0012985348
203	0x3d93339b	0.07187577
204	0xbd209b44	-0.039210573
205	0x3de8b9ef	0.11363589
206	0x3deb1989	0.1147948
207	0xbe125f79	-0.14294232
208	0xbd20f4db	-0.039296012
209	0x3cf5792b	0.029965004
210	0xbdb2caaa	-0.08730061
211	0x3d5d2dfe	0.05399894
212	0x3bc931a4	0.006139951
213	0x3d8cf64c	0.06882915
214	0xbd6949e3	-0.05695523
215	0x3d935b52	0.07195152
216	0x3e1b106e	0.15142986
217	0xbc6c7464	-0.014432047
218	0x3e17a04b	0.1480724
219	0xbdc4450c	-0.09583482
220	0x3d9a91da	0.0754735
221	0xbca63363	-0.020288175
222	0xbe272cd0	-0.16325688
223	0xbcccf0e9	-0.025017219
224	0xbda05033	-0.07827797
225	0xbe1a50e0	-0.15069914
226	0x3e120811	0.1426089
227	0xbd57fdbe	-0.05273222
228	0x3afc24b5	0.0019237014
229	0x3e50b0cf	0.20379947
230	0x3b15500d	0.002278331
231	0x3b14a0e5	0.0022678908
232	0xbc8e7644	-0.017390378
233	0xbda873bb	-0.08225199
234	0x3e0d1b96	0.13780054
235	0x3e0939cf	0.13400958
236	0xbdb5cae6	-0.088765904
237	0x3cac92e7	0.021066142
238	0x3cc981de	0.024598058
239	0x3d576c41	0.052593473
240	0x3bd51a1a	0.0065033557
241	0x3e018ec5	0.12652119
242	0x3d631203	0.0554371
243	0xbdd0dd24	-0.10198429
244	0xbd169212	-0.036760397
245	0x3e1b5e41	0.15172674
246	0x3d3a3898	0.04546413
247	0xbc6df253	-0.014523107
248	0x3e2b6342	0.16737083
249	0xbd1c64ed	-0.038182188
250	0x3c608f55	0.013706048
251	0xbc9aa911	-0.018879445
252	0xbdee2e9f	-0.11629986
253	0xbd80efaf	-0.06295716
254	0x3cfc1549	0.030771868
255	0xbdcf6306	-0.10126309

encoder_c.convs.1.bias f4 [64]
0	0x3c9d3b16	0.019193213
1	0x3ca1d64a	0.019755501
2	0x3b9cbb44	0.004783066
3	0xbbcd09b0	-0.0062572584
4	0xbbc2bafc	-0.0059427004
5	0x3befb8a6	0.007315713
6	0x3c3ad992	0.011404412
7	0xbb120694	-0.0022281753
8	0x3c62b85b	0.013837899
9	0x3c36d3ba	0.011158878
10	0x3c4980f1	0.012298808
11	0xbbecf7da	-0.0072316946
12	0x3c43c298	0.01194825
13	0x3bce5b8c	0.0062975343
14	0x3b85abd7	0.004079323
15	0xbacf3c7c	-0.0015810872
16	0xbc10abba	-0.008830005
17	0x3cc94a10	0.024571449
18	0xbc1812d5	-0.009281834
19	0x3c313db7	0.010817937
20	0x3bb5dee2	0.0055502513
21	0xbabf6495	-0.0014602119
22	0x3c989610	0.018626243
23	0xbc9463c4	-0.018113978
24	0x3c344a2c	0.011004012
25	0x3b041926	0.0020156591
26	0x3c55d358	0.013050877
27	0xbc16a109	-0.009193667
28	0x3be380d9	0.00694285
29	0xbc2946f9	-0.010331863
30	0x3c7c031e	0.015381603
31	0x3cb5007a	0.022094954
32	0xbc081e3e	-0.008307992
33	0x3c3e73cd	0.011624289
34	0xbc479d78	-0.01218354
35	0x3c0976b5	0.008390118
36	0x3b209c20	0.002450712
37	0x3c455748	0.012044735
38	0x3bd01a34	0.00635078
39	0x3bbf6cc8	0.005841825
40	0x3c34a870	0.011026487
41	0x3c5310bf	0.012882411
42	0x3c6dc105	0.0145113515
43	0x3c652b17	0.013987324
44	0x3c0a15b4	0.008428026
45	0x3cce2770	0.02516529
46	0xbb899533	-0.004198694
47	0x3c3b4d03	0.011431935
48	0xbbe7e1cd	-0.007076478
49	0x3bdeb022	0.006795899
50	0xbc689267	-0.014195061
51	0x3cbf0825	0.023319313
52	0x3c60b5e7	0.013715244
53	0xbc0375e3	-0.008023712
54	0x3aafd072	0.0013413562
55	0xbc682c7f	-0.014170765
56	0x3c989437	0.018625362
57	0xbc779850	-0.015111998
58	0x3c990f1a	0.018683959
59	0xb9d3f000	-0.0004042387
60	0x3bb3d40d	0.005487925
61	0xbbc6a3b8	-0.0060619973
62	0x3c36d18c	0.011158358
63	0x3cf5d385	0.030008087

encoder_c.convs.2.weight f4 [64, 64]
0	0x3dc98728	0.09840232
1	0x3d472b97	0.048625555
2	0x3d6155ac	0.055013344
3	0xbc733ac5	-0.014845555
4	0xbcfdec90	-0.03099659
5	0x3b676c5f	0.0035312397
6	0x3dbeb1eb	0.09311279
7	0xbdfa7d33	-0.12230911
8	0x3d739698	0.05946979
9	0x3b61003d	0.0034332417
10	0xbdaacd48	-0.083399355
11	0xbcd0bc4b	-0.02548041
12	0xbe13d82e	-0.14437935
13	0x3b1b1c1c	0.0023667878
14	0xbda9e25a	-0.08295126
15	0x3cf7c648	0.030245915
16	0x3c20d3d2	0.009816127
17	0x3e1b80c2	0.15185836
18	0xbaf3b7dc	-0.0018594223
19	0x3d20ba65	0.03924026
20	0xbd47c262	-0.048769362
21	0x3cfde499	0.030992793
22	0xbd9029b6	-0.07039206
23	0x3d92f0b1	0.071748145
24	0x3d9bbc2f	0.076042525
25	0xbd45d9b9	-0.04830334
26	0x3c9a296f	0.018818585
27	0xbe01dbb2	-0.12681463
28	0xbd920372	-0.071295634
29	0x3ce1f40d	0.027582193
30	0x3e386ed3	0.18011026
31	0xbd434346	-0.04767158
32	0x3d236ebb	0.039900523
33	0xbd458ed2	-0.048231907
34	0xbdcd4ce7	-0.100244336
35	0xbd9efb59	-0.077627845
36	0x3cd91c70	0.026502818
37	0x3d18b761	0.03728426
38	0x3e017437	0.12641989
39	0xbcfcefe2	-0.030876104
40	0xbdee04c1	-0.116220005
41	0xbe11ff86	-0.1425763
42	0xbdbc6dc8	-0.092006266
43	0x3b694e1a	0.003559953
44	0x3d88c869	0.0667885
45	0xbe21df4a	-0.15807834
46	0xbd12a0a4	-0.03579773
47	0x3c812050	0.015762478
48	0xbdab735b	-0.08371612
49	0x3d312dd6	0.043256603
50	0xbcea3201	-0.028588297
51	0xbd2fd11f	-0.042924043
52	0xbcaef71f	-0.02135807
53	0x3cec37f9	0.028835284
54	0x3db80507	0.08985334
55	0x3c2de3f4	0.01061343
56	0x3d55ed49	0.052228246
57	0x3daf08c8	0.08546597
58	0x3df6f455	0.120583214
59	0xbda2ad4e	-0.079432115
60	0xbc0489c8	-0.00808949
61	0xbdf6a290	-0.12042725
62	0xbd16eb98	-0.036845773
63	0x3e06dc03	0.13169865
64	0x3c13c2cf	0.009018614
65	0xbc8fe58f	-0.017565517
66	0x3d9643db	0.07337161
67	0xbe3a6be5	-0.18205221
68	0x3a462fe9	0.000756024
69	0x3db29126	0.08719091
70	0xbcf01600	-0.029307365
71	0x3cb8967f	0.0225327
72	0xbe1fa690	-0.15590882
73	0xbcb10460	-0.021608531
74	0x3c2d99cb	0.010595749
75	0xbdae7f64	-0.085203916
76	0xbdb71a81	-0.08940602
77	0x3d167c07	0.036739375
78	0x3cf91784	0.030406721
79	0xbdbcfbab	-0.09227689
80	0x3bd7c08a	0.0065842317
81	0x3dc72b89	0.097251005
82	0xbde03207	-0.10947042
83	0x3e07c28f	0.13257812
84	0xbd8de3d0	-0.069282174
85	0xbdaddaae	-0.084889755
86	0x3e0c851f	0.13722657
87	0x3d85e0dc	0.06537029
88	0xbc6a9cbc	-0.014319595
89	0x3d6553ff	0.055988308
90	0x3cbca573	0.023028111
91	0xbcdd0f26	-0.026984762
92	0x3d1e2cab	0.038616817
93	0xbdad673a	-0.084669545
94	0xbd8d5126	-0.069002435
95	0xbb8d848d	-0.00431878
96	0x3da5c298	0.080937564
97	0xbddce02b	-0.10784944
98	0xbd93a27a	-0.07208724
99	0xbda0f295	-0.07858769
100	0xbe155663	-0.14583735
101	0xbc929977	-0.017895443
102	0x3e088b13	0.13334303
103	0xbdb11b18	-0.08647746
104	0x3d767557	0.060170498
105	0x3d453aa3	0.048151623
106	0xbd6d57d6	-0.057945095
107	0xbaa20c90	-0.0012363363
108	0xbccfb365	-0.025354097
109	0x3e259fde	0.16174266
110	0xbd0d6c32	-0.03452701
111	0x3cf49fc9	0.029861348
112	0x3e003624	0.12520653
113	0x3d72947c	0.059223637
114	0x3d9e2de1	0.077235945
115	0x3e0618a5	0.13095339
116	0xbdd92b42	-0.10603954
117	0x3d5697fa	0.05239103
118	0x3d8f5aa6	0.06999712
119	0x3de2f30f	0.11081516
120	0xbd24ffd9	-0.040283058
121	0xbde8c3f8	-0.11365503
122	0x3caff451	0.021478804
123	0x3dbee51b	0.09321042
124	0xbe0d38dd	-0.13791223
125	0x3d54417e	0.05182027
126	0x3d376015	0.044769365
127	0xbde9e484	-0.11420539
128	0x3df2390b	0.11827286
129	0x3e36ac93	0.1783927
130	0x3d47abfb	0.048747998
131	0x3e32b6d0	0.1745255
132	0xbd89a1c2	-0.06720306
133	0xbd326fe5	-0.043563742
134	0x3d3e98ea	0.04653255
135	0xbd0e65c3	-0.034765016
136	0x3e34141a	0.17585793
137	0xbe12ba3f	-0.1432886
138	0xbcee6f58	-0.029105827
139	0xbde54138	-0.1119408
140	0xbde4696d	-0.11152921
141	0x3d618a7e	0.055063717
142	0x3bb7caa2	0.0056088725
143	0x3da5c3fb	0.08094021
144	0x3b473206	0.0030394807
145	0x3d286686	0.0411134
146	0x3e37ec0e	0.17961141
147	0x3d71b963	0.05901469
148	0x3e17cb59	0.14823665
149	0x3cef8fae	0.029243317
150	0xbcfeb936	-0.031094175
151	0x3d289183	0.041154396
152	0x3da922d6	0.082585976
153	0x3d8c621e	0.06854652
154	0xbd7e5090	-0.06208855
155	0xbd2a16a0	-0.041525483
156	0x3e11bdcc	0.14232558
157	0x3d0c780a	0.034294166
158	0x3cec9c12	0.028883014
159	0xbe027e2a	-0.1274344
160	0xbd9a0658	-0.07520741
161	0x3d006844	0.031349435
162	0xbe0de43f	-0.138566
163	0xbcb42c80	-0.021993876
164	0xbe23b74f	-0.15987895
165	0x3d91c10c	0.07116899
166	0x3d82d6ff	0.063886635
167	0xbca91382	-0.020639185
168	0xbe2aff89	-0.16699041
169	0xbe52bb27	-0.20579205
170	0xbdd82baa	-0.10555203
171	0xbe306019	-0.17224158
172	0x3e1f6fab	0.15569942
173	0xbc2eb1b5	-0.010662486
174	0xbde676ba	-0.11253114
175	0xbd15635d	-0.036471713
176	0x3da39e3b	0.079891644
177	0xbd485d5b	-0.048917156
178	0xbd6ce828	-0.05783859
179	0xbde910ce	-0.11380158
180	0x3e1baf55	0.15203603
181	0xbdc6c1f4	-0.097049624
182	0x3d967572	0.0734662
183	0x3d80c011	0.06286634
184	0x3db70c23	0.08937862
185	0xbe0cb137	-0.13739477
186	0xbd2b4fc9	-0.041824136
187	0x3e0db2f5	0.13837798
188	0xbd91ada3	-0.07113197
189	0xbdb922df	-0.09039854
190	0x3db834e2	0.089944616
191	0xbd47c810	-0.04877478
192	0x3b9475be	0.0045306375
193	0xbca47c26	-0.02007873
194	0xbd571c7d	-0.052517403
195	0xbd8a7647	-0.06760841
196	0xbd99aee7	-0.07504063
197	0xbb1469b7	-0.0022646019
198	0x3bf8fc91	0.0075984676
199	0xbc12f14b	-0.008968662
200	0x3d879ff5	0.06622306
201	0x3d8b147a	0.06791015
202	0xbda30c15	-0.07961289
203	0x3ccb7983	0.024838215
204	0x3e1c1bb2	0.1524494
205	0xbd7b87ec	-0.061408922
206	0x3d747e98	0.05969104
207	0xbd43407e	-0.047668926
208	0x3b0548e3	0.0020337633
209	0xbb642420	-0.0034811571
210	0xbd23b397	-0.039966192
211	0x3dd362d0	0.10321581
212	0x3d37bb94	0.044856623
213	0xbc4b7911	-0.012419001
214	0xbb67f9f9	-0.0035396798
215	0xbd4de8d6	-0.050270878
216	0xbd16bd62	-0.036801703
217	0xb982d950	-0.00024957443
218	0x3d431f77	0.04763743
219	0x3c29b2cc	0.01035757
220	0xbdf54ff3	-0.1197814
221	0x3d9be08c	0.07611188
222	0xbd619f8f	-0.055083808
223	0xbbe69353	-0.0070366054
224	0x3ddb2fb6	0.107024595
225	0x3ddca4b7	0.10773604
226	0x3d69f709	0.057120357
227	0x3dd90de9	0.10598356
228	0x3dbfa9dd	0.09358571
229	0xbda711a5	-0.08157662
230	0x3d310098	0.043213457
231	0x3cf183d4	0.029481806
232	0xbcbed328	-0.023294047
233	0xbe19ccc1	-0.15019514
234	0x3c3dfb1b	0.011595513
235	0x3d967fc0	0.07348585
236	0xbc86df35	-0.016463855
237	0xbd378ee0	-0.04481399
238	0xbcd1eae0	-0.025624692
239	0xbd67f78a	-0.056632556
240	0x3e108235	0.1411217
241	0x3d11dab4	0.035608962
242	0xbc2572f3	-0.010098207
243	0x3d6320b6	0.055451117
244	0xbc6add3f	-0.014334976
245	0x3d32f3c5	0.043689508
246	0xbca108ec	-0.019657575
247	0xbdd1817f	-0.102297775
248	0xbc84b105	-0.01619769
249	0x3d02c7f2	0.031928964
250	0xbb85f62b	-0.0040881834
251	0x3d2ffa4b	0.042963307
252	0x3dcab12f	0.09897076
253	0x3cbc0fce	0.022956755
254	0x3d7bcafa	0.06147287
255	0xbcb4874b	-0.022037169

encoder_c.convs.2.bias f4 [64]
0	0xbc2aecd5	-0.010432442
1	0xbc313e7c	-0.01081812
2	0x3c263462	0.010144325
3	0xbc2e30f6	-0.01063179
4	0x3c3131b4	0.010815073
5	0x3c3b2d5d	0.01142439
6	0xbc3c9bd8	-0.011511765
7	0x3c52099b	0.012819673
8	0xbc2b2488	-0.010445721
9	0x3c2f5d29	0.010703363
10	0x3c2fdbba	0.010733539
11	0x3c42348a	0.011853347
12	0x3c33c12c	0.010971349
13	0xbc37d2b3	-0.011219668
14	0x3c2e4227	0.010635889
15	0xbc2c6d3b	-0.010524089
16	0xbb5a3887	-0.0033297853
17	0xbc41fb34	-0.011839677
18	0xbc31a99a	-0.010843659
19	0x3c35404e	0.011062695
20	0x3c33946b	0.010960679
21	0xbc296c43	-0.010340753
22	0x3c356b0f	0.011072888
23	0x3c2d9b6b	0.010596137
24	0xbc332dc5	-0.010936205
25	0x3c3b9519	0.011449122
26	0x3be066c3	0.0068481877
27	0x3c323788	0.0108774975
28	0x3c309eab	0.010780017
29	0xbc12c5d5	-0.0089583
30	0xbc341b03	-0.010992768
31	0x3c57d374	0.013172973
32	0xbc35e7e7	-0.011102653
33	0xbc35cdb7	-0.0110964095
34	0x3c3c38d1	0.011488155
35	0xbc328b9f	-0.010897546
36	0xbc2dfd79	-0.010619515
37	0xbc2f9eb0	-0.010718986
38	0xbc2ece51	-0.010669307
39	0xbc33a0b1	-0.010963605
40	0x3c2da490	0.010598317
41	0x3c2fb64a	0.010724613
42	0x3c492e2b	0.012279074
43	0x3c3bc5a5	0.011460696
44	0xbc365528	-0.011128701
45	0x3c32f2ee	0.010922177
46	0x3c1e20da	0.009651387
47	0x3c2a0dfd	0.010379312
48	0x3c33ee31	0.010982082
49	0x3b357a09	0.0027691147
50	0xbc43ab78	-0.011942737
51	0x3c39c13a	0.011337573
52	0xbc338ba9	-0.010958591
53	0xba8a6208	-0.001055778
54	0xbbabf7cf	-0.005248047
55	0xbc325f55	-0.010886987
56	0xbc3a8671	-0.011384592
57	0x3c33fcec	0.010985594
58	0xbbdfbc09	-0.0068278355
59	0x3c3516b0	0.011052772
60	0xbc3290e2	-0.010898801
61	0x3c41ead5	0.0118357735
62	0x3c301848	0.010747977
63	0xbc382f98	-0.011241816

encoder_b.convs.0.weight f4 [116, 64]
0	0x3c81179e	0.015758332
1	0xbd6c12e8	-0.057635218
2	0x3d9a6e4e	0.0754057
3	0xbe241d7e	-0.16026875
4	0x3daa31fe	0.083103165
5	0x3e021809	0.12704481
6	0xbe0c5cc4	-0.13707262
7	0x3d1a655f	0.03769433
8	0xbe1c07bc	-0.15237325
9	0x3e243e91	0.16039492
10	0xbc8e1f85	-0.017349014
11	0xbe10e5cf	-0.14150165
12	0x3df5bced	0.11998925
13	0x3d84be74	0.064816386
14	0xbdc3544f	-0.09537565
15	0xbe271b65	-0.16319044
16	0xbe2e2456	-0.17006049
17	0x3d1a54b6	0.037678443
18	0x3c9679a5	0.018368552
19	0x3d9dd804	0.07707217
20	0xbe32a715	-0.17446549
21	0x3dddd22c	0.10831103
22	0xbd890bdb	-0.066917144
23	0xbd9204e9	-0.07129843
24	0x3e0adf82	0.13561824
25	0xbe28a0d8	-0.16467607
26	0x3dd15275	0.102208056
27	0xbe127c6c	-0.14305276
28	0x3e198b74	0.14994603
29	0xba9b2013	-0.001183512
30	0xbd4da29e	-0.050203912
31	0x3ddd3b38	0.10802311
32	0x3e297b5a	0.16550961
33	0x3e387738	0.18014228
34	0xbd992e4c	-0.074795336
35	0x3db5bd6d	0.08874021
36	0x3d97a9e2	0.074054495
37	0x3dacd4f3	0.08439054
38	0x3de06726	0.10957174
39	0x3db8561f	0.09000801
40	0xbe0fb627	-0.1403433
41	0xbdd7bdef	-0.10534274
42	0xbbecf013	-0.0072307675
43	0x3cbb7e1d	0.022887284
44	0xbe286ad0	-0.16446996
45	0xbc7af6c2	-0.015317621
46	0x3e33247f	0.17494391
47	0xbd9a210e	-0.07525836
48	0xbbc9fca9	-0.0061641526
49	0x3dd5c4b8	0.10437912
50	0xbe28f283	-0.16498761
51	0x3e0ab4f2	0.13545588
52	0xbe3707a6	-0.17874011
53	0x3d586379	0.05282924
54	0xbe1b5f59	-0.15173091
55	0xbd9667aa	-0.07343991
56	0x3e06484d	0.13113518
57	0x3d8cd530	0.068766
58	0x3dd9acdc	0.106286734
59	0xbdd0566a	-0.10172732
60	0x3e38a237	0.1803063
61	0xbd6d18e7	-0.057885077
62	0xbe1665a9	-0.14687218
63	0x3d4b102a	0.049575962
64	0xbd2c2423	-0.04202665
65	0xbd9ca4a9	-0.07648594
66	0x3e06ab15	0.131512
67	0x3d087105	0.03331091
68	0xbd0c5f41	-0.03427053
69	0xbe11c721	-0.14236118
70	0x3e3183a2	0.1733537
71	0x3e1b8a31	0.15189435
72	0xbe2603ce	-0.16212389
73	0xbd7afc71	-0.061275903
74	0xbda95c13	-0.08269515
75	0xbcc21ba0	-0.023694813
76	0x3cb6b129	0.022301273
77	0xbdea9a27	-0.114551835
78	0x3c3a06ec	0.011354189
79	0x3d688400	0.05676651
80	0xbe38b9b1	-0.18039586
81	0x3dcc8bb7	0.09987586
82	0x3dc0b077	0.09408658
83	0xbe158685	-0.14602096
84	0x3e285493	0.16438513
85	0x3e0f075e	0.13967654
86	0xbe0fb699	-0.14034499
87	0xbe2de3c5	-0.16981418
88	0xbe04c6ad	-0.12966414
89	0xbbc83295	-0.0061095455
90	0xbd6dff38	-0.058104724
91	0xbe2654a4	-0.16243225
92	0x3d6dd2fd	0.058062542
93	0xbd16e748	-0.03684166
94	0xbdf93e27	-0.12170058
95	0x3ca829fd	0.020527834
96	0x3dec6222	0.11542155
97	0x3d46bc94	0.048519686
98	0x3dba38f9	0.09092898
99	0x3d30a1d4	0.04312308
100	0xbe298601	-0.16555025
101	0xbe2793d4	-0.16364986
102	0xbd9a8d35	-0.07546464
103	0x3d0e1826	0.034691
104	0xbe1d1bb3	-0.15342598
105	0xbde2a423	-0.11066463
106	0xbe0c02fb	-0.13673012
107	0xbb935802	-0.0044965753
108	0xbe1c13d0	-0.15241933
109	0x3d0890e7	0.033341315
110	0x3d0a00dc	0.033692226
111	0xbd971986	-0.07377915
112	0xbda553db	-0.08072635
113	0x3dfffb08	0.12499052
114	0xbd09b303	-0.033617985
115	0x3da4ad94	0.0804092
116	0x3d08af87	0.03337052
117	0x3de423d4	0.11139646
118	0x3b1054a2	0.0022023101
119	0xbdfccbb9	-0.123435445
120	0x3e14d0b4	0.14532739
121	0xbbc6240a	-0.0060467767
122	0x3c2cdde2	0.010550948
123	0x3e12d737	0.1433991
124	0x3e009541	0.12556936
125	0xbe385154	-0.17999774
126	0xbe24cbf0	-0.16093421
127	0x3d5db698	0.054129213
128	0x3d9da092	0.07696642
129	0x3df709e5	0.12062434
130	0x3d137146	0.035996698
131	0x3c9a63cc	0.018846415
132	0x3e0e85ba	0.139182
133	0xbe1190dd	-0.14215417
134	0xbd066245	-0.03280856
135	0xbe246ab3	-0.16056328
136	0x3dd15140	0.10220575
137	0xbd1526d6	-0.03641399
138	0x3cd4423b	0.025910487
139	0xbd98abee	-0.07454668
140	0x3e373c27	0.1789404
141	0xbd8c8cba	-0.06862779
142	0x3cbf7d71	0.023375245
143	0x3e29afbe	0.16570947
144	0xbd0eacb2	-0.034832664
145	0x3df709d0	0.120624185
146	0x3d9a9959	0.0754878
147	0xbd811067	-0.063019566
148	0xbd9c5489	-0.07633311
149	0xbe248819	-0.16067542
150	0xbdbbeeef	-0.09176432
151	0x3d8c9295	0.06863896
152	0x3dcd0daf	0.100123756
153	0x3e2af589	0.16695227
154	0x3e168cbb	0.14702122
155	0xbd8c5cfc	-0.06853673
156	0x3c0969aa	0.008387009
157	0x3c625a20	0.013815433
158	0xbacdec78	-0.0015710732
159	0x3d0ddc2c	0.0346338
160	0xbcdf164d	-0.027232314
161	0x3d4756f8	0.048666924
162	0xbd773a93	-0.060358595
163	0x3de0d033	0.10977211
164	0x3d6dff32	0.0581047
165	0x3e1f3de0	0.15550947
166	0xbe36faca	-0.17869106
167	0x3dacf3ad	0.08444915
168	0xbdc45fcd	-0.09588585
169	0xbd8fc7f9	-0.07020564
170	0xbcdec4b0	-0.027193397
171	0x3e225817	0.15853916
172	0xbd209063	-0.039200198
173	0x3cb4b53d	0.022059077
174	0xbdaa341e	-0.08310722
175	0xbe2b4317	-0.16724811
176	0x3e165a47	0.14682876
177	0x3e29d402	0.16584781
178	0xbdef8a20	-0.11696267
179	0xbd7a8180	-0.061158657
180	0xbdcf38aa	-0.1011823
181	0x3dd0fbce	0.10204278
182	0x3e35c100	0.17749405
183	0x3cb1b23b	0.021691432
184	0xbdb10546	-0.08643584
185	0x3d526b8e	0.051372103
186	0x3dac1539	0.084024854
187	0x3c9d241f	0.019182263
188	0xbd902c46	-0.070396945
189	0x3d81e791	0.06342996
190	0x3e0b5cb9	0.1360959
191	0xbc718d0e	-0.014743103
192	0xbdc319ee	-0.0952643
193	0x3d8db595	0.069194
194	0xbce0fcff	-0.027464388
195	0x3dc76353	0.097357415
196	0x3c90d62b	0.017680248
197	0x3ca235f3	0.019801116
198	0x3dae1ef0	0.085019946
199	0x3d9f7955	0.07786814
200	0xbdcb6074	-0.09930506
201	0x3e20c158	0.15698755
202	0xbd12fb03	-0.035883915
203	0xbd85f7ef	-0.0654143
204	0x3dde4dfb	0.10854717
205	0xbe0f96f7	-0.14022432
206	0xbd770fe0	-0.060317874
207	0xbdc47780	-0.09593105
208	0xbe3003a8	-0.17188895
209	0xbd9c306e	-0.07626425
210	0xbda60ab4	-0.0810751
211	0xbd575482	-0.052570827
212	0x3d2083e7	0.039188292
213	0x3e012a31	0.12613751
214	0x3e3a6633	0.18203048
215	0xbce413ba	-0.027841438
216	0xbdc9ead3	-0.09859242
217	0xbe02312e	-0.12714073
218	0x3d718309	0.058962855
219	0x3d2f5aae	0.04281109
220	0x3ccfbe14	0.025359191
221	0x3e240720	0.16018343
222	0x3c55e430	0.013054892
223	0x3df917cf	0.12162744
224	0x3e3ac3cf	0.18238758
225	0xbd0423e4	-0.03226079
226	0xbe1aef83	-0.15130429
227	0xbe083b05	-0.13303764
228	0x3d94b80f	0.07261669
229	0xbd48e38b	-0.049045127
230	0x3e3095dc	0.17244667
231	0x3d780552	0.06055195
232	0xbe278bdb	-0.16361944
233	0xbe14102e	-0.14459297
234	0x3e2fc290	0.17164063
235	0x3e07273c	0.1319856
236	0x3df4f426	0.1196063
237	0x3d8bb0ba	0.06820817
238	0x3dfc7905	0.1232777
239	0xbddd4d4e	-0.1080576
240	0xbd8694fb	-0.065713845
241	0x3e160a78	0.14652431
242	0xbe171c62	-0.14756921
243	0x3d75f01d	0.060043443
244	0x3d3f841b	0.046756845
245	0x3d2a9002	0.041641243
246	0xbe1648d8	-0.14676225
247	0xbdb8ce55	-0.0902373
248	0x3db66ed4	0.089078575
249	0xbc94821b	-0.018128445
250	0x3e2d4903	0.16922383
251	0x3d474a8d	0.04865508
252	0xbe198d9d	-0.14995427
253	0x3d94ac1c	0.0725939
254	0x3c2529fd	0.010080812
255	0x3e297282	0.16547588

encoder_b.convs.0.bias f4 [64]
0	0x00000000	0.0
1	0x00000000	0.0
2	0x00000000	0.0
3	0x00000000	0.0
4	0x00000000	0.0
5	0x00000000	0.0
6	0x00000000	0.0
7	0x00000000	0.0
8	0x00000000	0.0
9	0x00000000	0.0
10	0x00000000	0.0
11	0x00000000	0.0
12	0x00000000	0.0
13	0x00000000	0.0
14	0x00000000	0.0
15	0x00000000	0.0
16	0x00000000	0.0
17	0x00000000	0.0
18	0x00000000	0.0
19	0x00000000	0.0
20	0x00000000	0.0
21	0x00000000	0.0
22	0x00000000	0.0
23	0x00000000	0.0
24	0x00000000	0.0
25	0x00000000	0.0
26	0x00000000	0.0
27	0x00000000	0.0
28	0x00000000	0.0
29	0x00000000	0.0
30	0x00000000	0.0
31	0x00000000	0.0
32	0x00000000	0.0
33	0x00000000	0.0
34	0x00000000	0.0
35	0x00000000	0.0
36	0x00000000	0.0
37	0x00000000	0.0
38	0x00000000	0.0
39	0x00000000	0.0
40	0x00000000	0.0
41	0x00000000	0.0
42	0x00000000	0.0
43	0x00000000	0.0
44	0x00000000	0.0
45	0x00000000	0.0
46	0x00000000	0.0
47	0x00000000	0.0
48	0x00000000	0.0
49	0x00000000	0.0
50	0x00000000	0.0
51	0x00000000	0.0
52	0x00000000	0.0
53	0x00000000	0.0
54	0x00000000	0.0
55	0x00000000	0.0
56	0x00000000	0.0
57	0x00000000	0.0
58	0x00000000	0.0
59	0x00000000	0.0
60	0x00000000	0.0
61	0x00000000	0.0
62	0x00000000	0.0
63	0x00000000	0.0

encoder_b.convs.1.weight f4 [64, 64]
0	0x3d8197f2	0.063278094
1	0xbe2f3e90	-0.1711371
2	0x3df8f445	0.12155966
3	0xbd0e4837	-0.03473684
4	0x3c8f35ab	0.017481646
5	0x3df6283b	0.12019392
6	0xbd7d166b	-0.061788958
7	0xbc9e88df	-0.019352375
8	0xbe510a0d	-0.2041399
9	0x3e4a666d	0.19765635
10	0x3e0c8852	0.13723877
11	0x3e366e1e	0.17815444
12	0x3e57eabd	0.2108564
13	0xbd037989	-0.032098327
14	0x3e4b5298	0.19855726
15	0xbe3fe784	-0.1874066
16	0xbd37ed04	-0.04490377
17	0xbe2d903b	-0.16949551
18	0xbe420b91	-0.18949725
19	0xbd83195e	-0.06401323
20	0xbe21af05	-0.15789421
21	0xbe4755c6	-0.19466314
22	0xbdbec09a	-0.093140796
23	0xbd502746	-0.050818704
24	0xbe290eaa	-0.165095
25	0xbdbd2fb6	-0.09237616
26	0x3e396678	0.18105495
27	0x3d2d05ca	0.04224185
28	0x3d52a2bf	0.051424738
29	0x3e360b83	0.17777829
30	0xbda2ede5	-0.07955531
31	0x3e363004	0.17791754
32	0xbe0d2d5f	-0.13786839
33	0xbe4f6af7	-0.20255648
34	0xbc1fe712	-0.009759681
35	0x3d45a381	0.048251633
36	0xbbb7b99f	-0.0056068446
37	0xbe45b1cb	-0.19306104
38	0x3e188b24	0.14896828
39	0xbdd0c564	-0.10193899
40	0xbdf57423	-0.11985042
41	0xbde1f476	-0.11032955
42	0xbe43a45e	-0.1910567
43	0x3e4a8b91	0.19779803
44	0xbd5c1325	-0.053729195
45	0x3d6a5950	0.05721408
46	0xbd168f3f	-0.036757704
47	0x3deb833a	0.11499639
48	0xbda0b262	-0.07846524
49	0x3deda4cf	0.116037
50	0x3e2c9c98	0.16856611
51	0xbe46fd84	-0.19432646
52	0xbddfa647	-0.10920387
53	0x3e57d4da	0.2107729
54	0xbbe65581	-0.007029236
55	0x3d2a4d5e	0.04157769
56	0xbde4c43c	-0.11170241
57	0x3e3c3b80	0.18382072
58	0xbde59492	-0.11209978
59	0x3cb20d5a	0.021734882
60	0x3da5a8b9	0.08088822
61	0xbe351661	-0.17684318
62	0x3d82534a	0.063635424
63	0xbdae94f5	-0.08524505
64	0xbe4696dd	-0.19393487
65	0xbe11f6cc	-0.14254302
66	0xbb80331d	-0.003912343
67	0xbdef3d19	-0.11681575
68	0x3dab22f7	0.083562784
69	0x3d07411a	0.03302107
70	0x3e095fad	0.13415404
71	0x3e4cce8f	0.20000671
72	0x3e1ade30	0.1512382
73	0x3e12b53a	0.14326945
74	0xbdf271cf	-0.118381135
75	0x3d77935d	0.06044327
76	0xbc3b1f70	-0.0114210695
77	0x3e197633	0.14986496
78	0xbe314a8b	-0.17313592
79	0x3e59eb8e	0.21281263
80	0xbe228103	-0.15869527
81	0xbdc3b3c2	-0.095557705
82	0x3ddb8ee3	0.10720613
83	0x3c584022	0.013198884
84	0x3d729601	0.059225086
85	0x3ca794c9	0.020456688
86	0xbe51b012	-0.20477322
87	0xbd751ef4	-0.059843972
88	0xbd6d1b7a	-0.05788753
89	0x3deac247	0.11462837
90	0x3e458c69	0.19291843
91	0x3e5a21ce	0.21301958
92	0xbe123531	-0.14278103
93	0x3d7c07eb	0.06153099
94	0xbd06e1d0	-0.032930195
95	0x3e0da586	0.13832673
96	0x3d5ff295	0.054674704
97	0x3e463f01	0.19359972
98	0x3dc69677	0.09696668
99	0x3ddc319f	0.10751652
100	0xbe58cc27	-0.21171628
101	0x3d879dc4	0.06621888
102	0x3df51c58	0.11968297
103	0xbc6f40e3	-0.014602873
104	0x3dd380cd	0.10327301
105	0x3d0c1877	0.03420302
106	0xbd9453ab	-0.07242521
107	0x3d3ef9de	0.04662501
108	0x3e3bfaf6	0.18357453
109	0xbcad6abc	-0.021169059
110	0xbaa2404f	-0.0012378785
111	0x3d5b42d0	0.053530514
112	0x3d517573	0.0511374
113	0xbd9f4add	-0.07777951
114	0x3c8a4746	0.016879689
115	0x3e00afd6	0.12567076
116	0x3c81ab06	0.01582862
117	0x3e52f740	0.20602131
118	0x3e53c6f8	0.2068137
119	0x3d767277	0.060167756
120	0x3e22da5c	0.1590361
121	0xbe1f32ad	-0.15546675
122	0x3e40b887	0.18820392
123	0xbb805938	-0.0039168857
124	0xbd951e85	-0.07281212
125	0xbdfc7af4	-0.12328139
126	0xbd9b892e	-0.07594524
127	0x3d024217	0.03180131
128	0xbd46c066	-0.04852333
129	0xbe36ae10	-0.17839837
130	0xbd7d0b67	-0.061778452
131	0xbe28b8d2	-0.16476753
132	0x3e3bdf7c	0.18346971
133	0xbce899be	-0.028393622
134	0x3e4be112	0.19910076
135	0xbdc1fa0f	-0.09471523
136	0x3dd80846	0.10548453
137	0x3dd7e39e	0.105414614
138	0xbdaa25b9	-0.08307976
139	0xbe0a1040	-0.13482761
140	0xbd02f856	-0.031975113
141	0x3db56e86	0.08858971
142	0x3d9f36b0	0.07774103
143	0x3ddaf16c	0.10690579
144	0x3cc27061	0.023735227
145	0x3d78ae42	0.06071306
146	0xba30e2bc	-0.0006747653
147	0xbc7315fc	-0.014836784
148	0xbd9e3c98	-0.07726401
149	0x3d8af5bd	0.06785152
150	0xbd447187	-0.04795983
151	0xbda4a912	-0.0804006
152	0x3e3add60	0.1824851
153	0xbdb61736	-0.08891146
154	0xbe53abed	-0.20671053
155	0xbdf62b4a	-0.120199755
156	0xbd85cb1d	-0.065328814
157	0xbe3038f8	-0.17209232
158	0xbc7ce784	-0.015436057
159	0x3d1b44c7	0.037907388
160	0xbcf966b1	-0.030444475
161	0x3dddd725	0.10832051
162	0xbdb2c948	-0.087297976
163	0x3ca0f623	0.019648617
164	0x3e321134	0.17389375
165	0x3dc1285f	0.09431528
166	0x3d8178a5	0.06321839
167	0xbd8104b8	-0.06299728
168	0xbda44f31	-0.08022917
169	0x3c95c762	0.01828355
170	0x3db232bd	0.08701084
171	0x3c40f32a	0.011776725
172	0xbe23d4e3	-0.15999179
173	0xbd8f0b5b	-0.06984588
174	0xbcc42c1c	-0.023946814
175	0x3e17cf80	0.14825249
176	0x3d6f36a8	0.058401734
177	0x3e562ef3	0.20916347
178	0x3e530e8a	0.20611015
179	0x3e3edfd0	0.18640065
180	0x3dccd289	0.10001094
181	0xbc5da2d8	-0.0135275945
182	0x3d9b5dbb	0.07586237
183	0x3cca9a96	0.024731915
184	0xbc4eec80	-0.012629628
185	0x3dfb0658	0.12257069
186	0xbe3e74bc	-0.18599218
187	0x3e3dc6d2	0.18532875
188	0x3e34d396	0.17658839
189	0xbd6ca22e	-0.057771854
190	0xbe3feab6	-0.18741879
191	0x3d83e34c	0.06439838
192	0x3df08cf1	0.117456324
193	0xbdd54244	-0.1041303
194	0x3d33778a	0.043815173
195	0x3e29f89d	0.16598745
196	0xbd98ab90	-0.07454598
197	0xbe38e35c	-0.1805548
198	0x3d8b9922	0.06816317
199	0x3c995811	0.018718751
200	0xbd643a0d	-0.055719424
201	0xbe50d8e7	-0.20395242
202	0xbe130db6	-0.14360699
203	0x3dfba45b	0.12287208
204	0x3e1e8035	0.15478595
205	0x3c52a32e	0.012856288
206	0x3d8cbe9f	0.068722956
207	0xbe5a544e	-0.21321222
208	0x3e557441	0.20845129
209	0xbe543be7	-0.20725976
210	0xbd84ccc3	-0.06484368
211	0xbda95656	-0.082684204
212	0x3c6a80fd	0.01431298
213	0xbddf8b72	-0.10915269
214	0x3e27988e	0.16366789
215	0xbe57dd83	-0.21080594
216	0xbd7463c2	-0.05966545
217	0xbc70ee8b	-0.014705311
218	0x3ad7f2bb	0.0016475538
219	0x3d779d29	0.060452614
220	0x3dd3072a	0.10304101
221	0xbd75c02c	-0.059997723
222	0x3defe9df	0.11714529
223	0x3c229581	0.00992334
224	0xbe45e92e	-0.19327232
225	0xbd870ffc	-0.06594846
226	0xbd951340	-0.07279062
227	0x3e12d0dc	0.14337486
228	0xbe5391a1	-0.20661022
229	0x3d6163f1	0.055026952
230	0x3daf7713	0.085676335
231	0xbd576297	-0.052584257
232	0xbd4c8f6b	-0.04994146
233	0xbe550431	-0.2080238
234	0xbdc76005	-0.09735111
235	0x3de71cef	0.112848155
236	0xbc3985b3	-0.01132338
237	0xbe1ee07c	-0.15515321
238	0xbde11587	-0.10990434
239	0x3ded6b9c	0.115927905
240	0x3df3b87d	0.11900423
241	0xbe48b45f	-0.19600056
242	0xbda374ea	-0.07981284
243	0x3e32abd0	0.17448354
244	0xbd1f76fa	-0.038931824
245	0xbe2198d8	-0.15780962
246	0x3cfc7d6e	0.030821528
247	0xbb6320f2	-0.0034657088
248	0xbe3c08e9	-0.18362774
249	0x3e289a23	0.16465048
250	0x3e165e4d	0.1468441
251	0x3dc24783	0.09486296
252	0x3d9b7c50	0.0759207
253	0x3df5c657	0.12000721
254	0x3e302da6	0.17204913
255	0x3e556897	0.20840679

encoder_b.convs.1.bias f4 [64]
0	0x00000000	0.0
1	0x00000000	0.0
2	0x00000000	0.0
3	0x00000000	0.0
4	0x00000000	0.0
5	0x00000000	0.0
6	0x00000000	0.0
7	0x00000000	0.0
8	0x00000000	0.0
9	0x00000000	0.0
10	0x00000000	0.0
11	0x00000000	0.0
12	0x00000000	0.0
13	0x00000000	0.0
14	0x00000000	0.0
15	0x00000000	0.0
16	0x00000000	0.0
17	0x00000000	0.0
18	0x00000000	0.0
19	0x00000000	0.0
20	0x00000000	0.0
21	0x00000000	0.0
22	0x00000000	0.0
23	0x00000000	0.0
24	0x00000000	0.0
25	0x00000000	0.0
26	0x00000000	0.0
27	0x00000000	0.0
28	0x00000000	0.0
29	0x00000000	0.0
30	0x00000000	0.0
31	0x00000000	0.0
32	0x00000000	0.0
33	0x00000000	0.0
34	0x00000000	0.0
35	0x00000000	0.0
36	0x00000000	0.0
37	0x00000000	0.0
38	0x00000000	0.0
39	0x00000000	0.0
40	0x00000000	0.0
41	0x00000000	0.0
42	0x00000000	0.0
43	0x00000000	0.0
44	0x00000000	0.0
45	0x00000000	0.0
46	0x00000000	0.0
47	0x00000000	0.0
48	0x00000000	0.0
49	0x00000000	0.0
50	0x00000000	0.0
51	0x00000000	0.0
52	0x00000000	0.0
53	0x00000000	0.0
54	0x00000000	0.0
55	0x00000000	0.0
56	0x00000000	0.0
57	0x00000000	0.0
58	0x00000000	0.0
59	0x00000000	0.0
60	0x00000000	0.0
61	0x00000000	0.0
62	0x00000000	0.0
63	0x00000000	0.0

encoder_b.convs.2.weight f4 [64, 64]
0	0xbe174787	-0.1477338
1	0x3e2f6887	0.17129718
2	0xbcbe9c33	-0.023267841
3	0x3e1880c3	0.14892869
4	0x3c0eb6cc	0.008710574
5	0xbe43bda6	-0.19115314
6	0xbe05a001	-0.13049318
7	0x3e1e7568	0.15474474
8	0xbe181df3	-0.14855175
9	0xbe20c3e5	-0.15699728
10	0x3e096250	0.1341641
11	0x3d87872f	0.06617581
12	0x3c4bdee9	0.012443283
13	0x3d1554b7	0.036457743
14	0x3e3c3522	0.18379644
15	0x3e3ee2d2	0.18641213
16	0x3e1c2168	0.15247118
17	0x3e2c423b	0.1682214
18	0xbe550474	-0.2080248
19	0xbe0a4c5b	-0.1350569
20	0x3d4a7466	0.049427412
21	0x3dba7b5e	0.09105562
22	0x3d298fa8	0.041396767
23	0x3c840fbd	0.016120786
24	0x3dd78963	0.10524251
25	0xbe51dafe	-0.20493695
26	0xbe3307b5	-0.17483409
27	0x3e08d6e0	0.13363218
28	0x3e51017f	0.20410727
29	0xbd0c7b2a	-0.034297146
30	0xbe07d845	-0.13266094
31	0x3e262836	0.16226277
32	0xbdeea41c	-0.11652395
33	0xbd92616f	-0.0714749
34	0x3e0f94c5	0.14021595
35	0x3e101af8	0.14072788
36	0xbcd36370	-0.025804251
37	0xbdc96f0c	-0.09835634
38	0xbc75f40d	-0.0150117995
39	0xbe16eb9d	-0.14738317
40	0x3e3ff621	0.18746234
41	0xbb800ebe	-0.0039080074
42	0x3ccc3899	0.024929332
43	0x3dff7df5	0.12475196
44	0xbdda8dae	-0.106715545
45	0x3e17a175	0.14807685
46	0x3e22829d	0.15870138
47	0x3e3e06cc	0.1855728
48	0xbe13f604	-0.14449316
49	0xbd51cd1c	-0.051221
50	0xbe1c76b2	-0.15279654
51	0xbc1bfcf9	-0.009520763
52	0xbd93e744	-0.07221845
53	0xbd609404	-0.05482866
54	0x3e4c01ed	0.1992261
55	0x3dc62a17	0.09675997
56	0xbe3e3756	-0.18575796
57	0x3cc9a920	0.024616778
58	0xbe29fd5d	-0.16600557
59	0xbe457588	-0.19283116
60	0xbe1bffb1	-0.15234257
61	0xbdae3b50	-0.08507407
62	0xbd81a04f	-0.063294046
63	0xbe0b320d	-0.13593312
64	0x3d1643a8	0.036685616
65	0xbcc12b14	-0.023580112
66	0x3cb02f25	0.021506855
67	0xbdec095a	-0.11525221
68	0x3ddc3732	0.10752715
69	0x3e22456b	0.15846793
70	0x3d8ddf78	0.06927389
71	0xbdd6f0e3	-0.10495164
72	0xbe259364	-0.16169506
73	0x3ddfd782	0.10929777
74	0xbe1278e0	-0.14303923
75	0x3dfa5290	0.12222779
76	0x3c91f2fd	0.017816061
77	0xbe0b4968	-0.13602221
78	0x3e37dfa7	0.1795641
79	0xbdf8a627	-0.12141066
80	0xbe4d5dc7	-0.20055304
81	0x3de77393	0.11301341
82	0xbe5a55dc	-0.21321815
83	0xbdfc999a	-0.12333985
84	0xbe084304	-0.13306814
85	0x3e40700b	0.18792741
86	0xbe01d84d	-0.12680168
87	0x3dec2bc7	0.11531787
88	0x3e190d67	0.14946519
89	0x3e22bc6a	0.15892187
90	0x3e264498	0.16237104
91	0xbe3c4481	-0.18385507
92	0x3d85afba	0.06527658
93	0x3ab2e6e3	0.0013649132
94	0x3e4fdefe	0.20299909
95	0x3e160543	0.14650445
96	0x3dd73fec	0.10510239
97	0x3ba0cd38	0.0049072765
98	0x3d7e03bc	0.06201528
99	0xbdb4733b	-0.08811041
100	0xbe49c8e1	-0.19705535
101	0xbda49916	-0.08037011
102	0xbd624939	-0.05524561
103	0x3e15d007	0.14630137
104	0xbe587e22	-0.21141866
105	0x3e5b8b29	0.21439804
106	0x3e186f83	0.14886288
107	0xbe402fac	-0.18768185
108	0xbe4d4d51	-0.20049025
109	0x3e0c092f	0.13675378
110	0x3d84e85a	0.0648963
111	0xbc048d95	-0.008090396
112	0xbc8e4158	-0.017365143
113	0xbddaa5af	-0.10676133
114	0xbe36f356	-0.17866263
115	0xbd8e1691	-0.06937898
116	0xbe54cb39	-0.20780648
117	0x3dccce0b	0.10000237
118	0xbd718f84	-0.058974758
119	0xbe00e963	-0.1258903
120	0x3d4e0d80	0.050305843
121	0xbe460761	-0.19338752
122	0x3dcd77e8	0.10032636
123	0xbd170065	-0.03686561
124	0x3e188e4d	0.14898033
125	0x3e40f95d	0.18845125
126	0xbdf8c53c	-0.121469945
127	0xbda22d42	-0.079187885
128	0xbd899b9d	-0.06719134
129	0x3dca370c	0.098737806
130	0xbdefc92a	-0.11708291
131	0x3d9e7528	0.077371895
132	0x3e22b098	0.15887678
133	0xbe2000b7	-0.15625273
134	0x3e09f1ee	0.13471195
135	0x3e44ad24	0.19206673
136	0x3ccfdb17	0.025373025
137	0x3dbce986	0.092242286
138	0x3db0101e	0.08596824
139	0x3e1b4248	0.15162003
140	0xbe4b6e0f	-0.19866203
141	0xbcde36aa	-0.027125675
142	0xbdfdeb9f	-0.12398457
143	0x3d26d295	0.04072817
144	0x3e12c709	0.14333738
145	0x3e283818	0.16427648
146	0xbc4aca6f	-0.0123773655
147	0xbc611668	-0.013738252
148	0x3e4b9bb0	0.19883609
149	0xbe2ca45e	-0.16859576
150	0x3db2e27d	0.087346055
151	0x3da6e648	0.081493914
152	0x3e5b505d	0.21417375
153	0xbcbf07a4	-0.023319073
154	0x3d42ac68	0.0475277
155	0x3df8e343	0.12152722
156	0xbe2afe52	-0.16698578
157	0xbe34dae5	-0.17661627
158	0x3d01bdf1	0.031675283
159	0xbe0a54e7	-0.1350895
160	0x3dc041ee	0.09387575
161	0x3de1a4c9	0.110177584
162	0xbe05a18a	-0.13049904
163	0xbe34cce7	-0.17656289
164	0x3c13a8b6	0.009012392
165	0xbdc240e5	-0.09485034
166	0xbc1bc77f	-0.009508013
167	0xbd6e2682	-0.058142193
168	0x3d705858	0.058678
169	0xbc39cb4e	-0.0113399755
170	0x3d399520	0.045308232
171	0x3d41ac09	0.047283206
172	0x3d842fdc	0.06454441
173	0x3da24562	0.0792339
174	0x3dc158ca	0.09440763
175	0x3e19d8f4	0.15024167
176	0xbb2545ac	-0.002521853
177	0xbc7e6476	-0.015526881
178	0xbe523569	-0.20528187
179	0x3dca1379	0.09866995
180	0x3e2cb6f9	0.16866674
181	0xbe37b696	-0.17940745
182	0xbdad6d25	-0.08468083
183	0x3e4db964	0.20090252
184	0x3c409c74	0.011756051
185	0x3b744587	0.0037272887
186	0x3e38c9fd	0.18045802
187	0xbc88df7f	-0.016708134
188	0x3dede194	0.11615291
189	0x3e15d732	0.14632872
190	0x3c538bd1	0.012911753
191	0xbe4bd13d	-0.19904037
192	0x3e1f1ef7	0.15539156
193	0x3e51d1a4	0.20490128
194	0x3e276d2e	0.16350242
195	0x3db3bd41	0.08776332
196	0x3d387849	0.045036588
197	0x3da36e59	0.079800315
198	0x3de61aa1	0.11235548
199	0xbe4da709	-0.2008325
200	0xbd92cc25	-0.07167844
201	0xbd93e4f4	-0.07221404
202	0x3d9d4a37	0.07680171
203	0xbbf847c5	-0.007576915
204	0xbcbfd16d	-0.023415292
205	0x3d5f3ba3	0.054500233
206	0x3cbc92b1	0.023019167
207	0x3e34f852	0.17672852
208	0x3e4f2ab6	0.20231137
209	0xbdd49a3b	-0.103809796
210	0x3db938e8	0.09044057
211	0xbe34a373	-0.17640476
212	0xbd380f5c	-0.044936523
213	0x3dcdfb76	0.10057728
214	0x3e280058	0.16406381
215	0xbc886818	-0.016651198
216	0x3e3b21ab	0.18274562
217	0x3d574fad	0.05256622
218	0x3e0a74ab	0.13521068
219	0x3e49578a	0.196623
220	0xbdd59a55	-0.10429827
221	0x3e2960a5	0.16540773
222	0x3e25f564	0.1620689
223	0x3c6cd810	0.01445581
224	0xbdb98509	-0.090585776
225	0x3e3db042	0.18524268
226	0xbe144479	-0.14479245
227	0x3e011a47	0.1260768
228	0x3c6a4d5a	0.014300669
229	0x3e535043	0.20636086
230	0x3c27bd54	0.01023801
231	0x3cf03884	0.029323824
232	0x3dff7fef	0.12475573
233	0xbe29b415	-0.16572602
234	0xbdfd40bb	-0.12365862
235	0x3cc51b30	0.024060816
236	0xbe241479	-0.16023435
237	0x3be0711b	0.0068494207
238	0x3d701abf	0.058619257
239	0x3deef77b	0.11668297
240	0x3bb39293	0.0054801195
241	0xbd036073	-0.032074403
242	0x3df6383d	0.12022445
243	0x3e0769e1	0.13223983
244	0x3e0f59c0	0.1399908
245	0x3d9f3759	0.077742286
246	0x3d9430f2	0.07235898
247	0x3dfc0d2c	0.123072
248	0xbd1ff0e5	-0.039048094
249	0xbe066ac1	-0.13126661
250	0x3cf1c142	0.029511098
251	0xbd99d1b7	-0.07510703
252	0x3e3496db	0.17635672
253	0x3dd7f82c	0.10545382
254	0x3e5821fd	0.21106716
255	0x3d9f584d	0.07780514

encoder_b.convs.2.bias f4 [64]
0	0x00000000	0.0
1	0x00000000	0.0
2	0x00000000	0.0
3	0x00000000	0.0
4	0x00000000	0.0
5	0x00000000	0.0
6	0x00000000	0.0
7	0x00000000	0.0
8	0x00000000	0.0
9	0x00000000	0.0
10	0x00000000	0.0
11	0x00000000	0.0
12	0x00000000	0.0
13	0x00000000	0.0
14	0x00000000	0.0
15	0x00000000	0.0
16	0x00000000	0.0
17	0x00000000	0.0
18	0x00000000	0.0
19	0x00000000	0.0
20	0x00000000	0.0
21	0x00000000	0.0
22	0x00000000	0.0
23	0x00000000	0.0
24	0x00000000	0.0
25	0x00000000	0.0
26	0x00000000	0.0
27	0x00000000	0.0
28	0x00000000	0.0
29	0x00000000	0.0
30	0x00000000	0.0
31	0x00000000	0.0
32	0x00000000	0.0
33	0x00000000	0.0
34	0x00000000	0.0
35	0x00000000	0.0
36	0x00000000	0.0
37	0x00000000	0.0
38	0x00000000	0.0
39	0x00000000	0.0
40	0x00000000	0.0
41	0x00000000	0.0
42	0x00000000	0.0
43	0x00000000	0.0
44	0x00000000	0.0
45	0x00000000	0.0
46	0x00000000	0.0
47	0x00000000	0.0
48	0x00000000	0.0
49	0x00000000	0.0
50	0x00000000	0.0
51	0x00000000	0.0
52	0x00000000	0.0
53	0x00000000	0.0
54	0x00000000	0.0
55	0x00000000	0.0
56	0x00000000	0.0
57	0x00000000	0.0
58	0x00000000	0.0
59	0x00000000	0.0
60	0x00000000	0.0
61	0x00000000	0.0
62	0x00000000	0.0
63	0x00000000	0.0
